trained_models/cvrp/XE_2/model_incumbent_vrpRl13_C_XE_2_P_0.1_98134.pt (torch_old, 469732 bytes, 15 tensors)

all_embed.embed.weight f4 [128, 4]
0	0x3f2c2e01	0.67257696
1	0xbd310928	-0.043221623
2	0x3db10f33	0.08645477
3	0x3def92a0	0.116978884
4	0xbb80bc11	-0.0039286693
5	0xbd422de0	-0.04740703
6	0xbdf2378c	-0.11827001
7	0xbdf8e9fd	-0.12154005
8	0xbdcf95b1	-0.10135973
9	0x3ed968e7	0.42462847
10	0x3e578274	0.21045858
11	0xbe2cb89d	-0.168673
12	0xbe1f1246	-0.15534315
13	0xbeb3ff16	-0.35155553
14	0xbea31bbc	-0.31857097
15	0xbe8b31ca	-0.27186424
16	0x3ecb0e6d	0.39659443
17	0x3e1c83d0	0.15284657
18	0xbe8412f3	-0.25795707
19	0xbe948d18	-0.29013896
20	0xbebba263	-0.3664733
21	0x3e5315ef	0.20613836
22	0xbe3c8ada	-0.18412343
23	0xbe262ff7	-0.16229235
24	0xbd9d8516	-0.076914
25	0x3e732f31	0.23748471
26	0xbe47c397	-0.19508205
27	0xbefa143b	-0.4884356
28	0xbdecc73c	-0.115614384
29	0xbe26fc32	-0.16307142
30	0x3c01e442	0.007927956
31	0x3c80738f	0.015680103
32	0xbe36d437	-0.17854391
33	0x3e9939dd	0.2992696
34	0x3d37826b	0.04480211
35	0xbe0d6f3d	-0.13811965
36	0x3e131e40	0.14367008
37	0x3eb727cb	0.35772547
38	0x3f1fe6e9	0.62461716
39	0x3e1f5953	0.15561418
40	0x3e32f6b2	0.1747692
41	0x3f695aac	0.9115398
42	0x3e2673f4	0.1625517
43	0xbd534fda	-0.051589824
44	0x3e2168f7	0.15762697
45	0x3e6eb1c1	0.23309995
46	0xbf59fbcb	-0.8514983
47	0xbd40acff	-0.047039982
48	0x3e82bfca	0.25536948
49	0xbe4c81ab	-0.1997134
50	0x3ef44c5e	0.47714514
51	0x3e718e6a	0.23589483
52	0xbebc582d	-0.36786023
53	0xbc80db1f	-0.015729485
54	0x3f617482	0.880684
55	0x39f77693	0.00047199856
56	0xbf004a17	-0.5011305
57	0x3f1eae41	0.6198464
58	0x3e372c9c	0.17888111
59	0x3ce46117	0.027878327
60	0x3e99daa1	0.30049613
61	0x3db2ca1e	0.08729957
62	0xbee6d2cb	-0.45082697
63	0xbeb6275a	-0.35576898
64	0x3f497383	0.7869188
65	0x3e6e6bf0	0.23283362
66	0x3e91dc5f	0.28488442
67	0xbdaacb0d	-0.0833951
68	0xbeba85dc	-0.36430252
69	0x3f21370e	0.6297463
70	0x3ee21070	0.44153166
71	0x3ea4a246	0.32155055
72	0x3e2b6a09	0.16739668
73	0x3e8086a3	0.2510272
74	0xbe970e8b	-0.29503283
75	0xbe8d87c2	-0.27642637
76	0xbc9f1e70	-0.019423693
77	0xbdf6b58e	-0.120463476
78	0xbdfbd68d	-0.12296782
79	0x3d5e4b18	0.054270834
80	0xbdc304a0	-0.095223665
81	0x3e41c581	0.18922998
82	0xbe089335	-0.13337405
83	0x3e86be99	0.2631729
84	0x3f1b769e	0.6072787
85	0xbf02edfa	-0.51144373
86	0x3dcc2f75	0.09969989
87	0x3e0fb3d4	0.14033443
88	0xbe2b87e8	-0.16751063
89	0x3f08f1c1	0.5349389
90	0xbe9aea28	-0.30256772
91	0x3e18ba5a	0.14914837
92	0x3eaeeb10	0.34163713
93	0x3f341f2b	0.7036006
94	0x3f62bcb6	0.885692
95	0xbd168e16	-0.036756597
96	0xbe3df70a	-0.18551269
97	0x3f2343a8	0.6377511
98	0x3eb675cc	0.35636747
99	0x3dc5af0b	0.096525274
100	0x3f2cf172	0.67555916
101	0x3f33e0fd	0.7026518
102	0xbd6820a0	-0.05667174
103	0xbd8be29f	-0.06830334
104	0xbdbfde7c	-0.093686074
105	0xbcb8e5ec	-0.022570573
106	0xbf2e9c9a	-0.68207705
107	0xbe756e31	-0.23967816
108	0xbbfe257e	-0.0077559343
109	0x3f28a78f	0.65880674
110	0xbedf7d3d	-0.43650237
111	0x3e9ae9a2	0.30256373
112	0x3eab0aa0	0.33406544
113	0x3e97ded5	0.29662195
114	0xbefa5775	-0.4889485
115	0x3e63f153	0.22260027
116	0x3f74f34f	0.9568376
117	0x3edaa5a6	0.42704505
118	0x3efa6e98	0.489125
119	0x3dbb5702	0.09147455
120	0x3e2f6ed4	0.17132121
121	0xbe0bb448	-0.1364299
122	0xbdc2aa97	-0.09505194
123	0xbe163f28	-0.1467253
124	0x3e3810f0	0.17975211
125	0xbefc90e7	-0.49329302
126	0xbcafc9ef	-0.021458594
127	0x3d5ec5fd	0.054388035
128	0xbe4f395e	-0.20236728
129	0x3e14c7cf	0.14529346
130	0x3e3c214c	0.18372077
131	0xbbf14b8b	-0.0073637418
132	0x3ed76bd2	0.42074448
133	0xbe5b4bb8	-0.21415603
134	0xbed0b23e	-0.40760988
135	0x3e7511e1	0.23932602
136	0xbdb5b059	-0.08871526
137	0xbe307001	-0.17230226
138	0x3e33eadc	0.1757006
139	0xbe3da85e	-0.18521258
140	0x3d75a0cc	0.0599678
141	0xbee5e80f	-0.4490361
142	0x3f0432ec	0.516402
143	0x3e8918e2	0.26776797
144	0xbe26cdad	-0.16289397
145	0xbeb76e76	-0.35826463
146	0x3ede7de0	0.4345541
147	0x3eb6046b	0.35550246
148	0xbc00c5a7	-0.007859624
149	0x3c32d103	0.01091409
150	0x3f2972c9	0.66190773
151	0x3e47b3fd	0.19502254
152	0xbe4e5189	-0.2014829
153	0xbe70ab3b	-0.23502819
154	0xbeb33e25	-0.3500835
155	0xbe489f3f	-0.19591998
156	0xbdc9a8d1	-0.09846652
157	0x3e43021e	0.19043776
158	0x3e46695d	0.1937613
159	0xbdaaa28d	-0.08331785
160	0xbf2ebca7	-0.6825661
161	0x3c444bf6	0.011981001
162	0xbe73c3a4	-0.238051
163	0x3e15c7b1	0.14626957
164	0xbe011f6d	-0.12609644
165	0x3f282d95	0.6569455
166	0xbec05edd	-0.37572375
167	0xbc04e91d	-0.008112219
168	0x3db8457e	0.089976296
169	0x3f20f32b	0.62871045
170	0x3e97c35d	0.29641238
171	0xbbe4d850	-0.0069837943
172	0xbe729a6b	-0.23691718
173	0xbe84b264	-0.2591735
174	0x3f99d87a	1.2019188
175	0x3d668660	0.056280494
176	0x3e840b2f	0.25789782
177	0xbecd1740	-0.400568
178	0x3bdf3dc2	0.006812782
179	0xbde81487	-0.1133204
180	0x3f628512	0.884843
181	0x3e75bd1f	0.23997925
182	0x3f0e42a8	0.5557046
183	0xbe3f56f0	-0.18685508
184	0xbe4edadc	-0.20200676
185	0x3e7be573	0.24599247
186	0x3eb63ff2	0.3559566
187	0xbe8efe35	-0.2792832
188	0x3f477042	0.77905667
189	0x3e882d6b	0.2659715
190	0x3e8c765c	0.2743405
191	0x3dade35f	0.08490633
192	0x3f161f0d	0.5864113
193	0x3dcef367	0.10105019
194	0xbeb34daa	-0.3502019
195	0x3e8d6679	0.27617243
196	0xbee41460	-0.44546795
197	0x3f014efd	0.5051115
198	0x3e59433a	0.21217051
199	0x3e070c02	0.13188174
200	0x3d44f108	0.048081428
201	0xbda53606	-0.08066945
202	0xbdde94dd	-0.10868237
203	0xbc85bf10	-0.016326457
204	0x3dd995ac	0.10624251
205	0x3da26ff4	0.079315096
206	0xbe14236b	-0.14466636
207	0xbd1509d0	-0.03638631
208	0x3f5e805a	0.869146
209	0x3e901a6e	0.28145164
210	0x3d662ab5	0.056193072
211	0x3e161630	0.14656901
212	0x3e1c6b84	0.15275389
213	0xbee74a06	-0.45173663
214	0x3f405d13	0.7514202
215	0xb9fed020	-0.0004860172
216	0x3ef1b6f7	0.47209904
217	0x3f3d89bc	0.7403829
218	0x3c3a5a37	0.011374048
219	0xbe0f7f52	-0.14013413
220	0xbaa93280	-0.0012908727
221	0xbd2729f0	-0.04081148
222	0xbdc87053	-0.09787049
223	0xbd4681c0	-0.048463583
224	0x3f0b621e	0.5444659
225	0x3e8406d3	0.25786456
226	0x3db47709	0.08811767
227	0x3e9e0a3c	0.30867183
228	0x3e9be867	0.30450746
229	0xbe2d7a23	-0.16941123
230	0xbefe8ef2	-0.49718434
231	0xbd9180de	-0.071046576
232	0x3d847f48	0.064695895
233	0x3eb600d5	0.3554751
234	0xbe58c3eb	-0.21168487
235	0xbec322a8	-0.38112378
236	0x3f18803c	0.5957067
237	0xbe23f07c	-0.16009706
238	0xbec73147	-0.38904783
239	0x3e895e4a	0.2682975
240	0x3e958e6a	0.29210216
241	0x3e2c4b7f	0.16825674
242	0xbeb22852	-0.34796387
243	0xbeb45029	-0.35217407
244	0x3f51f344	0.8201182
245	0x3e18b547	0.14912902
246	0x3e8285d6	0.25492734
247	0x3dcc25e8	0.099681675
248	0x3dbc12f9	0.09183306
249	0x3dc93450	0.09824431
250	0xbedfbdde	-0.43699545
251	0xbec591ea	-0.38587886
252	0x3f034907	0.51283306
253	0xbe9f38e8	-0.31098104
254	0xbc815bba	-0.015790809
255	0x3d82b409	0.06381995

all_embed.embed.bias f4 [128]
0	0xbe0b6591	-0.13612963
1	0xbe75a20b	-0.23987596
2	0x3ef8b079	0.48572138
3	0x3f0f11e4	0.55886674
4	0x3d12e145	0.035859365
5	0xbb75f26b	-0.0037528526
6	0x3e981b94	0.2970854
7	0xbd72ed54	-0.059308365
8	0x3effe450	0.49978876
9	0xbeebb29d	-0.4603471
10	0x3d246bfb	0.04014204
11	0x3ebdd412	0.3707586
12	0xbedfb81a	-0.43695146
13	0x3ea0122f	0.31263873
14	0x3ebdfc21	0.37106422
15	0x3d821e29	0.06353409
16	0x3d54d285	0.05195858
17	0xbde85bc1	-0.11345626
18	0x3b35020e	0.0027619633
19	0xbef50426	-0.47854728
20	0x3e87cbe3	0.2652274
21	0x3eb7d01d	0.35900965
22	0x3d16b505	0.036793727
23	0x3ea2fa3f	0.31831548
24	0xbc31a251	-0.010841922
25	0xbd84bd46	-0.064814135
26	0x3f2547a3	0.64562434
27	0xbe02f671	-0.12789322
28	0xbe5829dc	-0.21109718
29	0x3e7b3317	0.24531208
30	0xbee2ec60	-0.44320965
31	0x3ed00d40	0.4063511
32	0xbe9fdbd8	-0.31222415
33	0x3e6340d7	0.22192703
34	0xbe1cb2d8	-0.15302598
35	0x3dda48a4	0.10658386
36	0xbc1eb5ad	-0.00968687
37	0xbf01c51d	-0.50691396
38	0x3efb18e6	0.49042434
39	0xbe684c5a	-0.22685376
40	0x3f19c2a2	0.6006261
41	0x3e8caf16	0.2747733
42	0x3da3ce11	0.079982884
43	0x3b150a65	0.0022741791
44	0x3f143528	0.5789361
45	0x3e78f305	0.24311455
46	0x3edde14d	0.43335953
47	0xbe57fd6e	-0.2109277
48	0xbdf6849d	-0.12037013
49	0x3f004eab	0.5012004
50	0xbec79b90	-0.38985872
51	0xbee16962	-0.44025713
52	0xbe61b332	-0.22041014
53	0x3eb2bb05	0.3490831
54	0x3e50c776	0.20388588
55	0xbe230c04	-0.15922552
56	0xbf001626	-0.50033796
57	0x3ee9b83f	0.4564838
58	0x3e380cd7	0.17973648
59	0xbd66e21f	-0.05636799
60	0x3d89c565	0.06727103
61	0xbd309ca1	-0.043118123
62	0x3e8892ab	0.266744
63	0x3e33bb71	0.17551972
64	0x3e900942	0.28132063
65	0x3ea18671	0.31547883
66	0xbec69c04	-0.38790905
67	0x3d835c35	0.064140715
68	0xbe67d3f0	-0.22639441
69	0x3edbbe51	0.42918637
70	0xbeede1b2	-0.46461254
71	0x3f0a6911	0.5406657
72	0x3e94bbc8	0.29049516
73	0xbc624eb9	-0.013812714
74	0x3ee2f3dc	0.44326675
75	0x3e39d7c5	0.18148716
76	0x3ec5abf5	0.38607755
77	0x3f004b47	0.50114864
78	0xbef2f5b8	-0.47453094
79	0xbeb0813a	-0.34473592
80	0x3e0d61f3	0.13806896
81	0x3e9aa40e	0.3020329
82	0xbeed0abc	-0.46297252
83	0xbe46e588	-0.19423497
84	0x3f35ff28	0.7109246
85	0x3e6cc6a7	0.23122655
86	0xbdbbc877	-0.09169095
87	0xbeb45507	-0.3522112
88	0x3f087673	0.5330574
89	0x3df38afa	0.11891742
90	0xbec7c4d8	-0.39017367
91	0x3ec27dd7	0.37986633
92	0x3e84cb38	0.25936294
93	0x3e674c05	0.22587593
94	0x3eabbfef	0.3354487
95	0x3ed080e5	0.4072334
96	0xbe932f44	-0.28746998
97	0x3ec84155	0.39112344
98	0x3e817851	0.25287107
99	0x3dc8c6f9	0.09803576
100	0x3c807e96	0.01568536
101	0x3e38c036	0.18042073
102	0xbef0ddbd	-0.47044173
103	0xbe24af14	-0.16082412
104	0x3db97d48	0.090570986
105	0x3edd2569	0.43192604
106	0x3eef5130	0.4674163
107	0x3dc61e09	0.096736975
108	0xbe569812	-0.20956448
109	0x3ee5b7ec	0.44866884
110	0x3ee30deb	0.44346556
111	0xbe9ec1fd	-0.31007376
112	0xbd2d2e83	-0.042280685
113	0xbe2aa164	-0.16663128
114	0x3ebdd484	0.370762
115	0x3e686f27	0.22698651
116	0x3e6ac624	0.22927147
117	0xbe31c4bc	-0.17360204
118	0x3f008748	0.5020642
119	0xbdfbad24	-0.12288883
120	0x3e690d29	0.22758926
121	0xbe9afbea	-0.3027032
122	0xbe61e659	-0.22060527
123	0xbe816a4e	-0.25276417
124	0xbd8d812b	-0.069094025
125	0x3e8e79fe	0.27827448
126	0x3ef20bce	0.4727463
127	0x3e500fed	0.20318575

all_embed.embed_2.weight f4 [128, 128]
0	0xbd7e851b	-0.062138658
1	0xbcfb5370	-0.030679435
2	0xbdcc19cf	-0.0996586
3	0xbd63676e	-0.05551856
4	0xbdd3c3f0	-0.103401065
5	0xbe973e52	-0.29539734
6	0x3d48ca14	0.04902084
7	0xbe15c98c	-0.14627665
8	0xba5b9d11	-0.0008377592
9	0xbd6a73fd	-0.05723952
10	0xbdf6a415	-0.12043015
11	0xbe24e7db	-0.16104071
12	0xbe3f3662	-0.18673089
13	0x3d86ba9a	0.0657856
14	0xbe352fee	-0.17694065
15	0xb93431d4	-0.000171847
16	0x3e255bf5	0.1614836
17	0xbe8c0238	-0.27345443
18	0xbe1f36c4	-0.15548235
19	0xbdbe6d80	-0.09298229
20	0x3db25457	0.08707493
21	0x3e1f394c	0.15549201
22	0xbe235c5f	-0.15953206
23	0xbd866b75	-0.065634646
24	0xbe4f2ba1	-0.20231487
25	0xbe5095d0	-0.20369649
26	0xbd7b112b	-0.06129567
27	0xbc12750f	-0.008939042
28	0xbdf1c000	-0.11804199
29	0xbaf69b50	-0.0018814597
30	0x3dd123e2	0.10211922
31	0x3e4e532b	0.20148914
32	0xbdbb0a2a	-0.09132798
33	0x3cc02e0f	0.023459462
34	0xbdef7bf4	-0.11693564
35	0x3e004943	0.12527947
36	0x3d2c0f06	0.042006515
37	0xbe3d9a42	-0.18515876
38	0xbc0638a1	-0.008192212
39	0x3d770bd4	0.060314015
40	0x3d2d823c	0.04236053
41	0xbea8aa7d	-0.32942572
42	0xbe0d0bbd	-0.13774009
43	0x3d886994	0.066607624
44	0x3de2be5c	0.110714644
45	0xbd7fd1e9	-0.062456045
46	0xbd97dd1f	-0.074152224
47	0x3b4dd3e1	0.0031406807
48	0x3e2d2c12	0.16911343
49	0xbe48d831	-0.1961372
50	0xbda619c2	-0.08110382
51	0xbd40aa8c	-0.047037646
52	0x3d1c1a48	0.038111
53	0x3ea8ec71	0.3299289
54	0xbcd74da9	-0.026282148
55	0xbd68ba8e	-0.056818537
56	0xbdb33503	-0.087503456
57	0x3dafedd6	0.085902855
58	0xbe040ec7	-0.12896262
59	0x3e0fc6d0	0.14040685
60	0xbddf9bfc	-0.109184235
61	0x3e2c28a4	0.16812378
62	0x3d419c70	0.04726833
63	0x3e796a94	0.24357063
64	0x3e1c3553	0.15254717
65	0xbe1a458d	-0.15065594
66	0xbd72d32c	-0.05928342
67	0x3e13625c	0.1439299
68	0xbdceb6b6	-0.10093443
69	0x3e70e6ce	0.23525545
70	0xbdd9b4dc	-0.10630199
71	0x3e1d188a	0.15341392
72	0x3de10bd7	0.109885864
73	0xbd9da71b	-0.076978885
74	0xbda7545d	-0.08170388
75	0x3db3c9f8	0.08778757
76	0x3e9a986a	0.30194408
77	0xbbdba65b	-0.0067031807
78	0xbdbf51de	-0.09341787
79	0xbc946ae0	-0.018117368
80	0xbe01416b	-0.12622611
81	0x3dc57111	0.09640706
82	0xbd2372b8	-0.039904326
83	0xbe1a89f3	-0.15091686
84	0x3e878829	0.2647107
85	0xbca3b0de	-0.019981798
86	0x3e63af6a	0.22234884
87	0x3cc5a589	0.024126785
88	0xbda5bef6	-0.080930635
89	0xbe77aa26	-0.24186
90	0x3db87b18	0.09007853
91	0x3e6ef6af	0.2333629
92	0xbe9befcb	-0.30456385
93	0xbe5eedf6	-0.21770462
94	0x3dbc83bd	0.092048146
95	0xbe436494	-0.19081336
96	0x3d831c7a	0.06401916
97	0xbe5b1079	-0.21393003
98	0x3e60a2f7	0.21937166
99	0x3eae41ba	0.3403452
100	0x3d0ad013	0.03388984
101	0xbe5fc486	-0.21852311
102	0xbe579e23	-0.21056418
103	0x3d8508e6	0.06495838
104	0xbe912442	-0.28347975
105	0xbdc2396f	-0.09483611
106	0x3e4f69d0	0.20255208
107	0xbe54089f	-0.20706414
108	0xbe1f1610	-0.1553576
109	0x3e63412d	0.22192831
110	0x3d920c1a	0.071312144
111	0xbeaf0c25	-0.34188953
112	0x3c85f9c4	0.01635445
113	0x3d626a24	0.055277005
114	0x3e7ddb0f	0.24790595
115	0xbc913531	-0.017725559
116	0xbe8830a1	-0.265996
117	0x3e0f1957	0.1397451
118	0x3d299ba0	0.04140818
119	0x3dddc44a	0.10828455
120	0xbd94c396	-0.072638676
121	0x3d9abfed	0.07556138
122	0x3e925f5b	0.28588375
123	0x3e02fed2	0.12792519
124	0x3d4fa601	0.050695423
125	0x3db7ddd0	0.08977854
126	0x3cf0a11d	0.0293737
127	0xbd2091b5	-0.039201457
128	0x3e8ccb9c	0.27499092
129	0xbe1602d1	-0.14649512
130	0xbe93d1bd	-0.28870955
131	0x3e4d3524	0.20039803
132	0x3e12c07b	0.14331238
133	0x3e0ee9c3	0.1395636
134	0x3da1b3d3	0.07895627
135	0x3d98934a	0.07449968
136	0xbddfda8d	-0.10930357
137	0x3afe955d	0.0019423176
138	0xbe6c3629	-0.23067535
139	0x3e9db004	0.30798352
140	0x3e4736db	0.1945452
141	0xbe7fa51e	-0.24965331
142	0xbef6ced0	-0.4820466
143	0x3e81ed31	0.25376275
144	0xbca671d1	-0.020317944
145	0xbeb3e71d	-0.35137263
146	0x3e9f4f92	0.31115395
147	0x3deec34a	0.11658342
148	0xbc844650	-0.016146809
149	0x3e9d0088	0.30664468
150	0xbec8c302	-0.3921128
151	0xbeaeec83	-0.3416482
152	0xbec4cf80	-0.3843956
153	0xbe0e41f6	-0.1389235
154	0x3e82a255	0.25514475
155	0xbe4b1e69	-0.1983582
156	0xbeb1cf05	-0.34728256
157	0x3ca98752	0.020694409
158	0x3cd02310	0.025407344
159	0x3ebc25c5	0.36747566
160	0xbda69b93	-0.08135142
161	0x3e322dda	0.17400303
162	0x3d9e9322	0.07742907
163	0x3d1ce6b1	0.038305942
164	0x3e05f266	0.13080749
165	0x3e12fe74	0.14354879
166	0x3e91d8ff	0.28485867
167	0x3d255f56	0.040374123
168	0xbe074556	-0.13210043
169	0xbe0e1aac	-0.13877362
170	0xbee341ac	-0.4438604
171	0xbe02d157	-0.1277517
172	0x3d96dd67	0.07366448
173	0xbb617764	-0.0034403438
174	0xbe8f3348	-0.27968812
175	0x3cdc70fa	0.02690934
176	0x3e27f8a2	0.1640344
177	0xbecb7c68	-0.39743352
178	0x3d81a28c	0.063298315
179	0xbca34158	-0.01992862
180	0xbd9cef7d	-0.07662866
181	0x3d9e0f4f	0.07717764
182	0xbe8cb04a	-0.27478248
183	0x3d9cf55a	0.076639846
184	0x3d9fda0e	0.078052625
185	0x3e1aa033	0.15100174
186	0x3e888eee	0.26671547
187	0x3e85093b	0.25983605
188	0x3e03d9df	0.1287608
189	0xbda848b7	-0.08216994
190	0x3e116b74	0.14201146
191	0x3e9564f9	0.291786
192	0x3e213974	0.15744573
193	0xbe9916e0	-0.29900265
194	0x3df05c5e	0.11736368
195	0xbe2eb598	-0.1706146
196	0x3e05acef	0.1305425
197	0x3e8c1906	0.2736284
198	0x3dadd920	0.08488679
199	0x3e9b8380	0.30373764
200	0xbe992b58	-0.2991588
201	0x3eab0d1e	0.33408445
202	0xbe02ff63	-0.12792735
203	0xbe4215ab	-0.18953578
204	0x3e6b3ae7	0.22971688
205	0x3dc78fb3	0.09744205
206	0x3ce0acb0	0.027426094
207	0xbe173946	-0.14767942
208	0x3e4cef8c	0.20013255
209	0x3eeba5ae	0.4602484
210	0xbda41dc9	-0.080134936
211	0xbec46f75	-0.38366285
212	0x3c3a34db	0.011365141
213	0x3e827515	0.25479952
214	0x3e61ed1c	0.22063106
215	0xbec59cd5	-0.38596216
216	0xbe480851	-0.19534422
217	0xbf132aeb	-0.5748736
218	0xbe0e7988	-0.13913548
219	0x3ec4d3f6	0.38442963
220	0xbedac355	-0.42727152
221	0xbec04639	-0.37553576
222	0x3e418284	0.18897444
223	0xbea7194f	-0.32636496
224	0x3d93df82	0.07220365
225	0x3b4fb89f	0.0031695736
226	0x3ee24fad	0.44201413
227	0x3e9b0bab	0.3028234
228	0x3d6d1690	0.057882845
229	0xbebae508	-0.36502862
230	0xbe02ac2d	-0.12760992
231	0x3e01d049	0.1267711
232	0xbe8d8fed	-0.2764887
233	0xbefdbb5a	-0.49557
234	0x3e8e34d2	0.27774674
235	0xbe1d7cf4	-0.15379697
236	0xbe4f86fd	-0.20266338
237	0x3ecf2907	0.4046099
238	0xbe88f507	-0.2674944
239	0x3e3f0de1	0.18657638
240	0x3e8ddcdf	0.27707574
241	0xbdd18847	-0.10231071
242	0x3ea19e1c	0.3156594
243	0x3cd89929	0.02644022
244	0xbecce8aa	-0.4002126
245	0x3db6ba78	0.08922285
246	0x3e251910	0.16122842
247	0xbf075b3a	-0.52873576
248	0x3cbc26ee	0.022967782
249	0x3d856687	0.06513696
250	0xbedba13f	-0.42896459
251	0x3cd3c20b	0.025849363
252	0xbe02c25d	-0.12769456
253	0xbe74378d	-0.23849316
254	0x3ca03f83	0.019561535
255	0xbe4e0e40	-0.20122623

all_embed.embed_2.bias f4 [128]
0	0xbcb83bc6	-0.02248944
1	0xbda68799	-0.08131332
2	0x3aae39cc	0.0013292371
3	0xbc824ebd	-0.015906686
4	0xbc331f7f	-0.010932802
5	0xbe055a40	-0.13022709
6	0xba7ec656	-0.00097188854
7	0x3cf7a773	0.030231213
8	0xb9c85009	-0.00038206603
9	0x3c494628	0.012284793
10	0xbc287f78	-0.010284297
11	0xbca2a1b2	-0.019852493
12	0xbdd443e2	-0.1036451
13	0xbe214100	-0.15747452
14	0x3dd0c8ca	0.101945475
15	0xbe6888e7	-0.22708474
16	0x3cd10311	0.025514157
17	0x3e26cd08	0.1628915
18	0x3e0de227	0.13855802
19	0x3d6e75ba	0.05821774
20	0x3db98e56	0.090603516
21	0xbd9d9df4	-0.07696143
22	0x3da8f142	0.08249141
23	0x3dd18a42	0.10231449
24	0xbd9af420	-0.075660944
25	0xbe43d3d2	-0.19123772
26	0xbd72e017	-0.05929574
27	0x3e0680e8	0.13135111
28	0x3d8f8966	0.070086285
29	0xbe33caa7	-0.17557774
30	0xbcc4c6a5	-0.024020502
31	0x3d8f8592	0.070078984
32	0xbde76108	-0.11297804
33	0xbe1afcdd	-0.15135522
34	0x3c88ad9c	0.016684346
35	0xbde9c207	-0.11413961
36	0xbc8162a9	-0.015794115
37	0xbd633612	-0.055471487
38	0x3d297b1c	0.041377172
39	0xbe35d6d6	-0.17757735
40	0x3cd60049	0.026123183
41	0x3da7b15e	0.08188127
42	0xbd3786e6	-0.044806384
43	0xbc984569	-0.018587785
44	0xbcf7bfdb	-0.030242851
45	0x3d97615c	0.07391617
46	0x3c73779d	0.014860061
47	0x3dd48433	0.103767775
48	0xbe599667	-0.2124878
49	0x3d98efcd	0.07467613
50	0x3dc11837	0.09428447
51	0x3d6a0568	0.057134062
52	0x3d96c595	0.073619045
53	0xbd934471	-0.071907885
54	0xbd848ed7	-0.06472557
55	0x3c9cd936	0.019146543
56	0xbd670cdd	-0.05640875
57	0x3cc52233	0.024064159
58	0x3dd0d285	0.101964034
59	0xbd66f223	-0.056383263
60	0xbc7308a0	-0.014833599
61	0xbbc5fb6a	-0.006041934
62	0x3b8fb1a4	0.00438519
63	0x3d86b3ed	0.06577287
64	0xbe1b181d	-0.15145917
65	0xbd268a6a	-0.040659346
66	0x3e3ad607	0.18245707
67	0x3dae316f	0.085055225
68	0x3d676b3d	0.056498755
69	0x3d9e292e	0.07722698
70	0x3d4676da	0.04845319
71	0x3d50bc20	0.05096066
72	0xbd640149	-0.055665288
73	0x3e238deb	0.15972106
74	0x3d352987	0.044229057
75	0xbd8f7654	-0.07004991
76	0x3dd71a9a	0.10503121
77	0xbde308e8	-0.11085683
78	0xbd974016	-0.0738527
79	0xbd93a0a2	-0.07208373
80	0x3e1dff19	0.15429343
81	0x3d39862e	0.04529398
82	0x3d0758ed	0.03304379
83	0xbbfc0431	-0.0076909293
84	0xbe317c3b	-0.17332546
85	0xbca2890b	-0.019840738
86	0x3cd24560	0.025667846
87	0x3d8daec1	0.06918097
88	0x3d07837a	0.03308437
89	0x3e02aea1	0.12761928
90	0x3d979a87	0.074025206
91	0xbe062bfd	-0.13102718
92	0xbce57658	-0.028010532
93	0x3d82eb26	0.06392507
94	0xbdbffd55	-0.09374491
95	0x3da0fa94	0.07860294
96	0x3d3aed26	0.04563632
97	0x3d9b8fc3	0.0759578
98	0xbd25426a	-0.04034654
99	0x3dd2a2a6	0.10284929
100	0xbb0625fe	-0.0020469422
101	0xbcc18595	-0.023623267
102	0xbda21293	-0.07913699
103	0xbdbfd1b3	-0.09366169
104	0x3da869ea	0.082233265
105	0x3d6b921a	0.05751238
106	0x3dd61bf4	0.104545504
107	0x3c4d05f9	0.012513631
108	0xbcc8d8d1	-0.024517449
109	0xbdea939c	-0.114539355
110	0xbda399eb	-0.07988342
111	0xbd74eb2b	-0.059794586
112	0xbc54e9f8	-0.012995236
113	0xbc60ef8d	-0.013728988
114	0x3d1fc3ce	0.039005093
115	0xbd355702	-0.04427243
116	0xbd806e90	-0.06271088
117	0xbdc51c36	-0.096245214
118	0xbd179644	-0.03700854
119	0xbdc4c550	-0.09607947
120	0xbb9525dd	-0.004551633
121	0xbe59d9cb	-0.21274488
122	0x3e3052d3	0.17219095
123	0x3d486494	0.048924044
124	0xbe77501a	-0.2415165
125	0xbd342c4e	-0.043987565
126	0xbe0333df	-0.12812756
127	0xbe0c5032	-0.13702467

pointer.v f4 [1, 1, 128]
0	0xbf961b8a	-1.1727154
1	0x400362de	2.0529094
2	0x3e8ba3f3	0.2727352
3	0x4023aea8	2.5575352
4	0x3c91c302	0.017793182
5	0x3fddc501	1.7325746
6	0x3ffb8299	1.964923
7	0xbf29c1ef	-0.66311544
8	0x3fb18902	1.3869936
9	0x3ed27ce4	0.4111091
10	0xbf9064a7	-1.1280717
11	0x401d5c7a	2.4587693
12	0xc01d9956	-2.462484
13	0x3fbae031	1.4599668
14	0x3f299de9	0.66256577
15	0xbf9c58c5	-1.221459
16	0x3fd51833	1.664801
17	0xbfd0c980	-1.6311493
18	0xbeb00c66	-0.3438446
19	0xbe684198	-0.22681272
20	0xbf8a1c9b	-1.078998
21	0x3edc361d	0.43010035
22	0xbf92ec24	-1.1478314
23	0xbf74d110	-0.95631504
24	0x3eb9ee26	0.36314505
25	0x3fd07083	1.6284336
26	0x3f774802	0.9659425
27	0x3fef4f0d	1.8695999
28	0xbf47af44	-0.7800181
29	0x4002cf10	2.043888
30	0x3f8fb770	1.1227856
31	0xbde0edf8	-0.10982889
32	0x401f2f43	2.4872596
33	0x3edb3a94	0.4281813
34	0xbfa5702e	-1.292486
35	0x3ef09845	0.46991172
36	0x402b5796	2.6772208
37	0xbfb0c3d2	-1.380976
38	0x3fe666f9	1.8000175
39	0x3fc7da71	1.5613538
40	0x3fa79860	1.3093376
41	0xbfb8e4c9	-1.444482
42	0x3f4d4794	0.80187345
43	0xbf88bc5f	-1.0682486
44	0xbdee3c76	-0.11632626
45	0x3fbcd1e5	1.4751555
46	0xbf916dfe	-1.1361692
47	0x3fa1667b	1.26094
48	0x3ff8dceb	1.9442419
49	0x4010d040	2.2627106
50	0xbf65b642	-0.8973123
51	0x3faaee61	1.3353997
52	0xbf8c9720	-1.098362
53	0x3fc2a4bc	1.5206523
54	0x3fe62883	1.7981113
55	0x3f7cd02a	0.98755133
56	0x3f9e600f	1.2373065
57	0x3fd960cf	1.6982669
58	0xbf52bfc8	-0.82323885
59	0x3fbdc540	1.4825821
60	0xbdb931d7	-0.09042709
61	0xbf47977a	-0.7796551
62	0xbd9c179b	-0.0762169
63	0xbf05ebd3	-0.52312964
64	0x401f3dee	2.488155
65	0xbf5b0f3c	-0.8557012
66	0x3fe3dd6e	1.780195
67	0xbf6ff5c9	-0.93734413
68	0xbf5fc6be	-0.8741263
69	0x3fe65d03	1.7997135
70	0x3f5f2974	0.8717263
71	0xbeeb1caa	-0.45920306
72	0xbfc86879	-1.5656883
73	0xbf26ab7e	-0.65105426
74	0xc0283494	-2.628209
75	0x3fa4af05	1.2865912
76	0xbf71b42f	-0.94415563
77	0x3f95e655	1.1710917
78	0x3fe22eca	1.7670529
79	0x3ee309da	0.44343454
80	0xbfa75d4d	-1.3075348
81	0xbe813865	-0.25238338
82	0xc00fc8b1	-2.2466242
83	0x3fdae669	1.7101566
84	0x3fcdb849	1.6071864
85	0x40060040	2.0937653
86	0xbedf1902	-0.43573767
87	0xbf8bc7aa	-1.0920308
88	0xbea13b59	-0.3149059
89	0xbe8097ba	-0.25115758
90	0xbf2154be	-0.6301993
91	0xc042f056	-3.045919
92	0xbe83c026	-0.25732535
93	0xbec581e7	-0.3857567
94	0xbfb76986	-1.4329078
95	0xbf8aaf8e	-1.0834825
96	0xbf9efb35	-1.2420412
97	0xbf0a3116	-0.5398115
98	0x3ff16e3c	1.8861766
99	0xbf523d12	-0.82124436
100	0xbff04ed9	-1.8774062
101	0xbeddda67	-0.4333069
102	0xbfc4a026	-1.5361373
103	0xbf87e9d3	-1.0618232
104	0xbf7fb186	-0.99880254
105	0xbfa1c3e5	-1.2637907
106	0xbf71cbf8	-0.94451857
107	0xbf518903	-0.8184969
108	0x3fab3d84	1.3378148
109	0x40043122	2.0654988
110	0x4015444b	2.3322933
111	0xbfadb2b8	-1.3570166
112	0x3ee03457	0.43789932
113	0xbf85e669	-1.0460941
114	0x3f851f72	1.0400221
115	0xbf37008f	-0.7148523
116	0xbf8e8518	-1.1134367
117	0x3f85453c	1.0411754
118	0x3d0f2cfc	0.03495501
119	0x3f9f424b	1.2442106
120	0x40107d28	2.257639
121	0x3fa49b44	1.2859883
122	0xbfd377e8	-1.6520967
123	0xbfbbcfb5	-1.4672762
124	0x4000fa49	2.0152762
125	0xbf73ca46	-0.9523052
126	0x40011680	2.0169983
127	0x3f4ae0e2	0.79249394

pointer.encoder_attn.v f4 [1, 1, 128]
0	0x3e35af43	0.17742638
1	0x3de32534	0.1109108
2	0x3e7e8fb3	0.24859504
3	0x3d95e1ab	0.073184334
4	0xbd8ae98a	-0.06782825
5	0x3c4604dc	0.0120861195
6	0x3d38e210	0.045137465
7	0x3dbe0c40	0.0927968
8	0x3e21fe63	0.15819697
9	0xbe03cefc	-0.12871927
10	0x3dbe62ac	0.09296164
11	0xbd2cb542	-0.04216505
12	0xbde03dea	-0.10949309
13	0xbd79c484	-0.060978428
14	0x3bb02d65	0.005376505
15	0xbdf54c36	-0.11977427
16	0xbd1b225f	-0.037874576
17	0xbda9f26a	-0.0829819
18	0x3cf51988	0.0299194
19	0xbc4e1a28	-0.012579478
20	0x3dfd1c02	0.12358858
21	0xbe0302f6	-0.12794098
22	0xbd6d8260	-0.057985663
23	0xbd88e2ae	-0.06683861
24	0x3bdf0a7f	0.006806671
25	0xbdabd6c7	-0.08390575
26	0xbcb8d19f	-0.022560893
27	0x3de84f14	0.11343208
28	0x3da2614a	0.07928713
29	0xbd4177c3	-0.047233354
30	0xbd5aa173	-0.053376626
31	0x3b889941	0.00416866
32	0x3bd60be0	0.0065321773
33	0xbd2f989d	-0.042870153
34	0x3dadd59a	0.08488007
35	0x3b43c148	0.0029869843
36	0xbde21b5a	-0.11040373
37	0x3c6265e5	0.013818239
38	0x3d1b1e04	0.037870422
39	0xbd2cf948	-0.04222992
40	0x3d6ddd4a	0.058072366
41	0xbd33baf6	-0.04387947
42	0x3c534264	0.012894247
43	0xbe23fb42	-0.16013816
44	0xbd87b92e	-0.06627117
45	0xbd92a2db	-0.071599685
46	0x3e035aba	0.12827578
47	0x3db442ba	0.088017896
48	0xbde427ac	-0.11140379
49	0xbd8f91f8	-0.07010263
50	0x3e1a21f2	0.15052012
51	0xbd608e48	-0.05482319
52	0x3d90cbfb	0.07070156
53	0xba83a746	-0.0010044358
54	0xbe5d23cf	-0.21595691
55	0xbd971b23	-0.07378223
56	0xbe0b36c2	-0.13595107
57	0xbe356543	-0.1771441
58	0xbc64d66a	-0.013967136
59	0xbda023cc	-0.07819328
60	0x3d4c48a8	0.049873978
61	0xbd212374	-0.03934045
62	0xbe232332	-0.15931395
63	0xbda84595	-0.08216397
64	0x3d38b622	0.04509557
65	0x3d69cf88	0.057082683
66	0xbda83c96	-0.08214681
67	0x3e0b7779	0.13619794
68	0xbd86eb44	-0.06587842
69	0xbd6b9dd5	-0.057523567
70	0x3d20978c	0.039207026
71	0xbe1972c6	-0.14985189
72	0xbddbbfb5	-0.107299246
73	0xbd877640	-0.06614351
74	0x3e22afb9	0.15887345
75	0x3dfb9a1d	0.12285254
76	0x3d272940	0.040810823
77	0xbdd21283	-0.10257437
78	0x3bce968b	0.006304567
79	0x3c5bb6ea	0.013410309
80	0x3ceab7af	0.02865204
81	0xbd5f4eb2	-0.05451841
82	0x3e298ba7	0.1655718
83	0x3d9dcfaf	0.07705628
84	0xba32c989	-0.0006820192
85	0x3de6107a	0.112336114
86	0xbe0caef7	-0.13738619
87	0x3d0344cd	0.032048035
88	0x3df8318c	0.12118825
89	0x3e1066eb	0.1410176
90	0xbad4ccf1	-0.0016235394
91	0x3d8acaa9	0.067769356
92	0xbe262db6	-0.16228375
93	0xbded828b	-0.11597165
94	0x3dd96024	0.106140405
95	0x3d0cd335	0.03438111
96	0xbd797749	-0.060904775
97	0x3da9ea62	0.08296658
98	0x3afcf2a8	0.0019298391
99	0x3dc9cf8d	0.0985404
100	0x3e0b4e14	0.13604003
101	0xbe12f4fc	-0.14351267
102	0xbe084743	-0.13308434
103	0xbcfb3839	-0.030666457
104	0x3d99bad8	0.07506341
105	0x3cc07ae6	0.023496103
106	0x3e4a5627	0.19759427
107	0xbc84f586	-0.016230356
108	0xbdf6299f	-0.12019657
109	0x3da3e9e5	0.08003596
110	0xbd6dde6c	-0.058073446
111	0x3dd8afd5	0.10580412
112	0x3de7a1d4	0.11310163
113	0xbdb39e01	-0.08770371
114	0xbabc5927	-0.0014369831
115	0xbddc1b29	-0.10747368
116	0x3d9267ff	0.07148742
117	0xbd2cea9c	-0.04221593
118	0xbe01a4aa	-0.1266047
119	0x3d46d733	0.048545074
120	0x3cbc9e55	0.023024717
121	0xbd5450f4	-0.051835015
122	0x3e0891c6	0.13336858
123	0xbe055537	-0.13020788
124	0x3c67d899	0.014150762
125	0xbd174e23	-0.03693975
126	0x3d0d8e24	0.034559384
127	0xbdb8b2a6	-0.090184495

pointer.encoder_attn.W f4 [1, 128, 256]
0	0xbda24ce3	-0.07924821
1	0xbd837d58	-0.06420392
2	0xbd50bebc	-0.05096315
3	0xbd5ea672	-0.054357953
4	0xbc4e2ec5	-0.012584393
5	0xbdc138dd	-0.09434674
6	0xbdc74042	-0.09729053
7	0x3ddb6bc6	0.107139155
8	0xbc7c40f4	-0.015396345
9	0x3ab77790	0.0013997424
10	0x3d87c088	0.06628519
11	0xbdaf88a8	-0.08570987
12	0x3c0cab0b	0.008585702
13	0x3d12f503	0.035878193
14	0x3d151870	0.03640026
15	0xbccd09dd	-0.025029117
16	0x3d432e69	0.047651682
17	0x3d8568e0	0.06514144
18	0x3d996d02	0.07491495
19	0x3d715f0c	0.058928534
20	0x3de17e59	0.11010427
21	0xbdbf2a6f	-0.093342654
22	0x3d420ade	0.047373645
23	0xbd45732e	-0.048205547
24	0xbd9e47b2	-0.077285185
25	0xbc5d5b18	-0.013510488
26	0xbda991c0	-0.08279753
27	0x3cf10e42	0.029425744
28	0x3e07a2ba	0.13245669
29	0xbe29e1ee	-0.16590092
30	0x3cbece32	0.023291681
31	0xbbfbbfe5	-0.0076827877
32	0xbdbfca3c	-0.09364745
33	0xbddaf5ec	-0.10691437
34	0x3d6bcf76	0.057570897
35	0xbdcef8d0	-0.10106051
36	0xbd4ebaf0	-0.050471246
37	0x3cc1f2b3	0.023675298
38	0x3d2ba3ae	0.041904144
39	0xbd1795b2	-0.037007995
40	0x3c06266f	0.008187874
41	0xbc53eff3	-0.012935626
42	0x3bd61b89	0.006534044
43	0x3bac9925	0.0052672797
44	0x3e06c718	0.13161886
45	0x3ccddaaf	0.02512869
46	0xbc2b5367	-0.010456896
47	0x3ca61de4	0.020277925
48	0xbc8c070f	-0.01709321
49	0x3d2f2057	0.04275545
50	0xbc1f5d74	-0.009726871
51	0xbd2c080c	-0.04199986
52	0x3d2c9d68	0.0421423
53	0xbca97b50	-0.020688683
54	0xbdd34586	-0.10315995
55	0x3d00261d	0.031286348
56	0x3ce26726	0.027637076
57	0x3c1fa22c	0.009743255
58	0x3dc82f32	0.09774627
59	0x3d27c57a	0.040959813
60	0xbd1f6ed3	-0.03892405
61	0x3d9f96a4	0.07792404
62	0xbd049ef5	-0.032378156
63	0x3d8f8943	0.070086025
64	0xbd812846	-0.0630651
65	0x3d44f8a3	0.04808868
66	0x3d1cd051	0.038284604
67	0x3df2fbd5	0.118644394
68	0x3d163e07	0.036680248
69	0x3bde7d7b	0.006789861
70	0x3cc751bc	0.024330966
71	0x3d48a334	0.048983768
72	0xbc07557d	-0.008260128
73	0x3dec43e6	0.11536388
74	0xbd20eabc	-0.03928636
75	0xbbc6225a	-0.0060465755
76	0xbdc2d174	-0.09512606
77	0x3c940e10	0.018073112
78	0xbc7ecb9c	-0.015551474
79	0xbd679eac	-0.056547806
80	0x3e057521	0.13032962
81	0x3de9f11e	0.114229426
82	0x3d2d896f	0.042367395
83	0x3d643d54	0.05572255
84	0x3d0cd91c	0.03438674
85	0x3c85bdfd	0.016325945
86	0x3cbf0aae	0.023320522
87	0x3dcfb644	0.10142186
88	0xbc697ea8	-0.014251389
89	0x3e0145da	0.12624303
90	0xbc859bd4	-0.016309656
91	0x3ba19367	0.004930902
92	0x3df18901	0.117937095
93	0x3d1bc406	0.03802874
94	0x3d416160	0.047212005
95	0x3e089903	0.1333962
96	0x3cebad9d	0.028769309
97	0xbb385543	-0.0028126992
98	0x3d67a7e6	0.056556605
99	0x3b4def62	0.00314232
100	0x3d463f2c	0.04840009
101	0x3ccbb18c	0.024864934
102	0xbd0d0189	-0.034425292
103	0xbce1c14b	-0.02755799
104	0xbb468f73	-0.0030297905
105	0x3d9e0a7d	0.07716844
106	0x3dcfe255	0.10150591
107	0xbc9ae932	-0.018910024
108	0xbc9e12b8	-0.019296035
109	0xbd6160c6	-0.05502393
110	0xbbebbdf9	-0.0071942774
111	0x3ab662fb	0.0013914997
112	0xbdb08fe3	-0.08621194
113	0xbdbf5b08	-0.09343535
114	0xbd2aef1c	-0.04173194
115	0xbc8979f3	-0.016781783
116	0xbd1eca53	-0.03876717
117	0x3c316eef	0.010829671
118	0xbdc7030f	-0.0971738
119	0x3c9608d3	0.018314755
120	0x3cfb3267	0.030663682
121	0xbd7727f6	-0.060340844
122	0xbcd5309d	-0.026024157
123	0xbd1fa6d8	-0.038977474
124	0x3d46863d	0.048467863
125	0x3b98c5c7	0.004662249
126	0x3d1b15a9	0.037862454
127	0xbc07ffdd	-0.008300749
128	0x3e013d98	0.12621152
129	0x3db66a10	0.089069486
130	0x3d9120e3	0.07086351
131	0x3a3f1914	0.0007289809
132	0x3d7787f7	0.0604324
133	0x3dc57f28	0.09643394
134	0xbce4358e	-0.027857568
135	0x3e8e81a0	0.2783327
136	0x3df598e5	0.11992053
137	0x3b62b1d3	0.0034590855
138	0x3c521cdb	0.0128242625
139	0x3e345ada	0.17612782
140	0xbbb40080	-0.0054932237
141	0xbe25920d	-0.16168995
142	0xbc9398a5	-0.018017123
143	0xbd8f5ef0	-0.0700053
144	0x3df27d8a	0.11840351
145	0x3d3df733	0.046378326
146	0xbe09b290	-0.13447022
147	0xbd966776	-0.07343952
148	0xbd80e6d0	-0.06294024
149	0x3c9b2f5f	0.018943487
150	0x3dc15f64	0.094420224
151	0x3e6193f6	0.22029099
152	0xbde06311	-0.109563954
153	0x3ce63fcb	0.02810659
154	0x3e07584b	0.13217275
155	0x3e20d934	0.15707856
156	0x3da44ba6	0.08022241
157	0x3dbf99f7	0.09355538
158	0x3d72a9e5	0.059244055
159	0x3e2c8b07	0.1684991
160	0xbd7cb300	-0.061694145
161	0xbd82e5c0	-0.063914776
162	0x3e3b2f97	0.18279873
163	0xbe13bddf	-0.14427899
164	0x3d4681b9	0.048463557
165	0x3dcda7c2	0.10041763
166	0xbccc8ed4	-0.02497045
167	0x3dde2f7b	0.108489
168	0xbd29edcc	-0.041486546
169	0x3ead2749	0.33819035
170	0xbdc86080	-0.09784031
171	0xbcf8ddb4	-0.030379154
172	0xbca916b9	-0.020640718
173	0xbd0bf92a	-0.03417317
174	0x3d91d527	0.07120734
175	0xbe0a140c	-0.1348421
176	0xbe0a2e4f	-0.13494228
177	0x3d0f4529	0.034978066
178	0x3d942e71	0.072354205
179	0xbd94692f	-0.07246625
180	0xbe27a800	-0.1637268
181	0xbd85ffb4	-0.06542912
182	0x3e1549a2	0.1457887
183	0x3da9ebf8	0.082969606
184	0xbd750d86	-0.05982735
185	0xbd1c8d89	-0.038220916
186	0xbb80d770	-0.003931932
187	0xbd5d424c	-0.054018304
188	0xbd0bc6d6	-0.03412517
189	0x3d96259a	0.07331391
190	0x3da8446d	0.08216176
191	0x3c1d84b8	0.009614162
192	0xbceb08f1	-0.028690787
193	0x3d829511	0.063760884
194	0x3df9c9e2	0.12196709
195	0x3d72a4e7	0.059239294
196	0xbdbf2269	-0.09332735
197	0x3be70fc5	0.0070514404
198	0xbe0cfbf7	-0.13767992
199	0x3c89a905	0.016804228
200	0xbb74b954	-0.003734191
201	0x3e11e272	0.14246538
202	0xbcc6f340	-0.024285913
203	0xbc83a740	-0.016070962
204	0x3c435c66	0.011923885
205	0xbcd6823d	-0.02618515
206	0x3e93bd29	0.28855255
207	0x3d54e322	0.051974423
208	0x3e3556ee	0.17708942
209	0x3e8060d6	0.2507388
210	0xbccfac98	-0.025350854
211	0x3bec1585	0.0072047138
212	0xba84f54c	-0.0010143905
213	0x3dcef360	0.10105014
214	0xbcdb2e96	-0.026755612
215	0x3d05e570	0.03268951
216	0xbdc1212b	-0.094301544
217	0x3c959360	0.01825875
218	0x3d02d688	0.031942874
219	0x3d6d1638	0.057882518
220	0xbb58ae1a	-0.0033062757
221	0x3d833ef5	0.064084925
222	0x3dda1854	0.106491715
223	0x3d53d411	0.051715914
224	0xbdc64e71	-0.0968293
225	0x3d43b455	0.0477794
226	0x3daf0033	0.0854496
227	0xbdb336a5	-0.08750657
228	0xbe0a223b	-0.1348962
229	0xbd4a0e37	-0.049329963
230	0xbd8e39d7	-0.06944626
231	0xbc2dcaa7	-0.010607398
232	0x3e72e4be	0.2372007
233	0x3cb307d6	0.021854322
234	0x3dfda908	0.12385756
235	0xbd392609	-0.04520229
236	0x3db60b27	0.08888846
237	0xbdcc796f	-0.09984099
238	0x3d3a2006	0.045440696
239	0xbdb9f83a	-0.090805486
240	0x3d92f0ff	0.071748726
241	0x3d3c1e6d	0.045927454
242	0xbe377f4b	-0.17919652
243	0xbda90324	-0.08252552
244	0x3d6c2505	0.057652492
245	0x3dd448ee	0.10365473
246	0xbe653e2c	-0.22386998
247	0x3d980160	0.07422137
248	0x3cb6bec1	0.022307755
249	0xbd806f74	-0.06271258
250	0x3e1f98ef	0.15585683
251	0xbdeec4bd	-0.116586186
252	0xbceb04b9	-0.028688775
253	0xbd4085de	-0.047002666
254	0xbd77379e	-0.060355775
255	0xbdf0db37	-0.11760562

pointer.fc1.weight f4 [128, 256]
0	0xbe15e226	-0.1463705
1	0xbca73814	-0.020412482
2	0xbe2ac0f1	-0.16675164
3	0xbd02d38a	-0.03194002
4	0xbdf005c0	-0.11719847
5	0xbdbb5f1f	-0.09149002
6	0x3d2cb956	0.042168938
7	0x3d355d52	0.04427845
8	0xbd8761cc	-0.0661045
9	0x3e03b8d0	0.12863469
10	0x3d9a2f42	0.07528545
11	0xbcf6f172	-0.030144427
12	0x3ac84656	0.0015279751
13	0x3bd930c2	0.006628127
14	0x3e3b6417	0.182999
15	0xbdf121af	-0.11774003
16	0x3dc50a46	0.096211
17	0xbe06e17d	-0.13171954
18	0x3be7cee2	0.007074223
19	0x3d5e6cd9	0.054303024
20	0x3cfdbd6a	0.030974109
21	0xbd3245e1	-0.043523673
22	0xbc7b8622	-0.015351804
23	0xbe3d4b10	-0.18485665
24	0xbc57d99c	-0.013174441
25	0x3d4ef95c	0.050530776
26	0xbdec9f31	-0.11553801
27	0x3dde614d	0.108584024
28	0xbdf7c85e	-0.12098764
29	0xbcee3bd0	-0.029081255
30	0x3d3af11d	0.0456401
31	0xbdc5ced6	-0.096585914
32	0x3deafa84	0.11473563
33	0x3d1a6357	0.037692394
34	0xbd204c3e	-0.03913521
35	0x3da73df2	0.08166112
36	0x3df584f1	0.11988247
37	0x3c0b2609	0.008492955
38	0xbcf07c63	-0.029356187
39	0x3c41901f	0.011814146
40	0xbda88b44	-0.08229688
41	0xbcb75034	-0.022377111
42	0x3cbd23e3	0.023088401
43	0x3d5dc6ae	0.054144554
44	0x3cdb5c99	0.026777552
45	0xbc4c40bd	-0.012466607
46	0xbe0a3502	-0.13496783
47	0x3d9d0d6c	0.07668576
48	0xbdb9057b	-0.090342484
49	0x3d625561	0.055257205
50	0xbb0691af	-0.0020533612
51	0xbd2141d6	-0.039369427
52	0x3d5ce66a	0.053930677
53	0xbe1690d2	-0.14703682
54	0xbd3bef5f	-0.04588258
55	0x3d8a5d5a	0.06756087
56	0x3c06c69a	0.008226061
57	0x3da9ee32	0.08297385
58	0x3e0432f5	0.12910064
59	0xbd9f58d5	-0.07780615
60	0x3de9288e	0.11384688
61	0xbd4ccc8f	-0.04999977
62	0xbd808bcd	-0.06276665
63	0x3cbcc2df	0.02304214
64	0xbdc0a240	-0.09405947
65	0x3c8a174d	0.016856814
66	0xbd875afd	-0.066091515
67	0x3d4f98f8	0.05068299
68	0xbc9fce66	-0.019507598
69	0x3e2cea34	0.16886216
70	0x3d6c3d14	0.057675436
71	0x3d23af39	0.039962027
72	0x3e13a064	0.14416653
73	0xbdeea5c1	-0.11652709
74	0x38fb2e09	0.000119771874
75	0xbe22bff6	-0.1589354
76	0x3d30a568	0.043126494
77	0xbc4a8b0c	-0.012362253
78	0xbad27b95	-0.0016058559
79	0x3a9588dd	0.0011408586
80	0x3d943d86	0.07238297
81	0xbe0a17bd	-0.13485618
82	0x3aa53240	0.0012603477
83	0x3d85a849	0.065262385
84	0x3d106251	0.03525001
85	0x3da6f851	0.08152831
86	0x3d44292a	0.04789082
87	0x3d854608	0.06507498
88	0xbcf844c1	-0.030306222
89	0xbd550106	-0.05200293
90	0x3d0b8428	0.03406158
91	0xbde031c9	-0.10946996
92	0xbdd47dfb	-0.10375591
93	0xbc0e0e1b	-0.008670355
94	0x3caac5f4	0.020846345
95	0xbd89182f	-0.06694066
96	0x3d7c49e1	0.061593894
97	0x3c3cbf17	0.011520169
98	0x3de5e9aa	0.112262085
99	0xbb615933	-0.0034385442
100	0xbde9098a	-0.113787726
101	0x3c8b0640	0.016970754
102	0xbbed31ac	-0.0072385874
103	0xbd569c30	-0.052395046
104	0x38351ec2	4.318241e-05
105	0xbd3552a3	-0.04426826
106	0x3c14f895	0.00909247
107	0x3decc3fd	0.11560819
108	0x3c93e319	0.018052625
109	0xbd757407	-0.059925105
110	0x3bab7a69	0.0052330983
111	0xbd57b8ba	-0.052666403
112	0xbccb6e28	-0.0248328
113	0xbc90c25e	-0.017670806
114	0xbd737858	-0.05944094
115	0x3dfedafe	0.12444113
116	0x3dba55de	0.09098409
117	0xbbf72242	-0.0075419256
118	0x3d95e670	0.07319343
119	0xbcd130ef	-0.025536029
120	0x3d572a27	0.052530434
121	0x3d2f3a43	0.042780172
122	0xbdfae241	-0.12250186
123	0x3c7994bf	0.015233218
124	0x3d7ba841	0.061439756
125	0x3d2f787a	0.042839505
126	0xbcaa319c	-0.020775609
127	0x3e001b81	0.12510492
128	0xbdb3cefe	-0.08779715
129	0x3dce8985	0.100848235
130	0x3dcba99e	0.09944461
131	0xbc799173	-0.015232432
132	0x3e793d04	0.24339682
133	0x3d74dd54	0.059781387
134	0x3dae34a9	0.08506138
135	0xbdbcc255	-0.092167534
136	0x3c876597	0.016527934
137	0xbe18b94e	-0.14914438
138	0xbe1ea00d	-0.15490742
139	0x3c7f9eb3	0.015601802
140	0x3b9e0a75	0.004823024
141	0xbd652605	-0.05594446
142	0xbcb47878	-0.0220301
143	0x3e7560ef	0.23962758
144	0xbdaa0d49	-0.08303315
145	0xbd40d823	-0.047081124
146	0xbbbb6d16	-0.005719791
147	0xbdd7071a	-0.104994014
148	0xbd9057ea	-0.07048018
149	0x3de4e718	0.1117689
150	0x3dc46c4d	0.09590969
151	0xbd7e6f8a	-0.06211809
152	0xbdb6b343	-0.0892091
153	0x3e1171aa	0.14203516
154	0xbc021e6d	-0.007941824
155	0x3ca66b12	0.020314727
156	0xbe078954	-0.1323598
157	0xbd03b082	-0.032150753
158	0xbe04b4bb	-0.12959568
159	0xbe5864de	-0.21132228
160	0xb81f88ee	-3.803608e-05
161	0x3d733420	0.059375882
162	0x3ddf7f2d	0.10912929
163	0x3d944e74	0.07241526
164	0xbdaa229a	-0.08307381
165	0x3da00975	0.07814304
166	0x3bfa17ec	0.0076322462
167	0x3bc6c53c	0.0060659926
168	0xbda7189b	-0.0815899
169	0xbd958659	-0.073010154
170	0xbc999657	-0.018748445
171	0x3bed75ad	0.007246694
172	0x3d72013e	0.059083216
173	0x3dd579e3	0.10423639
174	0xbd818c63	-0.06325605
175	0xbd77d13b	-0.060502272
176	0xbc8bfc69	-0.017088132
177	0xbece02e9	-0.40236595
178	0xbe38fd9e	-0.18065497
179	0xbdf19f83	-0.117980026
180	0x3d3f221d	0.046663392
181	0x3ceff78b	0.029292842
182	0xbd625678	-0.055258244
183	0xbd0526db	-0.03250776
184	0xbdb79963	-0.08964803
185	0x3e44a010	0.19201684
186	0x3e12002f	0.14257883
187	0xbdc0bad6	-0.09410636
188	0xbea3026c	-0.31837785
189	0x3d351229	0.044206772
190	0xbc3d13c0	-0.011540353
191	0x3cb3a5c8	0.021929637
192	0x3db1b5aa	0.08677228
193	0x3e5f71a4	0.21820694
194	0xbd7580f4	-0.059937432
195	0x3da8a955	0.082354225
196	0xbd7ca2de	-0.06167876
197	0xbd791e84	-0.060820118
198	0xbd863761	-0.065535314
199	0x3d50b211	0.050951067
200	0x3e075071	0.1321428
201	0xbe1b93b6	-0.15193066
202	0x3d9ca77d	0.07649133
203	0x3daad3c1	0.0834117
204	0xbc816fef	-0.015800444
205	0x3ca824bc	0.020525329
206	0xbd2d679f	-0.04233515
207	0xbd81f7fd	-0.06346128
208	0x3c9d8d94	0.019232549
209	0xbdd3b015	-0.10336319
210	0x3e710ab2	0.23539236
211	0xbd43f3d4	-0.047839954
212	0xbdb54381	-0.08850766
213	0x3d385da9	0.045011196
214	0x3d83ef9a	0.06442185
215	0xbc055c6e	-0.008139713
216	0xbd316f0a	-0.043318786
217	0xbe1ffcd0	-0.15623784
218	0xbdd0a799	-0.10188217
219	0xbd52e46a	-0.051487364
220	0xbd16458e	-0.036687426
221	0xbdabb33e	-0.08383797
222	0x3db0f371	0.08640183
223	0xbe218d41	-0.1577654
224	0x3d94c44d	0.07264004
225	0x3dcd4653	0.10023179
226	0xbe155a2a	-0.14585176
227	0x3dbb5527	0.09147101
228	0x3d9cd284	0.0765734
229	0xbd7fc584	-0.062444225
230	0x3e0df518	0.13863027
231	0xbe003347	-0.12519561
232	0xbdbb2891	-0.09138597
233	0x39830ba4	0.0002499494
234	0xbd113f12	-0.03546054
235	0xbe050f16	-0.12994036
236	0xbd1c7b32	-0.038203426
237	0xbd2bc5b1	-0.04193658
238	0x3d8b45bf	0.068004124
239	0x3dfc1eae	0.12310539
240	0xbd12afee	-0.03581231
241	0x3df5cbf9	0.12001795
242	0xbe43f8c2	-0.19137862
243	0xbd9791e6	-0.07400875
244	0xbdd5aea3	-0.104337
245	0x3d3ab0cb	0.04557876
246	0xbe9199f2	-0.28437763
247	0xbd3f2967	-0.046670344
248	0xbd57759e	-0.052602403
249	0x3ad454f5	0.0016199636
250	0xbd8dfcf3	-0.06933012
251	0x3c15af2e	0.009136004
252	0xbd55d98f	-0.052209433
253	0x3ce77fba	0.028259147
254	0xbd209126	-0.039200924
255	0x3e0bfcc8	0.13670647

pointer.fc1.bias f4 [128]
0	0x3d33fd8f	0.043942984
1	0x3cff2f4b	0.03115048
2	0xbc34ca6c	-0.011034589
3	0x3bde5570	0.0067850873
4	0x3c4d58ab	0.012533347
5	0x3ca5be56	0.02023236
6	0xbcbf5cf9	-0.023359763
7	0x3cbab37f	0.022790669
8	0xba99397b	-0.0011690104
9	0x3bc81875	0.006106431
10	0xbd032115	-0.03201397
11	0xbd9564c8	-0.07294613
12	0x3d86ea1c	0.065876216
13	0x3cb31ee8	0.021865323
14	0x3d7de416	0.061985098
15	0xbccaf0cd	-0.024773026
16	0xbd3c8d46	-0.046033166
17	0x3cc978cd	0.024593735
18	0x3d777ed5	0.06042369
19	0xbca576b3	-0.020198202
20	0x3cd719e0	0.026257455
21	0x3d996c46	0.07491355
22	0xbd7954c7	-0.060871866
23	0xbce2d510	-0.027689487
24	0xbc4c87c1	-0.012483538
25	0x3d3b61a1	0.045747403
26	0x3d671cc3	0.056423914
27	0x3da36464	0.07978132
28	0x3d1d51b5	0.038408
29	0xbd499185	-0.049211044
30	0xbd751c78	-0.059841603
31	0x3cc6d543	0.024271613
32	0x3a8c2f15	0.0010695184
33	0xbd1768eb	-0.036965292
34	0x3dbe8395	0.09302441
35	0xbc8701e1	-0.016480388
36	0x3c0b4db9	0.008502417
37	0xbd057578	-0.03258273
38	0x3bb35ead	0.0054739327
39	0xbc852f4c	-0.016257904
40	0xbd98e421	-0.07465387
41	0x3d6ce90a	0.05783943
42	0xba2ae7ca	-0.00065195246
43	0x3d5037e4	0.05083455
44	0xbd219b88	-0.039454967
45	0x3cfd0916	0.030888122
46	0xbd8e515b	-0.06949111
47	0x3d6cb3e2	0.057788737
48	0x3b0c7301	0.0021430852
49	0xbd0899d0	-0.033349812
50	0x3c99c66b	0.01877137
51	0x3cc1df94	0.02366618
52	0x3c59cb39	0.013293081
53	0x3d1506fe	0.03638362
54	0x3caec51d	0.021334225
55	0xbd3b213e	-0.045686
56	0xbd221e6e	-0.0395798
57	0xbb9c2fa6	-0.0047664223
58	0x3cd000e7	0.025391055
59	0x3d112591	0.035436217
60	0xbc624b24	-0.01381186
61	0x3d7fd763	0.06246127
62	0x3d09cb8e	0.03364139
63	0xbd313d52	-0.04327137
64	0xbd0a7905	-0.03380682
65	0x3b6a204e	0.0035724822
66	0xbce4484b	-0.027866503
67	0x3d8b9aa4	0.06816605
68	0x3d010cd6	0.031506382
69	0x3d94f110	0.072725415
70	0x3d75dc47	0.060024526
71	0x3cf8c73a	0.030368436
72	0x3d099db5	0.033597667
73	0xbd2c3486	-0.042042278
74	0xbd6055f0	-0.054769456
75	0xbd4c990d	-0.049950648
76	0xbd933b1d	-0.07189009
77	0x3b14a325	0.002268025
78	0xbcffdcb5	-0.031233171
79	0xbd4be46c	-0.049778387
80	0xbbbf0d4f	-0.005830444
81	0x3cde547c	0.027139895
82	0xbb9cc28c	-0.004783934
83	0xbbb2bfa7	-0.0054549756
84	0xbd69cbc9	-0.05707911
85	0x3d883dd2	0.06652416
86	0xbc73f803	-0.014890674
87	0xbd706572	-0.058690496
88	0x3993a203	0.00028158733
89	0x3cf5a84f	0.029987482
90	0x3d712fb5	0.058883388
91	0x3c9cf58c	0.019160055
92	0x3caa1682	0.020762686
93	0xbd8a0008	-0.06738287
94	0x3c9f9f5e	0.019485172
95	0x3d8caeeb	0.068693005
96	0x3d024ca2	0.031811364
97	0xbcb41781	-0.021983864
98	0xbcf9f086	-0.030510198
99	0x3bf4c2d1	0.007469513
100	0x3d162de0	0.036664844
101	0x3d1ba626	0.03800025
102	0x3a1d51d3	0.00060012675
103	0x3d86532a	0.06558831
104	0xbd279404	-0.040912643
105	0x3d902e70	0.07040107
106	0x3dafa893	0.08577075
107	0x3c96b464	0.018396564
108	0x3d67f87c	0.056633458
109	0xbbcd0411	-0.0062565883
110	0xbd0fa535	-0.035069663
111	0xbbeee5b6	-0.0072905673
112	0xbcc1e707	-0.023669733
113	0xbcb027ca	-0.021503348
114	0x3d7486a8	0.05969873
115	0x3b0b1930	0.002122473
116	0xbccffc25	-0.025388787
117	0xbcd34a44	-0.025792249
118	0x3c95067c	0.018191569
119	0xbd35d0ee	-0.044388704
120	0xbd84dc05	-0.06487278
121	0xbc840133	-0.016113853
122	0xbbcea515	-0.0063063004
123	0xbd29effe	-0.04148864
124	0xbc7c5c66	-0.015402889
125	0xbb1fd2f3	-0.002438721
126	0x3c9871af	0.018608896
127	0xbda7197f	-0.0815916
