trained_models/cvrp/XE_12/model_incumbent_vrpRl13_C_XE_12_P_0.1_71834.pt (torch_old, 469732 bytes, 15 tensors)

all_embed.embed.weight f4 [128, 4]
000000 2b 92 44 be 76 12 42 3f fa 5d b7 3e 74 0f fa 3d
       -0.19196384 0.7580942 0.35813886 0.12209979
000010 f4 4d 04 3e be 71 61 3d 62 46 e8 3d 35 24 16 be
       0.12920362 0.055040114 0.113415495 -0.1466225
000020 59 9e b7 be a5 c7 15 be 69 19 11 bf 6b 3f 4c 3e
       -0.35862997 -0.1462694 -0.566794 0.19946067
000030 f6 bd 62 3e ec b9 9f be 2f 75 e3 3e cd 75 d9 bd
       0.22142777 -0.31196535 0.4442534 -0.10618172
000040 b0 cf a1 be 4f 84 82 be 0e c7 3e 3f c2 3c 01 3f
       -0.31603765 -0.25491568 0.74522483 0.50483334
000050 36 61 2a 3e 04 5c 69 bd c8 48 50 3d 80 45 74 3d
       0.16638646 -0.05697252 0.05085066 0.059636593
000060 71 f0 3b 3f 15 83 b1 3d fa 51 b2 bd 16 a2 4d 3e
       0.7341376 0.0866758 -0.08707042 0.20081362
000070 f1 05 3d 3f 0c f1 65 3f 2b d5 a4 be bf da f0 3d
       0.7383719 0.89820933 -0.32193884 0.117604725
000080 64 25 40 be 1a f5 9c be f1 f0 15 3c d7 73 ed 3d
       -0.18764263 -0.30655748 0.009151683 0.1159436
000090 d4 65 7f 3c 68 1c 0a bd 5a 57 01 3f d2 74 dd bd
       0.015588243 -0.033718497 0.5052391 -0.10813297
0000a0 4f 77 23 be 99 14 19 3e 41 de 19 bf 3f 6b 0b bf
       -0.15963481 0.14949264 -0.6010476 -0.5446052
0000b0 f4 db 13 3f 50 2c 7f be 85 3d a4 be 39 83 5a 3e
       0.57757497 -0.24919248 -0.32078186 0.2133912
0000c0 10 f5 78 be 4c 88 53 3f 7b 92 cd be 9e 7d 2a 3e
       -0.24312234 0.8262985 -0.40150818 0.16649482
0000d0 d6 4d b7 bd bb 86 0d be 44 de 8d 3d c2 24 36 be
       -0.08950393 -0.13820927 0.069271594 -0.1778746
0000e0 13 aa e9 3e 45 eb 29 3f 03 e7 74 bd 0b a9 f2 3c
       0.4563757 0.6637462 -0.059790622 0.029621622
0000f0 a0 9f 39 3e 94 b5 e8 be e3 62 01 bf a8 b9 4c 3d
       0.18127298 -0.45451033 -0.50541514 0.049981743
000100 33 14 53 be b8 d9 b8 bd 91 6b b0 3f c2 fc 3c 3e
       -0.20613174 -0.090259016 1.3782827 0.18455794
000110 a4 35 ec 3d 7c 96 96 3d 6c 7d 80 3d 7f 85 fa bd
       0.11533669 0.07352921 0.06273922 -0.122324936
000120 75 06 dd be 2d 84 1a 3f 85 b5 d7 3e 37 4b bb 3d
       -0.4316899 0.60357934 0.42130676 0.091452055
000130 c6 f1 29 3e 80 a8 fe bc 60 fc 6b 3d 9c 10 37 bd
       0.16596135 -0.031086206 0.05761373 -0.044693574
000140 03 38 26 be b9 aa 07 be 18 84 b2 bd 18 41 b0 bc
       -0.16232304 -0.1324872 -0.08716601 -0.021515414
000150 ce 6a 53 3f b1 3e 04 3e d2 03 e2 3e b5 a9 06 bd
       0.82584846 0.1291454 0.4414354 -0.03287669
000160 00 96 01 bb 28 0a 2e 3e 5e d9 da 3d ed ed 22 be
       -0.0019773245 0.16996062 0.10685991 -0.15911074
000170 38 fa b9 bc 74 93 a8 bd e8 32 95 3d df 64 0c be
       -0.022702321 -0.082312495 0.072851 -0.13710354
000180 89 3f 2b 3f 8e ef ea 3c 93 76 f5 be 73 44 b7 3d
       0.6689382 0.028678682 -0.47942027 0.089486025
000190 ad 62 fc bd 50 d7 58 3e 80 33 01 bb 3e 29 4c be
       -0.123235084 0.21175885 -0.0019714534 -0.19937608
0001a0 45 64 01 bc 90 07 58 be 5d 95 37 bf 2b 0a 20 bc
       -0.007897441 -0.21096635 -0.71712285 -0.009768049
0001b0 fc 32 8d 3d 70 2d 22 bc c0 42 40 3d 6c 9e 67 bd
       0.0689449 -0.009898528 0.046938658 -0.056547567
0001c0 72 3a f2 be 28 1f 2c bd 47 0c b7 3e 37 14 ac bd
       -0.47310215 -0.0420219 0.35751554 -0.08402293
0001d0 69 22 0a 3f ed 7b af be 17 dc 20 3f 21 2f 7f 3d
       0.53958756 -0.34274235 0.6283583 0.062300805
0001e0 ce 1b ab 3e a9 ab 26 3f 94 6c 81 3d 62 85 3f be
       0.3341965 0.6510568 0.06319538 -0.18703225
0001f0 36 f4 4f 3f c4 bc f8 3e 56 d2 83 be dc 35 b3 bb
       0.8123201 0.48581517 -0.2574641 -0.005469067
000200 85 dc 6f 3f 6f 6f f4 3e 9d 85 29 bf 9f 50 38 3d
       0.9369586 0.47741267 -0.662195 0.04499876
000210 4c b1 64 3e 5e df 88 be 12 82 d7 3b c4 66 93 3e
       0.22333258 -0.26732916 0.006576785 0.2878934
000220 28 ff 49 3e 69 32 0b 3c 49 2d 2d bf bc 90 36 bf
       0.1972624 0.008495905 -0.67647225 -0.713146
000230 54 3c ce 3d c0 16 0b bb 30 01 ec 3c 95 ac 21 be
       0.100701004 -0.0021223277 0.02880916 -0.15788491
000240 75 77 c0 bd 3c c3 95 bd b0 98 5c 3c 38 f3 cf bc
       -0.093977846 -0.073126286 0.013464138 -0.02538453
000250 f9 4b 88 be 54 58 24 3f f2 d9 df 3c 74 b3 25 3e
       -0.26620463 0.6419728 0.027325604 0.16181737
000260 67 cf c2 3e 76 cd 3e 3f da 5a 2b be 5f 7f 9b 3d
       0.3804886 0.7453226 -0.16733876 0.075926535
000270 52 1b 54 3d cc c6 47 be 31 e9 a8 bd 8c 56 1a 3c
       0.051783867 -0.19509429 -0.08247603 0.009420048
000280 f8 fb 19 3f ee 57 9f be 8a ce cc bc 65 d4 91 3e
       0.601501 -0.31121773 -0.02500083 0.28482357
000290 90 6f ef 3e 20 f6 0c 3f 3f 6e fc 3e 68 05 c5 bd
       0.46764803 0.55063057 0.4930286 -0.09620172
0002a0 31 2e c7 3e 06 5b 94 be 44 fe 05 3f 50 92 60 3e
       0.3890243 -0.28975695 0.52341104 0.21930814
0002b0 44 14 0a bf 44 3f 39 3e 97 e2 cf bd 39 c6 01 bd
       -0.5393717 0.1809054 -0.101506405 -0.03168318
0002c0 68 99 1e 3f da 9f df be d7 92 90 be 5a d6 7c 3e
       0.6195283 -0.43676645 -0.2823703 0.24691144
0002d0 d6 14 38 3f 56 1b 58 3e 1b fc 2a bf 01 09 3f 3e
       0.71906793 0.21104178 -0.6679093 0.18655778
0002e0 ee 68 40 3e 40 7f b0 3c a4 43 1b be 00 d9 36 bb
       0.18790027 0.021545053 -0.15162522 -0.0027900338
0002f0 0c 1b 8b bd b1 5e 00 be 2f be 48 3f 72 e7 45 3e
       -0.06792268 -0.12536122 0.784152 0.1932657
000300 78 03 03 3e 78 81 0f bd b8 5d d6 bc da f4 8e bd
       0.12794292 -0.03503558 -0.026167735 -0.069802955
000310 8b c7 40 bd bc 72 f2 3d 84 b8 5b bf d8 05 c6 3e
       -0.0470653 0.1183829 -0.85828424 0.38676333
000320 71 d0 8d be 92 42 d7 3d 3f 68 ca 3e 7b 56 60 bd
       -0.2769809 0.10510744 0.39532658 -0.054769974
000330 34 23 91 3d 42 42 93 bd 0e af 54 be 26 5f 05 be
       0.070867926 -0.07190372 -0.20769903 -0.13024577
000340 1e 13 b0 3d ea 69 b5 be ee d7 6d 3f f1 50 a9 3e
       0.08597396 -0.3543237 0.9290761 0.33069566
000350 07 89 2d 3f fa 2d a3 be b7 d9 4a 3e a5 7a ce 3d
       0.6778721 -0.31871015 0.19809614 0.10081986
000360 b9 dd a6 3d aa 30 59 3f f1 60 07 3e 1f 0f a4 bc
       0.08147759 0.8483988 0.13220574 -0.020026742
000370 cf e1 da be 87 59 16 3f 13 92 dd 3e 59 cd a2 3d
       -0.42750403 0.5873036 0.43275508 0.07949323
000380 30 93 24 3f a1 b9 18 3f 10 62 d0 3e 4d 43 81 bd
       0.6428709 0.5965825 0.40699816 -0.06311665
000390 a2 f9 9a 3e 9f df 9a bd 62 22 42 bf 0b 92 9f 3e
       0.3026858 -0.075621836 -0.75833714 0.3116611
0003a0 bf a9 3d be 41 cb 25 3f 07 e0 01 3f 47 a9 42 3d
       -0.18521784 0.64763266 0.50732464 0.047524717
0003b0 92 f7 5b 3d 2c 6f 32 3f d4 30 0e 3f 02 75 07 3e
       0.0537029 0.69700885 0.55543256 0.13228229
0003c0 14 b3 10 3f 2f 64 ca be 46 05 ec be 82 17 8d bc
       0.5652325 -0.3952956 -0.46097773 -0.017223123
0003d0 42 4c 03 3e 3d 21 15 3f ad 7c f3 3e d4 47 41 bd
       0.12822059 0.5825384 0.47556058 -0.04718764
0003e0 b7 e5 61 3e 53 7a 56 bd 93 f9 15 bf 33 c3 16 bf
       0.22060286 -0.05236275 -0.58583945 -0.588916
0003f0 f9 09 c1 3d d2 c5 39 3f 91 4d cc 3d 40 e4 82 3e
       0.0942573 0.72567475 0.09975732 0.25564766

all_embed.embed.bias f4 [128]
000000 44 4c a2 bc 49 74 a2 bd 69 1d 0f 3f 50 b7 f1 3e
       -0.019811757 -0.07932336 0.5590425 0.4721017
000010 5a e5 14 be b8 91 f2 be da 89 fc 3e ee ab 7b be
       -0.14540616 -0.473768 0.49323922 -0.24577305
000020 a9 e5 aa 3e b9 4c 9b 3e 35 cd 00 3f 42 7b e1 3e
       0.33378342 0.30331972 0.5031312 0.4403935
000030 e8 b8 4d 3d b2 42 d6 3e 4a 17 eb 3e c9 b6 2b 3f
       0.05022517 0.4184776 0.45916206 0.67075783
000040 5f e8 f7 3c a8 2f 62 be 53 bb 5c 3e 16 f2 bf be
       0.03026217 -0.22088492 0.21555834 -0.37489384
000050 1a e3 f6 be 16 11 78 3e 08 18 58 bd 78 61 ac bd
       -0.4822014 0.24225268 -0.052757293 -0.08417028
000060 a2 00 28 3e b0 e7 73 be 75 9e 03 3f d4 31 f4 be
       0.16406491 -0.2381885 0.5141366 -0.47694266
000070 89 34 1a 3f 67 29 2d 3e 81 aa ee 3e 39 70 7b 3d
       0.6023641 0.16910325 0.4661446 0.06138632
000080 33 d0 92 3e 19 d7 63 bd 48 e2 ea 3e 66 ff fc be
       0.28674468 -0.055625055 0.45875764 -0.49413604
000090 f0 e1 c8 bd 26 75 51 3d 17 43 4f 3e 3e d8 9e bd
       -0.09808719 0.051137112 0.20240436 -0.07756089
0000a0 ba 0e 8e bc 5c 0d 20 3d 98 52 33 3c 9e 77 02 3f
       -0.017341007 0.03907524 0.010944985 0.5096377
0000b0 73 94 c1 3e df f3 c4 bd cc cb 9d be c5 e8 f7 be
       0.3780857 -0.09616827 -0.30819547 -0.48419777
0000c0 b6 93 98 be c9 7e b6 be e0 9c a4 3e 9e c1 d0 be
       -0.29800195 -0.35643604 0.32150936 -0.40772718
0000d0 ce d0 29 be eb b1 cf 3e 92 e0 0e 3c d9 31 ee 3e
       -0.16583559 0.40565428 0.008720534 0.46522406
0000e0 1c d2 86 3d ad 5b b4 be fc 63 09 3d e1 b6 13 3f
       0.06583044 -0.35226193 0.03354262 0.57700926
0000f0 19 c9 dd 3e 52 42 d8 bc 4a c9 07 3f 99 82 a5 be
       0.43317488 -0.026398811 0.5304152 -0.323262
000100 eb 7d 15 3f d1 28 db bd 14 61 44 3e 77 15 ae bc
       0.5839526 -0.107011445 0.19177657 -0.02125047
000110 5b 7f 66 3e 80 aa 6b be ac 7e a0 be 6a af bd bd
       0.2250952 -0.2301426 -0.31346643 -0.09261973
000120 1d 2d c9 3e 2f 82 24 be fc 65 cc 3e ea 9e c8 3d
       0.3929223 -0.16065286 0.39921558 0.097959355
000130 86 36 ce 3e 3f bc b1 3e 6b 66 09 3e 60 b3 8c be
       0.40275973 0.34713933 0.13417976 -0.27480602
000140 14 c4 13 3e cc 23 e2 be d7 81 02 3f ec 26 07 3f
       0.14430267 -0.44167936 0.5097937 0.52793765
000150 7b a7 d9 3e 5b 05 7d 3e 48 52 46 be eb 75 1c 3f
       0.4251059 0.24709074 -0.19367325 0.6111743
000160 bd 38 a3 3d 71 98 88 3e 03 f6 d4 3e 92 66 6e be
       0.07969806 0.26678804 0.41593942 -0.23281315
000170 b1 b0 66 3e d8 c9 f5 3d 5d d5 e4 3e e5 09 cb bd
       0.2252834 0.12001389 0.44694033 -0.099139966
000180 31 fc 2d 3f e0 50 9f be 64 fd 9f 3e cd ca 36 be
       0.6796294 -0.3111639 0.3124801 -0.178508
000190 c6 ac 58 be 68 af d4 be 05 a2 24 be 95 dc ab bc
       -0.21159658 -0.41540074 -0.1607743 -0.020979205
0001a0 a2 21 fc 3e e7 fd e1 3e a6 05 04 3f 7c 6c f8 be
       0.4924441 0.44139025 0.5157112 -0.48520267
0001b0 94 fe 81 3e 95 dc 9d bc 90 82 0d 3e b0 55 84 3e
       0.2538954 -0.01927022 0.13819337 0.25846624
0001c0 c9 f9 07 3f 52 46 a2 be cc 8b 9c 3e 51 a8 07 3f
       0.53115517 -0.31694275 0.30575407 0.52991205
0001d0 b0 f0 d0 bd 6d a6 f7 3e b9 42 e6 3e 45 b3 20 3e
       -0.102021575 0.4836916 0.4497278 0.15693386
0001e0 f6 e5 16 3f 40 ef f0 be 06 1f c8 3e f7 ab 9a 3e
       0.5894464 -0.47057533 0.3908617 0.30209324
0001f0 7f a2 8f 3e a4 d7 86 3e 9c f3 e9 be ac 7e 6e 3e
       0.28053662 0.26336396 -0.45693672 0.23290509

all_embed.embed_2.weight f4 [128, 128]
000000 24 58 ed 3c 9f 2f 6c 3d fc e6 99 3d 5e 01 e9 3d
       0.028972693 0.057662603 0.0751476 0.11377214
000010 f2 dc 66 3e 76 b6 f8 bd 13 d2 aa bd fa 8d ae be
       0.22545221 -0.12144177 -0.0834085 -0.34092695
000020 66 b3 de 3e 89 6e fe 3e 6e 18 92 3e 03 c4 1a be
       0.43496245 0.49693707 0.28534263 -0.15113835
000030 ca c2 50 3d f2 e8 20 3e d9 b0 ca bd 67 38 ac bc
       0.050967015 0.15713862 -0.09897012 -0.021022988
000040 f7 71 8e 3e 80 3d ea bc fa a9 83 3e 04 9f bc bd
       0.27821323 -0.028593779 0.2571562 -0.09210017
000050 8e cd ae 3d 69 dd 8d be 1b 99 90 bb d0 13 2b 3c
       0.085353 -0.27707985 -0.004412783 0.010441735
000060 41 33 1a be e0 8a af 3c 76 4b 99 be 0c 76 6a 3d
       -0.15058614 0.021428525 -0.29940385 0.057241485
000070 79 25 b5 3e 74 35 fa bd b0 dc 09 be e6 b8 91 be
       0.35380152 -0.122172266 -0.13463092 -0.2846138
000080 0a 5d 63 be ae 24 cf 3d 05 10 c8 3e 5a 8e c7 3d
       -0.2220346 0.10114418 0.39074722 0.09743948
000090 8e ac a0 3d 13 65 6c bd 0a c0 88 bd 19 cf 5c 3b
       0.07845412 -0.05771358 -0.066772535 0.0033692776
0000a0 fb b0 0b be 86 26 48 be 6c 60 d6 3d 8a 5a 87 3e
       -0.13641731 -0.19545946 0.1046761 0.26436263
0000b0 7a 0e 28 be 58 a8 b0 be 18 06 99 3d 51 a2 f2 bc
       -0.16411772 -0.34503436 0.074718654 -0.029618414
0000c0 2f b8 98 bd 3c df 14 bd 66 db ca 3e 12 28 76 bd
       -0.07457005 -0.036345705 0.39620513 -0.060096808
0000d0 33 da 81 3d 3f 21 15 bd 87 76 5d be 7d e4 a2 3d
       0.06340446 -0.03640866 -0.21627246 0.07953737
0000e0 5a 81 93 bd c8 df be bd d1 cc 07 3e 51 33 05 3c
       -0.07202406 -0.09320027 0.13261725 0.008129911
0000f0 38 fd bb bd 75 70 5e be fd c0 4a 3e bd b0 ba 3d
       -0.09179157 -0.21722586 0.19800182 0.091157414
000100 35 d5 9e 3e 68 ea 32 be 0f 0a 82 bc f4 b4 e3 be
       0.3102204 -0.17472231 -0.015873937 -0.44473994
000110 f3 5f 04 bd 90 ff d6 bd 8e ce c9 bd 3b fc e7 bd
       -0.032318067 -0.104979634 -0.0985385 -0.11327406
000120 a6 3c fc bd 42 68 88 be 72 c9 1e 3e 4c c3 13 be
       -0.12316255 -0.26642042 0.15506533 -0.14429969
000130 7f 10 14 be 70 64 8d 3d f6 ab e8 bd 13 e2 e2 bd
       -0.14459418 0.069039226 -0.11360924 -0.110782765
000140 5d e7 d4 be 10 ab 85 3c b7 b4 01 3f d3 c9 cc bd
       -0.41582766 0.01631692 0.50666374 -0.099994324
000150 86 f0 b2 3d d1 32 86 bd f6 00 d5 bd 96 54 02 bd
       0.087372825 -0.06552661 -0.10400574 -0.03181895
000160 2a 81 78 bd 97 e1 c3 bd bd 59 8a 3e 68 65 f2 bb
       -0.060670055 -0.09564512 0.2702159 -0.0073973425
000170 c8 5a ba bd 25 84 25 3d bb d7 dc 3e 66 81 27 be
       -0.090993464 0.040409226 0.4313334 -0.16357955
000180 a0 6e 97 3e 9f e9 0d be 2b 1f aa 3e 04 28 89 3d
       0.29576588 -0.1385865 0.33226904 0.066970855
000190 08 0a 04 bd 8e 95 04 be 9a 9e e2 bd 76 29 d1 bd
       -0.03223613 -0.12947676 -0.11065407 -0.10212986
0001a0 37 fb 59 be 98 41 4f 3e 05 27 d8 3d 14 08 c1 3d
       -0.21287237 0.20239866 0.105543174 0.09425369
0001b0 3d 7d 06 3e 1a 8f 72 be 69 bc 78 bd 0f 5e bd bd
       0.13133712 -0.23687401 -0.060726557 -0.09246456
0001c0 68 9f ba 3e ac fa f9 3a 44 dd f8 bd 6d 75 27 3e
       0.36449742 0.0019071898 -0.12151578 0.16353388
0001d0 00 4a b0 3b ea da 47 3e 45 24 8d bd 92 0b 71 bd
       0.0053799152 0.19517103 -0.068916835 -0.058848925
0001e0 07 6c 91 3e 30 86 14 bc b9 c4 3a bd b2 8c 9a 3d
       0.2840273 -0.009065196 -0.045597766 0.07546367
0001f0 f6 18 e0 3d bf 60 14 be 74 91 9d bd 2d ac 7b be
       0.10942261 -0.1449003 -0.076937586 -0.24577399
000200 00 00 c4 3e cb 8a bb bd 4a eb 44 be 07 bf 86 bd
       0.3828125 -0.09157332 -0.1923038 -0.06579404
000210 45 83 f1 3d 60 3d 8e bc 82 d5 1e be 92 4f c5 bd
       0.11792616 -0.01736325 -0.15511134 -0.096343175
000220 e1 e5 a8 be b2 8b 9a be 9d 0f dc bc 18 30 9f be
       -0.32987884 -0.30184704 -0.026862914 -0.3109138
000230 ae 4a 27 bd eb e4 7d be 99 45 c0 bd 9c 93 12 bf
       -0.040842704 -0.24794357 -0.09388275 -0.57256484
000240 f0 f4 f7 3e 88 ac 3a 3d a3 bf bb 3e 10 d4 57 bc
       0.4842906 0.045574695 0.36669645 -0.013173118
000250 f2 ec 0a be 72 64 83 3d 0f 27 c1 bc 74 ca c5 3d
       -0.1356695 0.06415643 -0.023578195 0.096577555
000260 d5 85 60 be e3 ba 09 3e df c1 0e bf e4 cc ba 3d
       -0.21926053 0.13450198 -0.55764574 0.09121111
000270 b7 5a f0 bd 65 27 d9 3d ae d4 6b bd 83 81 90 b9
       -0.117360525 0.10603217 -0.057575874 -0.00027562314
000280 f6 39 85 be 17 da 08 bd 4c 89 97 be 82 f6 c7 3d
       -0.26020783 -0.03341111 -0.29596937 0.097638145
000290 c6 64 94 3d fb 0e 5a 3e e9 cc 84 bc 6c 25 92 bd
       0.072457835 0.21294777 -0.01621099 -0.07136044
0002a0 9d af 3b be b5 6b 6a 3e 42 e5 a2 bd b7 4b 05 be
       -0.1832871 0.2289265 -0.07953884 -0.13017164
0002b0 2c 81 ff bd d4 7a 95 be 22 35 d1 3d e7 2b 2f 3f
       -0.124758095 -0.29195273 0.102152124 0.68426365
0002c0 b1 d8 ed bd d7 6e e8 bd 0a 03 7b 3e 4e 7f ff 3d
       -0.11613596 -0.11349266 0.24512878 0.12475453
0002d0 a8 3d 8b 3e cb 52 30 bd ff a6 c0 3e 94 dd 17 3e
       0.27195477 -0.043047708 0.37627408 0.14830619
0002e0 95 71 60 3e e0 c3 4d be 04 2b aa 3e 64 b1 1b 3e
       0.21918328 -0.20094252 0.33235943 0.15204388
0002f0 ad a0 b7 be 3e 80 1c 3f e9 4f 87 be 00 62 b7 3d
       -0.35864773 0.6113318 -0.26428154 0.08954239
000300 f8 29 33 be 6c 37 55 3d b4 69 3c bd c5 4a 10 3e
       -0.17496479 0.052054808 -0.045999244 0.14091022
000310 42 de 62 3e 4e ee 04 bc c1 41 0b 3e 62 97 c6 bd
       0.22155097 -0.008113457 0.13599302 -0.09696843
000320 9d 85 86 bd ae 1a 89 be 13 ef 4e be d8 6e b5 bd
       -0.065684535 -0.26778167 -0.20208387 -0.088590324
000330 35 1d 44 bc bb 10 8c be 91 96 d7 bd 70 d2 42 3c
       -0.011969854 -0.27356514 -0.10526765 0.0118909925
000340 a5 03 ab be ac c0 4e 3d de 71 a7 3b d6 ef 1c be
       -0.33401218 0.050476715 0.0051100096 -0.15325865
000350 a2 c1 f4 bd c8 08 17 3e 54 21 1d 3d 6b 2e c8 be
       -0.11950995 0.14749444 0.038361862 -0.39097914
000360 16 c6 08 3d e2 83 52 be 2d 82 14 3e 4c 30 e6 bd
       0.033392034 -0.20558122 0.14502783 -0.11239681
000370 9c d7 a4 3d 09 05 6e bb b0 62 90 be 4e 59 44 3e
       0.08048937 -0.003631892 -0.28200293 0.19174692
000380 3a 33 60 be 4c d9 0b be 53 42 8b bc d4 a2 27 3e
       -0.21894541 -0.13657111 -0.0169994 0.16370708
000390 a9 7d 69 3e 19 97 01 3e e4 b1 b3 3d a5 6f 03 3f
       0.22801842 0.12655295 0.08774164 0.5134223
0003a0 9a c1 95 bd 0b 06 2f 3e fd b7 0f bf 10 b6 92 3c
       -0.07312317 0.17092149 -0.5614012 0.01790908
0003b0 ea 2e b9 be 47 3c ff 3d 90 48 52 3b 38 bd c0 bd
       -0.36168605 0.12462669 0.0032086708 -0.094110906
0003c0 30 50 70 be 77 4f 84 be 76 29 5d 3d fe 4c 92 3e
       -0.23468089 -0.25841877 0.05399462 0.28574365
0003d0 00 89 50 3c c3 c8 4f be a4 98 ac be f4 a2 0a 3e
       0.012727976 -0.20291428 -0.33710206 0.13538724
0003e0 15 9f b0 3c 3c 96 94 bd 67 8d 84 be fb 87 a8 be
       0.021560231 -0.072552174 -0.2588913 -0.32916245
0003f0 22 2c 4a bc ad 8d 9e bd b0 b7 a3 3d 4f 3c 1f be
       -0.012339624 -0.07741866 0.0799402 -0.1555035

all_embed.embed_2.bias f4 [128]
000000 a0 2d cd 3d f2 88 0a be 61 e6 44 bd 30 db 78 3d
       0.10018468 -0.13528803 -0.04807127 0.06075591
000010 4d 9d 91 3d 28 04 0d 3d ce 70 af 3d d8 df b4 bd
       0.07110081 0.03442779 0.08566438 -0.08831757
000020 96 2c ab bd a9 bb ac 3c 46 6f 12 bd 1c 88 31 3d
       -0.083581135 0.021085577 -0.03575065 0.043342695
000030 13 7e 54 be a7 b7 ab bc 50 98 a5 bc 16 d4 c2 3b
       -0.20751218 -0.020961596 -0.02021423 0.005945693
000040 a6 0a 2f bd 42 e6 dd 3d 5d c5 40 be 36 7d 17 3d
       -0.042734765 0.10834934 -0.18825288 0.036984645
000050 ed 4d c7 bd a8 01 6f 3d 37 d9 a2 3d a4 f9 d8 bc
       -0.0973166 0.05835119 0.07951587 -0.026486225
000060 15 a7 1b bd 17 a3 a1 3c a7 6e 7c bd 55 06 22 3e
       -0.03800114 0.019731088 -0.061628964 0.15822728
000070 2f 00 05 3c f4 da e4 bc 36 7c ec bc e9 cb 58 3d
       0.00811772 -0.027936436 -0.028867822 0.05292884
000080 fe e2 c2 3d 4e a5 84 bd 0c 81 65 bc e6 6b 8f 3c
       0.095159516 -0.06476842 -0.014007818 0.017507505
000090 30 00 b3 bd c0 9d 40 be 66 2b 20 be 11 67 9c 3d
       -0.0874027 -0.18810177 -0.15641555 0.07636846
0000a0 33 b7 84 bd f9 d1 cd bd e1 f1 c5 bd 61 ef 1b be
       -0.06480255 -0.10049815 -0.09665275 -0.15228035
0000b0 54 4c 83 be f7 a7 ef bd 8d 37 e2 3d e0 eb b9 bc
       -0.2564417 -0.117019586 0.11045752 -0.022695482
0000c0 9f a4 3b be c7 61 50 be ff 33 19 bd bb 7f 92 bd
       -0.18324517 -0.20349799 -0.037403103 -0.07153269
0000d0 5c 2d 53 3d 9e f1 75 3d 46 69 0c be 05 62 58 be
       0.05155693 0.060044877 -0.13712034 -0.21131141
0000e0 6b b2 18 be dc 38 bd bd 44 4c ab bd aa 2b f9 bd
       -0.14911811 -0.09239361 -0.08364156 -0.121665314
0000f0 bc 2e 14 be 3c b9 ea 3d c9 53 c8 bc 7a fb 17 3d
       -0.14470953 0.11461112 -0.024454014 0.03710506
000100 e1 19 8d bd 7a 92 14 be 87 ac 03 be 18 3c 1f be
       -0.06889702 -0.14509001 -0.12858783 -0.15550268
000110 37 3a 0d be 19 1c 0d be ee 24 e6 bd c8 9d 5e bc
       -0.13791738 -0.1378025 -0.112375125 -0.013587423
000120 83 21 86 bd b5 74 6d bd 2a ea 12 be 69 59 06 bd
       -0.065493606 -0.05797263 -0.14347139 -0.032800112
000130 01 a5 b7 bc d6 7a f2 bd f7 55 e9 bd 59 7a ba bc
       -0.022417547 -0.11839835 -0.113933496 -0.022763418
000140 00 49 62 bd 4f 07 b5 bd 48 63 25 bb 74 e8 66 be
       -0.0552454 -0.08839285 -0.0025236178 -0.22549611
000150 64 2d 98 3c 62 b4 fd 3d 7b eb 95 bd 8f b7 6b bd
       0.018576331 0.12387921 -0.07320305 -0.057548102
000160 f1 b6 4b be 5a 1b c0 3c 8c f8 0a 3d 56 46 fc 3d
       -0.19894005 0.023450542 0.03392844 0.12318103
000170 d0 20 06 be d8 56 17 be e9 c9 e5 3d 4b ae d2 bc
       -0.13098454 -0.14779222 0.11220152 -0.025717875
000180 35 d9 07 be 58 32 fa bd 81 14 b1 bd 9d cc 51 be
       -0.13266452 -0.122166336 -0.08646489 -0.2048821
000190 56 37 1c bd 56 f1 d2 3d 4d 76 31 be 12 b0 92 bd
       -0.03813871 0.102999374 -0.17330284 -0.07162489
0001a0 88 dd ff bd a8 a5 82 bd 0c 5d 19 be a4 88 8a 3d
       -0.124934256 -0.06379253 -0.14976901 0.067643434
0001b0 b0 35 67 3c 7a 56 99 bd 38 91 5e bd ed f4 de bc
       0.014111921 -0.07487197 -0.05433771 -0.0272164
0001c0 5e 97 5e bd fa c1 97 be 62 0e 58 bd 94 5c 44 be
       -0.054343574 -0.2964018 -0.05274809 -0.19175941
0001d0 8a b4 be 3c 2d f1 00 be be fd b0 3d 7d 93 0f bd
       0.023279447 -0.12592001 0.086421475 -0.035052765
0001e0 35 59 aa 3d 62 9b 03 bd 1c 8f 83 bd b0 73 07 be
       0.08317796 -0.032130606 -0.0642378 -0.13227725
0001f0 07 35 96 bc 3d 0a ee bd a0 88 37 bc 07 c5 e4 bd
       -0.018335832 -0.116230465 -0.0112020075 -0.111703925

pointer.v f4 [1, 1, 128]
000000 fd ec fd bf 12 bf 99 3f 31 51 f1 bf 3a 33 64 3f
       -1.9837948 1.2011435 -1.8852903 0.89140666
000010 bb 0e 99 be 44 e2 f9 3e 6c 4a cc 3e 60 70 92 bf
       -0.2989405 0.4880544 0.3990053 -1.1440544
000020 d5 cc 03 40 0d b5 94 bf dc 35 a7 3f f1 8d 86 bf
       2.059377 -1.1617752 1.3063312 -1.0512067
000030 24 93 ad 3f b0 81 0e bf d8 18 bc 3f 36 0d 54 be
       1.3560529 -0.5566664 1.4695082 -0.20708165
000040 ad 19 b5 bf f0 1c 49 c0 cb b3 cb bf 86 7f 02 40
       -1.4148461 -3.1423912 -1.5914243 2.0390334
000050 f5 62 97 3e 2f 9f 79 bf c4 0c b6 bf 52 9d 95 bf
       0.29567686 -0.9750852 -1.4222646 -1.1688635
000060 e2 47 a5 3f 0c ac a0 3e 08 b3 81 3f 3f 3e 81 3f
       1.2912562 0.3138126 1.0132761 1.0097121
000070 c9 6b 65 3e 7d 9e 7e 3e e0 b6 17 3f de 1b af bd
       0.22404398 0.24865146 0.5926342 -0.08550237
000080 a4 36 ba 3f 37 3f a3 bf c6 97 af bf b0 ac 81 bf
       1.4547925 -1.2753667 -1.3718193 -1.0130825
000090 51 d2 c6 bf 86 42 ac bf 66 69 d6 3f 97 0e 59 3e
       -1.5532933 -1.3457801 1.6750915 0.21196972
0000a0 d8 fb b6 3f cf 38 c4 bf 78 13 e2 3f aa 0e bf 3f
       1.4295607 -1.5329837 1.7662191 1.492635
0000b0 62 94 b8 3f 86 f0 85 bf cc d2 b4 3f cc cd c1 bf
       1.4420283 -1.0464027 1.412683 -1.5140929
0000c0 ec b1 8d 3f 51 b5 c0 bf 60 79 8e bf 6a e3 66 bf
       1.1069922 -1.5055333 -1.1130791 -0.90190756
0000d0 d0 bc 7f bf 6c f8 d6 bf 56 bb 46 bf 3d c4 cf bf
       -0.9989748 -1.6794562 -0.776296 -1.6231762
0000e0 bd c0 ac bf 5b 2a 97 bf c7 3c 0f 40 7f d4 52 bf
       -1.3496319 -1.1809801 2.2380846 -0.82355493
0000f0 b8 79 d2 bf ef ee ed 3f 94 c2 1e 40 81 80 d1 be
       -1.6443396 1.8588542 2.480626 -0.40918353
000100 c7 fc e2 be 46 d1 ef bf 3a ce a8 3f 2e 4f 92 3f
       -0.4433348 -1.873574 1.3187935 1.1430414
000110 3e 12 c8 3f b5 32 a0 bf 8e 96 80 bf 52 f6 a6 3f
       1.5630567 -1.2515475 -1.0045946 1.3043921
000120 fd 9c 24 3f 77 3d c1 bf d4 92 aa 3f c4 25 55 bf
       0.64302045 -1.5096883 1.3326058 -0.8326075
000130 77 3e 89 bf d5 6c a6 bf 52 40 7c bf c4 67 f1 3f
       -1.0722188 -1.3001963 -0.98535645 1.8859792
000140 a3 a9 42 bf 4e 16 9d 3f ba 71 7c bf 01 ac cd 3f
       -0.76040095 1.2272432 -0.9861103 1.6068116
000150 93 7d 01 3f e2 b6 b1 bf 0b 06 4b bf 3a 5f 0e 3e
       0.50582236 -1.3883936 -0.79306096 0.13903514
000160 1b 19 bc 3f 13 84 bd 3f e4 ef bf bf 94 59 15 40
       1.4695162 1.4805931 -1.4995084 2.3335924
000170 a6 c3 b2 bf 61 44 b6 3f ec d8 02 bf 7c 98 13 3f
       -1.3965957 1.4239618 -0.51112247 0.5765455
000180 ed 92 c9 bf ad c3 ee 3f ee c5 94 bf 12 ec 99 3f
       -1.5747963 1.8653466 -1.1622903 1.2025168
000190 52 a5 65 bf 4c ce b9 bf 3a 4a a8 3f 5d b5 3e bf
       -0.89705384 -1.4516082 1.3147652 -0.7449549
0001a0 f4 b4 93 bf ad 17 53 bf d1 1f 8e 3f 4e 5a 21 40
       -1.1539598 -0.82458 1.110346 2.5211368
0001b0 4b 52 6c bf 71 49 c1 3f 2a 36 fd 3e 45 d5 aa bf
       -0.9231307 1.5100538 0.49455386 -1.3346335
0001c0 1f 4c e5 3f 0f 70 a5 3f 37 b0 57 3f 0c 7e ac 3f
       1.7913855 1.2924823 0.8425326 1.3475966
0001d0 ea 7e 1d 3f e7 a2 e4 3f 8d 53 78 bf 8d b6 4c 3e
       0.6152178 1.7862214 -0.9700249 0.19991513
0001e0 62 92 a2 bf 24 e7 18 bf ac 01 bf 3e 0a 10 9a 3f
       -1.2700922 -0.5972769 0.37305963 1.2036145
0001f0 a0 93 c0 3f 13 4d a5 3f 22 44 8f bf bf bc da bf
       1.5045052 1.2914146 -1.1192667 -1.7088851

pointer.encoder_attn.v f4 [1, 1, 128]
000000 52 13 e6 bd 73 78 b6 3d 90 8e 88 3d ac 57 02 3c
       -0.11234154 0.089096926 0.06667817 0.007955473
000010 0d 9d 80 bc 0c 5f 1d be e1 18 62 3e e0 52 5b 3c
       -0.015699888 -0.15368289 0.22079803 0.013386458
000020 d1 45 e7 bd 41 72 87 bd 89 94 a4 bd 71 a9 5b bd
       -0.11292613 -0.06613589 -0.08036143 -0.05362839
000030 cd 63 c5 3d 1b d0 b7 3d 67 bd 40 bd 7c 01 52 3d
       0.09638176 0.0897524 -0.04705563 0.051270947
000040 b5 99 7e 3e 17 30 ba bd 74 e4 43 bd 91 58 85 3d
       0.24863322 -0.09091204 -0.04782529 0.06511033
000050 dc 48 f6 3d dc 39 26 be cc a1 33 3e c6 5f 93 bd
       0.120256156 -0.16233009 0.1754219 -0.07196002
000060 27 9b 0f 3e 1b a7 f6 b9 ab 30 be bd 33 02 49 bd
       0.1402403 -0.0004704528 -0.092866264 -0.049074363
000070 45 8a 09 bd 8a 4f a2 bd 5f 45 12 3d 9e ec 09 bc
       -0.03357913 -0.07925327 0.03571069 -0.00841823
000080 aa 00 98 bd 98 49 21 3e 0f 0a 5b bd 7d d3 8a bd
       -0.07422002 0.1575073 -0.05347639 -0.067786194
000090 5b f1 db 3d 20 76 ac 3c c4 84 86 3e 60 3f 7b be
       0.10739394 0.02105242 0.26273167 -0.24535894
0000a0 1b f3 e6 bd c5 ad 19 bd 8b 5f dc bd 82 29 9e bc
       -0.112768374 -0.037519235 -0.10760411 -0.019306902
0000b0 95 c1 b0 3d 70 f2 aa bc ce b8 0b bd f2 c8 fc 3d
       0.08630673 -0.020867556 -0.03411179 0.12343015
0000c0 65 ed 88 3d f4 3d 6f 3d 73 24 1e bc 35 99 54 bd
       0.066859044 0.058408692 -0.009652245 -0.051903922
0000d0 55 14 80 bd d3 06 71 bd e4 e1 aa bd a9 8f b9 3c
       -0.06253878 -0.0588444 -0.083438665 0.02265151
0000e0 64 5f c6 3d d2 e2 d1 3d 75 1a c4 3d 50 99 01 3d
       0.09686163 0.10248341 0.09575359 0.03164035
0000f0 a9 8b cc 3d a3 77 52 bc f8 26 60 3d 12 91 f2 bd
       0.099875756 -0.012845906 0.054724663 -0.11844076
000100 85 df e5 3d 2c e8 fb bd 0b 10 ed ba 46 e9 86 bd
       0.112242736 -0.12300143 -0.0018086446 -0.06587462
000110 e3 93 95 3d a5 b5 9e 3c a0 af 30 3d b9 52 1d 3d
       0.07303598 0.019373724 0.04313624 0.03840897
000120 16 ec 56 bd 4e 6d 4f 3b dc 70 1a ba 0b 6b 8c 3d
       -0.052471243 0.0031650844 -0.0005891451 0.06856354
000130 20 f0 8c bd 9f e7 0e be 2e be 59 3e 15 ba 0e 3e
       -0.06881738 -0.13955544 0.21263954 0.13938172
000140 32 a6 a2 3d e5 31 c7 3d cd be cd bd 0c ca 5d bc
       0.079418555 0.097263135 -0.10046158 -0.013536941
000150 9c a2 01 be 37 f9 41 3d 5d 3e 16 bd ad 69 db bd
       -0.12659687 0.04735681 -0.036680568 -0.107135154
000160 69 3d 4a be 48 10 89 bd 0b ef 10 3e 56 9b 50 bc
       -0.19749989 -0.066925585 0.14153688 -0.0127323475
000170 14 07 32 bd f4 8e 16 3e 35 c5 58 bc d9 b0 98 3d
       -0.04346378 0.1470297 -0.013230612 0.07455606
000180 61 f8 f3 bd e9 8e 00 bd 49 e0 84 bc d9 d6 d1 3e
       -0.11912609 -0.03138629 -0.016220229 0.40984228
000190 ab 32 e7 bc 2f 8e 8a bd e5 5f 2e 3c 58 40 bb 3d
       -0.028222403 -0.067654006 0.01064298 0.09143132
0001a0 11 2e cf 3c a2 f3 cc 3b 1f a4 47 bd 05 82 17 be
       0.02529052 0.006254629 -0.048740502 -0.14795692
0001b0 6f 20 5e bd 54 87 93 bd c9 52 66 bd 9c 7e 98 bd
       -0.05423015 -0.07203546 -0.056231294 -0.07446024
0001c0 93 17 24 3d 6f f6 1f bc 4c 58 61 bd 07 55 47 3d
       0.040061545 -0.009763344 -0.055015847 0.048665073
0001d0 38 55 95 bd 03 f8 9a 3c 75 f6 f1 3d 0f 6a 1e bd
       -0.07291645 0.01891709 0.11814586 -0.038675364
0001e0 64 51 ea 3d 62 fd 27 3e eb af 6a bc 48 f2 f5 bd
       0.11441305 0.16405252 -0.014324169 -0.12009102
0001f0 78 1a 64 3d 7c fd a8 bd 40 8c 48 3d 1c d3 73 3d
       0.055689305 -0.08251473 0.048961878 0.0595275

pointer.encoder_attn.W f4 [1, 128, 256]
000000 8a 9a 92 3d 0e 1e 38 bc d5 ab 4b 3d 44 f7 23 3d
       0.07158382 -0.011237634 0.04972442 0.040030733
000010 4a 30 a3 bd 49 fc 35 bd f8 29 0f 3d 9d 1d 4d 3c
       -0.07968195 -0.04443005 0.034952134 0.012519267
000020 fa 27 31 bd b9 21 fd 3c 25 33 20 bc 99 60 7a bc
       -0.043251015 0.03089987 -0.009777819 -0.01528182
000030 28 a6 8a 3c 23 be 2d 3d 99 d1 27 3c 43 1c 6b bd
       0.016924933 0.042417657 0.010242843 -0.0574
000040 f1 eb e5 3c a9 c2 12 3d 3a 84 4b 3d b0 c8 69 bd
       0.028066607 0.035830174 0.049686648 -0.057076156
000050 8a f7 da bd 80 90 bf 3c 8a 8d 12 3e 06 9e fc 3c
       -0.106917456 0.023384333 0.14311805 0.03083707
000060 59 a1 6e 3d 1b 81 cb 3d 12 8a f3 3c 05 a8 cd bb
       0.058259342 0.09936734 0.029728923 -0.006276133
000070 00 b4 4b bd bc c1 62 bd 14 93 16 bd eb 58 05 3e
       -0.04973221 -0.05536054 -0.03676136 0.13022201
000080 14 fd 71 3d c2 fe 13 3d 06 a0 01 3d 3d 93 15 3c
       0.059079245 0.036131628 0.03164675 0.009129343
000090 80 5a 13 3d ef b9 89 3c e5 a1 29 bd 5d 35 a2 3d
       0.03597498 0.016812293 -0.04141416 0.079203345
0000a0 fe 76 99 3d 03 75 48 3d 01 f4 e1 3c 79 6c 0f 3d
       0.07493399 0.048939716 0.02758217 0.035015557
0000b0 f2 26 60 3c 12 c5 23 3d 1f 52 1d 3d bc be 23 bd
       0.01368116 0.039982863 0.038408395 -0.03997682
0000c0 f4 ab 20 bd 27 dc ff 3c f7 4a 2a 3d f2 dd 8b 3d
       -0.039226487 0.031232907 0.0415754 0.06829442
0000d0 17 1b 25 bc 8b 81 c5 3c 26 37 1e be 4c 9c 63 3d
       -0.0100772595 0.024109622 -0.15450725 0.05556898
0000e0 be c6 d5 3c 81 66 c7 3c de 21 53 3d 95 46 0e 3d
       0.026095744 0.02434087 0.05154597 0.03473528
0000f0 cc 04 a8 3c 4c ab 22 3d d7 df fc bc b3 19 60 bd
       0.0205101 0.039714143 -0.030868454 -0.05471201
000100 5c 61 56 bd 1c 5b 58 3d 42 ec 19 bb e0 6f 8d bd
       -0.052338943 0.052821264 -0.0023486768 -0.06906104
000110 7f fa 43 bd fd c2 23 3d bc 79 1a 3d 2a a4 88 3c
       -0.047846314 0.039980877 0.03771375 0.016679842
000120 2e 7c 60 3d 9b 28 54 3d 44 83 46 bd 08 75 ab 3c
       0.054805927 0.051796537 -0.04846503 0.020929828
000130 7a 8f a7 3d 14 85 a6 bd 5f 8c 42 bd 9f 74 ad 3d
       0.08181663 -0.081308514 -0.04749715 0.08469509
000140 e5 ea 9d bc b9 82 fc bc 59 b5 54 3d 3c 76 73 bd
       -0.019277046 -0.030824052 0.05193076 -0.05943893
000150 a4 7b 23 3d 25 f0 a7 3d 17 b2 32 3d 65 8c 59 bc
       0.039912835 0.08200101 0.04362687 -0.013278102
000160 a2 aa 6c bd d6 bb 04 bd b9 a2 2c 3d 47 3c 4d bd
       -0.057779916 -0.032405697 0.042147372 -0.050106313
000170 da f5 0f 3d c2 99 b2 bc ac b6 51 3d b0 83 98 bc
       0.03514657 -0.021801833 0.0511996 -0.018617481
000180 0c 06 50 3d ca fd 1d bc ca a8 01 3d d5 93 32 bc
       0.050787017 -0.009643028 0.03165511 -0.010899504
000190 0e 22 b6 3a ac fe c1 3d 6e 2f 91 bc 43 78 13 3c
       0.0013895647 0.09472403 -0.017722812 0.009000841
0001a0 96 c2 12 bd 29 94 9c 3d e9 5b 99 bc 62 fd 10 3d
       -0.035830103 0.07645447 -0.018720584 0.035397895
0001b0 1a 9a 38 3d 26 10 3c 3d e8 23 59 bd 93 71 17 3d
       0.045068838 0.045913838 -0.05301276 0.036973547
0001c0 fe bc 9d 3d cf c0 e8 bc 82 52 45 3c 29 2e d2 bc
       0.07702063 -0.02841225 0.012043597 -0.025656777
0001d0 d0 98 eb bc bf c8 d3 bc d0 c9 66 bc f3 e7 0e bd
       -0.02875939 -0.02585256 -0.014086202 -0.034889173
0001e0 dc 01 f9 3c cd d3 a5 3d a9 5a 41 bd d5 c0 54 bd
       0.030396394 0.080970384 -0.0472056 -0.05194171
0001f0 31 24 68 bd 77 db 69 bd 13 57 63 3c 56 42 2a 3d
       -0.05667514 -0.057094064 0.013875741 0.04156717
000200 e8 8a 90 bc 73 8c 4d bc 51 04 b4 3c 97 4b 62 3d
       -0.01764436 -0.012545693 0.021974714 0.05524787
000210 3a 13 8d 3b eb ff 95 3c a0 aa eb 3c a7 01 89 3d
       0.0043052705 0.018310508 0.028767884 0.06689768
000220 c7 de 9b bd b3 06 51 bd 23 d6 69 3e 29 aa 73 3c
       -0.07610851 -0.05103178 0.22835593 0.014872112
000230 6c 81 b6 3d 13 44 8c bd 14 05 91 bd 04 05 b2 3d
       0.08911404 -0.068489216 -0.07081047 0.08692363
000240 e0 f9 f8 3c e1 a7 68 bd 9b a7 67 3e 37 2c de 3d
       0.030392587 -0.056800727 0.2262253 0.10848277
000250 20 b2 7f 3c d3 f3 3f bb f7 a9 22 bd 36 6d 51 3d
       0.015606433 -0.0029289618 -0.039712872 0.051129542
000260 34 af c2 3d d1 5b 86 bd 77 de 9a 3d 5b 38 1c bd
       0.095060736 -0.06560481 0.07561963 -0.038139682
000270 8a 14 fe 3b 51 64 16 3d a7 9b 73 3d 00 23 1b 3d
       0.0077539133 0.036716763 0.059474614 0.037875175
000280 5f 73 08 3d 99 29 4b 3d ad 8d 09 be f1 44 4a 3d
       0.03331315 0.049600217 -0.13432951 0.049382154
000290 6a 85 88 bd fd 14 7e 3d a9 36 46 bd 41 a8 16 3e
       -0.06666072 0.062031735 -0.04839197 0.14712621
0002a0 7d 48 26 be cd 54 3e 3e 96 93 57 3d e1 9a a4 bc
       -0.1623859 0.18587036 0.052630983 -0.020093383
0002b0 a4 1b be bd c4 65 04 3e e4 50 1b bd 5b a5 bc 3d
       -0.09282616 0.12929446 -0.03791894 0.092112266
0002c0 5f fb 03 3e 7e 5a 8e 3d 89 d0 00 3e 5f a4 24 3e
       0.12888859 0.06950854 0.1257955 0.16078328
0002d0 91 f0 e2 3c 9b 78 c7 3d 38 c3 ff 3c 7d c0 27 be
       0.027702602 0.097398005 0.031221017 -0.16382022
0002e0 11 c4 10 bd be f4 e5 bd a0 44 55 3d 49 23 7a bd
       -0.035343233 -0.112283215 0.0520674 -0.061068807
0002f0 bf 5c c3 bd a8 86 ac 3d 90 b5 ce bd 04 ba fd 3c
       -0.09539174 0.08424121 -0.10093224 0.030972488
000300 46 28 58 bd 0f f5 dc 3d ca 85 a3 bd ce 5b e9 3d
       -0.052772783 0.10788929 -0.079845026 0.113944635
000310 2b 9f 9b 3d 30 b5 d8 3d 80 73 b2 3d c6 ce 04 3e
       0.07598718 0.10581434 0.08713436 0.12969503
000320 56 72 f7 3c 55 66 03 bd 2b e4 3d bd 82 4e d1 3b
       0.030205887 -0.032080013 -0.046360176 0.0063875327
000330 44 a7 6e 3d 1a d2 f9 3c 56 38 17 3e 8e 47 10 3d
       0.058264986 0.030495692 0.14767584 0.03522449
000340 db d0 5e 3d 30 93 d6 bd 72 e8 d5 3c b5 df a1 bb
       0.0543984 -0.104772925 0.026111815 -0.004939998
000350 43 73 a5 3d df 10 7a be cc 86 3e 3d 52 2d 0c bd
       0.08078625 -0.24420498 0.04651527 -0.03422291
000360 bf ae fe bd 94 04 b9 3d a9 71 b8 3c 6e 07 4e bd
       -0.12435674 0.09034076 0.022515135 -0.050300054
000370 fe 79 d9 3d 01 21 1f bd 8f 9d e7 bd af 8c 44 3d
       0.10618971 -0.038849834 -0.11309349 0.04798573
000380 2a 31 18 bd 6a af e2 3c b9 e5 e9 bd b4 31 42 bc
       -0.03715626 0.027671535 -0.11420769 -0.01185267
000390 6e 5f ef bd 18 50 fa bd b7 68 29 3c ad 13 0a bd
       -0.11688124 -0.12222308 0.010339907 -0.03371017
0003a0 52 ba 40 3d 6d 37 24 3d 45 41 0c be 73 3b 34 bd
       0.04705269 0.04009192 -0.13696773 -0.044002008
0003b0 c3 41 e7 3d dc 01 6d 3d 4c 0d 22 3e 70 08 c1 3d
       0.1129184 0.0578631 0.15825385 0.094254375
0003c0 48 a4 71 bd 91 9a c4 3a d5 8e 21 bd dc 90 b9 bc
       -0.05899456 0.0014999678 -0.039442856 -0.022652082
0003d0 5c ba af 3d 9b 5f f0 bc fd cc 21 be bb 11 a4 3b
       0.08580467 -0.029342463 -0.15800853 0.0050069964
0003e0 3c 3e 99 3d 4b 71 28 3c f6 56 e1 3c 33 64 08 3e
       0.074825734 0.010280917 0.027507287 0.13319473
0003f0 f3 4a d5 3c 9e 0c f0 3b 50 2a 95 3d 99 0c c3 3d
       0.026036715 0.007325723 0.07283461 0.09523887

pointer.fc1.weight f4 [128, 256]
000000 4f df 22 3d e4 a2 98 3c dd b9 9e 3d 9c 73 80 3d
       0.039763745 0.01863236 0.07750294 0.06272051
000010 1d 89 15 3e 6b 56 87 bd 1e aa 8d bd 6b 8c 23 be
       0.14603086 -0.0660828 -0.06917213 -0.15971534
000020 e9 ff 05 bd ac 4e 5b bd b4 fb 65 3c 22 58 ce 3c
       -0.032714758 -0.053541824 0.0140370615 0.02518851
000030 66 af 90 3d 1c 63 34 bd be f7 91 3d f9 12 1f 3c
       0.070647046 -0.04403983 0.07127331 0.009709113
000040 2c 3e d2 bd d1 d8 11 3d 5b 64 18 3d 15 a7 1d 3d
       -0.102657646 0.035607163 0.03720508 0.03848942
000050 f1 37 08 bc dd 31 46 be 19 b5 23 3e bc 77 e8 3b
       -0.008314119 -0.19354959 0.15987052 0.0070943516
000060 f6 fa bd 3d d0 07 bb bd 5b 9f 75 bd 5f da f2 b8
       0.092763826 -0.091323495 -0.059966426 -0.00011580134
000070 4e 93 ef bd e5 b9 f0 bc 21 fe 6b bd 16 15 00 be
       -0.11698018 -0.029385516 -0.057615403 -0.12508044
000080 27 f4 08 bd 26 7e f3 bd 14 2e eb bc 6a bf cd 3c
       -0.033435967 -0.11889295 -0.028708495 0.025115687
000090 e6 2f cb bd b8 2b 69 bd b1 f3 21 bd 2d 34 34 bd
       -0.09921245 -0.05692646 -0.039539043 -0.04399507
0000a0 b5 d6 a9 3d 44 4e fe 3c 00 f9 2f bd 83 80 c6 bd
       0.08292905 0.03104318 -0.042962074 -0.096924804
0000b0 ca 1a 75 bd 85 ce 81 3a 37 97 e4 bd 31 ca 53 bd
       -0.05984 0.0009903467 -0.111616544 -0.051706497
0000c0 1a 01 9c 3d 63 63 2d be aa 80 ec bd 6e ee 3c 3c
       0.076173976 -0.16932444 -0.11547978 0.011531455
0000d0 a8 f5 d0 3d e8 1d c7 bc ae 10 2e 3b 29 84 b0 bd
       0.10203105 -0.024306253 0.0026560235 -0.086189575
0000e0 f8 f1 0e 3d 03 af df bd 5c f7 80 3d 63 f9 dc bc
       0.034898728 -0.10922053 0.0629718 -0.026974386
0000f0 18 67 29 3d 29 05 e4 bc 54 71 c0 3d 0c 22 f4 bd
       0.041358083 -0.027834492 0.093966156 -0.119205564
000100 85 a9 db bb ac 13 a8 bc 5f 90 de 3d 2c 0d c8 3d
       -0.006703558 -0.020517193 0.1086738 0.09768137
000110 49 e7 1f be 28 de ff 3d ae 52 89 bd 3f ad a7 3d
       -0.15615572 0.12493545 -0.06705223 0.08187341
000120 8e f4 56 3c 3f 6b 27 be 18 68 34 3d c8 4c 46 3d
       0.01311983 -0.16349505 0.044044584 0.048413068
000130 a5 57 08 be 00 bb 93 bd 33 65 07 3b d0 a0 21 3d
       -0.13314684 -0.07213402 0.0020659685 0.039460003
000140 b2 13 c3 bd cc d0 99 3d 49 75 87 bd c6 89 98 3d
       -0.09525241 0.07510528 -0.06614167 0.07448153
000150 92 ad c1 bc ab 7d 06 be e4 f1 7f bd c4 90 88 3d
       -0.023642335 -0.13133876 -0.062486544 0.06668237
000160 a1 b3 df bb 82 bb b8 bd 2f 73 00 bc b0 6f b0 3d
       -0.0068268334 -0.09020139 -0.007839962 0.08615053
000170 df 87 1d 3a 4c 53 9b 3c 44 be 0f bd 58 71 a0 3d
       0.0006009321 0.018960617 -0.03509356 0.078341186
000180 e3 c5 10 bd 97 9b 67 3d 7a 2a f9 3d 7f 9d 1b 3c
       -0.03534497 0.056544866 0.12166305 0.009497999
000190 30 1f c5 bc 0e 28 ae 3d 95 a9 57 bc e7 61 0b be
       -0.024062723 0.085037336 -0.01316299 -0.13611566
0001a0 57 dd 9b 3d ff c5 07 bc 44 a3 d6 3d 47 da 04 be
       0.076105766 -0.008286952 0.10480359 -0.12973891
0001b0 6e 02 bc 3b d0 6d 61 3d 4e 89 b6 3d 0f 28 83 3c
       0.0057375943 0.055036366 0.089129075 0.016010312
0001c0 3c 43 24 bd 48 ab 3e bd 9c 57 09 be b7 3d d0 bd
       -0.040103182 -0.046550065 -0.13412327 -0.10168021
0001d0 7b 29 84 3d 94 35 90 bc 3d 00 e1 bb b4 1e 75 3d
       0.06453224 -0.017603673 -0.0068664835 0.059843734
0001e0 70 1b 30 bd b4 41 a5 3d 69 e1 ae 3c 97 ca 70 bc
       -0.042994916 0.080691725 0.021347718 -0.014696739
0001f0 3f 1c 1e be d2 08 5e bd b6 54 8a bd b2 bb ae 3c
       -0.15440463 -0.05420763 -0.067544386 0.021329734
000200 1f a9 1f bd fb af 05 be 7e a3 cf bd c9 88 1d 3d
       -0.038979646 -0.13055412 -0.101386055 0.038460527
000210 7e 43 69 3d 67 12 22 3e 4c 87 29 bd f4 29 15 3e
       0.05694913 0.15827332 -0.041388795 0.14566785
000220 90 c4 62 3e ea b5 1c 3e 17 a9 34 3e 90 bb 73 bd
       0.22145295 0.1530377 0.17642628 -0.059505045
000230 39 1c f5 3b c4 b5 d1 bd c8 b2 f3 bd 95 91 ad bd
       0.007480171 -0.10239747 -0.11899334 -0.08475033
000240 6e 49 21 3e f0 ad bc 3d ea 2d ae 3d 5b e5 a3 3d
       0.15750667 0.092128634 0.08504851 0.080027305
000250 3f 59 f5 3d eb 90 b4 3c 7d bd 01 3e 1a 2b 97 bd
       0.11979913 0.022041759 0.1266994 -0.07381268
000260 dc 7a 18 3d 33 4c fa 3a 9c c5 8c 3e da 9d 9a bd
       0.037226543 0.0019096195 0.27494514 -0.07549639
000270 0b b8 a1 3d bf 39 91 3c 34 eb 1a 3e b4 03 58 3d
       0.078964315 0.01772773 0.15128785 0.052737907
000280 6f 7a 58 3c f3 76 f3 ba 8b e3 a9 bd 66 b3 4b bd
       0.013212784 -0.0018574878 -0.082953535 -0.049731635
000290 0d 89 2d bd f4 58 b8 3d 6c 5c 0f 3d 2f 29 17 be
       -0.04236703 0.090013415 0.03500025 -0.14761804
0002a0 ef 36 59 3d 98 e9 c8 3d 7f c7 da 3c 44 fe 78 bd
       0.053030904 0.098101795 0.026706455 -0.06078936
0002b0 d9 21 00 bc b0 d0 40 3d 4c c6 86 3e 29 78 f7 3a
       -0.00782057 0.04707402 0.26323164 0.0018880415
0002c0 35 c5 52 3e 26 45 15 3d 4c a6 e2 3d 6f f7 9c 3d
       0.20583041 0.0364429 0.11066875 0.07664382
0002d0 42 92 a6 bd a0 cf c6 bb 66 1c a0 3d ee 35 b5 3d
       -0.08133365 -0.0060672313 0.078179166 0.08848177
0002e0 b3 7e eb 3c c0 c4 90 bd 39 d2 64 3e be 2a 19 3e
       0.028746938 -0.07068777 0.22345819 0.14957711
0002f0 23 74 bf 3c 29 79 44 3e 8f 77 90 3d 64 ca e5 bc
       0.023370808 0.19186844 0.07054054 -0.028050609
000300 44 1b 06 be 59 03 1d 3e 21 b5 f2 bd 44 ce d4 3c
       -0.13096339 0.15333308 -0.11850954 0.025977261
000310 17 32 df 3d b2 58 81 bd 0a 94 64 3d 81 68 15 bd
       0.10898226 -0.063157454 0.055805244 -0.036476616
000320 f1 fe 14 bd d3 66 b8 3b 8c 06 24 bd b1 42 b8 bc
       -0.036375944 0.005627492 -0.040045306 -0.022492738
000330 89 3f 86 bd cc 37 c2 bd 5f 35 5b bd 80 4c 8d 3d
       -0.06555087 -0.09483299 -0.053517696 0.06899357
000340 64 ee a9 3c c4 a8 09 be 72 35 83 3d 0f 6d 22 bd
       0.020743556 -0.13443285 0.06406678 -0.039654788
000350 3c 5e af 3d 3a fd 17 3e 2b 18 01 3e 70 99 4c 3e
       0.08562896 0.14842692 0.12606876 0.19980407
000360 5a a9 86 bd ee ce 34 3e 8d be bc 3c 68 e3 0b be
       -0.0657527 0.17657062 0.02304008 -0.13660967
000370 86 e2 09 3d eb 06 80 bd b5 98 2c be d9 0b 89 3c
       0.033663295 -0.062513195 -0.16855128 0.016729282
000380 8d 28 e2 3d 13 e5 55 3e 9c a2 da bd d3 2b 87 3d
       0.11042891 0.20888166 -0.106755465 0.06600156
000390 9e 91 0e 3d 24 7b c4 3d 1d 0a 2f bc 7b d2 30 3e
       0.03480684 0.095938 -0.010683564 0.17267792
0003a0 9c c8 2c bc 0d fb 35 3e c2 44 bb 3d cf 31 7f bd
       -0.010545876 0.1777155 0.09143974 -0.06230336
0003b0 34 3f 96 bd 56 3d 10 bd c3 1b bf 3d 29 d6 21 3e
       -0.07336274 -0.035214745 0.09331467 0.15804352
0003c0 2c 68 e3 3d e1 e8 0c bd ef 52 29 3e 68 0b 6e bc
       0.111038536 -0.034401778 0.16535543 -0.014529087
0003d0 6d 1d 85 3d 08 9e b0 bc f6 1c bc 3d 6b 0e 87 3d
       0.06499753 -0.02155973 0.09185211 0.06594547
0003e0 b4 be 20 3e 44 0b 1f 3e 76 d3 64 3e bf 32 c8 3d
       0.15697747 0.15531641 0.22346291 0.09775304
0003f0 3c 36 90 3d 60 2a e8 bd 81 93 41 3e 82 95 5e bd
       0.070415944 -0.113362074 0.18903925 -0.0543418

pointer.fc1.bias f4 [128]
000000 ff ba 85 bd 29 16 47 bd d3 90 d7 3b ff 7f 23 3d
       -0.06529807 -0.048605118 0.0065785437 0.03991699
000010 35 bd 92 3c c6 f2 35 3c c7 39 8e bd 34 85 22 bd
       0.017912487 0.011105245 -0.06944614 -0.039677814
000020 6b 98 e7 bc fe ad aa bc 87 84 9b 3d f1 1e 13 3d
       -0.02827092 -0.020834919 0.07593637 0.03591818
000030 bc d6 1b bd b6 c6 ca 3d 56 18 57 3c a5 68 9a 3d
       -0.038046584 0.09901182 0.013128361 0.075394906
000040 75 04 a6 3c 29 d2 1d 3d d4 dd de bc fb 77 02 3d
       0.020265797 0.038530502 -0.027205385 0.031852704
000050 cf 05 45 3d 87 6c 42 bd 1c 1d c1 3c 03 ce 86 bd
       0.048101243 -0.04746678 0.02357345 -0.06582262
000060 4d 48 39 bd e3 0a 8b bc 58 0c 9a 3c 37 4d 98 3c
       -0.045234967 -0.016972965 0.018804714 0.018591506
000070 be 20 97 ba d5 4e 00 3d 4d 04 46 3d 98 be 33 3d
       -0.0011530144 0.03132518 0.048343945 0.043882936
000080 d0 c1 f3 3b e6 2f 17 3d ad 8c 9f bc c1 a5 47 3c
       0.0074388757 0.036910914 -0.01947626 0.012185515
000090 be 77 34 bd 63 c5 a4 bd a3 41 a2 3c 1c 56 8d 3d
       -0.044059508 -0.08045461 0.019806689 0.0690119
0000a0 bf 29 2e bc 17 90 57 bd da 61 2b 3d 0f 6d 89 3a
       -0.01063007 -0.05262765 0.041841365 0.0010484773
0000b0 2c 0c 31 3c 52 dd 57 3d cc e9 da bc f6 01 61 3d
       0.010806125 0.052701302 -0.026722811 0.05493351
0000c0 9d d6 b3 3c 1d 17 3c bd a2 ec 84 bc 64 6b 43 bd
       0.021952922 -0.04592048 -0.016226117 -0.047709838
0000d0 2b 81 e2 3c e8 a4 48 3d fe 62 27 bd fc a1 14 3d
       0.027649483 0.04898539 -0.04086589 0.036287293
0000e0 e5 d0 98 bc be 02 47 bd ed 74 67 bc cc 79 98 3c
       -0.018654296 -0.0485866 -0.014126998 0.018612765
0000f0 10 20 7a 3d 00 eb 95 3c ca f7 44 3d 15 a1 44 bd
       0.061065733 0.018300533 0.048087873 -0.048005182
000100 df e9 cd 3d d3 cc b4 bc ce e6 e1 bc 4c 77 82 3d
       0.10054373 -0.022070324 -0.027575877 0.0637041
000110 d4 fc 36 3c 3a 0d ab bc 58 0f 1c bd 86 19 f3 ba
       0.011168677 -0.02088033 -0.03810057 -0.0018547035
000120 ee 48 5f bd 09 ea 57 bc f1 c6 12 bd e0 83 7c 3d
       -0.05451291 -0.013178357 -0.035834257 0.061649203
000130 05 76 d5 3c 8e fa 27 bd a7 c1 04 bd 0c 11 e1 bc
       0.026057253 -0.041010432 -0.032411244 -0.027473949
000140 19 55 91 bc 1a 60 f3 3c 30 a8 62 bd 55 9a 38 bd
       -0.017740773 0.02970891 -0.055336177 -0.045069057
000150 dd 56 b5 bc 49 8f 93 3d 45 78 49 bd a3 0b 2f 3d
       -0.022136146 0.07205064 -0.049186964 0.042735707
000160 6e 1f 34 3d 08 fe 17 bd 75 5a 1c 3d a2 90 19 3c
       0.043975286 -0.037107497 0.038172204 0.009372862
000170 bf de f8 3b 05 59 25 b9 00 d8 b4 3d 0f 0f 3f 3d
       0.007594913 -0.00015768789 0.08830261 0.04664522
000180 ed c0 0e bd 83 4d 17 bc 5a 85 71 bc 73 4c 6a 3a
       -0.034851957 -0.009234789 -0.014741266 0.00089377834
000190 5d 6c 4d bc a5 de 4c bd d8 2c 0a 3d 0a 0a 45 3d
       -0.012538043 -0.050017018 0.033734173 0.048105277
0001a0 dd fe cf bc 32 d9 1a bc af 0e 72 ba 07 72 44 bc
       -0.025390083 -0.009451197 -0.00092337554 -0.011990077
0001b0 7b 34 08 bd e6 09 50 3d d1 83 cf 3c 0f fe 1d bd
       -0.033253174 0.05079069 0.02533141 -0.038572367
0001c0 82 17 ad 3c a3 18 fc bb 29 19 86 3c 11 1f 48 3d
       0.021129373 -0.0076933666 0.01636942 0.048857752
0001d0 e0 e6 14 3d f1 49 de 3c 63 3d 00 3d eb 4b c3 bc
       0.036352992 0.027134867 0.031308543 -0.023839911
0001e0 15 11 4a 3d 98 81 19 3d ce 7b f4 3c 3c da 36 3d
       0.049332697 0.037477106 0.02984419 0.04464172
0001f0 6e 6c 6b 3c 32 15 97 3d d1 e2 77 3c 84 ab 9e bc
       0.014369113 0.073770896 0.015129761 -0.019368894
