trained_models/cvrp/XE_11/model_incumbent_vrpRl13_C_XE_11_P_0.1_41632.pt (torch_old, 469732 bytes, 15 tensors)

all_embed.embed.weight f4 [128, 4]
00000000: b5d3 fb3e 7b74 6a3f ec1d 19bf 929a 353e
00000010: 2ced c23e 5345 e93e ed48 94bf 0f41 cb3e
00000020: 92b5 7bbe 001e 18be ad9b 4dbf 70e5 0b3f
00000030: 671d 653f 3a04 14bd d412 b2bd 8978 26bd
00000040: 46ce 7e3f 52c2 b33e f1a1 503e e9cd c0bc
00000050: 4df5 e2bd 8834 b33c 91ed 28be 4338 58be
00000060: 4768 e6be 7e03 b03e 7b6c 6abf 0a9e a63e
00000070: eabd 353d 0db8 c5be 2393 26bf ed96 723e
00000080: fe44 173f 5328 753f bf2f 883d 2d7f 493e
00000090: b95f dfbe 0322 e8be deb3 7dbd 0b3f 3dbe
000000a0: 77b5 92bd a78b 3b3f 000e 13bd eb52 2abc
000000b0: 20a0 d4be d6d6 043f cab2 843e f8c5 a8bb
000000c0: 493e e8bb 1337 3b3f 10e5 ad3e 0236 603c
000000d0: 128d 4dbd 8fa1 533f c8f4 5ebe a8de 30bd
000000e0: 8ef0 9abe f65a b2be 569a 4dbe f340 57be
000000f0: 4737 80be 2f3d 61be 6f2b c93d 93df babe
00000100: 3d13 e1be da70 febd 6dfe a7bd 4042 b3ba
00000110: a941 1d3f f54c a4bd ab08 903e 93c8 883e
00000120: 97ba e13d 7c7d 253f 177e 1a3f f8f2 073e
00000130: 685d b2bc 381e 11bd eed5 0b3e a051 3c3d
00000140: cf7a 43be 33ef d0bb 53ca f7bd c9a4 bfbe
00000150: c64f 85be c238 70be 0751 34be f5d1 34be
00000160: ac9b f73e 99c2 97be 704d 6cbe 0584 cc3e
00000170: fefe 80bd f9bc 1abe 6179 d5bd 746e aebd
00000180: 1ae0 1c3f e405 433f 7067 123f 10ad 33bd
00000190: 74fa 6dbd dbf9 9fbd cb0e 103f c13e 56be
000001a0: 87d9 743e 902c 4a3f 4499 353e 9afc 9bbb
000001b0: ca10 8cbd 0475 a03d 8870 afbc e8cf aabc
000001c0: 6d3c 623f 2c40 8c3e ffce 9ebe 10cf e83d
000001d0: a89b 4f3d 083c 52be a463 9c3d 1c91 bd3d
000001e0: e850 c73c 16d1 07be 5624 2a3e 4cc2 023d
000001f0: 7f83 203f 977e e6bd 73fa 1e3f 21ff 7b3e
00000200: e967 75be b2af 63be a810 a6bd 857b adbe
00000210: 0058 df39 a48c 14be 78bb ddbc 5886 903d
00000220: 4f18 afbe db02 c33e 3321 1cbf 11fd 753e
00000230: 1ef9 203e 7021 c6bd 94df 263e 243a 43bd
00000240: 39cc 903d b668 7c3e 3398 923d e9bc e13e
00000250: bae6 c5bd 106e 8abc 28d9 9c3c 801b d33c
00000260: 1cfe 9bbd a360 b0be ca01 4bbf 69b8 763e
00000270: 6f6c 933e ec49 373f 5008 30bf a3c0 0cbe
00000280: 0874 233d 26b3 473e 1016 d0bc 04ff 50bd
00000290: 2809 37be cfd6 57be 806c 07be 80d9 c9bc
000002a0: 8df4 18bf ef34 453d 3d01 ff3e 3919 af3e
000002b0: 46eb 3ebe 3af1 373e 039a 68be 29d8 d5be
000002c0: c1dd 323c 825d 423f 207f 9e3e 3c30 52be
000002d0: e9bb 7ebe a066 bbbd c8ef 99be eaa7 71bd
000002e0: 47c9 053f a431 4bbe 70d1 04bf 61d9 a63d
000002f0: 318a afbe 3b10 9abe 0f2f 80be 1cc6 ff3e
00000300: f684 cabe c510 04be 6a30 f03e ceea e23e
00000310: 8316 693e dbb5 563f 5c40 c0bd 86ef fbbc
00000320: f468 c43e 8266 9f3e 8317 8d3e 100f 943e
00000330: 45c5 b63e 0572 a3be 64a5 a83e 94f8 e33e
00000340: b081 f0bc a498 0e3f 0825 32bf 033d 85be
00000350: 3909 4cbe 183c 0abd 9050 06bc 5fab e2bd
00000360: 5b5c 3c3f 97cd 31be a0db 1a3f 0c55 f93b
00000370: eb96 a93e d376 e0be 9213 703d 10b6 8a3e
00000380: df6d e83d e7dc 583f 10ea 20be cb0e 543e
00000390: 8194 d63d 95b8 8bbe b84d e0be 6e2b 5bbe
000003a0: d083 73bd 608f 063f 1b4b 203f 7e35 db3e
000003b0: e0bb abbe eb43 c83c 0728 e63e 6f71 cebd
000003c0: ac93 34be e46b 9bbd d312 4abd 3b0e cdbd
000003d0: d0cd 6fbd e4f4 74bd c045 b23c 0036 51bd
000003e0: eee1 4a3e 148f 24be 68eb d23d 82b0 91bd
000003f0: 7409 a2be 1bfd 9dbc c72d 9fbc 8dac 4dbe
0.49184957 0.91583985 -0.5981128 0.17734745 0.38071573 0.45560703 -1.1584755 0.39698073
-0.24580982 -0.14855194 -0.8031567 0.5464697 0.8949799 -0.036136843 -0.086949974 -0.040642295
0.995335 0.35109192 0.20374276 -0.023535686 -0.11081944 0.021875635 -0.16496874 -0.21115212
-0.45001432 0.34377664 -0.9157178 0.3254245 0.04437057 -0.38616982 -0.6506826 0.23690386
0.5908965 0.95764655 0.06649732 0.1967742 -0.43627718 -0.4533845 -0.061939113 -0.1848108
-0.07163518 0.7325997 -0.035902023 -0.010395746 -0.41528416 0.51890314 0.25917655 -0.005150553
-0.007087503 0.7313091 0.33963823 0.0136847515 -0.050183363 0.82668394 -0.21773064 -0.04318109
-0.30261654 -0.34835023 -0.20078406 -0.2102087 -0.25042173 -0.21995996 0.098227374 -0.364987
-0.4395999 -0.124238685 -0.08202825 -0.001367636 0.61428314 -0.08022491 0.28131613 0.26715526
0.11021917 0.646446 0.6034865 0.13276279 -0.021773055 -0.03542921 0.13655826 0.04597628
-0.19089817 -0.006376171 -0.12099137 -0.3743041 -0.26037425 -0.23459151 -0.17609034 -0.17658217
0.48360956 -0.29640654 -0.23076415 0.39944473 -0.06298636 -0.1511115 -0.10423542 -0.08517161
0.6127945 0.76180863 0.57189083 -0.043866217 -0.05810018 -0.07811328 0.5627257 -0.20922376
0.23911105 0.78974247 0.17734247 -0.004760337 -0.0683914 0.07834819 -0.021415964 -0.02085109
0.8837345 0.2739271 -0.310173 0.11367619 0.050685555 -0.20530713 0.076361924 0.09256193
0.024330571 -0.13263354 0.16615424 0.031923577 0.6270065 -0.11254614 0.62100905 0.24609043
-0.2396542 -0.22234991 -0.08108646 -0.338833 0.0004259944 -0.14506775 -0.027066931 0.07056874
-0.34198233 0.38088116 -0.6098816 0.24022318 0.1572003 -0.096743464 0.16296226 -0.04766287
0.070702024 0.24649319 0.07157936 0.4408944 -0.09663148 -0.016898185 0.019146517 0.025769949
-0.07616827 -0.34448728 -0.79299605 0.24093784 0.28793666 0.7159717 -0.68762684 -0.1374536
0.039905578 0.19501933 -0.025401145 -0.05102445 -0.17874587 -0.21078037 -0.13224983 -0.024639845
-0.59748155 0.048146185 0.49805632 0.3419893 -0.18644437 0.17963114 -0.22715001 -0.4176648
0.010917128 0.7592393 0.30956364 -0.20526212 -0.2487637 -0.091504335 -0.3006575 -0.058998026
0.5226025 -0.19843155 -0.51882076 0.081469305 -0.3428512 -0.30090508 -0.25035903 0.49955833
-0.39554566 -0.12897022 0.46911937 0.44319767 0.22762494 0.8387124 -0.093872756 -0.030753862
0.38361323 0.31132895 0.27557 0.28917742 0.3569738 -0.31922927 0.32938683 0.44525588
-0.029358715 0.5570166 -0.69587755 -0.2602311 -0.19925393 -0.033748716 -0.0081979185 -0.11067843
0.73578423 -0.17363583 0.6049137 0.0076090153 0.33122954 -0.43840656 0.058612414 0.27092028
0.11349081 0.8471207 -0.15714288 0.20708768 0.104775436 -0.27289262 -0.43809295 -0.21403286
-0.059451878 0.5256252 0.626146 0.4281425 -0.33541775 0.024446448 0.44952413 -0.100802295
-0.17634457 -0.07588938 -0.04933436 -0.1001248 -0.058545887 -0.05980386 0.021761775 -0.05107689
0.19812748 -0.16070205 0.102988064 -0.07113744 -0.31647837 -0.01928573 -0.019431008 -0.20085354

all_embed.embed.bias f4 [128]
00000000: 3eae 52be 7cc6 b4be 5535 0fbf c28f 7b3e
00000010: af86 0a3d d0a9 ebbe 5036 173e 5990 013f
00000020: 4f25 c1bd e76a ae3e 2cda 6c3d 8bc6 c33e
00000030: 4d55 e93b f793 6c3e 9a22 a93e d76d d13e
00000040: 0686 113f c16b 86be d2ce d03e de70 a2be
00000050: 7c16 c33e 3411 803e 521d 12be 484c 65be
00000060: 2ad3 6bbc 4cd2 253f b243 f6bc 4cdf 1fbe
00000070: af9f 163f 9443 e0be e4d9 c2be 9826 39be
00000080: a0ff bd3e d0fa b8be ac5e b93c e4fd dcbe
00000090: 76fd e1be d0a2 f0bd eeaf b73e 5bac 073f
000000a0: 1eff dcbe 08a8 98be 9540 483e 48a2 613d
000000b0: a2fe 0a3f f8d3 f63e a488 873e 87e3 8d3d
000000c0: 323b 8a3c 1a24 af3d f5f3 abbe d23a 34be
000000d0: 1ad9 f03e 5680 a2be b91a 843e 15cf da3d
000000e0: 4aa7 4a3e 5297 353e 631f ddbe 131c f63e
000000f0: f234 1bbe f4d0 27be 84f5 9ebe 4a23 b83e
00000100: 7eb4 e9be a340 213f 12ab fcbe 3972 50be
00000110: 8abf 533f c962 6bbe b68b be3d e27b f03e
00000120: c2ab 223f 5269 fdbe 1c26 de3e 1d5d 433e
00000130: 97d8 6e3f 96ab d5bc a40c 6cbe ce56 7f3d
00000140: 42cd e43d dba4 8b3d 65be 0e3e 0270 dbbe
00000150: c460 bebe 59cb e33e e69e 8ebe 49da 0e3c
00000160: aa50 ccbe cbec 203f 4015 af3e d325 863e
00000170: 893a 893e 2365 fc3e 1aa0 b5be 531e 5d3e
00000180: 799a 333d d163 c73e 9bb2 673e 8a62 23ba
00000190: 1261 90be c724 e63e a3db 19be 02b1 44be
000001a0: 5418 e6bd 7014 e2be 8a18 083f bd64 33be
000001b0: 8599 943e a899 50be 4555 8a3e 3c68 89bc
000001c0: f6c4 f33e caa3 553e 2a86 d0be 7015 e0be
000001d0: a8ea 9cbd 99c5 823e 5846 023f 5460 babe
000001e0: 1ea3 1f3f 8e02 c13d 2e0d b33e 880e 6bbd
000001f0: 2470 d33e 7f17 833e b696 9a3e b2c0 9c3e
-0.2057428 -0.35307682 -0.55940753 0.24566558 0.03381985 -0.46027994 0.14766812 0.5061088
-0.09430944 0.34065935 0.057825252 0.38237414 0.0071207643 0.23103319 0.3303421 0.40904114
0.5684513 -0.26254085 0.4078279 -0.31726736 0.38103092 0.25013125 -0.14268997 -0.2239238
-0.014393607 0.6477401 -0.030061577 -0.15612525 0.5883741 -0.43801558 -0.38056862 -0.18081129
0.3710909 -0.36128855 0.02262815 -0.43162453 -0.44138688 -0.11749804 0.3587641 0.5299737
-0.4316339 -0.29815698 0.19555886 0.055086404 0.5429479 0.48208594 0.26471436 0.06928163
0.01687393 0.08551808 -0.33584562 -0.17600563 0.47040635 -0.31738538 0.25801638 0.10684029
0.19790378 0.17733505 -0.4318801 0.48068294 -0.15156916 -0.16388303 -0.3104669 0.35964423
-0.45645517 0.6298925 -0.49349266 -0.20356072 0.8271414 -0.22986902 0.093039915 0.46969515
0.6354333 -0.49494416 0.4338845 0.19078489 0.9329924 -0.026082795 -0.23051697 0.062338643
0.11171962 0.06818553 0.13939817 -0.42858893 -0.371832 0.4449108 -0.27855605 0.008719035
-0.39905292 0.6286132 0.341959 0.26200733 0.2680247 0.4929591 -0.3547371 0.21593599
0.04384849 0.3894334 0.22626726 -0.000623264 -0.2819906 0.44949934 -0.15025191 -0.19208148
-0.11235109 -0.44156218 0.53162444 -0.17518897 0.29023376 -0.20371115 0.2701818 -0.016773336
0.47611207 0.20863262 -0.4072736 -0.43766356 -0.07661945 0.2554138 0.50888586 -0.36401618
0.6235827 0.094243154 0.34970993 -0.057386905 0.41296494 0.25603864 0.30193108 0.30615765

all_embed.embed_2.weight f4 [128, 128]
00000000: fe3b b8be ece3 95be 2a4c 23bd 61b0 1abf
00000010: 4752 2fbf 1890 19be 7594 903e eced 1d3e
00000020: cfc4 dfbe e402 b13e e24f 80be daaf 8ebc
00000030: d2c1 1abe bfb7 edbd 72e6 f53d c273 7abe
00000040: 35d3 5a3f ad1b babe aa26 b1be 92d3 833d
00000050: fbd1 61be 61d9 e4bc b23f 25be 0009 08bb
00000060: 2df1 d4be 298b c5bd 9306 efbe 0ff7 0f3e
00000070: 34e0 82be f44c 8c3d 602e a1bc 3f2b 10bf
00000080: af82 80be e03b e4bb 0d48 e23d 23b1 a7bd
00000090: 2468 853c 4855 163d e9dc 393f a305 40be
000000a0: de32 e73d fdca 9dbd 5976 b63e cddc c1bd
000000b0: 19f7 a9bd e70d d33e 5654 f2be ce46 a73e
000000c0: 3fe8 983e d0b6 d4be afb9 e7be f6fe 65be
000000d0: e3f4 243e f609 d33d 170f 05bf b3d3 2bbe
000000e0: 8b13 5fbe 9349 e53d 3516 01bd a840 b93e
000000f0: df8b 2c3d 26e2 09be a16f 153e 3f83 c43d
00000100: a901 023e f657 8f3e 2218 c4bd 4362 7d3c
00000110: 7e5e f03d 8178 0cbf 128a d3bd c2ac 0cbf
00000120: bb16 35bd 1c0d c9bd 6e48 193e 5ecc e83e
00000130: cefe 9dbd 0ca8 c0be 75f8 6ebe 86d7 1a3e
00000140: d62c 653d ec9f 353e ddd9 cebe 6174 163e
00000150: b013 853c 6508 cabd 6cae 2a3d 680d 7e3e
00000160: e1f6 8ebd b84f cfbe 4164 8dbe 04f2 20bd
00000170: 9210 99be 5cf8 8a3f 758e 4dbe 717e 04bf
00000180: 0031 5bbd 59d2 cf3d 33a1 a4be 6ae4 d33d
00000190: 76ae a53d 64db 293d 092d c0be a46f cc3d
000001a0: 7e37 93be f021 d6bd 0555 b73e 632b a83e
000001b0: 9d68 30bd 4488 d2bd b826 693e d929 3d3d
000001c0: 41d2 df3e 46ef 2bbf ac83 0c3d 2aa1 e93d
000001d0: 5ee9 f83d 093b 633e 7cab 243f 7040 a3bc
000001e0: eec1 57bd 2134 9dbd eae2 8e3e e5ba f23d
000001f0: 365b 69bd 89d9 ff3b 0dec 22bf c1fc cebd
00000200: 4435 fb3c 6c6c 693e d1b6 9fbe 45df 023e
00000210: aba9 da3d 682a 5dbd f38d babc a7b1 933d
00000220: 8dd3 aabd d127 9a3e dbe4 31be d51f 6d3d
00000230: 5a9e b8bb a7c1 6dbd 5551 913e 6975 573e
00000240: 23a0 b53d 5b1d 05be 5d8e 29bd 80e0 b73a
00000250: bcaa 363e 3e58 603e 30c3 513b d0d0 453c
00000260: 024e 8c3b 0103 333e 541e 1cbe 8e27 d03d
00000270: d4e7 683c 7483 0f3d 509c 01bc 6d9c ecbd
00000280: 2612 da3d 484f aebc 797e c8bd f56c b1bd
00000290: 145e b0bd 68c7 0e3d b92d b33d 52f9 793e
000002a0: ce73 e33d 9afe 1bbe 204a 9cbd a872 8abd
000002b0: 8666 2c3e 3754 d83d 40c7 9b3e ee9d 66be
000002c0: 4c02 b7bd 8f48 afbd 0a9b b8be c496 12be
000002d0: 66d8 c53d 56df 81bd 555d b43d 97c8 03be
000002e0: e73d df3a 3c4e b73d 0dd5 07be ce8a e43c
000002f0: 26c5 b23c e283 813d 8c3f bbbd ecb4 8b3e
00000300: 20e1 da3c 373a 7a3e 34ff 1e3d e92a 8fbe
00000310: 4b34 2c3d 4b5b c7bc 4a50 063d fbdf d43d
00000320: b021 953d 5c3e 853d 5158 eebc 1ed9 8abe
00000330: 09b7 5f3e f4ca 81be d831 28bd 13f7 61be
00000340: 278e 6fbe 2af9 e8bd a983 a63c 6364 0b3e
00000350: b719 d0bd 7166 a63d 1091 543d 2598 22bd
00000360: 90bf 0a3c 1a12 983e d395 b1bd f5ee 0fbd
00000370: 61b1 b83d 564b bb3d 13f0 a4be fa34 7d3c
00000380: 2234 98bd 5305 243e 6ef3 1fbe 1ab2 48be
00000390: 71df 6a3c de79 823e 3fd2 58be 43c2 8abe
000003a0: 8523 3cbe 067b e33d 5f7f 043e 7435 863d
000003b0: e6c4 293d a35d b0bd 102b e7bd 9f2b d7bd
000003c0: cf77 83bd 086c 013e 732a 15be 42cc 47bd
000003d0: 9e49 4fbd c5f8 e73c f033 03be 98b5 01be
000003e0: 5e7e 1a3d 0914 f13d 8a8e 87be 6003 f73d
000003f0: 87f9 ce3e 7f59 ccbc 9c6a 303e 0dc0 1dbe
-0.3598327 -0.29275453 -0.039867558 -0.6042538 -0.6848492 -0.14996374 0.28238264 0.15422791
-0.4370484 0.34572518 -0.25060946 -0.017417837 -0.15112999 -0.116073124 0.120068446 -0.2445822
0.85478526 -0.3634924 -0.3459981 0.06436838 -0.22052757 -0.027935686 -0.16137579 -0.0020757318
-0.41590253 -0.09645683 -0.46684703 0.14059089 -0.25561678 0.06850615 -0.019675434 -0.5631599
-0.25099704 -0.0069651455 0.11048899 -0.08188083 0.01628501 0.036702424 0.7260271 -0.1875215
0.11288999 -0.077047326 0.35637167 -0.094659425 -0.08299083 0.41221544 -0.47329968 0.32671207
0.2986469 -0.41545725 -0.45258853 -0.22460541 0.16109042 0.10304634 -0.5197615 -0.16779976
-0.21784799 0.11195674 -0.03151532 0.3618214 0.04212558 -0.13465175 0.14593364 0.09595346
0.12695946 0.27996796 -0.095749155 0.015465322 0.11736773 -0.54871374 -0.10329069 -0.5495111
-0.04421113 -0.098169535 0.14969036 0.4546842 -0.07714616 -0.3762821 -0.23336966 0.15121278
0.055950962 0.17736787 -0.40400591 0.14692833 0.01624474 -0.098648824 0.041670248 0.24809802
-0.06980682 -0.40490508 -0.2761555 -0.039293304 -0.29895455 1.0857043 -0.20073874 -0.51755434
-0.053513527 0.101475425 -0.32154235 0.10346301 0.080899164 0.041468993 -0.3753436 0.09982231
-0.28753275 -0.10455692 0.35807052 0.328456 -0.043068517 -0.10279897 0.22768676 0.046182487
0.43715099 -0.6716198 0.03430526 0.11407693 0.12153886 0.22190489 0.64324164 -0.019928187
-0.05267518 -0.076759584 0.27907497 0.118520536 -0.05697175 0.0078079146 -0.63641435 -0.10106803
0.030665047 0.22795266 -0.31194165 0.12780483 0.10676893 -0.05399552 -0.022772765 0.07211619
-0.08341131 0.30108503 -0.17372458 0.057891686 -0.0056341114 -0.05804601 0.28382364 0.21040882
0.08868434 -0.1299948 -0.041395534 0.0014028698 0.17838567 0.21908662 0.003200721 0.012073711
0.00428176 0.17481615 -0.15245944 0.101637945 0.014215428 0.035037473 -0.007910803 -0.11553273
0.10647993 -0.021278039 -0.09789748 -0.0866336 -0.08611694 0.034858137 0.08748955 0.24411514
0.11106072 -0.15233842 -0.07631326 -0.0676015 0.16835985 0.10562938 0.30425453 -0.22521183
-0.08935985 -0.08558761 -0.36055785 -0.14315325 0.09660415 -0.06341426 0.08806864 -0.12869488
0.0017031998 0.08950469 -0.13264866 0.027898218 0.021822523 0.06323983 -0.0914298 0.2728647
0.026718676 0.2443627 0.0388176 -0.27962425 0.042042058 -0.024335524 0.032791413 0.103942834
0.07281816 0.06506035 -0.029094847 -0.27118772 0.21847166 -0.25350153 -0.04106316 -0.22066908
-0.2339407 -0.11375649 0.020326452 0.13612513 -0.10161155 0.08125008 0.051896155 -0.039695878
0.008468524 0.2970131 -0.08671155 -0.035139997 0.09018207 0.091452286 -0.32214412 0.015454525
-0.074318185 0.16017656 -0.15620205 -0.1959919 0.014335499 0.25483602 -0.21173953 -0.27101335
-0.18372925 0.11107449 0.12939213 0.06553164 0.041447543 -0.0861161 -0.112875104 -0.10506367
-0.06419336 0.12638867 -0.14566974 -0.04877878 -0.050607316 0.028316865 -0.12812781 -0.12666929
0.03771817 0.117713995 -0.26475936 0.120611906 0.4042475 -0.024945019 0.17228168 -0.15405293

all_embed.embed_2.bias f4 [128]
00000000: f1cf 2bbc e868 f6bc cd11 133e 20d4 67bd
00000010: 9012 0cbe d7b7 b53d 0928 4bbe a5c3 593d
00000020: bc0b 373e 2b89 0bbe b55a 19be 3705 debe
00000030: 27cc cf3d ba99 b93d 37d7 f7bd 5d5f 0c3d
00000040: 37cf 05be c6f8 083d 5e44 4bbd ca7d bebd
00000050: f5ef f5bd 6a0e 233d 8a62 06be 4592 243b
00000060: c0f7 09be d2a1 9dbd f503 9cbe 9bf8 47be
00000070: 9512 14bd c70c 003d 5562 e2bd 4b84 0bbd
00000080: 00ef 103e 7f66 423e 89d8 9e39 be54 95be
00000090: 3e93 8abe 586f 76bc 901f 1d3e 596e 1dbc
000000a0: 34e4 cdbd 5b76 b3bd c24b 4e3d d2fd e3bd
000000b0: fb2c 94bd e228 38be 1fbd c5bd 8d3c 0bbd
000000c0: 52f9 6fbc f576 69bd 4f3c 4fbc b293 ef3d
000000d0: 1387 eabc c05c a93c e2f3 38be 35b9 0ebd
000000e0: 513b 393c 0204 94bb ce09 84bd aa8d b5bd
000000f0: d456 3cbe 1db2 e1bd 55c8 a0bc aeef 10be
00000100: 7a00 e0bd 6260 353d 89e7 77bd 8269 29be
00000110: 675b 25bd daa6 dabd 2ab9 fb3d 6ca0 72be
00000120: 3cce 77bd a7fa fe3d 371c 73be 34a9 163e
00000130: 9537 ad3d c47e 4dbe db2c cabc 5cd3 04be
00000140: afdc 8f3d a9bf 34be b3ec 2abe 59a9 033d
00000150: d041 3d3e a397 6c3d eb24 5338 04ca 16be
00000160: 7762 4e3d cfb3 013e 26b3 9abd ab81 7b3d
00000170: 3f78 64bb 2c66 28be 440e 11be 81f4 b03d
00000180: fd67 b4be 6908 44be e31a 4bbe 2337 91be
00000190: 0355 2abd 6e8d 2fbe 08b1 a6be 4828 b1bd
000001a0: 446c cebd f4ba 19be 7ab1 2b3d 353a 663d
000001b0: 2424 63bc 8984 523e 4374 253c f2ea a7be
000001c0: b4b8 37be 3176 80bd 9288 debc 4624 e0bd
000001d0: 8df1 bdbb 30a6 a1be abe6 cc3c 9e37 8ebc
000001e0: ebbb e03c 60e1 1ebe 74c2 c4bd 4fb9 bebe
000001f0: 0cd4 d4bd b37c ca3d 9b81 1c3e 4e58 b0b9
-0.010486589 -0.03007932 0.14362259 -0.056598783 -0.13678956 0.08872955 -0.19839491 0.053165097
0.1787557 -0.13626544 -0.14976008 -0.43363354 0.10146361 0.09062524 -0.12101596 0.034270633
-0.13067327 0.033440374 -0.049625747 -0.09301336 -0.12008659 0.03980867 -0.13123527 0.0025111597
-0.13473415 -0.076968804 -0.3047177 -0.19528429 -0.036150534 0.031262185 -0.110539116 -0.03406171
0.14153671 0.18984412 0.0003029744 -0.29166216 -0.27065462 -0.015041195 0.15344071 -0.009608828
-0.10053292 -0.08762809 0.050365217 -0.11132397 -0.07235142 -0.17984346 -0.096552126 -0.033993293
-0.014646845 -0.056998212 -0.012648656 0.116980925 -0.028628862 0.02067411 -0.18061784 -0.034844596
0.011305646 -0.0045170793 -0.064471826 -0.08864911 -0.18392497 -0.110203005 -0.019626776 -0.1415393
-0.10937591 0.04428137 -0.060523544 -0.16544154 -0.04037037 -0.10676356 0.122911766 -0.23694009
-0.060499415 0.12450152 -0.23741232 0.14712983 0.08457867 -0.20067888 -0.024679592 -0.12971252
0.07024514 -0.17651238 -0.16691856 0.032143924 0.18482137 0.0577618 5.0340703e-05 -0.147255
0.050386872 0.12666248 -0.07553701 0.061402958 -0.0034861711 -0.16445225 -0.14165598 0.086403854
-0.35235587 -0.19143833 -0.19834475 -0.28362378 -0.04158498 -0.17143795 -0.3255694 -0.08650261
-0.10079244 -0.15012723 0.0419173 0.056207854 -0.013863597 0.2055837 0.01009852 -0.32796437
-0.17941552 -0.06272543 -0.027164731 -0.109444186 -0.0057966174 -0.31572104 0.025012335 -0.017360505
0.027433356 -0.15515661 -0.096074015 -0.37250754 -0.10392007 0.09887066 0.15283816 -0.00033635128

pointer.v f4 [1, 1, 128]
00000000: 1abd 2140 5ac1 70bf 8f5b 71bf 984a 0bc0
00000010: 5362 37c0 64b5 563f 199c 0a40 d1b1 8ebf
00000020: 537f 49bf 8e25 1040 f133 02c0 6a0c 0240
00000030: 1585 dabe 20f7 27bf b9ca 1a40 a560 7fbf
00000040: f361 aa3f 1b27 3ebf c6e8 3440 eb99 56bf
00000050: 472c 5cbf 8a19 88bf a896 46bd 4071 413f
00000060: 6beb 86be aa40 58be 6875 bc3f a77f 5fbf
00000070: 9139 813f 9334 943f 7466 a23d 4b9f 123e
00000080: 2761 80c0 58b4 5bbf f4d9 a63f c8a2 cd3f
00000090: ec28 f13f 469f e43d 02af 20bf 2f00 0cbf
000000a0: 9ed8 b0bf 74cd 5ebf dd90 743f 5f35 653f
000000b0: 727e b8bf 58d3 0340 91ed 8abf e294 623f
000000c0: 002f d6bf bb7c 2fc0 ea99 6ebf 018e c3bf
000000d0: 5f46 4b3e c1cb 9cbf bba7 d03f 451c 9a3e
000000e0: 8dd2 98bf 788e 813f b211 81bf 5677 1ebf
000000f0: 98e8 fd3f c547 46c0 8bcd 0f3f ed7b 0d40
00000100: 13f0 203f 7a34 80bf 9a4e 553f b6b2 87bf
00000110: a0d9 98bf f094 52bf 1277 4ebf 39ed 51c0
00000120: 0013 f23f 5abf a9bf 46f2 ad3f f200 42bf
00000130: 766c 8d3f 78ef cd3f 00bc 343f 7770 d83f
00000140: 3cf3 6d3d b6d0 74bf edd0 46c0 deaf d03f
00000150: 07f1 3bbf 75cb 8cbf 7399 3abd 660f 3740
00000160: 3af7 a8bf c481 87bf 6bac ecbf c1de 59bf
00000170: fd6b 5440 2777 e4be 3c12 8140 08da aebf
00000180: 9a66 dd3f daf7 0240 16c1 b23f c4bb c43f
00000190: da21 8abf b843 1c40 d01d 2c40 b792 1340
000001a0: 6e6d ae3f 037b 92bf 6a13 0fbf 00dd d5bf
000001b0: f001 a3bf 928d 2abf 389c 863f bb74 1b40
000001c0: 3dab fe3f 5631 1740 01e1 fa3f f3ee 0140
000001d0: e2a7 e73e db2a f93f d25b 8e3f 8a18 abbf
000001e0: b102 e6bd 057f 0440 8dbd 3f3c af8b 1b40
000001f0: 20b1 bfbf 9137 3bbf 51b7 3bbf 64a8 6d3f
2.5271668 -0.9404503 -0.9428033 -2.1764278 -2.8653762 0.8387053 2.1657774 -1.1148015
-0.78709906 2.2522922 -2.0344203 2.0320077 -0.4267966 -0.6561146 2.4186232 -0.9975684
1.3311142 -0.7427842 2.8267074 -0.8382861 -0.8600506 -1.0632794 -0.04848352 0.7556343
-0.26351485 -0.21118417 1.472333 -0.87304157 1.0095693 1.1578544 0.07929698 0.14318578
-4.0118594 -0.8582206 1.3035264 1.6065302 1.8840613 0.111631915 -0.6276704 -0.5468778
-1.3816106 -0.87032247 0.95533544 0.8953456 -1.4413588 2.0597744 -1.085375 0.8850843
-1.6733093 -2.741988 -0.93203604 -1.5277711 0.19851063 -1.2249681 1.6301187 0.30099693
-1.1939255 1.0121603 -1.0083525 -0.6190084 1.9836607 -3.0981305 0.5617301 2.2106888
0.62866324 -1.0016015 0.8332306 -1.0601413 -1.1941414 -0.8225851 -0.80650437 -3.280104
1.8912048 -1.3261521 1.3589561 -0.7578269 1.1048725 1.6088705 0.70599365 1.6909322
0.058093295 -0.9563097 -3.1065018 1.630367 -0.73414654 -1.099959 -0.045556497 2.8603148
-1.3200448 -1.0586476 -1.8490118 -0.8510552 3.319091 -0.44622156 4.033476 -1.3660288
1.7296937 2.0463777 1.3965175 1.5369802 -1.0791581 2.4416332 2.6893196 2.3058298
1.3627145 -1.144379 -0.55889 -1.6708069 -1.2734966 -0.6662227 1.0516424 2.4289997
1.9896008 2.3623862 1.9599916 2.0302093 0.45245272 1.9466203 1.1121771 -1.3366864
-0.11230982 2.0702527 0.011702907 2.4304006 -1.4975929 -0.7313166 -0.73326594 0.9283507

pointer.encoder_attn.v f4 [1, 1, 128]
00000000: e1ea 9fbc f456 0abe 0275 0f3e 6ff5 e23a
00000010: 9050 a4bd a659 c13c 9808 59bd d50b edbd
00000020: aa02 c23c f32a 5fbe b7a1 8bbc 3c46 2b3d
00000030: ac67 053e c170 87be a3b6 f3bc f6b8 9d3d
00000040: e99c e8bd 8d92 233e 8f8e 5f3e f8e6 1ebe
00000050: d56a 823d 5553 d5bc cef0 1cbe 11a3 bb3c
00000060: bc09 92bd 07ca 1f3e c555 88bd 6538 f8bc
00000070: 018d f2bd a429 48bd 021d ae3c 2754 1fbe
00000080: e4d2 9fbe aaf3 893e fab9 7ebd cd72 0e3e
00000090: 4a1a 0dbe dfe9 bb3c a5b5 d63d 8682 79be
000000a0: 6fe5 babc 817c 1abb 6c27 1c3e ecf6 e3bd
000000b0: 6f2f 053e c21e 153e e269 3a3c b928 8d3d
000000c0: 8de0 b53d 59a0 27be 1151 6dbd 8124 f6bc
000000d0: 19b0 cdbc 56a5 db3d 4a4c 5bbc 2493 703e
000000e0: fa88 bf3d 03d2 053e 9f18 68be f2c4 08be
000000f0: 0bf1 a8bd 6c14 c1bd a7fd 1dbe 209f c4bd
00000100: 7252 bcbd 6c3d d1bd 548b 4dbc 6e7e c03d
00000110: 0fdf 10bf 06b3 173d a140 073d 2015 313c
00000120: 3966 be3c b7d3 233d 821b 86bc 2e2a 3bb8
00000130: 184e d03d 1cb6 cabc ea5e c6be d3d8 c83c
00000140: b426 0f3d e041 cabc 8a1f 52be 16d9 f83b
00000150: 8ee3 3f3c cac1 f5bd 0983 183e c014 b13d
00000160: c813 7f3e 4b07 3c3e ddc4 6a3e b9da 8abd
00000170: 22e0 403e ed28 8e3e d932 783d 7369 4bbe
00000180: 0024 c63c 5a3d b93d 1ba7 0ebe 8c0d 58be
00000190: 1b02 ddbd a8b0 f83d 4e2a d83d 4eab b63c
000001a0: e51a 0a3e 430e dabd ff54 b9bc 46f7 f63d
000001b0: f6dc 863d c872 20be ad1d de3d a14a 923e
000001c0: 21b9 06be 107e 773e 58e1 8dbd a803 63be
000001d0: 328f 733c cb22 60bd 836f 57bd 25bd debd
000001e0: 69aa cbbc 8b23 62be 40cc 423e f602 e5bc
000001f0: cd3f 333c 9847 01be 9316 21be 11d7 d7bd
-0.019521179 -0.13509732 0.14009479 0.0017315577 -0.080231786 0.023602318 -0.05298671 -0.115745224
0.023682911 -0.21793728 -0.017044885 0.041815028 0.13027829 -0.26453212 -0.029750174 0.07701294
-0.11358053 0.15973873 0.21831726 -0.15517795 0.06368033 -0.026040712 -0.15326235 0.022904905
-0.07130763 0.15604411 -0.06656984 -0.030300329 -0.118433006 -0.048867837 0.021254066 -0.15559445
-0.31215584 0.26943713 -0.06218908 0.1391098 -0.1377956 0.022938667 0.10483865 -0.24366197
-0.02281448 -0.0023572745 0.15249413 -0.11131081 0.13006376 0.14562514 0.0113777835 0.06892533
0.0888072 -0.16369762 -0.05793864 -0.030046703 -0.025108384 0.10724895 -0.013384888 0.2349363
0.09352298 0.13068394 -0.22665642 -0.13356379 -0.082491 -0.09427723 -0.15428792 -0.09600663
-0.09195413 -0.102167934 -0.012545425 0.093991145 -0.5659036 0.037035964 0.03302062 0.010808259
0.023242103 0.03999683 -0.016370539 -4.4623557e-05 0.10171145 -0.02474504 -0.3874429 0.024517452
0.03494902 -0.024689615 -0.20519844 0.007594238 0.011711968 -0.11999853 0.14893736 0.08646536
0.2490989 0.18362157 0.2292666 -0.06779999 0.188355 0.277656 0.060595367 -0.19864444
0.024187088 0.09044905 -0.13930933 -0.21098918 -0.10791417 0.121430695 0.10554944 0.022298481
0.13486822 -0.106472515 -0.022623537 0.120588824 0.06585114 -0.15668786 0.10845504 0.28572562
-0.13156559 0.24169183 -0.069277465 -0.22169363 0.014865683 -0.05472068 -0.05259658 -0.1087592
-0.024861531 -0.22083871 0.19023228 -0.027955513 0.010940504 -0.12624967 -0.15731268 -0.105390675

pointer.encoder_attn.W f4 [1, 128, 256]
00000000: 023b 9b3c 68d3 06bd 3612 42bd c51d a83d
00000010: bb22 da3d 84f3 c13d b34b 123d 65f8 ddbc
00000020: 66f6 41bc 6ed6 893c 4c89 c43d 8e58 4d3d
00000030: a6d3 11bd e813 81bd 94c7 983c 8171 1cbd
00000040: 9c1e 703d 1ef0 16bd 5b70 553d c6cd d3bc
00000050: 5255 33bd f34f 0bbd b66a bc3c c508 8d3d
00000060: ea8b 3e3d f9d2 c53c 7829 443d b3ad 043d
00000070: befa a43d ce5a f83c 7f97 b13c 5afd 9dbd
00000080: 60c5 61bd 0744 04bd 123a 863d 8713 f73c
00000090: abd5 383c d64d 9ebd 29a5 8fbc e13e 41bd
000000a0: c31e 5fbc 1608 8cbc 1b81 663d 31bf 4f3d
000000b0: 47d9 6fbd e35f cc3c a74d acbd 22e2 283c
000000c0: 34b9 ff3c 84d1 723d 17ed 9fbc cba1 c1bc
000000d0: ab23 57bd 93a4 c9bc d01d d03c 06b2 e0bc
000000e0: 4f09 5bbd 10dd 373d 603d 8bbd 6d5a b13d
000000f0: 2064 703d 1a29 9f3d 0531 983d a2c5 b23c
00000100: 3179 7d3c 78fb 773d c65c bd3d 5094 22bd
00000110: 4ad3 9abc 17f3 c9bc 35c2 1fbd 78e1 1ebd
00000120: ec1d 403d fd3c d43a 5e02 383d 5114 a4bc
00000130: 9b32 c63d 493d d93c 9a9e 023c 06a0 cb3c
00000140: f9f4 8cbd 1e03 29bc 03e2 b63d 5a90 c23d
00000150: f4a6 1ebd 3207 033b be8b 383d 18da 8e3b
00000160: 71c5 ba3b 446f 90bc cc60 3bbd c724 22bd
00000170: a00f 253d 9107 263d 4522 b43d 95d8 4bbd
00000180: d15d d73c 9c6d 2d3d 2f88 983d 1d6d 663d
00000190: 4fb9 d03d 8cf5 ce3c 9ac6 f63c 08c4 393d
000001a0: c197 c03c 4f19 b5bc 00ed f6ba bf65 19bd
000001b0: b248 8f3d 5bba 2ebd cdcf 143d 8ba0 7e3c
000001c0: 7b03 8eba 62cf 893d 89f7 6f3d 2a89 233d
000001d0: 6d59 9d3d 801d 803d 5a93 343d 2f87 08bd
000001e0: 8a40 15bd a650 5a3d c2b4 633d b932 623c
000001f0: 7185 7bbd d0cf 923c 9e4f 88bc 8781 b03d
00000200: cc6e 153c 7de2 98bd 38db 1e3d 13b0 b5bc
00000210: 9b03 d83d 88fa 283d c293 dd3d a971 8dbc
00000220: bdac 1f3d 8123 5ebd ce41 dabc 1f37 c3bd
00000230: 546d c33d 7138 97bd 1a23 09bc b999 013e
00000240: b812 bd3c f47e a1bd 9470 f8bc 20f3 90bd
00000250: 02f3 b7bd 6638 96bd a624 6a3d 627e e5bd
00000260: d771 b1bd b491 35bd fb9a 2ebe 0f21 86bd
00000270: 40ee 0fbe e01e 943c 47d7 3fbd 7c8b edbd
00000280: 8216 0fbd aff9 a4bc d53b 363c 7cda afbd
00000290: 2627 1b3c 07ab a7bd fefa ce3d 37e1 963d
000002a0: 9ee5 86bd 1b35 9e3c 1e23 e73d ba5a dabd
000002b0: cb92 423d b744 cc3d 640e 9d3a db8e 5cbd
000002c0: ff3d 853d 1a13 843b 43b5 393e ec3f 853d
000002d0: 36d6 563c 296b 483c c593 263d 203d d9bc
000002e0: 00b7 b73c f998 1abb aa26 1ebc df4b 113d
000002f0: 32e5 233d b68d ddbc 0abb 9fbc 5ff2 b3bd
00000300: 22ef 3e3d 90c6 c1bd 748a 213c dc40 bfbc
00000310: 9ddf a8bd adc7 07bd 17b3 c8bd 7466 323d
00000320: 077c be39 b0ab 5ebd 3911 37bd bf1b 04bd
00000330: 14e3 e53d b0e5 9c3d 86c2 ea3d 88f7 573d
00000340: 5fad 3fbd ffe7 1b3d c257 bfbd 3c0d 803c
00000350: 381a 033d 7fa9 2cbd 784f 1e3d e721 403d
00000360: dae3 e2bd 37e8 94bc a6cb 9f3c b6f4 063e
00000370: 9552 d2bc a0aa 653d 0fb4 d83d efa1 05bd
00000380: c716 a93d c264 ea3c 8726 35bd b903 8fbc
00000390: 85b8 6d3d 15d2 2f3e c956 05bd 335a b5bd
000003a0: 8a7a 5abd 0d06 8ebd 66eb 90bd c76a 653e
000003b0: ea1a 853c ed9f afbc c0bd 0a3d ebbd 79bd
000003c0: c525 a93c 32a4 fa3c d83d 8b3d 22c5 c53c
000003d0: 1170 02bb 0087 6abd c8ab 88bc 77ce f73c
000003e0: b09c ffbc 2f6a da3d b445 5c3d 90ca 7ebd
000003f0: 69d1 d13d 85fe bf3d 0d06 fa3b 4a75 f8bc
0.018949036 -0.032916456 -0.04738065 0.08208803 0.106511556 0.09470275 0.035716724 -0.027095983
-0.011838531 0.01682588 0.095965 0.05013328 -0.035602234 -0.06302625 0.018649854 -0.038194183
0.05862294 -0.036850087 0.052109104 -0.025854956 -0.04378254 -0.034011792 0.023000102 0.06886438
0.04652015 0.024148451 0.04789111 0.032392215 0.08055638 0.030316737 0.021678684 -0.077143386
-0.055119872 -0.03229144 0.06554045 0.030160679 0.011281411 -0.0772969 -0.01753481 -0.047179107
-0.013618174 -0.0170937 0.05627547 0.050719444 -0.05855682 0.024948066 -0.084132485 0.0103078205
0.031216241 0.05928184 -0.019522233 -0.02363672 -0.05252425 -0.024614608 0.02540484 -0.027428638
-0.053475674 0.044888556 -0.06798816 0.086598255 0.058689237 0.077715114 0.07431225 0.021822754
0.015470789 0.060542554 0.09246211 -0.039692223 -0.018899579 -0.024652047 -0.03900357 -0.038789243
0.046903536 0.0016192492 0.044924133 -0.020029219 0.09677621 0.02651848 0.007972384 0.024856579
-0.06882662 -0.010315685 0.08929827 0.09500189 -0.038733438 0.0019993302 0.045055144 0.004359495
0.0056998064 -0.01763118 -0.04574661 -0.039585855 0.040298104 0.04053456 0.08795599 -0.049767096
0.026289852 0.04234086 0.0744785 0.056256402 0.10191595 0.02526357 0.030123997 0.045352966
0.023509862 -0.022106795 -0.0018838942 -0.03745055 0.069962874 -0.04265819 0.036330987 0.015541206
-0.0010834777 0.06729008 0.058585677 0.03992573 0.07683072 0.06255627 0.044085838 -0.033332046
-0.036438502 0.05329957 0.055592306 0.013806039 -0.061406557 0.017921358 -0.016639527 0.086184554
0.009120654 -0.07465074 0.038783282 -0.022178685 0.10547563 0.04125455 0.10819198 -0.017266111
0.038983095 -0.054233078 -0.026642706 -0.09531998 0.09542337 -0.07383812 -0.008370185 0.12656297
0.023080215 -0.078855425 -0.030327119 -0.070776224 -0.08981897 -0.07334976 0.057163857 -0.11205746
-0.08664291 -0.044328406 -0.17051308 -0.06549274 -0.14055729 0.018081129 -0.046836164 -0.1159887
-0.034933574 -0.02013859 0.0111226635 -0.085865945 0.009469783 -0.08186918 0.10106467 0.07367175
-0.06586765 0.019312432 0.11285995 -0.10661836 0.047503274 0.09974044 0.0011982438 -0.053847175
0.065059654 0.0040305974 0.18135552 0.06506333 0.013112595 0.01223258 0.040668268 -0.026518404
0.022426128 -0.0023589714 -0.009652773 0.035472747 0.0400135 -0.027045112 -0.019498367 -0.08786463
0.046614774 -0.09461701 0.00985967 -0.023346357 -0.08245776 -0.03314941 -0.09799784 0.04355474
0.00036332032 -0.054362953 -0.04469416 -0.032253023 0.11224952 0.07660997 0.11462884 0.0527263
-0.0467962 0.038063046 -0.0934291 0.01563131 0.032007426 -0.04215383 0.038650006 0.04690733
-0.110786155 -0.018177135 0.019506287 0.13179287 -0.025674144 0.056070924 0.105812185 -0.032625135
0.082562976 0.028612498 -0.044226196 -0.01745783 0.0580373 0.17169984 -0.032553468 -0.08855095
-0.05333952 -0.06934748 -0.07076149 0.22404014 0.016248185 -0.021438563 0.033872366 -0.060972136
0.020647893 0.030595873 0.06798905 0.024141852 -0.0019903223 -0.057257652 -0.016683474 0.030249817
-0.031202644 0.10664784 0.05377741 -0.062204897 0.1024502 0.093747176 0.007630116 -0.030329365

pointer.fc1.weight f4 [128, 256]
00000000: aefe f23d 1a53 1e3d fc7a 4f3c 826b 0cbd
00000010: b800 ed3d a504 ea3d 6692 003e f574 fabd
00000020: a5ab b4bb 22f2 79bd 7946 0cbd 879c 513d
00000030: b856 a93d ae51 8ebd 3ade 9c3d 2e57 db3d
00000040: 31f2 a1bd 4169 cbbd 0a49 b8bc 99bd b83d
00000050: 40b8 83bd 5ba7 323d a6e6 d3bc a1f4 f7bd
00000060: 9d5b 6e3d 8e88 c73d ce28 40bc e049 743d
00000070: f71b 01bd 9c41 90bd cb53 b3bd b017 643d
00000080: fd6e e5bd cfd2 e73d f597 e5bd bfe3 fc3c
00000090: 7c4c a93d 4fbe 7dbd effc 08bd 5b26 ce3d
000000a0: 6767 80bd 08c1 1cbd 03e2 bcba e48c a3bd
000000b0: 9d7c 713d 48ba e2bc 2f4e 92bc c6ae 8bbd
000000c0: 33cd a73d 0f33 3ebd c2ed fa3a edf0 88bd
000000d0: a705 97bd 9d90 8a3d 68cc 04bd 6ead 053e
000000e0: a3d1 bfbb 86ac a13b fd90 0e3d a80f 8cbd
000000f0: 56ae e23c 45af 60bc 0fcf 6f3c 588a 22bc
00000100: 87af b53d da52 d5bd c090 b6bc ae07 023d
00000110: 823c c2bc dfe5 8dbc 2d89 08bc e6d1 963d
00000120: 5f22 f4bb a10b bebd 46f2 ce3a 4761 e8bd
00000130: bbf8 583d 2dde 20bd e77a a93c de54 9d3d
00000140: 2c6d cdbd 706d b93d b7aa eabc dace 0a3e
00000150: 8277 c23d 5f15 91bd 99f2 803d 56a7 4c3c
00000160: 4c26 023e 7b30 ac3d 01dc 9cbd a30d 353d
00000170: 1837 0bbe 9593 80bc 9d47 bc3d 331b 073d
00000180: 9d26 97bd d7fb d13d 4c1d fc3d 6b3f 173d
00000190: 4656 63bd 247f 48bd d6f1 74bd c5e9 e7bd
000001a0: 0e31 f7bb 1651 0dbe 7764 4dbd 9108 1dbd
000001b0: 39e9 853d de06 5d3d 84dc 453a 84ac a3bd
000001c0: 8fab 05be 5c7b 993c e688 cebd dd8c 693b
000001d0: e7c0 033d cf2d bbbc 4473 d53d e554 58bd
000001e0: f5ee cd3d 4c0b 543d 2922 0c3e 2ca9 96bc
000001f0: 0777 083d 91a6 b03d bbb9 073d cb97 ea3d
00000200: 1d0d 9abc 3b6d eb3d 1b71 b3bd 3736 883d
00000210: a0e7 d73c c67f 573d c220 9dbd 7fcd aabd
00000220: 834f e3bd f066 dc3a 2397 0f3d be45 0a3e
00000230: 6c0d d73d 17a0 73bd d6f7 4abc 83a4 aabd
00000240: 486e f43d b54e f6bd 2edf 073d ded7 29bd
00000250: 8c30 6a3d 0ec4 1bbd 4a80 b7bd 64a1 973d
00000260: 6483 8c3d bbea aebd 966a 1a3d 8a5c dc3c
00000270: 0dee ce3b 1963 cb3c f44c d53d d321 ff3c
00000280: e123 ab3c e190 5bbc 0cae afbc 28b6 ca3c
00000290: 5e6a 1e3d a417 943d d88f e7bd 25de 73bd
000002a0: 7db9 b4bd 9bc3 3f3d 78d4 623d 6b40 173d
000002b0: f8b7 313a 1ad6 113d 1d08 0dbe c469 5ebd
000002c0: 6c86 3bbd 3c84 bfbc e2a4 f2bb 61a5 d4bc
000002d0: ad18 a9bd 0c45 89bd ec77 3a3d 6713 c3bc
000002e0: de8f 05bd 8775 31bd 37f9 8bbd 5a3b 2b3d
000002f0: f500 69bd d0b5 733d d130 ac3d 3190 89bd
00000300: 042e 53bd 6ab4 a03d b08d a03d beb3 543d
00000310: a60a 0abd 7fec be3d 5a6b 603d 7f12 fdbd
00000320: 0f40 95bc ee68 abbd dd9c c7bd bbe8 7bbc
00000330: 2313 b73d 6cdf a0bd e8a9 9e3d e324 a1bc
00000340: 7cbb b2b7 59f8 64bc 6a4b 573b b065 8dbd
00000350: 14f9 c0bd 7dcb f4bd e397 93bd e54c 7d3d
00000360: 7dba 52bd 98db 723d debc 9a3d 97d7 ed3d
00000370: 367f 143d 48a0 2cbd 42b4 9f3d fc02 01bd
00000380: 0494 de3d 3708 59bc 2b6a e73d 24e2 a5bd
00000390: 41e9 913d b922 993d 611a 85bd d596 e13d
000003a0: b0b1 c3bd c08c dcbd e29b c73d f1af b93d
000003b0: 39b3 c93d 372a d4bc 37e1 a3ba b51d 90bd
000003c0: d572 7f3d 3299 ddbd 5abd 89bd bef3 2bbd
000003d0: b1d4 153d 34de c03b d58d babd a2f5 eaba
000003e0: f537 683d f115 55bd b99f 58bd 3dcc a3bc
000003f0: a3e4 963d 0d7b 90bd 38b7 97bb 1745 9dbc
0.118649825 0.03865347 0.012663599 -0.034282215 0.11572403 0.11426667 0.12555847 -0.12229339
-0.0055136257 -0.06102193 -0.034246895 0.051174667 0.082684934 -0.06949173 0.07659574 0.107099876
-0.079075225 -0.09932185 -0.022495765 0.09020538 -0.06431627 0.043616634 -0.025866818 -0.12107206
0.058192838 0.097428426 -0.011728479 0.059640765 -0.03152081 -0.07043764 -0.087562166 0.055686653
-0.1120281 0.113195054 -0.11210624 0.030870317 0.08266541 -0.06194907 -0.03344434 0.100659095
-0.062697224 -0.038270026 -0.0014410618 -0.07985857 0.05895673 -0.027676716 -0.017859546 -0.06820445
0.081934355 -0.046435412 0.0019144344 -0.06686578 -0.07374125 0.06765864 -0.0324215 0.1305444
-0.005853848 0.0049338965 0.03480624 -0.06838924 0.02767102 -0.0137136625 0.014636769 -0.009920679
0.0887137 -0.10416193 -0.022285819 0.031745605 -0.023710493 -0.017321525 -0.0083334865 0.07364254
-0.0074503864 -0.09279562 0.0015788756 -0.11346679 0.052971583 -0.039274383 0.020688487 0.07682203
-0.100305885 0.09054077 -0.028645856 0.1355547 0.094954506 -0.07084154 0.06296272 0.012491068
0.12709922 0.084076844 -0.0765915 0.044202458 -0.13595235 -0.015695373 0.09193347 0.032984924
-0.07380412 0.10253113 0.123102754 0.036925714 -0.0555022 -0.048949376 -0.059800945 -0.11323885
-0.0075436896 -0.13800463 -0.05014464 -0.038338248 0.06538624 0.053961627 0.0007547813 -0.07991889
-0.13053726 0.01873558 -0.10084705 0.003563694 0.032166388 -0.022848992 0.10422376 -0.052815337
0.10055343 0.051768586 0.13684906 -0.018391214 0.03331664 0.0862552 0.03313611 0.114547335
-0.018805081 0.114954434 -0.087618075 0.06650966 0.026355565 0.05261209 -0.07672264 -0.083399765
-0.1109915 0.0016815346 0.035056245 0.13503167 0.10500607 -0.059478845 -0.01238819 -0.08332159
0.11935097 -0.12026731 0.033171825 -0.041465633 0.057175204 -0.03802877 -0.08960016 0.0740383
0.06860998 -0.08540865 0.037699305 0.026899595 0.006314999 0.024827527 0.10415068 0.031144058
0.020891132 -0.013401241 -0.021445297 0.024745062 0.03867566 0.072310716 -0.11306733 -0.059538025
-0.088244416 0.046817403 0.055378407 0.036926668 0.00067794276 0.035604574 -0.13772626 -0.054300085
-0.04578249 -0.023378484 -0.0074049095 -0.025957765 -0.0825666 -0.06702623 0.045524523 -0.023812963
-0.032607906 -0.043324973 -0.06834643 0.04180465 -0.05688568 0.05949956 0.084077485 -0.067169555
-0.051557556 0.07846911 0.07839525 0.051929228 -0.03370156 0.09322452 0.05478988 -0.123570435
-0.018219022 -0.08369623 -0.09746716 -0.0153753115 0.08939197 -0.07855114 0.07747251 -0.01967091
-2.1306558e-05 -0.013975226 0.0032851347 -0.06904161 -0.09422508 -0.11952875 -0.072067045 0.06184091
-0.05144738 0.059291452 0.07555555 0.11613386 0.03625413 -0.042145044 0.07798053 -0.031496987
0.108680755 -0.0132465875 0.11299547 -0.080997735 0.07124568 0.07477326 -0.06499172 0.11015097
-0.095553756 -0.107690334 0.09746529 0.09066761 0.09848637 -0.025899036 -0.0012503032 -0.07036916
0.06236537 -0.10820235 -0.06725569 -0.041980498 0.03657979 0.0058858637 -0.091090836 -0.0017925987
0.05669399 -0.052022878 -0.0528867 -0.01999485 0.07367828 -0.0705472 -0.0046299957 -0.019197984

pointer.fc1.bias f4 [128]
00000000: b39b 023c 2350 d6bc 6111 27bd 7b2e f2bc
00000010: d8bb 0e3d 80b5 773a ac36 133c 510d 9f3b
00000020: 2a2d a33d 2959 493d 7d08 09bd cb21 81bb
00000030: cd8c 28bd 95c5 8d3c eb11 84bc f8fe 113d
00000040: 2c8b be3c 18c9 b33c dd81 bc3c 6bdf 76bb
00000050: 65a0 923d dc01 463d e17e 2bbc 1030 94bd
00000060: c164 5ebd fc24 7bbd b40e 5b3c b270 8bbd
00000070: 83f7 2dbd 5fc4 a1bd 0cc3 4f3b 584b babc
00000080: 8aa3 533d 5c0e 0f3d 447e 323d b0ac 2bbd
00000090: 9b95 4e3d dc05 1dbd c53a ddbb 9edf e63b
000000a0: d809 52ba b4b8 09bd da30 8f3b 849e 853d
000000b0: d2ff 873d c886 55bd fe2b 873c 3a66 bfbc
000000c0: 9c10 833d 8560 8a3b e63c d1bc e58b 023d
000000d0: fcb8 023d 2309 183d d90c f73c e923 a43d
000000e0: f740 96bb 6360 1c3d 35aa 88bc 226f 153d
000000f0: fff4 02bd 974e 10bd 5dc2 83bd 674e 82bd
00000100: 6679 4d3d f8f1 243d e9ce c43b fbd7 473d
00000110: 8502 0c3d 8f61 96bc ab81 103d 3c3d 283d
00000120: d329 a7bc 070c 7b3a 93ae f03c 2734 abbb
00000130: 5808 b8bc 48bb 683d 4c29 33bd 3fa0 b4bc
00000140: bd65 893b a9fa edbd 4f5a 6d3b 1d80 65bd
00000150: 698f b6bc 7deb bfbc fffe 063d 0e27 613d
00000160: a8f5 293d c640 993c eb83 49bd 85b1 ec3c
00000170: 02e8 cbbb 4899 7fbd d55b 8d3c 14ec d43d
00000180: c475 0a3d e726 0dbc 760c 833d c823 e93b
00000190: 6d73 9b3d 117d 493d 8f4b 15bc 5ca7 f3bc
000001a0: 03fe ac3c 1f72 993d 0528 e1bb dca4 143d
000001b0: 59bf cebb e92a fabc 4c2a 513d 3d13 7b3d
000001c0: 836d 8a3d e6f3 64bc f095 163d 68e1 8abd
000001d0: fdb4 073d 8f27 85bd 6625 b13b db8a b6bc
000001e0: 62a2 c13c 5428 89bd e5a5 2fba b719 8e3d
000001f0: 9507 9a3b 5ceb 0d3d 45eb 293c 9809 b13c
0.007971692 -0.026161259 -0.04078806 -0.02956318 0.03484711 0.0009449348 0.008985203 0.0048538824
0.07967599 0.049157295 -0.03345536 -0.003940796 -0.041149903 0.017306129 -0.016121825 0.035643548
0.023259722 0.021946475 0.023011142 -0.0037669789 0.07159499 0.048341617 -0.010467262 -0.0723573
-0.054295305 -0.061314568 0.013370205 -0.06808604 -0.042472374 -0.07898783 0.003170195 -0.022741005
0.051669635 0.034925804 0.043577448 -0.041912735 0.050435644 -0.038335666 -0.0067513906 0.0070457
-0.0008012331 -0.033623412 0.004369837 0.06524375 0.06640591 -0.05213049 0.01650047 -0.023364175
0.06399652 0.004222932 -0.025541734 0.031871695 0.031914696 0.03711809 0.030157493 0.08014662
-0.004585381 0.03817786 -0.016682724 0.036482938 -0.031971928 -0.0352312 -0.06433556 -0.0636261
0.050164603 0.040269822 0.006006111 0.04878996 0.03418209 -0.018357066 0.03527991 0.041074023
-0.020405686 0.00095766824 0.029380118 -0.005224723 -0.022464916 0.05681923 -0.043740556 -0.022049068
0.0041930364 -0.11620075 0.0036217158 -0.05603038 -0.02228518 -0.02342772 0.032958027 0.054968886
0.04149404 0.018707644 -0.049198072 0.028893242 -0.006222726 -0.06240204 0.017255703 0.10396591
0.033803716 -0.008615232 0.06398861 0.007114861 0.07590375 0.04919154 -0.009112253 -0.02974289
0.021117216 0.0749247 -0.006871226 0.036290035 -0.0063094315 -0.03053804 0.051065728 0.061297644
0.06759169 -0.013974166 0.036764085 -0.06781274 0.03313159 -0.06501686 0.0054060696 -0.022283008
0.023637 -0.06697145 -0.00067004404 0.069384985 0.004700611 0.034648284 0.010371034 0.02161102

pointer.fc2.weight f4 [128, 128]
00000000: 3b9e cabd 11ba eebd 0e72 123e 4923 c83d
00000010: 3283 d03d 8094 94bd b22f a23d a6ed 65bd
00000020: cb52 f23d 91bf 37bd 6c15 d43d 443a 24bc
00000030: 67f1 ea3c 9f32 d5bb 7b8a d5bc dd4f b23d
00000040: faab c4bc 2fb4 d93d 8798 9a3d 94dc b3bd
00000050: f89a 1dbd 38a1 44bd 355e a9bd f917 f93d
00000060: 74ab 113d 7e64 9fbd aefd 9fbd c6f7 9a3d
00000070: c0b1 403e cc76 cd3d 3bb8 e6bd e24c 94bb
00000080: 1012 9dbd 67dd d03c 05a3 17bd 9f2e 78bd
00000090: 3dd5 a8bd 0068 90bb 1968 dfbd 2a19 0ebe
000000a0: 3d45 1d3d 3a75 853d 4c28 a53d 8d70 1d3e
000000b0: 9d94 abbc 73e0 10be c0fe 3e3e dd08 d13d
000000c0: c57f 613d 0713 d2bd 0494 c5bd a54e fa3d
000000d0: 00e9 0ebe 5314 fa3c c46c 8abd 12a3 dfbd
000000e0: 3007 adbd de13 173e 4860 333e 9872 b13d
000000f0: 3488 e7bd d871 0e3e 57c3 bc3b b011 f8bd
00000100: 61a2 623b 4b87 36bc a29a df3d 66b5 0f3d
00000110: 47ab 283e 05f9 06be 1452 dd3c 6da6 6e3c
00000120: b69e a6bd 63ce 913c ea0b f43d dcc2 413b
00000130: ab00 ae3d b0a7 853d 67d9 8f3d 718f 073d
00000140: c62e afbd ad67 21bd 6937 633d d34d 6dbd
00000150: b331 a8bd ba87 243d 7bba f5bd 6ec9 013d
00000160: 7b0d 9dbd c8fe 1abe f054 c13d 37cb b73d
00000170: 590b c43d 192b 9abd 8d31 1fbc ffe1 823d
00000180: 8eab 49bd cbf4 a8bb a6ed 4e3d 0ba4 c1bd
00000190: 50f5 be3d f639 78bd 40a5 fabd 601b e53d
000001a0: 2c07 48bd 2c21 473e fce5 94bd 898f a8bd
000001b0: c4dc 05be 1e75 fbbb b030 993d 68c0 ac3d
000001c0: 018e c4bd 9073 6fbc 94f1 e8bd 9dab 09bd
000001d0: 5e03 013e 6f12 efbd 95ac dbbc 675d 943d
000001e0: e87a b13d af3e c7bd 3781 d1bc f18b 833d
000001f0: 48a8 813d 227e 72bd e4f4 7cbd 032f 89bd
00000200: 1726 823d bf00 8e3d 8984 3b3e a9a0 663d
00000210: 17db adbd 040b 8b3d d8de dc3d 2bc7 81bc
00000220: b903 5abd d903 903d 537e acbc 8c64 0e3d
00000230: 478d 303d c9f3 3e3e a417 9b3d f338 063e
00000240: f848 293d 8eeb 8a3d f1c4 3dbe 4bdf bdbd
00000250: 54dd d3bc fa30 8dbd e1a2 2b3d 13ce 13be
00000260: 55c0 8dbb 4a3c a53d 90a3 3cb9 1677 e1bd
00000270: 9bae 2d3e bbdd 023e 1ce3 6c3c 36a6 233e
00000280: 4324 2c3e 8599 003d f338 023e 24b7 863d
00000290: bbd3 0dbe 0068 72bc 3d81 bfbd de90 d93d
000002a0: 4383 8d3d 9f2d 0ebd 6e7c fb3d 8f9d 4e3e
000002b0: b73f e3bd 0a4c a4bc 394d b83d 3250 7939
000002c0: 315e 2b3d 0fce 7d3d 11b6 3a3d 50dd 933d
000002d0: f136 9a3d 9a08 8c3d 80af 92bc f792 eb3d
000002e0: bdcf f23d bfaf fe3d ff4f f83d e3a2 18be
000002f0: d8a5 b73c 0cf0 f9bd 8db3 b0bd 0a2e 0dbe
00000300: cc3c bf3d 6496 5fbc 32cd aa3d 7529 483e
00000310: c75e 1e3c 1b3b 093e 65d3 a2bd ce59 48be
00000320: fe3e c4bd bd28 bbbd 069c f73d 7dc8 d4bc
00000330: de8a 803d 1387 783d dc12 3bbc 1059 e23d
00000340: da66 07be 0872 a33d ccd2 abbd 205c 94bd
00000350: 2d13 f43d 3db4 883d af4c 543e e418 d53d
00000360: 6665 53bd 5ca2 bebd 464b 973d bcd4 3d3e
00000370: 4022 603c 8264 27be 6a26 5a3d 4e5a 81bd
00000380: 267d 0ebc b490 97bc b673 abbd 16b3 f83d
00000390: f0fb 403c 4042 ef3a 2bbd 523d 5e37 183e
000003a0: 490c ddbd 0bdf 5cbb b2ca 093e 72d7 ddbd
000003b0: 9f80 f33c cce3 94bd 2a37 94bd e178 a73c
000003c0: 5a04 a6bd a3e4 02be 77ef 6cbc 4342 b2bd
000003d0: 2d3b af3d bc2e 12be d686 95bd 8d98 0abe
000003e0: e8aa bf3d 1753 93bc 7172 c0bb 781c 293e
000003f0: a2c4 e0bb 0d0f a7bd 16cb 79bd 4aec 863d
-0.09893461 -0.11656583 0.14301321 0.09772355 0.101812735 -0.072548866 0.079192534 -0.056134842
0.11832198 -0.044860426 0.103556484 -0.010023657 0.028679563 -0.0065062786 -0.02606701 0.08706639
-0.024007786 0.106300704 0.075486235 -0.08782306 -0.038477868 -0.048005313 -0.08269922 0.121627755
0.0355639 -0.07782839 -0.078120574 0.0756679 0.18817806 0.10032424 -0.11265608 -0.0045257667
-0.07669461 0.025496198 -0.037020702 -0.060591336 -0.08243797 -0.004406929 -0.10908527 -0.13876787
0.03839611 0.065165 0.08064327 0.15374966 -0.020944888 -0.1414812 0.18651867 0.10206769
0.05505349 -0.102575354 -0.09647372 0.122220315 -0.1395607 0.03052727 -0.06759027 -0.10919775
-0.084486365 0.14753672 0.17517197 0.08664435 -0.113052756 0.13910615 0.005760591 -0.121127486
0.0034581649 -0.011140655 0.10918166 0.035085104 0.16471587 -0.13180931 0.027016677 0.014566046
-0.081357405 0.017798608 0.11916335 0.0029565608 0.08496221 0.065261245 0.07023888 0.03309578
-0.08553843 -0.039405514 0.055472765 -0.057935547 -0.082126044 0.0401685 -0.11998459 0.03168624
-0.07668587 -0.15136254 0.09440029 0.08974307 0.09572477 -0.075277515 -0.009716404 0.063907616
-0.049235873 -0.0051561347 0.050519608 -0.09455117 0.093241334 -0.06060215 -0.1223855 0.11186862
-0.048834965 0.19446248 -0.072704285 -0.08230502 -0.13072497 -0.0076738736 0.074799895 0.08435136
-0.095973976 -0.014614955 -0.11374202 -0.03361093 0.1259894 -0.11673438 -0.026815692 0.072443776
0.08666021 -0.09728753 -0.02557431 0.06423176 0.06330925 -0.05920232 -0.061756983 -0.0669842
0.06354921 0.06933736 0.18312277 0.05630556 -0.08489054 0.067892104 0.107846916 -0.015842041
-0.053226206 0.07031984 -0.02105633 0.034763858 0.043103483 0.18647684 0.075728685 0.13107662
0.041329354 0.0678321 -0.18532158 -0.092711054 -0.025862373 -0.06894107 0.04190338 -0.1443408
-0.0043259063 0.0806814 -0.00017990009 -0.11009042 0.16961138 0.12779896 0.014458444 0.15981373
0.16810708 0.031396408 0.12717037 0.065779 -0.138503 -0.014795303 -0.09350822 0.10623334
0.06909802 -0.034711476 0.122795925 0.20177291 -0.11096137 -0.02005579 0.08999104 0.00023776366
0.041837875 0.06196409 0.04558379 0.072199464 0.075300105 0.06837578 -0.01790595 0.11502641
0.11856029 0.12435865 0.12124633 -0.14905886 0.022417948 -0.122039884 -0.086279966 -0.13787094
0.09337768 -0.013646696 0.08339919 0.19547065 0.009666151 0.13401453 -0.079504766 -0.19565508
-0.09582327 -0.091386296 0.12090306 -0.025974507 0.06276487 0.06067569 -0.011418071 0.110521436
-0.13222829 0.07980734 -0.08389816 -0.07244134 0.1191772 0.06675003 0.20732377 0.10405138
-0.051610373 -0.09308311 0.07387404 0.18538183 0.013680041 -0.16346934 0.05325929 -0.063160524
-0.00869683 -0.018501617 -0.083716795 0.12143533 0.011778817 0.0018253997 0.051449936 0.14864871
-0.10793359 -0.003370228 0.13456228 -0.108321086 0.029724417 -0.07270011 -0.07237084 0.020443382
-0.08106299 -0.1278253 -0.01446139 -0.08704045 0.08556209 -0.1427564 -0.073011085 -0.13534756
0.0935877 -0.017983956 -0.0058730175 0.16514766 -0.006859378 -0.081571676 -0.060984693 0.06588037

pointer.fc2.bias f4 [128]
00000000: 7b3a 40bc 316d 37bc b94d 92bd 5b5e 21bd
00000010: 9d6f 6f3d aad2 1b3e 4ab0 a03d 4820 083e
00000020: 44fc 55ba 329c 4cbd 636c be3d 25ff 763c
00000030: 9bef 87bd 3d63 4ebc 26eb b33d 9229 123d
00000040: 9655 22bd f887 163b b714 033e c3b8 763d
00000050: beb8 993d 0322 b33d d58a 29bd b199 b43d
00000060: 532e 7ebc d5c4 93bd 115d e43c 12e1 18bc
00000070: d228 7d3d 66f3 af3d 9e37 05bd a6fe b9bd
00000080: 8173 4d3d dc62 183e 2235 0a3e c06b 15bd
00000090: c047 a03d 25f4 ef3c ef35 4bbd 06e9 c4bc
000000a0: ba61 d73c 8330 d33c 19fb 1c3e aed8 9c3b
000000b0: 8711 023d 930c 33bd 9768 ccbb 4169 8dbc
000000c0: 95a0 813d fc4f 693c 6bd2 11bd 8617 70bb
000000d0: 02dd 51ba ad3f 503d 441b 83bc 5600 6bbd
000000e0: 0715 573d 2713 6e3d 3852 a23d 882a 2dbc
000000f0: 5927 ea3d 2e73 f23d 0e9b 993d 6c2d 173d
00000100: f96d 0a3d 6608 dc3d 57e4 debc a7ec 94bd
00000110: 3a31 533d 67ba 1bbd 7e1d bcbc d4fb 26bc
00000120: 2189 fe3d fdf3 82bd bf64 353d 1674 bfbc
00000130: 946c 2bbd b1cf 973d 38c7 8d3d d18d de3d
00000140: 2175 94bd 9bb5 adbd be75 183e 1877 17bd
00000150: 98ab 323c bfcc 9b3b 3cac 3b3d 6722 063d
00000160: 9e04 423b c91c 643c 07ca c23d 28ad 103d
00000170: 36bb 033e b5bb 923d 1ec6 e53d afce aa3d
00000180: 2c03 e93c 01af 3ebd db90 3c3d b190 2b3d
00000190: 32ff bc3d e7b1 4f3d a919 8fbd df55 e83c
000001a0: 81ac 843c 5ed1 efbc 31ee 7abd 5517 06bd
000001b0: 753f bd3d 785f 263d e411 b03d 5d24 c53d
000001c0: 5849 943d 790a 3a3d 9af7 72bc bbac afbc
000001d0: f8a5 85bd 0882 bf3d c321 28bd 49ef 973d
000001e0: eb7f debd 6907 0ebd 8b57 97bd 1483 2ebd
000001f0: 8d14 cc3d 9a7e c4bb 48db d73b 0a52 aabc
-0.011732693 -0.011195467 -0.07143731 -0.039396625 0.058456052 0.1521708 0.078461245 0.13293564
-0.00081628957 -0.049953647 0.09298017 0.01507548 -0.06637498 -0.012596902 0.087850854 0.035684176
-0.039632402 0.0022969227 0.12800871 0.060234796 0.0750594 0.087467216 -0.041392166 0.08818377
-0.015513974 -0.07215277 0.027876409 -0.009331005 0.061806507 0.085913464 -0.032523744 -0.090817735
0.05015898 0.14881462 0.13496831 -0.03647971 0.07826185 0.029291222 -0.049611982 -0.024036895
0.026291717 0.025779968 0.15330161 0.0047865724 0.031754997 -0.043713164 -0.006238054 -0.017262103
0.06329457 0.014240261 -0.03560106 -0.0036635115 -0.000800565 0.050841976 -0.016004212 -0.057373367
0.052510288 0.058123734 0.07925838 -0.010569222 0.11433286 0.11838375 0.075002775 0.036908552
0.033796284 0.107437894 -0.02720849 -0.072717 0.051560618 -0.038019564 -0.022963282 -0.010191876
0.12428499 -0.06394193 0.044285532 -0.023370784 -0.041851595 0.07412661 0.069227636 0.10866893
-0.07248903 -0.08481904 0.14888665 -0.03697881 0.010905169 0.0047546322 0.045818552 0.032747652
0.0029604803 0.013922879 0.0951119 0.035321385 0.12864384 0.071647085 0.112194285 0.08340203
0.028443895 -0.046553615 0.046036582 0.041886035 0.09228362 0.05070677 -0.06987316 0.028361259
0.016195538 -0.029274639 -0.061262313 -0.032737095 0.09240619 0.04061839 0.08597162 0.09626076
0.07240552 0.045420144 -0.014829541 -0.021444669 -0.06525797 0.09350973 -0.041047823 0.07418687
-0.10864242 -0.034675036 -0.07389744 -0.042605475 0.09964857 -0.0059965374 0.0065874197 -0.020791072
