trained_models/cvrp/XE_11/model_incumbent_vrpRl13_C_XE_11_T_0.1_89270.pt (torch_old, 469732 bytes, 15 tensors)

all_embed.embed.weight f4 [128, 4]
000000 e0 4e f2 3e ac 1d 80 be bd eb db bd 7d 41 51 3d
       0.47325802 -0.25022638 -0.10738323 0.051087845
000010 c8 7f fe 3c aa 4b 23 3e 40 92 51 3c 1c 13 7e bd
       0.03106679 0.15946832 0.012791216 -0.062029943
000020 83 97 b4 3e 87 17 cd be cf 33 8d 3d 8b 1e d0 bd
       0.35271844 -0.40057012 0.06894647 -0.101620756
000030 f8 4c 69 3e 88 8b 4a 3f 85 25 27 be 6e de 6a bd
       0.22783267 0.7911916 -0.16322906 -0.05734103
000040 75 60 ce 3d f5 b7 d0 bd 31 34 55 3e 05 cf a0 3e
       0.100769915 -0.10191337 0.2082069 0.31407943
000050 7e 69 52 bb 8f e7 70 3f dc ea e5 3d 54 32 d1 bd
       -0.0032106335 0.9410333 0.112264365 -0.102146775
000060 8f 54 30 3f 79 0d 96 be e9 d8 98 be 0c 87 10 3e
       0.68879026 -0.29307154 -0.2985299 0.14114016
000070 b5 cb 87 be d1 aa 1c 3f ef 25 92 3c 4a 8f 14 3e
       -0.26522604 0.61198145 0.017840354 0.14507785
000080 5a 21 f7 bd 27 6a ee be 4a 8c 1f 3d 11 19 0b 3c
       -0.12066908 -0.46565363 0.03895215 0.008489863
000090 81 51 4c bd d1 70 4a 3f 2d a3 ff 3d bd 69 26 3e
       -0.049882416 0.79078394 0.12482295 0.16251273
0000a0 bb 72 a4 3d c4 24 e6 bd 88 ef 1b 3f c9 65 c2 3e
       0.080296956 -0.11237481 0.6091237 0.3796828
0000b0 8c 16 cd 3d 02 37 19 3e 00 dc 47 3b 88 8c 74 bd
       0.10014066 0.1496239 0.003049612 -0.059704334
0000c0 e5 3b 16 3f 39 69 27 3f 5f 97 12 be dd e4 86 3e
       0.5868514 0.6539493 -0.14315556 0.26346484
0000d0 cc 60 8f 3e f6 57 3c 3f 04 93 96 3d 3c 4c f4 3d
       0.28003538 0.7357172 0.0735226 0.11928603
0000e0 7f de e9 3d c1 3e 42 3f 9e c0 14 3e 0e cf 80 3e
       0.11419391 0.75877005 0.14526603 0.2515797
0000f0 78 4e 86 be b5 1e 0f 3f 6c 15 6d bd d0 3d a8 3d
       -0.26231742 0.5590623 -0.057881758 0.08214915
000100 ce 3b 06 bf 8e 00 ee 3d 35 5d 75 3e 0f e2 df 3e
       -0.52435005 0.116211995 0.23961337 0.43727157
000110 71 23 7c be e3 67 6d be 4a 03 3f 3e c2 c3 a0 bc
       -0.24622895 -0.23184161 0.18653598 -0.019624595
000120 e3 ef 59 be 25 ee ab be e3 f6 5b 3d 04 9b a7 3e
       -0.21282916 -0.33580127 0.053702246 0.32735455
000130 33 fa 1d 3f 8a 3f 0c be d1 02 32 bd 10 f4 28 bd
       0.617099 -0.13696113 -0.043459717 -0.04124838
000140 1f b4 b2 be 9e 7d d5 3e 80 27 39 3d e6 2e a9 3c
       -0.34903046 0.416974 0.045203686 0.020652246
000150 7f 9d 1e bf 94 e9 71 3b c9 d8 53 bb a0 6f 6a 3e
       -0.6195907 0.0036912905 -0.003232526 0.22894144
000160 16 15 c2 bd cc 07 5d 3f e2 9f db bd aa 03 53 3e
       -0.09476678 0.8634002 -0.107238546 0.20606866
000170 a8 83 7b 3d 70 23 4e 3d 58 6b 9f 3d 78 18 09 bd
       0.061404854 0.050326765 0.07784146 -0.0334706
000180 4e bf 0e 3f 56 65 59 3f a5 8b 17 be 39 c8 52 3e
       0.5576066 0.8492025 -0.14799364 0.20584191
000190 fe c4 14 3b 4d 71 21 bc 1f 57 ae 3e 9b 4f da 3e
       0.0022700424 -0.009853673 0.34050843 0.4263886
0001a0 53 f0 de 3e b7 40 ac be b5 cd dd bd 51 17 1a 3c
       0.43542728 -0.33643124 -0.10830251 0.009404973
0001b0 6f b6 51 be ca c3 a2 bd b0 b8 03 bc 20 5f 7e 3d
       -0.20479749 -0.079475 -0.008039638 0.062102437
0001c0 d7 61 a0 be 90 44 85 be 1f c6 45 bf 1a 2e 3c bf
       -0.31324646 -0.26028872 -0.77255434 -0.73507845
0001d0 21 90 37 bd b5 94 ea be 9e d7 14 3d 2b 6c 42 3d
       -0.044815186 -0.4581658 0.03633844 0.04746644
0001e0 7e 64 6e 3f 72 99 8a 3e 66 b8 02 3d fd 2b 5b 3e
       0.9312209 0.27070194 0.031914137 0.21403499
0001f0 00 28 dc 3e ba fd 58 be 34 0a 1c 3f b6 47 8e 3e
       0.42999268 -0.21190539 0.6095307 0.27789086
000200 27 a7 7a be 8e 81 8e be d4 62 ee 3e ba 8b e8 3e
       -0.24477826 -0.27833217 0.46559775 0.45419103
000210 b7 ed 29 3f 24 99 4c be ea b1 72 be 00 f8 28 be
       0.6637835 -0.19980294 -0.23700681 -0.16500854
000220 d4 48 62 bd fe 1c 14 be 14 52 1c 3e 78 27 c8 3d
       -0.055245236 -0.14464185 0.15265685 0.09773153
000230 f4 d1 3f be 68 49 d9 3d e0 6b c5 bc 00 10 28 3a
       -0.18732435 0.10609704 -0.02409929 0.00064110756
000240 50 c0 57 be a8 13 9c bd c0 84 42 3e 70 b7 47 3d
       -0.21069455 -0.07620937 0.18995953 0.048758924
000250 4d e8 a6 3e 04 2e 11 3f 2e 05 a2 3c c4 24 39 3d
       0.32599106 0.5671084 0.01977786 0.045201078
000260 9a 68 20 bf 68 c6 86 3e c8 e8 ab bd ed 38 7e 3d
       -0.6265961 0.26323247 -0.08394009 0.062066007
000270 10 f2 a0 be ef 4b 37 be 6d 3d 51 3e 56 c9 ef bc
       -0.3143468 -0.1790006 0.20433588 -0.02927081
000280 6c 8e 62 3f f6 3c fc 3c e5 02 05 be d1 15 6d be
       0.8849857 0.030790787 -0.12989385 -0.23152854
000290 61 80 0c be 65 75 35 3f 22 6b 2f be 1a a2 87 3e
       -0.13720848 0.70882255 -0.17130712 0.2649086
0002a0 b4 e1 15 3f ef 5f 99 bc f7 e9 3c 3d ac 43 9d 3e
       0.5854752 -0.018722503 0.046121564 0.30715692
0002b0 02 77 0d 3f 49 14 bf be 75 b1 f3 3d 6a 7e 05 be
       0.55259717 -0.37320164 0.118990816 -0.13036504
0002c0 39 67 09 be e9 ee 0c be 12 e0 05 be 13 12 a2 bd
       -0.13418283 -0.13763012 -0.13073757 -0.07913604
0002d0 bb 25 3a be ec 0e 8d bd 36 f8 59 be 70 69 14 bc
       -0.18178456 -0.06887612 -0.21286091 -0.009058341
0002e0 7c fd 59 3e e0 2f 16 3e f8 3c 58 3d 1a 5f 37 be
       0.21288103 0.146667 0.05279252 -0.17907372
0002f0 00 8e 40 3e 9b 25 1d 3f db 2b 0e bc 8a 62 10 3e
       0.18804169 0.61385506 -0.008677448 0.1410009
000300 85 ad da 3e 86 df bd be b9 03 5a be 26 67 21 3e
       0.4271051 -0.37084597 -0.21290483 0.15762004
000310 58 e6 5a bd 11 26 72 3f 89 92 91 3e 76 a0 4b bd
       -0.05344233 0.94589335 0.2843211 -0.049713574
000320 2c 05 0d 3c b7 be 28 3c e6 18 10 3f 50 1b d7 3e
       0.00860719 0.010299376 0.5628799 0.42013025
000330 19 86 20 3c f0 2f 47 3f 3e 9f f1 3b 74 fd 60 3e
       0.009797596 0.7780752 0.0073737195 0.21971685
000340 2d 91 62 3e 95 dc 21 3f e1 2b 62 3e 20 75 83 3e
       0.22125693 0.63227206 0.22087051 0.25675297
000350 a4 75 31 3f 33 cd 0b 3f 5a 44 7c be 98 16 9c 3d
       0.6932013 0.54609984 -0.24635449 0.07621497
000360 65 2a 5f 3f b0 0f 26 3e 9b 91 82 be 4b 7f 30 3d
       0.87174064 0.16216922 -0.25501713 0.043090146
000370 67 eb 59 bf be e1 77 3b cc dc 8a be 5a ec f7 3d
       -0.8512482 0.0037823762 -0.2712158 0.12105627
000380 18 13 88 3e 96 7d fc be 8e 87 70 3e fb e5 98 3d
       0.26577067 -0.49314564 0.2348921 0.0746574
000390 39 e0 27 be 6b e5 f8 bd ac 3b 26 3e 82 9c 23 be
       -0.16394128 -0.12153133 0.162337 -0.15977672
0003a0 81 e6 3b be 05 37 1d 3e d2 14 48 be b7 52 d1 3d
       -0.18349649 0.1535302 -0.19539192 0.10220855
0003b0 67 65 65 3f 8a 44 2f 3e 58 c9 94 bb 78 eb b0 3c
       0.8960785 0.1711599 -0.0045406036 0.021596655
0003c0 67 cc 10 3e 4a 3e cd be 19 bc d1 bd ee 23 e0 3d
       0.14140473 -0.40086585 -0.10240955 0.10944353
0003d0 4a 4b 11 bd b4 ec 95 bd 1f 23 22 be 75 84 00 3e
       -0.035472192 -0.07320538 -0.1583371 0.12550528
0003e0 2a 96 5f bd 9a c2 8f be b8 fa 55 3e 65 4d e0 3e
       -0.054586567 -0.28078157 0.20896423 0.43809047
0003f0 c3 38 dd bc 3b a0 f0 bc 6e d2 a8 3d 05 7c e6 3d
       -0.027004605 -0.029373279 0.08243261 0.112541236

all_embed.embed.bias f4 [128]
000000 ab 02 18 3e 3c 9b 2e be 6b ae ed 3e 55 ae 73 3d
       0.14844768 -0.17051405 0.46422133 0.059492428
000010 b2 df 95 be 1e c4 8a 3e 7e 6d c1 3d a4 53 23 3e
       -0.29272228 0.2710275 0.09444712 0.15949875
000020 3e f0 06 3f 77 67 8f 3e 7a c8 b5 be 5c 21 75 be
       0.5271033 0.28008625 -0.35504514 -0.23938507
000030 83 a3 a0 3e 43 e5 23 3e 1a 2c c8 3e e8 88 2f 3e
       0.3137475 0.16005425 0.39096147 0.1714207
000040 8e 2b 0d 3d c9 11 e6 3e 75 48 2e 3e b5 61 25 3e
       0.034465365 0.44935444 0.17019828 0.16150554
000050 36 95 9d 3e b6 1e b6 3e 26 8e 18 3d 88 b3 07 be
       0.307779 0.35570306 0.03724494 -0.1325208
000060 da 87 a0 3e bd 80 e1 be 0e 44 96 3e 60 c3 72 be
       0.31353647 -0.44043532 0.29348797 -0.23707342
000070 42 b8 32 3f 19 e2 d8 3e e8 8b 73 be 26 79 9b be
       0.69812405 0.4236 -0.23783839 -0.30365866
000080 87 35 e4 bb 98 18 d0 3e a2 77 e6 be 94 ef 3f be
       -0.006964389 0.40643764 -0.45013148 -0.18743736
000090 2c e2 ae be 8b 21 8f bc 13 64 0c 3f 88 8d f0 3e
       -0.3415693 -0.01747205 0.548402 0.4698298
0000a0 96 dd aa 3e 44 f4 63 bd 08 db b5 be 85 14 e5 3e
       0.33372182 -0.05565287 -0.3551867 0.44742218
0000b0 5d 5a 27 3f a2 16 ea be 3e f2 8c be cb d5 85 be
       0.6537226 -0.45720392 -0.27528566 -0.26139674
0000c0 ed ce 2e 3e 0f 2e 90 3e 21 1b ea be 4a 7b fd bc
       0.17071123 0.2816014 -0.45723823 -0.030942578
0000d0 04 6a c9 be d9 f9 29 3e 99 6e 7a 3c 3d 49 04 bc
       -0.39338696 0.16599216 0.015285158 -0.008074102
0000e0 30 ee b5 3e a8 e2 b9 bd 90 4d 03 3f 3a 4d 89 3e
       0.35533285 -0.090764344 0.51290226 0.26816732
0000f0 fe 59 84 3e f9 14 be be 89 80 14 be 7e 1c d7 be
       0.2584991 -0.37125376 -0.14502157 -0.42013925
000100 59 62 fb 3d 0f 1c 3a be 7d 0b 80 be 4d a6 d3 3e
       0.12274618 -0.18174766 -0.25008765 0.41337815
000110 c0 6f 25 3d 97 e1 91 be 5c 28 cb be d5 79 c8 3d
       0.040389776 -0.28492424 -0.3967923 0.097888626
000120 33 1c 8e 3e e1 fa 96 3e da 27 04 3f 50 88 9d 3e
       0.2775589 0.2948828 0.5162331 0.3076806
000130 32 6c cd 3e b8 5c 8b 3e 40 4d 1d 3f a7 98 76 3e
       0.4012161 0.27219176 0.61446 0.2408167
000140 90 9c 35 3e 98 ca be be 19 4d fd 3e ad 72 28 3f
       0.17735505 -0.37263942 0.49472883 0.6579998
000150 00 4e b5 be 28 8b ae 3e 35 29 21 3f b0 b3 a4 be
       -0.35411072 0.34090543 0.629535 -0.3216834
000160 20 c5 3b 3f 87 25 24 be 3a bd 18 3e 90 7a 44 3e
       0.73347664 -0.1602994 0.14915934 0.19187379
000170 f4 37 f9 be da c7 b3 be 0a 5c f3 be ea 74 a8 3d
       -0.486755 -0.35113412 -0.47531158 0.082254246
000180 d7 a1 b1 3e 68 01 78 be 1b 2a 05 3e f7 61 51 bd
       0.34693787 -0.24219286 0.13004343 -0.051118817
000190 4e fd ee 3e 59 81 ba 3e 1c 06 69 be 08 36 ea be
       0.4667763 0.3642681 -0.22756237 -0.45744348
0001a0 db 3a 3d be be df 0b be f1 ca 15 3e f0 36 b5 3d
       -0.18479483 -0.1365957 0.14628197 0.08848369
0001b0 8a d5 da 3d e4 35 e3 3e ac 88 14 3f 2d 76 eb 3e
       0.106852606 0.44377053 0.58021045 0.45988598
0001c0 b6 6d 98 3e db c6 0a 3f f4 02 47 be d8 2b a9 3e
       0.29771203 0.5420968 -0.1943472 0.33041263
0001d0 b1 7c d8 3e 4e 0c 54 be e5 80 bf bc f5 9c 1a 3e
       0.42282632 -0.20707819 -0.023376891 0.15098937
0001e0 32 74 dc be 3c 3d d8 be 20 bc b1 bd ff 42 0c 3d
       -0.430574 -0.42234218 -0.0867846 0.03424358
0001f0 22 cd 92 3e 77 55 2b 3e 5a 46 23 3e 8a d2 0d 3f
       0.2867213 0.16731821 0.15944806 0.5539938

all_embed.embed_2.weight f4 [128, 128]
000000 71 da de bd 06 f1 bb bd 74 0f b5 3d 33 b5 a1 be
       -0.10881508 -0.09176831 0.08840838 -0.31583557
000010 1e 66 b0 3d ed 28 20 bf 0a 1c 81 be d5 2f 5c be
       0.08613227 -0.6256245 -0.25216705 -0.21502621
000020 ec 74 2d 3f 8a 7f 06 bf 22 57 8e 3e d0 00 ab bc
       0.67756534 -0.5253836 0.27800852 -0.02087441
000030 91 6b d6 be 84 5f 29 bf 7a 4e aa be a4 2f 17 be
       -0.41878942 -0.6616137 -0.33262998 -0.14764267
000040 4a d9 e7 3e 90 24 15 3f 7c 0b 16 3f 57 43 6d be
       0.45282966 0.58258915 0.58611274 -0.2317022
000050 1d b4 7f 3e cd ce ce 3e 93 bd 1a bf ee 90 12 be
       0.24971052 0.4039215 -0.6044552 -0.14313099
000060 2d 43 16 bf 81 f1 6c 3e a3 bc 9d 3d ec 09 a1 3d
       -0.5869625 0.23139001 0.07701995 0.078632206
000070 ca d9 e5 3e bb 44 3b 3f cd 5b 29 bf 3c e9 7b 3d
       0.44892722 0.7315175 -0.661557 0.061501727
000080 f5 81 d7 3e 32 e4 7d bc b3 05 08 be 3e e7 dd 3d
       0.42091337 -0.0154963005 -0.13283424 0.108351216
000090 f8 31 12 bd ce d0 67 bf 37 f3 c0 bd c5 84 2b 3f
       -0.035692185 -0.90552986 -0.094213895 0.66999465
0000a0 2b c3 e4 be 5a 8a 0f bf fc fd bb be e1 bf 73 bd
       -0.4468015 -0.5607048 -0.36717212 -0.05950916
0000b0 8e f1 76 3e ee 06 ce bd 4a 2f 18 bd f1 bf 01 bf
       0.24115583 -0.100599155 -0.037154473 -0.50683504
0000c0 cf 24 6c 3e 22 a0 e0 be 1f 08 21 3e 47 e3 35 bf
       0.23060916 -0.43872172 0.15725754 -0.7104992
0000d0 26 c4 ae be 61 7c 17 bf e1 0a f7 be 77 74 8a be
       -0.34134024 -0.5917416 -0.48250487 -0.2704198
0000e0 7a f4 49 3e 00 62 69 3a 16 17 38 3e 64 85 f4 be
       0.19722167 0.0008902848 0.17977557 -0.4775802
0000f0 3e 37 a0 3e f6 91 8d bd 73 7a a8 3e cb 02 86 3d
       0.31292146 -0.069126055 0.3290592 0.065435015
000100 0c 72 7e 3e 16 73 17 bf 0d a4 64 3e bc 45 88 be
       0.24848193 -0.5915998 0.22328205 -0.26615703
000110 6c 52 46 be 99 00 ad be d0 34 9b 3d 37 d7 fd be
       -0.19367379 -0.33789518 0.075784326 -0.49578258
000120 2f 14 3c 3f 58 c0 11 3f 3e 71 63 bd 18 97 f8 be
       0.734683 0.5693412 -0.055527918 -0.48552775
000130 08 ad 00 bf da 60 03 bf cc 09 da 3e cc bf d7 3e
       -0.50264025 -0.5131966 0.425856 0.42138517
000140 02 32 3a 3f ac b6 2d 3d c8 c8 3a be 80 5b cb 3e
       0.72732556 0.042410538 -0.18240654 0.39718246
000150 d3 49 96 be 42 50 03 bf 27 e9 94 3e 77 a6 a6 be
       -0.29353198 -0.5129434 0.2908413 -0.32548878
000160 08 ff 23 be 29 69 c8 be 80 f4 05 be 15 8e 58 3e
       -0.16015255 -0.3914273 -0.1308155 0.2114795
000170 8b bc 90 bd 64 68 8d 3d 02 70 af 3d 74 8d 0f 3e
       -0.07067212 0.069046766 0.08566286 0.14018804
000180 9f 53 b7 be 6f 4b 3c bf 1a 64 98 be 12 d4 6c be
       -0.35805985 -0.735526 -0.2976387 -0.23127773
000190 f8 e7 ea be 43 11 be be 7c 1d 7d bd fd dc ab bd
       -0.45880103 -0.37122545 -0.061795697 -0.083917595
0001a0 0d 16 b6 3e 23 a0 3f bf 23 83 e3 bd d7 c2 ae be
       0.35563698 -0.74853724 -0.11108997 -0.34133026
0001b0 7f f4 cf be 4a a3 a0 be 5f 70 23 3f eb da c8 3e
       -0.40616223 -0.3137458 0.6384334 0.3922952
0001c0 ed a1 e7 3e e7 6d 36 3f 44 6b 6d 3d 44 6a 7e be
       0.45240727 0.7126145 0.057963625 -0.24845225
0001d0 fe 57 03 3d 4b 9f 47 bf 8a a9 c3 be dd ad 03 be
       0.032066338 -0.77977437 -0.38215286 -0.12859292
0001e0 a4 24 19 be 15 16 0a be 1c c7 4c bf 76 40 cd 3e
       -0.14955384 -0.13484986 -0.79991317 0.40088242
0001f0 20 81 5d be 24 5b 84 be 86 36 1d 3f fc e5 2c 3f
       -0.21631289 -0.25850785 0.6141132 0.6753843
000200 37 99 83 bd 5c ca 99 3d cd a8 96 bd 60 74 85 3d
       -0.06425708 0.075093 -0.07356415 0.065163374
000210 72 85 77 bd 22 58 d4 3d af df c0 bd 4c 79 e0 3c
       -0.060429998 0.103683725 -0.09417664 0.027401589
000220 74 7d 97 3d 89 89 05 3e 4f e8 56 bd 18 df df 3c
       0.07396975 0.13040747 -0.05246764 0.02732806
000230 f1 ba 8e bb 8e 89 c9 bd 0f 19 8c bd e5 6b ca 3d
       -0.0043557812 -0.098406896 -0.06840717 0.098838605
000240 45 11 95 3e f4 07 0a 3e 83 f3 8c bb 09 46 12 be
       0.29114738 0.13479596 -0.00430149 -0.14284529
000250 c3 22 6a 3e 6e 45 01 3e 65 5d 38 bc 00 b9 f4 3a
       0.22864823 0.12624142 -0.011252736 0.0018670857
000260 b5 82 b7 3c 8b 28 7a bd 68 a1 2e 3d 16 c5 e8 bd
       0.022401193 -0.06107382 0.042634398 -0.11365716
000270 ba a7 20 bf ce d4 10 3e 10 66 c4 bc fd 9d 9b be
       -0.6275593 0.14143679 -0.023974448 -0.30393973
000280 02 10 4b bd fc 21 0e be 6a 63 ab bd a0 fc f2 bb
       -0.049575813 -0.13880152 -0.08368571 -0.007415369
000290 00 9b 11 3a 59 d5 16 be 86 18 87 3d 89 0b 1a 3e
       0.0005554408 -0.14729823 0.06596474 0.15043463
0002a0 46 c3 5f be 4c 70 b5 bc 70 d2 32 3c 52 27 05 bd
       -0.21851835 -0.022148274 0.01091443 -0.032508202
0002b0 ec 77 0a 3e 72 05 d2 3d b7 f4 18 3e a4 fe db bd
       0.13522309 0.10254945 0.14937101 -0.10741928
0002c0 4b eb 0e 3d 31 66 14 be aa c9 8f 3b c0 8b cb bd
       0.03489236 -0.14492108 0.004388054 -0.099387646
0002d0 7d d6 bb bc 94 c3 f3 bd 21 40 47 be b5 a7 33 3e
       -0.022929424 -0.11902538 -0.19458057 0.17544444
0002e0 ae b2 c0 3c 32 de fc 3d 9b b0 65 3c 04 76 96 bc
       0.023522701 0.12347068 0.014019157 -0.018366821
0002f0 c8 2a 17 3e 5e e8 f1 3d e5 10 a4 bd 89 d3 9b 3d
       0.14762414 0.11811899 -0.08011035 0.076087065
000300 99 d4 b7 bd 5b d2 e1 bd a0 b3 b6 3c b2 ec 0e be
       -0.08976097 -0.1102645 0.022302449 -0.1395748
000310 6b a5 bb bd 15 45 5e 3d 8a 7a 90 bd fb af a2 bd
       -0.0916241 0.0542651 -0.070546225 -0.07943722
000320 38 bc d1 3d 63 37 ce be 09 bc fe bd fc 64 ac 3d
       0.10240978 -0.40276632 -0.124382086 0.08417699
000330 7c 80 06 3e 59 2f dc 3c 5c 3c de be 9a 13 23 bd
       0.1313495 0.026878046 -0.43405426 -0.039813615
000340 7f bd 4c 3e fe 99 d5 3d 9f ab 72 3c 3f 16 23 3c
       0.19994162 0.10429762 0.0148114255 0.009954034
000350 c1 ec 4e be e9 11 d1 3d 1b 2e c4 be be 55 7e bd
       -0.20207502 0.10208494 -0.38316426 -0.06209349
000360 78 dd 37 3e 88 b4 4f be 0f 5f a2 3d bc 94 8d 3d
       0.17955577 -0.20283711 0.07928287 0.069131345
000370 24 e6 ea bc 93 4f 81 bd a7 8e 0d 3e 9b 54 ff bd
       -0.028674193 -0.06314006 0.13823949 -0.12467309
000380 51 70 c3 3d 97 c1 40 be e2 c9 da bd d9 4f 1e 3e
       0.09542907 -0.18823849 -0.10683037 0.15460147
000390 08 bc e0 bc f0 f0 7e 3d 80 5f 41 3c a8 9f d7 bd
       -0.02743341 0.062241495 0.011802554 -0.10528499
0003a0 94 d2 21 be 1b e1 6f be c7 4d 1c bd 55 c0 a3 3e
       -0.15802985 -0.23425715 -0.03816011 0.31982675
0003b0 96 bb c1 3c 54 e2 93 3c 8c 99 2f 3e 2d 40 6b 3c
       0.023649018 0.018052258 0.17148417 0.014358562
0003c0 8f 9c a3 be bd f9 7d 3d 68 2a cd 3c 4e 61 3c 3d
       -0.31955382 0.062005747 0.025044635 0.045991234
0003d0 a0 98 f0 3c 02 2d 70 3c 83 62 0c 3e b1 d0 3b 3e
       0.029369652 0.014659168 0.13709454 0.18341328
0003e0 3c 46 67 bd 0a eb d3 3d 9d a7 c0 bd 38 f3 16 3e
       -0.056463465 0.103475645 -0.0940697 0.14741218
0003f0 a3 b8 7d 3c 84 20 3d be 3c 85 7f 3e 71 83 34 bb
       0.015485915 -0.18469435 0.24953169 -0.0027544165

all_embed.embed_2.bias f4 [128]
000000 6e 79 64 be 5c f5 80 3d 34 b0 d8 bd 53 39 eb b9
       -0.22311947 0.062967986 -0.10580483 -0.00044865403
000010 60 0e 7e bd de 0b 0d be 72 3d 0b 3d 4b 1b ca 3c
       -0.062025428 -0.13774058 0.033994146 0.024671217
000020 6d 1d 82 bd 70 b0 48 be 36 32 d0 3d 41 9f 60 be
       -0.06353269 -0.19598556 0.10165827 -0.2193575
000030 33 2c 99 be 00 0d 52 3d 3e d7 87 3d fb e4 5b 3d
       -0.29916534 0.05128193 0.06632851 0.05368517
000040 f5 dc 23 be 6e 88 89 39 78 73 39 3e e0 9c f6 be
       -0.16002257 0.00026232324 0.18110454 -0.4816656
000050 62 38 57 be 0e 0f c8 bd 70 4f 2a 39 28 a6 94 bd
       -0.21017602 -0.097684965 0.00016242056 -0.07258254
000060 6c 9d b6 3d e8 3a 19 be 71 bd f0 bd 49 28 08 be
       0.089167446 -0.14963877 -0.11754883 -0.13296618
000070 8a eb 70 3d 0a d0 ef bd cb 20 7a 3d 7e 91 47 3d
       0.058818378 -0.11709602 0.06106643 0.048722737
000080 25 b9 26 be 29 67 9e bc 6b a6 85 be b4 3f 26 be
       -0.16281565 -0.0193363 -0.2610353 -0.16235238
000090 6b 0e 1f be 93 35 4b be d4 e6 ab bd 98 cd 63 3d
       -0.15532844 -0.19844656 -0.08393636 0.05561599
0000a0 00 df e6 3d b3 63 76 bd 62 f6 84 bd e9 b8 13 be
       0.112730026 -0.060153674 -0.06492306 -0.14426006
0000b0 9b 2a 17 bd bc cf 1b 3c 3b 6e dc bd ab 77 0b be
       -0.036905866 0.009509977 -0.10763212 -0.13619868
0000c0 ad 96 1c 3d dd 0d 1e bd 2d e4 bd bd d3 52 d5 3d
       0.038229633 -0.03858744 -0.09272037 0.10416188
0000d0 7e 6b 0b bc 7d b8 b6 bd 00 11 c6 3d 1b 63 b4 3d
       -0.008509515 -0.08921907 0.09671211 0.08807965
0000e0 79 61 ab bc ea dc 30 3c 06 92 51 be d6 90 5e bd
       -0.020920502 0.0107948575 -0.2046586 -0.054337345
0000f0 b0 34 92 bd ff 01 0e bd a0 e6 1c ba 94 4a 8f 3d
       -0.071389556 -0.034669872 -0.00059852935 0.069966465
000100 e8 c0 2d be 5d 37 80 3c 38 df 22 bd 61 74 54 be
       -0.16968119 0.0156514 -0.03976366 -0.2074752
000110 26 6f 25 be a0 07 36 be 9e 70 87 bd f6 3f 24 be
       -0.16155681 -0.17776346 -0.06613277 -0.16040024
000120 02 6b fd bc f5 fa 16 be cb 28 be bd 1c ad 06 3c
       -0.030934814 -0.1474417 -0.092851244 0.008219983
000130 b7 84 e6 bd 80 8a 17 be 5c f0 d8 bd ee 59 02 be
       -0.11255782 -0.14798927 -0.1059272 -0.12729618
000140 0d f4 52 be ba db 3b be 32 15 bc 3c 6f 30 d7 bb
       -0.2060091 -0.18345538 0.022959325 -0.006567053
000150 57 64 a3 bd 62 91 96 bd d4 16 2a bc c7 9e 7c be
       -0.07978123 -0.07351948 -0.010381419 -0.24669944
000160 fa 25 21 be 0e ba c8 bd d9 d5 99 bd 60 a1 02 be
       -0.15737143 -0.09801112 -0.07511491 -0.12756872
000170 3b 87 c1 3c b6 62 29 3e eb b8 16 be e8 99 71 be
       0.023624053 0.16541561 -0.14718978 -0.23593867
000180 21 10 56 be 20 33 2c bd 6d 67 3c be 6c d8 53 be
       -0.2090459 -0.042040944 -0.18398829 -0.20688027
000190 cd 62 ae 3d 2b ae 54 3d 38 fb 1d be 46 7c 0e be
       0.085149385 0.051923912 -0.15427864 -0.13914594
0001a0 20 9c aa 3d 22 07 31 be 48 6f 46 bc 3b 03 a9 bd
       0.0833056 -0.17287877 -0.012111492 -0.08252569
0001b0 e2 b5 f7 bd dd 87 67 be 24 c5 00 be c0 c1 f4 bd
       -0.12095238 -0.22610421 -0.12575203 -0.119510174
0001c0 ec 7f b4 3d 6b 60 1b 3d 80 f2 e4 3b ba 36 06 be
       0.08813462 0.03793375 0.006986916 -0.13106814
0001d0 68 46 a0 bd 7b 9d f1 3d 29 b2 38 be 78 49 2d be
       -0.07825929 0.11797615 -0.18036713 -0.16922557
0001e0 b9 df b2 3d 11 57 c4 bd 85 78 1a bd 5d bd 2e be
       0.08734078 -0.09586919 -0.037712593 -0.17064424
0001f0 43 b0 87 bd a9 73 29 3e 2d 01 0e be eb b1 8a 3d
       -0.06625416 0.16548027 -0.13867636 0.067722164

pointer.v f4 [1, 1, 128]
000000 5c 12 2d c0 72 db 4a bf dc fe 07 c0 b1 aa 84 3f
       -2.7042456 -0.79241097 -2.1249304 1.0364591
000010 a8 98 22 c0 db 19 ed 3f 74 c9 bf 3f 54 db 0d c0
       -2.5405674 1.8523515 1.4983354 -2.2165117
000020 32 22 80 bf de 1f cd 3f 91 1c 39 bf 8c f1 c5 3f
       -1.0010436 1.602535 -0.72309214 1.5464339
000030 ad 14 2e 40 ab 48 ee 3f 4c 32 0a 3f 3c 87 61 3f
       2.720012 1.8615927 0.53982997 0.88096976
000040 6f cc e9 bf e8 6c a4 be ba f6 cd 3e 9b a1 2e 40
       -1.8265513 -0.3211434 0.402273 2.7286136
000050 67 af 2c c0 eb e7 a8 3f 24 4f 13 40 76 85 76 3d
       -2.6982057 1.3195776 2.3017054 0.060185872
000060 97 65 34 bf 4c fd 0d 40 3d b8 af bf 38 c5 cc 3f
       -0.70467514 2.218585 -1.37281 1.5997686
000070 55 44 00 40 fc 7c a9 3f 0a 78 b2 3f 24 17 63 bf
       2.0041707 1.3241267 1.3942883 -0.88707185
000080 21 42 05 c0 f2 ca 76 bf 66 54 df 3f 8c e4 2c c0
       -2.0821612 -0.9640342 1.7447631 -2.7014494
000090 89 c2 4a 40 ba fb 04 40 c0 0e 21 c0 1b 5b 0b bf
       3.1681235 2.0778642 -2.5165253 -0.5443589
0000a0 5b ac e7 bf 41 89 46 3f 08 00 c3 3f bb aa de 3f
       -1.8099474 0.7755318 1.5234385 1.7395853
0000b0 1a ee c8 bf 86 c7 d9 3f 1a da 19 3f ea 8c cb be
       -1.5697663 1.7014015 0.6009842 -0.39755946
0000c0 d7 dc 69 3e 5c 69 23 3f 81 ff 2a bf 18 e0 da 3d
       0.2283815 0.6383264 -0.6679612 0.10687274
0000d0 84 56 01 c0 d6 ac 3e be c2 a9 ab 3e ae b4 86 3e
       -2.0209055 -0.18620619 0.33527952 0.26309723
0000e0 48 55 f9 bf 17 e7 6c be dc 56 28 c0 b8 22 d5 3f
       -1.9479151 -0.23135029 -2.6303015 1.665122
0000f0 c9 8f d0 bf 90 1c 87 3f 42 5d a0 bf 40 59 8a 3e
       -1.629388 1.0555592 -1.252846 0.27021217
000100 b6 70 2c 40 b9 d6 9c be 02 22 ee 3f 1c bd 03 40
       2.6943793 -0.3063257 1.8604128 2.0584173
000110 f6 2b 42 40 37 4a 10 c0 ed 28 1b 40 44 21 32 40
       3.0339332 -2.2545297 2.424373 2.7832804
000120 64 48 df bf b5 ec d5 3f d5 5d 13 c0 9e 67 8d be
       -1.7443967 1.6712862 -2.302602 -0.27618116
000130 5a e6 93 bf 5c 18 ae 3f 54 18 02 c0 60 9d e4 3f
       -1.1554673 1.3601184 -2.0327349 1.7860527
000140 2f 01 ef 3f e0 0e 21 c0 db 80 a2 3e 58 c5 45 bf
       1.8672236 -2.516533 0.31738934 -0.7725425
000150 74 72 1f c0 16 80 cf 3f 1b 9a ea 3e e9 41 1a 40
       -2.4913607 1.6210964 0.45820698 2.4102728
000160 51 a0 d4 bf 7d 1c 1d 3f 8c ea 2c bf 31 70 c0 3f
       -1.6611425 0.61371595 -0.6754539 1.5034238
000170 2a 39 f8 3e ce 99 7f be 59 95 1d c0 d7 26 ae 3f
       0.48481113 -0.24961016 -2.4622405 1.3605603
000180 61 c7 8e 3e 93 9b 0d bf d8 ca 8e 3f eb 6b 14 c0
       0.2788649 -0.5531551 1.1155653 -2.3190868
000190 d6 50 ec bb 22 c9 33 3f 5b 6d 1b c0 b7 79 40 40
       -0.007211785 0.7022878 -2.4285495 3.007429
0001a0 34 7d 00 3f cd 0c ae 3f ef 12 b0 3f 44 03 cd 3f
       0.50191045 1.3597656 1.3755778 1.6016622
0001b0 fd 8e 88 3f 20 00 28 c0 dd 7d a0 3f b4 13 d1 3f
       1.0668637 -2.6250076 1.253841 1.6334138
0001c0 5b 1b 90 3e a3 f1 24 3e ff 28 05 3f f7 81 9e 3f
       0.2814587 0.16107802 0.5201568 1.2383412
0001d0 03 d4 5f bf 5a 0e 97 bf d6 1d 08 c0 2e 17 2a be
       -0.8743288 -1.1801255 -2.126821 -0.16610405
0001e0 4a da 9c bf e9 db c2 3f eb d9 1a bf 5b ba c6 3f
       -1.2254117 1.5223361 -0.60488766 1.5525621
0001f0 08 d2 1d c0 47 27 9d 3d 2a ea 06 40 1a 6c e7 be
       -2.4659443 0.07673507 2.1080422 -0.45199662

pointer.encoder_attn.v f4 [1, 1, 128]
000000 91 dd 1d 3d 18 76 8a 3e 58 c3 63 bd b0 12 e7 be
       0.03854138 0.27043223 -0.055606216 -0.45131445
000010 7a 24 c7 3e 30 c6 c3 bd 2e 05 a3 bd b2 cc 52 3e
       0.38895017 -0.09559286 -0.07959972 0.20585898
000020 ba 85 32 3d 03 ae 88 be 54 3d b9 bd 6e 2f 66 3d
       0.043584563 -0.2669526 -0.090449005 0.056197576
000030 6b d1 83 bd e6 c2 30 3e 78 20 b1 3d 48 8a e9 3d
       -0.06436428 0.17261848 0.08648771 0.11403328
000040 b7 17 24 3e ac 85 f3 3d bc fe a8 3d 8e ac 79 bd
       0.16024671 0.1189073 0.08251712 -0.060955577
000050 d4 38 b1 3e 15 69 01 3f 77 f9 58 be cb 33 0c 3e
       0.3461367 0.5055097 -0.21188913 0.13691632
000060 d1 1f 99 3d 81 f9 79 3d 11 47 2d be d4 c8 1e be
       0.074767716 0.06102896 -0.16921641 -0.15506297
000070 d3 3f 06 be 58 31 c3 3d 80 6a 06 3e 7b c4 ad bd
       -0.13110285 0.09530896 0.13126564 -0.08484741
000080 b6 ad 2a be 16 df 44 be 51 03 26 3e ea af 09 be
       -0.16667828 -0.19225726 0.16212203 -0.13446012
000090 88 35 a8 bd 3a 00 b4 3e d4 4f c8 bd 13 a8 7c 3e
       -0.08213335 0.35156423 -0.09780851 0.2467349
0000a0 2a 5e ef 3e c0 c3 8d be e9 ac 85 3e ab 3f cd 3d
       0.4675153 -0.27688408 0.26108482 0.10021909
0000b0 cd 44 2d 3d 8a 37 07 3e ad db 75 be d0 65 0c 3e
       0.04230194 0.1320478 -0.24009581 0.13710713
0000c0 34 ed 17 be 24 eb 13 3e 7f 4c c9 3d e5 60 2a 3d
       -0.1483658 0.14445168 0.098290436 0.041596312
0000d0 36 17 14 be 63 f1 41 3d 1d 08 57 3e cd 40 0c 3e
       -0.1446198 0.047349345 0.20999189 0.13696595
0000e0 e3 7b 45 3e d3 c2 33 be 09 59 25 be 8c d6 ea 3d
       0.1928554 -0.17554788 -0.16147245 0.11466703
0000f0 0e df 08 bd f6 f1 74 bd 83 85 d6 bc d0 8a b0 3d
       -0.033415847 -0.059801064 -0.02618671 0.086202264
000100 2e b6 77 be f4 fa 9e 3d da c8 13 3c df 1d 71 3e
       -0.2419059 0.07762709 0.009020055 0.23546551
000110 d8 5f 8e bd 41 b8 70 3e 30 66 cc 3d 71 f2 0d be
       -0.069518745 0.23507787 0.09980428 -0.13862015
000120 14 ae 94 3d 3a c3 38 3e 6f 8f 67 3e 55 0e 38 be
       0.07259765 0.18043223 0.2261331 -0.17974217
000130 09 f2 66 bd 66 43 ad 3d aa 54 2d 3e cd fc 83 3d
       -0.056383166 0.08460121 0.16926828 0.06444702
000140 6e d7 78 be d0 29 0a be 0a bf 43 be 18 ad ed 3d
       -0.2430093 -0.13492513 -0.19115844 0.11605281
000150 b8 54 3e bb cc 40 53 3e 28 30 a2 3e d8 c1 f3 3d
       -0.0029042196 0.20630187 0.31677365 0.11902207
000160 e3 42 12 3e 31 48 11 3e f3 ce 0d 3e 92 0f b1 bd
       0.14283328 0.14187695 0.13848476 -0.08645548
000170 31 f6 9b bd ed 23 d8 3d a7 db 41 be 38 12 bc bd
       -0.07615317 0.10553727 -0.18931447 -0.091831625
000180 bb 42 9f 3d ec ae 6c 3e c5 dc 83 bd 6a 90 2a 3d
       0.077764 0.23113602 -0.06438593 0.04164163
000190 13 82 42 bd 43 24 1e 3e cc 0c bf 3d b5 49 71 3d
       -0.04748733 0.1544352 0.09328613 0.058908183
0001a0 21 45 63 3e 9f d0 3d 3e b9 34 de 3d 45 c9 00 be
       0.2219434 0.18536614 0.108499 -0.12576778
0001b0 dc a5 bf bd 4d 50 95 bb b3 d3 62 be 3a 5e a0 bd
       -0.09357807 -0.0045566917 -0.2215107 -0.07830472
0001c0 34 6d a5 3d 7e f2 15 be 00 b7 1b 3d ca 0a 9a 3d
       0.080774695 -0.14643285 0.03801632 0.07521589
0001d0 1a 6c 4e be 5a 5e 23 3e 81 e1 49 3e 3b eb 3d bd
       -0.20158425 0.15953961 0.19714929 -0.04636691
0001e0 45 9d af 3e e3 f7 28 be 16 24 84 3e 28 fe 2f be
       0.34299675 -0.16500811 0.2580878 -0.17186797
0001f0 d6 94 34 be 62 fd 29 be 8a ee a0 bc 77 00 c9 bc
       -0.17634901 -0.16600564 -0.019644994 -0.024536354

pointer.encoder_attn.W f4 [1, 128, 256]
000000 3b f9 10 3d db 98 04 bd 96 00 63 3d 21 97 88 3c
       0.035393935 -0.032372337 0.05542048 0.016673626
000010 7d fc c1 3d 70 37 e7 3c 78 ed 0c 3d 81 ec 37 bd
       0.094719864 0.028224677 0.034406155 -0.044903282
000020 77 e9 dc 3c 20 4e d4 3b 23 3f 95 bc f9 5c 03 bc
       0.026966793 0.00647904 -0.018218582 -0.008017772
000030 5d 2f 7f 3c 37 80 bf ba 49 fb ac 3d c3 22 a0 3d
       0.015575257 -0.0014610355 0.08446366 0.0781913
000040 b2 a5 c5 3d 84 d7 8b 3c 62 ee 0a 3d 35 d9 12 3b
       0.096507445 0.01707054 0.033918746 0.0022407298
000050 26 e7 5e 3d 13 59 30 bb 2c 18 b8 3d 05 8b 9d 3b
       0.05441966 -0.002690856 0.089889854 0.004807832
000060 34 c3 3f bd 66 84 67 3c de e2 ea bb 1a ed 3f 3b
       -0.04681702 0.014130687 -0.007168158 0.002928561
000070 70 1a e3 bb 58 9e a9 bc 49 66 bc 3c 90 35 8b bb
       -0.006930642 -0.020705387 0.022997992 -0.0042483285
000080 bb ad d4 3d 0a bf a4 bb 10 1e 9a ba b3 5f 73 3d
       0.10384699 -0.0050276564 -0.0011758227 0.059417438
000090 1e 8f f6 3c 05 e4 68 3c d8 69 b8 3b 36 e2 36 bc
       0.03009754 0.01421452 0.005627852 -0.011162331
0000a0 3b 0d 34 bc d2 49 17 3d 1e 81 09 bb 68 e0 d3 3c
       -0.0109894825 0.036935635 -0.00209815 0.025863841
0000b0 0b 9e 3f 3c 80 1f 6d 3c aa f0 65 bb f3 6b 3a 3d
       0.011695395 0.014472842 -0.0035086074 0.045513105
0000c0 7c 3f 6e bc 50 69 86 3c c7 78 09 bd 1c bf 89 3c
       -0.014541503 0.016407639 -0.033562448 0.01681476
0000d0 65 2f 06 3d df 12 0d bd 35 0f 83 3c bc d0 5f bc
       0.032760043 -0.034441825 0.015998462 -0.013660606
0000e0 fe 31 d8 bd 99 5f 00 bd 3b fe 7a 3d 71 0d 32 bc
       -0.1055641 -0.03134117 0.06127761 -0.0108674625
0000f0 ef 4d 0a ba ae 8d dd 3c b4 2a e9 3c 25 05 64 3d
       -0.0005275895 0.027045097 0.028462745 0.05566897
000100 97 2b 2e 3d 98 a2 b2 3c 0e 08 52 3d 69 96 ef 3c
       0.04252204 0.021806046 0.051277213 0.029246526
000110 f2 4d 0b 3d 6e bd 5b 3d c6 c7 30 3d f3 b8 9c 3c
       0.03400988 0.05364745 0.04315927 0.01913116
000120 aa 8d f6 bb fc ad 9f bb 9a ac 2e 3d c7 d9 30 3d
       -0.007524212 -0.0048730355 0.042645074 0.04317644
000130 24 69 83 bd d1 b3 18 bc 6a 5e cf 3d 30 a8 81 3c
       -0.06416538 -0.009320215 0.1012543 0.015827268
000140 5a 0f 35 3c 41 3e 7c 3d 6b 40 4c 3d f5 ac 3b 3b
       0.011051023 0.061582807 0.04986612 0.0028637026
000150 36 af a2 3d e5 b6 f6 bb cc f9 7a 3c d3 c9 9a bc
       0.07943575 -0.007529127 0.015318345 -0.018895065
000160 19 fa bf 3d 1d ae 07 bc 83 d8 c5 3a 74 ca 95 3c
       0.09373874 -0.008281258 0.0015094433 0.018285014
000170 f8 ef 70 3c ac 3f 9f 3c c8 2c b8 3d 29 40 57 bc
       0.0147056505 0.01943954 0.08992916 -0.013137856
000180 fb f9 77 bc d2 25 c3 bc cc 8c 2d bc 55 4b 55 3d
       -0.015135284 -0.023821745 -0.010592651 0.052073795
000190 2e fa 9e bc 0c 11 65 3c 81 dd 51 3d 36 e3 5c 3c
       -0.019406404 0.013981115 0.051236633 0.013481906
0001a0 12 93 f7 bc f1 7e b2 bb c1 5e 11 bd 6e 83 07 3c
       -0.030221496 -0.0054472615 -0.035490755 0.008271081
0001b0 95 cf 84 ba 6d 84 42 3d 94 dd 15 3c 67 f7 29 3d
       -0.0010132665 0.047489572 0.009147067 0.041495707
0001c0 2b 77 95 3d 75 69 a7 bb e5 b1 d2 3c 77 7b 90 3c
       0.0729812 -0.005109007 0.025719592 0.017636998
0001d0 3d e4 33 bd 70 5f 35 3c 89 d6 24 3d 49 ac d3 3b
       -0.043918837 0.011070117 0.04024366 0.006459747
0001e0 6d 91 41 3c 78 14 8c ba 17 79 36 bd 3a 2d 15 bc
       0.011814457 -0.0010687253 -0.044549074 -0.009105021
0001f0 be 37 5f 3d d1 a7 1f 3c 83 46 ce 3c de 26 d0 ba
       0.05449652 0.0097446 0.025180107 -0.0015880724
000200 81 3d 6e 3c 61 68 ac 3d 82 9c c7 bd 0b 35 35 bd
       0.014541031 0.08418346 -0.09746648 -0.04424004
000210 ef 21 06 3d 07 a8 d2 bd 1b be 09 be 4a f2 c3 3d
       0.032747205 -0.10285955 -0.13451426 0.09567697
000220 dc 74 4c 3c f6 e4 b4 3d 1d ee a9 3d 17 32 9f 3d
       0.012479033 0.08832733 0.0829737 0.07773226
000230 52 aa 2d 3b 85 06 1e be 02 80 9b bd fe 66 67 3d
       0.0026499224 -0.15432175 -0.07592775 0.056494705
000240 ac 34 83 bd 2c 4b b7 3d 94 57 8e bc 69 8f 21 be
       -0.06406531 0.08949885 -0.017375745 -0.15777363
000250 a7 eb c3 3c 79 9d c9 3d c8 47 bc bd 03 60 e1 3c
       0.023916079 0.09844489 -0.09193379 0.027511602
000260 0f 7d ac 3a 78 56 a7 ba a3 e5 0a 3e d9 5b 56 3d
       0.0013159829 -0.0012766859 0.13564162 0.052333687
000270 1e 4b ac bc 4d 6c 33 bc 40 da 89 bd 83 3e f3 3d
       -0.021031912 -0.010951114 -0.06731081 0.118771575
000280 d7 0d b0 bd f6 cf 87 3c 6c 7b da bd df 1d 42 bc
       -0.0859639 0.016578656 -0.10668072 -0.011847942
000290 fe c9 1f bd 34 04 c6 3c ee 6d 87 3d cb 33 00 be
       -0.039010994 0.024171926 0.06612764 -0.12519757
0002a0 db 6f 20 3d 61 c5 23 bd f1 51 23 bd 2c 5e 29 3d
       0.039169174 -0.039983157 -0.039873067 0.041349575
0002b0 2b f7 5a 3b 44 15 91 3d e5 31 3e 3d 2a ec 9c bc
       0.0033411484 0.07084134 0.046434302 -0.01915558
0002c0 4c c4 97 bd 82 1e f2 3d 0f fa 08 3d 4c 33 28 be
       -0.074104875 0.11822225 0.0334416 -0.16425818
0002d0 f5 5f 81 bd 84 c3 d2 3d 67 60 48 3c 64 e3 1a 3e
       -0.063171305 0.10291198 0.012230015 0.15125805
0002e0 33 ff 63 bd d1 cc ff 3b 61 ad a6 3c ab fc c7 bd
       -0.0556633 0.0078063984 0.020346345 -0.097649895
0002f0 2f 9d 73 3d 61 6a 9d bd 6b ba b3 bc d4 7a ca 3b
       0.059476074 -0.07686306 -0.021939477 0.006179193
000300 8e da 43 bb 80 e7 ee 3c 67 c0 a9 bc f8 40 97 3d
       -0.0029884907 0.029163122 -0.020721627 0.07385439
000310 85 09 6b 3d 2e e6 9d bc 19 36 be bc 40 c1 df bc
       0.057382125 -0.019274797 -0.023219155 -0.027313828
000320 ee e8 c8 bc d7 68 d5 bb e1 7d 16 be 0a 89 64 bd
       -0.024525132 -0.006512742 -0.14696456 -0.055794753
000330 77 b8 59 3c 94 2e d6 3c a4 b7 34 3d 0d 56 05 bd
       0.013288609 0.026145257 0.044120446 -0.032552768
000340 ed 9f 3c be 0b 64 bb bc f5 ea 30 3d cb c9 2a 3d
       -0.18420382 -0.022874853 0.043192822 0.04169635
000350 bb 2e 47 3d 93 de c3 3d 02 1c c1 bd 2b cd ad bd
       0.04862855 0.09563937 -0.0942917 -0.08486398
000360 2e 86 7f bd 48 14 a0 bd 99 73 c3 3b 78 8c 2c 39
       -0.062383823 -0.07816368 0.005964708 0.00016455527
000370 88 6f c6 bd d3 38 20 bd 34 ed a7 bc da cc 9d bd
       -0.09689242 -0.03911669 -0.02049885 -0.07705088
000380 ee 27 a8 bd 24 57 a3 3c 7b 9b 1b bc b4 cb d9 bd
       -0.08210741 0.019939013 -0.009497519 -0.106345564
000390 22 a0 3c bc bd 08 ab bd 54 66 01 3e 9b d5 de 3d
       -0.011512788 -0.08351276 0.12636691 0.10880586
0003a0 bb 40 8e bc dc 11 b0 3c 5e aa 2e 3d 7e e4 c7 3d
       -0.01736485 0.021492891 0.042642944 0.09760378
0003b0 81 a7 f0 bb 2f ac 8e 3a ab 62 82 3d 3a cf df bc
       -0.007344187 0.0010885055 0.06366476 -0.027320493
0003c0 5f 95 8a 3d a7 81 56 bb d6 82 dc 3c d6 d8 b5 bd
       0.067667715 -0.0032731087 0.026917856 -0.08879249
0003d0 56 1b c7 3a d7 a6 12 3d 47 59 e2 bd 9c 71 14 ba
       0.0015190642 0.035803642 -0.110521846 -0.0005662681
0003e0 4a 16 bb 3c 7f 57 58 be 5e 42 e0 3d d9 2a 95 3d
       0.022837777 -0.21127127 0.109501585 0.07283563
0003f0 cc 76 d6 bd 50 83 0d 3e ad 14 92 3d af c8 34 3b
       -0.104718775 0.13819623 0.0713285 0.0027585437

pointer.fc1.weight f4 [128, 256]
000000 b7 8e 85 3d f5 51 51 3b 83 39 a5 3e e5 c2 a6 3d
       0.06521361 0.003193972 0.3227044 0.08142642
000010 f1 01 1a bd bf 42 bf 3e ae 62 24 bd d6 01 b2 3c
       -0.037599508 0.3735561 -0.04013317 0.021729391
000020 46 1c 0c 3e 1b 2f dc bd 78 1a 64 be 5d 76 dd be
       0.1368266 -0.10751172 -0.22275722 -0.43254367
000030 49 24 21 3e bf 7d 6b 3d c4 42 56 3e 04 bb 53 be
       0.15736498 0.057492968 0.20923907 -0.2067681
000040 8e 22 09 3e e3 b5 fc bb 01 4f 97 3e bf 90 a5 3e
       0.13392088 -0.0077121123 0.29552463 0.32336995
000050 b0 88 90 be 6d 11 97 3d d0 4f 7f 3e 07 c6 f4 bd
       -0.28229284 0.073763706 0.2493279 -0.11951833
000060 56 5e 03 3e 48 c7 c1 bd 31 05 d0 bd f5 6a 33 be
       0.12828955 -0.09461838 -0.1015724 -0.1752127
000070 1d fc 45 3e 37 64 81 3d d0 37 9c 3d 21 9d 0c be
       0.19334455 0.063179426 0.07627833 -0.13731815
000080 1e 81 71 3e 38 c6 50 3d db c7 8b 3e c2 7f 6f 3e
       0.2358441 0.050970286 0.27300915 0.2338858
000090 43 54 b1 3e 6e cb 36 3d a7 d0 be bc e9 2d 7c 3b
       0.346346 0.0446276 -0.023292853 0.0038479513
0000a0 58 1a 9e 3d f4 ce 10 3e 11 91 09 bd c3 c0 fa bc
       0.077198684 0.14141446 -0.03358561 -0.030609494
0000b0 c5 42 81 be b4 2b 78 be ee 1e 86 be 08 51 82 be
       -0.25246254 -0.24235421 -0.26195472 -0.25452447
0000c0 94 09 11 3e f6 39 53 3d 1c 91 2b be 6b 52 62 3e
       0.1416381 0.051568948 -0.16754574 0.22101752
0000d0 96 af f9 3e 5f a8 5e bc bf 1d 8a be c9 06 9a be
       0.48766774 -0.0135899475 -0.2697582 -0.30083302
0000e0 6c 9e 8e bc 89 72 aa 3d 20 54 5b be b8 dc 57 3e
       -0.017409526 0.08322627 -0.2141881 0.21080291
0000f0 2a a8 f5 be c2 a6 35 3e 7e a3 0b bd 75 2e 76 3d
       -0.47979861 0.17739394 -0.034091465 0.0601029
000100 44 d3 a8 3c 18 d9 a3 bd 4d ec 80 be 61 79 b0 be
       0.020608552 -0.08000392 -0.25180283 -0.34467605
000110 6e 83 d7 bc 59 79 30 be 7c 9f 13 3e 42 dc 34 be
       -0.026307788 -0.1723379 0.14416307 -0.17662147
000120 9d 31 59 bd 15 5d 3b 3e ec c9 95 3e ae b5 c3 3e
       -0.05302583 0.18297227 0.29255617 0.38224548
000130 07 aa d9 3d 7d 76 89 3d cc 54 d6 3b cc b8 93 3e
       0.10628133 0.06712053 0.0065408703 0.28851926
000140 5c ce dd 3d 0c 94 6e 3d 98 5b 9a 3d 39 91 44 3d
       0.108303756 0.058246657 0.07537001 0.047990058
000150 98 77 59 be c7 d2 17 be f0 8d 19 3d 38 8e 97 3e
       -0.21237028 -0.14826499 0.037488878 0.29600692
000160 c5 5f 2e 3d 6d 58 d8 3e 5c 8e 4e be ef 87 30 be
       0.0425718 0.42254964 -0.20171493 -0.17239355
000170 c4 d3 16 3e cb ab 0f 3e fe c9 f3 bb a1 68 2d be
       0.1472922 0.14030378 -0.007439851 -0.16934444
000180 e6 f2 15 3e fe 59 07 3c 16 06 d6 bd 22 ac 34 3e
       0.1464344 0.008261202 -0.104503796 0.17643788
000190 94 41 66 bd ab 32 89 3d b2 fe cd bd 5d 61 3c be
       -0.056214884 0.06699117 -0.10058345 -0.18396516
0001a0 62 de 62 be 14 ce 70 3d 7b d9 02 3e 38 e2 28 3d
       -0.22155145 0.05879028 0.12778275 0.041231364
0001b0 90 b8 c3 3d a1 7c 98 3e 19 41 d5 bd 77 1f 1f 3e
       0.09556687 0.29782584 -0.10412807 0.15539347
0001c0 b9 38 32 bc 0b 6e cc bd 33 36 27 bd d6 5d bd 3d
       -0.010877782 -0.099819265 -0.040823173 0.092464134
0001d0 4b 85 6c be 08 94 55 be 6b 0b 0f bb 6a 70 5c 3e
       -0.23097722 -0.2085725 -0.0021826874 0.21527258
0001e0 25 aa 6b be e0 d0 64 3e 83 11 bf bc 70 06 98 bd
       -0.23014124 0.22345304 -0.02332378 -0.07423103
0001f0 0c 07 b4 3e e0 a4 ef bb 7c e2 e7 3d d5 94 be 3d
       0.35161626 -0.007313356 0.11322495 0.09305731
000200 bf 0b 04 bd 87 70 0c be de f5 a8 3c 2f 82 ba bd
       -0.032237764 -0.13714801 0.020625051 -0.09106862
000210 c5 10 dd bd d0 7e d4 3c 44 df 62 bb 59 2a 0d 3e
       -0.10794214 0.025939375 -0.003461794 0.13785686
000220 76 aa 33 3d 5d bc e9 3d cc f6 d1 3d 7b d4 8b bc
       0.043863736 0.114128806 0.10252151 -0.017069092
000230 8f 10 a7 3d ab 47 54 3e 85 7a 07 3c 2e 3e 81 bc
       0.08157455 0.20730464 0.008268957 -0.01577672
000240 66 2e 40 bd 97 79 d5 bc be 35 f6 bd 35 e8 ed bc
       -0.04691925 -0.026058955 -0.12021969 -0.029041389
000250 d1 92 52 bd 08 12 cd 3d c6 57 b7 3d f2 57 1f 3e
       -0.051409546 0.10013205 0.08952288 0.15560892
000260 41 27 06 bd 7c 54 f6 bc d9 e7 96 3c ac ee d5 bc
       -0.03275228 -0.030069582 0.0184211 -0.026114784
000270 26 c9 2c 3e 27 fa 56 bd c0 6b 39 3d 86 fa ae 3d
       0.16873607 -0.052484658 0.045268774 0.08543877
000280 74 e1 1d be cc df 8d 3d 1d 73 88 3d 10 f8 a0 bb
       -0.15418035 0.069274515 0.06662581 -0.004912384
000290 21 21 09 3d 61 e2 97 3d 28 ef 17 bd fa 0f a4 bd
       0.03347886 0.07416225 -0.03709331 -0.0801086
0002a0 c5 ec ec bd a7 37 01 3e d3 80 62 3d a6 f0 ed 3c
       -0.11568598 0.12618886 0.055298638 0.029045414
0002b0 bc b8 9b 3d 36 fd 62 3d c3 c0 eb bc 42 4c 7d 3e
       0.07603595 0.055417262 -0.02877844 0.24736121
0002c0 9e ed a1 bc 28 4e 9e bd 27 72 c3 bd ba d8 58 bd
       -0.019766625 -0.07729751 -0.09543257 -0.05294106
0002d0 49 d3 61 3c e0 6c ba 3d d2 74 b3 bd 76 71 08 be
       0.013783284 0.091027975 -0.08762516 -0.13324532
0002e0 da 97 b8 3d 8d 04 92 3d 09 2d 9b 3d 1f bd 40 bb
       0.090133384 0.07129774 0.07576949 -0.00294096
0002f0 c1 c3 ad 3b fe fc 2c 3d be 22 01 bc e3 10 52 3d
       0.0053028767 0.04223346 -0.007881818 0.051285636
000300 61 bb e1 bd 7b a8 7a bc e6 72 98 3d 6d 8a 43 bd
       -0.11022068 -0.015298958 0.0744379 -0.047739435
000310 da 15 88 bd a2 63 3c bc 10 8d ad 3a aa 61 b7 bd
       -0.06644793 -0.011498364 0.0013240892 -0.08954175
000320 e0 65 d1 3d 7e 70 de 3d 99 0e 63 3d 32 51 98 3d
       0.10224509 0.108613 0.055433843 0.07437362
000330 ea 1e c3 bd ae 38 ab bd 25 05 e1 bd e8 63 ef 3d
       -0.09527381 -0.0836042 -0.10987309 0.116889775
000340 48 c4 d8 bd b3 ef 8b bd b9 78 7a 3d c6 9c 1f bb
       -0.10584313 -0.068328284 0.061150286 -0.002435492
000350 69 2a a1 3d f9 67 d3 bd d5 bf 91 3d 69 30 92 bd
       0.07869417 -0.103225656 0.07116667 -0.0713814
000360 61 09 f6 bd f3 25 db bc ef 0b 2b bc 45 b2 e6 3d
       -0.12013508 -0.026751494 -0.010439857 0.11264471
000370 06 9c 05 be 27 03 a9 3d a5 d5 ca bd b7 9f c2 bc
       -0.130478 0.082525544 -0.09904031 -0.023757799
000380 ea c2 fe 3d 45 3b 13 3e 1f b3 11 3e 29 02 7f 3d
       0.12439521 0.14378078 0.14228486 0.06225792
000390 4d 5d 2d 3d 83 00 07 be 06 24 7c ba f3 8a 96 bd
       0.042325307 -0.13183789 -0.0009618405 -0.07350721
0003a0 71 01 2c be 64 56 60 bd c3 ce da 3d f3 b1 83 bd
       -0.16797425 -0.05476989 0.10683968 -0.064304255
0003b0 c3 2a 39 bd ab b0 f0 bd 65 62 21 bd 1d 33 19 3e
       -0.045206796 -0.11752447 -0.039400477 0.14960904
0003c0 0a 96 11 3d 25 e8 ea bd a8 9a a2 bc b3 67 fc 3b
       0.03554348 -0.11470059 -0.019849136 0.0077027916
0003d0 9b ac 97 3b 68 87 6a 3d c9 cd a1 ba 1b 1c b6 3d
       0.0046287305 0.05725804 -0.0012344654 0.088920794
0003e0 39 45 64 3d d2 41 fc 3b 56 7c ea bc 9f e0 fe 3d
       0.05573008 0.007698276 -0.028623741 0.12445187
0003f0 c9 66 52 3d fd 70 1e be e7 14 80 bd 3c 59 69 3d
       0.051367555 -0.15472789 -0.06253987 0.056969866

pointer.fc1.bias f4 [128]
000000 93 f0 ae bc 64 40 d1 bc 37 05 4e 3d 66 87 49 3d
       -0.02135495 -0.0255434 0.050297942 0.04920139
000010 3f ec a8 3c b9 2d 74 3d 58 14 8f bb 9a 87 a3 bd
       0.020620463 0.059613917 -0.004366439 -0.07984848
000020 98 68 51 3b 3f eb 84 3b 6f d2 78 bb f1 a6 17 3d
       0.0031953212 0.004056364 -0.0037967225 0.037024442
000030 a5 51 ae bd 85 06 84 bd 3b aa 84 bc 93 99 49 3d
       -0.08511666 -0.06446556 -0.016194453 0.049218725
000040 cb 87 07 bc ac 26 af 3c 84 37 fd bc e2 82 77 3d
       -0.008272122 0.021380745 -0.030910261 0.060427554
000050 b9 96 6f bb 51 80 60 3d a3 2f 52 3a 0c e4 fc bc
       -0.0036558344 0.054809872 0.00080179627 -0.03087046
000060 39 32 7d 3d 6a 7a 8c bd 2b cf 2e 3d 3d 3f ea bb
       0.061815474 -0.06859286 0.04267804 -0.007148652
000070 41 78 93 bc 6b f3 ef b9 ad 33 3c bd 35 fa 70 bc
       -0.018001677 -0.00045766993 -0.04594772 -0.0147080915
000080 1c 96 9b bc 04 23 21 3c 9d ab 95 bd 9a 7e aa 3b
       -0.018992476 0.0098350085 -0.07308123 0.0052030804
000090 23 c2 11 bc 20 d0 eb bc 47 ca 82 3c 9f 1d 4d bd
       -0.008896383 -0.028785765 0.015965594 -0.050077077
0000a0 8c 4e 9b 3d 07 89 29 3c ec 9c f0 bc 28 93 b0 3c
       0.07583341 0.010347611 -0.029371701 0.021554545
0000b0 30 dd 12 bd ab d8 bf 3b c3 0a 0e bd 65 57 5b bd
       -0.035855472 0.0058546863 -0.034678232 -0.053550143
0000c0 40 75 93 3c c5 fa b7 bc 96 72 e9 bb 14 2a 59 3b
       0.018000245 -0.022458443 -0.0071242554 0.0033136653
0000d0 27 2a ff 3c 76 04 dd bb ba 32 94 bc 88 e5 b5 3c
       0.03114803 -0.0067449166 -0.018090595 0.022204176
0000e0 7d 01 ec bc ae f4 62 3d 91 be 94 bc 1d 4b 83 3c
       -0.028809303 0.055409126 -0.018157275 0.016027028
0000f0 a9 7f 1e 3d e8 c9 89 3d dd 75 d0 3b a6 ac 5a 3d
       0.038695965 0.06727964 0.0063617066 0.053387307
000100 75 a1 0e bc 52 da 14 bd 52 28 18 bc cb 8a 4c bd
       -0.008705487 -0.03634102 -0.009286957 -0.04993705
000110 66 fe 12 3d 73 6f 63 3a 4c 03 f7 bc c5 f6 5a 3d
       0.035887145 0.000867597 -0.03015294 0.053457994
000120 96 a3 21 3d e5 61 17 bd aa fc 9e 3c d4 23 41 bd
       0.03946265 -0.036958594 0.019407589 -0.04715331
000130 65 cc 37 bd 65 ef 07 3c c6 0d 14 3d 06 73 f0 3c
       -0.04487266 0.008296822 0.036145948 0.029351722
000140 82 b8 c9 bc 7b b1 8a 3d 69 4a 20 bd e7 ea e9 3c
       -0.024624113 0.06772133 -0.039133463 0.028554393
000150 a7 1b 56 3d a0 ee 8f bb f3 a1 2a 3c 6f c7 96 3d
       0.052272465 -0.00439246 0.010414588 0.07362258
000160 ba cb 8c 3d 7e 36 25 3c f9 5e e8 3c 2a bb 52 3d
       0.06874795 0.010083793 0.028365599 0.051448025
000170 26 66 39 3d fb c8 ba 3c 19 8d 70 3d 5e bc f7 3b
       0.045263432 0.022800913 0.05872831 0.007560297
000180 aa 9e 51 3d b9 76 90 bc 54 76 99 3c c0 54 5e bd
       0.051176704 -0.017634736 0.018733181 -0.054280043
000190 25 9d 79 3c e2 dc a7 bd 0b 01 83 3c f6 81 ed 3a
       0.01523522 -0.08196427 0.015991708 0.0018120396
0001a0 de 14 df 3c 40 32 58 bd 9e 73 8d 3d cc 08 89 bd
       0.02723163 -0.052782297 0.06906818 -0.06691131
0001b0 43 91 58 bc 4e cb 86 bd 6e b1 e7 3c 48 a7 38 bc
       -0.013218227 -0.06581746 0.028282847 -0.011270352
0001c0 74 c9 af 3c 9a e8 4c 3c 12 94 b2 bb df dc 35 bd
       0.021458365 0.012506628 -0.0054497803 -0.044400092
0001d0 c4 f8 5a 3c fa f0 2f 3d ab e8 65 3d 58 2a 5d 3d
       0.013364974 0.042954423 0.056130093 0.05399546
0001e0 4b dd 51 3c 3a 48 ea 3c 87 b9 8c bd bc 30 82 bd
       0.012809108 0.028598893 -0.06871324 -0.063569516
0001f0 da 60 83 bc 94 8a 49 bd b4 60 74 3d e4 06 1e bd
       -0.016037393 -0.049204424 0.059662536 -0.03858079
