trained_models/cvrp/XE_1/model_incumbent_vrpRl13_C_XE_1_T_0.15_10366.pt (torch_old, 469732 bytes, 15 tensors)

all_embed.embed.weight f4 [128, 4]
00000000: 2dc2 f83e c09a 983e 9bbc 563d 620b 3b3e
00000010: 4af1 3d3f 63c8 d73e f472 113e 4fe1 d33d
00000020: 368d 4b3f 0d65 633e 531e 1e3e a495 f33c
00000030: 2bc8 f8bd 44b8 c13e f933 ac3e 4b6a a33d
00000040: 8716 a7bd e458 d9bd f546 da3d 6571 bb3e
00000050: aa10 0e3f 1ab9 b73c 4435 cbbd cff2 623e
00000060: c19e 8fbe 13c2 37be ca41 dd3e ab80 fd3d
00000070: 3944 9c3e 1c53 363f 1d18 4bbe ece2 483c
00000080: e796 5e3e 2fdd d2be 5d09 9fbe e0a4 1d3c
00000090: 12d4 163f bd9f 52bc 5d29 72bd 6fa0 acbd
000000a0: 5f64 913e 1a07 153f 32af 013e f3ab 62bd
000000b0: 6f73 dc3e e636 ac3e 3079 84be 987b aa3c
000000c0: 000f a13c 7a58 4b3e 489e 853c b821 843d
000000d0: 8365 d8bd 78b0 3f3f ebd3 00bd 3b76 25bc
000000e0: d6e9 04be 4049 903c d29a 073d bf27 f83d
000000f0: b579 a4be db56 a03e ad3d 673e 6d23 a9bd
00000100: 1614 013f ed5c 45bd 546f 583e 5397 3cbd
00000110: b372 1a3f 2e21 adbd b720 85bd 7895 aabd
00000120: d0a6 463f aeb6 103f 81f6 043f ab96 933d
00000130: 9cd0 323e 0404 52be 601c 5f3d 9071 2ebc
00000140: 296d 273f 375e c73e 582d 01be 4285 833b
00000150: bfd8 ef3e 9214 b5be 4217 30be dcd8 583e
00000160: e558 3dbe 96d6 90bd 74f5 f83d db58 d9bd
00000170: b303 37be 0c64 713b 8cfd d63e feea 033e
00000180: 3a44 29be 7d5f 02bf 6610 93be dd4c 813d
00000190: 6eaf c6be b497 da3e 919e f7bd b8a3 273e
000001a0: 70b5 e3be 6a22 7e3e af95 b1bd 8295 d63c
000001b0: 3ae0 013e 4f2a f7bd fcb9 80bd 67a8 c2bd
000001c0: 183d 1e3f 0ff9 62be 45c1 2b3e 174d d2bc
000001d0: 9519 843d 3b99 5a3d c94c c8be ec33 d0be
000001e0: 742a 40bb 3e6d 81bc 5cdf 643e 0553 e03e
000001f0: c688 bc3e faab dabe 1ad6 65be 8302 fb3d
00000200: 4e39 25be ce88 1a3e c955 13be d692 81bd
00000210: 0fe2 423e 37d7 be3e 459b a0bd 706f abbe
00000220: 441a 17bd dd5f c2bd b82c 4d3d 785f 853d
00000230: 668a 2a3f c74f 153f 2007 ea3d e0d7 4fbe
00000240: c081 87be d13e a73e 6e01 b93e 2aac 4bbb
00000250: 36af e23d 68c0 073f cda5 06be 7840 33bd
00000260: f215 9e3e fe00 483f 25f9 3dbe b5c3 563c
00000270: 4eea ddbe 152e a53d baf0 573e ea7a 06be
00000280: 401f 413e 4dd7 ab3c bd78 c0be aa26 c0be
00000290: e288 1f3f c480 89be ce53 6b3e 0724 a4bd
000002a0: 2a8e 8fbe c062 293d bce6 5c3f 2b6f 063e
000002b0: 1a64 cd3e c4d5 06bf 12bc 523e dd82 6abd
000002c0: 8414 a0be cc28 f53e d32b de3d db8f 9b3c
000002d0: d014 f13d 1d5d 083f df02 993e 652e 373e
000002e0: aa7e a2bd 92d8 6ebe 737c 7c3e 7fdb 493e
000002f0: 09ef 45be 4ef8 83be 1676 003f 581d a83e
00000300: 626c 54be 70ab 4ebd 5057 d0bc 6c1f 53bd
00000310: a7a1 f33e 07e2 cabe 1e5f 29be 880a 683c
00000320: c462 14be be6e 48be 8cca 563e dcee 97bd
00000330: 7eca 9c3e 6382 413e 8a95 1abe 3801 b0be
00000340: a01b a83e 9b4e e03e 7b3c cdbe 3bb5 89be
00000350: 9341 1a3e 2e40 7a3e c6ac 7abe 2a61 ad3e
00000360: 0464 d7bd 4980 2d3f 8d55 4a3c 0f05 943c
00000370: 7124 14be d6b9 233f 7226 813d 000c 243e
00000380: 5e49 adbe 7805 003f 39e7 ccbd 11b4 603e
00000390: 4a2d bebd c68d 40be 2030 d9bc 50a4 ca3d
000003a0: f753 ff3e d7b2 26bd 5c02 0bbe dd7f 643e
000003b0: 2976 acbe f47b b43e 3cf9 bebd 86e7 74bd
000003c0: 115b 0b3d 245a 87be ca58 d83e 3bb5 9d3e
000003d0: 74d2 5fbe 5508 1f3f edb3 4cbe cc1d ae3d
000003e0: 36fd 1f3f 7c00 6abe b981 b73d bfa6 afbc
000003f0: 351c 2dbe 9d7b 0dbf f861 23be 5f4d b13d
0.48585644 0.29805565 0.052425962 0.18266061 0.741963 0.4214507 0.14204007 0.103457086
0.79512346 0.22206517 0.15441255 0.02973444 -0.12147554 0.37835896 0.33633402 0.07979258
-0.081585936 -0.10612658 0.10658065 0.3660995 0.5549418 0.02242713 -0.09922269 0.22162937
-0.28050807 -0.17945127 0.43214256 0.12378057 0.305208 0.71220565 -0.19833417 0.012261134
0.21737252 -0.41184375 -0.3106183 0.009621829 0.58917344 -0.012855467 -0.05912148 -0.08429038
0.2839689 0.5821396 0.12664488 -0.055339765 0.4305682 0.33635634 -0.2587371 0.020810887
0.019660473 0.1985797 0.016310826 0.06451744 -0.10566237 0.74878645 -0.0314521 -0.010098989
-0.12979826 0.017613053 0.033106633 0.12116956 -0.32124105 0.31316265 0.22582121 -0.0825871
0.50421274 -0.048184324 0.21136218 -0.04604275 0.6033127 -0.08453594 -0.065003805 -0.0832929
0.77598286 0.5652875 0.51938635 0.07206472 0.1746239 -0.20509344 0.05447042 -0.010647193
0.6540094 0.38939068 -0.12614954 0.0040136883 0.46845052 -0.35367256 -0.17196372 0.21176475
-0.18490942 -0.07072179 0.121561915 -0.10612651 -0.17872505 0.0036833314 0.41990316 0.12882611
-0.16529933 -0.50926954 -0.2872345 0.06313489 -0.38805717 0.42693865 -0.12090791 0.16371047
-0.44474363 0.24817815 -0.08671128 0.026194338 0.12683192 -0.120686166 -0.06285474 -0.095047764
0.6181197 -0.22165321 0.16772945 -0.025671525 0.06450192 0.05336879 -0.39121082 -0.40664613
-0.002932218 -0.015799161 0.2235083 0.4381334 0.368231 -0.42709333 -0.22444955 0.122563384
-0.16135141 0.1509125 -0.14388193 -0.06326835 0.19031547 0.3727357 -0.07842115 -0.33483458
-0.036890283 -0.09490941 0.050091475 0.0651235 0.6661743 0.58324856 0.1142714 -0.20297194
-0.2646618 0.32665113 0.36133903 -0.003107796 0.11068575 0.53027964 -0.13149185 -0.043762654
0.30876118 0.78126514 -0.18552072 0.013108184 -0.43342823 0.0806543 0.21087924 -0.13132825
0.18859577 0.020976687 -0.37592116 -0.37529498 0.6231824 -0.26856053 0.22981188 -0.08014684
-0.2803815 0.04135394 0.8628957 0.13128345 0.40115434 -0.5266993 0.20579556 -0.057253707
-0.31265652 0.47882688 0.108482026 0.018989494 0.11771548 0.5326708 0.29885003 0.17888792
-0.079343155 -0.23324803 0.24656849 0.19712637 -0.19329466 -0.2577538 0.50180185 0.32834888
-0.2074447 -0.050456464 -0.025432259 -0.051543638 0.47584268 -0.3962557 -0.1654019 0.014162667
-0.14490801 -0.19573495 0.20975703 -0.07418606 0.3062324 0.18897395 -0.15096107 -0.3437593
0.32833576 0.4380997 -0.40085205 -0.2689608 0.15064077 0.24438545 -0.2447997 0.33863193
-0.10517123 0.6777387 0.012349498 0.018068818 -0.14467026 0.6395544 0.06306161 0.16020203
-0.33845037 0.50008345 -0.1000504 0.2194369 -0.09285982 -0.18804082 -0.026512206 0.09894621
0.49868748 -0.0406979 -0.13575119 0.22314401 -0.336839 0.3525082 -0.093248814 -0.05979111
0.034022395 -0.2643596 0.4225524 0.3080233 -0.21857625 0.6212209 -0.19990511 0.08501777
0.62495744 -0.22851747 0.089602895 -0.021441815 -0.16905291 -0.55266744 -0.15955341 0.086573355

all_embed.embed.bias f4 [128]
00000000: 6ff3 80be faa2 313c 288f 853e 562a f53e
00000010: e8b4 babe b97a 58be 38c4 843e b96d 933e
00000020: 4057 fd3e 72e2 af3e 5a58 5bbc 1bed 8c3e
00000030: bcea e4be 715f 823e 0b79 d5be 7db5 ab3e
00000040: 0124 863d e7d5 7a3e 7cf3 e33e 90d3 c2be
00000050: 0efe 13bd 4eb6 bd3e 500a 64be 66c8 98be
00000060: ae58 283f 4237 a63e d81d cd3e 189a ecbe
00000070: 8c96 383e 0f5d f13d 55ab 07bf ba7b 7e3e
00000080: 0a15 d8be ef50 413a 34d8 b1be c3e8 b53d
00000090: 724f d73e 3b4d 053e a70b 973e 905e 0c3f
000000a0: fbab 083d 4e00 823e 0f96 9a3d 48e4 f03e
000000b0: 90ba a43e fbd3 84be 4888 733e c105 763c
000000c0: dc49 bcbe 846d b73e 5083 84bd 19d7 e53d
000000d0: dffa 213e 39eb abbe 13f3 c83d d1ac a13c
000000e0: 7dc5 c73d 36e3 f9be f44b ab3d fcdd c63e
000000f0: ea13 d0bd 4e99 073e 508f 2e3e 96d1 173f
00000100: 5207 efbd 192b 52be ce0b 8b3c 9414 4c3d
00000110: dc86 78be 8d82 bf3e c831 e73e 8cf9 49be
00000120: d240 193f 6c6e ae3e 3350 90bc f24f 5cbc
00000130: 8ac0 0a3f ba3b 603e 6b9b ccbd cda9 e03e
00000140: b48a f73e d2b7 19be 16bb a0be a4f0 0b3f
00000150: 7bd7 89be 1ea0 1b3f ce4b f3be 9a07 c13d
00000160: 0c83 db3c ab08 183f 4557 84bd 17fd cbbe
00000170: 87de 193f da0f c5be 9c25 6dbe 1852 dabe
00000180: a410 f7be 8159 0b3e 4cec 4ebe e759 5e3e
00000190: 8a8d 033f 69dd 9e3d ad60 d13d dda0 c8be
000001a0: 38b6 bebd e611 323d 8a7e 20be 7988 d13c
000001b0: 9829 203e 5088 0b3e 44cf 3cbe 4bfe b63c
000001c0: 0ea1 a43e 79e1 69be e1ee ad3b 39bf 8b3e
000001d0: cfbb 803e 73fb b03e 52ec e13e dc29 983e
000001e0: 6c3e b6be f8d0 99be ef25 f93e 5d46 fe3e
000001f0: f674 073f 721c e63e c876 d23e a8ef 683e
-0.25185725 0.010842079 0.26085782 0.47883862 -0.36466146 -0.21140565 0.25930953 0.2879465
0.4948063 0.34352452 -0.013387764 0.27524647 -0.44710338 0.2546344 -0.4169391 0.33536902
0.06549836 0.2449566 0.445217 -0.38052034 -0.036130957 0.3705315 -0.22269559 -0.29840392
0.65760314 0.32464033 0.4006183 -0.46211314 0.18026179 0.11785328 -0.52995807 0.24851885
-0.42203552 0.0007374426 -0.34735262 0.088822864 0.420528 0.13017742 0.29501078 0.5483179
0.03336714 0.25390857 0.07548153 0.47049165 0.32173586 -0.25942978 0.23782456 0.01501602
-0.367751 0.3582574 -0.06470358 0.11222667 0.15818356 -0.33577898 0.09811988 0.019735726
0.09754465 -0.4880616 0.08364096 0.38841236 -0.10160048 0.13242075 0.17046857 0.5930418
-0.11671318 -0.20524253 0.016973402 0.049824312 -0.24270195 0.3740429 0.45155168 -0.19724101
0.5986453 0.3406862 -0.017616367 -0.013446795 0.5420004 0.21897784 -0.09990581 0.43879548
0.4834801 -0.15011528 -0.31392735 0.54664063 -0.2692221 0.60791194 -0.47518772 0.09425278
0.026795886 0.59388226 -0.06461958 -0.3984153 0.60105175 -0.38488656 -0.23158878 -0.42640758
-0.48254883 0.13608362 -0.20207328 0.21713983 0.51387846 0.077570744 0.102235176 -0.3918523
-0.09312099 0.0434741 -0.15673271 0.02557777 0.15640867 0.13626218 -0.1843844 0.022338053
0.32154125 -0.22839917 0.0053080176 0.2729433 0.25143287 0.3456684 0.4412561 0.29719436
-0.355945 -0.30042243 0.48661754 0.49663058 0.52912843 0.44943577 0.41106248 0.22747672

all_embed.embed_2.weight f4 [128, 128]
00000000: ced4 9cbe 0caa 7abe e4ff 893d b10a 42be
00000010: be97 13be 4875 d63d 0e9b fbbe d2b7 31bc
00000020: b22b 083e 2bc8 bd3d 623f 0dbd ba14 673e
00000030: ac7e 2d3d b57b 233e 85c2 c1bd a454 d9bc
00000040: 6465 b9be b927 3bba 0e22 1abe 2de5 b7bd
00000050: 47df 233e 323a 1e3e c4ad a73d 3162 5fbe
00000060: a51c f83d 564d 063e d1f7 423e 001e 81b9
00000070: 4887 f6bd d6e7 263d 6d1a 31be 0b7b 463e
00000080: 6c41 703d 1a0c 6a3d 3436 603d d388 edbc
00000090: 6c1d 39be 4928 443d ec88 af3d 3291 d9bd
000000a0: 6ca7 863e 33ab 44be 7e65 11bf cdfe babd
000000b0: f730 13be 934e e5bd c1bb 3ebe 65e4 e6be
000000c0: c0e4 77bd 8b61 2a3e 8764 103e 468a 043e
000000d0: 6eeb 933e 1081 303e a4fc b43b e9fe fbbd
000000e0: 9a10 01bd eac5 99bd bd55 23bd 4f87 4c3e
000000f0: b299 d7bd cfec 833c 1294 3b3d c1a5 033e
00000100: f5a3 a1bd 574b 073d 00a9 a3be 859c 97be
00000110: 3f45 12be f3e6 5e3c d863 5dbe befa e83d
00000120: 4a5e 313c 8dc2 cf3d 9c1d 0ebe 5ed6 c6be
00000130: c1b9 1d3e 6c6f 883e 08a3 133e d4a4 61bd
00000140: 3f66 94be dbe5 7bbe f057 b4bc 5603 6d3e
00000150: 901a f6bd d6c6 fb3c 703b 873c 659a 15bc
00000160: 3a2f 5cbd 5ff5 433e f09d bebd b4cb e63d
00000170: fea8 40be e22f c13d b098 a63d 31ed e2bd
00000180: c054 8f3b 473c 973e 72b9 dc3d c80f 023e
00000190: 3e69 8dbd 8cea 0ebf b139 483e 6727 b3be
000001a0: f145 063e 1638 a8bc e3a7 173e e260 7c3e
000001b0: f39a 733e eafc 133e 28c3 69be 68df 6e3e
000001c0: f962 e53c 77a5 0f3d 35f2 86be 9024 823c
000001d0: 14c4 ea3d 53e3 52bc af14 8c3e 5754 03bc
000001e0: b268 2cbe 36e9 ddbd 654e 0d3e e5d9 c83d
000001f0: 0f77 dcbd 704f e5bb e562 953c e1e5 9bbd
00000200: 9d4f 6cbe 842f d7be 549a c7be 0a8f d83d
00000210: 04d2 9bbd 9af6 d6be 638d ec3e 6417 87bc
00000220: 50af c5bd b02d 93be cc05 49be c9ea 55be
00000230: 4a12 ea3d dcd6 173e 91bc 003e 76a7 6b3e
00000240: f370 c8be edc0 64be e7a5 9cbe 981f 523d
00000250: 69bd b8be 72f6 99be 361b 01be 4d2c d83e
00000260: fdbc 2f3e 7f63 6c3e 4608 583e fe96 05be
00000270: ea40 f0be fcac 563e 3246 88bd 4142 2cbe
00000280: 80f1 f63b 3640 243d 5884 b43c be27 96be
00000290: 8742 373e d64f 0dbe 649d 10be e144 d13e
000002a0: 85a9 323e 95ba 54be 5deb d33d 993f 81be
000002b0: 375e 8c3e b8c9 583c ee02 ae3d 3dbf 9f3e
000002c0: ecf0 923d fa27 55be f6d4 a33d 615c 8a3d
000002d0: b783 a0bb 7da4 2cbb 8315 07bc 3d69 3abd
000002e0: 18c5 8b3d 5a10 913d c544 71be 7703 b53e
000002f0: dc43 09be a54c 843d c309 c0be 2c95 683e
00000300: ac40 bdbe 96d9 29bd 5a05 b8be 2ba5 633d
00000310: d822 953c 57f3 b4bd 2cae b93e 5c07 9f3d
00000320: 8768 263e 7d09 a3bd db9a 1cbe 050d 183e
00000330: db84 9c3d f378 2a3e f5de 9cbe 21e4 8ebe
00000340: 8a19 1fbe b14f 4bbe 8c17 58bd 176d 583d
00000350: 9127 d13d 6d83 853d 7ae6 ebbd a4e6 813e
00000360: 6035 febd 5e29 113e 889f 9abd 6a00 613d
00000370: 3d5a 823e a0c2 d7bd a2de f73d 8807 7bbd
00000380: 9cfd f5bd ed2b b83d 648b a33d 0dfc 72be
00000390: 8de2 16bd be00 8e3e f4e8 0abd 1411 93bd
000003a0: ca2a a43d 0fb1 bc3c 8c66 c2bd c7f0 06be
000003b0: 4436 e8bd 4e6a 0fbe 3857 bbbe 8a06 ab3d
000003c0: 9fd1 973e 5a56 5f3e 61d6 48be 140e 9ebe
000003d0: e73a 4abe b52d b33e 95f8 d9bd be50 9fbe
000003e0: d826 bdbd 37da 02be 7b08 96bc a7d4 133f
000003f0: 0ba9 483e 3198 a6be a1e9 a33e 1643 df3c
-0.30631107 -0.2447893 0.067382604 -0.18949391 -0.14413354 0.104715884 -0.49141735 -0.010847049
0.13297918 0.09266695 -0.034484275 0.225665 0.04235713 0.15965159 -0.0946093 -0.026529618
-0.36210167 -0.0007139403 -0.15052053 -0.08979259 0.16003142 0.15451887 0.0818744 -0.21814801
0.121148385 0.13115439 0.19039847 -0.0002462715 -0.120375216 0.04074844 -0.17295237 0.19382875
0.05865614 0.057140447 0.054739192 -0.028995907 -0.1807763 0.04788998 0.08571038 -0.10623397
0.26299608 -0.19205932 -0.5679549 -0.09130631 -0.14374147 -0.111966275 -0.1862631 -0.45096126
-0.060520887 0.16638772 0.14100848 0.12943372 0.28890556 0.17236733 0.005523281 -0.1230448
-0.031509973 -0.07508452 -0.03987669 0.19973491 -0.10527362 0.01610413 0.045795508 0.12856199
-0.078926004 0.033030834 -0.31964874 -0.29611602 -0.14284228 0.013604867 -0.21620119 0.1137595
0.010825703 0.101445295 -0.13878483 -0.38835424 0.1540289 0.26647508 0.1441766 -0.055088833
-0.28984258 -0.24599402 -0.022014588 0.23145804 -0.12016785 0.03073446 0.016507834 -0.009131049
-0.053755976 0.1913657 -0.09307468 0.11269322 -0.18814465 0.09432961 0.081345916 -0.11080397
0.0043741167 0.29538175 0.107775584 0.12701333 -0.06904839 -0.5582664 0.19553258 -0.34991
0.13112618 -0.020534556 0.14810137 0.24646333 0.23789577 0.14451948 -0.22828352 0.2332741
0.028001295 0.03506991 -0.26356664 0.015886575 0.1146318 -0.012871581 0.2735953 -0.008015714
-0.16836813 -0.10835497 0.13799436 0.09807185 -0.10764896 -0.006997995 0.018235633 -0.07612205
-0.23077245 -0.4202844 -0.3898493 0.105741575 -0.07608417 -0.41985017 0.4620162 -0.016490646
-0.09652579 -0.28745794 -0.19631118 -0.20890345 0.114292696 0.14828056 0.12571932 0.230131
-0.39148673 -0.2233922 -0.30595323 0.05129966 -0.36082008 -0.30070835 -0.12608036 0.422213
0.17161937 0.2308483 0.21096906 -0.1304588 -0.46924525 0.20964426 -0.06654014 -0.16822149
0.0075361133 0.0401003 0.022035763 -0.29327196 0.17896472 -0.13799986 -0.1412254 0.40872863
0.17447479 -0.207743 0.10347626 -0.25243834 0.2741563 0.013231687 0.084966525 0.3120059
0.071748585 -0.20816031 0.079996035 0.06755901 -0.004898514 -0.002634316 -0.008244875 -0.04551052
0.06824702 0.07083197 -0.2356139 0.35354206 -0.13404793 0.06459931 -0.37507448 0.22713155
-0.36963403 -0.04146727 -0.35941583 0.05557744 0.018205091 -0.08835476 0.36265695 0.077650756
0.16250812 -0.07960794 -0.15293448 0.14848717 0.07642528 0.16647701 -0.30638853 -0.27908424
-0.15537086 -0.19854619 -0.05275683 0.05283841 0.10212625 0.06519208 -0.11518569 0.25371277
-0.12412524 0.14175937 -0.075499594 0.054932036 0.2545947 -0.10535169 0.12103011 -0.06128648
-0.12011263 0.08992753 0.07985571 -0.23728962 -0.03683715 0.2773494 -0.033913568 -0.07180992
0.08015974 0.023033647 -0.094922155 -0.13177787 -0.11338475 -0.14005396 -0.3658998 0.083508566
0.29652116 0.21810284 -0.19613029 -0.30870116 -0.19749032 0.3499581 -0.106431164 -0.3111629
-0.092359245 -0.12778555 -0.01831459 0.57746357 0.19595735 -0.32537988 0.32014182 0.027253669

all_embed.embed_2.bias f4 [128]
00000000: f9a8 47bb a8fc 853d e6d4 1e3d 4a28 9abd
00000010: 5b16 7ebe 5619 ac3a f0da 04be 1329 1ebe
00000020: b0a8 0ebe ea6d a3bd db5f dbbc 8b7d f93d
00000030: 9a77 483c 69aa 40be d756 8cbd 5bbd 583c
00000040: b5f0 73be 00f7 7b3d a563 0ebe 7eaf 53bd
00000050: 4706 093e fe17 a0bb 4c7b c8bc acd6 0fbc
00000060: d9ac c2bc c5fc 3c3d 0a98 53bd d304 dcbc
00000070: 4040 02bd 794d ee3c f6d3 8d3b 5593 4a3d
00000080: e7e0 d0bd 3a23 2fbe d749 ddbd 1fc1 5cbd
00000090: edaf d7bd 07de 353d a62c 833c 43f1 c13c
000000a0: a105 093d cad1 3bbd 2ceb 27be 4278 df3a
000000b0: 8e7e a9bd 4a2c 0dbe 423a ff3c 246e 95bd
000000c0: 79c6 18bd 72d8 073d b161 4c3d a757 9dbd
000000d0: a40a 1cbe 78fc ba3c 0820 3ebd 5675 653d
000000e0: bc13 28be afa2 b2bd 44eb 223d d4fa 293d
000000f0: 450d 6abd fa7d 7d3d 1678 1d3e 1497 df3c
00000100: cbc8 0e3b bce5 0d3d 17c5 c8bc 80d0 17be
00000110: f9b1 c33c 1dab 8e3c 8800 79bd 24ef 2a3d
00000120: 6270 f1bd d708 593b 1218 db3a 46b7 5b3c
00000130: 0844 4e3d 0467 3a3d 390a f2bd 91c1 603c
00000140: bf4b dcbc c878 06be cbd8 01bd 9b4c e5bd
00000150: e907 c43d 425f 8ebd 28be aebc 15fd 6ebd
00000160: 34b4 42bc 7ab8 e7bd 6284 8c3d effb 14be
00000170: 47a6 4ebe 0311 59be e0c7 783d 7480 f2bd
00000180: 3842 493d c0aa 24be 7279 333d 03dd adbd
00000190: 88e0 89bd 95fc 713a 2f89 2dbe 4440 aeba
000001a0: ee14 8cbd 38c2 92bd be0b e7bd 693e 9dbd
000001b0: 8d2d babc 7e2b 2f3e 95df dfbb 1961 8d3d
000001c0: 0be4 2ebe a31c afbd 2863 27bd 60af ff3d
000001d0: 3d1f 4ebd 4d4d e1bc b591 d8bd d5cf 24bd
000001e0: 698e b9bb 0636 b5bd c17c efbd 6d83 27be
000001f0: ed9f 0dbe 21ad 943d 4e76 68bd 6425 36be
-0.0030465706 0.06542331 0.038777255 -0.07527216 -0.24813215 0.0013130109 -0.12974143 -0.15445356
-0.13931537 -0.07979949 -0.026779106 0.121821485 0.0122355465 -0.18815006 -0.06852501 0.01322874
-0.23822291 0.061514854 -0.13905199 -0.051681034 0.13381301 -0.0048856726 -0.024472855 -0.008779209
-0.02376406 0.046139497 -0.051658668 -0.02685777 -0.031799555 0.029089676 0.004328246 0.049456913
-0.10199147 -0.17103282 -0.108050995 -0.053895112 -0.10531602 0.044401195 0.016012501 0.023674613
0.033452634 -0.045854367 -0.16398305 0.001704939 -0.082760915 -0.13786426 0.03115571 -0.07296398
-0.037298653 0.033165403 0.049897853 -0.07682734 -0.15238434 0.022825465 -0.046417266 0.056020103
-0.16413778 -0.08722436 0.039775148 0.041498974 -0.05714156 0.06188772 0.1537784 0.02729372
0.0021787162 0.03464292 -0.024508042 -0.1482563 0.023888575 0.017415578 -0.060791522 0.04173197
-0.117890134 0.0033116841 0.0016715548 0.013410395 0.05035785 0.0455084 -0.11818356 0.013718025
-0.026891587 -0.13132012 -0.03170089 -0.11196252 0.09571821 -0.06951763 -0.021330908 -0.058346827
-0.011883784 -0.11314483 0.068611875 -0.1454923 -0.20180617 -0.21197896 0.06073749 -0.11840907
0.049135417 -0.16080761 0.04381699 -0.0848942 -0.06732279 0.0009231058 -0.16946863 -0.0013294299
-0.068399295 -0.071659505 -0.112815365 -0.076779194 -0.022726798 0.17106435 -0.006832073 0.069032855
-0.17079179 -0.08550384 -0.040866047 0.12484622 -0.05032276 -0.02750268 -0.105746664 -0.040237267
-0.0056627286 -0.08848195 -0.11693717 -0.16358729 -0.13830538 0.07259584 -0.05675345 -0.17787701

pointer.v f4 [1, 1, 128]
00000000: 99ea 5cbf 3efd e23f 0773 b2bf ae02 1dbf
00000010: e0c5 8bbf bcc2 0f3d 2de4 673f bf5e ab3f
00000020: 4576 7c3f 1e6b a9bf d842 853f f3b3 563d
00000030: 9de2 8abd afbc bc3f 18a5 263f 198a 923f
00000040: 8327 a2bf 8fb9 98bf fa45 11bf ea93 3c3e
00000050: 7ae2 99bf b8fb 6ebf ece9 343d 08be 143e
00000060: c7b6 65be 90cc 8abf 8874 a2bf edc4 9cbf
00000070: 185a 95bf 3a14 5cbe 6752 80bb 1301 f3be
00000080: 067e abbf af0a b6bf 523d 93be fe5e b0bf
00000090: 3bc0 c6bf e622 cabf 16bb 8dbf d199 bfbe
000000a0: 41a1 ebbc 2c3b b03f a8d1 45bf 3255 a03f
000000b0: 20d5 883f a982 913f 29c8 203f e47a b0bf
000000c0: 8bfb fd3f 3942 403f 069f ac3f 0470 ae3f
000000d0: 6876 dfbf c8ca 28bd a5d0 b5bd 2de2 a7bf
000000e0: ceba 903f 7e48 a13f 1bd4 33bf 3d8f 853f
000000f0: ab84 e9be d7a9 f43c 5dcd 86bf e4ea 2fbf
00000100: 0b19 803f d90e 083f 91a3 e33f 8b57 aebf
00000110: fec3 0fbe 9ff7 e73f 3dfe e83f f620 9cbf
00000120: b454 ce3f dbb4 993e 3a8f a8bf cb36 b83f
00000130: 7fd9 9ebf 8e43 21be f2aa 813f a596 a6bf
00000140: 6677 cbbe fd71 acbf a0c0 c3bf aeaf 17bf
00000150: b5a5 8cbf 1429 c73f 45fd b8bf c3dc e23f
00000160: 1949 ff3c 702d 32bf 5703 0740 75be 3ebf
00000170: 30cf b53f 767d 8c3f 2492 7ebf 1553 ac3f
00000180: ef91 c0bf 0411 883f 18c4 87bf 8967 9bbf
00000190: ec0e 8b3f ff77 0cbf 7a85 a93f a221 d03f
000001a0: 3e70 983f 0b21 9abf 258d c13f e58c 68be
000001b0: 9b3f 9dbf e29b a1bf 05d8 c43f 9433 0f3e
000001c0: a3c5 b63f 9aee c2bf 61e1 4a3e 4845 6d3c
000001d0: b533 a13f f607 b2bf 7c1c 873f e690 b6bf
000001e0: bd5e 62bd 46e3 a8bf 99d7 a23f 8841 c03f
000001f0: 8195 d63f 9993 b6bf 83d5 11be bff4 c9bf
-0.8629547 1.7733533 -1.3941354 -0.61332214 -1.0919762 0.035097823 0.90582544 1.3388289
0.98617965 -1.3235815 1.0411024 0.052417707 -0.06781504 1.4745082 0.65095663 1.1448394
-1.2668308 -1.1931628 -0.567474 0.184158 -1.202224 -0.9335284 0.044168398 0.14525616
-0.22433005 -1.0843678 -1.2691813 -1.2247597 -1.166812 -0.21492091 -0.003916073 -0.47461757
-1.3397834 -1.422201 -0.2875772 -1.3778989 -1.5527414 -1.57919 -1.1072719 -0.3742204
-0.028763415 1.3768058 -0.77273035 1.2526 1.069004 1.1367999 0.6280542 -1.3787503
1.984239 0.7510105 1.348603 1.3627934 -1.745801 -0.041209012 -0.088776864 -1.3115898
1.1307008 1.2600248 -0.7024552 1.0434338 -0.4560903 0.029866142 -1.0531422 -0.6871779
1.0007643 0.53147656 1.7784292 -1.3620466 -0.14039609 1.8122443 1.8202587 -1.2197559
1.6119599 0.30020794 -1.3168709 1.4391721 -1.2410125 -0.15748426 1.0130293 -1.3014723
-0.3973953 -1.3472286 -1.529316 -0.5925244 -1.098807 1.5559411 -1.4452292 1.7723621
0.031162785 -0.6960058 2.1095788 -0.74509364 1.4203854 1.0975788 -0.9944174 1.3462855
-1.5044535 1.0630193 -1.0606718 -1.2140971 1.0863929 -0.548706 1.3243859 1.6260264
1.1909254 -1.2041334 1.5121199 -0.22709997 -1.2285036 -1.2625697 1.5378424 0.13984519
1.4279064 -1.5229065 0.19812538 0.01448185 1.2593905 -1.390868 1.0555568 -1.426297
-0.05526613 -1.3194358 1.2722045 1.5019999 1.6764375 -1.4263793 -0.14241605 -1.5777816

pointer.encoder_attn.v f4 [1, 1, 128]
00000000: 4d13 0e3c f193 82bd 4c3c 04be 68cf febd
00000010: 4974 133d 2a89 01be 1b40 04be 2d13 343e
00000020: 42ec 44bc 47c8 19bc 1ad8 4d3e 4676 053e
00000030: ce89 58be 3789 cf3c c70e 613e db9b 40be
00000040: 2103 1e3d ec2a 24be dff1 7c3d ec59 813c
00000050: f2ed 69bd 3dc9 49be abd4 eb3d 723a 89bd
00000060: 5d8a ec3b b307 233e b7f5 313e b38d 63bd
00000070: ced9 1fbd c7f3 2b3e 6a37 353d 0f57 1abe
00000080: 2cfe c33d b1d9 63bd 838c 80bc 7098 f2bd
00000090: 9381 17be 0edc 1b3e 8b9c 933e 4f58 9e3c
000000a0: 5d7f 123e a563 233e 00b5 73bd 12aa 30bd
000000b0: 89d9 98bd a01a 0c3e 61d8 b7bd eed7 d13d
000000c0: f8ce 663c 3460 3b3c 53d2 383e 711b 0d3e
000000d0: b8fc 28bd 144b 0d3c 8bac a5bd 981c ee3c
000000e0: 2cf3 a1bd 7b4d 80bc 2fcc 63bd e327 d7bd
000000f0: a628 27bc ab23 5a3e 19a7 493d c1e1 39be
00000100: 3b7c 1fbe dbf6 c3bd c6fd 80bd 8a18 883e
00000110: ee68 423e 7e10 4b3e b02d 3ebd cee4 3c3c
00000120: 8254 643d 7dcf 823d a9bd f9bd fa8a 66be
00000130: 5bb9 84bd 0438 76bd 0027 1dbc c6b1 c1bd
00000140: b998 003d c381 1b3e 562e 3c3d d768 71bd
00000150: 74b6 00ba d4fa a23d d928 733e 1c17 0abe
00000160: 94e0 ebbc 80b7 81bd 133b 8cbd 55d1 39bc
00000170: f60c d6bc 64ef 7c3e 4150 3d3c 3e6c 2a3c
00000180: 47ef 83bd f4b6 f63d f629 d4bd d3fe 5ebb
00000190: 7ffe c33d aa6a 613d 71db bbbd 9468 d93d
000001a0: 2e14 10be d9ef 28be 8529 233e 10cf 3c3e
000001b0: 9d01 9a3d e52a aebc 3e52 61bd 1b1a 483b
000001c0: 48bb e3bb e197 2d3e 7311 5c3c 7c6b 18bd
000001d0: a55d b8bd 88df d939 50f3 693e 37a0 45bd
000001e0: 0a04 3abd cf92 493d d15d 31bd 3b8f 90be
000001f0: a68b 81bc 1da6 8939 be62 793e 9f27 7b3c
0.008671594 -0.06375874 -0.12913626 -0.12441903 0.03599957 -0.1264998 -0.1291508 0.1758544
-0.012019219 -0.009386129 0.20101967 0.13033399 -0.21146318 0.025333984 0.21978293 -0.18809454
0.038577203 -0.16031998 0.061754104 0.015789948 -0.057111688 -0.19705673 0.115151726 -0.06700601
0.0072186426 0.15920906 0.17378889 -0.055555057 -0.039026074 0.16792212 0.0442423 -0.15072273
0.09569964 -0.05562753 -0.015692001 -0.118454814 -0.14795522 0.15220663 0.2883037 0.019329218
0.14306398 0.1595598 -0.059498787 -0.04313094 -0.074633665 0.13682032 -0.08976818 0.102462634
0.014087431 0.011436511 0.18048982 0.1378 -0.041256636 0.008623857 -0.080895506 0.029066369
-0.079077095 -0.015661946 -0.055614647 -0.10505655 -0.010202562 0.21302669 0.049231622 -0.18152525
-0.15574734 -0.09568568 -0.062984034 0.26581222 0.1898534 0.1983051 -0.04643029 0.011529161
0.055744655 0.063872315 -0.12194378 -0.22513953 -0.06480666 -0.060112014 -0.009591818 -0.09457736
0.031395648 0.15186219 0.045942627 -0.058937874 -0.000491 0.07957998 0.23746051 -0.13485378
-0.02879361 -0.06333828 -0.06847205 -0.011341413 -0.026129227 0.24700695 0.011554779 0.0104017835
-0.06442123 0.12046614 -0.10359566 -0.0034026399 0.09570026 0.055033363 -0.091727145 0.1061565
-0.14070198 -0.16497745 0.15933807 0.18438363 0.07519839 -0.021260688 -0.055010073 0.0030533138
-0.006949816 0.16952468 0.013431895 -0.03721188 -0.09002236 0.0004155601 0.22846723 -0.048248496
-0.04541401 0.049212273 -0.04330236 -0.28234276 -0.01581366 0.0002625444 0.24354073 0.015329271

pointer.encoder_attn.W f4 [1, 128, 256]
00000000: 022e f33b ec18 0bbd 9431 0f3d 1b40 e33a
00000010: 1216 a3bd f5ad 803d e18f 6bbd 41de 23bd
00000020: 11ac 05bd 5047 4ebd b699 14bd 360f 6d3d
00000030: a20c 09be 66be 66bd 7fcf b8bc 13e3 90bd
00000040: 3e29 d1bd 06a6 1a3d b253 fabc f1ca 80bb
00000050: 067b 413d 1015 82bd f517 46bc ef37 45bd
00000060: 18ab 62bd 9a4f f5bd 1315 393c 3a8b b5bb
00000070: 7563 133d e018 453a 456d 87bd 1f12 9b3d
00000080: 4bc7 373b cd76 1fbd 9b27 02be 332c cbbc
00000090: a615 2d3d 6634 acbd 0905 273c c3e0 1dbe
000000a0: 4fe2 93bd 6741 8dbd e79a 88bd d949 9bbc
000000b0: 4391 1abd e373 46bd 3ed1 0fbd ee7c 04bc
000000c0: 7262 b1bd 99fb 2ebd 370f 56bd b6e4 8bbb
000000d0: 821e ccbd 6201 5b3d 22b2 f23c 6b11 253d
000000e0: 70d0 34bd ad2f 30bd 4cbc 15bc 9dcc 9abc
000000f0: f677 a3bd 043a a43d 56ee 3d3b 1da7 2039
00000100: 9050 c2bc ce97 a5bd f2e0 b6bc 1dd3 48bd
00000110: 9d70 d5bd 717e 1bbd e131 c4bc be1b 583d
00000120: 18ce 99bd 19d1 293b b7fe da3b a2c8 aebc
00000130: f80b db3c d74a b8b9 3f6e 3ebd 2ec2 fbbc
00000140: e938 e9bb db06 a2bc 1220 cbbd b995 71bd
00000150: 1181 333d db24 93bd 728d ddbd 0f16 9cbd
00000160: 260f 39bc 1126 96bd 1547 ddbc fdbf b8bd
00000170: 3855 0ebc ed6a 01bd 6e94 073d 708e 1cbd
00000180: fc27 d3bc 3689 71bc 2d74 a4bb be8b 43bc
00000190: 63ae 7ebd d318 16be 74c3 74bd 63c0 11be
000001a0: 430e 5ebd 884b 4e3d 2d04 4abd 9c27 b2bd
000001b0: 4bcd 97bd 4803 543c acdb 073d f753 69bc
000001c0: 7114 11bd bbf4 8fbd 6335 b93d cd6a 84bc
000001d0: 8c6d 6bbd 8a36 f9bc 71f9 4dbd 4234 61bd
000001e0: 9cfc c8ba 775b 883c edc6 f2bc 8672 3dbb
000001f0: 65a2 afbd e1fe da3c 27db 873d a5c5 6ebd
00000200: 7ede 8fbd f1e9 45bd adb2 a7bc d5ad 913c
00000210: 6b74 2eba 22ac 313d 4638 9cbd 1556 f2bd
00000220: bbdb 2bbd 1f21 7a3d ae3c 94bc 2713 0b3d
00000230: 35d6 a9bd 8563 a73d 7c31 83bd 4950 a3bd
00000240: 347d 79bd 6ad8 4a3d 2df0 b83d 24c2 e0bd
00000250: 9ffc c4bd 1fe5 c63c d0cf 15bc b89d 223d
00000260: 4a5d 91bd 68da 9e3d 1388 b93d c444 fbbc
00000270: 7af4 b63d 3721 dc3c 5812 8bbd da43 acbd
00000280: 5702 ffbc abb2 0bbd 5a19 ec3d 8bca b33c
00000290: 546c e1bd 616e d2bd 6aa0 813c 5477 1bbd
000002a0: dafd e3bb 4e54 863d 7302 c13d e962 6abc
000002b0: 25f4 95bd 8e87 6dbd 92b2 a93c 24d0 993d
000002c0: 0c23 5f3d 95a2 3e3d b7a2 89bc da8b 833d
000002d0: f24e 5f3c 7694 0d3d f8b2 92bc f75f ac3d
000002e0: 9967 5c3d e038 01be 0146 833d 4cc6 1ebd
000002f0: db1d b33b d5e8 63bd cf78 373b b1f7 58bd
00000300: bd40 47bd d265 ad3c 7b32 a33d 07b6 58bd
00000310: e47d 933d 852d 593d b999 c83c 854c 8c3d
00000320: f51e 01bd 39ba c6bd b5cd 55bd e89c c53d
00000330: 42c5 20bd 9cc7 793c cbda 8d3d da8d b1bb
00000340: d11e b9bd f871 b9bd 0981 c4bc dede 9fbd
00000350: 26d2 12bd e676 173d b68b 9d3d 73a1 81bd
00000360: 4858 db3c e4cf 6dbd 7788 8fbd a30f 9d3d
00000370: 35d7 4a3c 0f69 003e d09f a0bd 1c9d 723d
00000380: 0e0f 0ebd 4b91 223c 5b0c 2dbd e594 afbd
00000390: 2b03 13bd 76f6 33bc 6364 543d 334d f5bd
000003a0: 899e 813d 0972 ccbd 5f5f 533d 7157 08bd
000003b0: 934d 9fbb 545f 533d 72f2 85bd d6df 783d
000003c0: d2db be3d edb6 bfbd 1833 e7bc 44db d8bd
000003d0: f7db 7a3d 0a5e 0bbd 439f adbd 2db1 a13d
000003e0: 121e 863d 33a7 853d 7ad4 aa3d 944f 0b3d
000003f0: 2390 0abd 2492 b6bd ecbc 643d 92b9 c23d
0.007421256 -0.033959314 0.03495939 0.001733783 -0.07963194 0.0628318 -0.05751026 -0.04000688
-0.0326348 -0.050360978 -0.036279403 0.057875834 -0.13383725 -0.05633392 -0.02255988 -0.07074561
-0.102129444 0.03775599 -0.030557487 -0.0039304425 0.047236465 -0.063516736 -0.012090673 -0.048149046
-0.05533895 -0.119780734 0.011296528 -0.0055402787 0.03598352 0.000751866 -0.066126384 0.07571816
0.0028042372 -0.038931657 -0.12710421 -0.02480135 0.042256974 -0.08408432 0.010194072 -0.15417771
-0.07220899 -0.0689724 -0.0667017 -0.018956112 -0.03773619 -0.048450362 -0.03511166 -0.008086426
-0.08661355 -0.04272041 -0.052260604 -0.004269208 -0.099667564 0.053468116 0.029625956 0.040299814
-0.044144094 -0.043014217 -0.009139132 -0.018896395 -0.07981865 0.08018878 0.002898117 0.00015321044
-0.023720056 -0.08085595 -0.02232406 -0.04902946 -0.1042187 -0.03796238 -0.023949565 0.052760832
-0.075100124 0.0025911985 0.0066831964 -0.021335904 0.026739106 -0.00035150975 -0.046491858 -0.03073224
-0.00711738 -0.01977866 -0.09918226 -0.058980677 0.04382426 -0.07184764 -0.10817994 -0.07621395
-0.011295116 -0.07331479 -0.027011434 -0.09020994 -0.00868731 -0.031596113 0.033100538 -0.038221776
-0.025775902 -0.014742186 -0.005018732 -0.011935173 -0.062178027 -0.14657907 -0.05975671 -0.14233546
-0.05421282 0.050365 -0.04932039 -0.08698961 -0.074122034 0.012940235 0.03316848 -0.01424121
-0.035419885 -0.070291005 0.09043386 -0.016164208 -0.05747752 -0.030421514 -0.050286714 -0.054981478
-0.0015334073 0.016645176 -0.02963587 -0.0028907373 -0.08575896 0.026732864 0.06633597 -0.058293957
-0.07024859 -0.048318807 -0.020470941 0.017783085 -0.0006654921 0.04337705 -0.07627921 -0.11832825
-0.0419576 0.061066743 -0.01809534 0.033953812 -0.0829281 0.08173279 -0.06405923 -0.079742976
-0.06091042 0.049522795 0.09030185 -0.109745294 -0.09618496 0.024279175 -0.009143785 0.039701194
-0.070978716 0.077565014 0.09059157 -0.030672438 0.08933349 0.026871307 -0.06790608 -0.08411379
-0.031129045 -0.034105938 0.11528273 0.021947166 -0.1100699 -0.10274959 0.015823562 -0.037955597
-0.0069577517 0.065590486 0.09424295 -0.014305809 -0.073219575 -0.057990603 0.020715032 0.07510403
0.054476783 0.04654177 -0.016801221 0.06423159 0.013629662 0.03456541 -0.017907605 0.08416741
0.053809736 -0.12619352 0.064098366 -0.03876333 0.0054662055 -0.055641968 0.0027995592 -0.052970592
-0.048645724 0.021166716 0.07968613 -0.05290797 0.07201746 0.053021926 0.024487363 0.068505324
-0.031523664 -0.09703488 -0.05219813 0.09649068 -0.03925062 0.0152453445 0.06926497 -0.0054185214
-0.09039081 -0.09054941 -0.02398731 -0.078061804 -0.035844944 0.036978625 0.07692663 -0.06329622
0.026775494 -0.058059588 -0.070084505 0.07668998 0.012380411 0.12540077 -0.07842982 0.059231862
-0.034682326 0.009922336 -0.04224811 -0.08573321 -0.035891693 -0.010984054 0.05185355 -0.11977615
0.06329066 -0.09982688 0.051604625 -0.033286516 -0.0048615425 0.051604584 -0.065403834 0.06076034
0.09319271 -0.09361062 -0.028222606 -0.105886966 0.06124493 -0.03402523 -0.084776424 0.07895122
0.06548704 0.06526031 0.08341308 0.03401144 -0.033828866 -0.08914593 0.055844232 0.09508051

pointer.fc1.weight f4 [128, 256]
00000000: 83cd 24be 2d95 3abe 5f1c ccbd 1658 753d
00000010: c1ad 13ba 61e8 733d 5a3f 9f3c 240e 85bd
00000020: 6047 91bd a0a2 5d3d 2efb 8ebc a359 0bbd
00000030: 4335 473c 4e49 b1bc 7c5a 803b 732f 38bd
00000040: 1ca9 7fbd af02 863c 9549 713d bedd adbd
00000050: dbfe ae3d 52db cd3b f581 da3d 6351 493e
00000060: fb3e cb3b ca84 cb3d a340 773d 23f3 cbbd
00000070: 2806 f23d 8b06 fdbc 0056 e9bd c2f3 bb3c
00000080: c815 76bd 309f 073d b196 483d dd4b 80bb
00000090: 8d15 e8bd e36a 463d 55ce bbbc 14fb ef3d
000000a0: c3a8 633d f869 46bd ad33 d03d b830 a93d
000000b0: 867d 31bd a50e b03d 5ac7 fc3d 7274 253e
000000c0: 7122 77bd e71c 8f3d 7b1d bebd 0c1f f6bc
000000d0: f9ce 64bd 343a f93d 1fd9 0dbe 36be 193e
000000e0: ccaf 173e d3fd 37bd 27cf 153e 46ea 2abd
000000f0: 349c 243d fe32 01be 448b 2e3c e4ab ba3d
00000100: 8cf7 4b3d 8e25 73bd 53bc 303e 0c3b 30be
00000110: 74f6 023e 332b 713d b400 213e 6590 acbc
00000120: ee11 48bd 66af cc3d a599 b03c 0b4d d63d
00000130: 0cd7 febd de07 133e 5cc7 61bd b49f 9ebd
00000140: 03d1 2bbe 14bb e03d 0ffa 17bd c216 f2bc
00000150: 1901 bfbd 58d7 8a3d 4916 a63d 4381 eebd
00000160: 4209 f5bd 26f1 07be e7c2 6e3d 2929 943d
00000170: 0e8d 953c 1217 4f3d e0bb 57bd 1377 9b3d
00000180: e78d 29be d2f2 5b3d b250 213b 886c 5d3d
00000190: a0a5 b5bd 9c64 fbbd 4e2d 103d 08e6 f1bd
000001a0: 4c5a 893d 0c3a b2bc a1e0 1a3d 51ba 81bd
000001b0: 0426 d8bc 35e8 98bc 5c19 04be 4c3a 803d
000001c0: 090e 0a3e c40c d6bb 24ad debd 46c2 d5bc
000001d0: 86df 2f3e 2c72 f9bd 1351 f3bd ce80 d63d
000001e0: aa49 ecbc 03fd 40bc db41 1b3e a50a 663d
000001f0: 4eb7 04be 87ad 96bd bf79 c83d 216f 063e
00000200: e6cb 323e 47e4 8fbc 9bd0 5ebc 2613 3e3e
00000210: aaa6 46bb c472 743b 907c 30be 3a22 5a3d
00000220: b346 063e 0039 07bd c925 88b9 a0ed 41bd
00000230: 8065 043d d9e7 02bd 32c6 c3bd b4c5 bf3c
00000240: 3916 8f3d 13d5 a63d 28d6 ff3b 0620 943d
00000250: 09de f53d bbdb 223d 4151 33bd c58c d43d
00000260: 4901 403d 2ece a1bd 79e5 adbc 8e62 523d
00000270: 1b5e a13d ac06 36be 61fb 553c f174 84bd
00000280: a9f9 423a 797e 97bc bd27 dabd 7cd2 a6bc
00000290: 0045 d4bd 4256 393d 7582 efbd 0fdc 0d3d
000002a0: 2936 503d da75 94bd 5f93 883d d60c eebd
000002b0: 9415 a73d 7d20 51bd b6e8 4bbc 14a9 9bbc
000002c0: e646 12bd b874 e5bd 6fc9 45bd f255 da3d
000002d0: fdb1 d5bb 6394 113d e36b 4b3d 7a46 ea3c
000002e0: 5ff9 a53d 3c94 fdbb 6fb4 313d e846 19be
000002f0: 0dde 033b bb1f 86bd e1d0 25be 726a eb3d
00000300: a31a c6bd 48c3 f93c b516 883d b3ea 063e
00000310: edd2 e1bd 17d1 7c3d 8f3f fc3b 5e9a 5cbd
00000320: 7651 d63b d2b3 323d 3d04 a83d 59a0 00be
00000330: b8f0 fe3d 481d 20bd 2ef7 1fbe e7f5 4fbc
00000340: 493b 26bd 3822 803d df55 053d cc4c 713c
00000350: f562 de3d 3b59 cb3d cc96 cebd d66c 27bd
00000360: d3d7 50bd 80ec 0bbc 84b3 88bd cc49 8c3d
00000370: 34df c8bb db52 4bbd de82 ab3c 60bd 38bb
00000380: 685f bcbd c68c 9b3d 21fe 9c3c 8acb 0a3e
00000390: 932b 25be 9ebf 6cbd 37bc 9fbd ba45 85bd
000003a0: b13e 2a3c 4d47 89bd 6bbb 3c3d 05eb ba3d
000003b0: a569 1ebe b3b0 6abd 55dc fb3c c439 ae3d
000003c0: 75e5 133e 15ac 113d dc7d 853d 7002 0e3e
000003d0: 3c2f 4abd 925b e23d f53d afbd 428f ca3d
000003e0: cf4f 253d b452 0d3e f842 20bd ef37 70bd
000003f0: de72 09bd bf3d ba3d 874f da3c 35c4 c4bd
-0.16094021 -0.18220969 -0.09966349 0.05989846 -0.00056334963 0.059547786 0.019439388 -0.06496838
-0.07093692 0.05411017 -0.017453756 -0.03402103 0.012158695 -0.0216414 0.0039170366 -0.044967126
-0.062417135 0.016358702 0.058908064 -0.084895596 0.085447036 0.0062822485 0.106693186 0.19659953
0.006202576 0.09937437 0.060364377 -0.09958484 0.118175805 -0.030886909 -0.11393356 0.022943381
-0.060079366 0.033110797 0.048971836 -0.0039152936 -0.113322355 0.04844178 -0.022925535 0.11717811
0.055580866 -0.048440903 0.101661064 0.082612455 -0.0433326 0.08596543 0.12342711 0.16157702
-0.06033558 0.069879346 -0.09282967 -0.030044101 -0.055861447 0.121693045 -0.13852356 0.15013966
0.14813155 -0.0449198 0.14629804 -0.041727327 0.04018803 -0.12617108 0.010653321 0.09114817
0.049796626 -0.059361987 0.1725934 -0.17210025 0.12789327 0.05887909 0.15722924 -0.021064946
-0.048845224 0.09994392 0.021557638 0.104639135 -0.12443361 0.1435847 -0.055121765 -0.07745305
-0.1677895 0.10973182 -0.03710371 -0.029551867 -0.09326381 0.06779355 0.08109719 -0.116457485
-0.119646564 -0.13275585 0.058291342 0.07234413 0.018255737 0.05055911 -0.052669406 0.07591071
-0.16558038 0.05369837 0.0024614749 0.05405858 -0.08869481 -0.12275049 0.035199456 -0.11811453
0.06706676 -0.021756195 0.03781188 -0.06334365 -0.026385315 -0.018665412 -0.12900299 0.06261119
0.13481916 -0.0065322835 -0.10872868 -0.026093613 0.17175111 -0.1217998 -0.11880698 0.10473786
-0.02884372 -0.011779073 0.1516184 0.056162495 -0.1296055 -0.073573165 0.09788846 0.1312833
0.17460594 -0.017564906 -0.01359954 0.18561992 -0.0030311742 0.003729985 -0.17235017 0.053255297
0.13112907 -0.033013344 -0.00025968094 -0.047345757 0.03232336 -0.03195939 -0.09559287 0.023409702
0.069866605 0.081461094 0.007807512 0.072326705 0.120052405 0.039760333 -0.04377866 0.10378412
0.046876226 -0.07900654 -0.021227585 0.05136352 0.07879277 -0.17775983 0.013060422 -0.06467617
0.0007437715 -0.018492924 -0.10652111 -0.020364039 -0.10364723 0.045248277 -0.116948046 0.034633692
0.0508329 -0.07249041 0.06668734 -0.11623542 0.081584126 -0.051056374 -0.012445619 -0.019001521
-0.035712145 -0.11203903 -0.048287805 0.10660924 -0.006521462 0.035541903 0.049663436 0.028598059
0.081042044 -0.007738618 0.043384966 -0.14968455 0.0020121366 -0.06549021 -0.16192962 0.11494912
-0.09673049 0.030488625 0.06644956 0.13175468 -0.11026559 0.06172284 0.0076980065 -0.053858154
0.0065404726 0.04362852 0.082039334 -0.12561168 0.12448257 -0.039090425 -0.15621635 -0.012692905
-0.040583882 0.06256527 0.032552596 0.014727782 0.10858718 0.09929129 -0.10087356 -0.04087528
-0.050987076 -0.008540273 -0.06674865 0.06850013 -0.0061301235 -0.049639564 0.020936426 -0.0028189048
-0.09197885 0.0759521 0.019164147 0.13554206 -0.16129903 -0.057799928 -0.07799571 -0.0650744
0.010390923 -0.06703053 0.046077173 0.09126858 -0.15469988 -0.05729742 0.030744711 0.08507112
0.14443 0.0355645 0.065181464 0.13868117 -0.049361452 0.11052622 -0.08556739 0.098906055
0.040359315 0.1380108 -0.039126366 -0.058647092 -0.03355681 0.090938084 0.02664925 -0.09607736

pointer.fc1.bias f4 [128]
00000000: ab2f ba3c 3d7b e6ba 6571 f03b 7d07 78bc
00000010: 0f14 623c fef8 4d3c 6b53 5ebd 2e3a 573d
00000020: 6501 97bd 69c0 4e3d e636 7d3d 35a3 b03c
00000030: 21f0 0dbd d27a 5bbc e813 43bd a16d 6fbd
00000040: 6e76 8dbd 5709 5e3d facd 43bd 3ee9 febc
00000050: 11eb 103d f044 c3ba 2ad5 0cbd 9f7d f4bc
00000060: 91d1 45bc 4410 453d 5d25 8c3d a311 53bd
00000070: e167 62bb 064d 0abc 8957 b1bc 0b38 ca3c
00000080: 15dc 12bd 1d2d fabb fdb9 93bb 643b 85bd
00000090: c30c 85bd 6f3a 0d3b a403 49bc edcb 323d
000000a0: db2d 193c 7347 6bbc 38c5 d73d d86b 863d
000000b0: eb57 b13c 1aab 81bd 4bb9 523d 4f01 333d
000000c0: 5ab6 2dbd 919e 83bd 1b2a 663d 8d0a a3bd
000000d0: 1995 c9bc ad88 233d ea0e 87bd 2ff8 833c
000000e0: 01fe 243b 41b5 d8bb 94b2 34bc d0e8 c33c
000000f0: a800 293c 97ef 4c3d c5de 163d b4ad 733b
00000100: 7a13 31bc 3cef 18bd fbce 53bd da72 263d
00000110: a10f 953c 3922 bd3c 67f7 0ebd f2bf 203d
00000120: c676 d7bc 3c73 973c 88ad c3bc 3072 00bd
00000130: 3869 a93c da1b 64bd 4265 ed3c 5ae9 e23c
00000140: 26b3 ab3b 6129 533c e95d ee3c 638d 3b3d
00000150: ebd0 f8bb 149e 513d 8f92 863d b330 283d
00000160: e543 67bc f2ca 283d c489 81bd b791 853b
00000170: e9e7 663d 32f3 3b3d 2d0c f2bb e00e 57bd
00000180: 8805 0dba e796 443d 28a4 00bd 63e6 9b3d
00000190: 072f ef3c 267b 98bb a7d6 1f3d f4d3 59bc
000001a0: 74c4 a0bd 782b b33c 35f7 30bd 3b11 9abc
000001b0: 9c4d 29bd f52a d33c 0d8c d3bb e890 453c
000001c0: b45d c5bc 9c81 46bd 353c 3d3d 4047 b83d
000001d0: 85dd 81bd c888 8ebc ea63 603c 0125 923d
000001e0: 605e 7a3d 4b2d 443d cbd8 39bd d4da 40bb
000001f0: 7bfb 923c e8e6 b93b 59cb 70bd 3b42 4a3b
0.022727808 -0.0017584335 0.0073377364 -0.015138504 0.013798728 0.012571571 -0.054278772 0.05254572
-0.07373313 0.050476465 0.061819933 0.021562198 -0.034652833 -0.013395982 -0.047626406 -0.05845416
-0.06907354 0.054208126 -0.047803856 -0.031117078 0.035380427 -0.0014897864 -0.034382977 -0.029845057
-0.01207389 0.048111215 0.06843064 -0.05153049 -0.003454678 -0.008441215 -0.021648185 0.024684926
-0.035854418 -0.0076347725 -0.0045082555 -0.065054685 -0.06496575 0.0021549722 -0.012268934 0.04365151
0.009349312 -0.014360297 0.10535663 0.06563538 0.021648368 -0.06331463 0.05144624 0.04370242
-0.042410232 -0.064267285 0.0561925 -0.07960997 -0.024607228 0.039925266 -0.065946415 0.016109554
0.0025175812 -0.006613404 -0.0110289045 0.023914725 0.010315098 0.05003318 0.036833543 0.0037182393
-0.010807866 -0.037337527 -0.051711064 0.040636875 0.018195929 0.023087608 -0.03490391 0.039245553
-0.026301753 0.018487565 -0.023886457 -0.031358898 0.020680055 -0.055690624 0.028978948 0.027699161
0.005239862 0.0128882835 0.029097514 0.045789134 -0.0075932643 0.051176146 0.065709226 0.04106207
-0.014115308 0.04120917 -0.06325105 0.0040762085 0.05637351 0.045886226 -0.0073867054 -0.05250442
-0.00053795474 0.047995474 -0.03140655 0.07612302 0.02919723 -0.0046533523 0.039023068 -0.0132951625
-0.078499705 0.021871313 -0.043204505 -0.018807044 -0.04133378 0.02577732 -0.0064559043 0.012058474
-0.024092533 -0.04846345 0.046199996 0.08997965 -0.063410796 -0.017399207 0.013695696 0.07135964
0.06112516 0.047894757 -0.045372766 -0.0029427307 0.01794218 0.005673278 -0.058787677 0.003086223

pointer.fc2.weight f4 [128, 128]
00000000: 03d7 f03d c85e a43d 57ff debd 5ece 06be
00000010: 14b6 8d3c 899c 463c c08f 063d 3027 1c3e
00000020: b4fa c9bd dfa1 853d 732f 943d b9e5 86bd
00000030: 028d bebd a6da d73b 502a 3fbe c357 a0bb
00000040: 65bb 82bd e3c0 053d d4b9 273e bcd5 61bc
00000050: a5cd 05bd 1f78 cabb 4c24 10bd 4928 fbbd
00000060: 80e9 02be d2ed 8e3c 4788 a2bd 401f 353e
00000070: 17e0 6a3d 95c1 51be abf3 9c3d d2ce 71bb
00000080: c484 893c 4cdb 86bd 8c4b acbd 4c3c 19be
00000090: 6aa5 f2bd 0099 0b3e a7ee ccbe e110 97bb
000000a0: d1fa 333d 2555 c2bc b18a ed3d a1e8 dfbd
000000b0: 3e8c 25bd 5c22 5cbe 61d6 a6bc f3bd 13be
000000c0: 9c76 c4bd dc24 10bc b908 c23d 79ce 6dbd
000000d0: 165c 32be 51e3 d03d ab82 15be c0f9 9a3b
000000e0: b96d 0f3e 914c 2a3d b2c1 bf3d 0ee4 54bc
000000f0: 53c1 a1bd 3bc6 cebd 7f0c ce3c 990b e3bd
00000100: 1afa 2e3e a833 75bd 8499 193e a00d 2ebd
00000110: 3f24 9fba 3c83 003e f087 153e b757 a8bc
00000120: c061 a73d 91e8 2cbc 73a3 14be 026d 013e
00000130: f32e e93d 602a 02be e931 bbbc d9d6 753e
00000140: b883 603d 688f e63d 4ce4 843c 10e8 db3d
00000150: f1f1 5fbe 0e6c bb3d 20a9 13bf 07f1 adbc
00000160: 4ffb 8bbe c4a1 423d 42c6 eb3d bbdb 4b3d
00000170: 4e7c 293e 93ad 2c3e 3951 a2bb 6234 3dbd
00000180: d019 f93d f9e5 c139 0733 a83d 2ecb 56bd
00000190: 9e9f febb 764f 87bd 45e1 c33d 807d ee3c
000001a0: a6bf 433e 8a06 8dba a6f7 053e ccfe 0fbe
000001b0: ae08 d03d 5d68 4abe 9ee3 e3bc 3c34 c1bd
000001c0: 3d6e 67bc b8cb dabd b589 75bc b169 5c3d
000001d0: 9ab2 f4bc 26a9 95bd 7bb2 1b3d 4c8e f23c
000001e0: 5d77 143e 7906 35bc 1f3c 37be ffcc 563e
000001f0: b2a4 c53d 40f2 dc3d 6ca6 75bd 1807 923c
00000200: ca8d ac3d 1eb1 f03d 5852 f53d 32f3 15be
00000210: d124 093e caeb 423e edb3 d93d d3b6 63bd
00000220: 7c7f 423d 70f8 073e 2761 173e 37bd 013d
00000230: 1d97 bdbd 3f3b 043e 7927 67bc e932 a03c
00000240: 7882 1dbd 6481 ad3d a4aa e73d 3f07 f23d
00000250: 0bda 7f3d a8ed 2c3d bf6b d43d 7e22 2fbd
00000260: 1c97 8a3d f313 e2bd 8310 233e 759a cdbd
00000270: c8a3 0c3e 29fe e53d dfa7 113d f247 6dbd
00000280: 45e8 a2bb ad5e 67bd 3722 933b a64a f63c
00000290: be54 4a3d 61de 4a3e 4553 28bd 9609 04be
000002a0: 81fe 803d 51cc 8abd f8e5 d0bd 7b6d 7bbd
000002b0: 47ea 9f3d 7b18 563e bcf4 e13d ed12 033e
000002c0: 2a1a 2a3d 057d 0ebd c8b3 8a3d 7bb9 1b3e
000002d0: 3730 40bd 1e58 0a3e df0a 41bd 95a6 e4bd
000002e0: a238 ae3d eb2a bf3d 0711 e3bc a2c5 033e
000002f0: a3d5 063e cfb6 103e 9bb4 683e cf14 16be
00000300: 551b 963d d3ad babd cdef 403e ffe8 8abd
00000310: 17c7 5e3e 986f 84bd 4ab1 fa3d 265f 5dbd
00000320: 90be 893d d758 90bc 6f97 51be f52a 3ebd
00000330: a8e3 afbd e6f0 cbbc 017f e73d 3148 99bd
00000340: 13f4 873d d143 133e d32d 1bbb 2d6a 2a3c
00000350: be6c 123d fe4d 423e 3fda 31be 7620 ee3c
00000360: 3afc 0cbd 88c5 f63c 7e7d 763b aeb1 023e
00000370: 63b1 043d 3937 8ebd e547 b9bd 940f 1b3b
00000380: b82e 0a3e bdd5 10be fd16 f23d 64af 2c3e
00000390: dff6 c13d 01f8 c7bc ad02 a43d 1cd9 f6bc
000003a0: e948 183e 22d7 efbd 58f7 263d e46f 30bd
000003b0: 8851 44bd 19a1 083d a2f6 27ba be65 44bd
000003c0: 7f60 633e 92e2 0f3e 92f2 8dbb 6ea5 abbc
000003d0: 8654 a23c beef d93d 87ec 153e 87ae a73c
000003e0: 0ea2 813d bbe5 5ebd 7869 d03d 9c45 4cbd
000003f0: fa33 633d 6d4e babc 213f bfbd ab19 7b3d
0.1175976 0.080258906 -0.10888546 -0.1316466 0.017298736 0.012122282 0.032851934 0.15249324
-0.09862271 0.06525015 0.07235613 -0.06586785 -0.09304239 0.006587344 -0.18668485 -0.0048932745
-0.06383399 0.032654654 0.16379482 -0.013783868 -0.03266682 -0.0061788703 -0.035190865 -0.12263543
-0.12784386 0.017447386 -0.07936149 0.17687702 0.057342615 -0.20484002 0.076636635 -0.0036896956
0.01678694 -0.06584796 -0.08412847 -0.14964408 -0.118479565 0.13632584 -0.40025827 -0.0046101664
0.04394037 -0.02372224 0.11598719 -0.10933042 -0.04041695 -0.21497482 -0.020365896 -0.14427929
-0.095929354 -0.00879785 0.0947432 -0.058058236 -0.1741794 0.10199607 -0.14600627 0.0047294796
0.140067 0.041576926 0.09363116 -0.012993826 -0.07898202 -0.10096403 0.025152443 -0.110861965
0.17087594 -0.059863716 0.14999968 -0.042493463 -0.001214154 0.12550062 0.14602637 -0.020549638
0.08172941 -0.010553495 -0.14515476 0.1263924 0.11385908 -0.12711477 -0.022850947 0.24007739
0.054813117 0.11257821 0.016222142 0.10737622 -0.21869637 0.09151469 -0.5767994 -0.021233095
-0.2734017 0.047517553 0.11512424 0.0497701 0.16551325 0.16863088 -0.00495353 -0.046192534
0.121631265 0.00036983172 0.08212858 -0.05243986 -0.0077704927 -0.06606953 0.09564451 0.029112577
0.19116077 -0.0010759395 0.13082752 -0.14062041 0.101579055 -0.19766374 -0.027818497 -0.09433791
-0.014125404 -0.106833875 -0.014986445 0.053811733 -0.02987032 -0.07307653 0.03801201 0.029608868
0.14498658 -0.0110489065 -0.17894028 0.20976637 0.09650554 0.10788393 -0.059973165 0.017825648
0.084254816 0.117525324 0.119785964 -0.14643553 0.1339295 0.19035259 0.10630021 -0.055594277
0.04748486 0.13278365 0.14783154 0.03167459 -0.09257338 0.12913226 -0.014108532 0.019555526
-0.038454503 0.08471945 0.11311844 0.11817788 0.0624638 0.042218834 0.103721134 -0.042757504
0.06767103 -0.11038961 0.15924267 -0.10039226 0.13734353 0.11230118 0.035560485 -0.05792994
-0.0049715363 -0.056486774 0.0044901627 0.030064892 0.049397223 0.19811393 -0.041095037 -0.12894282
0.06298543 -0.067772515 -0.10200113 -0.061383706 0.07808357 0.20907776 0.110330075 0.12800188
0.04152886 -0.034787197 0.06772572 0.15207474 -0.04692098 0.13510177 -0.047129508 -0.111645855
0.085068956 0.09334358 -0.02771808 0.1286836 0.13167433 0.14132236 0.22725146 -0.14656375
0.07329432 -0.091151856 0.18841477 -0.06782722 0.21755634 -0.06466597 0.122408465 -0.05404582
0.067258 -0.017620487 -0.20467924 -0.046427686 -0.08588344 -0.024895143 0.11303521 -0.074844725
0.0663835 0.14381339 -0.0023678436 0.010401291 0.035748236 0.18975064 -0.1736841 0.029068213
-0.03442023 0.030123487 0.003761142 0.12763092 0.03239573 -0.06944127 -0.09046916 0.0023660408
0.13494384 -0.14144035 0.11820791 0.16863781 0.09470915 -0.02441025 0.08008323 -0.030132823
0.14871563 -0.11710955 0.04076323 -0.043075457 -0.047929317 0.03335676 -0.00064072956 -0.04794859
0.22204779 0.14051273 -0.004331895 -0.020952906 0.019815695 0.1064143 0.1464101 0.020468963
0.063297376 -0.054418307 0.101763666 -0.049871072 0.05546949 -0.022742474 -0.09338213 0.061303776

pointer.fc2.bias f4 [128]
00000000: 687d 453d cde4 153e 5b53 6c3d 7f11 cebc
00000010: cbd1 823c 4ab8 87bd e71d a63d 8a02 be3d
00000020: a199 e6bc 8058 95bd f208 af3d 7b1e 903d
00000030: 7291 66bd 57c2 973c 69d1 b33d 955a 6ebd
00000040: 2d05 183d c32a b93d a4c4 ccbc a95d 583d
00000050: 863c 04bd bf85 88bc 01b0 333d e7a1 91bd
00000060: 53d3 003c 1862 963d 0a45 11bd a3d6 f33d
00000070: 7b76 853d 23a9 09bd c9d8 b1bd 7751 07bd
00000080: 8c72 28bb 6a61 3bbd f6fc d73b 62f2 213e
00000090: 3799 c9bc 8da7 803d c488 1f3d 0d15 5bbd
000000a0: 34b0 393d 2b88 df3d edfa 883d 3d83 f0bc
000000b0: 49f4 29bc 7253 ca3c a65b 823d 125c ef3d
000000c0: 70a4 b53c 5550 173d 09ef dc3d f919 06bd
000000d0: eb9b 813d 674a d7bd 4986 813d 0da3 0b3b
000000e0: f7f0 05bd 3add c63c c0af edbc 1983 af3d
000000f0: 6d40 983d 0c4d 033c d4e3 a03c 8ab3 36bd
00000100: e852 b13d e33e 623d cf32 ce3d 65b8 983d
00000110: 20ad 11bd 6ee8 35bc 72d7 cb3c a8ea fb3c
00000120: ac97 913b 97bc 9dbc 1fa4 4b3c 0937 2e3d
00000130: 9854 d43c 5827 3d3d 930a dfbc 3bad 0a3d
00000140: e955 e13c a4fa f2bc 1e82 9a3d 1e09 c73d
00000150: 034a 0dbd 0a89 733c 23c4 133d 3939 be3d
00000160: 435a efbd 7f74 d83c 3b32 c63b 5305 d6bc
00000170: 1763 db3c e122 e13c 4686 9a3d aede 073e
00000180: 8402 a6bc 880a 62bc c2ca 553d 0978 833d
00000190: 0459 083e 7c9f a73d 7808 d03d 2693 d6bb
000001a0: 9a04 65bd 5b2e 4fbd d1ca a73d ada0 a83d
000001b0: 48bf a93d 20f3 933d 41f8 b8bc 72b7 793d
000001c0: 890f 953c e42a be3d c0c1 1dbb b864 ae3b
000001d0: a6a7 313d dc16 703d 3c2d 3c3d 6650 3f3d
000001e0: ba28 95bd 1f8b 323d eafc 1ebd fa05 bf3d
000001f0: ee75 9c3c d95c 8bbc 6885 f03c d5f9 043e
0.0482153 0.14638062 0.05769668 -0.025154827 0.015969178 -0.06626947 0.08111172 0.09277828
-0.028149428 -0.07292271 0.08546628 0.07037064 -0.05629105 0.018525286 0.08780176 -0.058191855
0.03711431 0.09041359 -0.02499611 0.052823696 -0.032284282 -0.016665338 0.043869022 -0.071109585
0.007862884 0.07342929 -0.03546623 0.11906173 0.06516739 -0.033608567 -0.086839266 -0.033036675
-0.002570304 -0.0457472 0.0065914346 0.15815118 -0.024609191 0.06281958 0.03894879 -0.053486872
0.045334056 0.10914644 0.06688485 -0.029359454 -0.0103731835 0.024697993 0.06365137 0.11687483
0.022173136 0.036941845 0.1078778 -0.032739613 0.06328567 -0.10512238 0.06324441 0.0021306903
-0.032700505 0.02427541 -0.029014468 0.08569927 0.07434163 0.008013975 0.019639887 -0.044604816
0.08658391 0.055235755 0.10068285 0.074570455 -0.035565495 -0.011102779 0.024883006 0.030751541
0.0044431295 -0.019254966 0.012429266 0.042532954 0.025919244 0.0461801 -0.027226722 0.03385661
0.027506785 -0.02966053 0.07544349 0.09718536 -0.03449441 0.014864216 0.036075722 0.09288258
-0.11687138 0.026422737 0.0060484684 -0.026125586 0.026780648 0.027482452 0.07545142 0.1326854
-0.020264871 -0.013796456 0.052195318 0.06419379 0.13315207 0.08184716 0.10157865 -0.006548303
-0.05591259 -0.050581317 0.08192981 0.082337715 0.08288437 0.07224107 -0.022579314 0.060965963
0.018195884 0.092855245 -0.0024071783 0.005322065 0.043372773 0.05861555 0.045941576 0.046707533
-0.072831586 0.043589707 -0.038815416 0.09327312 0.019099202 -0.017012047 0.029360488 0.12985928
