trained_models/cvrp/XE_3/model_incumbent_vrpRl13_C_XE_3_P_0.15_30734.pt (torch_old, 469732 bytes, 15 tensors)

all_embed.embed.weight f4 [128, 4]
00000000: 8229 863e f89d 1dbf 8e17 7d3e 2557 043d
00000010: 66f7 1cbe 4429 a23d 40a6 4e3c a099 67bd
00000020: e09e febe e1d2 de3d dd44 09be c027 523e
00000030: 8166 dbbd 8095 bf3d cc34 52bd a6bd 82bd
00000040: e10b 7abc dc2a a23e 23c4 543d e60a d63e
00000050: 48fd 253f 7110 96be c076 953e 7f73 07bd
00000060: 1a7f d63e e2a9 f8be dd0e 3cbf c3ea 803e
00000070: b543 2b3f d2c7 393c f1ec ebbb af8e 90bb
00000080: d838 133f 5a77 bebe 24e4 c0bd 5f15 873e
00000090: a9d7 443f eb87 6ebc 335f 293e 0309 453c
000000a0: 10e6 073f 7424 013f 5007 34bf c828 963e
000000b0: c082 35be 76a6 3f3e 6abb 333e 2609 ccbd
000000c0: fe19 bc3d cefa 5b3e b148 48bf c7c5 d93e
000000d0: b6de 163e 9721 44be c59b 4cbf 685e 40bf
000000e0: e4b5 58bd c0be 363d 00c3 8c3a 4cc5 b83d
000000f0: 6d11 083e 044a 7abe 6072 0f3f 48c1 623e
00000100: bd60 89be 53fe 013f 8f82 c9be 60c2 413e
00000110: 9de6 c3be e855 a8be bfc8 73bd cf1f f03d
00000120: c5b0 e73e d852 db3e 88e4 3bbf 6756 303e
00000130: 0eb0 c5be 1989 223f 689c cabe edf9 f43c
00000140: b08f 643e e9d3 cebe 2914 823e 96f1 bdbd
00000150: 1444 5a3e 40d8 a0bb 2cac 5fbd 3f66 c4bd
00000160: 360d 663d ad19 313f acae 0e3f d641 f73d
00000170: 700e 67be 8dfe ca3e 429f efbe 71fb b73d
00000180: 6897 c43c ac06 ddbd e497 413e 4424 6cbd
00000190: 8466 58be cb0c 30be 0032 5f3c f0b1 27be
000001a0: a484 613f 3f5f 083f a0fd 593e 4e41 72be
000001b0: 96e6 a8be c482 19be dd61 dc3e 4f4e 9dbd
000001c0: 8111 0bbe 5155 87be 411a 2bbe 187d 053e
000001d0: d489 823d b452 07be f4dd 0a3e c18e 10be
000001e0: baf9 273f e56e 40be c590 773d d3dd bcbd
000001f0: 588d 18be 0902 af3e 6c49 f83e 88fa c03e
00000200: e11a 73be 0f91 f23e ec6c 043f 01f5 b3bd
00000210: 87e8 8f3e d521 e93e dbcc d5bd 4a41 c33e
00000220: 7cd9 8a3e a3de 943e 5095 843f 9e5c e53d
00000230: ec74 ed3d e045 cc3d dc62 15be 2bba c6bd
00000240: 2a53 183f 7775 60be 62d1 bfbe 8fde db3c
00000250: 70d2 253f a6d6 213f b272 de3e 704f 6a3d
00000260: 486e 07be 9ef7 083e d4a6 0b3e 8060 fcba
00000270: fb67 b7be 0daa 21be f076 d53e 79da e4bd
00000280: d4ba 833d 3cad 00be 6c1a 5cbd a4a3 0ebd
00000290: faaa ec3e db5a 8bbe 48d2 94be 775b a63d
000002a0: 0095 813d d284 113d da05 09bf fb98 f7be
000002b0: 60a1 a93d 3041 c13c 381a 563e eb28 bebd
000002c0: 4b63 a1be bb2c 2bbe 8f07 273e f09e 37bb
000002d0: 7a2b 80be e92f 523b de14 a6be 19b3 96bd
000002e0: fb3e 43be d6f9 59be e5e2 903e ec7e acbd
000002f0: a457 913e 1b47 4f3f 97e4 cc3e fe49 9cbd
00000300: de62 023e d90d fbbd a0ef df3d ff96 07be
00000310: feb7 27be 049d 1c3f 7560 c93e f304 1abe
00000320: c682 0e3f 6b22 463f 64fa d33e 12df aebd
00000330: 38ed c4bc a0ad 11bc c4de 37bf cc12 4bbf
00000340: fe00 96bd 084f 7e3d 0004 ec3b 3c73 073d
00000350: a958 34be b6cd 293f 91ad bb3e c929 abbb
00000360: 87d5 7d3c e99a 82be ee59 433f c302 303e
00000370: 6d77 e6bd 5533 a0be b34d c4be cb26 163e
00000380: df6b f33e ddee f4be f6cd 40be 9c81 823e
00000390: 1c90 3a3f a5b1 2ebe 23c4 a83e 7473 3ebc
000003a0: 05c6 18bc 38a9 463e 7f8b 37bf d743 40bf
000003b0: ae71 223f d3c4 5cbe 822d eebd fab0 c3bb
000003c0: 53a0 f6bd 0838 373f 8679 e6be 1bf4 973e
000003d0: e0a6 383d 68b4 2d3d 4697 1fbf c31d 49bf
000003e0: 5b45 5bbe 5f4a c0bd 294e 473f 3650 3f3e
000003f0: 4421 b03d e832 d73c 7ee1 38bf 019b 55bf
0.26203543 -0.61569166 0.24716017 0.03230967 -0.1532875 0.07918027 0.012612879 -0.056542993
-0.49730587 0.10880066 -0.13405176 0.20522976 -0.107129104 0.09354687 -0.051319882 -0.06383829
-0.015261621 0.31673324 0.051944863 0.4180519 0.648396 -0.2930942 0.29192162 -0.03306913
0.41893846 -0.4856711 -0.7346018 0.2517911 0.6690019 0.011339145 -0.0071998765 -0.0044115405
0.5750861 -0.37200433 -0.09418514 0.26383492 0.7689157 -0.014558773 0.16540222 0.012026074
0.5308542 0.5044625 -0.7032366 0.2932799 -0.17725658 0.18715844 0.17551962 -0.099626824
0.09184645 0.21482393 -0.7823592 0.42533705 0.14733395 -0.19153439 -0.79925185 -0.7514405
-0.05290784 0.044615507 0.0010739267 0.090220064 0.13287897 -0.24442297 0.560339 0.22144043
-0.26831618 0.5077869 -0.3935742 0.18921804 -0.3826188 -0.3287804 -0.05951762 0.11724817
0.45252052 0.42836642 -0.73395586 0.1722046 -0.38610882 0.63490444 -0.39572453 0.02990433
0.22320437 -0.4039605 0.25406006 -0.092745945 0.21315032 -0.0049085915 -0.054607555 -0.095898144
0.056164943 0.69179803 0.5573528 0.12073104 -0.22564101 0.39647332 -0.46801192 0.089835055
0.023997977 -0.10792288 0.18905598 -0.057651773 -0.21132857 -0.1719238 0.013622761 -0.16376472
0.8809302 0.53270334 0.21288157 -0.23657724 -0.32988423 -0.1499129 0.43043414 -0.07680952
-0.13580896 -0.2643228 -0.16709234 0.13036 0.06373945 -0.13215142 0.13561231 -0.14116956
0.6561543 -0.18792303 0.060440797 -0.09221997 -0.14897668 0.3418124 0.48493516 0.3769114
-0.23740722 0.47376296 0.517287 -0.08786965 0.28107092 0.45533624 -0.10439464 0.3813575
0.27119052 0.29076108 1.0358067 0.11199306 0.11594567 0.09974265 -0.14588493 -0.097034775
0.595019 -0.2191981 -0.37464434 0.026839523 0.6477423 0.6321815 0.4344688 0.057204664
-0.13225663 0.13375708 0.13637859 -0.0019254833 -0.35821518 -0.15787525 0.41692305 -0.11174483
0.06432119 -0.12566084 -0.053736135 -0.03482403 0.46224195 -0.27217755 -0.29066682 0.08122914
0.063272476 0.035527058 -0.53524554 -0.48358902 0.08282733 0.023590654 0.20908439 -0.09285148
-0.31521067 -0.16716282 0.16311477 -0.0028018318 -0.2503317 0.0032072014 -0.32437795 -0.07358379
-0.19066994 -0.21286711 0.28298107 -0.08422646 0.28387177 0.80967873 0.4001815 -0.076313004
0.12733027 -0.122585006 0.10934377 -0.13241194 -0.16378781 0.61177087 0.39331403 -0.1504095
0.55668294 0.7739627 0.4140197 -0.08538641 -0.024038896 -0.008891493 -0.7182429 -0.79325557
-0.07324408 0.06208709 0.0072026253 0.03306888 -0.17611946 0.66329515 0.36655858 -0.005223487
0.015492803 -0.25508812 0.76309097 0.17188554 -0.112532474 -0.31289163 -0.3834053 0.14663236
0.47543237 -0.47838488 -0.18828568 0.2548951 0.72876143 -0.17059954 0.3296214 -0.011624206
-0.009324555 0.1940049 -0.7169723 -0.75103515 0.6345471 -0.21559457 -0.11629774 -0.005972025
-0.12042298 0.7156987 -0.4501459 0.29678425 0.04508102 0.042408377 -0.623402 -0.7856104
-0.21413176 -0.09389185 0.7785364 0.18682942 0.08600095 0.026269391 -0.72219074 -0.8343964

all_embed.embed.bias f4 [128]
00000000: 01a0 ef3e 3852 b3be 76ae f03e 888f cebe
00000010: 6d4a c3be 81b3 663e 5159 f73d ea42 20ba
00000020: 1c80 893d f3f3 bd3c f6db b3be d27c c6be
00000030: 6913 0bbf 6ebd bf3e d82d f7be 1565 13bf
00000040: f80f 943e 809c 073f a910 0cbe 5ed0 a93e
00000050: a11a f83e eab0 86be 3cbf a53e c46f 163f
00000060: ecc5 e2be 484c debe 00f5 f93e 9b9b 083f
00000070: 210c 8b3e 704a 89be 03f3 953e 51bb c1be
00000080: 9c31 983e 873c f5be bd0e 9cbe 0091 c2be
00000090: bd81 043f 1f82 4f3e 14d5 a6be 2be3 173f
000000a0: 48b9 15be 5ad8 e43d 7062 af3e 5ca3 a4be
000000b0: 3065 d23e 4760 e53e d23f f43e 87ef cfbc
000000c0: 3011 71bd 543e d53e 2152 09bd 9451 a63e
000000d0: 8462 a4be 1092 b03d 52fe aebe bf9a 1d3f
000000e0: 77ce bc3e c1bb d33d c40c 003f 69f3 ea3d
000000f0: a216 dbbd 5fc1 f33e 570c 81bd c5ce fd3e
00000100: c0b1 43be 50fc e7be 90c5 13be 754d a6be
00000110: 78b4 47bd 337c 473e c41e 56be af63 433e
00000120: a064 8dbe ab91 b1be 86c4 103e e016 073f
00000130: 0223 863e d01b f4be df4b 7f3e 9766 be3e
00000140: 5cff e3be 7a55 f1be 6872 0d3f 5947 d53e
00000150: b799 003e d022 bfbe baf3 ed3e ff92 a83e
00000160: 6bbb f13e b046 6abe bb38 003f 66e0 a43c
00000170: f669 d4bd 6f32 ee3d 66ee dc3d dfc6 a53e
00000180: 3311 093f 3059 043f 7fb5 2b3f 68e2 be3e
00000190: 8c70 92be 90ac e83e 18c6 9ebe a1aa 023e
000001a0: 4ab7 be3c a57d dd3e 45f4 ef3e 727b 983e
000001b0: a425 283d 9e25 013f 4fcf fa3b 46c8 f8bd
000001c0: 79d8 873e 98de d73e 5c14 053f a442 e2be
000001d0: 7ec4 19be b4a8 d2be 4ef3 93be 5764 ff3e
000001e0: 5f01 123f f95b 9f3e 1593 273e 9ca8 6fbe
000001f0: fb26 1d3e 38d3 033f 4456 aebe ee4a 5d3e
0.4680176 -0.35023665 0.47008103 -0.4034388 -0.3814272 0.22529413 0.12077583 -0.00061134866
0.06713888 0.023187613 -0.35128754 -0.38767105 -0.5432649 0.3744921 -0.48277164 -0.57576114
0.28918433 0.52973175 -0.1367823 0.33166784 0.48457816 -0.2630685 0.32372463 0.5876429
-0.44291627 -0.43417573 0.48819733 0.53362435 0.2715769 -0.26814604 0.29286966 -0.37838224
0.2972535 -0.4789774 -0.30479994 -0.3800125 0.51760465 0.20264481 -0.3258444 0.59331006
-0.1462146 0.11174078 0.3425479 -0.32155883 0.41092825 0.44800016 0.4770494 -0.02538277
-0.058854282 0.41649115 -0.03352559 0.32484114 -0.3210641 0.08621609 -0.34178406 0.6156425
0.3687627 0.103385456 0.5001948 0.11472208 -0.10697676 0.47608468 -0.06301182 0.49571815
-0.19110775 -0.45309687 -0.14430833 -0.3248097 -0.048756093 0.19480972 -0.20910174 0.19080995
-0.27615833 -0.34681448 0.14137468 0.5276928 0.26198584 -0.4767747 0.24931286 0.37187645
-0.4453076 -0.47135526 0.55252695 0.41655996 0.12558638 -0.37331247 0.4647501 0.3292465
0.472133 -0.22878528 0.50086564 0.020126533 -0.10371773 0.11630713 0.107876584 0.3237829
0.5354187 0.5169859 0.67073816 0.3728211 -0.2860149 0.45444155 -0.3101051 0.12760402
0.023280758 0.43259922 0.4686605 0.2978168 0.041051522 0.50448024 0.0076541076 -0.12147574
0.26532343 0.42162013 0.5198419 -0.44191468 -0.15016362 -0.41144335 -0.28896564 0.4988124
0.5703334 0.31124857 0.16364701 -0.23404163 0.15346901 0.5149417 -0.3405019 0.21610615

all_embed.embed_2.weight f4 [128, 128]
00000000: 105f 01bd 0028 163d 188f 303a 8836 94bd
00000010: 1713 3bbc 6b1e 33bc e167 16be 92e1 cabb
00000020: d423 15be 7b1e 053e dced 71bc d40b c53d
00000030: a7d5 e53d d21f e23c 72f9 e03d 0fb6 013f
00000040: 7c03 1cbc fd46 06be af50 09be 16d6 cfbd
00000050: 5050 1cbd 30de 13bd 081d 233e 5a6f 93be
00000060: 33a3 07be 780c eebc 30ce 803d 56e0 93be
00000070: 95a9 49be 1a60 f23d 08a6 403d 7642 653c
00000080: cc81 573d aa62 033d 4394 943e a932 86bd
00000090: 2a66 5ebe c60e c73d 623c b8bd 563f a5bd
000000a0: 6c2b 35bd ff69 723a b602 27be e820 c2bd
000000b0: ec89 2bbe e607 563b cc32 85bc 825a b13d
000000c0: 082c c13d 8d3f b6bd 2595 f33c 0ac4 a6bd
000000d0: d9d5 85bd f198 253e c99f fc3e c903 9dbe
000000e0: b758 b3bd 7e46 223e f94b b03d d17c e63c
000000f0: c540 be3d 1a35 00be b126 213e 6724 d9bd
00000100: be34 0ebe 9e44 00bd 0f86 06be 73f0 f33e
00000110: 6f9b 9fbc 1231 0e3e 144f 783d 209b e8bc
00000120: b8d3 acbd 404e 09be 4a16 e6bd 2ba2 c63d
00000130: 95a4 363d 1a05 a93d 0348 133e cbcc 9d3d
00000140: a861 23bd 6c76 ab3d 4090 363d b587 26be
00000150: d7ad 7f3d a944 a43d 3de6 1fbe 5641 d1bd
00000160: aff5 10be c094 f13c 2426 39bc 890b 8abd
00000170: c3be 933d c29c 49bd 3bcc 4cbd 06fa 99bc
00000180: 774a 36be 3b40 9dbd 6ee7 28be 264a 84be
00000190: 5f90 243e ae9d f8ba 4751 04be d921 99bd
000001a0: e680 9fbd 1702 eabd 6b86 8c3d 75bf 5c3e
000001b0: d3d0 c33d ea9f f6bc 137c 2e3e caec 66be
000001c0: 909a 92ba b559 d8bd b510 383c 94bc 1e3d
000001d0: 9d33 dd3d 620b da3d ac1c 5b3d 3f5f 54be
000001e0: f7a6 44be 2898 9cbd 4f55 a93b f827 e1bc
000001f0: 919b 7b3e 3078 3a3c 30c7 4d3c c2d0 f13d
00000200: 2ffa 0bbd 3a93 f53d e3d6 bcbd eb66 14be
00000210: 576b e9be 64f1 d03d 212f c4be b440 c23d
00000220: 08aa a0be 6fbe fd3c 2849 10bf 9992 053e
00000230: 129c 36bf ca60 f2be 4f6a 9ebd 8154 103e
00000240: 9476 5dbe 2ffe 9ebd d158 23bf 81ed 82be
00000250: 08c4 a03e 196b 0a3e 7f27 053e 529f 51bd
00000260: a778 88bd e95e b2bd 4da4 a33e 3131 003f
00000270: 2742 84be ecfe 683d 7427 0c3d e3dd 93be
00000280: 71aa 023f 8e11 b0be 70d8 a33e 8619 ca3d
00000290: d4fb 35bc 758f 8dbd 92bb d03d 2749 d03e
000002a0: d08c e63c 1114 88be 544f 0ebf b0e7 ad3d
000002b0: 8f95 a63e d113 e03b 5f30 753e f2c1 cd3e
000002c0: 709c 983c 163e eb3e 5dd6 cf3e d902 ecbe
000002d0: 2082 cdbb 1c20 843e bd5f e83e 8f23 e0bd
000002e0: 8dab 60be 0754 de3d a308 dabe f510 0dbd
000002f0: d35d aabe e1df e8be 2e54 973e 2935 03bf
00000300: 80b3 adbc febb f23d 2843 743d 7c3b e53e
00000310: cfc5 89bc 3aaa 313d ff52 c3bd fa93 81be
00000320: f4de fbbc ddcd 9cbf 0efc fdbb e33f fa3e
00000330: 61af ab3c d05f 7d3c cb97 d3bd cb6e aabe
00000340: 82be 0ebf f48c 13bf b674 b5bd 98ea 22be
00000350: 4dad 833e d546 11bf 4a27 163e d0f5 89be
00000360: a688 073e 8e03 0bbe 86b0 093f 7f8e e9bd
00000370: 223e e6bd 4811 4fbe 9798 653e 3d8d 88be
00000380: 4c93 3a3e 12e2 94be 70c0 a9bd e0e4 81be
00000390: b1e3 9bbe 463f 82be 1c7b 043e c3a2 fe3d
000003a0: e944 c2be 8bfb 213e af68 053f 3f40 cc3d
000003b0: a913 ea3d b137 c53e e9ff b1bd 07fc 43bf
000003c0: e4b2 c53d 9cd5 47be 020a 51be a221 19bd
000003d0: 3afa b3be 9029 103c 00ec 123d 433e f4bd
000003e0: dd12 3e3e 51bc 893d 8b8c dabe 002b 47ba
000003f0: 3371 f33e 08ff 5a3d 4cd2 d4bd d1a2 a6bc
-0.0315848 0.03665924 0.000673519 -0.072369635 -0.011418126 -0.010932545 -0.14688064 -0.006191441
-0.14564449 0.12999909 -0.014766183 0.09621397 0.112223916 0.027603064 0.10985078 0.50668424
-0.009522315 -0.13113017 -0.13409685 -0.101482555 -0.03816253 -0.036100566 0.15929043 -0.28795892
-0.1324585 -0.02905868 0.06289327 -0.28882092 -0.19693597 0.11834736 0.04703334 0.013992896
0.05261402 0.032076515 0.29019365 -0.065526314 -0.2171866 0.09719615 -0.08995892 -0.08068721
-0.044230863 0.0009247362 -0.16309628 -0.094789326 -0.16751832 0.0032658516 -0.016259573 0.08659841
0.094322264 -0.0889884 0.029734204 -0.0814286 -0.06534929 0.16171624 0.49340656 -0.3066695
-0.087571554 0.15847203 0.08608241 0.028135689 0.092896976 -0.12520257 0.15737416 -0.10602646
-0.13887307 -0.03131544 -0.13137077 0.47644386 -0.019483296 0.13885906 0.06062229 -0.028394282
-0.0843882 -0.13408756 -0.1123472 0.096989 0.04459055 0.08252926 0.14382939 0.07705077
-0.039888054 0.083721966 0.04457116 -0.16262706 0.062421646 0.080209084 -0.15615173 -0.1021754
-0.14156221 0.029489875 -0.011300597 -0.067404814 0.07214119 -0.04922176 -0.049999457 -0.018795978
-0.17801844 -0.076782666 -0.16494533 -0.2583782 0.16070698 -0.0018967891 -0.1292163 -0.07477159
-0.07788257 -0.1142618 0.06861576 0.2155741 0.095613144 -0.03010555 0.17039518 -0.22551265
-0.0011184979 -0.10563985 0.011234452 0.03875406 0.1080086 0.10646702 0.05349414 -0.20739459
-0.19204317 -0.07646209 0.0051676403 -0.027484879 0.24571063 0.011381194 0.012559697 0.118073955
-0.03417414 0.11990972 -0.09220674 -0.14492385 -0.45589706 0.102022916 -0.38317207 0.094849974
-0.31379724 0.030974595 -0.5636163 0.13044204 -0.71331894 -0.4733947 -0.077351205 0.14094736
-0.21627265 -0.077633254 -0.638074 -0.25571826 0.3139956 0.13517417 0.13003348 -0.05117733
-0.066636376 -0.08709509 0.3196129 0.5007506 -0.2583172 0.056883737 0.034217313 -0.28880224
0.5104132 -0.34388393 0.32001066 0.098681495 -0.011107404 -0.06912128 0.10192026 0.4068081
0.028143317 -0.2657781 -0.55589795 0.084914565 0.3253598 0.0068383 0.23944233 0.4018703
0.018629283 0.45945805 0.40593234 -0.46095923 -0.0062716156 0.25805748 0.45385543 -0.10944282
-0.21940441 0.10855871 -0.42584714 -0.03444 -0.33274707 -0.45483306 0.29556412 -0.5125299
-0.021203756 0.11852263 0.059634358 0.44771945 -0.016817955 0.04337523 -0.095373146 -0.2530821
-0.03074596 -1.2250324 -0.0077509945 0.48876867 0.02095765 0.015464738 -0.103316866 -0.33287653
-0.5575944 -0.5763695 -0.088601515 -0.15909803 0.25718156 -0.56748706 0.14663425 -0.26945353
0.13235721 -0.13575575 0.5378498 -0.11404132 -0.1124232 -0.20221436 0.2242149 -0.26670256
0.18220252 -0.29078728 -0.08288658 -0.2536993 -0.30447152 -0.254389 0.12937587 0.12433388
-0.379432 0.15818612 0.5211286 0.099731915 0.11429531 0.38519052 -0.08691389 -0.7655644
0.09653261 -0.1951508 -0.20413974 -0.03738559 -0.35151845 0.008798972 0.0358696 -0.11925938
0.18561883 0.06725372 -0.4268535 -0.0007597655 0.47547302 0.053465873 -0.103916734 -0.020341309

all_embed.embed_2.bias f4 [128]
00000000: e919 89bd b5d1 613d a5ce 383d b951 e2bd
00000010: 880b 5dbc 39f5 2cbe bc0f 86bc 4e96 1e3d
00000020: 39fa 3bbd 16b2 1f3d 1ffe afbd 6ec2 a2bc
00000030: 74bd f8bd ce8b 58bd a21a 9fbd c731 67bd
00000040: 6ea7 a6bd 8e81 3fbd 07df be3d 190e 8e3d
00000050: fe21 04be 6ab5 6bbc 03fa 9bbd 7cfa 2c3d
00000060: a5b6 4bbd c2e9 47be 802f 8e3b ac73 af3c
00000070: cf47 3cbe 2276 c9bc 70a5 35be eeaa c0bd
00000080: 877d 823d 0760 72bd e868 bfbd ae92 053d
00000090: 74ec efbc 2cd9 0bbe 26ba e1bc 9f5f f3bd
000000a0: a937 02be ff32 0bbd ea4e f93c 1f86 4bbe
000000b0: 9d83 5dbd d311 3a3d 16a4 03be e43b 6c3b
000000c0: 4409 863d 4560 3abe 65ad 89bc bc37 cbbb
000000d0: ec0d 8bbd 680f 96bd 0a32 29be c7f7 53be
000000e0: 76a7 efbd 975d 09be 56fe 08be fafe 173e
000000f0: 0e4d 2ebd be84 c33a 13d6 2dbd 998f a73c
00000100: 1f74 7abc 8f71 c2bc 9ed0 6cbc 4706 53be
00000110: e0c5 cbba 88ec 74bd 7d65 babd 1c4d db3c
00000120: 5dbc 94bc a398 7f3d a883 6cbc 092b 0fbe
00000130: 4432 8f3d 2246 393c 7bcf 14be 46b3 dcbd
00000140: 546c b0bd 3186 bfbd 82aa ebbd bc34 f5ba
00000150: 123c 9d3d f903 abbe dd15 1cbd befd 2dbd
00000160: ac65 eabd d4d2 73be fbdc b03d ca56 313d
00000170: 694e d8bc 0e2b 19bd 9a99 00be 736d 3fbe
00000180: 1c9f 043d ace6 4fbd b6c8 30bd ee00 e0bc
00000190: b355 33be 95dd 963d 27d7 00be 76b8 c9bc
000001a0: 10de 02bd ac7b aebd 2900 35bb a67c 97bd
000001b0: 562b 303d af02 99bd 905a 1b3d 79ed 40be
000001c0: 04bc 14be 38fd e1bd 2c05 8bbd e84a 953d
000001d0: 3f6f d1bd ce53 f7bd 1da1 96bd 085c 943d
000001e0: ea2f 8abb f2ce b23a efa4 52be 1611 fabd
000001f0: 65ce 03bd a503 b4bb 5c1c 1fbd 87b8 683d
-0.06694395 0.055131633 0.045118947 -0.110507436 -0.013491519 -0.1689042 -0.016364925 0.03871756
-0.045892928 0.038988195 -0.085933916 -0.019868102 -0.1214551 -0.052867703 -0.07768752 -0.056443956
-0.081374034 -0.046754412 0.09319883 0.06936283 -0.12903592 -0.014386514 -0.07616045 0.042231068
-0.04973473 -0.19522765 0.0043391585 0.021417461 -0.18386768 -0.024592463 -0.1773889 -0.09407602
0.06371599 -0.05917361 -0.09346181 0.032610588 -0.029287554 -0.13657063 -0.027554583 -0.11883473
-0.12716545 -0.03398418 0.030433137 -0.19875382 -0.054080594 0.045427155 -0.12855563 0.003604644
0.06544736 -0.18200786 -0.016806314 -0.0062017124 -0.06789765 -0.07327157 -0.16522995 -0.20699988
-0.117018625 -0.13414608 -0.13378271 0.1484336 -0.042553954 0.001491688 -0.042440485 0.020454215
-0.0152864745 -0.02373579 -0.014454035 -0.20607863 -0.0015546642 -0.059795886 -0.091013886 0.026770167
-0.018156225 0.062401425 -0.014435686 -0.1398126 0.06992009 0.011308225 -0.14532273 -0.10776381
-0.08614412 -0.09351767 -0.11507131 -0.0018707733 0.07677473 -0.33401468 -0.038106788 -0.042478316
-0.114451736 -0.23810893 0.08635899 0.04329566 -0.026404576 -0.037394576 -0.12558594 -0.18694095
0.0323783 -0.050757095 -0.043160163 -0.027344193 -0.1751316 0.07366482 -0.12582074 -0.02462409
-0.031950057 -0.08519682 -0.0027618504 -0.07396822 0.04301008 -0.07471215 0.037928164 -0.18840589
-0.14524847 -0.11034626 -0.06788096 0.07289678 -0.10226297 -0.12076531 -0.07354949 0.07244116
-0.0042171376 0.0013641997 -0.2057073 -0.1221029 -0.032179255 -0.0054935985 -0.038845405 0.056816604

pointer.v f4 [1, 1, 128]
00000000: cb57 423f 8737 3a40 14f4 4b3f 497e 243f
00000010: b745 3b40 0ae7 6f3f b6f5 55bf 9602 5bbf
00000020: 6152 ca3f 8bc6 8ebf 53f3 d2bf bf6c edbf
00000030: 18e6 993f efde aebe 592b f8bf 118d e83f
00000040: 795a c2bf 0c09 b03f d144 67bf faf0 cc3f
00000050: 2133 a93f 9fc8 0340 39fa b4bf f63f 40bf
00000060: 2ba0 b0bf 541d 6a3e 036b aebf 8a52 d53e
00000070: ab0a 0340 4230 70bf 9b11 a53f 3cf4 cb3f
00000080: 17a1 2bbf 34c7 a1bf f7bc 343f 17ae 143d
00000090: 221c 1bbf 2a73 a63f e59e 90bf 21a7 cfbf
000000a0: 2922 8c3f c7d0 adbf cee3 a4bf 82a2 be3f
000000b0: c61c 52bf 2b6f 223f 029b 113f ebe0 89bf
000000c0: 13f4 a23f e403 9b3f 58db 85bf 7a48 84bf
000000d0: befb 8fbf ba14 ad3f b028 b93f 7cc4 943f
000000e0: 49c0 af3f 993f c4bf 6647 963f 8838 66bf
000000f0: 89b0 eebf 19b4 7abf 3a8c 973d 80ec 6c3e
00000100: 0810 d73e 892a 52bf 67e4 f03f 46d0 d23f
00000110: ab25 3fbf 7108 a93f 962e fe3e 31aa e4bf
00000120: d509 b0bf d789 b9be c818 abbf ca4f 8d3f
00000130: 0707 e9be 67ac 3bbf aeea cb3f aaf4 a03f
00000140: 01d0 783f 7166 97bf 3040 fbbf 5338 a33f
00000150: 0b8a 99bf 27dd 9d3f cfc6 e9bf 106a e53d
00000160: 715c ea3d 3119 d53f 9953 87bf 452f bd3f
00000170: 2d29 59bf 98dc d6bf c942 96bf 2f05 be3f
00000180: 81b3 8ebf e947 28bf b0ae e5bd b6d7 2240
00000190: aa6f 953f f80d fa3e 59fb 7fbf dffe bc3f
000001a0: 9862 85bf 4014 54bf 98cf b4bf ccdb 87bf
000001b0: 4b40 52bf 3495 bb3f bbc2 d03f a46a 893f
000001c0: f023 c4bf 3836 71bf 82d6 a73f eef0 7bbf
000001d0: 137c 873f 64c7 b63f d9d2 c7bf 2519 91bf
000001e0: 8365 e03f 1212 91bf cc1e cfbf ac05 7abf
000001f0: d016 9a3f 81ee bf3f 9a77 8dbf 25fa a6bf
0.7591521 2.9096391 0.7966931 0.64255196 2.92613 0.9371191 -0.8357805 -0.8555082
1.580639 -1.115434 -1.6480507 -1.8548812 1.2023344 -0.3415446 -1.9388229 1.816805
-1.518386 1.3752761 -0.9033938 1.601104 1.3218728 2.05912 -1.4138862 -0.75097597
-1.3798879 0.2286275 -1.3626407 0.41664535 2.0475261 -0.93823636 1.2895998 1.593391
-0.6704268 -1.2638917 0.7060084 0.036298838 -0.605898 1.3003895 -1.1298491 -1.6222879
1.0947925 -1.3579339 -1.288202 1.4893343 -0.82075155 0.6345088 0.5687715 -1.0771765
1.2730736 1.2110562 -1.0457563 -1.0334618 -1.1248701 1.352195 1.4465542 1.1622462
1.3730556 -1.5331908 1.1740539 -0.8993001 -1.8647624 -0.9793106 0.07399793 0.23137093
0.42004418 -0.82096153 1.8819703 1.646981 -0.7466685 1.3205701 0.49644917 -1.7864438
-1.3753 -0.36237976 -1.3366938 1.1039975 -0.45513174 -0.7330994 1.5930994 1.2574666
0.9719239 -1.1828138 -1.9628963 1.2751564 -1.1995252 1.2333115 -1.8263797 0.112018704
0.11443413 1.6648313 -1.0572387 1.478005 -0.84828454 -1.678607 -1.1739131 1.4845332
-1.114853 -0.65734726 -0.112149596 2.544416 1.1674702 0.48838782 -0.999929 1.476528
-1.0420713 -0.828434 -1.4125853 -1.0613952 -0.82129353 1.4654908 1.6309427 1.0735669
-1.5323467 -0.94223356 1.3112338 -0.98414505 1.058474 1.4279599 -1.5611221 -1.1335799
1.7530979 -1.133364 -1.6181273 -0.97664905 1.2038212 1.4994661 -1.1052125 -1.3045088

pointer.encoder_attn.v f4 [1, 1, 128]
00000000: 30d4 023e e5ec 80bd 13c9 aabc 214d bb3d
00000010: f046 70bd cff5 183e cabf 373e 3975 523d
00000020: 299f fdbd ff09 073e 6c63 003e cab5 973d
00000030: 5564 f7bd de3d 67bc f7ff 13be 7de5 d6bd
00000040: 3fd5 b9bd e91b b93d 750d 11be e4dd 033d
00000050: eee3 b3bd f211 b9bd c73e 2bbd 58b3 abbd
00000060: 1157 143d 6889 a9bd 4db6 9ebd 6649 e5bd
00000070: a459 823d 979b 02be db4a 9dbd e3fa 223d
00000080: ed96 dbbd d3e6 093e e5bf 163e e2e4 56be
00000090: e762 d6bd 586b 063d b9d7 f0bd ac2d 7cbc
000000a0: eb62 f33c f4cd a1bd 12dc 023e cdd4 0bbe
000000b0: e7eb 97bd b340 293d 982c bebd 0b32 da3d
000000c0: 3658 41be 9a98 84bd 97c4 813d 14bc d9bd
000000d0: b64c 0d3c 649e 69bd bd7b c03d 5958 1b3d
000000e0: ae29 193e 892a 6cbe 0ee1 983d 5b98 37bd
000000f0: ade6 77bd 554b fcbc 3f75 d23d 13bc 3cbd
00000100: e595 fa3a 1d54 423e a84d 763b 7dcf 083e
00000110: 1297 283d 0d4d 52bd b516 f2bd 3863 d5bd
00000120: 416b c33d 18b2 0b3e 51f2 983d 20db 5cbd
00000130: 637b 8e3d f911 913d b23e 01be 4991 e4bb
00000140: a74b 87bc 9911 1d3e 8681 67bd 1674 ea3c
00000150: a966 16be a366 63bd ba9a 433e 975c e7bb
00000160: 6574 4f3c b864 613d 8efe e13d 7435 48be
00000170: f981 26bd af58 d43d 8657 f1bd 0cf6 66bd
00000180: fb6d 933d 8012 a6bd da1f 0f3e f1a9 92bb
00000190: 8f88 163e de10 5fbe aa6b 4abd 0dd7 103d
000001a0: 191c 6ebe 3ed1 08bd d027 f2bd 53fe 41bd
000001b0: 7b02 903e 4762 68be 8a97 373e 0926 c33d
000001c0: 6791 e9bd 7907 fb3d 73d6 163e f821 163d
000001d0: 909f 053e bfe6 bf3b 5169 b9bc b6a4 edbc
000001e0: 6389 b83c b6d0 103d 39bd 833c 35cc bbbd
000001f0: 6077 3d3d 0bc7 0dbe 51e0 853d 399a 133e
0.12776256 -0.06295184 -0.020847833 0.091455705 -0.0586614 0.14937519 0.17944255 0.051381323
-0.12383873 0.13187407 0.12537926 0.074077204 -0.12079684 -0.014113871 -0.14453112 -0.1049299
-0.090738766 0.090385266 -0.1416529 0.032194033 -0.087837085 -0.09036626 -0.041807916 -0.083838165
0.036215845 -0.08278161 -0.07749615 -0.1119564 0.06364754 -0.12754665 -0.07680293 0.039790045
-0.10722146 0.13466959 0.1472164 -0.2098575 -0.10468083 0.032817215 -0.11759896 -0.015391748
0.029710254 -0.079006106 0.12779263 -0.13655396 -0.07418042 0.041321468 -0.09285849 0.10654076
-0.18881306 -0.06474419 0.06336325 -0.10631576 0.008624246 -0.05703582 0.09398601 0.03792605
0.14957306 -0.23063101 0.07464801 -0.044823032 -0.060522724 -0.03079764 0.10276269 -0.0460778
0.0019118158 0.18977399 0.0037582908 0.133604 0.041159697 -0.051343013 -0.11820737 -0.10419315
0.095419414 0.13642156 0.07468093 -0.05391991 0.06957128 0.07083506 -0.12621573 -0.006975327
-0.016515566 0.15338744 -0.056520008 0.028619807 -0.14687599 -0.055517804 0.19101992 -0.007060598
0.012662028 0.055027694 0.110348806 -0.19551641 -0.040651295 0.103684776 -0.11784272 -0.056386992
0.071987115 -0.08108997 0.13976994 -0.004475825 0.1470053 -0.21783778 -0.049419083 0.03536134
-0.23252906 -0.033402674 -0.11824 -0.047361683 0.28126892 -0.2269374 0.17928901 0.09528739
-0.114046864 0.12257285 0.14730243 0.03665349 0.1304915 0.0058563645 -0.022633227 -0.029009204
0.022526449 0.035355292 0.01608144 -0.09169809 0.046256423 -0.1384546 0.065369256 0.144143

pointer.encoder_attn.W f4 [1, 128, 256]
00000000: cd41 2fbe 6b71 843e 5748 6d3d bbad 8ebd
00000010: 83c0 ed3d cd05 ff3c bdad 073e de60 ce3d
00000020: 9711 b53b e769 153c 2686 7e3b 8413 0a3d
00000030: 51ab 41bd ea0b 6d3c fdd3 f83b a3a6 623c
00000040: 29ed 71bc 6db1 00bd d88c ecbd 9f99 363e
00000050: 9f50 11be 736f 353d 3d28 813d 0d25 243d
00000060: 2874 ee3c 6883 8bbd 4d32 7a3d b767 043e
00000070: 813d 2bbc d9de aeb9 9ff5 fc3c 1667 a1ba
00000080: 84fc 2f3d 4770 403d 8b7b 2cbd 41eb 77bd
00000090: 44b8 c8bd f9cb 25bd bc1c eb3d 516d 3f3d
000000a0: 06e3 e43b b962 273d 011c 223d b4b5 8cbd
000000b0: c176 00be fa76 123e b54a 10be 5552 3b3d
000000c0: a2d3 343d 9acb 6fbd 44b1 94bd a350 2ebc
000000d0: 18e6 b73c be2c c3bc 1f46 dbbb 461e 71bd
000000e0: 1600 86bd 918d b13c 013b 87bb 89ca 523c
000000f0: 5c8c 4fbd 2971 b1bd 93f0 a43d f131 c53d
00000100: 6186 e3bd 68ce 27bc f296 223d bcb5 07bd
00000110: 0b86 6d3d 7bc6 9ebd 3137 94bd 6aa5 603d
00000120: d662 813d 19a6 0f3e 2687 3c3c 5ec3 82bd
00000130: e77f f63c 3f15 27bd c3ce 1fbd fd32 323a
00000140: ac97 03bd ad58 2bbd 8415 7b3c 0680 6c3d
00000150: 15b1 0e3d 07c5 efbc c217 3c3d 7bb3 423c
00000160: 32a4 aebc 189b f4bc 5692 433d c40f 433c
00000170: 0bb6 713d 9824 1a3d ee27 0f3d d2e6 73bd
00000180: 064f 983b 69e7 563c 0379 583d 06c2 843c
00000190: 6808 693c d51a 893d b6c7 3c3b 92b0 f93c
000001a0: 79f9 31bc 3323 303e c05e e2bc ccd0 0cbd
000001b0: 14a6 c93c 9617 bd3b 6872 6b3e 7ff0 97bd
000001c0: 58c7 153d b752 67bd 0ef3 3d3c d221 eb3c
000001d0: 4a64 11bb 76eb 813b c315 8a3b 742c 163b
000001e0: 7c5c 963d 63cf 983c f49b ae3c 1813 1bbe
000001f0: 201c 7f3c 653a 583d 38bd 1f3c cf07 8fbd
00000200: eea1 b53b fcd9 f5bc 86c6 5dbd c4ed 423d
00000210: 5239 833d b1b1 953c 70ad 183d a66f 9d3d
00000220: 5d88 6c3d 4dbb ceba 1371 e53d 217a e2bd
00000230: e697 003e d462 313d a700 a7bd 2c4c 69bd
00000240: e7af a8bd cdff fb3c 3a33 c13d 866d 80bc
00000250: 4760 973d fc49 96bd 6ce3 17bd f789 3ebd
00000260: 5a27 96bc f311 933c 4299 0b3c 7dde 8d3c
00000270: 10ba 703d b899 ddbd 663c 983d c2ca 10bd
00000280: 611c be3b 6a4e 94bd 1c35 3fbd bb94 a73d
00000290: 331a 023d 25e7 acbd 3bce 1a3c 1b16 043e
000002a0: a202 a43d e267 d4bc 2569 4dbd fcc8 bbbd
000002b0: 0ab9 0d3d 6601 ca3d 4520 04bc 4575 953d
000002c0: 0cd2 863d f004 903a 3b68 883d e0ac 943d
000002d0: 430f 1cbd 1c1f e1bc 4a28 c3bc 3016 c83c
000002e0: 1eb5 88bd f787 0cbd 797c bebd 97bb ba3c
000002f0: 0292 993d c10a c8bd 052e 1dbd 9fa7 be3d
00000300: ce5a 02be 87c1 a3bb aca4 973c 7979 553d
00000310: 43b4 be3d 09d1 afbd f87c 293d a096 683d
00000320: 013b d1bd 6d87 55bd 9d91 09bd ad62 b03d
00000330: f6e9 5f3d d375 f53b e4ff ddbc 0c20 913c
00000340: 4836 063d fec3 46bd 6f78 8fbd 4c67 213d
00000350: cfda 72bd 7075 2d3d 8bec d5ba 1cdd 5f3d
00000360: e08a e93c ee28 d1bd 8a38 e1bd 3f1c 893d
00000370: b734 5d3d c0f6 2cbb 823a 70bb b66d 8c3d
00000380: 858e 843d 3a06 503d 587c 543d f9c3 973d
00000390: 8af9 1b3d c936 a23d f0a5 32bd 9e58 efba
000003a0: 3f5b 24bd e0af 49bd 2c95 2fbc d7ac b8bd
000003b0: 8595 c5bd e559 1c3c db6f 223c 2ae7 a6bd
000003c0: e201 8e3c bc31 40bd e635 f23c 9b7f 043d
000003d0: a00f a9bc 8d28 c6bd 5dbe 2cbd b845 4cbd
000003e0: 3ab4 963d 7e1a 673d 49ee ebbd 55ed 49bd
000003f0: 695e 213d 8f87 cebd 9742 73bd fcaf d93c
-0.17114945 0.2586778 0.057930317 -0.0696673 0.11608984 0.031130696 0.1324987 0.1007707
0.0055257785 0.009119487 0.0038837283 0.033710018 -0.04728252 0.014468173 0.0075936303 0.013833675
-0.014766016 -0.031419206 -0.11550301 0.1783204 -0.14190911 0.04429574 0.06306503 0.040074397
0.029108122 -0.06812173 0.061083127 0.12930189 -0.010451675 -0.000333539 0.03087884 -0.0012314047
0.042965427 0.046982076 -0.042110007 -0.06052709 -0.09800771 -0.040477727 0.1148009 0.04673511
0.006985071 0.040865634 0.039577488 -0.068705946 -0.12545301 0.14303198 -0.14090998 0.045732815
0.04414714 -0.05854378 -0.07260373 -0.0106393425 0.022448584 -0.023825046 -0.0066917087 -0.05886676
-0.06542985 0.02167395 -0.004126907 0.012865671 -0.050670967 -0.08664162 0.080536984 0.09628666
-0.11109615 -0.010242082 0.039694734 -0.0331323 0.05798916 -0.07752701 -0.072370894 0.05484525
0.063176796 0.14028205 0.011506831 -0.063849196 0.030090285 -0.040791746 -0.039015543 0.0006797759
-0.032127067 -0.041832615 0.015324954 0.05773928 0.034836847 -0.029268755 0.045921095 0.011883612
-0.021318529 -0.02985911 0.04774698 0.011905614 0.0590115 0.037632555 0.03495019 -0.0595463
0.004648092 0.013116696 0.05284978 0.016205799 0.014223196 0.06694571 0.002880556 0.030479703
-0.010862702 0.17200927 -0.027633071 -0.03437881 0.024615325 0.005770634 0.22992861 -0.07418918
0.036567062 -0.056475367 0.011593593 0.02870265 -0.002218502 0.0039648367 0.00421402 0.002291468
0.07341859 0.018653577 0.021314599 -0.15144002 0.01557067 0.052790064 0.009749703 -0.06983911
0.005542985 -0.03001117 -0.054144405 0.047590032 0.06407417 0.018273206 0.037274778 0.07687311
0.057747234 -0.0015772373 0.11203208 -0.110584505 0.12557945 0.04330714 -0.08154421 -0.05695741
-0.08236676 0.030761624 0.09433599 -0.015677225 0.0739141 -0.0733833 -0.03708212 -0.046518292
-0.018329311 0.017952895 0.008520426 0.017318005 0.058771193 -0.10820335 0.07433395 -0.035349615
0.005801723 -0.07241519 -0.04668151 0.08182665 0.031763267 -0.08442525 0.009448583 0.12899058
0.08008315 -0.025928441 -0.0501491 -0.09169194 0.034600295 0.09863548 -0.008064334 0.07297758
0.06583032 0.00109878 0.066605054 0.07259536 -0.038100492 -0.027480654 -0.023822922 0.024424642
-0.0667517 -0.034309354 -0.09301085 0.022794528 0.07498552 -0.09767676 -0.038373966 0.09309315
-0.12729952 -0.0049974355 0.018511139 0.0521178 0.09311726 -0.08584792 0.041378945 0.056784272
-0.10216332 -0.052131105 -0.033586133 0.08612571 0.054666482 0.0074908524 -0.027099557 0.017715476
0.03276661 -0.048526756 -0.07005393 0.039405152 -0.059290703 0.042348325 -0.0016321106 0.054654226
0.028508604 -0.10212885 -0.10997112 0.06694841 0.05400535 -0.0026392192 -0.0036655967 0.06856863
0.06472496 0.050787188 0.051876396 0.07410426 0.038079776 0.07920606 -0.04361528 -0.0018260663
-0.04012608 -0.049239993 -0.010716718 -0.090173416 -0.09647659 0.009542917 0.009914364 -0.0814956
0.017334882 -0.04692243 0.029566716 0.032348257 -0.020637333 -0.09675703 -0.042173732 -0.049871176
0.07358594 0.05642175 -0.11520059 -0.049298603 0.039396677 -0.100844495 -0.059389677 0.026573174

pointer.fc1.weight f4 [128, 256]
00000000: 3b7a 853d c5f8 83bd bd74 eebd 35e0 28bd
00000010: 4a2a 153e 7e86 393c 27b3 883c 12a5 d4bc
00000020: 3359 bbbd e172 563d c722 7bbd 75e9 9fbd
00000030: af89 92bd e359 833d 17d4 4cbc 608d 4dbd
00000040: 5a4e 02be df10 803d 4fd1 333b f6d6 88bd
00000050: 49d3 e63d e16c 45bd 4cdc fcbd af80 fabd
00000060: f1bc d1bd d439 94bc a3f9 863d 9c2d cd3d
00000070: 12e0 edbd f0fb 693d 8a4e 7bbc 6a61 f43d
00000080: c407 033d e600 ff3d 835b edbd 73c5 8ebc
00000090: 3904 d93d 1c46 3bbd 8205 ce3c a999 78bd
000000a0: 7302 c4bd d3b6 553d 28c3 153e 1bef f8bd
000000b0: 8fb2 cebd 96be c3bd b524 9b3d 0d66 98bd
000000c0: 6fee 20bd c0e6 b9bd 01f4 edbd d4ff 273d
000000d0: 248d 453d 8791 e73d f67c 5e3c 21db 9b3d
000000e0: 1999 b8bd 38e0 ed3c d67b a43d 390e 263c
000000f0: cbde b2bd 3114 e23d 2a82 d63d e0be 98bd
00000100: d131 c73d c9fe e9bd 5abf f23c a06c c43c
00000110: 2737 043e b2fa efbd 596c e83d bb2c 1bbd
00000120: 45fd c3bc 833a 7bba de04 bb3d 9895 1f3d
00000130: 5c08 d4bc 2280 9b3c 1120 4fbd 12ef 883d
00000140: 2c64 8e3d 2955 b13d 3c68 4e3d 7f4d a1bb
00000150: d968 b73c 003b 9dbd a2a9 9c3c d051 8fbd
00000160: 6ca4 dbbd 9b63 24bc e507 60bd 1290 acbd
00000170: 4676 553d bd50 43bd 99b1 3a3b fb32 e23d
00000180: 87cf 49bd 9692 a23d ddc2 cd3d a0de 01be
00000190: 3869 bdbd 56db 94bd 258e 253d be4b 6cbd
000001a0: 2d1f 403d 94c1 c6bd 133e f4bd 846b c2bd
000001b0: 84e4 d3bd b981 b6bd 6bb2 acbd 8437 baba
000001c0: 4839 e9bd 3dd1 34bd c1aa 80bd 3c56 b8bd
000001d0: c02a a6bd dad4 a73d 0517 973d 7063 933d
000001e0: f846 ccbc ca97 b8bc db76 263d daa6 b1bd
000001f0: 4bd3 ea3d 9ae1 82bd 34cb 56bd 890a a0bd
00000200: 92b8 b0bd 34ea 2ebd 8d81 813d 5083 c53d
00000210: 14ce 17bd b638 183e 3e13 2f3e 2079 ff3d
00000220: 08f4 45bc a60c 803d 1231 643c 541b 5b3e
00000230: 1d66 a93d c8e8 0e3d e994 efbb 310e 01bd
00000240: 23fc 99bb b803 adbc 7196 95bd 5ca3 eebb
00000250: decc 0cbe a580 603e d388 393e aac6 81bc
00000260: 0625 023e e5a0 cabd 4d45 683d e8c3 a43d
00000270: 2ca6 363e d21b 1bbc ad81 9a3d c0e3 ab3d
00000280: 2872 c3bd 793e afbc 79c4 bd3d f0bd 2abd
00000290: 0f78 d93d de1d 6c3c db48 a33e f216 433d
000002a0: 4da3 cc3d 7837 16bc b6c3 eebc 8cda dfbc
000002b0: fb41 2bbd f19c 80bc 863f 353d 2c22 063d
000002c0: 3838 1e3e 2121 d13c 6ce8 663e cbed 203e
000002d0: fcca e53d 9b23 123d 56e4 2d3e 869b eebd
000002e0: 2dba e43c a0b9 2d3e cad6 47bd 2aef 0a3c
000002f0: 1c69 27bc 2fb0 c63d d0be d33d e6f1 0c3c
00000300: 22cc 2bbd 02af d8bd 79f3 113e 681b 94bc
00000310: 855c 48bd aee4 e0bd 1a21 ba3d 0762 933d
00000320: 80d1 99bd 3406 a13c d4dd 4a3e 488f 213d
00000330: 578e 02be d69d 693b ac80 ae3d 7aa4 3e3d
00000340: 07af edbd ad89 513c 135b b33d ebd4 133d
00000350: 02e7 233e 1164 1d3d a634 103e a830 373e
00000360: b9bd 13bd 4064 5ebd 5743 563e 4dc6 153e
00000370: de97 50bd 1ad9 9cbc 9b5f 503d a413 41bc
00000380: 60ff 973d d9cd 063d 1b66 163e e12c c43e
00000390: d973 6cbd efe2 673e fb6b f53d 33df 24bd
000003a0: 05d1 95bc b958 f73d 4fae 13be fd57 36be
000003b0: 27d9 733d 9b88 c9bd b664 27be d8b5 77bd
000003c0: 2eb5 183e 6ffb 86bd 1710 323d 47db 9ebd
000003d0: 1dd7 4ebd 8d0d e63c ec67 a83d dfaa adbc
000003e0: 2c2f 1fbd 89d3 023e 4aac 3e3e 75a9 1bbd
000003f0: ec1b 25bd f72f 523d 0efb 433d 90a9 f5bc
0.06517454 -0.064439334 -0.1164336 -0.041229445 0.14566913 0.011323569 0.016686989 -0.025957618
-0.09147873 0.05235565 -0.061312463 -0.078082 -0.07155167 0.06413629 -0.012501738 -0.050183654
-0.12725201 0.06253218 0.002743799 -0.066816255 0.11270768 -0.04819954 -0.12346706 -0.12231576
-0.10241116 -0.01809398 0.06590583 0.10018465 -0.11615004 0.057125032 -0.015338549 0.11932643
0.031989828 0.12451343 -0.1158972 -0.017428135 0.105965085 -0.04572116 0.02514911 -0.060693417
-0.0957078 0.052176308 0.14625227 -0.12154981 -0.10092651 -0.09557836 0.07575361 -0.0744134
-0.039289888 -0.09077215 -0.11618806 0.04101546 0.048230305 0.11307054 0.013579598 0.07610155
-0.09013576 0.02903758 0.08031432 0.010135227 -0.08733901 0.110390075 0.104740456 -0.074582815
0.097262986 -0.114255495 0.02963226 0.023977578 0.12911664 -0.11717738 0.11348791 -0.037884455
-0.02392448 -0.0009583609 0.09131788 0.038961023 -0.025882892 0.018981997 -0.05056769 0.06686224
0.069527 0.08658821 0.050392374 -0.0049225683 0.022388862 -0.07677269 0.019123856 -0.06998026
-0.1072472 -0.010033513 -0.05469503 -0.08425917 0.052114747 -0.04768442 0.0028487204 0.1104488
-0.04927018 0.07938115 0.10046933 -0.12682581 -0.092485845 -0.072683975 0.040418763 -0.05768942
0.04690473 -0.09704891 -0.11925902 -0.09493163 -0.1034632 -0.089114614 -0.08432468 -0.0014207219
-0.11387879 -0.044144858 -0.06282569 -0.09000823 -0.08113623 0.08194895 0.073774375 0.071967006
-0.024936184 -0.022533316 0.040640693 -0.086744025 0.11466082 -0.06390686 -0.052439883 -0.078145094
-0.08628954 -0.042703822 0.06323538 0.096441865 -0.037061766 0.14865384 0.17097184 0.12474275
-0.012082107 0.062524125 0.013927715 0.21397144 0.0827143 0.034889966 -0.0073114526 -0.031507675
-0.0046992465 -0.021119937 -0.07304085 -0.0072826575 -0.13750026 0.21924074 0.181186 -0.0158418
0.12709436 -0.098939694 0.056706715 0.08045179 0.17836827 -0.009467082 0.07544265 0.08393049
-0.09543258 -0.021392094 0.0926599 -0.041685045 0.106186025 0.014411418 0.31891522 0.047629304
0.09992085 -0.009168498 -0.029146057 -0.027325891 -0.04181097 -0.015699835 0.044250034 0.032747433
0.15451133 0.025528492 0.225496 0.15715711 0.11220357 0.035678487 0.16981634 -0.116507575
0.027920807 0.16965342 -0.048788823 0.008479873 -0.010217931 0.09701573 0.10339129 0.008602595
-0.041942723 -0.10580255 0.14253034 -0.018079475 -0.04891636 -0.10981117 0.09088345 0.071964316
-0.07510662 0.019656278 0.19811183 0.039443284 -0.12749611 0.0035647056 0.08520636 0.046543576
-0.116056494 0.012789172 0.087576054 0.036091726 0.16006091 0.03842551 0.14082584 0.17889655
-0.036069605 -0.054294825 0.20924126 0.14626427 -0.05092608 -0.01914649 0.050872426 -0.011784468
0.07421756 0.032911155 0.14687388 0.3831549 -0.05772767 0.22645162 0.11983486 -0.04025192
-0.018288145 0.120774694 -0.14421962 -0.17807002 0.059533264 -0.098405086 -0.16347012 -0.060476154
0.14912865 -0.06590926 0.043472376 -0.077566676 -0.050498117 0.028082633 0.082229465 -0.021199642
-0.038863346 0.12776007 0.1862041 -0.038003404 -0.04030983 0.051315274 0.047846846 -0.02998808

pointer.fc1.bias f4 [128]
00000000: fbeb 6abd 803c 8cbb fb46 cb3c 3a29 88bd
00000010: edee 08bd ef03 ebbc 15d6 a4bc b9da 703d
00000020: 4faf 63bd 2076 653d 4e28 0e3c 4c2a 32bd
00000030: a5b4 9ebc a33a 5ebd 7f6b 913d b708 93bc
00000040: e714 84bd bbb1 f83c 012f 963d 3b90 873b
00000050: 3138 a4bc 645b 7ebd 4f0b 703c 2a68 51bc
00000060: de98 58bc 30f8 743c ea7f 483d 73c1 313d
00000070: eeb0 92bd 9147 fc3b d1fe 753d e7c7 45bc
00000080: 7835 433c 8c41 38bd 7125 633d 0285 f83c
00000090: ea15 343d 70f5 a83d a643 3fbc 9947 9bbb
000000a0: 7ccd 443d 7f4e 8abd cd38 95ba 6c20 843d
000000b0: abe3 c13c 0c47 8dbc fe41 893c 2938 943d
000000c0: 9868 073a c542 78bd ca8f 88bd 43cc 49bd
000000d0: 4d9e 90bc 5b2f e03c 01da b3bc 793f 813d
000000e0: db7f 1e3d 2154 4e3b aad5 283c eb49 953c
000000f0: e60f 8f3d 3767 36bd 1387 edba 1cd6 393d
00000100: 109e 59bc ae5c 683d 2de4 293d f862 91bc
00000110: 3e85 2ebd 8420 9d3d 1894 32bb c5c0 26bc
00000120: 7429 d2bc 795f 22bd ff1f 3ebd a572 af3c
00000130: 60dc 50bd 6eae 41bb a37b 523d 87bb b93c
00000140: 13bd 323d 1196 63bb f590 9ebd ca61 8cbc
00000150: b6c6 eabb 3fac 59bd ded3 c53c fa2b efbd
00000160: ce53 a13d 72af 0d3d b519 d1bc 59ad 6ebd
00000170: e30a a9bc d38d c83b e9eb acbc 7e92 503d
00000180: d411 953c a229 63bd db08 db3c 2b80 433d
00000190: 89f0 4e3d 46f3 123c e7b2 58bd e706 f43c
000001a0: 72c6 8abd 39d0 433d 1e25 3a3c 90be c13c
000001b0: 7e17 a0bc 8ebd adbd f569 aeba c523 7f3d
000001c0: 1d1c 193d 9ea3 553d 353c 89bd 0e08 d43c
000001d0: 884f 70bd 1f11 ab3b c0ee e1bc eeba e33a
000001e0: fc98 45bd 3e24 193c c79d 803d ff88 393c
000001f0: 05b4 c0bc eff7 5e3c 8df6 0ebd edda 893d
-0.057353955 -0.004279673 0.02481412 -0.06648488 -0.033430982 -0.0286884 -0.020121614 0.05880234
-0.05558711 0.056020856 0.008676602 -0.04349737 -0.019373247 -0.05425514 0.071005814 -0.017948491
-0.06449299 0.030358186 0.07333184 0.0041370667 -0.020046325 -0.062098876 0.014651134 -0.012781182
-0.01322004 0.014951751 0.048950113 0.04339738 -0.07162653 0.007698961 0.060057465 -0.012071586
0.011914603 -0.044984385 0.05545563 0.03033686 0.04396621 0.082499385 -0.0116738435 -0.0047387597
0.048047528 -0.06753253 -0.0011384726 0.064514965 0.02366813 -0.017245792 0.0167551 0.07237274
0.0005165427 -0.06061055 -0.066680506 -0.049267065 -0.017653609 0.02736633 -0.021954538 0.063109346
0.03869615 0.003148325 0.010304848 0.018223723 0.06985454 -0.044532027 -0.001812192 0.045370206
-0.013282314 0.05672901 0.04147737 -0.017747387 -0.04260754 0.076722175 -0.0027248915 -0.010177796
-0.025654532 -0.03964183 -0.046417233 0.021416971 -0.050991416 -0.002955343 0.05138744 0.022672428
0.043637346 -0.0034726898 -0.07742492 -0.017136473 -0.0071648015 -0.053142782 0.024148878 -0.1167831
0.078773126 0.034591146 -0.025524953 -0.058270786 -0.020635074 0.0061204224 -0.021108584 0.050920956
0.018196978 -0.055459626 0.026737621 0.047729652 0.05052236 0.008969134 -0.05290499 0.029788448
-0.06776132 0.047806 0.0113613885 0.023650438 -0.019542452 -0.0848342 -0.0013306724 0.06228997
0.037380327 0.05215799 -0.06700937 0.025882747 -0.058669597 0.005220547 -0.027579665 0.0017374435
-0.0482416 0.00934702 0.06280094 0.011324166 -0.02352334 0.013608917 -0.034903098 0.0673121

pointer.fc2.weight f4 [128, 128]
00000000: 9b59 4dbe 1274 50bd 0929 363c 442a f83d
00000010: cd79 c23d 90f8 da3d d76b eebd 61de 0b3e
00000020: 8971 913d eeaa 7ebe ed02 a03d 90f8 413d
00000030: 01df 243e 36b0 c93d 5bf3 273c a64a 0a3f
00000040: ac3a fc3c bf2d 14be a0a2 bd3c 7b97 243d
00000050: 1d9a 01be bc54 e73c de73 a3bd 6c51 34bd
00000060: e1b3 183e f5b4 82bd bf20 49bd 68f3 ccbc
00000070: 13fe 85b7 3095 c83d 135a 043d 1391 87bd
00000080: 2d7c a0bd 9180 3c3e c1c7 f73d 521f c9bb
00000090: e700 433e f3db 1f3d e66e 083e fec5 5e3d
000000a0: 3808 04bd 1450 723e 1f40 293e e746 9b3c
000000b0: fa51 f93c 5113 493d 51af 293e 3cb0 a53c
000000c0: f91f 35be f122 4c3d 6276 fa3d 5d5b fcbc
000000d0: 08da 013e 945d 77bc 62dd e53c 80b5 f13d
000000e0: 7d30 eebc 17df debd 8435 4d3e 5e54 263e
000000f0: 6c0b 923e c738 fd3d 7c9f 043d 812e 583d
00000100: b142 093e fe32 413e 641a abbc 4bdf 373e
00000110: d9be 943d 6429 17be 4f14 5b3d 652b 10bd
00000120: 0582 2b3d 82aa 90bd 0b84 42bd 9c9d d0bd
00000130: 847a d73d 042f 38be 85f1 113f 8aeb a83e
00000140: aca4 95bd 9f16 b3bd e5a1 8dbc 25b7 e8bc
00000150: 343e 6e3e fade f0bd 7ab5 7fbe 187b 283d
00000160: 9f1d 1e3e b8b6 2cbd 6ff1 283e 60e7 8cbd
00000170: 7c18 a33d 4975 09bd 82c0 853b 60cf e7bd
00000180: 8459 983e 917d a0bc 1718 8f3c 1f3d 803d
00000190: 4c0a bb3d 166e 8d3d de47 d9bc 6d90 d23c
000001a0: 49a0 00be 2b78 253e 1710 593d bf2b ccbc
000001b0: 5c06 a2bd 2671 b53c 45fa 1abd e735 2dbe
000001c0: 7975 8abd c612 d73d 62e1 ae3d 223d 993d
000001d0: 8aaf 883d b9b7 f7bd 892d e83d ddd2 6bbd
000001e0: f1d7 8f3e 0d9d 493d 567b a83c 6a15 1ebd
000001f0: ce69 e63d bbfa 89bd bf46 553d 2ab4 e33d
00000200: 8e56 2ebd e0e6 90bb 6673 44bc a9fe c03c
00000210: 3179 703d 9545 9b3a 9a97 c73c b2e2 92bb
00000220: 134e 0bbe 092d febb ba22 f73d 8a89 243d
00000230: a195 b8bc 0e4c 28bd 9a45 ca3d 2db4 213f
00000240: 8770 afbd 4f9f 3cbd 4564 923b 1702 273e
00000250: a4ee 1ebd 73fc 01be 39df cfbd 2a71 b53d
00000260: 409f 8dbd 52d6 453d 7109 73bd 37d4 89bd
00000270: 9518 48bd f9d3 bbbd 456d 6e3e a200 c3bd
00000280: 1b2d 9dbd 3fb2 8d3e c0d0 3fbd 19d6 093e
00000290: 4e85 9dbc fed6 bcbc 8545 ddbd 958e babd
000002a0: 1085 233e dcc4 983d 8c70 b63d 711d 2d3e
000002b0: b265 cebd d9fa 9f3d 1f3b 83bd 8c4f b4bc
000002c0: 6a9a 12bd f1cd a93d d57f 18bd 525e 9f3d
000002d0: e7c6 66b9 4063 bd3b 1f88 0dbd 8e68 5ebc
000002e0: bbb5 513d af8d b23d bd4b c13d 9e8d 3ebe
000002f0: 1b73 1e3f b660 a53c c5d9 b8bc 5367 d1bd
00000300: bf15 513c 161c 153d eb46 febd d44b 2ebd
00000310: 6089 ccbd d84a c8bc 779b 4b3e 2a02 1cbe
00000320: f010 0f3d a4c4 80bd dee9 4bbd 704b 273e
00000330: 89f3 9dbd c650 76bd 9e6c d03e a379 1ebc
00000340: 18bf 1f3e 11ae 06be 3689 80bd b193 91bd
00000350: f340 42bd e850 183d 3fa6 9a3c 98c8 e0bb
00000360: 636c 353e 10c0 873d 25e9 363c f26a 223c
00000370: a8d1 863d dd22 a13d b092 24bd af2e 5d3d
00000380: 0ed8 103e 3412 073e b24c 3e3c 9f50 f53d
00000390: 40b0 233d 73f1 f03d ce0c 5f3d de73 d43d
000003a0: 9176 25bc e2ca 7f3d dbdc d3bd c9a3 f0bb
000003b0: 249e eb3d e4b4 d83c 02e6 dbbc ad48 0bbe
000003c0: c081 093e 8037 473d 5232 7fbc b52f 513e
000003d0: 30b5 09bc b3ec f63d c0cf 28be 944c 15bd
000003e0: f594 8c3d 40a9 933c 72da 0d3e a8a0 30bd
000003f0: e941 e5bd dc7e fabb 406f 00be 6d80 cdbd
-0.20053713 -0.050891943 0.011118182 0.121174365 0.09495888 0.10691941 -0.116416626 0.1365905
0.07101733 -0.24869892 0.07813058 0.04735619 0.16100694 0.09848063 0.010250892 0.54020154
0.030789696 -0.14470576 0.023148835 0.040183526 -0.12656446 0.028238647 -0.07981084 -0.044022962
0.14912368 -0.06382171 -0.049103495 -0.025018409 -1.5973148e-05 0.0979408 0.032312464 -0.066194676
-0.07836185 0.18408419 0.12098647 -0.006137767 0.19043313 0.03902812 0.13323554 0.05438804
-0.0322344 0.2366336 0.16528367 0.018954707 0.030434597 0.049090687 0.16570784 0.020225637
-0.17687978 0.04983801 0.12229611 -0.030805284 0.12680829 -0.015097994 0.028059665 0.118021965
-0.029075855 -0.10882395 0.20039946 0.16243121 0.2852434 0.12364345 0.03237866 0.052778725
0.13404347 0.18867108 -0.020886607 0.17956273 0.07262964 -0.14761883 0.053486165 -0.035197634
0.041872043 -0.07063772 -0.047489207 -0.101863116 0.10521415 -0.17986685 0.57009155 0.32992202
-0.07306799 -0.08744549 -0.017289111 -0.028407643 0.23265916 -0.117612794 -0.24971572 0.041133016
0.15440987 -0.04216644 0.1649835 -0.06880069 0.079636544 -0.033559117 0.0040817866 -0.113188505
0.29755795 -0.019591125 0.017467542 0.06261658 0.09132823 0.06905763 -0.026523527 0.025703633
-0.12561144 0.16159122 0.05299386 -0.024923204 -0.07911369 0.02214868 -0.037836332 -0.16915093
-0.067606874 0.105016276 0.08539082 0.07482363 0.066741064 -0.12095589 0.1133681 -0.05757414
0.28094438 0.04922204 0.020566624 -0.03859464 0.112506494 -0.06737276 0.05206942 0.11118348
-0.042563014 -0.0044220537 -0.011990404 0.023558931 0.058709327 0.0011846299 0.024364281 -0.0044825906
-0.13604002 -0.0077568335 0.120671704 0.04017023 -0.022532286 -0.041088156 0.09876557 0.6316555
-0.08566385 -0.046050366 0.0044675195 0.16309391 -0.038801804 -0.12693958 -0.10149998 0.08859475
-0.0691514 0.048300095 -0.059335176 -0.0672993 -0.04885157 -0.0917129 0.2328387 -0.09521605
-0.07674619 0.27675053 -0.04682994 0.13460578 -0.019228604 -0.023051735 -0.108042754 -0.091092266
0.15968728 0.07459423 0.08908185 0.16905762 -0.100779906 0.07811517 -0.06407761 -0.022010587
-0.035791792 0.08291233 -0.037231285 0.07781662 -0.00022008606 0.005779654 -0.034553643 -0.0135747325
0.051198702 0.0871843 0.09438274 -0.1860871 0.61894387 0.020187717 -0.022564778 -0.10224786
0.012761532 0.036403738 -0.1241587 -0.042552784 -0.0998714 -0.02444975 0.19883524 -0.152352
0.034928262 -0.06287506 -0.04978358 0.16337371 -0.07712466 -0.060135625 0.40707868 -0.009672555
0.1560024 -0.13152339 -0.06276171 -0.07108248 -0.04742522 0.037186533 0.0188781 -0.00685985
0.17717128 0.0662843 0.011163984 0.009913193 0.065829575 0.07867978 -0.040178955 0.0539996
0.14144918 0.13190538 0.011614965 0.11978268 0.039963007 0.11764803 0.05445557 0.103736624
-0.010099069 0.062449344 -0.10344859 -0.0073437435 0.11504772 0.026453443 -0.026843075 -0.13601942
0.13428402 0.048636913 -0.015575962 0.20428355 -0.008405015 0.120568655 -0.164855 -0.036449984
0.06864349 0.01802504 0.13852862 -0.043121964 -0.11194212 -0.0076445173 -0.12542439 -0.10034261

pointer.fc2.bias f4 [128]
00000000: 7d19 74bd 5c8f a43c e6d9 d03d e710 33bd
00000010: f2b9 07bc 98ef e03c 1e30 673d 10c4 963d
00000020: 36e3 33bd fdf6 e83d 68aa 6c3c a99d aabd
00000030: 258f 8f3b 41b9 6dbd 4268 12bd 88fa f7bb
00000040: 93a5 2e3d b56c 31bd c77a eb3c 2e1d b23d
00000050: 5ddc f93c 1866 ee3d 419a 5cbc 96a7 93bd
00000060: 3d4a d03c e105 0f3c b103 943d 58f9 69bc
00000070: b424 d83c 53d1 4ebc a43d d93c 6238 3a3d
00000080: 6d6d ac3c 0abc 9a3d 0d1b de3b 974e a8bd
00000090: 9c3a 98bd 6e46 63bd 5164 e13c 2d08 af3d
000000a0: 5e62 cd3c 3349 38bd f2c9 bc3d 9b3f b33d
000000b0: 100d afbd dac9 ef3b 5849 c2bd 7629 be3c
000000c0: 7951 dc3c b883 36bd d680 37bd 7dc5 b3bd
000000d0: c1f8 9d3d 1ea3 38bd 3b3c 51bc 98d5 a93b
000000e0: afd5 2dbc 94d9 3abd 13d9 57bc 13bf a8bd
000000f0: 3d1a 003b 174c 69bd 1136 8f3d 9271 a9bd
00000100: b1c6 4ebd f41d cabc 6117 71bd 540b d53d
00000110: c373 b03c e25b 223d f1a2 09bd 4523 e73d
00000120: a749 803d aed8 8fbc e95c e1bc 6618 4ebd
00000130: 131b b53d 1489 7e3d 9fc2 623d 0336 fd3c
00000140: 5ddc e03d f7a9 813d 1fa2 5f3d 78f0 46bd
00000150: 28aa 8b3d b261 82bb 7867 2fbd 0b6d 84bd
00000160: 61d7 82bd 33bd a33d 6e75 713d ae2f 84bd
00000170: 4777 313c 479b d93d 7a14 583c ea7b e13c
00000180: 9ccb b53d d2ec 973c 674b 963d 86b0 a83d
00000190: 90d5 35bd 21e1 87bd a491 0a3d 1969 093d
000001a0: b78d fbbd 269d e93c c10b a8bb cc8c d73d
000001b0: a3f0 183d 983d 323d 0481 e43c a8fc 903c
000001c0: a568 933d 1a5b 993d cc8e 693d 4686 ce3d
000001d0: a577 8abd a379 473d 1579 103d 42bf 8fbd
000001e0: b63a 18bd 5c09 c13d 8eca 73bb 3167 17bd
000001f0: 0962 a23d bca3 ab3d 2675 a33d 6c9d 823d
-0.05959462 0.02008789 0.10197811 -0.04371729 -0.008284079 0.027457997 0.056442373 0.07361615
-0.043917857 0.11375234 0.014444925 -0.083308525 0.004381078 -0.058038 -0.03574396 -0.0075677074
0.042638373 -0.04331656 0.028745068 0.08696972 0.030500585 0.116405666 -0.013464511 -0.07209699
0.025426025 0.008729429 0.072272666 -0.01428064 0.026384689 -0.012623149 0.02651865 0.045463927
0.021048272 0.07555397 0.006778127 -0.08218115 -0.07433054 -0.05548709 0.027513655 0.08546481
0.02507132 -0.044991683 0.092182055 0.08752366 -0.08547413 0.0073177638 -0.094866455 0.02321313
0.026894318 -0.04455921 -0.044800602 -0.08777902 0.07713462 -0.045077436 -0.012770708 0.005182933
-0.010610028 -0.045617655 -0.013174313 -0.082395695 0.001954689 -0.05695733 0.06992734 -0.08273615
-0.050482456 -0.024672486 -0.058860186 0.10402551 0.021539574 0.039638408 -0.03360266 0.11286024
0.06264048 -0.017559376 -0.027510123 -0.050316237 0.088430546 0.062142447 0.055361386 0.030909544
0.10979531 0.06331246 0.05459797 -0.048569173 0.06819564 -0.0039789313 -0.042823285 -0.06466111
-0.063887365 0.07995071 0.05894988 -0.06454407 0.010831661 0.1062532 0.013188476 0.027524907
0.08876726 0.018545542 0.073386006 0.08236794 -0.044393122 -0.06634737 0.0338303 0.033547495
-0.12282889 0.028517317 -0.0051283543 0.10524902 0.037338864 0.04351577 0.02789355 0.0176986
0.07197694 0.07488079 0.057020947 0.100842044 -0.06761102 0.048699986 0.035271723 -0.070189014
-0.037165366 0.09425613 -0.003719959 -0.036963645 0.07928855 0.08380839 0.07981329 0.06377682
