trained_models/cvrp/XE_15/model_incumbent_vrpRl13_C_XE_15_P_0.1_84458.pt (torch_old, 469732 bytes, 15 tensors)

all_embed.embed.weight f4 [128, 4]
00000000: 20e3 ebbc 5427 2fbe a8b7 02bf 00a0 a4be
00000010: ed67 59be 396e 3dbe 0c06 29bf d1dd ecbe
00000020: 3907 2f3f 85fe 8ebe 5dc8 f13d e07a 2c3e
00000030: e38f 4d3f 84ed 14be 9cbe 42be 0fa4 323d
00000040: c1b5 0bbe a233 1f3e 1ccc 96bd 4dbd 59be
00000050: e08e fdbe f766 913e dc0a 893f 4da8 ce3e
00000060: 2681 b2bd 8046 2abe 6046 a3bb 10fb 1c3d
00000070: 00b3 29ba 7093 6fbc e08e 38be 643f 91be
00000080: 05a6 023e a93f 6b3f 745b d43d 981b 843e
00000090: 6d8c ef3c f165 c43d 19a1 ea3e a6db ecbd
000000a0: 7e8e 603f 31db c13c 1f09 d7bb dfd6 4b3d
000000b0: 1afe 493f 96f0 183f 1780 13bd 854f 65bd
000000c0: 185a 9fbc 6064 96bc 5cde f7be a30f 0cbf
000000d0: 454e aabd 6760 9fbe 9659 8dbe bda8 8cbd
000000e0: 20c3 5ebc 923d 023e 54d1 09bf e60b 1fbf
000000f0: 6afe 933e ad61 0dbf 65c8 853e c9d7 fcbc
00000100: bc47 c43e 2041 0bbf 5367 8d3e 8274 203e
00000110: eeb3 4e3f dc4b 263f a883 44be 9e4c 3fbe
00000120: 35c6 353c 92a9 94be 4004 713e e5db 0ebe
00000130: 8c51 43be 944c 2a3e e802 4d3e 3c0d 6abd
00000140: 716d 0abf c6ab 273e a370 ca3b 111b 283d
00000150: 9a83 523f 2033 6cbc c043 cd3c b739 91bc
00000160: b8f8 f0bc c058 2fbd b2fe 8abd b4f4 e63d
00000170: 7e83 453e 485d c8bd b081 13bd 94d7 a1bd
00000180: 0899 3bbd 2536 d9bd fdd4 1dbf 06ad 1abf
00000190: 02ab a7be e8bb 113f 37ff e93e 2ce3 a73d
000001a0: 7bda c73e c596 693f 602f 203e eda5 76bc
000001b0: af2f 5b3f c575 b4bd 7b37 20bf 515d ff3d
000001c0: d71a 2a3e f573 4f3e 02d5 71bf 31fd cf3e
000001d0: f545 fb3e a521 ecbe 3b8a c83e f2f4 963d
000001e0: 95b6 803e fd70 7c3f d9f1 4f3e b14c e9bc
000001f0: b7bf 8cbe 5893 de3e 486d 63be e5f1 903e
00000200: 7ece 073f 501d 6a3f 3e59 ad3e 0f34 13bd
00000210: a8aa dd3c 3480 3cbe 3655 00bf a682 d6be
00000220: a11e 073f 89bc 133f 1c9d 14bf 7376 cbbd
00000230: e8b1 a0bd 94b7 3dbd 40ff 2fbf 7053 20bf
00000240: fccc 24bd 80cd 8cba 801b 603b 9ff0 22be
00000250: 6f2b 70be 95d4 003f 3def 9fbe fd30 1c3e
00000260: dc0a f0be cad2 003f f78e 9e3e 4079 c53d
00000270: de32 b93e e4c9 543f 64a1 20be 2e5a 5ebd
00000280: 0c3c 7dbd 2f4b 1bbe ec50 063e 7067 613c
00000290: d8d4 203f 3d72 e7be babb 053e e1ec 0a3e
000002a0: 83d1 953c 8bab c73d 2e69 573f 4bad 5f3e
000002b0: 59a3 f2be 9e6a 7c3e 2966 98bd 09fa e43d
000002c0: f7ba c1bd 4471 db3d 7cef 54be 04ce 69bd
000002d0: 2333 493f c670 5ebe f71c 893e 8835 9a3d
000002e0: 10ea aa3e 1fb4 d8be 93f2 e03d 46ea 413e
000002f0: a53a b53c 84db fcbe 0010 08bf a7f1 bb3e
00000300: 7fc9 403f f681 64be 655a c63e d09b 7c3e
00000310: 1757 563e 4973 0f3f c869 f1be 7918 f93c
00000320: a8df 383e ccd2 ddbd 52a4 29be a015 58bd
00000330: ea2e 2bbd 2d98 0bbf 1159 013e 49ab f2bc
00000340: b973 6cbe b879 c5bd b852 52be 0f3b 4f3e
00000350: cdde 56be 3771 c53e f23d 373e 68c3 15be
00000360: 4304 973e 3257 95be d7e9 773f a513 c53e
00000370: 8f8f bbbd a082 5d3f 9db8 553e 6af3 383e
00000380: 19f2 3a3f 85a2 a5be 9047 193e bb89 243d
00000390: d060 9b3d f8ab 33bd 5c29 d33d 5427 28bd
000003a0: f06a 533f a4cd 933e 7522 97bd 4846 31bd
000003b0: 5e88 fb3e fc5b 253e 730b c1be 797e 3cbe
000003c0: 1089 1f3d 40d6 64bc 00d8 5d3b f600 33be
000003d0: 2980 95be bfd2 f33e f2e7 c6be 93a1 a9bb
000003e0: 00b7 cd3a 6491 913d 1adb 33be 179e c0bd
000003f0: 5f67 7fbd 33be 69bb 2e49 13bf 368a c2be
-0.028794825 -0.17104846 -0.5106149 -0.3215332 -0.21231051 -0.18499078 -0.6602485 -0.46262982
0.68370396 -0.27928558 0.118057944 0.16843748 0.8029768 -0.1454373 -0.19018024 0.04361349
-0.13643552 0.1554704 -0.073631495 -0.21263619 -0.49523067 0.28398868 1.0706439 0.40362778
-0.08716039 -0.16628456 -0.0049827546 0.03832537 -0.00064735115 -0.014622554 -0.18023252 -0.28368676
0.12758644 0.9189401 0.10369006 0.25802302 0.029241765 0.09589756 0.45826033 -0.11565332
0.87717426 0.023664089 -0.0065623666 0.049765464 0.78903353 0.59742105 -0.036010828 -0.05598404
-0.01945214 -0.01835841 -0.48411834 -0.5471136 -0.0831571 -0.31128237 -0.2760741 -0.06868122
-0.013596326 0.127188 -0.53835034 -0.6212753 0.2890504 -0.55227166 0.2612945 -0.030864613
0.3833598 -0.5439625 0.27617893 0.15669444 0.807433 0.649595 -0.19190848 -0.18681571
0.0110946195 -0.29035622 0.23536777 -0.1395107 -0.19074076 0.16630775 0.2002064 -0.057141528
-0.54073244 0.1637412 0.006177978 0.041041438 0.8223206 -0.014416486 0.02505672 -0.017727716
-0.029415473 -0.042809248 -0.067868605 0.11277142 0.19288442 -0.09783417 -0.03601235 -0.079024464
-0.04580024 -0.106060304 -0.6165312 -0.6042026 -0.32747656 0.5692735 0.45702526 0.081976265
0.39033875 0.9124568 0.15643072 -0.015054208 0.85619634 -0.08811525 -0.62584656 0.124689706
0.16611801 0.20259078 -0.9446565 0.40622857 0.4907681 -0.4611942 0.3916796 0.07370938
0.251393 0.98609906 0.20307101 -0.028478952 -0.27490017 0.4347179 -0.22209656 0.2830955
0.5304946 0.9145098 0.3385715 -0.03593832 0.027058914 -0.1840828 -0.5013002 -0.41896552
0.5278111 0.57709557 -0.5805223 -0.09934702 -0.07846433 -0.046317652 -0.68748856 -0.62627316
-0.04023455 -0.0010742396 0.0034196079 -0.15912102 -0.23454069 0.50324374 -0.31237212 0.15253063
-0.46883285 0.5032164 0.3096845 0.09642267 0.3617162 0.8312056 -0.15686566 -0.05428522
-0.061824843 -0.15165399 0.13116807 0.013757572 0.62824774 -0.45204344 0.13059893 0.13566925
0.01828838 0.09749516 0.84144866 0.2184345 -0.4739025 0.24650046 -0.074413605 0.11180503
-0.09459489 0.10714963 -0.20794481 -0.057081237 0.78593653 -0.21722707 0.2677991 0.075297415
0.333817 -0.4232492 0.10983767 0.18937024 0.02212269 -0.49386227 -0.53149414 0.36707804
0.7530746 -0.22315201 0.3874084 0.24668813 0.2093166 0.56035286 -0.47151017 0.030407177
0.18054068 -0.10831222 -0.1656659 -0.052755 -0.041792788 -0.54529077 0.12631632 -0.02962269
-0.2309102 -0.09642357 -0.20539367 0.20237373 -0.20983429 0.3856294 0.17894724 -0.14625323
0.2949544 -0.29168087 0.96841186 0.3849155 -0.09158241 0.8652744 0.20871206 0.18061605
0.7302566 -0.32350555 0.14968705 0.040170413 0.07586825 -0.043865174 0.10310623 -0.04105313
0.8258505 0.2886783 -0.07379619 -0.043279916 0.49127477 0.1614837 -0.37704048 -0.1840762
0.038949072 -0.013967097 0.003385067 -0.17480835 -0.2919934 0.47621724 -0.38848835 -0.005176732
0.0015694797 0.07107809 -0.1756405 -0.09405153 -0.06235444 -0.0035666346 -0.5753354 -0.37996072

all_embed.embed.bias f4 [128]
00000000: 24ec 533e c78f a33e 0d05 993d 404c c93d
00000010: 16e4 e9be 3709 1bbe fc6e bfbe 5d5d 8b3e
00000020: e2ff 593e e868 6c3e d632 98bd f5a5 f93d
00000030: 3397 f93e abfa 013f 8578 c93e 658d 103f
00000040: 918c 993e 8e16 e43e 218a 053f 7231 a2be
00000050: 304e 283f e963 483d 640c b5be 125f 92be
00000060: f2a7 c13e 5610 e83e 780d c3bd fd54 383e
00000070: de2c f0be b6f3 e33e a851 9fbb d0b8 66bd
00000080: 1aac 1dbe b3c4 c83e e239 0a3f 8a8e 1a3e
00000090: 1cab f8be f272 c43e 08dc 953e bd4b d53e
000000a0: e40c e0be 1e0a 773e a109 c5be 4369 113f
000000b0: 1a33 c5be 2a1d 833d 1b20 403e 9166 1cbe
000000c0: 23a0 87bd aacf 923e b030 81be a8c7 1c3f
000000d0: 61ef 2d3f e986 0f3f 5797 84be 21a5 3fbe
000000e0: 2b93 623e 3407 31be 9961 d73e 2c81 a43d
000000f0: 6035 f9be 78b5 0c3f f837 cabe 2607 bc3e
00000100: a682 043e c7f8 3b3f f4e3 ba3d 068c a3be
00000110: 486c 5d3e 138f 5dbd 207c 8fbe dfc0 a4bc
00000120: 1ae7 be3e fede a5be 03b8 033e c9fd 623e
00000130: 4d6c 133f b633 06bd c313 13be 1cfb 5dbe
00000140: 8fde f23e 2300 583e 937a 913e 54f2 f93c
00000150: 0e5a a03c 321d 9bbe f2b6 babd f9f7 25bc
00000160: 802d 583e 5ca4 00be 1df4 eb3d 3ef8 a33c
00000170: 926b b6be 15ed f83e 62a8 823d 37a8 833e
00000180: 6007 c8be ea5e 4f3e 755c b3be 9f02 f1bc
00000190: 4eb8 a8be 7403 78bd 057e ec3d 83b8 71be
000001a0: 0a72 24b8 8213 d03d 1961 303e e275 a9be
000001b0: 3b25 c33e 37e7 cc3d 0b94 fb3d d981 1dbe
000001c0: ee61 e83e c804 d9be 935d 28be 3633 0b3f
000001d0: 9dcc c93c 062c 0a3f 7f6c 11be de4a 03bd
000001e0: 7c2c e1be 842c 113f a201 e4bd 6add 613e
000001f0: bb8e b73e 1a2b 83be c567 773e dcc1 8ebe
0.20695549 0.3194563 0.074716665 0.09828997 -0.45681828 -0.15140234 -0.37389362 0.27219668
0.21289018 0.23086894 -0.07431571 0.12189857 0.48748168 0.50773114 0.39349762 0.5646575
0.29990056 0.44548458 0.52163893 -0.3167835 0.65744305 0.048923407 -0.35361016 -0.28588158
0.37823445 0.45324963 -0.09524053 0.1800117 -0.4690923 0.44521874 -0.004862029 -0.056328595
-0.15397683 0.3921257 0.5399457 0.15093437 -0.48568046 0.38368946 0.29269433 0.41659346
-0.43759835 0.24124953 -0.3848391 0.5680124 -0.3851555 0.06402047 0.18762247 -0.15273501
-0.066223405 0.2867406 -0.25232458 0.6124215 0.6794339 0.5606523 -0.25896713 -0.18715335
0.22126453 -0.17287904 0.4206665 0.0803245 -0.48673534 0.549644 -0.39495826 0.36724204
0.12940463 0.7342648 0.0912551 -0.31942767 0.21623337 -0.054091524 -0.28024387 -0.0201115
0.37285691 -0.32396692 0.12863164 0.22167124 0.5758713 -0.03276416 -0.14363007 -0.21677822
0.47435424 0.21093802 0.2841383 0.030511059 0.019574191 -0.30295712 -0.09116925 -0.010129922
0.21111107 -0.12562698 0.1152117 0.020015832 -0.35628945 0.4861838 0.06379773 0.25714275
-0.39068127 0.2025105 -0.35031477 -0.029420195 -0.32953113 -0.06055017 0.11547474 -0.23605542
-3.9206854e-05 0.10159971 0.1722454 -0.3309775 0.38114342 0.10005038 0.12284096 -0.15381564
0.45387214 -0.4238646 -0.16441946 0.54375017 0.0246337 0.53973424 -0.14201544 -0.03205382
-0.4397925 0.5670855 -0.11133124 0.22057119 0.35851082 -0.2561882 0.24160679 -0.27882278

all_embed.embed_2.weight f4 [128, 128]
00000000: 9634 9e3e ea4c be3e 550e b5bd cae5 b93c
00000010: 8aaf 72bd c96a 24be 05b7 a2bd 2476 763e
00000020: 4c1d bd3d 8ee0 44bd 3eb0 903d ecb5 523e
00000030: 5f30 7a3e 3515 723e 9a19 b03d 15a1 6dbd
00000040: 830f 3bbd 018d 5d3d ad04 f23d 5585 0bbe
00000050: d487 26bd d5f8 24bd 3f33 f1bd 48f5 03be
00000060: b798 693e 9157 13bd 56e8 173e 7b5e 253e
00000070: 8599 3d3d b130 da3d caf6 793d 2634 71bd
00000080: c5be 46bd e1dd 5d3e a473 8f3e 2820 263e
00000090: 0039 d8bb 91db e8bd bb5e aebc e476 46bd
000000a0: 2eb0 28bd be01 a43c bff5 7b3e 727a 01bd
000000b0: 8224 e2bd db57 11be 4ef9 b3bd 7dd6 b3bd
000000c0: 11c9 39be 089c 153e e09d 683c 9858 233e
000000d0: 4045 b7bd 7268 8abd 9589 72be 079b 083d
000000e0: 9157 02be 4f98 1b3e 6e2a 9ebc 09a6 c93e
000000f0: 0070 49bb 7ef0 703d b04a 773d ded2 923e
00000100: c356 4ebe af34 c6bd 5a36 e8bd 50f2 37bd
00000110: 8cbf 843e 0f5f c83c 00b5 3fbb ca73 7bbd
00000120: 9362 fe3d de57 2ebd 01de 1a3d f808 2e3c
00000130: 3a0d 633e 1a2c 32bb fa69 30be a236 38bd
00000140: a3e1 9bbc fbdb a3bd 3778 253e 68b0 103e
00000150: dc67 26be 10b8 13be 897a b7bd 84eb a03c
00000160: 6e7b 8f3d fb87 e2bd af7f debc 71de db3d
00000170: fdeb 0a3e de8b 76bb 9296 3bbd 8440 1d3e
00000180: 80c9 c4bc 5423 183e 4641 573e 8bfe 0f3b
00000190: f64c 30bd 7f71 3fbe b993 5f3d f810 3e3e
000001a0: 216d 84bc 33ac 1e3e 8a23 bc3d 0908 b23c
000001b0: 9837 1d3e bc0f 3abd 2ea0 2abe 59b5 fcbc
000001c0: 13c0 c73d 122e 8e3d b2f3 273e 01a6 82bd
000001d0: 5c54 c2bd 37cb 0abd e2d0 70bd af7b f4bd
000001e0: 5e55 03be 74e8 ba3c 17cb 72be 4025 a7bd
000001f0: 2689 9c3e c066 d7bb 161e a0bd f16d 37be
00000200: 660d 963e cf9d d23d 4c01 10bc 335b 7ebb
00000210: 66a1 42bd a396 8ebc 1084 8dbc 1e9c 1b3e
00000220: 6ffb 00bd 5473 e53d 3738 293e 823a 193e
00000230: 9241 8b3e ef08 8b3e eace 823e 3246 0f3e
00000240: f97b 04bc c95f 8a3d 6113 4cbd 6f65 a7bd
00000250: d8ce 3cbe 6cfd 1d3d 8890 cebc 94e4 3b3d
00000260: 392c 853e bed8 99bd c97a de3d 6118 3bbe
00000270: 5c66 dfbd 3f9b f1bd 6601 5a3e e9c6 2bbe
00000280: 2d52 8f3d 021c 9a3e 9c30 863e 3670 443e
00000290: 0ed1 a6bd 4461 19bd ce8c 55bc bb61 833d
000002a0: 9863 92bc c50a ac3d 48c1 e13e 0bf1 c13c
000002b0: 60cb 10be e968 fcbd 04ed b0bd da9f 92be
000002c0: e908 30be 2835 12bd 5511 183e da42 89bc
000002d0: 12c7 fabd 071c e73c 08fa 383c a0c1 593e
000002e0: b2a2 a5bc 3c0c 86bd 3ba9 e63c e654 063e
000002f0: bd43 033e b610 d43d 6540 8dbd 7cb0 443e
00000300: 5a1a 13be c31d 02bd 9bee 013d 4828 903d
00000310: af42 0e3e 86cf 7fbc 00c3 cfbb e7e4 09bd
00000320: f725 273e 34a6 af3d bedf f43d 48f1 a8bd
00000330: 3831 b13d fe39 2c3e 5c2f 2fbe b4d8 07be
00000340: eeab ca3d 6b9a 2e3d 347c b93d 1bc9 703d
00000350: 099a f93c 7971 b1bd e24b d3bd e327 05be
00000360: 4fc7 823e 7a38 713d 899b 39be 5ab2 743d
00000370: c870 e23c d871 183e f95a 443c 8a80 123d
00000380: 1f4e 183e b0cb c63d 2372 e1bd 6a22 1abd
00000390: 8eef 0dbe bd30 7ebd 6d58 093c 9aec 37be
000003a0: 5800 19bd d858 1bbe 3859 03be f42b 9bbe
000003b0: ae67 a5bd 8566 f0bd 8ea4 243d 345c 05bd
000003c0: fb1f 0bbd 018c 15be 0483 853d 75d0 253d
000003d0: 07f4 41be 63d2 87bd 52da 343e 5440 09be
000003e0: a80f 0f3d 5355 133d ce9b 45be c3dc 55be
000003f0: 6fc6 d73d 30cb 15be 7eeb 793d 0677 fbbd
0.30899495 0.37168056 -0.08840624 0.02269258 -0.05924944 -0.1605636 -0.079450645 0.24068505
0.092341036 -0.048065715 0.070648655 0.2057721 0.24432515 0.23640902 0.08598633 -0.058014948
-0.04566909 0.05408955 0.11817298 -0.13625081 -0.04065688 -0.040276367 -0.117773525 -0.12886536
0.22812162 -0.03597218 0.14834723 0.16149323 0.046288986 0.106538184 0.061026372 -0.058887623
-0.048521776 0.21666671 0.28017914 0.16223204 -0.006598592 -0.11370004 -0.021285405 -0.048453227
-0.041183643 0.020020362 0.24605463 -0.031610914 -0.110421196 -0.1419367 -0.087877855 -0.08781145
-0.18143107 0.14610302 0.014197797 0.15951765 -0.08948755 -0.067582026 -0.23685296 0.03335097
-0.12728716 0.1519482 -0.019307341 0.39384487 -0.0030736923 0.0588231 0.060373962 0.28676504
-0.20150284 -0.09678017 -0.11338492 -0.04490882 0.2592739 0.02445939 -0.0029252172 -0.061389722
0.12421145 -0.042564265 0.037809376 0.0106222555 0.22173014 -0.002718693 -0.17227927 -0.044973977
-0.01902849 -0.08000942 0.1615914 0.14129794 -0.16250557 -0.14425683 -0.089589186 0.019643553
0.07005964 -0.110610925 -0.027160494 0.10735787 0.13566585 -0.0037619988 -0.045797892 0.15356642
-0.024021864 0.14857227 0.21020994 0.0021971788 -0.043042146 -0.18695639 0.05458424 0.1856116
-0.016165318 0.15495376 0.09186466 0.021732347 0.15353239 -0.04542516 -0.16662666 -0.030848192
0.09753432 0.06942381 0.16401556 -0.06379319 -0.094887465 -0.033885207 -0.058792956 -0.11937653
-0.12825534 0.02281592 -0.23710285 -0.08161402 0.30573386 -0.006573528 -0.078182384 -0.17913033
0.29307097 0.10284006 -0.008789372 -0.0038811683 -0.047517203 -0.017405814 -0.017274886 0.15196273
-0.031489786 0.11203638 0.1652535 0.14963725 0.27198464 0.27155253 0.25548488 0.13991621
-0.008086198 0.06756551 -0.04982317 -0.08173644 -0.1843828 0.03857176 -0.025215402 0.045872286
0.26010302 -0.075120434 0.10863263 -0.18271019 -0.109081954 -0.11797189 0.21289596 -0.16775097
0.06998096 0.30099493 0.2620896 0.1918343 -0.08145343 -0.037446275 -0.013034059 0.06415125
-0.017869756 0.084004916 0.44092774 0.023674509 -0.14140081 -0.123246975 -0.08638957 -0.28637582
-0.17190899 -0.035695225 0.14850362 -0.01675551 -0.12245001 0.028211607 0.011290081 0.21265268
-0.02021918 -0.06545302 0.028156867 0.13118324 0.12818809 0.1035475 -0.06897048 0.19207948
-0.14365521 -0.031766664 0.031721693 0.07038933 0.13892625 -0.015613442 -0.0063403845 -0.033665564
0.16323076 0.085766226 0.11956738 -0.08249146 0.08651966 0.16818997 -0.1710791 -0.1326626
0.09896074 0.042627733 0.09056893 0.05878554 0.030468957 -0.08664221 -0.10317208 -0.13003497
0.25542685 0.05889175 -0.18125738 0.0597404 0.027641669 0.14887178 0.01198458 0.035767116
0.14873551 0.09706819 -0.11008098 -0.037630476 -0.13860914 -0.0620582 0.008382899 -0.1796135
-0.037353843 -0.1517061 -0.12827003 -0.3030697 -0.08076416 -0.11738304 0.040195994 -0.032558635
-0.033966046 -0.14604189 0.0651913 0.040482003 -0.18940745 -0.06631925 0.17661408 -0.13403445
0.03492704 0.035970043 -0.19297716 -0.20884995 0.10535895 -0.14628291 0.0610156 -0.12278561

all_embed.embed_2.bias f4 [128]
00000000: 2eaf c83d 0c12 c8bc c5d6 81bc 3436 99bd
00000010: 0c2d f83c ef19 1dbc f995 f73a 86fd 07be
00000020: dfd0 84bd 0d9f b9ba 9110 39be dcbc d93c
00000030: 0398 c4bd 3055 dfbd 034e cb3d db51 3cbe
00000040: b039 e2bd 38b4 3fbe a197 71be 0221 53bd
00000050: a633 183d 5f59 373d 629c 05be 0f5b 40be
00000060: 83a2 49be d766 4fbe d54d bdbd c8f0 a5bc
00000070: c313 c73c 9934 8f3b 69a2 8e3d 9fa8 29bd
00000080: 0917 34be 31f3 4a3d 6505 9abd ab17 58be
00000090: 6e30 a4be f6cb 3b3e 550a 35be 594c 0ebe
000000a0: 6145 533c de5f aebd 74c9 d3be 1b1f 8ebb
000000b0: fed8 2fbe 6290 2abd 6fb5 8c3d 4b89 203e
000000c0: d447 09be 4a41 29bd f65e 07be 1c1b cdbd
000000d0: fbf0 c1bd 4e9f 02bc 3165 65bd 5da0 41bc
000000e0: 5a90 203d 82a7 9c3c c43e 9dbd fcde 08bd
000000f0: c6d9 bcbd 4713 273c d095 f23d a2f1 e2bc
00000100: 887f 413d 0928 df3d 11c9 90be 38c0 1ebe
00000110: 8af6 29be 2dd4 67be e4fa 3bbd e5b8 1e3d
00000120: e9b8 10be 754a cabd 41b4 9abd 0bc4 93bb
00000130: 1fb8 4dbe 4d93 a5be ed8a c93d dfb9 ac3c
00000140: 05ff 8e3d 35d4 d2bc 0694 15be aa3c 8d3d
00000150: 05d6 cbbb 6699 1bbe 5057 8bbe bd84 01be
00000160: 2a4c 1b3d 5b7b 033d d395 1cbe ca7f 0b3d
00000170: aeb8 69bd d813 27bd 6c15 c2bd fdcb 26bd
00000180: ef4a 4abd 8944 863d 2c58 54bd 313d f5bd
00000190: c39e 043d a707 28bc fc65 9fbc fcf4 0c3e
000001a0: 893d bcbe eb36 e63b f9c3 31bb f701 173e
000001b0: e20d 1ebe e792 b8bd bbdd e33b d6ee 25be
000001c0: 3b69 69bc 2883 9abe 7039 1fbd 5686 05be
000001d0: a69b ccbd 6c3f e7bd c624 59be 2d2e b6bd
000001e0: b31e 013b b3a2 10be a2a5 f23d 5df3 b9bd
000001f0: 3dee dfbd 8c1d a1bd 4324 0d3d dd06 efbd
0.09799038 -0.024422668 -0.01584948 -0.074810416 0.030294918 -0.009588703 0.00188893 -0.13280305
-0.064851515 -0.0014161781 -0.18072726 0.026579313 -0.095993064 -0.1090492 0.09926989 -0.183906
-0.11046159 -0.18721092 -0.23592998 -0.05154515 0.03715863 0.044762965 -0.13047937 -0.18784736
-0.196909 -0.20254074 -0.09243361 -0.020256415 0.024301415 0.004370284 0.06964571 -0.041420575
-0.17586912 0.04954833 -0.0752056 -0.21102779 -0.320682 0.18339524 -0.17679723 -0.13896312
0.012894959 -0.08514379 -0.41364634 -0.004337204 -0.1717262 -0.0416416 0.06870543 0.15677373
-0.13406307 -0.04132203 -0.13219818 -0.10014936 -0.094697915 -0.0079725515 -0.056004707 -0.011818019
0.039200164 0.019122843 -0.07677987 -0.03341578 -0.092212245 0.010197467 0.11844981 -0.02770311
0.047240764 0.10896308 -0.28278401 -0.15503013 -0.16597953 -0.22639532 -0.045893565 0.038750548
-0.14133038 -0.09877483 -0.07553912 -0.004509454 -0.20089768 -0.32338944 0.09840951 0.021084724
0.06982235 -0.025735954 -0.14607248 0.068963364 -0.0062205815 -0.15195236 -0.27215052 -0.12648292
0.037914433 0.032100063 -0.15291528 0.034057416 -0.05706089 -0.04079041 -0.09476742 -0.040721882
-0.04938787 0.06556041 -0.0518419 -0.11974562 0.03237797 -0.010255731 -0.01945781 0.13765329
-0.36765698 0.0070255897 -0.0027124865 0.14746843 -0.15434983 -0.090123944 0.0069539226 -0.1620439
-0.01424628 -0.3017819 -0.038873136 -0.13039526 -0.09990625 -0.11291394 -0.21205434 -0.08895526
0.0019702136 -0.14124565 0.11847998 -0.09079621 -0.10934112 -0.07866964 0.03445841 -0.11671231

pointer.v f4 [1, 1, 128]
00000000: 4648 6d3e f60b 793e 4134 cdbf a51f babf
00000010: f446 85bf 21dc 553f 427d bfbf 0973 b93f
00000020: 7738 143f c509 f9be b0a0 0c3f 1917 913e
00000030: 191c a23f 2a65 9c3f 86af 40c0 c9c8 0040
00000040: 5840 c83f 9df9 a33f 7d76 c93f e819 773e
00000050: 9c87 5bbe cb1c 1abf 1cda 3bbf 8db3 f93f
00000060: 9ead 12c0 204a 093f b281 6cbf 0cb4 563f
00000070: 88ed adbf a4ff 8bbf 1740 92bf 952b 98bf
00000080: 3ba1 9c3f a8eb 9fbe 57f0 c7bf d964 bb3f
00000090: 515b b33f 67d1 60bf 1222 9e3f c9ed ae3e
000000a0: 04cb 5bbf b0b2 883f 776b 1d40 534a 1540
000000b0: 0ae6 9ebf ec4f 1d3f 990b 4cbf 71f3 4cbf
000000c0: f6df 813f 8ee6 4f3e 6889 0540 37da 503f
000000d0: f231 66bf b4e2 51bf 3ab5 0640 297a e33d
000000e0: abfe 86bf 83f3 3c3f c8e6 56bf 8997 d83e
000000f0: c836 3d3f 46fc 33bf d2a6 9bbf 1abc 4dbb
00000100: e6fa 61bf 4e3a 78bf a2af d53f 0659 c0bf
00000110: e7d2 22c0 a470 b03f 7f7a c5bf c538 e1bf
00000120: 4fd1 4d40 0363 8d3f 6248 e93f 12de 933e
00000130: 2206 b03f 3a26 0f40 b137 c43f 9cad e23f
00000140: 8dd3 75bf 483d 17bf c199 7abf 8d25 f6bf
00000150: 8550 0a40 466a 8e3f 0680 1140 508b c1bf
00000160: 634b 6d3e 4658 44be ec58 15c0 0f66 03c0
00000170: 45f1 9dbf b550 f03f 80e8 153f d9f7 04be
00000180: e175 88bf b72f 01c0 a986 1bc0 d486 afbf
00000190: 0233 b8bf 6bd6 853f 1080 30bf b8fb 35bf
000001a0: 7895 ed3f b66f a73e 63f4 5b3e 8236 803f
000001b0: c0d6 b23e a9ee 603f 1fd2 3a3f 03ce 853f
000001c0: 0c9d 19bf e53b 0d40 44cf cebf 3e66 a73f
000001d0: d410 6a3f d7fd 1a40 4539 c03f fd5c adbf
000001e0: 222f 5bbf ce1a e13f a928 9f3e d429 ff3e
000001f0: 1fa9 4ebf 05d9 1d40 e4fe 333f 8adb 31bf
0.23172101 0.24320969 -1.6031572 -1.4540907 -1.0412278 0.83539015 -1.4960101 1.4488231
0.5789866 -0.48640266 0.5493269 0.28337935 1.2664825 1.2218373 -3.010713 2.012255
1.5644636 1.2810551 1.5739285 0.24130976 -0.2143845 -0.60200185 -0.73379683 1.950792
-2.2918468 0.5362873 -0.923854 0.8386848 -1.3588114 -1.093739 -1.1425809 -1.18883
1.2236704 -0.3123448 -1.5620221 1.4640151 1.4012243 -0.8781952 1.2354147 0.3416579
-0.8585665 1.0679531 2.4596841 2.3326614 -1.2413952 0.61450076 -0.79705197 -0.8005896
1.0146472 0.20302793 2.0865116 0.8158297 -0.8991996 -0.81986547 2.1048112 0.111072846
-1.0546468 0.7380907 -0.83945894 0.42303112 0.73911715 -0.70306814 -1.2160285 -0.0031392635
-0.88273466 -0.96963966 1.6694224 -1.5027168 -2.5441225 1.3784375 -1.5428008 -1.759545
3.2159002 1.1045841 1.8225214 0.28880364 1.3751872 2.2367082 1.5329496 1.7709231
-0.96025926 -0.5907788 -0.9789086 -1.923021 2.1611645 1.1126182 2.273439 -1.512064
0.23173289 -0.19174299 -2.3335524 -2.0531042 -1.2339255 1.877463 0.5855789 -0.12985171
-1.0660974 -2.0185373 -2.430094 -1.3713021 -1.4390566 1.045606 -0.6894541 -0.7108722
1.8561239 0.32702416 0.21479945 1.0016634 0.34929466 0.87864166 0.7297687 1.0453495
-0.6000526 2.2067807 -1.6157002 1.3078077 0.9143193 2.4217432 1.5017477 -1.3544003
-0.85618794 1.7586305 0.3108571 0.498366 -0.8072681 2.4663708 0.7031081 -0.69475615

pointer.encoder_attn.v f4 [1, 1, 128]
00000000: 746e 67bd f05b 3e3e 6fd4 203d f47f b03d
00000010: 12a2 b1bd 1614 acbd 11da e5bd 4397 25be
00000020: bb84 d2bd 67b1 e7bd 6523 113e d022 8cbd
00000030: 0e81 e93d 383a 09bd e775 d63d ca07 273d
00000040: 6216 c83d 64e0 6bbe a8f4 ed3c 55f4 05be
00000050: 2671 cebc b702 d7bc e3d5 cd3d adbe e13d
00000060: 6dfd debd 6e49 733d c1f6 bfbd 4024 f43d
00000070: 46c8 f3bd 0545 92bd 62b8 febd 8445 ef3b
00000080: 080f 733e a155 773d 9bfd 093e fd11 debc
00000090: 06da 5a3d 271e 73be 26c2 b43c eaca 623e
000000a0: 2ca0 7c3c 9faa a03e 9834 b2bc a89a 91bc
000000b0: 2fb7 cdbd 359b 19bd 83ed ee3d 1b01 32be
000000c0: 4598 b3bc 8eb3 cc3d 110b d9bc e31a c73c
000000d0: af50 bb3c 5f97 ca3c e80a 68bd 9e57 c4bd
000000e0: 94db a93d 992a 64be ae01 82bd fd87 84bd
000000f0: f34d 483d d1f4 913d 5f0b e23d 29e2 993d
00000100: e77f a3bc 3177 c8bd 7adf f5bd 4250 7d3e
00000110: d0db fbbc 3d52 853d a44f f4bc c8c6 d03d
00000120: 65e6 db3c 908c 1a3d e90e b3bd e4f2 ac3d
00000130: 8458 dcbd fd08 3dbd 69c8 0dbd 59d8 20bd
00000140: 8b00 efbc 7068 003e 6358 d73d 6d70 c63b
00000150: f42b c1bd bb77 033e b62d 8f3d c277 e63c
00000160: 7a9a d3bd 9356 80be 933d a6bd ccef 723e
00000170: 88f8 89bd ed9f 463d 0e5a 563d 5458 22bd
00000180: e67a dfbc 726e c4bc cfdd e1bc c195 d6bd
00000190: 3961 8a3c 5ad8 9dbd bda2 273d b6b1 d13c
000001a0: 8c30 26be 3663 d4bd 3e0e 8cbd 202f 8fbd
000001b0: 5a2e f1bc 31c1 9e3d 18d2 15bd 4da6 acbd
000001c0: 5b2a 753c 425a 483e 53c8 eabc 0202 113e
000001d0: d2db 00bf 41b3 b93e 8558 b2bc 2617 923e
000001e0: b444 83bd 06bb 6f3d 5ff8 e53d 04a3 eebc
000001f0: d8af e1bd 1563 ddbc f4f4 a2bc 4f20 d73c
-0.05650182 0.18589759 0.039265092 0.08618155 -0.086734906 -0.084022686 -0.112232335 -0.16170983
-0.102792226 -0.11313134 0.14173658 -0.068425775 0.11401568 -0.033502787 0.10471707 0.040778913
0.09769894 -0.23034817 0.029047325 -0.13081487 -0.025200438 -0.026246412 0.10050561 0.11022697
-0.10888181 0.0593962 -0.093732364 0.11920977 -0.119034335 -0.07142071 -0.12437512 0.007301988
0.23736203 0.060384396 0.13475649 -0.027108187 0.05343058 -0.23741971 0.022065233 0.22147718
0.015419047 0.31380174 -0.021753594 -0.017773941 -0.10044705 -0.037501533 0.116663955 -0.17383234
-0.021923194 0.09995185 -0.026494535 0.024304813 0.022865621 0.024730382 -0.056651026 -0.09587024
0.08293834 -0.22281875 -0.063479766 -0.0647125 0.048902463 0.07126773 0.11037325 0.0751384
-0.01995845 -0.09788359 -0.120055154 0.24737647 -0.030744463 0.06509826 -0.029823132 0.101941645
0.02684326 0.037731707 -0.08743078 0.08444765 -0.107590705 -0.04615115 -0.034614954 -0.039268825
-0.029175064 0.1253984 0.10514905 0.0060558827 -0.094322115 0.12838642 0.069911405 0.028133277
-0.103321984 -0.2506605 -0.08117213 0.23724288 -0.06736857 0.04849236 0.052331977 -0.039635018
-0.027280282 -0.023978446 -0.027571587 -0.10477782 0.016892063 -0.077072814 0.040926684 0.025597434
-0.16229457 -0.103704855 -0.06838654 -0.0699141 -0.029441047 0.07751692 -0.036577314 -0.08430157
0.014963712 0.1956568 -0.028659975 0.14160922 -0.5033542 0.36269572 -0.021770725 0.28533286
-0.064095885 0.05852797 0.11229014 -0.029130466 -0.11019868 -0.027024785 -0.019892193 0.026260523

pointer.encoder_attn.W f4 [1, 128, 256]
00000000: 4a10 d83c 2c6e f63c 759f 9bbc d027 44bd
00000010: 8a96 30bd 8c06 793d 47eb 9abd 6d0e 923d
00000020: dc5f f93c af8c 133d ef1c a4b9 4608 973d
00000030: 1374 c23d 7a62 3e3d 10c1 4cbc a44c 263d
00000040: da33 493d 1dda ce3c 44a9 3d3d 66a5 7a3d
00000050: 7613 7abc 8802 71bc c83f 07bc 3c3b b23c
00000060: b507 163d cecd a93c 7162 8dbd 78bb 6bbd
00000070: eef1 5ebd 0d84 2ebd e44b 71bc deae f2bc
00000080: 103a 053d 16c8 a1bc 613b 8dbd 4096 5d3d
00000090: e258 703d a8a9 19bc 4f1c 913d 1f85 52bb
000000a0: 5949 453d 739b 193d 39ab 093d e5dd 533c
000000b0: 7adf 7cbd 4597 2fbd 3b1b 53bd 2b2f 513c
000000c0: 5cd9 2e3d fd6e 0e3d b98d 42bd aa52 993d
000000d0: 58be 84bd 1f18 0f3d a2b2 523d 392a 183d
000000e0: cf03 7fbd ae8f 383d 301e 9d3c 0b18 923c
000000f0: 8aea 853d 023a 833d 5d91 7dbd 562e 6e3c
00000100: 3a47 24bd fcee 7cbd c300 0c3d 1a6f 3a3d
00000110: 7ba7 fe3d 9554 143d 807f 653d 08b4 8f3c
00000120: d257 473d 9f75 363c 5f47 87bc 6ce0 4f3d
00000130: 923d 4b3d 6a9b d13c 03b8 1abd 88d0 afba
00000140: 4f3f 3a3d 1b15 35bd 4647 0bbd 8e25 41bd
00000150: 3bdd 9abb 4334 433d 1733 30bc d9ce ce3d
00000160: 3824 353d df00 07bd ffe5 e63c 18f8 08bd
00000170: 4529 5cbd c606 22bc fb0d 003d 98e7 6cbd
00000180: 806f 92bd cbb3 9f3b 8474 933d 0128 c93d
00000190: 27fb a1bd 61bd b03d 6d7c f0bc 6711 1a3d
000001a0: 8294 753d ffe3 253d e02c f33c 38ed 243d
000001b0: 6c03 9d3c 4033 8a3d 5a79 2bbd 2374 3f3a
000001c0: 65ed 433d 555e 603d da66 8f3d 0bc9 123d
000001d0: 6450 af3d 3efe 623d 04b0 2b3d 72d1 12bd
000001e0: 419d 81bd 1874 783d cf8e 4f3d f7a5 033d
000001f0: 93e2 50bd fe16 5f3d 2bf3 09bd ee2f 96bc
00000200: a978 ee3c 12ab fb3d 43e2 a23d beb7 8cbd
00000210: 7f64 cbbd 55d0 263e 0c4b ed3d 7755 0fbd
00000220: e74b d33d c500 763d 93a4 fd3d 5dd9 c43d
00000230: d8a9 b43d 4c27 9c3d 12ab fe3d 4e54 e3bc
00000240: 6d99 e93c e459 8abd 49b5 03be cfa5 8e3d
00000250: bc61 793d c36b 18bd bccc ea3d 4cf5 bb3d
00000260: 4146 7abd a50c 9c3c 574b d13c 5148 60bd
00000270: 4f3f 933d 51c4 ba3d 8d1c 823c 7ed1 b8bd
00000280: 88a6 50bd 96e8 5dbd 7401 38bc 8549 1ebd
00000290: 951a 71bd 5c81 863d 2f8c 99bd 176c f23c
000002a0: f15d 533d e361 b7bd fa4e fbbd 1a47 88bd
000002b0: 620e eebd 327a f2bc a431 adbd a738 d13d
000002c0: c2fa 74bb 7d68 98bd 5c10 5c3d 39c5 77bc
000002d0: 3df8 38bd 99af f0bd b60a fd3d 9e2a a3bd
000002e0: d8ac 6f3d 9383 f93c 0b9f 16bc ce57 a83d
000002f0: ae63 b83d f115 aebd 2679 183e 1140 fcbd
00000300: 05c8 bdbd 22aa d93d 79eb ecbd 1b7a 06be
00000310: ffb1 043d ab7f d5bd b72c bf3d 4ccf 13bd
00000320: 003c c1bd 03b4 613d 42ff 08bd 3693 a9bd
00000330: e181 0fbe 9707 cf3d 09c9 3dbd 2f69 f0bb
00000340: eb8a e73c 576f cfbd 64fc 60bd 04ca 953d
00000350: 44bb 8b3d 130b cf3d 8351 ff3d 94cb a5bd
00000360: 2db2 0f3e 17cf 92bd 5be5 793d 7a33 2bbc
00000370: 8418 b0bd 9ede 063e 9532 be3d a7b2 07bd
00000380: 77b2 afbd 2974 e13d c7e3 6abd 007b d93d
00000390: 0e04 683d 60be e53d e0e4 ba3d 268c c83c
000003a0: afd1 e6bd a478 37bd 9d7b 89bd 6ec4 d93d
000003b0: 386e 8cbd 86cc a7bd 6341 44bd 375f 193d
000003c0: 85d8 5abd ddca 8c3d 7a9e ae3d 0ba2 123c
000003d0: 368d c83d 41b0 c43d b5c6 903d 4762 0e3c
000003e0: a9a7 3b3d 188d c53d a332 25bd 9116 f23d
000003f0: 8f2b aebb 1935 a0bc 83ac 2fbd 700c db3c
0.026374955 0.03008183 -0.018996933 -0.04788953 -0.043112315 0.06079726 -0.07564407 0.07131658
0.030441217 0.03602284 -0.00031302075 0.07374625 0.09494796 0.046480633 -0.012497202 0.040600434
0.049121715 0.025250489 0.046304002 0.061192892 -0.015263429 -0.014710076 -0.008254953 0.02175676
0.036628444 0.020728018 -0.06903542 -0.05755183 -0.05442994 -0.042606402 -0.014727566 -0.029624399
0.032526076 -0.019748729 -0.06896091 0.054098368 0.058678515 -0.009378828 0.070854776 -0.0032122803
0.048165653 0.037501764 0.033610556 0.012931322 -0.06173656 -0.04286887 -0.05153964 0.012767593
0.04268776 0.034773815 -0.04749844 0.0748647 -0.06481618 0.034935113 0.05143989 0.03714964
-0.06225949 0.0450589 0.019179434 0.01783373 0.065388754 0.064075485 -0.061906207 0.014537415
-0.04010699 -0.06175135 0.034180414 0.04551611 0.12434288 0.036213476 0.056029797 0.0175419
0.048667736 0.0111364415 -0.016513525 0.050751135 0.049619265 0.025586803 -0.037773144 -0.0013413588
0.045470532 -0.04420958 -0.03400352 -0.047154956 -0.0047260798 0.047657263 -0.010754368 0.10098047
0.044223994 -0.032959815 0.028185843 -0.033439726 -0.053750295 -0.00988931 0.031263333 -0.057838053
-0.07150173 0.004873728 0.07199958 0.09822083 -0.07909232 0.08629871 -0.029356206 0.037614252
0.05995608 0.040500637 0.029684484 0.040265292 0.01916667 0.067480564 -0.041863777 0.00073033775
0.04783382 0.054777462 0.07002039 0.03583626 0.08560255 0.055418245 0.04191591 -0.035844274
-0.06328822 0.06065759 0.050673302 0.0321407 -0.050997328 0.054465286 -0.03367917 -0.018333402
0.02911027 0.122884884 0.07953312 -0.068709835 -0.099312775 0.1629041 0.1158658 -0.034993615
0.103172116 0.060059328 0.12384906 0.09611771 0.088214576 0.07624683 0.12434973 -0.02775016
0.028515542 -0.067554265 -0.12862124 0.06965219 0.060884222 -0.037212145 0.11464831 0.09177646
-0.061102156 0.019048998 0.02554862 -0.054756466 0.071898095 0.09119476 0.015882755 -0.090243325
-0.050940067 -0.05417689 -0.011230815 -0.038644332 -0.05886324 0.06567642 -0.07497441 0.029592557
0.05160326 -0.08954217 -0.12270923 -0.066541865 -0.11623837 -0.029599283 -0.08456734 0.10215884
-0.0037380909 -0.074418046 0.05372654 -0.015122705 -0.045158613 -0.117522426 0.123555586 -0.07967113
0.058514446 0.030458247 -0.009193192 0.082198724 0.090033874 -0.08500279 0.14889964 -0.12316907
-0.09266666 0.106281534 -0.1156835 -0.13132517 0.032396313 -0.10424741 0.093347006 -0.036086366
-0.09435272 0.055103313 -0.033446558 -0.082800314 -0.14014389 0.101088695 -0.0463343 -0.0073367576
0.028264483 -0.10128658 -0.0549282 0.07313922 0.068228275 0.10109534 0.12466719 -0.0809547
0.14032812 -0.071684055 0.061009746 -0.010449285 -0.08598426 0.13170859 0.092869915 -0.03312936
-0.08578961 0.11008484 -0.05734613 0.106191635 0.05664449 0.11217952 0.09125686 0.02448089
-0.11270463 -0.044792786 -0.067130305 0.10633169 -0.0685696 -0.081933066 -0.04791392 0.03744432
-0.053429145 0.068746306 0.08526321 0.008949767 0.09792559 0.0960393 0.0706915 0.008690423
0.04581419 0.09646052 -0.040331494 0.118207105 -0.005315251 -0.019556569 -0.04288913 0.02673933

pointer.fc1.weight f4 [128, 256]
00000000: baf3 c63d 2a41 863d f06c 0bbe 4797 203c
00000010: b5ef 183e f984 2abd 9bf1 c53d 0daa acbc
00000020: ae0c 8e3d 92cc 043e 2765 6e3d 3e49 1f3e
00000030: b745 8cbc ab14 623d 6ad1 31bd d6a6 44be
00000040: dac7 243e 6449 dc3d de1a 623c 84f4 2cbe
00000050: 3341 a5bc b8a3 2bbe 4584 3ebd 9ffb 1bbd
00000060: 3550 b73d cb76 09bd f19b a13e c286 17be
00000070: 5bc5 babd faa1 d03d f785 e63d 472f 2e3d
00000080: 07c0 38bd 1e4c 22bd 7bb6 9dbc 0a09 e0bd
00000090: ef02 83be adae d03c cad3 063e 3559 933d
000000a0: 49d1 5abe 8fa5 063e d472 cf3d c9bc 9fbd
000000b0: 33d2 c0be ed21 563e c371 143e b50a a6bd
000000c0: acec 693b 744e 1cbe f060 81be e0b3 883e
000000d0: f3f3 69bb d15d 6d3d 276d 4fbd b2ac 63be
000000e0: a8ca 833e 1438 333d 3ff3 ecbb cd7a 373d
000000f0: ee34 f8bd 7c8c be3d 92b7 97bd 4988 bf3d
00000100: 130e 23be 81a7 1e3d de9d cbbb 4fe8 b13d
00000110: ab76 91bd 790e a7bd f61c 473d a097 2abb
00000120: 66de 12bd 0142 c7bd 240b ed3a 5d9c 66be
00000130: f280 803c d7a7 fd3a 65f4 88bd 2861 763d
00000140: f679 1abe 1ad0 78be 8b8e e0bc 88f1 583d
00000150: 333c 29be 10a5 de3c 41e9 183e a9d6 19be
00000160: 10da c9bc af13 2a3e be08 2fbe 6b81 76bd
00000170: e8f0 163e 4142 e43d a768 8dbc d4ad f7bd
00000180: 1419 bc3d fa69 adbd 22d2 f2bd 902f 67bd
00000190: c037 debc 0b75 60bd 6e24 433d cdff 863e
000001a0: e23e c63b b9ed 71bb 64f3 163e 8151 463c
000001b0: 32ef 3c3e d2fe 66be a434 debd 5e2d b13d
000001c0: 8bce 65be daca 34ba ff82 cabc b591 b1bd
000001d0: 2c6a 46bc 8c6e be3a 7c52 59bc 3293 403e
000001e0: 8b60 b33d 85a0 113e 5668 0a3e 88f7 5d3d
000001f0: 7c5e f13d fc54 fbbc 33a1 c2bd bfef 2bbd
00000200: e4ec f4bd 4c3d 0bbe da9f f33c abb3 87bd
00000210: 4f91 813d b508 8f3d e135 24be 183a ffbc
00000220: 762b ce3d db53 9e3d 1adf 96bd 411b f33c
00000230: 35f8 933d ced0 b7bd 08b6 8cbd 0764 703d
00000240: 33b0 d6bd 5437 513d 1823 983c 7867 493b
00000250: ac1b 873d 168d 9a3d d0a0 3b3e 5be6 0d3c
00000260: 4b13 5c3c 7e1f 03bc 93a3 f33d 5aa5 03bc
00000270: d930 973d 686b 7bbc dac6 f03c 0bce 08bc
00000280: 036b 033d 5a1d a73d 1d7d 22bc 0be5 c5bd
00000290: 4d98 00be 6a38 10be d63d 6f3d 1df6 323d
000002a0: 19c2 b63c fa5d 9bbd 1600 0fbd 623a a13c
000002b0: ef72 cd3c a860 fc3d 6f44 d13c 1b23 c2bc
000002c0: 08a8 8dbd 6606 48bc e14e 18bd d973 1ebe
000002d0: 6255 51bd f873 49bc c80e 49bd 152e d93c
000002e0: ca8c 91bd 00ef 5f3c dfa6 2b3e adee 713c
000002f0: 4fce 0bbe cd98 3f3d 3b28 8cbd f21f 28bc
00000300: a87e 02bd b6ab 06be 77c4 36bd 6ff4 debc
00000310: 4b9d 493d 5ea4 22bd 6156 62bc d88f 69bd
00000320: ced3 e4bd 659d 023e 5ec0 46bd 6d7d ecbd
00000330: 9616 93bc 58ae e3bd 1323 7f3d db58 c53c
00000340: 97b2 6dbd cd10 e63a d84d f1bd eeb2 56bd
00000350: 3c0c 8b3d 5f53 bdbd 5939 053d 40a0 98bd
00000360: d7b6 96bd 5a8b e23d 853b 1ebd c99c 1f3b
00000370: 9dc6 b63d 1ed5 07be 70f6 40bc f526 6dbd
00000380: a1e6 f7bc ad87 603a 391c 583d b481 0cbd
00000390: c2e1 93bd d85f ae3d e326 26bd fd4b 8ebd
000003a0: 2d24 2a3e 2037 3b3d a753 8bbc 61d3 853d
000003b0: 8078 8bbd 0cf2 9abc 9348 debd 40f7 433d
000003c0: 2afb 06bb a6ab b5b9 14df 7fba f630 abbd
000003d0: 4ba0 a53c a9b0 363d bd0c c1bc 4f97 8e3d
000003e0: dbdb 2d3d db19 6fbc ed37 24bd 3b9c 133e
000003f0: d867 bd3b bcbb e3bd 5490 ae3d 632e a23b
0.09714456 0.06555398 -0.13615775 0.009801692 0.14935191 -0.04163072 0.09665223 -0.02107718
0.06936012 0.12968662 0.058201935 0.15555283 -0.017123086 0.05519549 -0.043412603 -0.19204268
0.16091862 0.10756186 0.013800351 -0.1689015 -0.020172691 -0.16761672 -0.04651286 -0.03808176
0.08950845 -0.033560555 0.31564286 -0.147975 -0.09119674 0.101871446 0.112560205 0.042525556
-0.045105007 -0.039623372 -0.019252053 -0.10939224 -0.25588176 0.025473917 0.13166729 0.07194749
-0.21368898 0.13149093 0.101293236 -0.0779968 -0.3766037 0.20911379 0.14496522 -0.08107511
0.0035694046 -0.15264302 -0.2526927 0.26699734 -0.0035698384 0.0579508 -0.050641205 -0.22233847
0.25740552 0.043754652 -0.0072311456 0.044794846 -0.121194705 0.09304139 -0.0740806 0.09352166
-0.15923338 0.038733963 -0.0062138876 0.086868875 -0.07102712 -0.08157057 0.048611604 -0.0026030317
-0.035856627 -0.09729386 0.0018084985 -0.22520585 0.015686486 0.0019352388 -0.066872396 0.06015125
-0.15085587 -0.24298134 -0.02741172 0.052964717 -0.1652687 0.027178317 0.1493273 -0.15023293
-0.024640113 0.16609071 -0.17093179 -0.060182016 0.14740336 0.111454494 -0.017261816 -0.12093702
0.09184471 -0.08467479 -0.11856486 -0.056441844 -0.027126193 -0.05479912 0.047642164 0.26367036
0.0060499767 -0.0036915375 0.14741284 0.012104393 0.18450621 -0.22558144 -0.10849884 0.08651231
-0.22442071 -0.00068966823 -0.024720667 -0.086703695 -0.012110274 0.0014528795 -0.013264295 0.1880615
0.087586485 0.1422139 0.13516364 0.054191142 0.117855996 -0.030680172 -0.095034026 -0.041976687
-0.11959246 -0.13597602 0.02973931 -0.06626066 0.063265435 0.069840826 -0.16036178 -0.031155631
0.10066883 0.07730838 -0.07366772 0.029676082 0.07225076 -0.08975373 -0.06870657 0.058689144
-0.10482826 0.051078156 0.018571422 0.0030731838 0.06597075 0.07546441 0.18323064 0.008660878
0.013432334 -0.008003114 0.11896434 -0.008035028 0.07382364 -0.015345432 0.029391695 -0.008349906
0.032084476 0.08159895 -0.009917525 -0.09662827 -0.12558098 -0.1408402 0.05840858 0.043691743
0.02230935 -0.07586284 -0.03491219 0.01968116 0.025079219 0.12323123 0.025545327 -0.02369838
-0.06916815 -0.012208557 -0.0371846 -0.1547388 -0.051106818 -0.0122957155 -0.049086362 0.026511231
-0.071069315 0.013667822 0.16762875 0.014766377 -0.13652919 0.04677658 -0.06843611 -0.010261523
-0.03185907 -0.1315144 -0.044620957 -0.027216164 0.049222272 -0.039707534 -0.01381454 -0.057021946
-0.11173211 0.12755354 -0.0485233 -0.115473606 -0.017955106 -0.11117238 0.06228931 0.024090221
-0.058031645 0.0017552614 -0.11782426 -0.052416734 0.06789443 -0.092444174 0.032525394 -0.0745244
-0.07359093 0.110617355 -0.03863098 0.0024354926 0.08924601 -0.13264892 -0.011777505 -0.05789848
-0.03026134 0.0008565139 0.05276129 -0.034303382 -0.07220794 0.085143745 -0.04056443 -0.06948087
0.16615362 0.04570687 -0.017007662 0.06534458 -0.06810093 -0.018914245 -0.10853686 0.047843218
-0.0020596483 -0.00034650898 -0.0009760719 -0.08358948 0.020218035 0.04460207 -0.023565644 0.069624536
0.042446 -0.014593567 -0.040092397 0.14415066 0.0057802014 -0.11119792 0.08523622 0.0049493774

pointer.fc1.bias f4 [128]
00000000: 5500 9fba 2605 2d3d fdb8 acbc b1bd 383d
00000010: 948e d93a 6959 3d3d 711f a4bd 8943 ff3c
00000020: c5b1 a5bb 5669 e33c 29b5 15bc 58f6 3dbc
00000030: 5864 ddbb 8860 94bd f616 b8bc 789a 0cbd
00000040: bdf9 0ebd cc3d 19bd 3a5e 963d dbc5 0b3c
00000050: 7449 083d 4405 e6bc ae45 983d be4b e8bc
00000060: a129 40bc c127 85bd b970 4fbd 5713 afbd
00000070: 2ab6 6bb8 07c9 0fbd d18e 8b3c 92d5 afbc
00000080: 4456 f53c 7f77 59bc 7d22 63bc 24b2 0a3d
00000090: a7a1 d9ba e8fc 9b3d e653 7cbc 08da 83bd
000000a0: 1b34 533d d224 53bb 7416 2b3d 967b 803d
000000b0: 8d32 2e3c e2b5 55bd e4af 00bd 4c96 af3d
000000c0: d79f 133c 79d8 c03d d262 be3d 49d8 d4bb
000000d0: 86ff 54bd bbd2 003d cf41 8b3b 6acc 8d3b
000000e0: 9f84 19bd 3ebe 3dbd 1a18 813d 2658 37bc
000000f0: f2bc 40bd 4ed7 cabc c3e0 a53b 5102 fc3c
00000100: 830b 3e3c b4c3 53bb d305 60bd aca2 82bd
00000110: 04e3 dbbb f4c8 e43c 20dc 98bc ad8d 69bd
00000120: 98ff 493d 901c 613d 386f 5dbd a14e 01bd
00000130: 7297 79bc 115a 7fbd 0d82 563d fc35 9dbc
00000140: 692f 2ebd 673b 2abc eeb9 8e3c d0d9 9bbd
00000150: 98de 9e3d 0fcf 3cbd fa18 163d 1b13 62bd
00000160: 619f 4dbd 9de5 293c 1efd 813d d28d 3f3d
00000170: 52eb 203d cc01 a23c 1bb7 f5bc 083a 823d
00000180: dc2a 80bd fb8a 8cbc e81a 48bc 826e c23d
00000190: ac60 e8bc 20dd 12bb cda5 02bb 227b fabc
000001a0: 8b5e 9b3d f20c 0ebd 1ba3 5bbc 3b31 edbc
000001b0: e551 d83c 7f36 363c 6dc1 d0ba 5975 0f3d
000001c0: 1c8c c2bd 987c 2abd 0792 a1b9 50cb 14bd
000001d0: c384 23bb 29ec 143d f8c4 27bc 9f3f 543d
000001e0: 53d7 fbbc 1414 863d dc18 4bbb af0a 6d3d
000001f0: b0d9 e73c de60 a43c 73da a63c fe56 62bd
-0.0012130836 0.042241238 -0.021084303 0.04510278 0.0016598278 0.046227846 -0.080138095 0.031160133
-0.005056592 0.027760189 -0.00913743 -0.011594377 -0.0067563467 -0.072449744 -0.022471886 -0.034327
-0.034906138 -0.03741245 0.07342191 0.008531059 0.033273175 -0.028078683 0.07435165 -0.02835643
-0.011728675 -0.06501723 -0.05064461 -0.08548611 -5.619802e-05 -0.035103824 0.017035874 -0.021464143
0.029948361 -0.013273119 -0.013863203 0.033861294 -0.0016603962 0.076165974 -0.015400862 -0.064380705
0.051563364 -0.0032217992 0.04176946 0.06273572 0.010632169 -0.05217541 -0.031417742 0.08573589
0.009010277 0.09416289 0.09296192 -0.0064955098 -0.0520015 0.03145097 0.0042497884 0.0043273466
-0.037479993 -0.046324007 0.06303425 -0.01119045 -0.047055192 -0.024760868 0.005062194 0.030762823
0.011599424 -0.0032312693 -0.054693054 -0.063786834 -0.006710412 0.027927853 -0.018659651 -0.05701988
0.04931602 0.05495888 -0.054061145 -0.031569127 -0.015233861 -0.062341753 0.05237012 -0.01919078
-0.042525683 -0.010390139 0.017422643 -0.07609904 0.077573 -0.046095904 0.036644913 -0.055194
-0.050200824 0.0103696855 0.063471064 0.04676611 0.03928692 0.019776247 -0.029994538 0.06358725
-0.06258175 -0.017156115 -0.012213446 0.09493734 -0.02836641 -0.0022409633 -0.001993525 -0.030576292
0.07586392 -0.034680314 -0.013405587 -0.028954139 0.026406238 0.011121391 -0.0015926786 0.03502402
-0.0949938 -0.041622728 -0.00030817112 -0.036326706 -0.0024950958 0.036358032 -0.010239832 0.051818486
-0.030742323 0.06546798 -0.003099016 0.057871517 0.028302044 0.020065721 0.020367837 -0.055258743

pointer.fc2.weight f4 [128, 128]
00000000: c6c9 693d 1a01 08be 68ab 113d 423a b63c
00000010: 39a1 19be be19 d0bd 584c 3a3c b865 ebbd
00000020: e13a b2bb d78a 84bd 4041 703d 6ea8 113c
00000030: 0787 02be 80eb 07bb 40de bd3d 821e cc3d
00000040: 20cb da3d fcae c6bd 7c19 efbb 1e79 26be
00000050: a0df bf3b 4f0f aa3d d8c5 07be c880 afbd
00000060: 4b89 22bd 40a2 aebc 247d 0a3d 202e 923d
00000070: eb32 1bbe f59c adbd 9faa 5fbd 12b1 1fbe
00000080: 9531 e6bc 7190 dc3d 2ca6 8c3d dff0 0fbe
00000090: 9a00 9a3d 8e44 ea3c e9ca 0a3d 4bd1 cfba
000000a0: 064d e93d ca92 d9bd 110b 9c3d 12f3 953c
000000b0: 5737 09be 2e1d 22be e5f2 28be b7c5 c3bb
000000c0: 195d 29bc cb1e c13d 187a 92bd 3a06 68bd
000000d0: c45b 28bd 3a27 84bd 655f f7bd 7c01 973d
000000e0: 00d6 a2bc 7d4a 0b3e 31d0 943d 0dc8 e23d
000000f0: ff78 1fbe c683 b5bd f6c9 bd3d 51cf 4a3d
00000100: 7ab3 b5bc 2a45 cd3c 7ee0 afbc 645b 9cbd
00000110: 2ab4 06be bb66 b5bb 0a87 d83d 90a5 b43c
00000120: afd9 17be c6fc e0bc 6c69 193d 2978 59bc
00000130: ca7e d23d 2009 963c 0b4a 163e ac5e 10be
00000140: 2b31 0f3e 7d95 c9bc 22cc 703d 7bfb c9bd
00000150: 8f1e 9b3d 279f 04be 2093 dc3c 9c7a 1abe
00000160: b5c2 4dbd eb01 3e3d c1db d2bd fbee ecbd
00000170: 3f0b 043e ebd0 d83d caf6 013d 6a26 19be
00000180: ac55 c93d 2266 f53c 6717 713c 7572 70bd
00000190: c1a5 383d 1d18 0b3e 6d89 a0bd f1ab 9fbd
000001a0: 7bb0 07bd bae6 6e3d 0e9d 90bd 1405 1bbe
000001b0: 5e33 0ebe d3dc debd df6e cbbd fd44 f13c
000001c0: ba0f 953d 2c01 61bd 6471 9f3d 3a79 49bd
000001d0: 8ab6 973d f8b7 113e f9cd 673d 75fc e43d
000001e0: 1372 8c3c 04dd 52bc 41bf b23d 9ff9 843d
000001f0: d71b 9dbc 9bf1 9cbd 768d d1bd 02f5 04bc
00000200: dcaa 11be 269e bdbd c5e1 8cbc d407 00be
00000210: ac4a 9cbd 4f11 5abd e64e 23bd 59f8 24bd
00000220: dc96 ecbd 243c f63d a7da 0b3e 4c96 3d3d
00000230: 8756 18be 58e2 b13d 16bf e33d 1099 5ebd
00000240: 22bb febd 95f7 f8bd 4347 92bd 0b76 b2bc
00000250: 3840 c23d 6f5a c13d bbaf c0bd 5b86 47bd
00000260: ab94 98bd eeba 883d a037 2c3d 1f8b e6bd
00000270: 9ee3 1bbd 88ae c33d d50a 983d 465d ee3d
00000280: b80e 85bd 03af 7a3d e19f 8bbd a657 03be
00000290: b4f3 063e 45f5 bebd 40c2 6bbb 4517 343c
000002a0: 1373 1a3e a478 b23d 8c95 afbd 39f3 2fbd
000002b0: 4d93 34bd c0b8 063b f7bc 16be 0907 a93b
000002c0: f25e a93c 49c4 12bd 11ee 8f3a fc58 b93d
000002d0: c49a d5bd c0ab b5bd fca4 50bd c15a 173e
000002e0: e2bf 12be 60a4 36bc 9895 e1bd a9f3 63bd
000002f0: 09ed 583d 36d6 3ebd cd53 2b3d 8a0b 033e
00000300: 9ca2 ddbd 514f 263d 1bf0 073e e872 96bc
00000310: 6cce 99bd 64ae 31bd bb63 033e ef88 903b
00000320: 0151 1fbd 432d 54bd 69cb 0ebe 4a78 f3bd
00000330: 0051 053b 462c 79bd 3a92 b1bd c503 833d
00000340: b3ea ad3c ffea aeba a14d febd 2b5b 94bc
00000350: 3008 acbd cf95 d0bc f112 083e d551 0a3e
00000360: a152 173e 565d 8a3d 25b7 973d 430a 8abd
00000370: 3c55 063e c241 9c3b 80d6 c2bd 11de 22bb
00000380: 94f1 70bd b909 b83d 14a0 1fbe 3c6f 39bd
00000390: 2671 243c 2919 a6bd 7c3c bfbd e021 18bd
000003a0: 1bdd e5bd 541d 503c fdf6 18be 1982 a9bd
000003b0: e743 64bc 591f 0d3d 29d9 123e 6774 6dbd
000003c0: 9e1f d63d d214 6c3b b79b 94bd 4142 75bd
000003d0: 8346 41bd ea87 2ebd c1e4 003b 06f6 193c
000003e0: 1af5 023e 295f 11bb 49b9 013e 364c 12be
000003f0: 26cb ee3d a5cf 0d3e ea55 f4bd 1793 22bd
0.05707719 -0.1328167 0.035563856 0.022244576 -0.15002908 -0.1016116 0.011370741 -0.11494011
-0.005439148 -0.06471794 0.058655977 0.008890254 -0.12746821 -0.0020739734 0.092709064 0.099667564
0.10683274 -0.09701344 -0.007296739 -0.1625714 0.0058555156 0.08303701 -0.13259065 -0.08569485
-0.039681714 -0.021317601 0.03381075 0.07137704 -0.15156142 -0.08477203 -0.054606076 -0.1559489
-0.028099814 0.107697375 0.06867632 -0.14056729 0.07519646 0.028597143 0.033884916 -0.0015855221
0.11391644 -0.10623701 0.07619298 0.018304382 -0.13400017 -0.15831444 -0.16498907 -0.005974497
-0.010337138 0.094297014 -0.07152194 -0.056646563 -0.04110314 -0.064527944 -0.12078742 0.0737333
-0.019877434 0.13602634 0.07266272 0.11073313 -0.155735 -0.088630244 0.092670366 0.04951412
-0.022180308 0.025057394 -0.02146935 -0.07634619 -0.13154665 -0.005535928 0.10572632 0.022051603
-0.14829133 -0.027464282 0.037454054 -0.013273277 0.10278089 0.018314898 0.14676683 -0.14098614
0.139836 -0.024607414 0.058788426 -0.09862419 0.07574188 -0.12951337 0.026925623 -0.15085834
-0.050234515 0.046388548 -0.10295821 -0.115690194 0.12894915 0.10586723 0.031729497 -0.1495606
0.09830794 0.029955927 0.014715052 -0.058702905 0.04507995 0.13583417 -0.07838712 -0.07796467
-0.03312729 0.058325507 -0.07061206 -0.15138656 -0.13886783 -0.108819626 -0.09933256 0.029451841
0.0727839 -0.05493276 0.077852994 -0.049187876 0.074078634 0.14230335 0.056592915 0.11180965
0.017144239 -0.012870077 0.08727885 0.06492924 -0.019178314 -0.0766327 -0.1023206 -0.008115055
-0.14225334 -0.0925868 -0.017197499 -0.12502986 -0.0763143 -0.053239163 -0.039870165 -0.040275905
-0.11552212 0.1202319 0.13657628 0.046285912 -0.14876758 0.0868575 0.11120431 -0.05434519
-0.124380365 -0.121565975 -0.07142498 -0.021784803 0.09484905 0.09441077 -0.09408518 -0.048712116
-0.07450231 0.06676279 0.042045236 -0.11257004 -0.03805887 0.095547736 0.07423941 0.11638884
-0.06496948 0.06120206 -0.06817604 -0.12826404 0.13178903 -0.09324125 -0.0035973936 0.010991876
0.1508296 0.087144166 -0.08573446 -0.042956565 -0.04408579 0.0020556897 -0.14720522 0.0051583094
0.020675156 -0.035831723 0.0010980983 0.090501755 -0.1042991 -0.08870649 -0.05093859 0.14780714
-0.1433101 -0.0111475885 -0.11014861 -0.055652294 0.05296043 -0.046591006 0.041827966 0.1279737
-0.10822031 0.040602986 0.13275187 -0.018365338 -0.07510075 -0.043379202 0.12831013 0.004410855
-0.03889561 -0.051800977 -0.13944782 -0.11888178 0.002034247 -0.060833238 -0.08670469 0.06397203
0.021230077 -0.0013345181 -0.1241715 -0.018109879 -0.08399999 -0.02546206 0.13288476 0.13507779
0.14777614 0.06756084 0.07407979 -0.067402385 0.13118452 0.004768581 -0.09513569 -0.00248516
-0.058824137 0.089862294 -0.15588409 -0.045272097 0.010036742 -0.08110268 -0.09337708 -0.03714168
-0.11223813 0.012702305 -0.14937969 -0.08276767 -0.013932205 0.034453724 0.14340653 -0.057972338
0.10455249 0.0036023152 -0.07256263 -0.059877638 -0.047186386 -0.042610087 0.0019667598 0.009397035
0.12788811 -0.0022181964 0.12668337 -0.14286885 0.11659841 0.13848741 -0.11930449 -0.039691057

pointer.fc2.bias f4 [128]
00000000: ad7c 823c 7626 cdbd 70d7 2fbd d42d 8c3c
00000010: 5a46 a93c 3025 0e3e b81b b03c 2775 ec3c
00000020: 6a45 b93d 770c 20bd 2799 ed3a e216 a5bd
00000030: 7e5c 4f3d f4c7 0cbc bf35 873d 17e7 993c
00000040: d857 f53d 52c1 c0bc d910 b9bc 6560 b9bd
00000050: 1e3c 6fbd 5d69 df3c 53f6 74bd c901 88bc
00000060: 7c93 a4bb 1f5a 84bd 567c 6b3c ab77 a5bd
00000070: a6fc 5f3d 7497 cc3c 6333 7bbd cf75 093d
00000080: 36a4 e03d b3db 86bd 183a 7abd ac81 f0bc
00000090: d88b 1dbd c2e4 02bc b1c1 b23d 3b28 9cbd
000000a0: c4f4 8e3b 69fc f43c 055a 913d 696e 4abd
000000b0: 37cf ae3c 1667 52bd 13c9 dc3b 0f9d 3a3c
000000c0: 0fad 9abd e48c 48bc 571d e6bb 7bff 943d
000000d0: 2651 03bd ae7d 92bd c8d6 eb3d 62be 2a3d
000000e0: 0dff 90bd d047 33bd 4a5d 723d e361 cdbd
000000f0: ff54 a53c 1cff ba3d 15f4 5dbd b930 c0bd
00000100: bdd3 a8bc b1b4 a03d b1bc 09bd 37ac c3bc
00000110: b1ba 0b3e 4e71 d43d bee6 c63c b278 933d
00000120: 50b1 6e3d d184 ea3d 6a3a b83d 7079 87bd
00000130: 98f8 ad3d 7940 013e b2fd 97bd ed14 ef3d
00000140: e570 8ebd 7bad 353d c015 a3bd ec84 8cbc
00000150: e587 cd3d 4221 7dbc 0f10 b93c df96 803d
00000160: 2e60 d2bd 0804 843d ecdd 943b c87c 2b3d
00000170: e5c6 8c3d 29e8 143d d4e4 833d 9703 adbd
00000180: 1c13 4d3d bdd9 283d 685a df3d ec06 aabc
00000190: 986d df3d d6c1 8dbc c774 d0bc caa4 e53d
000001a0: 1860 ccbc 93eb 273d abb1 9e3c c7ed 133e
000001b0: 25e1 98bd 0764 6abd a5e3 8239 27c4 70bc
000001c0: 05cc ee3c bf19 59bd a900 db3d b8ab 5ebc
000001d0: 87a4 a83d ebe6 973d bea2 b13d aa93 943d
000001e0: 412a 7fbd 82f4 0d3d 7906 d2bd 71cc 4cbd
000001f0: f895 1f3c 2793 9f3d 8523 903d 3bb0 b4bd
0.01592859 -0.100171015 -0.042930067 0.017111696 0.020663429 0.13881373 0.021497592 0.028864456
0.09046443 -0.039074387 0.0018127308 -0.08061005 0.050625317 -0.008592594 0.06602048 0.01878695
0.119796455 -0.023529682 -0.022591041 -0.09051589 -0.05840694 0.02727192 -0.059805226 -0.016602414
-0.0050224643 -0.06462502 0.014372906 -0.080794655 0.054684304 0.024974562 -0.061328303 0.033559617
0.10968821 -0.06584873 -0.06109056 -0.029358707 -0.038463444 -0.00798911 0.0872835 -0.07624861
0.0043626744 0.029905515 0.07097248 -0.0494217 0.021339042 -0.05136784 0.006737837 0.011389985
-0.075525396 -0.012240622 -0.0070225406 0.072752915 -0.03205981 -0.07152878 0.11515576 0.04168547
-0.07079897 -0.043769658 0.059171 -0.10028436 0.02018213 0.091306895 -0.054187853 -0.09384293
-0.020608777 0.07846964 -0.033627216 -0.02388583 0.13645436 0.10373174 0.024279948 0.07200755
0.058274567 0.11451114 0.089955166 -0.06614959 0.08494681 0.1262225 -0.074214354 0.11673913
-0.06955127 0.044354897 -0.07963133 -0.017153226 0.100356854 -0.015449824 0.022590665 0.062787764
-0.10272251 0.064460814 0.0045430567 0.041867048 0.068738736 0.036354218 0.0644013 -0.0844795
0.050067052 0.041223276 0.109059155 -0.020755254 0.10909575 -0.017304342 -0.025446309 0.11213072
-0.024948165 0.040996145 0.019371828 0.14446174 -0.07464818 -0.0572243 0.0002496514 -0.014695204
0.029150018 -0.05300307 0.10693485 -0.013590746 0.08234506 0.07417091 0.08673619 0.07254727
-0.062296156 0.03465701 -0.10255141 -0.049999658 0.009740345 0.07791739 0.07038025 -0.08822676
