trained_models/cvrp/XE_4/model_incumbent_vrpRl13_C_XE_4_P_0.15_59676.pt (torch_old, 469732 bytes, 15 tensors)

all_embed.embed.weight f4 [128, 4]
-0.08103914 0.8078844 0.09597867 -0.009535679 0.9076084 1.03798 0.1808571 -0.026393952
0.64309984 -0.41717333 0.13884228 0.115027495 0.15002087 0.073572844 0.119146496 -0.15083694
0.34330213 -0.70553 -0.21516933 0.055922247 0.58830875 -0.33445904 0.04064236 0.46307743
0.12689133 -0.4693329 0.032757293 0.33823988 0.13562384 0.059593733 -0.13822995 -0.4899817
1.0817301 0.088990085 -0.14802659 0.023322513 -0.08113178 0.8072203 -0.23986776 0.15045953
-0.48750058 0.22005673 -0.023328718 0.20868775 0.29733273 -0.1199871 -0.26306877 -0.4137964
-0.57226455 -0.05153326 0.38029334 0.29397526 0.33972678 0.930811 -0.35134766 -0.021700503
0.6693117 -0.44765928 0.08538683 0.14163345 0.2784269 0.19897439 -0.013212141 -0.3958782
0.43429834 0.14568649 0.34968185 0.29732254 -0.29903823 0.63786954 0.23912598 0.27518347
-0.2583581 -0.051635407 0.19060092 -0.1022626 -0.03830055 0.9953314 0.20854568 -0.11772891
-0.008986218 -0.39839047 0.30455157 0.29012772 0.050183196 -0.59635264 0.048548438 0.06949635
0.87803024 -0.4269252 0.16879913 0.18356103 0.111440144 0.115993924 -0.5880824 -0.6108521
-0.0022848619 0.18723758 -0.10107344 -0.36000744 -0.016817993 -0.6399632 0.27571687 0.4560447
0.7082559 -0.22343381 0.2856646 0.4491817 -0.619971 -0.08325699 0.18576427 0.42412627
-0.13787493 -0.15826161 -0.19342992 0.021514725 0.05698793 0.48114765 0.09630519 0.2866208
0.53280216 -0.22055851 -0.6500816 0.19458102 0.13115808 -0.079436615 -0.14804345 0.01958634
0.4202528 1.0378507 -0.12734792 -0.20295402 1.0707508 0.6793125 0.21162249 -0.12719177
-0.03512696 0.25951818 0.30059418 -0.23486215 0.030994313 -0.07892292 0.67175674 0.20566931
1.0161308 -0.3103953 -0.15356493 -0.030094167 0.071962416 -0.0738049 0.098226845 0.0561046
0.16894354 0.035569012 0.018231321 -0.25277376 -0.42062286 0.24245104 -0.012505749 -0.06354587
0.7382346 0.85221624 -0.009264733 0.20212917 0.10208465 1.0822481 0.26460996 -0.06120786
-0.00053999433 0.29737893 -0.38403338 0.4156462 0.384324 0.6895096 -0.07704707 0.24714643
0.18103766 -0.12424863 0.1021435 -0.045663178 -0.33192375 -0.03255029 -0.05512751 -0.04750045
-0.5955582 -0.2802333 -0.30245098 0.3697232 -0.36411205 0.6373588 -0.27207315 0.05981007
-0.025898293 -0.17387061 -0.068322554 0.050079465 0.8280073 -0.33735436 0.19446826 0.2124397
0.625678 -0.38052776 -0.2275781 0.21857353 0.038662314 -0.16495065 0.19207472 -0.054583684
0.8688528 -0.1582269 0.24412856 0.13679849 -0.37572086 0.40869114 0.28585064 0.21645662
0.20050621 0.21353903 -0.33896768 -0.36247706 0.071261674 0.01597619 0.11819124 0.03783077
-0.47316614 0.5723077 -0.15195765 0.2705645 -0.332957 0.20498717 0.030719927 -0.09524714
-0.17451875 -0.05559118 0.037251025 -0.019034132 0.05324983 0.21842049 -0.18338406 -0.36281872
0.1526774 0.14443614 -0.47443196 -0.41726923 0.14415309 -0.040499836 0.14043263 -0.19828382
0.81889695 -0.40006325 -0.05073306 0.28441432 0.35799283 -0.013894392 -0.29210266 -0.37735772
00000000: d9f7 a5bd 83d1 4e3f 7790 c43d 893b 1cbc
00000010: 0659 683f 87dc 843f 9b32 393e 2138 d8bc
00000020: 31a2 243f be97 d5be ac2c 0e3e 8993 eb3d
00000030: 129f 193e 5cad 963d 1403 f43d 0075 1abe
00000040: 4cc5 af3e 9d9d 34bf 5955 5cbe ba0e 653d
00000050: 679b 163f 373e abbe 9a78 263d 7c18 ed3e
00000060: cdef 013e 674c f0be 832c 063d c72d ad3e
00000070: fae0 0a3e 8f18 743d 278c 0dbe e2de fabe
00000080: 2276 8a3f 6f40 b63d 4894 17be db0e bf3c
00000090: 6b28 a6bd fda5 4e3f e59f 75be 1012 1a3e
000000a0: ad99 f9be 8d56 613e de1b bfbc 3eb2 553e
000000b0: ff3b 983e ccbb f5bd f3b0 86be 1fdd d3be
000000c0: ee7f 12bf 8a14 53bd cfb5 c23e ed83 963e
000000d0: abf0 ad3e a149 6e3f d7e3 b3be 41c5 b1bc
000000e0: 0358 2b3f 9933 e5be 4adf ae3d 5c08 113e
000000f0: f88d 8e3e f1bf 4b3e bc77 58bc 8cb0 cabe
00000100: 5a5c de3e d72e 153e 8009 b33e a93a 983e
00000110: 8a1b 99be 6b4b 233f 71dd 743e d9e4 8c3e
00000120: 8347 84be a67f 53bd e32c 433e 0e6f d1bd
00000130: 0ae1 1cbd 0ace 7e3f 008d 553e db1b f1bd
00000140: ee3a 13bc d6f9 cbbe 2fee 9b3e 9f8b 943e
00000150: e58c 4d3d 91aa 18bf bada 463d 1a54 8e3d
00000160: 97c6 603f f195 dabe aed9 2c3e 6cf7 3b3e
00000170: bb3a e43d 398e ed3d 918c 16bf ce60 1cbf
00000180: 9fbd 15bb 35bb 3f3e 97ff cebd e552 b8be
00000190: e3c5 89bc a1d4 23bf c32a 8d3e b17e e93e
000001a0: 4250 353f d5cb 64be a142 923e 25fb e53e
000001b0: 6bb6 1ebf a482 aabd fd38 3e3e 1427 d93e
000001c0: 162f 0dbe 550f 22be 7e12 46be a63f b03c
000001d0: 2d6c 693d fc58 f63e a83b c53d f6bf 923e
000001e0: b965 083f 17da 61be bf6b 26bf 3f40 473e
000001f0: 4e4e 063e aaaf a2bd b498 17be 8873 a03c
00000200: 602b d73e 4bd8 843f 7e67 02be 2ed3 4fbe
00000210: 5d0e 893f 6de7 2d3f 91b3 583e 8f3e 02be
00000220: 4ae1 0fbd 91df 843e 7be7 993e b47f 70be
00000230: c9e7 fd3c 57a2 a1bd 40f8 2b3f fa9a 523e
00000240: 9310 823f 22ec 9ebe 2040 1dbe 0b88 f6bc
00000250: 0861 933d 0627 97bd 282b c93d f0cd 653d
00000260: 89ff 2c3e d0b0 113d da59 953c 906b 81be
00000270: e15b d7be 1645 783e eae4 4cbc 5624 82bd
00000280: f1fc 3c3f d82a 5a3f 1bcb 17bc f3fa 4e3e
00000290: c211 d13d 1b87 8a3f f57a 873e 18b5 7abd
000002a0: 688e 0dba 0d42 983e 06a0 c4be 94cf d43e
000002b0: 1ec6 c43e b383 303f dbca 9dbd f413 7d3e
000002c0: f061 393e 1176 febd 9c30 d13d 5009 3bbd
000002d0: e9f1 a9be 7453 05bd 62cd 61bd d58f 42bd
000002e0: 8176 18bf bd7a 8fbe dbda 9abe 5c4c bd3e
000002f0: e56c babe f229 233f 2c4d 8bbe 67fb 743d
00000300: a828 d4bc 230b 32be b2ec 8bbd 2020 4d3d
00000310: 49f8 533f b6b9 acbe b022 473e cb89 593e
00000320: 6f2c 203f 89d4 c2be 3c0a 69be bdd1 5f3e
00000330: 605c 1e3d d3e8 28be 3caf 443e 2493 5fbd
00000340: 236d 5e3f 3c06 22be d6fc 793e e714 0c3e
00000350: 7c5e c0be f73f d13e 045b 923e cea6 5d3e
00000360: 8051 4d3e faa9 5a3e 2c8d adbe 9896 b9be
00000370: a4f1 913d 80e0 823c 400e f23d 70f4 1a3d
00000380: d542 f2be c282 123f c99a 1bbe 6e87 8a3e
00000390: 5779 aabe 28e8 513e 5ba8 fb3c ef10 c3bd
000003a0: 0bb5 32be 94b3 63bd 8894 183d 78ed 9bbc
000003b0: 7e1c 5a3d 9fa9 5f3e 08c9 3bbe 60c3 b9be
000003c0: 7757 1c3e 11e7 133e bfe8 f2be 50a4 d5be
000003d0: de9c 133e 28e3 25bd 92cd 0f3e ea0a 4bbe
000003e0: 3ba3 513f 17d5 ccbe 78cd 4fbd c19e 913e
000003f0: d64a b73e 4ea5 63bc 7b8e 95be 0835 c1be

all_embed.embed.bias f4 [128]
0.14055516 -0.18379009 0.18601061 -0.37843543 0.5747935 -0.2288577 0.051027834 0.3217962
-0.15969951 -0.018441197 0.21359627 0.40729895 0.24847814 -0.12581128 0.14607312 0.19956283
-0.42313057 0.53352916 0.47038177 0.5559273 0.079887055 0.4724237 0.24787599 0.43941137
0.19028544 0.14263295 -0.28541616 0.1854984 0.34605506 -0.49748698 -0.2220163 -0.33988512
0.6025793 0.14345573 0.24837987 -0.27339232 0.42281303 -0.4452911 0.35488078 0.48142478
-0.033924885 0.04922809 -0.19470917 -0.3574767 -0.34248102 0.5187554 0.40911382 0.22764699
-0.37276888 0.06325779 0.39106846 -0.23701686 0.40020314 -0.24159352 -0.07062288 -0.45294422
0.12227006 0.41991547 -0.46759677 0.104455344 0.1840789 -0.1682548 0.027682904 0.100728154
-0.06501129 0.46025914 0.05512386 -0.49251807 0.17941034 0.30598435 -0.3154148 0.11183857
-0.41485855 -0.09672277 -0.34540054 0.04087042 0.22829844 0.39281428 0.24092655 0.1992781
0.35841525 -0.3118242 0.60637736 0.31996349 0.24414314 0.02834247 0.43946096 -0.06966391
0.18266249 0.4392655 0.34946036 0.17344995 0.39523083 -0.13215214 0.46904406 0.010004142
-0.3923282 0.16508345 0.17068583 0.20129247 0.3716438 0.23020679 -0.25431514 0.11390998
-0.10203628 -0.40321982 -0.018129041 -0.19159877 0.49345216 0.5712659 -0.40123725 -0.28734583
0.10795999 0.22550371 -0.18528175 -0.03636104 -0.22624815 0.43741402 -0.12073549 0.39879856
0.74653786 0.5405363 -0.13710898 -0.24477911 0.2903214 0.037773434 0.5278107 -0.35370037
00000000: b1ed 0f3e 7833 3cbe 9179 3e3e 4ac2 c1be
00000010: ab25 133f ac59 6abe 9002 513d 79c2 a43e
00000020: 4588 23be fe11 97bc fbb8 5a3e 7d89 d03e
00000030: 0e71 7e3e acd4 00be 3194 153e 335a 4c3e
00000040: 92a4 d8be 5e95 083f e1d5 f03e 4051 0e3f
00000050: d39b a33d 85e1 f13e 34d3 7d3e 87fa e03e
00000060: 30da 423e 5f0e 123e 1122 92be 4bf3 3d3e
00000070: 212e b13e 9db6 febe 3e58 63be 6c05 aebe
00000080: a342 1a3f 0fe6 123e 4b57 7e3e 14fa 8bbe
00000090: f37a d83e 32fd e3be efb2 b53e 4f7d f63e
000000a0: d2f4 0abd 65a3 493d d761 47be 3007 b7be
000000b0: ac59 afbe 27cd 043f 5e77 d13e 4b1c 693e
000000c0: 90db bebe 4d8d 813d 203a c83e 8cb4 72be
000000d0: 6de7 cc3e 4b64 77be baa2 90bd 4ee8 e7be
000000e0: ba68 fa3d 29ff d63e d868 efbe afec d53d
000000f0: 2e7f 3c3e fc4a 2cbe 42c7 e23c 904a ce3d
00000100: a424 85bd 16a7 eb3e 8ec9 613d 542b fcbe
00000110: 58b7 373e fba9 9c3e 0c7e a1be 9f0b e53d
00000120: 5768 d4be 9616 c6bd 57d8 b0be be67 273d
00000130: 11c7 693e f41e c93e 73b5 763e 8f0f 4c3e
00000140: 3482 b73e 6ca7 9fbe 8c3b 1b3f 41d2 a33e
00000150: a900 7a3e 782e e83c 0701 e13e f4ab 8ebd
00000160: e00b 3b3e 68e7 e03e 78ec b23e dd9c 313e
00000170: b25b ca3e e452 07be 8b26 f03e 6ae8 233c
00000180: 3edf c8be a30b 293e 44c8 2e3e 9d1f 4e3e
00000190: 1948 be3e 54bb 6b3e 9835 82be a349 e93d
000001a0: 66f8 d0bd d472 cebe 5b83 94bc 7832 44be
000001b0: c3a5 fc3e 7b3e 123f f86e cdbe fe1e 93be
000001c0: 211a dd3d 72ea 663e 80ba 3dbe 50ef 14bd
000001d0: 98ad 67be bbf4 df3e 2b44 f7bd 532f cc3e
000001e0: 1b1d 3f3f 9660 0a3f 4c66 0cbe 60a7 7abe
000001f0: 02a5 943e 51b8 1a3d 9a1e 073f 3718 b5be

all_embed.embed_2.weight f4 [128, 128]
-0.38295406 0.10621302 0.2932497 -0.09750509 0.06555174 0.20307513 0.24319994 0.14782341
0.41205204 -0.23369446 -0.53569424 0.09873456 -0.07821301 -0.27823186 0.36401263 0.111561984
0.41040012 -0.43067756 -0.59736055 -0.43526703 0.011783833 -0.0034651866 0.08244887 -0.099904075
-0.086207435 0.16642696 0.42994434 -0.23725392 -0.32659426 0.3231608 0.31980035 -0.077468425
-0.18535435 -0.028532803 -0.28131282 0.2870899 0.25745025 0.07999927 -0.18029353 -0.49122176
0.024888305 -0.29409775 0.07561518 -0.050722692 -0.10952665 -0.37345347 -0.06464999 -0.5088089
-0.07769629 0.27143928 -0.05106877 -0.03720247 -0.032103054 0.07425569 0.090268485 0.030865848
-0.31809884 -0.6501829 -0.020699725 0.021626014 0.063688934 -0.1082163 0.37770382 0.069598965
0.10719707 -0.21711141 -0.29969245 -0.03774087 -0.023873942 -0.4882243 -0.14832935 0.12954105
0.08534737 0.35568208 0.15996219 -0.26994774 -0.07644254 0.120047435 -0.04589959 -0.15422605
-0.100318804 0.0492312 -0.57574964 0.38718167 0.19288467 0.22673835 -0.0044477787 0.051161095
0.12361496 -0.567113 -0.12555028 0.25737885 0.018473234 0.12861763 -0.42100814 -0.06597177
0.0664763 -0.3606041 -0.49345583 -0.19685598 -0.32513943 -0.22489509 0.04628247 0.1556858
0.15461987 0.08771066 0.44493806 0.096537024 -0.79732 -0.04298703 -0.14638717 -0.054086987
-0.3016287 0.109039694 -0.014934495 -0.05673699 -0.13830812 -0.26733407 -0.24465744 -0.10312521
-0.37214267 0.02719239 -0.01969418 -0.0979434 0.18916547 -0.026838526 -0.5042572 0.4793506
0.0075734835 0.015005068 -0.10423941 -0.034870908 -0.008231184 -0.3521558 -0.08328176 -0.099260256
-0.117166266 0.083875746 -0.23946658 0.14533672 0.0555564 0.03590061 -0.15907173 0.16136079
-0.5015567 -0.15152557 0.13067836 0.10436304 -0.4223278 0.14683028 -0.054404564 0.061828203
-0.060092278 -0.10497749 -0.31557676 -0.21580988 -0.01838226 -0.09792753 0.06666956 -0.12876417
0.21990302 0.20374271 -0.019960817 -0.41660237 0.040072564 -0.035844482 -0.07436566 0.16320498
-0.18988316 0.17396595 -0.30160367 0.02687802 0.01686363 0.117268875 -0.12032899 -0.071072124
-0.048160978 -0.22063923 0.05795059 -0.10314414 -0.09011053 -0.115627386 -0.14053376 0.04930201
0.058336884 0.1718119 -0.02636984 -0.17781919 -0.032312173 0.1325833 -0.13869427 -0.12298984
-0.11274294 0.20365925 -0.20763764 -0.044734865 -0.038542595 -0.064758465 -0.05041594 0.027541313
-0.4464444 -0.23449047 -0.025759831 -0.07933737 0.09103034 0.10128305 0.03592195 -0.19131069
-0.29770383 -0.17201892 0.013408296 0.14451045 0.09246579 -0.26561806 -0.15865813 -0.20990326
0.0019423553 -0.027383579 0.23475137 0.1238817 -0.16455694 -0.10128912 0.09702397 -0.04628368
0.14845125 -0.0011274588 0.012931698 -0.031185137 -0.03506645 -0.21853153 -0.06980865 0.036762875
-0.40028566 0.05706133 0.009465596 0.06786212 -0.052620437 0.056097478 0.05666259 0.057337508
-0.09901322 0.24481171 0.11152981 0.013351633 0.14758752 0.15858874 -0.11481877 0.031315595
0.04333086 -0.054278925 -0.15025616 0.07392211 0.045307793 -0.05820016 0.059931595 -0.07204903
00000000: 8e12 c4be 3686 d93d d324 963e c0b0 c7bd
00000010: fe3f 863d edf2 4f3e 6809 793e 055f 173e
00000020: 7cf8 d23e 9a4d 6fbe 4223 09bf 5835 ca3d
00000030: 252e a0bd 6874 8ebe dd5f ba3e 9c7a e43d
00000040: f71f d23e c581 dcbe 9fec 18bf 52db debe
00000050: fa10 413c 2f18 63bb f4da a83d 829a ccbd
00000060: 868d b0bd d46b 2a3e aa21 dc3e b1f2 72be
00000070: 5d37 a7be 5575 a53e dfbc a33e c4a7 9ebd
00000080: 88cd 3dbe a0bd e9bc 3c08 90be 73fd 923e
00000090: 85d0 833e a8d6 a33d de9e 38be 6b81 fbbe
000000a0: 8fe2 cb3c fb93 96be 22dc 9a3d 99c2 4fbd
000000b0: 824f e0bd 4b35 bfbe 3767 84bd 4d41 02bf
000000c0: 3c1f 9fbd 17fa 8a3e 7d2d 51bd 9e61 18bd
000000d0: 7e7e 03bd 5e13 983d afde b83d 60da fc3c
000000e0: dadd a2be 6372 26bf 7892 a9bc 0a29 b13c
000000f0: 586f 823d 82a0 ddbd 6562 c13e e789 8e3d
00000100: 238a db3d 7452 5ebe 4a71 99be 2c96 1abd
00000110: 4993 c3bc 89f8 f9be a6e3 17be 69a6 043e
00000120: 9aca ae3d f61b b63e 21cd 233e 9736 8abe
00000130: e88d 9cbd 6edb f53d 3501 3cbd 6fed 1dbe
00000140: f273 cdbd a8a6 493d 5464 13bf ad3c c63e
00000150: 8f83 453e 192e 683e acbe 91bb 4c8e 513d
00000160: d729 fd3d 512e 11bf 4190 00be 29c7 833e
00000170: 2e55 973c 57b4 033e 618e d7be 351c 87bd
00000180: ba24 883d 1aa1 b8be 3ea6 fcbe 9d94 49be
00000190: ad78 a6be e64a 66be b092 3d3d 196c 1f3e
000001a0: ac54 1e3e a6a1 b33d ecce e33e 34b5 c53d
000001b0: 2a1d 4cbf 2b13 30bd 85e6 15be 518a 5dbd
000001c0: 146f 9abe 3450 df3d d0af 74bc 0c65 68bd
000001d0: a5a0 0dbe 03e0 88be 7b87 7abe 4f33 d3bd
000001e0: 7c89 bebe 93c2 de3c b055 a1bc 8d96 c8bd
000001f0: 98b4 413e 78dc dbbc 0017 01bf 716d f53e
00000200: fc2a f83b d1d7 753c 797b d5bd ccd4 0ebd
00000210: 17dc 06bc c44d b4be a18f aabd f648 cbbd
00000220: def4 efbd 0cc7 ab3d ba36 75be 26d3 143e
00000230: 1c8f 633d 850c 133d b3e3 22be c33b 253e
00000240: 0566 00bf 8529 1bbe 8cd0 053e 4abc d53d
00000250: 593b d8be ad5a 163e 52d7 5ebd 923f 7d3d
00000260: 5223 76bd 70fe d6bd 4793 a1be 44fd 5cbe
00000270: 6596 96bc 3b8e c8bd 0d8a 883d c1da 03be
00000280: 422e 613e eea1 503e de84 a3bc e84c d5be
00000290: 2123 243d aad1 12bd 064d 98bd 351f 273e
000002a0: bb70 42be 2124 323e cc6b 9abe 4b2f dc3c
000002b0: 9825 8a3c aa2a f03d 0c6f f6bd 438e 91bd
000002c0: 7244 45bd 40ef 61be 995d 6d3d 3c3d d3bd
000002d0: df8b b8bd 0dce ecbd 15e8 0fbe e8f0 493d
000002e0: a8f2 6e3d 75ef 2f3e 9005 d8bc 3c16 36be
000002f0: c559 04bd ebc3 073e df05 0ebe 19e2 fbbd
00000300: c5e5 e6bd 0d8c 503e f69e 54be e83b 37bd
00000310: d7de 1dbd 16a0 84bd f280 4ebd 529e e13c
00000320: 5c94 e4be 451e 70be 4806 d3bc a27b a2bd
00000330: 1d6e ba3d 7d6d cf3d e522 133d f3e6 43be
00000340: a36c 98be ba25 30be 78ae 5b3c 8cfa 133e
00000350: b45e bd3d 17ff 87be 4777 22be e1f0 56be
00000360: a196 fe3a 8753 e0bc aa62 703e b0b5 fd3d
00000370: 9d81 28be ac70 cfbd 81b4 c63d f593 3dbd
00000380: 9b03 183e 3dc7 93ba 79df 533c f977 ffbc
00000390: d6a1 0fbd bbc6 5fbe d6f7 8ebd ab94 163d
000003a0: 3ef2 ccbe 24b9 693d 9615 1b3c 4cfb 8a3d
000003b0: 8788 57bd 78c6 653d 0817 683d bcda 6a3d
000003c0: 71c7 cabd ecaf 7a3e be69 e43d cfc0 5a3c
000003d0: 2f21 173e 1665 223e 1a26 ebbd c844 003d
000003e0: b37b 313d 9453 5ebd c0dc 19be 7a64 973d
000003f0: aa94 393d 4a63 6ebd d57a 753d 718e 93bd

all_embed.embed_2.bias f4 [128]
-0.27403843 0.05945552 0.025868203 -0.065349355 0.19828403 -0.019676428 -0.15458874 -0.07749441
-0.012561153 -0.10454957 -0.124269135 -0.007979724 0.0023182859 0.12483624 -0.07121454 0.14421193
0.020350536 5.9285452e-05 -0.111286335 -0.013986042 0.010158468 0.021962808 -0.03450549 -0.163265
-0.07367436 -0.007177165 -0.13900574 -0.057077065 -0.13302423 -0.13467708 -0.07002678 -0.09870977
-0.031948067 -0.14036016 -0.2447626 -0.12796965 -0.20527233 -0.16012505 0.03030088 -0.04138658
0.036615133 -0.022683116 0.1449402 0.1302121 -0.11138249 -0.09560358 -0.062143296 0.11999104
0.10842228 -0.10505675 0.026373824 0.00084608264 0.007078198 0.003717087 -0.21486887 -0.23734799
-0.07093785 -0.08422277 -0.0480587 -0.29641542 -0.004320634 0.03876891 0.07123187 -0.049735293
0.008823118 0.062211767 -0.10132537 -0.0054265605 -0.042850424 0.12672073 0.019523647 0.05456696
-0.039697815 -0.1321956 0.1678025 -0.017889597 -0.084088996 -0.19793999 0.02950279 0.10552448
-0.10327606 -0.23892546 -0.1303055 -0.108168386 -0.079386696 0.053357147 0.007873929 -0.2631639
0.033331133 -0.11039599 0.013946071 0.010813075 -0.00905355 -0.00064277055 -0.0052093854 0.0019041206
0.10144251 -0.031496063 0.03159995 0.08155874 -0.15589659 -0.056109507 0.0063935705 0.026131043
-0.42947385 -0.11388323 -0.028611602 -0.06948421 -0.05313864 -0.1945022 -0.06507696 -0.03588166
-0.011620416 -0.011925233 0.13266414 -0.09893201 0.13746534 0.044416904 -0.056737833 -0.097975336
0.022484953 -0.09264301 -0.04408474 -0.059325337 -0.011003612 -0.1294508 -0.03657956 0.14563704
00000000: c44e 8cbe a287 733d 8ee9 d33c e2d5 85bd
00000010: f80a 4b3e 7630 a1bc 834c 1ebe 64b5 9ebd
00000020: 4bcd 4dbc 161e d6bd d180 febd 63bd 02bc
00000030: 62ee 173b 25aa ff3d eed8 91bd 4bac 133e
00000040: 2bb6 a63c 45a9 7838 17ea e3bd b625 65bc
00000050: b46f 263c 59eb b33c a155 0dbd f12e 27be
00000060: 95e2 96bd 6c2e ebbb 8557 0ebe a4c9 69bd
00000070: 8137 08be cae8 09be 336a 8fbd 5928 cabd
00000080: fadb 02bd 93ba 0fbe 0ca3 7abe 7a0a 03be
00000090: e932 52be d2f7 23be 8d39 f83c f984 29bd
000000a0: c0f9 153d f1d1 b9bc 346b 143e 5256 053e
000000b0: 811c e4bd cfcb c3bd f889 7ebd ddbd f53d
000000c0: 800c de3d fe27 d7bd eb0d d83c a5cb 5d3a
000000d0: 3af0 e73b 5f9a 733b 9606 5cbe 5a0b 73be
000000e0: dd47 91bd fd7c acbd 33d9 44bd c3c3 97be
000000f0: 1b94 8dbb 26cc 1e3d 04e2 913d 3cb7 4bbd
00000100: d78e 103c c4d1 7e3d ad83 cfbd 4ad1 b1bb
00000110: ed83 2fbd 14c3 013e 0ef0 9f3c 9b81 5f3d
00000120: 2d9a 22bd 495e 07be 6bd4 2b3e 348d 92bc
00000130: da36 acbd c8b0 4abe d6af f13c 381d d83d
00000140: 6682 d3bd e0a8 74be ce6e 05be 6387 ddbd
00000150: 7e95 a2bd 068d 5a3d a701 013c 6bbd 86be
00000160: 3a86 083d 4b17 e2bd 107e 643c 5329 313c
00000170: 5755 14bc 9a7f 28ba 7eb3 aabb af93 f93a
00000180: 17c1 cf3d 0402 01bd f36e 013d 4508 a73d
00000190: 5ba3 1fbe 15d3 65bd 2881 d13b c510 d63c
000001a0: ffe3 dbbe 9c3b e9bd e162 eabc bd4d 8ebd
000001b0: e7a7 59bd 962b 47be 1247 85bd a6f8 12bd
000001c0: 8f63 3ebc 0d62 43bc 1cd9 073e de9c cabd
000001d0: b7c3 0c3e 80ee 353d ee65 68bd 4ba7 c8bd
000001e0: 5d32 b83c 9ebb bdbd 3392 34bd 20ff 72bd
000001f0: 7e48 34bc c08e 04be 73d4 15bd e021 153e

pointer.v f4 [1, 1, 128]
1.975274 0.37253836 0.3072059 0.96543807 -2.2259588 0.40740043 -3.1078815 -0.75597227
-1.9313729 -2.1608813 -2.0916312 3.2081718 0.8146411 -2.1261282 -0.61303645 -2.685251
-1.4219625 -1.0400147 3.812298 2.7372348 -0.7289729 -1.3289607 -2.0679278 1.5782949
-0.3702981 -1.4552625 -1.4580253 0.44899258 -0.8516492 -1.0398098 2.0192854 0.86216724
1.817722 1.7891564 1.5334586 -0.6531812 -0.7397998 -0.62617314 0.22719392 2.4947608
-1.4873878 1.0636014 -0.6787191 -1.1910915 -1.3234521 2.040316 -1.8185968 -0.92104775
-0.69810295 0.3912536 0.38905287 -0.18507136 -1.2320478 0.8679941 2.0766 3.339236
-0.6009644 -0.8335728 0.86145884 1.8218461 0.9763698 2.3575137 3.3524163 -0.7661473
0.41582006 -0.18547219 -1.2481505 0.228604 0.56976986 -0.88627344 -0.61974174 -1.3949702
-0.28043818 -1.751571 -1.2151606 0.40380678 -0.20702775 1.744094 -0.515467 -0.3738617
-2.7032938 3.7809575 1.5192783 -1.2454989 -1.0627848 -0.33409584 -0.13135207 1.8163861
2.139075 1.1123987 0.3068274 -1.5191561 -0.91937923 -0.13114646 0.9304861 2.1748924
-1.5937488 -0.72559077 2.5914056 -1.6951263 -2.1538048 -0.63998187 2.251958 0.57871366
2.0726287 1.973829 -1.235472 -0.65258193 -0.7181536 -2.3022676 -1.59447 -2.0978591
-0.82156336 -1.881334 -1.9982369 -3.5500007 -0.99386644 -0.28301808 -0.34386033 1.0911177
-0.5130546 -0.123764984 1.2358365 -0.6174975 -0.37226218 1.6213667 -1.7950976 -1.0204415
00000000: c7d5 fc3f 59bd be3e 174a 9d3e f326 773f
00000010: 1c76 0ec0 ca96 d03e 88e7 46c0 6687 41bf
00000020: 3a37 f7bf e14b 0ac0 49dd 05c0 b052 4d40
00000030: 528c 503f 7c12 08c0 f5ef 1cbf 27db 2bc0
00000040: de02 b6bf 341f 85bf b1fc 7340 db2e 2f40
00000050: f89d 3abf 621b aabf ee58 04c0 9105 ca3f
00000060: b697 bdbe 0b46 babf 93a0 babf 5be2 e53e
00000070: af05 5abf 7d18 85bf f93b 0140 feb6 5c3f
00000080: 1dab e83f 1403 e53f 5f48 c43f e236 27bf
00000090: 8563 3dbf e24c 20bf 86a5 683e 29aa 1f40
000000a0: b962 bebf 1724 883f 89c0 2dbf b075 98bf
000000b0: e166 a9bf 8a94 0240 c8c7 e8bf c9c9 6bbf
000000c0: e0b6 32bf 6452 c83e f031 c73e 5983 3dbe
000000d0: beb3 9dbf dd34 5e3f 04e7 0440 0bb6 5540
000000e0: ced8 19bf 0765 55bf 9188 5c3f 4132 e93f
000000f0: 5ff3 793f 81e1 1640 fd8d 5640 3b22 44bf
00000100: 5ee6 d43e 6cec 3dbe 65c3 9fbf 2b17 6a3e
00000110: 70dc 113f d1e2 62bf 65a7 1ebf 628e b2bf
00000120: 9895 8fbe 7b33 e0bf 628a 9bbf c3bf ce3e
00000130: 15ff 53be 793e df3f a5f5 03bf cd6a bfbe
00000140: c402 2dc0 35fb 7140 b677 c23f 826c 9fbf
00000150: 5509 88bf 9c0e abbe 2881 06be 577f e83f
00000160: 9be6 0840 1563 8e3f 7b18 9d3e b573 c2bf
00000170: 705c 6bbf 424b 06be 5634 6e3f 7031 0b40
00000180: f6ff cbbf 51c0 39bf 97d9 2540 e6f9 d8bf
00000190: f0d7 09c0 dad5 23bf 1420 1040 9426 143f
000001a0: f3a5 0440 6ea6 fc3f f223 9ebf 9c0f 27bf
000001b0: ead8 37bf 5a58 13c0 9817 ccbf 5343 06c0
000001c0: fa51 52bf 8dcf f0bf 3ac6 ffbf 3633 63c0
000001d0: 086e 7ebf bfe7 90be 760e b0be bfa9 8b3f
000001e0: 8c57 03bf 7f78 fdbd e42f 9e3f 5114 1ebf
000001f0: 2699 bebe f288 cf3f c2c5 e5bf d49d 82bf

pointer.encoder_attn.v f4 [1, 1, 128]
-0.19247532 -0.2026875 -0.058003213 -0.070438854 -0.077149846 0.13019417 0.15041311 0.11590565
-0.0813246 0.11609823 -0.013745783 -0.049656972 -0.30192256 0.14590262 0.0507648 0.28284645
-0.17329708 -0.0436865 0.076997675 0.051671114 0.15088749 -0.090134725 -0.14733995 0.2889555
-0.19577992 0.20760092 -0.009808228 -0.18642642 0.19937825 -0.09041221 0.040990893 0.058612145
-0.0869279 -0.11880821 0.04082596 0.18741696 -0.06110742 0.16271833 -0.10448539 0.061262324
0.12056774 -0.027131682 -0.10902081 -0.13024178 0.14418605 -0.1713756 -0.08748931 -0.0067686136
0.095627315 -0.005949734 0.10719976 0.14236315 0.17487746 0.15308885 0.09758969 0.02244216
0.123737894 0.051054478 0.2213781 0.044245794 0.14620878 -0.11314383 0.17608902 -0.17973496
-0.14405756 -0.08293008 0.053025458 0.17139143 0.04737659 0.22106878 0.11241894 -0.057397522
0.13116556 0.104563415 0.124995604 0.083000496 -0.016802946 -0.025515592 0.050733645 -0.030999338
-0.0357153 0.011426204 0.1965998 0.120896876 0.08983564 0.14170535 0.0014833129 0.021966588
-0.07333604 -0.2123118 -0.20708781 0.029535623 0.059352368 -0.015730286 0.2793925 -0.10121072
0.09103173 0.09647294 0.09224966 0.11486139 -0.14861551 0.15291981 0.08538137 0.07061074
0.12353067 -0.22797538 0.016607061 -0.11094867 0.14412004 -0.10089246 -0.085048184 -0.013576918
-0.2255969 -0.058202468 0.16495116 0.16824797 0.082167 0.16140495 0.033798777 -0.11054828
-0.20813638 0.2937022 0.09125103 0.08438264 -0.022515202 -0.10587118 -0.17879765 -0.1673483
00000000: 4018 45be 508d 4fbe c794 6dbd 3f42 90bd
00000010: bd00 9ebd 9f51 053e e505 1a3e f15f ed3d
00000020: 838d a6bd e9c4 ed3d fe35 61bc 1c65 4bbd
00000030: 9895 9abe 7f67 153e c0ee 4f3d 40d1 903e
00000040: ca74 31be 9ef0 32bd f5b0 9d3d 17a5 533d
00000050: 4082 1a3e 8e98 b8bd 49e0 16be faf1 933e
00000060: 887a 48be 5695 543e b1b2 20bc 91e6 3ebe
00000070: d029 4c3e 092a b9bd 11e6 273d 4a13 703d
00000080: 4107 b2bd b851 f3bd 1f39 273d 3bea 3f3e
00000090: c64b 7abd a29f 263e 70fc d5bd 34ee 7a3d
000000a0: 38ec f63d 4343 debc 4d46 dfbd 1a5e 05be
000000b0: 82a5 133e 167d 2fbe 982d b3bd 3fcb ddbb
000000c0: 41d8 c33d fcf5 c2bb 8c8b db3d a5c7 113e
000000d0: 1413 333e 53c3 1c3e 1add c73d 9fd8 b73c
000000e0: 4b6a fd3d 801e 513d f1b0 623e 143b 353d
000000f0: c1b7 153e f4b7 e7bd ae50 343e 710c 38be
00000100: d383 13be 3fd7 a9bd 3931 593d 3c81 2f3e
00000110: f50d 423d db5f 623e e73b e63d aa19 6bbd
00000120: 4450 063e 5825 d63d b2fd ff3d 2afc a93d
00000130: 55a6 89bc 1306 d1bc 15ce 4f3d 53f2 fdbc
00000140: 354a 12bd f934 3b3c 7551 493e c898 f73d
00000150: bffb b73d 351b 113e b96b c23a 46f3 b33c
00000160: 3531 96bd 4468 59be d40e 54be b1f4 f13c
00000170: 781b 733d cddc 80bc 890c 8f3e 9147 cfbd
00000180: d86e ba3d 9b93 c53d 64ed bc3d 733c eb3d
00000190: aa2e 18be 0397 1c3e 6ddc ae3d 5d9c 903d
000001a0: a6fd fc3d 6172 69be 880b 883c 0e39 e3bd
000001b0: 3494 133e b5a0 cebd be2d aebd b971 5ebc
000001c0: e002 67be b665 6ebd f5e8 283e 3249 2c3e
000001d0: 2c47 a83d 5747 253e 9670 0a3d 2367 e2bd
000001e0: b421 55be 2260 963e d2e1 ba3d ced0 ac3d
000001f0: cd71 b8bc fdd2 d8bd bb16 37be 5a5d 2bbe

pointer.encoder_attn.W f4 [1, 128, 256]
0.013343957 0.044036396 0.08839839 -0.007904131 0.09593661 0.048805572 -0.0031986535 -0.10217108
0.032189228 0.05917428 0.04601534 0.041724607 -0.016964884 0.039242197 -0.075605206 0.09638861
0.07775263 0.07165675 -0.020460293 0.003949373 -0.084207356 0.090458296 0.020361938 0.012415356
-0.051677708 0.05249871 0.017656358 -0.010390762 0.09041243 -0.058486268 0.08689022 -0.05837886
0.101205274 0.060453277 0.052748233 -0.07656231 -0.035484105 -0.02556568 -0.036362838 0.024190832
0.11588938 0.010125257 0.021020254 -0.035103433 -0.044739902 0.008980837 0.05194763 -0.050144516
0.09132733 -0.034025747 0.009603802 0.010684448 -0.046596058 0.07869923 0.035994146 -0.050961606
0.08415006 0.013914624 0.03351998 0.0019316649 0.0076206625 0.040907472 -0.0057507064 -0.07201208
0.046767995 -0.074243076 -0.0133139575 -0.03907668 0.069096915 -0.033323 -0.026285756 0.062428556
0.11779477 0.12074109 0.006385653 -0.06876553 0.004318589 -0.07594142 -0.050819058 -0.005684851
0.048084367 -0.084194295 0.026925743 0.05638545 0.0809192 -0.027426612 -0.05837593 0.054821506
0.04367677 -0.078666404 0.02918972 -0.03859686 0.028820435 0.020609597 -0.030181766 0.024516597
-0.0015366948 -0.021547236 0.08905459 -0.029139 0.022685802 0.035570186 0.00028976917 -0.059866976
-0.017149579 0.09871341 0.04400899 -0.010811315 -0.08569296 0.06183716 -0.0071969344 -0.001691843
0.037076056 0.031263765 0.007931769 0.08835417 0.04896055 0.014217971 -0.055841226 -0.048573453
-0.08312807 -0.08207991 0.05213464 -0.11813096 -0.034826763 0.087551445 0.009241657 0.049813718
0.07009565 0.11733846 0.03032192 0.28915244 0.07728663 0.049718864 0.0029555408 0.08157435
0.09264569 0.019243462 -0.11844714 0.17738813 0.11038986 -0.08405691 0.08839194 -0.2074717
0.22255078 0.19325522 0.24121691 -0.13868342 -0.25553605 -0.10458231 -0.21104433 -0.05006402
-0.19153842 -0.20970638 0.22616367 0.15597223 -0.012854952 0.1470725 0.04741995 -0.0055381674
-0.22370765 -0.0227362 0.013551111 -0.25712103 -0.017441157 -0.08261901 0.18366653 -0.043019496
-0.24732909 -0.31004864 -0.08416518 -0.09021444 0.0127425 0.013990649 -0.17072359 -0.24370989
0.11174003 -0.1329399 -0.047855366 0.0039741653 0.055393882 0.033204004 -0.07549983 -0.16845375
0.29094043 0.04042131 0.08706607 0.09652225 -0.076311916 0.11031167 0.011038475 0.028190535
0.093631305 0.018996853 0.049794786 0.09050702 0.112568974 0.088681 -0.1787492 -0.012284392
0.07122803 0.033384707 0.26081315 -0.11827644 -0.1967667 -0.07387036 0.14228441 -0.03359939
-0.15525591 -0.084606946 -0.084320836 -0.020215245 -0.2057954 0.07580775 -0.018397018 -0.19587682
-0.04898671 -0.02118239 0.21054113 -0.071809106 -0.012984223 -0.19052139 -0.108167395 -0.1305937
-0.009789288 -0.098488964 0.09284717 0.019837147 -0.073603876 -0.09402629 0.217513 0.20836283
-0.063998036 0.12158071 0.1059494 0.0019797971 0.17568156 -0.15380555 -0.05466484 0.04503675
0.16761883 0.03184538 -0.048760224 0.13024665 -0.16313252 -0.07161651 0.14719847 0.12848987
-0.16144648 -0.014453259 -0.05176202 -0.04798004 0.2011637 -0.124607116 -0.21159238 0.055846818
00000000: 9da0 5a3c 825f 343d 370a b53d 5480 01bc
00000010: 6a7a c43d 5ae8 473d 80a0 51bb 123f d1bd
00000020: dad8 033d bb60 723d 957a 3c3d 6ce7 2a3d
00000030: f1f9 8abc 6dbc 203d e7d6 9abd 6467 c53d
00000040: c53c 9f3d c6c0 923d 589c a7bc be69 813b
00000050: e874 acbd 3342 b93d 14ce a63c c769 4b3c
00000060: 01ac 53bd e308 573d 11a4 903c 043e 2abc
00000070: 272a b93d 4c8f 6fbd 80f3 b13d ac1e 6fbd
00000080: b644 cf3d db9d 773d 880e 583d b3cc 9cbd
00000090: c857 11bd 1e6f d1bc 33f1 14bd da2b c63c
000000a0: 6957 ed3d 68e4 253c ab32 ac3c 9ec8 0fbd
000000b0: 3041 37bd 5c24 133c 0ac7 543d 5664 4dbd
000000c0: d309 bb3d 955e 0bbd 4459 1d3c d30d 2f3c
000000d0: 82db 3ebd 102d a13d 996e 133d 1ebd 50bd
000000e0: de56 ac3d 2afa 633c 3f4c 093d eb2f fd3a
000000f0: c0b6 f93b 988e 273d 6c70 bcbb 127b 93bd
00000100: cc8f 3f3d c10c 98bd c922 5abc de0e 20bd
00000110: af82 8d3d b37d 08bd 3a55 d7bc 16b5 7f3d
00000120: 623e f13d 1b47 f73d bd3e d13b f1d4 8cbd
00000130: f382 8d3b 2d87 9bbd a527 50bd fd47 babb
00000140: 1df4 443d 0f6e acbd 6093 dc3c 6ef4 663d
00000150: f7b8 a53d c6ad e0bc 991b 6fbd 848c 603d
00000160: 6ae6 323d da1b a1bd 481f ef3c be17 1ebd
00000170: d518 ec3c 75d5 a83c c03f f7bc 08d7 c83c
00000180: ec6a c9ba d483 b0bc 4162 b63d eab4 eebc
00000190: 93d7 b93c 0bb2 113d 29ec 9739 1337 75bd
000001a0: 467d 8cbc 422a ca3d c542 343d f121 31bc
000001b0: ca7f afbd f648 7d3d 43d4 ebbb d5c0 ddba
000001c0: 10dd 173d 6f0e 003d 40f4 013c 08f3 b43d
000001d0: dc8a 483d 7ef2 683c c5b9 64bd f5f4 46bd
000001e0: 0d3f aabd 8319 a8bd 228b 553d a5ee f1bd
000001f0: 82a6 0ebd 2c4e b33d 526a 173c 7809 4c3d
00000200: 4f8e 8f3d 264f f03d ad65 f83c ca0b 943e
00000210: 7448 9e3d 02a6 4b3d bfb1 413b 7410 a73d
00000220: 06bd bd3d 77a4 9d3c 6a94 f2bd 3ca5 353e
00000230: 1414 e23d 0726 acbd d506 b53d 7673 54be
00000240: 5ae4 633e b2e4 453e 9101 773e 0703 0ebe
00000250: 9fd5 82be 402f d6bd 011c 58be ee0f 4dbd
00000260: a622 44be 45bd 56be 7397 673e 2fb7 1f3e
00000270: 949d 52bc 2c9a 163e 6c3b 423d 8479 b5bb
00000280: 9e13 65be 4441 babc 7b05 5e3c 5ea5 83be
00000290: c2e0 8ebc 2834 a9bd 1413 3c3e 3635 30bd
000002a0: d643 7dbe b2be 9ebe cb5e acbd 59c2 b8bd
000002b0: ebc5 503c 0939 653c 2ad2 2ebe 168f 79be
000002c0: f5d7 e43d 6621 08be fd03 44bd b739 823b
000002d0: b2e4 623d ec00 083d a89f 9abd 247f 2cbe
000002e0: 25f6 943e d190 253d b24f b23d 75ad c53d
000002f0: 6c49 9cbd 16eb e13d b8da 343c d6ef e63c
00000300: c5c1 bf3d 4a9f 9b3c 9ef5 4b3d bf5b b93d
00000310: 908a e63d 629e b53d 080a 37be 7944 49bc
00000320: 00e0 913d 67be 083d 4d89 853e eb3a f2bd
00000330: 367d 49be 5849 97bd 01b3 113e 849f 09bd
00000340: 68fb 1ebe 6846 adbd 67b0 acbd 719a a5bc
00000350: 08bc 52be 1841 9b3d 58b5 96bc ef93 48be
00000360: 4aa6 48bd b186 adbc 1898 573e a710 93bd
00000370: c7bb 54bc 0a18 43be de86 ddbd 5bba 05be
00000380: 4063 20bc 95b4 c9bd a826 be3d 8381 a23c
00000390: a1bd 96bd db90 c0bd babb 5e3e 115d 553e
000003a0: 6711 83bd 4fff f83d 00fc d83d 7cbf 013b
000003b0: dee5 333e 347f 1dbe 3de8 5fbd 7578 383d
000003c0: 45a4 2b3e 4d70 023d cdb8 47bd 615f 053e
000003d0: 360c 27be adab 92bd 32bb 163e d992 033e
000003e0: 3a52 25be 5dcd 6cbc 6904 54bd b886 44bd
000003f0: dbfd 4d3e 0432 ffbd acab 58be a2bf 643d

pointer.fc1.weight f4 [128, 256]
0.13158067 0.21739516 0.08011534 0.1700953 0.18590748 -0.105312176 -0.029850839 -0.012493736
-0.032380223 0.0015079546 -0.2556292 0.2287235 0.075675 -0.010506277 0.07411238 -0.2698579
0.27169138 0.15044238 0.106572546 -0.156682 -0.009642533 -0.17530167 -0.22788006 0.08304285
-0.2624776 -0.15771843 0.19055344 -0.02122765 0.09185082 0.21752463 0.027472135 0.09198552
-0.2717032 0.098188706 -0.077408046 -0.25101498 -0.060414806 -0.23450907 0.17551333 -0.04510945
0.07226056 -0.271627 -0.3142585 -0.24204133 0.05556216 -0.011693459 -0.095337495 -0.090799734
0.047267914 -0.1646044 -0.17877539 -0.019001292 -0.11916953 -0.050981 -0.15716386 -0.035325564
0.08023234 0.16386038 0.1140403 0.041104168 -0.06198802 0.28522405 0.14241205 -0.013083173
0.21257249 -0.029361606 0.061516725 -0.087258525 0.28344354 -0.0374145 -0.08608389 0.067029044
0.005242871 0.1028224 0.14860669 -0.17058319 0.1386989 -0.21369325 0.15255655 -0.13950735
-0.20532537 -0.17273922 0.028890602 -0.07683889 -0.23146728 -0.09473001 -0.08844367 -0.062128786
-0.1438218 -0.02333321 -0.11196302 -0.064584315 0.35895196 -0.16990457 -0.0058952845 -0.084882155
0.17430672 -0.17750072 0.22637229 -0.040039647 -0.049742058 -0.25778505 0.19028565 0.26567215
-0.03236578 0.0024005438 0.20603076 0.018725373 0.21238127 -0.28064856 -0.084661864 0.08897291
0.20459843 0.09138866 0.006999928 0.24204412 -0.09095451 0.055434838 0.20207538 0.16129284
-0.2835991 -0.058335643 -0.064613305 -0.20248148 0.15257408 -0.12801395 -0.09786455 0.19055983
-0.1308691 -0.030602567 0.0069771395 -0.00807037 0.039994717 0.032957777 0.10883371 -0.054296333
0.113539346 0.0933013 0.007629372 0.054192238 3.5830058e-06 -0.010366915 0.14408003 0.014176251
0.022485448 0.03121997 -0.1252258 -0.012707745 -0.04177234 -0.011715801 0.050869934 0.0072965613
-0.05228199 -0.011658321 0.04147327 -0.056011926 -0.098753884 -0.028249977 0.14957505 -0.07004935
0.124411546 0.14583299 0.07053989 -0.066313505 0.081080124 0.0072062537 -0.07688698 0.1383427
-0.008429086 0.11772738 -0.021355722 -0.048034452 -0.08429095 0.050511025 0.017217873 0.048492946
-0.010502323 0.007877956 -0.11507489 -0.04729611 -0.053414196 -0.05290187 -0.08846764 -0.1484722
-0.09041477 0.0011069479 0.024896583 -0.11281369 0.04458479 0.03424315 -0.023075355 -0.09714426
-0.08785918 0.021647954 -0.11264119 0.023760496 -0.000772306 0.028334979 0.0672429 0.0491494
0.039621912 0.055278238 0.10225571 0.1008365 -0.0638624 -0.053374797 0.13146351 -0.023696745
-0.12394005 0.053328965 0.02724229 -0.054420043 -0.07792338 -0.025818253 0.09468107 -0.1625013
-0.018481236 -0.06922303 0.091658734 -0.0044719065 0.14250866 -0.030819604 -0.0068050134 0.020607753
-0.046774525 0.020241885 0.07339614 0.09547607 -0.025909204 0.120038845 0.09828574 0.046048235
0.059790812 -0.0906294 0.03715228 0.006612468 0.05900465 0.08503494 0.04671569 -0.12462877
-0.01034886 0.06711671 0.07842398 0.13361429 0.028475905 0.015704848 -0.093006514 -0.10365339
-0.12318024 -0.06393848 -0.054865725 -0.08004655 0.08319114 -0.11050599 0.078426346 0.035319664
00000000: 15bd 063e d69c 5e3e 8313 a43d 762d 2e3e
00000010: 885e 3e3e e9ad d7bd bf89 f4bc 87b2 4cbc
00000020: 20a1 04bd 8fa6 c53a d5e1 82be 7e36 6a3e
00000030: 7ffb 9a3d 8522 2cbc 3bc8 973d d12a 8abe
00000040: 221b 8b3e 910d 1a3e b542 da3d 3f71 20be
00000050: b7fb 1dbc 4882 33be 6459 69be 5f12 aa3d
00000060: 7763 86be f180 21be 7120 433e 9ce5 adbc
00000070: 481c bc3d c7be 5e3e 3e0d e13c e862 bc3d
00000080: af1c 8bbe 2917 c93d 1c88 9ebd 0985 80be
00000090: 8475 77bd 2523 70be c4b9 333e b0c4 38bd
000000a0: 58fd 933d b212 8bbe 7de6 a0be afd9 77be
000000b0: 2695 633d ec95 3fbc 4e40 c3bd 36f5 b9bd
000000c0: 009c 413d 0e8e 28be e510 37be 99a8 9bbc
000000d0: 280f f4bd 74d1 50bd 90ef 20be 8ab1 10bd
000000e0: da50 a43d 04cb 273e f68d e93d d85c 283d
000000f0: 26e7 7dbd e308 923e 77d4 113e ce5a 56bc
00000100: 9aac 593e c087 f0bc f6f8 7b3d 99b4 b2bd
00000110: 831f 913e f23f 19bd c04c b0bd 8646 893d
00000120: 64cc ab3b 8d94 d23d 5a2c 183e 5cad 2ebe
00000130: 1607 0e3e 67d2 5abe c937 1c3e 04db 0ebe
00000140: d040 52be 8de2 30be fcab ec3c b55d 9dbd
00000150: c205 6dbe cf01 c2bd f421 b5bd c17a 7ebd
00000160: 0646 13be 4a25 bfbc de4c e5bd c844 84bd
00000170: 8dc8 b73e 77fb 2dbe 3b2d c1bb b2d6 adbd
00000180: 767d 323e c0c2 35be 23ce 673e 9d00 24bd
00000190: 54be 4bbd 67fc 83be 3eda 423e 2e06 883e
000001a0: fb91 04bd 7152 1d3b baf9 523e f465 993c
000001b0: 7a7a 593e 2bb1 8fbe 3363 adbd 6e37 b63d
000001c0: 4082 513e fa29 bb3d a75f e53b 6ada 773e
000001d0: 5c46 babd a40f 633d d9ec 4e3e f329 253e
000001e0: e733 91be 5bf1 6ebd fb53 84bd 4e57 4fbe
000001f0: 613c 1c3e 1716 03be 366d c8bd 1e22 433e
00000200: 8d02 06be 3cb2 fabc 7da0 e43b 9639 04bc
00000210: 80d1 233d bcfe 063d 35e4 de3d d565 5ebd
00000220: 5187 e83d c114 bf3d d0ff f93b aef8 5d3d
00000230: 9273 7036 fed9 29bc b789 133e 8243 683c
00000240: 6733 b83c 06c1 ff3c 313b 00be 2534 50bc
00000250: 7919 2bbd a2f3 3fbc fe5c 503d fe17 ef3b
00000260: a425 56bd 8b02 3fbc e0df 293d c36c 65bd
00000270: 7a3f cabd 7f6c e7bc 342a 193e 0976 8fbd
00000280: 7bcb fe3d 3e55 153e 3877 903d 60cf 87bd
00000290: 560d a63d 7022 ec3b ec76 9dbd b5a9 0d3e
000002a0: 261a 0abc 0d1b f13d 32f2 aebc c6bf 44bd
000002b0: bca0 acbd a6e4 4e3d 7f0c 8d3c 8aa0 463d
000002c0: ef11 2cbc 8b12 013c 62ac ebbd 91b9 41bd
000002d0: d8c8 5abd a2af 58bd 862e b5bd 1909 18be
000002e0: 612b b9bd 0217 913a ebf3 cb3c dd0a e7bd
000002f0: 8a9e 363d 8c42 0c3d 8708 bdbc 92f3 c6bd
00000300: 84ef b3bd 0d57 b13c 6db0 e6bd 5fa5 c23c
00000310: 9474 4aba c21e e83c a5b6 893d e250 493d
00000320: 964a 223d 6f6b 623d 716b d13d 5e83 ce3d
00000330: 4aca 82bd 889f 5abd 5f9e 063e ad1f c2bc
00000340: 48d4 fdbd 796f 5a3d 392b df3c 8de7 5ebd
00000350: 4b96 9fbd cd80 d3bc 26e8 c13d be66 26be
00000360: f665 97bc cec4 8dbd 93b7 bb3d 1289 92bb
00000370: caed 113e 6579 fcbc 97fc debb 97d1 a83c
00000380: a596 3fbd 4fd2 a53c b750 963d f588 c33d
00000390: 8a3f d4bc edd6 f53d 094a c93d 139d 3c3d
000003a0: 36e7 743d e89b b9bd fd2c 183d 67ad d83b
000003b0: dcae 713d cc26 ae3d f458 3f3d 5e3d ffbd
000003c0: 448e 29bc 7c74 893d c09c a03d 2fd2 083e
000003d0: 4d46 e93c 74a7 803c 337a bebd 3b48 d4bd
000003e0: ec45 fcbd 2ef2 82bd e2ba 60bd 72ef a3bd
000003f0: 1e60 aa3d f750 e2bd fe9d a03d 5aab 103d

pointer.fc1.bias f4 [128]
0.055740193 0.009375111 0.005464667 -0.052261658 0.010849072 0.037914418 -0.018819902 0.0006490388
-0.013333552 0.017322933 0.0062003518 0.04058688 -0.03226669 -0.030369233 0.03152814 -0.024036886
-0.032337092 0.031138923 0.043966852 0.022898233 0.07544406 0.05095404 0.048436586 -0.06012364
-0.035295874 0.10554552 -0.015429134 -0.04071605 -0.008799884 0.08993119 0.059434235 0.09728532
-0.0060569122 0.047566693 -0.03639625 -0.019107793 0.05360696 -0.03458602 -0.03628492 -0.060063757
-0.029161256 0.015278805 -0.060707554 0.05872462 0.055945843 0.007215031 -0.013412168 0.029407438
-0.0073981313 -0.048151024 0.003829735 -0.027398989 -0.07256214 -0.04478338 0.08229935 0.033755448
-0.06392899 -0.022664445 0.04591802 0.034521554 0.06886084 0.03673951 0.04417919 0.043669146
0.010748597 0.025797473 -0.00014176709 0.008394559 -0.05270043 0.033383954 -0.065024056 0.09270626
0.042499203 0.038675204 -0.035433896 -0.013621354 -0.037876543 -0.055207055 -0.065493174 -0.055640616
-0.055985004 0.06075692 0.037196442 -0.034982 0.019256584 0.028189322 -0.01660764 -0.036249112
0.059818108 -0.040159427 0.021879474 -0.04285935 -0.023900138 0.046187785 0.0236198 0.061386265
-0.038307894 0.057249166 -0.032212816 -0.06606837 -0.07982537 0.08902216 0.013183625 0.07097402
0.028267547 0.058172125 0.07780669 -0.014791039 0.0040143873 -0.07089218 0.11742094 0.06187746
0.062132705 0.018820899 -0.022017865 0.02081247 0.06925519 0.07108206 0.015010684 0.024724891
-0.040316965 -0.073631115 -0.04536733 -0.046914652 -0.06357277 -0.06561092 0.05797588 -0.01733043
00000000: d44f 643d 119a 193c f310 b33b 5210 56bd
00000010: 4ec0 313c 264c 1b3d 322c 9abc 4224 2a3a
00000020: f874 5abc d3e8 8d3c 522c cb3b 6e3e 263d
00000030: 142a 04bd e6c8 f8bc a723 013d 01e9 c4bc
00000040: e673 04bd 0e17 ff3c 9616 343d 1395 bb3c
00000050: 6a82 9a3d 2fb5 503d 7165 463d 3544 76bd
00000060: 6892 10bd 4028 d83d 7aca 7cbc dfc5 26bd
00000070: 632d 10bc d82d b83d 5071 733d 873d c73d
00000080: 1079 c6bb 4bd5 423d 3c14 15bd f287 9cbc
00000090: f992 5b3d 12aa 0dbd 7f9f 14bd 6a05 76bd
000000a0: 96e3 eebc f453 7a3c 7ca8 78bd 3a89 703d
000000b0: 7827 653d 116c ec3b b6be 5bbc dee7 f03c
000000c0: 066c f2bb 023a 45bd 4bfc 7a3b d873 e0bc
000000d0: 769b 94bd c76e 37bd 908c a83d 2743 0a3d
000000e0: 34ed 82bd c9aa b9bc 8914 3c3d 7966 0d3d
000000f0: e906 8d3d 2b7c 163d 3df5 343d 6bde 323d
00000100: e21a 303c 3955 d33c 50a7 14b9 5589 093c
00000110: 68dc 57bd 9dbd 083d 552b 85bd c8dc bd3d
00000120: a513 2e3d e469 1e3d 2223 11bd 192c 5fbc
00000130: 6f24 1bbd cb20 62bd 4921 86bd 6ae7 63bd
00000140: 8850 65bd 40dc 783d 4c5b 183d 4949 0fbd
00000150: fcbf 9d3c 4bed e63c bf0c 88bc f379 14bd
00000160: d503 753d 367e 24bd 953c b33c 498d 2fbd
00000170: 39ca c3bc 672f 3d3d 507e c13c 2a70 7b3d
00000180: bde8 1cbd 1a7e 6a3d 96f1 03bd db4e 87bd
00000190: 7c7b a3bd 4051 b63d 2200 583c d45a 913d
000001a0: 5891 e73c e545 6e3d 1d59 9f3d 1d56 72bc
000001b0: 1f8b 833b eb2f 91bd 647a f03d 3873 7d3d
000001c0: dd7e 7e3d 492e 9a3c cf5e b4bc ea7e aa3c
000001d0: aad5 8d3d 7993 913d 5fef 753c db8b ca3c
000001e0: 6723 25bd e9cb 96bd 18d3 39bd 9429 40bd
000001f0: 7132 82bd 055f 86bd 1e78 6d3d 8cf8 8dbc

pointer.fc2.weight f4 [128, 128]
0.13399395 -0.08272473 -0.041763894 0.14383765 0.013880499 0.22338668 0.154315 -0.0976646
-0.060843833 -0.12780012 -0.026954683 0.048886906 -0.08679834 -0.06269085 0.022933565 0.011306068
-0.099994436 -0.0074540703 -0.038989153 -0.10654143 -0.04097111 0.022978479 0.05420882 0.05535412
-0.09697014 -0.014912132 0.2946856 -0.008919229 -0.14101847 -0.0027799043 0.04969588 0.14015207
-0.046477906 -0.056961667 -0.08300986 -0.048243135 0.06799893 0.049906578 -0.07947736 -0.056549817
-0.05013864 0.13688111 -0.07495189 0.06462153 0.015457473 0.16072132 0.11242031 0.120757855
0.09147481 -0.021833492 -0.02027699 -0.13337949 0.056454606 0.0988946 0.19787636 -0.08210187
0.10741959 0.28430578 -0.0043825908 0.061001778 0.046799164 0.08696071 -0.028186692 -0.05795717
0.021898052 -0.040628396 0.029866634 -0.121955596 0.15114436 0.08395909 -0.110516146 0.20762669
-0.12490824 0.05669091 -0.015014788 0.23002352 -0.056691512 0.13688627 -0.054422684 0.013615629
0.108315066 -0.029642673 0.003014262 0.01473639 -0.003157109 0.07064308 0.015937245 0.10401006
-0.058141183 0.025174098 -0.070888765 0.20121706 0.10762939 0.11429999 -0.1296138 0.050635815
-0.055301387 0.1527803 0.02133639 -0.09985826 0.12978025 0.10065698 -0.12719406 -0.13754341
-0.015380517 0.09892448 -0.065126404 -0.027547222 0.10918177 -0.028647872 -0.06845597 0.20618749
-0.04799784 0.039777756 -0.11513768 -0.113068014 -0.12579948 0.03440645 0.17189634 -0.017602725
-0.053604748 -0.067966335 0.0107374145 -0.013254143 -0.11045413 -0.024445118 0.08967261 -0.07860375
0.034961395 0.089904174 -0.066839635 0.028387561 0.084346265 -0.11137723 0.11048025 -0.033805415
0.0685081 -0.04700048 0.08344218 0.07193804 -0.005827397 0.065221034 -0.09766667 0.06629728
0.072133884 -0.10598554 0.06903896 -0.060227055 -0.005491552 -0.14613959 -0.08786895 0.08686115
-0.028637052 0.09961072 0.13179487 -7.2778406e-05 0.00295116 -0.14706212 -0.08236273 0.024841357
-0.10844524 -0.15161872 0.023713946 0.08629083 -0.14230803 -0.06339676 -0.03178554 -0.011752665
-0.11795557 0.012547577 -0.12866515 -0.042405557 0.034313057 -0.052740633 0.08237217 0.015467345
-0.122004315 -0.112832405 -0.09091651 -0.026514575 -0.13896911 0.077645466 -0.06705837 0.012916467
0.07627447 0.11915084 -0.08927392 0.06869633 -0.052137066 -0.10165966 -0.1359538 -0.04057858
-0.1232982 0.12058015 -0.10526394 -0.083836295 -0.1575443 0.061275877 -0.02683033 -0.02229843
0.11607968 0.082171164 0.08838883 0.06484847 0.09012665 -0.14523062 0.004379262 0.14008684
-0.12910607 0.0025067856 -0.00049013895 -0.026812837 -0.010261571 0.11291824 0.020241596 -0.14352538
-0.12946759 -0.08431499 0.08551722 0.051589545 -0.015680818 -0.0629091 0.038201377 -0.039194055
-0.16128623 0.08244295 -0.1221925 -0.01637823 0.07114561 0.09018126 -0.045151476 -0.07279853
0.09392655 -0.10321407 0.024162382 -0.017562501 0.07108221 -0.017217807 -0.167364 0.08800232
-0.1452496 -0.1422378 -0.13140896 -0.08264173 -0.1466568 -0.1390024 0.041546885 -0.09816381
-0.06542957 -0.14190973 0.07822633 -0.04915648 0.052097186 0.05642426 -0.12965976 0.14380959
00000000: b635 093e 956b a9bd 9e10 2bbd 2d4a 133e
00000010: 086b 633c 7abf 643e c004 1e3e 6104 c8bd
00000020: 6237 79bd 09de 02be 11d0 dcbc a33d 483d
00000030: 54c3 b1bd 0f64 80bd 2cdf bb3c 163d 393c
00000040: e2c9 ccbd 4641 f4bb 17b3 1fbd 6532 dabd
00000050: 53d1 27bd 5d3d bc3c 110a 5e3d 00bb 623d
00000060: 4898 c6bd 0452 74bc 08e1 963e f521 12bc
00000070: 2567 10be 0e2f 36bb e88d 4b3d 0684 0f3e
00000080: 9e5f 3ebd a350 69bd 1301 aabd 989a 45bd
00000090: 0643 8b3d d76a 4c3d 07c5 a2bd c8a0 67bd
000000a0: 2d5e 4dbd 902a 0c3e 6080 99bd 4b58 843d
000000b0: 5741 7d3c 2194 243e 9f3c e63d e54f f73d
000000c0: 2557 bb3d 27dc b2bc ee1b a6bc a294 08be
000000d0: f23c 673d 4189 ca3d 1aa0 4a3e 0625 a8bd
000000e0: cdfe db3d 8790 913e d69b 8fbb 00dd 793d
000000f0: 7bb0 3f3d 7518 b23d c7e7 e6bc 7f64 6dbd
00000100: 8b63 b33c f669 26bd dfaa f43c dbc3 f9bd
00000110: 96c5 1a3e bef2 ab3d 4a56 e2bd 179c 543e
00000120: e4cf ffbd ba34 683d 9600 76bc 498b 6b3e
00000130: 5c35 68bd ea2b 0c3e 52ea 5ebd 1614 5f3c
00000140: 4ad4 dd3d 31d5 f2bc ed8a 453b e670 713c
00000150: 80e7 4ebb 52ad 903d d38e 823c 3a03 d53d
00000160: 7325 6ebd e939 ce3c 212e 91bd d80b 4e3e
00000170: cc6c dc3d 1d16 ea3d 7bb9 04be 8067 4f3d
00000180: b583 62bd 7072 1c3e a7c9 ae3c 7d82 ccbd
00000190: 1de5 043e 3f25 ce3d 293f 02be 2ed8 0cbe
000001a0: 90fe 7bbc eb98 ca3d fe60 85bd b6aa e1bc
000001b0: b19a df3d f1ae eabc a532 8cbd d022 533e
000001c0: 6299 44bd 00ee 223d 4ecd ebbd 3490 e7bd
000001d0: 94d1 00be c7ed 0c3d 9805 303e 9733 90bc
000001e0: a790 5bbd ef31 8bbd fbeb 2f3c e827 59bc
000001f0: c635 e2bd 2141 c8bc 46a6 b73d 01fb a0bd
00000200: ae33 0f3d ae1f b83d 38e3 88bd 088d e83c
00000210: bcbd ac3d bf19 e4bd 7843 e23d 8c77 0abd
00000220: fa4d 8c3d 9383 40bd bce3 aa3d 4054 933d
00000230: c0f3 bebb 9b92 853d 7705 c8bd dec6 873d
00000240: eeba 933d f20e d9bd 4c64 8d3d a5b0 76bd
00000250: 7af2 b3bb 9ea5 15be a3f4 b3bd 42e4 b13d
00000260: 4098 eabc b500 cc3d 3cf5 063e 9ca0 98b8
00000270: 4068 413b 7497 16be caad a8bd 1a80 cb3c
00000280: 8a18 debd f041 1bbe c043 c23c 3fb9 b03d
00000290: 32b9 11be 29d6 81bd 8e31 02bd 408e 40bc
000002a0: b192 f1bd 5a94 4d3c ccc0 03be 73b1 2dbd
000002b0: d98b 0c3d 9006 58bd beb2 a83d bf6a 7d3c
000002c0: 66dd f9bd ad14 e7bd 6f32 babd 1835 d9bc
000002d0: eb4d 0ebe 9604 9f3d e655 89bd 979f 533c
000002e0: ca35 9c3d 5b05 f43d 3fd5 b6bd a9b0 8c3d
000002f0: ad8d 55bd f132 d0bd 7937 0bbe ba35 26bd
00000300: c483 fcbd baf2 f63d 9f94 d7bd 5db2 abbd
00000310: 4b53 21be 6afc 7a3d 48cb dbbc 32ab b6bc
00000320: 2fbb ed3d 5b49 a83d 3405 b53d 46cf 843d
00000330: 5294 b83d 56b7 14be ea7f 8f3b ed72 0f3e
00000340: 6234 04be e248 243b ab7c 00ba 98a6 dbbc
00000350: 2620 28bc ae41 e73d b4d1 a53c 51f8 12be
00000360: 2793 04be 56ad acbd a723 af3d 8f4f 533d
00000370: 0f75 80bc 7cd6 80bd 0c79 1c3d f289 20bd
00000380: 3828 25be d9d7 a83d 1040 fabd a32b 86bc
00000390: cab4 913d f4b0 b83d c1f0 38bd 6517 95bd
000003a0: 905c c03d e661 d3bd 30f0 c53c 3cdf 8fbc
000003b0: 8d93 913d 5c0c 8dbc 7861 2bbe 8f3a b43d
000003c0: 50bc 14be c9a6 11be 1290 06be 1140 a9bd
000003d0: 332d 16be a556 0ebe 112d 2a3d 1c0a c9bd
000003e0: f0ff 85bd c950 11be 2035 a03d 4e58 49bd
000003f0: dc63 553d 201d 673d 87c5 04be d242 133e

pointer.fc2.bias f4 [128]
0.08012231 0.049504284 -0.037236284 0.18507345 0.028421925 -0.055334684 0.07610362 0.100140624
-0.05117993 0.16575573 0.03995682 -0.051369026 0.041562434 -0.05419428 -0.0030333945 -0.030774737
0.05749744 0.0062968563 -0.018719979 -0.03534341 0.04403368 0.018319337 -0.023254566 0.04151838
-0.030263681 0.075665295 0.094361484 0.06966848 -0.012561865 -0.012193044 -0.026903111 -0.083563
-0.020662136 0.049874492 0.11531824 0.053026564 -0.032329626 0.040061835 -0.07326058 -0.0629871
0.0022403572 0.07499561 -0.015517391 0.01799527 -0.004199849 0.061889593 0.1526489 0.03753223
0.012144409 -0.099409476 0.0034548242 -0.09187497 0.024633557 0.12981756 0.12861829 -0.007784272
-0.06992975 0.04432306 -0.027336227 0.12050107 0.07503491 -0.018347763 0.09055643 -0.008311077
0.03191842 -0.059439354 -0.048990507 -0.06558801 -0.043216612 0.010921893 0.077304885 0.06531301
-0.06760174 -0.041752078 -0.044597503 0.13521822 -0.06456742 0.1000242 0.112629 0.005928211
-0.026570268 0.06804558 0.09501365 0.009719571 0.0075243907 0.057923224 -0.046419017 0.029447427
0.082571834 0.112092756 -0.09523073 0.05630469 0.034688134 0.028087469 -0.062347807 0.058703072
-0.044149414 -0.026454806 0.11583381 0.05796953 0.08859032 -0.03036614 0.09167894 0.0021489605
0.007332407 -0.009346898 0.06451297 0.0036940752 0.11217879 0.021089498 0.05284154 0.077731654
-0.07131725 -0.049180448 0.020603307 0.075755455 0.0718776 -0.040409833 -0.08797708 -0.00092279946
-0.07498167 -0.055470284 0.022851096 -0.03381763 -0.15059932 0.017535849 0.11161606 -0.044349674
00000000: 2a17 a43d 01c5 4a3d 1385 18bd e583 3d3e
00000010: 19d5 e83c 9fa6 62bd 37dc 9b3d 8716 cd3d
00000020: 0ca2 51bd dfbb 293e c3a9 233d 5468 52bd
00000030: 5f3d 2a3d d2fa 5dbd eacb 46bb 4d1b fcbc
00000040: 7082 6b3d dc55 ce3b a45a 99bc 40c4 10bd
00000050: a95c 343d 6f12 963c 5c80 bebc 2d0f 2a3d
00000060: 8aeb f7bc 68f6 9a3d 9840 c13d 59ae 8e3d
00000070: 48d0 4dbc 55c5 47bc ea63 dcbc 1423 abbd
00000080: a443 a9bc 3249 4c3d f82b ec3d 6232 593d
00000090: 126c 04bd e117 243d a509 96bd 61ff 80bd
000000a0: f5d2 123b 4c97 993d a83c 7ebc d16a 933c
000000b0: e39e 89bb f17f 7d3d fe4f 1c3e 65bb 193d
000000c0: 58f9 463c 3297 cbbd 556a 623b f228 bcbd
000000d0: 50cc c93c e5ee 043e 83b4 033e 3513 ffbb
000000e0: 5437 8fbd 198c 353d 39f0 dfbc 44c9 f63d
000000f0: e7ab 993d 0c4e 96bc a675 b93d 2f2b 08bc
00000100: e4bc 023d ae76 73bd 45aa 48bd 0253 86bd
00000110: e703 31bd bdf1 323c 0652 9e3d d4c2 853d
00000120: c872 8abd 3a04 2bbd dfab 36bd a576 0a3e
00000130: ec3b 84bd 7dd9 cc3d 08aa e63d 7041 c23b
00000140: e4a9 d9bc 7b5b 8b3d 8496 c23d d63e 1f3c
00000150: 2a8f f63b e740 6d3d de21 3ebd bb3b f13c
00000160: 6c1b a93d e390 e53d 5408 c3bd bf9f 663d
00000170: 2515 0e3d b117 e63c 6a60 7fbd a272 703d
00000180: 04d6 34bd c0b7 d8bc 473a ed3d 7571 6d3d
00000190: d76e b53d 69c2 f8bc 2bc2 bb3d 93d5 0c3b
000001a0: b044 f03b bb23 19bc 601f 843d 4c18 723b
000001b0: febd e53d e2c3 ac3c 5f70 583d c631 9f3d
000001c0: c70e 92bd 7071 49bd 44c8 a83c ad25 9b3d
000001d0: 9034 933d c884 25bd 542d b4bd 06e8 71ba
000001e0: fd8f 99bd cf34 63bd 3932 bb3c 5b84 0abd
000001f0: b536 1abe 57a7 8f3c f696 e43d 01a8 35bd
