trained_models/sdvrp/S101A2/model_incumbent_vrpRl13_SD_S_101A2_P_0.2_77587.pt (torch_old, 469732 bytes, 15 tensors)

all_embed.embed.weight f4 [128, 4]
0	0x3f80cc83	1.0062412
1	0x3e932c01	0.2874451
2	0xbf19e346	-0.60112417
3	0x3e80a721	0.2512751
4	0x3f476333	0.7788574
5	0x3f5807e1	0.8438702
6	0xbe752460	-0.23939657
7	0xbe21e9c6	-0.15811834
8	0xbef93316	-0.48671788
9	0xbd9e2c35	-0.077232756
10	0x3d226568	0.03964749
11	0x3d28c075	0.041199166
12	0x3f99eb4e	1.2024934
13	0x3f36742d	0.7127102
14	0xbd8f09e8	-0.06984311
15	0x3eb9e0c3	0.36304292
16	0x3f219976	0.6312479
17	0x3e8d29bc	0.27570903
18	0xbe270d40	-0.16313648
19	0xbdc03928	-0.09385902
20	0x3f210998	0.62905264
21	0xbdac8de2	-0.084254995
22	0x3f2c20d8	0.67237616
23	0x3d8b82a1	0.06812025
24	0x3f8e7daa	1.11321
25	0x3ec4bb6e	0.38424248
26	0x3e289335	0.16462405
27	0x3c79324c	0.015209746
28	0xbe2654b2	-0.16243246
29	0x3dade224	0.084903985
30	0x3dfa960e	0.12235652
31	0x3dac9557	0.08426922
32	0x3f548701	0.830185
33	0x3f2fad8c	0.68624187
34	0x3e6006b4	0.21877557
35	0x3e5fcbd7	0.21855102
36	0xbf2f1020	-0.6838398
37	0xbf1a2182	-0.6020738
38	0xbf2f5f91	-0.685052
39	0x3ed86472	0.42264134
40	0x3d9eb6c0	0.077497005
41	0xbe007e1a	-0.12548104
42	0xbe492902	-0.1964455
43	0x3c693000	0.0142326355
44	0xbf2062ad	-0.6265057
45	0x3eace094	0.3376509
46	0x3d0a60a1	0.03378356
47	0x3e3273e1	0.17427017
48	0xbe3ad072	-0.18243578
49	0xbb6a9280	-0.0035792887
50	0x3d988fd0	0.07449305
51	0xbdf0fa6a	-0.11766513
52	0x3cdad40d	0.026712442
53	0x3ee403f6	0.44534272
54	0xbe94fa1e	-0.29097074
55	0xbe0dc71c	-0.13845485
56	0xbe02ea87	-0.12784778
57	0x3f3f0c2c	0.7462795
58	0x3eb82e94	0.35973036
59	0x3e22c85c	0.15896744
60	0xb7da8aee	-2.605232e-05
61	0xbddd8c41	-0.10817767
62	0x3e88b430	0.26699972
63	0xbe399ade	-0.18125483
64	0xbc328a9c	-0.010897305
65	0xbd1474bf	-0.03624415
66	0x3e043010	0.1290896
67	0x3d159ac3	0.036524545
68	0x3dcc62e8	0.09979802
69	0x3ec59366	0.3858902
70	0x3eb89fab	0.36059317
71	0xbe975068	-0.29553533
72	0x3e8c4ea8	0.2740376
73	0x3f4d058c	0.8008659
74	0x3e865ac5	0.26241127
75	0x3e27a611	0.16371943
76	0x3ee1d4a2	0.44107538
77	0xbf1e0e13	-0.61740226
78	0xbe4b906c	-0.19879311
79	0x3eaceca1	0.33774284
80	0x3f96a5a9	1.1769305
81	0x3dceec7c	0.101036996
82	0xbed2be71	-0.4116092
83	0x3e57c58d	0.21071453
84	0x3db5c230	0.08874929
85	0xbdd84f09	-0.1056195
86	0x3e2f7df2	0.17137888
87	0x3cd64800	0.02615738
88	0x3f619b8b	0.88127965
89	0xbf2cf6e0	-0.675642
90	0x3d050895	0.032478888
91	0xbc96540c	-0.018350624
92	0xbcaf7958	-0.021420166
93	0x3f85a834	1.0441957
94	0x3ea7e867	0.32794496
95	0x3b6a4314	0.0035745548
96	0x3ed5e1c1	0.417738
97	0x3dbfac3f	0.09359025
98	0xbc85aa4f	-0.016316561
99	0x3e4d7a74	0.20066243
100	0x3e82d7d9	0.25555304
101	0xbf38d8bc	-0.7220571
102	0xbe3333f2	-0.17500284
103	0x3e464ee6	0.19366035
104	0x3a981b3d	0.0011604797
105	0xbe038ce1	-0.1284671
106	0x3f188c4c	0.59589076
107	0x3e227127	0.15863477
108	0xbec198c1	-0.37811854
109	0x3f29da12	0.66348374
110	0x3eeed560	0.46647167
111	0x3d57fc4d	0.052730847
112	0x3df89c18	0.121391475
113	0x3dfc1558	0.123087585
114	0xbdcb0e7b	-0.09914871
115	0x3c7827a0	0.015146166
116	0x3f7aec6e	0.98017013
117	0x3e46f041	0.19427587
118	0xbe58f91d	-0.21188779
119	0xbd558a94	-0.05213411
120	0x3f1a8651	0.603612
121	0x3f45be39	0.7724338
122	0xbe0b4a01	-0.13602449
123	0x3e76037e	0.2402477
124	0xbe2b85cf	-0.16750263
125	0xbe10a90a	-0.14126983
126	0x3e73de23	0.23815207
127	0xbeaba2ec	-0.33522737
128	0x3f54de25	0.83151466
129	0xbe949aa7	-0.2902424
130	0x3eab68da	0.33478433
131	0x3d486324	0.048922673
132	0x3e92bc20	0.28659153
133	0x3e6839c7	0.2267829
134	0x3e9ddb84	0.3083154
135	0xbea0109e	-0.31262678
136	0xbd2bf4ac	-0.041981384
137	0x3e354d5e	0.17705294
138	0xbd495db0	-0.049161613
139	0xbdb53be3	-0.08849313
140	0x3cbdb3de	0.023157056
141	0x3d9b9b80	0.07598019
142	0xbf0a2848	-0.53967714
143	0x3eada4b7	0.3391473
144	0xbe206f20	-0.15667391
145	0xbd60dbe0	-0.05489719
146	0x3d893ba0	0.06700826
147	0xbe46320c	-0.19355029
148	0x3f40bb5c	0.7528589
149	0xbf5cfaa0	-0.86319923
150	0x3ec929c5	0.3928968
151	0xbd212243	-0.039339315
152	0x3f246491	0.6421595
153	0xbf454e9a	-0.7707306
154	0x3e945030	0.28967428
155	0x3dee2f3c	0.11630103
156	0x3f881c12	1.0633566
157	0x3f07602b	0.52881116
158	0x3e080a44	0.13285166
159	0xbe29755a	-0.16548672
160	0x3da7847c	0.08179566
161	0xbe077ab0	-0.13230395
162	0x3ddf27c0	0.108962536
163	0xbca257c0	-0.019817233
164	0xbf1e7e7b	-0.61911744
165	0x3eed620b	0.46363863
166	0xbe7b3b04	-0.24534231
167	0xbd081aca	-0.033228673
168	0x3e87f723	0.26555738
169	0x3ed18fff	0.40930173
170	0x3e2e2262	0.17005304
171	0xbe9a063e	-0.30082887
172	0x3ee21d4c	0.44162977
173	0xbf3f6f5a	-0.74779284
174	0xbddbafcc	-0.1072689
175	0x3df83feb	0.121215664
176	0x3e20c6f2	0.15700892
177	0xbf1c9b9f	-0.6117496
178	0x3f272e98	0.6530547
179	0x3de6d247	0.11270576
180	0x3f2590df	0.6467418
181	0x3ecc84c6	0.39945048
182	0x3cd40416	0.025880855
183	0xbeaac93b	-0.33356652
184	0xbd5ca498	-0.053867906
185	0xbe0831b0	-0.13300204
186	0xbe4f8970	-0.20267272
187	0x3de080dc	0.10962078
188	0xbdcb53a3	-0.09928062
189	0xbdaeb926	-0.08531408
190	0x3e288d54	0.16460162
191	0xbd8c9804	-0.06864932
192	0x3bd19e8c	0.006397074
193	0x3f50f2c7	0.8162045
194	0xbe51930e	-0.20466253
195	0x3ebcb1a6	0.36854285
196	0x3e5ff4cd	0.21870728
197	0x3e58775c	0.21139282
198	0xbea5483d	-0.32281676
199	0xbe02f2ca	-0.12787929
200	0x3f5b13a6	0.85576856
201	0x3ef9db1a	0.48799974
202	0xbf1a3412	-0.60235703
203	0x3e824ac8	0.2544768
204	0x3a003e20	0.000489207
205	0x3dc0d9d9	0.09416551
206	0xbde2f89d	-0.110825755
207	0xbeb41464	-0.35171807
208	0x3f539d2c	0.826617
209	0x3f732a31	0.94986254
210	0xbed8d5ec	-0.4235071
211	0x3e1c2447	0.15248214
212	0x3c7172e8	0.014736868
213	0xbdcda21d	-0.10040686
214	0x3ecdcbc9	0.40194538
215	0xbe40498f	-0.1877806
216	0xbdb463e0	-0.08808112
217	0xbd742474	-0.059605077
218	0x3dc68f18	0.09695262
219	0xbdab30c0	-0.08358908
220	0xbc8cba3b	-0.017178645
221	0xbd9117ce	-0.070846185
222	0x3f11b2e5	0.56913596
223	0x3e5b2a9a	0.2140297
224	0xbdf88e25	-0.12136487
225	0xbe818dc7	-0.2530348
226	0xbc2ef90a	-0.010679493
227	0x3eac61ed	0.3366846
228	0xbe90f70b	-0.2831348
229	0x3f3f44bd	0.7471426
230	0x3da58c3c	0.08083388
231	0x3e295302	0.16535571
232	0x3ebd0623	0.36918744
233	0xbf15cf21	-0.5851918
234	0x3cef0ff1	0.029182406
235	0xbe56a16c	-0.20960015
236	0x3eec74d2	0.46182877
237	0x3e2e1777	0.17001139
238	0x3d623046	0.05522182
239	0xbe959c5a	-0.2922085
240	0x3d0785f5	0.033086736
241	0x3ea6d412	0.32583672
242	0xbec64bad	-0.3872961
243	0xbe9d3498	-0.30704188
244	0x3e533379	0.20625104
245	0x3e7f54ff	0.24934767
246	0x3eb538f4	0.35395014
247	0xbe4b2e83	-0.19841962
248	0x3f7d8bff	0.9904174
249	0x3e29cd7f	0.16582297
250	0x3e255089	0.16144003
251	0xbe54298b	-0.20718972
252	0x3eec9ebc	0.46214855
253	0x3ef93e1b	0.48680195
254	0x3c68f500	0.014218569
255	0x3aee1a75	0.0018165844

all_embed.embed.bias f4 [128]
0	0x3eda60cd	0.42651978
1	0x3e65b918	0.22433889
2	0x3eddd4e2	0.4332648
3	0x3e759c1c	0.23985332
4	0xbb471705	-0.003037871
5	0xbe74f72c	-0.23922414
6	0xbe416dcf	-0.18889545
7	0xbeecc7fd	-0.4624633
8	0x3e8656cf	0.26238105
9	0xbe7382c9	-0.2378036
10	0xbeb23f3c	-0.3481387
11	0x3ef43cb7	0.47702572
12	0xbebfda26	-0.37471122
13	0x3f1d2a50	0.6139269
14	0xbeab5b57	-0.33468124
15	0xbd6b311b	-0.057419877
16	0xbe74f24f	-0.23920558
17	0x3f1567bd	0.5836142
18	0xbf00178b	-0.50035924
19	0x3eab913d	0.33509246
20	0x3ed62206	0.41822833
21	0xbee6843e	-0.45022768
22	0x3f003e54	0.50095105
23	0xbe1b56cb	-0.15169828
24	0x3e95ebbc	0.29281414
25	0x3f125ce3	0.57172984
26	0xbedfe022	-0.43725687
27	0xbddfe668	-0.109326184
28	0xbefb4cc0	-0.49081993
29	0x3f02f466	0.5115417
30	0x3b83a3bd	0.004017322
31	0x3e281ff8	0.16418445
32	0xbdc3c326	-0.09558706
33	0x3e6979ba	0.22800341
34	0xbebf2d92	-0.37339455
35	0xbddb67c0	-0.10713148
36	0xbeb36470	-0.35037565
37	0x3f171b09	0.5902563
38	0x3ea93fc6	0.33056468
39	0x3ee5daba	0.44893438
40	0xbe3dd628	-0.18538725
41	0x3eb0de0a	0.34544402
42	0x3c8f5a66	0.01749916
43	0x3f1648f3	0.5870506
44	0x3e36b72a	0.17843309
45	0xbd1bbde0	-0.038022876
46	0xbeb1b650	-0.34709406
47	0xbe6ac3c8	-0.22926247
48	0x3edb9fd1	0.42895368
49	0x3ee13570	0.43986082
50	0x3e9e9174	0.30970347
51	0x3e92a656	0.2864253
52	0x3edccbc4	0.4312421
53	0x3ead9c20	0.33908176
54	0xbeb588b0	-0.35455847
55	0xbf21e032	-0.6323272
56	0x3ec2ad73	0.38022956
57	0x3b7a53d7	0.0038196945
58	0x3ee7e300	0.45290375
59	0x3d8f1775	0.06986896
60	0x3d95e3b2	0.0731882
61	0xbd6c8651	-0.05774528
62	0x3ef44bb3	0.47714004
63	0x3ebd0e1a	0.3692482
64	0x3e8cb533	0.27481994
65	0x3eb9ccda	0.36289102
66	0xbe624d6e	-0.2209985
67	0xbeab2126	-0.33423728
68	0x3e268793	0.16262655
69	0xbeea04ec	-0.4570688
70	0xbdae9acd	-0.0852562
71	0x3e63facf	0.22263645
72	0x3e254206	0.16138467
73	0xbb8136ea	-0.003943314
74	0xbc47ce40	-0.01219517
75	0xbd81a890	-0.06330979
76	0x3e8f70b9	0.28015688
77	0x3e0153cb	0.1262962
78	0x3ed6007f	0.41797253
79	0xbf10f2e6	-0.56620634
80	0x3eb64ba6	0.3560459
81	0xbf0fac15	-0.5612195
82	0xbedbe65f	-0.42949197
83	0x3e434ba3	0.19071822
84	0xbdcf197e	-0.10112284
85	0xbe0e6408	-0.13905346
86	0xbe80e9b4	-0.251783
87	0xbee4b8ac	-0.44672143
88	0xbef5fb40	-0.4804325
89	0x3eeb8b5a	0.46004754
90	0x3c256f2c	0.010097306
91	0x3d59035e	0.052981727
92	0xbead67c2	-0.33868223
93	0x3ef4bf1d	0.47802058
94	0x3c90fa76	0.017697554
95	0xbefedfbc	-0.4978007
96	0x3ea160a7	0.31519052
97	0x3eadee1d	0.3397073
98	0xbebf55b4	-0.37370074
99	0x3e52fad7	0.206035
100	0x3e8e9ee8	0.2785561
101	0xbead1766	-0.33806914
102	0x3df41361	0.11917759
103	0x3e14c984	0.14529997
104	0xbc10b147	-0.008831329
105	0x3e9cb0f9	0.3060377
106	0x3f042c42	0.5163003
107	0xbefe7092	-0.4969526
108	0x3edc5cc0	0.43039513
109	0x3eed5540	0.46354103
110	0x3e8be660	0.273242
111	0x3ed6e663	0.41972646
112	0x3f4937fe	0.7860106
113	0x3e7aa3a9	0.24476494
114	0x3e8fac98	0.28061366
115	0xbd5097a3	-0.050925862
116	0xbec8c886	-0.39215487
117	0xbd2dccd6	-0.042431675
118	0xbdb58466	-0.088631436
119	0xbeacb951	-0.33735135
120	0x3e4c8d79	0.19975843
121	0x3ea7d548	0.32779908
122	0x3efd3bfe	0.49459833
123	0x3b48565c	0.0030569052
124	0xbe93d680	-0.28874588
125	0x3f0d890e	0.55287254
126	0x3f107f8c	0.5644462
127	0x3e94ce46	0.29063624

all_embed.embed_2.weight f4 [128, 128]
0	0xbe66d18b	-0.22540872
1	0x3dad7986	0.084704444
2	0x3e03db90	0.12876725
3	0x3c9ed67c	0.019389383
4	0x3df0880f	0.11744701
5	0x3e7cc9ee	0.24686405
6	0x3dc820d1	0.09771884
7	0x3d4c1d3f	0.04983258
8	0x3e20cada	0.15702382
9	0xbea859cb	-0.32881007
10	0xbdb0a75d	-0.08625672
11	0xbc93d69d	-0.018046672
12	0x3e0c652d	0.1371047
13	0x3d57f710	0.05272585
14	0x3db32725	0.087477006
15	0xbeadf12b	-0.3397306
16	0x3ded7468	0.11594468
17	0xbcf3c4a3	-0.02975685
18	0x3e525b76	0.20542702
19	0x3dacb3eb	0.08432754
20	0xbd93a03c	-0.07208297
21	0x3d6a3304	0.05717756
22	0x3d94cf3b	0.072660886
23	0x3e62c65e	0.22145984
24	0x3c4f41e9	0.012649992
25	0xbd2a969b	-0.041647535
26	0x3f100ccc	0.56269526
27	0x3e8077f3	0.25091514
28	0xbd824971	-0.06361664
29	0xbe2fb642	-0.1715937
30	0x3e0b8e9b	0.13628618
31	0xbe864d10	-0.2623067
32	0x3ebeae0f	0.3724217
33	0x3da1abce	0.07894097
34	0x3dffff5a	0.12499876
35	0xbf0239bc	-0.50869346
36	0xbd7dc35c	-0.061953887
37	0x3e3b685e	0.18301532
38	0x3e2cd5b4	0.16878396
39	0xbe223d0c	-0.158436
40	0xbe0efd24	-0.13963753
41	0xbc835f75	-0.016036728
42	0xbe11ab60	-0.1422553
43	0x3dbf8793	0.093520306
44	0x3ec252e2	0.3795386
45	0xbb284390	-0.0025675036
46	0xbb82ac40	-0.003987819
47	0x3d0be16c	0.034150526
48	0xbdae689e	-0.08516048
49	0x3dad3526	0.08457403
50	0xbdef240d	-0.11676798
51	0xbe0081fb	-0.12549584
52	0xbe764005	-0.24047859
53	0x3c1e76cb	0.009671877
54	0xbc6c4350	-0.014420345
55	0x3eb13d05	0.34616867
56	0x3d8498a5	0.06474427
57	0x3d99aac3	0.07503273
58	0x3d2df414	0.0424691
59	0x3e7374e7	0.23775063
60	0xbd733b9f	-0.05938303
61	0x3e2a0f33	0.1660736
62	0xbde6dee6	-0.11272983
63	0xbe55b883	-0.20871167
64	0x3e08eb28	0.13370955
65	0x3d5dc779	0.05414531
66	0xbe3b7e51	-0.18309905
67	0xbd16b62a	-0.03679482
68	0x3e231629	0.15926422
69	0xbd9fb58b	-0.077982984
70	0xbe707d6c	-0.23485345
71	0xbddd8205	-0.10815815
72	0x3df3a269	0.11896212
73	0x3e901a1d	0.28144923
74	0x3d991740	0.07475138
75	0x3d05f6a8	0.032705933
76	0xbe490944	-0.19632441
77	0xbd6edc89	-0.058315787
78	0xbe8b5c4a	-0.27218848
79	0xbe1bef56	-0.15228018
80	0xbd95e15c	-0.073183745
81	0x3e76f0e6	0.24115333
82	0x3e861ca9	0.2619374
83	0x3c513c38	0.012770705
84	0x3e4fafa0	0.2028184
85	0xbdccc03b	-0.099976026
86	0x3e79fe2a	0.24413362
87	0xbd01a9a6	-0.03165593
88	0x3e8ae2b4	0.27126086
89	0x3dd6cebd	0.10488651
90	0xbe27d172	-0.16388491
91	0xbe51ad1c	-0.20476192
92	0x3c70378b	0.01466168
93	0xbe144089	-0.14477743
94	0xbd81762d	-0.06321368
95	0x3d8905d2	0.06690563
96	0x3e3c0443	0.18361
97	0x3da4506f	0.08023154
98	0x3d7dad43	0.061932813
99	0xbda56f63	-0.08077886
100	0x3d19c446	0.037540697
101	0xbde7b14c	-0.113131136
102	0x3e9869da	0.29768258
103	0xbdf9098c	-0.12160024
104	0x3dc707d1	0.09718288
105	0xbe3ee8ee	-0.18643543
106	0xbd93a098	-0.07208365
107	0xbe17834b	-0.14796178
108	0x3dc85a1f	0.09782814
109	0xbdbd283a	-0.09236188
110	0x3de63289	0.112401076
111	0x3c89eb53	0.016835844
112	0xbe3d034a	-0.18458286
113	0xbe5b22dc	-0.21400017
114	0xbcc33e4a	-0.023833413
115	0xbdacf343	-0.08444836
116	0xbe05f8f7	-0.13083254
117	0xbd9a5ab2	-0.0753683
118	0xbe08ae33	-0.13347702
119	0x3de25bcf	0.11052667
120	0xbb205120	-0.0024462417
121	0xbdcfc0d5	-0.10144202
122	0xbe197efc	-0.14989847
123	0x3d3fed06	0.046856903
124	0x3e929e2e	0.28636307
125	0xbd810c68	-0.063011944
126	0x3e4e7b60	0.20164251
127	0x3e1faa25	0.15592249
128	0x3d4a812c	0.049439594
129	0xbdf3e52c	-0.119089454
130	0x3e87d537	0.26529858
131	0xbddd91ce	-0.10818826
132	0xbd773c73	-0.060360383
133	0x3e0cfd7a	0.13768569
134	0x3d2e007d	0.042480934
135	0x3ca9f256	0.020745438
136	0xbc1bed52	-0.009517031
137	0xbe60c203	-0.2194901
138	0xbe12cbc3	-0.14335541
139	0x3e000054	0.12500125
140	0xbdf8f01e	-0.12155174
141	0x3e772548	0.24135315
142	0x3e674b6c	0.22587365
143	0xbe00dbbf	-0.12583826
144	0x3dd4f88a	0.103989676
145	0x3d383041	0.044967894
146	0x3d72710c	0.05918984
147	0xbdd5bfc2	-0.104369655
148	0x3d4f04b0	0.05054158
149	0x394ae400	0.00019349158
150	0x3e479978	0.19492137
151	0x3c6aaddb	0.014323677
152	0xbe04fd66	-0.12987289
153	0x3d6a9f71	0.05728096
154	0x3db9b789	0.0906821
155	0xbcaae7a6	-0.020862412
156	0x3d4ee4c4	0.050511137
157	0x3e1ead18	0.15495718
158	0xbdd953e2	-0.106117025
159	0x3cc0ad78	0.023520216
160	0x3e0305c0	0.12795162
161	0xbdd1b3bf	-0.10239362
162	0x3d8d7fa6	0.06909113
163	0xbf22eaf4	-0.6363976
164	0x3c24e5c0	0.010064542
165	0xbd14122a	-0.036150135
166	0xbcc343d1	-0.023836048
167	0xbdbac305	-0.09119228
168	0x3c0502b0	0.0081183165
169	0x3db19559	0.08671064
170	0xbccccee8	-0.025001004
171	0x3dcb2dff	0.099208824
172	0xbd9c3f8c	-0.07629308
173	0x3d067628	0.032827526
174	0x3e1a77c1	0.15084745
175	0x3dc6a86e	0.09700094
176	0xbd85b9ce	-0.0652958
177	0x3c7c84da	0.015412534
178	0xbe5697ca	-0.2095634
179	0xbdcdf431	-0.100563414
180	0xbd9b8bca	-0.07595022
181	0x3e186f31	0.14886166
182	0x3ceddbe0	0.029035509
183	0xbe8606cb	-0.26177058
184	0x3db5f25e	0.088841185
185	0xbe0fef3f	-0.14056109
186	0x3e20707f	0.15667914
187	0xbcfe2b9d	-0.031026656
188	0x3dbf7fba	0.09350534
189	0x3e175e20	0.14782
190	0x3e19f20c	0.1503374
191	0xbe001a43	-0.12510018
192	0xbc0890c5	-0.008335297
193	0x3de673e3	0.112525724
194	0xbe118cea	-0.1421391
195	0x3c1db991	0.009626762
196	0xbd077550	-0.033070862
197	0x3e0ae0c3	0.13562302
198	0xbd46e37b	-0.048556786
199	0x3cb5827e	0.02215695
200	0x3d44fb0b	0.048090976
201	0x3dbc9712	0.09208502
202	0x3d19e2b0	0.0375697
203	0x3d9474c0	0.07248831
204	0x3da398c8	0.07988125
205	0xbdda11c2	-0.10647918
206	0xbcb5f2e0	-0.022210538
207	0xbec2dd0b	-0.38059267
208	0x3dc8a42e	0.0979694
209	0xbe298dfa	-0.16558066
210	0xbdb93c46	-0.09044699
211	0xbdf8e43f	-0.121529095
212	0xbd167c44	-0.036739603
213	0x3aee3e00	0.0018176436
214	0xbd93bfe3	-0.07214334
215	0xbcdaf270	-0.026726931
216	0x3dc9dff3	0.09857168
217	0xbdb0cd83	-0.08632948
218	0xbd7ac5b6	-0.061223708
219	0x3d8a94bd	0.06766651
220	0xbe7084e9	-0.23488201
221	0x3e5caa0a	0.2154924
222	0x3d28bfd8	0.04119858
223	0x3db83060	0.08993602
224	0xbd49219e	-0.049104325
225	0xbd809ad2	-0.0627953
226	0x3d056d07	0.03257468
227	0x3e1ec3d8	0.15504396
228	0xbdad9a35	-0.08476678
229	0x3db5f332	0.088842764
230	0x3e2b50d4	0.16730052
231	0x3afc5024	0.0019249958
232	0x3db34ef1	0.08755291
233	0x3da1a609	0.07892997
234	0x3e19292f	0.14957117
235	0x3ddc9e2e	0.10772358
236	0x3daf1253	0.08548417
237	0xbdf09ebc	-0.11749026
238	0xbb560983	-0.0032659478
239	0xbd7f68eb	-0.062355917
240	0x3e5893a5	0.21150072
241	0xbe35726d	-0.17719431
242	0x3e079426	0.13240108
243	0x3e287c74	0.16453725
244	0xbe3cf30c	-0.1845209
245	0x3da5c885	0.08094887
246	0x3d9c38b7	0.07628005
247	0x3db27808	0.087143004
248	0xbe0c9a8a	-0.13730827
249	0xbe438852	-0.19094971
250	0xbd06704c	-0.03282194
251	0xbd0979bc	-0.03356336
252	0x3d80a9a0	0.062823534
253	0xbddeb6e3	-0.108747266
254	0x3e383ce3	0.17991976
255	0x3af82a53	0.0018933512

all_embed.embed_2.bias f4 [128]
0	0xbddfc859	-0.10926885
1	0x3de7a7c1	0.113112934
2	0xbdc84050	-0.09777892
3	0xbcb60968	-0.022221282
4	0x3d2cc507	0.042180087
5	0x3e2feb1a	0.17179528
6	0xbd9e648c	-0.077340215
7	0x3dbad92d	0.09123454
8	0x3c62e75a	0.013849104
9	0x3cfacdc1	0.03061569
10	0xbcaf2c81	-0.021383526
11	0xbd8e19b9	-0.069385
12	0xbe2386a7	-0.15969335
13	0x3e071826	0.13192806
14	0xbe04c040	-0.12963963
15	0x3d602690	0.054724276
16	0xbe8d3ef2	-0.27587086
17	0xbd1ed7df	-0.03878009
18	0xbc93a41a	-0.018022586
19	0xbdf1ab75	-0.11800281
20	0xbe8c009f	-0.27344224
21	0x3d53cee0	0.051710963
22	0xbe25822a	-0.16162935
23	0xbdaf9b75	-0.08574573
24	0x3b90d194	0.004419515
25	0xbcc012b0	-0.02344641
26	0x3d1dfc74	0.038570836
27	0x3d1d0341	0.03833318
28	0xbe1a4ad2	-0.15067604
29	0x3dbf8058	0.093506515
30	0xbd15bcff	-0.036557194
31	0xbe447b68	-0.19187701
32	0xbe0833cb	-0.13301007
33	0xbe19dd39	-0.15025796
34	0xbe0fa54e	-0.14027902
35	0xbc99daad	-0.01878103
36	0x3d430d1e	0.04761993
37	0x3c6a9fc2	0.014320316
38	0x3cb4936e	0.022042956
39	0x3e12cf69	0.14336933
40	0xbd2c9cb8	-0.042141646
41	0xbd8681ba	-0.06567712
42	0x3d556065	0.052093882
43	0x3c7ba0e0	0.01535818
44	0x3d94ccc7	0.07265621
45	0xbd445caf	-0.047939952
46	0x3b981992	0.00464172
47	0xbd62e6e3	-0.055395972
48	0xbe015e61	-0.12633659
49	0x3c6c4bc1	0.014422358
50	0xbe507b05	-0.20359428
51	0xbe0bb938	-0.13644874
52	0xbc5897ab	-0.013219754
53	0x3d9a72fc	0.07541463
54	0xbd6b556e	-0.05745452
55	0xbde0f708	-0.109846175
56	0xbdc259cb	-0.09489783
57	0x3e15fcc7	0.14647208
58	0xbd9a98fd	-0.075487114
59	0xbdcd232a	-0.10016473
60	0xbe20c098	-0.15698469
61	0x3d85f8b5	0.06541578
62	0xbe735161	-0.23761512
63	0xbd9cd681	-0.07658101
64	0xbca15572	-0.019694064
65	0x3debb80c	0.115097135
66	0x3bd422c9	0.0064738733
67	0x3e670414	0.2256015
68	0xbdad60fe	-0.084657654
69	0xbd1185cc	-0.03552799
70	0xbe11eda2	-0.14250806
71	0x3d4e7513	0.05040462
72	0x3d840757	0.064467125
73	0xbd8882e4	-0.066655904
74	0xbda3d9ee	-0.08000551
75	0x3d9135b4	0.07090321
76	0xbdd396d0	-0.103314996
77	0x3d0b1081	0.033951286
78	0xbc8b13bf	-0.01697719
79	0xbc3aa01f	-0.011390715
80	0xbd89eed8	-0.06735009
81	0xbd8295f3	-0.06376257
82	0xbe29b489	-0.16572775
83	0x3d82a7e4	0.06379679
84	0xbdaaa96a	-0.083330944
85	0xbd864c35	-0.06557504
86	0xbe01083f	-0.12600802
87	0x3ceb3386	0.028711092
88	0x3ce5ad66	0.028036784
89	0xbd3d3b22	-0.04619897
90	0xbe4d6eaa	-0.20061746
91	0x3d02518d	0.031816054
92	0x3c3ae3df	0.011406868
93	0xbd8d0148	-0.0688501
94	0x3db93d2f	0.09044873
95	0xbd36814b	-0.044556897
96	0xbe0973ac	-0.13423032
97	0xbd4d1471	-0.050068323
98	0x3dff0045	0.12451223
99	0x3d9feeb1	0.07809199
100	0x3b855cc1	0.004069895
101	0xbe389825	-0.18026789
102	0xbe14412f	-0.1447799
103	0xbd2537d8	-0.04033646
104	0xbdf3bc55	-0.11901156
105	0xbb7ec7ad	-0.003887634
106	0xbe0e7a89	-0.13913931
107	0x3db00c3a	0.08596082
108	0x3d1d4156	0.038392387
109	0xbe9addbc	-0.30247295
110	0xbdbb535a	-0.091467574
111	0x3db90e33	0.090359114
112	0x3c8507c7	0.01623906
113	0x3d53e749	0.051734243
114	0xbd841d48	-0.064508975
115	0x3cada969	0.021198945
116	0x3c1c77f9	0.009550088
117	0x3dc77b39	0.097403
118	0xbd12d4de	-0.035847537
119	0xbd1772d2	-0.036974736
120	0xbe1aa69e	-0.15102622
121	0x3dd01a79	0.10161299
122	0xbca35c86	-0.01994158
123	0xbd50f58f	-0.051015433
124	0xbe05c4df	-0.13063382
125	0x3c42d6e2	0.011892052
126	0xbe089220	-0.13336992
127	0x3cb1372a	0.02163275

pointer.v f4 [1, 1, 128]
0	0x3f26c92e	0.65150726
1	0x3f0a4282	0.5400773
2	0xbec65fe5	-0.38745037
3	0x400fa5bf	2.2444913
4	0xbf976a33	-1.1829284
5	0x3f4ce703	0.80039996
6	0xbeb85e63	-0.3600951
7	0x4022e437	2.5451791
8	0xbf5fd29a	-0.8743073
9	0xbebcb74e	-0.368586
10	0xc02a9498	-2.6653194
11	0xbe3438b8	-0.17599761
12	0x40295601	2.6458743
13	0xbfb57680	-1.4176788
14	0x3f894109	1.0722972
15	0x3f38f088	0.7224202
16	0xc02ac3f2	-2.6682096
17	0x3f032e7e	0.51242816
18	0x3d992576	0.07477848
19	0xbee977c8	-0.45599198
20	0x4030d230	2.7628288
21	0x3fc63446	1.5484703
22	0x3fca0f7a	1.5785973
23	0xbf6217d3	-0.883176
24	0xbfa2cd76	-1.2718952
25	0x3ca6d2d1	0.020364197
26	0x3f194015	0.59863406
27	0xbf702c37	-0.93817466
28	0x3f292aa4	0.6608069
29	0x3e81662b	0.2527326
30	0xbf82476c	-1.0178046
31	0x4019c462	2.4026113
32	0x3eca9e33	0.3957382
33	0x3f306a1d	0.68911916
34	0x4028c6eb	2.637141
35	0xbfa433af	-1.2828273
36	0xc02f70e5	-2.7412655
37	0xc017ca4c	-2.3717222
38	0xc0361b2a	-2.845408
39	0xbe7b2021	-0.24523975
40	0xbf920200	-1.140686
41	0x3fa43aa2	1.2830393
42	0x3f131af5	0.5746301
43	0x3f6e75c4	0.93148446
44	0xbe5f2048	-0.21789658
45	0xc01e958c	-2.4778776
46	0xbf015c47	-0.5053143
47	0x401c8b61	2.446007
48	0x3fa96c2b	1.3236135
49	0xbe6456d1	-0.22298743
50	0xc013082d	-2.297374
51	0x40233c23	2.5505455
52	0xbf0c1c38	-0.5473056
53	0xc023f30e	-2.56171
54	0xbf3428fb	-0.7037503
55	0x3f246b34	0.6422608
56	0x3f3e92bd	0.74442655
57	0xc0214cb7	-2.5203073
58	0x3d3106f1	0.04321951
59	0xbeb37b76	-0.3505513
60	0x3fed8fda	1.8559525
61	0x3dfcb64c	0.12339458
62	0xc01b5930	-2.4273186
63	0x3f570057	0.83984894
64	0x3e9b76cc	0.30364072
65	0x400611ba	2.094832
66	0xbf8758a9	-1.0573932
67	0x3fb65d92	1.4247305
68	0xbed92490	-0.42410707
69	0xbeab01b8	-0.3339975
70	0xbe9e5167	-0.3092148
71	0xbe5efcf7	-0.21776186
72	0xbf10e1b1	-0.5659438
73	0xbed232ed	-0.41054478
74	0xbef5ed3b	-0.48032555
75	0xbfd5d753	-1.6706337
76	0x3f8a7162	1.0815852
77	0x3fae479c	1.3615603
78	0xbf2e467d	-0.68076307
79	0xbef41cb5	-0.47678152
80	0x4020602b	2.5058696
81	0x3e950d18	0.29111552
82	0x3f2a4309	0.6650854
83	0x3fae4b54	1.3616738
84	0xbffde170	-1.9834423
85	0x3f712c1b	0.94207925
86	0x3f1e5b44	0.6185801
87	0x3e372f43	0.17889123
88	0x3f62a7de	0.88537395
89	0x3e467066	0.19378814
90	0x40291e6f	2.6424825
91	0x3fa0d9d5	1.2566477
92	0x3e8cb7b9	0.2748392
93	0xbeb0ab08	-0.34505486
94	0x3ffad951	1.959757
95	0xbf0ce39a	-0.5503479
96	0xbf460eab	-0.7736613
97	0x3f9234f6	1.1422412
98	0x40059039	2.0869277
99	0xbefc5043	-0.49279985
100	0x3f0e62cd	0.5561951
101	0xbf8f28f9	-1.1184379
102	0x3f95a218	1.1690092
103	0xbf89d659	-1.0768539
104	0x3fd48ce0	1.6605492
105	0x3fcab9f5	1.5838
106	0xbe9bcf3a	-0.3043154
107	0xbe51188d	-0.20419522
108	0x3f91c2b3	1.1387542
109	0x3fe822af	1.8135585
110	0x3f57d8a0	0.8431492
111	0x3ef19328	0.47182584
112	0xbf9ba3c1	-1.2159349
113	0x401c6bd5	2.4440815
114	0x3f349db3	0.7055313
115	0xbf014b6e	-0.5050572
116	0xbfd31756	-1.6491497
117	0xc00108db	-2.0161655
118	0x3fdb9115	1.715365
119	0xbf2c837e	-0.6738814
120	0x3f0582e6	0.5215286
121	0xbe0c4436	-0.13697895
122	0xc02fd192	-2.7471662
123	0x3e4dfbfc	0.20115656
124	0xbf5bc72c	-0.8585079
125	0xbfe34915	-1.7756678
126	0xbefcbe5e	-0.4936399
127	0xbf2c6395	-0.6733945

pointer.encoder_attn.v f4 [1, 1, 128]
0	0x3d37ce26	0.044874333
1	0xbcbe907d	-0.023262257
2	0x3c95de24	0.018294401
3	0x3e0e7bb2	0.13914374
4	0xbd771a3c	-0.060327753
5	0x3e252409	0.16127028
6	0xbd8a0e7f	-0.06741046
7	0xbe04f526	-0.12984142
8	0x3e1517aa	0.14559808
9	0xbdd3d532	-0.10343398
10	0xbe98dab8	-0.2985437
11	0xbd7a8e95	-0.061171133
12	0xbd8c388e	-0.068467245
13	0x3e1fcdde	0.15605876
14	0xbd961d92	-0.07329859
15	0xbd3206dd	-0.043463577
16	0x3dd0bebd	0.101926304
17	0x3e148a57	0.14505897
18	0x3e2d53a4	0.16926438
19	0x3dc18c39	0.094505735
20	0x3d735913	0.05941112
21	0xbe16f2fc	-0.14741129
22	0xbd8c7917	-0.068590336
23	0x3dd83ec4	0.105588466
24	0xbde3a6d5	-0.11115805
25	0x3e1278ca	0.1430389
26	0x3e9a61c2	0.30152708
27	0xbbe17b3d	-0.006881146
28	0xbe05e7ec	-0.13076752
29	0x3e0fc58c	0.14040202
30	0x3e033ee5	0.12816961
31	0xbde92bd4	-0.11385313
32	0x3e050c72	0.12993029
33	0x3e66fd52	0.22557572
34	0x3c2ce933	0.010553646
35	0x3d28fb6d	0.041255403
36	0xbe1d6306	-0.15369806
37	0x3e3723de	0.17884776
38	0x3de3f596	0.11130826
39	0xbd38330b	-0.044970553
40	0xbe44305f	-0.19159077
41	0xbd40a550	-0.047032654
42	0xbdc0b57e	-0.09409617
43	0xbe9ed181	-0.31019214
44	0x3e1857b6	0.14877209
45	0xbe06c2d7	-0.13160263
46	0x3e20fe2a	0.15721956
47	0xbd4cb893	-0.04998071
48	0x3e222194	0.15833122
49	0xbba296bd	-0.004961817
50	0x3dc5d653	0.0966002
51	0x3e2c9776	0.16854653
52	0xbdcb4db6	-0.099269316
53	0x3c8d44bc	0.01724469
54	0xbe2da24b	-0.16956441
55	0xbd610f33	-0.054946136
56	0xbe3976e9	-0.18111767
57	0x3dd231c0	0.10263395
58	0xbd53333d	-0.051562537
59	0xbd541ee5	-0.051787276
60	0x3d93191e	0.07182525
61	0x3da4d465	0.080483235
62	0x3e51ac80	0.2047596
63	0x3dd97e60	0.10619807
64	0xbe17d011	-0.14825465
65	0xbe4c85d5	-0.19972928
66	0xbda31839	-0.079636045
67	0x3e13f61e	0.14449355
68	0xbe6dd8a8	-0.23227179
69	0x3e28cd15	0.16484483
70	0x3db844ee	0.08997522
71	0xbe93ace4	-0.28842843
72	0x3d74134d	0.05958872
73	0x3cc16620	0.023608267
74	0xbdfcd887	-0.12345987
75	0xbcc31e7f	-0.023818253
76	0xbcf3363a	-0.029688943
77	0x3dfd2b9a	0.12361832
78	0xbd8d8e2b	-0.06911882
79	0xbd226edc	-0.039656505
80	0xbd895cf2	-0.06707181
81	0x3d79d0b9	0.06099007
82	0x3d38bc95	0.04510172
83	0x3e11c7e5	0.1423641
84	0x3df80343	0.12109997
85	0xbd23ff67	-0.040038493
86	0xbe7b07de	-0.2451472
87	0xbdd4667f	-0.10371112
88	0x3df76e40	0.120815754
89	0xbe03c7de	-0.12869212
90	0x3d74ef44	0.059798494
91	0x3cfa8130	0.03057918
92	0xbe1bdf8d	-0.15221997
93	0x3cd9eb73	0.026601529
94	0x3d151843	0.03640009
95	0x3d828902	0.063737884
96	0x3d8f1910	0.06987202
97	0x3e166290	0.14686036
98	0xbdc65126	-0.096834466
99	0x3dedc05e	0.11608957
100	0x3e23dfd7	0.16003357
101	0xbe1f8032	-0.15576246
102	0xbd8e7749	-0.069563456
103	0xbe85dc69	-0.26144722
104	0xbd065177	-0.032792535
105	0xbe0dbf44	-0.13842493
106	0x3d72a1dc	0.059236392
107	0xbd877c43	-0.06615498
108	0xbe348807	-0.17630015
109	0xbd98ff1d	-0.07470534
110	0x3df6058b	0.12012776
111	0xbdde568f	-0.108563535
112	0x3e32a12d	0.17444296
113	0x3dbc909d	0.0920727
114	0x3dbb95c5	0.09159426
115	0xbd2aec28	-0.041729122
116	0x3e1dd5f1	0.15413643
117	0xbdb4f830	-0.088364005
118	0x3cfff034	0.031242467
119	0xbd7f6aa7	-0.06235757
120	0x3d5ae38d	0.053439666
121	0x3cedc382	0.02902389
122	0xbe06a493	-0.13148718
123	0xbd1109fb	-0.03540991
124	0x3d8146e2	0.06312348
125	0x3daeea1e	0.08540748
126	0x3dc20eb0	0.09475458
127	0x3cdf0025	0.027221749

pointer.encoder_attn.W f4 [1, 128, 256]
0	0x3c8b01e6	0.016968679
1	0xbd295dd8	-0.041349262
2	0xba9f8424	-0.0012170118
3	0xbd2904cf	-0.04126435
4	0xbd8ffd57	-0.070307426
5	0x36e82b45	6.919176e-06
6	0xbada8229	-0.0016670871
7	0xbddd19f6	-0.10795967
8	0x3da49ca2	0.08037688
9	0x3d1e6929	0.038674507
10	0xbd7ab432	-0.061207004
11	0x3d12df98	0.035857767
12	0xbb96e7e9	-0.0046052826
13	0xbd28fa79	-0.041254494
14	0xbcce41c9	-0.025177853
15	0xbe3d7f06	-0.18505487
16	0xbd94a18f	-0.07257377
17	0x3da757d6	0.0817105
18	0x3c4dc8a1	0.012560041
19	0xbcbe8622	-0.023257319
20	0x3d22dc47	0.039760854
21	0xbde7fe1c	-0.113277644
22	0xbd58beb7	-0.052916255
23	0xbbc15d1e	-0.005900993
24	0xbd9c4d30	-0.0763191
25	0x3c098b55	0.008395036
26	0xbdaf779a	-0.08567734
27	0xbda17173	-0.07882967
28	0xbd9aba78	-0.07555097
29	0xbcdf00d9	-0.027222084
30	0xbd97a6ae	-0.074048385
31	0x3c7af222	0.015316518
32	0xbda5f13d	-0.08102653
33	0xbbfb5123	-0.0076695844
34	0xbcfd4fab	-0.030921778
35	0xbd07a37d	-0.0331149
36	0xbcbe30ef	-0.023216693
37	0xbd9dbca4	-0.07701996
38	0xbd328111	-0.04358012
39	0xbd9d3991	-0.076769955
40	0xbe05334d	-0.13007851
41	0xbb05f37f	-0.0020439324
42	0xbc2d9302	-0.010594131
43	0xbc9748d5	-0.018467346
44	0x3c8cc086	0.017181646
45	0x3d0616f0	0.03273672
46	0xbc8b2a89	-0.016988056
47	0xbd5ff3ad	-0.054675747
48	0xbc94820d	-0.01812842
49	0xbc82b3a5	-0.015954802
50	0x3d1da209	0.038484607
51	0xbcc1a46e	-0.023637976
52	0x3be00975	0.006837065
53	0x3d827fc0	0.06372023
54	0xbb63998f	-0.003472898
55	0xbc833b89	-0.0160196
56	0xbb1bd3c0	-0.0023777336
57	0x3d8eaed1	0.06966937
58	0xbbf91191	-0.007600971
59	0xbc882133	-0.016617393
60	0xbc09828f	-0.008392944
61	0x3d1351e7	0.03596678
62	0xbd76098f	-0.06006771
63	0xbca5ac47	-0.02022375
64	0xbc325cea	-0.01088641
65	0xbd74d017	-0.059768762
66	0xbe1c1b06	-0.15244684
67	0xbd8dcaa4	-0.06923416
68	0xbb86bc80	-0.0041118264
69	0x3b9eb331	0.0048431386
70	0x3bd41724	0.006472485
71	0xbc642a4f	-0.013926103
72	0xbe13caee	-0.1443288
73	0xbc31157d	-0.010808346
74	0xbc3cd139	-0.011524492
75	0xbc97c67f	-0.018527268
76	0xbb3a2535	-0.0028403525
77	0x3e3bf217	0.18354069
78	0xbc035bc8	-0.008017488
79	0xbc885716	-0.016643088
80	0xbc9ce68d	-0.019152904
81	0x3bbb41ae	0.0057146167
82	0xbc6f6b90	-0.014613047
83	0x3c4e1fad	0.012580794
84	0xbd1a6ab1	-0.037699405
85	0xba231c5d	-0.0006222183
86	0xbd837b98	-0.06420058
87	0xbbd18c54	-0.0063949022
88	0xbdb52e05	-0.08846668
89	0x3c1a3beb	0.0094137
90	0xbd77948d	-0.060444403
91	0xbc459cb8	-0.01206129
92	0x3c2c9d1a	0.010535503
93	0xbc2f61b0	-0.010704443
94	0xbdc4a262	-0.096012846
95	0x3b87f6b4	0.0041492824
96	0xbb3ef249	-0.0029136112
97	0xbdb0b635	-0.08628503
98	0xbd0b6b3d	-0.034037817
99	0xbca7825d	-0.020447904
100	0xbd8129fd	-0.06306837
101	0xbd46981d	-0.04848491
102	0xbd950b6d	-0.0727757
103	0xbda679b3	-0.08128681
104	0xbdcebe04	-0.10094836
105	0xbe0f1d86	-0.13976106
106	0x3bb8e84f	0.0056429277
107	0x3dc819b4	0.097705275
108	0xbda77a2b	-0.081775986
109	0x3be67995	0.0070335367
110	0x3a64a17a	0.00087215716
111	0x3c60eecf	0.013728811
112	0xbd264a74	-0.040598348
113	0xbc984174	-0.018585898
114	0x3a207084	0.0006120282
115	0xbd45f7fa	-0.048332192
116	0xbd228cf3	-0.0396852
117	0xbd1ffdcd	-0.039060403
118	0xbdb56bbb	-0.088584386
119	0x3ca58f3f	0.020209907
120	0xbc961f4a	-0.018325467
121	0xbbc33c04	-0.005958082
122	0xbd3c0648	-0.045904428
123	0x3d06eac8	0.03293875
124	0xbd0b486d	-0.034004617
125	0xbd5ab630	-0.053396404
126	0xbc8f009c	-0.017456345
127	0xbc110551	-0.008851365
128	0x3d5d3efd	0.05401515
129	0xbd46f741	-0.048575643
130	0x3d9cf29a	0.0766346
131	0xba8595a4	-0.0010191691
132	0xbdeb87a5	-0.115004815
133	0x3d2b8b1d	0.041880716
134	0xbe9646f6	-0.29351014
135	0xbd40c8c5	-0.04706647
136	0xbd2b7865	-0.041862864
137	0x3d4a39af	0.049371418
138	0x3d6e4e26	0.058179997
139	0xbc757658	-0.014981829
140	0x3e10c67a	0.14138213
141	0xbc9392be	-0.018014308
142	0x3d24d323	0.04024042
143	0xbd650fda	-0.05592332
144	0x3e2bd29c	0.1677956
145	0x3d3ebc56	0.04656633
146	0xbd0bdabc	-0.03414415
147	0xbdfbdc43	-0.12297871
148	0xbd5b4af3	-0.053538274
149	0xbd400011	-0.046875063
150	0xbc902fdd	-0.017600948
151	0x3d682ecb	0.05668525
152	0xbde6e9a3	-0.112750314
153	0x3d81386a	0.06309588
154	0x3b219ed9	0.002466133
155	0x3e1bc1b2	0.15210608
156	0x3d5c54c5	0.05379178
157	0x3d84350b	0.0645543
158	0x3c9e9198	0.019356534
159	0x3c69aa8c	0.014261853
160	0xbe0ce403	-0.13758855
161	0xbdb6a77b	-0.08918663
162	0xbd0e0efd	-0.034682263
163	0x3d117d82	0.035520084
164	0xbd792c69	-0.06083337
165	0xbe588ab4	-0.21146661
166	0x3d2dc2e4	0.04242219
167	0x3cdcca8f	0.026952056
168	0xbe027a3e	-0.12741944
169	0xbdd2d12e	-0.10293804
170	0xbe26f700	-0.1630516
171	0x3dc67860	0.096909285
172	0xbce51864	-0.027965732
173	0xbd570299	-0.05249271
174	0x3e014bc2	0.12626556
175	0xbdc0db0e	-0.09416781
176	0xbd2a12d9	-0.04152188
177	0xbd8d1bf5	-0.06890098
178	0x3e0216c2	0.12703994
179	0xbd615983	-0.055017006
180	0xbd7c9761	-0.061667804
181	0x3a64b552	0.00087245286
182	0x3d9dd631	0.077068694
183	0xbcc8b649	-0.024500983
184	0xbc894696	-0.01675729
185	0xbc9611c0	-0.01831901
186	0xba4ce4bd	-0.0007816067
187	0xbe458f9a	-0.19293061
188	0xbc9fc652	-0.019503746
189	0x3d85f317	0.06540506
190	0xbd387da2	-0.045041688
191	0x3d883e3f	0.066524975
192	0xbe1a7af2	-0.15085962
193	0xbe17d01f	-0.14825486
194	0xbdb8c33b	-0.09021612
195	0x3d22b6ec	0.03972523
196	0xbc4785c7	-0.012177891
197	0x3d2bd780	0.041953564
198	0xbdc7aceb	-0.09749778
199	0xbd5d7012	-0.054061957
200	0x3d5de5e0	0.054174304
201	0x3b8bdabf	0.00426802
202	0xbbb08e4c	-0.005388057
203	0x3d613c2e	0.054989032
204	0x3bff55a7	0.007792193
205	0x3dc32802	0.09529115
206	0xbd6bb96b	-0.057549875
207	0x3cda8e22	0.026679102
208	0xbd162426	-0.036655568
209	0x3d86eeaf	0.06588494
210	0xbd6967e8	-0.05698386
211	0x3d256c88	0.040386707
212	0xbd971652	-0.07377304
213	0x3da0e243	0.07855656
214	0x3cf36da4	0.029715367
215	0xbcea9b60	-0.028638542
216	0x3e41b91c	0.1891827
217	0xbcb43fc7	-0.022003068
218	0xbd0a4934	-0.03376122
219	0xbc652234	-0.013985205
220	0xbb7e4c8b	-0.0038802947
221	0xbd0d7cc5	-0.034542818
222	0x3b1b3fbb	0.002368911
223	0xbd6d2f78	-0.057906598
224	0xbdad7ca3	-0.08471038
225	0x3d01e119	0.03170881
226	0x3e5a8e52	0.21343353
227	0x3d686fec	0.056747362
228	0x3dafa871	0.085770495
229	0xbd862b9d	-0.06551287
230	0x3e143849	0.14474596
231	0xbc448dde	-0.011996714
232	0xbe2edf7c	-0.1707744
233	0xbcd5ce31	-0.026099296
234	0x3c5f9e31	0.013648556
235	0xbd0921f1	-0.033479635
236	0x3ddecece	0.108792886
237	0x3ca4d334	0.02012024
238	0xbd402fbe	-0.04692053
239	0xbe94e6bb	-0.29082283
240	0x3cd1c33a	0.025605787
241	0x3de3d80e	0.111251935
242	0xbbe1f2a5	-0.0068953806
243	0xbda47509	-0.08030135
244	0x3d35a694	0.044348314
245	0xbeaf37b0	-0.34222174
246	0x3d52ccde	0.051464908
247	0x3e4c6c0f	0.19963096
248	0xbcfdf5ac	-0.031000935
249	0x3d806553	0.06269326
250	0x3db1ab3f	0.08675241
251	0xbe2d3247	-0.1691371
252	0xbd59e070	-0.053192556
253	0x3e55be90	0.20873475
254	0xbd87bbcc	-0.06627616
255	0x3dceed14	0.10103813

pointer.fc1.weight f4 [128, 256]
0	0x3decc3f7	0.11560815
1	0x3df840ce	0.121217355
2	0x3ed6fea4	0.4199115
3	0x3eb5db36	0.35518807
4	0xbd324b6a	-0.04352895
5	0xbd718dd6	-0.058973156
6	0xbdf1c5b0	-0.11805284
7	0xbe5920a9	-0.21203865
8	0xbd8233dc	-0.06357548
9	0xbe0a00f8	-0.13476932
10	0xbc5bd6e4	-0.013417933
11	0x3d5ab493	0.053394865
12	0xbe8d90d3	-0.27649555
13	0xbe58434b	-0.2111942
14	0x3e811d8c	0.25217855
15	0x3e05ba46	0.13059339
16	0xbe252abc	-0.16129583
17	0x3d839bf8	0.06426233
18	0x3d86ff77	0.06591695
19	0x3dceb912	0.10093893
20	0xbe21a0a2	-0.15783933
21	0xbd116747	-0.035498884
22	0xbd8c92c9	-0.068639345
23	0x3d7324b5	0.05936118
24	0x3e820fc8	0.25402665
25	0xbd69e191	-0.057099883
26	0x3df4179d	0.119185664
27	0x3df238ed	0.11827264
28	0xbbd9557f	-0.0066325064
29	0xbd487c5f	-0.048946735
30	0x3df1ad95	0.11800686
31	0x3d1b83fd	0.03796767
32	0x3d832031	0.064026244
33	0xbd99d937	-0.075121336
34	0x3dce232b	0.100653015
35	0x3caf32a3	0.02138645
36	0xbd1fc3ca	-0.03900508
37	0x3c07d5b4	0.008290697
38	0xbcd8c037	-0.026458843
39	0xbe085e90	-0.13317323
40	0x3d9799e5	0.074024
41	0xbbfbfa04	-0.0076897163
42	0x3df3c869	0.119034596
43	0x3e0eb5d6	0.13936552
44	0x3d407ce4	0.046994105
45	0x3e0c57e1	0.13705398
46	0xbddff7f3	-0.109359644
47	0xbe9bfa86	-0.30464572
48	0xbdc56f11	-0.09640325
49	0x3d7d5206	0.0618458
50	0x3e9ce3fd	0.3064269
51	0xbc08e7e0	-0.008356065
52	0x3d7e5a1f	0.062097665
53	0xbd3b4961	-0.045724276
54	0x3da7059b	0.08155366
55	0x3e08a4fd	0.13344188
56	0x3de2a667	0.11066895
57	0x3da19941	0.07890559
58	0x3cc04a65	0.023472974
59	0xbde7f82d	-0.11326633
60	0x3d55e6d4	0.052222088
61	0xbd19a450	-0.037510216
62	0x3dc99184	0.09842208
63	0x3cafe6ab	0.021472296
64	0xbdedfc94	-0.11620441
65	0xbd921cd4	-0.07134405
66	0x3cec0eef	0.028815715
67	0x3dc96429	0.09833557
68	0x3d9da53e	0.07697533
69	0xbd34d088	-0.044144183
70	0xbe003298	-0.125193
71	0x3d4e2dbd	0.05033659
72	0xbe03f80c	-0.12887591
73	0x3d33d19e	0.04390108
74	0xbdb6fa1d	-0.08934424
75	0x3e0cca9a	0.13749161
76	0xbdb9f214	-0.09079376
77	0x3dbc0d38	0.09182209
78	0x3da78e32	0.081814185
79	0x3db200aa	0.08691533
80	0xbd05af50	-0.032637894
81	0xbcf2e6e1	-0.029651107
82	0xbdda51c1	-0.106601246
83	0x3dac3d58	0.08410138
84	0xbd94a238	-0.07257503
85	0x3bf3fd17	0.007445942
86	0x3de2aa1e	0.110676035
87	0x3b4aea79	0.003096251
88	0x3e3e14b3	0.18562584
89	0xbcff2c85	-0.031149158
90	0xbe26997b	-0.16269486
91	0x3d49dcd7	0.049282875
92	0xbe205e56	-0.15660986
93	0xbcec527d	-0.028847927
94	0xbdbec4f1	-0.09314907
95	0xbbf6f423	-0.0075364276
96	0x3d86bca0	0.06578946
97	0x3df76043	0.12078907
98	0x3ca3362a	0.019923288
99	0x3e923a50	0.28560114
100	0x3c99a255	0.018754164
101	0xbdacdc47	-0.08440452
102	0xbb746bde	-0.003729574
103	0xbe4edbce	-0.20201036
104	0x3e14efc9	0.14544596
105	0xbc4b3dbf	-0.012404858
106	0xbe089324	-0.1333738
107	0xbe004d63	-0.1252952
108	0x3e721e33	0.23644333
109	0xbe6f770e	-0.2338526
110	0xbef855cb	-0.48502955
111	0x3d8bf045	0.06832937
112	0xbe285139	-0.16437234
113	0xbeb140da	-0.3461979
114	0x3d9cebcb	0.076621614
115	0xbe11f4b9	-0.1425351
116	0xbda954ba	-0.082681134
117	0xbdc94b74	-0.09828845
118	0xbd5d608c	-0.054047152
119	0x3d5e1446	0.054218553
120	0x3df92670	0.121655345
121	0xbd541729	-0.0517799
122	0xbdacdcab	-0.084405266
123	0xbe78aabf	-0.24283884
124	0xbafb7540	-0.0019184723
125	0x3e81d8e7	0.25360796
126	0xbd33ae2d	-0.04386728
127	0x3c345cd9	0.011008465
128	0x3ca19f8c	0.019729398
129	0xbc0e21c9	-0.008675047
130	0x3d161ce8	0.03664866
131	0x3d00c5c3	0.0314386
132	0xbde972be	-0.113988385
133	0x3e228bc2	0.15873626
134	0x3db5b2a9	0.08871967
135	0x3dbd7af0	0.09251964
136	0x3c6a5ade	0.014303891
137	0xbc231721	-0.009954245
138	0xbd96cd8b	-0.07363423
139	0x3db1da91	0.08684266
140	0x3da7d4d8	0.081948936
141	0xbdd47590	-0.10373986
142	0xbdd35b6a	-0.1032017
143	0xbd620a26	-0.05518546
144	0xbe1bfd3a	-0.15233317
145	0x3e189d3c	0.1490373
146	0xbdb1d860	-0.086838484
147	0xbd8a3d5f	-0.06749987
148	0x3bb239b8	0.0054390095
149	0x3ca64ae5	0.020299384
150	0xbdffd525	-0.12491826
151	0x3ca0c1ff	0.019623755
152	0x3d549f66	0.051909827
153	0x3c48908e	0.012241496
154	0x3c4aaa71	0.012369738
155	0xbe10da22	-0.14145711
156	0xbdec5d75	-0.11541263
157	0xbd6af55f	-0.05736291
158	0x3cce7213	0.02520088
159	0x3d72861f	0.05920994
160	0xbdb49c3e	-0.08818863
161	0xbd86cfcf	-0.06582605
162	0xbb968a4d	-0.0045941235
163	0x3d51f5e1	0.05125988
164	0x3d9b6255	0.07587115
165	0x3daefb55	0.085440315
166	0xbdb7f4ea	-0.089822605
167	0xbdcd1964	-0.100146085
168	0x3d06451b	0.032780748
169	0xbdcb5111	-0.099275716
170	0xbc52c7cb	-0.012865017
171	0x3d4629dc	0.048379764
172	0x3d86ec70	0.065880656
173	0xbd5b7f47	-0.053588178
174	0x3cc29b59	0.023755716
175	0xbd855747	-0.065107875
176	0x3d1d7b2f	0.038447555
177	0x3e2291d5	0.15875943
178	0xbda8e0df	-0.08246016
179	0xbc0569db	-0.008142914
180	0x3d6038c8	0.05474165
181	0xbd0413ca	-0.032245435
182	0x3d4a2d00	0.04935932
183	0xbdfdd7a4	-0.12394646
184	0x3d0be84e	0.03415709
185	0x3dd15761	0.10221744
186	0xbc3a4347	-0.011368579
187	0x3dd184d4	0.10230413
188	0xbd72ca6e	-0.059275083
189	0x3d89ed9f	0.06734776
190	0x3d1dc98d	0.038522292
191	0xbe10cf48	-0.14141572
192	0xbbf96671	-0.007611089
193	0x3db0f6f8	0.086408556
194	0x3dd697c7	0.10478168
195	0xbdfabf15	-0.12243477
196	0xbd1ac481	-0.037785057
197	0x3d1fd757	0.039023723
198	0xbc86a7aa	-0.01643737
199	0xbb460b24	-0.0030219043
200	0x3d7be0c6	0.061493658
201	0x3aa3bb75	0.001249178
202	0xbd8e868d	-0.06959257
203	0x3df9030d	0.12158785
204	0xbd341dbd	-0.043973673
205	0x3df67399	0.12033767
206	0x3d0d9520	0.034566045
207	0x3d24f965	0.040276904
208	0xbe0daa72	-0.13834551
209	0xbdefbae4	-0.117055684
210	0x3dca265c	0.09870598
211	0xbd1a4596	-0.03766402
212	0xbe045845	-0.12924297
213	0xbd6898aa	-0.056786217
214	0xbdbf05a5	-0.093272485
215	0xbc788d60	-0.015170425
216	0x3da995bc	0.08280513
217	0xbdebb4a0	-0.11509061
218	0xbc392302	-0.01129985
219	0x3d908ee4	0.07058504
220	0xbdb45ce6	-0.088067815
221	0x3cd82899	0.026386546
222	0x3bebc4d6	0.0071950955
223	0x3ae9bd14	0.0017832839
224	0xbda1583a	-0.07878156
225	0xbdbbc22d	-0.091678955
226	0xbd1a1782	-0.037620075
227	0x3d78f7a1	0.060783032
228	0x3d5545e4	0.052068606
229	0xbd5b4046	-0.053528093
230	0x3d796676	0.06088873
231	0x3c54cc11	0.012988106
232	0xb9ce25a5	-0.0003931943
233	0xbde70208	-0.11279684
234	0x3d63ebf9	0.055644963
235	0x3d18a233	0.03726406
236	0xbda188b2	-0.07887401
237	0x3bf10445	0.0073552453
238	0x3da39270	0.07986915
239	0x3db61eb8	0.08892578
240	0x3db165bd	0.08661983
241	0xbda8cf6f	-0.0824269
242	0xbd1887f4	-0.03723903
243	0x3d8f774d	0.07005177
244	0xbd137965	-0.036004443
245	0xbbd77c85	-0.006576123
246	0xbb95edc3	-0.0045754625
247	0x3d9523f4	0.07282248
248	0x3c080775	0.008302559
249	0x3ce7a9fd	0.028279299
250	0xbd75e7a2	-0.060035355
251	0xbd139778	-0.036033124
252	0x3d80cf24	0.06289509
253	0xb9a4752c	-0.00031367817
254	0x3d85b22b	0.065281235
255	0x3c6e8646	0.0145583805

pointer.fc1.bias f4 [128]
0	0x3d9b0f94	0.07571331
1	0xbd3da0f4	-0.046296075
2	0xbd7b8089	-0.061401878
3	0x3b8147a4	0.003945308
4	0x3b0c760f	0.0021432673
5	0x3d906907	0.070512824
6	0x3cd0493b	0.025425544
7	0x3ce8b148	0.028404847
8	0xbdbb07d8	-0.091323555
9	0x3d9326e8	0.07185155
10	0xbc22d903	-0.009939435
11	0x3ce250b8	0.02762638
12	0xbdbd7b86	-0.09252076
13	0xbd7ee016	-0.062225424
14	0x3c52b590	0.012860671
15	0x3cb1d74b	0.021709105
16	0xbd464f24	-0.048415318
17	0xbd7db9fc	-0.061944947
18	0xbd9ba02b	-0.07598909
19	0xbce79e8c	-0.028273843
20	0x3c0952fe	0.008381603
21	0xbd40ee47	-0.04710224
22	0xbd7290d7	-0.05922016
23	0x3c9cc7d3	0.019138252
24	0x3d15b110	0.036545813
25	0xbd17554e	-0.036946587
26	0x3c11ab9f	0.008891015
27	0x3ced7ee2	0.028991167
28	0x3dc43783	0.095809005
29	0x3b33ad3e	0.0027416493
30	0xbcec535e	-0.028848346
31	0xbd452934	-0.048134997
32	0x3cc99299	0.024606036
33	0xbb19ef25	-0.0023488489
34	0xbc9a1cc2	-0.01881254
35	0xbc6f33a4	-0.014599714
36	0xbc884e07	-0.016638769
37	0xbd8ba32a	-0.068182305
38	0x3d1749b3	0.03693552
39	0xbd0c69fd	-0.034280766
40	0xbd3b860b	-0.04578213
41	0x3c7ed357	0.015553317
42	0x3d28b8bf	0.041191813
43	0x3de10f9d	0.10989306
44	0x3ce21bb4	0.0276011
45	0x3d90a584	0.070628196
46	0xbd6f107f	-0.05836534
47	0xbcaf13b7	-0.021371705
48	0xbd014df6	-0.03156849
49	0x3d29f520	0.041493535
50	0xbc822338	-0.015885934
51	0x3d911415	0.070839085
52	0xbcf2d62a	-0.029643137
53	0x3d4a7581	0.049428467
54	0x3cc43bc7	0.023954285
55	0xbd9aafe6	-0.07553081
56	0x3ca0b3bb	0.019616952
57	0xbcdc068a	-0.026858587
58	0xba258757	-0.00063144177
59	0x3ce33c4a	0.027738709
60	0x3d34a2c0	0.044100523
61	0x3cb44d2f	0.02200946
62	0xbcb8cccb	-0.02255859
63	0x3c2ce316	0.010552188
64	0x3c1e3264	0.009655569
65	0x3d993754	0.07481256
66	0xbd2caab3	-0.04215498
67	0x3d36f4e9	0.04466716
68	0x3d0dc6a6	0.034613274
69	0x3c56aacb	0.013102244
70	0xbc5cf7c5	-0.013486807
71	0xbb9fe066	-0.0048790453
72	0x3d2bfbcd	0.041988183
73	0x3d811a79	0.063038774
74	0x3bd6bb1d	0.0065530674
75	0xbd491534	-0.049092487
76	0xbcb5663a	-0.022143472
77	0xbd40a14d	-0.04702883
78	0x3cc07f32	0.023498151
79	0x3d4b8207	0.04968455
80	0x3d2cfb7a	0.042232014
81	0xbd06de85	-0.032927055
82	0xba944e2f	-0.0011314804
83	0x3ca5a1f8	0.020218834
84	0x3cdfb4ce	0.027307894
85	0xbc6b9957	-0.014379821
86	0xbd5a9ae3	-0.053370368
87	0x3d9b2dea	0.07577117
88	0xba862546	-0.0010234497
89	0x3bed9908	0.0072509088
90	0xbd1dfc85	-0.0385709
91	0x3c2f797d	0.010710117
92	0xbd00f780	-0.031486034
93	0xbd7e4897	-0.062080946
94	0x3c2232b1	0.009899781
95	0xbd2cfdd1	-0.042234246
96	0x3dc83927	0.09776526
97	0xbd86bc55	-0.0657889
98	0x3d979da6	0.07403116
99	0xbd608a7c	-0.05481957
100	0x3b4f9d3b	0.003167941
101	0xbd124101	-0.035706524
102	0x3d125800	0.035728455
103	0x3ca07331	0.019586178
104	0x3d1a4839	0.037666533
105	0x3cbd3312	0.023095641
106	0x3d7ac786	0.061225437
107	0x3da3c07b	0.07995697
108	0x3cd9bdd3	0.026579773
109	0xbd33d59e	-0.043904893
110	0x39d8cc4c	0.00041350944
111	0xbd4c2635	-0.049841125
112	0xbb8e1480	-0.00433594
113	0x3ba1fa93	0.004943201
114	0x3b9972a6	0.0046828566
115	0x3dc006f8	0.09376329
116	0xbd09d93a	-0.03365443
117	0xbd237d32	-0.039914317
118	0xbb93d917	-0.004511963
119	0x3d887519	0.066629596
120	0x3c4e4100	0.012588739
121	0x3dd08da2	0.10183264
122	0xbc9eeaf7	-0.01939915
123	0xbba7cf9e	-0.0051211854
124	0x3ca625a6	0.020281624
125	0xbd25fa60	-0.04052198
126	0xbcc5ca6b	-0.024144372
127	0xbd831bc6	-0.06401782
