trained_models/cvrp/XE_5/model_incumbent_vrpRl13_C_XE_5_P_0.1_22532.pt (torch_old, 469732 bytes, 15 tensors)

all_embed.embed.weight f4 [128, 4]
-0.17329215 -0.039031833 0.06580174 0.029622301 0.672313 -0.31954545 -0.11819612 0.17661029
0.912261 0.38723865 0.23967367 0.044507083 0.23263323 0.17475231 -0.03168186 -0.40427586
-0.14823347 0.07674877 -0.4106163 -0.3817635 0.06349611 0.56679606 -0.18212058 -0.11309271
0.7558496 -0.20928782 -0.17262751 -0.0024262278 -0.093303144 -0.12817192 0.13084683 0.062932104
-0.17157498 -0.18876126 0.022943765 -0.090118095 -0.17508057 0.111629926 0.1690522 -0.08004102
0.036656197 -0.4806627 -0.43125272 0.24221705 0.48315886 -0.10808012 0.38424522 0.24992463
-0.20254931 -0.093269624 0.023240045 0.0028150976 0.580466 -0.23719206 0.19297981 0.12133901
0.52938306 -0.34406856 -0.17197804 -0.058209237 0.33376563 0.2627443 -0.3537511 -0.40138838
-0.031673234 0.01947466 -0.30747035 -0.1872024 0.52366865 -0.17600414 0.540003 -0.029294927
0.16964354 1.030586 0.4179153 -0.09015745 0.54409003 -0.11630547 -0.19321294 0.10646171
0.16545689 0.024112761 0.15906057 -0.08180334 0.31298584 -0.09047396 0.60617644 0.21229297
0.09900407 -0.37894943 -0.3580875 -0.3200778 -0.27761382 0.83373106 0.26631126 -0.02261673
-0.069435194 0.12549564 0.015369743 0.07343626 -0.24490775 0.70589864 0.20450635 -0.14174195
-0.09374695 0.099515736 -0.017362505 -0.030213729 -0.20446856 -0.33853218 -0.16187201 -0.26763985
0.09379472 -0.1735819 -0.10785987 -0.16217028 -0.46309084 0.459959 -0.1158889 0.30296755
-0.21699381 0.5704826 -0.29618394 -0.061789267 0.18037944 0.826009 0.051344145 0.021079328
-0.04043937 0.36759228 -0.45360127 -0.28746608 -0.14421204 -0.13559675 -0.04072444 -0.13262841
-0.4689741 0.29949713 -0.59940207 0.3545747 0.70523643 0.8580117 -0.34304255 0.1116246
-0.068124734 0.7333025 0.54044455 0.17469826 0.759798 0.04940319 0.032583397 0.060409028
-0.28604308 -0.13139027 0.41645995 0.37615886 -0.20446119 0.76712495 -0.34359187 0.2534347
-0.580233 0.05719109 0.15473944 0.30792022 -0.18258269 0.4080462 0.2290504 0.2964567
0.40961525 -0.5470271 -0.6005834 0.2240682 0.2403916 0.3319428 -0.16496241 -0.35332832
-0.047994655 -0.48176536 -0.698426 0.26601008 0.924899 0.17654063 -0.12826659 0.16632551
0.024206469 0.11945844 -0.33746323 -0.55364305 0.65120554 -0.117730975 0.16450739 -0.0634338
0.18638113 0.09932699 -0.28963172 -0.3440987 -0.03612718 -0.16209908 0.063577145 0.03066726
0.6767507 -0.34675604 0.44601646 -0.113123305 0.07716644 -0.20658395 0.19978166 -0.10277863
0.86062235 0.62981826 -0.4015389 0.3079685 0.017227944 0.56945777 -0.2348095 -0.11259061
0.42073572 -0.047815174 -0.44335288 -0.016002383 -0.13806152 -0.49176836 0.082641914 0.23444128
0.6016793 -0.2649916 -0.17200737 0.18543231 0.061968684 0.10946384 0.19411954 -0.19546854
0.28690904 0.19655299 -0.20903397 -0.16779946 0.02084831 0.89028925 -0.041315407 0.017556129
0.8080546 0.6120981 -0.24333456 0.16384727 -0.61623013 0.41085804 -0.16778666 0.26726246
0.1127454 0.27208236 -0.40728498 -0.3245515 -0.06916462 0.5007375 0.2528603 -0.15206987
00000000: 7f73 31be d8df 1fbd 10c3 863d 78aa f23c
00000010: b41c 2c3f 769b a3be cf10 f2bd 54d9 343e
00000020: f089 693f 2544 c63e 046d 753e 0f4d 363d
00000030: 6837 6e3e 45f2 323e d7c4 01bd 3ffd cebe
00000040: 84ca 17be 762e 9d3d 4d3c d2be 8176 c3be
00000050: 400a 823d 8c19 113f d17d 3abe 279d e7bd
00000060: 5c7f 413f 8c4f 56be 44c5 30be 5901 1fbb
00000070: b815 bfbd 803f 03be b6fc 053e 8ce2 803d
00000080: 5ab1 2fbe a24a 41be 90f4 bb3c d68f b8bd
00000090: 5248 33be 3b9e e43d 051c 2d3e 8cec a3bd
000000a0: cf24 163d 6c19 f6be 28cd dcbe bf07 783e
000000b0: 9960 f73e 1c59 ddbd cabb c43e 3eec 7f3e
000000c0: 1669 4fbe 2504 bfbd e861 be3c 807d 383b
000000d0: 6b99 143f 7ae2 72be 809c 453e 9680 f83d
000000e0: a685 073f c129 b0be 031b 30be cf6c 6ebd
000000f0: 54e3 aa3e 6c86 863e dd1e b5be c782 cdbe
00000100: cbbb 01bd 5289 9f3c c16c 9dbe fcb1 3fbe
00000110: 260f 063f 6e3a 34be a33d 0a3f eafb efbc
00000120: 09b7 2d3e 3eea 833f fff8 d53e 78a4 b8bd
00000130: 7c49 0b3f 9031 eebd 9dd9 45be 9908 da3d
00000140: 886d 293e 2088 c53c c6e0 223e 8288 a7bd
00000150: ae3f a03e 694a b9bd 612e 1b3f 5463 593e
00000160: a5c2 ca3d a905 c2be 3f57 b7be 3de1 a3be
00000170: 6623 8ebe 666f 553f f359 883e b846 b9bc
00000180: 0a34 8ebd ee81 003e 60d1 7b3c c065 963d
00000190: 19c9 7abe c6b5 343f 1d6a 513e cd24 11be
000001a0: 67fe bfbd e8ce cb3d d03b 8ebc c882 f7bc
000001b0: 3560 51be 1754 adbe c7c1 25be 1708 89be
000001c0: 7217 c03d 74bf 31be a3e5 dcbd f70f 26be
000001d0: 3e1a edbe bf7f eb3e 2957 edbd 901e 9b3e
000001e0: a033 5ebe 260b 123f 6ca5 97be be16 7dbd
000001f0: 63b5 383e 5375 533f 3d4e 523d 8eae ac3c
00000200: c1a3 25bd 0e35 bc3e 6d3e e8be c12e 93be
00000210: 52ac 13be e0d9 0abe acce 26bd becf 07be
00000220: 601d f0be b057 993e 6a72 19bf d18a b53e
00000230: 608a 343f a8a6 5b3f 46a3 afbe 709b e43d
00000240: fb84 8bbd b6b9 3b3f 935a 0a3f 1ae4 323e
00000250: 1f82 423f 005b 4a3d 2b76 053d 756f 773d
00000260: 3d74 92be 2c8b 06be 3d3a d53e e597 c03e
00000270: 465e 51be 4d62 443f 46eb afbe 31c2 813e
00000280: 268a 14bf 3441 6a3d 0474 1e3e b8a7 9d3e
00000290: f5f6 3abe 6eeb d03e 308c 6a3e 2cc9 973e
000002a0: 17b9 d13e f809 0cbf d5bf 19bf 2272 653e
000002b0: 3729 763e 68f4 a93e e8eb 28be 73e7 b4be
000002c0: 0b96 44bd f3a9 f6be 0ccc 32bf 7932 883e
000002d0: 2ec6 6c3f 11c7 343e 5158 03be 3c51 2a3e
000002e0: a54c c63c a0a6 f43d fbc7 acbe 8dbb 0dbf
000002f0: 68b5 263f f01c f1bd a074 283e 95e9 81bd
00000300: b2da 3e3e f36b cb3d 9c4a 94be b42d b0be
00000310: 18fa 13bd 4dfd 25be bc34 823d e839 fb3c
00000320: 893f 2d3f 028a b1be 455c e43e 31ad e7bd
00000330: 7009 9e3d be8a 53be 9093 4c3e 9a7d d2bd
00000340: bf51 5c3f c53b 213f 8296 cdbe 0cae 9d3e
00000350: 9e21 8d3c fcc7 113f e771 70be e895 e6bd
00000360: ac6a d73e d8d9 43bd 26ff e2be 6e17 83bc
00000370: 0060 0dbe 10c9 fbbe 2a40 a93d 6011 703e
00000380: a807 1a3f fbac 87be b322 30be f8e1 3d3e
00000390: e0d2 7d3d 942e e03d 46c7 463e e828 48be
000003a0: bee5 923e 3045 493e 000d 56be 9fd3 2bbe
000003b0: 13ca aa3c ffe9 633f 583a 29bd dfd1 8f3c
000003c0: abdc 4e3f 76b2 1c3f b22c 79be 94c7 273e
000003d0: 42c1 1dbf fc5b d23e 44d0 2bbe a0d6 883e
000003e0: 0fe7 e63d 614e 8b3e a887 d0be 9d2b a6be
000003f0: 2ea6 8dbd 5530 003f e876 813e 34b8 1bbe

all_embed.embed.bias f4 [128]
-0.34740806 0.12813753 -0.07623216 0.079629935 0.22880545 0.25723454 0.23410968 -0.4019794
-0.1195392 -0.10327117 0.40820163 -0.4358659 -0.4409032 -0.07533996 0.36564884 -0.13215782
0.5389323 0.36097023 0.2060529 0.23932369 -0.3296966 -0.4627773 -0.079810075 0.22408094
-0.42945933 0.506615 -0.21534342 0.19530782 0.39695954 0.053419326 0.4297617 -0.06266866
0.014399257 -0.2928968 0.119193584 0.08637643 -0.21820599 0.07529813 -0.115307525 -0.030358084
0.2242746 -0.36524922 0.30710506 0.20719871 0.33271438 -0.052707102 0.45225364 0.4954127
0.18071347 -0.3391539 0.4034769 -0.40970182 0.26473576 0.30456766 0.43274844 0.33529785
0.026251828 -0.1744399 0.13240114 0.021513391 -0.013019857 0.515939 0.09123528 0.38244152
0.22751285 0.04388088 0.26583058 -0.2553017 0.09153442 0.11119573 0.27074358 0.35172796
-0.15934801 0.38708544 0.47094417 -0.4983573 -0.31070924 0.15976645 0.15948786 0.1289828
0.2787301 0.5521011 0.08138507 -0.069970004 -0.44588387 -0.2931927 -0.039781004 0.12404198
0.42752287 0.4130462 0.08840544 0.21627992 0.045586117 0.58368754 0.2518554 0.49193123
0.5149339 0.40184548 -0.21907146 0.06993077 -0.31856355 0.45381898 0.21850787 -0.14266245
0.36187187 0.0018700269 -0.30644968 0.009012566 0.48342472 -0.037146013 -0.05531806 -0.09452121
0.07257111 0.42061794 0.12309797 0.11613182 0.25577477 0.36945292 -0.33959997 0.08810177
-0.46690288 0.24608852 -0.47657287 0.48405746 0.3258039 0.1337275 0.47556958 -0.41839838
00000000: 78df b1be 7c36 033e 9b1f 9cbd 0515 a33d
00000010: fa4b 6a3e 3fb4 833e 73ba 6f3e 3ed0 cdbe
00000020: f8d0 f4bd d67f d3bd ceff d03e d129 dfbe
00000030: 10be e1be d64b 9abd 5336 bb3e 6154 07be
00000040: 78f7 093f 17d1 b83e 88ff 523e 4511 753e
00000050: fecd a8be 25f1 ecbe 7773 a3bd 7975 653e
00000060: 18e2 dbbe 85b1 013f fc82 5cbe c6fe 473e
00000070: 483e cb3e 39ce 5a3d ba09 dc3e 6d58 80bd
00000080: dcea 6b3c 92f6 95be c41b f43d 20e6 b03d
00000090: 6471 5fbe e835 9a3d 5a26 ecbd 84b1 f8bc
000000a0: 3ea8 653e f201 bbbe e03c 9d3e e62b 543e
000000b0: 8a59 aa3e 67e3 57bd ca8d e73e bca6 fd3e
000000c0: f40c 393e 94a5 adbe 8694 ce3e 70c4 d1be
000000d0: 728b 873e 4bf0 9b3e 3491 dd3e 29ac ab3e
000000e0: 130e d73c 60a0 32be 2a94 073e da3c b03c
000000f0: 3d51 55bc 9414 043f 90d9 ba3d 60cf c33e
00000100: 21f9 683e 70bc 333d f21a 883e e8b6 82be
00000110: 6676 bb3d 96ba e33d e79e 8a3e b015 b43e
00000120: 202c 23be 1030 c63e 981f f13e b028 ffbe
00000130: 4815 9fbe d199 233e c950 233e 1114 043e
00000140: b6b5 8e3e 7f56 0d3f 37ad a63d 6f4c 8fbd
00000150: e44a e4be 5b1d 96be 68f1 22bd b909 fe3d
00000160: 47e4 da3e cb7a d33e e90d b53d 7c78 5d3e
00000170: 82b8 3a3d 8c6c 153f 31f3 803e 69de fb3e
00000180: b5d2 033f b1be cd3e 4554 60be dd37 8f3d
00000190: c31a a3be f65a e83e 87c0 5f3e 1b16 12be
000001a0: 4547 b93e b11b f53a f9e6 9cbe 71a9 133c
000001b0: 7283 f73e 6b26 18bd 3195 62bd 5694 c1bd
000001c0: 2aa0 943d 3c5b d73e ca1a fc3d 85d6 ed3d
000001d0: e9f4 823e ef28 bd3e 0ce0 adbe b36e b43d
000001e0: e50d efbe a1fe 7b3e 5c01 f4be 61d6 f73e
000001f0: c5cf a63e ddef 083e db7d f33e 5038 d6be

all_embed.embed_2.weight f4 [128, 128]
0.13400052 -0.07903551 -0.023576792 0.19715205 0.15270604 0.0043680873 0.0978558 -0.15105148
-0.034394927 0.10720447 0.107294425 -0.14084929 0.08224563 -0.04639714 0.020107396 -0.04500423
0.005560009 -0.04909135 0.00055099657 -0.08779787 0.08092089 -0.1391765 0.11150362 -0.06099982
0.006877795 0.150454 0.06696682 -0.06411172 0.07382318 -0.13237134 -0.009148264 -0.11644225
0.07387992 0.14394693 -0.10607205 0.13136315 0.11197276 -0.072490804 -0.21527721 0.09462355
0.10841925 -0.27927426 -0.033094484 -0.002025853 -0.0028578143 0.018040242 -0.15905185 0.24245939
0.11681125 -0.07556866 -0.011740011 -0.028464459 0.03315324 0.05353192 -0.029971877 -0.07991113
0.04335019 -0.03624385 -0.09851462 -0.027429638 -0.05961125 -0.11961865 0.0048209024 0.21851858
0.006945466 -0.028531643 0.04530727 0.12573156 -0.060995005 0.14460395 0.1929964 -0.10633984
-0.059901875 0.14961687 -0.053703412 -0.12613487 0.05354245 0.030237036 -0.00632104 -0.07460929
-0.10839217 0.25816393 -0.1563096 -0.15595658 -0.11091327 -0.21489815 -0.021780157 0.024716387
-0.051979706 -0.065464616 -0.060481634 -0.011013764 0.15549202 0.19754924 -0.04144505 0.062017325
-0.0492305 -0.07352018 -0.39133796 0.18091857 -0.6047779 0.15650073 0.20382324 -0.17894822
0.11146754 0.07399476 -0.086023055 -0.0063394215 0.03487558 -0.19592373 0.10702577 -0.0045699095
0.13056332 0.09280667 -0.17086513 -0.086407356 -0.02609342 -0.059453186 0.13451277 -0.011293372
0.06441193 0.11122774 -0.111876324 0.13062528 0.08253754 0.18607084 -0.010350694 0.02804701
0.09443198 -0.32058227 -0.2603295 -0.008083944 -0.20801838 0.028307404 -0.32767075 0.04847017
0.1282251 0.13409771 -0.2913724 -0.25128716 -0.07516506 -0.008140257 -0.27237478 -0.22468835
-0.16885969 -0.2665137 0.060084693 -0.3544119 -0.07764501 -0.113038115 -0.29087916 0.07132864
0.02889511 -0.09159183 0.030090466 -0.08193178 -0.21639678 0.19238265 -0.088609286 0.15816553
-0.3218234 0.105713084 -0.020807924 0.021476377 0.15888143 -0.2259813 0.06324643 -0.092970446
0.100950904 0.04071904 -0.3734997 -0.24201865 -0.17925808 -0.27205625 -0.0027312983 -0.16247259
-0.07867181 0.10363476 -0.27901766 -0.11680691 -0.117653966 0.08617223 -0.024509728 -0.13737406
-0.33255097 -0.039822295 -0.34527943 0.13774206 -0.12803505 0.003249931 -0.3335757 -0.0048911786
0.21260756 0.008965508 -0.0030474956 -0.023768226 -0.084487684 0.04006245 -0.30936125 -0.22007582
-0.0016814091 -0.12535253 0.03573384 0.086965784 0.06329946 -0.0026395677 -0.011958338 -0.21048264
-0.020179411 0.07105529 -0.019888015 -0.2848165 0.040053517 -0.19742054 -0.09354162 -0.28222695
-0.18673605 0.027278893 -0.019180352 -0.1127718 -0.20060444 -0.23676473 -0.20061196 -0.09396597
0.005496803 -0.16145796 0.007390478 -0.35043442 -0.30300993 -0.36470297 -0.35208827 -0.18331343
-0.11934827 -0.3004728 0.14108896 -0.07040595 0.0057866615 -0.0948062 -0.28493196 -0.24488157
-0.21781269 -0.15829197 -0.31636432 -0.26763314 0.07782598 0.14947155 -0.0368532 -0.14871117
-0.020552486 0.0074002543 -0.049642593 -0.062025204 0.050205257 0.025394907 -0.12282354 0.10858108
00000000: 6f37 093e 5fdd a1bd 1e24 c1bc 3ae2 493e
00000010: f95e 1c3e 2c22 8f3b 9f68 c83d 3dad 1abe
00000020: b2e1 0cbd 048e db3d 2ebd db3d cc3a 10be
00000030: 6670 a83d ed0a 3ebd 44b8 a43c 5b56 38bd
00000040: bc30 b63b 0314 49bd c170 103a 5fcf b3bd
00000050: dab9 a53d 4984 0ebe 035c e43d f2da 79bd
00000060: 205f e13b 9d10 1a3e e625 893d 014d 83bd
00000070: 9b30 973d 5a8c 07be 9ae2 15bc 4679 eebd
00000080: 5b4e 973d d366 133e 4e3c d9bd 1084 063e
00000090: f951 e53d 0f76 94bd a171 5cbe fec9 c13d
000000a0: e90a de3d 09fd 8ebe 158e 07bd 2cc4 04bb
000000b0: 2b4a 3bbb 21c9 933c 7dde 22be 4647 783e
000000c0: bd3a ef3d bec3 9abd 2d59 40bc 4c2e e9bc
000000d0: b1cb 073d 4944 5b3d 9587 f5bc 72a8 a3bd
000000e0: f88f 313d 6e74 14bd 08c2 c9bd 1fb4 e0bc
000000f0: ed2a 74bd 9ffa f4bd a9f8 9d3b 56c3 5f3e
00000100: cb96 e33b 31bb e9bc 1e94 393d c6bf 003e
00000110: e6d5 79bd 0f13 143e d9a0 453e b4c8 d9bd
00000120: ab5b 75bd 2a35 193e 1cf8 5bbd 8029 01be
00000130: 544f 5b3d a9b3 f73c ba20 cfbb c1cc 98bd
00000140: b7fc ddbd 102e 843e a00f 20be 15b3 1fbe
00000150: 7f26 e3bd 430e 5cbe 4d6c b2bc 057a ca3c
00000160: ace8 54bd 5012 86bd 97bb 77bd 1373 34bc
00000170: 4d39 1f3e 594a 4a3e 49c2 29bd e105 7e3d
00000180: eca5 49bd c091 96bd 735d c8be b842 393e
00000190: b9d2 1abf ba41 203e 0ab7 503e 343e 37be
000001a0: 1849 e43d 918a 973d db2c b0bd ecba cfbb
000001b0: b2d9 0e3d 3ba0 48be 5430 db3d 2ebf 95bb
000001c0: 64b2 053e 6c11 be3d 45f7 2ebe 57f6 b0bd
000001d0: dec1 d5bc 2f85 73bd b7bd 093e d607 39bc
000001e0: 67ea 833d 5fcb e33d 6a1f e5bd a2c2 053e
000001f0: 7109 a93d 5b89 3e3e f595 29bc d8c2 e53c
00000200: 8e65 c13d 5c23 a4be e949 85be 8572 04bc
00000210: c502 55be eee4 e73c 76c4 a7be a888 463d
00000220: 714d 033e e950 093e c32e 95be b6a8 80be
00000230: 24f0 99bd b65e 05bc b574 8bbe b414 66be
00000240: 8ee9 2cbe 7c74 88be 5e1b 763d 7a75 b5be
00000250: 5904 9fbd 8780 e7bd 1dee 94be c014 923d
00000260: 70b5 ec3c 7f94 bbbd 4880 f63c d9cb a7bd
00000270: 1e97 5dbe f5ff 443e c978 b5bd 25f6 213e
00000280: 09c6 a4be 1a80 d83d 6175 aabc 3aef af3c
00000290: d0b1 223e a467 67be 5887 813d 4a67 bebd
000002a0: 59bf ce3d 02c9 263d 5a3b bfbe bdd3 77be
000002b0: 6e8f 37be f54a 8bbe 95ff 32bb 375f 26be
000002c0: b01e a1bd 763e d43d 67db 8ebe 7638 efbd
000002d0: 90f4 f0bd 117b b03d a0c8 c8bc c9ab 0cbe
000002e0: 1f44 aabe b41c 23bd 77c8 b0be 410c 0d3e
000002f0: 9f1b 03be cbfc 543b 6fca aabe 2e46 a0bb
00000300: ccb5 593e 11e4 123c 7eb8 47bb 95b5 c2bc
00000310: e107 adbd 8618 243d 9964 9ebe 8e5b 61be
00000320: ba62 dcba 6a5c 00be a65d 123d 1e1b b23d
00000330: 26a3 813d 99fc 2cbb e8ec 43bc c388 57be
00000340: 4b4f a5bc 7085 913d 31ec a2bc 78d3 91be
00000350: 280f 243d 9c28 4abe c092 bfbd 0d80 90be
00000360: bc37 3fbe fc77 df3c 1d20 9dbc e7f4 e6bd
00000370: 406b 4dbe 7472 72be 396d 4dbe 3b71 c0bd
00000380: 871e b43b 3c55 25be d32b f23b 246c b3be
00000390: 1e24 9bbe 59ba babe ea44 b4be 84b6 3bbe
000003a0: de6c f4bd 92d7 99be a079 103e ff30 90bd
000003b0: 099e bd3b c129 c2bd 9ae2 91be 3cc2 7abe
000003c0: 4a0a 5fbe 4a17 22be 81fa a1be 3607 89be
000003d0: 3a63 9f3d 120f 193e 62f3 16bd be47 18be
000003e0: b05d a8bc d57d f23b 0856 4bbd 240e 7ebd
000003f0: 07a4 4d3d fb08 d03c e88a fbbd c25f de3d

all_embed.embed_2.bias f4 [128]
0.13596372 -0.04037894 0.029748626 -0.017530479 -0.13582781 -0.14855605 -0.1228808 -0.009043826
0.03288338 -0.005449589 0.14356658 0.11199576 -0.03832322 -0.009282798 0.0057778712 -0.20688085
-0.091489576 0.027488114 -0.15202053 -0.030563308 0.008028424 0.014721319 -0.048798446 -0.13790815
-0.07448089 -0.09128466 -0.036000658 -0.009760023 -0.16356605 0.08902464 -0.113373026 -0.08164989
-0.12186823 0.09356925 -0.07843057 0.14857145 -0.1741102 -0.02694118 0.08790655 -0.141421
-0.012682268 -0.13041456 0.07058953 0.064549714 0.119477645 0.14032815 0.061979692 0.05692602
0.054670606 -0.027966693 0.1816425 -0.1792068 -0.068825185 -0.08150253 -0.032832175 -0.09596076
0.09510205 0.017163225 -0.05110165 0.07820368 -0.07686276 0.09286518 -0.01318289 0.025570482
0.06408171 -0.048351683 -0.07989755 -0.1834103 -0.0070548085 -0.040786088 0.015799996 0.033313047
0.19927658 -0.029943403 -0.092242725 -0.03892588 -0.095586434 -0.0061472887 -0.058672186 -0.12016274
0.033922385 -0.13056506 0.12816471 0.13718608 0.02886238 -0.17528078 -0.05905172 -0.07130402
0.026859317 -0.056284733 -0.04910811 -0.049450327 -0.13073142 -0.12409935 -0.038380146 0.045690168
0.0673632 0.06204486 -0.046067223 -0.109590046 0.03631826 -0.1422265 0.08026439 -0.08247835
0.074153215 -0.0061376826 -0.106017925 0.012889124 0.014157488 0.13327213 -0.13343555 0.10338838
0.15924302 0.03400483 -0.06485763 0.07203362 0.11376639 -0.0136007145 -0.009762153 -0.067851484
0.11713791 -0.029414553 0.10700959 -0.22212785 -0.02719469 -0.24304643 0.039518733 0.3068728
00000000: 133a 0b3e 6364 25bd 64b3 f33c 149c 8fbc
00000010: 7216 0bbe 141f 18be eea8 fbbd 8e2c 14bc
00000020: b9b0 063d 7792 b2bb 1e03 133e 085e e53d
00000030: cff8 1cbd e016 18bc 4c54 bd3b 93d8 53be
00000040: e35e bbbd c12e e13c 45ab 1bbe e75f fabc
00000050: a789 033c b031 713c e1e0 47bd cb37 0dbe
00000060: 7089 98bd 74f3 babd 6d75 13bd 81e8 1fbc
00000070: dc7d 27be 8d52 b63d 1e30 e8bd 0f38 a7bd
00000080: 0d96 f9bd 3ca1 bf3d 35a0 a0bd 1d23 183e
00000090: f249 32be c0b3 dcbc 5908 b43d abd0 10be
000000a0: 4ac9 4fbc 658b 05be 3e91 903d a432 843d
000000b0: b2b0 f43d 2fb2 0f3e 6bde 7d3d 422b 693d
000000c0: 49ee 5f3d 681a e5bc 7e00 3a3e fd81 37be
000000d0: 38f4 8cbd ccea a6bd 087b 06bd 1387 c4bd
000000e0: ddc4 c23d e499 8c3c f74f 51bd 4029 a03d
000000f0: 396a 9dbd 1930 be3d 0cfd 57bc 3079 d13c
00000100: 463d 833d 6a0c 46bd 54a1 a3bd e9cf 3bbe
00000110: 062c e7bb 500f 27bd fe6e 813c 4373 083d
00000120: 290f 4c3e de4b f5bc c1e9 bcbd be70 1fbd
00000130: d2c2 c3bd 326f c9bb 3f52 70bd e217 f6bd
00000140: 33f2 0a3d d9b2 05be 9c3d 033e 827a 0c3e
00000150: cc70 ec3c ce7c 33be 37e0 71bd d807 92bd
00000160: 1208 dc3c d28a 66bd 9625 49bd 6d8c 4abd
00000170: 75de 05be cd27 febd 8034 1dbd 9d25 3b3d
00000180: b8f5 893d c022 7e3d fcb0 3cbd bf70 e0bd
00000190: 75c2 143d d3a3 11be a861 a43d 69ea a8bd
000001a0: a4dd 973d 9d1e c9bb ed1f d9bd e82c 533c
000001b0: cff4 673c 7d78 083e 54a3 08be 49bd d33d
000001c0: 9a10 233e a648 0b3d 14d4 84bd 5d86 933d
000001d0: 5afe e83d 88d5 5ebc 70f1 1fbc b8f5 8abd
000001e0: 00e6 ef3d caf6 f0bc d827 db3d 7c75 63be
000001f0: 66c7 debc 2ae1 78be 65de 213d 6f1e 9d3e

pointer.v f4 [1, 1, 128]
-0.121413134 -1.16638 -1.6078417 0.855431 0.74005675 2.0612483 -1.6300695 -1.5228785
1.714225 -3.1357212 -1.8344767 -1.3008343 -1.3944834 -1.8870937 0.19044203 -2.0280032
2.0619483 2.6073864 -2.7387753 2.3642719 -1.1575553 2.4914567 0.23342414 0.5846336
0.24462573 -1.129837 -0.5516533 0.3355472 1.9202112 -1.0243049 -1.9320725 2.591951
1.8188784 -1.0541327 -2.5088906 -1.4878306 -1.3140136 -1.7851927 -1.0792737 2.182999
2.267224 1.9738266 2.45818 0.84706306 -1.056499 -1.3813531 -1.4726073 -1.1156367
1.6653866 0.17826593 -1.4706185 1.3774652 -0.8896691 -3.3608668 2.1548767 -1.0954643
-0.87733483 2.366126 -1.1409883 -0.9598655 2.1658225 4.152186 2.3446434 0.9483378
-0.43683055 0.84272206 2.0253797 2.1186132 1.3722322 -0.8398382 -2.3061876 -3.2343183
-1.4473687 -1.2381879 0.20318933 0.58472514 0.5168182 -0.8023732 2.3675332 -0.9006719
0.8141799 0.252316 1.3550035 -0.8592752 1.9934095 -1.8593441 2.0545568 -1.3526883
-1.2495602 -1.3842455 0.7858526 0.2746441 0.8313149 -2.674378 2.2541518 2.137113
0.91673857 -1.6600981 0.156803 0.8905801 -0.91726667 2.146928 -0.90626967 0.9234404
-0.6693425 -0.21088704 1.0097575 1.7323033 2.1831605 -1.3177075 1.8942828 -0.44491997
-1.0346116 0.015217965 -2.090707 -1.1582987 -0.16843277 -3.842188 -0.5295875 1.263524
-1.0521586 0.33987722 -0.31673416 -2.0130827 2.2027645 2.4408085 2.1758728 -1.6329546
00000000: 73a7 f8bd f14b 95bf c2cd cdbf 87fd 5a3f
00000010: 5c74 3d3f 7eeb 0340 1ea6 d0bf afed c2bf
00000020: ba6b db3f a8af 48c0 22d0 eabf bd81 a6bf
00000030: 6f7e b2bf 498c f1bf 3c03 433e ceca 01c0
00000040: f6f6 0340 6bdf 2640 1848 2fc0 3b50 1740
00000050: c62a 94bf 0774 1f40 bd06 6f3e 8caa 153f
00000060: 2b7f 7a3e 809e 90bf 2739 0dbf d8cc ab3e
00000070: 7bc9 f53f 6c1c 83bf 274e f7bf 86e2 2540
00000080: 02d1 e83f d2ed 86bf aa91 20c0 3c71 bebf
00000090: 9931 a8bf 3281 e4bf a425 8abf 41b6 0b40
000000a0: 331a 1140 5aa6 fc3f d252 1d40 20d9 583f
000000b0: 5c3b 87bf 2ed0 b0bf 657e bcbf 2fcd 8ebf
000000c0: 632b d53f 588b 363e 3a3d bcbf c850 b03f
000000d0: 5bc1 63bf 7118 57c0 80e9 0940 2d38 8cbf
000000e0: 0499 60bf 9c6e 1740 e80b 92bf bfb9 75bf
000000f0: d69c 0a40 b5de 8440 a30e 1640 44c6 723f
00000100: 41a8 dfbe a2bc 573f d29f 0140 5c97 0740
00000110: 4ea5 af3f a3ff 56bf 9498 13c0 12ff 4ec0
00000120: 6143 b9bf f17c 9ebf dd10 503e 8cb0 153f
00000130: 334e 043f 5468 4dbf aa85 1740 6f92 66bf
00000140: 186e 503f 902f 813e c170 ad3f 76f9 5bbf
00000150: 0b28 ff3f fdfe edbf dc7d 0340 e424 adbf
00000160: 97f1 9fbf f52e b1bf a32d 493f 279e 8c3e
00000170: 0ed1 543f 0229 2bc0 0644 1040 76c6 0840
00000180: 61af 6a3f 187e d4bf f790 203e 0ffd 633f
00000190: fdd1 6abf 4567 0940 4a01 68bf 9766 6c3f
000001a0: 085a 2bbf c6f2 57be bc3f 813f 1dbc dd3f
000001b0: e7b8 0b40 a4aa a8bf dc77 f23f 8dcc e3be
000001c0: 276e 84bf c554 793c 25ce 05c0 2243 94bf
000001d0: a479 2cbe 68e6 75c0 0c93 07bf 28bb a13f
000001e0: 22ad 86bf 6304 ae3e fb2a a2be 59d6 00c0
000001f0: 18fa 0c40 3536 1c40 8041 0b40 a804 d1bf

pointer.encoder_attn.v f4 [1, 1, 128]
-0.1022129 0.046947107 0.1493344 0.18013011 -0.1667489 0.07982431 -0.075435586 0.05012928
-0.068380445 0.044349216 -0.038753726 -0.03960092 -0.16837075 -0.03937708 0.117610976 0.14195934
0.014619028 -0.17951663 -0.38881648 0.051555227 -0.041834354 -0.02104469 -0.12751304 -0.123605244
-0.11517971 0.21228915 0.06743997 -0.052091185 -0.13010994 -0.052294333 0.019748157 0.224686
0.0040863063 -0.097672544 0.16270055 0.031831056 -0.024276903 -0.17941958 0.15597408 -0.10048982
-0.055019774 -0.073705845 -0.15821452 0.024210524 0.13240673 0.064809956 -0.060064845 -0.058295548
-0.08448253 0.045343112 0.07360627 0.089859076 0.28349382 -0.16869622 0.068205565 0.044961013
0.051364914 0.046267156 -0.089848675 -0.020628693 0.09073904 -0.1403412 -0.060763173 0.12297851
0.10244657 -0.20326784 -0.10304957 0.10377916 0.31091592 0.1359893 0.073721394 -0.11907264
0.08679181 0.18049811 -0.044403892 -0.022867573 0.10151235 0.13800026 0.06883592 0.10103893
-0.002295269 -0.12471715 -0.2153111 -0.13930272 0.00010665842 0.11713464 -0.045669522 -0.0015063947
-0.25113484 -0.048186455 -0.027062964 -0.0898578 0.23455882 -0.071629256 -0.021833196 -0.08489283
0.010892327 0.031191228 -0.053872712 -0.20364769 -0.056296658 0.09686107 -0.11474248 -0.0016354301
-0.114207685 0.15522678 -0.21171278 0.18253812 0.25520653 0.10959042 -0.12596448 0.070232496
0.066532224 0.03977664 0.04031422 -0.066098616 -0.07307068 0.03691739 -0.1012395 -0.1744757
-0.10439341 0.06380626 -0.14226271 -0.03613169 -0.3752065 0.023461986 -0.0246899 0.025486263
00000000: ff54 d1bd 9c4b 403d 1eeb 183e 0774 383e
00000010: 39c0 2abe ee7a a33d f97d 9abd 5c54 4d3d
00000020: 0c0b 8cbd 86a7 353d 3abc 1ebd 9334 22bd
00000030: 6269 2cbe dc49 21bd 06de f03d ca5d 113e
00000040: a684 6f3c 35d3 37be f412 c7be 932b 533d
00000050: 805a 2bbd ea65 acbc c792 02be bf24 fdbd
00000060: 57e3 ebbd 5462 593e f81d 8a3d 915d 55bd
00000070: 8a3b 05be 9532 56bd e3c6 a13c 1614 663e
00000080: 6ce6 853b 8b08 c8bd f99a 263e 4861 023d
00000090: 5be0 c6bc c4b9 37be abb7 1f3e 9bcd cdbd
000000a0: 6a5c 61bd 17f3 96bd fd02 22be 2655 c63c
000000b0: a195 073e 15bb 843d 8e06 76bd 50c7 6ebd
000000c0: 2d05 adbd b3b9 393d e2be 963d 0908 b83d
000000d0: 1a26 913e b4be 2cbe 5caf 8b3d 0a29 383d
000000e0: 0464 523d a182 3d3d 9502 b8bd 81fd a8bc
000000f0: 64d5 b93d 9bb5 0fbe cee2 78bd 28dc fb3d
00000100: 82cf d13d 7225 50be a70b d3bd 2b8a d43d
00000110: 5f30 9f3e c740 0b3e 3efb 963d 5bdc f3bd
00000120: e8bf b13d 7fd4 383e dbe0 35bd c754 bbbc
00000130: b5e5 cf3d f14f 0d3e d9f9 8c3d 80ed ce3d
00000140: 396c 16bb b56b ffbd 837a 5cbe 5fa5 0ebe
00000150: cead df38 49e4 ef3d f70f 3bbd 3872 c5ba
00000160: bf94 80be 295f 45bd 26b3 ddbc 5e07 b8bd
00000170: 3030 703e 5cb2 92bd 88db b2bc 4bdc adbd
00000180: bb75 323c bf84 ff3c a2a9 5cbd 0589 50be
00000190: 5397 66bd 195f c63d 1bfe eabd ee5b d6ba
000001a0: b8e5 e9bd c5f3 1e3e 3ccb 58be 46eb 3a3e
000001b0: 6eaa 823e f170 e03d d5fc 00be 0ed6 8f3d
000001c0: 0c42 883d d4ec 223d 8620 253d b65e 87bd
000001d0: 15a6 95bd b036 173d a856 cfbd c2a9 32be
000001e0: 36cc d5bd dbac 823d 51ad 11be d3fe 13bd
000001f0: 111b c0be 5a33 c03c 7942 cabc 91c8 d03c

pointer.encoder_attn.W f4 [1, 128, 256]
0.01642197 0.05981992 0.04314173 0.059408285 0.041007064 0.0670696 -0.043996915 0.092343196
0.023726672 0.056852795 0.12394837 0.032077122 0.009599755 -0.06397463 0.109931156 -0.13763413
0.038538 0.056266952 -0.07399936 0.017517652 -0.07040498 0.038869843 0.04621258 0.0010242884
-0.14057021 0.053108502 -0.04836593 -0.10802134 0.011885063 0.027269226 -0.052158687 0.023538394
0.02165743 0.06649338 -0.10045227 0.02353824 -0.060507815 -0.12194193 0.09736433 0.016360728
0.040496647 0.008259593 0.06358527 -0.030547153 0.11431252 0.015492984 0.044827513 0.027188877
0.014547527 0.007788826 -0.028810825 -0.012849957 -0.10120798 0.05345617 0.039543737 -0.110391796
0.05528013 0.022698723 -0.027987314 0.01736334 0.0420201 0.063771196 0.039953977 0.083320275
0.12577255 0.038272183 0.0039769663 0.02090367 0.04257495 -0.018270107 0.07052999 0.066089705
-0.014749693 -0.0044598025 -0.15258653 0.008559615 0.027988372 0.053468022 0.04789239 -0.07259671
-0.09907303 -0.0780107 0.11711952 0.076915346 0.040618807 -0.050210185 -0.027807001 -0.018820113
0.016387012 0.07955006 0.042677037 0.10899292 -0.06154617 0.06901553 0.046231523 0.03795678
0.054591525 0.12483866 -0.104614824 0.066992894 -0.04822141 0.031416994 0.045529455 0.018013645
0.036989253 -0.030159991 0.05397743 -0.016359655 0.023506185 0.031369008 0.0010338633 0.013993806
0.03184696 0.008724883 -0.09917815 0.045773715 -0.04243943 0.11286003 0.1372545 -0.0030207231
-0.02908185 0.03566422 0.043650314 -0.13303405 0.03895433 0.04309595 0.028200295 0.019723512
0.0402711 0.03587417 0.082076676 -0.020107744 -0.040878337 0.023457007 -0.056033287 0.058640324
0.046246253 0.015289501 -0.04563848 0.069506764 0.06849355 0.05038677 0.010583961 0.014878253
-0.06554232 0.061476342 0.0230404 0.035618488 0.073106885 0.063970044 -0.014807168 -0.014635181
-0.0020486645 0.0620449 -0.046515603 0.012777453 -0.049227837 -0.017364424 0.048267286 -0.025975326
-0.04915518 0.0069791856 0.06624285 0.050858997 -0.0088787135 0.047383178 -0.095973 0.03178676
0.052909177 0.052265868 -0.053408965 0.028447673 0.061795548 -0.02273515 0.09040696 0.043016497
0.067634866 -0.02308257 -0.015144224 0.04890238 -0.004586596 0.0127393035 0.028157946 0.03153835
-0.070862226 0.0035013512 -0.0100805815 0.035614792 -0.026047809 -0.004046184 -0.04691922 0.09462077
0.011676741 0.062712505 -0.0052422006 0.06937494 -0.05279384 0.014020299 0.022620821 -0.062128462
-0.048243616 -0.0066250907 0.012414062 -0.083419316 -0.03741935 -0.033138476 0.0357543 -0.051994145
0.021260995 -0.10114916 -0.02118367 -0.01530376 0.052495748 -0.033940155 -0.039043788 0.0032919652
-0.030676682 -0.07853048 0.06886962 -0.05782261 -0.037236337 0.007456851 0.079824254 -0.005757036
-0.0022440306 -0.071172744 0.04727705 -0.0028611918 -0.05388018 -0.0457575 0.0051738527 0.025483474
0.02869014 0.032119334 -0.023086594 0.003431107 -0.0831334 -0.025372244 0.08094352 -0.096989624
0.008578426 -0.0037614487 0.015899144 -0.030278133 -0.027973711 -0.06107325 -0.0555712 -0.02901875
0.07003112 0.033276517 0.065975174 -0.0037363325 -0.02242715 0.0724121 0.025629727 0.00231162
00000000: 5e87 863c bc05 753d 62b5 303d 1a56 733d
00000010: 06f7 273d c95b 893d 1c36 34bd 6e1e bd3d
00000020: 705e c23c 7ade 683d a5d8 fd3d 4d63 033d
00000030: 4a48 1d3c 2105 83bd 9623 e13d f6ef 0cbe
00000040: 06da 1d3d 2d78 663d fa8c 97bd 2e81 8f3c
00000050: 7c30 90bd fc35 1f3d 6749 3d3d 6a41 863a
00000060: a3f1 0fbe 4d88 593d 5a1b 46bd 4b3a ddbd
00000070: 91b9 423c b663 df3c 59a4 55bd 97d3 c03c
00000080: ec6a b13c ae2d 883d ebb9 cdbd 44d3 c03c
00000090: 0bd7 77bd b1bc f9bd f366 c73d ef06 863c
000000a0: d0df 253d 3e53 073c fe38 823d 063e fabc
000000b0: af1c ea3d 49d6 7d3c 0e9d 373d 35bb de3c
000000c0: c058 6e3c 6839 ff3b ae04 ecbc a088 52bc
000000d0: 2146 cfbd dbf4 5a3d 9df8 213d 1815 e2bd
000000e0: 6b6d 623d acf2 b93c a745 e5bc 903d 8e3c
000000f0: 451d 2c3d 799a 823d c8a6 233d d2a3 aa3d
00000100: 85ca 003e 4bc3 1c3d 3651 823b 2c3e ab3c
00000110: 1263 2e3d 31ab 95bc 0772 903d 0a5a 873d
00000120: b2a8 71bc 8923 92bb a53f 1cbe a13d 0c3c
00000130: df47 e53c 4901 5b3d d02a 443d 95ad 94bd
00000140: cde6 cabd 13c4 9fbd 5cdc ef3d cb85 9d3d
00000150: e85f 263d 32a9 4dbd 82cb e3bc a32c 9abc
00000160: 0e3e 863c 24eb a23d 1ece 2e3d ae37 df3d
00000170: d617 7cbd 0458 8d3d 445d 3d3d 9278 1b3d
00000180: 5d9b 5f3d 69ab ff3d 4c40 d6bd 9233 893d
00000190: d083 45bd 1baf 003d 187d 3a3d 5a91 933c
000001a0: 0b82 173d 1612 f7bc 7017 5d3d af04 86bc
000001b0: 0b90 c03c ca7c 003d b282 873a 4746 653c
000001c0: f571 023d d0f2 0e3c ea1d cbbd 387d 3b3d
000001d0: f8d4 2dbd 2923 e73d 728c 0c3e 53f7 45bb
000001e0: 0f3d eebc a514 123d acca 323d 143a 08be
000001f0: 938e 1f3d 6185 303d 4e04 e73c 3493 a13c
00000200: 4ff3 243d cbf0 123d d117 a83d ffb8 a4bc
00000210: 0b70 27bd e928 c03c 2983 65bd d630 703d
00000220: b66c 3d3d d180 7a3c 6aef 3abd 9059 8e3d
00000230: 5946 8c3d 5c62 4e3d 5a68 2d3c ebc3 733c
00000240: 0d3b 86bd 9ece 7b3d 39bf bc3c b1e4 113d
00000250: 10b9 953d ba02 833d c499 72bc 66c8 6fbc
00000260: e342 06bb cb22 7e3d 2587 3ebd 8658 513c
00000270: 21a3 49bd d63f 8ebc ebb3 453d 35ca d4bc
00000280: f156 49bd a7b1 e43b 55aa 873d 8651 503d
00000290: 0678 11bc dd14 423d 7e8d c4bd d532 023d
000002a0: 4bb7 583d bc14 563d 5cc3 5abd 180b e93c
000002b0: 541d 7d3d 113f babc 4927 b93d 1132 303d
000002c0: 2684 8a3d a817 bdbc 7b1f 78bc dd4d 483d
000002d0: 284b 96bb 83b8 503c 7eab e63c 5b2e 013d
000002e0: 3720 91bd ed76 653b 0629 25bc d1e0 113d
000002f0: 3762 d5bc da95 84bb 5e2e 40bd 89c8 c13d
00000300: cd4f 3f3c 6a6f 803d c4c6 abbb 7314 8e3d
00000310: 5b3e 58bd 65b5 653c 4d4f b93c 6a7a 7ebd
00000320: 199b 45bd 4a17 d9bb 5a64 4b3c bfd7 aabd
00000330: 0845 19bd 36bc 07bd 1a73 123d d0f7 54bd
00000340: 8a2b ae3c 4a27 cfbd 6089 adbc 9fbc 7abc
00000350: c805 573d d504 0bbd 61ec 1fbd 03be 573b
00000360: aa4d fbbc 97d4 a0bd 840b 8d3d 67d7 6cbd
00000370: 2185 18bd 9a58 f43b e67a a33d 85a5 bcbb
00000380: 9610 13bb 04c3 91bd 94a5 413d d582 3bbb
00000390: 77b1 5cbd 376c 3bbd 6c89 a93b b8c2 d03c
000003a0: 9607 eb3c 908f 033d 1920 bdbc 6cdc 603b
000003b0: d841 aabd 74d9 cfbc b7c5 a53d 7fa2 c6bd
000003c0: 878c 0c3c a382 76bb ec3e 823c d909 f8bc
000003d0: 2029 e5bc f227 7abd a09e 63bd bbb8 edbc
000003e0: 7a6c 8f3d f54c 083d fe1d 873d 42dd 74bb
000003f0: 24b9 b7bc cc4c 943d 6ff5 d13c 8c7e 173b

pointer.fc1.weight f4 [128, 256]
0.26657343 0.006429159 -0.24441287 -0.15408012 -0.060073208 -0.14718565 0.05811392 0.06718222
-0.0073285694 -0.079299115 0.10775985 0.118925914 -0.10988857 0.08312611 -0.10293487 0.09704568
-0.046156906 0.22662883 -0.0790582 0.029163543 -0.06197666 -0.08247017 0.16136771 -0.17193043
0.12858719 -0.026171826 0.06391451 -0.16966611 0.07171046 -0.16762185 -0.054996483 0.18516809
-0.007042098 0.11337832 -0.09137992 -0.012166599 -0.023514932 0.19563513 -0.117246054 0.07298864
0.22159883 -0.15992117 -0.11249267 0.17303443 -0.007259525 0.19902088 0.045647405 0.012500769
-0.05904069 -0.22780561 0.23916109 0.04558464 0.001231537 0.30179402 0.07717356 0.2521875
0.0643907 -0.15597986 -0.045905553 0.06296074 -0.1834389 -0.18470041 0.2665695 -0.025448797
-0.05620764 0.064392954 -0.14027767 -0.004536363 0.19325513 -0.29665896 0.13064508 0.057104293
0.14222732 -0.015940193 -0.26504174 0.051566064 -0.06834789 0.13933945 -0.14138392 -0.13864958
-0.088238 -0.15048304 0.030639734 -0.07158107 0.088509366 -0.06455708 -0.03729949 0.21698079
-0.079140626 0.01303913 -0.06833083 0.029253926 0.16039582 0.21762815 -0.104046956 -0.23575847
-0.11195743 0.20140138 0.043180317 -0.3393696 0.08909121 0.25123647 -0.07564289 -0.23089443
0.042333815 0.060631875 0.26060912 -0.09513866 0.06454435 0.17588642 -0.15739517 0.13179258
-0.1415597 0.006927212 -0.28001902 0.023551565 -0.24738717 0.113897085 -0.18486513 0.12288278
-0.032682575 -0.18922411 0.059228495 -0.18763351 0.20729885 -0.005953456 -0.16709313 -0.15319608
0.027641162 0.010567711 0.20344087 -0.11157983 -0.119495325 0.03497635 -0.06556456 0.008780474
-0.05880204 -0.07130992 0.1613129 0.00081652275 0.0018691504 -0.012771607 -0.046782658 -0.14574082
0.029077936 0.04400449 -0.019874988 0.13798626 -0.011009285 0.00016246758 -0.09432395 -0.046708506
0.08471406 -0.037062675 0.024653856 -0.09560355 0.031574834 -0.09184727 -0.07766949 0.14095001
-0.13642508 -0.0038217765 -0.038094245 -0.10365817 -0.11555701 -0.10644374 0.046818558 -0.055355996
0.063936025 -0.11552952 -0.043937013 0.08576831 0.04486697 0.18672635 0.048995662 -0.0976452
0.054092515 -0.012327938 0.14840262 0.15014027 -0.03771039 -0.025490174 0.092574805 -0.005809466
0.023298742 0.06545923 -0.02876584 0.019324953 0.16628942 -0.0044454434 0.0063642617 0.14021868
-0.019550199 -0.014120703 0.15708724 -0.033802688 -0.06872779 0.086903475 0.030150978 -0.021649925
0.080065034 0.1101313 -0.014952623 -0.05906081 0.06307984 0.09999224 -0.04142794 -0.04719761
0.01781779 -0.16636206 -0.10918748 0.04297706 0.0856209 0.032489643 0.1906648 -0.0118352575
0.016131308 -0.09917251 -0.020901093 0.029929535 0.025135994 -0.039289854 -0.028049277 -0.046389475
0.03287378 -0.024145808 -0.014104201 0.086367324 0.021212298 -0.027642295 0.057614632 -0.059697624
0.074948125 -0.042839438 -0.063939475 0.053144418 0.09035893 0.0798934 0.021090247 -0.041404616
-0.0074110157 0.016343828 0.13185197 -0.05113309 0.07343205 -0.046100855 0.04859958 0.13490799
0.063582286 -0.08086881 -0.005862117 0.05319479 0.14120115 -0.12047719 0.11111922 0.0725256
00000000: 507c 883e b2ab d23b 5e47 7abe 2ec7 1dbe
00000010: 530f 76bd d6b7 16be dd08 6e3d d596 893d
00000020: 7f24 f0bb 9367 a2bd 32b1 dc3d 6e8f f33d
00000030: 420d e1bd 063e aa3d 84cf d2bd e3bf c63d
00000040: 060f 3dbd 6311 683e 44e9 a1bd 62e8 ee3c
00000050: 3ddb 7dbd 1fe6 a8bd 943d 253e 880e 30be
00000060: 5cac 033e 4c66 d6bc 9ce5 823d f4bc 2dbe
00000070: efdc 923d 10a5 2bbe fe43 61bd b49c 3d3e
00000080: 66c1 e6bb e532 e83d 6525 bbbd 6a56 47bc
00000090: 63a2 c0bc 9354 483e b31e f0bd 117b 953d
000000a0: ceea 623e 60c2 23be 8f62 e6bd f02f 313e
000000b0: 4fe1 edbb 21cc 4b3e c6f8 3a3d 07d0 4c3c
000000c0: a7d4 71bd e045 69be a5e6 743e f6b6 3a3d
000000d0: 866b a13a bf84 9a3e 2c0d 9e3d b81e 813e
000000e0: 45df 833d 2fb9 1fbe 7607 3cbd 8ff1 803d
000000f0: 68d7 3bbe 1b22 3dbe cc7b 883e ff79 d0bc
00000100: fb39 66bd 74e0 833d f3a4 0fbe c5a5 94bb
00000110: ace4 453e afe3 97be d3c7 053e 31e6 693d
00000120: 0aa4 113e 0295 82bc 8db3 87be f036 533d
00000130: fbf9 8bbd 00af 0e3e f2c6 10be 28fa 0dbe
00000140: 20b6 b4bd 3a18 1abe 2e00 fb3c 1999 92bd
00000150: 6644 b53d 8136 84bd 5ac7 18bd 3630 5e3e
00000160: 7b14 a2bd 13a2 553c 09f1 8bbd eea5 ef3c
00000170: cd3e 243e ead9 5e3e 9216 d5bd ab6a 71be
00000180: f049 e5bd 2a3c 4e3e d8dd 303d dac1 adbe
00000190: 7475 b63d 11a2 803e a9ea 9abd 976f 6cbe
000001a0: 3966 2d3d 2159 783d 8f6e 853e 0fd8 c2bd
000001b0: d42f 843d 921b 343e 332c 21be a2f4 063e
000001c0: 07f5 10be aafd e23b a75e 8fbe 36ef c03c
000001d0: 1053 7dbe e042 e93d 494d 3dbe f8a9 fb3d
000001e0: 2ade 05bd f7c3 41be 9499 723d 0023 40be
000001f0: 2646 543e 3515 c3bb 761a 2bbe 6fdf 1cbe
00000200: b86f e23c 3124 2d3c ce52 503e f783 e4bd
00000210: f7b9 f4bd 5c43 0f3d b646 86bd fadb 0f3c
00000220: 68da 70bd ef0a 92bd 352f 253e ea0b 563a
00000230: 48fe f43a 0140 51bc 2c9f 3fbd 153d 15be
00000240: da34 ee3c 0d3e 343d dfd0 a2bc 454c 0d3e
00000250: 4a60 34bc 0f5c 2a39 ea2c c1bd 6b51 3fbd
00000260: 917e ad3d 08cf 17bd e2f6 c93c cbcb c3bd
00000270: 9d54 013d 6c1a bcbd 2e11 9fbd 3355 103e
00000280: 04b3 0bbe c576 7abb b608 1cbd bc4a d4bd
00000290: 27a9 ecbd 2dff d9bd d1c4 3f3d f8bc 62bd
000002a0: e4f0 823d be9a ecbd 4cf7 33bd 4ca7 af3d
000002b0: 6ec6 373d 3135 3f3e adaf 483d 35fa c7bd
000002c0: 1d90 5d3d 1ffb 49bc dbf6 173e 5fbe 193e
000002d0: 3676 1abd c5d0 d0bc dc97 bd3d 555d bebb
000002e0: 01dd be3c 7d0f 863d 57a6 ebbc 5d4f 9e3c
000002f0: c647 2a3e 15ab 91bb 4c8b d03b 7c95 0f3e
00000300: bd27 a0bc 855a 67bc 7adb 203e b074 0abd
00000310: 28c1 8cbd 73fa b13d 2fff f63c 2f5b b1bc
00000320: 23f9 a33d 858c e13d d9fb 74bc bfe9 71bd
00000330: 0130 813d bbc8 cc3d 58b0 29bd 4852 41bd
00000340: 9df6 913c d15a 2abe af9d dfbd b708 303d
00000350: 035a af3d dc13 053d a23d 433e abe8 41bc
00000360: ce25 843c f51a cbbd c538 abbc c92e f53c
00000370: 00ea cd3c 66ee 20bd 99c7 e5bc e402 3ebd
00000380: a8a6 063d 6ecd c5bc 4f15 67bc 5ae1 b03d
00000390: 6ac5 ad3c 1872 e2bc 52fd 6b3d 7f85 74bd
000003a0: 677e 993d 6878 2fbd b3f2 82bd f6ad 593d
000003b0: 1a0e b93d 279f a33d 74c5 ac3c e397 29bd
000003c0: 1bd8 f2bb 7ee3 853c 3404 073e ee70 51bd
000003d0: 8b63 963d 40d4 3cbd 5a10 473d 5225 0a3e
000003e0: 6e37 823d 8c9e a5bd 0017 c0bb c8e2 593d
000003f0: 0997 103e bfbc f6bd 7992 e33d 4d88 943d

pointer.fc1.bias f4 [128]
-0.030997332 0.101674065 0.036064535 0.020030668 -0.034659557 0.02253677 -0.0017699039 0.039562777
0.05228242 0.025995843 -0.13181932 0.06636816 0.013559905 -0.037146553 -0.074754864 0.008808464
0.018691845 -0.027050164 0.03147682 0.029752802 0.0010752082 -0.038178343 -0.016198965 0.028087905
0.01541766 -0.0113295615 -0.014565039 0.016293088 -0.0015678324 0.0047774166 0.020877475 -0.02847743
-0.021800848 -0.014463227 0.09007615 0.039800055 0.06249695 0.05422591 0.03025568 0.04551825
0.030860612 -0.07252007 0.06226871 -0.00780779 0.060022965 0.042580366 0.08180208 0.07318903
-0.014151411 0.07355158 -0.0067707924 -0.104457766 -0.031112349 -0.030075131 -0.021020731 -0.00886736
0.016745659 0.038505174 -0.009825374 -0.03736787 0.09460543 -0.06355691 -0.04121643 0.08463113
-0.04415086 -0.06732454 0.015065898 0.048562776 0.025289284 -0.05515316 -0.07352644 0.09313039
-0.017594483 0.01565397 0.039560083 -0.09135662 0.0011216813 -0.042595226 -0.058437917 -0.0005922822
0.06539639 0.026742755 -0.06502446 0.0054989113 0.040066943 -0.013544225 -0.03036848 0.021444973
0.028717192 -0.026431894 -0.08049072 0.02621348 -0.049945902 0.05471021 0.02296499 -0.04117229
-0.07401068 0.0037460837 0.09849075 0.021883795 0.0072699725 0.0066215177 0.0012021542 -0.080670476
0.058948845 0.025069658 0.019605327 -0.03060673 0.030163653 0.014891041 0.043955613 0.018632982
-0.02914005 -0.04627824 -0.018048529 0.017594947 -0.06308721 -0.016204817 -0.039018996 -0.061031025
-0.0017302417 0.057771422 0.03196712 -0.0667622 0.05329085 0.05333557 -0.0674071 -0.01843621
00000000: 1eee fdbc 7e3a d03d 68b8 133d 5b17 a43c
00000010: 2ef7 0dbd 089f b83c 1ffc e7ba 940c 223d
00000020: 1726 563d 3cf5 d43c a5fb 06be 08ec 873d
00000030: 5d2a 5e3c fc26 18bd 1419 99bd 6051 103c
00000040: a41f 993c 4e98 ddbc d7ed 003d 26bc f33c
00000050: 00ee 8c3a e560 1cbd b1b3 84bc 9b18 e63c
00000060: 5a9a 7c3c a09f 39bc 34a2 6ebc 1579 853c
00000070: ba7f cdba e08b 9c3b 3d07 ab3c 8049 e9bc
00000080: b197 b2bc 2cf7 6cbc d879 b83d 6205 233d
00000090: cdfc 7f3d fd1b 5e3d c3da f73c 5871 3a3d
000000a0: 65cf fc3c 6785 94bd 7a0d 7f3d 7dd8 ffbb
000000b0: a4da 753d c068 2e3d d987 a73d 21e4 953d
000000c0: 52db 67bc 36a2 963d 86dd ddbb f4ed d5bd
000000d0: 53df febc 1f60 f6bc ab33 acbc 6748 11bc
000000e0: 312e 893c 9ab7 1d3d 9bfa 20bc 0d0f 19bd
000000f0: 7ec0 c13d 202a 82bd 8fd2 28bd 1653 ad3d
00000100: 88d7 34bd 73e1 89bd f5d6 763c c3e9 463d
00000110: 792b cf3c 48e8 61bd 0895 96bd 25bb be3d
00000120: 4e22 90bc c13c 803c c109 223d 2e19 bbbd
00000130: 6105 933a 5578 2ebd 995c 6fbd 6343 1bba
00000140: 8bee 853d 9f13 db3c 8b2b 85bd 3630 b43b
00000150: 3c1d 243d 99e8 5dbc 52c7 f8bc 5ead af3c
00000160: 5140 eb3c b387 d8bc 52d8 a4bd a7bd d63c
00000170: 1394 4cbd d017 603d 1321 bc3c 46a4 28bd
00000180: e992 97bd db80 753b 85b5 c93d a545 b33c
00000190: f338 ee3b 51f9 d83b 9a91 9d3a 9036 a5bd
000001a0: 5874 713d e25e cd3c 5a9b a03c f7ba fabc
000001b0: c419 f73c 8ef9 733c cd0a 343d 32a4 983c
000001c0: 1db7 eebc 408e 3dbd 82da 93bc 4723 903c
000001d0: de33 81bd f7bf 84bc 62d2 1fbd abfb 79bd
000001e0: 47c9 e2ba baa1 6c3d f4ef 023d 9fba 88bd
000001f0: 8247 5a3d 6676 5a3d bc0c 8abd 8907 97bc

pointer.fc2.weight f4 [128, 128]
-0.11780579 -0.10952838 0.106993265 -0.118310034 -0.056996837 0.024196997 0.045567155 0.11245319
-0.03212848 0.09515132 -0.019867241 0.11306326 -0.056949265 -0.060303204 -0.105441846 -0.065856986
-0.124006435 -0.05824336 0.05215465 -0.07648453 0.07085945 0.010294601 -0.10166944 -0.028770357
0.1378316 -0.057662457 0.13685472 -0.123489805 -0.06905173 0.116542354 -0.10642613 -0.12611604
-0.10179633 -0.13052304 0.03576218 0.040645353 -0.09304537 -0.040645003 -0.03647156 -0.029132837
0.037556645 0.028150802 -0.016841387 0.16408415 0.04331334 -0.095734164 0.099707246 0.08687065
0.022101292 -0.030672342 -0.066417396 -0.04970577 -0.11222799 -0.111750916 -0.10709964 0.040201597
0.09053594 -0.011885538 0.15523805 0.09566319 -0.054471307 0.080029145 -0.052141216 -0.050671663
-0.13273253 0.023617432 0.020783588 0.076177195 -0.08337322 0.09242287 0.022018075 0.11280229
0.03435606 0.07785347 -0.14736487 -0.11447634 0.02857608 0.097409815 -0.054906473 0.1548043
0.024782937 -0.055723663 -0.14019838 -0.11944191 0.14586234 -0.052407842 -0.11835145 -0.08005759
-0.099221885 -0.14061058 0.1714 0.1344665 0.011614881 0.10187709 0.015780807 -0.10053152
0.14660595 -0.16473377 0.05369213 0.05279541 -0.11336983 0.10812439 -0.08895486 0.07774938
-0.052050836 0.11186065 0.13130273 0.14398739 -0.08324789 0.0676976 0.072629 -0.11648783
0.035668075 0.117071286 -0.03137611 -0.0014777737 0.07943665 -0.1476956 -0.018060982 0.05494759
0.04344404 0.04971773 -0.028669208 0.12141292 0.091976605 0.15957595 -0.017407313 0.0055931807
0.07384112 0.09198042 0.052295953 0.17557758 0.17602713 0.04871593 0.1296698 -0.2631923
-0.07710044 0.07808485 -0.06394413 0.0020635661 0.09624407 -0.112290494 -0.14740095 0.01236495
0.08889465 -0.012867307 -0.025092669 -0.110925786 0.041205347 0.12309909 0.17177033 0.051514804
0.0056760362 -0.11485196 0.004367092 -0.0294802 -0.07732985 -0.1293507 0.03932047 0.203885
-0.07318462 0.11080746 -0.21184923 -0.10375106 -0.075091824 0.08904572 0.09331903 0.15064196
-0.008630142 0.06938267 0.07557774 -0.17144355 0.030172959 -0.06573606 -0.08839278 0.14045125
-0.064569674 0.013196375 0.03333871 -0.12572198 0.11243841 0.13468394 -0.10359045 0.015129484
0.064408265 0.06556719 -0.030235589 -0.09293475 0.17284943 0.11865469 0.06916206 0.08593882
-0.09489154 -0.051642068 0.005359542 -0.038620677 0.13966249 0.06878769 0.08167562 -0.07947789
0.13861758 -0.0118709225 0.13398077 -0.027762186 -0.0926144 -0.09801082 0.030395497 -0.045867056
-0.0054700463 -0.07563724 -0.015812226 -0.15763603 0.10493207 -0.07849803 -0.09966279 0.1311407
0.16558342 -0.034255885 0.01887592 -0.012120934 -0.06664567 -0.15308964 -0.019517774 -0.02076606
-0.20601302 0.03966583 0.029235836 -0.1477973 0.10923987 0.07143794 -0.19812937 -0.19550578
-0.054351836 0.014909389 -0.031267535 0.08067394 0.048664793 0.11064692 -0.06640829 -0.004596971
0.05589153 -0.09686945 -0.09788724 -0.032406677 -0.041507393 -0.031828772 0.15625553 -0.0141696455
-0.076845616 -0.1270153 -0.054561146 0.0801269 -0.122428216 -0.16619246 -0.09681052 -0.018317316
00000000: 2944 f1bd 6a50 e0bd 491f db3d 884c f2bd
00000010: 8475 69bd c838 c63c a0a4 3a3d dc4d e63d
00000020: 2799 03bd b2de c23d a0c0 a2bc b68d e73d
00000030: a243 69bd 7e00 77bd e5f1 d7bd 07e0 86bd
00000040: 16f7 fdbd 9790 6ebd 1da0 553d eca3 9cbd
00000050: c21e 913d b0aa 283c 1138 d0bd d0af ebbc
00000060: ba23 0d3e 782f 6cbd a523 0c3e 39e8 fcbd
00000070: fe6a 8dbd c2ad ee3d f1f5 d9bd 9024 01be
00000080: 987a d0bd d5a7 05be 5d7b 123d be7b 263d
00000090: 928e bebd 607b 26bd 3463 15bd fda7 eebc
000000a0: ffd4 193d 839c e63c f3f6 89bc ad05 283e
000000b0: 5469 313d 4610 c4bd 5033 cc3d 3de9 b13d
000000c0: c50d b53c 9044 fbbc d805 88bd 4798 4bbd
000000d0: cad7 e5bd aadd e4bd 0e57 dbbd 6eaa 243d
000000e0: e86a b93d 8fbb 42bc b9f6 1e3e 10eb c33d
000000f0: 4e1d 5fbd 52e6 a33d 0792 55bd 178d 4fbd
00000100: 09eb 07be 5879 c13c 5842 aa3c ca02 9c3d
00000110: 94bf aabd 3448 bd3d 405f b43c e304 e73d
00000120: f1b8 0c3d a471 9f3d d1e6 16be 9272 eabd
00000130: 6218 ea3c cc7e c73d 9ce5 60bd 0585 1e3e
00000140: 9605 cb3c 7f3e 64bd 2a90 0fbe f69d f4bd
00000150: f05c 153e 9ba9 56bd 3f62 f2bd 3cf5 a3bd
00000160: d834 cbbd 38fc 0fbe 7b83 2f3e 96b1 093e
00000170: 584c 3e3c f0a4 d03d c046 813c 78e3 cdbd
00000180: df1f 163e f8af 28be 47ec 5b3d 0040 583d
00000190: 712e e8bd 5270 dd3d f72d b6bd 113b 9f3d
000001a0: 4233 55bd 3217 e53d 3974 063e 6e71 133e
000001b0: df7d aabd 0aa5 8a3d 83be 943d 2c91 eebd
000001c0: b018 123d 12c3 ef3d 3c84 00bd dbb1 c1ba
000001d0: afaf a23d 843d 17be a0f4 93bc b910 613d
000001e0: 61f2 313d d2a4 4b3d b0db eabc 56a7 f83d
000001f0: 3b5e bc3d e167 233e c899 8ebc 0047 b73b
00000200: 033a 973d 3b60 bc3d 4834 563d 9cca 333e
00000210: 7540 343e 5b8a 473d 29c8 043e 24c1 86be
00000220: d6e6 9dbd f3ea 9f3d 24f5 82bd e53c 073b
00000230: 9c1b c53d 8ff8 e5bd 46f0 16be 5c96 4a3c
00000240: 660e b63d 66d1 52bc 248f cdbc 0f2d e3bd
00000250: f0c6 283d 601b fc3d 90e4 2f3e 3001 533d
00000260: 0bfe b93b 8137 ebbd d319 8f3b 7680 f1bc
00000270: 1d5f 9ebd 8374 04be 800e 213d 3bc7 503e
00000280: d1e1 95bd 06ef e23d 01ef 58be 707b d4bd
00000290: bec9 99bd 9a5d b63d 0c1e bf3d e341 1a3e
000002a0: 7065 0dbc 8018 8e3d 81c8 9a3d e68e 2fbe
000002b0: 482d f73c a1a0 86bd 4607 b5bd 74d2 0f3e
000002c0: 1b3d 84bd 9c35 583c 2c8e 083d 43bd 00be
000002d0: 1c46 e63d 96ea 093e 3b27 d4bd a8e1 773c
000002e0: 7be8 833d 1748 863d a0b0 f7bc 9354 bebd
000002f0: 71ff 303e 3b01 f33d d7a4 8d3d b100 b03d
00000300: 7f56 c2bd a286 53bd 199f af3b b730 1ebd
00000310: af03 0f3e 8fe0 8c3d 8c45 a73d 4ec5 a2bd
00000320: c4f1 0d3e 427e 42bc 4132 093e 866d e3bc
00000330: 9eac bdbd e6b9 c8bd faff f83c 18df 3bbd
00000340: 133e b3bb b3e7 9abd a488 81bc 576b 21be
00000350: a0e6 d63d 93c3 a0bd 011c ccbd bf49 063e
00000360: b38e 293e e64f 0cbd aca1 9a3c e296 46bc
00000370: 867d 88bd 88c3 1cbe bde3 9fbc 961d aabc
00000380: 14f5 52be a378 223d fe7f ef3c 2d58 17be
00000390: 27b9 df3d 0e4e 923d 6de2 4abe ab32 48be
000003a0: 08a0 5ebd 8346 743c 6312 00bd 6138 a53d
000003b0: bc54 473d da9a e23d 1201 88bd 30a2 96bb
000003c0: 84ee 643d 7d63 c6bd 1b79 c8bd ddbc 04bd
000003d0: a803 2abd e35e 02bd 7301 203e cd27 68bc
000003e0: 3c61 9dbd 4c10 02be 827b 5fbd 9219 a43d
000003f0: a5bb fabd 5b2e 2abe 9844 c6bd 320e 96bc

pointer.fc2.bias f4 [128]
-0.055074412 0.018289607 0.020635337 0.08454868 0.06989545 0.096484534 0.082470335 -0.055490308
-0.063026465 0.13910091 0.053539827 0.09379905 -0.064253554 0.10974416 -0.0641305 -0.027789338
-0.032338277 -0.0032572797 -0.07597266 0.04945414 -0.035317782 0.06950277 0.012903025 -0.0005976687
-0.06079129 0.08151656 -0.072507724 -0.03195259 0.08207828 0.093138166 -0.06611535 0.14459316
0.1224669 -0.06790049 0.05886749 0.071233705 -0.023594419 0.06549774 0.027512362 0.11572119
0.09969898 0.0030859965 -0.15726 -0.010128269 -0.03210746 -0.023731811 -0.03403779 0.0654805
0.013274445 -0.091404565 -0.019490013 -0.032693554 -0.013099962 0.07437108 0.10894402 0.083610065
-0.038439732 0.12933019 -0.0127673615 -0.051975463 0.0047922735 0.116430566 0.1119049 0.01523247
0.022606533 0.0047198483 0.102648064 -0.00031423251 0.043211285 0.045003418 -0.046357132 0.14103454
0.02958468 0.055481695 -0.098754406 0.048927795 0.06763106 0.15530723 0.09805004 -0.08571489
0.04414829 -0.032361533 0.11705916 -0.05692359 0.04503976 0.017368404 0.042371467 0.061638437
-0.063279934 0.018485768 -0.005731456 0.084545575 -0.094758846 -0.007909887 0.053329106 0.022353048
0.057797737 0.0796786 -0.00072558224 0.06553891 -0.07678253 0.027457912 0.0056195054 0.025217513
-0.07872839 0.08500108 0.116963685 0.082141995 0.08971078 0.0041747205 0.0686098 -0.03045251
0.013453192 -0.06859389 0.0036078114 -0.041897234 -0.051300224 0.1110049 0.056863006 0.08969563
0.02815645 0.0602255 -0.07490625 -0.045322195 0.110129975 0.10108361 -0.053099047 0.025459338
00000000: b595 61bd 16d4 953c 700b a93c dc27 ad3d
00000010: 5825 8f3d af99 c53d 35e6 a83d ce49 63bd
00000020: 0514 81bd 7870 0e3e 944c 5b3d b719 c03d
00000030: 5e97 83bd 8cc1 e03d da56 83bd 77a6 e3bc
00000040: 2475 04bd 1678 55bb 8e97 9bbd 6d90 4a3d
00000050: 61a9 10bd 7857 8e3d 3667 533c deac 1cba
00000060: 4a00 79bd 27f2 a63d ee7e 94bd b8e0 02bd
00000070: a818 a83d 39bf be3d 7c67 87bd 3b10 143e
00000080: edcf fa3d 690f 8bbd 0a1f 713d fae2 913d
00000090: 1549 c1bc ae23 863d 9b61 e13c 3bff ec3d
000000a0: fb2e cc3d 6e3e 4a3b c408 21be 0af1 25bc
000000b0: 1d83 03bd 3769 c2bc 366b 0bbd a41a 863d
000000c0: 0f7d 593c 5132 bbbd 85a9 9fbc ade9 05bd
000000d0: 39a1 56bc dd4f 983d 0b1e df3d c13b ab3d
000000e0: fb72 1dbd 226f 043e 322e 51bc 39e4 54bd
000000f0: 8108 9d3b 2673 ee3d 652e e53d 9c91 793c
00000100: 5631 b93c f5a8 9a3b 2639 d23d 93bf a4b9
00000110: 51fe 303d 8155 383d fae0 3dbd 5c6b 103e
00000120: 925b f23c c640 633d c03f cabd 8368 483d
00000130: 2782 8a3d dc08 1f3e 76ce c83d 4a8b afbd
00000140: d6d4 343d 878d 04bd b6bc ef3d b628 69bd
00000150: 9d7b 383d 2f48 8e3c b48d 2d3d 9678 7c3d
00000160: e998 81bd 776f 973c f0ce bbbb 3b26 ad3d
00000170: ed10 c2bd 7898 01bc 9f6f 5a3d bd1d b73c
00000180: 52bd 6c3d 892e a33d 0035 3eba 4439 863d
00000190: 2940 9dbd 6aef e03c d423 b83b f594 ce3c
000001a0: 5a3c a1bd 0c15 ae3d a88a ef3d 103a a83d
000001b0: 49ba b73d 18cc 883b 4b83 8c3d 8b77 f9bc
000001c0: c76a 5c3c f47a 8cbd 0871 6c3b 6f9c 2bbd
000001d0: 2f20 52bd 8956 e33d 2fe9 683d 58b2 b73d
000001e0: 5ba8 e63c 04af 763d 7368 99bd c4a3 39bd
000001f0: d38b e13d ec04 cf3d 637e 59bd 1a90 d03c
