trained_models/sdvrp/altr_SD_20/model_incumbent_vrpRl13_SD_ALTR_20_T_0.3_43094.pt (torch_old, 469732 bytes, 15 tensors)

all_embed.embed.weight f4 [128, 4]
00000000: b3a7 743e 9e3f 843e f396 9ebe 8fd2 f1be
00000010: 1e37 c53c 026c 333f 2cbf 8b3d 0ff6 79bc
00000020: dfcf d0bd b816 5abe 3c74 b23d 28fc fd3c
00000030: 875f 153f 0110 4ebe 8739 9a3d 2528 cfbd
00000040: cb5a adbe 1d90 973e 82ee 0c3e d699 9d3c
00000050: d176 103f 907b 8f3e 6de0 dfbd f5f7 a2be
00000060: 5792 8bbe bf14 153f a40a 48be 0e54 2b3e
00000070: 28f9 fe3e 5d38 073f 448d 9d3e d1d1 083d
00000080: cb14 bf3e 4c90 203f bec8 f83d 38eb 513e
00000090: e25d 2d3f 71d3 05be dfd7 23be 91c2 0b3d
000000a0: b727 2d3e b030 9b3e e6c7 d9bd 0181 8bbe
000000b0: d00e 1e3c 4084 84bb 8b77 d6bd 90d8 93bc
000000c0: 2a5d 703d 7be2 373f 46cc ecbd f62a 64bd
000000d0: c415 3fbe 00d5 313d ee9d 03be 6e78 56be
000000e0: c268 0a3e 199a 4b3e 80e8 abbe e30d bfbe
000000f0: bbba d93d b49f 923e 5076 acbd dbe7 773e
00000100: 6437 8fbb 3406 983c 20f9 f63e 44d8 f43d
00000110: f795 373f 539b 8bbd 2739 65be a650 f13d
00000120: 5f97 e63e aef4 aabe c958 efbc a2fb 133e
00000130: e083 d2bd 6c9f 04bf c343 15be 0302 d73d
00000140: 6cb3 45bd 2069 06bd 20fb 413e 2887 9d3d
00000150: a954 183d 0445 fbbc f4c8 1b3f 3903 7a3e
00000160: bb19 bcbe 5df9 e93d 7be2 7e3e e35b a6bd
00000170: ad86 a03b 2e8d 2d3e deb1 10bc bfb1 b1be
00000180: fdc1 073e decc 1f3f 2719 26be 5e59 3d3e
00000190: 2bb5 fc3c 839b a03c a565 8d3e b3ea dd3e
000001a0: 1ff0 cabd 1c33 b93e 1004 eb3c 3b74 70be
000001b0: a829 b8be 0581 9e3d 343e 2f3f a48a 353e
000001c0: 453d 49be 0672 0b3e 6060 493d 699a 1dbe
000001d0: 3921 953d 763d 203f eddc d8bb 092d 3abc
000001e0: 4d7f 15bf 5161 03be 0b3a 993d 8b28 be3d
000001f0: 8e24 ec3e 1c90 4b3e 9437 633e be0d cc3d
00000200: 9c8b 853d 65a2 183f 979b 8abe 33b7 1dbe
00000210: 400a 933d ed53 c3bd cb51 89be db41 a3be
00000220: 64fc 893d f082 c9bc 84f4 c53d 80d7 ae3a
00000230: 945d a73e 64c7 0d3c 970c 00bd c203 4c3d
00000240: f26d 603d 7bc5 1c3f 591a b1bd f437 ddbb
00000250: b8cc 28be 4a0f b93e 9826 803e e96d d0bd
00000260: 58dc e33c 10f3 4e3e 12da 3a3e 6c04 2ebe
00000270: a37f 853e ac0e c33e 5e15 c1be 60d9 e1be
00000280: f0c3 63bd 00a0 0fba 0872 6b3d d46b 2dbd
00000290: 7d03 e3be 8221 463e 142e 3ebe 2eee 633e
000002a0: 6efa 273f 7a36 31be ddcb a63d 730c 103e
000002b0: 72c2 323f a6b0 f43d 01db d0bd 82eb 7d3e
000002c0: 9627 23be a852 28be 50b6 1cbe b31e 2bbe
000002d0: 7a36 24bf ed17 b93e f295 11bb 0d9f d2bc
000002e0: 10c2 41be 7287 333e dfaa e93b 6b6b 54bd
000002f0: 045d 91bd ce55 443e 2098 7b3d 0175 19be
00000300: ca5b e23e 9c43 08bf d4e7 9b3e 9b3f 213e
00000310: 5d8a 12bf 0b95 a7be eb59 35be 70a6 173e
00000320: 4fd5 5f3e 4ef4 a4be 5ad7 cdbe 04fa 46be
00000330: d73e 65be 1528 b0be 8c5a 383c bfa9 703e
00000340: bbb9 cf3c 7800 0b3f 7299 c1bd bca9 c63c
00000350: 188c cbbe 266c 0b3f 1355 193e aee5 4bbd
00000360: 2bec 0d3e 2484 11bf 5f9d 82bd d403 313d
00000370: 4ddb f3be c8cb d03d 42cb d3bd b9c4 b43d
00000380: 2e8a 2f3f 7921 1c3f cf7d e53d 30a1 c63d
00000390: 6a68 2f3f 538d 993e e60c e8bd 7eb6 83bd
000003a0: 46d3 033f e727 de3e 239d 3b3e 2de5 cd3d
000003b0: ffe7 6ebe b6eb 8f3e 1ad4 213e b3b5 a03e
000003c0: d8e8 eb3c 7092 eebc 92cd 593e b4a7 1ebe
000003d0: ef64 693e ad80 da3e 8eb8 99bc d344 36be
000003e0: 71ab 8b3e 8c35 e73d 5d60 f6be 6406 03bf
000003f0: f2ad 1b3f d9f5 3ebe 668d 063e c276 77bb
0.23892097 0.25829786 -0.3097454 -0.47230956 0.024074133 0.7008668 0.068235725 -0.015256419
-0.10195898 -0.21297729 0.08713576 0.031004027 0.5834889 -0.20123293 0.07530504 -0.10115079
-0.33858332 0.29602137 0.13762859 0.019238394 0.564313 0.28023958 -0.10931478 -0.318298
-0.27260086 0.5823478 -0.19535309 0.16731283 0.49799466 0.5282038 0.3077184 0.03340322
0.3732055 0.6272018 0.121476635 0.20499885 0.6772138 -0.1306894 -0.16000317 0.0341211
0.16909681 0.30310583 -0.10633831 -0.2724686 0.009647086 -0.0040440857 -0.1047202 -0.018047601
0.0586826 0.71829957 -0.115623996 -0.055705033 -0.18660647 0.043416023 -0.12853214 -0.20944378
0.13516524 0.19883002 -0.3357582 -0.37315282 0.10631319 0.2863747 -0.08421004 0.2420954
-0.0043706167 0.018557645 0.48236942 0.11955312 0.71713203 -0.06816735 -0.22385083 0.117829606
0.45037362 -0.333898 -0.02921714 0.14451459 -0.102790594 -0.5180576 -0.1457663 0.104984306
-0.048266813 -0.0328151 0.18943453 0.07691795 0.037190113 -0.030672558 0.60853505 0.24415292
-0.3673838 0.114245154 0.24891083 -0.08122995 0.004898867 0.16948387 -0.008831469 -0.34705922
0.13257594 0.6242198 -0.16220532 0.18491122 0.030848106 0.019605404 0.2761661 0.43343124
-0.09909081 0.36171806 0.02868846 -0.23481838 -0.3596928 0.07739452 0.6845429 0.17728668
-0.19652279 0.13617715 0.049164176 -0.15390934 0.07281727 0.6259378 -0.0066181333 -0.011363276
-0.5839737 -0.12830092 0.07481774 0.09285077 0.4612164 0.19879192 0.2218917 0.099635586
0.06520769 0.59622794 -0.2707183 -0.15401916 0.071796894 -0.09537492 -0.26820216 -0.3188618
0.06737593 -0.024598569 0.09665778 0.001333937 0.32688582 0.008653495 -0.031262007 0.04980827
0.054792352 0.6123883 -0.086476035 -0.006751055 -0.16484344 0.36144477 0.25029445 -0.10177214
0.027815029 0.20209908 0.1824725 -0.16993874 0.26073942 0.3809713 -0.37711614 -0.44111156
-0.055606782 -0.0005478859 0.057481796 -0.04233916 -0.443386 0.1934872 -0.18572265 0.22258827
0.656165 -0.17305937 0.081443526 0.14067249 0.6982795 0.119477555 -0.10198022 0.2479687
-0.1593307 -0.16437781 -0.15303922 -0.1671093 -0.64145625 0.36151066 -0.0022214619 -0.025710607
-0.18921685 0.17532137 0.007130965 -0.051860254 -0.070978194 0.19173357 0.061424375 -0.1498604
0.44210654 -0.53228164 0.30450308 0.1574692 -0.57242376 -0.32730898 -0.17710082 0.14809585
0.21858715 -0.3221764 -0.40203363 -0.19431311 -0.22387253 -0.3440558 0.011252057 0.23502253
0.025357118 0.5429759 -0.094530955 0.024250858 -0.3975532 0.54461896 0.1497386 -0.049779586
0.13859622 -0.56842256 -0.063776724 0.04321654 -0.4762825 0.10195118 -0.10341503 0.08826584
0.6857022 0.60988575 0.11205637 0.09698713 0.685187 0.29990634 -0.11330585 -0.06431292
0.5149425 0.43389818 0.18321662 0.100534774 -0.23330687 0.2810952 0.15803567 0.31388626
0.028797552 -0.029122561 0.21269825 -0.15493661 0.2279241 0.42676297 -0.01876476 -0.17799692
0.27279237 0.1128951 -0.48120394 -0.51181626 0.60812294 -0.18648471 0.13139877 -0.0037759994

all_embed.embed.bias f4 [128]
00000000: e060 5d3c a24c 63bc 7c39 83be 421d 8a3e
00000010: 56d2 1e3e 7c0d 2a3e e820 f53d 42ae cf3d
00000020: ef4d 503d 09d7 f13c 35d2 36be a26b c4be
00000030: 58fe cdbc 0ce6 eebe 1f3d 7f3d 16a2 83be
00000040: bf74 06be 7528 4d3a b7f9 a13e abaa f83e
00000050: 8847 ddbe 474c 76be c565 dd3e d8b9 303e
00000060: 8a25 e63d 3929 edbe 2af9 ebbd e7d1 d53d
00000070: 5408 c1be b7fc 27bc 37ad fd3e cb4f f8bd
00000080: 0ff2 b83e e7bf 6ebd 345a 9ebe c685 1a3f
00000090: 8678 83bd 4e0b 6c3e 8eeb f7be 5253 1ebe
000000a0: a009 01bd 5d9f c03e 9a5e 26bb b2fa 98bb
000000b0: 5cab e0be a6e1 003f ecf6 60be fab6 d1be
000000c0: b7a1 133e 305a 283f 9170 0e3f 76ca 723e
000000d0: 4247 1fbd 8f62 973e 048e de3e c778 e93e
000000e0: 2137 b13e 06ab 4c3c 6e6b 8e3e 2d77 c43e
000000f0: 40e0 bcbd 4978 b53e 27c7 1e3e 0134 153e
00000100: 5e23 e23e 1f75 803d df57 743d 6467 d1be
00000110: 5078 59be 1a38 c9be 952b e9bc a691 a3be
00000120: f42c f4be 8d2a 84be 2d55 733e b3f6 a4be
00000130: 282d 113f 23ed 073f e187 763e fa7b c1be
00000140: 4a3f a9be d04d e53d 868c c7be b3e1 cd3e
00000150: 4ed6 993e e258 99bd 3bf6 f73e 016b a63e
00000160: a6aa 9c3e ae7d 283f 7de5 0a3e b8b3 dbbe
00000170: 6c27 d1be 4b1f 7d3e 4efd b1be 9490 9fbe
00000180: 8beb 683e fdf1 073e 4597 2a3f 14ec e3be
00000190: 6aed ca3e 8b4b 973e 3e40 ea3e b556 dd3e
000001a0: 50f0 913e dca8 ab3e 0797 323f 9194 273d
000001b0: 2b21 acbc e6c7 debe c6ad 3f3e c2bb 6c3e
000001c0: 1c91 f9be 1434 3f3b 6ecc b0be 2679 5c3b
000001d0: 4814 d6be c394 093e bcf2 0ebd ebda 52be
000001e0: 37ee 743e 778f be3e b047 2f3e fe1d 2d3f
000001f0: dafb b6be 7d27 7a3d 24d5 c2be 552e 1dbe
0.013511866 -0.013873251 -0.25629795 0.26975447 0.15509924 0.16606706 0.11969167 0.10140659
0.050855573 0.029521482 -0.17853625 -0.38363367 -0.025145695 -0.46659887 0.06231415 -0.257096
-0.13130473 0.0007826158 0.3163583 0.4856771 -0.43218637 -0.24052535 0.43241706 0.17258394
0.11237629 -0.46320513 -0.11522134 0.10440426 -0.37701666 -0.010253123 0.49546215 -0.12124594
0.36122176 -0.05828848 -0.30928195 0.6036037 -0.064194724 0.23051187 -0.484219 -0.15461472
-0.03150332 0.37621585 -0.0025385977 -0.004668557 -0.43880737 0.5034431 -0.21969193 -0.40959913
0.14417158 0.65762615 0.5564051 0.23710045 -0.038886316 0.29567382 0.43467724 0.45599958
0.34612373 0.012491947 0.27816337 0.38372174 -0.0922246 0.35443333 0.15505658 0.14570619
0.44167608 0.06272339 0.059654113 -0.40899193 -0.21237302 -0.39300615 -0.028463164 -0.31947058
-0.47690547 -0.25813714 0.2376296 -0.32219467 0.5670953 0.53096217 0.24075271 -0.377899
-0.33056098 0.11196482 -0.38974398 0.40211257 0.30046314 -0.07487656 0.48430046 0.32503513
0.30598944 0.6581677 0.13564105 -0.42910552 -0.4085039 0.24718969 -0.3476357 -0.31164992
0.22746103 0.13275905 0.6663707 -0.4451605 0.39634258 0.29549822 0.45752138 0.43230215
0.28503656 0.33527267 0.697617 0.04091317 -0.02101191 -0.43511885 0.18718633 0.23118499
-0.48743522 0.0029175328 -0.34530967 0.0033641546 -0.41812348 0.13435654 -0.03489946 -0.20591323
0.23918997 0.3721883 0.1711719 0.6762389 -0.35739022 0.061072815 -0.38053238 -0.15349706

all_embed.embed_2.weight f4 [128, 128]
00000000: ae25 93bc 4f32 d9bd 2618 8c3d 1c7d 973d
00000010: 30d5 603e 30b7 5c3d 7440 823e 0aae 4c3e
00000020: f75f 463e c401 05be ef54 72be f0f8 6fbd
00000030: f18e 663e 63a1 0cbe 4941 a0be 12d5 c1bd
00000040: 0e77 80be c73a ff3d 1474 77bd cf3c 22be
00000050: aabd aa3d 0758 b5be 3302 d4bd 2c1c 91be
00000060: be35 7dbc 2961 14bf 93d4 8cbe dea3 71be
00000070: b605 ea3d d98d c03c c9c1 c4bd 56a5 28be
00000080: 5c1f 83bd d538 e43c baf5 ca3d 01c9 f03d
00000090: cdcd bf3e 8dce 3bbe a230 f33d 2212 0dbe
000000a0: 6fc5 0c3e 9f53 803d 4dda 3bbe dcf6 583d
000000b0: d850 9fbc 1c59 8fbd 1ecd ee3d aac4 833d
000000c0: a31e 2bbe 0d40 1dbe 3db1 8d3c 1946 9abd
000000d0: 7840 ad3c cd2a 173e 3fde 80bd e6b8 3c3d
000000e0: 0176 523d c7bb a73d ba30 80bc acf9 3d3d
000000f0: 981f 1f3d 291c 9cbd 1122 6bbe cfa4 df3d
00000100: a688 a23d a725 513e ded8 9cbd de02 08be
00000110: 74c2 a63d e66a 993d 2f2f 8c3d 1620 e3bd
00000120: f0fc e6bc b044 003e 1d00 debd 0bb2 8bba
00000130: b9aa 03be 1eb2 97bd 6e20 683e 2ff7 003e
00000140: 76ba f33d 0c67 39be 9af4 dfbe c4c2 a1bd
00000150: 6f44 e83c 7508 9f3e 81c7 a7bd 3ef0 e73d
00000160: 0035 02be aa02 d7bc bf70 3dbb 287b 77bd
00000170: 403d 5abb f24a 3f3e 055c b6be ac66 2cbe
00000180: 555d 1e3e d30b 25be 0dd7 193d 1673 c93d
00000190: d45d 80be f4d0 fbbc 55e0 70bc 8d07 6f3e
000001a0: 9a0c 4bbd 6845 24be 557f 3abe 4933 1f3e
000001b0: 8a38 35bd b0c7 583d bd9f eebd b802 3bbe
000001c0: 253e 083e cec8 da3d 32eb 9abe 4e6c 6cbe
000001d0: 5699 df3d 05ac 2a3d d8e7 1b3e 2f64 0bbc
000001e0: 3332 aa3c 6d97 44bd bb3d 52be 2926 dbbc
000001f0: 9831 02be 5076 e4be b3fb 63be bb53 bbbb
00000200: 484f 96bd cdbe 1b3e e841 dcbd db45 23bd
00000210: 1ebc 48be 6175 c83d b76c 963d edb8 a7bd
00000220: 4cc3 2c3e ec38 283d d1cf 8bbc aad3 ac3d
00000230: f6cd 913e 16d2 d23d 715c da3c 88c2 183e
00000240: 8f0a e0bd cf8c 1fbd 609f d0bd 6b65 27be
00000250: e5ed 1abe 4a41 91be 62a8 aebe 919f 133c
00000260: 4879 403d c8fb c13d c2a0 883e efc3 a6be
00000270: 96ae 10bd cd03 20bd cda5 1fbe c2c3 cb3d
00000280: 1ee4 533e 835e 503e b2f6 af3d 1c27 14bd
00000290: fb3b c63e 392a 6ebe 8e8f ccbd d355 ffbd
000002a0: d03a d9bc 501c 54bd b194 a93d 1297 01bd
000002b0: fc1c 28bd aad8 c43d ef7e 57bc ba5d b4bd
000002c0: 1337 943c f331 84bd 5aac 6abd 23e7 5b3b
000002d0: b8b8 173e 911b 29bb de5f 9fbe 2ee5 ec3c
000002e0: 6035 f9bc 1c91 ae3d 8522 28bd b60f b1bd
000002f0: c5f9 173e 1593 8f3d 5711 973d f999 45bd
00000300: 26c3 553e 6833 7a3e 054b e6bd 002b 4c3b
00000310: 3395 183d 11ad 80bd 5ea3 153e 0a1e 1fbd
00000320: 3dd2 99bd d161 873d dde1 61bd ed30 82bc
00000330: 2748 ce3b 369b 8ebe 40eb 8c3e 161b a53d
00000340: bcc5 55bd ab2d e83c 2527 2c3c 909c 3c3d
00000350: c751 73bd 2e6b ee3d da74 4cbe 7099 efbc
00000360: baa1 93be b3c6 6cbd 2b0c 4dbd 9d75 093e
00000370: 7e34 f7bd ce1f 8cbc 1e1c 44be 5143 99bc
00000380: 8994 153e 9b0a a0ba 17fa a2bd 7088 6b3c
00000390: 4005 14be 6096 ccb9 d8b1 30bd 1b12 373b
000003a0: cfa5 9fbe 4b5a bcbd 9220 90be 0929 d73d
000003b0: 7fd1 843b 802a 323d 0bf5 28be 8129 1ebd
000003c0: c0c7 0b3d efd8 883e 344c e0bd 62bd 03be
000003d0: 8c29 423d 8529 273e a978 853e a329 463c
000003e0: 10a2 033e d28d 13be 7849 4cbd ff03 2abe
000003f0: 0225 13be 6f8f 62be 1700 cc3d acfb 033c
-0.017962303 -0.10605299 0.068405434 0.073969096 0.21956325 0.05388564 0.254398 0.19988266
0.19372545 -0.12988955 -0.23665212 -0.058587015 0.22515465 -0.13733439 -0.3129981 -0.09464468
-0.25090832 0.12462383 -0.060413435 -0.15843509 0.08336957 -0.35418722 -0.10351982 -0.28341806
-0.015454708 -0.57960755 -0.2750593 -0.23597667 0.114268705 0.023505138 -0.09607274 -0.1646932
-0.06402466 0.02785913 0.0991015 0.117570885 0.374617 -0.18340512 0.1187451 -0.13776448
0.1374719 0.062659495 -0.18344994 0.0529698 -0.019447729 -0.06999418 0.11660217 0.06433995
-0.16710906 -0.15356465 0.017296428 -0.07532901 0.021148905 0.14762421 -0.0629239 0.04607477
0.05138207 0.081901126 -0.015648235 0.046380684 0.03884849 -0.076225586 -0.22962214 0.109201066
0.0793622 0.2042452 -0.07658552 -0.13282344 0.08142558 0.074910924 0.06844937 -0.11090104
-0.028196782 0.12526202 -0.10839865 -0.0010657919 -0.12858094 -0.0740702 0.22668621 0.12594293
0.11900799 -0.18105716 -0.43741304 -0.07898477 0.028352944 0.3106114 -0.08192349 0.113251194
-0.1271553 -0.026246388 -0.0028906313 -0.060420185 -0.0033300668 0.18680933 -0.3561708 -0.16836041
0.15465291 -0.16117792 0.037558604 0.09836404 -0.25071585 -0.030739285 -0.014701922 0.23342724
-0.049572565 -0.16042101 -0.18212636 0.15546907 -0.044243373 0.05292481 -0.116515614 -0.18262756
0.13304956 0.10682832 -0.30257565 -0.2308819 0.109179184 0.041667957 0.1522516 -0.008507772
0.02077589 -0.047995973 -0.20531361 -0.026751595 -0.12714231 -0.44621515 -0.22263984 -0.0057167686
-0.073393404 0.15209503 -0.10754758 -0.03986154 -0.19603011 0.09788013 0.073449545 -0.08189569
0.16871375 0.04106991 -0.017066868 0.08438809 0.28477448 0.10293977 0.026655408 0.14917958
-0.10939514 -0.038952645 -0.10186648 -0.16347282 -0.15129812 -0.28370124 -0.3411284 0.009010212
0.046990663 0.094718516 0.26685148 -0.3257136 -0.035322748 -0.039066125 -0.15590592 0.09949447
0.20692489 0.20348553 0.08591975 -0.03617011 0.38717636 -0.23258294 -0.099883184 -0.124675415
-0.026517302 -0.051784813 0.08280314 -0.031638213 -0.041043267 0.09611638 -0.013152822 -0.088069394
0.018092668 -0.064548396 -0.057293274 0.0033554516 0.14816558 -0.0025803784 -0.31127828 0.028917875
-0.030420959 0.08523771 -0.041048545 -0.08645575 0.14841373 0.070104755 0.07376354 -0.048242543
0.20875224 0.24433672 -0.112447776 0.003115356 0.037251662 -0.0628301 0.14613101 -0.038847007
-0.07510803 0.06610454 -0.05514704 -0.01589247 0.0062952223 -0.27852792 0.27523232 0.08061807
-0.052190527 0.028342089 0.01050738 0.046047747 -0.05940416 0.11641537 -0.1996645 -0.02924797
-0.28834325 -0.05780668 -0.050060432 0.13423772 -0.12070559 -0.01710501 -0.19151351 -0.018708857
0.14607443 -0.0012210192 -0.07957857 0.014375791 -0.14455128 -0.0003902195 -0.043138355 0.0027934376
-0.3118119 -0.091969095 -0.2814985 0.10505874 0.004053294 0.043497562 -0.16499726 -0.0386138
0.034126043 0.26728007 -0.109520346 -0.12865213 0.047402903 0.16324432 0.2606862 0.012094888
0.1285479 -0.14409569 -0.049874753 -0.16603087 -0.14369586 -0.22125028 0.09960955 0.008055609

all_embed.embed_2.bias f4 [128]
00000000: d701 373c c749 e33c 8115 303d 6d12 29be
00000010: 5a38 2dbe 6409 03be cf0a afbd efc1 5e3d
00000020: d051 47be b4b2 4abd 42a5 04be 1304 e6bd
00000030: b183 0ebe a5f8 f93d 8947 b3bb cbfd f0bc
00000040: 398a 4a3b 3363 cd3b 395b 78be 31f1 75be
00000050: a693 22be ce36 313e 56a9 ce3d cd9b ddbd
00000060: 90b5 b3bd 977c fb3a 0430 84bc a71f 53be
00000070: 5d7d 113d ca3f 81bd bfde 2abd e2be a33c
00000080: 59fd fabc 1d80 75be 3cc7 c3bd 2377 adbd
00000090: 75a8 d4bb 6e41 b6bc cc2f 603e ca3a 36ba
000000a0: 4e7a 4bbe c8af 793d f4b3 b7bd c4f6 a03d
000000b0: 0c7b 58be d1e1 2ebd 5664 9bbd 9f2b 8dbc
000000c0: 4e41 3c3e 2684 d1bd d4ad 18be ad5b a2bb
000000d0: 6642 8fbd a9c3 bfbd c023 c1bc 40cc a93d
000000e0: 0b11 05be 94ae 72bc 92ed f7bd 990a ebbc
000000f0: ae77 1cbd f8d1 083c 46f8 c03d 65c9 fbbc
00000100: a59e acbd ffdd a23d c9f8 9abd ccf4 c93c
00000110: e614 74bd 51e6 47be 3b40 e3bd a82c 2d3b
00000120: 54d8 9cbd 2dba 3dbe 639d cbbd d9af d7bd
00000130: b006 773d d845 bdbd 28a9 07be bb5e 0a3d
00000140: 82a7 e3bd 95c2 80bd 3633 ff3d 8b71 b73c
00000150: 51f1 3ebd a3a0 9fbc 88a0 cfbd d589 4cbd
00000160: 99be 933c 9600 54bd d2bd b6bd c105 fbbd
00000170: 205c 8b3d 67e3 72bd 5254 5b3d 0495 a3bd
00000180: 377a 32bd 9370 bfbd 317a f73c 589c 73bd
00000190: cd5a f5bd 386b 08be fd36 99bd d433 babd
000001a0: b12b 9dbb c364 3bbe 6b06 093d 8218 c83c
000001b0: e5e8 2ebe e9a9 173d bd3d 7dba 8be8 b0bc
000001c0: 8959 f6bc 2f3f e2bd d37d dbbd 335d 39bd
000001d0: dc1e e3bd 56f6 79be 4cf6 6abd 54fe c2bd
000001e0: 9565 4ebe f9fb 093e 9e72 28be e0e2 933c
000001f0: 3525 55be 54d8 aabd 0651 a7bd 1d3b 3cbe
0.011169872 0.02774514 0.042989258 -0.16510935 -0.16916028 -0.12796551 -0.085469835 0.05438417
-0.19464803 -0.04948683 -0.12953666 -0.11231246 -0.13917424 0.12205628 -0.005471174 -0.029417893
0.003090514 0.006267929 -0.24253549 -0.24017788 -0.15876636 0.17306063 0.10090892 -0.10820732
-0.08774865 0.0019186911 -0.016136177 -0.20617543 0.035519946 -0.06310995 -0.041716333 0.019988481
-0.030638384 -0.23974653 -0.09559485 -0.08469989 -0.006489808 -0.022247996 0.21893233 -0.0006951509
-0.19870874 0.060958654 -0.0896987 0.07859567 -0.21140689 -0.042695824 -0.07587497 -0.017232714
0.18384287 -0.102302834 -0.1491006 -0.0049547763 -0.06995086 -0.09363491 -0.023576617 0.08290911
-0.12994783 -0.0148121305 -0.1210586 -0.028691577 -0.038200073 0.008350842 0.094223544 -0.03073568
-0.084286965 0.07952499 -0.07566983 0.024652861 -0.059590243 -0.19521452 -0.11096235 0.0026424322
-0.07658449 -0.18528052 -0.099421285 -0.10531587 0.060309112 -0.09241837 -0.13248122 0.03378175
-0.11115934 -0.062871136 0.124609396 0.022393009 -0.046616856 -0.019485777 -0.10138041 -0.049936134
0.01803522 -0.05175837 -0.08922924 -0.12256957 0.06804681 -0.0592989 0.05354721 -0.07987407
-0.043573584 -0.09347644 0.030209633 -0.059475273 -0.119802095 -0.1332215 -0.07481191 -0.09091917
-0.004796468 -0.18300156 0.033453386 0.024425749 -0.1708103 0.037027273 -0.0009660384 -0.02159526
-0.03007199 -0.110472076 -0.107173584 -0.045254897 -0.1108987 -0.24410376 -0.057363793 -0.095211655
-0.20155938 0.13475026 -0.16449973 0.018052518 -0.20814975 -0.083420426 -0.08169751 -0.18381925

pointer.v f4 [1, 1, 128]
00000000: fb77 d93e d53e 60bf dc72 a23f a646 9b3f
00000010: 9464 9a3f 83c9 d2bf 204e 1bbf 7a7e 3a3f
00000020: 42b3 743f 08b5 0c3f 9eb7 91be 941e 7dbf
00000030: e4aa 863f 137b b4bf 0965 1dbf a01d bf3e
00000040: 8667 8e3f 0069 a9bf 7585 acbf 1c11 9b3f
00000050: 408d 3cbf 75ad abbf b1f7 9ebf 4e83 aabf
00000060: 44ab 2c3f 40de bdbf 368b be3f e634 9c3f
00000070: ddca 70bf f887 af3f 18c7 733f 697a 663f
00000080: b838 a7be 5a84 d73f da6e 8e3f 6793 623f
00000090: 347d ab3f b675 7c3f 52a2 71bf cde2 64bf
000000a0: 779d d7bf 0ebc 87bf eb74 b9bf 5baf a43f
000000b0: a485 8bbf ef96 58be 999a 8dbf 47c0 e23e
000000c0: 04a7 cf3f ec7d eebe bebd 61bf bc44 cabf
000000d0: 7441 0fbd 2c1c 6cbf 2e0f 0ebf e206 3bbf
000000e0: 20ff 0cbe b1e7 c93e e18b 6dbf f88a b6bf
000000f0: faae c43f 228c 65be 26ff b8bf 975a 7ebf
00000100: 0b3c ac3f 0f31 c0bf 83c5 443f b236 aabe
00000110: bd9a b3bf 0077 f6be 4633 68bf c026 47bf
00000120: 80d0 94bf 7ec3 cabf 2090 85bf 0be6 8d3f
00000130: a4b4 293f 1653 ee3e e4c2 6a3f a08b 0bbf
00000140: 3dca a0be 491c 793f 6f11 aa3f 0738 66bf
00000150: 281a 67bf 0773 2cbf 097e 903f 87aa 84bf
00000160: 5042 b83f 478d 223f 83ea 1bbf 0a3c 9e3f
00000170: 988f 8f3e 1dd0 3a3f 7dfe be3f 7bbc 623f
00000180: 6432 45bf 50ff 97bf 1f03 d73f e844 a8be
00000190: 4b55 67bf 2034 9fbf 5f2e 963f ec90 8d3f
000001a0: 0285 97bf a17a 773f 3e1a e33f 9e13 6dbf
000001b0: fe3f 2c3f b460 f13e 7c7b 2b3f 3bf7 a4be
000001c0: 39ad af3f 92cb 89bf 0013 3dbf 80fc fd3e
000001d0: 5740 92bf 377f bc3f dcf9 5d3f 8e42 a13f
000001e0: 63d1 9fbf 3734 aebf 5e04 943f 6638 833f
000001f0: f89b a33f 27d9 77bf 0868 febe a689 a33f
0.4247435 -0.87595874 1.2691302 1.2130935 1.2061944 -1.6467746 -0.60666084 0.7284924
0.95586026 0.5496373 -0.284604 -0.98874784 1.0520902 -1.4100059 -0.6148229 0.3732729
1.1125343 -1.3235168 -1.3478228 1.2114596 -0.7365303 -1.341231 -1.241934 -1.3321321
0.6744883 -1.483345 1.4886234 1.2203643 -0.94059545 1.3713369 0.9522567 0.90030533
-0.3266046 1.6837265 1.1127579 0.8850617 1.3397584 0.9861711 -0.94388306 -0.8940857
-1.684493 -1.0604265 -1.4488806 1.2866014 -1.0900159 -0.21151327 -1.1062804 0.4428732
1.6222844 -0.46580446 -0.8818015 -1.5802226 -0.03497453 -0.92230487 -0.5549191 -0.7305738
-0.13769197 0.3943458 -0.92791563 -1.426116 1.5365899 -0.22416738 -1.4452865 -0.9935698
1.3455824 -1.5014971 0.7686388 -0.33244854 -1.4031597 -0.48137665 -0.9070324 -0.777935
-1.1626129 -1.584091 -1.0434608 1.1085829 0.6629126 0.46547765 0.9170363 -0.54509926
-0.31404296 0.97308785 1.328657 -0.8992924 -0.90274286 -0.6736302 1.1288463 -1.0364541
1.4395237 0.6349682 -0.6090471 1.2362072 0.2803924 0.72973806 1.4921414 0.8856885
-0.77030015 -1.187479 1.6797827 -0.3286507 -0.9036452 -1.2437782 1.1732901 1.1059852
-1.1837466 0.9667149 1.7742383 -0.9260806 0.67285144 0.4714409 0.669853 -0.32219872
1.3724738 -1.076525 -0.73857117 0.49606705 -1.1425885 1.4726323 0.8670938 1.2598436
-1.2485775 -1.3609685 1.1563833 1.0251586 1.2781973 -0.96815723 -0.49688745 1.2776382

pointer.encoder_attn.v f4 [1, 1, 128]
00000000: 678c c83d 3b83 883e 805f f63d b821 ac3e
00000010: 1722 60be e51b 84bd 7632 01be 6a4b 403e
00000020: 0cac 8fbc 2194 7c3e f9db da3c c239 32be
00000030: 11d1 e13c 61d7 373e a25a 21be 4c21 6dbd
00000040: 3b5f 40be 3593 723e 5a73 903d 48be 603e
00000050: 904d 93bd 1b2b fb3d 0407 2fbe 195a 22be
00000060: 7a3b 0abe 16ca cbbd 8960 ecbc 2084 d8bd
00000070: a9f5 40be 99f2 f1bd 50f0 65bd 38be 833e
00000080: d745 fabd ad00 00be 809d 31be 5b4d 1bbe
00000090: e0c2 5c3d 6f18 043e cdc3 0cbe 9eb2 623e
000000a0: 44b3 c93d 0b7c 923d 682d 923d d49f 12bd
000000b0: 51ed dcbd 8b89 793e 05ab e83d 1445 74be
000000c0: a71a 7d3e 712b 8e3d 8584 40be 78bc 9f3d
000000d0: 522c b0bd 858b bc3d b746 03be 9faf 093d
000000e0: caee 1b3e 96b9 053e 8c06 2bbd 0aee 2fbd
000000f0: 3d4e 1cbd 5a32 473e 161f 82bd 493a 423e
00000100: 51d4 433e 7e03 7b3e 05bd 2cbe 72de 303e
00000110: 6ef7 903e a79b 1abd 0828 7c3e 2dc5 16bd
00000120: a418 34be 1fb1 b2bd af74 2c3e 2903 41be
00000130: b189 f33b 83a8 533e d8ca f4bd d220 1ebd
00000140: cc72 10be 8fa6 27bd cc33 04be 04f2 723e
00000150: dfee 183e ac61 1f3e 6b9b 243e 57df 75bc
00000160: edc4 1e3e 3c2d 533e 6906 8b3e 9dc8 e83d
00000170: 0068 c93d e179 423e 23fb 9d3c cc74 653e
00000180: 6906 8f3e 2aa8 383d 614a 9cbe 472a 51be
00000190: b358 6fbe 8137 54be fd67 7bbe 341a 093e
000001a0: 2777 babd dc60 d3bd 0d3d acbd cff0 d13d
000001b0: b6d0 ce3d a0bd 3dbd 6980 adbd 5b9b db3d
000001c0: c529 143e 7952 1f3e fb5b 4ebe 2a4b 903e
000001d0: 8434 8fbd 388e 46bd 5ce7 10bd 0ae6 afbe
000001e0: 3a39 833e 3eb8 b3bd bfcf b83d 3042 0fbd
000001f0: a138 38bd 6b0c 813d e12d 18be 8490 2e3e
0.097924046 0.2666262 0.12029934 0.33619475 -0.21888004 -0.06450633 -0.12616906 0.18778768
-0.017538093 0.24665882 0.02671622 -0.17404845 0.027565511 0.17953254 -0.1575723 -0.057893082
-0.18786328 0.23688968 0.070532516 0.21947587 -0.07192528 0.12264081 -0.1709252 -0.15854682
-0.13499251 -0.09950654 -0.028854625 -0.10572076 -0.18843712 -0.1181385 -0.056137383 0.25731063
-0.12220352 -0.12500258 -0.17345238 -0.15166228 0.053896785 0.12899946 -0.13746567 0.2213845
0.09848645 0.071525656 0.07137567 -0.035796955 -0.10787452 0.24368875 0.113607444 -0.23854476
0.24717198 0.069418795 -0.18800552 0.077996194 -0.086022034 0.09206299 -0.12819944 0.03361475
0.1522781 0.13059077 -0.04175429 -0.04295162 -0.03816055 0.19452801 -0.063535854 0.18967547
0.19123961 0.24513051 -0.1686898 0.17272356 0.28313774 -0.037746098 0.24624646 -0.036809135
-0.17587525 -0.087251894 0.16841386 -0.18848862 0.0074321856 0.20669751 -0.11952752 -0.03860552
-0.14106292 -0.040930327 -0.12910384 0.23725134 0.14934872 0.15564603 0.16074912 -0.015006862
0.15504809 0.20622724 0.27153328 0.11366389 0.098342896 0.18991806 0.01928479 0.22407836
0.27934578 0.04508225 -0.30525497 -0.20426284 -0.2337368 -0.20724298 -0.24551387 0.13388902
-0.09104758 -0.10321209 -0.08410082 0.10251009 0.10098402 -0.04632342 -0.08471758 0.10722991
0.14469059 0.15558805 -0.20152275 0.28182346 -0.069924384 -0.048475474 -0.03537689 -0.34355193
0.25629598 -0.08775376 0.090239994 -0.03497523 -0.04497588 0.06301197 -0.14861251 0.17047316

pointer.encoder_attn.W f4 [1, 128, 256]
00000000: 39ef 6ebd ce10 87bb 4f38 29be eed0 033d
00000010: 7650 f3bd a16d cd3b d21b 8a3e 518b febc
00000020: dd08 d93c b920 8b3d 607b eb3d e3a9 81bd
00000030: 823e d7bc 9311 f1bd 5216 23bd 73e3 c3be
00000040: 8f82 77bd 4b05 5bbe 048c e3bc 822f 1a3c
00000050: 80c0 f5bc d227 a1bc e606 75bd 7628 74be
00000060: fc4f dc3c fc24 d4be 9d37 8f3b cb81 f33b
00000070: 4e07 97be c5f4 97bb b727 e5bd 2eb5 88bd
00000080: bdbc 89bd 079e 9ebc 78ae a1bc 9bbb e9bc
00000090: 210b 3e3c 79f4 8e3d bb85 80bc dd01 b4bd
000000a0: 7358 523d 9c27 483c 605a adbe 08a0 abbc
000000b0: 24e5 4cbe 06d4 7dbc 1602 0ebe 1fe7 41bd
000000c0: 30e8 06bd a571 60be e13a 3cbd 2218 e9be
000000d0: e0d6 28bd 118e 20be 0a45 43bd 2a4b dfbd
000000e0: fc65 7f3c 34b3 843d efda cabd 8785 0cbc
000000f0: 5142 c9bc 6db0 90be 497e 3bbd ccbe 3dbd
00000100: 9eae b43d 7c24 d43b 59c2 cbbe e838 c7be
00000110: 1065 5abe 7521 10be e02c 0bbe 197f 84bd
00000120: 8eee 23be cbd3 a4be 5b55 2b3d d6b4 72bd
00000130: a662 ccbd d1c8 63bd 439e ac3d 7764 13be
00000140: ba1c b03d c85b 9bbc 6356 9bbb e310 b13c
00000150: c594 22be ab1c 173e 839f f83c 8a67 86bd
00000160: 2108 f8bd 1e0c cbbc ad3c d7ba f83e c4bc
00000170: 140f 5bbe 5065 e6bc d127 ddbb 3289 b8bd
00000180: 1bec d1bc 4c6b babd e439 45bc 1376 8dbd
00000190: 8d03 41bd d35f 6fbe c8ec 073d 3723 13be
000001a0: 3ccc 87bc 5771 5dbd cccd ecbc 75e1 67bc
000001b0: dc18 41bd d101 54bd 490c 18be 0ced 4e3b
000001c0: 4c1a d53a 7e4e 6bbd ac46 6f3d f06b 763d
000001d0: 38d0 0b3c 39b3 933c c6d0 c13c cd0b 883c
000001e0: 6b53 28be fe9b b7bc 00b3 af3c e717 71bb
000001f0: 7e4e af3c 33d7 bebc 5bb5 d23c 14d3 b5bc
00000200: c74e ec3d b7b7 a1bc 5ee7 d73c bf2f fdbc
00000210: b30b 7ebc 70e5 1f3d 0544 0ebd 3269 813d
00000220: 6f04 45bd ed68 293d 8adf 67bd b2a8 73bc
00000230: c315 9a3c 3785 1abd 0fc2 25bd e261 bd3c
00000240: ef2a 383c 9d61 28bc a740 ebbc cac6 7cbc
00000250: ab22 53bd 7873 ebbc da8c f73c af0b 8bbd
00000260: 6958 86bd 85c4 44bd fcd3 2abc 507c 11bd
00000270: b17b 3d3d 2036 a13b 04a2 2b3d 4a30 963c
00000280: 8234 29bd 2b43 b2bb 8553 a1bb 6325 373d
00000290: e5f1 8dbc 8554 11bd c7ec 66bd 60ce 54bc
000002a0: fe9c 823d 6c0d fd3b 4999 25bd c656 64bc
000002b0: 97c2 83bd ec04 543c d682 f93c 3823 e03c
000002c0: d039 92bd e8df bfbb fcdb 213c a99a 6bbc
000002d0: bf18 b5bc ea89 4c3d 8394 6ebc 0d0a 5d3c
000002e0: a18f 0b3d bb4c bf3c 0326 b33c 801e 6f3c
000002f0: 9893 7f3d ef60 633c 8056 52bb 54f2 263d
00000300: 3846 83bd 7546 d23d cbb3 613d b57c 0b3d
00000310: d782 f83c 1742 093d 0374 44bd 8834 203d
00000320: 5132 84bc b46e 22bc 3025 28bb f32e 57bd
00000330: 7e04 bcbb 3873 b53c 285c ed3a f5ac cc3c
00000340: 6c3c 3bbd 24c7 3b3d acd8 823d 173b 893d
00000350: 8694 3abd 3a31 14bd e1db dcbd 0a6e 1fbe
00000360: fdee d43c f6f1 1b3d c5c1 acbc df32 9bbc
00000370: a8a9 a1bd 7093 48bd 9cf4 933b c9e7 26bb
00000380: 7c4f 0e3d 9bb4 9d3b c554 50bd 1b8d 6ebc
00000390: 869a 403d 1996 183c 2e41 af3a abdc 9bba
000003a0: 8d11 433b 4e00 4b3d 38c3 3a3d 2936 ba3c
000003b0: 3fc6 a53a 5c99 02bd a848 2c3d 5154 04bd
000003c0: fd6b f6bc 890a 1cbb e0f0 97bd 2633 96bc
000003d0: 738f 123d 42ca a2bd 8f4d 7a3d cd94 44bd
000003e0: 95c2 1fbb 81d7 4dbd 6bfb 913c e45c 6b3d
000003f0: afd0 60bc a0ea bf3d 1949 9c3d 316f 893c
-0.05833361 -0.0041218763 -0.16525386 0.032181673 -0.11880581 0.0062691723 0.2697435 -0.03107229
0.026493484 0.06793351 0.11498141 -0.063312314 -0.026274923 -0.1177093 -0.03981621 -0.38259467
-0.060427245 -0.21388738 -0.027776726 0.009410741 -0.029999018 -0.019672308 -0.059821032 -0.2384356
0.026893608 -0.41434467 0.0043706433 0.007431244 -0.2949776 -0.004637333 -0.11189216 -0.06675182
-0.06725452 -0.019362463 -0.019736513 -0.02853184 0.011599333 0.06980223 -0.015688768 -0.08789418
0.051353883 0.012216475 -0.33858013 -0.020950332 -0.20009285 -0.015492445 -0.13867983 -0.047339555
-0.032936275 -0.21918352 -0.04595459 -0.45526224 -0.041220546 -0.15679194 -0.047673263 -0.10903008
0.01558828 0.06479493 -0.099050395 -0.008576757 -0.024567755 -0.28259602 -0.04577473 -0.046324536
0.08822368 0.006474076 -0.39796713 -0.38910604 -0.21327615 -0.14075263 -0.13591337 -0.064695545
-0.1600897 -0.32192835 0.04182945 -0.05925449 -0.09979753 -0.055611435 0.084286235 -0.14393793
0.08599229 -0.018964663 -0.0047405227 0.021614498 -0.15877064 0.1475703 0.030349499 -0.06562717
-0.121109255 -0.024786051 -0.0016421281 -0.023955807 -0.2139247 -0.028124481 -0.0067491313 -0.09010543
-0.02562528 -0.091024965 -0.012037728 -0.069072865 -0.047122527 -0.23376398 0.033184797 -0.14368902
-0.016576879 -0.054063167 -0.028906725 -0.014152874 -0.04714285 -0.051759545 -0.14848436 0.0031574396
0.0016258447 -0.057447903 0.058417007 0.06016153 0.00853353 0.018029796 0.023659121 0.01660719
-0.16438071 -0.02241325 0.021447659 -0.0036787929 0.021399733 -0.023295974 0.025721243 -0.022195376
0.11538463 -0.019740922 0.026355442 -0.030906556 -0.015505719 0.039037168 -0.034732837 0.063188925
-0.04809993 0.04135983 -0.056609668 -0.014871763 0.018809205 -0.0377247 -0.04046827 0.023117963
0.011240705 -0.010277179 -0.028717352 -0.015428254 -0.051546734 -0.028741583 0.03021853 -0.06789338
-0.06559832 -0.048038978 -0.010426518 -0.035518944 0.04626054 0.0049197823 0.041902557 0.018333573
-0.04130984 -0.005440136 -0.0049232864 0.04471339 -0.017327258 -0.035480995 -0.056378152 -0.012988657
0.063776 0.0077225473 -0.040429387 -0.013936704 -0.064335994 0.012940627 0.030457895 0.027360544
-0.07139933 -0.005855549 0.0098791085 -0.014380136 -0.022106526 0.049936213 -0.014561775 0.013491166
0.034072522 0.023352018 0.021868711 0.014594674 0.062396616 0.013878091 -0.0032095015 0.040758446
-0.064098775 0.10267345 0.055103105 0.034054477 0.030335827 0.033510294 -0.0479622 0.039112598
-0.016137274 -0.009914089 -0.002565693 -0.05253501 -0.00573784 0.022149667 0.001810913 0.024984816
-0.04571192 0.045844212 0.06388983 0.067007236 -0.0455518 -0.03617976 -0.10784126 -0.1556932
0.025992865 0.03807255 -0.02108849 -0.018945156 -0.078936875 -0.048968732 0.0045152437 -0.0025467745
0.03474377 0.0048127896 -0.050862093 -0.014560009 0.047022365 0.00931313 0.0013370865 -0.0011891326
0.00297651 0.049560837 0.04559633 0.022730904 0.0012647583 -0.031884536 0.042061478 -0.032306973
-0.03008079 -0.002380999 -0.0741899 -0.018334936 0.035781335 -0.07948734 0.061109122 -0.04799347
-0.0024377455 -0.05025435 0.01782008 0.057461634 -0.013721629 0.09370923 0.0763113 0.016776653

pointer.fc1.weight f4 [128, 256]
00000000: f7bc 543e 5612 9ebd 64f5 033d 502f be3d
00000010: 20bc 5db8 d100 09bd 14db 05be 9216 25bc
00000020: 631a a3be 7673 0f3e 0725 0f3e 61f5 463e
00000030: 859d 3fbc efc3 16be b92b 56bd b778 163e
00000040: a506 1cbc 9316 7cbd b406 133e aab6 a33c
00000050: 3410 983d fceb b83c abe3 e03b dd2a 89bd
00000060: 94b5 023b 46c3 553d b381 3d3e 6c7d 203e
00000070: f35f 25bd 6f93 dbbd 0b5b a33d 1d95 a0bd
00000080: d378 b73d b642 dd3c 2017 0cbd e482 a33d
00000090: ee98 95be b6a1 443d 63be 4dbe 2907 a3bd
000000a0: 0d90 633e 83ad d9bd 6dc8 50bd 583a e9bd
000000b0: 0f86 613c 3e24 b7bc 9466 1d3d e486 0cbe
000000c0: 979a fbbc a4ba 75bc 958f 18bc ef29 203d
000000d0: 3da0 de3b 9fc9 01bd 3bc7 883c d786 fb3b
000000e0: bae8 fc3d 4764 ff3b 9555 db3d c089 e23d
000000f0: 2e67 40bd 50f0 973e 4013 06be ad30 123e
00000100: 4f7e b6bc d177 333e fd1d e4bd 08ad d43b
00000110: c358 00be a9b1 1bbc 96c3 e2bd ad46 82bd
00000120: e5b4 42be 7c2a a7bd 650b e63d 8cbf bf3d
00000130: dba2 333d e3e9 00be 7df9 203e ce27 b43d
00000140: 03b1 cebd 5da7 bcbd 995b 833d 8734 fabc
00000150: 3da3 193e 1ef2 eebd 01fc 25bd 6d52 41be
00000160: a9bb 9d3d 17c8 77bd 5f87 91bd d006 403d
00000170: 68fa 20be fa58 1fbc 8600 373d f34c 423d
00000180: 07ac 33bb 2082 31be f4ee f6bd 309b 593c
00000190: cc18 8abc 81e3 c23e 745a 69bd 6437 793e
000001a0: b238 e6bd 3a17 eabd d13b 043c 2f93 e1bd
000001b0: 4bec 243e cf0a 3dbe 1ca4 273e 8d6c 843d
000001c0: 50fb d2bc 8170 563e 8062 a9be 8cf4 493e
000001d0: 463d 0a3d ec08 9cbd faa2 f03d 7152 543e
000001e0: 67a6 d037 9f6d afbe c31e 153e ea36 a43d
000001f0: 6b85 3ebd 2398 aabc da28 9b3d adba a23d
00000200: c90d ae3d 5328 3d3c e648 4dbc 390c 8d3c
00000210: f963 b5bb c73c d1bd 61b1 0cbe 0102 c73d
00000220: 80d7 1c3e cd82 65bd ddc5 433d 85d9 0e3e
00000230: 4591 333d 9268 1cbe 3b4f d1bd fdc6 183d
00000240: 2bf9 b23d c883 d03d 4f62 77bc 6c63 b4bd
00000250: b851 1abe 196a 10be ace3 09be dc11 903b
00000260: 7b75 163e 8d9e 9f3c 5da4 bbbd 9cad 1abd
00000270: 9cc7 773d d17c 913d 46be c2bd a908 a7bc
00000280: fb98 573e ab46 193d 6cc8 cdbd 35ab 0fbc
00000290: b96e d1bd 1da1 10bd a00b 1e3d ee3d 04bc
000002a0: 2eaf 86bd 5e76 703d 6cae b6bd ef03 f9ba
000002b0: 9a98 793c 3f1b be3b d05d 483d 1613 1f3e
000002c0: d558 d2bc 63c2 c33d eac0 98bd e7cc aebb
000002d0: a17c dcbc f501 e3bc ecc0 b43d 3790 993d
000002e0: 9a4e e83d 3c52 a3bd ffbe 7dbd 4a04 d6bd
000002f0: f6f0 a4bc b50b 8d3e e3f4 e93d dea6 dd3c
00000300: 0344 aabd eaad fdbd 80f4 393c 809d 553e
00000310: db97 b6bd 8509 e6bd 1971 80bd ec77 9ebc
00000320: 8b3f 39be a9fd 7cbd 6165 6abe 4f92 533d
00000330: 23f5 973d 18bf f83d c382 94bd 03cb 653d
00000340: 121e b9bd ead9 a93d 668b d53d 4337 14be
00000350: 8ea8 113e 8c2f 9dbd 05ba 193e 7bd4 283e
00000360: 2593 033d eb74 89bd 3bee fd3d ed31 e6bc
00000370: c03d 4dbc 43f3 85bd ea16 e0bb a6c8 ff3c
00000380: b269 673d c190 263e a1fb 363d e703 573d
00000390: b3b6 933d abee 5fbd 5e65 bf3d b00a 2b3c
000003a0: 1e64 92bd 444f 8c3d a8eb c2bd 18f0 053e
000003b0: 8174 ed3d da03 963c 7df5 113e c3f3 f93d
000003c0: d766 cfbc 6ffa f33d 13cf 8abe 7290 2b3d
000003d0: 266d 10be 68a7 c7bd 32fc a3bd f049 023a
000003e0: 6c21 d73d 9573 04bb e0e2 d03d a65a 99bc
000003f0: 4933 debd 2505 fc3d f81b 1abd 1dd6 1ebd
0.2077521 -0.07718341 0.032216445 0.09286368 -5.286571e-05 -0.033448044 -0.13071853 -0.010076182
-0.3185607 0.14008889 0.13978969 0.19429542 -0.01169527 -0.1472318 -0.05228779 0.14694487
-0.009523069 -0.061544966 0.14358026 0.019984562 0.074249655 0.022573464 0.0068630776 -0.06697629
0.0019944655 0.05218818 0.18506508 0.15672845 -0.040374707 -0.1072148 0.079763494 -0.07840941
0.08958592 0.02700935 -0.03420174 0.0798395 -0.2921824 0.048005782 -0.20092158 -0.0796035
0.2222292 -0.10628798 -0.05097239 -0.11388081 0.013764872 -0.022356149 0.038427904 -0.13723332
-0.030713363 -0.014998112 -0.009311576 0.03910249 0.0067940042 -0.03168642 0.016696563 0.0076759863
0.123490766 0.0077939364 0.10709683 0.1106143 -0.0469734 0.2967553 -0.13093281 0.14276381
-0.022277026 0.17526175 -0.11138532 0.0064903535 -0.1253386 -0.009502807 -0.11072461 -0.063611366
-0.19014318 -0.081624 0.11232642 0.093627065 0.043856483 -0.1258922 0.15720172 0.08796655
-0.10092356 -0.092116095 0.06413955 -0.030542625 0.15003677 -0.11667274 -0.040523533 -0.18879099
0.07701809 -0.060493555 -0.07105898 0.046881497 -0.15720522 -0.0097258035 0.044678234 0.047436666
-0.0027415769 -0.17334795 -0.120572954 0.0132816285 -0.016857527 0.38064197 -0.05697103 0.24337536
-0.112412825 -0.11430211 0.008070902 -0.11014401 0.16105764 -0.18461154 0.16371197 0.06466017
-0.0257546 0.20941354 -0.33082962 0.19722193 0.03374984 -0.07618889 0.11749835 0.20734574
2.487302e-05 -0.34263322 0.14562516 0.080182865 -0.046513956 -0.020824498 0.07576151 0.07945762
0.08498723 0.011545259 -0.012529587 0.017217742 -0.0055355993 -0.102166705 -0.1373954 0.09717179
0.15316582 -0.056032944 0.04779612 0.13950165 0.04383971 -0.15274265 -0.1022019 0.037299145
0.08738931 0.10181385 -0.015099122 -0.08808026 -0.15070236 -0.14102973 -0.13465756 0.0043966603
0.14693253 0.019484783 -0.09162209 -0.037763223 0.060493097 0.07103885 -0.09508948 -0.020389872
0.21054451 0.03742091 -0.10047993 -0.008768846 -0.10226197 -0.0353099 0.038585305 -0.008071406
-0.065763816 0.058706634 -0.08919987 -0.0018998365 0.015234137 0.005801588 0.04891759 0.15534624
-0.025677124 0.09558561 -0.074586704 -0.005334485 -0.026914896 -0.027710894 0.088258594 0.0749821
0.11343117 -0.07974669 -0.061949726 -0.10450037 -0.02013443 0.27547994 0.114236616 0.027057108
-0.083137535 -0.12386687 0.011349797 0.20860863 -0.08915683 -0.112322845 -0.06271572 -0.019344293
-0.18090646 -0.061765347 -0.22890235 0.051653203 0.07419803 0.12145823 -0.07251503 0.05610181
-0.090389386 0.08293517 0.10426979 -0.14474206 0.14224455 -0.076750845 0.15012367 0.16487305
0.03212275 -0.067117535 0.123989545 -0.028099978 -0.012526929 -0.06540539 -0.006838669 0.031223606
0.056497283 0.16266157 0.044673566 0.052493956 0.072125815 -0.05467097 0.09345506 0.01043956
-0.07148002 0.06851056 -0.09517604 0.1307987 0.11594487 0.018312383 0.14253803 0.12204697
-0.025317593 0.11913001 -0.2711111 0.0418858 -0.14104137 -0.09748727 -0.08007087 0.0004970124
0.105044216 -0.0020210494 0.10199523 -0.018719982 -0.108496256 0.12305669 -0.03762433 -0.038778413

pointer.fc1.bias f4 [128]
00000000: 395b d8bc bd89 1e3d c235 3c3d 2be4 4a3d
00000010: 0017 943b ce1b ffbc 2562 1dbc 9278 aa3c
00000020: 0f42 acbc 5fe5 22bd e172 65bd 51fe edbc
00000030: f24b 3b3d d6ac e83b e2d3 acbd eee7 473d
00000040: 62ec de3c d31f bd3b a52e e4bb 6bac 4b3d
00000050: 70da 5b3d 7d4f 93bd 83d8 e23c dae2 eabd
00000060: 4fa2 9c3d af88 f33c e4e8 3e3d b1e5 c9bc
00000070: 934e 02bd 4b12 8dbd 222c 6cbd cbc6 f43c
00000080: 415d 2d3d ad0f c1bd c390 593d b7c1 f93b
00000090: 5bab 4d3c e362 243d e41b 05bd 2612 c4bc
000000a0: adbd 3cbd 06ae 283d 7887 573b a493 2dbc
000000b0: f154 433d 28cd babc 7513 59bd bc9c 843d
000000c0: 2cf3 54bc 624c 213d 0c05 f73c c517 efbb
000000d0: aabb e9bc fe85 7a3d b59a 9d3b 3ddb 6c3d
000000e0: b428 853c bd19 6c3d 537d 863d c11f 3b3c
000000f0: 7c5d d2bc 4337 41bd 094b 0ebd 127c 8d3b
00000100: 39f8 893d 2237 93bd 8ea4 9dbd 3569 86bd
00000110: 1463 8fbd 39a7 64bd 11cb 3cbc 39e0 34bc
00000120: dc07 3cbd b5ac cfbb 6fd1 1bbd 4a57 6c3d
00000130: 0e8a 703d b93d 8abd 3702 2a3d 0ff1 023c
00000140: 4d8d 22bd d700 93bc 7642 8b3c e74f 973c
00000150: 6771 b33c acc2 50bc 76e2 7cbc 7ddb d13c
00000160: 07b1 88bd 7fe4 9abc 70e4 8ebd 3dff a23c
00000170: 25f7 36bd 52d3 a73c 738e 1e3d 7959 13bd
00000180: 6118 c13c c996 0b3d b7cc c0bc f7e5 673d
00000190: 032c ac3c c064 bd3c 2fac 953b c0bb 693c
000001a0: 43be 303c ae89 233d edbc 263d c58a 463d
000001b0: df28 8f3d 210f 383c 8dcf e13b bb2d 8a3d
000001c0: cfb3 303d f874 63bd 44f3 c9bd 1b8e 28bd
000001d0: a0ee cc3c b8a8 71bd 9cd9 91bc 4aa3 b3bc
000001e0: 46f8 f3bc 72ff ec3c d0df e23c cec7 603a
000001f0: 2e0d 72bd 3bdb 90bd 25b4 e4b9 a6b2 2e3c
-0.026410686 0.038705576 0.045949705 0.049534004 0.0045193434 -0.031141188 -0.009605919 0.020809446
-0.021027593 -0.039769527 -0.05601776 -0.029051932 0.045726724 0.007100682 -0.08438851 0.04880517
0.027212325 0.005771616 -0.0069635683 0.049724977 0.053675115 -0.071928956 0.027691131 -0.1146905
0.076481454 0.029728262 0.04660882 -0.024645658 -0.031813215 -0.06888255 -0.057659276 0.029879948
0.042325262 -0.09426818 0.05311657 0.0076219696 0.012553061 0.04013337 -0.0324973 -0.023934435
-0.046079326 0.041181587 0.0032887142 -0.010594282 0.04768843 -0.022802904 -0.05299707 0.06475207
-0.01299743 0.039379485 0.030153774 -0.0072965347 -0.028531868 0.06116294 0.0048097023 0.05782627
0.01625476 0.057641733 0.065668724 0.011421145 -0.025679342 -0.047171842 -0.034739528 0.004317769
0.06736798 -0.0718825 -0.07697402 -0.065630354 -0.070013195 -0.05582354 -0.011523024 -0.011039787
-0.045905933 -0.006337727 -0.03804153 0.057700433 0.05872541 -0.06750054 0.04150602 0.007992043
-0.039685536 -0.017944736 0.016999464 0.018470718 0.02190466 -0.012741726 -0.015434852 0.025617355
-0.0667439 -0.018907784 -0.06977165 0.019897098 -0.04466929 0.020486508 0.03871007 -0.035974
0.023571195 0.034079347 -0.023535116 0.056615796 0.02101708 0.02311933 0.004567645 0.0142659545
0.010787549 0.039926223 0.040707517 0.048472185 0.069902174 0.011234076 0.006891197 0.06747004
0.04314023 -0.055531472 -0.09860852 -0.041151147 0.025016129 -0.058998793 -0.01780396 -0.021928448
-0.029781472 0.0289304 0.027694613 0.0008574695 -0.0590946 -0.07073065 -0.00043621767 0.01066271

pointer.fc2.weight f4 [128, 128]
00000000: c8e7 a43e 01fe 4c3d 1c28 eb3d 3c88 00be
00000010: 97c0 093e 8ed2 503a 9418 f9bd 0861 8bbe
00000020: 8f5a e63c d062 b2bd 21a3 913c 3a7c d83d
00000030: 1b55 38be 4444 febd d422 353e 8d34 203e
00000040: 8b95 273e 93ff 80bd 16f9 c1bd c7fb c33b
00000050: fd4b a4bd b12d 603e 1607 24bd 7cc5 7b3c
00000060: 4ab8 79be 77c4 503e 56a2 6dbd e632 f53d
00000070: ce49 1e3e 755a c63d c8ed 35be 822b 1cbd
00000080: 4157 bb3d d178 0bbe 4784 893d 4658 383d
00000090: 3014 3b3d 5e72 4f3d 2cb5 9bbd 81bc 9c3d
000000a0: 1016 0a3e a612 2ebd 7b3c 073c ca48 4ebd
000000b0: 4bc2 30bd ffb4 653e b325 8c3d 9f54 ac3d
000000c0: 90a0 78bd 5d99 a83d 3139 32be c0f2 dbbd
000000d0: e559 673d b68e b23d acbe 023e 4e1c 033e
000000e0: 2ed3 f13d cc3c 4b3d 9e6c a93d 768d 053c
000000f0: cd34 b8bc 5a23 28bd 353d e1bd ee0e 003e
00000100: 63fe 393e eb79 c6bd a171 a4bd 0cc9 79ba
00000110: 655b 3fbc 656e bd3d ab44 cdbd 091e d63d
00000120: a825 4e3d e1e2 453e d9d7 c23d 0c97 03be
00000130: 41f2 0c3e ff71 14bd e783 f9bd b142 1bbe
00000140: 8df2 bb3c eb67 b1bd 3e4e 833e 189c a23a
00000150: ba7e a3bd fbe7 c73d 2336 d63d b119 0a3e
00000160: 29b8 1bbe b66a bebd 24a0 173e 0b30 3f3e
00000170: e15d 20be d6b9 0dbe 3ff6 95bd c8f0 093e
00000180: aa06 243e 1dce 06be cdc3 9abd 2181 1bbd
00000190: a5dc 56bd 0baf edbd d1e4 f5bd 1dd1 d0bc
000001a0: a105 933d aa4b 4abc 83c0 333d b076 e33d
000001b0: bfc9 16be 16e8 673e 651e ea3b 57b1 55be
000001c0: 9bb8 46bc b6ce a4bd 39dc 43be 1c8e 723d
000001d0: 0547 a4bc 6ca9 6c3d 3239 8f3d 4545 ac3c
000001e0: 3f89 193e 7037 953d 9681 7b3d 4aa2 3a3c
000001f0: cf90 fb3d 0843 353d 8206 133d 2605 e5bc
00000200: ad5b 193e 1ef3 563e e4a2 c03d 83a8 54bd
00000210: 954c ef3d 5e86 adbd 042d ecbc 5167 6f3e
00000220: a03f 30be 1765 c4bd 38f5 57bd 87a4 73bd
00000230: 61bc d83d d4e4 ef3d 77c4 cdbd cdb2 06be
00000240: 6fa2 83bc 91e2 063d 15a4 723c f94b 3fbb
00000250: d620 c6bd 56ff e9bb 0b08 3a3e abb5 3dbe
00000260: 3237 a73d 8335 883c bc1c f03d 1579 83bd
00000270: 4bb1 983d 95b7 3b3c a4fd 2d3d 6634 6d3e
00000280: a60b ffbc 4376 25bd 6f64 67bc 8b80 ac3e
00000290: 8a19 9b3d 028b 12bd 63d7 15be 1006 0abc
000002a0: 8773 09bd ea4d efbc 0a91 cabd 0f77 acbd
000002b0: d893 fd3c 70a2 5bbe 27d5 783d b0bc bb3d
000002c0: e740 eebd 8c0f c33d 6675 d63d be8b fa3d
000002d0: cd8f 2cbd 542e 243d 0b8a 14be 3492 013e
000002e0: a506 fa3c dcbd fa3d 171a 17be 180b a7bd
000002f0: 32e4 2cbe 15ab 5e3e f1f7 f7bc b07b 203e
00000300: dd34 06be 3e14 a23d 0317 54bd 001b 5fbd
00000310: 838b a9bd fb8c 8b3c 3f6a 093e 79b7 223e
00000320: b189 c33d b14f 5c3d fe7e bdbd d840 1e3e
00000330: f1fe 663d 6751 e53b 9c6f 2abe 28a3 b7bd
00000340: 506a d73d 19ee bdbd 15dd 3b3e 9705 f03c
00000350: cf90 003e ad13 15bd 708f b1bd 0fff 48be
00000360: c1b1 77bd b8a0 b33d 656e 273d 3386 a5bc
00000370: 757d 91bd 2848 1fbe 96e1 5e3d 9a29 b4bd
00000380: 7d5e e03d f285 523e b895 163e ad9c 3b3d
00000390: ffb4 ff3c c1ad fa3d 3f35 ea3d 8c4e 59bd
000003a0: 40bd 8dbd 0368 5bbd 4da6 0b3e bb13 f23d
000003b0: ac49 00bd d72e 65be c9e2 bfbd 118b b53c
000003c0: c357 b4bd 8825 0c3d 32e1 06be 870d 02bb
000003d0: ce2a f5bd 7782 3a3c a7dd 3dbd 1a29 17be
000003e0: 63b4 1f3c 2c44 5b3d 230e 92bd d4e8 0f3e
000003f0: 4c58 d8bd 3195 2f3e 2d22 bcbd 84ad 3a3d
0.32208085 0.050046925 0.1148226 -0.1255197 0.13452373 0.00079659454 -0.12162891 -0.27222466
0.028119354 -0.08710253 0.017777981 0.10570569 -0.18001215 -0.124153644 0.17689067 0.15645047
0.1636564 -0.06298747 -0.094713375 0.005980942 -0.08022306 0.2189243 -0.04004582 0.015366908
-0.24386707 0.20387445 -0.058016144 0.11972599 0.15457842 0.09685222 -0.17766488 -0.03812743
0.09147502 -0.13620307 0.06714683 0.04500606 0.04567355 0.05064618 -0.07602915 0.07653142
0.13484979 -0.042498253 0.008254166 -0.050362386 -0.043154042 0.22432326 0.06843128 0.08414578
-0.0607 0.08232377 -0.1740463 -0.1073966 0.056482214 0.08718626 0.12768048 0.12803766
0.118078575 0.049618527 0.0827267 0.008151403 -0.022486115 -0.04104934 -0.109980024 0.12505695
0.18163447 -0.09691223 -0.080294855 -0.00095285545 -0.011679505 0.09249572 -0.10022863 0.104549475
0.05032888 0.19324829 0.09513826 -0.12850589 0.13764288 -0.036241528 -0.121833615 -0.1516216
0.022942806 -0.08662399 0.25645632 0.0012406139 -0.079831555 0.09761044 0.104595445 0.13486363
-0.1520697 -0.09297697 0.14807183 0.1867067 -0.15660812 -0.13840422 -0.07322358 0.13470757
0.16018167 -0.13164563 -0.07556877 -0.037964944 -0.052456517 -0.116056524 -0.12006534 -0.025490338
0.07178808 -0.012347141 0.043884765 0.11106622 -0.14725398 0.22647128 0.0071447366 -0.20868431
-0.012128974 -0.080472395 -0.19126977 0.059217557 -0.020053396 0.05777876 0.06993331 0.021029124
0.14993761 0.072859645 0.06140288 0.011391232 0.122834794 0.04425338 0.03589488 -0.027956557
0.14976378 0.2099118 0.09406069 -0.051918518 0.11684529 -0.08472894 -0.028830059 0.23379256
-0.17211771 -0.09589594 -0.052724093 -0.059483077 0.105828054 0.117135674 -0.10047238 -0.13154145
-0.016068665 0.032930914 0.014809628 -0.002918957 -0.09674232 -0.007141034 0.1816713 -0.18526332
0.081648245 0.016627079 0.11724231 -0.06419579 0.07455691 0.011457344 0.04247822 0.2316452
-0.031133484 -0.040395986 -0.014123066 0.3369182 0.075732306 -0.0357771 -0.14632945 -0.008424297
-0.03355744 -0.029211957 -0.09890945 -0.08421146 0.030954286 -0.21448684 0.060750153 0.09166849
-0.11633473 0.0952445 0.10471611 0.12233685 -0.042129327 0.040083244 -0.14505784 0.12653428
0.030520746 0.12243244 -0.14756046 -0.08156413 -0.16883925 0.2174495 -0.030269595 0.15672183
-0.13106103 0.07914017 -0.05177976 -0.05446911 -0.08278563 0.017034998 0.13419436 0.15890302
0.09547747 0.053786937 -0.092527375 0.15454423 0.056395475 0.0069982293 -0.16644138 -0.089666665
0.105183244 -0.09273929 0.18346055 0.02929954 0.1255524 -0.036395717 -0.08669937 -0.19628547
-0.060472254 0.08770889 0.040876765 -0.020205593 -0.07104007 -0.15554869 0.054414354 -0.08796997
0.10955522 0.20558909 0.1470555 0.045803715 0.031214235 0.12240172 0.11435937 -0.053053424
-0.06920862 -0.05356599 0.13637657 0.118201695 -0.03132026 -0.22381149 -0.09369428 0.022161039
-0.08805802 0.03421548 -0.13171843 -0.0019844489 -0.11971055 0.011383644 -0.046353962 -0.14761773
0.009747597 0.05353181 -0.071316026 0.1405366 -0.10563716 0.17146756 -0.09186206 0.045575634

pointer.fc2.bias f4 [128]
00000000: 4b81 023e 03ae b6bc 4b47 f63c f04a ce3d
00000010: a1f5 84bc da12 b83d 363d e5bc 3131 953d
00000020: 6390 89bd 2c78 be3d a938 1fbe b631 913d
00000030: 1d4b 9e3d bece b73d 88ea 02bc 1a36 e0bd
00000040: e112 e63d f055 c83d ac25 8d3c ae68 ac3b
00000050: 77ae c1bc 22a6 eabc 0aea e93d ffd9 d53d
00000060: e2f6 963d c646 063d da8b 3c3d 660c b43d
00000070: 422b 64bd 7331 83bd 6ff8 013e fa41 98bd
00000080: ab6e 633d 6971 ef3d 3995 61bd b3e9 e2bc
00000090: 6de5 453c c466 31bd 9cf8 1abd c7f4 a03d
000000a0: 7df4 d73d 38a0 1f3c 154b 963d 4ee8 f73c
000000b0: 4703 233d e6e8 05be 24e5 143e c163 e6bc
000000c0: c81b 61bb a71b 373d c158 333c 94ee 2fbd
000000d0: 71f7 88bd fb5b 193d 03a9 5abd 0df5 3339
000000e0: 339f b23c 0566 863d 58b6 bd3d 80aa 3abd
000000f0: 72e7 5e3d f97c 8bbd 916b 3b3d 6862 3bbd
00000100: ec0d 0e3d 79ff 413d 91a1 02bd a54e 89bc
00000110: 9a4a 89bd 2942 133d 5bd3 23bc 1c43 38bd
00000120: 1301 ef3a 2933 f5bc bebe 87bd f08e 043e
00000130: b060 69bb 3133 773d b379 bd3d ce1c 48bd
00000140: b4b3 dcbd f9f8 7abd ed19 44bc 3684 bc3d
00000150: 6b9b b43d 266a 3cbd 38f5 61bd 947c 263a
00000160: 3965 18bd 8634 acbd 53e6 3abd e858 9f3d
00000170: e0fb dbbd aa71 3d3d 5058 173d 9ae2 a43c
00000180: 13b4 ac3d 8b27 88bb be64 2f3d 6d1b 923c
00000190: 2605 193d 1860 903d bfd9 863d cfc2 d03d
000001a0: 1736 3a3d bbeb a73d c470 953d 3205 90bd
000001b0: 762f 00be 02f3 543d 3e08 75bc b212 713c
000001c0: 1776 8bbb 3f9f cd3d fe7b 3a3c 76d6 343d
000001d0: ec88 903d a333 d13c 8bd6 2c3d 873d 1dbc
000001e0: 1d3f 813d e459 363d 5565 37bd 8571 44bd
000001f0: c897 e33d 96dc 0ebd 284a ab3d 4b2f df3d
0.12744634 -0.022299772 0.030063292 0.10072887 -0.016230406 0.08987971 -0.02798329 0.07284773
-0.06716993 0.09300265 -0.15548958 0.0708956 0.077291705 0.0897498 -0.007990487 -0.10947819
0.112340696 0.09782016 0.017229877 0.005261502 -0.023642762 -0.028643671 0.114215925 0.1044197
0.07371308 0.03278234 0.04603181 0.08791427 -0.055705316 -0.06405916 0.12692426 -0.07434459
0.055525463 0.11691553 -0.05507395 -0.027699327 0.012078625 -0.043310896 -0.03783475 0.078591876
0.10544679 0.009742789 0.073385395 0.030262139 0.039798047 -0.13077125 0.14540535 -0.028123738
-0.0034348834 0.044704106 0.010946454 -0.042952135 -0.06687821 0.037441235 -0.05338384 0.00017162059
0.021804428 0.065624274 0.09263295 -0.045572758 0.054419942 -0.06810946 0.04575688 -0.045748144
0.034681246 0.04736278 -0.031892363 -0.016761133 -0.06703682 0.035951767 -0.009999122 -0.044985875
0.0018234573 -0.029931622 -0.06628178 0.12945151 -0.0035610609 0.060351554 0.09251728 -0.048855595
-0.10776463 -0.061272595 -0.011969072 0.09204905 0.08818706 -0.04599967 -0.0551655 0.0006350961
-0.03720591 -0.084084556 -0.04562981 0.077806294 -0.10741401 0.046250977 0.036949456 0.020127583
0.08432784 -0.0041551045 0.042820685 0.017835343 0.037358426 0.070495784 0.065845005 0.10193407
0.04546174 0.08199259 0.07296899 -0.07032241 -0.12518105 0.051989563 -0.014955578 0.01471393
-0.0042560208 0.100401394 0.011382101 0.04414984 0.07057366 0.025537318 0.04219679 -0.009597189
0.06310866 0.04451932 -0.044774372 -0.047959823 0.11112934 -0.034878336 0.083637536 0.10897692
