trained_models/cvrp/altr_C_50/model_incumbent_vrpRl13_C_ALTR_50_P_0.25_52833.pt (torch_old, 469732 bytes, 15 tensors)

all_embed.embed.weight f4 [128, 4]
-0.68451095 -0.09512012 0.23140013 0.00048140672 0.62064314 -0.12334064 -0.09362175 -0.11650833
-0.18258119 0.031235129 0.18119144 -0.113729715 -0.43743578 0.44149357 0.27201492 -0.040500797
-0.17070194 0.3981646 -0.7543579 0.33616018 -0.089530975 0.024540827 0.107269764 -0.04100187
-0.30911422 -0.35673025 0.16379078 -0.00754712 0.48659942 -0.42166528 -0.10115626 0.21177752
-0.45492604 0.01022722 0.17604151 0.32544443 -0.111670755 0.20176572 0.08764541 -0.17938389
1.0066004 0.54596615 0.19933729 0.05376932 0.54133 0.8987608 -0.12242768 0.08734717
0.5415188 0.4930369 0.35076594 0.19218154 -0.15653926 0.13221416 -0.020834386 -0.10421555
0.092918664 0.10075182 0.112231195 -0.14194545 0.2976364 -0.5351841 0.02926281 0.006351052
-0.12872812 0.00623128 -0.34519744 -0.13834892 -0.086150266 0.057528764 -0.35498643 -0.29693082
0.053504035 -0.6015457 -0.28102395 0.10301595 -0.027339224 -0.006297226 -0.013976315 -0.26421764
-0.06627427 -0.5267544 -0.058505792 0.077710144 0.2881906 0.025235582 -0.2513547 -0.116324045
-0.12336618 -0.019282818 0.024352178 -0.079036534 0.12142229 0.6962573 -0.14375767 0.21681687
-0.22191507 0.287581 -0.63001454 0.27941665 -0.08435948 0.84232706 -0.32564437 0.2491703
-0.14503463 0.68826014 0.25858474 0.28753352 -0.11553335 -0.12488023 -0.085174754 0.017964214
0.16036692 0.14249994 -0.2590272 -0.18416989 0.47253022 -0.6153244 -0.28469425 0.19365811
0.069409296 0.19313337 -0.29638183 -0.34148523 0.18797211 0.14744152 -0.47986713 -0.48532078
0.07689757 0.302219 -0.40019226 -0.46516714 0.6287843 -0.3879195 -0.11386847 0.02646164
-0.08003564 -0.19068898 -0.051449582 -0.029929683 -0.030215748 -0.7480649 -0.12930964 0.056290355
0.823012 -0.05633281 -0.29370674 0.12161134 -0.27986348 0.476492 -0.1297781 -0.090164326
0.8061042 0.05880213 0.060343917 -0.0492309 0.7011192 0.19897977 0.08890583 -0.10694734
-0.1221854 -0.0005389303 0.17983183 -0.03194429 -0.19162928 -0.14383674 -0.0024545789 -0.087118104
0.2910689 -0.5217411 -0.21334979 -0.04434043 0.048128188 0.012481123 -0.026279971 -0.16162056
-0.04652899 0.41486216 -0.35112247 -0.29732162 0.44990328 0.91254574 -0.078864634 -0.07523022
0.7297001 -0.19600649 -0.26596877 0.23646039 -0.23073576 0.64040375 -0.32897368 0.20158584
0.1681413 -0.04607585 0.027277797 -0.060892507 0.11222106 0.02293086 0.08019629 -0.1036423
0.24907753 -0.5524095 -0.26282945 0.13554083 -0.07160171 0.7456914 0.12974697 0.087017946
0.7723448 0.78148335 -0.23607469 0.14510325 -0.2028263 -0.37432212 0.22851269 0.48543787
0.15490001 0.2562727 -0.2437408 -0.2652115 -0.24637878 0.38636887 0.45235032 0.35054335
-0.42628518 0.16381432 -0.19822308 -0.03420356 -0.06485714 -0.05015245 0.060274184 -0.036777794
-0.06291951 0.09276745 0.12152167 -0.18714839 0.77906513 0.11275956 -0.20486507 0.21103795
-0.0061297137 0.051710986 -0.27767023 -0.34923783 -0.05261576 -0.151268 0.16619533 0.011515334
-0.17543003 0.5171133 -0.640732 0.2928876 0.5429022 -0.2587479 0.22032276 0.16719393
00000000: 1c3c 2fbf 56ce c2bd 28f4 6c3e 5165 fc39
00000010: 78e2 1e3f 049a fcbd c3bc bfbd eb9b eebd
00000020: 90f6 3abe d0e0 ff3c 408a 393e 20eb e8bd
00000030: 95f7 dfbe 720b e23e 8a45 8b3e 2ae4 25bd
00000040: 7dcc 2ebe 3bdc cb3e 991d 41bf 301d ac3e
00000050: 045c b7bd d809 c93c 40b0 db3d 94f1 27bd
00000060: 3844 9ebe 59a5 b6be c5b8 273e d54d f7bb
00000070: 8f23 f93e 83e4 d7be 032b cfbd 35dc 583e
00000080: 11ec e8be 1290 273c 3a44 343e a7a0 a63e
00000090: a3b3 e4bd ac9b 4e3e 707f b33d 69b0 37be
000000a0: 48d8 803f 70c4 0b3f 131f 4c3e 383d 5c3d
000000b0: 9a94 0a3f 3015 663f 5dbb fabd 13e3 b23d
000000c0: faa0 0a3f 556f fc3e 9897 b33e 3dcb 443e
000000d0: d44b 20be 2663 073e e0ac aabc f66e d5bd
000000e0: 244c be3d f856 ce3d 78d9 e53d 265a 11be
000000f0: cc63 983e d301 09bf 8fb8 ef3c 7c1c d03b
00000100: 4ed1 03be c42f cc3b b8bd b0be 57ab 0dbe
00000110: 8d6f b0bd 48a3 6b3d c8c0 b5be 5107 98be
00000120: 0c27 5b3d e6fe 19bf 5fe2 8fbe 07fa d23d
00000130: 82f6 dfbc f658 cebb eafc 64bc 8947 87be
00000140: ceba 87bd 60d9 06bf c5a3 6fbd 7f26 9f3d
00000150: b88d 933e daba ce3c 90b1 80be 4d3b eebd
00000160: 68a7 fcbd 00f7 9dbc 387e c73c e8dd a1bd
00000170: 40ac f83d eb3d 323f 3635 13be 3e05 5e3e
00000180: b43d 63be d13d 933e a248 21bf b30f 8f3e
00000190: aac4 acbd bfa2 573f dcba a6be 8026 7f3e
000001a0: f583 14be d131 303f 3865 843e 9837 933e
000001b0: c09c ecbd 35c1 ffbd 1a70 aebd b029 933c
000001c0: 3a37 243e 81eb 113e 379f 84be 0897 3cbe
000001d0: 7bef f13e e685 1dbf 72c3 91be 504e 463e
000001e0: 7626 8e3d c1c4 453e 5cbf 97be 27d7 aebe
000001f0: c37b 403e e9fa 163e 25b1 f5be f77b f8be
00000200: 797c 9d3d 73bc 9a3e 00e6 ccbe 632a eebe
00000210: 02f8 203f 629d c6be df33 e9bd 15c6 d83c
00000220: bae9 a3bd f943 43be ccbc 52bd 182f f5bc
00000230: 0487 f7bc 2e81 3fbf bf69 04be b790 663d
00000240: eab0 523f 3cbd 66bd bb60 96be 5e0f f93d
00000250: 444a 8fbe c2f6 f33e 8de4 04be 13a8 b8bd
00000260: d85c 4e3f 81da 703d 2f2b 773d 57a6 49bd
00000270: 8c7c 333f 5ac1 4b3e 4314 b63d 3507 dbbd
00000280: 573c fabd 0047 0dba d625 383e 04d8 02bd
00000290: 773a 44be f049 13be 00dd 20bb fa6a b2bd
000002a0: fc06 953e d390 05bf 5e78 5abe 509e 35bd
000002b0: 1022 453d a07d 4c3c 1849 d7bc dc7f 25be
000002c0: 2f95 3ebd d068 d43e 53c6 b3be 8a3a 98be
000002d0: b959 e63e 999c 693f c883 a1bd 4d12 9abd
000002e0: a0cd 3a3f edb5 48be 0f2d 88be ac22 723e
000002f0: ff45 6cbe 80f1 233f 3d6f a8be 856c 4e3e
00000300: 3c2d 2c3e 08ba 3cbd b075 df3c 6c6a 79bd
00000310: 28d4 e53d 80d9 bb3c f43d a43d 6a42 d4bd
00000320: 2e0e 7f3e b66a 0dbf 9591 86be 37cb 0a3e
00000330: eba3 92bd a2e5 3e3f 64dc 043e 7736 b23d
00000340: 64b8 453f 4b0f 483f 90bd 71be f295 143e
00000350: b3b1 4fbe 26a7 bfbe 3bff 693e 508b f83e
00000360: 1c9e 1e3e 2d36 833e 3097 79be cdc9 87be
00000370: b84a 7cbe 24d2 c53e 769a e73e 6b7a b33e
00000380: 0d42 dabe f1be 273e fefa 4abe 0819 0cbd
00000390: d2d3 84bd a86c 4dbd 10e2 763d 50a4 16bd
000003a0: f2db 80bd dcfc bd3d 5ae0 f83d d4a3 3fbe
000003b0: d070 473f 7cee e63d 26c8 51be 551a 583e
000003c0: c4db c8bb e6ce 533d cb2a 8ebe 4dcf b2be
000003d0: a083 57bd 00e6 1abe 1c2f 2a3e d0aa 3c3c
000003e0: eea3 33be 8a61 043f 0307 24bf 5df5 953e
000003f0: a3fb 0a3f 9b7a 84be 4a9c 613e e334 2b3e

all_embed.embed.bias f4 [128]
0.67553395 0.33731738 -0.36729634 0.3733781 -0.36156994 -0.049191177 0.5720444 0.41020253
0.052257564 -0.38132173 0.5004647 0.19863115 -0.101320095 -0.46246535 -0.28063107 0.46467566
0.49150223 0.1506716 0.49559963 0.14968964 0.46764547 -0.061839934 -0.06725079 0.14163758
-0.19058584 -0.03931082 0.3328604 -0.1059798 -0.09574543 0.350918 0.054094106 0.027998453
0.035265826 0.27491146 -0.16969568 0.6783438 0.37489477 0.36024082 0.08825858 0.15626626
-0.16797459 -0.08972973 0.5307582 -0.46141464 0.05406664 0.057524193 0.11717683 0.0025326253
-0.45454144 -0.46915329 0.34528446 0.12478088 -0.3780188 -0.07034583 -0.11639267 -0.43728948
0.58898294 -0.21865302 -0.15856358 0.15579338 0.0082563665 -0.44647473 -0.20332922 0.4393744
0.3259665 0.08263317 -0.07446541 0.37717003 -0.49512184 0.20600589 -0.3755319 -0.014546561
0.32655972 -0.125034 0.099231824 0.020028764 0.053967986 0.4400934 -0.55994916 -0.3749712
-0.37717468 0.32504317 0.31886005 0.6386569 0.45289198 0.21279599 0.41469842 -0.3977001
-0.37583342 0.3755446 0.5130338 0.24306434 0.29323694 0.25011998 -0.39814913 0.602449
0.46575323 0.49327567 0.32843295 0.5255375 -0.4199056 0.09780794 -0.42623347 0.17552584
0.040967613 0.1805914 0.43784302 0.31256938 -0.42975903 0.3148161 0.13237569 -0.36920908
-0.053409237 0.615371 0.12907632 -0.43737274 0.4489232 0.24638182 0.66517854 -0.29926896
0.38887087 0.40519512 -0.22326575 -0.06435987 0.4062799 0.32227588 -0.23622069 -0.49481922
00000000: cbef 2c3f ddb4 ac3e 440e bcbe 6a2b bf3e
00000010: b21f b9be b07c 49bd 8071 123f 1106 d23e
00000020: 070c 563d 9a3c c3be 741e 003f f765 4b3e
00000030: e980 cfbd 42c8 ecbe e0ae 8fbe f8e9 ed3e
00000040: 2ea6 fb3e a849 1a3e 3cbf fd3e 3e48 193e
00000050: 3a6f ef3e df4b 7dbd c8ba 89bd 7109 113e
00000060: ef28 43be 6204 21bd ae6c aa3e f00b d9bd
00000070: 2e16 c4bd 86ab b33e c891 5d3d 035d e53c
00000080: e672 103d 32c1 8c3e b4c4 2dbe f0a7 2d3f
00000090: 35f2 bf3e 7c71 b83e eac0 b43d 4304 203e
000000a0: 8801 2cbe 38c4 b7bd c5df 073f 8a3e ecbe
000000b0: fb74 5d3d 7d9e 6b3d 68fa ef3d 67fa 253b
000000c0: a8b9 e8be dc34 f0be 20c9 b03e 1e8d ff3d
000000d0: ae8b c1be 7911 90bd 485f eebd 68e4 dfbe
000000e0: 96c7 163f 94e6 5fbe 7e5e 22be 4d88 1f3e
000000f0: b645 073c 5698 e4be 8935 50be aef5 e03e
00000100: 15e5 a63e 943b a93d 5281 98bd 6e1c c13e
00000110: 9c80 fdbe 35f3 523e b845 c0be b354 6ebc
00000120: d632 a73e ea08 00be 0e3a cb3d 5d13 a43c
00000130: 890d 5d3d ec53 e13e d458 0fbf 3afc bfbe
00000140: 0a1d c1be 0f6c a63e a041 a33e 057f 233f
00000150: 75e1 e73e 31e7 593e 5a53 d43e 599f cbbe
00000160: 3d6d c0be 6247 c03e 2f56 033f dce5 783e
00000170: 2723 963e ba0f 803e 34da cbbe 193a 1a3f
00000180: 3577 ee3e a18e fc3e 5d28 a83e a089 063f
00000190: defd d6be 874f c83d 463b dabe 0cbd 333e
000001a0: a8cd 273d f4ec 383e f62c e03e 1809 a03e
000001b0: 6009 dcbe 932f a13e 7e8d 073e f908 bdbe
000001c0: a5c3 5abd f488 1d3f 952c 043e 52ef dfbe
000001d0: 43d9 e53e 844b 7c3e 2449 2a3f c839 99be
000001e0: 151a c73e bc75 cf3e c79f 64be 1ccf 83bd
000001f0: eb03 d03e 5801 a53e d6e3 71be f258 fdbe

all_embed.embed_2.weight f4 [128, 128]
0.46763134 0.017425912 0.052489787 0.063291505 0.15177786 -0.07126173 0.5256851 0.04233948
0.17910373 0.057064503 -0.23803437 -0.10709164 -0.19780643 -0.15015037 0.005781293 0.09502829
-0.0073493263 0.20513476 0.355061 0.14257003 0.5671165 -0.032084063 -0.11889094 -0.1060527
0.072389394 0.07600862 -0.09844868 -0.107542016 -0.013880254 0.2657098 0.23876448 0.0648758
0.04933762 0.13303287 0.069257185 0.3822901 0.11256266 -0.096260644 -0.33588472 -0.35239622
0.11920594 0.13261591 0.061604135 -0.038819067 -0.083193585 -0.28997254 0.07431694 0.040393937
-0.09700177 0.050717667 0.049383614 0.00057220587 -0.27512738 0.41595316 -0.008087087 0.18187767
-0.015464781 0.13290702 -0.07279807 -0.15345234 0.15649779 -0.014729485 -0.05782325 0.13375108
-0.23572157 0.10156245 -0.20766759 -0.019984135 0.018917367 -0.3443656 0.055435807 0.011233312
-0.003075862 -0.39621827 -0.08075519 -0.050306838 0.16863148 0.30611154 -0.13621302 0.4202196
0.062724024 0.010450415 -0.30278638 0.35177258 0.1136449 -0.11273238 0.16332358 0.25728637
0.2408666 0.18619652 -0.04642704 -0.06467992 0.050228234 -0.008392811 0.00392662 0.20582166
-0.25957707 0.099025585 0.089338824 0.13099541 -0.052751355 -0.042715613 -0.07267666 0.16072714
0.08301074 -0.07825463 0.0021630086 0.20426242 0.023932874 0.22868676 0.19623451 0.14226083
0.011292982 0.3860433 0.042000763 -0.119241565 -0.15416196 0.015064948 0.26266664 -0.08074211
0.29482147 -0.09533552 -0.18495198 0.19860138 -0.15872261 -0.2971694 0.40534955 -0.06884032
-0.14105128 0.037085067 0.024403974 0.02659894 0.34587815 0.10764058 0.050727583 0.008608266
0.1272537 0.043288648 0.038328167 -0.07086444 -0.105457 0.03313014 0.098233745 -0.09648463
0.16945983 -0.16505064 -0.065563545 -0.12105966 -0.17963855 -0.040250685 0.09726079 0.07785494
0.21518879 0.06801362 0.06822913 0.06823696 -0.16598958 -0.13746127 -0.068459444 -0.03972041
-0.17665428 0.079402484 0.14033125 0.046499025 -0.11888031 -0.030942136 0.09655201 0.03226159
-0.023476973 0.01583302 -0.04951295 0.12842007 0.011812648 -0.13773598 -0.11437882 -0.057119295
-0.030546598 0.007518634 -0.035733823 0.11091669 0.10490974 0.15114313 -0.15383673 0.1793972
-0.207643 -0.080283195 -0.14792456 -0.13658716 -0.24858068 0.13289519 0.10858763 0.04464016
-0.15701851 0.0077876765 -0.024396459 -0.01583861 -0.10792941 0.03519254 -0.0147496015 0.18110372
0.059477277 0.0753553 -0.013818992 0.096234925 -0.12681732 0.07381312 0.27912313 0.2428676
-0.060146198 -0.084269956 -0.044879023 0.077672295 0.121832654 -0.02725658 -0.029386677 0.11745894
-0.24160832 0.11472012 0.12691829 -0.05816947 0.100064665 -0.08025453 0.100779995 -0.16194622
-0.07304189 -0.1865771 0.10921628 -0.035202093 0.0048506856 0.10309979 -0.08262552 -0.23234396
-0.23110293 -0.11664198 -0.11001532 -0.08091033 -0.09966807 -0.17450602 0.048898336 0.106575914
0.17196478 -0.11848644 -0.05583313 -0.061865814 -0.08301364 0.026153555 0.037933104 -0.11576165
-0.18084584 0.08745171 0.2025965 -0.101733334 -0.07638038 0.019325724 0.27388445 -0.03037072
00000000: 606d ef3e c9c0 8e3c 88ff 563d fa9e 813d
00000010: a86b 1b3e abf1 91bd 4c93 063f 2a6c 2d3d
00000020: f866 373e 78bc 693d 48bf 73be dd52 dbbd
00000030: c58d 4abe 05c1 19be 0071 bd3b 319e c23d
00000040: 9ed2 f0bb d90e 523e 8eca b53e e1fd 113e
00000050: 8c2e 113f 946a 03bd 187d f3bd 2832 d9bd
00000060: e440 943d 68aa 9b3d 769f c9bd fd3e dcbd
00000070: 016a 63bc 1d0b 883e ad7e 743e 9add 843d
00000080: 3f16 4a3d c539 083e b6d6 8d3d 87bb c33e
00000090: 4087 e63d 4d24 c5bd 15f9 abbe 476d b4be
000000a0: 3e22 f43d 77cc 073e 9e54 7c3d be00 1fbd
000000b0: 6661 aabd 4877 94be 7b33 983d 1d74 253d
000000c0: dda8 c6bd 54bd 4f3d 7946 4a3d 1600 163a
000000d0: 7fdd 8cbe d0f7 d43e b47f 04bc 243e 3a3e
000000e0: fe5f 7dbc c718 083e 2817 95bd 9c22 1dbe
000000f0: f540 203e f053 71bc 12d8 6cbd 0bf6 083e
00000100: ff60 71be f9ff cf3d d0a6 54be c5b5 a3bc
00000110: 98f8 9a3c b050 b0be a810 633d ed0b 383c
00000120: 6794 49bb 1fdd cabe fa62 a5bd 8b0e 4ebd
00000130: bbad 2c3e a7ba 9c3e 6d7b 0bbe 0627 d73e
00000140: 7475 803d 3838 2b3c d106 9bbe 891b b43e
00000150: a8be e83d 3ce0 e6bd 4c3e 273e 0abb 833e
00000160: bca5 763e 4daa 3e3e 482a 3ebd e876 84bd
00000170: 1fbc 4d3d 0082 09bc e0aa 803b eac2 523e
00000180: 49e7 84be edcd ca3d 46f7 b63d a923 063e
00000190: ce11 58bd 91f6 2ebd 80d7 94bd a895 243e
000001a0: 8901 aa3d f743 a0bd 43c1 0d3b 2b2a 513e
000001b0: e00e c43c dd2c 6a3e b3f1 483e d3ac 113e
000001c0: 3306 393c 78a7 c53e fe08 2c3d ec34 f4bd
000001d0: a2dc 1dbe f9d2 763c 3e7c 863e 1f5c a5bd
000001e0: d7f2 963e 453f c3bd 0d64 3dbe 295e 4b3e
000001f0: 2e88 22be 9626 98be fa89 cf3e 27fc 8cbd
00000200: bf6f 10be 83e6 173d d8ea c73c 05e6 d93c
00000210: f116 b13e aa72 dc3d bac7 4f3d af09 0d3c
00000220: cb4e 023e 704f 313d fffd 1c3d 6021 91bd
00000230: d7f9 d7bd 78b3 073d c62e c93d bc99 c5bd
00000240: e186 2d3e 0903 29be 2e46 86bd 21ee f7bd
00000250: 2bf3 37be e7dd 24bd aa30 c73d 6972 9f3d
00000260: 735a 5c3e ba4a 8b3d b7bb 8b3d d2bf 8b3d
00000270: 2cf9 29be a6c2 0cbe 7734 8cbd deb1 22bd
00000280: dce4 34be c59d a23d ffb2 0f3e c375 3e3d
00000290: 8577 f3bd 5d7a fdbc 0fbd c53d bb24 043d
000002a0: c852 c0bc 40b4 813c 17ce 4abd 8d80 033e
000002b0: d689 413c a90a 0dbe 713f eabd ecf5 69bd
000002c0: dc3c fabc e05e f63b a15d 12bd 4a28 e33d
000002d0: ebda d63d 44c5 1a3e 6087 1dbe e6b3 373e
000002e0: 5ea0 54be 846b a4bd 8979 17be 81dd 0bbe
000002f0: ef8b 7ebe ad15 083e 3163 de3d 9ad8 363d
00000300: 76c9 20be c42f ff3b 15db c7bc f9bf 81bc
00000310: 180a ddbd 0e26 103d 50a8 71bc 4173 393e
00000320: 729e 733d e153 9a3d 0e69 62bc d116 c53d
00000330: 66dc 01be 552b 973d 3ae9 8e3e 49b2 783e
00000340: dc5b 76bd ba95 acbd 11d3 37bd a712 9f3d
00000350: 6683 f93d 3149 dfbc 54bc f0bc 508e f03d
00000360: 2c68 77be 62f2 ea3d def6 013e 1c43 6ebd
00000370: b4ee cc3d 7d5c a4bd be65 ce3d 3bd5 25be
00000380: fd96 95bd 110e 3fbe c9ac df3d 1230 10bd
00000390: 80f2 9e3b fc25 d33d 9237 a9bd 93eb 6dbe
000003a0: 3fa6 6cbe fee1 eebd b64f e1bd 51b4 a5bd
000003b0: c61e ccbd b5b1 32be 9f49 483d 7944 da3d
000003c0: 8917 303e 05a9 f2bd 48b1 64bd 0267 7dbd
000003d0: 0e03 aabd fb3f d63c be5f 1b3d 7214 edbd
000003e0: a72f 39be e219 b33d 7575 4f3e 9159 d0bd
000003f0: 516d 9cbd fb50 9e3c 953a 8c3e 04cc f8bc

all_embed.embed_2.bias f4 [128]
0.111998394 -0.044505633 0.07289846 0.036767196 0.058113255 -0.1468686 -0.01019486 -0.0012049869
-0.1405292 0.030741706 0.004291507 -0.24273299 0.0028269365 0.04627278 0.05196198 0.07041808
-0.15441878 -0.21017085 0.04413784 -0.22690964 -0.13041204 0.056895547 -0.026427241 -0.12121427
0.03189003 0.08204195 0.057964597 -0.06334458 -0.05066595 -0.040470805 -0.09444302 -0.090244435
-0.16790757 -0.008081437 -0.15400529 0.0040438483 -0.07660466 0.04442816 -0.014964855 -0.040874552
-0.012389627 -2.243064e-05 -0.09072463 -0.0026926838 -0.104635775 -0.11890943 -0.016676322 -0.114615776
-0.14754526 -0.10838578 -0.08713387 -0.08467021 -0.08320134 -0.07961903 -0.14671215 -0.045738563
0.09402761 -0.20513284 0.01283077 -0.059971884 0.03252411 -0.094085515 0.095794745 0.08575297
-0.052780546 -0.091950454 -0.24792768 -0.02307262 -0.011817962 -0.11641836 -0.06731803 -0.04563801
-0.034054648 0.0055560246 0.07907032 0.043132763 -0.1298736 -0.044512287 0.024033196 0.017101256
0.027984887 0.06655598 -0.12996921 -0.09628774 -0.018314982 -0.021215515 -0.10865727 -0.022120183
0.020125356 -0.12923974 0.07968435 0.11036988 -0.100986354 0.016804218 -0.006681567 -0.10579929
-0.039299026 0.016311612 0.015649013 -0.046433836 -0.1558692 0.04828992 -0.15001012 -0.013079911
-0.020487325 0.0046514864 -0.12126514 0.06432451 0.03492317 0.09656828 -0.13425456 0.0010273842
-0.12584041 -0.03478508 -0.025972385 -0.163115 -0.118237205 -0.013462328 0.036955524 -0.069250815
0.029662557 -0.088866726 -0.115192205 1.0295958e-05 -0.0695603 0.0885778 -0.048610266 0.04306874
00000000: 6a5f e53d 8a4b 36bd ca4b 953d 3399 163d
00000010: 2a08 6e3d b964 16be 5808 27bc a7f0 9dba
00000020: e3e6 0fbe 08d6 fb3c c59f 8c3b ff8e 78be
00000030: 2044 393b 8788 3d3d 16d6 543d 5b37 903d
00000040: f51f 1ebe 0737 57be e1c9 343d 005b 68be
00000050: bc8a 05be 4e0b 693d f17d d8bc 303f f8bd
00000060: 1f9f 023d 9c05 a83d 496c 6d3d ceba 81bd
00000070: 1987 4fbd b7c4 25bd 586b c1bd 13d2 b8bd
00000080: f6ef 2bbe 0168 04bc 90b3 1dbe 4282 843b
00000090: e7e2 9cbd 4dfa 353d 272f 75bc 136c 27bd
000000a0: ddfd 4abc 6f29 bcb7 d6cd b9bd bd77 30bb
000000b0: 484b d6bd ca86 f3bd c89c 88bc adbb eabd
000000c0: 1b16 17be 5df9 ddbd 3e73 b2bd 9367 adbd
000000d0: 7765 aabd 4d0f a3bd b63b 16be 5c58 3bbd
000000e0: 8c91 c03d 580e 52be 2638 523c 14a5 75bd
000000f0: 0038 053d e8af c0bd 0930 c43d 419f af3d
00000100: 6a30 58bd 8550 bcbd c1e0 7dbe cb02 bdbc
00000110: 20a0 41bc c06c eebd 09de 89bd ecee 3abd
00000120: e37c 0bbd 500f b63b 9fef a13d fbab 303d
00000130: 96fd 04be 8452 36bd 44e1 c43c ef17 8c3c
00000140: 9040 e53c 804e 883d a616 05be 8232 c5bd
00000150: 4d09 96bc 29cc adbc b487 debd 6335 b5bc
00000160: eedd a43c 6c57 04be 8c31 a33d 9b09 e23d
00000170: efd1 cebd 00a9 893c 0cf1 dabb 4cad d8bd
00000180: 04f8 20bd ee9f 853c 5c32 803c 6831 3ebd
00000190: 2d9c 1fbe a7cb 453d 419c 19be 1f4d 56bc
000001a0: 09d5 a7bc 7f6b 983b dc59 f8bd 92bc 833d
000001b0: 990b 0f3d 97c5 c53d 077a 09be 4ba9 863a
000001c0: 4fdc 00be cd7a 0ebd 0ac4 d4bc 9e07 27be
000001d0: 5926 f2bd 1991 5cbc ad5e 173d 5fd3 8dbd
000001e0: e4fe f23c c2ff b5bd e4e9 ebbd cebc 2c37
000001f0: a175 8ebd 4768 b53d 8f1b 47bd d968 303d

pointer.v f4 [1, 1, 128]
-1.6346389 0.26844934 -1.5925589 -0.7847802 1.17915 1.4026442 -1.2972113 -0.11415564
-1.6403397 -1.2308592 0.1480287 -1.6129719 0.07931562 -1.5442222 1.556461 -0.29511836
1.628816 1.2739462 -1.6574063 1.2062504 -1.4031336 -0.57137257 0.4244352 1.654071
0.95924 0.045630418 0.01362485 -0.15002337 0.0444258 -1.0426371 -0.9079221 1.1431236
1.2858477 -0.44080445 1.277655 0.12666023 0.97596633 1.1644217 -0.48314318 0.5576369
-1.088452 -1.6662482 -1.2522613 -0.78505033 0.799913 1.2786442 -1.4570484 -1.198259
-1.825832 1.6827365 1.546622 -1.4662724 -1.6025305 -1.4934429 -1.6029631 1.7076057
-1.4670432 1.313812 -1.457739 -1.1296834 -1.4160818 -1.5727311 -0.16602509 -1.2860382
1.8964046 1.9443809 1.0632399 0.043108568 -1.1631057 0.87785286 0.49031577 -1.1382306
-1.4393169 -1.2465682 -0.37661958 1.6473938 1.1586168 1.0976732 -1.9426444 1.4412713
-0.5185162 0.22591068 1.0019028 0.09014387 -1.3298798 -2.184785 1.0253214 1.5215731
-0.8080656 1.3927186 0.14025563 -0.5141845 -1.686385 1.1473993 -0.24482647 1.2992324
1.7505926 -1.4511632 -1.5084611 2.0530682 1.0780507 0.07910849 -1.963744 -0.96382123
1.1909881 1.00044 -1.2039573 1.1296414 -1.3271475 0.3777019 1.5237693 -0.04774442
1.4828367 0.13942897 1.650571 1.1497126 -1.6099756 1.8158885 0.04910587 -0.91124755
0.30999485 1.3015203 0.96776956 1.1203659 -1.6310866 1.8069047 1.6060611 -0.98128617
00000000: d93b d1bf 3172 893e f8d8 cbbf 5be7 48bf
00000010: 63ee 963f d889 b33f 050b a6bf 6fca e9bd
00000020: a7f6 d1bf cb8c 9dbf d694 173e dd75 cebf
00000030: 3a70 a23d 13a9 c5bf 1d3a c73f c119 97be
00000040: 0b7d d03f ab10 a33f e425 d4bf 6a66 9a3f
00000050: e299 b3bf 7945 12bf 924f d93e 99b8 d33f
00000060: c190 753f f6e6 3a3d c33a 5f3c ba9f 19be
00000070: d4f7 353d 2275 85bf 956d 68bf e051 923f
00000080: a896 a43f 1fb1 e1be 338a a33f 38b3 013e
00000090: eed8 793f c50b 953f 8b5e f7be 4bc1 0e3f
000000a0: 6552 8bbf 9f47 d5bf 194a a0bf 0ff9 48bf
000000b0: 19c7 4c3f 9daa a33f 9080 babf 8d60 99bf
000000c0: ddb4 e9bf e963 d73f b6f7 c53f d0ae bbbf
000000d0: b81f cdbf 2329 bfbf e52d cdbf d392 da3f
000000e0: 12c8 bbbf fe2a a83f 3197 babf 7799 90bf
000000f0: 2b42 b5bf 414f c9bf 7b02 2abe e69c a4bf
00000100: 63bd f23f 79e1 f83f 3f18 883f 9c92 303d
00000110: a6e0 94bf f7ba 603f ab0a fb3e 8ab1 91bf
00000120: 893b b8bf 8c8f 9fbf 48d4 c0be cddd d23f
00000130: 8e4d 943f 8e80 8c3f 92a8 f8bf 947b b83f
00000140: 7abd 04bf 2155 673e 5a3e 803f 599d b83d
00000150: 8039 aabf 84d3 0bc0 bb3d 833f e8c2 c23f
00000160: 63dd 4ebf 9a44 b23f 2c9f 0f3e 98a1 03bf
00000170: 77db d7bf fbdd 923f cab3 7abe 3f4d a63f
00000180: 6b13 e03f b7bf b9bf 4115 c1bf 7865 0340
00000190: 91fd 893f a203 a23d f75b fbbf fdbc 76bf
000001a0: 4c72 983f 6b0e 803f 461b 9abf 1798 903f
000001b0: f8df a9bf 2562 c13e df0a c33f a78f 43bd
000001c0: 98cd bd3f 78c6 0e3e e945 d33f c829 933f
000001d0: ae13 cebf 096f e83f 3d23 493d 8547 69bf
000001e0: a5b7 9e3e 3898 a63f bfbf 773f 2668 8f3f
000001f0: 72c7 d0bf a748 e73f 6993 cd3f 9235 7bbf

pointer.encoder_attn.v f4 [1, 1, 128]
-0.11957319 0.09824193 -0.12262378 -0.2754543 -0.12777604 0.08265113 0.18301892 0.16773659
0.10356129 0.16572618 0.073483825 0.17646262 -0.049616747 -0.040714562 -0.1300346 0.1869681
0.096021384 0.35213044 0.60094076 0.08244099 -0.06782624 0.09518794 0.14232594 0.09193488
-0.068673454 -0.16634502 -0.15757886 0.16174775 0.06945987 -0.122963086 0.25591037 0.2639464
0.09694546 -0.09180202 -0.13702574 -0.15141183 -0.11832513 -0.16969705 0.17172994 -0.4919666
0.16011819 0.18016191 0.07343572 0.12719189 -0.04121981 0.09447483 0.100725345 -0.083819985
0.13038759 0.17783244 0.18330126 0.14708872 -0.1127798 -0.10557849 -0.12152819 -0.04772447
-0.19881761 -0.106002785 0.14236641 0.09287293 0.067606755 0.040135596 0.14159782 0.14768046
0.4193904 -0.021680456 0.09508516 0.16455102 0.103289984 0.18339586 0.1755632 0.123876
0.12599319 -0.19219537 0.16741951 0.058011997 -0.15746893 0.10520567 0.051400684 0.09311231
0.24248414 -0.16452444 -0.17560694 -0.0758916 0.15344171 0.06535104 -0.11871544 -0.13479435
0.0588684 -0.1387607 -0.17286524 -0.04170094 -0.04966975 -0.15729932 0.15394747 -0.06920245
-0.08102156 -0.1593068 -0.12626347 0.26672697 -0.12288341 -0.16145822 0.057596423 -0.0851392
-0.13379613 0.05494523 0.057619106 -0.107240364 0.13163128 0.18454154 -0.12679358 0.12029212
-0.10492752 0.0668302 0.14340946 -0.12171857 0.24531357 0.084796764 0.045740332 0.17548434
0.0833693 0.11444599 -0.10491716 -0.17630762 -0.11565362 0.17176789 0.17957763 -0.16729093
00000000: cae2 f4bd 1133 c93d 2d22 fbbd 5908 8dbe
00000010: b9d7 02be ff44 a93d 5069 3b3e 24c3 2b3e
00000020: f117 d43d 20b4 293e b07e 963d 9eb2 343e
00000030: ee3a 4bbd 50c4 26bd ca27 05be 9174 3f3e
00000040: dca6 c43d 714a b43e 41d7 193f d2d6 a83d
00000050: 7ce8 8abd e5f1 c23d e4bd 113e 5b48 bc3d
00000060: aba4 8cbd 5956 2abe 5a5c 21be 34a1 253e
00000070: fa40 8e3d 12d4 fbbd af06 833e fc23 873e
00000080: 578b c63d b302 bcbd 7a50 0cbe b40b 1bbe
00000090: 7254 f2bd 10c5 2dbe f9d9 2f3e 0ce3 fbbe
000000a0: 06f6 233e 5d7c 383e 7765 963d 973e 023e
000000b0: 1ad6 28bd 057c c13d 1749 ce3d d0a9 abbd
000000c0: 5384 053e b519 363e 53b3 3b3e 6d9e 163e
000000d0: 19f9 e6bd 8939 d8bd c6e3 f8bd bc7a 43bd
000000e0: d896 4bbe fd17 d9bd 80c8 113e 2a34 be3d
000000f0: 6975 8a3d 3965 243d 05ff 103e 8c39 173e
00000100: 57ba d63e 369b b1bc 02bc c23d 1080 283e
00000110: b389 d33d 20cc 3b3e d7c6 333e b3b2 fd3d
00000120: 5c04 013e ddce 44be 0570 2b3e fd9d 6d3d
00000130: 893f 21be 1276 d73d 8689 523d abb1 be3d
00000140: c34d 783e 1879 28be 4ed2 33be 0e6d 9bbd
00000150: d31f 1d3e c4d6 853d 1521 f3bd 8807 0abe
00000160: fe1f 713d 4917 0ebe 9603 31be 9bce 2abd
00000170: 8272 4bbd 1313 21be 68a4 1d3e 04ba 8dbd
00000180: a2ee a5bd 5221 23be 364b 01be 7090 883e
00000190: 4caa fbbd 4e55 25be 3aea 6b3d 765d aebd
000001a0: da01 09be 400e 613d 0302 6c3d d6a0 dbbd
000001b0: 5aca 063e 75f8 3c3e 2dd6 01be b75b f63d
000001c0: 3de4 d6bd 46de 883d eed9 123e 9647 f9bd
000001d0: 7b33 7b3e eda9 ad3d 375a 3b3d 2bb2 333e
000001e0: 86bd aa3d a962 ea3d cfde d6bd fc89 34be
000001f0: cedb ecbd ece3 2f3e 33e3 373e 504e 2bbe

pointer.encoder_attn.W f4 [1, 128, 256]
0.04348624 0.05370838 0.027899355 0.24419422 0.12752756 0.03165342 0.09535242 -0.12585817
0.19596012 -0.08756835 0.23810025 -0.03381613 0.24153858 0.14917615 0.06026283 -0.056389462
0.06024841 -0.006484247 0.24269362 0.0023627973 0.13227221 0.2074634 -0.08568576 0.08000944
-0.07663401 0.25139254 0.08339791 0.059692036 -0.24842164 -0.008075644 -0.03607493 0.012353392
-0.025723698 0.034578994 -0.0003975908 0.14923812 -0.11360579 0.04993161 -0.07838245 -0.15006585
0.116093725 0.03554665 0.108228415 0.13053207 -0.044172786 0.03404941 -0.13022698 0.0424804
0.10203499 0.028536178 0.051776532 0.07792112 0.049953632 -0.06236122 0.09417858 0.047186047
0.017367668 0.004143676 0.06122464 0.029815188 0.15129824 0.11948261 0.011316632 0.074351355
0.041583024 0.04054574 0.00913026 0.08603084 0.10513818 0.05292173 0.05925806 0.082853846
0.13831647 0.22095248 0.08785946 0.050452385 0.04125423 0.002479314 0.118083194 0.089196704
-0.09205109 -0.1065861 0.0191165 -0.11879445 0.042551734 -0.047817864 0.03185384 0.120978184
0.08964597 0.03041259 -0.0897798 -0.059250426 0.09840479 0.18865974 0.12038485 0.13299197
0.09873616 0.09101018 0.0029226732 0.20696925 0.0027198186 -0.07044175 -0.02092502 0.048619274
0.08421522 0.24284573 -0.1814333 -0.07246093 0.22908174 0.12275612 0.06294597 -0.011020087
0.052242637 -0.10016618 0.07592989 -0.0024752165 -0.10465786 0.14836538 -0.10022187 -0.033689406
0.29202256 0.043887824 0.09053375 0.054156907 -0.14032227 0.06520431 0.033971865 0.18407129
-0.0056767827 -0.022744296 0.012058245 -0.046485767 -0.14573194 -0.06844351 0.028007103 -0.0010188165
-0.071626514 0.027883869 -0.05312266 -0.12071935 0.0018664746 -0.012759549 0.0005822011 0.02004187
-0.023020148 -0.008527198 0.0015812726 -0.03511757 0.09800001 -0.0044738543 -0.014829376 0.03797887
-0.008834986 0.09355274 -0.04409921 -0.013586601 -0.0058905226 -0.04792209 0.022155946 -0.018713323
0.036666226 -0.14298163 -0.047150336 0.0072695734 -0.07001679 -0.00024096205 -0.027419604 0.013742126
0.008436594 -0.03437953 -0.028610865 0.032904163 0.021864409 -0.055011887 0.026188714 -0.06997703
-0.017550083 -0.046621118 -0.053348843 -0.049533494 -0.04010981 -0.15291703 0.008076587 -0.0025462066
-0.051070854 0.11608183 -0.04249583 0.0048426744 0.019163935 -0.025620075 0.05748236 -0.009230017
0.017105034 0.028960966 -0.027478889 0.086692594 0.021452602 0.043291237 0.03356259 0.05367026
0.08412867 -0.014834935 0.028207418 0.021046141 -0.031405784 0.0138502475 -0.024005728 0.010823956
-0.0006527416 -0.039395906 -0.02546184 -0.039111175 0.0006082561 0.040516917 0.041047353 -0.03631167
-0.019350264 0.037273422 -0.040534604 0.053746123 -0.03912521 0.06389582 -0.11805755 0.095023125
-0.09819082 -0.015612618 0.08965017 0.03186032 -0.037812646 -0.027334183 -0.11168316 0.003908087
-0.003639913 0.008201065 0.103968285 -0.025791394 0.020394033 0.0121671185 0.0058519505 0.0042438223
0.041451685 0.08715452 -0.02217606 -0.020881576 0.012460789 0.0013419607 0.023576597 -0.041902978
-0.010939028 -0.0126639465 0.010606492 0.078296 -0.07558139 0.029952887 0.06877068 0.016908443
00000000: a11e 323d 51fd 5b3d 308d e43c 0d0e 7a3e
00000010: 9696 023e 04a7 013d 2148 c33d f7e0 00be
00000020: c5a9 483e 0957 b3bd 8dd0 733e c882 0abd
00000030: e455 773e a2c1 183e 28d6 763d a3f8 66bd
00000040: 09c7 763d ce79 d4bb ad84 783e 29d9 1a3b
00000050: 5e72 073e 4971 543e 047c afbd fddb a33d
00000060: 4bf2 9cbd 86b6 803e 86cc aa3d a37f 743d
00000070: 3e62 7ebe b54f 04bc 4ec3 13bd e265 4a3c
00000080: 81ba d2bc b4a2 0d3d bc73 d0b9 e1d1 183e
00000090: 27aa e8bd 1685 4c3d fa86 a0bd ddaa 19be
000000a0: 8cc2 ed3d 5d99 113d dca6 dd3d 33aa 053e
000000b0: 86ee 34bd 6577 0b3d 395a 05be eeff 2d3d
000000c0: b9f7 d03d b4c4 e93c a113 543d 1c95 9f3d
000000d0: 2e9c 4c3d 7b6e 7fbd b3e0 c03d 2846 413d
000000e0: a446 8e3c acc7 873b b0c6 7a3d fb3e f43c
000000f0: eded 1a3e 4cb3 f43d 6569 393c 8645 983d
00000100: f652 2a3d 4a13 263d 1697 153c f030 b03d
00000110: b052 d73d 75c4 583d 94b8 723d 47af a93d
00000120: d5a2 0d3e 5e41 623e a9ef b33d 29a7 4e3d
00000130: 32fa 283d fd7b 223b 9ad5 f13d c3ac b63d
00000140: 4885 bcbd d049 dabd 359a 9c3c 814a f3bd
00000150: ba4a 2e3d aadc 43bd 2c79 023d 69c3 f73d
00000160: 4e98 b73d d323 f93c 79de b7bd 93b0 72bd
00000170: 7388 c93d 0530 413e 558c f63d 0c2f 083e
00000180: 2f36 ca3d 8c63 ba3d 528a 3f3b bfef 533e
00000190: fc3e 323b c443 90bd f36a abbc 0125 473d
000001a0: 0779 ac3d 8dac 783e a7c9 39be 6566 94bd
000001b0: 6794 6a3e 9067 fb3d d1e9 803d 988d 34bc
000001c0: 60fc 553d ed23 cdbd 2181 9b3d 3e37 22bb
000001d0: dc56 d6bd 18ed 173e 2041 cdbd e7fd 09bd
000001e0: fb83 953e b8c3 333d c269 b93d a2d3 5d3d
000001f0: a4b0 0fbe d689 853d 1526 0b3d 2f7d 3c3e
00000200: 4e04 babb 3f52 babc f28f 453c dc67 3ebd
00000210: c13a 15be 1c2c 8cbd 276f e53c cf89 85ba
00000220: ecb0 92bd b66c e43c 2597 59bd b53b f7bd
00000230: 7fa4 f43a 6d0d 51bc db9e 183a d92e a43c
00000240: c094 bcbc a9b5 0bbc b442 cf3a 71d7 0fbd
00000250: 3bb4 c83d 6999 92bb e9f6 72bc bb8f 1b3d
00000260: 9ec0 10bc 9498 bf3d 60a1 34bd 569a 5ebc
00000270: 4905 c1bb f449 44bd 6380 b53c af4c 99bc
00000280: 532f 163d c769 12be b620 41bd 9a35 ee3b
00000290: f664 8fbd c2aa 7cb9 149f e0bc a726 613c
000002a0: a439 0a3c 8dd1 0cbd 5561 eabc 84c6 063d
000002b0: fd1c b33c 2554 61bd b789 d63c 1e50 8fbd
000002c0: 31c5 8fbc c9f5 3ebd 5184 5abd a2e3 4abd
000002d0: 2f4a 24bd 4896 1cbe a953 043c 42de 26bb
000002e0: ac2f 51bd 4fbc ed3d 1c10 2ebd 4caf 9e3b
000002f0: affd 9c3c 31e1 d1bc a072 6b3d 7f39 17bc
00000300: db1f 8c3c 8c3f ed3c 681b e1bc e38b b13d
00000310: 5ebd af3c 2752 313d ed78 093d 59d5 5b3d
00000320: a74b ac3d 3a0e 73bc 3e13 e73c f568 ac3c
00000330: 5aa3 00bd 26ec 623c a9a7 c4bc f656 313c
00000340: bf1c 2bba 9a5d 21bd 5995 d0bc 0a33 20bd
00000350: 6073 1f3a 11f5 253d 4521 283d 8cbb 14bd
00000360: 7284 9ebc 04ac 183d 9d07 26bd e524 5c3d
00000370: c241 20bd d0db 823d 28c8 f1bd 7c9b c23d
00000380: 4518 c9bd 11cc 7fbc 829a b73d f87f 023d
00000390: 6fe1 1abd f0eb dfbc 24ba e4bd 690f 803b
000003a0: 9b8b 6ebb c25d 063c 53ed d43d 7948 d3bc
000003b0: 6311 a73c 9858 473c b8c1 bf3b c30f 8b3b
000003c0: 3ec9 293d 127e b23d 92aa b5bc d70f abbc
000003d0: 5628 4c3c bbe4 af3a b523 c13c 75a2 2bbd
000003e0: 9c39 33bc 717c 4fbc dac6 2d3c a759 a03d
000003f0: 6aca 9abd c25f f53c a4d7 8c3d 9383 8a3c

pointer.fc1.weight f4 [128, 256]
0.023069711 0.20024201 -0.08987926 0.063886896 -0.22549915 0.103916235 0.10700715 0.116926394
-0.11350237 0.11266087 0.13152124 0.036672167 -0.053736027 0.17309707 -0.075013414 0.19736472
0.013829142 -0.098807685 -0.051387638 -0.1683451 0.05160064 -0.10293251 -0.19685532 0.030859731
0.19221014 0.12077981 -0.14179192 -0.06885665 -0.023110552 -0.0709524 -0.13324638 -0.064913265
-0.06397572 -0.03873737 -0.065982476 0.006659579 -0.10358904 0.014842397 0.17606764 -0.05128431
0.091459274 0.13843676 0.08718037 0.111493684 0.04334531 0.0010025632 0.10076996 -0.040827192
0.08006967 -0.021378657 -0.019735886 0.11697809 -0.07328508 0.07838296 0.008916512 -0.03978893
0.008324745 0.10532311 -0.15535039 0.033014387 -0.10867558 0.121021405 -0.0305218 0.14572337
0.14959577 -0.1839453 -0.16679265 -0.047820956 -0.104355074 -0.06667372 0.16402441 0.18949433
-0.051034715 -0.10549975 -0.11089802 0.001334663 0.09439283 0.06038504 -0.082004614 0.14555213
-0.061572604 -0.034409095 -0.16467158 0.017790522 -0.033388708 -0.03179034 0.08226214 -0.13925616
-0.02527139 -0.055454146 0.06815153 -0.121590264 0.09641567 0.016598063 -0.06644722 -0.0059559103
-0.060908195 0.033484984 0.21407098 0.023669297 -0.07887001 0.035562064 -0.18137664 -0.021806382
-0.089358546 0.004630274 0.099512346 0.15026289 -0.01871997 -0.08493837 0.08065114 -0.05290705
0.030569844 0.10193285 -0.09770645 -0.07854976 -0.08229512 -0.11357186 -0.06682585 -0.0145531455
-0.072937824 0.108496726 0.0201046 0.17324463 0.0030210586 -0.040405396 -0.012549506 0.040415857
0.095897205 -0.049508028 0.17497233 -0.15801203 0.056969766 0.0034589942 -0.14662011 0.04267513
-0.07521575 -0.08561837 -0.0090644825 -0.07833089 -0.071388975 -0.0036745884 -0.11876295 0.076185174
-0.023706805 0.07454724 -0.017852405 -0.05309607 0.00373884 -0.05187482 0.11540478 -0.03550667
-0.11130125 0.13382953 -0.08355166 0.09707906 0.02158711 0.101443544 0.02372999 -0.121315375
-0.00749984 -0.026170954 0.02109059 0.030082531 -0.0930354 -0.041796878 -0.0737659 -0.036595184
0.081782945 0.07341578 0.020269357 0.009811075 0.13789384 0.08513084 -0.01191614 -0.073536076
0.035707574 -0.08878688 0.088516206 -0.007161152 -0.023621215 0.042814434 -0.06081999 -0.04856408
0.095711105 0.06580301 0.23174572 -0.0148153715 -0.024333999 0.036762904 0.032499995 0.010672556
0.03406816 0.029021315 -0.027328994 -0.011313668 0.10382007 -0.04333356 0.032626454 0.05526616
-0.09508215 0.006916188 -0.0900125 0.07599335 0.06174656 0.0724613 0.16137984 -0.06989391
-0.12322233 -0.077709086 0.007950145 0.02012251 -0.09734518 -0.17228115 0.05072433 -0.057981156
0.015435339 0.003257121 0.12863131 -0.055105787 0.1300933 -0.053231917 -0.10837264 0.07253447
0.059683934 0.019190062 0.1441722 0.012169325 -0.034363076 -0.018804448 -0.040795974 -0.13773829
0.07366389 -0.011169701 0.17147917 -0.06075185 0.109311834 -0.06931387 0.080719255 0.0030176695
0.05466449 -0.05642238 0.021779098 -0.0020498573 0.14998625 -0.023366263 -0.04125093 0.005205851
-0.046525892 0.05281379 -0.03850444 0.06809727 -0.097817264 0.11075738 -0.08176716 -0.120812885
00000000: b1fc bc3c 3e0c 4d3e 9e12 b8bd 22d7 823d
00000010: 40e9 66be 09d2 d43d 9126 db3d 1b77 ef3d
00000020: ee73 e8bd beba e63d 81ad 063e 8e35 163d
00000030: 4f1a 5cbd 5c40 313e a2a0 99bd fa19 4a3e
00000040: a093 623c af5b cabd d87b 52bd a862 2cbe
00000050: 315b 533d 48ce d2bd 7194 49be 8ccd fc3c
00000060: bcd2 443e 685b f73d e731 11be b704 8dbd
00000070: 5752 bdbc 7e4f 91bd bd71 08be 3ff1 84bd
00000080: b405 83bd 14ab 1ebd d221 87bd 9938 da3b
00000090: 7e26 d4bd 862d 733c 134b 343e 7f0f 52bd
000000a0: 004f bb3d 5ec2 0d3e 9f8b b23d cd56 e43d
000000b0: da8a 313d 7068 833a 7b60 ce3d 6a3a 27bd
000000c0: 91fb a33d 4b22 afbc 27ad a1bc 3592 ef3d
000000d0: 7d16 96bd 3f87 a03d 9016 123c b8f9 22bd
000000e0: 8364 083c a5b3 d73d 2c14 1fbe 183a 073d
000000f0: 4d91 debd 12da f73d db08 fabc 8238 153e
00000100: a22f 193e 285c 3cbe b1cb 2abe e8df 43bd
00000110: 1db8 d5bd 3b8c 88bd 04f6 273e cd0a 423e
00000120: c709 51bd 4110 d8bd 801e e3bd dcef ae3a
00000130: 0751 c13d 4e56 773d 09f2 a7bd 9e0b 153e
00000140: 8e33 7cbd 8df0 0cbd ab9f 28be 6ebd 913c
00000150: 99c2 08bd 9636 02bd 0e79 a83d 2b99 0ebe
00000160: f205 cfbc e323 63bd 0893 8b3d 5104 f9bd
00000170: 9475 c53d a9f8 873c 7b15 88bd cc29 c3bb
00000180: df7a 79bd 8d27 093d 6c35 5b3e 1de6 c13c
00000190: 9a86 a1bd 87a9 113d ccba 39be 4ca3 b2bc
000001a0: 9d01 b7bd 8eb9 973b 21cd cb3d 84de 193e
000001b0: 9f5a 99bc 2bf4 adbd 6d2c a53d 10b5 58bd
000001c0: 9c6d fa3c 2cc2 d03d 521a c8bd b2de a0bd
000001d0: 588a a8bd 5d98 e8bd fedb 88bd 5170 6ebc
000001e0: 6d60 95bd 8833 de3d 67b2 a43c 0a67 313e
000001f0: f4fc 453b 2180 25bd 719c 4dbc 198b 253d
00000200: c165 c43d eec8 4abd f22b 333e e8cd 21be
00000210: 2159 693d 4bb0 623b 9523 16be 1ecc 2e3d
00000220: b70a 9abd af58 afbd 3283 14bc f26b a0bd
00000230: 6234 92bd 5dd1 70bb fd39 f3bd f906 9c3d
00000240: c634 c2bc 39ac 983d 353f 92bc 447b 59bd
00000250: 5407 753b b17a 54bd 5759 ec3d 716f 11bd
00000260: e9f1 e3bd 9c0a 093e 221d abbd 63d1 c63d
00000270: 73d7 b03c a2c1 cf3d 6565 c23c 3274 f8bd
00000280: 38c1 f5bb 7864 d6bc 2cc6 ac3c a46f f63c
00000290: 5889 bebd 3433 2bbd 9412 97bd d5e4 15bd
000002a0: d17d a73d 035b 963d ec0b a63c a2be 203c
000002b0: 0b34 0d3e 1459 ae3d ea3b 43bc 159a 96bd
000002c0: 1b42 123d e5d5 b5bd fc47 b53d 19a8 eabb
000002d0: 4781 c1bc 305e 2f3d 621e 79bd 21eb 46bd
000002e0: 2f04 c43d bac3 863d c04e 6d3e 2cbc 72bc
000002f0: 1858 c7bc b394 163d b71e 053d f2db 2e3c
00000300: 0e8b 0b3d 1cbe ed3c 0ee1 dfbc f75c 39bc
00000310: 9e9f d43d 887e 31bd 51a3 053d c55e 623d
00000320: 6eba c2bd 31a1 e23b 7958 b8bd 67a2 9b3d
00000330: f6e9 7c3d 9766 943d c240 253e 8a24 8fbd
00000340: fd5b fcbd f125 9fbd 5341 023c f6d7 a43c
00000350: e95c c7bd 786a 30be 51c4 4f3d a67d 6dbd
00000360: 81e4 7c3c 6c75 553b edb7 033e 9bb6 61bd
00000370: 2e37 053e b609 5abd 7af2 ddbd f48c 943d
00000380: 2477 743d 7a34 9d3c e1a1 133e d961 473c
00000390: 4cc0 0cbd c90b 9abc ae19 27bd 440b 0dbe
000003a0: 18dd 963d 1f01 37bc 3c98 2f3e efd6 78bd
000003b0: e2de df3d 6ef4 8dbd 2350 a53d 18c4 453b
000003c0: dfe7 5f3d 271b 67bd 146a b23c e656 06bb
000003d0: ff95 193e 9b6a bfbc bcf6 28bd d895 aa3b
000003e0: ef91 3ebd 4653 583d d5b6 1dbd 9576 8b3d
000003f0: 6b54 c8bd c4d4 e23d 8a75 a7bd bf6c f7bd

pointer.fc1.bias f4 [128]
-0.061981883 -0.048935592 -0.019534549 -0.0042415108 -0.0054000868 -0.054385018 -0.02169616 0.05354385
0.0019365877 -0.066258945 0.002383326 -0.053666644 -0.01931037 0.0012747367 -0.03521117 -0.040903226
0.025659896 0.050527778 -0.05217755 -0.0067069395 -0.0072819847 0.041548952 0.020410763 -0.034691703
0.05825848 0.026495028 0.029536594 -0.031809118 -0.013785872 -0.05683321 -0.056416206 0.026963955
0.03459201 -0.08670001 0.008304294 -0.027922533 0.03699111 -0.012132331 0.0020655096 -0.05217639
-0.023609655 0.04195008 -0.093002416 -0.006925527 0.034252603 -0.029328171 -0.008695717 0.05257815
-0.02229204 -0.018924072 0.0005048216 0.027371343 -0.03159955 0.04150242 -0.044560038 0.016116895
0.06730992 0.043426402 0.028982386 -0.039531365 -0.04332968 0.025944736 -0.06032388 -0.041169494
-0.041279253 -0.0377733 -0.054578286 0.031377435 0.007950867 -0.03858577 -0.072406024 -0.0041392636
0.025202833 -0.06897839 -0.042896956 0.028289882 0.055885505 0.054299988 0.0103442455 -0.029267602
-0.0068534687 -0.018490199 -0.03776015 -0.055536542 0.038932126 0.048179593 -0.06104829 0.030998489
-0.041542966 0.049755216 -0.010082004 -0.0111927865 -0.0050557307 -0.070300035 0.03611644 -0.035582315
0.046847843 -0.028781325 0.03963555 0.003953972 -0.056370877 0.036386076 0.012115036 0.00957065
0.034588814 0.05174383 0.012655974 0.03792703 0.005393401 -0.0015127716 -0.019604106 -0.010003297
-0.03141717 0.02874213 -0.066454604 0.025814682 0.021027606 0.06902888 -0.014974797 -0.05183874
0.04900873 -0.03240629 0.0783805 0.011795049 0.0056020226 -0.03387453 -0.024824765 0.0146816205
00000000: b7e0 7dbd b070 48bd eb06 a0bc 5ffc 8abb
00000010: 36f3 b0bb d3c2 5ebd 25bc b1bc cc50 5b3d
00000020: 1ad5 fd3a c5b2 87bd 9331 1c3b 8ed1 5bbd
00000030: c830 9ebc 1115 a73a 9639 10bd 248a 27bd
00000040: b434 d23c 37f6 4e3d 20b8 55bd e3c5 dbbb
00000050: b79d eebb 3c2f 2a3d 7934 a73c e318 0ebd
00000060: 72a0 6e3d 1a0c d93c baf6 f13c 474a 02bd
00000070: 23de 61bc f1c9 68bd ae14 67bd 83e3 dc3c
00000080: 5ab0 0d3d c68f b1bd bc0e 083c ccbd e4bc
00000090: fd83 173d afc6 46bc 805d 073b e9b6 55bd
000000a0: 0969 c1bc d9d3 2b3d 0d78 bebd 88ef e2bb
000000b0: 754c 0c3d a241 f0bc 7b78 0ebc 305c 573d
000000c0: cc9d b6bc a806 9bbc 0156 043a de39 e03c
000000d0: 886e 01bd 71fe 293d 9684 36bd 9407 843c
000000e0: c9d9 893d e2df 313d 786c ed3c a4eb 21bd
000000f0: 767a 31bd 0e8a d43c 2c16 77bd 58a1 28bd
00000100: 6f14 29bd 2db8 1abd 7b8d 5fbd a085 003d
00000110: 5a44 023c 1d0c 1ebd 9c49 94bd a9a2 87bb
00000120: 2c76 ce3c 8b44 8dbd b8b4 2fbd 2fc0 e73c
00000130: 33e8 643d aa69 5e3d e97a 293c 9cc2 efbc
00000140: 1093 e0bb c278 97bc 63aa 1abd 497a 63bd
00000150: 4b77 1f3d f757 453d c60d 7abd 8bf0 fd3c
00000160: f528 2abd 20cc 4b3d fd2e 25bc f361 37bc
00000170: 8baa a5bb 77f9 8fbd d5ee 133d c3be 11bd
00000180: 86e3 3f3d d0c6 ebbc e358 223d 5290 813b
00000190: 26e5 66bd 9109 153d 257e 463c 37ce 1c3c
000001a0: 00ad 0d3d 57f1 533d 015b 4f3c 6059 1b3d
000001b0: 20bb b03b 3148 c6ba ca98 a0bc dee4 23bc
000001c0: 4aaf 00bd 9e74 eb3c 5a19 88bd 5079 d33c
000001d0: 1642 ac3c 035f 8d3d da58 75bc dc54 54bd
000001e0: 61bd 483d 75bc 04bd f585 a03d 0540 413c
000001f0: 2c91 b73b 05c0 0abd 4e5d cbbc 2e8b 703c

pointer.fc2.weight f4 [128, 128]
0.042502522 -0.11921994 -0.04647528 -0.014811387 0.1403252 -0.07202967 -0.078367114 0.0798439
0.1284908 0.04609475 -0.083280176 -0.13130337 0.109642036 0.011971952 -0.11416985 0.02912438
-0.042277392 0.002993823 0.09202854 -0.11497248 -0.112497486 -0.11262086 0.08017277 -0.056059934
0.10698736 -0.030507153 0.056178343 0.14909099 -0.056869105 0.12362086 0.041522715 0.06483931
-0.07819167 0.17795776 0.15394549 -0.17259495 0.18404797 -0.121346205 0.025877934 -0.077978075
-0.053113718 -0.052711327 -0.044794425 0.000828477 0.030449806 0.06809058 0.088353276 -0.12982762
-0.21038342 -0.009250464 -0.14779273 0.04451386 0.005823402 0.14111872 0.0076832133 0.12758414
-0.066836074 0.05154968 -0.105897814 0.068683036 -0.051096957 -0.048473697 -0.0131047275 -0.12255911
-0.102080025 0.06560211 -0.054624867 -0.05914698 -0.0026411773 0.080826096 0.443167 0.13274907
0.057584673 0.13468692 0.15547107 0.08182842 0.013200941 0.2667006 0.02704586 -0.015414376
-0.17038587 0.15458074 0.148806 -0.14606412 -0.04504238 -0.04231945 -0.038603738 -0.07225506
-0.041157965 -0.008026262 0.028457457 -0.02179273 0.23721318 0.035845168 -0.061789144 -0.076836824
-0.012375177 0.12371579 0.0018992573 -0.085796244 0.11680298 -0.02892038 -0.053704243 0.17707798
-0.15877673 -0.12557578 0.059739422 -0.075484075 -0.045991678 0.13887762 -0.15517518 -0.043618057
-0.13794583 0.067218386 0.013966816 0.08159309 -0.106756635 0.110886924 0.070015274 0.13966464
0.10686246 0.09805692 -0.02996399 -0.032199338 -0.028730914 0.12264723 0.06264269 -0.016141178
0.040880356 -0.17918947 0.15227292 -0.005165696 -0.09417812 0.10962625 -0.019033268 -0.16443174
0.08935183 -0.059990857 -0.06393401 0.14701788 -0.12434507 -0.05861203 0.011845071 0.09063779
0.08247574 -0.14660883 -0.027893253 0.1515826 0.0964828 0.07095638 -0.019804476 0.1115017
0.05799386 -0.028460866 -0.042474933 0.06169942 0.067633174 -0.12895578 -0.110366456 -0.06611492
-0.13730012 -0.12334745 -0.012591964 -0.042839434 0.05874842 0.12630741 0.034715697 -0.048446644
-0.02724631 0.0093105035 0.116954245 0.07233405 0.1061907 -0.024030443 -0.120794505 -0.03256309
0.0668849 0.12766246 -0.1084103 -0.028929189 0.0033083605 -0.13759373 0.095080264 -0.1204721
-0.17077826 -0.049424034 -0.05213468 0.06746232 -0.023526046 -0.10070549 0.13456176 0.11225059
-0.030497432 -0.0082253935 -0.1393792 -0.08769698 0.14437391 0.04204451 0.06759239 -0.041859422
0.03965804 -0.009932131 0.01728142 -0.046882834 -0.0825665 0.14291076 -0.12526748 -0.090470165
-0.094831124 0.07752857 0.11135243 -0.12790765 -0.00954848 -0.04125642 -0.114928946 -0.12107354
0.016959824 0.07339238 -0.012143586 0.01218562 0.08932968 -0.103820875 -0.1834192 0.07897596
-0.07306483 0.16121827 -0.033315487 0.09013525 -0.095115654 0.10852741 0.10051833 0.016154105
0.061815444 -0.028325029 -0.103252105 0.043823104 0.0108036995 0.006883204 -0.011984357 -0.017100183
-0.020862803 -0.12028677 0.026799556 -0.04059915 0.10463147 0.08681191 -0.03526506 -0.12641847
-0.040055238 0.1399638 0.047110386 -0.09611476 0.13588108 0.12647264 -0.09982072 0.11374436
00000000: 2017 2e3d 9529 f4bd dd5c 3ebd 76ab 72bc
00000010: 69b1 0f3e 4b84 93bd f07e a0bd 3385 a33d
00000020: 1893 033e d9cd 3c3d cc8e aabd 6474 06be
00000030: 018c e03d 0226 443c e2d1 e9bd 4096 ee3c
00000040: 0f2b 2dbd 0434 443b 7679 bc3d b176 ebbd
00000050: 1565 e6bd c4a5 e6bd 9f31 a43d 1a9f 65bd
00000060: 301c db3d 23ea f9bc 431b 663d 4fab 183e
00000070: 94ef 68bd ef2c fd3d b913 2a3d 79ca 843d
00000080: f422 a0bd 8f3a 363e e3a3 1d3e bbbc 30be
00000090: 1277 3c3e 5c84 f8bd f6fd d33c f8b2 9fbd
000000a0: c58d 59bd d5e7 57bd 5c7a 37bd 262e 593a
000000b0: df71 f93c 1373 8b3d 90f2 b43d 88f1 04be
000000c0: c06e 57be 428f 17bc fa56 17be 2a54 363d
000000d0: 3dd2 be3b 6d81 103e 77c3 fb3b 6ba5 023e
000000e0: 5ae1 88bd c225 533d f4e0 d8bd b1a9 8c3d
000000f0: 0b4b 51bd 5b8c 46bd 36b5 56bc 4500 fbbd
00000100: 550f d1bd 665a 863d 53be 5fbd 1b44 72bd
00000110: 9a17 2dbb 2788 a53d c9e6 e23e 5fef 073e
00000120: e8dd 6b3d 5eeb 093e cf33 1f3e a995 a73d
00000130: c248 583c fb8c 883e 488f dd3c 948c 7cbc
00000140: a279 2ebe 6a4a 1e3e 9a60 183e d591 15be
00000150: 5c7e 38bd 2957 2dbd f41e 1ebd 76fa 93bd
00000160: 4195 28bd 9580 03bc 9d1f e93c ab86 b2bc
00000170: 03e8 723e 62d2 123d 9d16 7dbd a05c 9dbd
00000180: 41c1 4abc b45e fd3d 80f0 f83a f1b5 afbd
00000190: 6736 ef3d 6fea ecbc fbf8 5bbd ee53 353e
000001a0: 5e96 22be f096 00be 53b1 743d 6597 9abd
000001b0: c561 3cbd ef35 0e3e 3ee6 1ebe d9a8 32bd
000001c0: ac41 0dbe cba9 893d 12d5 643c 471a a73d
000001d0: 39a3 dabd af18 e33d 2b64 8f3d 3f04 0f3e
000001e0: b5da da3d 11d2 c83d 0b77 f5bc 74e3 03bd
000001f0: 185d ebbc 792e fb3d d04a 803d 813a 84bc
00000200: 2972 273d 727d 37be 6fed 1b3e 0045 a9bb
00000210: 75e0 c0bd ba83 e03d a8eb 9bbc cb60 28be
00000220: 18fe b63d f9b8 75bd d6ef 82bd db8b 163e
00000230: a1a8 febd 2b13 70bd d411 423c 4ea0 b93d
00000240: 0ae9 a83d a020 16be 6480 e4bc 7838 1b3e
00000250: c698 c53d 9451 913d ff3c a2bc 015b e43d
00000260: f88a 6d3d c326 e9bc 32fa 2dbd 88b8 7c3d
00000270: 4383 8a3d fc0c 04be cf07 e2bd 4267 87bd
00000280: 6798 0cbe 969d fcbd 864e 4ebc 6778 2fbd
00000290: 2fa2 703d bb56 013e 0c32 0e3d fd6f 46bd
000002a0: a733 dfbc 158b 183c b585 ef3d e023 943d
000002b0: 827a d93d 7edb c4bc 1c63 f7bd e060 05bd
000002c0: f3fa 883d f3b9 023e 3806 debd e8fc ecbc
000002d0: 14d1 583b 5fe5 0cbe 71b9 c23d 14ba f6bd
000002e0: 7fe0 2ebe db70 4abd 2d8b 55bd af29 8a3d
000002f0: b2b9 c0bc ae3e cebd 8fca 093e a3e3 e53d
00000300: c0d5 f9bc cdc3 06bc 6cb9 0ebe 799a b3bd
00000310: c1d6 133e dd36 2c3d e16d 8a3d c974 2bbd
00000320: 7870 223d 60ba 22bc c491 8d3c 3708 40bd
00000330: a018 a9bd 3357 123e 1e46 00be 6c48 b9bd
00000340: d236 c2bd 4dc7 9e3d be0c e43d 39fa 02be
00000350: 3a71 1cbc 7efc 28bd de5f ebbd 67f5 f7bd
00000360: 54ef 8a3c be4e 963d e4f5 46bc 32a6 473c
00000370: 7bf2 b63d 0aa0 d4bd 3ed2 3bbe 26be a13d
00000380: 03a3 95bd 6716 253e d275 08bd d498 b83d
00000390: ffcb c2bd 9e43 de3d 8edc cd3d 9d55 843c
000003a0: 3132 7d3d e409 e8bc d775 d3bd db7f 333d
000003b0: 0002 313c 808c e13b 095a 44bc af15 8cbc
000003c0: 78e8 aabc e958 f6bd be8a db3c 4b4b 26bd
000003d0: 0649 d63d 71ca b13d 1872 10bd d873 01be
000003e0: f610 24bd ac52 0f3e d2f6 403d d1d7 c4bd
000003f0: 6924 0b3e 0b82 013e ce6e ccbd cef2 e83d

pointer.fc2.bias f4 [128]
0.02334257 -0.018406669 0.009949921 0.0684327 -0.052866157 0.08942341 0.0035413934 -0.07624556
0.013880614 0.019911548 -0.04338345 0.12725785 0.0048139067 0.14171231 0.03912842 -0.113997124
0.14507496 -0.034152444 -0.044644643 0.012351208 0.07741634 0.016727364 0.085234895 0.09870445
0.03660184 -0.09184858 -0.061273456 0.029839417 -0.10038026 -0.036379814 0.030171124 0.08291877
-0.044953726 0.0931112 0.13610075 0.031440992 0.07523603 0.097335264 -0.06778988 -0.019238643
-0.027606102 0.045263074 0.014682345 0.0020885787 0.056266736 0.00819369 0.04474207 0.04453527
0.0466831 -0.023646208 0.0025919685 -0.001887535 0.11075257 -0.0003154626 0.02688482 0.09530516
-0.10072778 0.09752942 -0.022962281 -0.054799214 -0.045940068 0.005530789 -0.08212595 -0.020831155
0.0021764666 -0.0039840625 0.0060332725 -0.06794582 -0.036358856 -0.0055940114 -0.08023194 0.054599766
0.039989144 -0.028178707 -0.072521344 0.12308321 0.13364792 -0.05210167 0.10013386 0.06786136
-0.045776367 -0.064133845 0.064023 -0.07805268 0.036269918 -0.054199446 0.12351706 0.051151533
0.11925683 0.07003558 0.074977115 0.091789104 0.107187614 0.06715026 0.035399944 0.021596631
0.10901749 0.092968 0.06168403 -0.025484407 0.112070166 -0.088193364 0.02978469 0.06652454
0.015884094 0.019767974 -0.031542674 0.07466351 0.09473209 0.02764965 -0.041793793 0.04582497
0.03375366 -0.0734933 -0.05049477 0.020776458 -0.09994443 0.005656167 0.099417605 -0.09497132
-0.058256265 -0.0075500016 0.049281448 0.069880985 0.12839034 0.029381245 0.012840975 -0.007051972
00000000: eb38 bf3c 95c9 96bc fe04 233c 7226 8c3d
00000010: 2f8a 58bd 9f23 b73d b916 683b a226 9cbd
00000020: 846b 633c 8b1d a33c d8b2 31bd e24f 023e
00000030: fabd 9d3b 081d 113e 1f45 203d 5377 e9bd
00000040: 888e 143e 6fe3 0bbd 4ddd 36bd b95c 4a3c
00000050: 758c 9e3d d307 893c a28f ae3d 8f25 ca3d
00000060: d0eb 153d 1c1b bcbd e0f9 7abd cb71 f43c
00000070: 2a94 cdbd 0003 15bd 6f29 f73c 51d1 a93d
00000080: 6621 38bd 16b1 be3d ff5d 0b3e 45c8 003d
00000090: 5915 9a3d b657 c73d 6cd5 8abd 5c9a 9dbc
000000a0: 3126 e2bc c665 393d 388e 703c 89e0 083b
000000b0: f377 663d d43e 063c 7643 373d 9e6a 363d
000000c0: c736 3f3d b1b5 c1bc 04de 293b 2a67 f7ba
000000d0: 3ed2 e23d ac64 a5b9 8e3d dc3c 5a2f c33d
000000e0: 5e4a cebd 81bd c73d 651b bcbc 2475 60bd
000000f0: a72b 3cbd 9f3b b53b a631 a8bd 19a6 aabc
00000100: 0da3 0e3b bd8c 82bb c2b2 c53b 2e27 8bbd
00000110: 06ed 14bd f84d b7bb a550 a4bd 01a4 5f3d
00000120: a8cb 233d 08d7 e6bc 1286 94bd 0d13 fc3d
00000130: 00db 083e 9068 55bd fb12 cd3d e6fa 8a3d
00000140: 0080 3bbd 9b58 83bd 7e1e 833d 15da 9fbd
00000150: c48f 143d 3d00 5ebd 83f6 fc3d 4584 513d
00000160: ed3c f43d d06e 8f3d 9a8d 993d edfb bb3d
00000170: 2e85 db3d 1386 893d 88ff 103d 6beb b03c
00000180: 9044 df3d 0266 be3d 65a8 7c3d adc4 d0bc
00000190: 0b85 e53d b99e b4bd 06ff f33c 053e 883d
000001a0: 5c1f 823c 72f0 a13c e432 01bd 2fe9 983d
000001b0: e602 c23d 8581 e23c f82f 2bbd f7b2 3b3d
000001c0: 4741 0a3d a883 96bd 9bd3 4ebd 6433 aa3c
000001d0: aaaf ccbd 5e57 b93b 759b cb3d 5380 c2bd
000001e0: 1f9e 6ebd 0166 f7bb 58db 493d c31d 8f3d
000001f0: c278 033e f0b0 f03c f462 523c 3b14 e7bb
