trained_models/cvrp/altr_C_50/model_incumbent_vrpRl13_C_ALTR_50_T_0.15_61600.pt (torch_old, 469732 bytes, 15 tensors)

all_embed.embed.weight f4 [128, 4]
0	0xbddb0ca1	-0.10695768
1	0x3e93ff57	0.28905746
2	0x3e83c921	0.25739387
3	0x3e167344	0.14692408
4	0x3f1cb1b0	0.6120863
5	0xbda975a7	-0.082743935
6	0xbe9cb6ca	-0.30608207
7	0x3e3ce60d	0.18447132
8	0x3e15b5b6	0.14620098
9	0x3d764028	0.060119778
10	0x3e45be10	0.19310784
11	0xbe4834e0	-0.1955142
12	0x3eb9ed60	0.36313915
13	0xbdb34545	-0.087534465
14	0xbe4f624e	-0.20252344
15	0xbe9312a0	-0.28725147
16	0x3c2bfdae	0.010497494
17	0x3f202ae1	0.6256543
18	0x3df175da	0.117900565
19	0xbd8ed55b	-0.06974288
20	0x3dfcec37	0.12349742
21	0x3da04140	0.078249454
22	0xbea1955e	-0.3155927
23	0xbeab30e9	-0.33435753
24	0xbd8cfce2	-0.06884171
25	0xbda84f6a	-0.08218272
26	0x3e320cfc	0.17387766
27	0xbe216278	-0.15760219
28	0x3d840988	0.064471304
29	0x3d340578	0.043950528
30	0xbd8de8ae	-0.06929146
31	0x3cf98b50	0.030461937
32	0xbc3a5160	-0.01137194
33	0x3d866e40	0.06563997
34	0x3e3dc1ea	0.18531004
35	0xbc9173d0	-0.017755419
36	0x3e5cb0e1	0.21551849
37	0x3e583e0c	0.21117419
38	0xbe1e4d49	-0.1545917
39	0xbf0b41a9	-0.54397064
40	0xbdef8346	-0.1169496
41	0x3d457260	0.04820478
42	0x3d3c1fe0	0.045928836
43	0xbcdd4240	-0.02700913
44	0xbd45bbb0	-0.048274696
45	0xbd1d4280	-0.038393497
46	0xbe308274	-0.17237264
47	0xbdee7b74	-0.116446406
48	0x3d46da25	0.048547883
49	0x3f398db2	0.72481835
50	0x3eadb65e	0.33928198
51	0x3e77fdbb	0.24217884
52	0xbde1473c	-0.10999915
53	0x3dd8afc8	0.105804026
54	0x3c0646b0	0.008195564
55	0xbdf56120	-0.11981416
56	0xbec30545	-0.38089958
57	0x3ea01216	0.31263798
58	0x3dcbb178	0.09945959
59	0x3e9a32ba	0.30116826
60	0xbede351d	-0.43399897
61	0xbc15d420	-0.009144813
62	0x3f296d1d	0.6618212
63	0x3ed2c168	0.41163182
64	0x3b085580	0.0020802915
65	0x3c8cbc18	0.017179534
66	0xbdfbdaa1	-0.122975595
67	0xbd386bb4	-0.04502459
68	0xbeba6538	-0.3640535
69	0x3e7ae39e	0.24500892
70	0xbc9b551c	-0.018961482
71	0xbdbbcdf9	-0.091701455
72	0x3e96b941	0.29438213
73	0x3e0fd6bf	0.14046763
74	0x3a82b273	0.0009971395
75	0xbeb52ce8	-0.35385823
76	0x3f5f124d	0.871373
77	0x3d9b0371	0.07569016
78	0xbe01a572	-0.12660769
79	0x3e2d5b67	0.16929398
80	0xbedb8db4	-0.42881548
81	0x3bb5ff3b	0.0055541075
82	0x3ead8ec1	0.33897975
83	0x3e9d2618	0.30693126
84	0x3e2fbfd1	0.17163016
85	0x3f0342be	0.51273715
86	0xbe6acb3d	-0.22929092
87	0xbd95947c	-0.07303712
88	0x3eb5c639	0.35502794
89	0xbec30cd5	-0.38095728
90	0xbea725b8	-0.32645965
91	0x3da197e4	0.07890299
92	0xbe1fd577	-0.15608774
93	0xbdcdddf9	-0.100521035
94	0x3de55b19	0.11199016
95	0x3ddebc07	0.10875707
96	0xbd9486ae	-0.072522506
97	0x3d2799ae	0.040918045
98	0xbe706aaa	-0.23478189
99	0xbed25878	-0.4108312
100	0xbe452b14	-0.19254714
101	0xbdb9006c	-0.090332836
102	0x3e03521e	0.12824294
103	0x3db8a778	0.09016317
104	0xbf0be62c	-0.5464809
105	0x3e42674e	0.1898472
106	0xbe36a21a	-0.17835274
107	0x3c5e8444	0.013581339
108	0x3e99fd58	0.30076098
109	0xbe9007e4	-0.2813102
110	0x3ccc1715	0.02491335
111	0xbc1c5658	-0.00954207
112	0xbeb075c4	-0.34464848
113	0x3e2d1b70	0.16904998
114	0x3ecb6a1f	0.397294
115	0x3ea09550	0.31363916
116	0x3f2bffb7	0.67187065
117	0x3f27ef14	0.6559918
118	0x3e55d0a6	0.20880374
119	0xbd24f34a	-0.04027108
120	0x3c73cef4	0.014880884
121	0xbf126df8	-0.5719905
122	0xbc43e1a2	-0.0119556505
123	0x3e0491e4	0.12946278
124	0x3e931458	0.2872646
125	0x3d1375a0	0.036000848
126	0xbea84b0f	-0.32869765
127	0xbec04921	-0.37555793
128	0x3e813530	0.2523589
129	0xbd59648e	-0.053074412
130	0xbe72e521	-0.23720218
131	0xbeade156	-0.3396098
132	0xbee76162	-0.45191485
133	0xbe981886	-0.2970621
134	0xbd383368	-0.0449709
135	0xbccd3971	-0.025051804
136	0xbebea2a5	-0.37233463
137	0x3f094809	0.5362554
138	0x3d42c923	0.0475551
139	0x3d21fabc	0.03954576
140	0x3e2a552e	0.16634056
141	0x3f3dd7f8	0.7415767
142	0xbe7609b9	-0.24027146
143	0xbd9895f3	-0.074504755
144	0x3e9abbf7	0.3022153
145	0x3f3dc971	0.741355
146	0xbd9425ad	-0.072337486
147	0x3e1d8425	0.1538244
148	0xbe996898	-0.2996261
149	0x3f18c4a2	0.5967504
150	0x3e20382e	0.15646431
151	0x3e05a704	0.13051993
152	0x3e094aca	0.13407436
153	0xbd80066a	-0.062512234
154	0xbdf00a42	-0.117207065
155	0xbd2d1e4c	-0.04226522
156	0xbe46155d	-0.19344087
157	0xbe2a0b51	-0.1660588
158	0xbcb36958	-0.021900818
159	0xbdc8e77a	-0.09809776
160	0x3e085b44	0.13316065
161	0x3f26d63a	0.65170634
162	0xbc9865d7	-0.018603249
163	0xbd872bba	-0.06600137
164	0x3eb9c1df	0.36280724
165	0x3eb4ecb2	0.35336834
166	0xbdbc9c03	-0.092094444
167	0xbe58e722	-0.2118192
168	0x3f169642	0.58823025
169	0x3e182c67	0.14860688
170	0xbd1f28e7	-0.038857367
171	0x3e13a9a6	0.14420184
172	0x3f46d8aa	0.77674353
173	0x3f37dea0	0.71824074
174	0x3da5b18f	0.08090507
175	0xbe1b032e	-0.15137932
176	0x3e8ceb33	0.27523193
177	0xbec2f1b8	-0.38075042
178	0x3e4019c3	0.18759827
179	0xbd201499	-0.039082143
180	0xbf10ff4e	-0.56639564
181	0xbdef5e15	-0.116878666
182	0xbda0603c	-0.07830855
183	0x3d0582c3	0.032595407
184	0x3e72be4d	0.23705406
185	0x3ed54a7d	0.41658393
186	0x3e5881b4	0.21143228
187	0x3e4e472b	0.20144336
188	0x3da75a60	0.081715345
189	0x3e984ba5	0.29745212
190	0xbed89d75	-0.4230763
191	0xbeddf11f	-0.43348023
192	0xbde821ee	-0.113345966
193	0x3f06a07c	0.5258863
194	0xbe6dfd23	-0.23241095
195	0x3e212c66	0.15739593
196	0xbef7e655	-0.48417917
197	0x3d21f54a	0.039540567
198	0x3c87498b	0.01651456
199	0xbd193aff	-0.03740978
200	0x3e34b1a1	0.17645885
201	0x3f37d9a5	0.71816474
202	0xbe38f8f1	-0.18063714
203	0x3cab9a4e	0.020947602
204	0x3ecb1112	0.3966146
205	0x3d9356d8	0.071942985
206	0xbe15901d	-0.14605756
207	0xbedf0e51	-0.4356561
208	0x3f0b978c	0.5452812
209	0xbe5cb868	-0.2155472
210	0x3e2f7229	0.17133392
211	0xbdb87e96	-0.09008519
212	0x3e81eaf6	0.25374573
213	0x3cf3f452	0.029779587
214	0xbe6303ea	-0.22169462
215	0x3e4eb291	0.20185305
216	0x3d423978	0.047418088
217	0xbddabeea	-0.10680945
218	0x3e1dcf52	0.15411118
219	0x3d2d9760	0.04238069
220	0x3f3030fa	0.6882473
221	0xbe581ed0	-0.21105504
222	0xbdd70ce4	-0.105005056
223	0x3e18af2b	0.14910571
224	0x3b705667	0.0036672594
225	0xbcee519e	-0.029091652
226	0xbf08e874	-0.53479695
227	0x3eaf9798	0.34295344
228	0x3ede3e42	0.43406874
229	0xbeab65ba	-0.3347605
230	0x3ca59119	0.02021079
231	0x3e12aef5	0.14324553
232	0xbdeacaf1	-0.11464489
233	0x3f22b5fd	0.6355894
234	0xbe0c3c62	-0.13694909
235	0x3d324687	0.04352429
236	0x3e8993e6	0.2687065
237	0x3e908812	0.28228813
238	0x3d9d169e	0.076703295
239	0xbe8bf9c0	-0.27338982
240	0x3e0508ce	0.1299164
241	0xbd683350	-0.05668956
242	0xbd4cde14	-0.050016478
243	0x3d4e3b70	0.050349653
244	0xbf1968bd	-0.5992544
245	0x3e01715e	0.12640902
246	0xbe9427e1	-0.28936675
247	0x3e6c1265	0.23053892
248	0x3ee0e9ae	0.43928283
249	0xbe7b3b96	-0.24534449
250	0xbe58776c	-0.21139306
251	0x3e1629ce	0.14664385
252	0x3ebacaae	0.36482757
253	0x3d3c2192	0.045930453
254	0xbd9dbe60	-0.07702327
255	0xbe7a9290	-0.24469972

all_embed.embed.bias f4 [128]
0	0xbe8d7cca	-0.2763427
1	0xbdb431b6	-0.08798544
2	0xbec388e6	-0.38190383
3	0xbdc3cb8b	-0.09560307
4	0x3e78bc34	0.24290544
5	0x3dc9f3af	0.09860932
6	0xbdf76a38	-0.120808065
7	0xbee7f25a	-0.45302087
8	0xbe904cb0	-0.28183508
9	0x3da13f5c	0.07873413
10	0xbed04406	-0.40676898
11	0xbeb5dc90	-0.35519838
12	0x3ef13db9	0.47117403
13	0xbe73d658	-0.23812234
14	0xbadc5130	-0.0016808864
15	0xbca2b1d8	-0.019860193
16	0xbef5cac6	-0.48006266
17	0x3f0bc8cb	0.5460326
18	0xbdca120d	-0.09866724
19	0x3e079c07	0.13243113
20	0xbe1c913a	-0.15289775
21	0x3ec0dbd1	0.37667707
22	0x3e2727a8	0.16323721
23	0xbee17192	-0.4403196
24	0x3e260640	0.16213322
25	0xbeee5b4c	-0.4655403
26	0x3f1127a9	0.5670114
27	0x3e64d597	0.22347103
28	0x3e363ada	0.17795888
29	0x3d0914b3	0.033467006
30	0x3ec9aa52	0.39387757
31	0x3ce77a27	0.028256489
32	0x3dcec63e	0.100964054
33	0x3f339ea2	0.7016393
34	0x3ef40d0b	0.476662
35	0x3ddbf047	0.10739189
36	0x3c7bfc57	0.015379987
37	0x3dde06c9	0.10841138
38	0xbe9a3842	-0.30121046
39	0xbe7748e4	-0.241489
40	0x3d06b654	0.032888725
41	0x3f1a7015	0.60327274
42	0xbba0d4cd	-0.0049081803
43	0x3ee3f11a	0.44519883
44	0x3eaff117	0.34363624
45	0x3f153d5a	0.5829674
46	0x3ea71bb2	0.32638317
47	0x3d2de145	0.042451162
48	0x3e6cdd79	0.2313136
49	0x3eed6614	0.46366942
50	0xbc671290	-0.014103547
51	0xbd890a7f	-0.06691455
52	0x3e8c62fc	0.2741927
53	0xbe2c00d4	-0.16797191
54	0xbed0ffe6	-0.40820235
55	0x3e22f9c3	0.15915589
56	0xbea35ceb	-0.31906828
57	0x3ed26757	0.41094467
58	0x3dda25d2	0.10651745
59	0xbe97ab58	-0.29622912
60	0xbeaeec62	-0.3416472
61	0x3ed9bec2	0.4252835
62	0x3e595f3e	0.21227738
63	0xbe8d8785	-0.27642456
64	0xbd63c5d1	-0.055608574
65	0x3e9c3f6b	0.30517134
66	0xbea525b2	-0.32255322
67	0xbeb1d2c0	-0.34731102
68	0x3f03bd67	0.5146088
69	0x3ee47a19	0.44624403
70	0x3ebf43f1	0.37356523
71	0x3cc6fec0	0.024291396
72	0xbd4515c7	-0.04811647
73	0xbd77be24	-0.060484067
74	0xbe8fa30a	-0.28054076
75	0xbea87e1e	-0.3290872
76	0xbed1d694	-0.40984023
77	0x3f08f5e9	0.5350023
78	0x3f0c16aa	0.5472208
79	0xbc993f7d	-0.018707031
80	0x3e9e0470	0.3086276
81	0xbee46ab2	-0.44612652
82	0xbef968ca	-0.4871276
83	0x3df81757	0.12113827
84	0x3f400c22	0.75018513
85	0xbcca9177	-0.024727566
86	0x3ecf2266	0.4045593
87	0x3ee0f6e8	0.43938375
88	0xbe5fd2f4	-0.21857816
89	0xbeecf4dc	-0.46280563
90	0x3d8487e3	0.06471231
91	0x3daeb9cc	0.08531532
92	0x3ea5185a	0.3224514
93	0x3eb4656e	0.35233635
94	0x3edfb860	0.43695354
95	0x3da2f07d	0.07956026
96	0xbe4708d8	-0.19436967
97	0x3ec3c162	0.38233477
98	0x3ec7be34	0.390123
99	0x3eb120a3	0.34595212
100	0x3eef82d3	0.46779498
101	0xbd57759f	-0.052602407
102	0x3e6a6ad4	0.22892314
103	0xbed2c5ae	-0.41166443
104	0x3ee67a25	0.45015064
105	0x3f0874bb	0.53303117
106	0x3ec3b071	0.38220552
107	0x3e8d4ce6	0.2759773
108	0x3f15995d	0.5843714
109	0xbe9534a7	-0.29141733
110	0x3e6cab0a	0.23112121
111	0x3f2b75d1	0.6697665
112	0x3e471cb6	0.19444546
113	0xbbfe339b	-0.0077576167
114	0x3f06ff8a	0.5273367
115	0xbec66a24	-0.38752854
116	0xbd9aa2f0	-0.07550609
117	0x3ede8b12	0.43465477
118	0xbe45ab37	-0.19303595
119	0xbe094580	-0.13405418
120	0x3e304456	0.17213568
121	0x3df1fdfb	0.11816021
122	0xbe9102c1	-0.28322414
123	0x3f1d11a8	0.61355066
124	0x3e5845da	0.21120396
125	0xbed3855e	-0.4131269
126	0x3eebc3d9	0.46047857
127	0xbee5a79c	-0.44854438

all_embed.embed_2.weight f4 [128, 128]
0	0xbe121e2a	-0.14269319
1	0xbf014623	-0.50497645
2	0xbcc71228	-0.02430065
3	0x3f4c0631	0.7969695
4	0x3c7bea6d	0.015375716
5	0x3f1f9a36	0.6234468
6	0xbdccf850	-0.10008299
7	0xbe0e54e2	-0.13899568
8	0xbdb935de	-0.090434775
9	0x3f4d634a	0.8022963
10	0xbde8677c	-0.11347863
11	0x3dbb642a	0.09149964
12	0xbe372d40	-0.17888355
13	0xbcb750b8	-0.022377357
14	0x3e1b6bf9	0.15177907
15	0x3e6c7dc9	0.23094858
16	0x3cb53a28	0.022122458
17	0x3e35d53e	0.17757127
18	0x3f1540f6	0.5830225
19	0xbeeb07ae	-0.45904297
20	0x3e707749	0.23483004
21	0xbe5c4064	-0.21508938
22	0x3e34360e	0.17598745
23	0x3d776def	0.060407575
24	0x3f2f6d46	0.68526113
25	0xbda9a983	-0.08284285
26	0x3d6f408c	0.058411166
27	0xbea2b627	-0.31779596
28	0x3d4ea6b3	0.050451946
29	0xbec51d80	-0.3849907
30	0xbd8120c8	-0.06305081
31	0x3f4ea8ef	0.8072652
32	0x3f302c0e	0.6881722
33	0x3ecf0334	0.4043213
34	0x3d79443e	0.060856096
35	0xbea409a6	-0.3203861
36	0xbe4c575e	-0.19955203
37	0xbd099809	-0.033592258
38	0x3e0ed91d	0.1395001
39	0x3c8c4a48	0.017125264
40	0xbd906238	-0.07049984
41	0xbe776073	-0.24157886
42	0xbe9941fd	-0.29933158
43	0xbeca4d9c	-0.39512336
44	0xbe154184	-0.14575773
45	0x3ee41375	0.44546095
46	0xbe84b952	-0.25922638
47	0x3f3513cd	0.7073334
48	0x3cd25d21	0.025679173
49	0x3ea366da	0.31914407
50	0xbec39f5a	-0.38207513
51	0x3f0fbaa6	0.5614418
52	0x3dd66f9a	0.10470505
53	0x3e394327	0.18092023
54	0x3e11460d	0.14186879
55	0xbe973fa4	-0.2954074
56	0x3e8a63e4	0.27029335
57	0xbd245b4c	-0.04012613
58	0xbe5fb576	-0.21846566
59	0x3f0d5fec	0.5522449
60	0xbda451e5	-0.08023433
61	0x3e326391	0.17420794
62	0xbe979af6	-0.29610413
63	0x3f2cbadd	0.6747263
64	0x3f14dc81	0.5814896
65	0xbe5cd5ee	-0.21565983
66	0xbcea9a50	-0.028638035
67	0x3ee12cff	0.43979642
68	0x3e01ee95	0.12688668
69	0xbe150232	-0.14551619
70	0xbedf97e8	-0.43670583
71	0xbf15d33f	-0.5852546
72	0xbed46b69	-0.41488197
73	0xbefe29ef	-0.49641368
74	0x3d844302	0.06458093
75	0xbd91e6a2	-0.07124068
76	0x3dcb0482	0.09912969
77	0x3ea1f5f6	0.31632966
78	0x3e8a8d8e	0.27061123
79	0xbeb78138	-0.35840774
80	0x3dd0dd44	0.10198453
81	0x3ddaf78e	0.106917486
82	0x3cd5d0e0	0.026100576
83	0x3f4ebfab	0.8076121
84	0x3e99268c	0.2991222
85	0xbeacdb9a	-0.33761293
86	0x3d1caabf	0.038248774
87	0x3e79bc58	0.24388254
88	0xbdca24eb	-0.09870323
89	0xbdb20bcd	-0.08693657
90	0xbec3facf	-0.3827729
91	0xbdfdf5b6	-0.12400381
92	0xbd6260b4	-0.055268005
93	0x3ee58f82	0.4483605
94	0x3a9ea0c4	0.0012102355
95	0x3edf23ac	0.43581903
96	0x3eaa7a72	0.33296543
97	0xbe8401d2	-0.2578264
98	0xbe4cb649	-0.19991411
99	0x3d7a04c8	0.061039716
100	0x3ebf27fc	0.37335193
101	0xbf67718d	-0.9040764
102	0x3f3182fe	0.69340503
103	0xbd1d5cf1	-0.038418714
104	0xbce95fd4	-0.028488077
105	0x3e464434	0.19361955
106	0x3dee19f3	0.11626043
107	0xbe4842b0	-0.1955669
108	0x3ea1212c	0.3147062
109	0xbebbfb87	-0.36715338
110	0xbc084a34	-0.008318473
111	0x3e823c20	0.25436497
112	0x3d22d656	0.039755188
113	0xbea245e6	-0.31693953
114	0xbe2d5138	-0.16925514
115	0x3d901d48	0.07036835
116	0x3eb0dcfd	0.345436
117	0xbe1b4c5d	-0.15165849
118	0xbf754e8d	-0.95822984
119	0xbde5c34b	-0.1121889
120	0xbe84a73f	-0.2590885
121	0x3f27e020	0.6557636
122	0x3f252aac	0.6451824
123	0xbd1d5e8c	-0.038420245
124	0xbe819dbd	-0.25315657
125	0xba4cee00	-0.0007817447
126	0x3d9fdf42	0.07806255
127	0x3dc054ee	0.09391199
128	0x3f00a45f	0.5025081
129	0xbd9b5cd2	-0.075860634
130	0xbdb649b1	-0.08900774
131	0xbe3093e7	-0.1724392
132	0x3e91e8ac	0.28497827
133	0xbda0ebad	-0.078574516
134	0xbdcc0e7b	-0.099636994
135	0x3c17e3c0	0.009270608
136	0xbdceeddd	-0.101039626
137	0x3e022b47	0.12711821
138	0xbcfd7500	-0.030939579
139	0x3dfa619a	0.12225647
140	0xbd353529	-0.04424015
141	0x3dda674e	0.10664235
142	0x3e269368	0.16267169
143	0x3e0a39f0	0.13498664
144	0xbd627b72	-0.055293508
145	0xbe84af7c	-0.25915134
146	0x3ddb9737	0.10722201
147	0xbba91a63	-0.0051606162
148	0x3d86b142	0.06576778
149	0x3ce09404	0.02741433
150	0xbe8be26c	-0.27321184
151	0x3e15a3d8	0.14613283
152	0xbdc3a621	-0.09553171
153	0xbe1896b4	-0.14901239
154	0xbe50d606	-0.20394143
155	0xbea34e3d	-0.3189563
156	0xbc2724d0	-0.010201648
157	0x3ea2e780	0.31817245
158	0xbf3f3fab	-0.74706525
159	0xbdad2b3c	-0.08455512
160	0xbd6d977f	-0.058005806
161	0xbf45d799	-0.772821
162	0x3e2fa1a0	0.17151499
163	0x3e52d0c8	0.20587456
164	0x3eae6391	0.34060338
165	0x3eac1954	0.33613074
166	0xbe0c8a66	-0.1372467
167	0xbbc2e820	-0.0059480816
168	0x3efc2116	0.49243993
169	0x3d2d9578	0.042378873
170	0xbd834ce1	-0.06411148
171	0xbc0b5e93	-0.008506435
172	0xbf247f63	-0.64256877
173	0xbf118e90	-0.5685816
174	0xbd2480e1	-0.04016197
175	0x3d9c177a	0.07621665
176	0x3deb845f	0.11499857
177	0xbe8143a9	-0.25246933
178	0x3ed8e807	0.42364523
179	0x3dd6f413	0.10495772
180	0xbeb17dee	-0.3466639
181	0x3deccef8	0.11562914
182	0xbd83fead	-0.0644506
183	0xbd8348eb	-0.064103924
184	0xbd60142b	-0.054706734
185	0xbea4148d	-0.3204693
186	0x3ecc7e51	0.39940122
187	0x3e75e2aa	0.24012247
188	0x3de68836	0.11256449
189	0xbcf2a368	-0.029618934
190	0xbeb6966d	-0.3566164
191	0xbdc98189	-0.0983916
192	0x3e132f0e	0.14373419
193	0xbed54054	-0.4165064
194	0x3dae6b54	0.08516565
195	0x3d1869be	0.03721022
196	0xbeb413eb	-0.35171446
197	0xbf0462a1	-0.51712996
198	0x3e096179	0.13416089
199	0x3c7efcf2	0.015563237
200	0x3d80f0d6	0.06295936
201	0xbd8df468	-0.069313824
202	0x3ce51b50	0.027967125
203	0x3da320e8	0.07965261
204	0x3c5b9000	0.0134010315
205	0xbef059ed	-0.46943608
206	0xbef63dd1	-0.48094037
207	0x3dae3551	0.08506263
208	0xbe82f1f3	-0.25575218
209	0xbe0714f8	-0.13191593
210	0xbdf97aab	-0.121816
211	0xbd867c46	-0.06566672
212	0xbf18030e	-0.5937966
213	0x3edabf5d	0.42724124
214	0xbf0ae97e	-0.5426253
215	0xbf1218e1	-0.5706921
216	0xbd760ef2	-0.060072847
217	0xb907ec00	-0.0001296252
218	0xbe23ee92	-0.16008976
219	0xbe756dd8	-0.23967683
220	0xbeb9023e	-0.36134523
221	0x3e107085	0.14105423
222	0x3d26c513	0.04071529
223	0x39eb9b45	0.00044938378
224	0xbe243c83	-0.16038708
225	0xbe8e21d2	-0.27760178
226	0xbf0081a3	-0.5019781
227	0x3e3c3694	0.18380195
228	0xbf733046	-0.94995534
229	0x3edce566	0.43143767
230	0xbdfbb8be	-0.12291096
231	0xbe03fdc2	-0.1288977
232	0x3d3d8ede	0.046278827
233	0xbf3b0d98	-0.7306762
234	0xbda7e1cc	-0.08197364
235	0xbee6030f	-0.4492421
236	0xbf111d8f	-0.5668573
237	0x3e66b9cd	0.22531815
238	0x3e3fad16	0.18718371
239	0xbef91449	-0.4864829
240	0x3eb57498	0.35440516
241	0xbd7402c8	-0.059572965
242	0xbcd846c1	-0.026400926
243	0xbdc001c2	-0.09375335
244	0xbdb1921f	-0.086704485
245	0xbdcabd82	-0.09899427
246	0x3efd2690	0.49443483
247	0x3d0a50d0	0.033768475
248	0xbe4db659	-0.20089091
249	0xbda4b57e	-0.080424294
250	0x3d4e062e	0.050298862
251	0xbf2f1ed2	-0.68406403
252	0x3c18df0b	0.009330521
253	0xbcd7b778	-0.026332602
254	0xbf6cd5d7	-0.92513794
255	0x3dbc0622	0.09180857

all_embed.embed_2.bias f4 [128]
0	0xbe036776	-0.12832436
1	0xbe697ea8	-0.22802222
2	0xbd816b6d	-0.06319318
3	0x3c556e8c	0.013026845
4	0x3e1e64d6	0.15468153
5	0x3dcf32f2	0.10117139
6	0xbe1f67c0	-0.15566921
7	0x3c498508	0.0122997835
8	0x3d01c3bf	0.03168082
9	0xbe083dd7	-0.1330484
10	0xbd30ccd6	-0.043164097
11	0xbdb6d676	-0.08927624
12	0x3d451e59	0.048124645
13	0xbd8e2da1	-0.06942297
14	0xbdbd2c3c	-0.09236953
15	0x3d49c528	0.04926029
16	0xbd980677	-0.07423108
17	0xbd58a89f	-0.052895185
18	0xbddd443f	-0.108040325
19	0x3d8233e0	0.063575506
20	0xbd0f0129	-0.034913216
21	0xbdb8a792	-0.090163365
22	0xbd168db7	-0.036756244
23	0xbdfda094	-0.123841435
24	0xbdbfeb18	-0.093710124
25	0x3b9d8af6	0.004807825
26	0xbdb31428	-0.08744079
27	0xbe371833	-0.17880325
28	0xbe6bb183	-0.23016934
29	0xbd526943	-0.051369917
30	0xbde916bd	-0.1138129
31	0xbe72c854	-0.23709232
32	0xbddd6737	-0.10810702
33	0xbe5f7ae3	-0.21824221
34	0xbe52c35c	-0.20582336
35	0x3bd594f9	0.006518003
36	0x3c5b5dcf	0.013389065
37	0x3dd67408	0.1047135
38	0xbce841cf	-0.028351692
39	0xbc78059f	-0.015138059
40	0xbeaa0fad	-0.33215085
41	0xbddc3a75	-0.10753337
42	0xbcf3aa3c	-0.02974426
43	0xbe60c817	-0.21951328
44	0xbe8bcfc2	-0.27306944
45	0xbcdcdf7a	-0.02696203
46	0x3d7043b2	0.05865831
47	0x3c054667	0.008134461
48	0xbcd8172b	-0.026378235
49	0xbe088478	-0.13331783
50	0xbbb507ee	-0.005524627
51	0x3ca819ba	0.02052008
52	0xbe28543c	-0.16438383
53	0x3daaddf0	0.083431125
54	0xbe23e079	-0.16003598
55	0x3dd13601	0.102153786
56	0x3c7a92ad	0.015293759
57	0xbdf9d879	-0.12199492
58	0xbdb705c1	-0.08936644
59	0x3d1003fe	0.035160057
60	0x3d5bf3ae	0.053699188
61	0xbd62560a	-0.055257834
62	0xbe405ca3	-0.18785338
63	0x3db701be	0.08935879
64	0xbe7049cb	-0.2346565
65	0xbcb625cf	-0.022234825
66	0xbe2b350b	-0.16719453
67	0x3e5000ec	0.20312852
68	0x3cf243ed	0.029573405
69	0x3c4f91fc	0.012669083
70	0xbdf70f55	-0.12063471
71	0xbe1208af	-0.14261125
72	0x3d33985e	0.04384648
73	0x3dad3f9c	0.08459398
74	0xbe45e7ba	-0.19326678
75	0xbc9cb5c5	-0.019129643
76	0xbd98ea1e	-0.07466529
77	0xbe1f3d49	-0.15550722
78	0xbdee5fbd	-0.116393544
79	0xbdcbaad8	-0.09944695
80	0xbd9dc787	-0.077040724
81	0x3e062f7b	0.1310405
82	0x3c740999	0.014894866
83	0x3d982487	0.07428842
84	0x3da15732	0.07877959
85	0xbe2d22e3	-0.1690784
86	0xbcf36b97	-0.029714389
87	0x3d36d6d4	0.04463847
88	0xbdad0f55	-0.0845019
89	0xbcf98d23	-0.030462807
90	0x3d8169fb	0.06319042
91	0xbdd1bcac	-0.102410644
92	0xbdc0fbc6	-0.09423022
93	0xbe1dee05	-0.15422828
94	0xbdcf6cde	-0.10128187
95	0xbdb937b4	-0.09043828
96	0xbcdabfe7	-0.026702834
97	0x3dfaac1f	0.12239861
98	0x3d5b1191	0.05348355
99	0xbc2654b0	-0.010152027
100	0xbd99ff79	-0.07519431
101	0x3e1733f5	0.14765914
102	0x3ca7fa52	0.020505104
103	0xbe6f9286	-0.23395738
104	0xbe120253	-0.14258699
105	0xbdba2dd3	-0.090907715
106	0xbdfe5f3b	-0.124205075
107	0xbe49a7b6	-0.19692883
108	0x3dc9acaf	0.0984739
109	0x3ccbe5a0	0.024889767
110	0xbcdfa000	-0.027297974
111	0x3ce51bb7	0.027967317
112	0xbda5555d	-0.080729224
113	0xbd192c55	-0.037395794
114	0xbe38f544	-0.18062311
115	0x3bc9ddad	0.006160459
116	0xbd3b4b18	-0.04572591
117	0xbdb7936d	-0.08963666
118	0x3dc138b8	0.09434646
119	0x3d5707e6	0.052497767
120	0xbdc8eeb0	-0.09811151
121	0xbd84033f	-0.06445932
122	0xbca0dfa4	-0.01963789
123	0xbe3d8f39	-0.18511666
124	0xbe277525	-0.16353281
125	0xbd2f8fcb	-0.04286174
126	0xbde277ec	-0.110580295
127	0x3cd5573c	0.026042573

pointer.v f4 [1, 1, 128]
0	0xbf74dbd1	-0.95647913
1	0x4002447b	2.0354297
2	0x3fa1ecac	1.2650352
3	0xbec24f96	-0.37951344
4	0xbe914f0b	-0.28380617
5	0x3fc074aa	1.5035603
6	0x4000e0c6	2.013719
7	0x3f8ca9ff	1.0989379
8	0xbfa19a26	-1.2625167
9	0x3fc21a4d	1.5164276
10	0x3fb8ccb8	1.4437475
11	0x3da78ea8	0.081815064
12	0xbeaea5ce	-0.34110874
13	0x3fe3e612	1.7804587
14	0xbfe03b68	-1.7518129
15	0xbfb72e0e	-1.431093
16	0x3f9f0341	1.2422868
17	0xbf2e8e0b	-0.6818549
18	0x3ffccabc	1.974937
19	0xbfaba00f	-1.3408221
20	0xbf16438e	-0.5869683
21	0x3fbbc097	1.4668149
22	0xbf180610	-0.5938425
23	0xbf31f96f	-0.6952123
24	0x3ee222a7	0.44167063
25	0x3f991960	1.1960869
26	0xbfd7f9d9	-1.6873122
27	0xbf98f6b4	-1.1950288
28	0x4002bf10	2.0429115
29	0x3fc38c28	1.5277147
30	0xbf44443d	-0.76666623
31	0x3f6d06e1	0.9258862
32	0xbfb0b87e	-1.3806303
33	0x3fee3ed6	1.8612926
34	0x3fc1c3e3	1.5137905
35	0xbfaa6a29	-1.3313648
36	0xbf4a65e8	-0.79061747
37	0xbfc2ff6a	-1.5234196
38	0xbf18f7c3	-0.59753054
39	0xbf8bc78e	-1.0920274
40	0x3fb83739	1.4391853
41	0xbec65a45	-0.38740745
42	0x3fbcb50f	1.4742755
43	0x3fab0299	1.3360168
44	0x3ffa865d	1.9572254
45	0x3f8c3eec	1.0956702
46	0xbf8af482	-1.0855868
47	0xbf677a0b	-0.904206
48	0xbfc38862	-1.5275996
49	0x3fcc034b	1.5938505
50	0x3fd6f138	1.6792364
51	0x3e4b2cc0	0.1984129
52	0x3fb496f6	1.410857
53	0xbf8fa297	-1.1221493
54	0x3fffe61f	1.9992102
55	0xbf575ec0	-0.8412895
56	0xbfaf7126	-1.3706405
57	0xbf2b4681	-0.66904455
58	0x3fbd4391	1.4786245
59	0xbf90ce97	-1.1313046
60	0xbff806f2	-1.937712
61	0x3ee98a6a	0.45613414
62	0xbf91f6e9	-1.1403476
63	0x3f244d12	0.641801
64	0x3fb8d81f	1.4440955
65	0x3fa69e69	1.3017093
66	0x3f824b1c	1.0179172
67	0xbf6a705b	-0.9157769
68	0x3e14c016	0.145264
69	0x3ec72633	0.3889633
70	0x3f3737eb	0.715697
71	0x3fdc9a22	1.7234538
72	0xbfe868b8	-1.8156958
73	0xbf8311df	-1.0239829
74	0x3f4ce9d2	0.8004428
75	0xbf8fe743	-1.124245
76	0x3f953b7c	1.1658778
77	0xbf54bd88	-0.831017
78	0x3eba98cc	0.364447
79	0x3fb6ae37	1.4271916
80	0xbf5fa811	-0.87365824
81	0xbf59f0e1	-0.8513318
82	0xbefb8bfc	-0.49130237
83	0x3ea131f0	0.31483412
84	0x3eb5cdfd	0.3550872
85	0x3fe511a7	1.7896012
86	0xbf01a1a5	-0.50637275
87	0xbf8328ea	-1.0246861
88	0xbe7404f2	-0.23830011
89	0xbea6ef3f	-0.32604405
90	0xbfae3332	-1.3609374
91	0x3f89cb7c	1.0765224
92	0x3fd5c1b8	1.6699743
93	0x3f93e9a2	1.1555674
94	0xbf9daf7a	-1.2319176
95	0x3f94745f	1.1598014
96	0x3fd7e866	1.6867797
97	0xc001c567	-2.0276735
98	0x3e2d9259	0.16950358
99	0x3fe6d4b4	1.8033662
100	0x3fb1dfee	1.3896463
101	0x3e9def62	0.30846697
102	0xbf428401	-0.7598267
103	0x3fa15356	1.2603557
104	0xbecd0fb1	-0.40051034
105	0x3fc44849	1.533456
106	0xbf6e4519	-0.93074185
107	0xbf6e26a7	-0.9302773
108	0x3f1c7b07	0.61125225
109	0x3faffae2	1.3748438
110	0x3fae420c	1.3613906
111	0x3e22ee1a	0.15911141
112	0xbf51e75c	-0.8199365
113	0xbfb8ad9c	-1.4427981
114	0xbe712c4f	-0.23552059
115	0xbefbc0e5	-0.49170604
116	0x3f98d59d	1.194019
117	0xbf5c43e6	-0.86041105
118	0xbfcad05b	-1.5844835
119	0x3ecc5df9	0.39915445
120	0x3f2c1209	0.6721502
121	0xbf1dfe5a	-0.61716235
122	0x3fb2a2e5	1.3955961
123	0x3ff17335	1.8863283
124	0x3f8440f9	1.0332328
125	0xbf52aa3d	-0.82291013
126	0x3fe14df6	1.7601917
127	0xbfc7b2cb	-1.5601438

pointer.encoder_attn.v f4 [1, 1, 128]
0	0x3d66844e	0.05627852
1	0xbd4c1595	-0.04982527
2	0xbdaa1d81	-0.08306409
3	0xbd7fa276	-0.062410794
4	0xbdf32d06	-0.11873822
5	0xbe0805aa	-0.1328341
6	0xbda665c6	-0.081248805
7	0xbd91f472	-0.07126702
8	0x3df05da7	0.11736613
9	0xbdead10c	-0.11465654
10	0x3d9f2dfe	0.07772444
11	0xbd379d4a	-0.044827737
12	0xbda90e99	-0.082547374
13	0x38a6afd6	7.948249e-05
14	0x3da6ecb7	0.081506185
15	0xbef80dfb	-0.48448166
16	0x3e05c0b3	0.1306179
17	0x3d0c1d73	0.034207772
18	0x3db6b66f	0.08921515
19	0xbdb49362	-0.088171735
20	0xbe575239	-0.21027459
21	0x3df4c2ee	0.119512424
22	0xbd917a57	-0.071034126
23	0x3dc7399c	0.09727785
24	0x3dafb358	0.08579129
25	0xbd71319d	-0.058885206
26	0x3efbfe83	0.49217615
27	0x3d3e47c5	0.046455164
28	0x3ce79f35	0.028274158
29	0x3d666dfc	0.056257233
30	0x3dbd8744	0.092543155
31	0xbe074898	-0.13211286
32	0x3dfd8961	0.123797186
33	0xbddc2cf8	-0.107507646
34	0xbde35509	-0.111002035
35	0xbd91629a	-0.07098885
36	0x3dff64c3	0.12470391
37	0x3e0e6481	0.13905527
38	0xbdc77999	-0.0973999
39	0xbd5117b7	-0.051048007
40	0xbda3c61e	-0.07996772
41	0x3ac1d426	0.0014787957
42	0xbccd70c4	-0.025078185
43	0xbd569c24	-0.052395
44	0xbdc96c42	-0.09835102
45	0xbed884ae	-0.42288727
46	0x3ed550a5	0.4166309
47	0xbdbbf984	-0.09178451
48	0xbd876591	-0.06611169
49	0xbd9ab756	-0.075545
50	0xbdc3da96	-0.09563176
51	0xbc314719	-0.010820174
52	0x3c8ce05a	0.017196823
53	0xbdbeecbe	-0.09322499
54	0xbdb8fe07	-0.09032827
55	0x3c3104e1	0.010804386
56	0xbeaae20f	-0.33375594
57	0xbddb1fe7	-0.10699444
58	0xbde82a88	-0.11336237
59	0xbe2a3e11	-0.16625239
60	0xbd2a8b67	-0.04163685
61	0xbd09fe60	-0.033689857
62	0x3ee9aac1	0.45638087
63	0xbde0c5af	-0.10975205
64	0xbcf228ac	-0.02956041
65	0xbe236adf	-0.15958737
66	0x3da1d0e1	0.079011686
67	0x3d0e5a21	0.034753922
68	0x3de9f2a8	0.11423236
69	0xbe7a8a32	-0.2446678
70	0x3dc77672	0.097393885
71	0xbcb0b39d	-0.021570021
72	0xbe3da67b	-0.18520539
73	0x3e0698fc	0.13144296
74	0x3e07edd0	0.13274312
75	0xbd6a1dea	-0.057157435
76	0xba570b72	-0.00082033046
77	0x3dd2e752	0.10298027
78	0xbddb4c7f	-0.1070795
79	0xbedeff9f	-0.43554398
80	0x3de2773d	0.11057899
81	0x3d9a919b	0.07547303
82	0x3da1d892	0.07902636
83	0xbdfdc135	-0.12390367
84	0x3f05297a	0.52016413
85	0xbdc9d712	-0.098554745
86	0xbd8d0e7f	-0.068875305
87	0x3e0d1c94	0.13780433
88	0xbdcd49f2	-0.100238696
89	0xbd44f16e	-0.048081808
90	0xbe9e9a27	-0.30976984
91	0xbdaf797a	-0.08568092
92	0xbdd93880	-0.1060648
93	0x3ddfbecf	0.10925066
94	0xbd9e268a	-0.077221945
95	0xbd0d94d8	-0.034565777
96	0xbda55f95	-0.080748715
97	0x3e334698	0.17507398
98	0x3df8e0d4	0.121522576
99	0x3dcc0c00	0.09963226
100	0x3de105dc	0.10987446
101	0xbdd260e0	-0.10272384
102	0xbe1d6851	-0.15371825
103	0xbdd86d6f	-0.10567748
104	0xbeb4e89a	-0.3533371
105	0xbdbd6c02	-0.092491165
106	0x3e2499dd	0.16074319
107	0x3d6bc3a2	0.057559617
108	0xbe00b188	-0.12567723
109	0x3be79eb7	0.007068481
110	0x3d90cfbf	0.070708744
111	0x3d801bd8	0.06255311
112	0xbd890b2e	-0.066915855
113	0x3d60bb28	0.054865986
114	0xbdfcdbac	-0.123465866
115	0xbdfabf60	-0.12243533
116	0x3dca90e2	0.098909155
117	0x3dd988b5	0.10621778
118	0x3b3182cb	0.0027086015
119	0xbdce92a5	-0.10086564
120	0xbdb395fd	-0.08768842
121	0x3d1d4db8	0.038404197
122	0xbbb80297	-0.005615543
123	0xbdbc3de0	-0.09191489
124	0xbd63c56a	-0.05560819
125	0xbdb4db0f	-0.088308446
126	0xbd74fd2a	-0.05981175
127	0x3b6aaea8	0.003580967

pointer.encoder_attn.W f4 [1, 128, 256]
0	0x3d60bdc6	0.054868482
1	0x3cbf1ca8	0.023329094
2	0x3d7612cf	0.06007653
3	0x3d2c84df	0.042118903
4	0xbcf01ceb	-0.029310664
5	0x3d960e25	0.073269166
6	0x3cc369dc	0.023854189
7	0x3d32432b	0.043521088
8	0x3a94d324	0.0011354429
9	0xbd14a13d	-0.03628658
10	0xbd21e6d5	-0.03952678
11	0xbca95fa1	-0.020675482
12	0x3d26d155	0.04072698
13	0x3cdcf1f6	0.026970845
14	0x3d9bdf6a	0.07610972
15	0xbc629e4f	-0.013831689
16	0x3d03bb7f	0.032161232
17	0x3d9360a7	0.07196169
18	0xbc1cd2d1	-0.009571747
19	0xbb2c349f	-0.0026276482
20	0x3d19b995	0.0375305
21	0x3ce38747	0.027774466
22	0x3db303ec	0.087409824
23	0x3cb7e1f0	0.022446603
24	0x3d03f244	0.032213464
25	0xbc94545b	-0.01810663
26	0x3c5b11ea	0.01337097
27	0x3ba0cf16	0.004907499
28	0xbbd68acb	-0.006547307
29	0xbc50fccb	-0.012755583
30	0x3d13dc04	0.036098495
31	0x3cc2b79a	0.023769189
32	0x3d4ba103	0.0497141
33	0xbcc1aa82	-0.023640875
34	0xbc51b6a5	-0.0127998935
35	0x3d0a2430	0.033725917
36	0x3c7f99b4	0.0156006105
37	0xbaf50928	-0.0018694745
38	0x3d3fc585	0.04681923
39	0x3c5f013c	0.013611134
40	0x3ca579df	0.020199714
41	0x3d9078d1	0.07054294
42	0x3cc74fa4	0.024329968
43	0x3d1aa0c3	0.03775097
44	0x3b849111	0.0040456136
45	0x3d1abb08	0.037776023
46	0xb8771434	-5.8908205e-05
47	0x3d87fb88	0.06639773
48	0x3ca0ad02	0.019613747
49	0xbb0a2c1f	-0.0021083427
50	0xbceb57d4	-0.028728403
51	0xbb84adde	-0.004049047
52	0x3d754156	0.059876762
53	0x3d642cb3	0.05570669
54	0xbc4e7645	-0.01260144
55	0x3bc003b0	0.0058598146
56	0x3c07f6d7	0.008298597
57	0x3d2c6f18	0.042098135
58	0x3cb1ef30	0.021720499
59	0x3d7c41d6	0.061586224
60	0x3c5fd3a9	0.013661304
61	0x3d0bc144	0.03411986
62	0x3c289324	0.010288987
63	0x3d66bbf6	0.056331597
64	0x3d2422ea	0.04007236
65	0x3d38520d	0.045000125
66	0xbd1afb0b	-0.03783707
67	0x3ce73a95	0.028226176
68	0x3cb3c44c	0.021944188
69	0xbc6240b3	-0.013809371
70	0x3cc160f4	0.023605801
71	0x3bcfe05a	0.0063438835
72	0xbd2d2508	-0.042271644
73	0x3cc6c760	0.024264991
74	0x3cae1888	0.021251932
75	0xbc1faf93	-0.00974645
76	0x3cfc88a4	0.030826874
77	0x3d9d33fa	0.07675929
78	0x3c6a6701	0.014306785
79	0xbc4dfefa	-0.012572998
80	0x3c4c3144	0.012462918
81	0x3c14d563	0.0090840785
82	0xbc9313c2	-0.017953757
83	0xbb32ef88	-0.0027303416
84	0xbd4eae6e	-0.050459318
85	0x3ca8bd68	0.020598128
86	0x3bd04a98	0.0063565485
87	0x3d3f460d	0.046697665
88	0x3be1d42e	0.006891749
89	0x3d62aa26	0.055338047
90	0x3c5aa664	0.013345335
91	0x3d730749	0.05933312
92	0xbabfa663	-0.0014621731
93	0x3d2120ca	0.03933791
94	0x3b051593	0.0020307049
95	0x3d2cc65f	0.04218137
96	0x3cf3833a	0.02972566
97	0x3c124aea	0.008928994
98	0xbd2b5739	-0.04183123
99	0xbc5e6a32	-0.013575124
100	0x3ccb993c	0.024853341
101	0xbd47088c	-0.048592135
102	0x3d47bbc6	0.04876306
103	0x3c625704	0.013814691
104	0x3c46299c	0.012094881
105	0x3cca72a7	0.024712874
106	0x3d4753de	0.048663966
107	0xbc2193cf	-0.0098619005
108	0x3d882723	0.0664809
109	0x3d5e2ad0	0.054240048
110	0x3cbdcdb8	0.023169383
111	0xbc8a3445	-0.016870627
112	0x3db43563	0.08799245
113	0x3d9bb17f	0.07602214
114	0x3b3619ea	0.0027786442
115	0x3db282ff	0.08716392
116	0x3d1cb01c	0.03825389
117	0x3dd9737d	0.10617731
118	0xbb244828	-0.0025067423
119	0x3c9e2d40	0.019308686
120	0xbc81cd51	-0.015844973
121	0x3a3101a9	0.00067522615
122	0x3d874d8e	0.06606589
123	0xbc9816ae	-0.018565502
124	0x3d5a1f80	0.053252697
125	0x3d84c283	0.06482413
126	0xbba1db8d	-0.0049395026
127	0x3d15c7eb	0.03656761
128	0xbe55a1dd	-0.20862527
129	0xbd917ac3	-0.07103493
130	0xbd41f14f	-0.04734927
131	0xbda9e104	-0.082948714
132	0xbd8e0641	-0.069347866
133	0x3def92a2	0.1169789
134	0x3caaa3f9	0.020830141
135	0x3a0d2066	0.0005383551
136	0x3d5a6865	0.053322215
137	0xbd9d43c0	-0.07678938
138	0x3e25f870	0.16208053
139	0xbdf2beed	-0.118528225
140	0x3d88c8b5	0.06678907
141	0x3e2e8541	0.1704302
142	0xbdc6e307	-0.09711271
143	0xbd60cff7	-0.05488583
144	0xbdb8d9fc	-0.09025952
145	0x3b0431c5	0.0020171267
146	0x3d9cc793	0.07655253
147	0x3d344571	0.044011537
148	0x3db56ca2	0.08858611
149	0xbe48d704	-0.19613272
150	0xbe23a88b	-0.15982263
151	0x3e476a30	0.19474101
152	0x3dbe2fea	0.09286483
153	0x3d2f1bc7	0.0427511
154	0xbda2ca60	-0.07948756
155	0x3e736b89	0.2377149
156	0x3e79e84d	0.24405022
157	0x3e059ccf	0.13048099
158	0x3db35cb8	0.08757919
159	0xbcf1b536	-0.029505353
160	0xbdedb7f0	-0.11607349
161	0x3e677d5d	0.22606416
162	0xbda769f5	-0.081745066
163	0x3d49f1ef	0.04930299
164	0xbd2a132a	-0.041522183
165	0xbe9043aa	-0.28176624
166	0xbeb06740	-0.34453773
167	0x3caffdd3	0.021483338
168	0x3db515a1	0.08842016
169	0x3dcd6502	0.10029031
170	0x3c0a687c	0.008447763
171	0x3e50ba15	0.20383485
172	0x3da933b3	0.08261814
173	0x3df22337	0.11823123
174	0xbd621bb3	-0.055202197
175	0x3c15752f	0.009122177
176	0xbd2c590c	-0.04207711
177	0xbe33e6af	-0.17568468
178	0xbe207ca1	-0.15672542
179	0x3de522cd	0.11188278
180	0xbdaf97d9	-0.085738845
181	0xbda70854	-0.08155885
182	0xbd0e7906	-0.034783386
183	0xbd35f256	-0.044420563
184	0xbe17d698	-0.14827955
185	0xbdfd52e0	-0.12369323
186	0x3e15f936	0.14645848
187	0xbb36e407	-0.002790691
188	0xbda216cf	-0.07914507
189	0x3e5245bc	0.20534414
190	0xbd5d2d43	-0.053998243
191	0xbe811f80	-0.25219345
192	0x3ea642b0	0.32472754
193	0x3da2a7fb	0.07942196
194	0xbcc0b20f	-0.023522405
195	0x3dce1e19	0.100643344
196	0x3e11768b	0.14205377
197	0xbd7f76f8	-0.062369317
198	0x3e08d21f	0.13361405
199	0xbdb646a3	-0.08900192
200	0x3e3adfcc	0.18249434
201	0xbd564563	-0.052312266
202	0x3c28f228	0.010311641
203	0x3ddd6674	0.10810557
204	0xbe46e641	-0.19423772
205	0xbd0ccead	-0.03437679
206	0xbeb5839c	-0.35451972
207	0xbe351047	-0.1768199
208	0xbdea99b8	-0.11455101
209	0xbdec6f39	-0.115446515
210	0x3d465d21	0.04842866
211	0x3e261277	0.16217981
212	0x3e8262d8	0.25466037
213	0xbe1510c5	-0.14557178
214	0x3e8b2c0b	0.2718204
215	0x3ba32b78	0.004979547
216	0x3ed17abe	0.40913957
217	0x3d43a374	0.047763303
218	0xbd287aa4	-0.041132584
219	0xbe089660	-0.13338614
220	0xbe5cdf3f	-0.21569537
221	0x3e39ca1a	0.18143502
222	0x3ec8c38d	0.39211693
223	0x3c65ee06	0.0140338
224	0xbd6a2b8f	-0.057170447
225	0xbd58e0a6	-0.052948616
226	0x3db0abdd	0.0862653
227	0x3df18fec	0.11795029
228	0x3e152ff9	0.14569081
229	0x3c52641a	0.012841249
230	0x3d126ff0	0.035751283
231	0x3e565230	0.2092979
232	0xbdf04b25	-0.11733083
233	0x3dbe3464	0.092873365
234	0x3e2438af	0.16037248
235	0x3e004d59	0.12529506
236	0x3d7e205b	0.062042575
237	0xbd1b24bf	-0.03787684
238	0x3db6003d	0.08886764
239	0xbe0a57d5	-0.13510068
240	0xbe10dee1	-0.14147522
241	0xbdf73372	-0.12070359
242	0x3d40d447	0.047077443
243	0xbbc3f0dd	-0.005979641
244	0xbe28e302	-0.16492847
245	0x3ce96a67	0.02849312
246	0x3ca200bc	0.01977574
247	0x3e0013ac	0.12507504
248	0x3d509e01	0.050931934
249	0xbe824888	-0.25445962
250	0x3f10d17f	0.56569666
251	0x3c877103	0.01653338
252	0x3c2af295	0.010433813
253	0xbd445b53	-0.047938656
254	0x3e1a20b4	0.15051538
255	0x3e9c23b1	0.3049598

pointer.fc1.weight f4 [128, 256]
0	0x3dff7baa	0.12474759
1	0xbc600e9a	-0.013675356
2	0xbdd51eea	-0.10406287
3	0x3cdf30df	0.027244983
4	0xbe239eb8	-0.15978515
5	0x3d96efa3	0.07369926
6	0x3de549c0	0.11195707
7	0xbdcc95e2	-0.099895254
8	0x3c7bcb05	0.015368228
9	0xbe35b439	-0.1774453
10	0x3e5be330	0.21473384
11	0xbe83cebd	-0.25743666
12	0xbc3b489a	-0.011430884
13	0xbe48ad70	-0.19597411
14	0x3da879a6	0.082263276
15	0xbe188d57	-0.14897667
16	0x3d031824	0.032005444
17	0x3c0584fa	0.00814938
18	0xbd865bee	-0.06560503
19	0xbe2dec12	-0.16984585
20	0x3dccc6c3	0.09998848
21	0x3def890a	0.1169606
22	0xbe0fe925	-0.14053781
23	0xbe417b1a	-0.18894616
24	0xbce37107	-0.027763857
25	0x3df3a522	0.11896731
26	0x3e58e91b	0.21182673
27	0xbc9cca03	-0.019139295
28	0x3dcb516a	0.09927638
29	0xbd4ccc69	-0.04999963
30	0xbc815eb0	-0.01579222
31	0x3deeb5d7	0.11655777
32	0xbe77ec35	-0.242112
33	0x3d1f1a8a	0.03884367
34	0xbde389df	-0.11110281
35	0x3e60abdb	0.21940558
36	0x3e8dd64c	0.27702558
37	0xbd4a039b	-0.049319845
38	0xbda67146	-0.08127074
39	0xbe982e68	-0.29722905
40	0xbc0da4e0	-0.008645266
41	0xbcc7ee82	-0.024405722
42	0xbdeaf879	-0.11473174
43	0x3e3e552e	0.18587181
44	0xbcd8b3a7	-0.026452852
45	0xbe3ba4c8	-0.18324578
46	0xbea2723c	-0.3172778
47	0xbdacff7c	-0.08447167
48	0x3dd61113	0.104524754
49	0xbd7bb918	-0.061455816
50	0xbdc2a4d3	-0.09504094
51	0x3d4afd1f	0.0495578
52	0xbe423d44	-0.18968683
53	0xbe2f4465	-0.17115934
54	0xbd904bce	-0.070457086
55	0xbdda2914	-0.10652366
56	0xbe8f7202	-0.2801667
57	0xbe67b740	-0.22628498
58	0x3e04081b	0.12893717
59	0x3e47e887	0.19522296
60	0x3e9630c8	0.29334092
61	0x3dcedd5e	0.10100816
62	0xbe5bfe97	-0.21483837
63	0xbe179999	-0.14804687
64	0x3d8772e0	0.066137075
65	0xbba8a0f7	-0.0051461416
66	0xbd98e305	-0.074651755
67	0xbd88d54b	-0.066813074
68	0x3d92ee4a	0.07174356
69	0xbded6602	-0.11591722
70	0xbca6c866	-0.02035923
71	0xbeb37681	-0.3505135
72	0x3da98e98	0.08279151
73	0x3e6751d7	0.22589813
74	0xbe7d23d0	-0.24720693
75	0x3e3c70f0	0.18402457
76	0x3c35a5fb	0.011086936
77	0xbdc16a65	-0.09444121
78	0xbe26ae5f	-0.16277455
79	0xbe139468	-0.14412081
80	0x3d522b2a	0.051310696
81	0xbc24eaff	-0.010065793
82	0x3e9adf00	0.3024826
83	0x3e050974	0.12991887
84	0x3d4f5340	0.050616503
85	0xbcf886ef	-0.030337779
86	0x3c9bf9e6	0.01904006
87	0xbb2075ec	-0.002448435
88	0xbad44c4b	-0.0016197053
89	0xbe0bcf08	-0.13653195
90	0xbdc4bc69	-0.09606249
91	0xbe73516f	-0.23761533
92	0xbe4d8258	-0.20069253
93	0xbc52360f	-0.012830271
94	0xbd9cad62	-0.07650258
95	0xbe6eda32	-0.23325422
96	0xbdba703c	-0.09103438
97	0x3d60ed6f	0.054913934
98	0x3db4649d	0.08808253
99	0x3e6bc038	0.23022544
100	0x3d6691f2	0.056291528
101	0xbe159f08	-0.14611447
102	0xbdc5a415	-0.09650437
103	0xbcd9b525	-0.026575634
104	0xbe5325ea	-0.20619932
105	0xbe53fac5	-0.2070113
106	0x3e47fa99	0.19529189
107	0x3dc15adb	0.094411574
108	0x3da250f2	0.07925595
109	0xbc9333a6	-0.017968964
110	0x3ceba872	0.028766844
111	0xbcbf6bb1	-0.023366781
112	0x3d4996e2	0.04921616
113	0x3e2da3dc	0.16957039
114	0xbe6e105c	-0.23248428
115	0xbe9486e9	-0.29009178
116	0x3dd3c2a4	0.10339859
117	0x3e1b4832	0.15164259
118	0xbdd8ff31	-0.10595549
119	0x3e993043	0.29919633
120	0xbe5542ed	-0.20826311
121	0xbaaeaf2d	-0.0013327353
122	0xbd0e295e	-0.03470742
123	0xbe668dec	-0.22515076
124	0xbe7e84d1	-0.24855353
125	0xbe490268	-0.19629824
126	0x3cd43fea	0.025909383
127	0x3e1a28d7	0.15054642
128	0xbd0ee5b9	-0.03488705
129	0xbe3ea76c	-0.18618554
130	0x3d8ee243	0.0697675
131	0x3d99a9cc	0.07503089
132	0xbd2a3293	-0.041552138
133	0x3ac8fe48	0.0015334571
134	0x3d3d7a27	0.04625907
135	0x3d7c3ae9	0.06157962
136	0x3cd5e899	0.026111888
137	0xbd23c5c4	-0.039983526
138	0xbc88ad6c	-0.016684256
139	0x3e0724eb	0.13197677
140	0x3cce7f3e	0.025207158
141	0xbdf821db	-0.121158324
142	0xbd088297	-0.033327665
143	0xba9ee056	-0.0012121301
144	0xbd0ab1a1	-0.033860806
145	0xbce96f5b	-0.028495481
146	0x3d49af07	0.049239185
147	0x3d22eea7	0.039778378
148	0xbdd8911e	-0.10574554
149	0x3e10e0b5	0.14148219
150	0xbdb3a6c1	-0.0877204
151	0xbbf9b17f	-0.007620036
152	0x3d8c0b54	0.06838098
153	0x3e3c77f6	0.18405136
154	0x3c719462	0.01474485
155	0xbc86ab2a	-0.01643904
156	0xbd391f3b	-0.0451958
157	0x3e0f03c4	0.1396628
158	0xbd9caca2	-0.076501146
159	0xbe025223	-0.12726645
160	0xbdb21817	-0.08696001
161	0x3d50e236	0.05099698
162	0xbdd66e57	-0.104702644
163	0xbe51c202	-0.20484164
164	0xbd9d5e0c	-0.07683954
165	0xbdafa7cd	-0.08576927
166	0x3d490019	0.04907236
167	0xbada8f17	-0.0016674724
168	0x3d8e2686	0.069409415
169	0x3dcaf033	0.099090956
170	0xbd020721	-0.03174508
171	0x3da7e6b3	0.08198299
172	0x3d3d5bf6	0.04623028
173	0xbddcd478	-0.10782713
174	0x3de0b8f1	0.10972775
175	0x3d6144f4	0.0549974
176	0x3da9e7df	0.08296179
177	0x3c10a2c5	0.00882787
178	0x3d9a0bba	0.07521768
179	0xbc5c7652	-0.013455944
180	0x3e13b207	0.14423381
181	0xbd8aeca2	-0.067834154
182	0xbd99e316	-0.07514016
183	0x3db4d80d	0.08830271
184	0xbd6f9f3e	-0.058501475
185	0x3df2e31c	0.11859724
186	0xbcadbbae	-0.021207657
187	0x3c3fa807	0.011697776
188	0xba974b6d	-0.0011542864
189	0xbe065a25	-0.13120325
190	0x3c92cd13	0.017920053
191	0x3cb0c127	0.021576477
192	0x3e0122eb	0.12610976
193	0xba3cc132	-0.0007200419
194	0x3c1db12c	0.009624761
195	0x3d31457f	0.043279167
196	0x3cefe0de	0.02928203
197	0xbd9c0971	-0.07618988
198	0x3c1ca90b	0.009561787
199	0x3c7c6d3e	0.015406905
200	0x3c3a7465	0.01138029
201	0x3d237531	0.039906684
202	0x3e231afa	0.1592826
203	0x3d61f5c9	0.05516604
204	0x3dada3b9	0.08478493
205	0xbdc52b07	-0.096273474
206	0xbdd4645f	-0.10370707
207	0xbe221c41	-0.1583109
208	0xbd6b439f	-0.057437535
209	0x3a1338a9	0.0005616048
210	0x3e2b9e91	0.16759707
211	0x3c2eedfe	0.010676859
212	0x3cc8b7af	0.02450165
213	0x3cd40cd1	0.025885018
214	0x3ca4758c	0.020075582
215	0xbd06b1ee	-0.03288453
216	0xbd002df3	-0.03129382
217	0xbd2890ee	-0.04115384
218	0x3d5b0d2c	0.05347936
219	0x3d2443eb	0.040103834
220	0xbd8b7486	-0.068093345
221	0x3e02a61c	0.12758678
222	0xbc363d37	-0.011122993
223	0xbd1e3cfe	-0.038632385
224	0xbc58fb2b	-0.013243477
225	0x3d54d4dd	0.051960815
226	0x3d9482e5	0.07251529
227	0xbe0bb99c	-0.13645023
228	0x3c842aa2	0.01613361
229	0xbdcd7547	-0.100321345
230	0xbd871028	-0.065948784
231	0xbd14c363	-0.036319148
232	0xbdab5bd2	-0.08367123
233	0xbd499e13	-0.049223017
234	0x3d97c0c0	0.07409811
235	0xbe516e96	-0.20452341
236	0x3cbabcbd	0.022795076
237	0xbdf279e2	-0.118396536
238	0xbc25f0e5	-0.0101282345
239	0x3d7a13b4	0.061053947
240	0xbdc14318	-0.09436625
241	0xbcaf7409	-0.021417635
242	0x3db14039	0.086548276
243	0x3e0f0144	0.13965327
244	0x3e088c67	0.13334809
245	0xbdbedb52	-0.09319176
246	0xbdf58052	-0.11987366
247	0xbb026215	-0.0019894887
248	0x3dadc495	0.08484761
249	0xbe7929fa	-0.24332419
250	0x3c6c806f	0.014434918
251	0xbd92d11a	-0.07168789
252	0x3abbd260	0.0014329664
253	0x3d7f212a	0.062287487
254	0xbd1883f6	-0.037235223
255	0xbdd24d4f	-0.10268652

pointer.fc1.bias f4 [128]
0	0x3cf94a16	0.030430835
1	0x3b6c397a	0.0036045
2	0xbd280672	-0.04102177
3	0x3c699468	0.014256574
4	0x3cde7f44	0.027160294
5	0xbd26ef5a	-0.040755607
6	0x3bc9cb75	0.006158287
7	0x3d8e63a8	0.06952602
8	0xbce024d9	-0.02736132
9	0x3d251219	0.040300462
10	0x3d84e20b	0.06488427
11	0x3ba99a91	0.0051758965
12	0xbd2b57c9	-0.041831765
13	0x3d444189	0.04791406
14	0xbcb796b8	-0.022410735
15	0xbca7df6e	-0.020492282
16	0xbd490cfa	-0.04908464
17	0xbd754d59	-0.059888218
18	0xbcd48f7a	-0.025947321
19	0x3d3461c0	0.044038534
20	0xbce0d2c1	-0.027444245
21	0x3c0a8729	0.008455076
22	0x3dacc8c1	0.08436728
23	0xbd6fb40e	-0.058521323
24	0x3bbb9831	0.0057249297
25	0xbd1c90cf	-0.038224038
26	0xbd168fa7	-0.03675809
27	0xbd8cee72	-0.06881417
28	0xbd90d196	-0.07071225
29	0x3b679860	0.0035338625
30	0x3db91fc8	0.09039265
31	0x3bac1cd8	0.005252462
32	0xbd80d635	-0.06290857
33	0x3d047d7a	0.032346226
34	0x3d145ebf	0.03622317
35	0xbd976129	-0.07391579
36	0xbc320476	-0.010865321
37	0x3d480a8a	0.048838176
38	0x3bcde0f6	0.006282921
39	0x3bb23dfe	0.005439519
40	0xbd34e5be	-0.04416441
41	0x3d89360d	0.066997625
42	0xbd2e9b1d	-0.042628396
43	0xbd920440	-0.07129717
44	0x3c5b9d78	0.013404243
45	0xbc407a6c	-0.011747938
46	0xbd7e98f3	-0.062157582
47	0x3cfdd154	0.030983604
48	0x3acb4c07	0.0015510329
49	0x3d3b6d38	0.045758456
50	0x3dad5ca9	0.08464939
51	0x3c0756ac	0.00826041
52	0xbc9dd473	-0.019266343
53	0x3dad0dc5	0.08449892
54	0xbd7a5db2	-0.06112451
55	0x3d0ee39f	0.034885045
56	0xbcde40fa	-0.027130593
57	0x3d2f1d18	0.042752355
58	0x3cee56c9	0.029094117
59	0x3c4d3bab	0.012526433
60	0xbd01b3cf	-0.03166562
61	0x3b8fcaa4	0.0043881703
62	0xbbc5b354	-0.0060333405
63	0xbd8d7b1e	-0.06908248
64	0x3ca37428	0.019952849
65	0xbbe387a6	-0.006943661
66	0xbc991a48	-0.01868929
67	0x3d735372	0.05940575
68	0x3d44284a	0.047889985
69	0x3d67a13f	0.05655026
70	0x3cdd94d6	0.02704851
71	0x3cece99a	0.028919984
72	0xbd39485b	-0.04523502
73	0xbd0ac333	-0.033877563
74	0xbd33f204	-0.043931976
75	0xbd50a65b	-0.0509399
76	0x3cb2519a	0.021767426
77	0x3c86c117	0.016449494
78	0x3d225483	0.039631378
79	0x3ce59eaf	0.028029768
80	0xbc3c1012	-0.011478441
81	0xbd2e02ce	-0.042483144
82	0xbd137a22	-0.036005147
83	0x3c12dc20	0.008963615
84	0x3d06293b	0.032754164
85	0xbd69c70b	-0.057074588
86	0x3c5836ca	0.0131966565
87	0xbd196310	-0.03744799
88	0x3ab3ffa5	0.0013732804
89	0xb9907f72	-0.00027560774
90	0xbdbb6fd9	-0.091521926
91	0xbdc86466	-0.097847745
92	0xbcece267	-0.02891655
93	0x3dc09199	0.094027705
94	0x3c5fdaa9	0.0136629725
95	0xbd0946df	-0.033514854
96	0xbcc36d65	-0.023855874
97	0x3cc0f9c1	0.023556592
98	0x3d436e2d	0.047712494
99	0xbd905847	-0.070480876
100	0x3d42aee4	0.04753007
101	0xbd8d37b2	-0.06895389
102	0x3cc5a464	0.02412624
103	0xbc826f12	-0.015922103
104	0x3c820aaf	0.015874235
105	0x3cac674a	0.021045346
106	0x3d06ecc6	0.03294065
107	0x3c530110	0.012878671
108	0xbc5996b5	-0.01328056
109	0x3cc26e8c	0.023734353
110	0xbc879b2a	-0.01655348
111	0xbc7265d1	-0.014794783
112	0xbbf1f3c0	-0.0073837936
113	0x3bfb7472	0.0076737935
114	0xbd952e7b	-0.07284256
115	0xbd28176b	-0.041037958
116	0xbd1a95cd	-0.037740517
117	0x3c4f8198	0.012665175
118	0xbce0d6ad	-0.027446115
119	0x3d1247a0	0.03571284
120	0x3b6ba133	0.0035954237
121	0x3ca075d5	0.019587437
122	0x3d3b8076	0.045776807
123	0x3d068856	0.032844864
124	0x3cf0db1f	0.02940136
125	0xbbaacc01	-0.0052123074
126	0xbd729a34	-0.05922909
127	0x3d3f9f43	0.046782743
