trained_models/cvrp/XE_8/model_incumbent_vrpRl13_C_XE_8_T_0.05_12277.pt (torch_old, 469732 bytes, 15 tensors)

all_embed.embed.weight f4 [128, 4]
00000000: b8cd 163f 5b7b cdbc 957d 03be eb89 8ebe
00000010: 37d7 423e eb0d 243f 4fb2 a83c 5d7a dd3c
00000020: a3f7 50be 26f6 3e3e d8a0 4a3d f85d 95bc
00000030: fedc f2bd 9695 f3bd f441 853d 2425 9d3d
00000040: f5ac f13d c457 2bbf c794 3abc 9144 c2bc
00000050: 095c 09bf aef0 d63d 7424 9fbd 9de7 713e
00000060: 9be4 2a3f 2e14 7fbe b7fa ddbc 4ed6 49bd
00000070: 80bd 673d b03d 54bc 7c39 e43d 789c 05be
00000080: dd2b 08be b0ae 723d e819 923c 7864 d63c
00000090: e098 3d3f 1014 4b3e f4fa 49be f1e6 8ebd
000000a0: eeda 10bf e8bd 143f bce8 fcbd d1b8 11bd
000000b0: 295b 253f d34d d0be 64d9 a73d 2d19 553e
000000c0: 2a9d ff3d 16fe 9dbe c3cf 05be 191b 40be
000000d0: f59e e8be 7f93 ed3d b3ce 973d bc0d 843e
000000e0: 86b1 a7be 5b8c 21be 0c1e 593e d334 a73e
000000f0: f3a7 cabe f3d9 4d3f 0a35 633a 5d50 95bd
00000100: 731c 443f 1f20 abbe 430b 793e fe06 c83e
00000110: f505 1b3f 7cb2 f83e 9090 f9bb ba58 2b3e
00000120: 6937 d53e 5ffd 383f b631 debd 02f3 043e
00000130: 3f28 51be c089 b1bc f9d2 4dbe bcd5 2fbd
00000140: 5c16 db3d 6884 8d3d c8c4 d83d b0cd 92bd
00000150: 3880 e53c 93e9 c43c f9af 833e cfd4 bb3e
00000160: bddd 14bf e904 c13e cc53 19be 8d8f 053d
00000170: 297a 103f 4d5e 3a3f 8075 15bd 01b1 de3d
00000180: 7a65 553f 9c2a 393f ab8a 1b3e 124b 983d
00000190: 68e9 d4bb 5f74 4c3f 43ce f9bd ad07 e8bd
000001a0: e3db a93e 4170 a43e 4934 0e3e 5860 fabd
000001b0: a2e5 153f 80a1 e4be 48ca 493e 441b 123e
000001c0: 9082 dc3e c96b 68be 49a6 18bd 84f6 87bd
000001d0: f544 a93e 3a42 043e eb07 633e 3971 72be
000001e0: 2f9f 19be 6257 533e d010 603d 6670 90bd
000001f0: fa2b c33e 32d2 f6be 703c 7fbd e872 cd3e
00000200: c085 4a3b 040b a5bd 38aa a93c 5099 4fbc
00000210: 6833 0f3e d83a 8ebd e231 3a3e d431 93bd
00000220: 7d01 2bbd 49a5 c2be 1fa0 733e 1469 2f3e
00000230: 6d4a 323f ab56 af3e 00cb 6dbe b1f1 8fbd
00000240: 78ed 01bf 38c1 5e3e 70f7 6dbd 3080 8f3e
00000250: 3e79 06be 1e9c 293e f1c0 9cbe 0c5a c0be
00000260: 0700 3b3f c3d9 dfbd 7d95 a9bd 15ab 77bc
00000270: 0899 c33e 60ae 9a3e 9ce9 f6be 8553 edbe
00000280: d7e7 21be 087c 9a3c 449f 423e 6368 3fbe
00000290: 3d10 0d3f 9384 52be 6d36 283e 9e39 753c
000002a0: 9c73 503f 3c7c b5be 3b12 47bb b723 a93e
000002b0: f66b b2bd f751 f8bd a6e5 593e 3ef8 87bd
000002c0: cbbe e53e fd20 aabe 79a5 b93c a26d 88be
000002d0: f2cd c13e 39a6 87be 852f ce3d 1246 f6bd
000002e0: 38f6 02bd a855 5b3d 82d6 363e 3c74 7cbd
000002f0: 1f75 0dbf 4190 7b3e 02b8 883e 353a 9a3d
00000300: c727 9a3e a8e9 563f aae8 b3bc 7d67 3a3e
00000310: cc45 16bd a184 a83e 76dd 56be a3b0 533e
00000320: c9ae 183e 32ba 9c3e 0652 5a3e ad0e 723e
00000330: 44ee d2bd 80f0 bf3d 5f08 4cbe 8684 cabd
00000340: 94d9 33bd 7cca 57bd 0849 00bd 9cde 8f3d
00000350: f770 403c 053d 473f 8f75 5abe e874 d03d
00000360: e892 eb3c ddb7 e9bd 182e a13d 3084 923c
00000370: 0c9b e6bd 2fd5 323f 29d8 b33e 976a 933d
00000380: 6676 c8be d4e1 0d3f b1e2 75bd 85db 943d
00000390: 3977 c6be bbf2 203f ec2f 21be aa86 103e
000003a0: fa0e 273f b6d4 8bbd 7bdc 853e 5e26 d8bd
000003b0: b7fa f9bd 882e bfbd 9808 643d ccbc 0bbe
000003c0: fd20 f5bb 0b50 b83d 3721 c2be 88e5 4a3e
000003d0: e709 d7be f3fd ec3e 3e12 5dbd 0ad8 583e
000003e0: d39d 733c 978f 4b3f 9538 883d c19c a0bc
000003f0: 1cb7 843e f020 e6bd 03f8 45be 1c9e a63e
0.5890765 -0.025083235 -0.12840874 -0.27839598 0.1902741 0.6408374 0.020592837 0.027035886
-0.20406966 0.18648586 0.0494698 -0.018233284 -0.11858557 -0.11893766 0.0650672 0.076731
0.11800567 -0.66930795 -0.01138801 -0.023714336 -0.5365606 0.10495125 -0.07770625 0.2362351
0.66755074 -0.24910042 -0.02709709 -0.049276643 0.056577206 -0.012954161 0.11143777 -0.1304797
-0.13297983 0.059248626 0.017834619 0.026170954 0.74061394 0.19831872 -0.19724637 -0.06977642
-0.5658406 0.58102274 -0.12349078 -0.035576645 0.64592224 -0.40684375 0.08195761 0.20810385
0.124811485 -0.30857915 -0.13067536 -0.18760337 -0.45433775 0.11600398 0.074124716 0.25791728
-0.32752627 -0.15776198 0.21202868 0.3265749 -0.3958126 0.8041069 0.0008667266 -0.07290719
0.7660591 -0.33422944 0.24320702 0.39067835 0.60555965 0.48573673 -0.00761611 0.16733065
0.41643837 0.72261614 -0.10849325 0.12983325 -0.20425509 -0.02167213 -0.20100011 -0.042928442
0.10697624 0.0691002 0.10584408 -0.07168138 0.028015241 0.024037158 0.25720194 0.36685798
-0.58150846 0.3769906 -0.14973372 0.032607604 0.564364 0.7280014 -0.03648901 0.108736046
0.83357966 0.7233064 0.15189616 0.074361935 -0.0064975508 0.7986507 -0.121975444 -0.11329589
0.33175573 0.32116893 0.13887133 -0.12225407 0.58553517 -0.44654465 0.1970607 0.14268214
0.4306836 -0.22697367 -0.037267957 -0.06638816 0.33060423 0.12915888 0.22170989 -0.23676004
-0.1500213 0.20638803 0.054703534 -0.07052688 0.3811949 -0.4820724 -0.062313497 0.4012673
0.0030902475 -0.08058742 0.02071105 -0.01267083 0.13984454 -0.06944817 0.18183091 -0.07187238
-0.041749466 -0.38016728 0.2379155 0.17129928 0.69644815 0.3424581 -0.2322197 -0.07028521
-0.50752974 0.21753395 -0.058097303 0.28027487 -0.13132188 0.1656346 -0.30615953 -0.375687
0.73046917 -0.109302066 -0.08280466 -0.015116473 0.3820269 0.30211163 -0.48225105 -0.46352783
-0.15811096 0.01885797 0.19006068 -0.18692164 0.551029 -0.20558386 0.16427012 0.01496735
0.81426406 -0.35446346 -0.0030375856 0.3303506 -0.08711998 -0.121250086 0.2127901 -0.06639145
0.44872126 -0.33228293 0.022661911 -0.26646143 0.37852436 -0.26494005 0.100676574 -0.120250836
-0.031973094 0.053548485 0.17855266 -0.061634287 -0.5525684 0.24566747 0.26702887 0.07530633
0.30108473 0.8395028 -0.021961529 0.1820354 -0.036687657 0.32913688 -0.20982918 0.2067285
0.14910425 0.30610806 0.21320352 0.23638411 -0.10299352 0.093720436 -0.19925068 -0.09888558
-0.04390867 -0.05268334 -0.031319648 0.07024881 0.011745683 0.77827483 -0.21333908 0.10178548
0.028756574 -0.11412022 0.0787012 0.017885298 -0.112600416 0.6985654 0.35125855 0.07198065
-0.3915283 0.5542271 -0.060030643 0.072684325 -0.38762835 0.6287038 -0.15740937 0.1411387
0.6525723 -0.06827681 0.26144776 -0.10554193 -0.12206023 -0.09335047 0.05567226 -0.13646239
-0.007480739 0.08999642 -0.37915966 0.19814122 -0.41999742 0.46287498 -0.053972475 0.21176162
0.014869171 0.79515976 0.06651417 -0.019605996 0.2592095 -0.11236751 -0.1933289 0.32542503

all_embed.embed.bias f4 [128]
00000000: 2507 523e f8dc b53d 264d acbe 1c6a cbbe
00000010: 518b 303f 9b5c 7d3e c0ed 863e a859 90be
00000020: 50b8 4ebe bd69 993e 58a6 0d3f eb3c e33e
00000030: aaf1 ff3e c875 133e 426a c03d b7f9 c73e
00000040: 319f f0bd ae35 a5be 77ed 253e 4c51 26be
00000050: a0e7 90be 416b c8be b96d f33e a81b a43e
00000060: 19ef e83d 4684 a93e d292 8b3d 45a1 573e
00000070: adaa 163f 6378 f63d 24b9 54be 3b08 823c
00000080: 3afe 89be 9823 a8be 6f9d 91bb 0614 113f
00000090: c8ea 273e 8c7d e33e 89ab 2d3e 9f5a 433e
000000a0: 2ccb b3be d184 7b3e b835 56bd 8b59 88bd
000000b0: 43cf 0d3f 6f5e c03e 783a 8cbe 9561 bf3e
000000c0: 04f1 e8bd 0164 7dbe d786 afbe e276 dbbe
000000d0: 2066 f5be d5be 0bbe 26e3 f8be db02 99bd
000000e0: 7e6c 683e d95c 203e 3b0a 173f 4218 fcbe
000000f0: ba42 2abe 74b4 c43e dc25 073e 8ada 8fbe
00000100: e960 b83e 2856 92bd 6c8c c93d 98a2 493e
00000110: 4284 c5be e8e2 69be 58c2 c53e 7e77 b13e
00000120: 7893 f7be 1686 c2be c9ed a03d 80b9 ebbe
00000130: c8b7 abbd e8ce b7be 4a1f 1d3e b4d9 80be
00000140: 4140 1a3f c955 87bd 0cf9 40be ac98 f43e
00000150: 3fa0 263e 567f aebe b900 463e 2839 aa3e
00000160: 4bcd fc3e 2399 563e ba2a 373e 5c80 65be
00000170: 2c9e a63e 50b6 a63d 2f13 14be 98af e13e
00000180: c6b5 723e 2b56 153f 6001 cfbe 908c ab3e
00000190: 9451 903e cc94 f43e ec41 c03e 1a1a 65be
000001a0: 39b0 de3e fc7c 2fbe 421e 803d 559d af3d
000001b0: 3f8c 9b3e 5771 9fbe 6c2a 8dbe 0b09 b63c
000001c0: 6836 7f3d 7fc4 bbbe 312c de3e e8c2 d3bd
000001d0: 1e1e bcbe 24ae 68be 4ddc 933e 0dad a73e
000001e0: 5c6b f3be d880 8c3e fb19 3d3e 2a35 783e
000001f0: ce8f ec3e 1473 e3be 90a0 09be 976a 373e
0.20510538 0.08880037 -0.3365261 -0.39729393 0.6896258 0.24742357 0.26353264 -0.28193402
-0.20187497 0.29963484 0.55331945 0.44382414 0.49989063 0.14400399 0.09395267 0.39057705
-0.11749113 -0.32267517 0.16203867 -0.1624195 -0.28301716 -0.39144328 0.4754465 0.3205235
0.11373729 0.3310873 0.06815113 0.21057613 0.5885418 0.12034681 -0.2077375 0.015873065
-0.26951772 -0.32839656 -0.0044438164 0.5667118 0.16398156 0.44431722 0.16959967 0.19077538
-0.35115945 0.24562384 -0.052297324 -0.06657704 0.5539438 0.37572047 -0.27388358 0.37379137
-0.11374095 -0.2474518 -0.34282562 -0.42864138 -0.47929478 -0.13647015 -0.486108 -0.07471248
0.22697636 0.15660419 0.58999985 -0.49237257 -0.16627017 0.38418925 0.13198036 -0.2809642
0.36011437 -0.07145339 0.098412365 0.19690931 -0.38577467 -0.22840464 0.38624835 0.34661478
-0.48354697 -0.37992924 0.07857854 -0.46039963 -0.08384663 -0.35900044 0.15343967 -0.25166094
0.60254294 -0.06608159 -0.18845004 0.4777273 0.16272067 -0.34081525 0.19336213 0.33246732
0.49375376 0.20956855 0.17887393 -0.22412246 0.3254255 0.08140242 -0.14460443 0.4407928
0.23702154 0.58334607 -0.40430737 0.33505678 0.2818724 0.47769773 0.37550294 -0.22373238
0.43493822 -0.17137522 0.06255771 0.085749306 0.30380437 -0.3114116 -0.27571428 0.022221109
0.062307745 -0.36673352 0.4339309 -0.1033991 -0.36741728 -0.2272268 0.28879014 0.32749215
-0.47542846 0.2744205 0.18466942 0.2423903 0.46203464 -0.44423735 -0.13440156 0.17911755

all_embed.embed_2.weight f4 [128, 128]
00000000: ee57 eebc 3b81 0dbe 304d b13c 3885 e73c
00000010: f560 e23d 7a32 3d3a 9353 be3d b34f a0bd
00000020: 566b d7bd f302 a4bd d514 1bbe 264f f73d
00000030: 53e0 413e 2ca6 613e 73fd 6f3e 1f4e b5be
00000040: 584e 123e cae7 49be aa67 08be 70b3 723d
00000050: 02dd c3bd 9545 0c3f d54f 9abe dd13 7fbd
00000060: f8be 14bb 1c59 c8bd 2f06 41bc c375 e03d
00000070: ac23 8b3d fe2b 493d 5218 e03d 2879 c43e
00000080: 2290 e03d f665 97bd 264a 073e 0b68 b3bd
00000090: b793 25be 50dc 733e b8b4 8e3e 7866 0d3d
000000a0: da2e 9cbd bbdc ea3d 7d59 5c3e 38e2 8a3c
000000b0: f832 8b3e e4f9 f83c 2b1b fbbd 4b77 98bd
000000c0: ad27 3ebe 3b50 ca3e 7343 8a3e 1cf8 fcbc
000000d0: 40d2 edbd 7e0f b3be 781c 663d 1cfc 08be
000000e0: 54f7 afbe 775a 45be 72ff 883e e4e3 ecbc
000000f0: 8bdc 143f f404 76bd a606 c2be c5bf d33e
00000100: d4d0 d03d 9b58 82bd d0d8 8ebe 2d50 f6bc
00000110: 2bc0 403e 2e04 9bbe 59ea db3c d5a5 ddbd
00000120: 8012 c5bb 3360 123e 070b 2a3e 1887 15bd
00000130: b005 0f3d 6025 d6bc d084 33be 1026 c53d
00000140: 407b f83d 8e3c 113d 7c1d 293d 9a12 9b3d
00000150: 4dcc 6dbe 61da fabd efef d2bb e2b4 533c
00000160: 187a 313e 4fcb 87bd ae30 913e bcaf 00be
00000170: 1db2 a13e 69c0 71be abb8 bebe af00 a73e
00000180: 820b 7dbd 40f0 283c 2561 bf3d e7c5 ce3d
00000190: 2875 8abe 56f1 b63e 1aeb a0be 4743 8cbd
000001a0: 2144 283d b660 fdbd f5b9 743d 8cf4 67bd
000001b0: b914 9bbd e5f8 a93e 7db5 1abe 6a70 683d
000001c0: bd9c 88be ad02 8dbd 8d7a 603d 251d f2bd
000001d0: dbd0 133e 6299 f53d 665e a63e eabc 9fbe
000001e0: dd7a 1b3e 4093 d2bb b3f6 373d 5de6 89be
000001f0: 2585 63bd 3772 d8bd 1087 153d bee9 6f3e
00000200: cdb7 253e 7dd9 aabd b30a 07be 9a7c 9bbd
00000210: 2e26 c33d ffac 2c3d 3cf9 423e c21e a4bd
00000220: 80ec 27bc 9ffc ff3d dd00 11be 0444 613e
00000230: aceb b23d 5378 943e 8cfb 6d3d 08cd 6bbe
00000240: 7388 a73d 8ec1 8cbe b0d1 40be a0db 9ebd
00000250: c878 94bd f560 7dbd b7d9 45bd fc4a 0abc
00000260: e3ad 0dbd e5b8 80be ab82 07bc 98e8 a63e
00000270: 27be 853e 9d5f 17be c22c c43d ecc8 623e
00000280: 78bf 813d 5695 d73d d5c5 343e 15cb 4f3e
00000290: 8bbc 59bd dbfe e1bd 89a4 a73e b673 fbbd
000002a0: d6ad a23d 4ea8 833d 9114 7f3e af38 013e
000002b0: f69a 713e d5a9 fc3c 2e5a e43d 45ed 6dbd
000002c0: f82a 2a3c 9b2c e2bc 372d 23be c0c0 b8bc
000002d0: 2df3 88bd 9a61 7bbe 2eae 943d 20b7 d6bd
000002e0: 055e 383a 3f31 50be 3db7 1e3e f192 0f3e
000002f0: e288 4abd 9235 debd 1ab3 0ebe cee4 1fbe
00000300: 8536 0dbe c2be d83d 5a0a 8f3c 6ce4 9d3c
00000310: d8f2 b7bd 9cc5 e1be 86da 353e d209 edbd
00000320: aa40 e6bd aa25 b2bd 5336 a33d a3ee 063e
00000330: a2ea 06bd 03b4 b1bd f9ee 373d 18a3 683d
00000340: be9d 3e3d 8fec 2dbe 4271 cd3d 6a4e de3c
00000350: e42d f1bd 6283 efbd e50b e03d 88b1 dabd
00000360: 52ea b23d c543 34be 18a7 fc3d e68b c53d
00000370: 8717 14be 1b70 09be 0ae6 3dbe a2ab 443e
00000380: 9dc9 21be c93b 46bc a0cf 2ebe f593 873e
00000390: 0a18 72be 7ffb 763e 6813 5abe d5a0 483d
000003a0: a446 133e 5a4d 07be e1c1 ce3c 114b a8bd
000003b0: 31be d23d e284 febd f9d0 073e 8bc5 5f3e
000003c0: 4fdb 593d c0ae bcbd b6f0 d33d 58eb ed3c
000003d0: 6ae4 8b3d 0280 46bd fb54 bf3d 9b01 b2bd
000003e0: 787f 48bd 3e51 103c 9740 52be 0dd7 66be
000003f0: 22a2 c83d bf22 1a3e 73f1 1abe 16af d23d
-0.029094663 -0.13818829 0.021643251 0.028261766 0.11053649 0.00072172994 0.09293284 -0.078277014
-0.105185196 -0.08008375 -0.15144666 0.12075643 0.18933229 0.22036046 0.23436527 -0.35411164
0.14287698 -0.19717327 -0.13320795 0.059253156 -0.09563638 0.54793674 -0.30139032 -0.062274802
-0.0022696834 -0.09782621 -0.011781259 0.10959961 0.06793913 0.04911422 0.10942139 0.38373685
0.10964991 -0.073924944 0.13211879 -0.08760079 -0.1616963 0.23814511 0.27872252 0.03452155
-0.07626124 0.11467882 0.21518512 0.016953573 0.27187324 0.030392595 -0.12261041 -0.07444628
-0.18569823 0.39514336 0.27004585 -0.030880027 -0.11612368 -0.34972757 0.056179494 -0.13377422
-0.34368384 -0.19272791 0.2675739 -0.02891726 0.5814902 -0.060063317 -0.37895697 0.41357246
0.10196081 -0.063645564 -0.2789979 -0.030067528 0.18823306 -0.30276626 0.026845144 -0.108226456
-0.0060141683 0.1429451 0.16605769 -0.03650579 0.034917533 -0.026140869 -0.17531133 0.096264005
0.12132883 0.03545814 0.041287884 0.07571907 -0.23222466 -0.12248684 -0.0064372937 0.012921544
0.17331731 -0.06630575 0.28357452 -0.12567037 0.31581202 -0.23608555 -0.37250265 0.3261771
-0.061778553 0.010311186 0.09344701 0.100963406 -0.27042508 0.35731 -0.31429368 -0.0684877
0.041080598 -0.12371962 0.059747655 -0.056629702 -0.07572312 0.33197704 -0.15108295 0.05674783
-0.26682082 -0.06885276 0.054804374 -0.11821965 0.14435141 0.11992146 0.32493895 -0.31198817
0.15183587 -0.006426245 0.044913005 -0.26933566 -0.0555469 -0.1056866 0.03650576 0.2342901
0.16183396 -0.08342264 -0.13187675 -0.07592125 0.095287666 0.04215717 0.19040388 -0.08013679
-0.010249257 0.124993555 -0.14160486 0.21998602 0.08736357 0.2899805 0.058101222 -0.23027432
0.081803225 -0.2749142 -0.1882999 -0.07756734 -0.072496 -0.061860044 -0.048303332 -0.008440729
-0.03458966 -0.25141063 -0.0082709 0.3259933 0.26121637 -0.14782567 0.095788494 0.22146958
0.06335348 0.105265304 0.17653592 0.20292313 -0.053158324 -0.11034938 0.32742718 -0.122779295
0.07943313 0.06428586 0.24910189 0.1261928 0.23594269 0.030842701 0.11150013 -0.058087606
0.010386221 -0.02760916 -0.15935217 -0.022552848 -0.06687007 -0.24548951 0.07259785 -0.10484147
0.0007033053 -0.20331286 0.15499587 0.14020897 -0.049446948 -0.108500615 -0.1393551 -0.15614626
-0.13790329 0.10583259 0.01746099 0.01927396 -0.08981866 -0.44096076 0.17759141 -0.11574139
-0.112428024 -0.0869859 0.07969346 0.1317697 -0.032938607 -0.08676913 0.044905636 0.056796163
0.046537153 -0.16984771 0.10031368 0.027137 -0.11776331 -0.11694981 0.10939769 -0.10678393
0.08736099 -0.17603977 0.12336558 0.09645824 -0.144621 -0.13421671 -0.18544784 0.19206098
-0.15799566 -0.012099215 -0.1707139 0.2648007 -0.23641983 0.24119376 -0.21296465 0.048981506
0.14382416 -0.13213101 0.025238933 -0.08217443 0.102901824 -0.12427689 0.1326331 0.218527
0.053187665 -0.092130184 0.10348646 0.029042885 0.06830676 -0.04846192 0.093423806 -0.086917125
-0.04894969 0.008808432 -0.20532452 -0.22542973 0.097965494 0.15052317 -0.15131168 0.10287301

all_embed.embed_2.bias f4 [128]
00000000: 9945 bb3a 175f a03d ad9a f73c d682 d2bc
00000010: b27d 3cbe 6061 e03c 4c84 a93d 87a1 2fbe
00000020: ae05 22be 8fac 37bd a9f5 d8bd 6cf6 9bbd
00000030: 04c0 c3bd 9d38 163e 90f0 3cbe 5c41 053d
00000040: 21d8 16be 02c1 51bc 5fd3 303c 2696 b63c
00000050: be93 e5bd c2ff c9bd f5f3 263e 2803 3a3d
00000060: 63df aabd 2eec ea3c 5e97 84be d197 18be
00000070: be09 933b 791d 22be 85a2 013e e1bb b6bc
00000080: a401 e9bd bbbe edbd 0e0e bbbd e14b f5bd
00000090: 5af2 31be 34cf 02be f8fa f3bd fad3 d9bd
000000a0: 91a2 d2bd 997b 4a3e db4d a13d 423c 1c3d
000000b0: ca0a 543d 491f 64be a58b 88bd eb6a aebc
000000c0: b0fa 3cbe fe6b f03c 796f 64bc 7d5f 70be
000000d0: d571 a2bd 9065 903d 4bca a7bd abb3 a9bd
000000e0: 42d2 cd3c b352 743e 0600 b2bd d310 2e3e
000000f0: d869 3f3d 09c7 df3d be02 a43d 3b88 b73c
00000100: ac08 f3bd ab60 643d 6b41 17bc 5419 0abe
00000110: bf71 6b3d ba3a ab3d a462 163c 1150 c8bd
00000120: f66f 9dbd ee3a f8bc eefd 74be 1ad4 833c
00000130: edff febc d3c8 a2bb 72b1 8fbd 279a 823c
00000140: 1edb bdbc 59d8 b2bd 67b0 86bc a6b8 dc3c
00000150: 996a 06be 0ba1 5cbc 3efa 84bd 9c92 13bd
00000160: 6ca5 db3d c3ad c13d 732a 18be cf62 b0bd
00000170: a193 dfbd 2b38 9dbd 5cf9 dbbd cb50 4c3e
00000180: bd60 05bd a17a 24be 41da 243d a441 d5bd
00000190: ba76 3abd ae4e 09bd aaa8 3dbe 4a2b 1bbd
000001a0: 6cb6 7bbd b620 c5bd 61c6 3dbd 1a64 393e
000001b0: 6b99 55bd b6b4 24be f524 4fbe b55d 76be
000001c0: ba8e 2c3e 9c21 c9bd 32bf 27be f5bd 6b3d
000001d0: b1fd a93d 7ace c5bc 9016 02be 82ac 05bc
000001e0: de8b 24bc 4d85 dfbd 311f 8abc bf71 0dbe
000001f0: 030e 21bc fe22 e3bc ed24 53bd c47c d83c
0.001428771 0.07830637 0.030225122 -0.025697153 -0.18407324 0.027390182 0.08277187 -0.17151462
-0.15822479 -0.0448423 -0.10593731 -0.076153606 -0.095581084 0.14670034 -0.18451142 0.032533035
-0.14730884 -0.012802364 0.010792582 0.022288393 -0.1120982 -0.09863235 0.16304 0.045413166
-0.08343389 0.028677072 -0.25896734 -0.14901663 0.0044872453 -0.15831555 0.12659653 -0.022306385
-0.11377266 -0.116086446 -0.0913354 -0.119773634 -0.17377606 -0.12774354 -0.11913103 -0.106361344
-0.10284913 0.19773711 0.07876178 0.038143404 0.0517681 -0.2227756 -0.0666726 -0.021291217
-0.18455005 0.02934837 -0.013942593 -0.23473926 -0.07931868 0.070506215 -0.08192881 -0.08286222
0.025124673 0.23859672 -0.08691411 0.16998605 0.0467318 0.10926635 0.080083355 0.022403827
-0.118668884 0.055756252 -0.009231905 -0.13486224 0.057481524 0.083608106 0.009178791 -0.097808965
-0.076873705 -0.030301537 -0.23924991 0.016092349 -0.031127894 -0.004967788 -0.07016267 0.015942646
-0.023175772 -0.08732671 -0.016441537 0.026943516 -0.13126601 -0.01346613 -0.064930424 -0.03602849
0.10724911 0.094569705 -0.14859943 -0.08612596 -0.1091683 -0.07676729 -0.10740921 0.19952695
-0.03256296 -0.16062404 0.040247206 -0.104129106 -0.045523383 -0.0335223 -0.18521371 -0.03788308
-0.061453268 -0.0962538 -0.046331767 0.18104592 -0.052148264 -0.16084561 -0.20228942 -0.24059184
0.16851321 -0.098208636 -0.16381529 0.057554204 0.08300341 -0.024146307 -0.1270392 -0.008158805
-0.010043113 -0.10914097 -0.016860576 -0.13812922 -0.009830001 -0.027726647 -0.051548887 0.02642668

pointer.v f4 [1, 1, 128]
00000000: af62 5cbf 48aa 183f f14e 07bf 8f5d 69bf
00000010: 92ee a63f 67af 6bbf 5c2c 97bb 9a75 5bbf
00000020: d533 4640 97e4 99bf 1bec ce3f 305f d4bf
00000030: dc0d be3f 5e11 b7be 0ce7 ffbf 19c3 053f
00000040: 5d27 26c0 5288 c7bf 546d f2bf db93 a6bf
00000050: dacc 6abf acc4 c73f abd3 263f a890 1240
00000060: 302f 3ebf 3ba7 02c0 86ee bd3f 3f43 bd3f
00000070: 07de 3cbf bb9c b63f 0aee 133f 78e5 e9bf
00000080: 5451 0540 e639 1cc0 2bb9 45bf 88a3 b73f
00000090: 7d65 ae3f 3786 dcbf f33c d6bf 07af b73f
000000a0: 6af0 9e3f 356f 203f 547b b7bf 68fb 39bf
000000b0: f0ab af3f db19 753f ea2e 99bf 2615 cc3f
000000c0: 270f 923f e073 0d40 e77e 953f 40dc 1640
000000d0: 7ab5 a03f 603c ba3f 0bbd c93f 6213 1c40
000000e0: caed d0bf fd0b 963e 16c4 b63f 4526 68bf
000000f0: 96dd 803f 6fd9 083f 24ea a3bf 03ed c53e
00000100: 6ed0 d8bf 540b 323f eddf bc3f f09d 07bf
00000110: 7391 d73e 59e0 11c0 11e0 ba3e c551 b03f
00000120: 00d4 debf 6005 af3f cf07 b23f 1f08 95bf
00000130: cf26 1d40 4e87 0d3f da3d a1bf feda bb3f
00000140: c349 cebf 318c c2bf fed6 3c3f f80a cf3e
00000150: f972 ccbf 8dd2 97bf 2532 d93f 6fe5 6abf
00000160: 7bd7 a4bf ee77 253f 6ede ef3f f5e7 8ebf
00000170: 3a08 a3bf 935d b83f d39a cd3f 2372 2a3f
00000180: 7fff e8bf 5e13 0740 2394 ed3f 221b cf3f
00000190: 41d6 b93f c0d2 b73f 5a2a 893f a06c 92bf
000001a0: 621e ba3f b82e f8bf bfbd b8bf cf2c 11c0
000001b0: ed65 023f ffc1 f7bf e952 be3f a060 bc3f
000001c0: 1e69 303f 8ef0 e0bf 0325 bd3f 03a9 5dbf
000001d0: a211 75bf ab58 af3f 0fe2 bf3f 7768 fcbf
000001e0: 2b9d 14bf 1d44 93bf c1bf c0bf c85c c5bf
000001f0: 70c1 07c0 8383 c63f ee4a 06c0 bccd 79bf
-0.8608808 0.5963483 -0.5285483 -0.91158384 1.3041556 -0.9206452 -0.0046134423 -0.8572632
3.0969136 -1.2022885 1.6165804 -1.6591549 1.484798 -0.35755438 -1.9992385 0.5225082
-2.5961525 -1.5588477 -1.8939614 -1.3013872 -0.9171883 1.5606894 0.6516673 2.290079
-0.7429075 -2.041457 1.4838417 1.4786147 -0.73776287 1.426658 0.57785094 -1.8273153
2.0830889 -2.4410338 -0.7723567 1.4346781 1.3624722 -1.7228459 -1.673735 1.4350289
1.2417119 0.6266969 -1.4334512 -0.7264924 1.3724346 0.9574258 -1.1967442 1.5943954
1.1410874 2.2101974 1.1679353 2.357193 1.2555382 1.4549675 1.5760816 2.438683
-1.6322567 0.2930602 1.4278591 -0.90683395 1.0067623 0.5345678 -1.2805829 0.38657388
-1.6938608 0.69548535 1.4755837 -0.5297537 0.42103156 -2.279318 0.36499074 1.3774954
-1.7408447 1.3673515 1.3908633 -1.1643103 2.4554937 0.55284584 -1.2597001 1.4676206
-1.611626 -1.5199033 0.7376555 0.40438056 -1.5972587 -1.186113 1.6968428 -0.9175634
-1.287826 0.64636123 1.8739755 -1.1164538 -1.2736886 1.4403557 1.6062874 0.6658041
-1.8202971 2.110557 1.8560833 1.6180155 1.451851 1.4361191 1.071605 -1.14394
1.4540522 -1.9389257 -1.4432906 -2.26836 0.50936776 -1.9356078 1.4869052 1.4716988
0.68910396 -1.7573411 1.477692 -0.86586016 -0.9573003 1.3698934 1.4990863 -1.971938
-0.5805232 -1.1505162 -1.5058519 -1.541894 -2.1211815 1.5508884 -2.0983233 -0.9757955

pointer.encoder_attn.v f4 [1, 1, 128]
00000000: 518c d63d 7ff2 75be b0f1 e93d ea3e debd
00000010: 5031 1a3c 8934 333d 9da7 4cbe 30de 1dbe
00000020: 2343 d43d 94bb 9a3d f6fb 753a 7d05 acbe
00000030: 024f 9bbe 721d 31be 4e8c 533e 52d3 563a
00000040: 41e2 063e 83c4 ffbc 79d8 1f3d a23d 603e
00000050: e200 3f3b be90 03bc b8d8 b5bd 330e e93d
00000060: 57aa ed3d b21d 973e 8ec1 8ebe 7e84 58be
00000070: 8dc3 1d3d 7ce3 c23d 2d75 51be 0eb6 4b3e
00000080: 471d 8e3d 6d43 1fbe 3a3c 20be 4261 2cbb
00000090: 0303 81bd aaff 6fbd 20ae 8cbd 8bd7 1e3c
000000a0: 7ae1 793d b566 ad3d 0d1d 9abe ff6c ffbb
000000b0: 1920 1b3e 07ba 0d3e 0bc6 2abe a585 af3b
000000c0: 3f60 063d a694 8a3e 98f1 5abe e7cb 643b
000000d0: 3ab1 1f3b 6033 96be f169 323d 7f19 283e
000000e0: af7e 32be f2a8 bcbb b26c c73d 732f 09be
000000f0: 3dae 0cbe 7ae0 7cbe 4f06 eb3d 69d3 a0bd
00000100: 54f2 123e d4d7 de3d d98e 7f3e 21eb df3a
00000110: 3c7c 5ebe 4099 ec38 c03e ccbe f2a0 af3e
00000120: 8d71 833d 9d06 f5bd 406a 10be 51fd 8bbd
00000130: 7cb2 b3bb b0b0 253c 01e2 4e3d e2a4 723e
00000140: bd9f 263e 8531 143d 103f ee3d 41eb 47bd
00000150: 107d 3b3d b62e 0f3d 70e5 35bd 7707 8b3e
00000160: 82b3 27be dd72 9b3d 9199 28be 1684 9bbd
00000170: 5708 79be 6215 e33c bc23 6fbd 0a57 123b
00000180: 7d62 debd e21c adbe 8793 56be 3403 d5bd
00000190: 7a4e adbe 905c 7bbe 5c71 42bd 2a68 0dbe
000001a0: d009 a53e f3d8 34be 76a8 cabe 07e7 10be
000001b0: 367c ab3d 6aa5 5c3b 8792 3fbe eec3 543e
000001c0: 0ab0 8b3b 3faf 6fbe ad2c 9c3d 7bcd 82bd
000001d0: fe88 91bd 2d96 adbd 65dc 6d3d 31f9 ebbd
000001e0: c481 123d 2518 97bd c0bf eabc 3e01 223d
000001f0: f63f c53c 2d24 7ebd 7dc8 903d d084 063e
0.10475982 -0.24018286 0.11423051 -0.10851844 0.009411171 0.043751273 -0.19985814 -0.15416789
0.10364368 0.07555309 0.00093835534 -0.33597937 -0.30333716 -0.17296389 0.2065899 0.00081949413
0.13172247 -0.031221634 0.039024804 0.21898511 0.0029144813 -0.008030115 -0.088792264 0.113796614
0.11604755 0.29514843 -0.27882046 -0.21144292 0.03851657 0.095160455 -0.20454855 0.19893667
0.06939178 -0.15553065 -0.15647975 -0.0026303087 -0.062994026 -0.05859343 -0.06869149 0.009694944
0.061006047 0.084668554 -0.3010029 -0.007794976 0.15148963 0.13840495 -0.1667711 0.005356508
0.03280663 0.27066535 -0.21381223 0.0034911574 0.002436711 -0.2933607 0.043558065 0.16415976
-0.17431138 -0.0057574445 0.09737529 -0.13397007 -0.13738342 -0.24695006 0.11475813 -0.07852823
0.14350253 0.1088101 0.24956836 0.0017083624 -0.21727079 0.00011281902 -0.39891624 0.3430248
0.064181425 -0.11964152 -0.14103031 -0.06835426 -0.0054839235 0.010112926 0.050508503 0.2369571
0.16271873 0.036180038 0.11633122 -0.04880834 0.045773566 0.034956656 -0.04440826 0.27154133
-0.1637707 0.07590268 -0.16464831 -0.07593553 -0.24319588 0.027720157 -0.05838369 0.0022329711
-0.10858629 -0.33811098 -0.20954715 -0.104010016 -0.33848935 -0.24547029 -0.04747139 -0.13809267
0.3223405 -0.17660885 -0.3958165 -0.1415063 0.08373301 0.003366793 -0.1870824 0.20777866
0.004262929 -0.23406695 0.07625709 -0.063868485 -0.07106207 -0.084759094 0.058071513 -0.11522139
0.035768285 -0.07377652 -0.028655887 0.039551966 0.02407835 -0.06204622 0.0706949 0.13136601

pointer.encoder_attn.W f4 [1, 128, 256]
00000000: ab72 7fbc 5055 8f3c e7ce c3bd 8679 03bd
00000010: 7977 94bb 171a e0bd d11d d0bd d413 273d
00000020: a5b9 d23d 7406 0abd 21d9 b4bc 2655 91bd
00000030: b6d4 2abd 0df5 ccbc 74d9 b9bd 4637 94bd
00000040: b3ca b4bd 1da8 6fbd 933d 0dbe 9a49 263a
00000050: 87b7 d73c 7621 78bc 6c03 86bd e5e6 d5bd
00000060: 66e6 63bb 47b1 9bbd 1527 27ba 391c b6bc
00000070: cd74 c53c 704c 90bc 546f 12bc 6be8 9ebd
00000080: 7ab1 44bd 9b5d 3dbc e723 aebd 3a5b 093c
00000090: f558 b9bc 24ea 96bb 38f0 60bd 2c81 fa3d
000000a0: c0ba 58bd a221 5ebd 034f 48bd 39dc 70bd
000000b0: 9c1e ba3d ddde 23bd db17 933d b2c3 6abd
000000c0: 0e7f 42bd 4910 d63d 5b08 82bd 1cf1 c43d
000000d0: 35ee 8f3b d2f3 7fbd 8ecb b1bc 1e92 a9bb
000000e0: 2fa3 6ebd e2a0 0dbd e79b 6ebb b214 07be
000000f0: 834f aebd 8409 d93c 5188 113d 084c d83c
00000100: fe21 86bd 437d 8ebd 00d5 90bb 84d0 7bbc
00000110: 309f 683c c5da 8cbd 63d3 473d 406c 28bd
00000120: 899e 42bd 7dda ddbc 270b cabc 1d5d 55bc
00000130: 255d dfbb 2260 3fbd 472e 09bd 0cc1 91bd
00000140: 965a 67bd 7962 09bd 092c 4e3d 0dea 683d
00000150: a467 98bd 0d22 13bd 0d17 08bd 6479 9b3c
00000160: 7f06 823c 882e 37bc 0dd5 6abc d057 7cbd
00000170: ecd1 2b3d 309b a7bb 454c ddbc 6798 33bd
00000180: ca13 8fbd 5aba b0bc f7e1 f63d 6941 1fbd
00000190: 36b1 c63b cd80 803c a254 04bd 2e13 f23b
000001a0: d391 debb 0743 96bd 7194 56bd 207b 03be
000001b0: 1ed9 9b3d ba8d b5bd e11b 5cbd d9b6 8ebc
000001c0: abf9 e6bc 1c7a 7abd 8836 b1bc d45f 20bd
000001d0: 204f 093d 049b 703d bfb5 1bbd fb3a 36bd
000001e0: 324b c2bd 1caa 4c3d d37f 74bd 8a55 37bd
000001f0: dfda 9ebd 53fa 74bd f360 9ebd b771 bcbc
00000200: 3baa 993d 2b8f a3bd 6993 52bd bfb8 a33d
00000210: 0212 c6bd 64b4 69be 3958 74bb e782 61bb
00000220: 9465 473e 840d ccbd bc21 66bd 5621 5f3d
00000230: 3fe5 283d 0ae3 f7bd d1d9 dabd 61e7 5fbd
00000240: abda ad3d acca afbd bb2a 803d 7265 573d
00000250: c301 9cbd ef5d 78be fa36 2abe 31f7 943d
00000260: 0d3e 1cbc 16c3 d3bc 51b9 91bc ca9d ea3d
00000270: ece6 8f3d f448 bf3d 8ff5 293e 1c9a 05bb
00000280: 8ddf 7b3d 861a 3dbd 20bc 0d3e 2f0e cebb
00000290: 05b8 91bd 8f80 99be b15f 2f3e 97a5 6abe
000002a0: 7375 56bd 6957 523d 9933 4dbe 13ac 253e
000002b0: ba54 d8bc 5cd2 4fbe 2962 2b3e 914f 82bc
000002c0: 6144 d6bd 3e04 293e 1434 82be 298f 803d
000002d0: 4800 fb3b c21e 1fbd 0733 c13d 753f 823d
000002e0: ff64 803d f261 113e b915 75bd d90b a5bd
000002f0: f408 f13d fdc2 37bd 306d 693d c9e3 8cbc
00000300: a66c 2d3b addc d2bd cd11 253d db1c 95bd
00000310: acc3 703d ad48 a43b ac55 9b3d b046 d5bd
00000320: 8d52 373e 269e 36bd 1ca7 c6bc 980b 58bd
00000330: 2137 2a3d 69cb 0b3d 6ac3 cb3c f82e 94bc
00000340: 3e6d 833d a1ac 0d3e efa1 d33c 16c1 68be
00000350: 3100 0cbe 354a fcbd 6a7d 0bbe 2eb8 c1bd
00000360: 9dfc 623b 0230 a13d 5e40 efbd e8ba d5bc
00000370: b31f a43d 6b97 fa3c ae93 283d b1d8 9e3d
00000380: f1a4 36bc 1378 eebb 3fff 04bd 9640 0fbd
00000390: 78fb 27be 749e be3c 6117 7dbd 3434 75be
000003a0: 3b49 053e 3dd9 4bbd 66f5 1abd fc50 ca3d
000003b0: 4fd8 2c3e b588 c03d b4f8 163c 6267 9e3d
000003c0: d34f 3abd 9230 9fbd 4281 52be f154 b8bc
000003d0: 8657 c83d 755c 00be 9898 f03c b785 1bbd
000003e0: f073 0c3e 3935 59be 731b 1fbe 880b 2f3e
000003f0: 8561 f93d dd6a 79bd 3e1a cabc 9879 fc3a
-0.015591304 0.017496735 -0.09560948 -0.032098316 -0.004530844 -0.10942476 -0.10161937 0.040790394
0.10289315 -0.03369756 -0.022076191 -0.07096319 -0.041706763 -0.025019193 -0.09074679 -0.07237105
-0.08827724 -0.058509935 -0.1379302 0.0006343365 0.02633263 -0.015144696 -0.065436214 -0.1044443
-0.003477478 -0.07602172 -0.0006376368 -0.022230254 0.024103547 -0.017614573 -0.0089376755 -0.07759174
-0.048020817 -0.011557962 -0.085029416 0.0083835665 -0.022625426 -0.0046055485 -0.05491659 0.12231669
-0.052912474 -0.054231293 -0.048903476 -0.05880377 0.090878695 -0.04000746 0.071822844 -0.057315536
-0.04748445 0.10452325 -0.0634925 0.096163005 0.00439241 -0.062488385 -0.021703508 -0.005174889
-0.058261093 -0.034577258 -0.0036408843 -0.13191488 -0.085112594 0.026493795 0.035530392 0.026403442
-0.06549452 -0.069574855 -0.004419923 -0.015369538 0.0141981095 -0.068776645 0.04878558 -0.04111886
-0.047514472 -0.027081722 -0.024663521 -0.013022688 -0.0068165236 -0.04672254 -0.0334914 -0.07116899
-0.056482874 -0.033541176 0.050334964 0.056863833 -0.07441643 -0.035921145 -0.033225108 0.018978782
0.015872238 -0.0111805275 -0.014333022 -0.061607182 0.041948244 -0.0051149353 -0.027013907 -0.043846514
-0.06986196 -0.021573234 0.12054818 -0.03888074 0.0060636057 0.015686417 -0.032307275 0.0073875403
-0.006792286 -0.07337003 -0.05238766 -0.12839937 0.07609771 -0.08864923 -0.053737525 -0.017421173
-0.028195223 -0.06115161 -0.021632448 -0.03915389 0.033522725 0.058741584 -0.038015123 -0.044489842
-0.094869986 0.049966916 -0.059692215 -0.04475931 -0.0775659 -0.05980904 -0.07733335 -0.023003442
0.07503172 -0.079862915 -0.051410113 0.07994222 -0.096714035 -0.2282272 -0.003728403 -0.00344103
0.19472343 -0.099635154 -0.056184515 0.05447515 0.04123425 -0.12103851 -0.106860764 -0.05466402
0.08488973 -0.085835785 0.0625815 0.05258698 -0.076175235 -0.24254583 -0.16622534 0.072737105
-0.009536278 -0.02584986 -0.017788561 0.11455877 0.07026467 0.093400866 0.1659758 -0.0020386046
0.06149249 -0.046167873 0.13841295 -0.006288312 -0.07115177 -0.29980895 0.17126347 -0.2291473
-0.052358102 0.051352892 -0.20039214 0.16178922 -0.026407588 -0.2029509 0.16736664 -0.01590708
-0.10462261 0.16505525 -0.25430357 0.06277306 0.0076599456 -0.038847692 0.09433561 0.0635976
0.062692635 0.1419752 -0.05983517 -0.080589004 0.11769286 -0.04486369 0.056988895 -0.01719846
0.0026462465 -0.10295997 0.04030018 -0.07280894 0.058780357 0.0050135464 0.075847 -0.10413873
0.17902584 -0.044584416 -0.024249606 -0.05274543 0.04155648 0.034129534 0.024873454 -0.018088803
0.06417321 0.13835384 0.025834052 -0.22729906 -0.13671948 -0.12318841 -0.1362206 -0.094589576
0.0034635433 0.07870485 -0.11682199 -0.0260901 0.08013859 0.03058978 0.041156463 0.07756174
-0.0111477235 -0.0072774976 -0.032469984 -0.034973703 -0.16404521 0.023268916 -0.061789874 -0.23945695
0.13016216 -0.04976772 -0.037831686 0.09878728 0.1687939 0.09401075 0.009214569 0.077345625
-0.045486283 -0.07772936 -0.2055712 -0.02250144 0.09782319 -0.1253527 0.029369637 -0.037969317
0.13716102 -0.21211709 -0.15537815 0.17094243 0.121768035 -0.06089293 -0.024670716 0.0019262312

pointer.fc1.weight f4 [128, 256]
00000000: f63a 2a3c 8c10 0f3e d443 153e 226e 8ebd
00000010: c0d8 ea3d fc96 983e 5205 10be 03ea 8e3d
00000020: 950f 3fbe f5ea 3b3e d5d0 dc3d 33a2 9fbd
00000030: 8472 65bc 0173 193e fbef 563e d18d fd3d
00000040: 4eeb 99bd 8a27 383e a46c 09be a6f8 e63c
00000050: fc66 333e 4565 123e d98b 6a3e 288c 34be
00000060: 41f0 093e 922e 273d b259 bd3d 9ff9 f6bd
00000070: c9fe 683d fe78 2fbe b90d 6dbe 1fb5 953d
00000080: 0c5b 58bd cf22 173e 274d a03d 15db 0fbe
00000090: b154 6b3c a9cd 053e 08f2 53be acc4 b13d
000000a0: f674 943c baab 59bd b1c6 683d c2ee 43bc
000000b0: bfbc 8c3d 408e ae3d 30be 5abd 531c 97bb
000000c0: 9183 833d 9894 2ebd cb77 5f3e e3c5 863d
000000d0: 0434 5fbe 491e 92bd b883 eabc 59e3 08be
000000e0: 1d3b a7bd b0e3 58be f0fd 233e b4d6 3bbe
000000f0: a59b e1bc 8b2a 353e f26f 1cbe f74b 1e3d
00000100: 225b c7bd f54f 933d 7f05 bdbd 9c52 353c
00000110: f69b 813d 063e 33be 8e29 fdbd b4ce 6a3e
00000120: 7814 28bd 1bbc 143e 1f54 293e e329 053e
00000130: e6e7 0dbc 0c9c 713b fbcc 703c b789 c8bd
00000140: e7d2 afbd 19f5 50be c05b 3e3d 9204 f83d
00000150: c05e 5a3d c05f 8f3d 830d 3c3d 8ed2 ac3d
00000160: 1da3 ad3d c0c0 c83d 6596 f43c 469e a2bc
00000170: 3d34 40be 6993 7a3c 794d adbd 3832 19be
00000180: 9f67 c33d 2b4e d7bd 2306 a53d b7f5 39bd
00000190: 1a29 3d3e d490 e03d e9e7 1fbd 8259 073e
000001a0: ed6c edbd 826c 9e3d d827 453d 3033 51be
000001b0: 5293 bfbc 7e28 78bd b563 f1bd 3196 c8bd
000001c0: 25ee b03d 0a8f 033e a0ae 2f3e af56 983d
000001d0: ca41 23be 5699 3c3e ce08 3bbe f48d 3f3e
000001e0: 3eb7 16be 39f9 613e 3003 283e a595 3dbe
000001f0: 2e40 0fbe e8ae 073d 99f9 6bbb baba cd3c
00000200: 4bc9 e03d 4a34 973d 84bc ce3d 498e a43c
00000210: 9156 67bc 7cd0 35bd b7fd 20bd 6ddb 0cbd
00000220: f983 25bd 9ee4 983d 6831 ef3c 1315 97bd
00000230: 3718 013e 376a e7bd 9026 2fbd ab72 f3bd
00000240: 0f5d 25bb ef27 b3bc 4439 5a3d be8e 053d
00000250: ab20 90bd 6261 80bb 65dd b63d b6f3 9b3d
00000260: 130a 04ba 743a e73c 3b4c 923d 2adc b33d
00000270: 8161 68bd 15bc 57bd 9d31 eabd 3830 b1bd
00000280: 6d8d f43d cbb5 2d3b 0ea9 0f3d 06eb 8bbd
00000290: 5cf4 d63c d146 8dbd e2b6 d8bd 760c 78bd
000002a0: 82ea 013d 0b4b a6bd a61e 963d 9194 b33b
000002b0: 982d 0f3e b06f b63d abb4 35bd ba8d 733d
000002c0: 4d83 68bd 8a02 8d3d 9ca7 153e 70f0 153e
000002d0: 557a 7cbb 4bd2 a2bd 4dc3 123e 5a39 b53d
000002e0: 581b ec3c 76b9 cbba ded7 a23d 48cf 313e
000002f0: 563b e13d 4a11 55bd ea42 173d 9464 10bd
00000300: fb84 923a 7e9b 2a3d 1b95 893d 779b 8bba
00000310: 1ef0 473d a664 a0bd c122 b7bc ba6e 82bd
00000320: 38ac 23bd 5299 723d 8f50 c93c 052a c7ba
00000330: 0bdb 753d 830f 17bd 671f 4c3d 79d8 873d
00000340: 13d1 063e 0874 0e3d 948d a03d 96cf 73bd
00000350: 01ca 9dbc 5b6e 2a3e 97b3 4d3b 6d56 78bd
00000360: bd12 033e 6cc2 c6bc befe 893d 89cc 97bd
00000370: 30f4 04bd 6fe4 e83c 3090 21bd 5e60 19bd
00000380: c4c1 9e3d 7fc7 e03d 5ca3 38bd 5cc6 473d
00000390: 0e9c b73d ef91 843d 99b5 deba cf16 18bd
000003a0: 3edf 943d d368 ba3d c7f6 ab3d 5124 95bd
000003b0: 49f6 c5bd 4d86 86bd 6776 413d 3c0d 4cbd
000003c0: c02f b9bd c315 533d 38d7 253e b245 e33d
000003d0: 4e4e a2bd 545b 62bd 0e05 1e3e 9cbe 99bd
000003e0: 132c b2bd 9b28 d33d d779 cdbd 92af 843d
000003f0: 801d 9bbd 4a4a 83bd 0f13 613d 5064 91bc
0.010390034 0.13971156 0.14576656 -0.069546 0.11467123 0.29802692 -0.1406453 0.06978228
-0.18658288 0.18351348 0.10782019 -0.07794609 -0.014004353 0.14985277 0.20989983 0.12380565
-0.07515584 0.17983833 -0.1342035 0.028194737 0.17519754 0.14296444 0.2290491 -0.1763159
0.13470556 0.040815897 0.09245624 -0.1205933 0.056883607 -0.17135999 -0.23149766 0.07309937
-0.052821204 0.14759372 0.07827216 -0.14048417 0.014363454 0.13066734 -0.20697796 0.0868009
0.018122178 -0.053142287 0.056830112 -0.01195878 0.06871938 0.08523226 -0.053404033 -0.004611531
0.06421579 -0.04262218 0.21823041 0.06580713 -0.21797186 -0.07134683 -0.028627262 -0.13367976
-0.08165572 -0.21180606 0.16014838 -0.18343621 -0.027540037 0.1769201 -0.15277079 0.038646664
-0.09734179 0.07192985 -0.09229564 0.011067059 0.06328575 -0.17504129 -0.123614416 0.22930413
-0.041035146 0.14524882 0.16535996 0.1300426 -0.008661246 0.0036866693 0.014697309 -0.09791892
-0.08585148 -0.20405997 0.04647422 0.12110247 0.053313017 0.07000685 0.045911323 0.084385976
0.08478377 0.09802389 0.02985687 -0.019850861 -0.18769927 0.015293934 -0.08462042 -0.14960563
0.095412485 -0.10512956 0.08057811 -0.045400348 0.1847271 0.10965124 -0.039039526 0.13217738
-0.115930416 0.0773554 0.0481337 -0.20429683 -0.023385677 -0.06058549 -0.11786596 -0.09794272
0.086391725 0.12847534 0.17156458 0.074384086 -0.15943065 0.18417868 -0.18265077 0.18706495
-0.14718339 0.22067727 0.16407466 -0.18514116 -0.13989326 0.033125788 -0.0036006926 0.025113452
0.109758936 0.0738302 0.1009455 0.020087378 -0.01411976 -0.04438828 -0.03930446 -0.03438895
-0.040409062 0.0746548 0.029198363 -0.073770665 0.12606893 -0.11299556 -0.042761385 -0.118871056
-0.002523247 -0.021869628 0.05327727 0.032606833 -0.07037481 -0.003917859 0.089289464 0.076148435
-0.00050369016 0.028226115 0.07143446 0.08782227 -0.056733612 -0.052669603 -0.11435244 -0.08651775
0.11941037 0.0026506062 0.035073332 -0.068319365 0.026239567 -0.06898273 -0.10581757 -0.06055876
0.031717785 -0.08119782 0.073300645 0.005480357 0.13982236 0.089080215 -0.04436175 0.059461333
-0.056765843 0.0688525 0.14614719 0.14642501 -0.0038525064 -0.079502665 0.14332314 0.088488296
0.028821632 -0.0015542943 0.0795133 0.17364228 0.109976456 -0.05201844 0.03692905 -0.03525217
0.0011178547 0.041652195 0.06717893 -0.001065119 0.048812978 -0.07831697 -0.02235544 -0.06368776
-0.039959162 0.05922825 0.024574546 -0.0015195018 0.06002335 -0.036880028 0.049834635 0.06633086
0.13165693 0.034778625 0.07839504 -0.05952414 -0.019261362 0.1664366 0.0031387561 -0.060629297
0.12800117 -0.02426263 0.06738041 -0.07412059 -0.032459438 0.028429238 -0.03944415 -0.03744542
0.077518016 0.10975551 -0.045077667 0.048773155 0.08965312 0.06473147 -0.0016991376 -0.037131127
0.072691426 0.09102025 0.083966784 -0.072823174 -0.09666116 -0.065685846 0.047232058 -0.04981731
-0.09042311 0.051534425 0.1619538 0.11097278 -0.07925092 -0.05526288 0.15431616 -0.07507059
-0.08699813 0.10310479 -0.10033005 0.064788 -0.07573986 -0.06410654 0.054949816 -0.017748028

pointer.fc1.bias f4 [128]
00000000: 6228 6e3d d9f1 f03c 70a0 1dbd 470d 093c
00000010: 4649 ae3d 40e6 16bd e393 a83c 8b66 04bd
00000020: bfc0 65bd c1dd ab3d 6ff9 983d 41f8 2bbc
00000030: 5933 e13d 18cb 51bd 7aef 0f3b 52b5 0ebd
00000040: 2c38 ad3d 2272 d63c c762 acbc 7745 46bd
00000050: 8463 453d 3dc5 d3bc 57ac 8abd 06c1 a2bc
00000060: f87f 1bbd fe6c 883c 4465 bcbd 8928 f43b
00000070: d972 e73c 7397 edbc f300 51bc 0fef 71ba
00000080: b393 763d adbb 3b3d 65aa 81bb c90f dabc
00000090: 2edf 60bd 3d9b 933d 4ce3 38bd f95f 15bd
000000a0: 0dea 57bd 990e fbbb 279c 143c f512 763d
000000b0: 80ea 87bc 258f 3b3d 2f9a fabc f92e a83d
000000c0: 8937 9dbc dafc 043d e84c 72ba 56f4 3a3d
000000d0: dc16 4bbd 0dff 723d 8566 2f3c 2459 7dbd
000000e0: 897d c8bb 9950 dc3c 7f9f aabd 1d34 553c
000000f0: c0d0 32bd 1453 45bc 0aa2 733d c028 943c
00000100: bb48 5b3d 4e03 aabc 5011 833c fdbb d93c
00000110: 030d 57bd ed5a 1abd 2c5a 2d3c ea68 8f3d
00000120: 913e 0ebc 0308 d43d f1f0 4fbd 0449 42ba
00000130: 79aa f9bc 1006 9cbc ae03 71bd 0d3f c5bd
00000140: b4d5 f3bb 342e 833d 990d 9a3d 72dd 73bc
00000150: fd0b 74bc cf93 563d 26cb 213c 277d 053d
00000160: f1ed 133d dbdb 96bd 00bd 273d 9d58 503b
00000170: 82d0 1d3d a320 4fbc e61c 193c f86c 25bd
00000180: be38 463d 13f0 883d 36ff 85bd c3d2 df3b
00000190: 0434 b03c 16e7 423c 9652 cf3a 9cb4 5c3d
000001a0: cdfe 743c c796 4ebd 30ca 063d 0a14 ea3c
000001b0: df7a d03c e213 a4bb 3c32 30bc 0c92 67bb
000001c0: aacb 13bd 9873 353d dd2e 993d e16c 043d
000001d0: 4b7e 8c3b 7a89 f3bc 0edf 8b3d 71ab c03d
000001e0: b3be a83c 08fb eebb 11eb c6bc 429c 60bd
000001f0: c58e 053c f137 503d 7450 2dbc bd24 cd3c
0.05814398 0.029412197 -0.038483083 0.008364982 0.085100695 -0.036840677 0.02057833 -0.032324355
-0.05609202 0.083919056 0.07469451 -0.0104962 0.10996122 -0.051219076 0.0021962808 -0.03484089
0.084579796 0.02617747 -0.021043194 -0.04840609 0.04819061 -0.025850886 -0.067711525 -0.019867431
-0.037963837 0.016653534 -0.091990024 0.007451121 0.028253006 -0.02900288 -0.012756574 -0.0009229043
0.06019945 0.04583328 -0.00395708 -0.026618855 -0.05490034 0.07207344 -0.045138642 -0.03646848
-0.052713443 -0.0076616523 0.009070433 0.060076673 -0.01659131 0.04579081 -0.030591099 0.08212084
-0.01919152 0.0324677 -0.00092430273 0.045643173 -0.049582347 0.059325267 0.010705595 -0.06185259
-0.0061184806 0.0268939 -0.08331203 0.013012913 -0.04365611 -0.012043733 0.059480704 0.018085837
0.053536158 -0.020753529 0.015999466 0.026578898 -0.052502643 -0.03768437 0.010580581 0.07002433
-0.008681909 0.103530906 -0.05076689 -0.0007411393 -0.030476796 -0.01904586 -0.0588414 -0.096311666
-0.007441247 0.06405297 0.07522125 -0.01488434 -0.014895436 0.052387055 0.0098750945 0.032590058
0.03611559 -0.07366153 0.04095173 0.00317911 0.038528927 -0.012642059 0.009345269 -0.040387124
0.048393957 0.066864155 -0.06542818 0.0068305447 0.021509178 0.0118959155 0.0015817459 0.05388318
0.014953327 -0.05043676 0.032907665 0.028574008 0.025449215 -0.005007253 -0.010754164 -0.0035334853
-0.0360829 0.044299692 0.074796416 0.032330398 0.004287516 -0.02972864 0.06829654 0.094077
0.020598745 -0.007293109 -0.02428201 -0.05483652 0.008151715 0.0508346 -0.010578264 0.025041932

pointer.fc2.weight f4 [128, 128]
00000000: d8d4 c23d 9fdd b33b 93f6 e6bc ba7f dc3c
00000010: 9870 acbd 3ab7 953d e303 5abb 1b27 163e
00000020: 08de e2bc 45eb 013e 4019 03bd 463d b13d
00000030: eccc c3bd 1273 9e3d 6519 10bd acdb 87bd
00000040: 1e47 afbd 2dc4 5fbd 9f04 0e3e 9c03 49bd
00000050: ce59 7ebd 972f 8b3d 4870 21bd a739 fa3d
00000060: 94ba e03d 2695 5c3e bfc7 ee3d 4456 923e
00000070: 3eea 88bc 09e9 c83e 6cd2 1a3e c6df 103b
00000080: 533f a2bc cad8 153e f10e 09bd 80a5 adbd
00000090: 9ea7 193d 87e0 04bd 7eb0 9c3d ffe8 663e
000000a0: 3b98 bd3c 6c06 513d f155 3f3d 529e fd3d
000000b0: 8e52 ab3d b05d 00be d722 ab3d 97ca ef3d
000000c0: d3cd 34bd b069 04be 5e83 3b3d bb71 ae3d
000000d0: 1d41 6a3e 5728 6c3d 4db6 64be cd71 64bd
000000e0: af85 393e e801 a13d 55fe 8f3d 8d86 21be
000000f0: 8353 923d 673f 6a3d aec7 f93d 310f 08bd
00000100: 674c c5bd 4d72 603e 2b92 463e 45e1 90bb
00000110: 9f87 80bd 1ba5 273e e213 0c3b 24ea c3bd
00000120: 6b09 083f 6952 efbd 23bb 37be 19ef e43d
00000130: a47d bd3d 8e5f 353e 9832 033b c885 26bd
00000140: 4c18 b73d 33bb 013e 9255 d2bd e2c7 0e3e
00000150: 05e9 4abe 1a5c 71bd 0e72 a7bd e89b a33b
00000160: e609 813a edde 033e 6a71 b0bd a774 883c
00000170: a0ac 8ebd eaf4 033e 0253 cb3d 7056 c33d
00000180: e98a c83d 0713 98bc 5f80 56bd 45f1 9bbd
00000190: 19d9 0c3e a546 713c 5391 c6bd 560c f3bd
000001a0: f22b 303e 5c8d e03e 18b3 29bd f6b8 b33e
000001b0: cb03 4dbd 6172 b83d a42c 1d3d 0546 90bd
000001c0: d5ea f93c 8dfd a83c de58 58bd 2a16 f5bc
000001d0: 5b78 193d 8507 a43c 4855 51bd 3760 343d
000001e0: 970d e9bd 7565 e5bd 0491 16bc a3a8 e7bd
000001f0: 9e66 213d 58d3 a2bd e00c 6a3c 6aed fdbd
00000200: d2a2 f7bd 468e f13d 7ebb f53c 237d 0d3e
00000210: 33f3 11be 7c02 bdbd 6f43 1c3e ce7b 15be
00000220: 87a2 063e 8f19 ebbc 58a6 413d dbc0 08be
00000230: ad92 bc3c 54c4 d7bd 2086 2d3c ed5a 17be
00000240: ef60 9f3d bbc5 02be e8c2 2abd eaaf 963d
00000250: 1ebd a23d 3e5b ecbd 082e 663d 5c95 c13d
00000260: 6b3c 5a3d 692b cfbd b3e8 4bbc e065 d13b
00000270: 4f57 91bd 392d fb3d a905 02bd f8d6 23bc
00000280: 16b9 d03d c8bd 8c3d 500a f33c 8da2 113e
00000290: 01fa 433c 130c 35bc 2800 d13c 0820 5ebd
000002a0: 0c71 653d 989f 1d3d 1204 5ebd 2909 e53d
000002b0: f670 5abc 7fb1 91bd ee1a afbd 71c2 b6bd
000002c0: b2ae d2bd ee03 f63d 24d4 f4bd 0a3b 81bd
000002d0: d762 0abe 57fc 1abe c2e8 2a3d d9ab 063e
000002e0: e40d 363d 791b 0c3d 88eb 003e e5ed a53c
000002f0: 84af 0c3e 9552 e2bd 9c32 f9bd f23b c8bd
00000300: c462 5dbd 0b57 a6bd 42e3 dfbd 6d9a afbd
00000310: 5816 47bd 63d2 123e 7605 b1bd 913d 9ebb
00000320: 12e6 a63d 3e4d ffbd 5a4e a43d 7be0 0a3e
00000330: 8d61 b8bd 271b 08be 5541 d63c 1632 d93d
00000340: 85cd 18be 14fa cbbd 21c4 3d3d 7875 063d
00000350: 9777 0abe e0ac 813b e6b4 5fbd 65fa fc3d
00000360: ffcf 103e 80b2 6f3b 1500 c63d a4d1 153d
00000370: 0334 c73d e895 08be 9094 be3c 803f 7abd
00000380: a5f4 c63d 822c b2bd cb72 01be 5ffb 59bd
00000390: 9722 f73d c773 d83d 1787 9cbd 0c23 77bd
000003a0: 3667 f23b 3231 963d 5b81 1ebe f322 14be
000003b0: 9572 0d3e 2c26 ca3d 6aaa 09be 772a a43d
000003c0: 9126 343c fa03 da3d 00cb bfbd d9a5 4abd
000003d0: af29 023e 245b b3bd 9b52 3abd 4c25 d83d
000003e0: d61b b43c e8a6 723d b8e3 ac3d ee2c cf3d
000003f0: 43d9 94bd 248a 033e 6690 95bd 5240 e7bd
0.09513253 0.005489066 -0.028193748 0.026916374 -0.08419913 0.07310338 -0.0033266477 0.14663355
-0.027693763 0.12687404 -0.032006502 0.08654265 -0.0956057 0.07736792 -0.035180468 -0.06633696
-0.085584864 -0.054630447 0.1386895 -0.049075708 -0.062097363 0.067961864 -0.03941372 0.122180276
0.10973087 0.2154127 0.11659192 0.2858144 -0.016713258 0.39240292 0.15119332 0.0022106036
-0.019805586 0.1463348 -0.033461515 -0.08478832 0.037513368 -0.03244069 0.07650851 0.22549818
0.023143878 0.051031515 0.04671282 0.12383713 0.083653554 -0.12535739 0.083562545 0.11708563
-0.0441416 -0.12930942 0.04577958 0.08517786 0.22876401 0.05765566 -0.22335167 -0.05577259
0.18117402 0.07861692 0.07030932 -0.15773983 0.07144835 0.05718937 0.12196289 -0.033217613
-0.09633713 0.21918602 0.19391696 -0.0044213855 -0.06275868 0.16371576 0.0021374156 -0.09566143
0.5313937 -0.1168564 -0.1794248 0.11178417 0.0925248 0.17712232 0.002001917 -0.040654927
0.08940181 0.12669067 -0.102702275 0.13943437 -0.19815452 -0.058925726 -0.08176051 0.0049929507
0.0009844869 0.12878008 -0.08615382 0.016657187 -0.06966519 0.12886396 0.09927942 0.09537971
0.0979212 -0.01856376 -0.052368518 -0.07614378 0.13754691 0.014726316 -0.09695687 -0.11867587
0.17204264 0.4385785 -0.041430563 0.35102051 -0.050052445 0.09006191 0.03837265 -0.07044605
0.030507484 0.020628715 -0.052819125 -0.029917795 0.037468296 0.020023117 -0.05110672 0.04403707
-0.11379545 -0.11200992 -0.009189848 -0.11311462 0.039404504 -0.07950467 0.014285296 -0.12398799
-0.120916024 0.11794715 0.02999663 0.13817267 -0.1425293 -0.092289895 0.15260099 -0.14598009
0.13147937 -0.02869871 0.04727778 -0.13354819 0.02301916 -0.105354935 0.01059106 -0.14780779
0.077821605 -0.1277074 -0.041689783 0.07357772 0.079462275 -0.115408406 0.056196243 0.09452316
0.053280275 -0.10115702 -0.012445617 0.0063903183 -0.07096731 0.12264485 -0.03174368 -0.009999983
0.10191552 0.068721354 0.029668003 0.14222164 0.011961461 -0.011050242 0.02551277 -0.054229766
0.056016013 0.03848228 -0.0542031 0.11183388 -0.013332596 -0.07113933 -0.08550058 -0.089238055
-0.10287227 0.12012468 -0.11954525 -0.06310089 -0.13514267 -0.15135323 0.04172588 0.13151492
0.04444684 0.034205887 0.12589848 0.020255039 0.13738829 -0.110509075 -0.12167856 -0.09777059
-0.05404927 -0.08122071 -0.10932018 -0.08574376 -0.048605293 0.14338069 -0.0864362 -0.0048291166
0.08149351 -0.12465905 0.08022757 0.13562195 -0.09002981 -0.13291608 0.0261542 0.10605256
-0.1492215 -0.09959808 0.04632962 0.03282687 -0.13522182 0.003957376 -0.054615878 0.123524465
0.14141844 0.00365749 0.096679844 0.036576882 0.09726717 -0.13338435 0.0232642 -0.061095715
0.09714631 -0.086998954 -0.12641446 -0.05321824 0.12067144 0.10568958 -0.07642954 -0.060336158
0.0073975576 0.07333602 -0.15479033 -0.14466457 0.13813241 0.09870562 -0.13443914 0.08015912
0.010995523 0.1064529 -0.09364891 -0.04947457 0.12711214 -0.08757618 -0.045488935 0.10553989
0.02198593 0.059241205 0.084418714 0.101159915 -0.07268002 0.12845665 -0.073029324 -0.11291565

pointer.fc2.bias f4 [128]
00000000: efd7 5bbd f08b 28bd 60ad 20bc 632d 863d
00000010: 7cf5 24bc f81b 4fbd e44a 873c e0f2 7a3d
00000020: 7611 413e f4e8 6a3d b6d9 5abd ad14 af3d
00000030: f3d2 d13c 2ad0 933d c523 a33c e70c 37bd
00000040: 6101 223e 8042 b9bb 7d71 9abd decb d03d
00000050: 2deb 233c 96c0 ba3d 78b8 003c fc54 433d
00000060: 6d67 aebd e022 9dbb d33c bbba b6b3 38bc
00000070: 31ea 0bbd 8dda 07bd 7343 8abd bcf5 b33d
00000080: 5379 b039 239e 0c3e 42c6 fcbb 13ca bf3d
00000090: 076d b1bc 76f5 463c 15f2 483d ed68 2d3d
000000a0: 556a c73c ad91 723d 3014 d93d ad42 db3c
000000b0: a26c 083d 16f9 403d 7bd6 213d a994 acbd
000000c0: a223 b43c 8d83 223d 0a16 8e3d 62e4 eb3d
000000d0: 6c8a 7e3d f35d 263d a7ad 153e e314 1a3c
000000e0: 8078 a4bc 20db b63c 531a 3f3d e6ea 9f3d
000000f0: b148 e4bc c4a1 623d e990 6d3d 1e76 2bbd
00000100: 301f 933d db9a a3bc 110b 9f3d 7e34 82bd
00000110: ec4f 05bd 7391 213c 9c2a 143d cbd6 523c
00000120: 754e 9f3d e3f9 ceb9 73f8 a23d 03c4 823c
00000130: 812d e5bc 0353 583c 2af9 ba3d 8081 e93d
00000140: d235 bd3d acd4 5b3d 3331 13bc 9f96 713c
00000150: 55e0 863d b965 d53c 99e6 59bd 8f35 14bd
00000160: c940 0b3d 2d34 ebbc fb3c fb3a 8518 553d
00000170: 9de7 89bb c997 a0bd 3ca7 ed3c b28b 0a3d
00000180: e1a8 063d eac7 bcbd 5a28 b43d ac92 d23d
00000190: 8b5c e73d 9a03 ca3d 039c 1cbd b64c 273e
000001a0: fee8 49bd e649 483d 403c 853d ee30 273c
000001b0: e2cd c9bd 4ff3 133e 3617 5fbb 4b1a 693d
000001c0: 5c7b 793d 3caf 183d 04f7 05bd 6b30 853d
000001d0: d778 713d 1e03 973d e165 3b3d b4c6 803d
000001e0: 5c5b 8d3c edcd ad3c 7f17 0f3e 93ad 07bc
000001f0: 9253 04bd 2b02 9f3d ee78 b53d 0105 093d
-0.053672727 -0.04114908 -0.009806961 0.065516256 -0.010068294 -0.050563782 0.016515203 0.06126678
0.18854317 0.057351068 -0.05343028 0.085488655 0.025613284 0.072174385 0.019914517 -0.04469004
0.15820839 -0.0056536794 -0.075411774 0.101951346 0.010004801 0.09118764 0.007856481 0.04768847
-0.08515821 -0.004795417 -0.0014285095 -0.011273315 -0.03415889 -0.03316741 -0.06751146 0.087871045
0.0003365973 0.137322 -0.007714064 0.093647145 -0.021658434 0.012143483 0.049058992 0.042336393
0.024342695 0.05922096 0.105995536 0.026765192 0.033306725 0.047112547 0.039511185 -0.08426792
0.021989647 0.039676238 0.06937797 0.1151817 0.062143728 0.04061694 0.14617024 0.009404394
-0.02007699 0.022321284 0.046655964 0.07808475 -0.027866693 0.055330053 0.057999525 -0.041860692
0.07183683 -0.019971302 0.077657826 -0.06357668 -0.032546923 0.009861338 0.036173448 0.012868593
0.07778636 -0.00039477562 0.07957544 0.015962606 -0.0279758 0.013203385 0.091295555 0.11401653
0.09238781 0.053669617 -0.008983898 0.0147453835 0.06585757 0.026049482 -0.05319843 -0.03618389
0.03399733 -0.028711403 0.0019167954 0.052025337 -0.0042085187 -0.07841451 0.029010408 0.03382463
0.0328759 -0.09217818 0.08796759 0.10281882 0.11296948 0.09863968 -0.038234722 0.16337857
-0.049294464 0.0488986 0.065056324 0.010204537 -0.09853722 0.14448284 -0.0034040934 0.05690984
0.06090866 0.03727649 -0.032706276 0.065033756 0.058953132 0.073736414 0.045751456 0.062878996
0.017255478 0.021216357 0.13973807 -0.008281129 -0.03230626 0.077640854 0.08860956 0.033452038
