trained_models/cvrp/XE_8/model_incumbent_vrpRl13_C_XE_8_P_0.05_28484.pt (torch_old, 469732 bytes, 15 tensors)

all_embed.embed.weight f4 [128, 4]
0	0x3edf0737	0.43560192
1	0x3f18765e	0.59555614
2	0xbe812e36	-0.2523057
3	0xbd8e7184	-0.06955245
4	0x3d5ebff8	0.054382294
5	0x3cfb8708	0.030704036
6	0x3c3f1a30	0.011663958
7	0x3d01c438	0.03168127
8	0xbe84e657	-0.25956985
9	0x3f217b50	0.63078785
10	0xbe512782	-0.20425227
11	0x3e587956	0.21140036
12	0x3eff58e7	0.49872515
13	0x3f633017	0.88745254
14	0xbef31f86	-0.47484988
15	0x3e3ed30e	0.18635198
16	0x3d3199d8	0.043359607
17	0xbdd6b2cc	-0.104833215
18	0x3d919814	0.07109085
19	0xbe566cbc	-0.20939916
20	0xbe08e2a8	-0.13367712
21	0x3da20324	0.07910755
22	0xbc94f688	-0.018183962
23	0x3d5ee4a8	0.054417282
24	0xbedf7ff3	-0.43652305
25	0x3eacf543	0.3378087
26	0xbe8d30ca	-0.27576286
27	0x3e4d5107	0.2005044
28	0xbc14c560	-0.009080261
29	0x3ec66a52	0.3875299
30	0x3e9683bb	0.29397377
31	0x3e93a6ab	0.28838095
32	0x3f20e761	0.62853056
33	0x3f5975df	0.8494548
34	0x3ed72ffc	0.42028797
35	0x3dd7f358	0.10544461
36	0x3e0eb11a	0.13934746
37	0x3d9ba236	0.07599299
38	0xbf10e7c9	-0.56603676
39	0xbf069976	-0.5257791
40	0x3eb1592a	0.3463834
41	0x3f579165	0.8420623
42	0x3b54f205	0.0032492888
43	0x3e927529	0.2860501
44	0xbe510ab6	-0.20414242
45	0x3f1709fd	0.58999616
46	0xbe6ed902	-0.2332497
47	0xbceed4b7	-0.029154165
48	0xbed3109f	-0.41223618
49	0x3eab2e13	0.3343359
50	0x3eacb35e	0.33730596
51	0x3ea3f8b5	0.32025686
52	0x3b95893c	0.0045634788
53	0x3f2676be	0.65024936
54	0xbe9f12af	-0.31068942
55	0xbd77038c	-0.060306117
56	0x3f16319c	0.5866945
57	0xbe80f5c6	-0.2518751
58	0x3d55e83d	0.052223433
59	0x3ea10f5a	0.31457025
60	0x3e7026d3	0.2345231
61	0x3ed14ab6	0.40877312
62	0x3e6c602f	0.23083566
63	0x3e6e3fdb	0.23266546
64	0x3e7399ff	0.23789214
65	0x3e910eea	0.2833169
66	0xbee45a43	-0.44600114
67	0xbf42efd6	-0.7614721
68	0x3e7ca572	0.24672487
69	0x3edd9261	0.4327574
70	0xbe964111	-0.29346517
71	0xbe98f9e2	-0.29878145
72	0xbe583b3b	-0.21116345
73	0x3f25b68f	0.6473169
74	0xbe8dc934	-0.27692568
75	0xbd046189	-0.03231958
76	0xbe4055b7	-0.18782698
77	0x3f2c477f	0.67296594
78	0x3e7e2628	0.24819243
79	0x3d04eb8a	0.03245119
80	0xbe8b090c	-0.2715534
81	0x3f38dca6	0.7221168
82	0x3e321743	0.17391686
83	0x3e1b6f30	0.15179133
84	0xbe518c6e	-0.20463726
85	0x3f5365fd	0.82577497
86	0x3eb13905	0.34613815
87	0x3c28d3d1	0.010304407
88	0xbe3f475f	-0.1867957
89	0x3e249baa	0.16075006
90	0x3e42ba56	0.19016394
91	0xbcba7c54	-0.022764362
92	0x3e8df7fb	0.27728257
93	0x3ee3caaa	0.44490558
94	0xbe87fda7	-0.2656071
95	0xbea950e9	-0.33069542
96	0x3e87c857	0.26520035
97	0x3f5fd222	0.8743001
98	0x3ea1592a	0.3151334
99	0x3dea25b6	0.11432974
100	0x3f4ff83c	0.8123815
101	0x3ee5ea2f	0.4490523
102	0xbd380690	-0.044928133
103	0xbe22ee14	-0.15911132
104	0xbee95ef3	-0.45580253
105	0xbe33150f	-0.17488502
106	0xbe20f37d	-0.15717883
107	0x3ef215e0	0.47282314
108	0xbe4b1428	-0.19831908
109	0x3d278578	0.04089877
110	0xbd6e77a0	-0.058219552
111	0x3dcc6b18	0.09981364
112	0x3e9ab392	0.30215126
113	0xbe869f8c	-0.262936
114	0xbe3d6af1	-0.18497826
115	0x3e88f262	0.26747423
116	0xbe4e8dc0	-0.20171261
117	0xbe29b136	-0.16571507
118	0xbdd90e88	-0.10598475
119	0x3c624060	0.0138092935
120	0x3de6b8b4	0.11265698
121	0xbd516f9f	-0.05113184
122	0xbeeaa128	-0.45826077
123	0xbeaf2389	-0.342068
124	0x3f5415a2	0.8284551
125	0xbd056b3b	-0.032572966
126	0xbcb66e46	-0.02226938
127	0x3d89b61a	0.06724186
128	0x3eeb7ead	0.45995083
129	0xbee1af37	-0.4407899
130	0x3df82cc9	0.12117917
131	0x3d91a4fb	0.07111546
132	0x3f186830	0.5953398
133	0x3dd7ac5c	0.10530922
134	0xbead360d	-0.338303
135	0x3e9ec30f	0.31008193
136	0x3f39bc11	0.7255259
137	0xbd19c798	-0.037543863
138	0x3ddea6e2	0.10871674
139	0xbe3087ff	-0.17239378
140	0x3f79e36c	0.97612643
141	0x3ec6d52d	0.38834515
142	0xbe56276e	-0.20913479
143	0x3e206b32	0.15665892
144	0xbe2ec62f	-0.17067789
145	0x3dfd3a88	0.123646796
146	0xbd457b5c	-0.048213348
147	0xbdc8e1c6	-0.09808688
148	0xbdce6ee0	-0.100797415
149	0x3d1fe2c8	0.039034635
150	0xbd6ae3e8	-0.057346255
151	0x3d8c9140	0.06863642
152	0x3de3491c	0.11097929
153	0xbeb5c20e	-0.35499614
154	0xbf78cfef	-0.9719228
155	0x3e9f06d4	0.31059897
156	0xbda43f43	-0.08019879
157	0xbd6712bb	-0.056414347
158	0x3f56a085	0.83838683
159	0x3e01ebb0	0.12687564
160	0xbee0b255	-0.43886057
161	0x3f0394ae	0.5139874
162	0xbe2bb20c	-0.16767138
163	0xbd1b81fe	-0.037965767
164	0x3cb34940	0.021885514
165	0x3d13d7b8	0.036094397
166	0x3dff94a4	0.12479523
167	0x3d2ec438	0.042667598
168	0x3e1cbf14	0.15307266
169	0x3f59a7dd	0.85021764
170	0xbe8c2d6d	-0.27378407
171	0xbc09f86d	-0.008421046
172	0x3f48bc4d	0.78412324
173	0xbe981ce4	-0.29709542
174	0xbbafa61f	-0.0053603793
175	0x3dc19d61	0.09453846
176	0xbf0a2220	-0.5395832
177	0x3e3792e3	0.17927127
178	0x3e92b929	0.2865689
179	0x3e0a67dc	0.13516182
180	0xbe19e4ad	-0.15028639
181	0x3f00b5e7	0.5027756
182	0xbd92e623	-0.07172801
183	0x3ddb3b7f	0.10704707
184	0x3e2a46c6	0.1662856
185	0xbe311922	-0.17294744
186	0x3c9c1078	0.019050822
187	0x3d31a4b8	0.04336998
188	0x3f34e12c	0.70656085
189	0x3c1c1496	0.009526392
190	0x3f3372c8	0.7009702
191	0x3e38da12	0.18051937
192	0x3e51b360	0.20478582
193	0xbe0cb9b8	-0.13742721
194	0xbd7cdd40	-0.061734438
195	0xbdaae3b8	-0.08344215
196	0x3f66b2f4	0.9011681
197	0xbd59e97b	-0.05320118
198	0xbeda87d3	-0.4268175
199	0x3e351e0b	0.17687242
200	0x3f37f2f9	0.7185512
201	0xbe61f710	-0.22066903
202	0x3e387f94	0.18017417
203	0x3e3ee980	0.1864376
204	0x3c01b4f0	0.007916674
205	0x3e31cb2a	0.17362657
206	0xbdbf1e0f	-0.09331905
207	0x3d97689c	0.073929995
208	0x3e7e65de	0.24843547
209	0x3f6487f2	0.89269936
210	0xbdff0487	-0.124520354
211	0xbd7dedb9	-0.061994288
212	0x3ee2518c	0.4420284
213	0xbeb965fe	-0.36210626
214	0x3e8e9030	0.2784438
215	0x3da68fed	0.081329204
216	0x3f435d13	0.76313895
217	0xbe8b8ba7	-0.27254984
218	0xbefb8a7c	-0.49129093
219	0x3e326e90	0.17424989
220	0xbecb4c41	-0.39706615
221	0x3f073da7	0.5282845
222	0xbe60e72a	-0.21963182
223	0x3da58f09	0.080839224
224	0xbcbdb820	-0.023159087
225	0x3c61ced0	0.013782218
226	0x3e518942	0.20462516
227	0xbd9758c0	-0.073899746
228	0xbd06fd1e	-0.032956235
229	0x3f2757f5	0.65368587
230	0xbd80a0f0	-0.062806964
231	0x3e51fea8	0.205073
232	0x3f782a6b	0.96939725
233	0x3eef9d36	0.4679963
234	0x3ee0791e	0.43842405
235	0xbe3f3219	-0.18671454
236	0x3f700474	0.93756795
237	0x3db82ded	0.08993135
238	0xbe2a2bb0	-0.16618228
239	0x3e6fb535	0.23408969
240	0x3e316de3	0.17327075
241	0xbec9f4ca	-0.39444572
242	0x3f179ecb	0.59226674
243	0x3d56a2d0	0.052401364
244	0x3dc7b6ee	0.09751688
245	0x3f543729	0.8289667
246	0x3d8b2518	0.067941844
247	0x3d5b7aee	0.05358403
248	0x3e0e2ff4	0.1388548
249	0x3e230a12	0.1592181
250	0xbda5bc62	-0.08092572
251	0xbc86e010	-0.016464263
252	0x3ec61175	0.38685194
253	0xbeb069b7	-0.34455654
254	0x3f140a8d	0.578286
255	0x3d0a89b7	0.03382274

all_embed.embed.bias f4 [128]
0	0x3d11484f	0.03546935
1	0xbe7b571c	-0.24544948
2	0x3ef8aebc	0.48570812
3	0xbeae70a7	-0.34070322
4	0xbec3bff8	-0.38232398
5	0xbe971558	-0.2950847
6	0x3e441ab4	0.19150811
7	0xbee152cb	-0.4400848
8	0x3df8bf20	0.12145829
9	0x3eb415c2	0.3517285
10	0x3edf668e	0.4363293
11	0x3e91b3da	0.28457528
12	0xbdabac96	-0.083825275
13	0x3e8377f6	0.2567746
14	0x3e900d5f	0.281352
15	0xbf093f06	-0.5361179
16	0x3e9d46b7	0.30718014
17	0x3e806a48	0.25081086
18	0x3e65c3c4	0.2243796
19	0x3d9d12e3	0.07669618
20	0x3e212fa1	0.15740825
21	0x3d1645a0	0.036687493
22	0xbe974389	-0.29543713
23	0x3da8a9ad	0.08235488
24	0x3e069a9d	0.13144918
25	0x3e6c940f	0.23103355
26	0xbeb79f9e	-0.35863966
27	0xbef1788c	-0.47162282
28	0xbe8f1864	-0.27948296
29	0xbe64846c	-0.2231614
30	0x3ef15a73	0.4713932
31	0x3d2b1d64	0.041776076
32	0x3e8425b5	0.25810018
33	0xbeaf48db	-0.34235272
34	0x3ecd6890	0.40118837
35	0x3e48b52c	0.19600362
36	0xbef75de0	-0.48313808
37	0xbeafe3b8	-0.34353423
38	0x3d068c54	0.03284867
39	0xbeb95b87	-0.36202642
40	0x3f0832a4	0.5320227
41	0xbedccd10	-0.431252
42	0x3dc26a2b	0.09492906
43	0x3dc36d7c	0.09542367
44	0x3ea92a16	0.33039922
45	0xbbf619d7	-0.0075104046
46	0xbeba345c	-0.36368072
47	0x3ecb8bef	0.39755198
48	0xbef90658	-0.48637652
49	0x3e4478c8	0.191867
50	0xbd140a78	-0.036142796
51	0xbef41aca	-0.47676688
52	0x3dc665f7	0.09687417
53	0x3ebf198d	0.3732418
54	0x3d9308ab	0.07179388
55	0x3e877581	0.26456836
56	0xbebeec7c	-0.37289798
57	0xbe5e3ea0	-0.21703577
58	0x3ec1db0d	0.37862435
59	0x3ea6c5c5	0.3257276
60	0x3e73fcff	0.23826979
61	0xbe16c274	-0.14722615
62	0xbe9d8f70	-0.30773497
63	0x3ee73f5e	0.45165533
64	0x3ecc5591	0.39909032
65	0xbdc1a150	-0.09454596
66	0x3f2f8f2d	0.68577844
67	0xbee4464a	-0.44584876
68	0x3ef7f3f3	0.48428306
69	0x3e191deb	0.14952819
70	0x3d279f25	0.040923256
71	0x3e04de5e	0.12975451
72	0x3eb4f74d	0.35344926
73	0x3ede2e2e	0.43394607
74	0x3edc24ae	0.42996734
75	0x3e89822c	0.26857126
76	0x3e0cc86b	0.13748328
77	0xbec3ada2	-0.3821841
78	0x3e5b6e36	0.21428761
79	0xbebc2206	-0.36744708
80	0xbdf9da68	-0.12199861
81	0xbc027bf3	-0.007964122
82	0x3f03c506	0.5147251
83	0x3d9ded4e	0.07711278
84	0x3e552f14	0.2081874
85	0x3ebb5173	0.36585578
86	0xbecd0e10	-0.4004979
87	0x3e3e8fc7	0.18609534
88	0x3e31f710	0.17379403
89	0x3ecbdae1	0.3981543
90	0xbd1f29d6	-0.038858257
91	0xbe824e5c	-0.25450408
92	0xbe3d3e78	-0.18480861
93	0xbe8567fe	-0.26055902
94	0xbee1ece4	-0.44126046
95	0x3ee2fa7e	0.44331735
96	0x3e9cad38	0.30600905
97	0xbe971862	-0.2951079
98	0xbe85239c	-0.2600373
99	0x3e6b1cda	0.22960225
100	0xbe0d0bc6	-0.13774022
101	0xbddf67b8	-0.10908455
102	0xbe38854d	-0.180196
103	0xbdcc1598	-0.09965056
104	0x3ec0847d	0.3760108
105	0xbe0105c3	-0.12599854
106	0x3b3d6542	0.0028899466
107	0x3ea545be	0.32279772
108	0xbeb33928	-0.35004544
109	0xbeec7436	-0.46182412
110	0x3ee4e1b9	0.44703463
111	0x3d90656a	0.07050593
112	0x3ed5a64c	0.41728437
113	0x3ea55ec7	0.32298872
114	0x3eac84a8	0.3369496
115	0x3e8f3e73	0.27977332
116	0x3e8b4e7c	0.27208316
117	0xbed19e50	-0.40941095
118	0x3cfd4924	0.030918665
119	0x3f192f7c	0.5983808
120	0xbd8911f8	-0.066928804
121	0x3ea76d6a	0.32700664
122	0xbe3aff9c	-0.1826157
123	0xbe8a321a	-0.2699135
124	0x3f07d854	0.53064466
125	0xbe548448	-0.20753586
126	0xbee5d0f8	-0.44885993
127	0xbe179d68	-0.1480614

all_embed.embed_2.weight f4 [128, 128]
0	0xbe9bf69b	-0.30461583
1	0x3e1241a9	0.1428286
2	0x3e0bcff8	0.13653553
3	0xbecbbd6a	-0.3979295
4	0x3db212d6	0.08694999
5	0xbdc69608	-0.09696585
6	0x3deeb9ee	0.11656557
7	0x3c1bf569	0.00951896
8	0x3bb35bda	0.005473596
9	0xbc6d9e69	-0.0145031
10	0xbbd23f11	-0.0064162095
11	0x3e8d844a	0.2763999
12	0x3e373798	0.17892301
13	0xbddcc4ab	-0.10779699
14	0xbda2be23	-0.07946422
15	0x3d249392	0.040179797
16	0x3dabbdea	0.083858326
17	0xbdcbc06f	-0.09948813
18	0x3e47fdae	0.19530365
19	0x3e2367f8	0.1595763
20	0x3e80fe05	0.25193802
21	0x3ea5f190	0.3241086
22	0x3d1ccd0f	0.038281497
23	0xbd8aac52	-0.06771149
24	0xbdd2a2a0	-0.102849245
25	0xbe15ae39	-0.14617242
26	0xbca5a277	-0.02021907
27	0xbd6917ee	-0.056907587
28	0xbe498cc0	-0.19682598
29	0x3de97762	0.113997236
30	0x3db191de	0.086704
31	0xbed3c34d	-0.4135994
32	0xbe233ddd	-0.15941568
33	0xbe9ff26d	-0.31239644
34	0xbea95674	-0.3307377
35	0xbe799a52	-0.24375275
36	0xbdd9d933	-0.106371306
37	0x3d0ef5e4	0.03490247
38	0xbe12e441	-0.14344884
39	0x3eac495a	0.33649713
40	0x3ebe880d	0.37213174
41	0x3e15f935	0.14645846
42	0x3dd28674	0.10279551
43	0xbef788d3	-0.48346576
44	0x3eeaac41	0.45834544
45	0x3e919f72	0.2844196
46	0xbd857273	-0.0651597
47	0xbd424c57	-0.047436085
48	0x3d550d74	0.052014783
49	0xbee2676d	-0.44219533
50	0xbef4f383	-0.47842035
51	0xbd4d3e0e	-0.050108008
52	0x3cec1011	0.028816255
53	0xbe231704	-0.15926749
54	0xbf00ffcd	-0.5039032
55	0x3e00805c	0.12548965
56	0x3e0d910b	0.13824861
57	0xbd224dc6	-0.03962495
58	0xbe7198c7	-0.23593436
59	0xbea0a102	-0.3137284
60	0x3d101081	0.03517199
61	0x3e1aa281	0.15101053
62	0x3e1c243d	0.15248199
63	0xbe1b6a3c	-0.15177244
64	0xbe905cdd	-0.2819585
65	0x3dfed962	0.12443806
66	0x3e2cc9b4	0.16873819
67	0xbdff1085	-0.12454323
68	0x3dedbe2f	0.1160854
69	0x3e85bb7d	0.26119605
70	0x3cef325e	0.029198822
71	0x3cbe4f85	0.023231277
72	0x3e248ecc	0.16070098
73	0xbda121df	-0.078677885
74	0xbbd832a2	-0.006597833
75	0xbd9f5c64	-0.07781294
76	0xbe7cfab2	-0.24705008
77	0x3cfaa9f0	0.03059861
78	0xbdf66b2b	-0.120321594
79	0xbd863889	-0.06553752
80	0x3dc1dade	0.09465574
81	0xbe80174d	-0.25017777
82	0x3de91dec	0.1138266
83	0xbcee0a1e	-0.029057559
84	0xbd81fe8a	-0.063473776
85	0x3e28a61b	0.16469614
86	0xbdf79b58	-0.12090176
87	0xbe734b19	-0.23759116
88	0x3eaf0c36	0.34189004
89	0x3e15cd59	0.14629115
90	0xbe591e08	-0.21202862
91	0x3e1c8d07	0.15288173
92	0x3df93802	0.12168886
93	0xbe7aad92	-0.24480274
94	0x3d9a4fe4	0.07534769
95	0x3e87ce8d	0.26524773
96	0xbd38b64f	-0.045095738
97	0x3d2e791c	0.042595968
98	0xbe1ae6e5	-0.15127142
99	0xbee5d15d	-0.44886294
100	0x3dca4050	0.09875548
101	0xbe006561	-0.12538673
102	0xbe9f5fc5	-0.31127754
103	0x3d66ca54	0.0563453
104	0x3e4c6d8b	0.19963662
105	0x3e3de865	0.18545683
106	0xbe978e3c	-0.29600704
107	0xbea0189e	-0.3126878
108	0x3df0ed8a	0.11764057
109	0xbdeffb6f	-0.11717879
110	0xbebc0b78	-0.367275
111	0xbede6eb6	-0.4344384
112	0xbe346f99	-0.17620696
113	0xbeee36a7	-0.4652607
114	0x3db6666a	0.08906253
115	0xbdd8d520	-0.10587525
116	0xbe9149f8	-0.28376746
117	0x3e2dae9b	0.16961138
118	0x3d5880c0	0.05285716
119	0xbc9f5123	-0.019447869
120	0x3df4759a	0.11936493
121	0xbe2ac453	-0.16676454
122	0x3db98225	0.09058026
123	0x3de8a90a	0.11360367
124	0x3de4ad21	0.11165834
125	0xbc7cd560	-0.015431732
126	0xbdfb81fa	-0.122806504
127	0xbe8c45a1	-0.27396873
128	0xbe4f9759	-0.20272578
129	0xbd80a41e	-0.06281303
130	0x3e363a75	0.17795737
131	0xbeace9c4	-0.337721
132	0x3bf0c500	0.007347703
133	0xbe1a2253	-0.15052156
134	0x3e592a6a	0.21207586
135	0x3da441fd	0.08020399
136	0x3ba419c1	0.005007953
137	0x3b355f88	0.002767535
138	0xbd9c1252	-0.07620682
139	0x3d9dcf9d	0.07705615
140	0x3e2d4c9f	0.1692376
141	0x3dc526a4	0.09626511
142	0xbe84bb2a	-0.25924045
143	0x3dc72be5	0.09725169
144	0x3dc00c2e	0.09377323
145	0xbd83878b	-0.06422337
146	0x3dcb3781	0.09922696
147	0x3e6de759	0.23232783
148	0x3d8f5c01	0.0699997
149	0x3e0e7c9c	0.13914722
150	0x3d79f55f	0.06102502
151	0xbe023fd0	-0.12719655
152	0xbd9ef379	-0.077612825
153	0xbea04d63	-0.3130904
154	0xbd8ed5ad	-0.06974349
155	0xbe1bdc47	-0.15220748
156	0xbe8c081e	-0.27349943
157	0x3e141aef	0.144634
158	0x3e2d50d0	0.16925359
159	0xbebc9c3d	-0.3683795
160	0xbe1e5bc5	-0.15464695
161	0xbea58535	-0.3232819
162	0xbead5593	-0.3385435
163	0xbe8c13cc	-0.27358854
164	0x3c9be930	0.01903209
165	0x3dd287ba	0.10279794
166	0xbe3f6441	-0.18690588
167	0x3ebee7f4	0.3728634
168	0x3e2e0b8e	0.16996595
169	0xbdd8dda8	-0.105891526
170	0xbdbd3fe7	-0.09240704
171	0xbe82b998	-0.25532222
172	0x3ede4beb	0.43417296
173	0x3d8c4d60	0.068506956
174	0x3df09496	0.117470905
175	0x3ccc3536	0.024927717
176	0x3d31957c	0.04335545
177	0xbe9ed8aa	-0.31024677
178	0xbee80d29	-0.4532254
179	0xbcba8048	-0.022766247
180	0xbe84075c	-0.25786865
181	0xbe89b7a8	-0.2689793
182	0xbea2ad47	-0.31772825
183	0x3e65b407	0.22431956
184	0x3dce9142	0.100862995
185	0xbdab9bcd	-0.08379326
186	0xbe1ad27f	-0.1511936
187	0xbea2cad3	-0.31795368
188	0xbca82c01	-0.020528795
189	0x3d136fcd	0.035995293
190	0x3c3b7580	0.011441588
191	0xbdcb7ba6	-0.099356934
192	0xbecbc20f	-0.39796492
193	0xbe10699e	-0.1410279
194	0x3e30e2e6	0.17274055
195	0x3d6b0b90	0.057384074
196	0x3e61184e	0.21981928
197	0x3d37d794	0.044883326
198	0xbdffbfb3	-0.124877356
199	0xbe65488e	-0.22390959
200	0xbdc60c7c	-0.0967035
201	0x3dc13da7	0.094355874
202	0x3d93e8d6	0.07222144
203	0x3e0d0022	0.13769582
204	0xbe7c3a40	-0.24631596
205	0xbe19bbb9	-0.15013017
206	0xbe8ffd3e	-0.28122896
207	0xbd13c514	-0.03607662
208	0x3d40dc64	0.04708518
209	0xbea2ee3e	-0.3182239
210	0x3e5a8a5b	0.21341841
211	0xbe8a391a	-0.2699669
212	0xbe8bbe87	-0.27293798
213	0xbdeb59a7	-0.11491709
214	0xbe062ee1	-0.1310382
215	0xbe469054	-0.19390994
216	0x3e5dbca2	0.21653989
217	0x3cd17875	0.025570134
218	0xbe87d45a	-0.265292
219	0x3d84d112	0.064851895
220	0xbd007826	-0.031364582
221	0xbe60a822	-0.21939138
222	0xbdd93628	-0.106060326
223	0x3df79c8b	0.12090405
224	0x3e0789e7	0.132362
225	0xbddb3e78	-0.10705274
226	0xbd800130	-0.062502265
227	0xbebb3775	-0.36565748
228	0xbda77b18	-0.08177775
229	0xbd5deff8	-0.05418393
230	0xbf04bd76	-0.51851594
231	0xbd869be9	-0.06572706
232	0x3df55e70	0.11980903
233	0x3c4c4d05	0.012469535
234	0xbeb00107	-0.34375784
235	0xbdff2a48	-0.124592364
236	0x3dacbec6	0.08434825
237	0xbe009fbb	-0.12560932
238	0xbe7d3d2c	-0.24730366
239	0xbf031506	-0.51203954
240	0xbe3a5b3e	-0.18198869
241	0xbe94820e	-0.29005474
242	0x3dd4abbd	0.10384319
243	0xbd6d9f2d	-0.05801313
244	0xbe3c5889	-0.18393148
245	0xbbc7ed0f	-0.0061012576
246	0x3de9df78	0.114195764
247	0xbe02c4f0	-0.12770438
248	0x3dcfc666	0.101452634
249	0xbeabe775	-0.33575025
250	0xbc8e1ccb	-0.017347714
251	0xbd545d34	-0.051846698
252	0x3d8e5f17	0.06951731
253	0xbc798f50	-0.015231922
254	0xbd80d5d3	-0.06290784
255	0xbe5b56cf	-0.21419834

all_embed.embed_2.bias f4 [128]
0	0x3db3a734	0.08772126
1	0x3d907318	0.070532024
2	0x3c79cd24	0.015246663
3	0x3c5a66b6	0.013330152
4	0x3d0be9fa	0.034158684
5	0x3d216306	0.039401077
6	0xbb76108b	-0.0037546481
7	0xbe151585	-0.1455899
8	0xbdbf1094	-0.09329334
9	0x3d2d1be1	0.042262916
10	0xbdd0171b	-0.10160657
11	0xbd6ad297	-0.05732974
12	0x3de6fed3	0.112790726
13	0xbb03290f	-0.0020013487
14	0x3bae9c5c	0.005328698
15	0x3e45efd4	0.19329768
16	0x3d16439e	0.03668558
17	0x3c7bc6ea	0.015367249
18	0x3d081811	0.033226077
19	0x3ddf3cfc	0.10900304
20	0x3e27594c	0.16342658
21	0xbd6e3970	-0.058160245
22	0x3c655e50	0.013999537
23	0xbe8748ee	-0.26422828
24	0xbd3fe262	-0.046846755
25	0x3ba2e2c2	0.0049708793
26	0x3e0fb5b0	0.14034152
27	0x3d8c6b5c	0.06856415
28	0xbcc570e7	-0.024101688
29	0x3ce4e17e	0.027939554
30	0xbc61ff58	-0.013793789
31	0xbdb8ed49	-0.090296336
32	0x3d8f1278	0.069859445
33	0xbe261938	-0.16220558
34	0x3e4acb05	0.19804008
35	0xbd11887c	-0.035530552
36	0xbcbe3ed3	-0.023223316
37	0xbd9086ef	-0.070569865
38	0x3c6e7862	0.014555069
39	0xbdc7f9cb	-0.09764441
40	0xbd2161f5	-0.03940006
41	0xbcfdde92	-0.030989919
42	0x3d8d8803	0.06910708
43	0xbe08bd95	-0.1335357
44	0xbd56948a	-0.05238775
45	0xbd93585c	-0.071945876
46	0xbd486975	-0.048928697
47	0xbd89de76	-0.06731884
48	0xbd5fc99b	-0.054635625
49	0xbc1bc6fe	-0.009507893
50	0xbdd010ea	-0.10159476
51	0x3d76982a	0.06020371
52	0xbdc317c8	-0.0952602
53	0x3d4047f1	0.04694361
54	0x3d582ab1	0.05277509
55	0xbc93ccec	-0.01804205
56	0xbd3310c2	-0.043717153
57	0xbdfc53ac	-0.12320647
58	0x3d8d6dcb	0.06905707
59	0x3c13f998	0.009031676
60	0xbc255815	-0.010091801
61	0xbc1bac50	-0.009501532
62	0x3cb4ad93	0.022055423
63	0x3e04603e	0.12927338
64	0xbdc43cad	-0.095818855
65	0x3dc109b4	0.09425679
66	0x3c9bad1f	0.019003449
67	0x3c09b98d	0.008406055
68	0xbcc09612	-0.02350906
69	0x3d57a078	0.05264327
70	0x3de33310	0.11093724
71	0xbda5b5f4	-0.080913454
72	0x3a0493d2	0.00050574273
73	0x3dc56eb8	0.096402586
74	0xbd89a189	-0.067202635
75	0xbd936759	-0.071974464
76	0xbbf0e8b1	-0.0073519577
77	0xbc94e775	-0.018176774
78	0x3d8bea39	0.06831784
79	0xbd17b393	-0.03703649
80	0xbc3fb1e9	-0.011700132
81	0x3b1c704e	0.002387065
82	0xbd2cbb58	-0.042170852
83	0xbe465824	-0.1936956
84	0xbdb44790	-0.08802712
85	0xbc9fdb92	-0.019513879
86	0x3dc6abc9	0.09700734
87	0xbbd0de3d	-0.006374149
88	0xbe3b4f98	-0.18292081
89	0x3de6c3ee	0.11267839
90	0xbd051895	-0.032494146
91	0x3db7e0c5	0.08978418
92	0xbe10a7f2	-0.14126566
93	0x3e2bfaf2	0.16794947
94	0x3d63a283	0.055574905
95	0x3d672df9	0.056440327
96	0x3c83b1bf	0.016075967
97	0x3e2cc5ef	0.1687238
98	0xbda75e61	-0.08172298
99	0xbde1eb48	-0.110312045
100	0xbd4b4bcc	-0.049632832
101	0x3d92cd91	0.07168115
102	0xbdb17b56	-0.086661026
103	0xbd8aea40	-0.06782961
104	0xbd0a3c88	-0.033749133
105	0x3e5c1c89	0.2149526
106	0x3d38a795	0.045081694
107	0xbc6dc149	-0.014511415
108	0xbd457c41	-0.0482142
109	0x3dd03490	0.101662755
110	0xbd559184	-0.052140728
111	0xbe817a2c	-0.25288522
112	0xbdd72097	-0.10504263
113	0xbe181720	-0.14852571
114	0xbdae2aea	-0.08504279
115	0x3d1d78bc	0.03844522
116	0x3d6e428c	0.058168933
117	0x3da4e7b8	0.08052009
118	0x3e4ddd01	0.20103838
119	0x3d27ea22	0.04099477
120	0xbcf8c6d5	-0.030368248
121	0x3e463f85	0.19360168
122	0x3e1f441d	0.15553327
123	0xbdcc6f87	-0.0998221
124	0x3c5ae555	0.013360341
125	0xbd7956a4	-0.060873643
126	0x3d0a1403	0.03371049
127	0xbdfb9744	-0.12284711

pointer.v f4 [1, 1, 128]
0	0x3ffc8093	1.9726738
1	0x3ffe8bd0	1.9886417
2	0x40005722	2.0053182
3	0xbf9717a8	-1.1804094
4	0xbf7f8750	-0.99815845
5	0x3f84ee39	1.03852
6	0x3ff1ccb9	1.8890601
7	0xbfa3085f	-1.273693
8	0xc03ab18b	-2.9170864
9	0xbe936573	-0.28788337
10	0xbe58994f	-0.21152233
11	0x3fc953ef	1.572874
12	0xbf92a7f0	-1.14575
13	0x3ffd4f42	1.9789813
14	0x3f815c4b	1.010629
15	0xbf60e434	-0.8784821
16	0xc03c746c	-2.9446058
17	0x3f8aa69e	1.0832098
18	0xbf5dfb92	-0.8671199
19	0x3f9c9028	1.2231493
20	0xbf96effa	-1.1791985
21	0x3ee1df7c	0.44115818
22	0x3fbeec81	1.4915925
23	0x3fd2cdfc	1.6469111
24	0x3f49a8b4	0.78773046
25	0x3fdd34dd	1.7281758
26	0xbf1757e0	-0.5911846
27	0xbf5de7e4	-0.8668196
28	0xbfaecce5	-1.3656279
29	0x3f906fb6	1.1284091
30	0x400751ef	2.1143758
31	0xbfbc8f7e	-1.473129
32	0xbe9a0526	-0.30082053
33	0xbf908990	-1.1291981
34	0xbefe6ff8	-0.496948
35	0xbf3bb48e	-0.7332238
36	0xbf67a129	-0.90480286
37	0x3fcda838	1.6066961
38	0x400c50a0	2.192421
39	0xc03abc46	-2.9177413
40	0x3eaa5a0f	0.33271834
41	0x3fca2e92	1.5795462
42	0x3f924951	1.1428624
43	0x3faa76e0	1.3317528
44	0x3fdaaebe	1.7084577
45	0x3f8192cf	1.0122927
46	0xbf68d7a2	-0.9095403
47	0x3fd30df6	1.6488636
48	0x3fce84eb	1.6134313
49	0x3f0f6ba2	0.5602361
50	0x3ef3b65c	0.47600067
51	0x3fe486e6	1.7853668
52	0x3fee0a22	1.8596842
53	0x401f133d	2.4855492
54	0xbf8f18df	-1.1179465
55	0x40101581	2.2513125
56	0x3fffb1e5	1.9976164
57	0x4005da51	2.09145
58	0xbff2b9fe	-1.896301
59	0xbf679f7e	-0.9047774
60	0xbd112509	-0.03543571
61	0xbf7d08d9	-0.98841625
62	0x3fe67208	1.800355
63	0x3ed0fb53	0.40816745
64	0xbdf88642	-0.12134983
65	0x3f78fb51	0.9725848
66	0x400590ea	2.0869699
67	0xbf5c134e	-0.85966957
68	0x40182867	2.377466
69	0x3e838e99	0.2569473
70	0xbf84319c	-1.032764
71	0x3feef49a	1.8668396
72	0xbf6279b2	-0.8846694
73	0xc0470e1d	-3.1102364
74	0xbfaf8f58	-1.371562
75	0x4010dd8b	2.263522
76	0x3ff99ac4	1.9500356
77	0x401d132d	2.4542954
78	0xbc8be2b4	-0.017075874
79	0xbf97ddb9	-1.1864539
80	0x4015e305	2.3419812
81	0xbfc7a666	-1.5597656
82	0x400a63ae	2.162334
83	0xbfa1bdc3	-1.2636036
84	0x3ff82f7a	1.9389489
85	0x3ed34a9d	0.41267863
86	0xbf9db43f	-1.2320632
87	0xbf4bd7f7	-0.7962641
88	0x3f23fcd4	0.6405766
89	0xbf953dbd	-1.1659466
90	0xbfbfe42b	-1.4991506
91	0xbeab31ce	-0.33436435
92	0xbf9b1fb7	-1.2119054
93	0xbf7a26b4	-0.97715306
94	0xbe70dd33	-0.23521881
95	0x3fec7586	1.8473365
96	0xbf254ed2	-0.64573395
97	0xbf943b71	-1.158064
98	0xbf726261	-0.94681364
99	0x3fb53053	1.4155372
100	0x3ea71861	0.32635787
101	0xbf4d687b	-0.8023755
102	0x3f7adee6	0.97996366
103	0xc024880e	-2.570804
104	0x40127b51	2.2887766
105	0xbed82e03	-0.42222604
106	0xc016a89e	-2.3540416
107	0x3fbd6309	1.4795848
108	0xbe9c4901	-0.30524448
109	0xbeb3a509	-0.3508685
110	0x3da35e51	0.07976974
111	0x3fdab459	1.7086288
112	0xbfb4b724	-1.411839
113	0x3ef8f895	0.48627153
114	0xbfdecc69	-1.7406131
115	0xbf33fc97	-0.70307297
116	0x3f6e5404	0.9309695
117	0xbea0f6c3	-0.31438264
118	0xbf370e86	-0.71506536
119	0xbe12f139	-0.14349832
120	0xbf81278e	-1.0090196
121	0xc0062120	-2.0957718
122	0xbf9556a0	-1.1667061
123	0xbdf56c04	-0.11983493
124	0x3fb373b7	1.4019688
125	0x3fece825	1.8508345
126	0xbf90dae6	-1.1316803
127	0xc02389d0	-2.5552864

pointer.encoder_attn.v f4 [1, 1, 128]
0	0xbe0d43ca	-0.1379539
1	0xbd680773	-0.05664773
2	0x3d437d45	0.04772689
3	0x3da30152	0.07959236
4	0xbdeaea3f	-0.1147046
5	0xbda22fe6	-0.07919292
6	0xbd567793	-0.05236013
7	0xbdbbafda	-0.091644004
8	0x3d4e50ef	0.050370153
9	0x3e29ae0a	0.16570297
10	0x3e1c0af7	0.15238558
11	0xbe1bd75c	-0.15218872
12	0x3d87c1b4	0.06628743
13	0xbcf5bf46	-0.029998433
14	0xbd565bf4	-0.052333787
15	0xbd7da128	-0.06192127
16	0x3de3fd1c	0.11132261
17	0xbcb5525b	-0.022133997
18	0xbdc84a76	-0.09779827
19	0x3d8e4395	0.06946484
20	0xbc28a4db	-0.010293211
21	0xbe1bcbdd	-0.15214486
22	0xbdf8ebba	-0.12154336
23	0xbde715e5	-0.11283473
24	0xbd943c46	-0.07238059
25	0xbddda9d9	-0.108234115
26	0xbcf95c0f	-0.030439405
27	0xbbcf6ef7	-0.0063303667
28	0x3d929a33	0.071583174
29	0xbe339276	-0.17536339
30	0xbc4ff45d	-0.012692538
31	0xbe02c3e2	-0.12770036
32	0xbdf28337	-0.118414335
33	0xbd29d18e	-0.041459613
34	0xbcb967ea	-0.022632558
35	0xbd3dedf6	-0.046369515
36	0x3e267c11	0.16258265
37	0x3e508b23	0.20365576
38	0x3cac6c12	0.021047626
39	0x3d8ec1e9	0.06970579
40	0xbcdc3c23	-0.026884144
41	0xbcce2ce0	-0.025167882
42	0x3cdfb1f6	0.027306538
43	0xbd905242	-0.070469394
44	0x3dec20cc	0.11529693
45	0x3e425f2b	0.18981616
46	0xbe0e6190	-0.13904405
47	0x3da084f1	0.078378566
48	0x3e19ff72	0.15038851
49	0xbe2168da	-0.15762654
50	0xbda40bf4	-0.080100924
51	0x3d5bbee3	0.05364884
52	0xbde72285	-0.11285881
53	0xbd923065	-0.07138137
54	0xbe0898fd	-0.1333961
55	0x3e409ad2	0.1880906
56	0xbd113235	-0.03544827
57	0xbd471423	-0.04860319
58	0xbdadcb1c	-0.08486006
59	0xbddb065e	-0.10694574
60	0x3d52b46b	0.05144159
61	0xbe0fe644	-0.14052683
62	0xbe0261aa	-0.12732568
63	0x3dc8204f	0.097717874
64	0xbda282b8	-0.07935089
65	0xbd95512f	-0.07290875
66	0x3de7c6f6	0.11317246
67	0x3d732584	0.05936195
68	0xbe344425	-0.1760412
69	0x3d9f09ab	0.07765516
70	0x3d33066e	0.043707304
71	0x3c2f57e9	0.010702112
72	0x3cd07653	0.025447046
73	0x3d2fbd42	0.0429051
74	0x3d611933	0.054955672
75	0xbdf56f3b	-0.11984106
76	0x3c3192cd	0.010838223
77	0x3d3ee46c	0.04660456
78	0x3e23e1b8	0.16004074
79	0xbe07eef5	-0.13274749
80	0x3e16cedc	0.14727348
81	0x3e06f504	0.13179404
82	0xbd26d164	-0.040727034
83	0x3dd3d547	0.10343414
84	0x3cdb8bd8	0.026800081
85	0xbd04fbff	-0.032466885
86	0xbe269bab	-0.1627032
87	0x3bd4b81b	0.0064916736
88	0xbd50ae55	-0.050947506
89	0xbdc5c1f1	-0.09656132
90	0xbd56ca95	-0.05243929
91	0xbe06b18e	-0.13153669
92	0xbddc6cdc	-0.10762951
93	0x3e47d2e8	0.19514048
94	0x3dc7991f	0.097460024
95	0xbd4bdfd2	-0.049774
96	0xbddc908a	-0.10769756
97	0xbd85616a	-0.06512721
98	0x3dbba528	0.091623604
99	0x3e05c83d	0.13064666
100	0xbb9d2778	-0.004795965
101	0xbe1417cb	-0.14462201
102	0x3d2ef5fe	0.042715065
103	0x3daff741	0.08592082
104	0xbe068b1d	-0.13139005
105	0xbda8d7e0	-0.082443
106	0x3dc7b1e4	0.09750727
107	0xbd920d01	-0.071313865
108	0xbe252568	-0.1612755
109	0xbca38f06	-0.01996566
110	0x3e1526e3	0.14565615
111	0xbf1bedaf	-0.6090955
112	0x3dbb6b2b	0.091513
113	0x3df3a070	0.118958354
114	0xbca869c1	-0.02055824
115	0xbd0e28bf	-0.034706827
116	0x3d9c0141	0.07617427
117	0xbd8bb2d7	-0.0682122
118	0xbdc4c9ac	-0.09608778
119	0x3dc57b39	0.096426435
120	0xbd6c1fe2	-0.057647593
121	0xbda5883e	-0.08082627
122	0xbc101a45	-0.008795326
123	0x3cb0cc97	0.021581931
124	0xbd41e614	-0.04733856
125	0xbd50d3ae	-0.050983123
126	0x3e0c1dbe	0.1368322
127	0x3e133147	0.14374267

pointer.encoder_attn.W f4 [1, 128, 256]
0	0x3c49eb49	0.012324163
1	0x3cb27083	0.021782165
2	0x3d463e0a	0.04839901
3	0x3c672375	0.014107575
4	0x3d1925f2	0.037389703
5	0x3db888d3	0.09010472
6	0xbbc7cc7b	-0.006097374
7	0x3d6f6f21	0.05845559
8	0xbc9747dc	-0.018466882
9	0xbda3f25f	-0.08005213
10	0x3d638f74	0.05555673
11	0x3d67d56e	0.056600027
12	0xbb013a8f	-0.0019718742
13	0xbd06298f	-0.032754477
14	0xbd504688	-0.050848514
15	0xbce23060	-0.027610958
16	0x3c92482b	0.017856678
17	0x3d752f9d	0.05985986
18	0x3d1189da	0.035531856
19	0x3daff6d7	0.08592003
20	0x3d6dfbfb	0.058101635
21	0x3d2ad189	0.041703735
22	0xbd8225b7	-0.0635485
23	0xbd29ccc2	-0.041455038
24	0xbc98006e	-0.018554892
25	0x3d2200a9	0.03955141
26	0xbdc788d5	-0.097428955
27	0xbd98f2ec	-0.07468209
28	0x3d2c9a8f	0.042139586
29	0x3d32806a	0.043579496
30	0x3cc6c638	0.02426444
31	0xbd6a7e9d	-0.057249654
32	0xbd7ce59a	-0.061742403
33	0x3db9f8c9	0.09080655
34	0xbdc704fd	-0.09717748
35	0x3d33b06d	0.043869425
36	0xbd2ba8ff	-0.041909214
37	0xbd542a57	-0.05179819
38	0xbcc01515	-0.023447553
39	0xbbc2498b	-0.005929177
40	0x3c85bad7	0.016324444
41	0xbd3c78f1	-0.046013776
42	0x3d705831	0.058677856
43	0xbc409851	-0.011755065
44	0xbc3cb92f	-0.011518761
45	0x3c33872b	0.0109575195
46	0x3d791d4c	0.060818955
47	0xbd02abc5	-0.031902093
48	0x3d64e456	0.05588182
49	0xbdc269a3	-0.09492805
50	0x3dc586e2	0.096448675
51	0xbd0410af	-0.032242473
52	0x3c84f3bb	0.016229501
53	0xbd9ecd6e	-0.07754026
54	0xbdbdad77	-0.092616014
55	0xbd5ad618	-0.053426832
56	0xbd4147fb	-0.047187787
57	0x3d26ab39	0.040690634
58	0xbd3fce35	-0.046827514
59	0xbdd0f2d2	-0.10202564
60	0xbd5e64cf	-0.054295357
61	0xbda95777	-0.08268636
62	0xbcf5aa9a	-0.029988576
63	0x3db86bb5	0.090049185
64	0xbc716c44	-0.014735285
65	0x3d3d27c8	0.046180516
66	0x3c6ff872	0.014646636
67	0x3d41a9b6	0.04728099
68	0xbcf0066a	-0.029299933
69	0x3deaead3	0.114705704
70	0x3d63531c	0.05549918
71	0x3c8cb942	0.017178182
72	0xbbf141c7	-0.0073625776
73	0x3de079a2	0.109606996
74	0x3a02c827	0.00049889315
75	0x3623b689	2.4395142e-06
76	0x3d89d85b	0.0673072
77	0x3ced88e0	0.028995931
78	0x3d837b9b	0.0642006
79	0x3ccf1b10	0.02528146
80	0xbd05e1d4	-0.03268607
81	0xbd1e4fe6	-0.038650416
82	0xbd28f657	-0.041250553
83	0x3ba736ab	0.0051029525
84	0x3da62cd5	0.0811402
85	0x3d0f5dba	0.035001494
86	0x3d504b11	0.05085284
87	0x3d88b9fc	0.06676099
88	0x3cb5eb28	0.022206858
89	0x3d40a29d	0.04703008
90	0x3d457ab3	0.04821272
91	0x3d67def1	0.056609098
92	0x3d88675b	0.066603385
93	0x3d80ade0	0.06283164
94	0xbd01bf5b	-0.03167663
95	0xbce3ab5b	-0.02779167
96	0xbcaee33e	-0.021348592
97	0x3dbf6c72	0.09346856
98	0x3c155f3c	0.009116944
99	0xbc831b6c	-0.016004287
100	0x3d55c8ca	0.05219344
101	0x3c5f55b7	0.013631276
102	0x3d73e15a	0.059541084
103	0x3c947665	0.018122861
104	0x3c68e0bf	0.01421374
105	0xbd53573e	-0.051596873
106	0x3d0e6a55	0.034769375
107	0xbd2148ed	-0.039376188
108	0xbd85019f	-0.0649445
109	0x3d7bcca0	0.061474442
110	0xbd66d610	-0.05635649
111	0xbd17db07	-0.037074115
112	0xbd627bb8	-0.05529377
113	0x3c04a1ca	0.008095214
114	0x3d4db6ef	0.050223287
115	0x3d011525	0.031514306
116	0x3daa4a9e	0.08315013
117	0xbd24f330	-0.040270984
118	0xbc14892d	-0.009065908
119	0x3d5881cb	0.052858155
120	0xbdb3695c	-0.0876033
121	0x3c92e697	0.01793222
122	0xbd36d859	-0.04463992
123	0xbd325883	-0.043541443
124	0xbc780789	-0.015138515
125	0xbc8df1be	-0.017327186
126	0xbc0ee34c	-0.008721184
127	0xbce2a7f3	-0.027667975
128	0x3deed589	0.11661822
129	0x3e1bf6ad	0.15230818
130	0x3d464d5e	0.048413627
131	0x3d4b1b66	0.049586676
132	0x3dbbbe70	0.091671824
133	0x3d24fcb2	0.04028005
134	0xbdef6394	-0.11688915
135	0xbd8f4117	-0.06994837
136	0xbe28e49a	-0.16493455
137	0x3b593a85	0.0033146453
138	0x3cdcd3bf	0.026956437
139	0x3e17c9bf	0.14823054
140	0xbe0aa555	-0.13539632
141	0xbdb941a3	-0.09045722
142	0xbceaa72e	-0.02864417
143	0x3d5cab32	0.053874202
144	0x3e4c0875	0.19925101
145	0xbd831159	-0.06399793
146	0x3d95c9fb	0.07313915
147	0x3d64c9a2	0.055856355
148	0x3e31fbc3	0.17381196
149	0x3d4faed7	0.05070385
150	0xbd26554d	-0.040608693
151	0xbe38c2e3	-0.18043093
152	0x3b235c9b	0.0024927023
153	0xbdf4243e	-0.11920975
154	0x3e264c17	0.16239963
155	0x3d16737d	0.036731232
156	0x3cfeac2f	0.031087963
157	0x3e439a72	0.19101885
158	0x3e67f429	0.22651733
159	0x3d8d3d8e	0.06896506
160	0x3dca4e42	0.09878208
161	0xbd788e6a	-0.06068269
162	0x3d2f6757	0.042823162
163	0xbd527f6c	-0.05139105
164	0x3e10e910	0.14151406
165	0xbd8c279d	-0.06843493
166	0xbd679b92	-0.056544848
167	0x3e52bfcd	0.20580979
168	0x3d005daf	0.031339344
169	0xbd0b7f20	-0.034056783
170	0x3c7d2c4d	0.015452457
171	0x3e1aa885	0.15103348
172	0xbd0c12ad	-0.034197498
173	0xbe29ce9e	-0.16582724
174	0xbdd971b4	-0.1061739
175	0xbd694b5f	-0.056956645
176	0xbd1f652b	-0.03891484
177	0xbe657db1	-0.22411229
178	0x3d81aa46	0.06331305
179	0x3e6b055e	0.22951266
180	0xbe181ec1	-0.14855482
181	0x3d3ce5be	0.046117537
182	0xbdcef7e3	-0.101058744
183	0xbda447b1	-0.080214866
184	0xbda3bc3b	-0.079948865
185	0x3e5c2d9d	0.21501775
186	0xbdc3282a	-0.09529145
187	0x3d5bdf75	0.053679902
188	0x3e308fa4	0.17242295
189	0x3cfa8fb0	0.030586094
190	0xbe6ac722	-0.22927526
191	0xbde20bcc	-0.11037406
192	0x3e39ec97	0.18156658
193	0x3df83c7e	0.12120913
194	0xbe18e1a3	-0.14929824
195	0x3cc201fa	0.023682583
196	0x3d476e58	0.048689216
197	0x3c40d55b	0.011769618
198	0xbe259c0c	-0.16172808
199	0xbe18ee5c	-0.14934677
200	0x3d36165c	0.044454917
201	0xbe34c9c8	-0.17655098
202	0xbdf85f1a	-0.12127514
203	0xbd7b5f9c	-0.061370477
204	0x3cd62a4b	0.026143214
205	0x3dfec891	0.12440599
206	0xbe2711cc	-0.16315383
207	0xbda19454	-0.078896195
208	0x3d91851d	0.071054675
209	0x3da70ae8	0.08156377
210	0xbdc9c2f7	-0.0985164
211	0xbd44c055	-0.048034985
212	0x3e4edcab	0.20201366
213	0x3d7c515c	0.061601028
214	0x3d9a1659	0.07523794
215	0x3e34dd2d	0.17662497
216	0xbe102237	-0.14075552
217	0x3d9230cf	0.07138216
218	0xbdb8046c	-0.089852184
219	0x3ded125d	0.11575768
220	0xbdbf9856	-0.09355228
221	0xbd59a7cb	-0.053138535
222	0x3e44f68a	0.19234672
223	0xbe3080a4	-0.17236573
224	0xbe174d13	-0.14775495
225	0x3c6dd5cc	0.014516305
226	0xbd826801	-0.063674934
227	0xbe256914	-0.16153365
228	0x3e427d6f	0.18993162
229	0x3e101070	0.1406877
230	0x3e30a389	0.17249884
231	0x3e040db9	0.1289586
232	0xbe2c0a10	-0.16800714
233	0xbe08415c	-0.13306183
234	0xbe07f567	-0.13277207
235	0xbd61aed9	-0.05509839
236	0x3d877a36	0.06615107
237	0x3e09efc9	0.13470377
238	0xbdc585fa	-0.096446946
239	0xbe1fd854	-0.15609866
240	0xbdf90f07	-0.12161069
241	0xbce676b6	-0.028132778
242	0x3e4dcce0	0.20097685
243	0x3e1e270e	0.15444586
244	0xbd97dc0e	-0.07415019
245	0xbdd986da	-0.10621424
246	0x3e3fbacd	0.18723603
247	0x3ccde16d	0.025131905
248	0xbe1acc8d	-0.15117092
249	0xbdf68014	-0.12036148
250	0xbb8b86c9	-0.004258011
251	0x3e3993aa	0.18122736
252	0xbe433c11	-0.19065882
253	0xbd9dba15	-0.07701508
254	0x3d4321a3	0.0476395
255	0x3e6c19c8	0.2305671

pointer.fc1.weight f4 [128, 256]
0	0x3c168aa4	0.009188328
1	0xbe5a1601	-0.21297456
2	0xbe03c056	-0.12866339
3	0xbd0a3bad	-0.033748318
4	0x3d4359c4	0.04769303
5	0x3d2b5a2d	0.041834045
6	0xb980c3c6	-0.00024559925
7	0x3c835a2e	0.016034212
8	0x3d729bf7	0.05923077
9	0xbce0d9d3	-0.027447617
10	0xbce63c06	-0.028104793
11	0xbe132045	-0.14367779
12	0x3cb191b1	0.021675916
13	0x3e2d38ad	0.16916151
14	0xbb97df4a	-0.0046347724
15	0x3d8baf53	0.0682055
16	0xbdf40388	-0.11914736
17	0x3ddf1285	0.10892204
18	0xbdd60259	-0.104496665
19	0xbdd5ce35	-0.104397215
20	0xbe0cd1e9	-0.1375195
21	0xbdc24a85	-0.0948687
22	0x3d7627c5	0.06009652
23	0xbce5b277	-0.0280392
24	0xbdaf1c60	-0.08550334
25	0x3dbb7964	0.09154013
26	0x3c600cdf	0.013674944
27	0xbdbdbf9e	-0.09265064
28	0x3c9f6419	0.01945691
29	0xbd23e06a	-0.04000894
30	0xbe043bdf	-0.12913464
31	0x3bc1636d	0.005901745
32	0xbe4681fb	-0.19385521
33	0xbd9a9793	-0.07548442
34	0x3d88e8f7	0.066850595
35	0x3b4ca1a4	0.0031224275
36	0x3ccc5377	0.024942143
37	0xbdd3512a	-0.10318215
38	0xbd1d6aec	-0.038432047
39	0xbe1c570b	-0.1526758
40	0xbd4c60f4	-0.04989715
41	0x3dd750dd	0.1051347
42	0xbdb53bb4	-0.08849278
43	0xbe0b4ab5	-0.13602717
44	0x3cc3d877	0.02390693
45	0x3d524aad	0.051340748
46	0x3e059723	0.13045935
47	0xbc630281	-0.013855577
48	0xbdd2fd57	-0.10302227
49	0x3e4888e8	0.19583476
50	0xbd30cbec	-0.043163225
51	0xbe0680c6	-0.1313506
52	0x3cf32246	0.029679429
53	0xbdf4ebfd	-0.11959074
54	0x3e26f24c	0.16303366
55	0x3d54a689	0.051916633
56	0x3bcdfe49	0.0062864167
57	0xbd88e618	-0.06684512
58	0x3da62477	0.08112424
59	0xbcd91f75	-0.026504258
60	0xbe17c4e3	-0.148212
61	0xbdd36b5a	-0.1032321
62	0x3e217da9	0.15770592
63	0x3cb6907e	0.022285696
64	0xbe188d3e	-0.1489763
65	0xbdc2aa07	-0.095050864
66	0x3df17728	0.117903054
67	0x3d32e75b	0.04367767
68	0xbd82ac76	-0.063805506
69	0x3de8d226	0.11368208
70	0xbdab171a	-0.08354016
71	0x3e114388	0.14185917
72	0xbe1c2dc4	-0.15251833
73	0x3e1ac960	0.15115881
74	0x3c30d2c9	0.010792443
75	0x3a83c921	0.0010054448
76	0x3ba19509	0.0049310965
77	0xbd21c9f6	-0.039499246
78	0x3e11f7b6	0.1425465
79	0x3aeb909e	0.0017972176
80	0xbe3a5cfa	-0.1819953
81	0xbd865444	-0.06559041
82	0xbce2feb1	-0.027709337
83	0x3db5db94	0.08879772
84	0xbdb801e2	-0.08984734
85	0x3cea5f93	0.028610026
86	0xbe174dea	-0.14775816
87	0xbd03003e	-0.031982653
88	0x3e03a0bb	0.12854283
89	0x3cdeae59	0.027182745
90	0x3e35b2f5	0.17744048
91	0xbdb6c218	-0.08923739
92	0x3ddf47f8	0.10902399
93	0xbbc2b13c	-0.005941538
94	0xbe37e89f	-0.17959832
95	0x3e2365ab	0.15956752
96	0x3c0f7483	0.008755806
97	0xbc961f00	-0.018325329
98	0x3df95dc3	0.12176087
99	0x3df4a7f2	0.119460955
100	0xbe16ddf7	-0.1473311
101	0xbe1fe561	-0.15614845
102	0xbe09d510	-0.13460183
103	0xbe02ded5	-0.12780316
104	0x3de5b5a6	0.11216287
105	0x3d6db658	0.058035225
106	0x3d620aa2	0.05518592
107	0x3dd60007	0.10449224
108	0x3cb86e79	0.022513615
109	0xbda7039a	-0.08154984
110	0x3e3fe7bd	0.18740745
111	0x3e12db8b	0.14341561
112	0x3d2f7740	0.042838335
113	0xbcc5c4a7	-0.024141623
114	0x3c21a6d2	0.009866433
115	0xbd441290	-0.047869265
116	0xbc4b1b76	-0.012396684
117	0x3d91efbf	0.07125806
118	0x3d369526	0.044575833
119	0x3d9fdee1	0.07806183
120	0x3c1c1875	0.009527315
121	0x3d2fa224	0.04287924
122	0x3d61fd8e	0.05517345
123	0xbe4b8b74	-0.19877416
124	0x3dc82fbf	0.09774732
125	0x3da2dd55	0.07952372
126	0x3dab80aa	0.0837415
127	0xbe3dcd7e	-0.1853542
128	0x3d044d79	0.032300446
129	0xbbcaa902	-0.006184698
130	0xbd2e5a3d	-0.042566527
131	0x3d87df6f	0.066344135
132	0x3de169ce	0.11006509
133	0xbd9a3ab2	-0.075307265
134	0x3d544eda	0.05183301
135	0x3b422905	0.00296265
136	0xbd8aa251	-0.06769241
137	0xbc9db927	-0.019253327
138	0xbab0db67	-0.0013493121
139	0x3c87b113	0.016563928
140	0xbd17b765	-0.037040133
141	0x3d87e900	0.06636238
142	0xbddaaf36	-0.1067795
143	0x3caa0486	0.02075411
144	0xbdc08a77	-0.0940141
145	0xbcac72bb	-0.021050802
146	0xbc2fd11d	-0.010731009
147	0xbdaaf585	-0.083476104
148	0x3de92dad	0.11385665
149	0x3c272a3b	0.01020294
150	0x3d95e73b	0.07319494
151	0xbdfdf311	-0.12399877
152	0xbe0173fd	-0.12641902
153	0xbda85bad	-0.08220611
154	0x3e12a8c2	0.14322188
155	0xbd822baf	-0.06355988
156	0xbd3951d9	-0.04524407
157	0x3d1c0f48	0.03810051
158	0xbd466618	-0.048437208
159	0x3d39cb96	0.04536017
160	0x3db8d667	0.09025269
161	0x3d99c037	0.07507365
162	0xbdaf86ca	-0.08570631
163	0xbdf44750	-0.11927664
164	0x3d07eb51	0.0331834
165	0x3468771e	2.1650018e-07
166	0xbded28b8	-0.11580032
167	0x3d851119	0.06497402
168	0xbcc46d3c	-0.023977868
169	0xb8978b06	-7.226136e-05
170	0xbdee3e46	-0.116329715
171	0xbd42fd36	-0.047604762
172	0xbddbe0c5	-0.10736231
173	0xbba6845a	-0.0050816955
174	0xbcdbe5cd	-0.026842976
175	0xbdfc938f	-0.12332832
176	0xbda8a604	-0.0823479
177	0xbc1f23f3	-0.009713161
178	0xbc899e37	-0.016799076
179	0x3dc036dd	0.09385464
180	0xbda9de6d	-0.082943775
181	0xbb1f283f	-0.0024285463
182	0x3c8ed595	0.017435828
183	0xbc0eddfc	-0.008719917
184	0x3dd01021	0.10159326
185	0xbd7da3ce	-0.061923794
186	0x3da7849a	0.081795886
187	0x3c4f2cfa	0.012645001
188	0xbc8d2efd	-0.01723432
189	0xbd0bf687	-0.034170654
190	0x3a135ad0	0.0005621137
191	0x3ddbb92f	0.1072868
192	0xbc57a208	-0.01316119
193	0x3ccc3b13	0.024930513
194	0x3d8a9820	0.06767297
195	0x3ddaad77	0.10677617
196	0xbdbd4fec	-0.092437595
197	0x3dccba53	0.09996476
198	0xbd7d417e	-0.061830036
199	0xbcf567a4	-0.029956646
200	0x3cb1aa7c	0.021687739
201	0x3d85a6fe	0.06525992
202	0xbbc90684	-0.00613481
203	0xbdf1bfc8	-0.118041575
204	0x3d002a1b	0.031290155
205	0xbd3b8582	-0.04578162
206	0xbda20791	-0.079115994
207	0xbd918600	-0.071056366
208	0xbd02f6a4	-0.031973496
209	0x3d874ca4	0.06606415
210	0x3db1ff39	0.08691258
211	0x3b4e0688	0.0031436998
212	0xbd190685	-0.037359733
213	0xbe1b3567	-0.1515709
214	0x3c9ad53e	0.01890051
215	0xbda980c7	-0.082765155
216	0xbd38ffe1	-0.0451659
217	0x3cd1c199	0.02560501
218	0x3ca92701	0.020648481
219	0x3e0de0e1	0.13855316
220	0xbd974563	-0.07386281
221	0x3de198fd	0.11015508
222	0x3dc8b1af	0.097995155
223	0x3deb4572	0.11487855
224	0x3e17e76d	0.14834376
225	0x3d77d5d8	0.06050667
226	0x3db0f529	0.086405106
227	0xbd6cf332	-0.057849117
228	0x3ca76d15	0.020437757
229	0xbdc0bd95	-0.0941116
230	0xbc8a74e1	-0.016901435
231	0xbd780178	-0.060548276
232	0x3de28393	0.11060252
233	0x3e0e1be4	0.13877827
234	0x3d8c1f38	0.06841892
235	0xbd2ce92a	-0.04221455
236	0xbd0dbdd9	-0.03460488
237	0x3c76eaac	0.015070599
238	0xbc9bd7bd	-0.01902377
239	0x3dda3d1a	0.106561854
240	0xbe048f23	-0.12945227
241	0x3bd41a24	0.006472843
242	0x3d4d7b9c	0.05016671
243	0x3c0f20e6	0.008735871
244	0x3d23c517	0.03998288
245	0xbd84e9dc	-0.06489918
246	0x3e342c20	0.17594957
247	0x3d0dbd68	0.03460446
248	0xbdaae41d	-0.083442904
249	0xbd2855e0	-0.04109752
250	0x3dbc1646	0.09183936
251	0x3dc2edb0	0.095179915
252	0xbce86bd3	-0.028371727
253	0x3cbad3be	0.022806045
254	0xbd7e44e4	-0.062077418
255	0xbe0e5f0b	-0.13903444

pointer.fc1.bias f4 [128]
0	0x3d21353f	0.03935742
1	0x3cb1c7d5	0.021701733
2	0xbd079b27	-0.03310695
3	0x3d34dcf4	0.04415603
4	0x3d1fd827	0.0390245
5	0xbd19c0d3	-0.037537407
6	0x3d73b42b	0.059497993
7	0x3c58471a	0.013200546
8	0x3cff6daa	0.031180222
9	0x3d0fc455	0.035099346
10	0x3d9221ab	0.07135328
11	0x3c4622b8	0.0120932385
12	0x3ccfd2c5	0.025369057
13	0x3d7591e1	0.059953574
14	0x3d0615d9	0.03273568
15	0x3d17a74e	0.03702479
16	0x3d2537f5	0.040336568
17	0x3d48875b	0.04895721
18	0xbd074025	-0.033020157
19	0x3d6b88f5	0.05750366
20	0xbbd57d6b	-0.006515195
21	0x3abb22ab	0.00142773
22	0xbcc11f4b	-0.023574492
23	0xbd04319f	-0.032273885
24	0x3ccacb31	0.024755092
25	0x3ba45d06	0.005015972
26	0xbd943da6	-0.07238321
27	0x3d54925c	0.05189739
28	0x3dbfbb37	0.0936188
29	0x3b971c62	0.004611538
30	0x3d3c75d2	0.0460108
31	0x3da08729	0.0783828
32	0xbc8e4e40	-0.017371297
33	0xbd8750e6	-0.06607227
34	0xbb9a6e80	-0.0047128797
35	0x3ca85f9f	0.020553408
36	0x3cf104bb	0.029421201
37	0x3d1a3594	0.037648752
38	0x3d92f63f	0.07175874
39	0xbdaf36a8	-0.08555347
40	0x3d9eb71c	0.07749769
41	0x3c80e5ef	0.01573464
42	0xbc7aa8bf	-0.015299021
43	0x3c4bb676	0.012433639
44	0x3db92c4d	0.09041653
45	0x3c55882f	0.013032957
46	0xbd0ae433	-0.033909034
47	0xbcaecb90	-0.0213373
48	0xbd2fb07a	-0.04289291
49	0x3af5dc43	0.001875766
50	0xbda6a20f	-0.08136379
51	0xbdab3d5e	-0.08361314
52	0x3caef151	0.021355303
53	0xbd0b82a3	-0.03406013
54	0xbd9e1469	-0.07718737
55	0xbc2e94c2	-0.010655584
56	0xbd810296	-0.06299321
57	0xbd957abc	-0.072988
58	0xbc7e7ef6	-0.0155331995
59	0xbd0a5b22	-0.033778317
60	0x3d71da32	0.059045978
61	0xbd7858b3	-0.060631465
62	0x3d42bed5	0.047545273
63	0x3cdc2975	0.026875237
64	0xbc704eaa	-0.0146671925
65	0x3d66bfb2	0.05633516
66	0xbcd595b0	-0.026072353
67	0x3d0aaa6f	0.033853944
68	0x3d802b60	0.06258273
69	0x3d9c5059	0.076325126
70	0x3d1df295	0.038561422
71	0x3d26c28e	0.040712886
72	0x3cc1dfd9	0.02366631
73	0xbcf7ccd8	-0.030249044
74	0x3d10ec56	0.035381638
75	0x3d81adda	0.06331988
76	0x3d302f5d	0.04301392
77	0xbd110a40	-0.035410166
78	0x3dcb5a43	0.099293254
79	0x3cb9d8b9	0.02268635
80	0x3d3c486b	0.0459675
81	0xbb5d3620	-0.0033754185
82	0x3d14d888	0.036339313
83	0xbc593c90	-0.013259068
84	0x3c8710e3	0.016487544
85	0x3da9fd39	0.083002515
86	0x3c6df39b	0.014523412
87	0x3cdcaf66	0.026939105
88	0x3d8e5367	0.069495015
89	0xbcb80468	-0.022463039
90	0x3da3c141	0.07995845
91	0x3d3b62ad	0.0457484
92	0x3d85b445	0.06528524
93	0xbc608b88	-0.013705142
94	0xbb946c85	-0.004529538
95	0x3d43fc43	0.047847997
96	0x3b809ea4	0.0039251614
97	0x3d37c59b	0.044866186
98	0x3d6d4752	0.057929344
99	0x3da022a2	0.07819106
100	0xbd8ca32e	-0.068670616
101	0x3d37cd62	0.044873603
102	0x3ccba51d	0.024859006
103	0x3d3a3dfb	0.045469265
104	0x3d91cba8	0.071189225
105	0x3d858852	0.06520142
106	0x3d8c5716	0.06852548
107	0x3cf11648	0.02942957
108	0xbd76b9a7	-0.060235646
109	0xb8967089	-7.173519e-05
110	0x3c2aeac4	0.010431949
111	0xbde45b53	-0.11150231
112	0x3d92ee64	0.07174376
113	0xbd3f3823	-0.046684396
114	0xbc826ed7	-0.015921993
115	0x3da1d5be	0.07902096
116	0x3d327187	0.0435653
117	0xbd5f9957	-0.054589596
118	0x3cf075a6	0.029352974
119	0x3a7f4d73	0.0009739019
120	0xbe03b97b	-0.12863724
121	0x3c2faf05	0.01072288
122	0x3cae7f82	0.021301035
123	0xbd0cc14d	-0.034364033
124	0x3b0a826c	0.0021134866
125	0xbd6f3360	-0.058398604
126	0xbc41ff55	-0.011840661
127	0x3cd18db8	0.025580272
