trained_models/cvrp/XE_10/model_incumbent_vrpRl13_C_XE_10_P_0.1_13960.pt (torch_old, 469732 bytes, 15 tensors)

all_embed.embed.weight f4 [128, 4]
0.7320748 0.49580085 -0.35288426 -0.11006592 0.898546 -0.29474574 0.05357323 0.031661667
-0.06673609 -0.0987367 -0.14310002 -0.14150608 0.015928956 -0.40059638 -0.22820957 -0.3792744
-0.15852055 -0.19396938 0.103499055 -0.04387042 0.7548224 0.42907938 0.24434583 0.107618295
-0.48515788 0.352411 -0.60080886 0.058955763 -0.21139443 -0.33714327 -0.51836646 0.29034743
0.6065041 -0.4553887 -0.3666241 -0.11008304 0.69727874 -0.32856986 0.5329062 0.24988739
0.7224313 -0.6957059 0.3536948 0.009705773 -0.16397032 -0.05349888 -0.20028791 0.03936541
-0.23148705 1.079352 -0.022416554 -0.09042472 -0.2344073 0.01603786 0.7792833 0.3097279
0.4638547 0.16056785 -0.022967974 0.23947376 -0.12530452 -0.049521968 -0.11185438 -0.01759541
-0.032338977 -0.0011100024 -0.02009107 0.086288705 0.67618394 0.013033655 0.34581956 0.17647174
-0.33586177 0.93292946 0.0092093395 -0.06613439 -0.2449016 0.25738212 -0.5113945 -0.47560996
-0.12642184 -0.1213365 0.7380418 0.25012606 -0.040803194 0.10161561 0.19793087 0.024145901
0.029588863 -0.11011553 -0.6394831 -0.5236475 -0.4265725 0.21973476 0.039582543 0.35937566
-0.13388625 -0.21019714 -0.18074456 -0.11895896 0.367568 0.6746174 0.4990523 0.008812502
-0.67156124 0.13116363 -0.10624755 -0.010903332 0.05126682 -0.09111332 -0.6074928 -0.66280013
0.65845835 0.81276894 -0.2067853 -0.09697837 0.3011802 0.6232455 -0.4290706 0.31742004
-0.12602329 -0.03338805 0.07126737 -0.17382808 -0.13033077 -0.109782785 0.045715302 -0.048396796
0.86077666 -0.46783018 0.037178688 0.2035569 -0.16128212 -0.15859129 -0.62139004 -0.59975225
0.2287569 -0.031978574 -0.38750994 -0.54330695 0.8862424 -0.09500892 0.28263327 -0.15533741
0.27208203 0.15694004 0.2822523 0.25496584 -0.209744 0.9758279 0.07905396 0.14393105
-0.36257213 -0.3648873 0.39361623 -0.08156753 -0.6305058 -0.0016198023 0.33939776 0.36803797
-0.049970344 -0.04407829 0.0058740824 -0.17916575 0.10404104 -0.40655285 0.8962789 0.10665948
-0.50346005 1.0208833 -0.04143531 -0.015577327 0.9809117 0.07444736 0.14582111 0.28962687
-0.34113574 0.17496565 0.35001436 0.38279226 -0.41065812 0.87142235 -0.08766784 -0.07691328
0.5154842 -0.017419433 -0.8402181 -0.067763336 0.10598299 -0.16541924 -0.018791825 -0.012074277
0.20106366 -0.065217644 0.09833944 -0.021759257 0.022285387 -0.56294495 0.2863955 0.2395383
0.6348457 0.2005016 0.56846917 0.19633171 0.040877312 0.037518054 -0.0984494 -0.011464834
0.60966444 0.4508702 -0.55367345 0.2260974 -0.12681244 0.9787651 0.28333127 0.053486276
0.020511895 -0.17033787 -0.1147077 -0.053510338 0.9164764 0.4555734 -0.43954903 -0.0014406702
0.1734864 -0.54392207 0.009763704 -0.07192357 -0.100103065 -0.08206843 0.010033578 -0.16135731
0.35577586 0.22654021 -0.8871174 0.017479464 -0.0083578825 0.11527893 -0.17278737 0.13014814
0.47347066 0.71682125 0.2490646 -0.056580905 -0.32837036 0.0031573018 0.15875699 -0.15484667
-0.0026605965 0.0037222346 0.39178506 0.3995227 -0.18675509 -0.20668851 -0.47868687 -0.6147196
00000000: 4169 3b3f 9cd9 fd3e 3fad b4be 3e6a e1bd
00000010: 1c07 663f eae8 96be 9a6f 5b3d aaaf 013d
00000020: eeac 88bd 7836 cabd d088 12be f8e6 10be
00000030: 717d 823c f81a cdbe c5af 69be 4130 c2be
00000040: 3653 22be e99f 46be 50f7 d33d 78b1 33bd
00000050: 0a3c 413f 4bb0 db3e cb35 7a3e fb66 dc3d
00000060: 9d66 f8be 376f b43e 9cce 19bf 997b 713d
00000070: c877 58be 0b9e acbe aab3 04bf 6ba8 943e
00000080: da43 1b3f b528 e9be 27b6 bbbe 3873 e1bd
00000090: dc80 323f 4f3a a8be 8a6c 083f 7be2 7f3e
000000a0: 42f1 383f c819 32bf 7c17 b53e f604 1f3c
000000b0: d6e7 27be a421 5bbd 4618 4dbe a03d 213d
000000c0: f10a 6dbe 3528 8a3f eca2 b7bc 9830 b9bd
000000d0: 7808 70be d561 833c 1c7f 473f a894 9e3e
000000e0: 5d7e ed3e e66b 243e 5527 bcbc 9c38 753e
000000f0: d44f 00be 8cd7 4abd e913 e5bd 4024 90bc
00000100: e075 04bd 807d 91ba 0796 a4bc 22b8 b03d
00000110: 641a 2d3f 1c8b 553c 430f b13e 02b5 343e
00000120: 13f6 abbe 77d4 6e3f c5e2 163c 7871 87bd
00000130: 7cc7 7abe 97c7 833e c0ea 02bf 2683 f3be
00000140: ba74 01be 457f f8bd 4ff0 3c3f 8610 803e
00000150: 4021 27bd d81b d03d 64ae 4a3e a0cd c53c
00000160: 5864 f23c 4084 e1bd 2ab5 23bf c30d 06bf
00000170: b667 dabe 2602 613e 4e21 223d 1600 b83e
00000180: 7a19 09be eb3d 57be 1a15 39be c1a0 f3bd
00000190: df31 bc3e bab3 2c3f c883 ff3e 5062 103c
000001a0: 70eb 2bbf c24f 063e 5198 d9bd e4a3 32bc
000001b0: 28fd 513d 9f99 babd a684 1bbf 45ad 29bf
000001c0: ba90 283f a011 503f 87bf 53be 989c c6bd
000001d0: 4b34 9a3e 048d 1f3f 24af dbbe e184 a23e
000001e0: 400c 01be e8c1 08bd a0f4 913d fdff 31be
000001f0: 6e75 05be ccd5 e0bd f83f 3b3d b83b 46bd
00000200: dc5b 5c3f 7087 efbe ae48 183d 3871 503e
00000210: 2427 25be c165 22be 6b13 1fbf 5d89 19bf
00000220: 403f 6a3e f7fb 02bd b467 c6be 2a16 0bbf
00000230: c8e0 623f 0994 c2bd 4fb5 903e c510 1fbe
00000240: 564e 8b3e e4b4 203e 6083 903e e28a 823e
00000250: 22c7 56be dbcf 793f 0be7 a13d a962 133e
00000260: 0ea3 b9be 82d2 babe 1188 c93e e10c a7bd
00000270: d468 21bf 8c4f d4ba 8bc5 ad3e 796f bc3e
00000280: b4ad 4cbd 708b 34bd 607b c03b 3a77 37be
00000290: 7813 d53d b227 d0be 8972 653f 4970 da3d
000002a0: c2e2 00bf 4eac 823f 12b8 29bd 0c38 7fbc
000002b0: 071d 7b3f dc77 983d 2152 153e f949 943e
000002c0: 58a9 aebe 322a 333e 1535 b33e 59fd c33e
000002d0: c841 d2be 8915 5f3f 328b b3bd b684 9dbd
000002e0: c6f6 033f 33b3 8ebc 8918 57bf 81c7 8abd
000002f0: 9c0d d93d a963 29be 50f1 99bc 30d3 45bc
00000300: a2e3 4d3e d490 85bd 3066 c93d 7840 b2bc
00000310: d88f b63c 291d 10bf 6ea2 923e 8749 753e
00000320: 3f85 223f 4b50 4d3e 3287 113f 2e0b 493e
00000330: f86e 273d 88ac 193d d79f c9bd 00d7 3bbc
00000340: f812 1c3f 75d8 e63e 8bbd 0dbf 1486 673e
00000350: 1fdb 01be 5990 7a3f cc10 913e 6d14 5b3d
00000360: 9008 a83c 0d6d 2ebe dfeb eabd a82d 5bbd
00000370: 339e 6a3f eb40 e93e 920c e1be dfd4 bcba
00000380: 6ba6 313e 7a3e 0bbf f1f7 1f3c aa4c 93bd
00000390: d602 cdbd 7e13 a8bd e063 243c da3a 25be
000003a0: 4128 b63e 28fa 673e 201a 63bf 1831 8f3c
000003b0: 80ef 08bc 5c17 ec3d 2cef 30be 8e45 053e
000003c0: bf6a f23e 9981 373f ca0a 7f3e 61c1 67bd
000003d0: 2920 a8be bcea 4e3b 3191 223e 2090 1ebe
000003e0: 675d 2ebb bcf0 733b 0d98 c83e 3d8e cc3e
000003f0: ba3c 3fbe 27a6 53be 7216 f5be 445e 1dbf

all_embed.embed.bias f4 [128]
0.4125814 0.055891477 -0.342197 0.4824316 -0.20973021 0.09042461 0.6576602 0.34137276
0.63967955 0.30155542 0.31179622 -0.4096684 0.4219349 -0.43708014 -0.25995323 -0.30933422
-0.25362214 -0.35637575 0.41299522 0.53212845 -0.39690003 -0.4109317 0.5164148 0.4066162
-0.37570542 -0.011147728 0.63780266 0.48114267 0.27424902 -0.2741567 -0.2478177 -0.2938466
0.10549478 0.103265546 0.53815645 0.3718263 -0.36562315 0.4187444 0.6302846 0.072509326
-0.32699728 -0.12741187 0.3695126 0.37154356 0.0063672527 0.49522933 0.6419667 -0.3477475
-0.26875514 0.18447943 0.37981638 -0.17714334 -0.18192066 0.1527718 -0.23760325 0.124125026
0.57383895 -0.3923087 0.45777264 -0.46239436 0.03795334 0.68898696 -0.5346442 0.64105767
0.25002006 0.043914754 0.19385603 -0.090805516 0.310636 0.37306684 0.19724731 0.378162
0.3882954 0.0596059 0.22014256 0.4975461 0.113726795 0.073095135 0.4235874 0.6857578
0.14982772 -0.30317387 -0.21639125 0.3965768 -0.08037436 0.13213137 0.24194065 0.5739466
-0.28814763 0.26103622 0.03621818 0.11085243 -0.18318313 0.115575455 0.07915122 -0.047762133
0.100797094 -0.2320098 -0.20795196 -0.40313697 0.23490982 0.19225156 0.46175435 0.39872447
-0.076594986 -0.44602555 0.32433373 0.26287276 0.21143706 -0.21649396 0.22789004 0.81999993
-0.49265158 0.5280083 -0.25254422 0.1843425 0.44006962 -0.45015013 0.17206526 -0.44053233
0.3820001 0.118843384 -0.41762853 0.54712766 0.17841098 -0.4534666 0.24130425 -0.18698457
00000000: df3d d33e 76ee 643d 7234 afbe 4601 f73e
00000010: 84c3 56be 8a30 b93d 6b5c 283f 69c8 ae3e
00000020: 0ac2 233f 7965 9a3e c1a3 9f3e 0ec0 d1be
00000030: da07 d83e f8c8 dfbe 9718 85be 0e61 9ebe
00000040: c3da 81be e276 b6be 1c74 d33e 9239 083f
00000050: 7b36 cbbe a465 d2be c333 043f 0030 d03e
00000060: 765c c0be f6a4 36bc 0947 233f 5558 f63e
00000070: 5e6a 8c3e 445e 8cbe ecc3 7dbe 1073 96be
00000080: a60d d83d e37c d33d 9fc4 093f 0460 be3e
00000090: f532 bbbe aa65 d63e 555a 213f c57f 943d
000000a0: 306c a7be 4278 02be c130 bd3e f53a be3e
000000b0: 63a4 d03b b38e fd3e ee57 243f f60b b2be
000000c0: 469a 89be 2de8 3c3e 4b77 c23e 1065 35be
000000d0: 6949 3abe 3670 1c3e 444e 73be 4335 fe3d
000000e0: 1ce7 123f b0dc c8be 2d61 ea3e f4be ecbe
000000f0: f674 1b3d 7361 303f 71de 08bf 5b1c 243f
00000100: a102 803e f5df 333d 3282 463e 3ef8 b9bd
00000110: af0b 9f3e 9e02 bf3e 33fb 493e 739e c13e
00000120: a8ce c63e 5125 743d 0d6d 613e 5dbe fe3e
00000130: 98e9 e83d e7b2 953d 73e0 d83e d38d 2f3f
00000140: 706c 193e 9b39 9bbe ab95 5dbe 1d0c cb3e
00000150: 509b a4bd 724d 073e 4abf 773e 2aee 123f
00000160: 1688 93be 8aa6 853e 8459 143d 9906 e33d
00000170: 5c94 3bbe d3b2 ec3d 091a a23d 3aa2 43bd
00000180: b56e ce3d fa93 6dbe 5cf1 54be f867 cebe
00000190: 338c 703e 98dd 443e 116b ec3e 9d25 cc3e
000001a0: d5dd 9cbd 765d e4be 120f a63e 4297 863e
000001b0: f582 583e 98b0 5dbe 025c 693e 84eb 513f
000001c0: d43c fcbe 8d2b 073f 7a4d 81be 48c4 3c3e
000001d0: ce50 e13e 147a e6be e031 303e 748d e1be
000001e0: 8495 c33e 2964 f33d 68d3 d5be 8f10 0c3f
000001f0: 5eb1 363e c62c e8be 7618 773e e278 3fbe

all_embed.embed_2.weight f4 [128, 128]
0.20001133 -0.04661566 0.003963411 0.06470705 0.03770818 0.06216267 0.16226077 0.1643724
0.121042624 -0.10969553 -0.23910595 0.09641959 0.020164885 -0.14454168 0.016730074 0.024200574
-0.026515605 -0.08477949 0.120366834 0.3714658 0.06354045 0.04809922 0.4090287 -0.08744981
-0.11267514 -0.23762731 -0.12187706 0.49054575 -0.13270509 0.5724002 -0.14325136 0.11465739
-0.07046926 0.4379732 0.23708437 -0.20344834 -0.10143949 -0.062406216 -0.19399472 0.023341373
0.043953344 -0.39972195 0.054983567 0.00023626731 -0.09042346 -0.025266232 0.11579572 0.02019763
-0.09438563 -0.011936645 -0.033223853 0.10968165 0.4981571 -0.086718276 0.13949896 0.22474296
-0.20173818 -0.015328065 0.20072481 0.06335975 -0.07456648 -0.1539082 -0.035173446 0.18677214
0.05264939 -0.072308436 0.095942125 -0.057235945 -0.20283723 -0.076306224 0.019585414 -0.19709589
-0.1129807 0.0017382173 0.06266192 -0.13270307 -0.24293488 -0.08944157 0.57290196 -0.33282432
-0.015419391 0.39415556 0.02775202 0.043477137 0.04666801 -0.13691013 -0.017980332 0.18945149
-0.13199462 0.010007771 0.16138601 -0.073263235 -0.041754395 -0.14616625 0.031142244 0.0022755354
-0.15657432 0.17988345 0.0042283386 -0.14582686 -0.14780585 0.19568734 0.5524033 -0.0949017
-0.19954947 0.08027893 0.12570651 -0.18250532 -0.16302365 -0.14060357 0.014444088 0.2834359
-0.12100794 0.22987409 -0.10708885 0.055580113 -0.13716766 -0.005832121 0.15828972 0.1342145
0.227063 -0.014492502 0.10216729 0.39706412 0.154497 -0.055227898 0.2614805 0.07681531
-0.3278202 -0.0068066427 -0.13615929 -0.3813243 0.12575845 -0.36358914 -0.23772423 0.025520211
-0.04372064 -0.048758022 0.46732232 0.028121233 -0.50559115 -0.13044026 -0.22343333 -0.023972422
-0.04819244 -0.31986314 -0.35308453 -0.40523702 0.12747966 0.049901053 -0.63461316 -0.09784174
0.09622145 -0.40785253 0.07677089 -0.6448833 -0.4907556 -0.34162202 -0.087848894 0.06722011
0.14192683 -0.4660543 -0.5656265 0.13190794 -0.19083664 -0.114636414 0.76069844 -0.118483424
-0.065113276 0.37559867 -0.373417 -0.010825329 -0.14574812 -0.4541197 -0.33245602 -0.058975123
-0.12939885 0.33170533 -0.054147583 -0.14812799 -0.39713395 -0.38794786 -0.13231294 -0.44337907
0.13121524 0.04993923 -0.31846482 0.06169735 -0.47417718 0.185692 -0.0585091 -0.6033323
0.14306629 -0.43556958 0.16843773 -0.10813215 -0.1925482 0.36164248 -0.07732137 0.2223632
0.052915312 0.020928873 0.17484239 0.582191 -0.22272825 0.27653664 -0.40044993 0.5865451
0.180393 -0.59635377 -0.1146019 -0.2681519 0.004378645 0.06037396 0.25498688 -0.4432526
-0.05495798 -0.1942313 -0.0020981769 0.021012006 0.0014695972 -0.45164824 -0.02973336 -0.08699853
-0.18365574 0.045040824 -0.0541924 -0.1106873 0.09872133 -0.28385982 -0.5264653 0.015821032
0.11488422 -0.09897305 0.43147194 -0.38488284 -0.1203265 0.12101747 0.252613 -0.36272413
0.15270819 -0.14504267 -0.101813555 -0.30414996 -0.12597822 -0.12151352 0.107125945 -0.077472456
-0.37919545 0.36270493 -0.06515423 -0.40553436 -0.30095384 0.07519229 0.2827755 -0.51697177
00000000: c5cf 4c3e 10f0 3ebd 80df 813b 2185 843d
00000010: e473 1a3d 499e 7e3d b027 263e 3d51 283e
00000020: 32e5 f73d 0da8 e0bd 31d8 74be a277 c53d
00000030: d430 a53c bc02 14be 820d 893c 4840 c63c
00000040: 4137 d9bc dfa0 adbd e382 f63d c430 be3e
00000050: 7f21 823d b003 453d 366c d13e e318 b3bd
00000060: 39c2 e6bd 9354 73be ae9a f9bd d028 fb3e
00000070: d8e3 07be d288 123f 7cb0 12be 7ed1 ea3d
00000080: 3052 90bd 063e e03e 3fc6 723e c354 50be
00000090: 82bf cfbd a99d 7fbd 8da6 46be 6836 bf3c
000000a0: 6c08 343d 5ba8 ccbe 7336 613d 86be 7739
000000b0: ef2f b9bd 21fb cebc 4e26 ed3d 8075 a53c
000000c0: 414d c1bd eb91 43bc bc15 08bd c6a0 e03d
000000d0: 730e ff3e 5a99 b1bd d1d8 0e3e 0523 663e
000000e0: 7494 4ebe 9022 7bbc ce8a 4d3e c2c2 813d
000000f0: 50b6 98bd 1c9a 1dbe 0812 10bd 3241 3f3e
00000100: e3a6 573d 7216 94bd 4e7d c43d 3d70 6abd
00000110: 90b4 4fbe 7046 9cbd 9771 a03c 81d3 49be
00000120: 6d62 e7bd e5d4 e33a e554 803d 50e3 07be
00000130: ecc3 78be 242d b7bd b4a9 123f f367 aabe
00000140: 9da1 7cbc c2ce c93e 3458 e33c 1515 323d
00000150: f526 3f3d 2b32 0cbe 7d4b 93bc 92ff 413e
00000160: 9929 07be a2f7 233c 6042 253e 090b 96bd
00000170: a806 2bbd 9bac 15be 051e ff3c 2621 153b
00000180: 0555 20be 5e33 383e e08d 8a3b a353 15be
00000190: 6b5a 17be 4362 483e 4d6a 0d3f d35b c2bd
000001a0: b256 4cbe 4869 a43d 35b9 003e ade2 3abe
000001b0: acef 26be 62fa 0fbe e5a6 6c3c 831e 913e
000001c0: 03d3 f7bd 1d64 6b3e 6651 dbbd f9a7 633d
000001d0: ae75 0cbe 601b bfbb b316 223e 876f 093e
000001e0: 3483 683e f671 6dbc 163d d13d fd4b cb3e
000001f0: 7634 1e3e a636 62bd c6e0 853e 5851 9d3d
00000200: 0dd8 a7be 420a dfbb 576d 0bbe f03c c3be
00000210: d3c6 003e 5b28 babe fb6d 73be c30f d13c
00000220: 6a14 33bd 7eb6 47bd df44 ef3e 805e e63c
00000230: 6c6e 01bf 2292 05be b5cb 64be d061 c4bc
00000240: 7065 45bd 1ac5 a3be 7fc7 b4be 3a7b cfbe
00000250: 078a 023e 0c65 4c3d 0276 22bf 4061 c8bd
00000260: c00f c53d 0cd2 d0be 0e3a 9d3d 1217 25bf
00000270: 5144 fbbe 15e9 aebe 1fea b3bd b2aa 893d
00000280: 4455 113e ab9e eebe e6cc 10bf e012 073e
00000290: ae6a 43be 7fc6 eabd 22bd 423f 70a7 f2bd
000002a0: 1c5a 85bd 784e c03e 8330 bfbe b95c 31bc
000002b0: ff3e 15be 6182 e8be ad37 aabe e68f 71bd
000002c0: 2281 04be 48d5 a93e dbc9 5dbd ddae 17be
000002d0: 2455 cbbe 1aa1 c6be 0b7d 07be 9502 e3be
000002e0: 4a5d 063e 148d 4c3d d20d a3be 5cb6 7c3d
000002f0: 5ac7 f2be 0b26 3e3e 3da7 6fbd fc73 1abf
00000300: f87f 123e fa02 dfbe f17a 2c3e 6374 ddbd
00000310: 5b2b 45be 3429 b93e ab5a 9ebd 2eb3 633e
00000320: babd 583d 0773 ab3c e209 333e 780a 153f
00000330: e012 64be 3696 8d3e c607 cdbe d227 163f
00000340: f1b8 383e a4aa 18bf 67b4 eabd 354b 89be
00000350: bd7a 8f3b af4a 773d a48d 823e 01f2 e2be
00000360: 9e1b 61bd 92e4 46be 9181 09bb 5f21 ac3c
00000370: 809f c03a 703e e7be 6093 f3bc 492c b2bd
00000380: 4010 3cbe ba7c 383d daf8 5dbd 06b0 e2bd
00000390: 692e ca3d 1356 91be 6ec6 06bf 1c9b 813c
000003a0: 6b48 eb3d 62b2 cabd e4e9 dc3e 5d0f c5be
000003b0: bd6d f6bd 02d8 f73d 7e56 813e fab6 b9be
000003c0: 895f 1c3e 1186 14be a083 d0bd 8bb9 9bbe
000003d0: 6f00 01be 15dc f8bd d964 db3d e1a9 9ebd
000003e0: e825 c2be 76b4 b93e 956f 85bd 33a2 cfbe
000003f0: 9f16 9abe 6afe 993d f3c7 903e 4358 04bf

all_embed.embed_2.bias f4 [128]
-0.07868912 0.0032054852 0.0571741 0.03386456 -0.005066192 -0.00588597 -0.01275338 0.0067523243
-0.011775775 -0.038628567 -0.032333277 -0.0649918 -0.05767243 -0.09371592 -0.050761748 -0.10723084
0.01486051 -0.040097877 0.062331576 -0.012928102 0.06753378 -0.01545098 -0.097494036 -0.047418926
0.050032374 -0.11581996 0.029024886 -0.118480705 -0.28253978 -0.15577178 -0.032950636 -0.031285826
-0.06289039 0.05489999 -0.19798602 -0.28872895 -0.12631622 -0.11203434 -0.110373184 -0.07332329
-0.026558332 0.009546112 -0.08243523 -0.13757499 0.018806573 -0.08893366 -0.22008835 -0.033064693
-0.22666669 -0.020148076 0.09090435 -0.0036388536 -0.20676814 -0.058506142 -0.09032724 -0.077058084
0.049261525 -0.14362668 -0.034126796 0.13922131 0.03700087 0.19957697 -0.02508483 0.03565985
-0.013726845 -0.03902 0.013261112 -0.055606574 -0.053076033 0.05485991 -0.18544886 -0.1268609
-0.03684872 0.105694726 -0.037998736 -0.12718508 -0.027464055 0.03752689 -0.12025935 -0.26829508
0.12773246 -0.012186523 -0.021082805 -0.026281679 0.07775128 -0.042191725 -0.14452186 0.04608893
-0.12185453 -0.13858072 -0.07037572 -0.21705033 -0.045009736 0.05250174 -0.10459592 0.03268956
0.10538642 -0.11300552 -0.07153197 -0.03174906 -0.14855273 -0.09772449 0.07433165 -0.037447657
-0.052082714 -0.023974411 -0.03990834 -0.14347424 -0.22908492 -0.083684385 -0.053045537 0.043269426
-0.16350529 -0.105313264 0.032935034 -0.023230985 -0.12873963 -0.055867475 -0.047803756 0.1108305
-0.2059931 -0.11260441 -0.013820568 -0.064199075 -0.13880655 -0.044894967 -0.014397795 -0.039668653
00000000: c327 a1bd 1e13 523b 642f 6a3d 91b5 0a3d
00000010: 4c02 a6bb 18df c0bb 8ef3 50bc 9a42 dd3b
00000020: 2eef 40bc fd38 1ebd e66f 04bd 6c1a 85bd
00000030: ed39 6cbd 22ee bfbd 8deb 4fbd d89b dbbd
00000040: 7f79 733c ac3d 24bd 654f 7f3d 64d0 53bc
00000050: 274f 8a3d 1b26 7dbc f4aa c7bd 593a 42bd
00000060: bfee 4c3d 0433 edbd 99c5 ed3c 03a6 f2bd
00000070: 0ea9 90be a382 1fbe 3ff7 06bd 9125 00bd
00000080: adcc 80bd d0de 603d d9bc 4abe 48d4 93be
00000090: 0a59 01be 4372 e5bd 560b e2bd 852a 96bd
000000a0: dc90 d9bc 4c67 1c3c cdd3 a8bd 75e0 0cbe
000000b0: 3e10 9a3c da22 b6bd d75e 61be d86e 07bd
000000c0: 501b 68be 940d a5bc 0f2c ba3d d579 6ebb
000000d0: 07bb 53be 23a4 6fbd 7dfd b8bd a1d0 9dbd
000000e0: 74c6 493d df12 13be 8ac8 0bbd 0890 0e3e
000000f0: 398e 173d e85d 4c3e b47e cdbc 1010 123d
00000100: 90e6 60bc 6fd3 1fbd 2345 593c b8c3 63bd
00000110: 4166 59bd c9b4 603d 4ee6 3dbe d3e7 01be
00000120: afee 16bd 7a76 d83d 90a4 1bbd ce3c 02be
00000130: 4cfc e0bc ccb5 193d 894a f6bd f95d 89be
00000140: 4ccc 023e fba9 47bc d9b5 acbc ad4c d7bc
00000150: 103c 9f3d 3bd1 2cbd 8afd 13be bfc7 3c3d
00000160: de8e f9bd 1be8 0dbe 2521 90bd 7142 5ebe
00000170: 215c 38bd 110c 573d 6336 d6bd 7de5 053d
00000180: d6d4 d73d 706f e7bd 5a7f 92bd 4d0b 02bd
00000190: 351e 18be c723 c8bd 313b 983d b762 19bd
000001a0: af54 55bd fc65 c4bc ed76 23bd e9ea 12be
000001b0: 3d95 6abe b862 abbd 4746 59bd 483b 313d
000001c0: ee6d 27be 7bae d7bd e3e6 063d e84e bebc
000001d0: 52d4 03be 4bd5 64bd dfcd 43bd 1afb e23d
000001e0: dbef 52be 249d e6bd aa6f 62bc ce7a 83bd
000001f0: 4e23 0ebe c9e3 37bd bbe4 6bbc 997b 22bd

pointer.v f4 [1, 1, 128]
-1.8341134 -1.9601072 -1.4135234 -1.9836525 -0.15627897 0.36123666 -0.30387872 -0.765877
-0.93735385 -0.24260941 -0.5462355 -2.190119 1.816262 -0.44476634 -0.23061669 2.3481212
-0.99726826 -0.8561236 1.3135908 -2.0330393 -0.7042897 0.46308595 -2.4524806 0.12509985
-0.76401275 1.0885369 0.90315425 1.8289914 2.6329722 -0.5382763 0.75600994 -0.8235577
0.71453357 -2.087333 2.3272212 -2.6342957 2.282623 -0.5076714 0.83521104 -2.122612
0.4578043 -0.44633642 2.651711 0.75562114 2.7778125 0.35510075 -1.3124151 1.8279288
-1.9562463 0.9365458 -0.59002984 0.20764838 2.1739118 -1.7523906 -0.90904516 1.0887648
-3.2871568 -0.6773644 -0.24566506 -0.8133153 -0.4892634 -1.3190664 -0.36132023 -0.68291324
1.0460027 -0.8072734 -0.8554901 0.26837364 -0.36444157 -1.7276261 3.0029428 0.90244657
1.6363448 -3.4537086 0.84379655 0.9046199 0.56557864 -0.17890556 1.1625205 -2.4889295
-0.1440737 0.9448877 -0.45721054 -1.2163396 0.18195449 -0.7713848 0.7503677 0.29258084
2.7623081 -2.243777 -1.9162508 0.115071185 0.5871784 -1.3456068 -0.40529427 0.7348667
-0.7290902 0.6975934 0.19039908 0.27950725 2.3977368 -0.41068253 -1.5429682 0.7703328
0.44390002 0.6762256 0.83944285 2.503192 -2.31998 -0.7044901 2.7186482 1.327526
-0.4135755 0.12908748 -0.7268244 -1.4279883 2.1561773 0.02981332 -2.0506384 -0.87308836
2.4070046 0.66637033 -0.35508496 0.2644789 -0.35337672 -1.7542278 1.7190619 1.1700417
00000000: 3ac4 eabf cbe4 fabf 56ee b4bf 53e8 fdbf
00000010: 9807 20be 03f4 b83e fe95 9bbe 8410 44bf
00000020: 6cf6 6fbf 9a6e 78be 17d6 0bbf e92a 0cc0
00000030: 467b e83f 6ab8 e3be c826 6cbe 9e47 1640
00000040: f94c 7fbf eb2a 5bbf be23 a83f 511d 02c0
00000050: 544c 34bf 9a19 ed3e 71f5 1cc0 2d1a 003e
00000060: 5796 43bf 2d55 8b3f 1e35 673f 641c ea3f
00000070: 9e82 2840 7acc 09bf de89 413f add4 52bf
00000080: aceb 363f dd96 05c0 31f1 1440 4d98 28c0
00000090: 7f16 1240 c1f6 01bf 64d0 553f e0d8 07c0
000000a0: 5365 ea3e 3586 e4be a2b5 2940 6370 413f
000000b0: aec7 3140 c4cf b53e 38fd a7bf 92f9 e93f
000000c0: 4766 fabf 77c1 6f3f 320c 17bf c7a1 543e
000000d0: 5f21 0b40 564e e0bf 2fb7 68bf a55c 8b3f
000000e0: c760 52c0 c167 2dbf 9f8f 7bbe 6e35 50bf
000000f0: bb80 fabe 2bd7 a8bf f7fe b8be 67d3 2ebf
00000100: 6be3 853f 78a9 4ebf 6601 5bbf 4568 893e
00000110: 1698 babe da22 ddbf 3730 4040 bd06 673f
00000120: bf73 d13f 9009 5dc0 0d03 583f 2b95 673f
00000130: c3c9 103f 0533 37be 79cd 943f 9f4a 1fc0
00000140: 0e88 13be 29e4 713f 8017 eabe 04b1 9bbf
00000150: 4752 3a3e 7979 45bf 1918 403f 28cd 953e
00000160: a8c9 3040 0b9a 0fc0 b547 f5bf 71aa eb3d
00000170: 5351 163f d83c acbf bb82 cfbe 3920 3c3f
00000180: a8a5 3abf 7b95 323f faf7 423e 931b 8f3e
00000190: 8574 1940 fb44 d2be fb7f c5bf 8834 453f
000001a0: dd46 e33e 1f1d 2d3f bae5 563f 4c34 2040
000001b0: 8d7a 14c0 7759 34bf 55fe 2d40 5fec a93f
000001c0: 2bc0 d3be 822f 043e 2a11 3abf 52c8 b6bf
000001d0: cffe 0940 103b f43c a93d 03c0 b882 5fbf
000001e0: 5d0c 1a40 3f97 2a3f b2cd b5be c769 873e
000001f0: cbed b4be 898a e0bf 380a dc3f edc3 953f

pointer.encoder_attn.v f4 [1, 1, 128]
0.105283484 0.058045678 -0.09163628 -0.035622273 0.046470374 0.029184448 -0.05868718 -0.13952869
0.011606667 -0.10330196 -0.08857095 0.055136263 -0.03770544 0.011944105 -0.115474224 -0.0053127967
-0.0055782814 0.0040352507 0.03274502 0.07204939 0.012130211 -0.1003689 0.0121397525 -0.024287771
0.021466384 0.13085578 -0.13101374 0.10005468 0.0010817038 0.013507085 0.08782882 -0.1896256
-0.06495489 0.058739 0.068899095 0.067699775 0.024435898 -0.06152169 -0.056517087 -0.081383295
0.010766257 -0.022274222 -0.13524827 -0.065683484 -0.08428911 -0.016732981 -0.033719186 -0.09795043
0.006543425 -0.30739895 0.24746726 0.00031697686 -0.0036822036 -0.031265784 0.045456883 0.03392073
-0.11526359 -0.12062435 -0.0062310044 -0.11733131 -0.10402288 -0.042536702 0.12312017 -0.0002582475
0.06288238 -0.1393197 -0.11036782 0.05934894 -0.011775526 0.16662417 0.010374574 0.36889166
-0.040576037 -0.0910619 -0.09393789 0.0139316665 0.009283143 0.050043575 0.123835996 0.078780405
0.15896764 -0.013372494 -0.070299394 0.009209457 -0.015632244 -0.011070602 0.12072071 0.14327289
0.040902037 -0.080153406 -0.09657562 0.0718396 0.12115196 0.050948318 0.08546076 -0.027922582
0.010491248 0.042020757 0.37118745 0.022690704 -0.0414599 -0.008108135 0.010497416 0.12079218
-0.08044309 0.13499372 -0.06589088 -0.11754488 -0.16608146 0.20609209 0.11112128 -0.065004505
-0.018197285 -0.026598284 -0.0152402865 0.23264214 -0.004554853 0.042312965 -0.05434617 -0.04663781
-0.3009995 0.10512723 -0.047523215 -0.04701731 0.0044483216 -0.095318824 0.12363346 0.09606828
00000000: de9e d73d 4ec1 6d3d cdab bbbd a9e8 11bd
00000010: b857 3e3d 3914 ef3c f861 70bd 9ce0 0ebe
00000020: e429 3e3c fa8f d3bd b064 b5bd 90d6 613d
00000030: 0571 1abd 35b1 433c c07d ecbd f816 aebb
00000040: 04ca b6bb 233a 843b a41f 063d a18e 933d
00000050: cbbd 463c 368e cdbd d0e5 463c 26f7 c6bc
00000060: 45da af3c 0fff 053e 7728 06be 78e9 cc3d
00000070: f5c7 8d3a d24c 5d3c 99df b33d 372d 42be
00000080: 1207 85bd 4e98 703d f81a 8d3d 2ea6 8a3d
00000090: cb2d c83c 2bfe 7bbd 767e 67bd 49ac a6bd
000000a0: f464 303c 6e78 b6bc 867e 0abe 1085 86bd
000000b0: c59f acbd 9b13 89bc 211d 0abd 3c9a c8bd
000000c0: 3a6a d63b 6563 9dbe 0f68 7d3e ea2f a639
000000d0: 2051 71bb 8d10 00bd ff30 3a3d 77f0 0a3d
000000e0: 510f ecbd e609 f7bd 742d ccbb 664b f0bd
000000f0: f309 d5bd f73a 2ebd 6d26 fc3d 6565 87b9
00000100: 7ac8 803d d3a9 0ebe 8608 e2bd e017 733d
00000110: 23ee 40bc 879f 2a3e 1efa 293c 5edf bc3e
00000120: 0f33 26bd a97e babd 8262 c0bd a541 643c
00000130: 5318 183c 7efa 4c3d ba9d fd3d 9f57 a13d
00000140: 6ac8 223e 4e18 5bbc 21f9 8fbd 43e3 163c
00000150: 310f 80bc 7861 35bc 6b3c f73d 21b6 123e
00000160: e588 273d 7827 a4bd 70c9 c5bd a420 933d
00000170: 851e f83d 2faf 503d 0d06 af3d e6bd e4bc
00000180: 7ce3 2b3c f51d 2c3d 480c be3e dbe1 b93c
00000190: dbd1 29bd fcd7 04bc 5bfd 2b3c e461 f73d
000001a0: 59bf a4bd cb3b 0a3e ccf1 86bd 5fbb f0bd
000001b0: 4211 2abe ce09 533e 8e93 e33d 1521 85bd
000001c0: 7912 95bc a5e4 d9bc 65b2 79bc be39 6e3e
000001d0: e040 95bb 5c50 2d3d 179a 5ebd 4a07 3fbd
000001e0: 9b1c 9abe f24c d73d b4a7 42bd 3995 40bd
000001f0: 3ac3 913b 8436 c3bd 8a33 fd3d 72bf c43d

pointer.encoder_attn.W f4 [1, 128, 256]
0.024624307 0.012458344 -0.006378296 -0.00069640385 0.009779119 0.012884803 0.012412532 0.055793248
0.009624883 -0.042727143 -0.03431565 0.005190247 -0.004562578 -0.06718998 -0.037245233 -0.043459784
0.02280616 0.01890582 -0.034923054 0.0030786938 0.052173603 -0.01006798 0.019505007 0.0056369333
0.014968878 0.024965905 -0.038745552 -0.010141949 -0.00969065 -0.032569036 -0.017781863 0.028268073
-0.04041251 0.005270341 -0.040571053 -0.0148299085 0.0017089457 -0.062251583 0.011204639 0.0138169695
-0.010228672 -0.050379004 -0.025548799 0.011908203 0.011911489 0.012865585 0.018322064 -0.008357766
-0.011590808 0.022076655 0.030986862 0.01018475 -0.017402954 0.007637348 -0.034951027 -0.00082299346
0.008123546 -0.071383454 -0.06271226 0.035799637 -0.020826263 0.027041396 0.042201888 -0.07286504
-0.04071772 0.010957387 0.057688 -0.025290651 -0.044606112 0.041452624 0.0076439963 -0.01790558
-0.011280035 0.04149213 0.0037941863 0.021708908 -0.03568471 0.033073157 -0.018323408 0.01751343
0.017370999 0.01702341 -0.06402592 -0.005576087 0.031913996 -0.061705094 -0.031200064 -0.011634631
-0.005036893 -0.007208752 0.01776791 0.011975539 -0.01999573 0.041246988 -0.062106945 0.00085317
0.03054805 -0.01196312 -0.024366725 -0.039069656 -0.027196184 -0.03219075 0.05128846 0.011244246
0.043384843 0.016427627 0.038099863 -0.017770609 -0.005438083 -0.016478969 -0.0069087306 -0.01758233
-0.0447711 0.012881835 0.06247603 0.032784984 -0.034433648 -0.0058650575 0.010264171 0.037683673
-0.042941324 -0.011950445 -0.01795515 -0.0093134735 -0.0055123097 -0.0008945083 0.0010567682 -0.001936919
-0.06885098 0.0010353067 0.039122984 0.2027778 -0.19503188 -0.039147332 0.07697946 0.06391256
0.28630286 -0.10926907 -0.13212821 0.028271845 -0.24884935 0.20371161 -0.015785718 -0.0832398
0.14093952 0.12520249 -0.044863 0.027108496 0.059321135 0.12623525 -0.002346069 -0.07754391
-0.12852223 -0.07688492 -0.035245374 0.04284247 0.086369835 0.13966939 0.04251065 -0.2061735
0.14002925 -0.024756037 0.19798228 -0.058699094 -0.03348281 -0.062012926 0.098270975 -0.10505559
0.008922672 -0.18933694 0.061010234 0.17603007 0.07590691 -0.23532492 -0.019502658 0.012832954
-0.018700495 0.19295405 -0.03627852 0.06449614 0.23995179 0.15979955 0.034714226 -0.18323931
0.09941101 -0.013726736 0.119942956 0.14963858 0.035163667 -0.19492312 -0.21444744 -0.11263069
-0.02215378 -0.074012406 0.08666767 0.012433183 -0.14799905 -0.038742486 0.04344561 0.124511994
0.014196844 -0.1602858 0.076443255 -0.2630452 0.09360318 0.059875164 -0.008537759 -0.13715807
-0.20029312 0.10531414 0.11529029 -0.1389709 0.12852395 0.15490577 0.012112837 -0.1431928
-0.3233121 0.08130079 -0.07823152 -0.039047025 0.08430498 -0.15500028 0.043607242 0.043737203
0.05793927 -0.14887844 -0.14544964 0.048440073 -0.12410161 -0.019791493 -0.104369394 -0.14186598
-0.019174848 0.15670931 -0.07348368 -0.106228225 -0.15433985 -0.1500718 0.11529237 0.24731661
0.16782552 0.03508525 0.088392176 -0.08625181 0.14447883 0.08715217 -0.20711829 -0.24321717
-0.09053666 0.033355612 -0.22103728 0.0119993985 0.19008954 -0.15439422 0.07439454 -0.09471988
00000000: eab8 c93c 151e 4c3c 0601 d1bb df8e 36ba
00000010: 9938 203c c81a 533c ef5d 4b3c 7687 643d
00000020: afb1 1d3c a802 2fbd 918e 0cbd f312 aa3b
00000030: ae81 95bb e69a 89bd 758e 18bd e302 32bd
00000040: fcd3 ba3c 61e0 9a3c 7a0b 0fbd e9c3 493b
00000050: fdb3 553d 2bf4 24bc f7c8 9f3c 06b6 b83b
00000060: 0640 753c 4c85 cc3c a8b3 1ebd 6b2a 26bc
00000070: 88c5 1ebc 1c67 05bd 45ab 91bc 7292 e73c
00000080: 9787 25bd d3b2 ac3b d52d 26bd 25f9 72bc
00000090: b4fe df3a 84fb 7ebd aa93 373c 9260 623c
000000a0: 2996 27bc 375a 4ebd b74b d1bc a01a 433c
000000b0: 6828 433c 2dca 523c 2718 963c 03ef 08bc
000000c0: 5fe7 3dbc 1ada b43c 29d8 fd3c f0dd 263c
000000d0: a490 8ebc b842 fa3b cf28 0fbd 28be 57ba
000000e0: 9f18 053c 7d31 92bd 496f 80bd a4a2 123d
000000f0: d79b aabc eb85 dd3c e3db 2c3d 443a 95bd
00000100: a0c7 26bd 9d86 333c 414a 6c3d 572e cfbc
00000110: e6b4 36bd 3aca 293d 7d7a fa3b b9ae 92bc
00000120: e5cf 38bc a7f3 293d e2a7 783b e1d6 b13c
00000130: 212a 12bd b877 073d f91a 96bc 5378 8f3c
00000140: a04d 8e3c ae74 8b3c 0620 83bd 9cb7 b6bb
00000150: 40b8 023d 7bbe 7cbd 4797 ffbc 2e9f 3ebc
00000160: 850c a5bb 6537 ecbb 028e 913c 0d35 443c
00000170: 16ce a3bc 9af2 283d da63 7ebd 45a7 5f3a
00000180: e73f fa3c f600 44bc ba9c c7bc 8107 20bd
00000190: 88ca debc 73da 03bd d913 523d c939 383c
000001a0: 4eb4 313d 3b93 863c 9a0e 1c3d ab93 91bc
000001b0: f231 b2bb e7fe 86bc a262 e2bb d208 90bc
000001c0: e761 37bd 550e 533c dee6 7f3d 8c49 063d
000001d0: 4c0a 0dbd ab2f c0bb 0e2b 283c 325a 1a3d
000001e0: 3ee3 2fbd cdcb 43bc ae16 93bc 8a97 18bc
000001f0: 9ba0 b4bb 707d 6aba 4283 8a3a 38e0 fdba
00000200: be01 8dbd 21b3 873a 6c3f 203d fca4 4f3e
00000210: 70b6 47be f458 20bd 68a7 9d3d 97e4 823d
00000220: 4a96 923e 76c8 dfbd 9e4c 07be 5b9a e73c
00000230: 5dd2 7ebe c799 503e 0d51 81bc a179 aabd
00000240: 7352 103e 1535 003e 44c2 37bd a312 de3c
00000250: b8fa 723d d043 013e 82c0 19bb 57cf 9ebd
00000260: 559b 03be d775 9dbd 745d 10bd 967b 2f3d
00000270: abe2 b03d 7e05 0f3e a61f 2e3d 251f 53be
00000280: d463 0f3e 2ccd cabc debb 4a3e 766e 70bd
00000290: 4525 09bd 4401 7ebd 4b42 c93d 6327 d7bd
000002a0: 6630 123c 8be1 41be dee5 793d 3a41 343e
000002b0: 1575 9b3d 04f9 70be 0ac4 9fbc 4f41 523c
000002c0: c831 99bc bf95 453e c998 14bd 8d16 843d
000002d0: ecb5 753e 7ea2 233e 8130 0e3d 16a3 3bbe
000002e0: 0098 cb3d 1be6 60bc a7a4 f53d db3a 193e
000002f0: c707 103d ed99 47be 1c98 5bbe ebaa e6bd
00000300: d87b b5bc d193 97bd d27e b13d 8db4 4b3c
00000310: 108d 17be 71b0 1ebd 06f4 313d 2500 ff3d
00000320: e199 683c f621 24be 488e 9c3d dcad 86be
00000330: 06b3 bf3d a93f 753d f5e1 0bbc 2a73 0cbe
00000340: a419 4dbe f1ae d73d 511d ec3d 634e 0ebe
00000350: c89b 033e 9e9f 1e3e ec74 463c 22a1 12be
00000360: 2a89 a5be 0781 a63d d937 a0bd c6ef 1fbd
00000370: 17a8 ac3d 65b8 1ebe 829d 323d c825 333d
00000380: ba51 6d3d 9773 18be c0f0 14be 1969 463d
00000390: fc28 febd c521 a2bc 9fbf d5bd 5145 11be
000003a0: 9214 9dbc 6878 203e 9d7e 96bd 2f8e d9bd
000003b0: 440b 1ebe 6cac 19be 681e ec3d 9140 7d3e
000003c0: 74da 2b3e 8db5 0f3d f506 b53d caa4 b0bd
000003d0: 42f2 133e d67c b23d d116 54be ec0d 79be
000003e0: 496b b9bd e59f 083d 9957 62be 2099 443c
000003f0: d5a6 423e 8519 1ebe 2a5c 983d 7ffc c1bd

pointer.fc1.weight f4 [128, 256]
-0.04571384 -0.06440579 0.006354517 -0.059035536 0.012102704 -0.110101864 -0.06136834 -0.009043508
0.09109819 -0.09256653 -0.22571178 -0.0039808047 -0.05734714 -0.085265815 -0.05783619 0.08573545
-0.13664109 -0.01949197 -0.10066542 -0.05834395 -0.061702166 0.17019725 -0.050080564 0.0029722345
-0.12945102 0.036010224 -0.021376058 -0.06346079 -0.10395355 0.15898019 0.007198925 -0.0857735
0.016582845 -0.110283434 -0.026502939 -0.07347603 -0.073327385 -0.14618771 0.10649167 0.034908496
0.11668351 -0.12317251 0.030187733 -0.037144557 -0.059411827 -0.13638438 0.0035638749 -0.050750963
-0.0105355885 0.082643636 0.06067227 0.0681596 0.16623934 0.07645711 0.044810724 -0.06431107
0.032738924 0.082094505 -0.068232335 -0.030725615 -0.1772738 -0.05092839 0.0026328634 0.10071611
-0.15831062 0.01970627 0.14270885 -0.11201677 0.11079939 -0.026251629 -0.07844157 0.17531696
0.122029185 0.03226343 0.13060713 -0.0795875 -0.08524921 -0.016376544 0.0061376537 -0.039924778
-0.0905209 -0.015397265 0.02421367 0.060517754 0.19157656 -0.05475015 0.1881018 0.03345505
-0.058815487 -0.07759667 0.0364752 -0.07348962 -0.057399817 -0.108966485 0.012479303 0.039787985
0.1563369 -0.025373513 0.05223114 -0.08972459 -0.05161996 -0.009547001 -0.040636357 -0.074594684
0.07563232 -0.049784277 -0.071293734 0.037867263 -0.10836923 0.0023849925 0.15812346 0.08624873
-0.078650884 0.2630889 0.13401517 -0.016430935 0.068556935 0.09811439 -0.1490141 0.124256104
-0.048800267 0.12907858 -0.078897014 -0.058235295 -0.05338081 -0.011560699 0.0149331875 0.11355177
-0.07103837 -0.067427225 0.004240679 0.14181983 0.005411619 0.090805836 0.0954654 0.07618695
0.011578032 -0.08259612 0.005766533 0.038651794 0.073901825 0.07994494 0.08935575 -0.083397076
0.0028329284 -0.042423163 0.013845858 -0.06569641 0.028173719 -0.074065275 0.012293597 -0.0086963875
-0.13956681 -0.012194374 -0.046221074 0.02537421 -0.07335011 -0.04534329 0.008625717 0.08016183
0.12755676 0.10016238 0.0009960224 0.043555643 0.13156044 0.02967567 -0.036854237 -0.09003561
-0.07573102 0.048987605 0.1187459 0.08444084 -0.10381156 0.076853685 0.027947702 0.019482585
0.06407344 -0.09955543 -0.0066108205 -0.031596173 -0.019742902 0.15125489 0.06813316 0.021069098
-0.0092266025 0.18150136 -0.1060379 -0.09264418 0.081983805 0.036888428 0.06549656 0.10065754
-0.052224427 -0.043482136 -0.015638277 -0.06745251 -0.08690202 0.026847588 -0.11300772 0.083470136
-0.05059257 -0.09468152 0.06343817 0.073338695 0.033084013 -0.111709945 -0.013148416 -0.088052444
0.042723138 -0.022844639 0.14781143 0.12579773 -0.06394872 0.029400524 0.07918148 0.04991807
-0.07603789 0.1314701 -0.051583774 -0.03526791 -0.030724952 0.015611141 -0.0022683525 -0.07697401
-0.0061385133 0.041417997 0.00905747 0.093230106 0.116147034 -0.06864994 0.003930027 0.12649134
-0.010985637 0.053453263 -0.016691567 0.034917668 -0.07211729 0.101517074 0.13007976 -0.06579769
0.0067528733 0.09322027 -0.09318733 -0.061184295 -0.009754367 -0.07959169 -0.033817586 -0.18646401
0.07497455 0.107620694 -0.0081755 -0.08850949 -0.10802285 0.10797314 -0.08046788 -0.025044998
00000000: 6f3e 3bbd 2fe7 83bd 8d39 d03b 3fcf 71bd
00000010: 6b4a 463c 167d e1bd 5e5d 7bbd 392b 14bc
00000020: b091 ba3d 8593 bdbd fd20 67be 6971 82bb
00000030: d6e4 6abd d89f aebd a4e5 6cbd 1196 af3d
00000040: a4eb 0bbe a0ad 9fbc ac29 cebd 11fa 6ebd
00000050: 69bb 7cbd 3048 2e3e 4721 4dbd d2c9 423b
00000060: cf8e 04be 757f 133d d81c afbc bbf7 81bd
00000070: 99e5 d4bd b4cb 223e f6e4 eb3b 04aa afbd
00000080: bfd8 873c 48dc e1bd b11c d9bc 9a7a 96bd
00000090: ab2c 96bd 3bb2 15be 4e18 da3d 36fc 0e3d
000000a0: c4f7 ee3d de41 fcbd 444c f73c e424 18bd
000000b0: d159 73bd 59a8 0bbe e68f 693b 3ee0 4fbd
000000c0: 769d 2cbc 1141 a93d 7c83 783d 4397 8b3d
000000d0: a53a 2a3e 8c95 9c3d 738b 373d 86b5 83bd
000000e0: 4019 063d 2a21 a83d 65bd 8bbd 49b4 fbbc
000000f0: 4387 35be 4a9a 50bd 1e8c 2c3b 3f44 ce3d
00000100: 2e1c 22be 0b6f a13c 4522 123e 0c69 e5bd
00000110: caea e23d a80d d7bc f9a5 a0bd 4a86 333e
00000120: 70ea f93d a926 043d e0bd 053e c5fe a2bd
00000130: 2397 aebd 1a28 86bc 5f1e c93b 2a88 23bd
00000140: 0663 b9bd cf44 7cbc bf5b c63c 77e1 773d
00000150: a52c 443e b141 60bd c29d 403e 2a08 093d
00000160: 82e8 70bd 01eb 9ebd 0567 153d ba81 96bd
00000170: 121c 6bbd d229 dfbd fe75 4c3c baf8 223d
00000180: c816 203e 1ddc cfbc 52f0 553d 87c1 b7bd
00000190: 746f 53bd 066b 1cbc 4f72 26bd 19c5 98bd
000001a0: 1ee5 9a3d 99ea 4bbd 7302 92bd b41a 1b3d
000001b0: b0f0 ddbd 894d 1c3b 1eeb 213e 2da3 b03d
000001c0: b713 a1bd 97b3 863e 463b 093e 2b9a 86bc
000001d0: 9467 8c3d 33f0 c83d 2797 18be fc79 fe3d
000001e0: cae2 47bd 2d2d 043e c294 a1bd 2288 6ebd
000001f0: d6a5 5abd 1669 3dbc 54aa 743c d58d e83d
00000200: 917c 91bd 4917 8abd 65f5 8a3b 3839 113e
00000210: f353 b13b 69f8 b93d 5d83 c33d e707 9c3d
00000220: c9b1 3d3c 2828 a9bd 2ff5 bc3b 5851 1e3d
00000230: d759 973d 2cba a33d 2600 b73d 16cc aabd
00000240: a7a8 393b e9c3 2dbd bdd9 623c d78b 86bd
00000250: 92cc e63c 89af 97bd 156b 493c 4b7b 0ebc
00000260: 9aea 0ebe e9ca 47bc 4f52 3dbd 93dd cf3c
00000270: 9538 96bd e3b9 39bd e152 0d3c e32b a43d
00000280: 3d9e 023e ef21 cd3d f78c 823a 6767 323d
00000290: c8b7 063e 641a f33c 78f4 16bd 9764 b8bd
000002a0: dd18 9bbd 3aa7 483d 0d31 f33d 52ef ac3d
000002b0: 289b d4bd 7765 9d3d 94f2 e43c f199 9f3c
000002c0: f038 833d b8e3 cbbd 959f d8bb fd6a 01bd
000002d0: debb a1bc 90e2 1a3e 6689 8b3d 1a99 ac3c
000002e0: 2d2b 17bc 7edb 393e 662a d9bd 3bbc bdbd
000002f0: 20e7 a73d 5218 173d 0f23 863d 8a25 ce3d
00000300: 48e9 55bd 531a 32bd d81b 80bc 8b24 8abd
00000310: b0f9 b1bd 79ef db3c 9770 e7bd 64f2 aa3d
00000320: 283a 4fbd 62e8 c1bd dfeb 813d 9932 963d
00000330: 1a83 073d 2fc8 e4bd 746c 57bc d754 b4bd
00000340: 75fe 2e3d ae24 bbbc e15b 173e 1fd1 003e
00000350: 8cf7 82bd 5ed9 f03c e629 a23d e476 4c3d
00000360: c1b9 9bbd 19a0 063e 8249 53bd 1675 10bd
00000370: e5b2 fbbc dfc5 7f3c a4a8 14bb 8da4 9dbd
00000380: 9525 c9bb eba5 293d c865 143c 6def be3d
00000390: 7fde ed3d 5798 8cbd 75c7 803b f286 013e
000003a0: 1afd 33bc cff1 5a3d c1bc 88bc d405 0f3d
000003b0: 3bb2 93bd 2fe8 cf3d a133 053e f0c0 86bd
000003c0: 3547 dd3b 45ea be3d 00d9 bebd 629c 7abd
000003d0: c8d0 1fbc f800 a3bd 4f84 0abd 6cf0 3ebe
000003e0: 428c 993d 3d68 dc3d 88f2 05bc 7744 b5bd
000003f0: 153b ddbd 0621 dd3d 58cc a4bd 2b2b cdbc

pointer.fc1.bias f4 [128]
-0.029664265 -0.0030444425 -0.03995676 -0.039233413 0.034036193 -0.011005266 0.04866623 0.04471911
0.0045002103 0.11309736 -0.06939162 -0.076799 -0.067897014 0.009110202 -0.0492522 0.03111322
-0.023603754 -0.042544864 0.012590874 -0.0752629 0.0399976 0.034273557 -0.035467956 0.12361451
-0.014644358 -0.09253142 0.074767835 0.018471822 0.05337385 -0.05564578 -0.0077269785 -0.023177356
0.051828317 0.042469457 -0.040587086 -0.025714083 0.015811864 -0.008932571 0.031947732 -0.06292201
-0.027851373 -0.0055895816 -0.004659788 -0.010066295 0.0254561 -0.0003963243 0.041384857 -0.005685372
-0.005147594 0.049537722 -0.05412951 -0.05357751 0.036546867 0.026659666 -0.013460217 0.014283241
-0.034499086 -0.038249064 0.02162303 0.05041796 -0.053567305 0.037387718 0.088696 -0.036841016
-0.008767584 0.02570272 -0.007317041 0.04271292 0.04862457 -0.0836205 0.026433619 -0.050448228
0.07414175 -0.06754338 0.017111398 0.03366734 0.031331368 0.09503108 -0.03594973 0.092152975
-0.023656957 -0.042255495 -0.03278399 0.07622054 0.022503778 0.07517009 -0.022837374 0.00065754435
0.028285407 0.06122061 -0.016023755 -0.06048739 0.024749514 -0.06385338 0.0515566 -0.06466451
-0.05253829 0.036887433 -0.0036087427 -0.019117799 0.015819773 -0.012666618 -0.018614063 0.046450544
-0.01831464 0.0023022438 0.025298553 0.039205335 -0.08376379 0.034583118 0.02728044 0.014582857
0.086626194 0.02206249 0.026947048 0.032047328 0.010488254 -0.055712953 0.0049690143 0.019628434
-0.06062678 0.036750946 0.05564513 -0.0023486882 -0.011490795 0.015941657 -0.011314607 0.038451128
00000000: 7902 f3bc 4585 47bb b3a9 23bd 37b3 20bd
00000010: 8969 0b3d 6e4f 34bc 3e56 473d 632b 373d
00000020: 8076 933b 979f e73d 321d 8ebd cb48 9dbd
00000030: 970d 8bbd f542 153c adbc 49bd 27e1 fe3c
00000040: a95c c1bc 8643 2ebd f449 4e3c 6f23 9abd
00000050: 86d4 233d 6e62 0c3d d946 11bd 9b29 fd3d
00000060: e4ee 6fbc 1d81 bdbd e11f 993d 3852 973c
00000070: 8a9e 5a3d d4ec 63bd 9832 fdbb 70de bdbc
00000080: ee49 543d 74f4 2d3d a53e 26bd 57a6 d2bc
00000090: e287 813c eb59 12bc a0db 023d 41dd 80bd
000000a0: 9028 e4bc cf28 b7bb 23b1 98bb 1aed 24bc
000000b0: 5089 d03c bfc9 cfb9 2b83 293d 5b4c babb
000000c0: 26ad a8bb 11e8 4a3d e8b6 5dbd 1774 5bbd
000000d0: 2bb2 153d 5f65 da3c 3e88 5cbc 4104 6a3c
000000e0: ea4e 0dbd 0dab 1cbd c822 b13c 1083 4e3d
000000f0: 6469 5bbd dd23 193d 40a6 b53d 9be6 16bd
00000100: eaa5 0fbc 838e d23c cac3 efbb bef3 2e3d
00000110: 8f2a 473d 3a41 abbd 518b d83c cda2 4ebd
00000120: a1d7 973d 2f54 8abd 342d 8c3c c4e6 093d
00000130: 5255 003d a89f c23d 0640 13bd b3ba bc3d
00000140: 3ccc c1bc 1914 2dbd 8148 06bd 8419 9c3d
00000150: d859 b83c c7f2 993d 7215 bbbc 0e5f 2c3a
00000160: ccb6 e73c 76c2 7a3d 4044 83bc a0c1 77bd
00000170: 7ebf ca3c 90c5 82bd 032d 533d d46e 84bd
00000180: 6432 57bd 4717 173d a880 6cbb ee9c 9cbc
00000190: 7898 813c a687 4fbc 857c 98bc ed42 3e3d
000001a0: 9508 96bc 3ee1 163b e93e cf3c c695 203d
000001b0: 5a8c abbd 07a7 0d3d 3b7b df3c efec 6e3c
000001c0: 1369 b13d 65bc b43c 0ec0 dc3c 0f44 033d
000001d0: edd6 2b3c 4433 64bd 1dd3 a23b cfcb a03c
000001e0: c953 78bd 2988 163d 26ec 633d 73ec 19bb
000001f0: e343 3cbc 1498 823c e760 39bc ee7e 1d3d

pointer.fc2.weight f4 [128, 128]
0.01869468 0.06562271 0.02059168 0.13112342 0.04674589 0.0958663 0.14917319 -0.049626235
0.012722838 0.023185134 -0.0621158 -0.11392858 0.13017999 -0.13027816 0.051922895 0.09125058
0.1994968 -0.36605647 -0.24649744 0.08694466 0.10961317 0.029608777 0.10832933 0.1921912
-0.05329815 0.104953766 0.11144351 -0.03226969 0.016252693 0.3627575 0.10426621 -0.15926991
-0.017147172 0.061724197 -0.09702456 -0.02242912 -0.05807765 -0.049762663 -0.06169603 0.10152704
-0.28494582 -0.051806986 0.0393001 0.09659155 0.15305205 0.3080038 -0.056463145 -0.030469088
0.19940102 0.049832705 0.28713414 0.23175529 -0.068045855 0.018243968 0.04597585 -0.027084002
0.18707053 0.21574578 0.058680866 0.078376025 0.03150047 -0.07217996 0.06602797 -0.44511986
-0.035462856 0.12076001 -0.17490053 -0.101447426 0.048518497 -0.22448213 -0.03726444 0.14336714
-0.06818085 0.052864097 -0.06174416 0.16458006 -0.11208325 0.121709175 0.21386148 -0.1868647
0.17630732 -0.02548557 0.14277284 0.0075874347 0.1369444 -0.124763764 0.08118985 -0.13778588
0.10329267 -0.14079355 -0.19521995 0.10728039 -0.11113457 0.003985403 -0.09873118 0.10202838
0.089883365 0.17965603 0.15261936 0.00432674 0.13286555 -0.06911318 -0.029646859 0.007561388
-0.008851542 -0.13491651 -0.03520626 0.15153648 0.07658197 0.05918036 0.011161728 0.2380937
0.07451852 0.1336894 -0.03078623 0.076391 0.0066598454 -0.053152956 0.043346994 -0.06257789
-0.20649229 0.02247724 0.2933943 0.060990732 -0.014520943 0.12564383 0.09623087 -0.060978796
-0.010178412 0.0038712274 -0.018589007 -0.10580124 -0.062308975 0.050201353 -0.16455096 0.08699402
0.100736685 -0.009469701 -0.21394981 0.1333846 0.095141046 0.13302067 0.0018309846 -0.22338867
0.10170768 0.068580836 -0.032856155 -0.055910073 0.041509427 -0.029966597 -0.014747148 -0.014428586
0.00706042 0.03552055 0.04807379 -0.00051033136 0.05992868 0.0037691444 0.008209821 -0.05935724
-0.00034265843 0.02140774 -0.13051863 0.181086 -0.15427852 0.16440539 0.08044415 -0.08901386
0.06259102 -0.050485067 0.025784815 -0.12935783 0.06026931 0.029538505 -0.042208258 -0.1623496
-0.057927728 0.056096703 -0.14060669 -0.06481921 0.089814976 0.036853503 0.102250904 -0.09191644
-0.083010375 -0.016728405 -0.11908858 0.07167022 -0.01834609 0.11049122 -0.25142258 -0.043506112
-0.061226707 0.003977108 -0.07302821 0.107109144 -0.12291982 -0.056995176 0.043782845 0.18482253
-0.083416864 0.07188198 -0.0142903505 0.039921947 0.14056715 0.10658715 -0.015997639 -0.030960666
-0.08150725 0.09393771 0.126583 0.13528565 0.062490832 0.12927184 0.03424299 0.1077577
0.07928785 0.026321467 0.024380697 -0.112021886 -0.06969104 0.07632063 -0.30785745 0.1037038
-0.1008678 -0.12005355 -0.032798074 0.10923647 -0.043181095 -0.018730106 0.073693514 0.055830542
0.05506771 -0.12152457 -0.041457728 -0.060121424 -0.03234872 0.07379009 -0.033853073 0.0017182209
0.13867807 0.024993228 -0.025449352 0.14350022 -0.048534594 0.15203442 -0.05171869 0.051394813
0.012965202 0.0071657235 0.12849544 -0.14399211 0.025023999 0.14740393 -0.0068131117 0.0003438235
00000000: 9625 993c 3365 863d e2af a83c 3845 063e
00000010: 9e78 3f3d 8d55 c43d dbc0 183e e144 4bbd
00000020: 7373 503c c0ee bd3c 236d 7ebd 6353 e9bd
00000030: e74d 053e a367 05be 1aad 543d 96e1 ba3d
00000040: e448 4c3e c16b bbbe d369 7cbe 0b10 b23d
00000050: df7c e03d 1b8e f23c c5db dd3d c5cd 443e
00000060: 294f 5abd 00f2 d63d 7f3c e43d 392d 04bd
00000070: 5e24 853c 5abb b93e 8689 d53d a717 23be
00000080: 3a78 8cbc 83d2 7c3d d0b4 c6bd 46bd b7bc
00000090: d4e2 6dbd efd3 4bbd fab4 7cbd 69ed cf3d
000000a0: 6be4 91be 9033 54bd 24f9 203d cad1 c53d
000000b0: adb9 1c3e adb2 9d3e e645 67bd 4f9a f9bc
000000c0: c82f 4c3e 611d 4c3d 3f03 933e 4251 6d3e
000000d0: a05b 8bbd 6074 953c 2c51 3c3d 45df ddbc
000000e0: 6b8f 3f3e 76ec 5c3e 595b 703d 9c83 a03d
000000f0: a306 013d 16d3 93bd ac39 873d c0e6 e3be
00000100: 8041 11bd 0651 f73d 2019 33be abc3 cfbd
00000110: 55bb 463d a5de 65be 99a2 18bd d6ce 123e
00000120: 67a2 8bbd 0688 583d 72e7 7cbd ad87 283e
00000130: e78b e5bd a942 f93d 81fe 5a3e 7659 3fbe
00000140: e889 343e 1dc7 d0bc 0b33 123e 04a0 f83b
00000150: 273b 0c3e 2584 ffbd dd46 a63d be17 0dbe
00000160: 1b8b d33d 2f2c 10be bde7 47be d2b5 db3d
00000170: 859a e3bd fc97 823b 9333 cabd 41f4 d03d
00000180: c514 b83d c0f7 373e 4048 1c3e 53c7 8d3b
00000190: e80d 083e 368b 8dbd f8dd f2bc 85c5 f73b
000001a0: 0f06 11bc 8e27 0abe 7034 10bd 612c 1b3e
000001b0: 02d7 9c3d 1b67 723d aedf 363c d6ce 733e
000001c0: 2a9d 983d e0e5 083e 6733 fcbc e272 9c3d
000001d0: d53a da3b eab6 59bd 9e8c 313d d628 80bd
000001e0: b772 53be 3022 b83c c737 963e 6bd1 793d
000001f0: 40e9 6dbc c7a8 003e b114 c53d e7c4 79bd
00000200: 5bc3 26bc 6bb4 7d3b f947 98bc 52ae d8bd
00000210: b237 7fbd ef9f 4d3d 0c80 28be ec29 b23d
00000220: 094f ce3d ce26 1bbc a915 5bbe f995 083e
00000230: 4fd9 c23d 9236 083e a6fd ef3a 00c0 64be
00000240: 1e4c d03d 1c74 8c3d 2d94 06bd f601 65bd
00000250: ca05 2a3d 827c f5bc 069e 71bc e065 6cbc
00000260: 185b e73b ff7d 113d 06e9 443d c2c7 05ba
00000270: c777 753d c003 773b 7c82 063c 9420 73bd
00000280: d6a6 b3b9 495f af3c ada6 05be 9c6e 393e
00000290: 30fb 1dbe e359 283e e7bf a43d e64c b6bd
000002a0: b82f 803d 6ec9 4ebd ad3a d33c 6176 04be
000002b0: f4dc 763d bcfa f13c 91e2 2cbd f93e 26be
000002c0: a045 6dbd a8c5 653d 33fb 0fbe efbf 84bd
000002d0: eaf0 b73d b3f3 163d ec68 d13d b03e bcbd
000002e0: 5801 aabd 020a 89bc b7e4 f3bd d6c7 923d
000002f0: 8a4a 96bc 3949 e23d 76ba 80be 7733 32bd
00000300: dbc8 7abd 6652 823b d08f 95bd 0a5c db3d
00000310: 63bd fbbd c673 69bd a455 333d 1e42 3d3e
00000320: 76d6 aabd dc36 933d 1322 6abc 3285 233d
00000330: d6f0 0f3e 5d4a da3d 7b0d 83bc 39a1 fdbc
00000340: 46ed a6bd 6a62 c03d f99e 013e 5288 0a3e
00000350: 63f6 7f3d d65f 043e 6142 0c3d 12b0 dc3d
00000360: ab61 a23d 1ea0 d73c 07ba c73c bb6b e5bd
00000370: 2dba 8ebd fe4d 9c3d 7e9f 9dbe a862 d43d
00000380: c793 cebd a3de f5bd 4657 06bd 5fb7 df3d
00000390: a9de 30bd e16f 99bc a0ec 963d 91ae 643d
000003a0: ae8e 613d e0e1 f8bd 94cf 29bd e241 76bd
000003b0: 1780 04bd 421f 973d 85a9 0abd ed35 e13a
000003c0: a001 0e3e 99be cc3c 297b d0bc b9f1 123e
000003d0: 36cc 46bd e9ae 1b3e fad6 53bd 5e83 523d
000003e0: 006c 543c 72ce ea3b 4f94 033e ab72 13be
000003f0: 21ff cc3c 0ef1 163e 8640 dfbb 3643 b439

pointer.fc2.bias f4 [128]
0.10501912 0.13126205 0.048781984 0.009545287 -0.019486137 -0.004579695 -0.0676427 0.061705146
-0.046188794 -0.0048136166 -0.10027371 0.05015616 0.08500698 -0.098222725 0.036818895 -0.013206694
-0.015522602 -0.00793644 0.052009612 -0.0027269134 0.108022854 -0.07257689 0.11376652 -0.021999316
0.049866334 0.09161705 0.06428752 -0.0065035042 0.020489642 -0.0014850103 0.13134073 0.02089862
0.0358848 -0.016138125 0.014708215 0.07316387 0.10731732 0.03781202 0.043666877 0.06111011
0.03882093 -0.09958114 -0.00923367 0.025677936 -0.042780425 -0.039370805 0.03905102 -0.029180432
0.123053744 0.03176794 0.03216459 0.046139803 0.025013419 0.052640118 0.045779157 0.032027278
0.1060392 -0.037668694 -0.092137724 0.035253976 -0.003457208 0.04571685 -0.006893803 0.027882187
0.107098654 -0.07100481 0.06472707 0.07790944 -0.06500399 -0.01464095 0.060658615 0.09044832
0.02004714 -0.054872435 0.008355829 0.004386496 0.07833259 0.019493967 0.0021138827 0.16469635
0.026843194 0.092554756 0.029356046 -0.001423222 -0.003288882 0.015315604 0.1276171 -0.04639203
0.03802836 0.028816719 -0.02262841 0.05283941 0.12819132 0.025559112 -0.011098583 0.019322924
-0.047089066 -0.044735476 -0.06817777 0.0817557 0.10378668 -0.057144646 0.087404385 0.09888336
-0.0060760267 -0.019854307 -0.010094374 0.020654095 0.0735801 -0.013915969 0.019930743 -0.005794199
-0.056248922 -0.055250075 0.06058769 0.071714714 -0.05112874 0.039220456 0.065425515 -0.053534936
0.024681345 0.010807199 -0.007877171 -0.052025914 0.108613215 0.10531066 0.10153626 0.053928375
00000000: 4414 d73d 8f69 063e 9ecf 473d d663 1c3c
00000010: 64a1 9fbc 4411 96bb 4288 8abd 89be 7c3d
00000020: 7630 3dbd 8bbb 9dbb 4e5c cdbd 8c70 4d3d
00000030: 2418 ae3d ff28 c9bd 69cf 163d e460 58bc
00000040: 8352 7ebc d807 02bc 0808 553d 04b6 32bb
00000050: 163b dd3d 31a3 94bd 6cfe e83d e937 b4bc
00000060: a440 4c3d b8a1 bb3d 2da9 833d 591b d5bb
00000070: e5d9 a73c ada4 c2ba 2f7e 063e 9533 ab3c
00000080: f1fb 123d 1a34 84bc bafa 703c f0d6 953d
00000090: 2fc9 db3d c7e0 1a3d 0adc 323d 984e 7a3d
000000a0: b202 1f3d 32f1 cbbd d248 17bc 895a d23c
000000b0: 873a 2fbd 4843 21bd f6f3 1f3d cd0b efbc
000000c0: 9a03 fc3d 191f 023d 04bf 033d 17fd 3c3d
000000d0: f1e8 cc3c 2a9d 573d ed82 3b3d 092f 033d
000000e0: 152b d93d 7d4a 1abd b4b2 bcbd 7966 103d
000000f0: 5392 62bb 9741 3b3d 69e5 e1bb 2f69 e43c
00000100: 8a56 db3d f86a 91bd a08f 843d fc8e 9f3d
00000110: d020 85bd 98e0 6fbc 2b75 783d f83c b93d
00000120: e639 a43c ebc1 60bd e3e6 083c 98bc 8f3b
00000130: d66c a03d d0b1 9f3c 1189 0a3b 29a6 283e
00000140: 42e6 db3c 598d bd3d 177c f03c 688b baba
00000150: 498a 57bb 4dee 7a3c 0fae 023e 9205 3ebd
00000160: a0c3 1b3d 0a11 ec3c 375f b9bc 236e 583d
00000170: 9644 033e 5861 d13c d5d6 35bc 1c4b 9e3c
00000180: 77e0 40bd 8c3c 37bd c9a0 8bbd 886f a73d
00000190: 1c8e d43d 8110 6abd 1201 b33d 5c83 ca3d
000001a0: 6819 c7bb 80a5 a2bc e062 25bc c732 a93c
000001b0: 2ab1 963d ceff 63bc cc45 a33c 44dd bdbb
000001c0: 4565 66bd e74d 62bd cc2a 783d 2adf 923d
000001d0: 5f6c 51bd a1a5 203d d0fd 853d 7347 5bbd
000001e0: 8830 ca3c ae10 313c 400f 01bc 2019 55bd
000001f0: 9b70 de3d 1ead d73d 3ef2 cf3d 00e4 5c3d
