trained_models/cvrp/XE_10/model_incumbent_vrpRl13_C_XE_10_T_0.1_54519.pt (torch_old, 469732 bytes, 15 tensors)

all_embed.embed.weight f4 [128, 4]
00000000: d2a7 4b3f 1d0e 3dbe 07e7 423e afe8 463e
00000010: 055f 32bf 8a6c 383d ce41 38bd 412d a83e
00000020: bcec 573e 40b7 163e 4f09 cabd 7064 08bc
00000030: a57c c13e b84d 413f 0ddf 753e 1572 1d3e
00000040: 5e4d 133f 791b 463f 4dc5 61bd 629a ce3d
00000050: cc3f 393f daa5 a7bd 4ad1 20be c66e 7f3d
00000060: 2023 013e 2d7a 3ebe a4ea 8f3d 3222 94bd
00000070: 24a5 993d 384d 833d 3957 10bf 49dc 10bf
00000080: 0b4c cabe 05cb aa3d ebbf b23e d346 2b3e
00000090: a189 01bf f04d 8d3e 327c b03d 47e8 33bc
000000a0: 8ae3 e3be 77e4 143d bfc6 c53e 5a8d 623e
000000b0: 155d 68bb 955a eabe 20e2 303d 9b56 423e
000000c0: 3d0a 1c3d 6387 5f3f 3df8 6d3e b7c1 80bd
000000d0: 4f90 963f d138 463e d5ec 953e 6d3e b03e
000000e0: 99d5 cf3e 1c6f 073f 0fc6 a43e c073 6b3e
000000f0: 4828 ef3d 4c84 9f3d d8ab 823d b93e 29be
00000100: 9807 183d 4e31 04be 00e2 16bb d042 563d
00000110: a55a a4be b9f8 6ebe 7a1c 4e3e d6b0 0f3d
00000120: 9a45 573f 7a3b 803d 535a c83b f259 213e
00000130: 389a 203f 12e4 0a3f 8bc7 623e b141 b33d
00000140: cbb2 363f af0d eebe 8e10 c73d 47e1 f9bd
00000150: a90a be3c 6c56 f3be 40c8 703e 43dc 1c3e
00000160: e4ab aa3d b78d 1fbf 8da3 323e 44c0 b43e
00000170: 9687 aabe c9fb 493f 55fe 3b3e e1c4 423e
00000180: 804f bfbe 3756 0d3f 82e0 fb3d 2547 fbbd
00000190: 534c 433f f508 b5bc 2554 26be 2fa0 593e
000001a0: 8828 75bd b80c a93d 8a16 01be c8cb ad3d
000001b0: 513b 323f 1239 b0be 221d 303d 77d8 ba3d
000001c0: 6929 85bd e527 36be 7f5b a1be 4049 25bf
000001d0: 215e f8be d2d9 213f bd1d 4dbd be66 f33d
000001e0: 9299 063f f1d7 3e3f ee4a 073e f041 123d
000001f0: f925 88be 7d9e 203f 38ef e63d 1b4d 5dbd
00000200: bc97 b73d e8a5 c93d 080b 18be 7cf2 83bd
00000210: d111 0cbf 5da8 563e 499b 10bc 8e95 d6bc
00000220: 783f 38be 5c78 aabd a8e8 b33d 9650 9abd
00000230: 8884 eabc 4c78 903d 7051 7d3d b08b 9ebd
00000240: 735f af3e 6c91 7c3f 2a9a 5e3e e275 943e
00000250: b563 0a3f 3edc bdbe d8d1 b1bd 19b7 d3bd
00000260: 0488 05bf 15e9 2abc 8d88 633c 0c20 ae3c
00000270: faf6 dfbe 70bd 093e 19c6 0f3e a0d9 903c
00000280: c029 55be f381 203f 0b8c 35be e70a 34bd
00000290: e186 b4be 2f1e cdbb 5bbc 2fbd 0cb9 fbbd
000002a0: 5617 a9be e1fd 73be 276e 16be ea04 11bd
000002b0: 08ad 1bbf ec15 ba3d e2e1 4e3e cb65 9d3e
000002c0: bc3b d63d 5a10 b0bd 22a7 28bf 8dda 2abf
000002d0: c1a5 ffbd 3b5e 90be 35cd 19bc 4e4d 363e
000002e0: 438d 8dbe 1063 503f d128 a43e 5885 843e
000002f0: 7a49 5d3f f0d5 c73d 92a7 46be f11f 013e
00000300: 7daf 033f 4475 733f d0e0 4d3e f571 a93e
00000310: cf76 debe 78b2 1a3f ede2 743e 356d 623e
00000320: d02d 17be 40d4 983c fadc ecbd 241f 59bd
00000330: 6ace 08be 200f 17be a255 c6bd d802 49be
00000340: 4800 613f 6abf 883c 4832 12be 741a 36bd
00000350: 8346 383e 0538 683f dd34 b5bc 0e8a 453e
00000360: c073 803c 65f2 3ebe 9438 fe3d 70f0 89bd
00000370: 5df2 0dbe 6f3a d1be ca28 15be cc23 003e
00000380: 2f71 1ebe 40cf 50be ecf6 3c3e a18e 2cbe
00000390: 1202 063f 80a6 3e3f 14e4 343e 7a69 a5bd
000003a0: 23df aabe d98e c9bd 6836 a33e 4763 543e
000003b0: 100f b5bc b0e4 93bd 1ae8 183e 522a 1abe
000003c0: 448c 27be 50a1 42be 1ebc adbe ec84 24bf
000003d0: cb85 a8be 8263 b1be 8251 d93d 9b90 333e
000003e0: ff1e d9be ce1a b93e dd9e 573e f6ce af3d
000003f0: c40d 2d3e b027 ad3c a3fd cabd 5c58 053d
0.7955295 -0.18462415 0.19033442 0.19424699 -0.6967624 0.045025386 -0.04498463 0.32847026
0.21086401 0.14718342 -0.09865057 -0.008324727 0.3779041 0.75509214 0.24010868 0.1537555
0.5753993 0.7738567 -0.0551198 0.1008804 0.7236297 -0.081859306 -0.15704837 0.0623615
0.12611055 -0.18601294 0.07027176 -0.07233085 0.07502201 0.06411213 -0.5638309 -0.5658613
-0.3951114 0.08339504 0.34912047 0.16726236 -0.5060063 0.27598524 0.086174384 -0.010980672
-0.44509536 0.036350694 0.38628194 0.22124234 -0.0035455872 -0.45772234 0.0431844 0.1897835
0.0380957 0.8731596 0.23239227 -0.06286948 1.176279 0.19357611 0.2928225 0.34422627
0.4059265 0.52903914 0.32182357 0.22993374 0.11677605 0.077889055 0.06380433 -0.16527833
0.037116617 -0.12909433 -0.002302289 0.05230981 -0.32100406 -0.23337068 0.2012805 0.035080753
0.8409058 0.06261344 0.006114283 0.15756968 0.6273532 0.5425426 0.22146432 0.08752764
0.71366566 -0.46494815 0.097199544 -0.12201171 0.023198443 -0.47526872 0.2351389 0.15318398
0.08333567 -0.62325615 0.17445202 0.35302937 -0.3330657 0.7889982 0.18358739 0.19020416
-0.3736534 0.5520968 0.12298681 -0.12269429 0.76288337 -0.022098998 -0.16243036 0.21252511
-0.059853107 0.08254379 -0.12606254 0.08486134 0.6962176 -0.3441854 0.042996533 0.09123319
-0.06502039 -0.17788656 -0.31515118 -0.64564896 -0.48509315 0.6322299 -0.05007719 0.11884831
0.5257808 0.7454825 0.13212177 0.035707414 -0.2659147 0.62741834 0.11276096 -0.05402861
0.08964488 0.09846097 -0.14847958 -0.064427346 -0.54714686 0.20962663 -0.008826085 -0.02619436
-0.17992961 -0.08323738 0.0878461 -0.07534902 -0.028627649 0.07054195 0.061845243 -0.07741487
0.3425251 0.98659396 0.21738496 0.28996187 0.5405839 -0.37082094 -0.08682603 -0.103376575
-0.5216067 -0.010431548 0.013887537 0.021255516 -0.43743116 0.13451171 0.14040412 0.017681897
-0.20816708 0.62698287 -0.17729203 -0.04395571 -0.35259154 -0.0062597017 -0.04290424 -0.12291154
-0.33025616 -0.23827316 -0.14690457 -0.035405077 -0.608109 0.090862125 0.20203355 0.30741724
0.10460612 -0.08596869 -0.65880024 -0.6673973 -0.12482787 -0.28196892 -0.009387304 0.17802927
-0.27646837 0.8140116 0.3206239 0.25882983 0.8644024 0.09757602 -0.1939986 0.12609841
0.5143965 0.9510081 0.2010529 0.33094755 -0.4345002 0.6042857 0.2391469 0.22111972
-0.1476357 0.018655896 -0.115655854 -0.053008214 -0.1335999 -0.14751863 -0.09684302 -0.19629991
0.87891054 0.016692836 -0.14276993 -0.04445882 0.17995648 0.9071048 -0.022119934 0.19290945
0.015680194 -0.18647154 0.12413135 -0.06735313 -0.13861986 -0.40864894 -0.14566341 0.12513655
-0.15472864 -0.2039156 0.18453568 -0.16851284 0.5234691 0.7447281 0.1766513 -0.08076759
-0.33373365 -0.09841699 0.31877446 0.20740996 -0.022101909 -0.07221353 0.1493229 -0.15055206
-0.16362101 -0.19006848 -0.33932585 -0.6426532 -0.32914576 -0.3464623 0.106112495 0.17535631
-0.4240646 0.36153263 0.21056695 0.085843965 0.16899782 0.021137089 -0.099116586 0.03255497

all_embed.embed.bias f4 [128]
00000000: 37ab 05be d937 b33e 422e c1be 1a40 a33e
00000010: 03bb baba 9790 423d b8ad 0fbe 648a a63e
00000020: ec68 fd3d fed9 283f 5961 293d 1d2a 823e
00000030: 9ae5 a3bc 5a22 7cbe e368 b3be 34b3 8cbe
00000040: 3ce3 b1be bb94 dd3e 7ffb c03e e866 bd3e
00000050: db51 023f 1232 623e 9c1c 1a3e b9c0 e33b
00000060: 8fce d33e 0c3b a3bd 2062 afbe 972c 1b3e
00000070: 0a2f 153f 82dc 093f 9f69 c23e 0338 833e
00000080: 44ad 82be 9abe 003f bc12 d9be a82b c8bd
00000090: cf85 0c3f 91ba ef3e 3f63 f93e ca10 a73e
000000a0: 9400 d33e 221f fa3e c490 203f 0ec3 183e
000000b0: ecf7 fa3e 685a df3e 748c 26be 18ff 46bd
000000c0: 6825 d73e bced 993d 187c 9dbe c0f6 aebe
000000d0: cd36 013e 3205 55be c698 c3be cf38 d73e
000000e0: 18e0 cbbd 8483 4d3e a14d 533e fe2b 87be
000000f0: fe4c 053f aabd d73e 8dca 1e3e 08cc d5be
00000100: 8cf5 d5be 5d52 173f 7024 3e3e feda a0be
00000110: 7897 14be d294 8bbe 9978 b33e ee07 e73b
00000120: 4cbd 79be b068 9b3e c6d3 8b3e b5d1 c43e
00000130: 9efd acbe 1287 5d3e 54be 233f e121 1a3f
00000140: 84d5 2a3d df50 db3e c0d2 6bbd 00f2 ebbe
00000150: e19a 403e e0c7 d53e 9cad b43e df0d f83e
00000160: 38fe 063f 7baa c5bd d460 f7bc c3ef 233f
00000170: 55f7 fcbd 5a70 efbe b0d3 323e ad2d 0d3f
00000180: ef3a f63e 705e 77bd 25e9 5c3e c182 d53e
00000190: 5dfb 0f3f e7af 59be b48e 36be 5421 7fbe
000001a0: a6d0 053f 0e01 bf3e ba29 9bbe 39e7 0e3d
000001b0: 7ae3 113f 30fa 873e 34fa 3cbe 2e5a 823e
000001c0: c4c6 b6bd ef64 36be a37d b53e 6a44 333d
000001d0: 74dc 2fbe 2aa8 3f3e 9346 853e b503 143f
000001e0: c8de 55be 54ee 9bbe c088 513d f861 fdbe
000001f0: 76ea b73d b786 28be c51e 063f c09c eb3d
-0.13053595 0.35003546 -0.37730604 0.31884843 -0.0014246408 0.047501173 -0.14031112 0.3252746
0.12373528 0.6595763 0.041352604 0.25422755 -0.020006943 -0.24622479 -0.3504096 -0.2748047
-0.3474368 0.43277535 0.37691876 0.36992574 0.5090615 0.22089413 0.15049976 0.0069504646
0.4136853 -0.07970247 -0.3425455 0.15153728 0.582749 0.53852093 0.37971207 0.2562867
-0.25522816 0.50290835 -0.42397106 -0.09773952 0.54891676 0.46822026 0.4870853 0.32629997
0.4121138 0.48851877 0.62720895 0.14918157 0.49017274 0.43623662 -0.16264516 -0.04858312
0.42020726 0.07516047 -0.3075874 -0.3417263 0.12618561 -0.20802763 -0.38202494 0.4203553
-0.09954852 0.200697 0.20635082 -0.2640075 0.52070606 0.4213689 0.15506954 -0.41757226
-0.417889 0.5911005 0.18568587 -0.31417078 -0.14510906 -0.27261978 0.35052946 0.007050506
-0.24388617 0.30353308 0.27310008 0.38441244 -0.33787245 0.21633556 0.6396229 0.60207945
0.04170753 0.42835137 -0.057574034 -0.4608307 0.18809082 0.41754055 0.35288703 0.48448083
0.5273166 -0.09651657 -0.030197538 0.6403772 -0.12351862 -0.46765405 0.17463565 0.5514782
0.48091838 -0.060392797 0.21573313 0.4170132 0.56242925 -0.21258508 -0.17827874 -0.24915057
0.522715 0.37305492 -0.30305272 0.03488848 0.56987727 0.26558065 -0.1845482 0.25459427
-0.0892463 -0.1781194 0.35447416 0.043766417 -0.1717394 0.18716493 0.26030406 0.57818156
-0.20885766 -0.30455267 0.051155806 -0.49488807 0.08980267 -0.1645764 0.523907 0.11504507

all_embed.embed_2.weight f4 [128, 128]
00000000: 816e a6be 89eb ef3b ae44 8b3d fb68 c6bd
00000010: a3ba c6bd 5a36 e9be 805b fdbc b287 adbc
00000020: c99b bd3d 2993 333d d8db b03e 47a4 c1be
00000030: f0d5 813e f171 b7be 84c3 753c e096 68bc
00000040: d9f8 173e cf8e 89be 2095 89bd 90f4 9a3c
00000050: 38bf 05bf 55fc c3be 2b71 e2bd 1eff 983e
00000060: ebe1 bfbc 0851 e6bd 805c e43a b0ac cdbe
00000070: e77d fc3c c15a d1bc f9e6 7abd 22f8 523e
00000080: b734 123e 00d7 adbc de24 d6bd b035 373c
00000090: bb65 043d 435e ecbe 34f2 dabd e994 7ebd
000000a0: d8be d73d 4ee2 b6bd 4658 21be e7f1 3c3e
000000b0: 5c8b 42bd ab73 7cbe a7b1 df3d 1eeb 6fbe
000000c0: e016 11be 14dc 353e 482d 1bbe 989d 46bd
000000d0: ffc8 e6be 6f40 273e 9c2b 7bbd 90d4 aebe
000000e0: f655 6cbd 7d18 0bbe 5c7c 833d 6067 853b
000000f0: 5aa0 48bd 1174 01be 3b79 e83d 488c ad3d
00000100: 78a5 38bd 027d 9ebe 4466 a0be b1f5 07be
00000110: d848 81bc 8848 b2bc 5eeb 7ebd d491 443e
00000120: e272 f43d 43df 46bd adae 18be 7cf9 053e
00000130: 7079 31bc 6cdd 8ebe 736e 8abe 20d6 24be
00000140: 8b53 d9be 29a1 c73d 2e57 30bd f9f9 0c3e
00000150: 8bf1 0cbe 1701 973c 6ead 233e d331 453d
00000160: 371c 32be 8557 ca3d 865a 7abe 5866 c7bd
00000170: 85fa 7ebc d0de 723d 94b6 d0bd 757d 96be
00000180: 63a7 26be b84f bfbe e0f9 27be eaf0 3cbe
00000190: 9c17 013e 5ee2 e23d 40df e3bc 5eb6 19bd
000001a0: 5aaf 76be 3ef4 e13d cfb5 ed3c 4785 2abb
000001b0: 144e c53b d215 debe a8fd 663d eb45 45be
000001c0: 5b98 153e 3020 7c3e bbc8 c4bd 084b 483d
000001d0: a0f6 9abd 67a5 ef3d 5db4 49bd 584e f3be
000001e0: 18a8 9e3c ef0d 00bc 0452 5d3e 6cc0 783d
000001f0: 65b2 9a3e aebc 64be 9656 04be 24e7 d4be
00000200: 3aca 183e 78a5 583c c46f 09be 4f41 7cbd
00000210: 263e fdbc 15ba c73d 7571 b8bd 18de 813e
00000220: ab94 22be 1578 1cbe b4f0 67be 49f9 4ebe
00000230: 0686 523e 886e 39bc 55d2 a5bd efb3 0a3e
00000240: 65c8 0c3e 27fc 86bc 968b 243e 7838 77bd
00000250: c8f8 6b3d bc13 32be 7846 82be 44ab 703d
00000260: 213f bbbd a522 5e3d a0d5 c23b 229c 9ebd
00000270: b2b3 c93e 2a6b bf3b c1f9 0f3e 4de7 9a3d
00000280: c0de d1bc 6c30 07be 52b9 e93d f0cf acbd
00000290: e6fa babd d13f 7b3d 8cd5 45be f073 303d
000002a0: e907 023e da8c e1bd f03c 92bd 7c15 7ebd
000002b0: 6af1 f53e 8a0c 31be 7f16 b1bc b322 ce3d
000002c0: ccc3 8dbd 3414 603b a6f1 ce3d d196 acbd
000002d0: 5271 d83d 0c98 803e 93b3 89bd d1f0 493c
000002e0: ffdc 89bd b3a1 c73d 903b c33c db2f 12be
000002f0: 7141 d63e 02b0 a5be e562 60be 60ef 19bc
00000300: 80fb 763d a31f 38bc f1ba b9bd 60b3 d9bd
00000310: 19fc c8bd 21df 0e3e 6996 673e 6b73 473e
00000320: 0e84 843d 16b9 d83d 20e1 f73e ab32 1b3e
00000330: 467f c93d 3abb 293d 9d5e 193b 29e7 3bbc
00000340: b5b0 16be ed83 af3d e0ae 433c f473 9d3d
00000350: 78bc 153e a77c 5cbb 5df3 3c3e dadc 03be
00000360: b37a bb3d 1496 863e ee60 0b3d dd81 a93e
00000370: f5b3 823c 6802 febd 516c ddbd 8f55 5bbe
00000380: 52b5 89be d142 993d cca6 37be 0ee3 86be
00000390: af62 2d3d 8224 4fbd 15fa cfbd 6013 b9bc
000003a0: ea4f 933e f40f 00be 8ba0 9bbd ce38 84bd
000003b0: 79d4 8abd b0d9 f43d 62e6 993d e0ab 8c3d
000003c0: fc83 a4bd b0f1 4abe 3099 88be 5673 973c
000003d0: 40d8 92bc b0c0 d53d 8dbf f73e 6e1d 00be
000003e0: 5eba 10be f6c6 16be dbc0 da3d 4ca9 a2bd
000003f0: 0819 abbd faca 3abc 20fc e93e 89db a9bd
-0.32506183 0.007321779 0.06800209 -0.09687992 -0.09703567 -0.4554928 -0.03092742 -0.021182869
0.09258229 0.043841515 0.34542727 -0.37820646 0.25358534 -0.35829118 0.015000228 -0.014196128
0.14841022 -0.26866767 -0.067178965 0.018915445 -0.522449 -0.38278452 -0.11056741 0.2988214
-0.023423156 -0.11245924 0.0017422587 -0.40170813 0.030821754 -0.02555597 -0.06125543 0.20602468
0.14277922 -0.021220684 -0.104562506 0.011182234 0.03232358 -0.46165666 -0.10690728 -0.06215373
0.105344474 -0.08929883 -0.1575633 0.18451653 -0.047496185 -0.24653499 0.10922556 -0.23429534
-0.14168882 0.17759734 -0.15153992 -0.048490137 -0.45075223 0.16333173 -0.061320886 -0.34146547
-0.057699166 -0.1358356 0.06420204 0.004071161 -0.04898105 -0.12641932 0.11351248 0.08474022
-0.04507968 -0.30954748 -0.31328022 -0.13277318 -0.015781805 -0.021763101 -0.062236182 0.19196254
0.11935975 -0.048552763 -0.14910384 0.13083452 -0.010832176 -0.27903306 -0.2703739 -0.16097307
-0.4244655 0.09747536 -0.04305189 0.13767232 -0.13764016 0.018433137 0.15984127 0.04814322
-0.17393576 0.09879974 -0.24448594 -0.097363174 -0.015562658 0.05929452 -0.10191074 -0.2939259
-0.1627479 -0.37365508 -0.16403913 -0.18451276 0.12606663 0.11078332 -0.027816415 -0.037527435
-0.24090329 0.110329136 0.029017357 -0.002601938 0.0060212705 -0.43376023 0.05639425 -0.19264953
0.146089 0.24621654 -0.09608599 0.04889968 -0.07566571 0.1170147 -0.049244273 -0.4752071
0.019367263 -0.007815822 0.21613318 0.060730383 0.3021423 -0.223376 -0.12923655 -0.41582596
0.14920893 0.013223045 -0.13421541 -0.06158572 -0.030913424 0.09752289 -0.09006015 0.25364757
-0.15877025 -0.15280183 -0.22650415 -0.20212282 0.20558938 -0.011317857 -0.08096758 0.13545202
0.1374832 -0.016477657 0.16068873 -0.060356587 0.057610303 -0.1739034 -0.25444388 0.05875708
-0.091429 0.05423226 0.0059458762 -0.07744624 0.3939491 0.0058416324 0.14060117 0.075636484
-0.02561891 -0.13202065 0.114123 -0.084380984 -0.09129886 0.061340157 -0.19319743 0.043079317
0.1269833 -0.110131934 -0.07140529 -0.062032208 0.48035747 -0.1728994 -0.021617172 0.10065212
-0.06922111 0.003419173 0.101046845 -0.084272034 0.10568489 0.25116003 -0.06723704 0.0123254815
-0.06731605 0.097476386 0.023832113 -0.14276068 0.41846803 -0.32360846 -0.21912725 -0.00939545
0.060298443 -0.0112380115 -0.09068859 -0.10629916 -0.09813709 0.13952304 0.2261597 0.19477622
0.064705 0.10582177 0.48413944 0.15156047 0.098387286 0.04143832 0.0023402341 -0.011468687
-0.14715846 0.08570085 0.011943549 0.07688132 0.14622676 -0.0033643635 0.1845221 -0.12877217
0.091542624 0.26286376 0.034027986 0.3310689 0.01595495 -0.12402803 -0.10811675 -0.21419357
-0.2689615 0.07483447 -0.17934722 -0.26345104 0.04233044 -0.050571926 -0.10155121 -0.022592247
0.28771907 -0.12506086 -0.075989805 -0.06456147 -0.06778807 0.11955583 0.07514645 0.0686872
-0.080329865 -0.19818759 -0.26679373 0.018487614 -0.017925382 0.10437143 0.4838833 -0.12511227
-0.14133593 -0.14724335 0.106813155 -0.07942447 -0.08354384 -0.011400932 0.4570017 -0.08293826

all_embed.embed_2.bias f4 [128]
00000000: d840 12be a54b 9cbd 3e58 1fbe b2cd dfbd
00000010: c68e ee3d 76da 2d3d fb22 0e3d 10cc 09be
00000020: 676d 9fbb b662 53be 5deb 8ebd 7b08 0dbe
00000030: cc81 263d 1cbe 2cbe 6894 c83d 5dd0 02be
00000040: 668f ed3c 15e9 193d 4c15 56be 8ac4 75bd
00000050: f8b9 3dbe d4b9 ba3d 1d58 843d e5bd 103c
00000060: c1a7 acbd 84b6 efbd 0aba 11bd 3bcf 1fbd
00000070: 53a3 b6bd 07e7 82bd f878 24be c49b 6ebd
00000080: 2799 63bd d0ee 97bc 479b b1bd 4507 d7bb
00000090: 8811 3e3e a92d 33be 6668 f33d bc54 7bbe
000000a0: b3a8 febc 5c2b 683d 673a 26be 0bda 3abe
000000b0: 120a f1bd f4c0 32be 5119 99bd 1c16 13be
000000c0: ae89 67be 6bad 77bd 726d 17be 37a5 81bc
000000d0: cc7d b1bd 6ab4 123e ea0f 49bd ebed a63c
000000e0: 3aa8 bf3d 8c2f 3dbe 543c bdbd f483 41be
000000f0: f9d3 e7bd fdef 2cbe 1e03 f0bd 346e 98be
00000100: b98b babc eaff 523d a814 fcbd 25eb 0dbe
00000110: 9c89 d9bd 200c c03d 5468 88bd a2d2 023d
00000120: 67e9 d3bd 7cbc 95be b52a fbbd 1437 963c
00000130: cbab e0bc 3e5a 46be f612 91bd b4b9 91bc
00000140: 0388 86be 06fb 78bd 5eb3 dbbd a19c 13be
00000150: 4777 1ebe 14f5 25bd 6ce5 d0bd f280 2c3e
00000160: 582d 16be b0a2 9ebc 4b51 09be d720 2cbe
00000170: 7d8b 50be 89d5 2a3e 3004 90bd 7725 05be
00000180: 1144 babd f439 93bd fcfb 3e3d a976 9fbd
00000190: 7280 5dbd df10 e33c 168b 5e3d d074 e5bd
000001a0: 0569 9abd 3ec4 a23d fdd4 09be aaac 84bd
000001b0: 5fb1 8cbb fad5 0cbe d051 7ebe 547d 63bd
000001c0: 0ed9 4abe e849 0dbe 8f72 c4bd 7534 0ebe
000001d0: bff2 923d 19c7 85bd d9d3 3cbe f5d0 133c
000001e0: 7d8d 57be ce9b 7a3c fbe9 a23d bb3d 863d
000001f0: 748f 203e c793 6bbd 0cd4 6e3d 6089 80be
-0.14282548 -0.076316155 -0.15561005 -0.10927905 0.116483256 0.04244467 0.03470133 -0.1345675
-0.0048653367 -0.20643124 -0.06978486 -0.13772766 0.040651128 -0.16869396 0.09793931 -0.12774797
0.028999042 0.0375758 -0.20906562 -0.060001887 -0.18527973 0.09117475 0.06462119 0.008834337
-0.08430434 -0.11704734 -0.03557781 -0.03901599 -0.089178704 -0.06391721 -0.16061771 -0.05825402
-0.05556598 -0.018546492 -0.08672195 -0.006562146 0.18561375 -0.17497887 0.11885147 -0.24544042
-0.031086301 0.056681976 -0.16233216 -0.1824724 -0.11769499 -0.17456418 -0.07475532 -0.14363903
-0.22611114 -0.06046812 -0.14787844 -0.01582585 -0.08666572 0.14326635 -0.049087442 0.02037712
0.093582585 -0.18475169 -0.09240022 -0.18897992 -0.113197275 -0.16888423 -0.117193446 -0.29771578
-0.022771703 0.05151359 -0.12308627 -0.13859232 -0.1062195 0.09377313 -0.06660524 0.031939156
-0.10347252 -0.29245365 -0.12264005 0.01833681 -0.027425667 -0.19370362 -0.07083695 -0.017788745
-0.26275644 -0.06078627 -0.10727571 -0.14415218 -0.15475188 -0.040516928 -0.10200009 0.16846064
-0.14665735 -0.019364685 -0.13409917 -0.16809402 -0.2036571 0.1668302 -0.07032049 -0.13002573
-0.09095014 -0.07188788 0.04662703 -0.077863045 -0.054077573 0.027718006 0.05433186 -0.11203921
-0.07539562 0.079475865 -0.13460155 -0.064782456 -0.004293605 -0.137535 -0.24835896 -0.055539444
-0.19809362 -0.13797724 -0.09592163 -0.13887198 0.071752064 -0.065321155 -0.18440188 0.009021987
-0.21050067 0.015295936 0.079547845 0.06554743 0.15679723 -0.05751398 0.058307692 -0.2510481

pointer.v f4 [1, 1, 128]
00000000: 4f80 c13f 343a 30bf 7a7d fcbf c493 e23f
00000010: 9b14 3fbf df61 0540 377e 0c3f 7d91 d23f
00000020: d86d 093f a440 c13f 95c1 9f3f 1872 e8bf
00000030: ac6d e9bf c928 09c0 873b dfbf 72be a43f
00000040: 2eef aabf c477 793f db64 c2bf 0457 b03f
00000050: 10e0 1f40 e573 d03e 3bfc ac3e 1535 463f
00000060: 5bcb d53f 0142 1d40 f4a1 bf3f 7336 b73d
00000070: e41d 1240 84c0 05c0 767c e63f 6945 813f
00000080: 1638 0540 f72a cc3e 63c4 e0bf 39da ab3f
00000090: 94b5 c3bf ca10 0040 39bf 01c0 d9fb a53f
000000a0: 9bbf 0dc0 c0e3 143f f71d 2bbf f102 c43f
000000b0: 0fc1 f0bf 26be cf3f 69fd 1ebf 871d d33f
000000c0: ca20 fabf 823c a73f 94f1 dbbf 2fff cc3f
000000d0: 936a c83f 4c30 0bbf d16d b23f 807b bcbf
000000e0: b00f f4bf 96d9 cd3f 5035 9f3f 160a b93f
000000f0: b1c5 a03f cf0c 3bbf 2591 b3bf 0402 c53f
00000100: 6a1c 633f 9f78 2a3b 6302 dc3f 4701 ebbf
00000110: 351d be3f f008 babf 70e7 9b3f b3e6 0a3f
00000120: 5e75 ecbf 6d72 d53f cc5b 0940 7c12 febe
00000130: 03a6 e5bf 0ff7 e03f d378 13bf 4ebb 38bf
00000140: 4457 e5bf fa7b 9d3f 2afd b23f e4dd babf
00000150: 328e 9c3f 7239 70bf 1d4f e2bf d4b8 bebf
00000160: b6ee ba3f ad3b 22bf ab67 b13f 587e 01c0
00000170: 1be4 983f aee9 48be 0e72 fb3f 1af9 1740
00000180: c8d1 df3f d0e6 8dbf 5ce3 093f 1205 63be
00000190: c241 0440 ea3b a1bf 2aec ecbf 0129 dfbf
000001a0: 2389 e43f eb72 bbbf 889a af3f 9ae6 d8bf
000001b0: 9158 ccbf cf33 febf 77ac ac3f 02d5 0440
000001c0: 46ef 983f 379c b23f da78 d3bf 2d81 e43f
000001d0: 1d54 38be c72b a83f e243 dd3f b523 f1bf
000001e0: c260 e9bf 3dc1 85bf 9e9b ecbf 384c a7bf
000001f0: 1ff7 d93d 6a3e d2bf e3ba cfbe 06c3 ac3f
1.5117282 -0.6883881 -1.9725792 1.7701344 -0.74640816 2.0840986 0.5488009 1.645065
0.53683233 1.5097852 1.2480952 -1.8159819 -1.8236594 -2.1431143 -1.7440041 1.2870619
-1.3354242 0.9744837 -1.5187029 1.3776555 2.4980507 0.4071342 0.33786187 0.77424747
1.6702684 2.4571536 1.4971299 0.08945932 2.2830744 -2.0898752 1.8006732 1.0099307
2.0815482 0.3987653 -1.7559932 1.3425971 -1.5289788 2.0010247 -2.0272963 1.2967483
-2.2148197 0.5816002 -0.668426 1.5313398 -1.8808917 1.6229904 -0.62105423 1.6493386
-1.9541256 1.306534 -1.7183099 1.6015376 1.5657524 -0.5437057 1.3939763 -1.4725189
-1.9067287 1.6082027 1.2438145 1.4456203 1.2560331 -0.7306642 -1.402867 1.539124
0.8871523 0.0026011837 1.7188228 -1.8359765 1.4852663 -1.4533978 1.2180004 0.5425827
-1.8473318 1.6675545 2.1462278 -0.49623477 -1.7941288 1.7575396 -0.5760624 -0.72160804
-1.7917256 1.230346 1.398351 -1.4598966 1.2230895 -0.93837655 -1.7680393 -1.4900155
1.4604099 -0.6337231 1.3859762 -2.0233364 1.1944612 -0.19620392 1.9644182 2.374579
1.7485895 -1.1086063 0.5386255 -0.22169903 2.0665135 -1.2596409 -1.8509572 -1.7434388
1.7854351 -1.4644445 1.3719034 -1.6945374 -1.5964528 -1.9859561 1.3490132 2.075501
1.194802 1.3953923 -1.6521256 1.7851921 -0.18000837 1.313836 1.7286341 -1.8839022
-1.8232653 -1.0449597 -1.8484991 -1.3070135 0.10642838 -1.6425297 -0.4057227 1.3497016

pointer.encoder_attn.v f4 [1, 1, 128]
00000000: cab1 bfbd 884f e1bc f2c6 28be b996 34be
00000010: d032 273e 5035 94bd a923 eebd 8884 963c
00000020: 2fd4 f53d 9205 a9bd ce83 98bd fcbd d9bc
00000030: 0028 9dbc 3a46 0c3d 366a 7b3c 176c 61bd
00000040: 966f 71bd f135 ee3c 2c01 613e 9648 823f
00000050: c501 4d3c e328 d63c 8cec f9bd 60b8 b6bc
00000060: 0615 9dbd 4a3a a1bc 15ce 283c 1f80 6d3d
00000070: 8fc3 92bd b31e b2bc 9fd1 8f3d 248b 09be
00000080: bb3a bbbd c707 91bc ce16 c2bb a6eb 95bc
00000090: 25aa d1bc 7360 69bd c286 c33d 0564 0ebe
000000a0: b274 b3bc 5cc9 a2bc bbc6 953d 0833 9cbc
000000b0: b9bd abbc ce2c 933f 906a f5bd 7f2f 8c3d
000000c0: 1fe8 e5bd bff1 873d 5f13 6fbd 0fea fa3d
000000d0: feda 113d 267f ca3b e3e3 8b3d 6e83 5fbd
000000e0: 4a28 9dbc 75fb 9b3c fedc 8cbc 4153 dbbd
000000f0: 6e98 8e3c f717 1c3d 4b1b 00be 7e34 d9bc
00000100: 1f42 103d 5aff 11bd 8534 81bc a2b4 383d
00000110: ff03 eebd 76a2 a9ba 7c53 3bbd f118 8cbe
00000120: 88d1 363d 6f40 c13b 0875 78be 0894 afbd
00000130: d5ea a03c ed1a d43c 3d37 9e3d 289a 92bd
00000140: 0556 0cbd 6490 d7bc 19b0 423d b1af c83c
00000150: f080 c8bd 4581 f7bd 5a0e c1bd 7756 803d
00000160: 4ccc 4fbb 6aad 983d 00cb 9ebc 95a7 b2bc
00000170: 8a13 d9bc 0432 57be 4cf5 68bc 5e84 5f3e
00000180: a773 8d3d 2ee5 ecbc a91b 92bd f498 153d
00000190: 2bcd 7e3d 7829 3e3e 28df b6bd 4eca 08be
000001a0: 956a 31be db73 49be b8aa 1b3e 4354 a2bd
000001b0: e552 90bc 1902 d4bd cd2f 54bc 44ac ea3c
000001c0: 2a4b 91bc 2d4d 003d cb69 893e 2d39 173e
000001d0: b43e 48bc 319a 4abe 46e5 b53c c485 c9bd
000001e0: f926 843d 3bc8 fe3d 2c3c 813c 02cd f0bd
000001f0: dd8b 153e bb23 eabd 6468 923c 35fc 58be
-0.093600824 -0.027503744 -0.16482142 -0.17635621 0.16327977 -0.07236731 -0.116278954 0.018373743
0.120033614 -0.082530156 -0.07447015 -0.02657985 -0.019184113 0.03424666 0.015345147 -0.055034723
-0.058944307 0.029078456 0.21973103 1.0178401 0.012512629 0.026142543 -0.12203321 -0.022304714
-0.076700255 -0.019681115 0.01030304 0.057983514 -0.07166206 -0.021743154 0.07022404 -0.13431984
-0.09142061 -0.017703904 -0.0059231287 -0.018300842 -0.025593827 -0.056976747 0.095471874 -0.13905342
-0.02190623 -0.019871406 0.073132955 -0.019067302 -0.02096449 1.1498048 -0.11983216 0.06844997
-0.11225914 0.06637906 -0.058368083 0.122516744 0.035609238 0.006179708 0.06830575 -0.0545687
-0.01918425 0.019040802 -0.017195221 -0.10709239 0.017406669 0.038108792 -0.12510411 -0.026514288
0.035219308 -0.035643913 -0.015772114 0.04509414 -0.11621856 -0.0012942094 -0.045733914 -0.2736278
0.04463342 0.0058975737 -0.24263394 -0.085731566 0.019643227 0.025891745 0.077253796 -0.07158309
-0.034261722 -0.026313968 0.04753122 0.024497839 -0.09790218 -0.12085203 -0.094265655 0.06266492
-0.0031707464 0.07454951 -0.019383907 -0.021808425 -0.026498575 -0.21015173 -0.01421864 0.21827838
0.069068246 -0.028917875 -0.07134182 0.03652282 0.062207382 0.18570507 -0.089292824 -0.13358423
-0.17325814 -0.19673102 0.15201843 -0.07926228 -0.017617652 -0.103519626 -0.01295085 0.028646596
-0.017736036 0.0313236 0.26838526 0.14767905 -0.012221981 -0.19785382 0.022204053 -0.09839967
0.06452746 0.12440535 0.015775762 -0.11757852 0.14604135 -0.11432596 0.017872043 -0.2118996

pointer.encoder_attn.W f4 [1, 128, 256]
00000000: 8402 cbbc e2c4 803d 1213 063e 4626 f1bd
00000010: 7fed 153d 00be 3cbe defb 473d 84a3 4cbc
00000020: a7c4 ffbd 45c6 2cbc 399d 9bbc 3fdd 203e
00000030: ee64 923c 2c64 873e dffb 043d c21f 913c
00000040: 40cc 013e 5702 8cbc 30ca b5bc 96e0 ec3c
00000050: 2061 64bd 913b 963d e092 2d3d 86b2 92bd
00000060: 3592 3c3c 8469 5d3d f75b c7bb 9b5a 39be
00000070: 35ca 3fbc 4626 6f3e 721d 0c3d 24ea febb
00000080: 1bbc cc3c 8b37 263a 9b04 b73d 897f 5e3b
00000090: 2ff3 303d 6eeb 973c 1902 c63c 1529 a0bc
000000a0: efb1 6d3e 020b b6bd 9e79 75bd 0937 dd39
000000b0: 3735 603e 86ed a3bc 915e 373c 3ecb 433d
000000c0: 5ecc 7a3e d5dd 62bd 3c65 903e cb41 c13b
000000d0: 6d75 033d 15e4 6e3e e99b 98bc 6f25 bd3d
000000e0: 9442 d3bc 63f0 8ebb 8768 3ebc 1414 1d3c
000000f0: 8d05 ed3c 0174 1abd 22a6 2c3d b39e 9f3b
00000100: bad8 263b 0066 193e 083b eb3c 5282 6c3e
00000110: 0d6a 933c 4b6f 603d 730f e93c 25d7 d13c
00000120: 2c5f 743e 20e6 98bc 54f6 463d 54cc f3bc
00000130: 1a88 873d 2736 aa3c 587f d1bc 40d7 30bd
00000140: 46fb 1e3e 690d 86bb a158 e23a 964c 1e3c
00000150: d106 223c 05d9 90bd f1f7 693e 9918 8638
00000160: c254 8abd fe0e 5e3d 0924 94bc 78e9 7f3e
00000170: 7214 9f3b dc57 a73d ed99 ecbb f3ec c1bc
00000180: 930c 00bd 93f3 8b3e b0c3 60bd 0a2f abbd
00000190: 9675 ab3d 36a7 363d 7250 963e 8f81 803e
000001a0: 178f 013c c7e8 b23c 9e58 983c 1d99 df3d
000001b0: 0ef0 873d f58b 3b3e 9fd7 0fba da2e 153e
000001c0: e84f dcbb 77be a43b 593e 133d 2b34 593b
000001d0: abc2 293e 3588 4eb9 eb83 883c 8ca2 933d
000001e0: b7d2 7b3e 912d e23d 86f6 fc3d d7f1 a43d
000001f0: ad2a 013e 2890 b73d cb2c 9b3d dafb 2abb
00000200: f092 38bd 2753 23bd 519b 873d 033a 6dbd
00000210: 05d8 353d 5878 f4bc c0bc f3bc 90f9 d7bc
00000220: c83b 9bbc 50d9 d63a 7f73 e3bb 0f23 743d
00000230: 8c9e 0d3d 9f79 d0bc 1b54 ec3c dbf2 8f3c
00000240: 5dd4 ccbc c833 203d c2d7 083d e31d acbc
00000250: 7bf1 1cbd 072c 583d a324 313d e477 8abd
00000260: 5e7f 853b 5fc2 5dbd 2b92 bfbc debc 5c3c
00000270: 5949 36bd 7352 36bd df9f 89bd 8e2e e33c
00000280: 3657 0dbd 6f7c 943b e6fe 0dbd a4f1 eabc
00000290: 5a16 1e3d 53f3 90bc 0832 a63c 62cc e3bc
000002a0: 34f2 933d 93da 31bd 00b1 12bd 6085 11bc
000002b0: 0adc 0739 11e6 8d3b def8 2ebd fa0e 13bd
000002c0: 0189 9fbd 8440 7d3c 174a f33c afbd ecbc
000002d0: 53cb 71bd 8ab4 48bd ab30 243c a9b2 283d
000002e0: 1e71 10bc 535d 15bd 4d99 503d c183 133d
000002f0: 6e75 91bd be3b 3dbd e0b0 553c 460c a2bb
00000300: 3552 45bd be0e 9abd b6fc 923d 0203 8d3d
00000310: 17f4 47bc 51b2 a23d cbe4 ee3c 2770 903c
00000320: fe64 c6bc 1410 46bd 95a1 003c 67c9 49bd
00000330: c598 15bb 760a 3b3d 84ca 3e3d c484 43bd
00000340: cf24 8d3d 763f aa3d 99a1 543d 8dee 1dbd
00000350: 5b5e 5abd 4072 b13c 13a3 9bbc 8dfb bfbc
00000360: dfb9 33bd 0856 11bd 83b9 77bc bddd 343d
00000370: 593a 87bd 13fb af3b eb34 c2bc ecfa 98bc
00000380: 0a11 65bd 466b 103d 3d77 14bd 44d0 553d
00000390: 513c 843d ad17 a2bc f725 573d f63c 99bc
000003a0: 8084 243d 0399 c0bc 4a9f 593c a0d0 a7bc
000003b0: a284 053d d6d8 3e3d 9190 c73b 223e 93ba
000003c0: 4719 413d 101c e0bc dd29 383d 3c28 11bd
000003d0: 9131 9dbc a98b 68bd 07dc 003d a018 d1bc
000003e0: 426f 87bc 8ec8 86bd e5db 35bd 38bf 5bbd
000003f0: 1ce5 1cbb ca40 afbc 90f5 833d 5e76 ec3c
-0.024781473 0.062875524 0.13093212 -0.11774878 0.036603447 -0.18431854 0.048824184 -0.012490157
-0.1248868 -0.010545318 -0.018995868 0.15709399 0.017870393 0.26443613 0.032466765 0.017715339
0.12675571 -0.01709096 -0.022191137 0.028915685 -0.055756688 0.0733558 0.0423764 -0.07162957
0.011509468 0.054055706 -0.006083961 -0.1810097 -0.011705925 0.23354444 0.03420777 -0.0077793766
0.02499204 0.0006340674 0.08936425 0.0033950529 0.043200668 0.018544879 0.024170922 -0.01955084
0.23212408 -0.08888818 -0.059930436 0.0004219341 0.218953 -0.020010721 0.01119198 0.04780125
0.24492022 -0.055387337 0.28202236 0.0058977357 0.032094408 0.23329194 -0.018629031 0.092356555
-0.025788583 -0.0043621524 -0.011621601 0.0095873065 0.02893331 -0.037708286 0.042150624 0.0048712133
0.002545877 0.14980316 0.028714672 0.23096588 0.017994905 0.054793637 0.02844975 0.025615284
0.2386443 -0.01866442 0.04857476 -0.029760517 0.06617756 0.020777775 -0.025573418 -0.04317403
0.1552554 -0.004090954 0.0017268845 0.009661814 0.0098893205 -0.07072643 0.22848488 6.3941996e-05
-0.067544475 0.054213516 -0.01808359 0.24991405 0.004854732 0.08171055 -0.007220498 -0.023672557
-0.03126199 0.2733427 -0.054874122 -0.08358581 0.08372037 0.04459306 0.2935825 0.25098845
0.00790765 0.021839513 0.018596943 0.10917876 0.06637584 0.18315108 -0.0005487147 0.14568654
-0.0067233928 0.005027588 0.03594813 0.0033142667 0.16578166 -0.00019696432 0.016664466 0.07208738
0.245921 0.11043847 0.12351708 0.0805394 0.12613936 0.089630425 0.07576903 -0.0026090057
-0.045062006 -0.039874222 0.06621421 -0.057916652 0.044395465 -0.02984254 -0.029753089 -0.026364118
-0.018949404 0.0016391668 -0.0069412584 0.059603747 0.03457503 -0.025448618 0.028848698 0.017571857
-0.025003606 0.039111882 0.033408888 -0.021010345 -0.03831623 0.052776363 0.04324783 -0.067611486
0.0040740212 -0.054140445 -0.023385128 0.013472764 -0.044503544 -0.044512223 -0.06719946 0.02773216
-0.034507 0.004531435 -0.03466692 -0.028679676 0.038595535 -0.017694151 0.020287529 -0.027807418
0.07223931 -0.04342134 -0.03581333 -0.008881897 0.00012956574 0.0043304046 -0.042717807 -0.035902955
-0.07789803 0.015457276 0.029698415 -0.028899042 -0.059031796 -0.0490003 0.010021369 0.04118601
-0.008816032 -0.036465954 0.05092745 0.036014322 -0.07102476 -0.046199553 0.013042659 -0.0049453108
-0.0481741 -0.07522343 0.07177107 0.06885339 -0.012204192 0.079441674 0.029161831 0.017631603
-0.024218079 -0.048355177 0.007851024 -0.049264338 -0.0022826653 0.045664273 0.046579853 -0.047734037
0.06891786 0.083128855 0.051911924 -0.038557578 -0.05331264 0.021660924 -0.018998658 -0.023435378
-0.043878432 -0.035482436 -0.015119913 0.04415678 -0.06602926 0.0053705066 -0.023706874 -0.018674336
-0.055924453 0.035258554 -0.036246527 0.05220057 0.06456817 -0.01978668 0.05252644 -0.018705826
0.040165424 -0.023510462 0.013282606 -0.020485222 0.03259719 0.04659351 0.0060902317 -0.0011233727
0.047143247 -0.027357131 0.0449618 -0.03543876 -0.019188674 -0.056773815 0.031459834 -0.025524437
-0.016532544 -0.065812215 -0.04439916 -0.053649157 -0.002394027 -0.021393199 0.06443322 0.028865036

pointer.fc1.weight f4 [128, 256]
00000000: 1f54 cebd da58 d93d b282 873d cb78 183d
00000010: a1df 363d 4c97 873d d8f4 dc3d 70e6 87bd
00000020: 7d0a bc3d 61e1 c43c f67e 95bd 1b5d 2fbc
00000030: cc40 0f3d 3913 c73d 4537 9abd 131f 28bd
00000040: 7b55 433d ae56 87bb 56b2 cb3d af1e 6d3d
00000050: 7f51 edbd d67b d93a d692 7cbc e218 8abd
00000060: eef9 babd c9a1 513d d9a4 b6bd da84 adbb
00000070: 78b5 a1bc 1fb7 83bd 319d c53c f6be b83c
00000080: b006 ae3d 8887 e5bc 4c20 973d 3732 44bd
00000090: 65d9 d23d cf1a ba3d bbfe a43d c3c2 9b3d
000000a0: 8d09 d8bd da03 afbd 0bae 863d 46ec d6bd
000000b0: 5cdc 90bd fc40 a9bd c5fe 89bd 6d76 e53d
000000c0: 2f40 6fbd 3a12 9fbd b941 793d a6e2 3dbd
000000d0: da07 16bd 6c16 8cbb 07c3 e73d f3b9 6f3d
000000e0: d5a2 e33d 4416 313c a19c 1cbc 31ab dfbc
000000f0: 7dc2 1fbb d4ab ad3c 7053 813c bbdd d4bd
00000100: e11e 85bd be85 8fbd e084 07bc 9753 82bd
00000110: ffa1 97bd c00a f93d f1f9 953c 8c44 4b3d
00000120: 335b 943d fe08 cabd 24d1 3cbd 5047 85bd
00000130: 4dde b43d d41f f03d d055 1cbc 8f77 dfbd
00000140: 5561 a03d 6d3c 1e3c c1c2 cbbc fc42 433d
00000150: 1f16 04be 1454 c0bd cbda c33d 3813 77bd
00000160: 9df7 37bd e9b9 b73d 7cda b5bd 8026 983b
00000170: 4492 ba3c 0f27 0b3d 4c80 a83d a563 72bd
00000180: 5f8f 343d c162 86bd 8528 9f3d f243 01be
00000190: 0419 b33c 9220 c9bd 1d5d 203d 12fd 65bd
000001a0: 04ef 2dbd 9a97 40bd 4d66 d4bd 62e3 323c
000001b0: 588a 043b c01a e9bc 56f9 92bc 1a14 aa3c
000001c0: e86e 083d f154 fc3c 311d 34bd 327e fc3d
000001d0: 0b46 9b3d f76a b13d 006d 103d c645 09bd
000001e0: 44c3 3b3d 257a c23d 45da bcbc 872c 7b3d
000001f0: 9209 cf3d bfe7 29bd 58f0 143d f047 8cbc
00000200: ef43 aebd 6f7e 573d a918 c03d 8c68 c63c
00000210: a4f4 2d3d 6afe 9bbd 04e9 673d 775c 82bd
00000220: f315 5b3c 5710 f73c 1986 533d 6045 933d
00000230: 93bd aabd 3f4d 913d 67a0 fdbc 10eb 693d
00000240: ba31 89bd 5a24 ff3d 92fa 24bd 3cec f43d
00000250: 485c b0bd 04d7 2ebd b0fe b83d 364f 4f3d
00000260: e91a 25bd 4acb ee3d fabc e83c 727e bbbd
00000270: 0bc2 cd3d 3ae4 e6bd 8fea 363d 6fc1 4bbd
00000280: 8522 ddbd ec0a 483d e432 2d3d e075 01be
00000290: 65fe 7c3c 7e5c 2c3d 876a 923d 56c7 a03d
000002a0: 4d7d 6fbd 53bd f23d 6a27 df3d 1753 533d
000002b0: 6bb6 dabc 4880 18bd e8b4 e43d c077 5d3c
000002c0: 478e 8dbb 16c2 083d 0518 a13d 1dc9 54bd
000002d0: 915d e1bd dbbc e93d 5ef6 43bd ffb0 b5bd
000002e0: 20f3 fa3d 73a5 bdbc 5182 c43d db7e b13c
000002f0: 69fa 2ebc bb88 e83d d667 fd3d be45 b0bc
00000300: 5b2e a13d b337 e3bd 15fa 8d3d 2b16 34bb
00000310: c353 95bd c428 9ebd 6817 9dbd b6ad 1bbd
00000320: 494e cebd 6a89 b2bd 75b4 003e 1590 88bd
00000330: f7a3 a6bd a412 04bd 4ec9 c03d a670 6e3d
00000340: ed6f ee3d 74d3 88bd 79fe 063d a792 c9b9
00000350: 5226 b73d 8c5e bb3d 3f7e fcba 4659 1a3d
00000360: e804 13bc 616b 4d3d 1397 853d 411f af3d
00000370: 91cb 253d 8167 453d 0628 d9bd 3433 e5bd
00000380: 2597 943d 07f2 643d 4235 bf3d 89b6 333c
00000390: 499f 6abc 191f f4bd e61e c7bd 62db d9bd
000003a0: 6833 ed3c ce36 f4bd ba81 8ebd e4a0 9cbd
000003b0: 3149 a2bd b79f 023e dfb1 8d3d e194 e03d
000003c0: ec7a d3bd 04af d93d c8bc bdbc a658 a2bd
000003d0: 14fe 58bd 5744 bdbd c9ed 753c 53b3 6c3d
000003e0: 73a2 f23d b426 ed3d 63c6 2b3d 2a85 ac3d
000003f0: 8171 c3bd 8ddb ac3d b0f8 78bc 0c33 f1bd
-0.100746386 0.1061265 0.06616725 0.037224572 0.044646863 0.066206545 0.10788888 -0.06635749
0.09181688 0.02403325 -0.072996065 -0.01070335 0.034973904 0.09720463 -0.07530073 -0.04104526
0.047688942 -0.004130206 0.09946124 0.05789059 -0.1158781 0.0016592692 -0.015415868 -0.06743027
-0.091297016 0.05117968 -0.08918161 -0.005295378 -0.019739851 -0.06431412 0.024122806 0.022551995
0.08497369 -0.028018728 0.07379207 -0.04789945 0.10295371 0.090871446 0.080563985 0.07605507
-0.10548697 -0.085456565 0.06576165 -0.10494284 -0.0707328 -0.08264348 -0.067380466 0.112042286
-0.05841082 -0.07767148 0.060853694 -0.046358727 -0.03662858 -0.004275134 0.113164954 0.058526944
0.11115042 0.010808531 -0.009558828 -0.02730331 -0.0024377399 0.021200098 0.015786856 -0.10393854
-0.0650003 -0.07007931 -0.008271426 -0.063636 -0.07403945 0.121602535 0.018307658 0.04962592
0.07243957 -0.098649964 -0.04609789 -0.065077424 0.08831463 0.11724821 -0.009541944 -0.10911476
0.078310646 0.009657961 -0.02487314 0.047671303 -0.12899064 -0.09391037 0.09563216 -0.060321063
-0.044913877 0.089710064 -0.08879563 0.0046432614 0.022774823 0.033972796 0.08227596 -0.05917706
0.04408204 -0.065618046 0.077714 -0.12623575 0.021862514 -0.098206654 0.0391513 -0.05614955
-0.04246427 -0.04701958 -0.10371075 0.01091847 0.002022406 -0.028455138 -0.017941158 0.020761538
0.033308893 0.030802222 -0.04397315 0.12328757 0.07581719 0.0866298 0.0352602 -0.033513807
0.045840517 0.094959535 -0.023053298 0.06132176 0.10109247 -0.041480776 0.036362022 -0.017124146
-0.08509051 0.05261081 0.093797036 0.024219774 0.042469636 -0.07616885 0.056618705 -0.063652925
0.013371932 0.030159159 0.051641557 0.071909666 -0.0833694 0.07094812 -0.030960275 0.05710894
-0.06698938 0.124581054 -0.040278025 0.11959121 -0.08611351 -0.042685524 0.09032953 0.05061265
-0.040308867 0.11659868 0.028410424 -0.09154977 0.100467764 -0.112739995 0.044657286 -0.04974502
-0.107976 0.04883854 0.04228486 -0.12642622 0.015441512 0.042080395 0.07149225 0.0785052
-0.058469106 0.11852517 0.108961895 0.051592913 -0.026698312 -0.037231714 0.11167318 0.01351732
-0.0043199393 0.03338822 0.078659095 -0.05194961 -0.110041745 0.114129744 -0.047842376 -0.0887165
0.12253404 -0.023150181 0.095951684 0.021666935 -0.01067982 0.11354204 0.12373321 -0.02151763
0.0787017 -0.11094608 0.06932465 -0.0027479033 -0.07291367 -0.07722619 -0.0767048 -0.03800746
-0.100735255 -0.08717616 0.12568839 -0.066681065 -0.081367426 -0.03224434 0.09413396 0.0582129
0.11642442 -0.066809565 0.032957528 -0.00038446972 0.08942856 0.09148893 -0.0019263698 0.037682794
-0.008973338 0.050151233 0.06522956 0.08550883 0.04047734 0.048194412 -0.10603337 -0.11191407
0.07255391 0.055894878 0.0933633 0.010968813 -0.014320203 -0.11919994 -0.0972269 -0.10637547
0.028955176 -0.11924516 -0.06958337 -0.07647875 -0.079241164 0.12756239 0.06918692 0.109658964
-0.1032618 0.10629085 -0.023161307 -0.079270646 -0.052976683 -0.092415504 0.015010306 0.057788204
0.11847391 0.11579648 0.041937243 0.084238365 -0.095431335 0.084403135 -0.0151960105 -0.117773145

pointer.fc1.bias f4 [128]
00000000: 2522 413d 945f 16bd 00d2 a2bd 5469 b9bc
00000010: dc44 09bd d3d4 7abc 8d8f 933b 85fb 133c
00000020: 438a 07bd c6d6 1f3a 5b84 d23c e176 49bd
00000030: 1c0a 293d 3b59 fc3c 1d98 c43c 1e42 75bc
00000040: e376 983d ed88 83bc 8251 ad3c c433 3fbd
00000050: 8d55 9e3c ec45 c33c 3cb6 55bd 3aa2 963c
00000060: ceb9 613d 1e12 f23c 01e7 c43c 29d5 523d
00000070: 565a 58bd 9804 493d 95c6 1b3d 1421 78bd
00000080: 0484 4c3c 30b7 cd3c 9a85 d7bc 2b6f 693d
00000090: 4aac 1ebd f5d1 263d 72f6 2d3d 471d 6a3c
000000a0: 59b0 3abd bad5 57bc e582 a93c e68d 4bbd
000000b0: 17e4 60bd a666 33bd 7769 e53c 7ddd 04bd
000000c0: 0ea1 c5bc c26e 693d 0c6d 713d 8383 373d
000000d0: 93f9 483c 4b5d 993d 063b 1d3d b59f bcba
000000e0: 190e ebbc 349f 173c 5d9f 63bd be4d 6a3b
000000f0: b990 bf3c 79ce debc 6282 6a3c e610 b03d
00000100: 9f10 9dbd 83b1 cfbb 55c6 9dbd 5b6e 94bc
00000110: 7fc2 c6bc 1e9d 9c3d ed58 e73b 3396 e63c
00000120: de9d aaba d5b6 d43c b79e 743d bd5a d7bb
00000130: 5c89 26bd 80ea a2bd a1f8 80bd 3358 1b3d
00000140: 79e2 1cbd e3ac 0c3d 2690 343b cdd3 17bd
00000150: eb91 a8bb 7506 06bd 39ec f9bc 1f22 423d
00000160: d891 053d d31c fa3c b166 9abd 3b4a 133d
00000170: d92f 82bd d77b 853d 043f 38bd 4e73 6f3d
00000180: 8a44 5ebd a759 ba3d 2623 cabc 351a 26bc
00000190: 1f46 17ba 4f5e 6fbd a6ad 82bc 13fe 83bd
000001a0: 97f2 81bd 76c0 803c 7724 bdbc 81ae fa3b
000001b0: 1d76 1fbd 7dc4 823d 3c1f 5cba b5c0 b93b
000001c0: a5e4 f83c 26dc abbd 2e40 a33c 0a03 a23b
000001d0: 8ed7 423d d11a 85bc 6aba 533d dc1a 36bc
000001e0: 40d2 a0bb 2096 53bd 0d94 15bd 0a8e e73d
000001f0: 134e eb3b 4609 5e3b 594b 863d 0d01 25bd
0.047151703 -0.036712244 -0.079502106 -0.022633232 -0.033512935 -0.01530953 0.0045031966 0.009032135
-0.03309084 0.00060973724 0.025697878 -0.049185637 0.041269407 0.030804267 0.023998315 -0.014969377
0.07444551 -0.016056502 0.02115703 -0.046680227 0.019327903 0.023837052 -0.052175745 0.018387903
0.055108838 0.029549655 0.024035932 0.051472817 -0.052820526 0.049076647 0.03803118 -0.06057842
0.012482647 0.025111765 -0.026308823 0.056990784 -0.038738526 0.040727574 0.042471357 0.014289207
-0.045578334 -0.013173515 0.020692298 -0.04969587 -0.054905023 -0.043799065 0.028004391 -0.03243779
-0.024124648 0.056990393 0.058941886 0.044803154 0.012266534 0.07488497 0.038386367 -0.0014390858
-0.028693246 0.009254266 -0.055571903 0.0035751904 0.023384439 -0.027198063 0.014313312 0.08596973
-0.07669186 -0.0063382997 -0.077038445 -0.018119028 -0.024262665 0.07647155 0.0070601613 0.028147792
-0.0013017019 0.025966087 0.059721675 -0.006572096 -0.04065834 -0.079548836 -0.06297422 0.03792591
-0.03830192 0.034344565 0.002755174 -0.037067223 -0.005144348 -0.032721 -0.030508148 0.04739582
0.03260979 0.030531323 -0.07539118 0.035959464 -0.063567825 0.06517761 -0.04498197 0.058459572
-0.054264583 0.09099131 -0.024674963 -0.010138084 -0.0005770642 -0.05843955 -0.015951943 -0.06444945
-0.063450985 0.015716773 -0.023088677 0.007650197 -0.038931 0.063851334 -0.0008396988 0.0056687244
0.030382464 -0.08391599 0.019928064 0.00494421 0.04756885 -0.016248139 0.05169145 -0.011114802
-0.0049078763 -0.051656842 -0.036518145 0.11306389 0.007180938 0.003388004 0.0655734 -0.040284205

pointer.fc2.weight f4 [128, 128]
00000000: ee11 923c 0b37 1b3e 1e87 473e d147 22be
00000010: 53d2 043d 5625 50bc 5029 27be f820 80bd
00000020: 7438 c9bc eac4 073c de04 3d3d 933e 083e
00000030: 033e 423d 132b 26bd c096 34bd f52e b93d
00000040: 21db 8e3d 99a6 15bc ae4d 3bbd adc5 05be
00000050: 50ef d33d 85f5 d2bc ddaf d23e 7b9e 82bd
00000060: 061f 3a3e 9ec7 843e 0a29 2abd 6324 3bbd
00000070: 2f01 ef3d 14d6 003e 05e2 00bb e339 96bd
00000080: 1736 53bd e157 6f3d 9a91 713c 494c 293e
00000090: 41ce 8b3d 11b1 febd d159 283d 8afa a23e
000000a0: 77be 03bd cb88 d23d dc28 83bd a157 03bd
000000b0: f727 003e bfe6 803d 1f41 a83d c01c 15bd
000000c0: c88e fabd de82 1c3e 28e0 973e 8b4c ee3d
000000d0: 4971 c03c 0225 b83d 00b0 013c af32 a3ba
000000e0: c2dd 1e3e 931c 1fbe 15df 183e 8f9f 9fbd
000000f0: 5e5f 06be 0949 1c3e b859 c7bd 15a8 97bc
00000100: 192b 82bc f87e 2d3d 70ab c93c e591 d1bd
00000110: 6eaf d03d b0df 253e 62b6 d9bc 9f98 d3bc
00000120: 3836 933d 3113 b1bc d6ea 053e 5367 cbbd
00000130: 21d4 a1bd 4306 f7bd 5bca 11be 86ab 3c3d
00000140: 15d7 96bd 849b ae3d 3d73 89bd a11a 283d
00000150: 7e4c 163e a12d bdbd becf 25bd da5e b93e
00000160: 2746 0a3e 138d f3bc 3959 973e ee93 9fbc
00000170: 68d8 013e caa0 0f3d ce7f 96bd 3e4d 48bc
00000180: 4c5c c4bd 579f eb3d c8ac e43e b582 e33c
00000190: 93bc 2dbd 1266 acbd 8650 8c3c 6961 0cbe
000001a0: d9f9 643e 3441 aa3d abef c9bc b90f 80bd
000001b0: e914 0b3e ef21 f2bd 2bcf 19bd 01e5 56bc
000001c0: 7e95 dd3c 72d4 10bd 3e99 f53d 66c2 07bd
000001d0: 0f8e ad3a 5abd 13be 2f22 cb3e 0393 bdbd
000001e0: d70f dfbd 5e85 8b3d eddb 8c3c f111 38be
000001f0: a961 a7bc 4c15 9cbb 15ed 18be f3ad 923d
00000200: 1552 09be d00b 67bc 9bab b3bd 7200 7a3d
00000210: 0b06 dd3d aa05 c33d 47a0 2f3d dbd1 f5bd
00000220: ccf7 803d 247e 643d 1f77 f3bd bf07 b03d
00000230: 525b a5bd 0832 863d 20de 153c e20b 7d3d
00000240: 822c 60bd f38e d83d 187f ffbd f17d 283c
00000250: e576 8d3c 9c2d a8bb 47bb 133e 65d9 15be
00000260: 3eb6 913b 6c8e 10be 84d1 b1bc 93b0 c33c
00000270: 9e31 04be c216 09bd 22fe d5bc e2db 883d
00000280: 47c4 603c e920 d73b ec78 463d 73ba aa3d
00000290: 8b29 8bbd 35c1 983d fc24 e43d 51b1 f63d
000002a0: 58c1 a13d 8f1d 6ebd c52b 02be 9f7b 0c3e
000002b0: 5b87 13be 8254 25bd 9b7f ab3d 21e7 13bc
000002c0: e60d f23d eea3 f93d 9dc0 773d 4a5d eebd
000002d0: 01fa 013e a09d 0abe 90ab 8d3c 69dc 6f3d
000002e0: 3e96 083e f6ac 88bd 16ed c6bc ad2c 02bd
000002f0: 2efe 03be c29a aabd 6e46 ca3d e6dd 1fbe
00000300: 7166 473d fa83 163e 8a43 253d 898c 20be
00000310: ee9b 82bd 480c e3bd a5b8 5d3c e2c0 e93d
00000320: 026c d5bd f557 dcbd 90d6 b1bd 3c15 f7bd
00000330: ac69 a83c 495b 06be 24fe 0cbe e825 7dbd
00000340: 79bb d63d 9354 8b3d 69f5 fa3d 3d34 a1bc
00000350: 5109 9b3c fd76 223d 14e6 0cbd 73a2 89bd
00000360: c088 5d3c 772c 02be 85ae f23d a7fb cabd
00000370: 84c1 54bd 1709 52bc 0145 163e 4d5c c8bd
00000380: 5c61 113d 6a33 cdbd 0aaa ddbd a211 143e
00000390: 9db5 db3d 281c 5d3d 7812 b9bd 5808 4e3d
000003a0: 96b7 42ba 08f1 fabd c500 6d3d a055 47bc
000003b0: 0cdd fb3d 50ef 083e ac30 1d3d f43f 13be
000003c0: 9b53 5ebd 1318 613d 13c3 c4bd c01e 98bc
000003d0: e050 b7bd ca56 eb3d 6b35 10bd 48ac a2bd
000003e0: f76b 3e3c a0cd 163d a66c f4bd bcab 90bc
000003f0: 0c36 cebd 1abb e1bd 7f17 edbc 5151 7a3d
0.017830815 0.15157716 0.19485137 -0.15847708 0.032427143 -0.012704214 -0.16324353 -0.06256288
-0.024563052 0.008286694 0.04614722 0.1330512 0.04742242 -0.040568423 -0.04408908 0.090421595
0.06975389 -0.009133958 -0.045728378 -0.13063689 0.103483796 -0.025751838 0.41149798 -0.06377884
0.18175897 0.25933546 -0.041543044 -0.045688998 0.11670148 0.12581664 -0.0019665968 -0.0733526
-0.051565256 0.058433417 0.014744187 0.16533007 0.06826449 -0.124361165 0.04110128 0.3183177
-0.032164063 0.102799974 -0.06404278 -0.03206599 0.12515245 0.06294011 0.08215546 -0.03640437
-0.122342646 0.15284297 0.29663205 0.11635693 0.023491519 0.08991434 0.007915497 -0.0012451018
0.15514281 -0.15538244 0.14928849 -0.07794105 -0.13122317 0.15262236 -0.09733909 -0.018512765
-0.015889691 0.042357415 0.02461788 -0.10232905 0.101897106 0.16198611 -0.026576225 -0.025829611
0.07188076 -0.021615596 0.13077864 -0.09931817 -0.079017885 -0.12061741 -0.14237349 0.046062015
-0.073652424 0.08525756 -0.06711433 0.04104102 0.14677617 -0.09237219 -0.04048132 0.36205178
0.13503323 -0.029730355 0.2956026 -0.019479718 0.12680209 0.03506545 -0.073485956 -0.012225447
-0.09587917 0.11505001 0.44663072 0.027772287 -0.042416167 -0.08417906 0.01712824 -0.13709034
0.22360934 0.08313218 -0.024650415 -0.06252999 0.13582195 -0.118228786 -0.037551086 -0.013116122
0.027048822 -0.035358854 0.11992119 -0.033144377 0.0013241189 -0.144277 0.39674518 -0.09256556
-0.10891693 0.06812547 0.017194713 -0.17975594 -0.02043231 -0.004763281 -0.1493419 0.071620844
-0.13410218 -0.014101937 -0.087729655 0.06103558 0.10792168 0.09522565 0.04287746 -0.120029174
0.062972635 0.05578436 -0.11887955 0.085952275 -0.080740586 0.065525115 0.009147197 0.06177891
-0.054729946 0.105741404 -0.12475413 0.010283933 0.017268607 -0.00513239 0.1442691 -0.1463371
0.004446774 -0.1411683 -0.02170635 0.023887908 -0.12909552 -0.03346897 -0.026122157 0.06682564
0.013718671 0.0065652025 0.048455164 0.083363436 -0.06795033 0.07458726 0.11139867 0.12045539
0.078982055 -0.058133658 -0.12712009 0.13719033 -0.14407103 -0.040363796 0.08373948 -0.009027273
0.11819057 0.1218947 0.060486425 -0.11638887 0.12693025 -0.13536692 0.017293721 0.05855981
0.13338563 -0.06673615 -0.024282973 -0.031780887 -0.1288993 -0.08330299 0.09876715 -0.15611991
0.04868168 0.14698783 0.040347613 -0.1567861 -0.063773975 -0.11086327 0.013532792 0.114137426
-0.104209915 -0.10758964 -0.08683503 -0.12064597 0.0205582 -0.1312076 -0.13768822 -0.06180373
0.10484976 0.068032406 0.122538395 -0.01967823 0.01892534 0.039664257 -0.034399107 -0.06720438
0.013521373 -0.12712274 0.11849693 -0.0991128 -0.051942363 -0.01281955 0.1467476 -0.0978323
0.03549324 -0.10019572 -0.10823448 0.14459851 0.10727999 0.05398193 -0.09036726 0.050300926
-0.0007427869 -0.12253004 0.057862062 -0.012166411 0.12298021 0.1337254 0.038376495 -0.14379865
-0.05427895 0.0549546 -0.0960752 -0.01856935 -0.089509726 0.11491163 -0.035207193 -0.07943016
0.0116224205 0.036817193 -0.119347855 -0.017660014 -0.100689024 -0.11022015 -0.028941868 0.061112706

pointer.fc2.bias f4 [128]
00000000: 0fc5 35bc f1b9 193d 4b0e 803d 7703 e33d
00000010: 3265 c1bc d509 8b3d 71b2 693d a1d2 da3d
00000020: 77eb 023c d396 493d 8d49 443d 0a09 bcbb
00000030: 275c 383d 421c 5c3d 3083 e1bd 20f8 ca3d
00000040: 56bd 25bd 9ebb b0bd e2e7 e3bc 331e db3d
00000050: 23d1 30bc b3c8 a1bc c202 b1bc d90c 92bd
00000060: 9296 4b3c 58fb 91bc 0b69 05bd bcd7 0dbd
00000070: 31d7 bd3d 5556 823d 156b d93d 3922 c53d
00000080: 79e9 49bd 1189 86bc fb20 e4bb fc05 bf3d
00000090: d7eb 983d 048a c13d fc0c 95bd ef95 6b3d
000000a0: 0f9b e23d 3880 5fbd 05be a33d be79 3b3d
000000b0: dfe2 d03d 03c3 d73c 4522 823d 7acd 433d
000000c0: 9a4c 2cbc 404c 823d 9d6e 323d c15d 973c
000000d0: 4932 8f3c 622b 18bc a8d7 163d 5eae 7d3c
000000e0: b5f1 703c 7e4d ba3c edc1 9c3d 926c 003e
000000f0: 9fed 883d 7e7d 163d dcd6 5a3d 276c ba3c
00000100: 20a7 0fbc 9a98 9bbd d070 cc3d 515b 8f3d
00000110: 9d5b fb3d 3524 933d 323e b13d 8883 95bd
00000120: 7463 943c fd02 9e3d 224f e53d 6ccc 8fbd
00000130: 294b 93bd 8952 1b3e ec74 023d 37ea 283d
00000140: c6f0 ed3d 6650 593b 341b 823d 1869 e53d
00000150: e962 37bd f79f c53d b04c 4e3d 2cb3 8bbc
00000160: 0e8e 0b3d 39a9 dfbb 83f6 a43d 7023 8e3d
00000170: 8e37 6f3d cc07 8ebd a8ac 8bbd 7fac fb3d
00000180: 09c1 9bbd e6e8 933c 0c01 22bd db33 94bc
00000190: 1f1d 303d 13c5 763d 7d56 ae3d 8301 fe3d
000001a0: c5c2 47bc 031c 8fbc e1c3 053e be22 3ebd
000001b0: 409b b13d eab4 dbbc 96b7 cc3d 34ac a83d
000001c0: e7a2 953b b583 ce3c af92 a8bd 5f08 f93d
000001d0: 3c6d a2bd ac93 4e3d f798 a73d e2a5 593d
000001e0: f553 3cbd eb27 bbbc c99b 883c cf64 1a3d
000001f0: 2468 543d d1b4 c9bc 82fd bbbd 0357 053e
-0.011094346 0.037530843 0.06252726 0.11084645 -0.023607824 0.06788985 0.05705494 0.106847055
0.0079907095 0.049216103 0.047921706 -0.005738382 0.04500976 0.053737886 -0.1101135 0.09910607
-0.040463768 -0.08629535 -0.027820531 0.106991194 -0.01079205 -0.019749021 -0.02160776 -0.07131357
0.0124260355 -0.017820045 -0.03257088 -0.03462957 0.0926956 0.06364123 0.106161274 0.09625668
-0.049294923 -0.01642278 -0.0069619394 0.09327313 0.07466858 0.094501525 -0.07277867 0.057516035
0.11064731 -0.05456564 0.07995228 0.0457704 0.10199522 0.026338106 0.06354193 0.04780338
-0.01051631 0.063622 0.04356252 0.018477323 0.017480033 -0.009287687 0.03682676 0.015483467
0.014706065 0.02274203 0.07654176 0.12541416 0.066859476 0.036740772 0.053427562 0.02275665
-0.008767873 -0.07597466 0.09982455 0.06999839 0.12273333 0.0718464 0.08654441 -0.07300478
0.01811383 0.07715414 0.11196734 -0.07021412 -0.0719207 0.15168203 0.031849787 0.04123899
0.116181895 0.0033159493 0.06352845 0.11201686 -0.044772062 0.096496515 0.050366104 -0.01705321
0.03407102 -0.006825593 0.08054831 0.06940353 0.05840259 -0.06935081 -0.06820041 0.122887604
-0.07605178 0.01805539 -0.03955178 -0.018091133 0.042996522 0.06024654 0.0851259 0.12402632
-0.012192433 -0.017469412 0.13063003 -0.04641985 0.0867219 -0.026819665 0.09995954 0.0823597
0.0045665386 0.025209287 -0.08231103 0.121598 -0.07930991 0.0504338 0.081834726 0.053136714
-0.045978505 -0.022846183 0.016675847 0.037693795 0.05185713 -0.024622353 -0.09179212 0.13021474
