trained_models/cvrp/XE_17/model_incumbent_vrpRl13_C_XE_17_T_0.1_61132.pt (torch_old, 469732 bytes, 15 tensors)

all_embed.embed.weight f4 [128, 4]
000000 54 31 4b bd cc 56 c6 3d 88 94 c0 bc 30 90 e2 bc
       -0.04960759 0.09684524 -0.023508325 -0.027656645
000010 d0 ff 3b 3d 20 ac db bd 20 04 d8 3d 6f 7a fb bd
       0.04589826 -0.107261896 0.10547662 -0.12279212
000020 f7 fa 5f 3e 0c f0 98 3e 69 47 46 3e 67 71 a0 be
       0.21873079 0.2987064 0.19363178 -0.3133652
000030 77 37 e7 3e c9 8f 3f be 1b 01 3f be 00 24 85 3e
       0.45159504 -0.18707193 -0.18652765 0.26004028
000040 c6 0a 03 be fb 47 12 3f bb fc 2d be 4d 5b f7 3d
       -0.12797078 0.57141083 -0.1699094 0.12077961
000050 c6 a5 19 3e 6a f0 2e 3e 5c 44 2d bd 7c 88 3d bd
       0.15004644 0.17083898 -0.04230152 -0.04627274
000060 80 1b c9 bb be 5c 17 be ac c0 54 3e 78 c3 a0 bd
       -0.0061373115 -0.14781472 0.20776623 -0.07849783
000070 1a e3 88 3d 5e 7a 8a 3c c5 05 20 3f fb 3d 9a 3e
       0.06683941 0.016904052 0.62508804 0.30125412
000080 49 97 1e 3e eb 55 dc bd 0b 3f 27 bf 9b 52 ad be
       0.15487398 -0.10758575 -0.6533057 -0.33852085
000090 c6 bf 4f be c3 7d d2 3e f3 38 84 3b 73 da 05 3e
       -0.20288 0.41111574 0.004035109 0.13071613
0000a0 47 8e 33 bd 50 b6 53 3e 2a 14 1d 3f 2f bd a4 3e
       -0.043836858 0.20675015 0.6135889 0.32175586
0000b0 cb 72 2e 3f 0b c1 79 be 54 71 ea bd e0 b3 38 be
       0.6814391 -0.24390046 -0.11447397 -0.18037367
0000c0 6a ce 14 be 2f b8 f9 bd b4 06 8f 3d d4 20 07 bd
       -0.14531866 -0.12193333 0.069837004 -0.03299029
0000d0 16 f5 af 3e 6c 78 4a be ea 6a cb 3d ee fa 67 3e
       0.34366673 -0.197725 0.099325016 0.22654316
0000e0 2e fa fe bc 41 f4 f1 3e e9 4b b0 3e 19 56 4f 3e
       -0.031125154 0.47256663 0.34432915 0.20247687
0000f0 4f f7 0c 3e c2 3d 3a 3f e4 54 10 3d a8 b0 0f 3e
       0.13766216 0.72750485 0.035237208 0.14032233
000100 4a 16 e9 3e 77 30 d5 be 7c 6d 11 be e1 98 4f 3d
       0.45524818 -0.41638538 -0.14201921 0.050682906
000110 05 08 0c bd 98 1b 1a 3f 9b 8c 10 3e 24 90 e8 bb
       -0.034187336 0.60198355 0.14116137 -0.007097261
000120 aa 39 4b be d8 c7 bc bd 78 6a ef 3e 0e dd a1 3e
       -0.19846216 -0.09217805 0.46760917 0.31613964
000130 18 a7 85 bd 94 2b b9 3d 68 b9 42 3d 6d af c2 bd
       -0.06526011 0.09041515 0.0475401 -0.09506116
000140 a3 5d bb be 10 8d ff 3e 74 1c 04 bd 6e 30 82 bd
       -0.36594877 0.4991231 -0.032253698 -0.063568935
000150 e8 c7 11 3f 45 4c 14 be f9 18 11 be 86 92 2c 3e
       0.5694566 -0.1448222 -0.14169683 0.1685277
000160 0b 59 83 be 98 d9 eb 3e 22 5c 93 bd 41 ef e0 3d
       -0.25653872 0.46064448 -0.07195307 0.10983134
000170 c4 5c 2d 3f 0c c0 9e be 50 38 49 bd 8e 9b 7a 3d
       0.67719674 -0.31005895 -0.04912597 0.061183505
000180 d4 5f 3e 3e ca 0c 38 3f f1 36 8f bc 47 e4 42 bd
       0.18591243 0.71894515 -0.017482253 -0.047580983
000190 99 c1 d1 be 96 c2 7b 3d c4 dc 9b bd 09 b7 96 3e
       -0.40968016 0.06146487 -0.07610467 0.2943652
0001a0 00 33 81 3a cc 95 4b bd f2 36 d9 bd 60 fb ca bb
       0.0009857118 -0.049703404 -0.10606183 -0.006194517
0001b0 07 a9 b1 3e 03 a6 f6 be c8 23 40 be c8 0d 0c 3e
       0.3469927 -0.48173532 -0.1876365 0.13677132
0001c0 bd 10 87 bc a2 31 dd 3e ee ff 12 3d cd d9 5a 3e
       -0.016487474 0.4320193 0.035888605 0.21372147
0001d0 7e 34 cc be fa c0 08 3f e3 9c 93 3d 00 3f cc 3d
       -0.39883798 0.5341946 0.07207658 0.09972954
0001e0 3f dc 4a 3f ce 40 09 3f 22 fc 83 bd 11 5b 91 3e
       0.7924232 0.5361451 -0.06444575 0.2838979
0001f0 fc 50 bf 3d 0e 89 3f be 7a 38 21 be 60 88 1d bd
       0.093416184 -0.18704626 -0.157442 -0.038460135
000200 47 7c df 3e d0 69 0d bd 33 01 08 bf 06 3e 17 bf
       0.43649504 -0.03452474 -0.5312683 -0.59079015
000210 61 ad 63 3f 27 65 c0 3d 89 ef 98 bd 2f f4 a0 bd
       0.8893643 0.09394293 -0.07467563 -0.07859074
000220 d7 f8 81 3d 47 90 de 3e 31 f7 e8 be bf 22 87 be
       0.063462906 0.4346945 -0.45501092 -0.26393697
000230 13 2d 03 3e 51 1d 44 3f c4 2e b0 3d 28 1b 2c be
       0.12810163 0.76607233 0.0860267 -0.16807234
000240 06 99 1c be ce 6a fd 3e 7b 9e 20 be e4 2d b0 bc
       -0.15292749 0.49495548 -0.15685456 -0.021506257
000250 82 1d 4c 3f 92 aa 20 3e 43 8f 2d bd c6 48 06 3e
       0.79732525 0.15690067 -0.042372953 0.13113698
000260 fd 25 13 3e 50 b3 3e 3f fb d4 55 3d b7 85 b3 bd
       0.1436996 0.7449236 0.052205067 -0.087657385
000270 80 9a 18 3f 52 e5 a1 be 40 e6 0f 3e 0f 3e 07 3e
       0.5961075 -0.3162027 0.14052677 0.13207267
000280 39 21 02 3f 35 14 90 be 97 e7 89 bd d2 50 ff 3d
       0.50831944 -0.28140417 -0.067336254 0.12466587
000290 a3 8e 63 3e 8d 6a c5 3e 29 1c 3b bf cd 5a 40 bf
       0.2222238 0.38557854 -0.73089844 -0.7513855
0002a0 60 b6 e7 3e 3c 5f 1b be 1f 79 9e 3e 89 c8 8d 3e
       0.4525633 -0.15173048 0.30951783 0.2769206
0002b0 3c a2 95 3d 34 10 28 bd 9c 38 44 3e 2e b3 33 be
       0.073063344 -0.041031078 0.1916222 -0.1754882
0002c0 9e 79 b2 3e bf 91 c4 bd b8 6c 8a be a5 76 85 be
       0.34858412 -0.09598111 -0.2703607 -0.2606708
0002d0 b1 bd 2b 3f bf e3 5c 3f a3 25 8e 3d 53 9f b0 3d
       0.6708632 0.8628501 0.069407724 0.08624139
0002e0 88 07 3d 3f 3b ef dd bd 39 4a 79 bd b1 9d 25 3e
       0.73839617 -0.10836645 -0.0608618 0.16173436
0002f0 86 8d 44 3f e2 81 a0 3e b3 4e 85 3d 43 bf 96 3c
       0.7677845 0.31349093 0.06509151 0.018401748
000300 40 f8 38 3e 09 7c 40 3f db fa 46 3d ce 72 41 3e
       0.1806345 0.7518926 0.04857908 0.18891451
000310 3d 6e 36 3f d8 f6 2e 3c c7 f1 27 be 92 70 04 3e
       0.7126196 0.010678969 -0.16400824 0.12933567
000320 2e 61 2d 3f 26 3e f7 bc 9e 80 87 be 78 39 0e 3e
       0.6772641 -0.030181002 -0.26465315 0.1388911
000330 9c d5 09 bc 47 60 1f 3f c2 4a 9f be 26 c6 98 bd
       -0.008412745 0.6225628 -0.31111723 -0.07459669
000340 c6 d4 21 3d f7 23 d0 3d cd e1 2e 3e 9b 2d 07 be
       0.039509557 0.1016311 0.17078324 -0.13200991
000350 b8 d4 74 bd 0e 0a db bd f4 a0 2b 3e ad 60 32 be
       -0.059773177 -0.10695277 0.16760617 -0.17419691
000360 60 dc 59 3e 94 25 c2 3d da 30 4c bf 96 3c 0b bf
       0.21275473 0.09479824 -0.7976204 -0.5438932
000370 32 3c 13 3f b8 f9 97 3e e0 d6 45 bd bf bb d8 bc
       0.57513726 0.29682708 -0.048300624 -0.026456712
000380 e6 2e e2 3d c0 d5 25 3e 4f c6 46 3e 46 80 87 bd
       0.110441014 0.1619482 0.19411586 -0.06616263
000390 66 45 28 bd 59 2e 57 be 37 cd 44 bc 44 0a ba 3e
       -0.04108181 -0.21013774 -0.012011818 0.36335957
0003a0 e5 50 0c bf 30 03 8d bd b5 e7 d2 bd 3b 8c a4 3c
       -0.54810935 -0.068853736 -0.10298101 0.020086398
0003b0 b1 71 b5 be 61 3b f4 3e 17 bd 5f be 1b da 0e 3e
       -0.35438302 0.47701553 -0.21849476 0.13950388
0003c0 3e 34 c6 be bb 74 4e 3e 1c a3 cf be e0 7a 1b 3c
       -0.38711733 0.20161717 -0.4055413 0.009489745
0003d0 de 40 32 3f e8 dd 51 3f cc be 0a be d5 b1 99 3e
       0.6963023 0.8197923 -0.13549346 0.30018488
0003e0 b6 dc 5d 3f 4c bc c9 3e d2 21 6b 3d a3 85 fc 3d
       0.86664903 0.39401472 0.0574053 0.12330177
0003f0 2f db c1 3b 70 af 22 3f 32 5a 34 3d 01 fe 74 3e
       0.0059160213 0.63548946 0.04403133 0.2392502

all_embed.embed.bias f4 [128]
000000 4c 5b 47 be 30 a1 0c be b3 83 0d 3e b3 fe 0b 3e
       -0.1946842 -0.13733363 0.1381977 0.13671379
000010 f3 9a 84 bc fa 0b f5 be 64 5a e3 be ae d6 a9 be
       -0.016187167 -0.478607 -0.444049 -0.331716
000020 a5 98 c4 3e 28 17 26 3d 7f d7 b0 be 7f 5a 11 3f
       0.3839771 0.040549427 -0.3453941 0.5677871
000030 60 dd d8 bd 64 e3 a0 3e 04 a3 c4 be dc 7e fb 3e
       -0.10589099 0.31423485 -0.3840562 0.49120224
000040 d5 3a b5 3e 58 bf 3f 3c 31 01 6c bd 18 65 23 be
       0.35396448 0.011703335 -0.057618324 -0.15956533
000050 df 58 c1 3e e4 32 c9 3d 4b 8f c5 3d 30 c5 91 3e
       0.37763116 0.0982416 0.096464716 0.28470755
000060 89 e3 f8 3a ed 82 1e 3e 94 c3 c2 be 0c 72 af 3e
       0.0018988709 0.15479632 -0.3803984 0.34266698
000070 7c 2b af be 82 3e bb 3e da bf a7 3c 98 5f a7 be
       -0.34212863 0.36571127 0.020477224 -0.3269012
000080 de 29 51 3e de 3b 9b 3d f3 78 a0 ba ba 20 21 3e
       0.20426127 0.07579778 -0.0012243077 0.1573514
000090 ae e5 2b 3e e2 86 42 be f1 3b 9c 3d 39 31 92 3e
       0.16786835 -0.18996766 0.076286204 0.2855318
0000a0 a2 92 5c 3e 3f 52 44 3e 82 56 8d be ea 44 b6 be
       0.21540311 0.19172 -0.27605063 -0.35599452
0000b0 29 10 92 3e 1c fe 17 be ad 13 d5 3d f1 0a 01 bd
       0.28527954 -0.14843029 0.104041435 -0.031504575
0000c0 00 f1 af 3e 50 f0 15 be bc 5e 24 be 38 f3 e5 3e
       0.34363556 -0.14642453 -0.16051763 0.44912124
0000d0 84 4d d2 bd 78 83 78 be b3 ea 87 3e 9f c0 4d bd
       -0.10268691 -0.24268901 0.2654625 -0.050232526
0000e0 84 76 ac be bc 81 dd bd 94 18 10 3f a5 8b 22 3e
       -0.3368417 -0.108157605 0.56287503 0.15873583
0000f0 34 cc da 3e 66 82 9e bc 1e 8f 30 3d ef 38 7d be
       0.4273392 -0.019349288 0.043105237 -0.2472875
000100 0d 71 37 3d d2 b2 2c 3e e5 0e 8f 3e 51 c5 bd 3e
       0.044785548 0.1686509 0.2794105 0.37064603
000110 e4 f2 9d 3d ba 49 ae be d4 37 8a be e4 aa 61 bc
       0.07712343 -0.34040624 -0.26995718 -0.013773654
000120 11 d7 55 3e 97 74 64 3e 4b 3f 22 be 90 eb 95 be
       0.20882823 0.223101 -0.15844457 -0.29281282
000130 f8 42 ab be 5a a3 bf 3e 24 26 5d be 25 af d0 3e
       -0.3344953 0.37429315 -0.2159658 0.40758625
000140 8d 17 e1 3e 4a 79 fa 3d c2 ef b4 be 46 af 6a 3d
       0.4396328 0.12230165 -0.3533917 0.05729606
000150 95 24 c6 3e 4a 0b e6 be 44 51 2a be d2 86 88 be
       0.38699785 -0.44930488 -0.16632563 -0.2666536
000160 82 6d b3 3e 7a 46 18 3e 84 c9 9b 3e 25 ff 81 bd
       0.35044485 0.14870635 0.30427182 -0.06347493
000170 2c c0 30 3e d2 b7 05 3e 61 e0 5a be 76 cd e7 be
       0.17260808 0.13058403 -0.21374656 -0.45273942
000180 08 0d fc bd 93 fb 81 3e 5c f0 32 3e 60 3e 6e be
       -0.12307173 0.25387248 0.17474502 -0.23265982
000190 b4 91 59 be 53 ea d8 bd 48 b0 ca be 03 3a 35 3e
       -0.21246988 -0.10591569 -0.39587617 0.17697911
0001a0 c4 6a f1 3e d0 bf dc 3e ef d1 09 3f 1a 3b 3b bd
       0.47151768 0.4311509 0.5383596 -0.04571066
0001b0 e8 5e 98 3e 40 d4 07 3d 31 4e 23 3e fa 98 75 ba
       0.29759908 0.0331614 0.15947796 -0.00093688036
0001c0 f0 24 5a be 80 b4 35 bc 44 68 85 3e d4 0b e0 3d
       -0.21303153 -0.011090398 0.2605611 0.10939756
0001d0 74 d0 b4 be 2a 92 e8 be 51 28 f8 3e b4 fe 71 3e
       -0.35315287 -0.45424014 0.4846826 0.23632318
0001e0 34 25 1e bd 81 66 83 bb 6a 5e f4 be 82 4b f8 be
       -0.0386097 -0.004010022 -0.47728282 -0.48495108
0001f0 82 65 b2 be 72 5a 67 3e 90 55 7d 3e 7a 23 32 3e
       -0.3484307 0.22593096 0.24739671 0.17396346

all_embed.embed_2.weight f4 [128, 128]
000000 06 e9 a2 3d 46 b8 a5 3d bc dc 91 bd a4 42 28 be
       0.07954602 0.08091788 -0.0712218 -0.16431671
000010 0c 4b 2b be 30 75 53 3c 80 58 0e be 49 cc 15 be
       -0.16727847 0.012906358 -0.13900948 -0.1462871
000020 85 cc 21 3f 1c 6f eb 3c cc d0 22 be ac 89 0d 3d
       0.632027 0.028739505 -0.15899962 0.034555122
000030 9a 50 fd 3d 19 6c 2c be 52 e9 ed be 3a 70 bc bc
       0.12368889 -0.16838111 -0.46467072 -0.023002733
000040 2f 2a ad bd a2 45 6f be c1 66 74 be c0 b7 d6 bb
       -0.084553115 -0.23366407 -0.23867323 -0.0065526664
000050 8c 5d ad bd 22 f0 0a be 19 ac 5d be 37 bd 15 be
       -0.08465108 -0.13568166 -0.21647681 -0.14622961
000060 72 51 8a bc ea 4c 16 bd e2 e5 bd 3d f4 26 b0 3c
       -0.01688454 -0.036694445 0.09272362 0.02150295
000070 a1 98 a4 be 57 d1 0f bd d0 66 8d be 78 49 6a 3d
       -0.32147697 -0.03511175 -0.27617502 0.05719897
000080 72 9c 05 3f 4a d2 ef be 35 f2 83 bd 50 07 74 be
       0.5219184 -0.46840125 -0.06442682 -0.23830914
000090 9f 89 18 bd b8 ce 1f bf 44 1d e6 bd bf b6 be bd
       -0.03724062 -0.624248 -0.11236051 -0.093122
0000a0 55 61 24 be 02 c1 46 3f 6d 12 ca bd 32 95 f6 3d
       -0.16052754 0.77638257 -0.09866796 0.120401755
0000b0 04 67 06 3f f4 a2 c0 be 91 ce a0 be 70 8e 4e be
       0.5250094 -0.37624323 -0.31407598 -0.20171523
0000c0 b7 ff ce bd ca dd 00 bf 40 7b c3 be ec 49 e2 bd
       -0.101073675 -0.50338423 -0.3817997 -0.11049256
0000d0 13 a8 62 bd 7e 03 d6 3d dc e8 43 3f 17 15 28 be
       -0.05533607 0.10449885 0.7652719 -0.16414295
0000e0 4d 30 cf bd d4 28 b3 bd dd 92 ca 3e d4 5f 7e be
       -0.101166345 -0.08748022 0.39565173 -0.24841243
0000f0 47 42 5f 3d 61 d8 ae be e3 8b 66 be a0 7e 06 bf
       0.054506566 -0.3414946 -0.225143 -0.52536964
000100 8f 34 28 be 00 a2 18 3e a3 62 21 3c 9a 1d 10 3e
       -0.164263 0.14905548 0.009850177 0.14073792
000110 0c ef d5 3d 00 e7 94 be b0 1e 83 3d f3 d7 a8 be
       0.10445985 -0.2908249 0.064023376 -0.32977256
000120 44 01 e0 bc 77 78 8b be c7 b9 b2 be 62 b4 2e 3b
       -0.027344353 -0.27240345 -0.34907362 0.002665781
000130 0e f3 18 bd 4b 57 6e be 60 3e cb 3b 28 77 dc bb
       -0.03734117 -0.23275487 0.006202504 -0.0067280717
000140 c7 53 ef bd d5 00 8d be 00 e0 3c 3a f2 c1 a7 3c
       -0.11685901 -0.27539697 0.00072050095 0.020478223
000150 07 31 2c be 54 db a1 3d b5 fb dd be 04 b5 50 bd
       -0.16815577 0.07903162 -0.433561 -0.05095388
000160 88 84 27 be fa 8d 60 be bf 9c 5b bd fc 45 ac bd
       -0.1635915 -0.2192916 -0.05361628 -0.08411786
000170 d4 64 05 bc 32 a8 85 be 24 e7 da be b6 1e cb 3d
       -0.008141715 -0.26104885 -0.4275447 0.09917967
000180 80 96 24 bb 0a 8c 3d be b2 69 06 3b 6c e4 0d bd
       -0.002511412 -0.18510452 0.0020509777 -0.03464167
000190 6c cf 87 bd c5 5b 1b bf 40 3b 92 bc 43 41 69 3e
       -0.066313595 -0.60686904 -0.017850518 0.22778802
0001a0 85 4c 1d 3f bc 67 4c 3e 72 44 25 3d 1c a1 4c be
       0.61444885 0.19961447 0.040348478 -0.19983333
0001b0 da 11 95 3d 22 c6 d6 bd 06 c4 5a be 92 2a ad be
       0.072787955 -0.104870096 -0.2136384 -0.3382154
0001c0 00 9a 2a bb 63 4f 0b 3e 08 68 47 3f 5a 00 06 3f
       -0.0026031733 0.13604502 0.77893114 0.52344286
0001d0 a8 be 85 be c0 21 f1 3c 11 72 cb bd 09 c8 e0 3e
       -0.26122022 0.029435039 -0.09933866 0.43902615
0001e0 a5 4a 73 be 8d dd 08 3f c8 dc 93 bc de 33 69 bd
       -0.23758943 0.5346306 -0.018049613 -0.05693423
0001f0 4e 64 ee 3d 8f 5b 34 bd c7 7a 6d bd 79 47 92 bd
       0.11640225 -0.04403263 -0.057978418 -0.071425386
000200 1b f9 0f be 63 27 1c 3e 1d d4 1d be da 0f 53 3e
       -0.1405987 0.152494 -0.15412946 0.20611516
000210 7a cd 49 be a8 80 b7 bc 08 18 dd bc 22 62 cf 3d
       -0.1970729 -0.022400215 -0.026988998 0.10126139
000220 f3 ba 11 3e 78 19 94 be f3 86 74 3e 90 1b 8f 3e
       0.14231472 -0.2892568 0.23879604 0.27950716
000230 fe f8 f6 3d f3 67 1b 3e 14 6f 27 3e 71 59 38 be
       0.1205921 0.15176372 0.16350967 -0.18002869
000240 20 ce b6 3e c0 a6 3c be eb c9 f1 3d a9 94 0a be
       0.35704136 -0.18422985 0.11806091 -0.13533272
000250 e3 87 82 be ef 0b 88 3e 2f cf d4 bd a5 56 74 3d
       -0.25494298 0.26571605 -0.1039108 0.059652943
000260 68 df b3 be 83 6b 6e bd e0 db 1d bd 10 ec 0b 3d
       -0.35131383 -0.058208 -0.038539767 0.034160674
000270 05 91 1b 3d 44 0c 76 be 3e a3 24 be c8 40 f5 bc
       0.0379801 -0.24028116 -0.16077897 -0.029938117
000280 84 22 2c 3e 96 90 1e 3e 31 c4 34 be 92 4f 92 be
       0.16810042 0.15484843 -0.17652966 -0.28576332
000290 9f 04 28 be 75 16 ff 3d 25 ff 20 be af 06 6f 3d
       -0.16408013 0.12455455 -0.1572233 0.058355983
0002a0 1c 91 8b 3e eb 5d d7 3d 34 70 aa 3d aa a0 1a be
       0.27259147 0.1051596 0.08322182 -0.15100351
0002b0 f1 0f 82 3d 80 d2 79 be a2 d4 6b 3e 7d 0b 07 3d
       0.06350697 -0.24396706 0.23030332 0.03296994
0002c0 9f c3 fe bd 6f 43 f5 bc f7 67 d8 bd 9d 42 05 be
       -0.124396555 -0.029939381 -0.10566705 -0.13013692
0002d0 93 44 49 3d e2 dc b9 bd 32 57 2a 3d 2b 0e 4f 3e
       0.049137663 -0.09075333 0.041587062 0.20220248
0002e0 51 71 e6 bc 92 e0 cc 3b ac 6a 9d bd 8f b3 6e be
       -0.028130205 0.006252357 -0.07686362 -0.23310684
0002f0 4c ee 3a be fb 1d 4e be b2 42 5c 3d 3a 5b 34 3c
       -0.18254966 -0.20128624 0.053774543 0.011008078
000300 c9 51 1b 3e d9 c1 29 be e5 79 17 be b4 c1 88 be
       0.15167917 -0.16577853 -0.14792593 -0.26710284
000310 58 78 4a 3e be f7 8d be 95 df 0c be 36 8d 86 be
       0.1977247 -0.27728075 -0.13757165 -0.2627961
000320 99 52 69 3e ed 70 b5 be 91 7e 70 be 6e ba 4c 3e
       0.22785415 -0.35437718 -0.23485781 0.19992992
000330 ba 3f a0 3d c2 c6 35 bc 29 29 a3 bd cc ef 8b bd
       0.07824655 -0.011094751 -0.07966835 -0.06832847
000340 74 79 79 3a 05 10 77 be f0 d0 44 bc bd ea ca bd
       0.0009516694 -0.24127205 -0.012012705 -0.09908054
000350 cf eb 49 be 5e 37 a0 bd 5b 30 cc 3b a0 1e 02 bc
       -0.1971886 -0.078230605 0.0062313504 -0.007941872
000360 75 51 01 3e a9 b2 57 3e c3 24 38 be be f3 1b bd
       0.1262873 0.21064247 -0.17982773 -0.038074248
000370 a3 92 67 3e 4c 19 db 3d 75 e6 53 bd e6 ed 1d bd
       0.22614531 0.10698184 -0.051733453 -0.038556956
000380 54 0d 07 3d d3 a4 ae bd b7 b2 3f be b8 e6 90 3c
       0.032971695 -0.085275315 -0.18720518 0.01768814
000390 14 fb 5d 3d bb af 91 3d 29 ff 0f be 38 63 c5 bd
       0.054194525 0.07113596 -0.1406218 -0.09638065
0003a0 a3 d1 a7 3c 3b 9a b9 bd 2c 92 9e 3e 2a d1 71 bd
       0.020485705 -0.0906262 0.30970895 -0.059037365
0003b0 ea 91 86 3d 9a 50 b9 be d3 24 59 bd c0 e6 4c bd
       0.065708 -0.36194307 -0.053013634 -0.050024748
0003c0 f4 13 0a be f0 4a 68 3d dd be d2 3d 7d 0c c0 3c
       -0.13484174 0.05671209 0.102903105 0.023443455
0003d0 80 45 0b bd 3e aa 76 bd e7 1a 33 bd 3c d7 8d 3d
       -0.034001827 -0.06022095 -0.043726828 0.06925818
0003e0 d6 f6 b4 be b2 42 57 3e 50 41 5f bc 00 63 85 3a
       -0.3534457 0.21021536 -0.013626412 0.0010176599
0003f0 99 e0 11 3e 2c 76 c4 be 1f 1b 1e bc 46 68 23 be
       0.14245833 -0.38371408 -0.009650021 -0.15957746

all_embed.embed_2.bias f4 [128]
000000 95 35 85 bd 10 6a 8c bd cb c0 5b bc b2 d9 0a bd
       -0.065043606 -0.06856167 -0.013412665 -0.033899017
000010 4a d5 43 be f5 a0 20 be 8a f1 fd 3d 33 7f c4 bd
       -0.19124332 -0.156864 0.123995855 -0.09594574
000020 e3 50 da bd b3 d5 3f bd 0f 38 fe bd 3b 86 54 be
       -0.10659959 -0.04683466 -0.12413036 -0.2075433
000030 70 4e 2a be dc a1 59 be 75 b1 c2 3c 13 cc 7b bd
       -0.16631484 -0.2125315 0.023766259 -0.061473917
000040 59 f7 23 bc ce 68 aa bd 1c ae 35 3d d7 5c 00 3d
       -0.010007703 -0.08320771 0.044355497 0.03133854
000050 ad 72 dc bc e6 aa 80 bd 42 c7 18 3e 62 bd e9 bd
       -0.02691015 -0.06282596 0.14919761 -0.11413075
000060 fa 57 7b bd e0 10 31 bd 9c 34 b9 bc 61 5a c3 bc
       -0.061363198 -0.043228984 -0.022608094 -0.023846807
000070 a9 34 96 be 64 37 35 bd 57 53 61 bd c7 67 bc 3d
       -0.29337052 -0.044242278 -0.05501112 0.091994815
000080 3a ca 8c 3d 20 b0 7f be 82 33 20 3d 68 68 8b bd
       0.06874509 -0.2496953 0.03911162 -0.06807023
000090 03 dd 07 be 17 96 ea bd 65 bd 88 3d 46 90 47 be
       -0.13267903 -0.114544086 0.06676749 -0.1948863
0000a0 84 b2 a1 bd 37 24 26 be df 30 64 bd 04 f5 d8 3b
       -0.07895377 -0.16224752 -0.05571067 0.006621005
0000b0 de 1d 5d 3c 73 7a 07 be 2d 9c ee bd 31 0c 93 bd
       0.01349589 -0.13230304 -0.11650882 -0.0718006
0000c0 02 73 48 3d a2 f9 91 bd 5b 5e 31 3c ce 4d 7b 3d
       0.048937805 -0.07127692 0.010825719 0.061353497
0000d0 de 92 86 3d e8 47 51 be 7f cd 5a be 5a d3 1b be
       0.065709814 -0.20437586 -0.21367453 -0.15217343
0000e0 f2 89 e1 3d 17 46 09 bc cf 1b b6 be 48 fa cf 3b
       0.11012639 -0.008378527 -0.3556809 0.0063469745
0000f0 4b 6b ac bd 3d c4 25 be 34 62 a8 bd 24 49 e7 bd
       -0.08418902 -0.1618814 -0.08221856 -0.11293247
000100 f2 74 60 bd 16 25 b1 bb ef 80 a0 3d bc 8c dc 3d
       -0.054799028 -0.0054060323 0.07837092 0.107690305
000110 65 5c 79 bd c2 a7 e9 bd 4a d0 3e 3d cb bd 15 be
       -0.06087913 -0.114089504 0.04658536 -0.14623182
000120 12 24 af 3d 9c 2b 19 bd 88 39 d5 3d 23 de 82 be
       0.08551802 -0.037395105 0.10411364 -0.25560102
000130 61 d8 01 3c 8e 1b c8 3c 1e 7b 44 be 2a fd 19 3b
       0.007925124 0.024427202 -0.1918759 0.0023496845
000140 57 79 c4 3b 4d 58 35 3d 2f 73 14 bc c1 a9 3f 3b
       0.00599591 0.044273663 -0.009060665 0.0029245468
000150 30 5c 17 be 2e 11 7c bd ae 04 a5 bd c7 1d 8f 3d
       -0.1478126 -0.06153982 -0.08057533 0.069881015
000160 04 10 6c be 90 b7 cf 3b 8d fd 1d 3d fb 4c b3 3e
       -0.23052984 0.006339021 0.038571883 0.3501967
000170 f8 8a a0 bd 40 bc 96 bd 31 25 11 bd 4a f7 9f bb
       -0.07839006 -0.073601246 -0.03543586 -0.004881774
000180 29 ca 6a be 36 3c bb 3d 09 f1 82 bd d5 0d fa bd
       -0.2292868 0.09142344 -0.0639363 -0.122096695
000190 59 8a 20 3d 0d 2b 26 3e 2d b2 39 3e 1e 77 a1 bd
       0.03919444 0.1622736 0.18134375 -0.07884048
0001a0 d8 40 81 3e 84 b7 a0 3d 61 76 c0 bd f8 75 40 bd
       0.25244784 0.07847503 -0.09397579 -0.046987504
0001b0 cd cf d2 bc 88 f4 17 3d 8b 22 80 bc 45 f3 d9 3d
       -0.025733853 0.037098438 -0.015641471 0.10642103
0001c0 dd 54 71 3d 34 71 c7 bd c0 2d ac bd 18 a5 da bd
       0.058918823 -0.09738389 -0.084071636 -0.106760204
0001d0 2f d6 d5 bd 7f 6c 87 be 61 8b 68 be 92 ca 46 bd
       -0.10441243 -0.26449963 -0.22709419 -0.04853303
0001e0 3e f1 48 bd de 5e c1 3c e3 f3 16 be 3c fa 3f 3d
       -0.04905819 0.023604807 -0.14741473 0.0468695
0001f0 ef fa 3f bc e1 54 55 3c 65 ad 18 be 11 73 b4 ba
       -0.011717542 0.013020725 -0.14909895 -0.0013767203

pointer.v f4 [1, 1, 128]
000000 e5 32 7c bf 0c a5 80 3f 30 06 74 3f 22 54 53 3f
       -0.9851516 1.0050368 0.9532194 0.8255025
000010 75 0a 45 3f 8b 38 06 40 01 53 00 3f b0 bc 56 bf
       0.7696908 2.097201 0.50126654 -0.83881664
000020 28 8e 58 3f 58 bc dd 3f 82 05 83 be 55 8b dd be
       0.84591913 1.7323103 -0.2559014 -0.43270364
000030 34 a7 01 40 ca 9d 04 40 fa 1e 12 bf 1d 92 6b bf
       2.0258303 2.0721307 -0.57078516 -0.92019826
000040 b5 7b 79 bf ae 02 1a bf 22 e8 f5 3e 60 26 a0 3f
       -0.97454387 -0.6016034 0.48028666 1.2511711
000050 5a 26 94 3f 03 6a 8b 3e 5c 80 6b bf e8 1f 3a bf
       1.1574204 0.27229318 -0.91992736 -0.72704935
000060 e3 c2 65 bf 9f a1 47 bf b1 25 b4 3f 4d 11 b2 3f
       -0.897505 -0.7798099 1.4074003 1.391153
000070 af dc 23 40 a5 c8 5c 3e 30 b3 f4 3e 6c cd 31 bf
       2.5603445 0.21560915 0.4779296 -0.69454074
000080 e7 74 b6 3e 9e c0 3c bf 2a e2 ef bf 60 a6 f0 be
       0.35636064 -0.7373141 -1.8740895 -0.47001934
000090 ca cf 1c 40 fa e2 28 3f b6 de b9 3f 67 db 6d bf
       2.4501824 0.6597134 1.4521091 -0.92912906
0000a0 16 6d 65 bf 51 99 bd 3f e1 c4 54 bf 8d e0 ea 3e
       -0.89619577 1.4812413 -0.83112913 0.45874444
0000b0 5a d9 7a bf 28 59 1f 40 c7 7d ab 3f 85 c9 69 3f
       -0.979879 2.4898167 1.3397759 0.9132312
0000c0 ea 55 16 bf 59 5f 84 bf 74 f4 ce bf 57 45 bc 3f
       -0.58724844 -1.0341598 -1.6168351 1.4708661
0000d0 a2 cc 63 bf 1f 27 a6 3f 19 bc 5b bf be 3d 31 3f
       -0.8898412 1.2980689 -0.8583389 0.69234836
0000e0 d2 29 de be 3b 96 9b 3f 0c 2c 1a 40 d2 38 55 bf
       -0.4339128 1.2155222 2.4089384 -0.83289826
0000f0 be 12 e3 3f 5f 08 94 3f 62 44 ba 3f 71 50 af 3f
       1.7740095 1.1565055 1.4552119 1.3696424
000100 53 19 d4 bf 45 52 e4 bf be 1e 0b bf 04 3c 5e bf
       -1.6570228 -1.7837607 -0.54343784 -0.86810327
000110 00 37 85 3f 96 79 5b 3f 7b ca ad 3f 78 0b 68 bf
       1.040741 0.857324 1.3577417 -0.906425
000120 5f 54 bf bf 33 bd 59 be e3 e0 cd be 32 4b 1b 40
       -1.4947623 -0.2126358 -0.40210637 2.4264646
000130 6c 98 a7 3e 17 8a 98 3e 5b 4e 90 3f 8c 7d 0a 3f
       0.32733476 0.29792854 1.1273912 0.5409782
000140 83 5e c7 3e 05 81 db bf db 9d a3 bf 08 bf bd 3f
       0.38939294 -1.7148749 -1.2782549 1.4823923
000150 a0 5b 71 bf b7 aa 60 bf 52 f9 32 c0 d0 01 0b bf
       -0.94280434 -0.8776049 -2.7964673 -0.5429964
000160 17 60 1c 40 d8 82 14 c0 cc a6 36 c0 ad 47 3d c0
       2.4433649 -2.320486 -2.8539305 -2.9574997
000170 ef d3 c2 be d9 4c 64 3f 38 56 ae 3f 16 ed 1e 40
       -0.38052318 0.8917976 1.3620062 2.4832206
000180 bb b6 c5 3f 27 a2 a1 3e 7f 46 8e bf fa fd ed 3f
       1.544639 0.31569025 -1.1115264 1.8593132
000190 2c 6f a2 3e cf 60 91 bf 76 36 9f bf 5c 09 4a bf
       0.31725442 -1.1357669 -1.2438495 -0.7892053
0001a0 1b 37 15 c0 f4 a8 99 bf f6 38 10 c0 80 65 b7 be
       -2.3314884 -1.2004685 -2.2534766 -0.35819626
0001b0 e6 13 08 3f d3 f5 fc be 09 d2 78 bf 95 47 e5 bf
       0.5315536 -0.494063 -0.9719549 -1.791247
0001c0 8b a3 e8 3f cb a3 af bf 58 da 89 bf 2b be b5 3f
       1.8174909 -1.3721861 -1.0769758 1.419866
0001d0 70 99 b2 3f 2f 6b ff bf 1a eb f9 3f 05 5d e5 bf
       1.3953075 -1.9954585 1.9524872 -1.7919012
0001e0 d3 a3 76 bf f8 ea bb 3f 6f 13 1c 3f 2e 22 09 bf
       -0.96343726 1.4681082 0.60967153 -0.5356778
0001f0 9a 08 81 bf 3e 38 fb 3f 86 4c 9b 3f b6 b3 8c bf
       -1.008075 1.9626539 1.2132728 -1.0992343

pointer.encoder_attn.v f4 [1, 1, 128]
000000 36 99 c5 3d bd 35 87 3d 85 29 35 3e 9a f6 05 3e
       0.09648363 0.06602047 0.1769162 0.13082352
000010 41 74 27 3e 34 8a 93 3d 55 cf fa 3d e6 41 cd 3d
       0.16352941 0.072040945 0.12246577 0.10022335
000020 cc d6 33 3e 51 e3 90 bd b8 97 21 be 03 5a 01 be
       0.17562407 -0.07074607 -0.15780532 -0.12631993
000030 8d e6 ef 3d e5 d6 91 3d 0f 36 63 be 6c 27 08 be
       0.11713896 0.07121066 -0.2218859 -0.13296288
000040 be 71 da bd c4 54 bf bd e3 fb e6 be cd 79 2c be
       -0.10666226 -0.0934234 -0.4511405 -0.16843338
000050 e4 cd dc bd 0d da c2 3e 53 26 22 3e 7b a1 10 3e
       -0.10781458 0.38056985 0.15834932 0.141241
000060 4c c7 39 be fb ca 03 3e 04 9d 46 be 84 5f 25 3e
       -0.18142432 0.128704 -0.19395834 0.16149718
000070 38 79 28 3e 2f f2 35 3e 3b bd c8 bd 86 dd aa bd
       0.16452491 0.17768167 -0.09801718 -0.083430335
000080 f9 d6 73 3d a4 ec ce 3d 34 75 45 3e f5 2b df bd
       0.059531186 0.10103729 0.1928299 -0.10897056
000090 04 c7 21 3e 08 f1 89 3d df 4e 7b bd a8 d6 30 3e
       0.15798575 0.06735426 -0.061354514 0.17269385
0000a0 80 b0 3a be 49 be 29 3e b4 41 33 3e c3 92 15 3d
       -0.18231392 0.16576494 0.17505533 0.036516916
0000b0 0c d2 0c be e0 22 6e be 94 32 32 3e d2 28 9b bd
       -0.13752002 -0.23255491 0.17402107 -0.07576145
0000c0 5c bd f9 bd 43 24 da 3d ed 82 22 3e bb 8c 66 3e
       -0.121943206 0.106514476 0.15870257 0.22514622
0000d0 de 4d 6b be 4f ee 02 be d9 4a 0c be c4 33 fb bd
       -0.22978923 -0.1278622 -0.13700427 -0.12265733
0000e0 cb 94 dc 3d e7 fd 8a 3e 03 4c dd bd 14 50 14 3e
       0.107705675 0.27146837 -0.10805514 0.14483672
0000f0 73 9d de bd 69 f2 b4 be de 8d 78 be 68 5b e7 3d
       -0.10869875 -0.35341194 -0.24272868 0.11296731
000100 bc 0f c9 3d 1c 39 e6 3d fb ee 39 3e 92 2b bc 3d
       0.09817454 0.112413615 0.1815757 0.09187998
000110 49 d5 e8 3d c6 99 b3 3d be 41 75 3d 33 cd 7d bd
       0.11368806 0.08769564 0.05987715 -0.06196327
000120 2a 4d 14 3e 8f 74 f5 bd 01 df a5 bd 28 c9 92 bd
       0.14482561 -0.119851224 -0.08099175 -0.07167274
000130 e2 f7 30 3e aa 1f 26 3e 65 f7 f6 bd b5 11 d4 3d
       0.1728206 0.16223016 -0.120589055 0.1035494
000140 70 48 76 3e aa fe 24 be aa 48 08 be 2d d3 47 3e
       0.2405107 -0.16112772 -0.13308969 0.19514151
000150 ba 9d 49 be 32 dc e1 bd 79 24 e0 bd 6d 79 52 3e
       -0.19689074 -0.11028327 -0.109444566 0.20554133
000160 7c 54 a0 bd 89 22 a8 bd 03 7f 2a 3e b1 ea 45 be
       -0.07828614 -0.08209712 0.16650014 -0.19327809
000170 c0 74 be bd b6 8e d1 bd 23 f0 80 bc 43 c4 a7 3e
       -0.09299612 -0.10232298 -0.015739506 0.32766923
000180 e6 3b bc 3d f4 11 d2 bd af 3c c9 3d 7f d7 be 3d
       0.09191112 -0.102573305 0.098260276 0.09318446
000190 9b 7d 04 be 3b 26 2a 3e 4f 9a 84 3d ec 90 34 3e
       -0.1293854 0.16616146 0.064747445 0.17633408
0001a0 0e d7 3c 3e 00 a7 25 be d4 be 83 bd 23 ed 77 3d
       0.18441412 -0.16176987 -0.06432882 0.060528886
0001b0 62 b6 48 3d c7 30 b6 3e ca c4 95 3d 07 37 5f be
       0.04900206 0.3558409 0.07312925 -0.21798335
0001c0 6e 92 1d be 75 8c fa bd 3e fe db bd 9f 8a 1d be
       -0.1538789 -0.12233821 -0.10741852 -0.15384911
0001d0 5f 0d fc 3d 68 85 4d 3e 6b 8b b7 3d 61 10 1b 3e
       0.12307238 0.20070422 0.08962139 0.15142967
0001e0 3f ba 73 3d a4 49 0f be ee 53 23 3e f3 91 a3 3d
       0.05950379 -0.13992935 0.15949985 0.07986822
0001f0 07 53 5f bc 3c de 2a 3e 13 b0 46 3e 6f 13 f6 bd
       -0.013630635 0.16686338 0.19403104 -0.120154254

pointer.encoder_attn.W f4 [1, 128, 256]
000000 17 da a9 bd 31 7d 5d bd da 19 58 3c 12 b9 69 bd
       -0.082935505 -0.05407447 0.013189757 -0.057061262
000010 9e 0c 9d bb ee 38 06 bc 46 57 9f bd 55 42 37 3d
       -0.004792764 -0.008192284 -0.07780318 0.044740994
000020 70 18 13 3d 06 aa 17 bd 8e e6 9e 3c 62 6e b8 bd
       0.035911977 -0.03702738 0.019397046 -0.09005429
000030 3d 23 08 3d a6 53 dd ba aa af 87 3d ef 48 ec bd
       0.03323673 -0.0016885891 0.06625302 -0.115373485
000040 1c e8 a0 3b e7 57 ab bd cf 55 25 bc ab 26 37 bd
       0.004910482 -0.083663754 -0.010091259 -0.04471461
000050 31 1c b8 ba 39 8f 8e bc 65 d1 15 3d 93 bf a3 bd
       -0.0014046488 -0.017402278 0.036576647 -0.07995524
000060 7f 4f 30 3b 54 87 d6 bd e9 97 66 3c 26 94 16 bd
       0.0026902852 -0.104750305 0.014074304 -0.03676238
000070 ac aa 14 3d 9e f2 37 bd 13 ff b6 bd 89 b5 8e 3d
       0.036295578 -0.044909112 -0.0893537 0.06968219
000080 82 4d ab bd 65 fb fa ba 64 84 b9 bc 50 f6 c2 bc
       -0.08364393 -0.0019148408 -0.022646137 -0.023799092
000090 59 9c 9c 3c 73 4b 25 bd 16 24 a7 bc a1 10 b3 bd
       0.019117521 -0.040355157 -0.02040295 -0.08743406
0000a0 54 98 f1 bd 69 9c 69 bd 29 d2 be 3d e1 5c ad bd
       -0.117966324 -0.05703393 0.093174286 -0.08464981
0000b0 ab d9 0f 3d 9f 77 65 bd bd 41 22 bd 82 68 63 3b
       0.035119694 -0.056022283 -0.039613474 0.0034699743
0000c0 e0 e6 e2 bc 41 a1 c5 bd 2f c3 b0 bb 7c fa 0b bd
       -0.02769798 -0.09649897 -0.0053943614 -0.034174427
0000d0 38 58 90 3d 86 6c 76 3b f2 8a cb bd 8d 60 92 3c
       0.070480764 0.0037601306 -0.09938611 0.017868305
0000e0 da c9 9d 3d c1 b9 90 bc fe de 14 3c 11 31 8e 3c
       0.07704516 -0.0176667 0.009086369 0.017357381
0000f0 d5 d7 cc bb 72 a9 32 3c 1a 4c 96 bc 49 4c 3e bc
       -0.006251315 0.010904657 -0.018346835 -0.0116148675
000100 95 c6 63 bd d5 82 37 bd b3 31 d8 3c 74 1a 41 3d
       -0.055609304 -0.044802506 0.026390886 0.04714437
000110 02 23 d0 3c 34 85 a5 3c 1a 41 13 ba 4a af b3 bd
       0.025407318 0.020205118 -0.0005617306 -0.08773668
000120 60 66 ee 39 72 d9 ab 3a e1 b6 53 3c 6f 15 14 3d
       0.00045471173 0.0013111068 0.01292202 0.036153253
000130 7b 9e 3c 3d 4b 27 a6 bc 93 54 ac bb 35 fd 5b bd
       0.046049576 -0.020282408 -0.0052591055 -0.053708274
000140 4b 5e 6f bd 93 13 44 3d da 8a e8 bd 61 c5 9a bc
       -0.058439534 0.04787023 -0.11354609 -0.018892946
000150 d9 92 c1 bd 83 fd b8 bd 42 9e 81 bd 10 c7 4a bd
       -0.09451837 -0.090327285 -0.063290134 -0.049506247
000160 21 2e e6 3c 18 bc 3b bd 0d 72 91 bd 7c 2a 69 bb
       0.028098168 -0.045833677 -0.071018316 -0.0035578301
000170 68 c6 b5 3d 06 dd 9d bc 14 77 85 bc f2 72 5b bd
       0.088757336 -0.019270431 -0.016292132 -0.053576417
000180 a6 a9 e8 bb 50 33 8e bd ed 3c a2 bd b0 4c 33 bb
       -0.007100302 -0.06943381 -0.07921777 -0.0027358942
000190 03 0c 2e bd 6e 9f 88 bc 86 42 b9 bc 0d 9f d7 bd
       -0.042491924 -0.016677584 -0.022614729 -0.105283834
0001a0 72 be 57 bd 3f a4 fc 3b df 84 28 3d ff d8 83 3d
       -0.052671857 0.0077100093 0.04114234 0.06437873
0001b0 cf 25 bb bd 76 ec ad 3d af f6 fe bd 94 94 23 bd
       -0.09138071 0.08492367 -0.12449395 -0.039936617
0001c0 4f 09 10 3d 66 4c 9f 3a 55 09 c7 bd 2c e7 58 bd
       0.035165127 0.0012153506 -0.09718577 -0.052954838
0001d0 12 4e 33 3c d7 e1 19 bc f9 db e0 bc 43 02 80 bc
       0.010943906 -0.009392223 -0.027448641 -0.015626078
0001e0 1f 9f 95 3b 41 a3 b1 3a e6 95 08 bd 67 8a 6d 3d
       0.004566088 0.0013552682 -0.03334608 0.05799332
0001f0 9a b2 0b 3d 96 48 de bc 42 d2 d7 3b c9 09 b4 bd
       0.034105875 -0.027134221 0.006586344 -0.08790929
000200 63 44 1f bd 9c 41 e9 bb 81 c7 97 bc 78 fb f0 bc
       -0.038883578 -0.007118417 -0.018527748 -0.029416785
000210 1c 99 f2 3c 28 75 44 3c 3d 26 29 3d ea bd 89 bd
       0.029614024 0.011990823 0.041296232 -0.06725676
000220 67 b2 2a 3d e9 9a ee 3c 0c 8f 05 bb 5a f4 b0 3b
       0.041674044 0.029126601 -0.0020379452 0.0054002227
000230 16 ed 77 3d a6 2a 9f bd 9b 16 1a bd 84 cb 98 3c
       0.060528837 -0.077718064 -0.037619215 0.018651731
000240 98 3f 1b bd 28 97 61 bd 4e 42 3b 3c ba ec b6 bd
       -0.037902445 -0.055075794 0.0114293825 -0.08931871
000250 74 2e 82 3d d1 07 a1 bc 8e c9 04 bc 8a 8c 10 bc
       0.063565165 -0.019657047 -0.008104695 -0.00882257
000260 12 f0 12 3c 06 07 a2 bd 0d 5c 25 3d 69 2f 55 3d
       0.00896837 -0.07911496 0.04037099 0.052047167
000270 3b 67 28 3d 51 2e 92 bd 5c 3c ab 3a f6 b0 06 bd
       0.041114073 -0.071377404 0.0013064253 -0.032883607
000280 9d 30 dd 3c c7 19 6e 3c f9 da 5a 3d 3e 3b 84 3d
       0.02700072 0.014532513 0.053431485 0.06456612
000290 92 ce 3e 3d e5 d6 30 3a 63 fa 26 bd 32 e2 1f 3d
       0.04658372 0.0006745889 -0.04076613 0.039034076
0002a0 71 99 65 bd ab 58 a0 bd bb 4b 2f 3c 89 30 6a 3c
       -0.056054536 -0.07829412 0.010699208 0.014293798
0002b0 07 29 4a bd db 40 e2 bc 44 05 4e 3d 18 fe 30 3d
       -0.049355533 -0.027618816 0.05029799 0.043211073
0002c0 78 ab 8d 3d 0e 91 bf bd e5 52 4a bd 18 b2 b8 bc
       0.06917471 -0.09353839 -0.04939546 -0.02254586
0002d0 44 67 3b 3b 69 0a 02 bd 56 8a df 3c 5e 60 8f bb
       0.0028595487 -0.03174821 0.027287643 -0.0043755015
0002e0 3d 27 5e bc db 71 a9 bd 67 de dd 3b 4e 0d 28 bd
       -0.01355916 -0.08273669 0.006770897 -0.041028313
0002f0 a8 64 52 bc 35 af 31 3d 4f f6 aa bd 7b a9 c8 3b
       -0.012841381 0.04337998 -0.08347761 0.0061237193
000300 46 c3 3e bd fd e4 81 3c f6 8b 3a bd 26 0c bf 3d
       -0.046572946 0.01585626 -0.045543633 0.09328489
000310 61 31 93 bc 5c e9 bf 3c e4 50 42 3d 31 33 a4 bd
       -0.017967882 0.023426704 0.047440425 -0.080175765
000320 a6 33 30 3c a1 c3 e2 bc 43 22 8c bc 0c b7 6a bd
       0.010754501 -0.027681174 -0.017106181 -0.057303473
000330 9a e7 28 bd ec 21 7b bc c6 a3 8d bd 2c 48 44 bc
       -0.041236497 -0.015327912 -0.06916003 -0.011980098
000340 5e 78 b8 3d 25 46 50 3c 70 23 7a bc 4a 64 8d 3c
       0.09007333 0.012712036 -0.015267238 0.017259736
000350 41 52 be bb 84 fc 7c bd 1c 92 0b 3c f0 6c d2 bb
       -0.0058081453 -0.061764255 0.008518722 -0.006421678
000360 70 34 db 3a df 0f 07 bd 92 2c 6c 3d 45 cf 29 3d
       0.0016724002 -0.03297412 0.057659693 0.041457433
000370 6b 72 98 bd 63 7d 99 3c c6 e2 84 3d e8 c7 a1 3d
       -0.074436985 0.018736547 0.06488566 0.07899457
000380 d5 93 73 bd 20 c4 6b bd a9 91 e7 bc 2f d4 5c bd
       -0.059467155 -0.057560086 -0.028267698 -0.05391329
000390 cd 54 96 bd 0b f9 28 bd bf dc 05 bd 8c 5e 49 3b
       -0.07340393 -0.04125313 -0.032681223 0.003072652
0003a0 d4 1b 7e bd 85 24 0b bd e3 ce df 3c 42 83 26 bd
       -0.062038258 -0.033970375 0.027320331 -0.04065252
0003b0 3c 73 d6 bb fe 97 25 bd 2c b3 25 bd ba 69 57 3d
       -0.0065444987 -0.040428154 -0.040454075 0.052591063
0003c0 fd b2 23 bd 76 f3 56 bd 24 ee 48 3d 2e ce b2 bd
       -0.03996562 -0.052478276 0.049055234 -0.08730732
0003d0 da 6e 08 3d 7e 87 5b 3d f2 15 5c 3d 70 bb 22 3a
       0.03330884 0.053596012 0.053731866 0.000620774
0003e0 d3 16 b9 bd 2d af 78 3d 93 ec 8e bd a1 5c 22 3d
       -0.090375565 0.060713936 -0.06978717 0.03963912
0003f0 99 47 8a bc 5e c2 b5 3d dc b7 bc bc f2 45 dc bc
       -0.016879844 0.08874963 -0.02303689 -0.026888821

pointer.fc1.weight f4 [128, 256]
000000 ba 37 66 3b 7e 03 3b 3c 9f 23 1d bd fc 70 e1 3d
       0.003512843 0.011414407 -0.03836405 0.11007878
000010 ac 05 07 3d 09 05 94 bd 1e 15 a1 3c a3 eb 65 3e
       0.032964393 -0.07227523 0.01966339 0.2245317
000020 76 cb de bd fb 3d f6 bc 30 5b 5b 3d c0 61 0f be
       -0.10878651 -0.030058851 0.05355376 -0.14002132
000030 13 b0 2c be bf dc 22 3b 18 15 e6 3d 93 4e 31 3c
       -0.16864042 0.0024850813 0.11234492 0.010821956
000040 b8 39 a7 3d c4 aa 0f 3d 58 3a dc bd e5 6e 07 3e
       0.08165306 0.035074964 -0.10753316 0.13225897
000050 72 56 23 3b d2 a8 1c 3d 1f b4 31 3e 1d c6 f4 3d
       0.0024923352 0.038246937 0.17353867 0.119518496
000060 db c5 96 3d 0b 59 48 3d b0 9f 56 3d 1e c6 b1 bc
       0.07361957 0.048913043 0.052398384 -0.021700915
000070 76 88 49 be cb 5d a5 bd a3 ac 4f 3d 67 14 5f bd
       -0.19680962 -0.0807453 0.05070175 -0.054462817
000080 1f 6b 2f be 84 0e 20 3d 8f 20 33 be 65 14 a3 bd
       -0.17130707 0.039076343 -0.17492889 -0.07962874
000090 06 f9 ab 3d ea 62 25 3d 99 87 6a 3d 32 1d 20 bd
       0.08397107 0.040377535 0.057258222 -0.039090343
0000a0 54 d0 d6 3d 00 d3 32 3e c3 e5 a4 3d e0 2e 67 bc
       0.10488954 0.17463303 0.08051636 -0.014110297
0000b0 23 7f 71 3d 9a fc f2 3d 85 1e ba bd ae b1 b6 3c
       0.058959138 0.11864586 -0.090878524 0.022301521
0000c0 ba 99 f7 bd 23 4d aa bc 33 59 a3 bd a3 38 09 3e
       -0.12089868 -0.020788735 -0.07975998 0.13400511
0000d0 8a ce b7 bd 77 bd f2 3c 98 7c 98 bc 34 0b 3c be
       -0.08974941 0.02963136 -0.018614098 -0.18363649
0000e0 4b d0 6f 3d 2b 94 c2 3d 44 72 19 be b7 3d 87 3d
       0.058548253 0.09500917 -0.14984995 0.06603568
0000f0 1a 39 a8 3d 20 8d c1 bd 69 54 6e 3e d7 20 9c 3b
       0.08214016 -0.094507456 0.23274387 0.004764657
000100 ad fe d3 3d f7 be ea bd 2c c3 a5 3d e3 b2 81 bd
       0.1035131 -0.11462205 0.08093867 -0.06332948
000110 85 c6 07 3c cf 4f 7f 3c 96 c2 1f be bc 9d c3 3d
       0.008287077 0.015582993 -0.15601572 0.0955157
000120 eb 67 46 3d 45 a0 19 3e 25 61 17 bd b0 d3 be 3d
       0.048438948 0.15002544 -0.03695788 0.0931772
000130 67 10 80 3c 30 76 ca bd 9f d2 17 3e 64 d6 d8 3d
       0.015632821 -0.09885824 0.1482644 0.10587767
000140 93 2c 70 be a7 11 20 bd 8d b4 9d 3b 02 2b 44 3d
       -0.23454504 -0.039079335 0.004812783 0.047892578
000150 4d ad a0 3d 8c 73 10 3e cb 0c 7c 3d 9d 0c 8a 3d
       0.078455545 0.14106578 0.061535638 0.06740687
000160 b9 cd 75 3d 9b b8 1e 3e a0 33 df 3d 64 a3 d9 bd
       0.060010646 0.15500109 0.108985186 -0.106268674
000170 97 de 3e 3e e8 d9 07 bd a8 cc 91 3c bf 45 2f be
       0.18639599 -0.033166796 0.017797783 -0.1711645
000180 a1 a9 a1 3c 40 96 1e 3d 12 7c cf 3d fe 6e 6d bc
       0.019734206 0.03871751 0.101310864 -0.014491795
000190 71 d6 3d 3e 45 28 a0 3b ad dc bd 3c d1 29 ee bd
       0.18538834 0.004887613 0.023176515 -0.116290696
0001a0 2d 0b 64 3e de 20 0c bc a7 b5 38 bd 47 eb bc 3b
       0.22269888 -0.008552758 -0.045095112 0.005765352
0001b0 7f 2c fa bd c3 2a a7 3c 37 24 c3 3d 42 ba 09 be
       -0.12215518 0.020406133 0.09528392 -0.13449958
0001c0 9e b4 36 3e 5b 41 13 3e f7 47 9b be f8 00 4a 3b
       0.17842337 0.143804 -0.30328342 0.0030823331
0001d0 3a b5 3e be d6 27 84 bc 9a 19 0a 3c 9e 7c b5 bb
       -0.1862382 -0.016132277 0.008428955 -0.005538537
0001e0 b5 82 45 bd 12 af d6 3c 22 40 83 3d f1 f6 82 3b
       -0.048220355 0.026206527 0.06408717 0.003996723
0001f0 1a a4 0b 3e 6d 40 c5 bd 8f bc f5 3d 76 47 ca 3d
       0.13636819 -0.09631429 0.11998855 0.09876911
000200 53 88 21 3d c0 3f f6 bd 12 9f 0e 3e 4f 3a 8c bd
       0.03943665 -0.12023878 0.13927868 -0.06847059
000210 15 bb ef bc c3 a5 be 3b 53 8a a2 3c 76 29 22 3e
       -0.029264012 0.0058181 0.019841349 0.15836129
000220 27 74 53 3d 59 99 d8 bd 33 c5 c4 bd ec e2 9b bc
       0.051624443 -0.10576124 -0.09607925 -0.019029103
000230 a8 77 e9 3d dc 5c 93 bd a8 51 0c 3d 94 84 86 3d
       0.11399776 -0.07195446 0.03425756 0.06568256
000240 65 f1 a6 bd 62 cc 84 bc f6 84 ed bd 00 e0 3a bd
       -0.08151511 -0.016210739 -0.11597626 -0.04562378
000250 ce 7a 0a be bb 94 c8 3d 2e 09 04 3e 7c 29 54 bd
       -0.13523409 0.09793993 0.12894127 -0.051797375
000260 25 88 64 3d bb 5b a6 bd 25 9a 9e 3d 72 36 89 3c
       0.0557939 -0.08122965 0.077442445 0.016749594
000270 6c 10 75 3c c1 39 64 3d b0 32 9f bd 94 c2 73 bd
       0.014957529 0.05571914 -0.0777334 -0.059511736
000280 71 6f 21 be b3 99 fe 3d 43 f2 02 be e7 6a ee 3c
       -0.15765168 0.124316595 -0.12787728 0.02910371
000290 f0 fd 27 3b 1f a8 7e 3d 16 7d a0 bd 93 9c c7 3d
       0.0025633536 0.06217205 -0.07836358 0.09746661
0002a0 86 5f 04 be c1 41 15 3c e4 cf 1d 3e e4 3b 42 be
       -0.12927064 0.009109915 0.15411335 -0.18968159
0002b0 b8 61 ad bc 20 ad 57 bd 24 d1 61 bd 34 52 d0 3c
       -0.02116476 -0.05265534 -0.055131093 0.025429823
0002c0 d9 77 28 bd f5 fd b8 bd f7 8f b6 bd e4 e6 bc bc
       -0.04112992 -0.090328135 -0.08914178 -0.023059316
0002d0 ea 8c 61 3d 53 2a 81 bd ab 84 63 3d 21 61 af 3d
       0.055066027 -0.06306901 0.055546444 0.08563448
0002e0 a3 65 01 3e d6 2d fc 3b c6 e5 3c bd 91 02 f6 bc
       0.12636428 0.0076958938 -0.046117567 -0.03003052
0002f0 13 51 ce bc 0b fb 7b 3d c7 8b 23 3d 72 b7 19 3c
       -0.025185144 0.06151871 0.039928224 0.009382116
000300 27 06 52 bd 79 9c 76 3d 10 b8 a0 bc 46 de cd bd
       -0.0512754 0.060207818 -0.019619018 -0.10052161
000310 f7 ca 20 be bb 0f c5 3b 98 a2 5e 3d 25 92 93 3d
       -0.15702425 0.006013838 0.05435428 0.07205609
000320 60 6e 15 bd 4d 12 d1 3d 81 e8 f4 3c 19 bd 24 3e
       -0.036482215 0.10208569 0.029896023 0.1608776
000330 24 63 15 3c 61 9f 1b 3d aa 7c b3 3d 63 83 9b bd
       0.009117875 0.037993792 0.08764012 -0.075934194
000340 17 3b 86 3d 88 7c 7a 3c 23 15 9e bc 05 63 1e be
       0.06554239 0.01528848 -0.019297188 -0.1546746
000350 f8 48 74 3d b7 78 d8 bd 06 b5 09 bd aa de fe bc
       0.0596399 -0.105698995 -0.033619903 -0.031112034
000360 52 c7 a4 3d 67 24 ed ba bf e8 c2 bd 7b c4 16 bd
       0.0804583 -0.0018092514 -0.09517049 -0.036808472
000370 41 1a 5a 3d 83 55 db 3c b6 36 2c bd 65 c7 0b 3d
       0.053247694 0.026774174 -0.042044364 0.034125704
000380 7e 02 ca bd 23 ec 77 3d de 55 ed bd e6 7d 69 bd
       -0.098637566 0.060527932 -0.115886435 -0.05700483
000390 5b 13 80 bd 4d 14 4b bd 54 6d 79 bd 84 5a 1e bd
       -0.06253692 -0.049579907 -0.06089528 -0.03866054
0003a0 60 7f 82 bd ea 1d be bc b7 b2 cf 3d d8 6e f5 3d
       -0.06371951 -0.023207624 0.10141509 0.119840324
0003b0 ec 49 38 bd 46 cc 88 bd fc 82 5f 3d a6 9d 17 be
       -0.044992372 -0.06679587 0.054568276 -0.14806232
0003c0 fb ba c9 bc e6 19 c6 bd 97 22 e9 3d a1 1f 18 be
       -0.024625292 -0.096729085 0.113835506 -0.14855815
0003d0 75 30 af bd ba 75 a2 3d 8e b6 6e 3c 92 1d da bd
       -0.08554164 0.07932611 0.014569892 -0.10650171
0003e0 84 08 c9 3c 66 7c 73 3d d5 62 0f be a6 b7 68 bd
       0.024540193 0.059444807 -0.14002545 -0.056815766
0003f0 77 7e 47 3c 55 1c 1e bd 53 eb 09 3c 14 15 fc bd
       0.012176148 -0.03860124 0.008417922 -0.12308708

pointer.fc1.bias f4 [128]
000000 76 7b b4 bc 67 19 7b 3c cc f6 2f 3d 56 3d 2c 3c
       -0.022031527 0.015325881 0.042959973 0.0105126705
000010 be ce c9 3b d2 30 85 bd f0 24 5f 3c 64 19 b5 3a
       0.006158679 -0.06503452 0.013619646 0.0013816771
000020 1d 37 9c 3c 1d e4 c7 bc 1d 87 4b 3d 55 00 71 3b
       0.019069249 -0.024400765 0.0496894 0.003677388
000030 16 a8 83 3c 27 dc e6 3d 25 f0 57 3d 75 3f 64 bd
       0.01607136 0.112724595 0.052719254 -0.05572458
000040 ee cf 3b bc 15 5c c1 3c 56 ef 10 bd 17 23 ba 3c
       -0.0114631485 0.023603478 -0.0353845 0.02272181
000050 e9 5d a9 bc d6 63 3c bd bd dc bb bd 8e 39 57 bd
       -0.020674663 -0.04599365 -0.09172962 -0.052545123
000060 43 75 fb bc 9e 5a d9 3d 24 5b 41 bd 53 38 1e 3d
       -0.030695563 0.10612987 -0.04720606 0.038627934
000070 5e de 85 3c 19 75 ce 3d 3c 7b 69 bd 31 30 cc bc
       0.016341385 0.10080928 -0.05700229 -0.024925323
000080 f0 c5 da 3c d6 0e 4d bd f0 15 65 3c 95 59 85 bb
       0.026705712 -0.050062977 0.013982281 -0.004069517
000090 df 5f be 3d d8 4c 26 3c 16 d2 7a bd 17 28 d5 bc
       0.0929563 0.010150157 -0.06123551 -0.026020093
0000a0 fc c1 74 3c d3 cd f7 ba 9b 58 2c 3d f2 8f 80 3d
       0.014938828 -0.0018905945 0.04207669 0.062774554
0000b0 64 7c a0 bc d1 02 9f 3b fd cc c7 3d f8 0d 3f 3d
       -0.019590564 0.0048526307 0.09755895 0.04664418
0000c0 8e 9f 8b 3d 50 e8 18 3c d9 91 ac bd 94 60 93 bc
       0.06817542 0.009332731 -0.08426256 -0.017990388
0000d0 88 ab 12 bd 90 df da 3c 15 4d 5d bc 04 d9 cf bd
       -0.035808116 0.026717931 -0.013507147 -0.10148814
0000e0 26 e9 95 3c 8d b7 6f bb 63 9f 4c bc 39 91 41 bd
       0.01829965 -0.003657791 -0.012489173 -0.047257636
0000f0 67 45 2f bd 37 62 9d 3b 67 9b 78 bd 64 68 aa 3d
       -0.042790797 0.004802968 -0.06069508 0.08320692
000100 97 a7 14 3d c8 e8 95 3d 45 bf 9c bc 15 0d 6d bd
       0.03629264 0.0731979 -0.019134173 -0.057873804
000110 29 fa 16 3d 1c 65 4d 3d 48 ef 23 3d 8f a5 91 bd
       0.036859665 0.050145254 0.04002312 -0.07111656
000120 cb 1e 40 3d fd 32 d4 bd 39 98 11 3c ff af 43 bd
       0.046904366 -0.10361288 0.00888639 -0.047775265
000130 ca db 8a 3c 72 e0 8c 3d a5 ce da bc 45 74 27 3d
       0.016950507 0.06878747 -0.026709864 0.040882368
000140 f6 2a 10 bd d1 8e 9f 3c 31 51 12 bd b5 af 6e bd
       -0.03519722 0.01947728 -0.03572196 -0.058273036
000150 3d d1 60 bd 5b 84 4e bd e3 51 6f bb 00 d3 10 bc
       -0.054887045 -0.050419193 -0.0036517314 -0.008839369
000160 39 17 47 bd 79 68 54 3d 12 1b 82 bd 5b 02 40 bd
       -0.04860613 0.051857445 -0.063528195 -0.046877246
000170 a0 f4 8e 3a aa 2f f5 bc 6e 3a 40 bb c3 04 99 3d
       0.0010906644 -0.029929955 -0.0029331702 0.07471611
000180 76 99 c5 3c 89 24 4a 3d f1 ae 20 3d a1 fc 8c 3d
       0.024121027 0.04935125 0.039229337 0.06884123
000190 2c 35 b3 bd 39 d0 75 bd 98 fd bf 3c 4e 65 62 3c
       -0.08750376 -0.06001303 0.023436353 0.013818098
0001a0 c1 62 47 3d 91 8c 30 3c 58 91 3d bd d0 5d cd 3d
       0.048678163 0.010775701 -0.04628119 0.10027659
0001b0 6d 65 39 3d 55 35 e2 3c 56 95 34 3d 63 2a 44 3d
       0.045262743 0.027613321 0.04408773 0.047891986
0001c0 ad 8d b2 bc 88 50 d1 3d f8 ee 27 bd 1c 6c 2f bc
       -0.021796072 0.10220438 -0.040999383 -0.010706928
0001d0 a1 b4 97 3d fd 16 9b bd 34 78 88 bd f8 92 07 3d
       0.07407499 -0.07572744 -0.06663552 0.033099145
0001e0 f4 c7 c5 bc 1a 98 c8 ba 25 06 54 3d e3 34 45 bd
       -0.024143197 -0.0015304119 0.051763672 -0.04814614
0001f0 5e 27 54 bc ea d0 8a 3d 58 3a 0f 3c e4 86 48 3d
       -0.012948839 0.067781284 0.008741938 0.048956767
