trained_models/cvrp/XE_17/model_incumbent_vrpRl13_C_XE_17_P_0.05_52053.pt (torch_old, 469732 bytes, 15 tensors)

all_embed.embed.weight f4 [128, 4]
-0.060640007 0.024265092 0.76189595 0.14729291 0.21765696 0.3848851 -0.4362979 0.33600014
0.56650865 -0.2031373 -0.048626214 0.02891942 0.6362757 -0.3109594 0.1494337 -0.008531514
-0.31376994 0.101218596 -0.46798423 -0.37717867 -0.07249974 0.10050291 -0.15799788 -0.1325776
-0.36428946 0.44749707 0.42484567 -0.083066 0.09304796 0.91362864 0.18462133 -0.12716375
0.7807911 -0.16511999 -0.17268424 -0.031085309 -0.549087 0.005005669 0.07020556 0.26921952
-0.27728918 0.523511 -0.21794558 0.21174033 0.6416084 0.49854866 -0.4441301 0.26746148
0.09436073 0.15614188 -0.15320519 0.034180805 -0.25915524 -0.5498771 0.61601216 0.09288258
-0.05718383 -0.464729 0.33480188 0.5463872 -0.007023573 -0.18199173 -0.102575734 0.065148145
-0.18469588 0.5016521 0.22233434 0.2413905 0.39201614 0.7297554 -0.1170675 -0.13770463
-0.19105601 -0.15665635 -0.18122049 0.07912761 0.21811257 0.11248728 -0.35646918 -0.54230523
-0.0057972497 -0.03368025 0.63375914 0.18798701 -0.063637175 0.6795724 0.29004782 0.20471066
0.27180228 -0.114362314 0.206206 0.29169485 -0.13295794 -0.07238287 -0.47257632 -0.36022338
-0.42955202 0.34299165 -0.17262422 0.23187755 0.04885274 -0.11831533 0.08424479 -0.04545006
-0.086439244 0.82155234 0.16759329 -0.020986965 -0.26984856 0.6612621 -0.003343155 0.26232073
0.07189831 0.024572328 -0.06327912 -0.021006301 0.903163 0.22434737 -0.18165196 0.066943645
0.7826356 0.23211622 -0.3767972 0.22103688 -0.26010162 0.6539798 0.38628584 0.043746293
0.09365007 -0.17383222 0.017472073 -0.02888389 -0.057184428 -0.04217851 -0.10054547 -0.13353366
0.17798653 -0.16571888 0.10943699 -0.17065062 0.26131263 0.490348 -0.082793154 0.29359767
0.19187406 0.15559255 0.36886883 0.06788718 -0.18640187 -0.06978829 -0.05247329 -0.1444379
0.5777653 -0.30868194 0.10351986 0.056617968 0.5660378 0.89694065 0.31905466 -0.06741679
0.1144551 -0.40485647 -0.30332 0.15376277 0.90591747 0.061938602 0.0812019 -0.18786944
-0.31565183 0.62952286 0.029318208 0.09011324 0.69393414 0.044847965 0.17460962 0.19748926
-0.10504646 -0.047094956 0.11159083 -0.1359465 0.6049359 0.38006055 0.1514442 0.20651075
0.6437508 -0.3779649 0.20845853 -0.008205665 0.22857729 0.32414368 -0.61720407 -0.50608575
-0.28218716 0.5640253 -0.082601845 0.11332858 -0.005951956 -0.15041348 -0.16807061 -0.09063482
-0.21723689 -0.20471084 -0.30446422 -0.29808605 0.3540262 0.6938746 0.47909904 -0.2007407
-0.4196487 0.58714956 -0.06425693 0.1428663 0.29323718 0.32268003 0.23846504 0.18526396
0.6354385 -0.3649421 0.31360605 -0.06264905 -0.028586611 -0.049261 -0.6599375 0.30034482
-0.5090183 0.5932546 -0.033301033 -0.026779663 0.32407063 0.2317703 -0.3749866 -0.64156103
-0.08081278 0.04290102 -0.4585848 -0.5467049 -0.010148361 0.1304689 0.033195958 0.013147041
0.5956523 -0.1373699 -0.2294755 0.30196786 0.16503498 -0.3991866 0.2827639 0.34729943
0.16950667 0.23482947 -0.60880315 -0.42820707 -0.5632086 0.12781018 0.13056567 0.2684319
00000000: a861 78bd 96c7 c63c 9d0b 433f f4d3 163e
00000010: 77e1 5e3e a90f c53e 7062 dfbe 3608 ac3e
00000020: b606 113f 3903 50be 482c 47bd 6be8 ec3c
00000030: f7e2 223f 1236 9fbe 2605 193e c3c7 0bbc
00000040: 74a6 a0be b24b cf3d a19b efbe 901d c1be
00000050: be7a 94bd 78d4 cd3d 32ca 21be 6cc2 07be
00000060: 2684 babe 561e e53e 5f85 d93e 821e aabd
00000070: ee8f be3d 91e3 693f 600d 3d3e 3737 02be
00000080: ede1 473f 3715 29be 23d4 30be 9ea6 febc
00000090: f790 0cbf 9806 a43b efc7 8f3d 24d7 893e
000000a0: d9f8 8dbe d104 063f 202d 5fbe 75d2 583e
000000b0: 7340 243f c541 ff3e 0565 e3be b6f0 883e
000000c0: 3340 c13d a8e3 1f3e d2e1 1cbe 2c01 0c3d
000000d0: ffaf 84be bfc4 0cbf f9b2 1d3f 3939 be3d
000000e0: 9739 6abd f6f0 edbe 276b ab3e 08e0 0b3f
000000f0: 0026 e6bb 0a5c 3abe 3a13 d2bd 646c 853d
00000100: eb20 3dbe 466c 003f 9dab 633e 122f 773e
00000110: 57b6 c83e 40d1 3a3f 16c1 efbd 7102 0dbe
00000120: 30a4 43be 866a 20be dd91 39be a80d a23d
00000130: e758 5f3e bb5f e63d 2183 b6be 84d4 0abf
00000140: dbf6 bdbb 4df4 09bd 0a3e 223f ab7f 403e
00000150: 3554 82bd 75f8 2d3f 2681 943e ac9f 513e
00000160: ab29 8b3e ca36 eabd aa27 533e 0759 953e
00000170: 2026 08be 783d 94bd 86f5 f1be 336f b8be
00000180: 3eee dbbe 9a9c af3e 67c4 30be 4f71 6d3e
00000190: d019 483d 4f4f f2bd 8888 ac3d d829 3abd
000001a0: 0f07 b1bd 4151 523f 939d 2b3e dbec abbc
000001b0: 9729 8abe 7948 293f d518 5bbb e74e 863e
000001c0: 6c3f 933d e84b c93c 7c98 81bd 6815 acbc
000001d0: b135 673f 51bb 653e f902 3abe c019 893d
000001e0: cf5a 483f e0af 6d3e 90eb c0be 7e57 623e
000001f0: 0a2c 85be 386b 273f 42c7 c53e 502f 333d
00000200: 9ccb bf3d 1301 32be 9821 8f3c e89d ecbc
00000210: 383a 6abd 60c3 2cbd c9ea cdbd 0cbd 08be
00000220: 1a42 363e 36b2 29be 8020 e03d 09bf 2ebe
00000230: c5ca 853e e50e fb3e 758f a9bd 6f52 963e
00000240: a27a 443e a753 1f3e 60dc bc3e 6f08 8b3d
00000250: 22e0 3ebe 2aed 8ebd 3cee 56bd 87e7 13be
00000260: 6de8 133f 8f0b 9ebe 3802 d43d 3ee8 673d
00000270: dae7 103f e79d 653f 225b a33e d011 8abd
00000280: 6f67 ea3d 5949 cfbe c24c 9bbe fd73 1d3e
00000290: 35ea 673f 55b3 7d3d 2f4d a63d d960 40be
000002a0: 1e9d a1be 6928 213f bd2c f03c 4a8d b83d
000002b0: aba5 313f 80b2 373d ddcc 323e a03a 4a3e
000002c0: 9922 d7bd a4e6 40bd bc89 e43d 8f35 0bbe
000002d0: 14dd 1a3f 4c97 c23e 3014 1b3e 8e77 533e
000002e0: dacc 243f 9e84 c1be 2776 553e 0e71 06bc
000002f0: 2a10 6a3e 29f6 a53e 1601 1ebf d68e 01bf
00000300: d67a 90be f663 103f 282b a9bd d118 e83d
00000310: a008 c3bb fe05 1abe b41a 2cbe c09e b9bd
00000320: 5973 5ebe b89f 51be bce2 9bbe bc9e 98be
00000330: ec42 b53e c4a1 313f 784c f53e f88e 4dbe
00000340: 32dc d6be 6f4f 163f 2399 83bd 8b4b 123e
00000350: 2f23 963e 5136 a53e 2e30 743e d6b5 3d3e
00000360: 19ac 223f b1d9 babe f990 a03e 254e 80bd
00000370: 782e eabc e7c5 49bd aaf1 28bf ccc6 993e
00000380: 064f 02bf 89df 173f aa66 08bd 0661 dbbc
00000390: 96ec a53e 3255 6d3e 3efe bfbe 583d 24bf
000003a0: 2c81 a5bd fbb8 2f3d a0cb eabe daf4 0bbf
000003b0: 5045 26bc a499 053e 7cf8 073d b066 573c
000003c0: ab7c 183f b2aa 0cbe a0fb 6abe 889b 9a3e
000003d0: eefe 283e 3062 ccbe 6ec6 903e 3bd1 b13e
000003e0: 2893 2d3e 2377 703e 86da 1bbf f53d dbbe
000003f0: 702e 10bf ace0 023e 02b3 053e e86f 893e

all_embed.embed.bias f4 [128]
-0.42253643 -0.14593548 0.33121163 0.27530387 0.13174212 -0.41701555 0.44538713 0.29080266
0.25107974 0.499702 0.3060721 -0.34383038 -0.37047762 0.6103757 -0.08296987 -0.3659253
0.55639154 0.1608657 -0.46481055 0.15895517 -0.5500066 -0.097937785 -0.05423083 0.22886766
0.15682238 -0.3098712 0.13350226 0.007922154 -0.25156003 0.29884738 0.37464014 0.51617634
-0.33359104 -0.32890648 -0.36844325 0.40522903 -0.2742408 -0.21181273 0.184012 0.5775533
0.27556303 0.44757393 0.21117184 0.3398736 -0.13948238 0.27935314 0.29600167 0.050675772
0.18747823 -0.27282488 0.18157817 0.35237235 0.24088843 -0.39547822 0.4608526 -0.24766384
0.5066589 0.20335941 0.52064526 -0.31979978 0.004622225 0.007230625 0.084361345 0.62906194
-0.22880794 0.17578642 -0.1780996 0.06389604 0.5335565 -0.26894468 0.4087862 0.43712974
-0.2633913 0.44653 0.55956274 0.0969028 -0.050403237 0.22470707 0.40145528 -0.3176179
-0.3396473 -0.028920908 0.5714465 0.11711017 -0.043857716 -0.48874325 0.2814173 0.4057313
0.20919865 -0.25340486 0.23516041 -0.282556 -0.026651692 0.41687638 -0.43237776 -0.36340797
-0.26877987 0.22532171 -0.3194692 0.03443642 -0.33328277 -0.3506418 0.28718 -0.19458151
0.058210246 0.50149816 -0.339424 0.30851215 0.010242323 -0.33536607 0.29447934 -0.20829076
0.29869768 -0.21442807 -0.30167943 -0.40598488 -0.44630837 0.24263862 0.41010994 -0.34891057
-0.22793645 -0.4820339 0.15234886 0.04755569 -0.14867641 0.24416792 0.62956405 0.10081546
00000000: b256 d8be 1c70 15be 9294 a93e a1f4 8c3e
00000010: 68e7 063e 1083 d5be c809 e43e 16e4 943e
00000020: 868d 803e f1d8 ff3e 7bb5 9c3e 890a b0be
00000030: 3eaf bdbe 9541 1c3f 1bec a9bd 905a bbbe
00000040: ad6f 0e3f fab9 243e a6fb edbe 25c5 223e
00000050: 3ccd 0cbf 9b93 c8bd 2621 5ebd 495c 6a3e
00000060: 0c96 203e 70a7 9ebe d1b4 083e eccb 013c
00000070: 7acc 80be 8602 993e d5d0 bf3e 2224 043f
00000080: 72cc aabe 6e66 a8be 98a4 bcbe 2e7a cf3e
00000090: 4a69 8cbe 70e5 58be a46d 3c3e 88da 133f
000000a0: 9916 8d3e 6928 e53e 6e3d 583e ea03 ae3e
000000b0: 78d4 0ebe 6007 8f3e 888d 973e 6691 4f3d
000000c0: 4bfa 3f3e b4af 8bbe a1ef 393e 266a b43e
000000d0: 75ab 763e 1f7c cabe dff4 eb3e 979b 7dbe
000000e0: 66b4 013f 733d 503e 0249 053f ccbc a3be
000000f0: 0976 973b e1ee ec3b a4c5 ac3d 340a 213f
00000100: a14c 6abe 5b01 343e be5f 36be eddb 823d
00000110: 2997 083f 1eb3 89be 6d4c d13e 78cf df3e
00000120: 39db 86be 959f e43e 813f 0f3f fa74 c63d
00000130: a073 4ebd 9c19 663e 8c8b cd3e d09e a2be
00000140: 40e6 adbe 8aeb ecbc 514a 123f 75d7 ef3d
00000150: 26a4 33bd 8e3c fabe ee15 903e 03bc cf3e
00000160: 2c38 563e 48be 81be e4cd 703e 2eab 90be
00000170: a654 dabc d270 d53e 9e60 ddbe 9c10 babe
00000180: 849d 89be bcba 663e 7891 a3be 340d 0d3d
00000190: 0aa4 aabe 5287 b3be 4209 933e 6040 47be
000001a0: de6d 6e3d 2f62 003f fcc8 adbe 4ef5 9d3e
000001b0: 6bcf 273c 1ab5 abbe ffc5 963e 2c4a 55be
000001c0: e7ee 983e 0893 5bbe ba75 9abe 40dd cfbe
000001d0: 8882 e4be 4276 783e eef9 d13e 68a4 b2be
000001e0: 2c68 69be 26cd f6be 5701 1c3e c1c9 423d
000001f0: a13e 18be 2807 7a3e 1c2b 213f 5678 ce3d

all_embed.embed_2.weight f4 [128, 128]
-0.1116775 -0.1848999 -0.13826957 -0.046849933 0.28397393 -0.051753186 0.09454007 0.14473131
0.03983112 -0.26419663 -0.22074413 -0.19818898 0.14004615 0.048314415 -0.18719688 0.041077062
-0.058147654 0.22520824 -0.13343246 0.085717306 -0.32301134 -0.2515626 -0.16196643 0.29887828
-0.22879957 -0.099620864 -0.14003918 -0.30419526 0.12623985 -0.1429426 -0.021053504 -0.017884172
0.039762467 0.122046635 0.06673111 -0.2917631 -0.038418815 -0.067869335 0.04132145 -0.17568213
-0.06786464 0.04849674 -0.079609394 0.034788158 0.09346643 -0.08785255 0.07480428 0.19248343
-0.060197238 -0.11521077 0.1985569 0.2634938 -0.2865169 -0.40396798 -0.037902363 -0.38740444
-0.13570853 0.29888827 0.15897687 0.14591958 -0.091604814 -0.09261897 0.115709946 -0.26263726
0.08857165 0.012983842 0.08709765 0.08510856 -0.031017294 0.072974205 -0.06474487 0.19715413
0.04230024 -0.030387558 -0.17313562 -0.09750754 0.0020339936 -0.15401408 -0.029884133 0.011638552
-0.08081478 -0.19362086 -0.17819524 0.13906899 0.0881614 0.10126831 -0.15931426 -0.19996238
-0.11553077 0.08825554 -0.20445845 0.081850305 -0.29561839 0.23097742 -0.46290222 0.08018489
0.085599646 0.01753697 -0.016569242 -0.11587147 -0.1189271 -0.44266874 0.056131892 0.08442727
0.16515659 -0.147274 -0.031164475 0.1316911 0.3282698 -0.06757206 0.21516506 0.122075126
0.21431561 0.1112857 -0.03903929 -0.0056142807 -0.004701212 -0.006850585 -0.22485642 0.11427252
-0.10129493 -0.072799355 -0.13118944 -0.12455953 -0.029425094 -0.12988763 -0.1514152 0.055407837
0.07936042 -0.17803892 0.34242606 0.3958551 0.35649356 0.032262713 -0.31393188 -0.383094
0.09025774 -0.09558205 -0.39368552 0.08969016 0.06807931 0.3407476 0.2245451 -0.044029422
-0.11170345 -0.17729874 -0.043648466 0.32266623 0.053281598 -0.261657 0.20055185 0.24762152
-0.26208144 -0.055097282 -0.5830348 -0.31236935 -0.016145378 0.15945724 0.055812277 -0.33983052
-0.06732597 -0.13032977 0.075166166 -0.19750082 0.25523183 -0.11787374 0.18882568 -0.23564118
0.24356881 0.08428249 -0.50156766 0.11239618 -0.0707908 0.021454783 0.24875394 0.15323426
-0.37344265 -0.14809957 0.20899628 -0.27890027 -0.40537107 0.20879774 0.14457598 0.27411377
-0.5366201 0.31507802 0.2757584 -0.004170865 0.18333802 0.16611001 0.28111374 -0.24955572
-0.048912615 0.25216037 -0.11297426 0.11531971 -0.4491595 -0.07531376 -0.079038404 -0.18702461
0.16614038 -0.37769306 -0.2735081 -0.45214197 -0.09105108 -0.12643236 -0.03339208 -0.14609544
0.24146584 -0.220811 0.16439982 0.28104958 0.33622155 -0.069528 -0.25037366 0.02009561
0.17522298 0.12786229 -0.31489125 -0.12089944 -0.25380158 0.34104377 0.21216348 0.02274122
-0.07964707 0.28996477 -0.006411016 -0.35728475 -0.11104347 0.009334429 0.12888221 -0.08098873
0.23748907 0.07440749 0.034033924 0.38726303 0.108160555 0.07022776 -0.34746054 0.08792797
-0.14942157 0.074537724 -0.04125137 -0.13987453 0.030564576 -0.39493033 -0.3031721 0.1309091
-0.077702425 0.058119044 0.25978372 -0.3182458 -0.0074245967 -0.19412178 -0.17685138 0.2897878
00000000: 2cb7 e4bd 6656 3dbe 8a96 0dbe b7e5 3fbd
00000010: 0865 913e 26fb 53bd 399e c13d 7234 143e
00000020: f525 233d c844 87be c00a 62be 0df2 4abe
00000030: 4268 0f3e 56e5 453d 8ab0 3fbe 6c40 283d
00000040: 3c2c 6ebd fd9c 663e 85a2 08be 8e8c af3d
00000050: be61 a5be d0cc 80be 87da 25be 9306 993e
00000060: 6f4a 6abe 0606 ccbd 6e66 0fbe 7bbf 9bbe
00000070: 0545 013e 8c5f 12be 6678 acbc d481 92bc
00000080: f8dd 223d 96f3 f93d 52aa 883d f961 95be
00000090: 0c5d 1dbd 14ff 8abd ae40 293d 04e6 33be
000000a0: 9efc 8abd 85a4 463d 400a a3bd 077e 0e3d
000000b0: 546b bf3d 0aec b3bd fd32 993d 601a 453e
000000c0: 6191 76bd a0f3 ebbd 8052 4b3e a9e8 863e
000000d0: 58b2 92be e4d4 cebe 823f 1bbd e059 c6be
000000e0: 2df7 0abe e207 993e d5ca 223e f16b 153e
000000f0: 4e9b bbbd 04af bdbd 56f9 ec3d 6478 86be
00000100: 0e65 b53d 2eba 543c 4160 b23d 664d ae3d
00000110: fb17 febc 8073 953d f598 84bd c6e2 493e
00000120: 0443 2d3d 54ef f8bc 774a 31be 08b2 c7bd
00000130: c04c 053b deb5 1dbe 92cf f4bc a0af 3e3c
00000140: 3882 a5bd 8c44 46be d078 36be 1a68 0e3e
00000150: f78d b43d c265 cf3d 4723 23be f0c2 4cbe
00000160: 659b ecbd 52bf b43d 8e5d 51be 22a1 a73d
00000170: 4b5b 97be 5885 6c3e 8501 edbe fa37 a43d
00000180: de4e af3d b1a9 8f3c 38bc 87bc 054e edbd
00000190: 0d90 f3bd 7aa5 e2be 8eea 653d 34e8 ac3d
000001a0: cf1e 293e ffce 16be a44c ffbc 08da 063e
000001b0: fb12 a83e 3863 8abd 3b54 5c3e 8602 fa3d
000001c0: 8d75 5b3e c2e9 e33d aae7 1fbd 00f8 b7bb
000001d0: a00c 9abb df7a e0bb c340 66be b607 ea3d
000001e0: b773 cfbd d417 95bd 8656 06be 1119 ffbd
000001f0: e50c f1bc 4301 05be 960c 1bbe 54f3 623d
00000200: b787 a23d d64f 36be 7852 af3e 85ad ca3e
00000210: 5386 b63e e825 043d aebb a0be e624 c4be
00000220: 0dd9 b83d 86c0 c3bd 2691 c9be 79af b73d
00000230: 2a6d 8b3d 7876 ae3e 27ef 653e 3258 34bd
00000240: c7c4 e4bd cd8d 35be bcc8 32bd 8234 a53e
00000250: ce3d 5a3d e8f7 85be 775d 4d3e 7f90 7d3e
00000260: 8a2f 86be b0ad 61bd c541 15bf e0ee 9fbe
00000270: 5043 84bc c248 233e 6a9b 643d 44fe adbe
00000280: 33e2 89bd 2b75 05be b8f0 993d a83d 4abe
00000290: bfad 823e ca67 f1bd 855b 413e ec4b 71be
000002a0: 1a6a 793e 4c9c ac3d bd66 00bf f82f e63d
000002b0: c4fa 90bd f1c1 af3c 5ab9 7e3e 71e9 1c3e
000002c0: e033 bfbe 6aa7 17be 1f03 563e 04cc 8ebe
000002d0: cc8c cfbe 13cf 553e ba0b 143e a458 8c3e
000002e0: ef5f 09bf e851 a13e 3430 8d3e c0ab 88bb
000002f0: f6bc 3b3e be18 2a3e 24ee 8f3e 898b 7fbe
00000300: 9858 48bd 2a1b 813e 0c5f e7bd bd2c ec3d
00000310: 3cf8 e5be 1a3e 9abd e3de a1bd 6183 3fbe
00000320: b420 2a3e fc60 c1be 4109 8cbe 277f e7be
00000330: fd78 babd 7c77 01be 22c6 08bd 0b9a 15be
00000340: d242 773e 471c 62be 6d58 283e bbe5 8f3e
00000350: 3b25 ac3e b264 8ebd fa30 80be 8c9f a43c
00000360: a76d 333e 55ee 023e 6d39 a1be 209a f7bd
00000370: 48f2 81be 4a9d ae3e 6241 593e cc4b ba3c
00000380: 011e a3bd 4376 943e 8013 d2bb 07ee b6be
00000390: c26a e3bd 6fef 183c b3f9 033e 6bdd a5bd
000003a0: 5630 733e f462 983d 2867 0b3d 5747 c63e
000003b0: 4883 dd3d 92d3 8f3d 59e6 b1be 9413 b43d
000003c0: f801 19be 3ca7 983d 32f7 28bd 453b 0fbe
000003d0: 9062 fa3c 4f34 cabe 6039 9bbe 090d 063e
000003e0: 7322 9fbd 3c0e 6e3d 5f02 853e 1df1 a2be
000003f0: 084a f3bb dcc7 46be 8718 35be 115f 943e

all_embed.embed_2.bias f4 [128]
-0.06341592 -0.14268987 -0.10777467 -0.10590119 0.046264376 -0.0659382 -0.08618482 -0.20091061
-0.064161696 -0.10237132 -0.023494722 -0.061956584 -0.00584763 -0.045424316 -0.061687186 0.10158538
-0.024151847 -0.036591858 -0.17984954 -0.092400745 -0.14020623 0.022463521 -0.011693928 0.09682186
-0.01622572 0.15460837 -0.17381382 0.08010659 -0.028196167 0.045199536 0.112712614 -0.07956184
-0.009128101 -0.02846643 -0.25185603 0.0028579633 0.010868688 0.12899229 -0.037768718 -0.15872088
0.124588765 0.057862166 0.18987367 -0.053993408 -0.06352146 0.059722617 0.057048276 -0.052222263
0.036447834 0.15015776 0.013055982 0.0187124 -0.16844283 -0.08539632 -0.021328846 0.115458675
-0.08184015 -0.13054444 0.03612699 -0.029827388 -0.052393887 -0.1854483 0.027538592 0.026641317
-0.07137068 0.1281141 -0.014496894 0.09096165 0.07381768 -0.066680804 0.056824442 0.082963884
0.15461989 0.08641362 0.017048968 -0.043668427 -0.08828014 0.08807168 -0.0029091937 -0.11765538
-0.10277907 0.06397129 -0.16580054 -0.013419621 -0.13948338 -0.17095965 0.045769602 -0.024464797
-0.105129175 0.027391998 0.110390164 -0.0829714 -0.026503686 -0.12455567 -0.058836646 0.20377563
0.039850164 0.15970105 0.18300374 0.1130213 -0.022511378 -0.09090055 -0.024149528 0.0013656316
-0.27994788 -0.039869692 -0.10594599 0.13012367 -0.039949536 -0.22649276 -0.059130974 0.02416821
0.040582538 0.030181538 -0.04565389 -0.16129747 -0.01846599 -0.2297042 -0.07614714 -0.11448855
-0.1780705 -0.0972993 -0.07592866 -0.11009617 0.052547146 -0.0053046644 -0.058906745 -0.0028936428
00000000: 35e0 81bd 4b1d 12be f7b8 dcbd b9e2 d8bd
00000010: b77f 3d3d 9b0a 87bd ab81 b0bd 83bb 4dbe
00000020: 3567 83bd 0ea8 d1bd 0178 c0bc 30c6 7dbd
00000030: 7a9d bfbb d90e 3abd b4ab 7cbd ff0b d03d
00000040: 18da c5bc 58e1 15bd 7a2a 38be 9a3c bdbd
00000050: 3992 0fbe 6b05 b83c e497 3fbc 8a4a c63d
00000060: cdeb 84bc a851 1e3e 40fc 31be ed0e a43d
00000070: a6fb e6bc 2623 393d dfd5 e63d 51f1 a2bd
00000080: 088e 15bc 6e32 e9bc 46f3 80be ab4c 3b3b
00000090: 9512 323c 8e16 043e 5fb3 1abd ba87 22be
000000a0: 6528 ff3d e100 6d3d 3e6e 423e 3128 5dbd
000000b0: 8a17 82bd b49f 743d 74ab 693d 03e7 55bd
000000c0: 534a 153d f5c2 193e c2e8 553c bf4a 993c
000000d0: 477c 2cbe 44e4 aebd d5b9 aebc 9975 ec3d
000000e0: cf9b a7bd 71ad 05be e5f9 133d 9158 f4bc
000000f0: f99a 56bd 29e6 3dbe 9d98 e13c e43e da3c
00000100: cb2a 92bd 5830 033e 6184 6dbc 1a4a ba3d
00000110: b92d 973d f28f 88bd bfc0 683d f8e8 a93d
00000120: ad54 1e3e a0f9 b03d 47aa 8b3c aadd 32bd
00000130: 38cc b4bd ed5e b43d 2ca8 3ebb 4ef5 f0bd
00000140: d57d d2bd 6103 833d 9ec7 29be f8dd 5bbc
00000150: bbd4 0ebe 0c10 2fbe e878 3b3d 666a c8bc
00000160: f74d d7bd 2f65 e03c 3d14 e23d e9ec a9bd
00000170: 421e d9bc 0b17 ffbd b2fe 70bd 8faa 503e
00000180: ed39 233d ac88 233e 5565 3b3e b677 e73d
00000190: c869 b8bc 112a babd 3bd5 c5bc fefe b23a
000001a0: 5455 8fbe 674e 23bd 36fa d8bd 243f 053e
000001b0: 20a2 23bd b8ed 67be 5233 72bd 69fc c53c
000001c0: e039 263d 463f f73c 93ff 3abd 2a2b 25be
000001d0: fd45 97bc 9437 6bbe 08f3 9bbd f978 eabd
000001e0: 1d58 36be db44 c7bd 7c80 9bbd 1a7a e1bd
000001f0: ad3b 573d c0d2 adbb 3348 71bd 45a3 3dbb

pointer.v f4 [1, 1, 128]
-1.1167269 2.0572698 -1.6270047 0.6753188 0.24105246 -0.2548959 -0.27083412 -1.5029411
0.43907887 1.1140503 1.6016529 -0.080264956 0.33115637 -1.1787646 1.3452213 -1.0072718
0.9273025 0.48765424 1.04472 0.75026524 2.2696962 1.8994154 -0.81482404 -0.48801824
-0.71408963 -1.0550683 1.5752803 -0.82694936 -1.2875493 -0.34385338 -1.3447062 1.7039232
-0.36895996 2.181039 1.8735487 -1.2935876 -1.3626082 -0.66217935 -1.2818279 1.232352
-0.7240979 -0.72268635 -1.220763 1.8044689 1.129751 1.2049696 -1.1350679 -0.60310096
-0.6951843 -1.0545039 1.5580584 -0.7233276 1.6726277 1.7659796 1.5403657 -2.1588576
0.49957386 2.054376 -1.2029136 1.6860783 -1.5997403 -1.7319951 -0.9229954 -0.6182469
1.0043821 -1.108679 -2.1442115 -0.5928976 0.17490849 0.9411067 1.6541141 -1.3980037
-1.6257257 -1.1185787 1.9033662 -1.0000849 1.1768018 -1.764081 0.33519027 1.4870284
0.94587123 -0.95500195 0.46748522 1.2079505 0.9963869 0.9855377 -1.2464602 3.3404226
0.97243017 -0.7641601 2.0309074 1.8425529 -1.0073239 2.466246 -1.0051131 -1.0438954
-1.1367717 -1.8136219 -1.2144208 -1.147274 -1.5460056 1.2344635 1.5989894 1.2958231
1.8684392 2.0289948 -0.9314784 0.8455792 2.3345714 1.4477736 -0.8501228 0.8109759
0.114580914 1.6077963 2.1065023 0.874555 2.3386059 1.8127607 -0.5423243 1.5537593
-2.6925626 -3.3395813 -1.1706866 1.162974 -1.4593544 -0.7187026 0.7230479 2.259506
00000000: e8f0 8ebf 4faa 0340 b141 d0bf b1e1 2c3f
00000010: 75d6 763e b781 82be c5aa 8abe 6060 c0bf
00000020: f2ce e03e 3399 8e3f f602 cd3f f461 a4bd
00000030: 548d a93e c2e1 96bf 3630 ac3f 48ee 80bf
00000040: b263 6d3f d1ad f93e 63b9 853f 6211 403f
00000050: b442 1140 0b20 f33f 4f98 50bf 87dd f9be
00000060: 94ce 36bf 7a0c 87bf c9a2 c93f f4b2 53bf
00000070: 6ace a4bf 8d0d b0be 551f acbf 281a da3f
00000080: 52e8 bcbe 2596 0b40 72d0 ef3f 4794 a5bf
00000090: f269 aebf 9684 29bf f012 a4bf b6bd 9d3f
000000a0: 7b5e 39bf f901 39bf f641 9cbf d6f8 e63f
000000b0: ae9b 903f 723c 9a3f e849 91bf d364 1abf
000000c0: 99f7 31bf fcf9 86bf 756e c73f ff2b 39bf
000000d0: aa18 d63f 9f0b e23f b42a c53f b92a 0ac0
000000e0: 25c8 ff3e e57a 0340 13f9 99bf 6ad1 d73f
000000f0: 4ac4 ccbf 04b2 ddbf 6d49 6cbf 6e45 1ebf
00000100: 988f 803f 32e9 8dbf c33a 09c0 23c8 17bf
00000110: 361b 333e 5eec 703f 03ba d33f c9f1 b2bf
00000120: c817 d0bf 962d 8fbf 81a1 f33f c802 80bf
00000130: 71a1 963f 68cd e1bf 0f9e ab3e f256 be3f
00000140: 9e24 723f 027b 74bf 395a ef3e 1f9e 9a3f
00000150: 3613 7f3f 334c 7c3f 028c 9fbf 7cc9 5540
00000160: 2ff1 783f ff9f 43bf 63fa 0140 c6d8 eb3f
00000170: fdef 80bf f9d6 1d40 8ca7 80bf 5d9e 85bf
00000180: bc81 91bf c324 e8bf 2472 9bbf e0d9 92bf
00000190: 83e3 c5bf e602 9e3f afab cc3f 88dd a53f
000001a0: 0429 ef3f 0ddb 0140 5e75 6ebf e177 583f
000001b0: 9e69 1540 a550 b93f a6a1 59bf 1e9c 4f3f
000001c0: 66a9 ea3d 45cc cd3f efd0 0640 d6e2 5f3f
000001d0: b8ab 1540 8b08 e83f c4d5 0abf 96e1 c63f
000001e0: f252 2cc0 b3bb 55c0 0fd9 95bf 55dc 943f
000001f0: 20cc babf e5fc 37bf ab19 393f bf9b 1040

pointer.encoder_attn.v f4 [1, 1, 128]
0.11073893 0.16710615 0.11122174 0.11338532 0.017813403 -0.03330019 0.045068767 0.15417093
-0.1344644 -0.13277926 0.037711363 -0.2670552 0.012914159 -0.13037223 -0.066931285 0.022880102
-0.007890914 -0.13775732 -0.06065176 0.010184029 0.16134794 0.24000911 0.055551235 0.16685502
0.021966295 -0.1253737 0.050665267 -0.08435296 0.03813521 -0.25961393 -0.25660154 0.19838192
0.025727825 0.10979858 0.007884708 0.16026711 0.12545533 0.16068055 0.20197321 0.0022875878
-0.009127133 0.0034069836 0.06278692 0.036007255 0.02129744 -0.16323914 -0.0007369063 -0.16349606
0.011580095 0.112686634 -0.1362238 -0.07675475 -0.12686463 0.05534073 0.09606087 -0.0006826739
-0.17554441 -0.02075839 -0.07867941 0.24960642 -0.043760072 -0.13454802 -0.0578482 0.0380838
-0.015896441 0.3771274 0.17387158 -0.22101973 -0.12481067 -0.0056702783 0.04539973 0.041155074
0.05905045 0.18525425 0.15867318 0.010738375 -0.13360281 -0.15284613 -0.22848071 -0.00018191662
0.010738871 0.08232057 -0.19161005 0.006961431 0.005666215 0.22777827 -0.017454213 -0.17171235
0.23823792 -0.10457506 -0.116271615 0.0003148905 0.09945461 -0.12457915 -0.22535716 0.017349325
0.067431435 0.18882947 0.017115261 -0.12016371 0.092190094 0.1938252 -0.13629122 -0.043784432
0.112286665 -0.074912034 0.142423 0.020145945 -0.05102355 0.007015474 -0.10517026 0.16815615
-0.2020669 -0.16505319 0.045512207 -0.10942891 -0.050191756 -0.062116835 0.01808718 -0.16862525
0.23567286 -0.069570854 -0.11081213 -0.15510976 -0.0277246 0.08509702 0.071721956 -0.12550344
00000000: 18cb e23d e01d 2b3e 39c8 e33d 9036 e83d
00000010: 6aed 913c c865 08bd 079a 383d fcde 1d3e
00000020: 09b1 09be 49f7 07be 3b77 1a3d 76bb 88be
00000030: e995 533c 4c80 05be 4513 89bd 0d6f bb3c
00000040: e448 01bc 4110 0dbe fb6d 78bd eada 263c
00000050: 6538 253e f3c4 753e b189 633d 0bdc 2a3e
00000060: a9f2 b33c f761 00be 6286 4f3d 3fc1 acbd
00000070: aa33 1c3d 1eec 84be 4761 83be a124 4b3e
00000080: 29c3 d23c 14de e03d dd2e 013c 101d 243e
00000090: 5d77 003e 7189 243e 11d2 4e3e 5beb 153b
000000a0: f889 15bc b347 5f3b 6e96 803d 587c 133d
000000b0: f877 ae3c 2928 27be f22c 41ba 836b 27be
000000c0: 70ba 3d3c 40c8 e63d 407e 0bbe 9831 9dbd
000000d0: cde8 01be f6ac 623d 90bb c43d 78f5 32ba
000000e0: eac1 33be 800d aabc ac22 a1bd d398 7f3e
000000f0: c33d 33bd f5c6 09be 3cf2 6cbd c2fd 1b3d
00000100: 4139 82bc d816 c13e 640b 323e ff52 62be
00000110: bd9c ffbd becd b9bb 11f5 393d 3992 283d
00000120: e2de 713d 4ab3 3d3e 397b 223e 02f0 2f3c
00000130: 2dcf 08be b283 1cbe d9f6 69be dfc0 3eb9
00000140: 17f2 2f3c b097 a83d 6d35 44be b71c e43b
00000150: a8ab b93b b53e 693e 23fc 8ebc 5dd5 2fbe
00000160: a4f4 733e 732b d6bd d01f eebd e317 a539
00000170: dcae cb3d 5a23 ffbd 07c4 66be 2c20 8e3c
00000180: 7e19 8a3d 835c 413e 4e35 8c3c 6418 f6bd
00000190: 29ce bc3d 1d7a 463e ed8f 0bbe 4e57 33bd
000001a0: 8df6 e53d 7b6b 99bd 56d7 113e 1c09 a53c
000001b0: 12fe 50bd 10e2 e53b 8163 d7bd 2031 2c3e
000001c0: a0ea 4ebe b403 29be 026b 3a3d 441c e0bd
000001d0: df95 4dbd 396e 7ebd 912b 943c 19ac 2cbe
000001e0: 3a54 713e 2a7b 8ebd 78f1 e2bd 18d5 1ebe
000001f0: b31e e3bc 5947 ae3d f6e2 923d f983 00be

pointer.encoder_attn.W f4 [1, 128, 256]
0.07578221 -0.042499654 0.017340666 0.0632759 0.14947224 -0.056965217 -0.06449613 0.03796724
-0.05351688 -0.10963331 -0.0016120004 -0.013396413 0.06564813 0.025479643 0.00038311648 0.051675294
0.04849925 -0.018097153 0.031669334 -0.07041512 -0.042401105 -0.015720878 -0.045768324 0.03718899
0.017384367 0.020530675 -0.038403254 0.012473217 0.053549778 0.03938263 -0.018200353 -0.03269016
-0.06422606 -0.044620696 -0.04678978 -0.009259606 0.028084371 0.013779082 0.051191274 -0.113707215
0.15316233 0.028265527 -0.009485486 0.022307865 0.041443907 0.32197258 0.088241436 0.021618223
0.10869924 0.025319094 -0.012681018 0.009918095 -0.027016688 -0.010693779 -0.015465822 0.033305872
-0.07517352 -0.03570786 0.021213038 -0.020932017 -0.051419396 -0.07281794 0.097168215 0.032570984
-0.066772416 0.030474005 -0.05152812 0.011936212 0.10476984 0.04931238 -0.016853977 0.054700952
0.083801866 0.074383855 -0.02207578 0.08383695 -0.077561215 0.008725124 -0.0025349353 -0.0080904495
-0.09308629 0.08935213 0.030194586 -0.019087587 -0.08052611 -0.085540585 0.050678074 0.10968541
-0.11316607 0.10006293 0.0012686001 -0.015570957 0.04620634 -0.031223688 0.07069209 0.05785666
-0.0016145026 0.071809664 0.07496105 0.06140108 -0.004062925 0.029606007 -0.029380834 0.0005674137
-0.029832665 -0.057200734 0.06944887 0.075776 -0.024608715 -0.035916384 0.071670905 0.10080412
0.009411006 -0.049019806 0.008347249 -0.047746614 -0.02316076 -0.065517575 -0.02781632 -0.01691981
0.02368186 0.015939547 0.038859878 -0.03556364 0.03777593 0.09942877 -0.015082255 -0.034188386
-0.12175711 -0.06268865 -0.07561653 0.0576705 0.03727706 -0.12211118 -0.01905124 0.001787587
0.00208504 0.022843268 0.19946757 0.047923636 0.008394905 -0.07788658 0.033201724 -0.004795856
-0.043427415 -0.053236295 0.0682204 -0.013925962 0.09276614 0.16000912 -0.08314531 0.04952915
0.078327 0.0021115623 0.09418604 -0.023151139 -0.023980357 0.044164125 -0.15702523 -0.074931964
0.037918296 -0.013272596 0.011885182 -0.013265705 0.07086953 -0.14930359 -0.18284617 -0.052144814
0.02740232 -0.10190342 0.019356098 -0.023161173 0.03547325 -0.013871708 0.13346699 0.024147904
0.010122979 0.028316526 0.0019390348 0.09910805 -0.102172606 0.049655534 0.19147918 -0.024610387
0.029706584 -0.09325564 -0.016226023 0.024125082 -0.036366235 -0.039412808 -0.02422791 -0.003750888
0.08554347 -0.1043002 -0.035182487 0.13722534 -0.10039971 -0.104751125 0.02669753 0.06179521
0.0337574 -0.13964288 -0.16423398 0.023932101 -0.02183849 0.14458205 -0.075979084 -0.036104318
0.05796688 0.13532665 -0.0509318 -0.02280738 0.14389744 0.014915033 -0.0049533225 0.020009778
0.02515996 -0.09757522 -0.0115966145 0.08640287 0.11309691 0.0054800445 0.025740633 -0.055443063
0.051632628 0.0049673985 -0.08182401 -0.13980123 -0.099476874 -0.08441646 0.03362197 -0.115509585
-0.029204758 -0.022679958 0.034607377 0.030616783 -0.026375895 0.10710309 0.03189467 0.009543224
0.03510463 0.025216212 0.07314581 -0.014183346 0.011533973 -0.007096539 0.0048430404 0.1383812
0.030273749 0.14644587 0.02029268 0.03168521 0.06843723 -0.117457725 -0.06277053 0.12050223
00000000: b433 9b3d 1e14 2ebd 030e 8e3c cc96 813d
00000010: 400f 193e 5c54 69bd 8c16 84bd 8983 1b3d
00000020: 8434 5bbd 6e87 e0bd c249 d3ba a17c 5bbc
00000030: 8772 863d afba d03c 06dd c839 79a9 533d
00000040: 26a7 463d 7b40 94bc b4b7 013d cd35 90bd
00000050: c8ac 2dbd 12c9 80bc 9177 3bbd 7b53 183d
00000060: a969 8e3c f22f a83c bb4c 1dbd 775c 4c3c
00000070: 0357 5b3d ae4f 213d e818 95bc 1ee6 05bd
00000080: f488 83bd 31c4 36bd a4a6 3fbd 9ab5 17bc
00000090: 3211 e63c a9c1 613c f1ad 513d 54df e8bd
000000a0: 96d6 1c3e 1b8d e73c 0369 1bbc fcbe b63c
000000b0: 16c1 293d 97d9 a43e edb7 b43d b318 b13c
000000c0: b59d de3d fd69 cf3c 0bc4 4fbc 817f 223c
000000d0: 1a52 ddbc f634 2fbc 5c64 7dbc bd6b 083d
000000e0: 93f4 99bd 6842 12bd f7c6 ad3c 9f79 abbc
000000f0: 259d 52bd 9221 95bd 2100 c73d 2769 053d
00000100: fabf 88bd 9fa4 f93c 260f 53bd 1a90 433c
00000110: 9291 d63d c7fb 493d 5a11 8abc 1b0e 603d
00000120: 50a0 ab3d 9056 983d 44d8 b4bc b5b2 ab3d
00000130: 6ad8 9ebd d3f3 0e3c 2821 26bb ce8d 04bc
00000140: 06a4 bebd 40fe b63d a35a f73c 925d 9cbc
00000150: e0ea a4bd e72f afbd d093 4f3d bfa2 e03d
00000160: 9dc3 e7bd cbed cc3d 2847 a63a 541d 7fbc
00000170: dc42 3d3d d2c8 ffbc 04c7 903d 1bfb 6c3d
00000180: b89d d3ba f210 933d 2e85 993d b37f 7b3d
00000190: 4922 85bb 4c88 f23c 13b0 f0bc 7dbe 143a
000001a0: a263 f4bc 514b 6abd 363b 8e3d 7330 9b3d
000001b0: 3798 c9bc 0f1d 13bd 32c8 923d 6472 ce3d
000001c0: 9f30 1a3c fec8 48bd e6c2 083c f491 43bd
000001d0: a2bb bdbc 142e 86bd 0ddf e3bc 6a9b 8abc
000001e0: 7600 c23c a793 823c 892b 1f3d 2eab 11bd
000001f0: efba 1a3d 50a1 cb3d 901b 77bc 1f09 0cbd
00000200: cb5b f9bd e862 80bd d7dc 9abd e737 6c3d
00000210: d5af 183d 6d15 fabd 5911 9cbc 774d ea3a
00000220: 2ba5 083b ce21 bb3c 3a41 4c3e 934b 443d
00000230: c98a 093c 0083 9fbd 88fe 073d 8e26 9dbb
00000240: f2e0 31bd 4d0e 5abd 23b7 8b3d b829 64bc
00000250: 2dfc bd3d 6ed9 233e 1748 aabd 14df 4a3d
00000260: e869 a03d 2362 0a3b 9ce4 c03d 75a7 bdbc
00000270: 7472 c4bc 71e5 343d 39cb 20be ee75 99bd
00000280: 3750 1b3d 4d75 59bc 11ba 423c 6658 59bc
00000290: 0b24 913d 0ae3 18be 073c 3bbe cd95 55bd
000002a0: d57a e03c beb2 d0bd ae90 9e3c 80bc bdbc
000002b0: 664c 113d 2946 63bc 92ab 083e d3d1 c53c
000002c0: dada 253c 0ff8 e73c 3627 fe3a 29f9 ca3d
000002d0: df3f d1bd 9a63 4b3d 1e13 443e b99b c9bc
000002e0: 395b f33c d0fc bebd 70ec 84bc f7a1 c53c
000002f0: c3f4 14bd 536f 21bd 9c79 c6bc 75d1 75bb
00000300: 6a31 af3d 589b d5bd 831b 10bd cd84 0c3e
00000310: 5d9e cdbd c287 d6bd c7b4 da3c f91c 7d3d
00000320: 3345 0a3d 8bfe 0ebe f42c 28be 410d c43c
00000330: a2e6 b2bc 510d 143e ec9a 9bbd 1fe2 13bd
00000340: ae6e 6d3d 1293 0a3e dd9d 50bd 8bd6 babc
00000350: da59 133e 2f5e 743c 7b4f a2bb 8ceb a33c
00000360: 431c ce3c 84d5 c7bd baff 3dbc fdf3 b03d
00000370: 5a9f e73d f291 b33b 05de d23c 4418 63bd
00000380: bc7c 533d 8fc5 a23b 5993 a7bd 0e28 0fbe
00000390: 88ba cbbd 89e2 acbd 31b7 093d 4a90 ecbd
000003a0: d13e efbc 52cb b9bc 77c0 0d3d 0cd0 fa3c
000003b0: 4312 d8bc dd58 db3d fca3 023d 2f5b 1c3c
000003c0: dfc9 0f3d 3b92 ce3c 78cd 953d 4461 68bc
000003d0: fdf8 3c3c 158a e8bb 5eb2 9e3b cdb3 0d3e
000003e0: a700 f83c e8f5 153e d63c a63c 5ac8 013d
000003f0: d228 8c3d ad8d f0bd d68d 80bd e0c9 f63d

pointer.fc1.weight f4 [128, 256]
0.14227244 0.09964489 -5.046171e-05 0.061273973 0.23508199 0.14116123 -0.13369426 0.027158357
-0.20211112 0.12960547 -0.04776555 -0.14616264 -0.09984552 -0.00350798 -0.012852278 -0.05580216
0.039166227 0.20005967 -0.09863081 0.015816953 -0.053241268 0.044143543 -0.008976136 0.20210512
0.03196513 0.12071302 -0.019313423 0.055026487 0.19668919 -0.06182288 -0.0036206956 0.13253458
0.13715447 -0.17249398 -0.12142543 0.14231126 -0.11164428 0.05498169 -0.09997884 0.052087612
-0.00014600575 -0.18209274 -0.19508216 -0.06792137 -0.22703458 -0.121828206 -0.22360814 -0.021790154
-0.13211754 -0.083205506 0.1376069 0.16458826 0.08120449 0.07904749 -0.025185902 -0.014525298
0.061457135 0.18749526 0.05238409 0.0051026125 0.08577094 0.0829838 0.0835642 -0.0041802316
-0.089713626 0.11323328 -0.2992111 0.06992511 0.05872922 0.05977008 0.044034477 -0.08021798
0.2709064 -0.14840733 -0.10210642 -0.028355429 0.058884572 0.16525559 0.24797696 -0.07719486
-0.065772474 -0.07636026 -0.009397939 -0.10548394 0.03816266 -0.13625881 -0.114990644 -0.013967806
-0.13228141 0.2772442 0.032513645 -0.019069154 0.117660426 0.04774902 -0.032914635 -0.1497006
-0.051401436 -0.17064872 0.3789056 0.09704685 -0.014379008 0.19123437 -0.09072864 0.091467135
0.12875009 0.17060867 0.14322886 -0.18473966 0.04632927 0.14848495 0.048156146 0.08439503
0.019643364 -0.0715228 -0.030708952 0.0150697455 0.1643513 -0.0031521171 0.052639663 -0.002943158
-0.05048096 -0.17581233 -0.15587443 0.07770549 0.13652414 -0.1995047 -0.041252565 -0.05278917
-0.074287295 -0.09290617 -0.046985716 0.0012352191 0.08754177 -0.040864494 0.08363127 -0.054538462
-0.16969469 -0.15180887 -0.07703629 -0.0006313835 0.05408189 0.0076075695 -0.024529818 -0.11041319
-0.01934421 0.04674597 0.07566716 0.08041024 0.08222626 -0.11195567 -0.09864938 -0.07606333
-0.04332509 -0.044158455 -0.08964752 -0.041734308 0.009286932 0.1023586 0.008128311 -0.09090382
-0.020240994 -0.022401474 -0.027179252 0.12218392 0.120546915 0.006957568 0.018271824 -0.18090102
-0.05209603 -0.12724039 0.024255395 0.07910475 -0.030022701 -0.044700626 0.057877347 -0.11330042
0.057262227 -0.08689631 -0.048024703 0.04766122 0.024276765 0.06643977 0.060671117 0.017139193
0.059336226 0.05237534 -0.090858646 0.111972734 0.0089296745 0.069851734 -0.12525456 -0.001737445
0.039838564 -0.002365149 0.028199885 0.049957365 0.12192838 -0.05489693 0.07097647 0.06861361
0.17312299 -0.043136537 0.11283925 0.104271136 -0.08548895 0.06671263 0.043640956 -0.0011743718
0.0778762 0.069268405 -0.060723033 0.0058642356 -0.00375401 -0.009105224 0.13171917 0.11832087
-0.07085538 -0.017996958 0.029671667 0.01556089 -0.071290776 -0.06713318 0.004130457 -0.03247748
0.051820543 0.04740996 -0.033206526 0.1196518 0.122826256 0.006774185 0.026137967 -0.029742068
0.031932607 -0.065654494 -0.056149073 0.12311372 -0.012887706 0.10465972 0.07082068 0.040233884
-0.026892466 0.004465813 0.09536153 -0.05334638 0.03646244 -0.184386 -0.09092579 0.0064583896
-0.11977331 -0.068891235 -0.05221892 -0.030968446 0.06328527 -0.013069683 -0.067188255 0.0091915745
00000000: deaf 113e 9f12 cc3d d9a6 53b8 6bfa 7a3d
00000010: 55b9 703e 928c 103e 26e7 08be 347b de3c
00000020: 38f6 4ebe 4cb7 043e cfa5 43bd a9ab 15be
00000030: cf7b ccbd 23e6 65bb 5c92 52bc ce90 64bd
00000040: c46c 203d 71dc 4c3e f3fe c9bd 8e92 813c
00000050: 8413 5abd dccf 343d a510 13bc a5f4 4e3e
00000060: deed 023d 6338 f73d 2f37 9ebc 7463 613d
00000070: e468 493e fd39 7dbd 3149 6dbb 25b7 073e
00000080: 3972 0c3e 43a2 30be e5ad f8bd 0bba 113e
00000090: c2a5 e4bd 7b34 613d b5c1 ccbd d259 553d
000000a0: 1f19 19b9 8576 3abe 9ec3 47be 5c1a 8bbd
000000b0: c17b 68be 1181 f9bd 88f9 64be 4481 b2bc
000000c0: d249 07be a667 aabd d3e8 0c3e d389 283e
000000d0: 8a4e a63d a7e3 a13d aa52 cebc 84fb 6dbc
000000e0: 7aba 7b3d c2fe 3f3e b390 563d d133 a73b
000000f0: ada8 af3d 69f3 a93d b523 ab3d 53fa 88bb
00000100: c7bb b7bd dae6 e73d 3332 99be e534 8f3d
00000110: 0d8e 703d 79d1 743d 7f5d 343d 5349 a4bd
00000120: 3eb4 8a3e 17f8 17be 2c1d d1bd a549 e8bc
00000130: f330 713d c338 293e aced 7d3e 5718 9ebd
00000140: b8b3 86bd c562 9cbd d0f9 19bc f707 d8bd
00000150: 7350 1c3d 6e87 0bbe 3780 ebbd 39d9 64bc
00000160: c774 07be f4f2 8d3e 072d 053d ea36 9cbc
00000170: f3f7 f03d 7a94 433d 7fd1 06bd 1d4b 19be
00000180: 508a 52bd 8abe 2ebe eaff c13e 80c0 c63d
00000190: ee95 6bbc f1d2 433e f0cf b9bd 1f53 bb3d
000001a0: 10d7 033e 0ab4 2e3e 96aa 123e 652c 3dbe
000001b0: c3c3 3d3d 700c 183e 613f 453d 4dd7 ac3d
000001c0: 1feb a03c 8c7a 92bd 5791 fbbc 18e7 763c
000001d0: b54b 283e c093 4ebb b09c 573d ffe1 40bb
000001e0: 20c5 4ebd 2608 34be 8c9d 1fbe 0e24 9f3d
000001f0: fccc 0b3e f64a 4cbe 73f8 28bd 7539 58bd
00000200: f023 98bd 9745 bebd 1874 40bd 13e7 a13a
00000210: 1949 b33d 8761 27bd df46 ab3d b963 5fbd
00000220: 72c4 2dbe c973 1bbe 34c5 9dbd 6e83 25ba
00000230: f984 5d3d eb48 f93b c2f2 c8bc 5020 e2bd
00000240: c077 9ebc b478 3f3d 62f7 9a3d 20ae a43d
00000250: 3e66 a83d 0449 e5bd b008 cabd 17c7 9bbd
00000260: a675 31bd 7fdf 34bd 1e99 b7bd 98f1 2abd
00000270: 3728 183c 63a1 d13d 9b2c 053c c82b babd
00000280: 71d0 a5bc 4c83 b7bc 06a7 debc 903b fa3d
00000290: 4de1 f63d 50fc e33b cbae 953c 1e3e 39be
000002a0: a662 55bd 4e4b 02be 40b3 c63c ac01 a23d
000002b0: 2bf2 f5bc 0118 37bd cc10 6d3d 0d0a e8bd
000002c0: cc8b 6a3d b1f6 b1bd 8db5 44bd 6938 433d
000002d0: 11e0 c63c 9311 883d 4782 783d 7e67 8c3c
000002e0: 8b0a 733d 8687 563d 1914 babd f651 e53d
000002f0: c54d 123c 6d0e 8f3d bb42 00be fbba e3ba
00000300: c32d 233d 9e00 1bbb 7203 e73c 18a0 4c3d
00000310: 96b5 f93d 9adb 60bd 1d5c 913d 4b85 8c3d
00000320: 2747 313e f0af 30bd 4418 e73d 1b8c d53d
00000330: d514 afbd a2a0 883d dcc0 323d 61ed 99ba
00000340: 8f7d 9f3d 98dc 8d3d b7b8 78bd c628 c03b
00000350: d605 76bb 142e 15bc 64e1 063e 3652 f23d
00000360: a01c 91bd 5b6e 93bc ff11 f33c 1af3 7e3c
00000370: e600 92bd 1f7d 89bd c958 873b 1b07 05bd
00000380: c741 543d f230 423d 9103 08bd 010c f53d
00000390: 558c fb3d fcf9 dd3b 4a1f d63c a3a5 f3bc
000003a0: c4cb 023d dd75 86bd 92fc 65bd 0c23 fc3d
000003b0: f526 53bc d657 d63d 6f0a 913d 49cc 243d
000003c0: 974d dcbc f455 923b e84c c33d bc81 5abd
000003d0: a459 153d afcf 3cbe 4d37 babd e6a0 d33b
000003e0: b64b f5bd d916 8dbd 82e3 55bd 8ab1 fdbc
000003f0: b59b 813d 3922 56bc ff99 89bd 4298 163c

pointer.fc1.bias f4 [128]
0.003630482 0.045143075 0.036266357 -0.010134894 -0.020109149 -0.0053512123 0.030684013 -0.008457448
0.045304246 0.09701072 0.021565149 0.070634015 -0.029336365 0.012867903 -0.0058261477 -0.007676674
-0.047025178 -0.034143988 -0.010949648 0.05303542 0.031149594 -0.068385616 0.0032554162 0.012790995
-0.008266552 0.06256881 -0.010593035 0.020175302 0.08313408 0.08038836 0.042038877 -0.02611926
0.008779216 0.009712758 0.014835432 0.05608034 0.03789119 0.03031814 0.03429519 0.05831091
-0.07243855 -0.06917363 0.010728583 0.053278126 -0.005949205 0.04032534 0.029796287 -0.04825675
-0.04438485 0.023068313 0.030194378 -0.043477707 0.049956962 -0.022405334 -0.032995567 0.09651884
0.0047496525 0.040620063 -0.019109057 0.0476836 0.00074323005 0.029803902 0.037102513 0.033943832
0.069597766 -0.038319897 0.033643164 0.033803653 -0.04541236 -0.06374232 0.001024126 0.043941975
-0.007837346 -0.018206606 -0.047122013 0.05521397 -0.009076848 -0.0046809036 0.031484056 0.07955933
-0.007638934 0.04206575 -0.006930962 -0.041367758 0.027149947 0.062006716 0.04976073 -0.02263496
-0.053935874 -0.017715493 -0.016143536 -0.0038865837 0.03831304 -0.03451866 0.007961812 0.02005321
-0.0027891584 0.06252497 -0.013451852 -0.03496544 -0.021034343 -0.060374636 0.056325905 -0.0014371611
0.003913808 0.070683494 -0.030719584 -0.0022363428 0.049808435 -0.05186592 0.021670362 -0.021405933
-0.032662783 -0.049391046 0.017188217 -0.058003735 -0.03739965 0.030968267 0.016761895 0.021422556
0.04441485 0.054882765 -0.019787569 0.03103788 0.12520455 -0.069539286 -0.028797116 -0.04447783
00000000: 61ed 6d3b f2e7 383d 088c 143d d40c 26bc
00000010: f1bb a4bc 3959 afbb 0a5d fb3c 1c91 0abc
00000020: f290 393d 8ead c63d 65a9 b03c 91a8 903d
00000030: d152 f0bc e6d3 523c 45e9 bebb 9c8c fbbb
00000040: 799d 40bd 91da 0bbd 2766 33bc ab3b 593d
00000050: 6f2d ff3c c20d 8cbd d258 553b 5291 513c
00000060: 6f70 07bc 1424 803d 698e 2dbc ad46 a53c
00000070: 3342 aa3d a7a2 a43d f530 2c3d 0ff8 d5bc
00000080: b3d6 0f3c 4222 1f3c 5010 733c 80b4 653d
00000090: cb33 1b3d bf5d f83c 1d79 0c3d 6cd7 6e3d
000000a0: aa5a 94bd e7aa 8dbd f0c6 2f3c 2a3a 5a3d
000000b0: 8cf1 c2bb 2f2c 253d 5817 f43c dfa8 45bd
000000c0: e3cc 35bd c2f9 bc3c 335a f73c ae15 32bd
000000d0: ac9f 4c3d 648b b7bc 5c26 07bd abab c53d
000000e0: f9a2 9b3b 3961 263d 998a 9cbc e14f 433d
000000f0: 53d5 423a 5027 f43c cef8 173d b008 0b3d
00000100: 4689 8e3d 53f5 1cbd 6acd 093d b375 0a3d
00000110: 5002 3abd 558b 82bd f73b 863a 80fc 333d
00000120: 3668 00bc 0526 95bc 0303 41bd 0b28 623d
00000130: 0fb7 14bc 4462 99bb 6df5 003d 01f0 a23d
00000140: 0650 fabb 234d 2c3d 201d e3bb 3d71 29bd
00000150: 9169 de3c c1fa 7d3d e8d1 4b3d f46c b9bc
00000160: ddeb 5cbd 1520 91bc 733f 84bc 0eb6 7ebb
00000170: 22ee 1c3d 7063 0dbd 4372 023c a146 a43c
00000180: 50ca 36bb 170d 803d 2865 5cbc ec37 0fbd
00000190: 3750 acbc 654b 77bd feb5 663d 205f bcba
000001a0: 673f 803b 82c2 903d a3a7 fbbc 9b8f 12bb
000001b0: ee03 4c3d 5c71 54bd 0b86 b13c 7f5b afbc
000001c0: 69c9 05bd 444e 4abd 4ece 8c3c 5395 6dbd
000001d0: 6030 19bd 2ab1 fd3c 3e50 893c 5b7e af3c
000001e0: 59ec 353d c0cc 603d 8a19 a2bc 2743 fe3c
000001f0: 9f35 003e 9d6a 8ebd eee7 ebbc 632e 36bd

pointer.fc2.weight f4 [128, 128]
0.0887619 0.0802834 -0.1340012 0.0009042172 -0.15076615 0.033500325 -0.11564733 -0.055558003
-0.061835695 -0.12664726 -0.2755154 0.091226 0.03339426 -0.14928141 -0.051235415 0.2208319
0.07362493 0.024317006 -0.117797025 0.07028036 0.05377073 0.12650606 0.051282834 -0.017035188
-0.21691372 0.014601725 0.14306119 0.119880944 0.052032735 0.10317288 0.012669909 0.018626295
-0.07867117 -0.14636624 0.11008394 0.1302813 -0.084416546 -0.111868545 -0.22720495 0.02733455
0.114289284 0.041816495 -0.06270633 -0.16729406 -0.21661192 0.014378754 -0.007124572 0.062668346
0.10043597 0.10164755 0.07460468 0.043806292 -0.083560206 0.19625542 0.09317819 0.014964044
-0.08101897 -0.09383049 0.027296007 -0.07075488 0.008744418 -0.046360902 0.048313424 -0.13964428
0.16769227 -0.032595184 -0.016375365 -0.06983328 0.0746838 0.09710045 0.16698493 -0.15161014
-0.10466331 -0.10603865 0.13846445 -0.0005919565 -0.14800423 -0.052162424 -0.064154714 0.1289367
0.052878406 -0.09088241 -0.02853137 -0.09629869 0.028935729 0.05176221 0.08148382 0.08795451
-0.20714787 0.0052402886 0.08163424 -0.16397808 -0.109487064 0.038506165 0.03334744 -0.19326523
0.047503993 0.06707726 -0.15449744 0.07419855 0.20258418 0.06377546 -0.032940138 -0.17296323
0.0006785846 -0.058091246 -0.03666317 -0.109103754 0.13959019 0.09564443 -0.026862012 -0.08374625
-0.05726263 -0.077477574 0.11671999 -0.02259395 0.012532908 -0.018966176 0.07702518 -0.016051188
-0.09870346 -0.107441545 0.027392358 0.12476461 -0.062331833 -0.023074787 -0.32669762 0.11651087
0.0893408 -0.075716324 -0.05370446 -0.0896405 0.016212396 0.08645851 0.0053364285 -0.12232163
-0.09208953 -0.15601261 0.2184315 0.09743038 -0.022347303 -0.1261413 -0.15036172 0.026492452
0.07394176 -0.091556214 -0.0055125956 0.16017887 0.020813953 -0.05444822 -0.009194333 0.36759356
0.17455901 -0.08179652 -0.109398685 0.09783429 0.04329813 -0.07703123 -0.013029915 0.08770688
-0.007236664 0.14848371 -0.0094492445 0.015320274 0.003186955 0.08129319 -0.09149282 -0.028610967
0.0261952 0.13012405 -0.13907476 0.0640455 0.0182775 0.08315072 0.20920411 -0.038007833
0.084534116 -0.11499391 0.005714167 0.43016955 -0.019016154 0.14443043 0.12250178 -0.043848537
0.113372535 -0.17628 -0.0075197797 0.03683255 0.06483101 -0.1174036 0.06556987 0.13008541
0.09444254 -0.013747083 -0.040472183 0.123991676 -0.059523944 -0.043358963 0.04204964 -0.13156387
0.09656275 0.043892782 -0.11310279 0.09144565 0.021808067 -0.00780254 0.051458266 0.18333781
0.087861344 -0.010229851 0.07164348 0.16140862 -0.036210578 -0.012231937 0.039373424 0.02350517
0.022975616 0.019562632 0.066216916 -0.034110196 0.15392967 -0.034066107 0.1377789 0.18224415
0.12792106 0.17462526 0.021660436 -0.037614647 -0.0013685562 0.049886398 -0.08487474 -0.06413203
0.12546271 0.034262273 0.09196683 0.3312423 0.0057362365 0.08773181 -0.043216493 0.01476839
0.16060698 0.07380177 -0.038646895 -0.13323502 0.005656551 0.04199077 0.17914945 0.005936261
0.07007552 -0.012061076 -0.06171089 0.14016034 0.034220673 0.0021135476 0.330543 0.08197377
00000000: cdc8 b53d a06b a43d 9c37 09be fd08 6d3a
00000010: 7162 1abe a337 093d 82d8 ecbd ca90 63bd
00000020: 6d47 7dbd d2af 01be 5b10 8dbe b2d4 ba3d
00000030: 6bc8 083d 3add 18be 3adc 51bd c221 623e
00000040: abc8 963d 7534 c73c 913f f1bd 26ef 8f3d
00000050: b23e 5c3d ce8a 013e f30d 523d 618d 8bbc
00000060: a11e 5ebe 133c 6f3c a27e 123e 2484 f53d
00000070: 4720 553d 4e4c d33d 7395 4f3c 2c96 983c
00000080: 5a1e a1bd 08e1 15be b073 e13d 7668 053e
00000090: 95e2 acbd 561b e5bd 6aa8 68be b5ec df3c
000000a0: 8010 ea3d c647 2b3d 2d6c 80bd 224f 2bbe
000000b0: 84cf 5dbe de94 6b3c 3e75 e9bb 4358 803d
000000c0: 60b1 cd3d 972c d03d 57ca 983d 3a6e 333d
000000d0: 9d21 abbd 2ef7 483e 35d4 be3d c02b 753c
000000e0: 46ed a5bd 332a c0bd e09b df3c efe7 90bd
000000f0: bf44 0f3c eee4 3dbd 4ce4 453d e9fe 0ebe
00000100: 86b7 2b3e 8782 05bd a125 86bc c004 8fbd
00000110: d2f3 983d 9adc c63d 19fe 2a3e b03f 1bbe
00000120: b859 d6bd cb2a d9bd a0c9 0d3e 872d 1bba
00000130: 6c8e 17be 44a8 55bd 8c63 83bd fb07 043e
00000140: 0797 583d 8f20 babd 9fba e9bc 3f38 c5bd
00000150: 9f0a ed3c 9c04 543d fde0 a63d 7e21 b43d
00000160: 921e 54be bab6 ab3b da2f a73d dfe9 27be
00000170: c13a e0bd a4b8 1d3d 5397 083d 52e7 45be
00000180: 8c93 423d cd5f 893d 9434 1ebe 69f5 973d
00000190: 3a72 4f3e b59c 823d 3dec 06bd 461d 31be
000001a0: 0be3 313a 16f1 6dbd 1f2c 16bd ca71 dfbd
000001b0: bbf0 0e3e 3ae1 c33d b90d dcbc 2783 abbd
000001c0: 388c 6abd 90ac 9ebd e40a ef3d f316 b9bc
000001d0: d356 4d3c f45e 9bbc 61bf 9d3d c87d 83bc
000001e0: 0a25 cabd 500a dcbd f065 e03c 9684 ff3d
000001f0: aa4f 7fbd 5607 bdbc e944 a7be 409d ee3d
00000200: 4ff8 b63d 2911 9bbd 35f9 5bbd 7095 b7bd
00000210: dccf 843c 2911 b13d 35dd ae3b c383 fabd
00000220: 6f99 bcbd c5c1 1fbe 82ac 5f3e 9489 c73d
00000230: b111 b7bc 2f2b 01be 6cf8 19be b306 d93c
00000240: c76e 973d d381 bbbd 01a3 b4bb ee05 243e
00000250: 0682 aa3c 1905 5fbd d4a3 16bc 3935 bc3e
00000260: 99bf 323e ef84 a7bd 6b0c e0bd 585d c83d
00000270: 6159 313d 8dc2 9dbd 6d7b 55bc aa9f b33d
00000280: 8a21 edbb 1d0c 183e 01d1 1abc e301 7b3c
00000290: 3bdc 503b 0b7d a63d 9660 bbbd 8c61 eabc
000002a0: 5197 d63c 3d3f 053e 9d69 0ebe 492a 833d
000002b0: b2ba 953c ed4a aa3d 9a39 563e 1aae 1bbd
000002c0: 3920 ad3d ed81 ebbd e83d bb3b 2f3f dc3e
000002d0: c4c7 9bbc 92e5 133e 37e2 fa3d 869a 33bd
000002e0: dc2f e83d bf82 34be 7c68 f6bb badd 163d
000002f0: 1fc6 843d 4c71 f0bd 7f49 863d 1c35 053e
00000300: 176b c13d 723b 61bc 29c6 25bd 59ef fd3d
00000310: 61cf 73bd 2b99 31bd 3e3c 2c3d aeb8 06be
00000320: b1c2 c53d ebc8 333d 70a2 e7bd db47 bb3d
00000330: d5a6 b23c 73ac ffbb e7c5 523d e8bc 3b3e
00000340: a6f0 b33d 1b9b 27bc d1b9 923d 4d48 253e
00000350: 8b51 14bd 7668 48bc 0746 213d ea8d c03c
00000360: 5c37 bc3c d041 a03c bc9c 873d 22b7 0bbd
00000370: bd9f 1d3e e788 0bbd e915 0d3e 369e 3a3e
00000380: bdfd 023e f7d0 323e 3a71 b13c d111 1abd
00000390: 2061 b3ba ae55 4c3d cfd2 adbd a757 83bd
000003a0: 4c79 003e 9956 0c3d 1b59 bc3d 9798 a93e
000003b0: 0af7 bb3b bcac b33d c703 31bd 1ef7 713c
000003c0: 2876 243e 6225 973d 354c 1ebd c36e 08be
000003d0: 975a b93b 83fe 2b3d f472 373e f784 c23b
000003e0: c183 8f3d d29b 45bc 8fc4 7cbd 3186 0f3e
000003f0: fa2a 0c3d 7283 0a3b ef3c a93e dde1 a73d

pointer.fc2.bias f4 [128]
0.016934752 0.11938789 0.08172073 0.11957467 0.07516137 0.06620341 -0.012785106 0.00377381
-0.016017193 0.057703953 -0.044602435 0.055273376 -0.07890175 0.032995585 -0.004732497 0.03130865
0.056329522 0.054043364 0.12044693 -0.052573062 0.042265974 0.022291219 0.07920793 -0.09719725
0.001352309 -0.057331435 0.03477151 -0.02526667 0.04481073 -0.05584419 0.05831046 -0.05425201
4.1375402e-05 0.07190733 0.10868756 0.09475242 0.031519894 -0.090006195 -0.0008510072 -0.048535097
0.07107166 0.0020325917 -0.023630824 0.07563435 0.10203288 -0.018699344 0.07677031 0.042248603
0.0038687484 0.0027390067 0.0012715224 0.033390332 0.084301695 0.11652402 -0.027783621 -0.0051123463
-0.075736046 0.07536621 0.07402634 0.046516422 -0.0045365505 0.0039088125 -0.00091350387 -0.018580604
-0.055650793 0.11909932 0.0651115 0.050411727 -0.03028889 0.016470924 0.08233949 0.09161983
0.13315608 -0.052255537 0.04510566 -0.10519938 0.0045969607 0.03655603 0.006440399 0.012690075
0.05336695 0.07824245 -0.058112156 0.09328542 -0.09974865 -0.047999673 -0.014263803 0.09211621
-0.005658313 0.08627081 0.11244428 -0.038342696 0.04520942 0.10528765 -0.044717908 -0.030335255
0.030261913 -0.03051095 0.005760365 0.0014977657 0.03970775 0.07532542 0.10292618 -0.020530248
-0.042650912 0.00058225146 -0.040677536 0.056204367 0.10557567 0.097623274 0.01197744 -0.004702535
-0.032500327 0.05486041 0.016972277 -0.100215435 0.032695483 0.02931527 0.0040933243 0.07096476
0.0057206447 0.036414888 -0.002984981 -0.045169633 0.076598644 -0.11411812 0.010460605 0.09657688
00000000: c0ba 8a3c a381 f43d 335d a73d 91e3 f43d
00000010: 34ee 993d a795 873d 9f78 51bc 0752 773b
00000020: 7d36 83bc fb5a 6c3d 0bb1 36bd 5666 623d
00000030: 3e97 a1bd 6126 073d 1013 9bbb 803d 003d
00000040: c9b9 663d 935c 5d3d e1ac f63d da56 57bd
00000050: 161f 2d3d 139c b63c c437 a23d 5a0f c7bd
00000060: f63f b13a 5ed4 6abd 926c 0e3d 0cfc cebc
00000070: 758b 373d e1bc 64bd f3d6 6e3d 5b37 5ebd
00000080: 808a 2d38 2644 933d 9597 de3d 8f0d c23d
00000090: 011b 013d 2b55 b8bd 2016 5fba bdcc 46bd
000000a0: 058e 913d 3b35 053b 6e95 c1bc 2fe6 9a3d
000000b0: 9df6 d03d 5e2f 99bc c139 9d3d df0c 2d3d
000000c0: d48a 7d3b e880 333b 36a9 a63a 4dc4 083d
000000d0: 5ea6 ac3d 25a4 ee3d 7a9a e3bc 7885 a7bb
000000e0: 801b 9bbd 9959 9a3d 1f9b 973d 0188 3e3d
000000f0: 58a7 94bb 7f15 803b 3578 6fba 5a36 98bc
00000100: 16f2 63bd 58ea f33d 2e59 853d 877c 4e3d
00000110: 6820 f8bc 08ee 863c 9ba1 a83d 2da3 bb3d
00000120: 115a 083e e709 56bd b6c0 383d c672 d7bd
00000130: 1aa2 963b c7bb 153d fc09 d33b 08ea 4f3c
00000140: 4e97 5a3d 943d a03d 0307 6ebd 6d0c bf3d
00000150: 0549 ccbd 4e9b 44bd bab2 69bc 6ca7 bc3d
00000160: 5f69 b9bb c0ae b03d 3049 e63d 3b0d 1dbd
00000170: 832d 393d 0da1 d73d 202a 37bd a481 f8bc
00000180: d5e7 f73c 1af2 f9bc 72c1 bc3b ad50 c43a
00000190: 98a4 223d 3744 9a3d f6ca d23d 0d2f a8bc
000001a0: b9b2 2ebd 3ca2 183a 7d9d 26bd 8d36 663d
000001b0: 0f38 d83d b6ee c73d 063d 443c b917 9abb
000001c0: 101f 05bd 4fb5 603d 7209 8b3c c03d cdbd
000001d0: b3eb 053d 9426 f03c 4b21 863b f955 913d
000001e0: 3f74 bb3b c727 153d ac9f 43bb cb03 39bd
000001f0: c0df 9c3d c3b6 e9bd f562 2b3c 19ca c53d
