trained_models/sdvrp/altr_SD_100/model_incumbent_vrpRl13_SD_ALTR_100_P_0.1_35376.pt (torch_old, 469732 bytes, 15 tensors)

all_embed.embed.weight f4 [128, 4]
000000 28 37 c2 bc 44 61 4b be 3c 7f 2d be b8 c9 20 3d
       -0.023707941 -0.19861323 -0.16943067 0.039254874
000010 1a 55 30 3e 40 ac 88 3d 0e a4 1d 3e f6 66 22 be
       0.17219964 0.06673479 0.15394613 -0.15859589
000020 e7 97 40 3e 21 e6 8c be 09 6b d3 be 42 86 be be
       0.18807946 -0.27519324 -0.412926 -0.37211806
000030 e1 ae 4d 3f b4 1f b6 bc 34 e6 37 3e b1 5c c3 bd
       0.8034497 -0.022231914 0.1795891 -0.09539164
000040 77 c1 cb 3e e3 5b 7b 3f 46 b8 2a 3e 1f 52 98 bd
       0.3979604 0.98187083 0.16671857 -0.07437538
000050 3e ff 42 be 0c c1 24 bd f4 1a b7 3d 64 49 83 bd
       -0.1904268 -0.040223166 0.08940688 -0.064104825
000060 b9 2c a8 be 20 4a 0f 3f 54 5a df bd 73 ef 93 3d
       -0.3284662 0.5597248 -0.109059006 0.07223406
000070 21 0b 51 be 55 c9 50 be b3 05 a2 be 10 49 f9 be
       -0.20414402 -0.20389302 -0.31644973 -0.48688555
000080 24 dc fb 3e 5b 8c 1a 3f e8 57 e4 3e 23 66 62 3e
       0.4919139 0.60370415 0.44598317 0.22109275
000090 36 42 03 be f6 b1 07 be b8 66 8b bc f6 e2 84 bd
       -0.12818226 -0.1325148 -0.017016754 -0.06488602
0000a0 e8 94 17 bd 20 ff df bb 32 e3 47 be 00 17 dd 3d
       -0.037007242 -0.006835833 -0.19520262 0.107954025
0000b0 20 e8 0f 3f b7 1d b9 3e b5 b7 0b bf 75 35 4d 3d
       0.5621357 0.36155483 -0.5457719 0.05009981
0000c0 c0 b9 35 bd b6 29 45 3e ca 63 4f 3e bf 9c d9 bd
       -0.044366598 0.19254193 0.2025291 -0.106256
0000d0 28 50 a4 bd 2c a9 91 3e 3d 98 c7 be 9e 87 c0 be
       -0.08023101 0.2844938 -0.38983336 -0.37603468
0000e0 9e 2e a4 be 68 41 cb 3e 36 7c 0b 3f 38 bb d5 bd
       -0.32066816 0.39698339 0.54486406 -0.104361
0000f0 00 fc 4f be 88 38 fa 3c 86 d6 16 be 40 3e 39 3c
       -0.20310974 0.030544534 -0.14730272 0.011306345
000100 b0 0f dd 3c 80 f3 a9 bd b2 9c 51 3e 50 1c 2c 3d
       0.02698502 -0.08298397 0.20469931 0.04201919
000110 38 93 f8 bd 48 26 6e be 32 e6 90 be 16 df da be
       -0.12137455 -0.2325679 -0.28300625 -0.42748326
000120 6e 0a ab bd 67 a1 0f be 5c a7 6a bd 2c 4c af 3d
       -0.08351599 -0.14026414 -0.057288513 0.085594505
000130 3f ef 48 3e 32 f6 1b be 36 7e f5 be 67 70 f2 be
       0.19622515 -0.15230635 -0.47947854 -0.4735138
000140 f1 bd 05 3f 12 ad 64 3f b7 60 58 be c3 41 25 3e
       0.5224295 0.89326584 -0.21130644 0.16138367
000150 aa dd bf be 45 38 b9 3e 56 ae 6c 3e c9 8f cd 3d
       -0.37473804 0.36175743 0.23113379 0.100371905
000160 1a 59 39 3f b2 8c c7 3d 5a 37 c8 be f0 a1 04 3e
       0.72401583 0.097436324 -0.3910473 0.12952399
000170 2a 15 02 bf ff 8c 90 3e f0 78 8d be 28 f8 f2 3d
       -0.50813544 0.2823257 -0.2763133 0.11863738
000180 14 6c 5e 3f 27 0a cf bd 30 54 d9 bd ec 04 e6 3d
       0.86883664 -0.10109358 -0.106117606 0.112314075
000190 14 79 1e 3f b4 e1 3a 3f d7 58 78 3e 6e 74 98 bd
       0.619035 0.73000646 0.2425264 -0.07444082
0001a0 61 19 c0 3e cc 46 69 be 61 32 a0 3e c9 c1 86 3e
       0.37519363 -0.22780913 0.31288436 0.2631972
0001b0 6e f5 09 bf 68 67 b0 bd c7 07 38 3d 86 ef 8e 3e
       -0.5389012 -0.08613473 0.044929292 0.27917117
0001c0 8a 47 85 3e 17 73 80 3f 20 3c 11 3d 57 eb 25 be
       0.26031142 1.0035123 0.03545773 -0.16203056
0001d0 28 dd b8 3d 80 d2 1f 3d b8 a4 46 3e 45 43 0a be
       0.09026557 0.039019108 0.19398773 -0.13502224
0001e0 01 4e 15 bc 20 c5 b8 be 3d 69 a9 be 33 83 e2 be
       -0.009112836 -0.36087894 -0.33088103 -0.44240722
0001f0 3b ea 80 bd d4 5a 0e 3f 2a e7 c7 3e 69 d7 1d 3e
       -0.06294676 0.5560734 0.39043552 0.15414204
000200 2d 96 4a 3e b5 da 21 bf e1 8d d6 be 03 25 6a 3e
       0.1978385 -0.63224345 -0.4190512 0.22865681
000210 2f 7d 2e 3f 60 69 3f be 99 44 00 bf 46 9c e8 3d
       0.68159765 -0.18692541 -0.5010467 0.11357932
000220 d4 4a 94 3d 1f e9 18 3f 4a 95 9b be 9e 05 4f 3e
       0.07240835 0.59730715 -0.30387336 0.20216987
000230 90 d1 07 3f ff 99 6f 3f 92 0c 22 be 7c 10 47 be
       0.5305414 0.93594354 -0.15825108 -0.19439882
000240 b4 22 0a bd b8 75 0e bd 52 70 2a be 3d 0c fd bd
       -0.0337245 -0.034780234 -0.1664441 -0.1235585
000250 ad dd 1d be f4 1a 41 3e 6c 0d 3c bd 6f 4b f4 bd
       -0.15416594 0.18857938 -0.045911238 -0.1192845
000260 04 76 10 3f b5 7c d5 be 3d 54 4e 3e 21 3a be bc
       0.5643008 -0.41696706 0.20149322 -0.023221077
000270 05 0e 46 3f 03 d9 bb 3e 31 b5 e5 3e fe 36 07 be
       0.7736514 0.36689004 0.448648 -0.13204572
000280 bc ee 09 3e 4f 88 eb be 2a 5c 59 3e ba 21 6d 3e
       0.13469976 -0.46002433 0.21226564 0.23157397
000290 ae 2b 03 bf 4a 0e a6 be a4 56 f3 3d 07 df 01 3f
       -0.51238525 -0.32432777 0.1188176 0.5073094
0002a0 64 7e d0 3e 65 de e8 3e 65 9b 9e be 18 7e a6 be
       0.40721428 0.45482174 -0.30977932 -0.32518077
0002b0 2d 54 37 3f 74 60 0f 3f bd c0 29 bf a6 c4 b0 3e
       0.7161282 0.5600655 -0.6630972 0.3452503
0002c0 54 2f a9 bd 94 66 0d 3d 0a a2 05 be b0 33 c8 bc
       -0.0826098 0.034521654 -0.13050094 -0.024438709
0002d0 80 e1 59 3d e8 ba b7 3c 4c 4c b8 3d 80 4b 15 be
       0.05319357 0.022427991 0.089989275 -0.14579582
0002e0 e0 ec 87 bc 5b 7a fd bd 9f a7 24 be 00 8e 6a ba
       -0.016592443 -0.12376853 -0.16079567 -0.0008947551
0002f0 fa 47 86 be fd a8 92 3e 01 e4 fb 3e db 53 bf 3e
       -0.2622679 0.28644553 0.4919739 0.37368664
000300 35 f7 a6 3e 3a c5 5d 3f fb 8f 0c bf 06 f0 86 3e
       0.3261048 0.8662907 -0.54907197 0.26354998
000310 e1 e4 0c bd 83 a1 a6 be 4d 11 82 be 3d c5 84 be
       -0.034397963 -0.325451 -0.25403824 -0.2593173
000320 d1 62 3e 3f b8 07 b5 be f7 77 b6 3d 36 82 9c 3c
       0.7436953 -0.3535745 0.089096 0.019105058
000330 26 0e 20 3f 84 47 4c 3f 0a e4 61 bd 88 5f a9 3e
       0.6252159 0.79796624 -0.055149116 0.33080697
000340 03 79 db bd ea ae 2a 3e 34 fb d9 3d 86 24 59 be
       -0.107164405 0.16668287 0.10643616 -0.21205339
000350 7d 34 a1 be 64 9d 6f 3e 1e 21 50 3e e5 69 c4 3e
       -0.31485358 0.23399884 0.20325133 0.3836204
000360 3a c6 ff 3e bf c9 7b be 1c ab f9 bb 10 13 8c 3e
       0.49955922 -0.24588679 -0.007619275 0.27358294
000370 b0 6a 5a bc 22 cb 06 3e 30 71 cf 3d d1 01 1a be
       -0.0133311 0.13163427 0.10129011 -0.15039755
000380 03 68 a6 3d ea ad 5c 3f 3a 12 02 3e 5a 59 21 3e
       0.081253074 0.8620287 0.12702265 0.15756741
000390 1a bc 1b 3f 3c 9a f9 bc bc 9c 80 3e 07 cf 71 bd
       0.60833895 -0.030469052 0.2511958 -0.059035327
0003a0 3d 59 6b be 7a 25 95 3e 03 df 4b be f5 08 17 3b
       -0.2298326 0.29130155 -0.19909291 0.002304611
0003b0 77 3e 2f 3f c3 73 16 3e 52 c4 70 be 01 b9 52 3e
       0.6845469 0.14692597 -0.2351239 0.20578386
0003c0 4c 3d 8d be 6b 57 15 3f 3c 06 40 bd bd e5 3f 3e
       -0.27585828 0.58336514 -0.046880946 0.18739982
0003d0 f7 8c 8b bd e3 8f a1 be d7 9c fc 3e 9f 0c af 3e
       -0.06813996 -0.3155509 0.4933841 0.34189317
0003e0 ab 1c 75 3e b6 ba 29 3f 0e 44 9d 3d d0 f6 25 be
       0.23936717 0.66300523 0.07678996 -0.16207433
0003f0 10 60 37 3d 1d 18 a9 bb cb 2a 61 bf cb 93 c6 3e
       0.044769347 -0.005160345 -0.8795592 0.38784632

all_embed.embed.bias f4 [128]
000000 26 e2 9f be 44 52 d0 be 1b 1c bf 3d 64 ff 3f 3e
       -0.31227225 -0.40687764 0.093315326 0.18749768
000010 6f f2 32 3e ee 7f f4 be 36 f3 ce 3e 09 08 96 3d
       0.17475294 -0.47753853 0.4041993 0.07325751
000020 13 dd ea be 6a 71 df be 22 f0 db be 2e a5 91 bd
       -0.4587179 -0.43641216 -0.42956644 -0.07111584
000030 ca 6c 95 be fe cd 94 3e 0a 71 d5 3e ba f2 bb be
       -0.29184562 0.2906341 0.41687804 -0.36708623
000040 de 7b d5 be cf 4f a6 3e 52 66 a1 be 0c 6c 6b 3e
       -0.41696066 0.32482764 -0.31523377 0.22990435
000050 67 da 58 3e 2c b4 13 3f e6 15 09 be 21 ac b7 3e
       0.21177064 0.57696795 -0.1338726 0.3587351
000060 2e 9d af 3d ac 9f c5 bd 5f 2b 17 be f7 03 96 3e
       0.085749015 -0.096495956 -0.14762639 0.292999
000070 8d a0 a4 3e c6 7f fd be a1 48 11 3e b4 16 31 be
       0.3215374 -0.49511546 0.14187862 -0.17293817
000080 9e e9 cc 3e fe 9d 5e 3c a1 d8 43 be 5b 59 b2 3e
       0.40021986 0.013587473 -0.19125606 0.34833798
000090 20 33 e8 be 9a 73 d7 be 09 72 b2 3e 0b 12 a4 3d
       -0.45351505 -0.42080384 0.34852627 0.08011254
0000a0 4f 8b 16 3e 9d ea 66 3e 6d 0d 9d 3b cc 1a f0 be
       0.1470158 0.22550435 0.0047928602 -0.46895444
0000b0 e4 78 fb be 5a e5 83 be 48 06 59 be 59 8c 92 be
       -0.4911567 -0.2576092 -0.21193802 -0.28622702
0000c0 14 f6 ac be 8b b1 aa 3d 5a fd 9d 3e 2b d9 2d 3e
       -0.33781493 0.08334645 0.30857354 0.16977374
0000d0 08 60 de be ff b5 20 be 3c 0f a2 bd 8e 7b ab be
       -0.4343264 -0.15694426 -0.07913062 -0.33492702
0000e0 54 ef 19 3e ac 92 0d 3e 89 34 16 3f f8 f7 0f be
       0.15032703 0.13825482 0.5867391 -0.14059436
0000f0 68 c5 03 3f c8 b5 b2 be 7e 10 83 3e ed 5b c4 be
       0.51473093 -0.34904313 0.2559852 -0.38351384
000100 fd 55 4d 3e a2 5c 38 bd 34 48 d6 be 84 b6 d9 3d
       0.20052333 -0.045010217 -0.41851962 0.10630515
000110 ea e1 97 3d b6 db 2c 3e 41 b8 14 3e b2 34 05 3e
       0.074161366 0.16880688 0.14523412 0.13008383
000120 b6 aa 98 be 1d f6 57 3e d5 f6 3e 3e 70 69 5b 3e
       -0.29817742 0.21089979 0.18648846 0.2142694
000130 2c c6 d3 be ff 06 15 3f ca bd f6 be 01 e2 53 3e
       -0.4136213 0.582138 -0.48191673 0.20691682
000140 18 da bb 3e f2 3a 42 3e 8e a9 ce 3e bb 22 80 be
       0.3668983 0.18967798 0.40363735 -0.25026497
000150 a3 f5 37 3d 6a 42 da 3e cb cd 21 3f 29 d3 0d 3e
       0.04491199 0.42628795 0.6320464 0.13850082
000160 dc 89 04 3f 41 73 b2 3e 45 48 8b be 24 3c 81 bc
       0.51772857 0.34853557 -0.27203575 -0.015775748
000170 6d f0 b9 be a6 ae b4 be 2e 7d 9d 3e f8 dc 43 3d
       -0.36316243 -0.35289496 0.30759567 0.047818154
000180 be a0 c2 be 16 34 4e 3c a1 d7 1f 3e 73 be fd 3e
       -0.38013262 0.01258566 0.156096 0.49559364
000190 1a c3 91 3e 25 57 09 3e 18 3b e6 be 83 72 f7 3e
       0.28469163 0.13412149 -0.4496696 0.48329553
0001a0 cb 2e 8b 3e 76 72 94 be 3a f6 f6 3e 55 a2 93 3e
       0.27184138 -0.28993577 0.4823473 0.28834787
0001b0 cd c1 81 3e 74 c9 d3 39 7c bd 2e be 10 e2 b3 be
       0.2534317 0.0004039515 -0.1706447 -0.3513341
0001c0 8d c2 07 bd c4 cd 25 be 5d e2 20 3f c0 e2 b0 3e
       -0.033144522 -0.16191775 0.628454 0.34547997
0001d0 74 29 13 be 4f c8 84 3e 90 19 4e 3e 4e 85 ad be
       -0.14371282 0.25934073 0.20126939 -0.33890766
0001e0 38 07 cd be 5f b7 1e 3f d9 99 a7 3e 70 1c 9a be
       -0.4004457 0.6199855 0.32734564 -0.3009982
0001f0 0b 66 d3 be a5 d1 f8 3e ca 4e c4 be 38 92 d1 3e
       -0.4128879 0.48597446 -0.3834136 0.4093187

all_embed.embed_2.weight f4 [128, 128]
000000 f7 61 08 3e 92 e7 f8 3d c7 b4 bf 3b 07 30 ba 3e
       0.1331862 0.121535435 0.0058504078 0.36364767
000010 4e ea c2 be 40 9e 1b 3b 08 42 bc be ae 87 19 be
       -0.38069385 0.0023745447 -0.36769128 -0.14993164
000020 05 55 78 3e 29 f0 10 3e ea 69 c7 bd 47 37 39 3e
       0.24251182 0.14154114 -0.097369984 0.18087493
000030 fa e4 c4 3d 90 92 6f be c6 8b 1a bf ae e9 ce 3d
       0.09613986 -0.23395753 -0.6036953 0.101031646
000040 40 06 f9 3b 32 a5 b3 3d 7c 9b 93 3d ec 78 1f 3b
       0.007599622 0.08771743 0.07207391 0.002433355
000050 3e cc 4d bd 26 25 14 be 81 68 47 3e 2a 33 08 bf
       -0.05024361 -0.14467296 0.19473459 -0.5320307
000060 d4 03 25 3e d9 64 4b 3b 3d bd 78 3e 30 fe 63 be
       0.16114742 0.0031035452 0.24290939 -0.22264934
000070 8d 52 64 be 42 4c 88 3d fd d3 d0 3d 89 a5 5b be
       -0.22297116 0.0665517 0.101966836 -0.21449865
000080 58 60 90 3e e0 65 d8 3e 23 f4 a3 be 0c da d4 bd
       0.28198504 0.42265224 -0.320222 -0.10393152
000090 71 1c b7 bd 20 27 47 3d d9 6a d3 3e e1 46 9f 3d
       -0.08940972 0.048621297 0.41292456 0.07777191
0000a0 bc c5 a0 3e 07 93 a0 bd f9 52 07 be b9 c4 09 3e
       0.3140086 -0.07840543 -0.13215245 0.1345395
0000b0 d8 ca 68 3d d1 ba e6 bd 30 3d de 3c 2f 0b ba be
       0.056834072 -0.11266101 0.027128786 -0.36336657
0000c0 73 43 94 be 40 f8 b1 bd 49 a3 34 3e 79 60 0b 3d
       -0.2895771 -0.08689928 0.17640413 0.03402755
0000d0 c6 8c fb bd 6f 5b ce bd 1a 7d ca 3d 90 8d 98 3c
       -0.1228271 -0.10076033 0.098871425 0.01862219
0000e0 c2 4a 76 be 51 21 c6 3e 54 fa 19 be fa f5 b4 3d
       -0.24051955 0.38697293 -0.15036899 0.08835979
0000f0 a8 15 ce be d1 ed d6 3d 3a 93 ea bd f9 cf ab bd
       -0.40250897 0.10494579 -0.114538625 -0.08389277
000100 41 23 23 be e8 54 31 be b0 1b a0 bd 3b 59 36 3e
       -0.15931417 -0.17317545 -0.07817781 0.17807476
000110 db ad 2d 3e 9d 13 da 3a 03 c3 c4 3c 2a df 27 3d
       0.16960852 0.0016637925 0.02401877 0.04098431
000120 90 56 77 bd 4c ac 92 bc 5c b7 01 bf 37 6f ec be
       -0.060385287 -0.017904423 -0.5067041 -0.461786
000130 90 44 00 bd 0f 88 0a be f6 89 ef bd 7c 3b d1 3e
       -0.031315386 -0.13528465 -0.11696236 0.40865695
000140 7d f8 28 3e 89 38 c7 3d 62 a4 e0 3e e9 ce d3 be
       0.16501041 0.0972758 0.43875414 -0.41368797
000150 88 94 44 3d 39 c3 78 3e e5 72 22 be dd a6 6d 3e
       0.047993213 0.24293222 -0.15864141 0.23208185
000160 74 61 6c be 25 e7 d8 3e 03 75 9f be 01 38 99 3d
       -0.2308405 0.4236385 -0.3114396 0.07481385
000170 a0 11 8e 3e 84 01 08 be 76 4c ac bd 11 c9 e7 be
       0.27747822 -0.13281828 -0.08413021 -0.4527059
000180 34 45 a2 3d 5e f2 a2 be 31 50 cb 3d c7 1b 48 3e
       0.07923356 -0.31825536 0.09927405 0.19541846
000190 8e a9 0e 3e 00 cc d0 3e 9d 4c 1b 3e e4 48 00 3e
       0.13931867 0.4078064 0.15165944 0.12527806
0001a0 30 0e 88 3e 78 28 81 3c c2 66 d3 3e ce 9e 03 bf
       0.26573324 0.015766367 0.41289335 -0.5141419
0001b0 a8 9c 2e 3e 67 5e 66 3e 6c ce 19 3d 4f d9 0b 3e
       0.17051947 0.22496949 0.037550375 0.13657115
0001c0 cf 8d fd 3d 9a c6 7e 3e 82 da 15 3e 59 86 9d be
       0.123805635 0.24880448 0.14634135 -0.30766562
0001d0 b6 b3 a3 3d 65 8e 7a 3a 4b 6e 3f be ca c1 e1 bd
       0.079932615 0.00095579616 -0.18694417 -0.110232905
0001e0 c8 cf c0 3c 8e 03 b5 bd 9e 67 a6 3e 6a e7 0c bd
       0.023536578 -0.08838569 0.3250093 -0.03440038
0001f0 e2 a5 50 3e 5d f8 00 bf 10 97 5d bd fb 33 d8 be
       0.2037578 -0.5037897 -0.054099143 -0.42227158
000200 00 bc 7d 3a f4 d3 60 bd 92 29 3b 3e fe 3b b8 bd
       0.0009679198 -0.054889634 0.18277577 -0.089958176
000210 b9 d4 08 be 36 3c c7 3d 83 36 17 be 5b 3a bb 3e
       -0.13362397 0.09728281 -0.14766888 0.3656796
000220 12 a4 24 be 53 9e 1a be 9a 36 20 bd 9b 6d 0e be
       -0.16078213 -0.15099458 -0.039114572 -0.13908999
000230 f9 c1 15 3e 80 9e 89 3e 52 39 a3 3d f0 19 1e bd
       0.14624776 0.26878738 0.07969917 -0.038598955
000240 b0 8b 5d bc 74 c3 95 3e 5e 9c 92 bd ef bf c4 3e
       -0.013522074 0.2925068 -0.07158731 0.38427684
000250 08 0b a5 3d 31 68 fe 3c 6f d3 02 be 4c 99 7a 3d
       0.08058745 0.031055542 -0.12775968 0.06118135
000260 a1 37 b7 bd 6e 02 c4 3d cf 72 1f 3e 2c 42 45 3e
       -0.08946157 0.09570776 0.1557114 0.19263524
000270 02 c2 99 3d d0 eb 4f bd 11 e4 a5 3e cb 12 8d 3e
       0.07507707 -0.050761998 0.32400563 0.275534
000280 16 2c a3 bd a1 64 21 be c4 7e ca 3d ab e5 dd bd
       -0.07967393 -0.15761043 0.0988746 -0.10834821
000290 7e 76 cc 3d 6a f6 94 bd 8b 40 70 3d 2c a5 67 bd
       0.09983538 -0.07273562 0.058655303 -0.056554005
0002a0 91 53 65 3e 50 42 21 3e 34 70 ea 3d 20 25 01 be
       0.2239516 0.15747952 0.11447182 -0.12611818
0002b0 a2 b6 13 bd e4 f6 73 bd b8 2b 43 bd 64 4f 76 3e
       -0.036062844 -0.059561625 -0.047649115 0.24053723
0002c0 76 18 08 be 2d 2d b8 3e f9 21 12 be 9b a7 cf 3c
       -0.13290581 0.35971966 -0.14270772 0.025348475
0002d0 88 fa c2 3c 78 17 66 3e 97 68 2d 3b 66 a4 e2 3d
       0.023801103 0.2246989 0.0026460045 0.11066513
0002e0 18 df 3e 3c 77 45 18 bd 91 48 f6 bd be 3a e0 bd
       0.011649869 -0.03717562 -0.1202556 -0.10948704
0002f0 33 13 5f 3c 91 39 c3 3e d4 24 b2 bd 01 76 62 bf
       0.013615417 0.38129857 -0.08698431 -0.8846131
000300 3d 88 b5 3e 3b d4 90 3e de 29 ab 3d 7a ad c8 bc
       0.35455504 0.2828692 0.08357595 -0.024496783
000310 22 b9 56 3d 55 e3 d3 3e 76 67 bb 3e 18 30 d4 3e
       0.05242265 0.41384378 0.36602372 0.41442943
000320 82 d8 4b 3e 73 13 ca 3e 16 11 b3 bd 90 e7 b1 bc
       0.1990681 0.39467964 -0.08743493 -0.021716863
000330 bc 57 ef bc b6 f1 b8 bd ba 76 e2 3d 73 cd 32 3b
       -0.02921664 -0.09030478 0.110578015 0.0027283102
000340 f6 a4 03 3d 1f 99 0e 3b 45 00 9e bd 0d 5c 4d 3e
       0.03213974 0.0021758748 -0.07714895 0.20054646
000350 4a 94 aa 3e 6b c4 30 3e b3 28 5c 3e 34 e6 50 be
       0.3331626 0.17262428 0.214999 -0.20400316
000360 80 50 7d bd 7a bb 30 be 19 be 5e 3e 68 cc 4c 3e
       -0.06184435 -0.17259017 0.21752204 0.1999985
000370 37 19 64 bd 6b 29 11 3e df fd 88 3e 4b 23 83 3d
       -0.05568811 0.14175956 0.26756188 0.06403216
000380 d5 61 42 bf 43 b0 ad 3d cd cb 5c bd 69 01 c9 ba
       -0.7593053 0.08480885 -0.053905297 -0.0015335503
000390 8b 8a fc bd fa 2f b2 bd 1c 07 5e bd 67 a1 55 bd
       -0.123311125 -0.08700557 -0.054206 -0.05215588
0003a0 e4 e1 e6 3d 3d 53 17 3e 9a d5 8f be 13 c1 34 be
       0.11273554 0.14777847 -0.28092653 -0.17651777
0003b0 d7 be 60 be a2 36 76 be ae b9 a5 bd 12 b9 ef bd
       -0.219478 -0.24044278 -0.08092056 -0.11705221
0003c0 d2 4f df 3e d5 eb 04 be d3 a4 7f be 7c 04 52 3d
       0.43615586 -0.12980588 -0.24965219 0.051273808
0003d0 b2 2d fa 3d cd 09 4c bd 6c 90 d1 3b 1c 28 2d bd
       0.12215747 -0.049814034 0.0063953903 -0.04227458
0003e0 31 72 00 be d9 bb c8 3d 68 b2 4c be ee 15 72 bd
       -0.1254356 0.09801454 -0.19989932 -0.059102945
0003f0 70 12 1d 3f 00 89 59 be 10 95 15 3d 74 ce e7 bd
       0.6135626 -0.21243668 0.03651911 -0.11318675

all_embed.embed_2.bias f4 [128]
000000 35 3b f6 bd 43 22 34 be a5 2a 14 bd 56 49 07 3c
       -0.120230116 -0.17591195 -0.03617348 0.008257231
000010 62 40 23 3d ab cb 76 3e 4b f0 20 3e 89 64 39 be
       0.039856322 0.2410113 0.15716664 -0.18104757
000020 6a 2c 2b 3e 92 b6 36 be c0 44 46 3d 1d 42 22 3d
       0.16716161 -0.17843083 0.04840541 0.03961383
000030 c4 dd 5a 3d 30 32 b3 3d 78 91 ab 3d 72 57 98 3d
       0.05343415 0.08749807 0.08377355 0.07438554
000040 22 5f 3d bd 7e 44 de bd 6c 14 61 bc df d0 21 bd
       -0.046233304 -0.108529076 -0.013737779 -0.039505836
000050 70 58 27 3d 8b 3d ae be 06 6c a0 bd 75 cc 52 3e
       0.040855825 -0.3403133 -0.07833104 0.20585807
000060 68 4c 9c bd 9a 22 4a 3e 84 80 a1 3d c8 4b 3b be
       -0.07631761 0.19739762 0.078858405 -0.18290627
000070 ac 2e fe bd bc 91 09 3d c7 6b 19 bd 93 72 01 be
       -0.12411246 0.03358625 -0.0374563 -0.12641363
000080 48 99 d1 3c e4 49 90 3d fc 19 d8 bc 31 78 f8 3d
       0.025585786 0.070453435 -0.026379578 0.121323
000090 73 30 34 be e2 4c 71 bb c9 09 ae bd 5f 84 34 3d
       -0.17596607 -0.0036819507 -0.0849796 0.04407155
0000a0 17 f6 04 be 36 8c 6b 3d a8 a7 35 3e ea a3 db bd
       -0.12984501 0.057506762 0.17739737 -0.107246235
0000b0 47 7a 2d bd 7c 96 f0 bd 41 90 98 be 56 c3 36 3b
       -0.04235294 -0.117474526 -0.29797557 0.0027887425
0000c0 7f 44 06 3c 57 8f 7d 3d 70 6f 1c be 43 b0 76 bc
       0.008195042 0.061904278 -0.15276885 -0.0150566725
0000d0 6f 9b 15 be 15 61 45 be 73 80 0c 3e 1a 1d 29 be
       -0.14610074 -0.19275315 0.13720874 -0.16515008
0000e0 67 4b d6 bb 15 83 5e bd a4 15 b8 bd c2 0a cd 3d
       -0.0065397504 -0.05432423 -0.089885026 0.100118175
0000f0 a6 ea 1d be 91 eb d2 3d 7a 6e 81 3c 07 e4 9f bd
       -0.15421543 0.10298837 0.01579975 -0.07807165
000100 20 e9 6b 3d b9 69 0a be bd 94 d4 3b aa b4 7b bd
       0.057595372 -0.13516892 0.0064874575 -0.06145159
000110 17 52 08 be b6 98 07 bd 97 9e 83 bd d7 8f 25 bd
       -0.13312565 -0.03310462 -0.06426733 -0.04042038
000120 02 98 e0 bd 58 f6 34 bc 56 7a ba bc 5f d4 17 bc
       -0.10966493 -0.011045061 -0.022763412 -0.009266942
000130 f1 50 60 bd 82 24 6d 3d 85 1f 01 be fa ec 8a bd
       -0.05476469 0.057896145 -0.1260968 -0.06783481
000140 b8 a2 f7 bd 50 78 d7 3b 8f 29 7e be 77 e1 9e bd
       -0.12091583 0.0065756217 -0.24820541 -0.07757848
000150 45 a5 f4 bc 0d b3 19 3e aa 6f 35 be 02 44 d8 bc
       -0.029863963 0.15009709 -0.17718378 -0.026399616
000160 02 43 0a 3e 68 1b ac 3d 0a 1f a4 bd 70 cb 61 bc
       0.13502124 0.08403665 -0.08013733 -0.013781413
000170 16 5b 9a bd a0 43 6a 3d 16 dd 8b bd 1f 56 fe bd
       -0.075369045 0.0571934 -0.06829278 -0.1241877
000180 0a 16 bb 3d 44 15 06 3b 4e 94 95 bd 86 70 24 bd
       0.09135063 0.0020459453 -0.073036775 -0.040146373
000190 d4 4b d8 bb 06 2e 1f bd d4 12 f9 bd 99 db 32 bb
       -0.0066008363 -0.03886225 -0.12161794 -0.0027291535
0001a0 d4 56 e9 3d 02 2a b1 bd f3 09 bc 3d 86 96 07 be
       0.11393514 -0.086505905 0.09181585 -0.13241014
0001b0 41 b2 99 3d 17 36 6b be d1 dd 38 bd ad 82 72 3a
       0.07504702 -0.22969852 -0.045133416 0.00092510396
0001c0 09 30 b4 3d 55 ce 7c bd 83 fa f5 bb 86 78 88 bd
       0.087982245 -0.06172021 -0.00750667 -0.06663613
0001d0 6d a4 bd 3d fa 85 86 3d f6 d1 7f bd a2 b5 48 be
       0.09259877 0.06568523 -0.062456094 -0.19600537
0001e0 0f 54 0e 3e de e7 1b bd 7a dc 6e be e1 63 15 bd
       0.13899253 -0.038062923 -0.23326293 -0.036472205
0001f0 f0 83 a2 3d 32 09 50 3e a1 54 6c 3d ba 54 33 bd
       0.07935321 0.20316008 0.057697896 -0.043781973

pointer.v f4 [1, 1, 128]
000000 31 9a b3 3f 0c be 69 bf 81 b7 cc 3f e8 47 89 bf
       1.403143 -0.91305614 1.5993501 -1.0725069
000010 97 94 85 3e 8c b2 c3 bf a6 02 01 40 a4 92 50 bf
       0.26089928 -1.5288863 2.0157866 -0.81473756
000020 f0 e5 3a 3f 0a 07 b4 3f e3 69 2a bf 86 52 16 c0
       0.73007107 1.4064648 -0.6656782 -2.3487868
000030 c8 ea f1 3f 5a 28 31 3f 20 72 86 bf 90 a0 68 bf
       1.8899775 0.69202197 -1.0503578 -0.9087
000040 1e 68 28 c0 1a b9 b9 bf c7 b6 97 3f 50 02 4a 3f
       -2.6313548 -1.4509614 1.1852654 0.7890978
000050 76 3e da 3f eb 65 ba 3f 9e cc 63 bf b4 80 61 bf
       1.7050312 1.4562353 -0.88984096 -0.8808701
000060 e9 a7 37 bf 19 b0 ef bd d4 82 26 bf d3 54 b8 bf
       -0.71740586 -0.1170351 -0.6504338 -1.4400886
000070 7f 61 b0 3f 54 6e 06 3f 1f ab a5 3f fd bb 21 bf
       1.3779753 0.525121 1.2942847 -0.6317747
000080 6d fe 34 bf 82 75 bb bf 91 3c 91 bf 4b 61 54 bf
       -0.7070072 -1.4645236 -1.1346608 -0.8296096
000090 9a 98 ee 3f 65 e4 3f 3f f1 69 2d bf 2e 7e 04 40
       1.864032 0.7495788 -0.6773978 2.0702014
0000a0 90 2f 95 3f 10 f5 8d bd 28 9e ff be 55 0a 92 bf
       1.165514 -0.069315076 -0.4992535 -1.1409403
0000b0 0c c1 b0 bf 33 4b 5b bf 42 db d4 3f 9c 84 fa 3f
       -1.3808913 -0.8566162 1.6629412 1.9571719
0000c0 e7 df a8 bf 3e 42 d4 3e 10 82 47 3f 7e fb b4 3f
       -1.319333 0.4145679 0.77932835 1.4139249
0000d0 b2 0c 0e 40 9c a3 a6 3f d6 9b 9b bf c5 f0 41 bf
       2.2195249 1.301868 -1.2156932 -0.7575801
0000e0 04 4d b0 3f 3b e6 3a bf 33 a9 6f 3f 2b 42 5c bf
       1.3773503 -0.73007554 0.9361755 -0.86038464
0000f0 ed ae b3 be ab 80 ca bf e1 58 ae 3e bc 65 28 40
       -0.35094395 -1.5820516 0.34052184 2.6312094
000100 a3 43 9f bf ed f5 3c bf ee 2d 55 be a5 c1 7f 3f
       -1.2442516 -0.7381275 -0.20818302 0.99904853
000110 6f e8 69 bf 54 dd 1d 40 58 11 a9 be c6 a7 de bf
       -0.9137029 2.4666338 -0.33021045 -1.739495
000120 aa 7d 08 40 fd 0c 82 bf 63 21 3a be b8 68 cb bf
       2.13267 -1.0160214 -0.18176799 -1.5891333
000130 c5 be 13 40 83 c3 51 bf cd 28 31 3f d2 9d 4b bf
       2.3085186 -0.8193895 0.6920288 -0.7953769
000140 fb c5 82 3f b6 60 08 c0 ba 81 b8 3f 82 68 14 40
       1.0216669 -2.1309028 1.441459 2.3188787
000150 16 b9 77 be 81 d4 8d bf 66 d2 96 bf 73 ba c9 bf
       -0.24191698 -1.1080476 -1.1782959 -1.5760025
000160 5f 4b c5 bf a5 86 63 bf 89 8d 14 40 83 a5 39 bc
       -1.5413626 -0.88877326 2.3211386 -0.011330965
000170 ae b3 06 bf 5b 7e 9e bf 7b 6a 3f 3f fe f3 59 c0
       -0.5261792 -1.2382311 0.7477185 -3.405517
000180 19 24 ea bf 07 59 cc be 6f b5 c0 3f fe 9d 55 bf
       -1.8292266 -0.39911672 1.5055369 -0.834442
000190 82 a0 d5 bf 00 d7 ea be af 91 ef bf c3 4d 88 bf
       -1.6689608 -0.45867157 -1.8716334 -1.0648731
0001a0 3b e6 51 3f f8 b1 c5 3f d7 e7 9f bd 8f f4 28 bf
       0.8199193 1.5444937 -0.07807892 -0.65998167
0001b0 a6 11 ab bf 30 03 90 3f 34 b6 b0 3f ec 02 04 40
       -1.3364761 1.1250973 1.3805604 2.0626783
0001c0 a4 1d a6 3f 0b b0 8d bf b3 83 75 3f 86 b9 53 bf
       1.2977796 -1.1069349 0.9590408 -0.8270496
0001d0 8b 87 d5 bf c5 b6 c2 3f 19 71 87 3f 54 16 82 3f
       -1.668199 1.5212027 1.058139 1.0163064
0001e0 a7 5d de bf 2e 45 87 bf b9 4a df 3f df f6 d5 3f
       -1.737233 -1.0567987 1.7444679 1.6715964
0001f0 7e 0e c3 3f a8 d9 52 bf 25 4d 17 3e de 09 bd bf
       1.5238798 -0.8236337 0.14775522 -1.4768636

pointer.encoder_attn.v f4 [1, 1, 128]
000000 fa d6 11 3d 92 2e 60 bd 4e 1c 46 be 1a da 07 3e
       0.03560541 -0.054731913 -0.19346735 0.13266793
000010 03 36 7f bc 3b a0 43 be a5 05 d4 bd 14 c5 22 3e
       -0.015576842 -0.19104092 -0.10352639 0.15895492
000020 99 ec 27 be 36 ff e2 bc a5 04 ea 3c a8 7c ac 3d
       -0.16398849 -0.027709585 0.028566668 0.08422214
000030 b5 fc c6 3d 9f 41 65 bd d7 da e5 bc a8 46 8a 3d
       0.09716169 -0.055970784 -0.028058453 0.06751758
000040 00 3f d1 3d 39 21 b0 3d 11 ff 85 be c3 83 e0 bd
       0.102170944 0.08600087 -0.26171163 -0.109626316
000050 e3 a4 c6 be 90 4c 4b bd 9d 4a 27 3e ca fb 15 3e
       -0.38797674 -0.049633563 0.16337056 0.14646831
000060 bc e1 7e ba 63 d4 2f be 7d c1 72 bd 47 fe a0 3d
       -0.0009722968 -0.17170863 -0.059266556 0.078609996
000070 1c 8f 03 be e0 ae dd 3e 5d bc 03 be aa 63 c1 bd
       -0.1284756 0.43297482 -0.12864824 -0.094428375
000080 65 6c e8 bd f9 63 b9 bd 7d d1 b0 3d 62 2f 11 be
       -0.113487996 -0.090522714 0.08633707 -0.14178231
000090 3a f2 19 be 71 80 20 bd 3d c9 db 3d 84 57 fd bd
       -0.15033808 -0.03918499 0.107317425 -0.12370208
0000a0 5e f8 84 3e b7 42 84 bd 20 3d 9e 3c 40 82 37 be
       0.2597074 -0.06458037 0.019316256 -0.1792078
0000b0 b9 bf af bd 05 ce 90 3d 72 5e bf be 96 59 a6 3c
       -0.0858149 0.07070545 -0.37376744 0.02030639
0000c0 92 16 e8 bd 22 65 13 be 03 66 92 3d 7e 2f 1d 3e
       -0.1133243 -0.14394048 0.071483634 0.15350148
0000d0 bb e4 50 3d 20 ec 2a 3e 2b 90 f7 3d f9 aa 3e be
       0.050999384 0.16691637 0.12088045 -0.18619908
0000e0 b6 03 b7 3d 09 0d 52 bd f9 82 1b be f7 44 1a be
       0.08936255 -0.051281963 -0.15186681 -0.1506537
0000f0 84 7f 59 bd 2e 23 78 bd 87 41 9e 3d 96 22 1d 3e
       -0.053100124 -0.060580425 0.07727342 0.15345225
000100 f1 e1 d2 3c b0 e5 04 be 95 c6 57 3e 15 d1 01 be
       0.025742503 -0.12978244 0.21071847 -0.12677415
000110 73 4f e7 3d e4 ac 10 be 27 b3 00 be 67 22 64 3d
       0.112944506 -0.14128453 -0.12568341 0.05569687
000120 f9 ea bb bd 4e 61 90 3d e8 ca 43 bd be 44 13 be
       -0.09175677 0.070498094 -0.04780093 -0.14381692
000130 6d ad 8b bd 49 ed 82 bb 2b 18 da bd a1 81 15 be
       -0.06820188 -0.0039955718 -0.10649141 -0.14600231
000140 c5 f3 c9 bd e3 82 42 3e fb f2 67 be 78 17 19 3e
       -0.098609485 0.18995242 -0.22651283 0.14950359
000150 cb 2c 6a bd e1 7a 0c 3e 2f fd b3 bd 80 4a 8b 3e
       -0.057171624 0.1371875 -0.08788525 0.27205276
000160 6f 44 c0 bd 98 d9 64 be 8f 1e 44 3e 56 96 aa 3d
       -0.09388053 -0.2234863 0.19152282 0.083294556
000170 6e df f8 3d 95 3e ee 3d fa 9c 8a bd db 80 dc bd
       0.12151991 0.1163303 -0.06768222 -0.10766765
000180 06 07 db bd 1c a1 da 3d f2 65 d8 bd 07 7f 2b be
       -0.10694699 0.106752604 -0.105663195 -0.16747676
000190 a2 d7 ee bd ce c9 4f be da 6c 50 3e b8 66 7d 3d
       -0.116622224 -0.20291826 0.20354024 0.06186554
0001a0 db 3c 0a be e5 cb 42 be 56 d1 3c be c0 ea b5 3d
       -0.13499777 -0.19023092 -0.1843923 0.08882666
0001b0 61 64 15 be f4 53 71 3e 00 2e 25 3e 4f 4e 55 be
       -0.14589073 0.23567182 0.16130829 -0.20830654
0001c0 48 09 1d 3e 2d ed c0 3d 3c 1c cb 3d 54 04 89 bd
       0.15335572 0.09420238 0.09917495 -0.06690279
0001d0 13 01 54 bd 30 71 ad 3d bc 3d 5c be 9d 40 5d be
       -0.051758837 0.084688544 -0.21507925 -0.2160668
0001e0 c8 96 b0 3d f7 66 a6 3e d1 e7 2b 3e 6a dd a1 3c
       0.08622509 0.3250043 0.1678765 0.019758899
0001f0 f6 10 32 bd ee 41 87 3d 7c 80 d3 3d 97 e2 85 3e
       -0.043473206 0.06604372 0.10327241 0.26149437

pointer.encoder_attn.W f4 [1, 128, 256]
000000 3d 41 54 bd 48 d5 0c 3d 64 68 c0 bd 31 14 49 bc
       -0.05182003 0.03438309 -0.09394911 -0.01227288
000010 61 a9 25 be 4b 63 82 bd 98 e5 c2 bd 8e c2 da 3d
       -0.16177894 -0.06366595 -0.09516448 0.106816396
000020 31 d4 67 bd c7 eb 21 bd be 59 9a 3c 58 a9 eb 3d
       -0.056598846 -0.039531495 0.01884162 0.11506909
000030 04 0e a8 bd 3c bc eb bd 24 0a bf 3c 5a 57 8a 3a
       -0.08205798 -0.11510512 0.023320265 0.0010554597
000040 48 1e 6d 3d d1 42 54 3d 76 53 92 bd 65 bf 55 bd
       0.057890207 0.051821534 -0.07144825 -0.05218448
000050 b0 6e 3e bd b6 61 90 bd fa 70 bd bc e1 f6 21 3c
       -0.04649228 -0.07049887 -0.02312516 0.009885521
000060 e1 57 69 bd 70 b1 96 bd 4a e3 a6 3d 17 f7 9a bd
       -0.056968573 -0.07358062 0.08148821 -0.0756666
000070 42 22 8e bd 2f d6 80 bd d5 8b 9f bd b5 4b 78 3d
       -0.06940128 -0.06290852 -0.07790343 0.060619075
000080 3d ae 14 3c 6f 17 13 3b d6 a9 a6 bc 62 30 df 3c
       0.009074745 0.0022444387 -0.020344656 0.02724475
000090 64 3c ab bd 00 50 97 bd 9f 6e c2 3d 4d 43 a2 bd
       -0.08361128 -0.07388306 0.094937555 -0.07922993
0000a0 fa 6a 3b 3d 71 c8 e7 bd 60 4d b5 3d 1c 91 35 bc
       0.045756318 -0.11317528 0.08852649 -0.01108196
0000b0 1d 73 95 3d 20 0f 09 3d 14 28 64 bd 97 f1 df bd
       0.07297347 0.03346169 -0.055702284 -0.109347515
0000c0 dd 3d b4 3d a0 8a c3 bd 76 8d c0 bd 43 f6 54 bb
       0.08800862 -0.09547925 -0.094019815 -0.0032495416
0000d0 46 c0 83 bd 0e 24 2a bd 79 b4 32 bd b6 42 cf 3d
       -0.064331576 -0.04153829 -0.043629143 0.10120146
0000e0 3e f0 bd bc 52 f1 16 3d a8 a7 80 bd 60 db 94 bc
       -0.023185845 0.036851235 -0.06281978 -0.018171012
0000f0 d2 1f eb 3d 31 c3 b8 3d fd 49 a3 bd 61 9b 98 bd
       0.114806786 0.09021605 -0.079730965 -0.07451511
000100 85 2c 8a 3d 9c 82 9e bb b4 79 6a 3d 17 e6 7f bd
       0.06746773 -0.004837347 0.05724497 -0.06247529
000110 9c a4 f6 3b 8a ab 1e bd c6 e7 3f 3d 06 f9 bc 3d
       0.007526947 -0.03873781 0.046851896 0.09227185
000120 6b 46 8d bd cf 31 f5 3d 48 8b 39 3d be 32 c6 bd
       -0.06898197 0.11972391 0.045298845 -0.09677647
000130 97 7e 4e bd 3a 74 79 bd 91 de da 3c 3d fe c5 bc
       -0.050413694 -0.060901858 0.026717456 -0.024169082
000140 b4 65 83 bd 75 ad 2c 3a 4f c7 3a bc b7 d6 ca bd
       -0.06415883 0.00065871264 -0.011400058 -0.09904235
000150 1a 2c e5 3d ff 71 be bc 0c 0b a6 bd 98 95 8c 3c
       0.11190052 -0.023247717 -0.08107576 0.017161176
000160 00 f6 d6 3c 0c 33 7b 3d 72 9c 10 bd 84 e5 92 bd
       0.026240349 0.06132798 -0.035305448 -0.07172683
000170 62 25 e0 3d 31 e9 39 bd 9e a5 7e bd e8 b0 e4 bd
       0.1094463 -0.045388404 -0.062169664 -0.11166555
000180 c7 4a 48 bb 6a 12 e5 3d 8f 0b 91 bd d5 b0 d8 3d
       -0.003056215 0.11185153 -0.07082283 0.10580603
000190 03 36 9d b9 39 7c 4b 3d 81 d7 8c 3b 49 f0 e1 bc
       -0.00029985615 0.049679015 0.004298151 -0.027580397
0001a0 01 75 49 bd 96 26 d5 bc 90 30 ad bd 3b c5 6c 3d
       -0.04918385 -0.026019376 -0.08456528 0.05780528
0001b0 83 c6 8d 3b 3d d7 b4 bd 3a b8 d1 bd 5b e8 b1 bd
       0.004326643 -0.08830116 -0.102402166 -0.086868964
0001c0 bd cf d6 bd 89 8f 49 bd 7b 3e dd bd 56 37 51 bd
       -0.10488842 -0.04920915 -0.10802933 -0.051078163
0001d0 99 9f 9c 3d 96 ec ae bd 3f ed 3c bd f0 20 4a bd
       0.07647628 -0.08541219 -0.046124693 -0.049347818
0001e0 c4 c7 ff bc 67 c4 46 bc af 86 40 bd 6c a9 b8 bd
       -0.031223185 -0.012131787 -0.047003444 -0.0901669
0001f0 f7 ad 16 bc b8 b7 d9 3c bd e1 68 bd a0 02 65 bd
       -0.00919675 0.026576862 -0.056855906 -0.055910707
000200 b7 26 35 3d 01 af 5f 3d ba 79 87 bc 97 50 41 bd
       0.044226374 0.054610256 -0.016537536 -0.047195997
000210 9e 7e dc bc a2 a1 3c bd 8c cd 19 3d c9 e9 30 bd
       -0.026915845 -0.046052583 0.03754954 -0.043191705
000220 60 fd 34 bd f3 92 20 bd 51 e8 84 bd ff 61 ee 3c
       -0.04418695 -0.03920264 -0.06489623 0.029099463
000230 09 85 a0 3d b1 e2 6d bd 28 09 4a 3d 06 59 1d bd
       0.078378744 -0.058077518 0.04932514 -0.038414977
000240 0f 25 ae bd 1b 5f 85 3d 29 35 85 bd bc b0 1d 3d
       -0.08503162 0.065122806 -0.0650428 0.038498625
000250 98 16 4e 3d 3f eb 3d bd 87 7f 53 3d 79 e1 32 3d
       0.050314516 -0.046366926 0.05163529 0.04367206
000260 8b 52 e7 bc dd 65 23 3d 7d 7e de 3b 72 13 82 3d
       -0.028237602 0.039892066 0.006789981 0.06351365
000270 8e cd 15 bd dc 4f 12 3d d9 d7 ee 3c f6 a7 21 bd
       -0.036572985 0.03572069 0.029155659 -0.03946682
000280 a9 05 81 3d 41 3f 60 3d 58 25 b6 bd 4b 2b 09 3c
       0.06299908 0.054747824 -0.088938415 0.008372138
000290 b2 6c 00 3d 1f 17 28 3d 45 37 8c bb fd 71 2a b7
       0.03135366 0.041037675 -0.0042790496 -1.015933e-05
0002a0 bc f5 15 3d 4d 87 86 ba d0 64 1e 3d 22 49 ca bc
       0.036611304 -0.0010263711 0.03867036 -0.024693076
0002b0 b7 c6 b6 bd a0 17 16 3d 26 a5 e7 bb 06 3d 9e 3b
       -0.089246206 0.036643624 -0.007069248 0.004829052
0002c0 18 bf 49 3d 10 f2 9c bb 68 ac ad 3d 85 ae 8f 3d
       0.049254507 -0.0047895983 0.084801495 0.07015709
0002d0 d5 fc 58 3a 5e 8f 91 bd 70 fc 6c bd f6 60 50 bd
       0.0008277421 -0.07107423 -0.05785793 -0.05087372
0002e0 f4 bb 69 3d bd 07 3d 3d 90 e8 80 bd 16 58 2d bc
       0.05706401 0.046149958 -0.06294358 -0.010580083
0002f0 48 6c 96 bd 51 9a 21 bb f9 03 6e 3c 8d 49 69 3d
       -0.07344872 -0.002465863 0.014527314 0.05695491
000300 d5 31 46 3d 13 36 92 bc 8e fe f0 3c 0a 18 21 3d
       0.048387367 -0.01784805 0.029418256 0.039329566
000310 b7 8b 21 3d 3a 93 83 bd 77 10 4d 3d f2 fd 54 3c
       0.039439883 -0.064245656 0.05006453 0.012999998
000320 48 0f 71 bc 3b 02 6c 3d 8b d5 8d 3d fa 2e 71 bd
       -0.014713116 0.057619315 0.06925496 -0.05888269
000330 41 e9 6f bd 94 56 1c 3d 2b 39 1d bd 0f d5 6c 3b
       -0.058572058 0.038168505 -0.038384598 0.0036137735
000340 55 85 15 be e8 9c 53 bd 2a ab 00 bd 43 bf b0 3d
       -0.14601643 -0.05166331 -0.031413235 0.0863023
000350 09 85 2e bd ea da b7 bb 30 bd 1b 3d 5f 2a 87 3c
       -0.04260734 -0.0056108134 0.03802222 0.016499696
000360 5a cc 02 3c 35 c9 9d 3b ff 64 13 3d d1 4b 24 3d
       0.0079832915 0.0048152455 0.03598499 0.040111367
000370 3c 87 c9 bc e7 62 08 3d 3a 13 c8 3c 29 42 bb 3c
       -0.024600618 0.033297446 0.02442323 0.022858696
000380 88 cf 83 bd 63 04 c6 3b 7e 1f 96 3d 7d a7 93 3d
       -0.06436068 0.0060430034 0.073302254 0.0720968
000390 9b e1 73 bd 88 e1 6c bb 1b 5a 12 bd 30 05 85 3d
       -0.059541326 -0.003614517 -0.035730463 0.0649513
0003a0 d6 e7 6e bd de bd b6 bb af fa 00 bc 21 dd 9d bd
       -0.058326565 -0.005576833 -0.007872268 -0.077081926
0003b0 b3 02 28 bd 44 85 6c 3d a6 45 ef 3b a6 a0 6c 3c
       -0.0410182 0.05774428 0.007302004 0.014442598
0003c0 02 b7 a3 3c 19 e5 09 3d 1d ac 88 3d f2 d6 ad bc
       0.019984726 0.03366575 0.06673453 -0.021220658
0003d0 f0 19 ae 3d 88 fe 1b 3d c0 31 0e bb ff 70 9b 3d
       0.08501041 0.038084537 -0.0021697134 0.07589912
0003e0 ea b0 e5 bc 93 91 06 3d 82 93 cc 3c bc 34 2c bd
       -0.02803846 0.032853674 0.024972681 -0.04204248
0003f0 7b 6d 1a bd 06 0b 0e 3d 49 a9 00 bc 2a 68 27 3d
       -0.037702065 0.03467848 -0.007852861 0.040870823

pointer.fc1.weight f4 [128, 256]
000000 69 1d 1d be ad 67 b1 bd 89 03 b3 3d 1b 67 34 3d
       -0.1534325 -0.08662353 0.08740909 0.04404364
000010 25 ce aa 3d 6c c3 91 3d 3c 79 4d bc f2 35 fb 3d
       0.083401 0.07117352 -0.012541112 0.122661486
000020 f1 d4 0e 3e 84 c5 12 bd 22 1b 9d 3d b7 27 50 3d
       0.13948418 -0.035832897 0.07671191 0.050819125
000030 78 b7 ba 3c c7 34 14 3c f3 2b 03 3b 30 17 b6 bc
       0.022792563 0.009045786 0.002001521 -0.022227854
000040 5f ef a6 bd 7c d3 8c 3d 43 5b 95 bc de ce 9e 3d
       -0.08151125 0.06876275 -0.018231994 0.077543005
000050 63 94 e7 bd c5 b4 a6 bd e5 95 83 bc eb 63 0c be
       -0.113075994 -0.08139948 -0.016062686 -0.1370999
000060 ee 91 8f bd d4 cf 4b 3d b5 5c a6 bd 74 41 88 3d
       -0.07010256 0.049758747 -0.08123151 0.06653109
000070 10 52 1c bd d2 6d 1c 3d ab dc 5b bd af 58 68 bc
       -0.0381642 0.03819067 -0.053677242 -0.0141813
000080 17 75 e6 3d 92 92 d7 3c 4b cd fd 3d 01 6b a5 bd
       0.11252802 0.026315007 0.12392672 -0.0807705
000090 93 78 b6 3d 16 f3 43 bd f2 60 d7 3d 53 e2 d6 bb
       0.089097165 -0.047839247 0.10516538 -0.0065577417
0000a0 3f 5c 36 bd d0 15 b1 bd 3a 4b 90 3d 21 37 d7 3d
       -0.044521566 -0.086467385 0.07045598 0.10508562
0000b0 c9 e0 10 3c 25 1a 93 bc 1c f1 ce bc fc 0e 10 be
       0.008842655 -0.017956803 -0.025261454 -0.14068216
0000c0 c6 b5 6b 3d 12 e4 8e bc 72 5b 96 bd 3e 42 15 be
       0.0575464 -0.017442737 -0.073416606 -0.1457605
0000d0 a8 8e dc bd 15 d0 06 3e 24 06 d0 3d 7a b0 96 3d
       -0.10769397 0.13165314 0.10157421 0.07357879
0000e0 aa 58 0f 3c 16 7e a7 bd dc d5 0f 3e dc 03 a4 3c
       0.0087491665 -0.08178346 0.14046425 0.020021372
0000f0 86 bd 13 3e ba c7 03 3e 29 e8 73 3d f4 f1 a1 bd
       0.14427766 0.12869158 0.059547577 -0.07907477
000100 73 72 79 3d 42 d2 d0 3d fd 45 d3 bd 3e 5e e3 bc
       0.060900163 0.101963535 -0.103160836 -0.0277549
000110 24 79 ab bd 33 2a d3 3d 4b c9 0c bd 4f 49 d8 bd
       -0.08372715 0.10310783 -0.034371655 -0.105608575
000120 a4 d6 ad 3c e1 90 98 bd 9a 61 dc bd ad 5e 61 bc
       0.021220513 -0.074495085 -0.107608035 -0.013755483
000130 12 7e a3 3d f0 38 5d bd f1 79 15 3e 43 55 de 3d
       0.079830304 -0.054009378 0.14597298 0.10856106
000140 6b 83 c7 3c a9 0f 40 3c dc 07 51 bd 2c ab 04 be
       0.024354657 0.011722484 -0.051032886 -0.12955922
000150 06 6c 93 3d 8e 7f 8f bd 07 f1 53 3d 61 38 8a 3d
       0.07198338 -0.07006751 0.051743533 0.06749035
000160 7a 00 54 bc 7e bd bf 3c 83 f7 b6 3c 3e 63 64 bd
       -0.012939567 0.023405787 0.02233482 -0.055758707
000170 59 c8 9b bd c1 bd 4e bd 3e 03 ff bc 4b fe a5 bd
       -0.07606573 -0.050473932 -0.031129476 -0.08105143
000180 f9 69 e9 bc b8 cc 60 3d 17 52 c2 bd c3 76 ce 3d
       -0.028492915 0.054882735 -0.09488314 0.10081246
000190 09 c6 f8 bc 6b 30 20 bc 3c 49 a6 bd 96 b7 db 3c
       -0.030367868 -0.009777169 -0.08119437 0.026820939
0001a0 91 cb 09 bd de 94 76 bd ca ca 9c 3c 87 70 9a bd
       -0.0336414 -0.060200565 0.019139666 -0.07540994
0001b0 06 5d 9c bd 95 aa 95 3d dc 1f 11 be 40 99 bc bd
       -0.0763493 0.073079266 -0.1417231 -0.092089176
0001c0 10 56 4d bd cc dc d3 3b d1 cd c8 3d 4d f1 07 3d
       -0.050130904 0.00646553 0.09804881 0.033189107
0001d0 03 48 8d bd 9d e5 8f bd a0 84 04 3d eb 2b ed bd
       -0.06898501 -0.07026217 0.032353044 -0.11580642
0001e0 14 eb e0 3d 6b 67 b1 bd 15 ac e3 ba 98 78 a1 3c
       0.109823376 -0.086623035 -0.001737001 0.019710824
0001f0 f7 1e 81 3d 3d e4 f5 bd 18 fd 6a bd ec 6b c8 3d
       0.06304734 -0.120064236 -0.057370275 0.097862095
000200 66 13 fa 3a 49 b6 8a 3d 6a bc ca 3d 25 0f d4 3d
       0.0019079268 0.067730494 0.098992184 0.10354451
000210 e1 73 8a 3d 7e 6b 0b 3e e8 ef 6d bd d6 3d b0 3d
       0.067603834 0.13615224 -0.05809012 0.08605544
000220 aa 88 d1 bd 76 ce da bb 41 ff ea bd 60 25 f2 ba
       -0.10231145 -0.006677444 -0.11474467 -0.0018474273
000230 58 f6 00 3c 66 68 55 bd bb c5 06 3e 15 2b 31 bd
       0.007871233 -0.052101515 0.13161366 -0.043253977
000240 7f 31 be bc 0f 9a a4 bd 34 88 e8 ba 6b d7 ad bd
       -0.023216961 -0.08037197 -0.0017740787 -0.08488353
000250 f8 f5 05 3e 49 e8 c0 3d 0c c1 b9 bd 3c 72 00 bd
       0.13082111 0.09419305 -0.09070024 -0.031358942
000260 cf fd 89 3c 8c 09 f0 3d 2c b1 ad bb e2 6c 75 bd
       0.016844658 0.11720571 -0.0053006615 -0.059918292
000270 db b0 05 3e 05 44 ba 3c c2 15 0a bd 94 b1 b4 3d
       0.13055746 0.022737512 -0.033712156 0.08822933
000280 d7 d6 a4 3d 8b e8 a2 3c 14 4f 4b bd 74 29 0c 3e
       0.0804879 0.019886276 -0.04963596 0.13687688
000290 c1 10 8e bd cd 83 14 bd ab 95 ce bd 17 e0 19 bd
       -0.06936789 -0.036258508 -0.10087141 -0.037567224
0002a0 9f be ed 3d ee 34 aa 3d 11 e2 e8 3c 80 57 01 3e
       0.11608624 0.08310877 0.02842811 0.12631035
0002b0 82 5e 1f 3d 39 78 9a 3d 5b f8 2f bd ec 30 46 3d
       0.03890849 0.07542462 -0.04296146 0.0483865
0002c0 6a 66 e7 3c 64 03 99 3d 0f 1f 07 3e 3a b1 a6 bc
       0.028247077 0.0747135 0.13195442 -0.02034818
0002d0 6f 7c 8c bd 40 1c 25 bc 2d 70 bd 3d 6c 36 57 3d
       -0.06859671 -0.010077536 0.092499115 0.052542135
0002e0 4f ef 19 bd cb 1a b4 bd 63 7e 15 3b 4a 82 f2 3c
       -0.037581738 -0.08794173 0.0022810928 0.029603142
0002f0 b4 d3 74 bd d9 1f ca bd 7e a7 89 3d 49 10 fc 3d
       -0.05977221 -0.09869356 0.067214 0.12307794
000300 e3 9b ab 3d 65 22 fe 3c 0f 2b e3 3b 7a c1 aa 3d
       0.083793424 0.03102226 0.006932623 0.08337684
000310 2e 89 91 bc a0 d5 83 bd 5d 09 62 3d 50 91 d6 bd
       -0.017765608 -0.0643723 0.05518471 -0.10476935
000320 19 48 75 bd 65 2f 8a bd 0e 7d 9d 3c a9 06 16 3e
       -0.05988321 -0.06747321 0.01922467 0.14650978
000330 fc e8 5b bd 4e a2 a2 3d 58 e1 9a 3d 03 81 b9 bd
       -0.053688988 0.079411134 0.07562512 -0.0905781
000340 a2 d1 60 3d 68 2f 79 3d f2 18 d0 bb 6a 9a 6b bd
       0.05488742 0.060836226 -0.00635063 -0.057520308
000350 fe 1f fd 3b 58 76 0a 3d 7f d3 33 3d ec 2d 57 bd
       0.007724761 0.033804268 0.04390287 -0.05253403
000360 59 31 71 ba 44 e1 dd bd 3f 96 a5 bd 23 ef b0 3d
       -0.0009200774 -0.10833982 -0.08085298 0.08639362
000370 7c fb 9d 39 7e 93 97 3b d6 eb bb bd 23 7d ce 3c
       0.00030132744 0.0046257367 -0.091758415 0.025206154
000380 bd 70 61 bd d5 42 df 3c 98 7e d5 3d 2d 13 20 bb
       -0.055039156 0.027253548 0.104245365 -0.0024425492
000390 63 f5 33 3d 78 6d 94 bd a7 3d 00 be fc b5 c0 bd
       0.04393519 -0.07247442 -0.12523519 -0.09409711
0003a0 85 ff 36 3d 8d 66 76 3d 5a 4f b4 3d 84 0d 8c bd
       0.044677276 0.060156394 0.088041976 -0.068385154
0003b0 87 d1 5f bd 84 67 ff 3d 5b ca 0b 3e 2d d1 8e bd
       -0.05464318 0.12470916 0.13651411 -0.06973491
0003c0 05 ee 12 3d b6 0f 58 3c 1d 1e dd 3d 0c 3f 4b bd
       0.035871524 0.0131873395 0.10796759 -0.049620673
0003d0 b8 ce 01 be 65 58 b3 3c a3 35 20 bc 50 6a 0d 3c
       -0.12676513 0.021892736 -0.009778413 0.008631304
0003e0 16 c8 e0 3c c0 98 b7 bd 34 0e f1 3d 38 ec d2 3d
       0.027439158 -0.089646816 0.11770287 0.102989614
0003f0 d9 a6 f1 bd c4 a8 7d 3d 97 ab 6c 3d 10 dd 3c bd
       -0.11799402 0.061928526 0.05778083 -0.04610926

pointer.fc1.bias f4 [128]
000000 2b f8 68 bd 1b 8d 0d bd 42 33 c1 3c c1 fb df 3c
       -0.056877296 -0.034558397 0.023584012 0.027341725
000010 d1 85 31 bd 3a 28 57 bd 05 4b ac 3b 7f 00 55 bd
       -0.043340508 -0.052528597 0.0052579665 -0.052002426
000020 af 93 50 3d d5 a6 90 bd 2d 48 67 bc 0f 79 97 3c
       0.050922092 -0.07063071 -0.014116329 0.018490342
000030 52 c3 44 3d aa 0c 62 bd 7d e5 56 3d cc 5c a3 3c
       0.048037834 -0.05518786 0.05246495 0.01994171
000040 a0 2f 02 3d 1c 1a d4 3d 2c 0a 6d bd ee 80 9b bc
       0.0317837 0.103565425 -0.05787103 -0.018982377
000050 83 b3 40 3c af 6d be 3d 69 a9 f4 3b 57 c9 f6 bc
       0.011761549 0.09298264 0.0074664843 -0.030125303
000060 9c b4 a2 3d fe f6 88 3b ac 30 b9 39 dc 80 2e bd
       0.07944605 0.0041798344 0.00035322213 -0.04260336
000070 73 ae 8e 3d d0 9e 3c 3d f7 a1 da bb 27 b9 a0 bd
       0.06966867 0.046049893 -0.0066721397 -0.07847815
000080 40 e7 92 bc e0 02 81 3b c0 7b 0c bd d8 69 52 3d
       -0.017932534 0.0039371103 -0.034297705 0.05137047
000090 2b c3 3f 3d d5 81 d1 bc 57 c3 8e bd d1 a8 bc bc
       0.046816986 -0.025574604 -0.06970852 -0.023029717
0000a0 2e 58 6c 3d f5 4d 8e 3d ae 54 e9 bc 1c f2 e1 bc
       0.057701282 0.06948463 -0.028482761 -0.027581267
0000b0 09 e7 3b bc ca d3 ac bd 0f 28 09 bd 2a 67 94 3c
       -0.011468657 -0.08438833 -0.03348547 0.018115599
0000c0 be 69 b5 3c bf d2 0d 3d 3a 70 3d 3d 75 72 88 3d
       0.022145148 0.03462481 0.046249606 0.06662456
0000d0 ae bc 4c 3d fa d8 b1 3d 46 0c 56 3d 60 8e 27 bd
       0.049984626 0.08683963 0.0522578 -0.040907264
0000e0 1c 4d 86 3d 3a ec 85 bd 14 bd 6d 3d 5b 15 e2 bc
       0.06557676 -0.06539197 0.058041647 -0.027598074
0000f0 7d 47 b0 bc 3c 30 46 3c a3 8d 85 3b fe 05 a2 bb
       -0.021518463 0.012096461 0.0040757223 -0.004944562
000100 b1 1c cc bc b5 01 76 bd 82 43 61 3d 79 4a 2d 3a
       -0.024916025 -0.06006022 0.05499602 0.00066105236
000110 bd c6 20 bd 93 72 8b bb 3f 9a d5 bc 2c 99 03 bd
       -0.03925203 -0.0042556017 -0.026074527 -0.032128498
000120 de 87 38 3d 65 27 4b 3d e3 8b 4b 3d 9c d9 0f 3c
       0.045051448 0.049598116 0.049693953 0.008779909
000130 6c b0 47 3d b7 b1 13 bd 72 9b ed 3d d6 59 00 3d
       0.048752233 -0.036058154 0.116019145 0.031335674
000140 ee 5e 28 bd 02 a8 2e 3d 20 af 29 3d ca a1 43 3c
       -0.041106157 0.042640693 0.041426778 0.011940429
000150 e8 ba d4 3c c8 26 cc bd 27 d9 09 3c b0 e5 2c bd
       0.02596803 -0.099683344 0.00841359 -0.042211235
000160 19 31 51 3d 1c 59 0c 3e f3 a6 40 bc 87 41 93 bc
       0.051072214 0.13705868 -0.011758554 -0.017975582
000170 04 85 2a bd 2d f8 a2 bc d4 6b 48 3d cc ca af bc
       -0.04163076 -0.01989373 0.048930958 -0.021459006
000180 0d 85 ac bc 46 61 9a 3b 3e f8 fd 3a 86 2f be bc
       -0.021059537 0.004711303 0.001937635 -0.02321602
000190 f1 20 0e bd 65 ee 1d 3c e6 1e c4 3d e5 27 29 bd
       -0.034699384 0.009639357 0.09576206 -0.041297812
0001a0 10 e9 32 bc 6e af 38 3d d1 c9 73 3a f8 ef 1c bb
       -0.010919824 0.045089178 0.00092997873 -0.0023946743
0001b0 bb be 46 bc fe 70 b9 b9 c7 96 08 3d f2 a2 85 3d
       -0.012130435 -0.00035370135 0.033346917 0.0652522
0001c0 eb 0b 2c 3b 73 63 93 3c 50 6f 52 3c 03 01 ce 3c
       0.002625222 0.017991757 0.012843922 0.025146967
0001d0 19 47 80 bd 19 b7 48 3d da 26 56 bd bd 11 c0 3d
       -0.06263561 0.04900274 -0.052283145 0.09378383
0001e0 b8 30 bc bd ef 08 20 bc f0 15 38 bc bd 31 c8 3c
       -0.0918898 -0.009767755 -0.011235699 0.02443778
0001f0 d1 bb 18 3d 9c d9 81 bd f9 d6 b3 3c 3d 5c 81 bd
       0.03728849 -0.06340334 0.021953093 -0.06316421
