trained_models/sdvrp/altr_SD_100/model_incumbent_vrpRl13_SD_ALTR_100_T_0.2_89754.pt (torch_old, 469732 bytes, 15 tensors)

all_embed.embed.weight f4 [128, 4]
00000000: 25fc a8be 4eba 103f 9bb9 883d 8e09 60bc
00000010: c1d2 e7be be5e 053e 34d6 8bbd 9394 b43e
00000020: 3442 0f3e 1bea 70bd 1a50 d0bd fb03 363d
00000030: d6c5 08be ec8f 9a3d 3e04 133e 81a4 d9bd
00000040: 0c43 bcbe dce4 d83e aeb4 33bd fb0d 7a3e
00000050: c34d 393e 3335 3e3f 8230 32be 249f 8a3d
00000060: 4e8b 4a3e 2ddf 393f 769c 0d3e 119d 63bd
00000070: 9bac 46bc 5e27 acbb 5863 9d3e da89 bf3e
00000080: d103 553e a8d3 733e b383 5abe e037 8ebe
00000090: 2ebb d7be e641 103e 4166 1cbe 36c4 bfbd
000000a0: 6ddd 0e3f c96e 3c3e b578 7dbb 3fb7 863e
000000b0: aed9 e03e ae3d 6f3d 1866 a6be a2f6 05bf
000000c0: 30c0 a53e 5f34 febe cd6e e1bd 0b39 753d
000000d0: f300 2e3f 6284 91be fe85 a4bd 2c0c 033e
000000e0: e5a5 503f fddd 04be 7088 d03c 9355 f53c
000000f0: 3827 cdbe 9249 ff3e 3b85 293d 5350 8fbd
00000100: 065d e83d 644b d23d f509 b43e 0dff 9c3e
00000110: 084b 743d 846e bb3d 0acb 80bd c511 cabd
00000120: ef68 0bbe cf09 243f 1354 94bd b013 673d
00000130: 8051 42bc e0bc 50be b061 07bc 8665 e1bd
00000140: 0f8d 15be d4dd 0e3f b5d3 fa3b 84e2 0cbe
00000150: 50d9 aa3c 847e 25be 00ef 403d cbc8 c0bd
00000160: b0b3 97be a40e 003f 3a9a 6dbd 3fb5 99bd
00000170: 1e33 203f 9571 9e3e 1fbc 803e d3fe 973e
00000180: b838 d63e d75e aa3e 0f98 e1be 088d 14bf
00000190: 80a2 0bbe 5058 77bd 9213 8bbd e9fb c3bd
000001a0: 5b4e fd3d da3e cebd 2021 e4ba 0dc8 38be
000001b0: 71b4 4d3f 6761 f23d 968f 3d3d d8cf debd
000001c0: a0d5 853e e51b 553e 2170 10bf ea25 12bf
000001d0: 5eef 1b3f 4c69 f03e dbc4 4dbe 6ae6 4a3e
000001e0: d4a8 7bbd 24a6 473e f880 173d 7e4a b6bd
000001f0: d482 733e 0ea8 24be 8265 3e3c b7b5 94be
00000200: 8962 c43e 2176 aebe 7e1f 52be bfd4 97be
00000210: 4886 4a3f 29ba 193e 0e99 063e 99aa 01be
00000220: 394c 1f3d ba94 313f 0a58 493e 02d0 de3d
00000230: 1806 b53e fde6 71bd 3bc9 bbbe 7764 e6be
00000240: 786b dc3d df39 2fbe 5894 5f3d d8bc 103d
00000250: fe5a 883d 7baf 2b3f 8a0d 3ebe c02b c33d
00000260: 4a6d 503f 629a 8ebd d87f 86be 797f 4a3e
00000270: 6edd b5bd ec72 ecbe 8229 3e3d 2490 a43e
00000280: 4d38 393f 07da 653e 26b0 0fbe e676 d53d
00000290: 14d6 093f a511 0f3f dfe1 8dbd 3c19 3abe
000002a0: e840 a1be 5bf2 993e e6af 823e 9214 6f3e
000002b0: 2664 2dbe bc0e 1cbd b44b 493e 6849 ba3d
000002c0: 26ef 303f 0d48 f23d d2b0 653e 4e67 5d3c
000002d0: 46b1 e43d 08bd 34bf 0bfb 19be 1bda 9c3d
000002e0: 0e57 c2bd 6869 253c 0d42 3c3f 7bf3 d23d
000002f0: 5a3c 183e 1740 143f f243 62bd ac8c f93d
00000300: 183f 1c3f 3adf 243f 2686 36bc fa21 c43d
00000310: aa71 0f3f 9ae2 863e b8fa 4dbd 3258 d83d
00000320: e5ef 943e 9408 bfbe b973 f73d 9098 7b3e
00000330: f6c7 1bbe 170a 313f 10ca 2bbd 9fef e6bc
00000340: 4f26 a73e 4b60 4c3f aa32 f53d 0685 093e
00000350: c048 df3c d0b2 e7bd c047 053b 08ea d83d
00000360: 60ea 403f e91f a53e c5dc e93d 781b ebbc
00000370: c2a9 86bd 9370 0a3f 2155 693e 59d3 6d3e
00000380: 5f5b 7fbe 483b 1a3f 76ba 24be b180 e23d
00000390: 5708 203b 931e f23e aaed c7bd ea2e e8bd
000003a0: ab60 4dbe 3048 9b3d d877 75bd 64c4 31bd
000003b0: 2413 1e3e 8428 b53d 284f bf3d cc2f 60bd
000003c0: f265 343e 9d7e dcbe 1fe5 aa3d 128d 4cbe
000003d0: 2104 0d3e 26d1 623f 6370 e73d 7af4 333d
000003e0: 685b 84bd f545 1f3f b374 5bbd 7a11 37bb
000003f0: fdca 61bd c2b1 393f ba79 723c 179b e8bc
-0.3300487 0.5653428 0.066760264 -0.013674153 -0.4527798 0.13024423 -0.068279654 0.35269603
0.13990098 -0.05881701 -0.10171528 0.04443739 -0.13356718 0.07546982 0.14357087 -0.1062708
-0.36769903 0.42362106 -0.04387348 0.24419396 0.1809607 0.74299926 -0.17401317 0.06768635
0.19779703 0.72606164 0.13829216 -0.055569712 -0.012126113 -0.0052537164 0.30739856 0.3740986
0.20802237 0.23811209 -0.21339302 -0.27777004 -0.42134994 0.14087638 -0.15273382 -0.09363596
0.5580662 0.18401636 -0.0038676683 0.2631168 0.43916076 0.05840843 -0.32499766 -0.52329457
0.3237319 -0.4964933 -0.11007462 0.059868854 0.679702 -0.28421313 -0.080333695 0.12797612
0.81503135 -0.12975307 0.025455683 0.029948032 -0.40068984 0.49860817 0.041386824 -0.069977425
0.11345868 0.10268286 0.35163847 0.30663338 0.059641868 0.091519386 -0.06288727 -0.098666705
-0.13614248 0.64077467 -0.072425984 0.05641526 -0.011860251 -0.2038455 -0.008263037 -0.11005692
-0.14604591 0.5580723 0.007654632 -0.13758284 0.020855576 -0.16161543 0.04710293 -0.09413298
-0.29629278 0.5002234 -0.05800841 -0.07505273 0.62578 0.3094603 0.25143525 0.29686603
0.41840148 0.33275482 -0.44061324 -0.58027697 -0.13636208 -0.060386956 -0.06790842 -0.095695324
0.12368461 -0.10070582 -0.0017404892 -0.18045063 0.80353457 0.11834984 0.046279512 -0.10879487
0.26139545 0.20811422 -0.56421095 -0.570891 0.6091212 0.46955335 -0.20094626 0.19814458
-0.061440304 0.19496971 0.03698823 -0.08900927 0.23780376 -0.16079733 0.011620881 -0.29044887
0.38356426 -0.340745 -0.20519826 -0.296545 0.79111147 0.1501242 0.13144323 -0.12662734
0.03889105 0.69367564 0.1966249 0.10879518 0.35356212 -0.05905818 -0.36676964 -0.44998524
0.107626855 -0.1711192 0.05458483 0.035336345 0.066579804 0.67064637 -0.18559852 0.09529829
0.8141676 -0.0696304 -0.26269412 0.1977519 -0.08880125 -0.46181428 0.046426304 0.3214122
0.72351533 0.22446452 -0.14032039 0.10423069 0.5384228 0.558863 -0.06927847 -0.18173689
-0.31494832 0.30067715 0.25524825 0.2334769 -0.16932735 -0.03809999 0.19657785 0.090960324
0.6911491 0.11830149 0.22430733 0.013513399 0.11166625 -0.7060094 -0.15037172 0.07658788
-0.094892606 0.010095932 0.73538285 0.103003465 0.14866772 0.57910293 -0.05524058 0.12185034
0.61033773 0.64403117 -0.011140382 0.09576793 0.5603281 0.26344758 -0.050287932 0.10563697
0.29089275 -0.37311232 0.12082619 0.24569917 -0.15212998 0.6915602 -0.04194075 -0.028190432
0.32646415 0.7983443 0.11972554 0.1342965 0.02725637 -0.11313403 0.0020336956 0.10591513
0.7535763 0.32250908 0.114190616 -0.028699622 -0.065753475 0.54078025 0.2278638 0.23225154
-0.24937199 0.60246706 -0.16086754 0.11059702 0.0024419033 0.4728895 -0.09762128 -0.11337073
-0.20056407 0.07582128 -0.059928745 -0.043400183 0.15436989 0.08845618 0.0934127 -0.054733083
0.17617014 -0.43065348 0.08344483 -0.19975689 0.13771106 0.88600385 0.11300733 0.043934323
-0.06462747 0.6221612 -0.05357809 -0.0027934 -0.055125225 0.7253686 0.01479953 -0.028394265

all_embed.embed.bias f4 [128]
00000000: 32bc 823e 423d 553d 7734 8dbe 92fe d0be
00000010: 3081 d73e 9940 4ebe 36d6 87bd 1a23 bbbe
00000020: 21d3 b03d 0c91 063f 44c2 6b3d 486d 673d
00000030: ba15 de3e 93b3 ec3d efe3 d33e cf87 cd3e
00000040: 39e5 debe b0f9 b6be cf57 073d 58d8 1bbe
00000050: 4968 d53e e86a 02be 0326 d43e 34be 833e
00000060: 1475 1e3d 0041 81be fc7e 9dbe c4a1 1e3b
00000070: c4db 133e 05c4 27be 0632 cabe 4685 673e
00000080: c54a 5cbd 92ae 0b3d cb6d d53e 1d78 193d
00000090: c88c b6be 6529 18be 8add 0ebd 78b2 c03e
000000a0: daec 6bbe e619 a23e cb17 dfbb 7b83 f3be
000000b0: 7761 8c3e f17e 113f 7b1b 1abd fa34 d23e
000000c0: b4a7 6ebd 520e df3d 279a 203e fc58 c73d
000000d0: 96f4 843e 1681 cbbe 121f cf3c 6de7 7ebe
000000e0: a86f a53d baa8 cf3e 10f3 f2be 200a d8be
000000f0: 20da 4e3e ce04 cf3e 76ab 64bc 46b2 a43e
00000100: a2ed f73e f785 e03e 65b5 8c3e 6b4f 9e3e
00000110: 6ef5 e13e ec90 1fbe 2be9 013e 16f2 ad3e
00000120: 28c5 98be d637 083f ae4e bcbe 1006 223e
00000130: d6ba f9be a256 873e 5b29 ff3e 3b4d a8be
00000140: c60a d63d 7e3a d6be bb27 a73e ee78 8e3c
00000150: 898b d33e bae7 af3e 1530 1b3e 0d1f 5cbe
00000160: bef9 54be d654 acbe ae01 63bd 6d54 65bd
00000170: 46c6 e13e c3b2 953d 35fb 1d3e 0080 d1be
00000180: e4cd 6ebd 18d1 90be a8a6 7fbd 4ce6 6bbe
00000190: 9cd7 6b3e 1ae8 553e be30 db3e aaba 863e
000001a0: 6e5c fabe 1a33 37be 089e e83e c1e4 12be
000001b0: bef4 513d 11e5 3b3e dd3e 81be 5ead 853c
000001c0: da34 b13d 8bb7 cbba e3ae 163e 2468 6fbe
000001d0: f389 63bc 0238 50be 997c ce3e d8a3 b4be
000001e0: 8366 943d 4522 3cbd a0d2 3cbe 42d4 b73e
000001f0: d59e 3d3e 1859 a83e d280 b5be c5ad 833e
0.25534207 0.052060373 -0.2757909 -0.40819222 0.4209075 -0.2014183 -0.06632654 -0.36550218
0.0863402 0.52565074 0.057558313 0.056500703 0.4337595 0.115576886 0.41384837 0.40142676
-0.43534258 -0.3573737 0.033042725 -0.15219247 0.41681126 -0.12736094 0.4143525 0.2573105
0.038685873 -0.25244904 -0.30760944 0.0024205307 0.14439303 -0.1638337 -0.3949129 0.22609434
-0.053782243 0.03410203 0.41685328 0.037468065 -0.35654283 -0.14859541 -0.034879245 0.3763616
-0.2303957 0.31660384 -0.0068082563 -0.4756125 0.2741811 0.5683432 -0.037623864 0.41056043
-0.058265403 0.10891403 0.15683804 0.09733769 0.25967854 -0.39746922 0.02528337 -0.2489297
0.08077937 0.40558416 -0.47451067 -0.42195225 0.20200396 0.40433353 -0.013956895 0.32167262
0.48423487 0.43852207 0.27482143 0.30919966 0.4413256 -0.15582627 0.12686603 0.3397376
-0.29837918 0.532102 -0.36778778 0.15822625 -0.48775357 0.26433283 0.4983624 -0.32871422
0.104512736 -0.418415 0.326475 0.017391648 0.41317394 0.3435648 0.1515506 -0.2149622
-0.20798394 -0.33658475 -0.055421524 -0.055988718 0.44096583 0.07309487 0.15427859 -0.4091797
-0.05830182 -0.28284526 -0.062414795 -0.2303707 0.23031467 0.20889321 0.42810625 0.26314288
-0.48898643 -0.17890587 0.45433068 -0.14345075 0.051258795 0.183491 -0.25243273 0.01631802
0.08652659 -0.0015542371 0.14715151 -0.2337957 -0.01388787 -0.20333865 0.40329435 -0.35281253
0.07246115 -0.04593112 -0.18439722 0.35904127 0.18517621 0.32880473 -0.35449845 0.25718513

all_embed.embed_2.weight f4 [128, 128]
00000000: 265f 233e 48e7 0bbe 6fcd 4c3c ccbe 7a3d
00000010: a7d9 55be 57ec ddbd 34a4 d73b c308 e8bd
00000020: f845 1fbe 6e89 87bd 0999 78be 6db5 203e
00000030: 8f9b 763e 0540 9fbd ddcc 81be 3db7 c1bd
00000040: c788 9dbe d467 923d 827d 79bd 3948 193e
00000050: 28aa df3d defe 1cbd ea0d af3c 7bed 9bbe
00000060: c8ee babd f6b8 e83d 2d06 8bbc 9906 71be
00000070: 13c8 3a3d 71ba 46bd e084 93bb da9d 803d
00000080: d394 563e c1e0 0dbe c1d7 ebbc 081e 85bd
00000090: 0beb 163e 2718 a8bc 0315 34be c931 f0bd
000000a0: 3955 9abe fea8 5bbc 3a8d edbd 97d3 17be
000000b0: 0c0b c5bd 6dab 0dbe ae9c 303d 5fa3 823d
000000c0: c191 73be 498e babe bea6 c23c e61f 9c3c
000000d0: 354a 0abe 201a c6bc 9695 e83b 7a81 e1bd
000000e0: 2c69 97bd 2c68 2e3e 9282 b33d 40a7 d6bc
000000f0: f7a2 353e b6c4 8abd ebc9 1a3d 9ad9 16be
00000100: 51d2 b2be 375e da3c a8f4 633d d52f 91bc
00000110: b4a9 e6bd 5a7e a2bd ad5f 4dbe a2c5 3b3e
00000120: 2f57 093e 9fe2 d4bc 361f ec3d 23b0 86bd
00000130: 8e16 e3bd aefb 68bd f801 a53d f728 a9be
00000140: ec27 2dbe cf54 66be 9ef9 f2ba b0cf 423e
00000150: 8e4e bbbc 80a9 7cbd 9bc2 b2bd 9acc 23be
00000160: 8644 74be 8ae1 e43d c911 713e 57ec 163e
00000170: 5641 173e 28e6 d43c d2f8 b13d 0466 8fbd
00000180: ec2b 403e 689c 33bd f5a0 f13d aa18 c73d
00000190: 0e7e 8c3e b36e 7dbe f6c2 a93b 9772 49be
000001a0: 7612 d23d 76ee 97be cab7 c03b 9677 b73c
000001b0: 700d 2a3e 749d 08be 2ae6 8bbe cd1f 3f3e
000001c0: d94e 0abe 3fa1 713d b073 cdbd 95de 7cbc
000001d0: 8054 223e e1ee c33c df18 8bbe e0bd 40bd
000001e0: 75d5 d3bd 312c 6f3d 70a5 cf3c 51ab b83d
000001f0: 41b4 1abe d6ce cfbd be30 cf3d 4002 2dbd
00000200: 32c8 30be b00a f3bb 26e7 f9bd 48af c6bc
00000210: 6be8 92bd 240f a9bd cd07 16bd f99d c93d
00000220: 572c 873e 2723 39bd 0744 be3d a039 663e
00000230: 3b44 43bd c57b 603e 812d b33d b914 a93b
00000240: d2f0 9c3e b3a6 dbbd bf33 29be c564 bbbd
00000250: 867b 8dbb de2c c13d 2d4c 24be 9078 d73d
00000260: 0bd0 833e 36b0 33bd 002e 9e3d 3252 543e
00000270: 2ce9 783c b116 283e f661 10be 2a04 2bbc
00000280: 425e 203d 98bf 063d 2aab 953d d813 053c
00000290: f2e8 f03d 1ac9 e4bd 74ff 77bc e83f d4bc
000002a0: 2c65 b63e 5a78 de3d 7bde c3bd 979a 0dbe
000002b0: 7d93 debc 9636 12be 46a1 633c 7aa9 83bd
000002c0: 25a6 acbc b323 183d 27fc 8cbe 4eda adbd
000002d0: 35ad 0fbd 37ff 0c3e e7a4 693d cfa9 a73d
000002e0: ebca 833c e15e 65be 4080 c8bb 22e1 ae3d
000002f0: b29a 97bd fc6c 96bd 73db 233c 08b8 42be
00000300: 17c1 c23c 3b34 08be f9fe 3abe 4309 2e3e
00000310: 86a7 5abe b3af 893d 9b52 923d 6a91 04be
00000320: bc26 263d c818 69be 60fd 87bc 8e79 9cbd
00000330: dc37 f9bd ed5c 713c f255 1ebe 8289 943e
00000340: 7ec5 673e d176 0d3e 04e8 75be 86aa fdbc
00000350: 6494 24bd 9032 72be 1d61 52bd f619 a13e
00000360: 4e6f 4c3e 40b9 34bc 7b13 1fbd e7eb fdbc
00000370: 01c6 23be be9f 16bd f8f0 cabd 213c 99bd
00000380: c2be 86bc a839 843c abc9 6a3b e01a 203d
00000390: 6a9d 82be bd11 813d 6eeb 093d 94e0 663d
000003a0: 5858 483d fbc9 ed3d 237f 20bd 5e8f 213d
000003b0: 7365 5dbe fd98 47be 0b91 c63d 2fb4 c9bd
000003c0: db31 603d c544 13be b3cf 973d d488 343e
000003d0: 969a 73be 38bd 36be f0c7 173e c2e9 01bd
000003e0: 2a28 ff3c 8d56 13be 8075 70bb e692 83be
000003f0: 0c93 e53d 5d1f 3d3e 60ea e53b 4dd7 0bbe
0.15954265 -0.13662446 0.012500151 0.061217114 -0.20883809 -0.10836094 0.006580854 -0.11329796
-0.15554035 -0.066180095 -0.24277128 0.15694208 0.24082778 -0.07775883 -0.2535161 -0.09458778
-0.30768415 0.0714871 -0.06091071 0.14968957 0.109211266 -0.038328998 0.02136894 -0.3045462
-0.09127575 0.113634035 -0.016970718 -0.23537673 0.045600962 -0.048517648 -0.004501924 0.06280108
0.2095521 -0.13855268 -0.028789403 -0.06499869 0.147381 -0.02051933 -0.1758614 -0.11728246
-0.30143145 -0.01340699 -0.115992025 -0.14826809 -0.09621248 -0.13834925 0.04311817 0.06378817
-0.2378607 -0.3643668 0.02376115 0.01905818 -0.1350487 -0.02418238 0.00709791 -0.11011024
-0.07393107 0.17031926 0.08765139 -0.026202798 0.17737947 -0.06775801 0.03779022 -0.14731446
-0.34926084 0.026656253 0.055653244 -0.017723003 -0.11262837 -0.07934256 -0.20056029 0.1833711
0.13412164 -0.025986968 0.115293905 -0.06576564 -0.11088286 -0.056880645 0.08057016 -0.33039066
-0.1690976 -0.2249329 -0.0018537526 0.19024539 -0.022864606 -0.061685085 -0.08728524 -0.15996018
-0.23854265 0.11175831 0.23541941 0.14738594 0.14771017 0.025988653 0.08690037 -0.0700188
0.18766755 -0.043850332 0.11798278 0.09721501 0.27439922 -0.2474926 0.005180712 -0.19672619
0.102574274 -0.2967412 0.0058812844 0.02239589 0.16606688 -0.13341314 -0.2732404 0.18664475
-0.1350664 0.058991667 -0.10031831 -0.015433927 0.15852547 0.023917617 -0.27167413 -0.04705608
-0.10343448 0.058391754 0.025347441 0.09017051 -0.15107824 -0.10146873 0.10116719 -0.042238474
-0.17263868 -0.0074170455 -0.12202291 -0.024253502 -0.071732365 -0.08254841 -0.036628533 0.09844584
0.26401016 -0.04519954 0.09290319 0.2248292 -0.04767249 0.21922214 0.087489136 0.005159941
0.3065248 -0.10725155 -0.16523646 -0.0915008 -0.0043177037 0.09432386 -0.16044684 0.10521042
0.25744662 -0.04386922 0.077236176 0.2073448 0.015192311 0.16414906 -0.14099869 -0.0104380045
0.03915239 0.03289756 0.073080376 0.008122407 0.11763181 -0.111711696 -0.015136588 -0.02590938
0.35624063 0.10862799 -0.09563919 -0.13828503 -0.027169937 -0.14278635 0.013893431 -0.064288095
-0.021075318 0.03714342 -0.27536127 -0.08488904 -0.035077292 0.13769232 0.05704203 0.08186685
0.01608797 -0.22399475 -0.006118804 0.085390344 -0.07402553 -0.07345006 0.010001051 -0.19015515
0.023773713 -0.13301174 -0.18261327 0.1699572 -0.21352968 0.06722965 0.07144662 -0.12946096
0.040564284 -0.2276336 -0.01660031 -0.07640372 -0.121688575 0.014731628 -0.15462473 0.2901116
0.22633931 0.13814856 -0.24014288 -0.030965101 -0.04018058 -0.236521 -0.051362146 0.3146512
0.19964334 -0.011030495 -0.038836937 -0.030996276 -0.15993501 -0.036773436 -0.099092424 -0.07482172
-0.016448382 0.016140774 0.003582577 0.03908813 -0.25510722 0.063022114 0.03367179 0.05636652
0.048912376 0.1161079 -0.039183747 0.039443366 -0.21620731 -0.19491954 0.096956335 -0.098488204
0.054735046 -0.14381702 0.07412662 0.17630321 -0.23789439 -0.17845619 0.14822364 -0.03171707
0.031147081 -0.14388485 -0.003669113 -0.25698012 0.112096876 0.18468995 0.007016465 -0.1365635

all_embed.embed_2.bias f4 [128]
00000000: 1b60 4ebe de0b d63d 9a57 c23c c796 5a3c
00000010: 6986 f23d 7550 243c db08 783c 5933 a2bd
00000020: ff71 ec3c bcfa 7b3d 4319 8abc 56cf a2bd
00000030: 8c5f 353e 2fbb 80bc 29b2 9dbd 2814 59bd
00000040: 2d26 1fbe 5579 66bd be5a 6cbd 7dac 5b3d
00000050: 1e5e 413e 6e54 bdbd d3da a93c 37ef 64bd
00000060: a78f f43d 7f9b 86bc 647f a0bd 3644 22bd
00000070: b788 34bd e8ac 53bd 18cc a4bd f8dd f4bb
00000080: 62f3 5bbd 6965 aebd da14 0bbd 3d19 9dbe
00000090: 3c0f 16be b9d2 a33d 673d 4f3e f301 823c
000000a0: 9639 1ebe fbc3 44be 2b76 49bc 31b7 873c
000000b0: 5578 6dbd df54 14be 6bf1 813d ace8 cc3d
000000c0: 42a5 29be 0a53 2bbe eb8b ffbd 65d1 87bd
000000d0: c6b7 883c a1e9 343d 8c68 953d fcd9 71be
000000e0: ed20 1f3e aaf5 bebd b44f 6dbd 3c5b 783d
000000f0: ae0a 48bd 6cd0 e3bd a900 8ebb 9f16 6bbc
00000100: c98e b5bd 6b9a e0bd 2ee9 5abe 6244 163d
00000110: dda3 21be 55d5 1a3e 2f22 663d 23f5 063d
00000120: f8bb 2ebe db9b d6bd 399e d23a 6326 c73d
00000130: df6f 3dbe 090e c3ba 3c70 88bd 94e3 86bd
00000140: 758b 70be 8b63 e8bc 40ea 17bd 9762 b53c
00000150: cec5 e63d 202b bbbc 3e5b 86bd e371 52bd
00000160: a53e 05be 13c4 9a3d 2fc1 9fbd 14d0 c0bd
00000170: e7ea 60be 2ecc cbbd b191 06bd 19cf 56be
00000180: 2799 f9bd 1909 cd3d 6f61 a03d b3a2 f1bd
00000190: 3a36 4e3e 48e7 c9bd b6ae adbc 1995 f0bd
000001a0: 79be 0abe c80d 22bd 976b 6abd ecf0 15bd
000001b0: d5a5 60bd c77a 3dbc 52de 623d 9e5f 6bbb
000001c0: 9ae8 dfbd 09b5 23be 82f9 6a3d 2260 ffbc
000001d0: a1b8 62bd 5e0d 443c 37e8 28be 6796 09bd
000001e0: 9f8e 01be 9e90 b1bc 4552 23bd c2cb 36be
000001f0: 8aab d7bd d09d 38be 3a32 cdbd fae2 01be
-0.20153849 0.10451482 0.023723412 0.013341612 0.11842043 0.010028948 0.01513883 -0.0791995
0.028862951 0.061518416 -0.016857749 -0.079497024 0.1771223 -0.015714256 -0.07699997 -0.052997738
-0.15541907 -0.056268055 -0.057703726 0.053631295 0.18883559 -0.09244619 0.020734226 -0.055892196
0.11941462 -0.016431568 -0.07836798 -0.039615832 -0.044075694 -0.051678568 -0.0804674 -0.00747275
-0.053698905 -0.08515436 -0.033955432 -0.30683318 -0.14654249 0.079991765 0.20238267 0.01587007
-0.15451655 -0.19215386 -0.01229624 0.016566845 -0.057976086 -0.14485501 0.06344875 0.10005316
-0.16566947 -0.16730896 -0.12477859 -0.06631736 0.016689193 0.04416812 0.07295331 -0.2361831
0.15539904 -0.093242005 -0.05793734 0.060633883 -0.04883831 -0.11123738 -0.004333575 -0.014348655
-0.08865125 -0.10966953 -0.21378013 0.03668631 -0.15785165 0.15120442 0.056184944 0.032948624
-0.17063892 -0.10478946 0.0016068883 0.097241186 -0.18499707 -0.0014881502 -0.06662032 -0.06586376
-0.23490699 -0.028367778 -0.037088633 0.022141738 0.11268197 -0.022847712 -0.06560372 -0.051378142
-0.13012178 0.075569294 -0.07800519 -0.09414688 -0.21964608 -0.099510536 -0.032853786 -0.20977439
-0.121874146 0.10011501 0.07831084 -0.117986105 0.20137873 -0.098585665 -0.021201473 -0.11747188
-0.13549222 -0.039563924 -0.057231512 -0.036606714 -0.05484565 -0.011564917 0.055387802 -0.0035915147
-0.10933037 -0.15987028 0.057366855 -0.03117377 -0.055351857 0.011966078 -0.16494833 -0.0335907
-0.12652062 -0.021675404 -0.03987338 -0.17851165 -0.10530765 -0.1802895 -0.100193456 -0.12684241

pointer.v f4 [1, 1, 128]
00000000: 7819 a5bf cd55 f03e 74b0 80bf 5b45 3d3d
00000010: fc81 06bf 3038 b73f 4376 9a3f d29d f1bf
00000020: 4cb4 18bf a5da b43f 9133 9a3f 107e e0bf
00000030: e54b 4a3e 4570 223f f361 833f 99c8 b23f
00000040: 5f1e 9c3f 2759 f0bf 628f 10c0 2074 a13d
00000050: f0ee 973e 085a dabf a463 ae3e 3ca3 e1bf
00000060: 74fb 0dbf 41b9 bfbe c4ed 903f 9a3e c2bf
00000070: 2b32 c93f ab28 ce3e bcf2 dbbf 528d 89bd
00000080: 0515 98bf a12d 963f 88ff 803f 68f7 fe3f
00000090: 3b2e 20bf dfb6 aa3f 977d f0bf 37af 2b3d
000000a0: 53b1 cabe ae27 5d3f 8437 663e 70a1 ab3f
000000b0: 812c 34be 223d b53f 8e65 fbbd aa78 b83f
000000c0: 5d8f f7bf b98a a33f 1930 f9bd 139e edbf
000000d0: d019 b43f 40d4 4a3e d1a2 09c0 61ec acbf
000000e0: e013 5ebf f2f9 6b3b 34bf a63f 3330 d4be
000000f0: 8155 cf3f c3ae debe 2962 8a3a 425d ad3f
00000100: 03e6 0dc0 397e 943f e647 f73f 7df1 96be
00000110: 881a edbf 8622 c03e 75d4 53bd fa1f 60bf
00000120: 9ee4 e43f d1a6 a23f 4689 c9be 9173 9d3f
00000130: be46 05bf ac10 8a3f 7eb7 9d3f c3e9 00c0
00000140: 3675 a23f 03d3 fe3f d060 83bf c506 c1bf
00000150: 1a00 eebf 8adb 12bf 081c d63f 657c 38bd
00000160: 33e2 cebf 2cf8 c03e 1333 e8bf c2d7 673f
00000170: 5783 eb3f 284b 0e40 a70b 933f bc55 ee3f
00000180: fe8b 963f e033 da3f 630d 0c40 6d07 02c0
00000190: 5967 91bf e5f1 b33f 4434 a03f e0e4 cebf
000001a0: 51ef cabf ee07 2bbf 970b 0f40 d289 19c0
000001b0: 561b c13f 46c1 d43f 3a11 79be 6f9b adbd
000001c0: 3867 c4bf a77f 8ebe 37a8 83bf a39e d73e
000001d0: 5cd2 d9bf 773a ae3e 472a 66bf dae6 b63f
000001e0: d63b d4bf f354 dbbf 55f7 f23f 5f3a fa3f
000001f0: 6471 0440 338e f03f 2dc0 c6be 66fa 6fbe
-1.2898397 0.4694046 -1.0053849 0.04620872 -0.5254209 1.4314022 1.2067341 -1.8876288
-0.5965011 1.4129225 1.2046987 -1.7538471 0.19755514 0.6345256 1.0264267 1.3967468
1.2196769 -1.8777207 -2.2587514 0.07883477 0.29674482 -1.7058725 0.34060395 -1.762794
-0.5546181 -0.37446025 1.132256 -1.5175354 1.5718435 0.40265402 -1.7183452 -0.06716408
-1.1881415 1.1732675 1.0077982 1.9919252 -0.6257054 1.3337058 -1.8788327 0.041915145
-0.39588413 0.8638867 0.22482115 1.3408642 -0.17595102 1.4159281 -0.122752294 1.4411824
-1.9340626 1.277671 -0.12167377 -1.8563865 1.4070377 0.1980753 -2.1505625 -1.3509637
-0.86749077 0.0036007133 1.30271 -0.41443023 1.6197969 -0.43492708 0.0010557818 1.3544085
-2.2171638 1.160102 1.9318817 -0.29481116 -1.8523722 0.3752634 -0.051716287 -0.8754879
1.7882268 1.2707158 -0.39362544 1.2300893 -0.5206107 1.0786338 1.2321622 -2.0142677
1.269202 1.9908146 -1.026392 -1.5080191 -1.8593781 -0.5736624 1.6727304 -0.045040507
-1.616278 0.3768934 -1.8140587 0.90563595 1.8399457 2.2233372 1.1487931 1.8619914
1.1761472 1.7047081 2.188317 -2.0317032 -1.1359664 1.4058195 1.251595 -1.6163597
-1.5854284 -0.66808975 2.2350824 -2.399037 1.5086467 1.6621482 -0.24322978 -0.08476912
-1.5344 -0.27831766 -1.028571 0.42113218 -1.7017322 0.3402898 -0.8990826 1.42892
-1.658076 -1.71353 1.898173 1.9549063 2.0694208 1.8793396 -0.38818493 -0.23435363

pointer.encoder_attn.v f4 [1, 1, 128]
00000000: 812d 1ebe cdff ecbc 42f9 81be 0c38 f1bd
00000010: ef02 f9bd 0f75 65be 69d7 163e 4879 6cbb
00000020: 707d bf3c d0e8 f93c e35e 81be a200 393e
00000030: 9073 51bd e762 8abe 049d 18bd ffef a73e
00000040: e223 3abe 12fb 1dbe acb8 983d 69f9 9ebe
00000050: 58bc c93d 60ce 523d 2830 2b3e facb 91be
00000060: bdd6 653e 7942 823e df66 373e bad7 adbd
00000070: abd3 dd3d 9192 e43d a2cb fdbd fe99 a8bd
00000080: fc99 793e 0baa 213e 5bbc 33bd acb5 4ebc
00000090: 8ef4 433d 0d9c dbbd 495b 023d d78b 00bd
000000a0: 72ba 9dbe 12c1 763d 05bd ac3d 7e41 773e
000000b0: ce48 5abe 3e6a 56b9 176d fcbd 7b58 943e
000000c0: a3ae 00be 53de abbd 0220 f9bc 21e2 95be
000000d0: 2a6d 0ebe ddc0 ad3d 5edb 19be 4efe 783d
000000e0: 55d7 3a3e 6e67 ea3d 05d8 1fbe 2873 913e
000000f0: 0a8f dab8 ab3f e2bd 4d26 cf3c 7d11 183e
00000100: fa1b 48be fba6 f0bc f0f1 35be 641c 0f3e
00000110: a48b a8be 68a1 2f3e baa6 333d 2a2e 08bd
00000120: 935a 833e 29ee 81be 2f75 00be 3079 433d
00000130: 085f 263d c868 7f3e f763 63bd 2a35 653e
00000140: c0b7 233e bb67 7abc 2880 0c3e 0e44 353e
00000150: 3f2b fe3d c880 603e 9ad1 88be 910d a23d
00000160: 55f0 9b3d 647f c3bd 9615 3abe b0d1 4cbe
00000170: a379 ad3d ead2 0fbe 7e37 a2bc 80d2 083e
00000180: 79b0 8ebc a8c2 48be e3fb 003e 6833 85be
00000190: 1ee2 8d3e a948 5d3d 4f20 633d ced4 61be
000001a0: f885 6c3e 5fe7 d23d 5db9 92ba 3513 4bbe
000001b0: 3b1f 653d 14a0 a63d ce7c 3d3e 2498 413e
000001c0: e412 453e 27e8 bf3d d823 ebbd aca2 3abe
000001d0: 834c 8c3d 8039 51be ea35 f7bd 7a3d 49bd
000001e0: e5e7 343e 98f6 dd3d 8ac6 06bc 1620 363e
000001f0: fa4b 81bd 48c0 fe3c 2f9c 913e 23b9 dfbd
-0.15447046 -0.028930569 -0.2538548 -0.11778268 -0.12158763 -0.22407936 0.1473061 -0.0036083031
0.023375243 0.030506521 -0.25267705 0.18066648 -0.0511356 -0.27028582 -0.037259117 0.3280029
-0.1817775 -0.15427807 0.07457098 -0.3104966 0.09850377 0.051466346 0.16717589 -0.28475934
0.22445197 0.2544134 0.17910336 -0.08488412 0.10831388 0.11160768 -0.123923555 -0.08232497
0.24375147 0.15787522 -0.0438808 -0.012616556 0.047840647 -0.10723124 0.031825338 -0.03138336
-0.3080631 0.06024272 0.0843449 0.24146077 -0.21316835 -0.00020448209 -0.12325495 0.28973755
-0.12566619 -0.08392014 -0.03041077 -0.29274085 -0.1390883 0.084840514 -0.15025088 0.0607894
0.18246205 0.11445509 -0.15609749 0.2840817 -0.00010421693 -0.110473 0.025286818 0.14850421
-0.19541922 -0.029376497 -0.17768073 0.13975674 -0.32919037 0.17151415 0.043860175 -0.03324715
0.2565504 -0.25377014 -0.12544702 0.047722995 0.040617973 0.24942315 -0.055515256 0.22383562
0.15988064 -0.01528352 0.13720763 0.17701742 0.12410592 0.21924126 -0.26722413 0.07912744
0.07614199 -0.09545782 -0.18172297 -0.20001864 0.08470466 -0.14045301 -0.019801851 0.1336155
-0.017418133 -0.19605505 0.12596087 -0.26015782 0.27711576 0.054024372 0.055450734 -0.22053835
0.2309798 0.10298037 -0.0011194159 -0.19831546 0.055937987 0.08136001 0.1850464 0.18905693
0.19245487 0.093704514 -0.11481446 -0.18226117 0.06850531 -0.20432091 -0.1207083 -0.049130894
0.17666586 0.1083805 -0.008226046 0.17785677 -0.063133195 0.031097546 0.2843947 -0.10923984

pointer.encoder_attn.W f4 [1, 128, 256]
00000000: 859d 043c b71e a7b8 a97f 72bc f2d5 4c3b
00000010: 3d88 d33d 2f0a 2d3b 5d0c edbc 492f 30bd
00000020: 1e51 14bd e32b 27bb 3257 9fbc 54f8 0dbd
00000030: 5163 88bc 037d 85b7 99ae 463c 1a3f 2b3c
00000040: 8fb8 4e3d 0b5c 8ebc 16db 80bb f940 f13c
00000050: 5242 173d f532 92bc d00c dfbc 88a8 2bbc
00000060: 17ce 7fbd 5453 37bc dfd4 0bbc b8b4 b8bc
00000070: 1083 9d3c ae45 c5bc 116a efbc 0674 733d
00000080: cee3 d839 cdb4 b83b 84d0 71ba 4c6e bc3c
00000090: 2dc0 723d bcf1 79bc 4c88 47bd 83ce 973d
000000a0: 0202 213d aead 533d 5cda 73bd 0527 053d
000000b0: 9e63 293d ed5b 153e 9edf 983d 0bf5 1bbd
000000c0: 2561 75ba 7e16 923c 758b db3a bc46 863d
000000d0: ca50 953c a7d4 003d 5f73 4f3c a159 8abd
000000e0: f9a9 d3bc 7f96 0cbc c4c6 483d ce87 0e3c
000000f0: c3d2 9c3b b5fe 603d ea19 653b 2a15 983c
00000100: 95b3 b0bc 9f72 8c3c 4635 a93b 74dc 863b
00000110: 00cb 6c3d 5646 ab3b 88c1 79bd 172e fabc
00000120: e4d4 33bc 5762 d73d 71f7 4d3d 0628 b83c
00000130: f304 4e3d 5ea8 9fbc 35af 0fbc 6c8c 9bbc
00000140: e286 713d 6907 393c d347 65bd 49e6 b5bc
00000150: e171 1bbc 864c 03bd b3d4 b93c 93b1 87bc
00000160: 1c9b 0cbc 9bbc 1abd 9d0b f1bc a497 283d
00000170: 3e7f 6fb9 f3ee 983c d9e3 e43d 5aad 0dbd
00000180: c3fe af3d a40d d23b 67d0 56bc 8e0b 82bc
00000190: cf6b fabd df8e babb 1769 7d3b 2e2b cfbc
000001a0: 1a63 eebc 26a5 ecbb eb71 533c c68d 37bb
000001b0: 7e76 e0bc 0991 a83c dce1 a93d 468f f53c
000001c0: 6493 e8bd 0f06 333d f225 52bd 36d4 bb3c
000001d0: 0f38 96bc 40fc 2b3d c14a 213c d45c 8c3c
000001e0: 205f ef3a 61da 18bd 5d78 fe3b 7584 123d
000001f0: ef2b a93c 1956 243c 3dcc 4abc 2698 19bc
00000200: 6375 bbbd 5512 78bd 348e 43bd 4470 a03d
00000210: d711 323e a2a4 9e3d 9068 d0bd e5dc 093d
00000220: 2ad6 a5bd 93b1 c5bd ced3 b73c 9205 ebbd
00000230: 6362 2b3e f3e5 52bd 46d6 21be a892 60bc
00000240: 2757 d03d dd9a bd3c 2007 ebbb b947 bcbd
00000250: f63e 453d 3fc4 0abe dbd6 45be 5078 c43d
00000260: 813f 113c eb66 73bb e00f c5bd 2e8b 5c3e
00000270: 70da ce3d e863 493e 6ffc 39bc c672 4bbd
00000280: 55ae 6fbd ab41 02be 5b01 c03d 3142 bbbc
00000290: e14e 61bd 391a 37be f4bc cfbd 819a 1c3e
000002a0: 781b b13d 503b 99be 9843 b0bd 4d3b 40bd
000002b0: 0d85 53bd 5b12 513e 3bde 3a3d d89e b0bd
000002c0: abfe 8cbe 2946 bc3d eac2 e93c 8790 aa3c
000002d0: 2d5f 3a3d 29be 733c 8398 30bd 7e48 aa3d
000002e0: bd81 143e 85fb 09be 3dc5 f6bd 2abe 82bd
000002f0: 8732 ca3e 086f 95bd 49c6 8cbd f964 ccbc
00000300: 70c9 ab3d d536 933d 92ca 8b3d 7e77 473d
00000310: c120 96bd 5b43 c7bc 3152 223e d856 dbbc
00000320: 43c4 673d d681 1e3e a7b9 723b 51c5 d5bd
00000330: 1368 2f3e d168 593e 2fbf fd3c f085 603d
00000340: d0ba 483e 9a10 843c 94ec 5b3d 292b bdbd
00000350: 4eeb bdbd 9fa5 d7bd c136 1bbe e5df 653e
00000360: ab6a 5cbd 6989 203e 4bf9 d4bd d310 b53e
00000370: 0bda c8bd 89a8 723e 8cd7 d9bc 9d87 8fbd
00000380: 4db2 6fbd 5525 dfbd 45e1 893d 9c19 223d
00000390: 2f8a 96bd a0b2 b53c 3c27 a5bd 4644 5c3d
000003a0: e980 3ebe 5af6 db3b a0ad e5bd ebde 303d
000003b0: cc64 98be 8d0e 07bc 5715 8e3d 7f2c 21be
000003c0: 890e 2e3e 031c e9bc 3e9b 37bd 4872 21be
000003d0: 9775 9ebd f90c a5bd ccae 5dbe 1070 be3d
000003e0: 279e 3cbd 0e79 07be 0fd0 1c3e 3e9e 573e
000003f0: 592f dc3c a4a1 ab3d 51b8 03bd 79b9 f9bd
0.008094196 -7.9689016e-05 -0.014800944 0.003125545 0.1032872 0.0026403775 -0.02893656 -0.043013845
-0.036210172 -0.0025508336 -0.019450758 -0.034660652 -0.01664892 -1.5913049e-05 0.012126588 0.010452056
0.050468978 -0.017377874 -0.003932367 0.029449927 0.036928482 -0.017846564 -0.02722779 -0.010477193
-0.062452402 -0.011189301 -0.008534639 -0.02254711 0.019227535 -0.024081077 -0.029225381 0.05943682
0.00041368458 0.0056367875 -0.00092244917 0.023001812 0.059265304 -0.015255388 -0.048713967 0.07412436
0.039308555 0.051679306 -0.059534416 0.032507915 0.041354768 0.14585848 0.074645266 -0.038075488
-0.0009360484 0.01783299 0.0016749935 0.0655646 0.018227 0.0314528 0.012661784 -0.067553766
-0.025837885 -0.008580803 0.049017683 0.008699371 0.004785867 0.054930408 0.0034958073 0.01856478
-0.021570006 0.0171445 0.0051638214 0.0041156355 0.057810783 0.0052268906 -0.06097558 -0.030539555
-0.01097605 0.10516804 0.050284807 0.022480022 0.05029769 -0.019489463 -0.0087698 -0.018987857
0.058966525 0.011293271 -0.0559767 -0.022204535 -0.0094876 -0.0320554 0.02268443 -0.016564166
-0.008581903 -0.037777524 -0.029424483 0.04116024 -0.00022840218 0.018668627 0.11176271 -0.03458915
0.08593514 0.0064103175 -0.01311121 -0.01587465 -0.12227594 -0.005693301 0.0038667375 -0.025289144
-0.02909999 -0.0072218357 0.012905578 -0.0028008088 -0.027400251 0.02057697 0.082950324 0.029975545
-0.113562375 0.04370695 -0.05130572 0.022928338 -0.018337278 0.04198861 0.009844483 0.017134108
0.0018262602 -0.037317637 0.0077658133 0.035770852 0.020650832 0.010030293 -0.012377796 -0.009374654
-0.09153249 -0.060564358 -0.047743037 0.07833913 0.17389618 0.07746245 -0.10176194 0.033657927
-0.08097489 -0.0965301 0.022439864 -0.11475672 0.1673675 -0.051488828 -0.15804395 -0.013706841
0.10172873 0.023145134 -0.00717248 -0.091933675 0.048155747 -0.13551424 -0.19320242 0.0959326
0.008865238 -0.0037140201 -0.096221685 0.21537468 0.101002574 0.19667017 -0.011351689 -0.049670003
-0.058515865 -0.12720363 0.093752585 -0.022858711 -0.055006865 -0.17881097 -0.10143462 0.15293314
0.086478174 -0.29928064 -0.086066425 -0.046931554 -0.05164056 0.20417158 0.04562209 -0.08624047
-0.27538046 0.091930695 0.028535325 0.02082087 0.045500923 0.014876881 -0.043114197 0.08314608
0.14502616 -0.13474853 -0.12049339 -0.06383927 0.39491674 -0.07296568 -0.068737574 -0.024950491
0.083880305 0.07188193 0.068257466 0.04869794 -0.07330466 -0.02432411 0.15851666 -0.026774809
0.056583654 0.15479216 0.0037036927 -0.10438026 0.17129545 0.2123139 0.030974953 0.054815233
0.19602513 0.016121197 0.053692415 -0.09236748 -0.092733964 -0.105296366 -0.15157606 0.2244869
-0.053812664 0.15677418 -0.10399111 0.35364398 -0.098072134 0.23697104 -0.026592039 -0.07008288
-0.05851965 -0.108957924 0.0673242 0.039575204 -0.07350575 0.022179902 -0.08064124 0.053776048
-0.18603863 0.006712717 -0.11214757 0.04318134 -0.29764402 -0.008243215 0.06937664 -0.1573963
0.16997732 -0.02845574 -0.044825785 -0.15766251 -0.07737272 -0.08059115 -0.21648711 0.09298718
-0.046049263 -0.13229772 0.15313743 0.21056458 0.026878046 0.0838044 -0.0321582 -0.12193579

pointer.fc1.weight f4 [128, 256]
00000000: ec61 993c ada2 693d 07d9 c1bd a9c8 993d
00000010: d336 01be 4639 913d d169 f7bd 46a8 4ebd
00000020: 8de8 8bbd cb99 efbd 6e3c d7bd 9bf3 9bbd
00000030: fced 013d 40c2 253c 986e 933d 04ad eb3d
00000040: fa95 4abd 01d4 de3c cb31 40be a2fe b739
00000050: 3276 0ebe 863b e93d e9da 68bd e0f7 3f3c
00000060: b809 0f3e 948b da3c 4822 7cbd 7d05 93bd
00000070: 1701 773d 9b39 9f3d 4117 a3bb 7d3a 62bb
00000080: 722e 3b3e 17bd 9f3d 5bfc 383d 9676 d03c
00000090: 68ed d53d 50b3 f53c 4721 7d3d 13f2 43bd
000000a0: 9f6a 04be 7781 f1bc cdf7 5abd ffd5 bb3b
000000b0: 3dfe b4bd 4393 f5bc 84d3 bdbd b5a4 953d
000000c0: 1ad2 403d 7bdf b73d 855a 55bd 327e c83d
000000d0: c649 cabc d1ea 1bbe bca4 14be 4bb1 b4bd
000000e0: 3132 58bd 7705 8c3d ef30 e4bc 14e2 013e
000000f0: a755 8d3b 08b0 3abd cb22 c43d b13a 60bd
00000100: c6c4 893d a7c8 a53d a366 14be c2b4 d73d
00000110: c13c eeb9 1500 533d f925 07be e14e 153e
00000120: b485 fdbd 13bf cd3c 71c1 2b3d 3fa4 a8bd
00000130: 2713 a33d c8b1 0b3d 5ef5 a2bc 02d9 21bd
00000140: 3944 f53d 86b0 a53d 1c8c c1bd ca98 843d
00000150: e2c8 503d 4e3c 9d3c 7a5a 00bd 328b 45bc
00000160: 7199 843d af8f 0dbd 962f 6d3d 934d d03c
00000170: 653f 59bc 70e5 11bd 6af1 e2bb 1585 eb3a
00000180: cac3 09bd d995 14bc e12a 703d 86da 033e
00000190: 8dea 093d 88c9 693c 9ac0 77bd 010c 1d3e
000001a0: 5c71 54bd 30cf f7bc ba7a 4f3d 7697 723d
000001b0: 2b30 c53c c514 a93c a292 68bd defc b83d
000001c0: 877d 8abd 5511 91ba 3655 b7bc aacc bbbd
000001d0: 34bc 793d 6561 ca3d 5474 983b 28ce b1bd
000001e0: 4d2a d3bd e56e 26bc ef3e 03bd 163b 01bc
000001f0: 0b87 16bc dc8f 80bd 83b6 fb3d 3af1 5cbc
00000200: 406c bfbd 89d5 cdbd 47da a4bd 59ce b43c
00000210: 064b 98bd cc34 81bc 28ab 0d3d 9099 64bd
00000220: 8bf8 563d 433e 93bd 4ef5 063e 48ad 073e
00000230: 93c4 2f3d aa4c 013d 6a7a b2bd 384b eb3d
00000240: 55d7 9b3d 4ab2 f43c 29ad 40bd adba b23d
00000250: 3977 673c b550 dd3d b4e2 dabd 52b7 853d
00000260: 40ba c23d fb96 fa3d da15 ad3d c4c3 973d
00000270: c656 f23d b4f5 be3d 8d47 a6bd cfca ecbd
00000280: d82e 9a3c 90f0 bc3d 809f e0bd c59c 97bc
00000290: ad0f cc3d 4222 0d3c 2092 313d 0c04 393d
000002a0: e80a cd3d 5803 23bc 9554 9fbd e69c c03d
000002b0: df12 cdbd 6219 213d 5872 d3bd de38 a7bd
000002c0: 6bac 033c 74d5 2dbb 3602 ca3c 6d2f 54bd
000002d0: e7ec 5d3b 006b c93d 447e 173e aa2d 8ebd
000002e0: 0419 bd3c 8119 473b 81fe 9fbc c2a1 003e
000002f0: 4f3a 2fbd 5a0b dcbc 68cc 103e d6a4 973d
00000300: d043 3fbd 7bb4 353c ea4b 863a 1e58 52bd
00000310: 807e a93c ded4 91bd 3832 70bd 0333 563c
00000320: 0e8e 9d3c 57dd 0f3e 78b2 08be 8cfa 2bbc
00000330: 3758 e93d 8dac d83d 1b09 0e3e fa72 003e
00000340: 15f3 293d 7d42 893d 22c3 c7bd 9a57 a7bd
00000350: e337 52bd 6645 4dbd 797b bd3d a976 8ebd
00000360: db1b b9bd d926 aa3d 9f96 00bd 8eab d63b
00000370: 68f8 4abc 500e f43c 9983 bcbd 4d4b 9ebb
00000380: 7df2 cb3d a1cb 2dbd 64da 32bc fd74 e7bc
00000390: fbae f5bb c978 d33c 6eef f63d 35c2 8b3d
000003a0: 50a6 be3d 921a 8c3c 3a4b 213e c054 0e3e
000003b0: f607 e53c 00a9 bebd 9181 5f3b 3553 483c
000003c0: 48a9 59bb 25b8 803d 7891 9d3d 1309 69bd
000003d0: 4c33 b4bc d0bb 613d 0f47 d03d ffed 87bc
000003e0: 3640 8dbd d5d1 fb3d 7c86 b3bd 6762 823d
000003f0: 84ef 493a c3b8 46bc b12b 08bd a306 5e3d
0.01872345 0.057039905 -0.09465223 0.07508976 -0.1261857 0.07091002 -0.1208073 -0.050453447
-0.06831465 -0.116992556 -0.10509573 -0.076148234 0.0317211 0.010117114 0.071988285 0.115076095
-0.049459435 0.0272007 -0.18768995 0.00035094196 -0.13912275 0.11388306 -0.056849394 0.011716813
0.13968551 0.026677884 -0.06155613 -0.07178781 0.060303774 0.07774659 -0.0049771373 -0.0034519725
0.18279436 0.07799738 0.04516254 0.025447171 0.10445672 0.02999273 0.061799314 -0.04783828
-0.12931298 -0.029480679 -0.053458977 0.0057322974 -0.088375546 -0.029977446 -0.09268859 0.07306806
0.04707537 0.089781724 -0.05208828 0.09789695 -0.024693381 -0.15226294 -0.14515966 -0.088228785
-0.05278224 0.0683698 -0.027855365 0.12683898 0.004313189 -0.045578033 0.09576949 -0.054743472
0.06726985 0.08094912 -0.14492278 0.10532524 -0.00045440163 0.05151375 -0.13198079 0.14580871
-0.123790175 0.025115525 0.041932527 -0.082344525 0.079626374 0.034105092 -0.01989239 -0.039513595
0.11975903 0.0809031 -0.09450552 0.06474455 0.050972827 0.019193795 -0.031336285 -0.0120571125
0.06474579 -0.034560855 0.05790671 0.025427615 -0.013259743 -0.0356192 -0.0069257515 0.0017968739
-0.033633985 -0.00906893 0.058634643 0.12876329 0.03367095 0.01426924 -0.060486414 0.1533661
-0.05186592 -0.030250162 0.05065415 0.059226476 0.02407082 0.020639786 -0.056780465 0.090326056
-0.06762224 -0.0011067787 -0.022379499 -0.09169896 0.0609705 0.09881858 0.0046525393 -0.08681899
-0.103108026 -0.010158275 -0.03204244 -0.007887622 -0.00918747 -0.06277439 0.12290671 -0.013485247
-0.09346819 -0.10050494 -0.080494456 0.02207105 -0.074361846 -0.015772246 0.034587055 -0.05581051
0.052483123 -0.0718961 0.13179514 0.13249695 0.042912077 0.031567253 -0.08714755 0.11488956
0.07609431 0.029870171 -0.04704014 0.08727012 0.014127546 0.10806409 -0.106877714 0.06529106
0.095081806 0.122358285 0.084514335 0.07410386 0.11832957 0.09324208 -0.08119116 -0.1156212
0.018821165 0.09225571 -0.10967922 -0.01850737 0.099639274 0.008614125 0.043352246 0.045169875
0.10011846 -0.009949528 -0.077798046 0.09404926 -0.10013365 0.039330848 -0.10324544 -0.081651434
0.008036713 -0.0026524933 0.024659257 -0.05180304 0.0033863129 0.09834862 0.1479426 -0.069423035
0.023083217 0.0030380192 -0.019530537 0.12561706 -0.042780217 -0.026860882 0.14140475 0.07404487
-0.04669553 0.011090393 0.0010246013 -0.051353566 0.020690203 -0.07120679 -0.058641642 0.013073686
0.019232776 0.14049278 -0.1334933 -0.010496747 0.11393779 0.105797864 0.13870661 0.1254386
0.041491587 0.06702135 -0.097540155 -0.081710055 -0.05132283 -0.05011501 0.09252066 -0.069562264
-0.09038516 0.08308191 -0.031393643 0.0065512126 -0.012388326 0.029791981 -0.09204788 -0.004830754
0.0995836 -0.042430524 -0.010916326 -0.028254027 -0.007497666 0.02581443 0.12057386 0.068241514
0.09309065 0.017102513 0.15751353 0.13899517 0.027957898 -0.09309578 0.0034104327 0.012226869
-0.0033212472 0.06285123 0.076937616 -0.05689342 -0.021997117 0.055110753 0.10169803 -0.016592978
-0.06897013 0.12295882 -0.08765885 0.06366425 0.0007703232 -0.012129012 -0.033244792 0.054205548

pointer.fc1.bias f4 [128]
00000000: aa61 81bd fc3a 17bd 451e 88bd fad9 4f3d
00000010: b95d 0fbd a1cd 72bc bcf5 103d 7862 f5bc
00000020: af90 5ebd 83cc 05bd a236 89bd b3d9 50bd
00000030: 4a0f 8dbd d06c 803d 2369 00bd d8bb 683d
00000040: e73d 1fbe cafe 94bc 9bfc 4d3d 1289 153d
00000050: 2fd2 79bd ab25 69bc 0b0a b03c 6978 cc3c
00000060: 5efc 2cbd e000 1f3c 35e9 d23c 863b 493d
00000070: 34e1 b0bc 78e8 60ba 6401 52bd 253b 76bd
00000080: e9fa 623d eaa4 bbbb fd42 a23d 41fe cfbd
00000090: e0ac 79bd 2470 9fbd 8ef6 8dbc 8f82 103d
000000a0: 58b6 fd3c f155 0c3d 397d 453c e3f6 e2bc
000000b0: 949d 8ebd 16d4 a43d d94b 80bd 12dd ae3d
000000c0: 03c3 4b3a 9b97 e6bc aead a03d 1b9d 053d
000000d0: 0aad 953d 3b2a 96bc db01 ba3d e966 d23d
000000e0: f7bb 29bd 9c89 fe3c 96f0 98bc 1a89 adbd
000000f0: abc8 0abd 75de 073d 0d2d d4bc f097 ae3d
00000100: cabb 343d e46d 113c b1ab 66bd 71c8 04bd
00000110: 2881 ea3c 1ee6 df3c 3bb4 08bc b683 983d
00000120: a71e 533c f549 c33c 58ce 113c f59b 94bd
00000130: fa98 3abd 0f9a 74bd 1e6a 2fbd 4505 9a3d
00000140: d7a5 01bd 7abb acbd d822 0dbd 905f 8bbc
00000150: 39f0 53bd 6e83 bfbc 3d90 043d 9623 0a3d
00000160: 22a7 0fbd 4126 263a d725 dabc a1d1 c5bc
00000170: d5eb 143b 1ccd 713d 9eef 953c 5648 a53d
00000180: f93d 87bd 94cd 38bd b412 e2bd 32d1 c23c
00000190: 9aa2 733d 4869 efbb 8783 4ebd 57d1 ea3c
000001a0: 2bf6 acbd 23e3 54bd 81cc 983d 747c cfbd
000001b0: 8731 92b9 5f43 453a 9cba 353d 73f7 23bd
000001c0: df1b 0cbd 8605 fd3c aa2f 20bd 0a07 453c
000001d0: dde5 3cbc ddf1 833a ca68 fc3c e742 0f3b
000001e0: 9297 5abd 9d5a 72bd d4a0 313c 3679 363d
000001f0: 5086 2c3c 1617 3b3d 5a4b b43c ca2f a2bc
-0.06317456 -0.036921486 -0.066463985 0.050744988 -0.03500149 -0.014819534 0.0353906 -0.02995418
-0.0543372 -0.03266574 -0.066998735 -0.050988864 -0.06887682 0.06270754 -0.031350266 0.056819767
-0.15550958 -0.0181879 0.05028973 0.036507674 -0.060991462 -0.014230172 0.021489164 0.02495976
-0.042232864 0.009704798 0.025745967 0.04912903 -0.02159176 -0.00085795624 -0.051270857 -0.060115
0.055415068 -0.0057264464 0.07922933 -0.10155917 -0.060955882 -0.07785061 -0.01732948 0.03528076
0.030970737 0.034261648 0.012053781 -0.027705615 -0.069636494 0.08048265 -0.06264467 0.085382596
0.00077728945 -0.028148463 0.07845627 0.03262053 0.07308395 -0.018330684 0.09082385 0.10273535
-0.041439023 0.031071477 -0.018669408 -0.08473416 -0.03388278 0.033171136 -0.025900388 0.085250735
0.044124402 0.008876298 -0.05631608 -0.03241772 0.02862604 0.027331408 -0.008343752 0.07446997
0.012885726 0.023838976 0.008899294 -0.07256309 -0.045556046 -0.059717234 -0.04282581 0.07520536
-0.031652298 -0.08434196 -0.034457058 -0.017013341 -0.051742766 -0.0233781 0.03236412 0.033725344
-0.0350715 0.0006338098 -0.026629372 -0.02414781 0.0022723575 0.0590335 0.018302735 0.080704376
-0.06603617 -0.04511793 -0.110387236 0.023781393 0.05948124 -0.0073062517 -0.050418403 0.028664274
-0.0844539 -0.051974427 0.07460881 -0.101311594 -0.0002788419 0.00075249927 0.044367418 -0.040030908
-0.034206267 0.030886423 -0.039107956 0.012025604 -0.011529413 0.0010066588 0.030811686 0.0021859945
-0.053367205 -0.059168447 0.010841567 0.04454919 0.0105300695 0.045676313 0.022008587 -0.019798178

pointer.fc2.weight f4 [128, 128]
00000000: c191 a83d 96c4 39be b76f debd 99a3 213e
00000010: 9a38 0c3d af41 063e 65bc 23be d582 febb
00000020: 8524 3abc 4431 7b3d 8fc8 40bb 2395 933c
00000030: 1f4a c4bd 062d c7bd d762 4c3d 0de5 3cbc
00000040: 1539 843e cbb1 393e 610e 1a3a db18 55bd
00000050: ff05 5bbe 08eb d03d 5cf7 23be e7eb 51be
00000060: fa60 a5bd 4ae9 863c d09d 133d ec93 233e
00000070: 58eb 833d b9fa fbbc 4e81 9e3e c46f c63d
00000080: 48e9 9fbd abff 9d3c 7d45 fe3c 9a79 6a3d
00000090: da48 2d3d 33ab 113d e1ae 32bd 7c32 1c3e
000000a0: c7c0 d2bd 1a6d dbbd be2d 403e ed57 4e3d
000000b0: 2e0f 963d 741e 823b 10d0 fcbd 865b 03be
000000c0: 6436 c63d 822c 8c3c f278 b7bd 1ee9 133e
000000d0: 4a0f 1d3e 4bac b9be f571 66bd d881 1b3e
000000e0: 8123 cbbd 1e80 a63d df6d 243e 2882 b23b
000000f0: d0a8 bebd 6f03 2fbe 70fc d93d 0db0 6b3c
00000100: 5ad1 213e 747a fe3c 7e9f cebd 0152 383a
00000110: a55c 82bd 66be 8abc a7be 2ebe 8654 2a3d
00000120: 9fae c73d 092d bf3d 246a 98bd 8a09 01bd
00000130: b6b4 02bd ade4 0f3e 177e 3b3e 59b2 91be
00000140: 12ca c93d eb5a 9a3c 59b9 2bbd 90cb c83d
00000150: 23bd 863a a38e 9ebd 778b 0cbd 45c2 89bd
00000160: c157 96bc 76ce d33d c2b3 d93c 4130 8a3d
00000170: 111a 2d3e 373b 20be c06b 27bd 576f c63c
00000180: bee1 cabd d085 9d3d 03b2 9d3d 481a b83d
00000190: 7d5d aa3d f259 0abe b57d ba3c 1e7b b2bc
000001a0: 5697 bc3d 0768 683c 2cdc 223d f04b 6bbd
000001b0: b139 9bbe 8832 b0bb 24be 2abc ef43 cd3d
000001c0: 6701 ffbd db11 4f3d 4409 ec3d a6d9 4ebc
000001d0: 8c3a 293d f5a9 723d fd25 50bc dbf7 35bd
000001e0: 3bcc 17bd 9c8a 6abc fc70 51bd dfb6 c3bc
000001f0: f6c1 afbb 6c4b 173e 1d85 ad3d 17b1 803d
00000200: 133e 4abd 5df2 f93d e8ff fabd dfe8 f23d
00000210: 978b 8abd 15cf 083e 2e6a 023e 8eae ebbd
00000220: 4a81 f43d 8831 8e3d 1b39 1abd 9ed6 473e
00000230: 3649 fabc bb21 4ebd 22a5 873d 3a83 c7bd
00000240: a478 953c 31de b33b c971 a3bd 0393 1e3e
00000250: 3540 9a3d a07f 85bd 4812 d13c 4f35 00be
00000260: 622f 273e dfab b9bd a115 fdbd 51c6 663d
00000270: d703 393e 852f 623e d28b 5fbe dd48 9dbc
00000280: 81cf cb3d 6f41 133e 168d e5bb 84f0 95bd
00000290: 301a c13a 0f3c cd3d e0c9 db3b f93a 2cbe
000002a0: d7b6 003e 26b0 bcbd ce04 bd3d 92d7 0c3d
000002b0: e24f 05be b0e1 61be 707f 6fbd 55a3 22bd
000002c0: 997a 303e d706 43bd 23d8 d73d a682 953c
000002d0: 5d0b 8cbb 4f55 203e 78da ab3d 0f45 15bc
000002e0: d856 ff3b f326 91bd 3c9e 83bd 2695 aabc
000002f0: 208e 883d 2b75 1e3d 19e2 eb3c eb37 81bc
00000300: 0e11 c8bd 7727 4e3e 8493 b1bd f798 c7bc
00000310: 0693 ec3d 5adc 9abd dc8a 673d 0262 d8bd
00000320: 1930 323e be78 3c3e 9de8 253c 674a f2bd
00000330: 82a6 24be 30b0 9b3d 1b23 ae3d 0a06 64bc
00000340: 9fc1 72bc d46d c0bd bdff de3d b9a7 573e
00000350: 7820 0f3e 83b2 c43d b773 533d 8cab 10be
00000360: 1429 abbd a0a4 cc3d babe 17be cc14 7bbd
00000370: 2efe 5b3a 0970 4d3e e0f7 3cbc 4284 c9bc
00000380: e162 eabd 8487 0dbe e5d9 1f3c 5ade bfbd
00000390: 89e5 52bd 5b97 55bc 4c06 a53d 4b44 c7bd
000003a0: a44a cd3d e33d 0c3e 271e 193e 7f88 25bd
000003b0: 71d0 cfbb e6e8 593d b527 4cbd 5de7 40bc
000003c0: bbb3 a43d 0f08 ad3d 253f 0f3c 2b43 83bd
000003d0: 830f 5c3d a432 8c3d 0db9 19be da3c 723d
000003e0: af95 71bd b822 fcbd c9f5 343e ef4c b63d
000003f0: d35a 7cbd d73c e9bc 1644 023e 8399 023e
0.08230925 -0.18141398 -0.10861152 0.15785064 0.034233667 0.13110994 -0.15989836 -0.0077670612
-0.011361246 0.06132628 -0.0029416417 0.01801545 -0.0958445 -0.097253844 0.04989895 -0.011529219
0.258248 0.18134229 0.00058767764 -0.052025657 -0.21389006 0.10201079 -0.16012329 -0.20500146
-0.080751374 0.016468663 0.036039174 0.15974396 0.06441373 -0.030759202 0.30958027 0.09689286
-0.07808167 0.019286951 0.031038994 0.057244875 0.042305805 0.03556366 -0.04362381 0.15253633
-0.102906756 -0.10714169 0.1876745 0.05037682 0.07327114 0.0039709155 -0.12344372 -0.12827882
0.09678343 0.017111067 -0.08958615 0.14444396 0.15337864 -0.36264262 -0.05626102 0.1518625
-0.09918881 0.08129905 0.16057537 0.0054476447 -0.09309542 -0.17091154 0.10643852 0.0143852355
0.15802518 0.03106425 -0.100890145 0.00070312625 -0.06365327 -0.016936492 -0.17064916 0.041584514
0.09750103 0.09334762 -0.0744212 -0.031503238 -0.03191062 0.14052077 0.18309818 -0.2845638
0.09852995 0.018842181 -0.04192481 0.098044515 0.0010279756 -0.077420495 -0.03431269 -0.06726507
-0.018352391 0.10342114 0.026574973 0.06747485 0.16904475 -0.15647589 -0.040874243 0.024223013
-0.09906338 0.07691538 0.07699969 0.08989388 0.08318613 -0.13510874 0.02276502 -0.021787222
0.092085525 0.014184958 0.039760754 -0.057445467 -0.30317453 -0.0053771175 -0.01042131 0.10022723
-0.12451439 0.050554138 0.11525205 -0.012625134 0.0413156 0.059244115 -0.01270437 -0.044425827
-0.037060004 -0.014315274 -0.05113314 -0.02389091 -0.005363698 0.14774865 0.08472655 0.06283777
-0.049375605 0.1220443 -0.122558415 0.11860823 -0.06764906 0.13360246 0.12735817 -0.11507903
0.119387224 0.06943041 -0.037652116 0.19515464 -0.030552488 -0.050325137 0.066232935 -0.09741826
0.018246002 0.0054891338 -0.07980687 0.15485768 0.07531778 -0.06518483 0.025521412 -0.12520336
0.16326669 -0.09065985 -0.12357641 0.056341473 0.18067871 0.2208844 -0.21830681 -0.019199783
0.099516876 0.1438043 -0.007005344 -0.07321265 0.0014732536 0.10021221 0.006707415 -0.16819371
0.12569748 -0.09213285 0.09229432 0.03438527 -0.13018754 -0.22058749 -0.058471143 -0.039706547
0.17234267 -0.047613945 0.10539272 0.018250775 -0.0042738155 0.15657543 0.08391279 -0.009110703
0.007792335 -0.07087507 -0.06426665 -0.020823073 0.06667733 0.03868596 0.028794335 -0.015773734
-0.09768878 0.20132242 -0.086707145 -0.024364932 0.1155148 -0.0756156 0.05652891 -0.105655685
0.1740116 0.18405434 0.01012626 -0.11830597 -0.16079143 0.076019645 0.085027896 -0.013917455
-0.014816671 -0.09395948 0.10888622 0.21060075 0.1397723 0.09604361 0.051624026 -0.1412794
-0.083574444 0.09992337 -0.1481885 -0.06129913 0.0008392063 0.2006227 -0.011533707 -0.024599198
-0.11444641 -0.13821226 0.00975654 -0.09368582 -0.051488433 -0.013036574 0.08057842 -0.09729823
0.10024002 0.13695483 0.14952908 -0.040413376 -0.006341987 0.053200625 -0.049842555 -0.011773911
0.08042093 0.08448803 0.008743082 -0.06409296 0.05372573 0.068455964 -0.15011998 0.059140064
-0.05898064 -0.123113096 0.17671885 0.08901393 -0.061610054 -0.028471394 0.12721285 0.12753873

pointer.fc2.bias f4 [128]
00000000: f928 8bbc 67d2 59bd 85e6 a93d b627 533d
00000010: 774b 5ebd 0627 1e3d 52a8 a1bd 3a56 073e
00000020: cdb8 123e 97d5 f23d adcb 0dbd b5bf cc3d
00000030: 010e a2bd f926 81bd e26e 48bd b821 433c
00000040: d328 41bd 36cd e93d 6097 8a3b 8acd 9abd
00000050: 23fa 943d 5c8f b8bd dda7 b8b8 5f2d 393c
00000060: f734 053d 3759 54bd 77b7 9b3d 64ef bfbc
00000070: a6dd cc3d a848 453d 0bf5 08bb 67d8 91bd
00000080: 1569 1b3d 9358 883d e38f 963c ca98 a13d
00000090: dbf3 ebbb 625b 673d a90b c73c 1162 e83c
000000a0: 1afd 8bbd 7c50 213d 0dd6 65bd 156c 093e
000000b0: 6e02 aebd 2fa0 e83d 1edf 61bd a0ab 6e3d
000000c0: 30ec 01bd fd49 f23d 74f6 b13d 4783 9e3c
000000d0: b00e b43d 9b6a 183d adb6 c83c 4750 963d
000000e0: 736d 63bd d5ac 33bd 1714 b93d 405d 13be
000000f0: e006 ab3d 4b82 943a 2d4b c3bc 5811 9fbc
00000100: c6c4 d73d 5607 cd3d 0868 f93c 4aab fbbc
00000110: 8e54 e13d a94e 133d e861 83bc 0042 083e
00000120: 6c81 223e b523 8f3d b117 77bc d043 fd3a
00000130: e5b6 32bc 66eb 98bd 4a38 c63d 7c5e 09bd
00000140: 48c7 883c e97c 98bd 7fad 7d3d 9e33 8d3c
00000150: e45b 8bbd 3e89 b9bd 7259 703b 1d66 453c
00000160: 80a5 943d 7d2c 043c fa37 443c df35 73bd
00000170: 3457 113e 605e 943d b52d 193c 389d f13d
00000180: 8219 883c f5c9 85bc ebbb 6f3a 497c 62bd
00000190: 55a3 023e fcec 4a3d f312 9e3d ede2 f43c
000001a0: 0622 abbc fe2a 283c 66ab f5bc 00ae f5bb
000001b0: ed0f 1d3d 41e5 e63d 3c27 c23c f563 6dbd
000001c0: 379e 813d 078b 643d 1ab1 073b 48c7 75bc
000001d0: 2f02 f13d 5112 80bd 33c4 f53c 9b29 c73d
000001e0: dd8f 5ebd 1557 20bc 7f30 a73d 3c6e 003e
000001f0: 346b 353e 5b49 213c d187 37be c77b d1bc
-0.01698731 -0.05317917 0.08295921 0.051551543 -0.054271188 0.038611434 -0.07893433 0.13216487
0.14328308 0.11857145 -0.03461807 0.09997503 -0.07912827 -0.063062616 -0.04893387 0.011909895
-0.047158074 0.11416094 0.004229471 -0.07558735 0.07274272 -0.09011719 -8.805071e-05 0.011302321
0.032521214 -0.051842894 0.076033525 -0.02342958 0.100032136 0.048164994 -0.002089801 -0.071213536
0.03794201 0.06657519 0.018379157 0.0789047 -0.0072007007 0.056483634 0.024297552 0.028367074
-0.06835385 0.039383397 -0.056112338 0.13420136 -0.08496557 0.113586776 -0.05514442 0.058269143
-0.031719387 0.118305184 0.08689585 0.019349707 0.08791864 0.037211042 0.02450117 0.073395304
-0.0555243 -0.043865997 0.09037035 -0.14391041 0.08350921 0.0011330334 -0.023839558 -0.01941745
0.105355784 0.10011165 0.030445114 -0.030721325 0.11002456 0.035963688 -0.016037896 0.13306427
0.15869683 0.069892325 -0.015081332 0.0019322578 -0.010907863 -0.07466774 0.09678705 -0.033537373
0.016696587 -0.074457 0.061933037 0.017236527 -0.06804636 -0.0905938 0.0036674407 0.0120482715
0.07258129 0.008067247 0.0119762365 -0.059377547 0.14193422 0.07244563 0.009349276 0.11797565
0.016613726 -0.016331652 0.00091451284 -0.05529431 0.12757619 0.049542412 0.07718458 0.029893363
-0.020890247 0.010264156 -0.029988956 -0.007497549 0.038345266 0.112741955 0.023700349 -0.057956655
0.06329005 0.05579665 0.0020704926 -0.015001126 0.117679946 -0.062534936 0.030000782 0.097247325
-0.054336417 -0.009786387 0.08163547 0.12542051 0.17716676 0.009844149 -0.17922904 -0.025571717
