trained_models/sdvrp/altr_SD_100/model_incumbent_vrpRl13_SD_ALTR_100_T_0.1_66325.pt (torch_old, 469732 bytes, 15 tensors)

all_embed.embed.weight f4 [128, 4]
0.04614323 0.5917072 0.1125579 0.25202006 -0.27884546 0.5410287 -0.13530166 0.017952284
0.12618117 -0.3951816 0.47815457 0.10657471 0.0052408576 0.051234126 -0.092699476 -0.055190533
0.35529238 -0.31520993 0.29255766 0.2601339 -0.598967 0.07975734 0.09264547 -0.056153845
0.4161357 -0.20565617 -0.42504302 -0.48941836 0.16463685 0.7400428 0.19263251 -0.069482476
-0.10732897 -0.040937502 0.1689522 0.39083713 -0.09712482 -0.16128531 0.17466143 0.055122852
0.062046885 -0.087214276 -0.028780267 -0.029120147 -0.04985434 -0.08310446 0.030883372 -0.14030963
-0.38689128 0.41918695 0.13715741 -0.05880037 -0.61685663 0.13066633 -0.019222217 0.011068309
0.37580886 -0.14612935 0.12348632 0.23143308 -0.005311936 0.029510677 0.068345636 -0.05529116
0.14054911 0.62113315 0.014474887 0.021721952 0.2994547 -0.6285721 -0.043116562 0.017001081
-0.48721236 -0.01246881 0.07436904 0.29998428 0.31433842 -0.3954899 -0.21526754 0.2118001
0.5908204 0.09424125 -0.11089514 0.13781448 0.6177962 0.40249026 0.032807905 0.05147071
-0.47606066 0.10669565 -0.08525086 0.10493998 -0.17565447 0.5838585 0.10188186 -0.16139409
-0.45237383 -0.015424685 -0.027737858 0.3198043 -0.0129491985 0.029614434 -0.13384782 0.0046661645
0.019243598 -0.07291894 0.11051014 -0.09498781 0.12805739 -0.45362246 0.4218517 0.1153283
-0.3653106 -0.27556556 -0.2224498 -0.0885748 -0.3270111 0.57295465 0.03702125 0.04606614
0.17327902 -0.019729301 0.015604734 -0.1266265 -0.54246944 0.19697417 -0.21248345 0.2150778
0.4156467 -0.27766588 -0.096416205 -0.05704014 0.61465436 0.08998225 -0.087747544 0.20632853
0.5148173 0.43176138 -0.032683916 0.24798664 -0.021015063 0.14219469 0.024822846 -0.037044987
0.46774462 0.13397963 -0.44894305 -0.30122694 0.036244355 0.6737084 0.22447552 -0.07773194
0.79679996 -0.0055749672 0.15300807 -0.06325121 -0.027135164 -0.041816086 0.041555643 0.007642269
-0.14132194 -0.4047186 0.14652891 0.23801391 -0.31816274 0.14834395 0.04625758 0.44436577
0.02628806 -0.042364687 -0.345373 0.34672025 -0.14402 0.53671163 -0.38861445 -0.32183975
0.1854241 0.70003754 0.03695815 -0.13200442 0.53476256 -0.3643251 -0.3087568 0.20882612
-0.06083466 -0.043583214 -0.1847979 0.00049321353 -0.06294061 -0.043542504 0.13213736 0.046390384
-0.20942473 -0.06786338 -0.19582063 -0.11314701 -0.048036292 -0.13108009 -0.1536407 0.11684051
0.3320054 -0.35766464 -0.32076898 -0.28255132 0.4425096 -0.10806459 -0.17259185 0.13293256
0.1437586 0.6980708 -0.031413358 0.030897679 0.7599719 0.09480457 -0.16789791 0.049785335
0.034114935 0.6402843 -0.0016013333 -0.0014779514 0.68547577 0.06260735 0.08702368 0.14520992
-0.03654076 0.051460743 -0.14204109 0.022204027 0.6906591 0.01696884 -0.09505411 -0.0018001805
0.045227826 0.71340823 -0.059211932 0.069989175 0.30569845 -0.5285213 -0.27751374 0.15943569
0.23949058 0.71221066 -0.08642696 -0.14567068 0.41302577 0.4391714 -0.049955003 -0.21330214
0.6532638 0.49488586 0.0040236786 0.291422 -0.060061093 -0.54094684 0.28642756 0.20014033
00000000: af00 3d3d 207a 173f c284 e63d c608 813e
00000010: d5c4 8ebe db80 0a3f 858c 0abe ab10 933c
00000020: a335 013e 3e55 cabe add0 f43e d743 da3d
00000030: 80bb ab3b e0da 513d 39d9 bdbd 780f 62bd
00000040: e2e8 b53e 3263 a1be 1eca 953e 4530 853e
00000050: e755 19bf d157 a33d e8bc bd3d 9301 66bd
00000060: bd0f d53e 8897 52be 3d9f d9be 0b95 fabe
00000070: 9096 283e 7273 3d3f 7541 453e d44c 8ebd
00000080: 4bcf dbbd 15ae 27bd ce01 2d3e ce1b c83e
00000090: 61e9 c6bd fa27 25be 72da 323e 80c8 613d
000000a0: e024 7e3d 669d b2bd 98c4 ebbc 608d eebc
000000b0: 1034 4cbd ac32 aabd 20ff fc3c 54ad 0fbe
000000c0: 9d16 c6be ac9f d63e fe72 0c3e a8d8 70bd
000000d0: 51ea 1dbf 65cd 053e e977 9dbc da57 353c
000000e0: 056a c03e efa2 15be 65e6 fc3d cbfc 6c3e
000000f0: c00f aebb 60c0 f13c ccf8 8b3d fc78 62bd
00000100: 1bec 0f3e 9502 1f3f 1428 6d3c 3cf2 b13c
00000110: 2052 993e 1aea 20bf fe9a 30bd da45 8b3c
00000120: e673 f9be fb49 4cbc cc4e 983d 8a97 993e
00000130: f7f0 a03e a77d cabe 186f 5cbe 20e2 583e
00000140: 0140 173f 8e01 c13d fe1c e3bd 3d1f 0d3e
00000150: e427 1e3f 3413 ce3e 9561 063d f4d2 523d
00000160: 39be f3be 4083 da3d 0198 aebd c6ea d63d
00000170: c4de 33be c077 153f 70a7 d03d 7e44 25be
00000180: 8b9d e7be d1b7 7cbc 813a e3bc 64bd a33e
00000190: e028 54bc f899 f23c 670f 09be a0e6 983b
000001a0: c0a4 9d3c 8656 95bd 2453 e23d f888 c2bd
000001b0: 7a21 033e 3441 e8be f2fc d73e 3e31 ec3d
000001c0: fe09 bbbe ee16 8dbe e1c9 63be b466 b5bd
000001d0: 006e a7be 28ad 123f 98a3 173d d9af 3c3d
000001e0: 0e70 313e 589f a1bc 00ab 7f3c 61aa 01be
000001f0: 47df 0abf 99b3 493e 4395 59be 5b3d 5c3e
00000200: a5cf d43e 392a 8ebe dc75 c5bd eca2 69bd
00000210: fd59 1d3f 9d48 b83d fcb4 b3bd c947 533e
00000220: 11cb 033f d40f dd3e 92df 05bd 36f0 7d3e
00000230: c827 acbc 7c9b 113e 4859 cb3c 7cbc 17bd
00000240: 397c ef3e f531 093e dddb e5be 6b3a 9abe
00000250: f674 143d 2778 2c3f e9dc 653e ec31 9fbd
00000260: 15fb 4b3f 37ae b6bb 26ae 1c3e da89 81bd
00000270: 904a debc 5847 2bbd 4036 2a3d 006c fa3b
00000280: b3b6 10be 4737 cfbe ad0b 163e ebb9 733e
00000290: 3ae6 a2be 7ae7 173e 9778 3d3d e983 e33e
000002a0: 0f5a d73c 9886 2dbd bbd4 b0be 5185 b13e
000002b0: fb79 13be ef65 093f 79f8 c6be 2ec8 a4be
000002c0: d1df 3d3e a935 333f 6e61 173d 2b2c 07be
000002d0: 33e6 083f d288 babe 5f15 9ebe 84d6 553e
000002e0: c42d 79bd 5084 32bd a93b 3dbe 004b 013a
000002f0: 02e7 80bd a059 32bd 044f 073e d803 3e3d
00000300: 7073 56be f5fb 8abd 3485 48be 9fb9 e7bd
00000310: b4c1 44bd dc39 06be fd53 1dbe 144a ef3d
00000320: 9dfc a93e d21f b7be d53b a4be 91aa 90be
00000330: 9e90 e23e f850 ddbd ebbb 30be 791f 083e
00000340: 7435 133e c5b4 323f 4bab 00bd 211d fd3c
00000350: 858d 423f e628 c23d 6eed 2bbe b5eb 4b3d
00000360: 1abc 0b3d ace9 233f d4e3 d1ba d2b7 c1ba
00000370: 577b 2f3f 4838 803d 7939 b23d e9b1 143e
00000380: c4ab 15bd 80c8 523d 3873 11be 38e5 b53c
00000390: 09cf 303f 3d02 8b3c bbab c2bd 09f4 ebba
000003a0: d040 393d eca1 363f 3688 72bd 7c56 8f3d
000003b0: 8284 9c3e 2c4d 07bf 4816 8ebe 1c43 233e
000003c0: 053d 753e 7053 363f 9e00 b1bd b22a 15be
000003d0: 1d78 d33e 13db e03e 9e9d 4cbd e06b 5abe
000003e0: 4c3c 273f ae61 fd3e 10d9 833b 4435 953e
000003f0: 9f02 76bd 7e7b 0abf a2a6 923e 96f1 4c3e

all_embed.embed.bias f4 [128]
-0.33326548 0.41659334 0.2631684 -0.48035818 0.03723318 0.5918646 0.20910992 0.22066765
-0.3290816 -0.4848224 -0.1753248 -0.24937564 0.35579318 0.53553736 0.31438878 -0.05537969
-0.04057673 0.50408655 0.15485042 0.29946306 -0.018949807 0.1521722 0.32218245 0.38463184
0.113006614 -0.226394 -0.27562666 0.24780874 0.6984559 0.2083901 -0.43705088 0.4302433
0.38046238 0.0065611564 -0.008673929 -0.40864027 -0.21764366 0.3193517 0.123687565 -0.10704839
0.23861986 -0.2973989 -0.3394551 0.064433336 0.4652725 0.0990938 -0.41787285 -0.4229411
-0.30886236 -0.4012754 -0.05346445 0.117375895 0.28611305 0.18303081 -0.04531033 0.05789898
-0.26147598 -0.074789576 0.38822043 0.31300482 0.34374717 0.38878366 0.20586093 0.32944947
-0.074771404 -0.19240505 0.41667667 -0.3573045 -0.35462096 -0.113393664 -0.38806865 -0.48531365
-0.46395802 0.60545033 0.6561362 0.1660583 0.33251786 0.23129128 -0.2985164 0.06288816
-0.3374009 0.15883495 0.4944291 -0.0068991184 0.2752576 0.6629486 0.1673591 0.008474579
0.13708794 -0.2614447 0.006246566 0.3617883 -0.14360653 -0.48310006 0.058397643 0.34628168
0.23493618 0.32285866 0.24463083 -0.31848896 0.27398422 0.10696364 0.1375754 -0.24785206
0.080412425 0.29858115 -0.43853313 0.1174298 0.2813333 0.28601193 -0.05688453 -0.30135795
-0.13700306 -0.020104155 0.23491164 0.24350947 -0.23896414 0.20733376 0.21951263 0.15919304
0.05484688 -0.22706075 0.41754356 -0.21732399 0.25461236 -0.4969672 -0.29019085 -0.25123283
00000000: c6a1 aabe b94b d53e 02be 863e 82f1 f5be
00000010: d281 183d 7084 173f e920 563e b3f6 613e
00000020: 627d a8be a43a f8be 5888 33be 545c 7fbe
00000030: 862a b63e fa18 093f 91f7 a03e d0d5 62bd
00000040: c933 26bd d10b 013f 1c91 1e3e 3953 993e
00000050: a03c 9bbc 07d3 1b3e 19f5 a43e 77ee c43e
00000060: 0370 e73d d4d3 67be f01e 8dbe 93c1 7d3e
00000070: 02ce 323f 3764 553e 22c5 dfbe da48 dc3e
00000080: f7cb c23e f8fe d63b 181d 0ebc 4c39 d1be
00000090: fbdd 5ebe 1182 a33e e84f fd3d 303c dbbd
000000a0: c458 743e ab44 98be 0fcd adbe a0f5 833d
000000b0: 3238 ee3e b1f1 ca3d 6ef3 d5be bc8b d8be
000000c0: 3523 9ebe f873 cdbe 8afd 5abd c662 f03d
000000d0: 697d 923e 6e6c 3b3e 5397 39bd 7b27 6d3d
000000e0: 2ee0 85be 472b 99bd d4c4 c63e 2b42 a03e
000000f0: a1ff af3e a70e c73e 35cd 523e 9aad a83e
00000100: c021 99bd d405 45be a556 d53e 9ef0 b6be
00000110: e190 b5be f03a e8bd efb0 c6be 087b f8be
00000120: e88b edbe cbfe 1a3f 8bf8 273f 300b 2a3e
00000130: c83f aa3e 9fd7 6c3e 24d7 98be 82cb 803d
00000140: d0bf acbe a1a5 223e d025 fd3e 0012 e2bb
00000150: 90ee 8c3e 00b7 293f 2f60 2b3e f6d8 0a3c
00000160: c860 0c3e 14dc 85be feaf cc3b 513c b93e
00000170: 970d 13be e458 f7be 5e32 6f3d d54b b13e
00000180: 1c93 703e bb4d a53e 8180 7a3e fc10 a3be
00000190: a947 8c3e c10f db3d 91e0 0c3e eecc 7dbe
000001a0: 45af a43d a1df 983e 6a87 e0be 097f f03d
000001b0: eb0a 903e 2870 923e c1ff 68bd 974b 9abe
000001c0: 884a 0cbe 78b1 a4bc ad8c 703e 8c5a 793e
000001d0: 04b3 74be 4d4f 543e ebc7 603e 8003 233e
000001e0: 1fa7 603d 9d82 68be 45c8 d53e 2e8a 5ebe
000001f0: 8d5c 823e 7c72 febe e593 94be 97a1 80be

all_embed.embed_2.weight f4 [128, 128]
0.30187625 0.141528 -0.029344989 -0.0640494 -0.07965296 -0.10930216 0.037532862 0.14524466
0.19120225 0.047198668 0.03325446 -0.15007117 0.047365587 0.07641234 0.060372572 -0.07084557
0.2567119 -0.27037856 0.15939742 -0.2836048 -0.16538204 0.031712048 -0.097755015 -0.111506626
0.14729175 -0.09651241 -0.0016241819 0.12581803 -0.11778899 0.15511829 0.03491345 -0.002132706
0.084517516 -0.20993006 0.019690914 0.13957714 0.29879898 0.21654384 -0.013206755 0.027270317
-0.056988142 0.010346515 0.09789441 0.18114553 0.033835087 -0.15160216 0.0400915 0.010712087
-0.13652968 -0.014934674 0.13666235 -0.01537961 0.12799689 -0.16787148 0.2607606 -0.1273582
0.08859627 -0.059270464 -0.030599514 -0.27960348 -0.0579076 -0.07037635 0.06587029 -0.18304768
-0.089796655 0.039465502 0.08060236 -0.09437702 -0.14018162 0.39002126 0.2632301 0.13955308
0.1268896 -0.39239386 -0.10039339 -0.2351059 0.034501437 -0.025838295 0.13737868 -0.05587906
-0.10015378 -0.17672578 0.055120647 -0.0634927 -0.19488487 -0.18248981 0.17593767 -0.024075313
-0.030999983 0.12330715 0.038031843 -0.16100705 0.42223573 0.012929648 0.19306898 0.2025503
-0.07623543 0.019704746 -0.1066484 0.10189398 0.057706326 -0.009021168 -0.13399947 0.09038743
-0.17063977 0.09931546 0.0835644 0.078581415 -0.040815476 -0.16326596 0.18389301 0.14386456
0.045961678 0.0039301016 0.10173416 -0.06124802 0.14287895 -0.009720295 0.1997497 0.25124222
0.24319552 0.1500091 0.02942481 0.06812503 0.08769845 -0.059307 0.30226275 0.15819299
0.16412233 0.22774552 0.10212346 -0.10317159 -0.08329069 0.13936025 -0.055844605 0.13432725
-0.059786282 -0.016676456 -0.05263304 -0.039099865 0.27789268 0.20274729 0.12515683 -0.008193746
-0.057820484 0.05509354 0.29932424 -0.13241456 -0.33087674 -0.089867875 0.098820105 0.016409919
0.22206804 0.06755774 0.123206005 0.050357614 0.24938731 -0.14085925 -0.10137658 -0.008776941
0.059811797 -0.08379924 -0.13459238 -0.014931142 -0.164747 0.048362926 -0.033902742 -0.1318515
0.1313415 0.010744232 -0.105836965 -0.09606491 -0.045755688 -0.08944596 -0.11935656 0.08717707
-0.12755458 0.04766114 0.2023642 -0.17282829 -0.06969532 0.021317061 -0.15867889 0.025546817
0.14222355 -0.22343199 0.07180863 -0.06079672 -0.14087579 -0.010144578 -0.23444834 0.114496455
-0.30902267 0.12151189 0.27802458 0.052470073 -0.10155094 -0.22257794 -0.052867796 0.07199474
-0.15417832 0.28796864 0.038293336 -0.10113733 0.122594416 -0.0393296 0.013790071 -0.18588601
-0.12861879 0.012389081 0.18374501 0.10884966 -0.27154464 0.3506497 -0.06208925 -0.06851894
0.0036055178 -0.10945578 -0.1346172 0.13919885 -0.39795122 -0.0333888 -0.05107178 0.11723501
-0.054152958 -0.08951699 0.1478469 -0.10868858 0.093263224 0.23861761 0.010012704 -0.084183946
-0.060436964 -0.073253736 0.12803553 0.13594894 0.0079343375 -0.17499577 -0.07327699 -0.030887092
0.08677992 0.0072571766 0.25513646 0.033876993 -0.10241196 -0.23011625 -0.086376384 0.33877507
0.03170575 -0.014676846 0.12612613 0.04063905 0.24365936 -0.014818624 0.08417726 -0.09812454
00000000: 868f 9a3e b7ec 103e e764 f0bc 552c 83bd
00000010: 1721 a3bd d0d9 dfbd 0fbc 193d 04bb 143e
00000020: 86ca 433e 6453 413d d435 083d 42ac 19be
00000030: 6b02 423d 137e 9c3d 3b49 773d 7b17 91bd
00000040: be6f 833e 0f6f 8abe 1439 233e a634 91be
00000050: e959 29be 7ee4 013d c833 c8bd 965d e4bd
00000060: a6d3 163e 4ca8 c5bd 80e2 d4ba 71d6 003e
00000070: 5b3b f1bd 54d7 1e3e 6801 0f3d dfc4 0bbb
00000080: 8517 ad3d e8f7 56be d74e a13c 4fed 0e3e
00000090: 2efc 983e abbd 5d3e 2561 58bc 0066 df3c
000000a0: 666c 69bd 6e84 293c dd7c c83d 377e 393e
000000b0: a996 0a3d 993d 1bbe fc36 243d c081 2f3c
000000c0: 70ce 0bbe 90b0 74bc 37f1 0b3e c2fa 7bbc
000000d0: 9e11 033e 80e6 2bbe 6a82 853e 306a 02be
000000e0: f671 b53d 96c5 72bd d5ab fabc 3028 8fbe
000000f0: 8530 6dbd 7a21 90bd 01e7 863d da70 3bbe
00000100: 4fe7 b7bd 94a6 213d da12 a53d bd48 c1bd
00000110: c58b 0fbe deb0 c73e 18c6 863e 01e7 0e3e
00000120: 59ef 013e d9e7 c8be 0d9b cdbd 9abf 70be
00000130: 6151 0d3d d5aa d3bc ffac 0c3e 71e1 64bd
00000140: 6d1d cdbd 9af7 34be 30c6 613d 7608 82bd
00000150: e68f 47be 9cde 3abe 0129 343e 9739 c5bc
00000160: adf3 fdbc 7688 fc3d 47c7 1b3d 08df 24be
00000170: 482f d83e e0d6 533c e0b3 453e 5969 4f3e
00000180: 5221 9cbd d96b a13c 7a6a dabd caad d03d
00000190: 785d 6c3d 85cd 13bc 2837 09be 0b1d b93d
000001a0: 31bc 2ebe e765 cb3d d023 ab3d 4bef a03d
000001b0: 212e 27bd 312f 27be 734e 3c3e 3b51 133e
000001c0: 5042 3c3d 15c8 803b 005a d03d 34df 7abd
000001d0: dc4e 123e df41 1fbc 2f8b 4c3e d2a2 803e
000001e0: 3f08 793e fc9b 193e 4d0c f13c 2385 8b3d
000001f0: 3f9b b33d e6eb 72bd 2fc2 9a3e 58fd 213e
00000200: af0f 283e 1f36 693e 1b26 d13d a04b d3bd
00000210: 4f94 aabd 74b4 0e3e 50bd 64bd 158d 093e
00000220: 76e2 74bd 109d 88bc be95 57bd 2e27 20bd
00000230: f347 8e3e fc9c 4f3e 1d29 003e 103f 06bc
00000240: 2cd5 6cbd c4a9 613d 0741 993e af97 07be
00000250: ad68 a9be a60c b8bd 3262 ca3d 186e 863c
00000260: ce65 633e b65b 8a3d 6e53 fc3d c943 4e3d
00000270: 635f 7f3e 683d 10be 869e cfbd 29cd 0fbc
00000280: 37fd 743d f09e abbd 96d2 09be c0a1 74bc
00000290: 70b3 28be 3418 463d 9add 0abd 1404 07be
000002a0: 637e 063e 9308 303c 0dc1 d8bd aebd c4bd
000002b0: 516a 3bbd 722f b7bd 3671 f4bd e489 b23d
000002c0: ab9d 02be 5438 433d 9038 4f3e e6f9 30be
000002d0: 6cbc 8ebd 1ea1 ae3c b87c 22be 8f47 d13c
000002e0: 0da3 113e 5bcb 64be 6710 933d fb05 79bd
000002f0: be41 10be 7235 26bc 3a13 70be 1e7d ea3d
00000300: 3838 9ebe 3adb f83d 3d59 8e3e dcea 563d
00000310: f0f9 cfbd 79eb 63be e78b 58bd fa71 933d
00000320: ece0 1dbe a070 933e 79d9 1c3d 1721 cfbd
00000330: c812 fb3d 1318 21bd c0ef 613c e758 3ebe
00000340: a5b4 03be 92fb 4a3c a727 3c3e 92ec de3d
00000350: e607 8bbe 5c88 b33e 4c51 7ebd a853 8cbd
00000360: 8d4a 6c3b 5a2a e0bd 17d9 09be 258a 0e3e
00000370: 43c0 cbbe b2c2 08bd a530 51bd e918 f03d
00000380: 7ecf 5dbd af54 b7bd 2e65 173e 1e98 debd
00000390: ca00 bf3d 2d58 743e 530c 243c a268 acbd
000003a0: c08c 77bd 0e06 96bd bf1b 033e 3336 0b3e
000003b0: 06ff 013c 1732 33be 3f12 96bd ed06 fdbc
000003c0: acb9 b13d 9ccd ed3b 3fa1 823e 9ac2 0a3d
000003d0: 5dbd d1bd 98a3 6bbe 1ae6 b0bd ed73 ad3e
000003e0: e3dd 013d 2777 70bc 3527 013e 2275 263d
000003f0: d781 793e d0c9 72bc 2165 ac3d 85f5 c8bd

all_embed.embed_2.bias f4 [128]
0.0026840742 0.2227604 0.08225355 0.1526116 -0.16060342 -0.14476681 0.026089413 -0.03189528
0.014206105 -0.108143926 0.08294058 0.12998986 -0.082024574 -0.08755063 -0.014828888 -0.019166766
-0.016246716 0.0053566867 -0.009594017 -0.16290823 -0.06615427 0.19862303 -0.11942719 -0.08815138
0.010332421 -0.2476973 -0.13258734 -0.08260963 -0.06996903 -0.022672853 0.14431949 -0.16541207
-0.050726373 -0.11457833 -0.078348085 0.01475689 -0.16436839 -0.018710995 -0.08935782 -0.12011938
-0.0969078 -0.02585258 0.011094589 -0.08275821 -0.16213621 0.07687954 -0.02740016 0.11310926
-0.13608357 -0.1486097 -0.14816959 0.0817371 -0.038667385 -0.0072570746 -0.32396835 -0.19786794
-0.12671809 -0.21893495 -0.19478294 -0.120065086 -0.20255955 -0.079366095 0.2008901 -0.01524154
-0.09261894 -0.13476428 -0.15642904 -0.05409733 -0.27564758 0.060772344 -0.13946149 -0.14078638
-0.16239402 0.030708812 -0.005699872 -0.04305293 -0.19637182 -0.052395344 -0.13522857 0.07405349
-0.06567147 -0.015392494 0.19537473 0.06445239 0.08227742 -0.07767128 -0.1763593 -0.010184664
0.030113364 0.09721916 0.11519671 -0.100822434 -0.14817996 -0.13033795 -0.08666321 0.091033496
-0.076577075 -0.15654024 0.07951137 -0.11912111 0.058527518 0.03624222 -0.081569865 -0.10854187
-0.024235286 0.035512026 -0.13710713 -0.074392155 -0.15285023 0.027196178 -0.07504534 -0.013324294
-0.27456343 -0.07732395 0.049179792 -0.05386034 -0.1391804 -0.22494587 -0.09667016 -0.10506176
-0.0241573 -0.14909443 -0.11833534 -0.2095216 -0.098043315 -0.014031447 0.0035476806 0.07551805
00000000: 4be7 2f3b 4d1b 643e 8d74 a83d 3746 1c3e
00000010: 3975 24be c03d 14be 77b9 d53c a0a4 02bd
00000020: b9c0 683c 907a ddbd c0dc a93d 101c 053e
00000030: 80fc a7bd bf4d b3bd ddf4 72bc 9f03 9dbc
00000040: d517 85bc 2587 af3b 3930 1dbc 6ad1 26be
00000050: e47b 87bd d663 4b3e 3e96 f4bd b688 b4bd
00000060: 5149 293c 5ca4 7dbe fac4 07be 3d2f a9bd
00000070: ec4b 8fbd 6bbc b9bc 7dc8 133e c861 29be
00000080: 75c6 4fbd 0ba8 eabd f674 a0bd e2c6 713c
00000090: 3050 28be cd47 99bc 3c01 b7bd 2601 f6bd
000000a0: 9977 c6bd cac8 d3bc 14c6 353c 237d a9bd
000000b0: 0907 26be 0573 9d3d 4d76 e0bc d4a5 e73d
000000c0: 7e59 0bbe 242d 18be c5b9 17be c865 a73d
000000d0: b161 1ebd c1cc edbb 2edf a5be e59d 4abe
000000e0: 63c2 01be 7c30 60be 2e75 47be afe4 f5bd
000000f0: c56b 4fbe b18a a2bd 22b6 4d3e a7b7 79bc
00000100: 00af bdbd a6ff 09be ef2e 20be 2995 5dbd
00000110: ae21 8dbe 6cec 783d fece 0ebe 4e2a 10be
00000120: 9e4a 26be 0c91 fb3c fec5 babb 4558 30bd
00000130: b215 49be 809c 56bd 5c79 0abe 5ba9 973d
00000140: c37e 86bd cd30 7cbc 5010 483e 9dff 833d
00000150: 1081 a83d 1f12 9fbd 8897 34be 94dd 26bc
00000160: 4db0 f63c d71a c73d 41ec eb3d fe7b cebd
00000170: 7dbc 17be 5077 05be 7b7c b1bd c56f ba3d
00000180: 71d4 9cbd 164c 20be dbd6 a23d c5f5 f3bd
00000190: 8dba 6f3d b972 143d 1a0e a7bd 334b debd
000001a0: 1489 c6bc 0f75 113d d065 0cbe ea5a 98bd
000001b0: c584 1cbe 85ca de3c 5fb1 99bd 244e 5abc
000001c0: 9493 8cbe 055c 9ebd c070 493d a99c 5cbd
000001d0: 4f85 0ebe 3658 66be 01fb c5bd 9f2a d7bd
000001e0: 88e5 c5bc 36ac 18be cc59 f2bd d58c 56be
000001f0: efca c8bd 27e4 65bc 3480 683b 35a9 9a3d

pointer.v f4 [1, 1, 128]
0.59379953 0.5053658 -0.76310456 -0.8620534 2.0493307 -1.9180582 -1.5834187 -1.3740636
-2.555707 1.3827654 0.3192572 1.0078232 -0.78977334 -1.5506887 1.1575302 -0.707116
1.245188 -1.7546594 1.6114508 1.3706274 -1.5994468 -0.0361329 -0.60372573 -0.72343147
0.7301064 1.206241 -1.8244678 1.8339792 1.6155431 2.6715178 -0.6342517 -0.78734106
-1.3342135 -1.7740258 -1.8503523 -1.3464751 1.3572979 1.041508 -1.6698921 1.4506544
-1.603709 -1.6908242 1.7662542 -1.2614226 1.3099259 1.997143 1.7250644 0.16078396
1.4948319 1.3551294 1.3158134 -0.97941846 1.483011 0.8549527 1.766307 1.4993185
-1.138454 1.2411215 1.5056522 -1.8145766 -1.4921114 0.24472232 0.41486895 0.5847305
-0.15662406 -1.1954193 1.2391403 1.0799385 1.5265363 -1.8502969 1.2512035 -2.4818635
-0.6356533 0.6268481 0.69121546 2.156216 1.2907425 -1.5636821 -0.5667275 0.76116735
-1.3807174 -1.0043979 -0.5613684 -0.53692466 -1.6434762 1.6585963 1.3747232 1.2491055
-1.3061267 1.8978497 -1.4737048 -2.0187707 -1.2004167 1.8275269 1.3656105 0.82487136
1.330462 -2.1286666 0.8506134 1.7279522 1.4052943 1.1194084 -2.0509543 1.2101861
-0.78393394 1.251933 2.7314224 1.2175322 1.670676 0.645945 -1.618985 2.0680792
1.5459255 1.5182385 1.5200899 1.2625867 -1.1969305 1.5540273 1.7417513 1.4094479
0.5576918 1.3134421 -1.2325429 -1.4188411 -0.40685683 1.3851815 1.2572038 0.5788806
00000000: 3f03 183f a75f 013f d25a 43bf 88af 5cbf
00000010: 3c28 0340 ee82 f5bf 77ad cabf 51e1 afbf
00000020: b490 23c0 75fe b03f ae75 a33e 5a00 813f
00000030: 962e 4abf f87c c6bf f329 943f 8e05 35bf
00000040: 5262 9f3f ae98 e0bf 0544 ce3f b870 af3f
00000050: acba ccbf 1700 14bd c58d 1abf ce32 39bf
00000060: 41e8 3a3f 1b66 9a3f 2988 e9bf d5bf ea3f
00000070: 1eca ce3f 26fa 2a40 525e 22bf 2f8f 49bf
00000080: 82c7 aabf 4713 e3bf 58d8 ecbf 4c59 acbf
00000090: f0bb ad3f 2250 853f 06bf d5bf 0baf b93f
000000a0: 5646 cdbf ed6c d8bf 9e14 e23f 4c76 a1bf
000000b0: a7ab a73f 62a2 ff3f e9ce dc3f 8da4 243e
000000c0: a756 bf3f e174 ad3f 936c a83f 2bbb 7abf
000000d0: 4ed3 bd3f 2ede 5a3f 5916 e23f abe9 bf3f
000000e0: dcb8 91bf 12dd 9e3f 36b9 c03f 0c44 e8bf
000000f0: 82fd bebf 7d98 7a3e b469 d43e e6b0 153f
00000100: 0f62 20be 8003 99bf 269c 9e3f 6d3b 8a3f
00000110: 8b65 c33f 87d6 ecbf 7027 a03f dad6 1ec0
00000120: 2dba 22bf 1e79 203f 7ff3 303f 71ff 0940
00000130: 0d37 a53f bc26 c8bf 0e15 11bf dddb 423f
00000140: 59bb b0bf 1c90 80bf d7b5 0fbf e573 09bf
00000150: 6e5d d2bf e24c d43f eef6 af3f b0e2 9f3f
00000160: 292f a7bf bdec f23f 5ca2 bcbf 8a33 01c0
00000170: 41a7 99bf 67ec e93f 53cc ae3f c52a 533f
00000180: 944c aa3f 133c 08c0 cdc1 593f 8a2d dd3f
00000190: afe0 b33f c648 8f3f d642 03c0 61e7 9a3f
000001a0: e5af 48bf 573f a03f a0cf 2e40 18d8 9b3f
000001b0: b6d8 d53f a75c 253f e73a cfbf 695b 0440
000001c0: e3e0 c53f a455 c23f 4e92 c23f 719c a13f
000001d0: 0535 99bf 5eea c63f b5f1 de3f ca68 b43f
000001e0: e4c4 0e3f df1e a83f f7c3 9dbf 969c b5bf
000001f0: 8a4f d0be a14d b13f 0eec a03f 8531 143f

pointer.encoder_attn.v f4 [1, 1, 128]
-0.2168522 -0.17677695 0.21620794 0.098759584 0.19982643 0.13027197 -0.041900065 0.0349815
-0.11278929 -0.12410859 -0.25715554 -0.168713 -0.3470431 -0.025651464 0.15387781 0.08905425
-0.14679089 0.3313399 -0.10806948 0.17599578 0.16546874 0.14033954 -0.108533226 0.098580144
0.131015 -0.11403366 0.12694982 0.056852203 0.16564946 -0.2271762 0.11251482 -0.11296327
-0.07836451 -0.06384626 -0.1633187 -0.16351241 0.018690217 -0.21315998 0.016269168 0.13276248
-0.27145794 -0.094223626 0.19292805 0.30787122 -0.17291485 -0.09917223 -0.048130028 -0.18285054
0.120765544 0.1518407 -0.35191825 -0.11221375 0.08501625 0.06734968 -0.24567214 -0.12090684
0.10281558 0.16280203 0.14222148 -0.12081866 -0.14844292 -0.13563238 -0.3548004 -0.14417912
-0.07397555 -0.021990495 0.09300613 0.028255366 -0.24209528 -0.015513102 0.053207263 -0.1274432
0.09829846 0.023080274 0.08806028 0.055686984 0.043014977 0.053290263 0.010406537 -0.2614338
0.33017367 -0.20768465 -0.23618883 -0.29634443 -0.039552707 -0.44173992 0.13677043 -0.11317197
-0.017773202 -0.35428426 -0.097035505 -0.013995233 -0.04408592 0.13238017 -0.1874977 -0.13569184
-0.016287299 -0.16966087 0.17359033 0.27852297 0.24801621 0.087640874 0.10166375 -0.19135928
-0.03270267 0.14548945 -0.23029925 -0.08829956 0.07963169 0.16485217 0.1310431 -0.1716349
-0.15745246 -0.2793312 -0.052665107 0.25609434 -0.057565752 0.24455026 0.10232646 -0.049479727
-0.14056093 0.08667657 -0.18719955 -0.13858731 -0.12676026 -0.32892594 0.20518997 -0.113295875
00000000: 810e 5ebe 0405 35be 9d65 5d3e 7742 ca3d
00000010: 4d9f 4c3e 0466 053e 679f 2bbd c348 0f3d
00000020: 12fe e6bd a52c febd e4a9 83be 1ac3 2cbe
00000030: a2af b1be 0523 d2bc 2592 1d3e 1362 b63d
00000040: 5a50 16be 62a5 a93e 8853 ddbd 3d38 343e
00000050: a370 293e 2bb5 0f3e ab46 debd 63e4 c93d
00000060: cc28 063e 7b8a e9bd 22ff 013e dbdd 683d
00000070: 03a0 293e e1a0 68be 2c6e e63d 4959 e7bd
00000080: 927d a0bd d4c1 82bd 043d 27be cc6f 27be
00000090: 3a1c 993c 9c46 5abe eb46 853c e3f2 073e
000000a0: 89fc 8abe 51f8 c0bd ee8e 453e 4ca1 9d3e
000000b0: 9710 31be cf1a cbbd fe23 45bd 2c3d 3bbe
000000c0: ed53 f73d 217c 1b3e a12e b4be 53d0 e5bd
000000d0: 001d ae3d a1ee 893d 7a91 7bbe 019e f7bd
000000e0: fa90 d23d 93b5 263e 82a2 113e c66f f7bd
000000f0: 6c01 18be 37e3 0abe 66a8 b5be b1a3 13be
00000100: 7e80 97bd 6925 b4bc ff79 be3d cc77 e73c
00000110: d3e7 77be aa2a 7ebc dcef 593d 7880 02be
00000120: b450 c93d d812 bd3c f358 b43d 0918 643d
00000130: 7930 303d e446 5a3d 2e80 2a3c a7da 85be
00000140: 860c a93e 49ab 54be 7cdb 71be 75ba 97be
00000150: 0502 22bd bc2b e2be 8c0d 0c3e b5c6 e7bd
00000160: 1b99 91bc bf64 b5be 8dba c6bd 434c 65bc
00000170: 7093 34bd ab8e 073e 66ff 3fbe cdf2 0abe
00000180: f16c 85bc 94bb 2dbe aac1 313e 909a 8e3e
00000190: f6f7 7d3e 0f7d b33d 1635 d03d b0f3 43be
000001a0: 3cf3 05bd 30fb 143e 91d3 6bbe 66d6 b4bd
000001b0: f115 a33d 02cf 283e 2a30 063e 0fc1 2fbe
000001c0: 383b 21be 8004 8fbe 5eb7 57bd cc1e 833e
000001d0: 11ca 6bbd 626b 7a3e 8990 d13d 41ab 4abd
000001e0: 34ef 0fbe 7c83 b13d 3db1 3fbe d5e9 0dbe
000001f0: 71cd 01be fb68 a8be 521d 523e ab07 e8bd

pointer.encoder_attn.W f4 [1, 128, 256]
-0.051788155 -0.075813554 -0.02353076 -0.06892939 -0.041865297 0.036132064 -0.013038064 0.021912131
0.053147487 0.035198655 -0.0040678033 0.039796088 0.030678645 0.0059921546 -0.05711764 0.03412765
-0.047138993 0.13367042 -0.022264907 -0.03935515 0.032326497 0.06115982 0.01675765 0.041803066
-0.058915816 -0.022829333 0.033145487 0.016280735 -0.031182613 -0.06628073 0.13800806 0.025363976
-0.010954966 0.05075807 0.04120248 -0.1574433 -0.03990152 -0.06385151 -0.029217271 -0.014211766
0.010237342 -0.06321765 -0.017528081 -0.04756411 0.012786973 -0.027141068 -0.04495109 0.058038704
-0.012540178 -0.01647827 -0.027927129 -0.034630954 -0.0051622884 -0.023836128 0.100122154 -0.0001003543
0.07297832 0.0341362 -0.040878262 0.0104190605 -0.016702766 -0.0988772 0.16414253 -0.0707988
0.027330963 -0.023600526 -0.06849187 -0.037910644 0.14604491 -0.11256754 0.0010034542 0.058204133
0.023392746 -0.076413624 -0.061281048 0.011906372 0.029230233 -0.02315627 -0.016892402 -0.061184555
-0.09475251 0.022048365 0.023020726 0.09013563 -0.06950898 -0.033295985 -0.0055355905 -0.08054082
-0.13166581 -0.031439353 0.1651301 0.03816041 -0.058267653 -0.016194997 -0.037135135 -0.059448004
-0.053039856 0.024498932 0.06531886 -0.084329344 -0.009964264 0.08732947 0.035351157 -0.009334714
-0.02215603 -0.024209313 -0.12784775 -0.010828261 -0.03143334 0.008085674 -0.021953585 -0.0443887
0.031568352 -0.01319309 -0.01731224 0.03796846 -0.013055097 0.10327243 -0.00413972 0.016572747
-0.063404776 -0.0398014 -0.023990339 -0.015339494 0.011669097 0.030740129 0.0023628809 0.05154015
0.102227315 -0.13322248 0.011751006 0.18350348 0.07822205 -0.09992935 0.10481243 0.20116015
-0.028541002 -0.13730015 0.106931604 0.067106746 0.12251853 0.18862037 -0.030454427 0.077763654
0.053027097 -0.0014826148 -0.1513419 0.122042365 0.019867288 0.0027268538 -0.049913805 0.06421238
0.051040504 0.08191304 -0.14483087 -0.12988858 -0.08518889 -0.057716567 -0.13003421 0.13908325
0.089427724 0.09285666 0.05204864 0.09607744 0.007839746 -0.0050931815 -0.02267064 0.023089286
0.21322264 -0.06642805 0.18133003 0.13379626 -0.039036535 -0.1017613 -0.19277006 0.03815068
-0.10806788 0.015036094 0.062915735 0.095845595 0.03348985 -0.07770021 0.14490022 0.058037456
-0.022238731 0.014595978 0.06701927 0.047417693 -0.07638604 -0.012297632 0.051538393 0.038706154
-0.19124962 0.039593752 -0.05104529 0.1520317 0.16510952 0.14325002 0.033067916 -0.10187227
0.013943567 -0.15989 0.04104879 0.10878264 0.014940177 -0.0014295903 -0.15758817 0.015827538
-0.018940782 -0.023561968 0.11968857 0.04535436 -0.090838246 -0.1354962 -0.10908328 -0.17700942
0.019139182 -0.04885471 0.012378551 0.13581891 0.1429588 0.02100168 0.021253765 -0.21932016
0.032652866 0.2274628 0.04960713 0.01091215 0.18930338 -0.031249424 0.02944161 0.15576023
-0.0073085898 -0.082997516 -0.20305553 -0.0385734 -0.18199478 0.058239494 -0.021355424 0.15215099
0.0961657 0.040250603 0.034602277 0.0013306811 -0.032682642 -0.1950731 0.0010169845 0.10713075
-0.05961639 -0.10036957 -0.18487392 -0.009124858 -0.17234747 0.089146815 -0.04957409 -0.09807005
00000000: d11f 54bd 2344 9bbd 95c3 c0bc da2a 8dbd
00000010: f27a 2bbd 37ff 133d 9b9d 55bc 1281 b33c
00000020: 2eb1 593d 772c 103d 354b 85bb 3901 233d
00000030: c851 fb3c d659 c43b 30f4 69bd 6fc9 0b3d
00000040: d114 41bd e6e0 083e e564 b6bc de32 21bd
00000050: ca68 043d b882 7a3d 5747 893c b139 2b3d
00000060: b651 71bd 9504 bbbc 90c3 073d 2d5f 853c
00000070: ae72 ffbc 31be 87bd fc51 0d3e 1dc8 cf3c
00000080: 757c 33bc b2e7 4f3d efc3 283d d138 21be
00000090: c76f 23bd 95c4 82bd 0f59 efbc 78d8 68bc
000000a0: 86ba 273c 4178 81bd 0d97 8fbc 96d2 42bd
000000b0: 7480 513c f256 debc a21e 38bd feb9 6d3d
000000c0: 5275 4dbc 70fd 86bc 6fc7 e4bc 30d9 0dbd
000000d0: 6a28 a9bb fc43 c3bc d80c cd3d 4e75 d2b8
000000e0: a875 953d 66d2 0b3d f76f 27bd b5b4 2a3c
000000f0: 3dd4 88bc 2180 cabd fb14 283e f6fe 90bd
00000100: 2fe5 df3c e455 c1bc 7745 8cbd 3148 1bbd
00000110: cc8c 153e cf89 e6bd 5686 833a 7567 6e3d
00000120: 25a2 bf3c bf7e 9cbd d601 7bbd f212 433c
00000130: 3e74 ef3c 38b2 bdbc ef61 8abc a89c 7abd
00000140: 9b0d c2bd c69e b43c f695 bc3c 0799 b83d
00000150: b95a 8ebd 5f61 08bd e663 b5bb 96f2 a4bd
00000160: 67d3 06be 8dc6 00bd dd17 293e 174e 1c3d
00000170: 10aa 6ebd 5fab 84bc 031b 18bd c07f 73bd
00000180: 5240 59bd fcb1 c83c e5c5 853d ddb4 acbd
00000190: 2741 23bc cbd9 b23d 60cc 103d a1f0 18bc
000001a0: 9080 b5bc 9c52 c6bc 85ea 02be 0569 31bc
000001b0: 3fc0 00bd c679 043c 01d8 b3bc edd0 35bd
000001c0: d14d 013d d527 58bc 66d2 8dbc d184 1b3d
000001d0: 0ce5 55bc 7f80 d33d 7da6 87bb 92c3 873c
000001e0: 5dda 81bd cb06 23bd 6387 c4bc 8052 7bbc
000001f0: bd2f 3f3c b9d2 fb3c 90da 1a3b c41b 533d
00000200: 8e5c d13d 796b 08be 4b87 403c 56e8 3b3e
00000210: e232 a03d c2a7 ccbd e6a7 d63d edfc 4d3e
00000220: d2ce e9bc 6998 0cbe f5fe da3d 436f 893d
00000230: ffea fa3d b325 413e 907b f9bc 8d42 9f3d
00000240: f132 593d 4c54 c2ba 5ff9 1abe 59f1 f93d
00000250: b9c0 a23c 04b5 323b 6b72 4cbd c881 833d
00000260: d90f 513d 06c2 a73d 8b4e 14be 8301 05be
00000270: 8377 aebd 3568 6cbd b027 05be d76b 0e3e
00000280: e225 b73d a22b be3d f430 553d 40c4 c43d
00000290: 4772 003c b4e4 a6bb c7b7 b9bc be25 bd3c
000002a0: 0957 5a3e 6e0b 88bd 94ae 393e e301 093e
000002b0: c6e4 1fbd 3a68 d0bd 8465 45be e343 1c3d
000002c0: b152 ddbd f359 763c f7d9 803d b24a c43d
000002d0: a72c 093d 4a21 9fbd b960 143e afb8 6d3d
000002e0: 002e b6bc f823 6f3c 6641 893d 0e39 423d
000002f0: 4970 9cbd 027c 49bc ec19 533d 588a 1e3d
00000300: f1d6 43be 0f2d 223d de14 51bd 33ae 1b3e
00000310: 7812 293e 22b0 123e 3972 073d 69a2 d0bd
00000320: 8f73 643c 34ba 23be c722 283d 6fc9 de3d
00000330: a5c7 743c 1761 bbba cb5e 21be c1a8 813c
00000340: b329 9bbc 0705 c1bc 481f f53d 7ec5 393d
00000350: 6709 babd 84bf 0abe 0e67 dfbd f541 35be
00000360: c6c9 9c3c e01b 48bd 68cf 4a3c 1d14 0b3e
00000370: cb63 123e b70b ac3c 601c ae3c 7795 60be
00000380: 03bf 053d 02ec 683e d930 4b3d e0c8 323c
00000390: bfd8 413e cbfe ffbc 882f f13c 9c7f 1f3e
000003a0: e57c efbb 9afa a9bd caed 4fbe 24ff 1dbd
000003b0: d75c 3abe 898c 6e3d 92f1 aebc 78cd 1b3e
000003c0: 86f2 c43d d1dd 243d 1ebb 0d3d 406a ae3a
000003d0: 3cde 05bd 3ec1 47be 564c 853a 5e67 db3d
000003e0: 5130 74bd 908e cdbd 974f 3dbe 6e80 15bc
000003f0: db7b 30be 9b92 b63d 330e 4bbd f3d8 c8bd

pointer.fc1.weight f4 [128, 256]
-0.018805033 0.1407586 -0.014839453 -0.04221107 -0.052918673 0.010360893 -0.19650142 -0.037321914
-0.037751995 0.18888888 -0.012949619 -0.07571101 0.026725655 -0.115485705 0.2590985 -0.1551491
-0.0064563625 -0.032015797 0.01405446 -0.1532802 0.19626415 -0.010107343 0.09909978 -0.14652728
-0.14492112 0.050980005 0.15157504 0.07531866 -0.0562282 0.09283709 0.14896332 -0.07773196
-0.16302754 -0.20732558 -0.01636217 0.009102147 0.03301265 -0.03260758 -0.0108494 0.016398547
-0.115918174 0.18528624 -0.07016773 0.03663471 -0.09792816 0.14539704 -0.018747836 -0.034376115
0.042284224 -0.036728337 -0.1071312 -0.14070755 -0.049015563 0.15583038 -0.0901278 -0.16726273
0.062192023 -0.07152389 0.023245187 0.008840482 -0.06388821 -0.059168838 0.12658937 0.019619612
0.046758186 -0.10340548 0.014627957 -0.10295993 0.08228442 -0.037750848 0.055002518 0.14421903
-0.10437877 0.17791753 0.102063164 -0.056393865 0.08121555 -0.09200125 -0.03739369 -0.07163446
-0.097899996 -0.14245811 -0.12555923 -0.16067019 0.14312577 0.12962812 -0.032108 0.05725207
-0.11620608 0.035249464 -0.031652853 -0.11861064 0.039351888 -0.07406106 -0.07599044 0.11833635
0.03793929 -0.15457627 -0.055662554 -0.0644049 -0.19381511 0.062977694 -0.16536929 -0.075271256
0.11515701 -0.08716068 0.1742428 -0.14273562 0.06571951 0.004243011 -0.047520414 0.006273869
-0.050439056 0.082345106 0.024695465 -0.050245438 0.13494606 -0.00059764367 0.028883057 -0.044014502
0.1310701 0.113231726 0.07384294 -0.042919125 0.15946071 -0.0379309 0.12790488 0.14750187
0.034376886 -0.014796589 -0.06707234 -0.058527313 0.00959975 -0.06946023 0.06322834 -0.01763354
0.010039371 0.087023474 -0.16740908 0.058989804 -0.12671274 -0.13038151 -0.10701195 -0.07552352
0.07514759 0.09812061 -0.10409914 0.057192422 0.053550884 0.0624185 -0.08973565 0.054864682
-0.03020429 0.022701267 -0.032855097 -0.024539478 -0.009074054 0.19035983 -0.04424948 -0.07522027
0.041944288 -0.06072333 -0.041528706 -0.074032895 -0.07667363 -0.0843201 0.10410501 -0.14781821
0.0067069926 -0.04542456 -0.0076538147 -0.03499197 0.093078345 -0.038386956 -0.024387315 0.09850598
-0.06762073 0.06996696 -0.0302242 0.06107278 -0.11279935 -0.046777226 -0.06529132 -0.03468792
0.050212286 0.081410944 -0.043128885 0.016255785 -0.042600743 -0.12760688 -0.03079344 -0.08108963
0.004431903 0.022803223 -0.06317327 -0.10446992 -0.020009974 0.08716766 0.10473536 -0.047139402
0.019613065 -0.121500626 -0.08631968 0.13528216 0.08839519 0.020787263 -0.09506178 -0.0038469967
-0.05951569 -0.10856225 -0.002118214 -0.07246375 0.14724477 0.009261988 -0.075416654 0.12331191
0.091332175 -0.094338305 0.024754345 0.025332794 -0.07312832 0.098126434 0.09364861 0.121900976
0.07709411 -0.036441714 0.13400565 -0.048734535 -0.14001848 0.096092165 -0.05467797 0.00863797
-0.08465838 -0.099370055 0.085717864 -0.04093284 -0.08358548 -0.1519029 0.09578213 0.11545024
0.047803786 -0.07096169 0.007096123 0.07704616 -0.1409474 -0.06544741 -0.13227655 0.09122295
0.06903176 0.053331386 0.01000933 0.014479435 0.027332323 -0.073205754 -0.032038048 0.050022643
00000000: 030d 9abc 0623 103e 2d21 73bc 84e5 2cbd
00000010: 40c1 58bd bcc0 293c ab37 49be ddde 18bd
00000020: d6a1 1abd 166c 413e a42a 54bc 600e 9bbd
00000030: c3ef da3c c583 ecbd 8fa8 843e 68df 1ebe
00000040: e58f d3bb ff22 03bd ae44 663c 7cf5 1cbe
00000050: 78f9 483e 4599 25bc d3f4 ca3d 3f0b 16be
00000060: 3466 14be 69d0 503d 7d36 1b3e ab40 9a3d
00000070: 8b4f 66bd 5f21 be3d d789 183e ef31 9fbd
00000080: b1f0 26be 284d 54be f509 86bc 2c21 153c
00000090: 4638 073d 878f 05bd afc1 31bc 3f56 863c
000000a0: 8266 edbd adbb 3d3e 19b4 8fbd 470e 163d
000000b0: 8f8e c8bd f6e2 143e 1095 99bc f8cd 0cbd
000000c0: 3932 2d3d 7470 16bd 9a67 dbbd a415 10be
000000d0: 8bc4 48bd 0092 1f3e ed94 b8bd ec46 2bbe
000000e0: 10bd 7e3d 1e7b 92bd b16c be3c abd7 103c
000000f0: d2d7 82bd 065b 72bd a5a0 013e 4fb9 a03c
00000100: 8385 3f3d 41c6 d3bd 19aa 6f3c a8dc d2bd
00000110: bc84 a83d a2a0 1abd 524a 613d 27ae 133e
00000120: 89c4 d5bd 0330 363e 7e06 d13d 41fd 66bd
00000130: 5754 a63d 276b bcbd 202a 19bd 16b5 92bd
00000140: cb7f c8bd 8ae0 11be 9992 00be ba86 24be
00000150: 908f 123e 3cbd 043e ae83 03bd 2681 6a3d
00000160: 74fd edbd be61 103d 6ca6 01bd 23ea f2bd
00000170: 722f 213d 53ad 97bd e0a0 9bbd 545a f23d
00000180: 3b66 1b3d 3e49 1ebe 6bfe 63bd b7e6 83bd
00000190: 7877 46be 73fa 803d 9156 29be d127 9abd
000001a0: 70d7 eb3d 4c81 b2bd b46c 323e 4929 12be
000001b0: f397 863d f508 8b3b c4a4 42bd 0795 cd3b
000001c0: 2f99 4ebd 8da4 a83d 254e ca3c 29ce 4dbd
000001d0: 4d2f 0a3e 30ab 1cba 299c ec3c 8d48 34bd
000001e0: 3e37 063e 09e6 e73d f83a 973d f7cb 2fbd
000001f0: ab49 233e 6e5d 1bbd 7ff9 023e bb0a 173e
00000200: c7ce 0c3d 646d 72bc 395d 89bd 56ba 6fbd
00000210: 4548 1d3c 2a41 8ebd dc7d 813d 3774 90bc
00000220: 2d7c 243c 5d39 b23d 496d 2bbe 4b9f 713d
00000230: fcc0 01be bb82 05be 1529 dbbd 13ac 9abd
00000240: fbe6 993d 75f3 c83d ee31 d5bd 9a42 6a3d
00000250: 2c58 5b3d 8baa 7f3d 53c7 b7bd cab9 603d
00000260: fd6e f7bc 02f8 b93c 1193 06bd 0407 c9bc
00000270: 57ab 14bc b0ed 423e f13e 35bd 160d 9abd
00000280: c6cd 2b3d 07b9 78bd 011a 2abd 8f9e 97bd
00000290: 1007 9dbd 04b0 acbd 0235 d53d a85d 17be
000002a0: 55c6 db3b 1a0f 3abd dacc fabb bd53 0fbd
000002b0: dc9f be3d a43b 1dbd e8c7 c7bc 81bd c93d
000002c0: bd7c 8abd d64a 8f3d be98 f7bc 7427 7a3d
000002d0: 5803 e7bd 7a99 3fbd 75b7 85bd ec14 0ebd
000002e0: 66ab 4d3d c8ba a63d eaa7 30bd da2a 853c
000002f0: 1e7e 2ebd 61ab 02be 8642 fcbc 5212 a6bd
00000300: 7f39 913b d3cd ba3c fd60 81bd 53f4 d5bd
00000310: f5eb a3bc f584 b23d 7e7f d63d 3f15 41bd
00000320: 94ab a03c 52d5 f8bd 5fc8 b0bd 6887 0a3e
00000330: 8a08 b53d 0d4a aa3c c0af c2bd e51d 7cbb
00000340: b9c6 73bd e355 debd bcd1 0abb e067 94bd
00000350: 55c7 163e 98bf 173c 0c74 9abd f48a fc3d
00000360: 5d0c bb3d 7134 c1bd a0c9 ca3c b886 cf3c
00000370: 4dc4 95bd 83f6 c83d d8ca bf3d 38a7 f93d
00000380: 84e3 9d3d e843 15bd c738 093e dd9d 47bd
00000390: 0161 0fbe f8cb c43d 02f6 5fbd 4686 0d3c
000003a0: 5f61 adbd 8782 cbbd d98c af3d 32a9 27bd
000003b0: dd2e abbd 6f8c 1bbe 6c29 c43d 2d71 ec3d
000003c0: e7cd 433d 5d54 91bd 9886 e83b 61ca 9d3d
000003d0: 8454 10be 4b09 86bd 8173 07be 19d3 ba3d
000003e0: 8660 8d3d 0372 5a3d 2cfe 233c 273b 6d3c
000003f0: 09e8 df3c e6ec 95bd 543a 03bd 8be4 4c3d

pointer.fc1.bias f4 [128]
0.080434054 0.009010129 0.067873746 0.009070637 0.06447715 -0.016080603 -0.0074521387 -0.0046450053
0.012891857 -0.021931691 -0.003067355 0.0021471335 -0.03611686 -0.047980342 0.08561174 -0.09545939
0.0003369706 0.06453066 -0.015509715 -0.032515697 0.045232385 -0.01909575 -0.044599 0.059172276
0.057913225 -0.035727195 0.018153004 0.084334575 0.0397313 -0.05877082 -0.024136074 -0.008264671
-0.04453706 -0.017684026 0.02705442 0.034388557 -0.025517536 0.033630233 0.059244286 0.011944044
0.030415237 0.054960627 0.027739976 0.1143498 -0.03045125 -0.08199799 0.0374082 -0.022121876
0.03000726 0.0052347854 0.03933896 0.051629674 0.097807765 0.08049655 -0.015792806 0.007308025
0.05682513 0.015099613 0.027175577 -0.0067423224 -0.04656313 -0.024259422 -0.06716529 0.012615802
-0.019058706 -0.0013893242 0.059058014 -0.057862073 0.03592794 -0.08022309 -0.022527173 -0.026284136
-0.005181312 0.09942795 -0.076315954 -0.013290571 0.059929125 -0.05166832 -0.057772774 -0.020340357
-0.024381973 0.0006389738 0.05556735 -8.1975224e-05 0.04096792 0.026011426 0.02646087 -0.041508768
0.02477513 -0.03881179 0.07583415 0.0010153702 -0.08310871 0.030477034 -0.070169024 0.063009016
-0.010034014 0.044077195 0.010729488 0.028627641 -0.0770189 0.04566625 0.027420795 0.048923474
0.03827038 0.0002637388 -0.0007900739 0.01973143 -0.042885885 0.03242049 -0.011840462 0.07114405
0.008403842 0.017578162 -0.060028955 -0.05242065 -0.04030526 -0.035494838 -0.021783644 -0.009544695
-0.019217847 0.028482767 0.03986823 -0.0625598 -0.020840809 0.013200769 -0.010513969 0.0056651584
00000000: 9cba a43d 389f 133c 6401 8b3d 029d 143c
00000010: 990c 843d 78bb 83bc 1231 f4bb 2135 98bb
00000020: 5e38 533c 17aa b3bc ad05 49bb ecb6 0c3b
00000030: 46ef 13bd 0987 44bd 3555 af3d 3680 c3bd
00000040: 6eab b039 a728 843d 761c 7ebc 2e2f 05bd
00000050: 9845 393d b16e 9cbc 71ad 36bd a15e 723d
00000060: 6b36 6d3d ae56 12bd 9cb5 943c 9bb7 ac3d
00000070: 4abd 223d acb9 70bd 04b9 c5bc 8b68 07bc
00000080: 7e6c 36bd 17de 90bc 3ba1 dd3c 04db 0c3d
00000090: 270a d1bc dbbf 093d 23aa 723d f4b0 433c
000000a0: 6029 f93c 651e 613d f23e e33c 3a30 ea3d
000000b0: e674 f9bc 90ee a7bd 5739 193d f038 b5bc
000000c0: c9d1 f53c 9088 ab3b e421 213d a379 533d
000000d0: 704f c83d 60db a43d ea5f 81bc 2878 ef3b
000000e0: 78c1 683d 5e64 773c 519f de3c b3ee dcbb
000000f0: fbb8 3ebd b2bb c6bc f58d 89bd 82b2 4e3c
00000100: 0121 9cbc fc19 b6ba d1e6 713d c800 6dbd
00000110: 2d29 133d 014c a4bd e88a b8bc d451 d7bc
00000120: ffc7 a9bb e2a0 cb3d 8a4b 9cbd b2c0 59bc
00000130: 3e78 753d 29a2 53bd 25a3 6cbd d2a0 a6bc
00000140: b4bc c7bc ce80 273a 979a 633d 1dea abb8
00000150: facd 273d ea15 d53c 77c4 d83c 1905 2abd
00000160: 37f5 ca3c 1df9 1ebd ef4e 9b3d 2c16 853a
00000170: e634 aabd f9aa f93c c7b4 8fbd df0a 813d
00000180: b465 24bc 4a8a 343d bcca 2f3c 8484 ea3c
00000190: 16bc 9dbd 890c 3b3d 93a1 e03c fb63 483d
000001a0: 67c1 1c3d 6c46 8a39 f61c 4fba cfa3 a13c
000001b0: 1ca9 2fbd 59cb 043d 7ffe 41bc f9b3 913d
000001c0: 45b0 093c 1400 903c ece0 75bd 09b7 56bd
000001d0: 2117 25bd 0963 11bd 9d73 b2bc 5a61 1cbc
000001e0: bf6e 9dbc b154 e93c de4c 233d 5a1f 80bd
000001f0: 58ba aabc 0a48 583c c842 2cbc cba2 b93b

pointer.fc2.weight f4 [128, 128]
-0.11688011 0.15798196 0.112223394 -0.038611874 0.11184815 -0.0088237375 0.019784737 -0.010473281
-0.14391898 0.12806475 -0.050291095 -0.0034902536 6.4134634e-05 -0.10075783 0.020432452 -0.03217713
0.10187476 -0.057920154 0.1381242 -0.037254423 0.0061436836 0.07051923 0.068637334 0.13815281
-0.029369311 -0.009948909 0.11833624 0.040004462 -0.11081511 0.06251276 0.06101405 0.17273408
0.0016345643 -0.006893324 0.16531143 -0.17369983 0.0052558277 0.038675208 -0.0032401558 -0.08286438
0.11198894 0.08231511 -0.120306134 -0.11405499 0.14153604 -0.05406387 -0.06842807 0.03130866
0.0024973452 -0.13814366 -0.15005577 0.12466207 0.14322892 0.040391836 -0.046470743 -0.14452691
0.021071093 -0.08839738 -0.082320474 -0.046544217 0.17508073 -0.23774764 0.10923136 -0.15808378
0.10851446 -0.02755321 -0.09204057 -0.07861604 0.10717596 0.25029802 -0.096024044 -0.007671995
-0.010304959 -0.14461635 0.007809651 -0.112012714 -0.129724 0.029124744 -0.12074958 0.13215603
-0.033741612 -0.06248163 -0.036556173 0.035857547 -0.05821604 -0.090740845 0.0040931366 0.22790629
0.115045644 0.1182457 -0.08428674 -0.08688441 -0.023696488 -0.1751937 0.17832458 -0.15058868
-0.09052314 -0.039752267 0.11040147 -0.11819074 0.13718888 -0.027800635 -0.041177776 0.021202877
-0.095576435 -0.027931644 0.14898732 -0.114592634 0.0561229 0.096976034 -0.047954023 0.03332494
-0.07617046 0.116518974 0.10422728 0.087864056 -0.040620893 0.047545817 0.07162188 0.19317313
0.18313539 -0.07687481 -0.10586774 -0.06353442 -0.046901777 0.11656453 -0.024341395 -0.0143084675
-0.019116877 -0.12989718 -0.027544977 0.021822281 0.030809343 -0.058211558 0.14160097 -0.14911018
-0.0018299818 0.0003558729 -0.0075474144 0.09639536 0.061778817 0.09927638 0.011111052 -0.015252981
0.023917858 0.026301008 0.13650773 0.08168338 -0.11299215 -0.028267968 -0.13945396 -0.01934317
-0.026097253 0.035313576 0.122797206 -0.121140406 0.14619945 -0.12349613 -0.07013167 -0.0319461
-0.15213637 -0.15066217 -0.04277372 -0.10988979 -0.07522062 0.021764036 -0.006433448 -0.08476631
-0.061496586 -0.008042139 -0.13242868 -0.1549175 -0.1340529 -0.088552095 -0.0039060747 0.08442376
-0.012332044 0.098435685 0.12928914 0.103474095 0.019841349 -0.13409497 0.019983912 0.0034173727
0.11194546 0.00079692726 -0.14468384 0.096380435 -0.15643425 0.14424086 -0.082969375 -0.13320869
0.10720004 -0.10930243 0.10968603 -0.0026146024 0.025026817 -0.13557781 0.11749361 0.069412336
-0.08041799 5.2045354e-05 -0.1504828 -0.047876112 -0.10622473 -0.1388061 0.008544339 0.11722238
-0.123135105 0.04821762 -0.07817848 0.06212393 -0.056906514 -0.088592306 -0.08662307 -0.014496634
-0.06535604 0.110543944 -0.008586411 -0.014959599 0.037900433 -0.01165398 -0.106128655 0.1484953
-0.06652798 -0.113549076 0.040971972 0.05842092 0.0018870259 -0.05590661 -0.15898442 -0.08576034
-0.0246472 -0.08027017 0.10869913 -0.04504642 -0.09979004 0.102722034 -0.074105255 -0.104833975
-0.004894951 -0.08569533 -0.082950324 0.03861282 -0.099155135 0.11693535 -0.053984642 -0.06235364
-0.13974333 -0.09190257 0.08131524 0.14838009 -0.08627353 -0.01256609 -0.14545299 -0.10056488
00000000: d75e efbd 06c6 213e 61d5 e53d 7c27 1ebd
00000010: a510 e53d 7091 10bc 9a13 a23c 2098 2bbc
00000020: 7f5f 13be 6823 033e 09fe 4dbd bdbc 64bb
00000030: 0580 8638 1f5a cebd f561 a73c 2bcc 03bd
00000040: b7a3 d03d af3d 6dbd 6e70 0d3e 1898 18bd
00000050: f450 c93b 636c 903d bb91 8c3d ee77 0d3e
00000060: e997 f0bc c000 23bc 455a f23d b8db 233d
00000070: 08f3 e2bd b106 803d dee9 793d 34e1 303e
00000080: e03e d63a 65e1 e1bb 6647 293e 5ede 31be
00000090: 1439 ac3b e569 1e3d cb58 54bb cdb4 a9bd
000000a0: 755a e53d d394 a83d 1063 f6bd aa95 e9bd
000000b0: d3ee 103e 1472 5dbd 0424 8cbd 823d 003d
000000c0: 80aa 233b 8875 0dbe 38a8 19be d44e ff3d
000000d0: 9aaa 123e e971 253d 1b58 3ebd ddfe 13be
000000e0: 499d ac3c b009 b5bd a397 a8bd 26a5 3ebd
000000f0: 5d48 333e 1e74 73be b1b4 df3d b7e0 21be
00000100: d43c de3d 45b7 e1bc c47f bcbd 7201 a1bd
00000110: 127f db3d 1027 803e 41a8 c4bd 5c65 fbbb
00000120: 21d6 28bc 4f16 14be 1ae8 ff3b ec66 e5bd
00000130: 5ed6 04be 0497 ee3c 8e4b f7bd e953 073e
00000140: a534 0abd bdec 7fbd edbb 15bd 5ddf 123d
00000150: f173 6ebd 56d6 b9bd b81f 863b 4460 693e
00000160: 0d9d eb3d cd2a f23d 879e acbd 74f0 b1bd
00000170: 231f c2bc fa65 33be b89a 363e eb33 1abe
00000180: 3264 b9bd 46d3 22bd 2a1a e23d fd0d f2bd
00000190: 3e7b 0c3e 28be e3bc 07aa 28bd a8b1 ad3c
000001a0: 94bd c3bd e7d0 e4bc 2290 183e 8baf eabd
000001b0: 20e1 653d 5f9b c63d 706b 44bd bb7f 083d
000001c0: 42ff 9bbd 80a1 ee3d 1d75 d53d 12f2 b33d
000001d0: 1862 26bd 67bf 423d 7eae 923d 2dcf 453e
000001e0: d887 3b3e 8a70 9dbd 30d1 d8bd 561e 82bd
000001f0: 141c 40bd 62b9 ee3d 9b67 c7bc 106e 6abc
00000200: ff9a 9cbc c403 05be 01a6 e1bc a4c4 b23c
00000210: e063 fc3c 3e6f 6ebd d8ff 103e 57b0 18be
00000220: 00dc efba 7494 ba39 4d50 f7bb ee6a c53d
00000230: c90b 7d3d 6a51 cb3d 210b 363c a4e7 79bc
00000240: 62ef c33c 3675 d73c afc8 0b3e 9e49 a73d
00000250: 6e68 e7bd 3a92 e7bc 05cd 0ebe 9175 9ebc
00000260: e8c9 d5bc f8a4 103d 1a7d fb3d 7618 f8bd
00000270: 4fb5 153e 8aeb fcbd 31a1 8fbd ead9 02bd
00000280: a3c9 1bbe 2f47 1abe 7f33 2fbd e60d e1bd
00000290: 450d 9abd 7e4a b23c accf d2bb f699 adbd
000002a0: d8e3 7bbd 2dc3 03bc 629b 07be b1a2 1ebe
000002b0: 2a45 09be cd5a b5bd 0ffd 7fbb 5de6 ac3d
000002c0: 570c 4abc a698 c93d 5f64 043e 3aea d33d
000002d0: 538a a23c 3150 09be 4db5 a33c 00f6 5f3b
000002e0: a943 e53d e2e8 503a 0028 14be 1b63 c53d
000002f0: 4d30 20be e0b3 133e d9eb a9bd dc67 08be
00000300: b28b db3d f4d9 dfbd 12a3 e03d c059 2bbb
00000310: 0a05 cd3c e9d4 0abe 7da0 f03d 0e28 8e3d
00000320: 30b2 a4bd 464b 5a38 2a18 1abe be19 44bd
00000330: 5a8c d9bd 3023 0ebe 8efd 0b3c 4a12 f03d
00000340: 422e fcbd d77f 453d 0a1c a0bd a975 7e3d
00000350: ce16 69bd e26f b5bd 7067 b1bd 4a83 6dbc
00000360: 63d9 85bd dd64 e23d 05ae 0cbc 1b19 75bc
00000370: 7c3d 1b3d 56f0 3ebc fb59 d9bd 270f 183e
00000380: d23f 88bd 6b8c e8bd 3ad2 273d c64a 6f3d
00000390: 1556 f73a 54fe 64bd d0cc 22be 1ea3 afbd
000003a0: ede8 c9bc b064 a4bd a69d de3d 9882 38bd
000003b0: b85e ccbd ee5f d23d 7fc4 97bd 32b3 d6bd
000003c0: d365 a0bb 0881 afbd dce1 a9bd 7a28 1e3d
000003d0: d911 cbbd cd7b ef3d 001f 5dbd 8866 7fbd
000003e0: e018 0fbe 6a37 bcbd 9b88 a63d f3f0 173e
000003f0: 2db0 b0bd 00e2 4dbc a1f1 14be f6f4 cdbd

pointer.fc2.bias f4 [128]
-0.09106617 -0.062311504 -0.03855773 0.06348128 0.060355596 0.09223079 -0.018253021 0.12537281
0.03011942 0.018453855 0.026363738 0.087298736 0.04686821 0.005189799 -0.004490757 -0.069345154
0.04614623 0.07084606 0.034256086 0.1189087 0.10963982 -0.05984262 0.022357875 -0.09113854
-0.077227704 -0.031512603 -0.09001371 0.17319489 0.11253196 -0.022818632 0.030002473 0.111666635
-0.029627085 0.018503992 -0.0070685493 0.060438924 -0.008034624 0.05557317 0.016926019 0.06853839
0.11154539 0.09731234 -0.03729396 0.05262877 -0.022513513 0.04532331 0.019229881 -0.13306823
0.060810637 0.076695055 0.10117567 0.10127265 0.036469616 0.049271695 0.107508294 0.1199203
0.060094096 0.046128307 -0.0065040886 -0.05567799 -0.023814816 -0.104928255 -0.081796296 0.03722533
-0.07578872 0.072287075 -0.06575934 -0.032411743 0.20030019 -0.026236286 0.06636025 0.0074778437
0.022769831 -0.06604305 0.03568022 0.09373935 0.01606016 -0.04735914 -0.08714962 -0.001667594
-0.0365691 -0.0425499 0.11872389 -0.088296145 0.007897996 0.029075116 0.040843487 0.040649824
0.049508784 0.06454192 0.01787993 -0.010887572 0.08058491 0.045966696 -0.0055866344 -0.050459903
0.11716128 -0.013848037 0.039665785 0.08192615 -0.058698516 0.0633623 -0.01456534 0.031934373
0.05726917 0.047056478 0.13318878 0.1098438 -0.049110956 0.0014033614 -0.023426909 -0.0928738
0.103079885 0.080326825 -0.03783158 -0.03926722 0.14544432 0.17957528 0.035046056 0.1203538
-0.02417557 -0.046810042 0.11266479 -0.0020405964 0.01770596 0.08854353 -0.028933981 0.06197315
00000000: e680 babd 593a 7fbd b6ee 1dbd 7902 823d
00000010: 6e37 773d 7fe3 bc3d 5c87 95bc bb61 003e
00000020: 00bd f63c 8a2c 973c c4f8 d73c aec9 b23d
00000030: e1f8 3f3d 300f aa3b 3327 93bb d504 8ebd
00000040: d403 3d3d bd17 913d 1c50 0c3d 6886 f33d
00000050: d88a e03d 891d 75bd dd27 b73c d8a6 babd
00000060: 8f29 9ebd 5c13 01bd 1c59 b8bd 005a 313e
00000070: 2877 e63d 24ee babc bfc7 f53c 7ab1 e43d
00000080: 80b4 f2bc af95 973c 4a9f e7bb ce8e 773d
00000090: a8a3 03bc b1a0 633d 6fa8 8a3c db5d 8c3d
000000a0: e971 e43d b14b c73d 8dc1 18bd 4491 573d
000000b0: 426e b8bc efa4 393d fc87 9d3c 0a43 08be
000000c0: 9314 793d 4c12 9d3d 3135 cf3d 0968 cf3d
000000d0: 2a61 153d 1ed1 493d 4f2d dc3d c698 f53d
000000e0: 3a25 763d 09f1 3c3d 4020 d5bb 9b0e 64bd
000000f0: 4a17 c3bc a0e4 d6bd d184 a7bd 9679 183d
00000100: 1e37 9bbd 3f0b 943d d5ac 86bd 2dc2 04bd
00000110: 7e1b 4d3e 7bed d6bc e2e7 873d b308 f53b
00000120: cc87 ba3c 9441 87bd 6c25 123d 6bfa bf3d
00000130: 9990 833c a8fb 41bd 807b b2bd 2b93 daba
00000140: 7bc9 15bd ce48 2ebd 8325 f33d 9cd4 b4bd
00000150: 9966 013c f02e ee3c 804b 273d 6e80 263d
00000160: b9c9 4a3d 8e2e 843d ee78 923c c961 32bc
00000170: b409 a53d 9347 3c3d 1610 b7bb 0baf 4ebd
00000180: 41f2 ef3d e1e2 62bc 9778 223d e6c8 a73d
00000190: db6d 70bd 18c4 813d 77a3 6ebc 9ecd 023d
000001a0: 1493 6a3d 4bbe 403d a462 083e c9f5 e03d
000001b0: 9228 49bd fff0 b73a cae9 bfbc 9e34 bebd
000001c0: 8c1b d33d 6482 a43d 49f5 1abd aad6 20bd
000001d0: 5bef 143e 95e2 373e 748c 0f3d 0e7c f63d
000001e0: d80b c6bc e3bb 3fbd ccbc e63d 87bb 05bb
000001f0: 170c 913c 4f56 b53d f506 edbc 8fd7 7d3d
