trained_models/cvrp/altr_C_100/model_incumbent_vrpRl13_C_ALTR_100_T_0.2_20337.pt (torch_old, 469732 bytes, 15 tensors)

all_embed.embed.weight f4 [128, 4]
000000 33 4d f8 3d 27 7d 6d 3d 02 65 c1 3b aa 46 67 3e
       0.121240996 0.057980683 0.0059019336 0.2258555
000010 d7 f4 1d 3f 2b c4 3d be ed 7b 4e bd 78 50 40 3e
       0.6170172 -0.18531863 -0.050411154 0.18780696
000020 e4 f3 46 3e fe 42 23 3f 19 07 ab bd ae cb cf bd
       0.19428974 0.63774097 -0.08350963 -0.10146271
000030 d7 a5 00 bf 64 5f d9 3e f6 90 13 bf ae c2 12 bf
       -0.5025305 0.4245559 -0.5764307 -0.5732831
000040 04 25 a6 3d 68 0d 6c 3d 02 de 58 3e 58 c7 02 be
       0.08112529 0.057629973 0.2117844 -0.12771356
000050 da 21 0d be 3e b5 21 be d0 96 3f 3e 2d 11 cf bd
       -0.13782445 -0.15791795 0.18709874 -0.10110698
000060 9c 13 86 3e 35 b3 bf 3e 86 23 0f 3c ca 62 a1 be
       0.26186836 0.37441412 0.008736497 -0.31520683
000070 18 7f c4 be 54 46 09 3f 40 fa 02 bf 90 75 e8 be
       -0.38378215 0.5362294 -0.511631 -0.45402193
000080 0e 0b 61 3f 8c 20 db 3e 97 0d 09 3d df 19 18 bc
       0.87907493 0.4279827 0.033460226 -0.009283512
000090 64 0e b2 3e b6 28 4f 3f 95 a1 85 bd 13 d4 86 3e
       0.34776604 0.80921495 -0.0652496 0.26333675
0000a0 9e e6 26 3f 68 ec 39 be 68 ab dc 3c 08 71 4d 3b
       0.65195644 -0.18156588 0.026937202 0.003134789
0000b0 e8 3a b7 3e b5 b1 44 3f e4 27 85 be b4 79 63 3e
       0.3578713 0.7683366 -0.26006997 0.22214395
0000c0 e0 78 16 bc 6e c8 86 bd 8c 0a 2d 3e ab b4 52 be
       -0.009184092 -0.06581198 0.16898555 -0.20576732
0000d0 5c 82 86 be 1b 15 77 3e 63 0e 11 bf e2 63 12 bf
       -0.2627133 0.24129145 -0.5666258 -0.5718366
0000e0 a1 67 10 ba 15 e1 39 3f 47 4d 78 3e 4f cf e2 3d
       -0.0005508606 0.7260907 0.24248229 0.11074697
0000f0 85 8f 22 3f 8c e0 d2 be 1c da 20 be 1a 17 a8 bc
       0.63500243 -0.4118694 -0.15708202 -0.020518828
000100 3b 78 25 3f 41 5e c6 be 8c ca 8b bd 01 a6 92 bd
       0.6463658 -0.38743785 -0.06825742 -0.07160569
000110 18 54 28 be 82 67 0a 3e a8 5c ef bd e0 17 7c 3c
       -0.16438329 0.13516048 -0.11687595 0.015386552
000120 df 90 14 bf 3e f5 af ba a2 8a 08 3e 01 15 94 3e
       -0.58033556 -0.0013424528 0.13334134 0.28922275
000130 24 96 08 bf eb 27 35 3e a5 64 29 3e 27 21 71 3e
       -0.53354096 0.17691009 0.16542299 0.23547803
000140 20 dd d5 bb 70 31 40 3e 50 7b 45 3e d3 91 29 be
       -0.0065266043 0.18768859 0.19285321 -0.16559534
000150 69 73 41 be c0 82 99 bc a6 b5 9f bd 58 ef 0d bd
       -0.18891682 -0.018739104 -0.077983186 -0.034652084
000160 d9 23 1e 3f 75 dc 9e be de 23 89 be b2 28 42 3d
       0.6177345 -0.3102757 -0.26785177 0.04740209
000170 1c 41 8b bd 00 78 00 bf f9 c9 ff 3b 5b a1 39 3e
       -0.06799528 -0.50183105 0.0078060594 0.18127958
000180 c9 3e 59 3f 83 49 02 be 8a ac 07 3e af ac 72 bd
       0.8486143 -0.12723355 0.13249412 -0.059246715
000190 83 83 9c be 81 d3 12 3f d1 1f e0 bc f1 cc 0b be
       -0.30569085 0.5735398 -0.027358921 -0.13652398
0001a0 a1 bb 99 be c7 35 20 3f 37 48 b0 3d d9 69 53 bd
       -0.30025962 0.6258206 0.08607524 -0.051614616
0001b0 3e e2 88 bd 8c 29 f0 3d 58 4c a8 bc 58 3c e9 3c
       -0.06683777 0.117266744 -0.020544216 0.028471157
0001c0 1a 06 41 be 34 e1 e7 3d 66 d7 1c 3e c6 e6 23 be
       -0.18849984 0.11322251 0.15316543 -0.16006002
0001d0 f3 eb e0 3d cd 9b cb be 19 a3 15 3e e7 06 39 3e
       0.10982504 -0.39767304 0.14612998 0.1806904
0001e0 d0 00 c6 3c e9 64 44 3f 38 b0 37 3d 92 c7 6f 3e
       0.02417031 0.76716477 0.04484579 0.23415974
0001f0 02 cd 09 3e 7a 1e 01 bf 38 40 95 be 0b cd 06 3e
       0.1345711 -0.5043713 -0.29150558 0.13164155
000200 6e d4 7d be bf c9 35 bd ed 46 a7 3c 65 84 a4 3e
       -0.24788067 -0.044381853 0.020419562 0.3213226
000210 00 29 fd 3c f9 08 e2 be 07 24 e7 3d ee 36 a9 bd
       0.03090334 -0.4414747 0.112861685 -0.0826243
000220 78 47 8a bd 97 24 24 3f d0 09 a2 bb 47 95 05 3e
       -0.06751913 0.6411833 -0.0049450174 0.13045226
000230 59 ea 96 3e ed a1 df be c8 3a 72 be d4 cb c3 3d
       0.29475668 -0.43678227 -0.23655236 0.095603615
000240 69 a0 0b 3e 64 0c 32 3d 6b 23 35 3e d8 43 6d bd
       0.1363541 0.043468848 0.17689292 -0.05792603
000250 32 45 1a be 28 1b 19 3f ff c3 0b 3d 9b c1 59 3e
       -0.15065458 0.5980706 0.034122463 0.21265261
000260 98 10 41 3f 7f d1 69 3d eb 1e 1e be d1 fc 9b 3d
       0.75415945 0.057084557 -0.15441482 0.0761658
000270 54 be 35 be 84 17 20 3f 8b c5 a0 bd d3 ad 16 3e
       -0.17748386 0.6253588 -0.07850178 0.14714746
000280 52 e8 f9 bd 2b 79 ed 3d 0d c7 c7 be 9e 38 84 3e
       -0.12202515 0.115953766 -0.3901905 0.25824445
000290 18 d9 40 3e 00 85 7a bc 00 ae 51 3b de 3f 01 be
       0.18832815 -0.015290499 0.0031994581 -0.1262202
0002a0 e8 89 d7 3e 11 82 36 3e fa d4 d7 bd 2e 1a 76 be
       0.42097402 0.17823054 -0.10538669 -0.24033424
0002b0 b3 fd 8b bd 9e ad 34 3f fc 7b 88 be 28 25 94 bd
       -0.06835499 0.7057742 -0.26657093 -0.072336495
0002c0 4f 57 1e 3f af 19 89 bd 48 47 b9 bc b2 b4 e6 bd
       0.6185197 -0.06694352 -0.022616997 -0.11264934
0002d0 b7 83 01 3f 98 72 2b 3e c8 d2 1d 3d 9c 5a 3f be
       0.50591606 0.16742933 0.038531095 -0.18686908
0002e0 bb 20 42 3d 1b ec 1d 3f 14 20 34 bc 65 26 80 3e
       0.047394495 0.61688393 -0.010993976 0.25029293
0002f0 9b 62 e5 be 17 8e 8c 3e de 46 15 bf 46 07 fa be
       -0.44801793 0.27452156 -0.5831126 -0.48833674
000300 a0 67 58 bd 6c 35 8f bd 58 3b 38 be a8 0c c8 3d
       -0.0528332 -0.06992611 -0.17991388 0.09768039
000310 a7 5a 0e be 54 43 e8 3d 34 b2 1c 3e bc e9 5c bd
       -0.13901769 0.11340967 0.15302354 -0.053933844
000320 e0 a9 5c 3d 4c 20 32 bd 74 c7 b9 3d d5 96 ea bd
       0.053872943 -0.043487832 0.09071246 -0.1145455
000330 68 e1 e2 bd 13 1c 4e be 8f cc af 3e 8f 35 81 3e
       -0.11078149 -0.20127897 0.34335753 0.25236174
000340 be dc 0f 3e f4 b2 cf 3e 27 f8 22 bf 56 8b 13 bf
       0.1404905 0.40566218 -0.636599 -0.57634485
000350 c6 76 55 3e a0 d5 61 3c ec 24 cf bd 34 e2 ef bd
       0.2084609 0.013783842 -0.10114464 -0.11713067
000360 ed a8 c8 bd 2c e7 99 3d 68 58 87 bc b0 61 40 bc
       -0.09797845 0.07514796 -0.016521648 -0.0117420405
000370 44 d8 b6 3d 27 0b 24 be 18 bc 00 3d 10 a7 b2 bc
       0.08927968 -0.1601988 0.03142938 -0.021808177
000380 a8 fb 01 3e 88 6c e8 3c 80 ce aa ba f6 94 4c be
       0.12693655 0.028372064 -0.0013031512 -0.19978699
000390 90 02 02 bc e8 7a 28 be 12 2a 58 3e 51 5d 55 be
       -0.007935181 -0.16453135 0.21109799 -0.20836379
0003a0 bf 19 e8 3e b8 ab d0 be 24 28 30 3d 70 22 87 3e
       0.45332143 -0.4075601 0.04300703 0.2639346
0003b0 10 a0 0d be 3e 7e 55 3f 22 f5 cd 3d b4 28 86 bd
       -0.1383059 0.83395755 0.10056521 -0.06550732
0003c0 70 af ea 3c 0a 73 1a 3e 7a 6b 27 3e c0 90 41 bd
       0.028648108 0.15082946 0.16349593 -0.047257185
0003d0 1e c4 d4 3e e9 c8 aa be cc 51 4d 3d 61 1c b5 bc
       0.41555876 -0.33356407 0.050126836 -0.022108259
0003e0 df f5 01 3f db 24 09 be 2d 96 bf 3e f0 66 d2 3d
       0.50765795 -0.13392965 0.37419263 0.1027354
0003f0 3e 57 41 3f 8d d4 d7 3d 0c 08 52 be 0c 4b ef 3d
       0.75523746 0.10538588 -0.20510882 0.11684236

all_embed.embed.bias f4 [128]
000000 a2 57 d8 be 9b f0 5c 3e f0 b2 b2 3d 78 69 3b 3e
       -0.4225436 0.21576159 0.08725536 0.18301952
000010 ac 7d 32 be 58 cd 07 be 6d 23 44 3d 2a 11 4a 3d
       -0.17430753 -0.13261926 0.047885347 0.049332775
000020 29 a5 08 be 9c a7 07 3d 3c a3 b1 3d d4 03 52 be
       -0.13344254 0.03311883 0.086737126 -0.20509273
000030 bc 04 d2 be f4 a9 b6 3e b8 4b d2 3e 3d 49 d0 3e
       -0.41019237 0.3567654 0.41073394 0.40680876
000040 e7 65 da 3e 5a 8e f4 be 7a ac 7b 3e 9a 41 7d 3e
       0.4265587 -0.47764856 0.24577513 0.24732056
000050 28 44 85 be 8a d1 eb be 58 84 76 3e b3 d5 a3 3e
       -0.26028562 -0.46058303 0.24073923 0.31998977
000060 83 ad 03 3e e9 4d 06 3f 81 33 8f 3e 68 85 bc be
       0.12859158 0.5246263 0.27968982 -0.3682053
000070 e4 0b 0d be 3a 54 19 3e 39 39 a0 be 23 41 b0 3e
       -0.13774067 0.14973536 -0.31293657 0.34424695
000080 97 e5 19 3f 93 d4 06 3f b7 43 6f 3e de 94 12 3f
       0.6011595 0.5266811 0.23365675 0.57258403
000090 50 a1 77 be 07 e0 95 3d db 46 15 be 5d c4 73 3e
       -0.2418263 0.073181204 -0.1457781 0.23805375
0000a0 fa c4 68 be 96 53 f3 be 91 d2 73 3d 74 e4 f8 3e
       -0.2273139 -0.47524709 0.059526984 0.48611796
0000b0 f9 b0 a8 3e ed 5c e5 3e 6c 8b ce 3d db 58 37 3e
       0.3294752 0.4479746 0.10085186 0.1790499
0000c0 7c 94 b4 be 78 9f dc be be 80 cb be 31 5e 27 bd
       -0.35269535 -0.43090415 -0.3974666 -0.040861312
0000d0 65 de de bb 32 fc e4 be 5c ef 45 be 6a f3 ef be
       -0.006801414 -0.4472366 -0.1932959 -0.46865398
0000e0 78 64 cd be a2 54 d0 be 39 2f 39 3d 21 5e dc 3e
       -0.40115714 -0.4068957 0.04521105 0.43040565
0000f0 46 85 f1 be 14 25 8b 3e 43 f6 b6 bd 95 7e 57 be
       -0.47171992 0.27176726 -0.089336894 -0.21044381
000100 94 cd a5 be ac 9c ee bd fb 70 e6 be 0e 85 81 3d
       -0.32383406 -0.116509765 -0.45008072 0.06324206
000110 04 28 b8 3e c6 4c e5 be e8 b7 61 bd d1 98 a8 3d
       0.3596803 -0.44785136 -0.055107027 0.082322724
000120 9b 0a 23 be b7 cf d9 bc 19 30 80 3d 78 d4 b0 3e
       -0.15922014 -0.026588304 0.06259174 0.345371
000130 46 cf 98 3d 06 b6 f6 be 02 e5 c4 3e 66 2f 9d be
       0.07461409 -0.48185748 0.3845597 -0.30700225
000140 d1 13 af 3d 46 e3 95 3e 79 7b f7 bb 7a 16 6f 3d
       0.085487016 0.29274958 -0.007552561 0.058371045
000150 82 7f 19 3e f3 bc 77 3d 77 5d e3 3e 58 99 0b 3f
       0.14990047 0.06048293 0.44407246 0.5453086
000160 34 6f f0 3e ce e3 73 bd df 3e 39 3e 8a 73 fb 3e
       0.4695984 -0.059543423 0.1809039 0.49111587
000170 d6 86 ed 3d 3e 3f 01 3e 72 c9 9b 3d 69 81 4d 3e
       0.115979835 0.12621781 0.07606782 0.20068897
000180 b3 7f b6 3d f1 cd 02 3e 3c 78 ff be 5a c0 e7 bd
       0.089110754 0.12773873 -0.4989642 -0.11315985
000190 c0 e6 46 3e ca b4 d5 be e7 5f 66 bc fb b1 a7 3e
       0.19423962 -0.41739494 -0.014060951 0.32752976
0001a0 28 4e a2 3e 80 bf ca 3e d3 26 99 3e ad 5d 9a be
       0.31700253 0.39599228 0.29912433 -0.30149594
0001b0 f7 80 78 3e a4 dc 23 3e 1d 54 79 bd ca 15 00 bf
       0.24267946 0.16002136 -0.060871232 -0.5003325
0001c0 6e 62 8f be b3 74 46 3e bd 66 8a 3d d2 55 69 3e
       -0.28004783 0.19380455 0.06757877 0.22786644
0001d0 34 fd f7 be c3 60 19 bd 71 2d bf bc da cb bb be
       -0.48435366 -0.037445795 -0.023337098 -0.36678964
0001e0 18 71 af 3d ff 52 07 3f d6 a9 57 3d 32 49 0f be
       0.08566493 0.52861017 0.052652203 -0.13992766
0001f0 4b 8c 9a 3e 21 87 ee be a6 21 fa 3e 7e 48 4c 3e
       0.3018516 -0.4658747 0.48853797 0.19949529

all_embed.embed_2.weight f4 [128, 128]
000000 58 32 36 be 45 d3 17 bd 07 41 5c be 23 21 48 be
       -0.17792642 -0.037066717 -0.21509181 -0.1954389
000010 0a 9e f2 3d 9e 57 b1 3d 23 9f 18 be 71 57 cb be
       0.1184655 0.0865929 -0.14904456 -0.3971515
000020 15 65 fd 3c fd c4 90 3d 53 4f 85 bc 4b 7d 31 3e
       0.030931989 0.070688225 -0.016273176 0.17332952
000030 14 c6 e9 bd 3d d0 0e bf 19 c5 84 3e a6 07 82 be
       -0.114147335 -0.55786496 0.25931624 -0.2539646
000040 a7 45 10 be 10 6b d9 bc 0b 16 a7 3e 21 4f aa bd
       -0.1408907 -0.02654031 0.32634005 -0.08315874
000050 16 a7 e9 3d 22 0b ec bd 9f a0 3e be 59 d5 20 bd
       0.11408822 -0.11525561 -0.1861596 -0.039265964
000060 8c dc ef bc 12 5e 00 bd 8b b1 0d 3e 70 f2 ba 3d
       -0.02927997 -0.031339712 0.13837259 0.091282725
000070 80 11 94 3b 18 eb 78 3e 4c b0 2e 3e 72 28 72 be
       0.0045186877 0.24308431 0.1705944 -0.23648241
000080 27 58 91 3d 2e 94 07 3c ad a6 41 3d 5c e9 04 be
       0.07096892 0.008275075 0.047278095 -0.12979645
000090 88 21 f2 bd f9 c1 89 3e d9 ff 41 be 71 9c 6d 3e
       -0.11822802 0.26905802 -0.18945254 0.23204209
0000a0 33 8f ac be 42 8d e8 3d 23 41 96 be ba ba 85 bd
       -0.33703002 0.11355068 -0.2934657 -0.06529756
0000b0 34 9b e9 bd da 40 7a bd bd 17 8a 3d 23 98 9d be
       -0.11406556 -0.061097004 0.06742809 -0.30780134
0000c0 b8 04 cb bd 4c ce 61 3d bf 86 8b bd 0c 1e 97 3d
       -0.099130094 0.05512838 -0.0681281 0.07378778
0000d0 ff 9e e5 bd 60 57 77 3d 56 b8 e6 bd 78 5b 02 3d
       -0.11211967 0.06038606 -0.11265628 0.031825513
0000e0 d4 1b a4 3d a2 98 d3 bd 9e 82 b6 bd e6 22 8a 3e
       0.0801312 -0.10331847 -0.08911632 0.2697975
0000f0 1a 53 14 be 50 82 48 bc c3 93 1d 3c 4a bb 80 be
       -0.14484826 -0.0122381 0.009617749 -0.2514289
000100 88 5f 9d 3d a1 f8 93 be 2e 55 da bd be 34 1e be
       0.07684237 -0.28900626 -0.10660778 -0.15449807
000110 c0 91 e3 be 79 96 1a be 41 5f 92 3e 91 d2 41 be
       -0.44447136 -0.15096463 0.28588298 -0.18927981
000120 f4 fd 82 3c 7a 57 a3 be f2 c5 19 be e9 82 89 3c
       0.015990235 -0.31902677 -0.15016916 0.016786056
000130 39 fd 4e 3e f7 02 18 3e 3a b7 dc bc 7e 13 ab bd
       0.20213784 0.14844881 -0.026942838 -0.08353327
000140 61 8f 89 be 21 47 e6 3b 75 82 20 3c b1 67 6e 3d
       -0.26867202 0.007027522 0.009796728 0.058204357
000150 44 49 93 bd 1c 0e 89 3b 0c 44 7c 3e d1 b0 75 be
       -0.07191709 0.00418259 0.24635333 -0.23993231
000160 b6 1b 89 3b 7a 92 a8 3c 92 ec 35 bc 82 ad 80 bc
       0.0041842116 0.020577658 -0.011103766 -0.015707735
000170 cd 38 00 3e 17 30 55 3c 6e 72 00 bc a6 a1 9e 3e
       0.12521668 0.013011954 -0.007839782 0.30982703
000180 35 67 dd be 02 f6 7f 3d 98 71 bb 3d 5f 4a 1b bf
       -0.43242803 0.06249047 0.09152526 -0.60660356
000190 3f db 8a be 30 e1 36 3d 0a 87 90 be d7 1d 07 bd
       -0.27120396 0.04464835 -0.28228027 -0.032987442
0001a0 10 76 4d be c0 7e 4a bd 8b e4 12 3d e6 d1 e8 bd
       -0.20064569 -0.049437284 0.035862487 -0.1136816
0001b0 c3 d9 22 3c ff 7c 05 be 4d 8e 25 3d 98 fa 8e 3d
       0.009939614 -0.13035963 0.04041891 0.06981391
0001c0 ed 59 bb bd 9c 8b 41 be 7a a4 05 bf db af 21 3c
       -0.09148011 -0.18900913 -0.52204096 0.009868587
0001d0 4c 67 68 bd 23 bd f9 bc f0 89 70 3d a1 59 a3 be
       -0.056739137 -0.030485695 0.058725297 -0.3190432
0001e0 3f 9b 64 be 42 c0 76 3e ed d1 e7 bd 96 e0 93 bd
       -0.22324847 0.24096778 -0.11319337 -0.07220571
0001f0 12 d5 1f 3d 51 49 2b bd bb 2a 3c be e8 fd 96 3d
       0.03902156 -0.041817967 -0.18375675 0.073726475
000200 8c f5 0b bf 88 70 da 3d 76 20 c8 3d 4c 05 f7 3e
       -0.5467155 0.10665995 0.097718164 0.4824623
000210 98 0f 89 bc 95 f0 16 3e de 6a 50 3d 48 2c c1 3e
       -0.016731068 0.14740212 0.050883166 0.37729096
000220 fa 23 a2 bd b7 45 2a be d1 c7 0a 3c e0 9c 82 be
       -0.07917018 -0.16628157 0.0084704915 -0.2551031
000230 12 eb a4 3d 4e 95 8d 3e ca c7 91 3d b6 4f 0e 3d
       0.080526486 0.27652973 0.07118185 0.034743987
000240 f6 89 68 bd d4 3b 0f bd 42 b8 74 be 00 fd ac 3e
       -0.056772195 -0.034969166 -0.23898414 0.33786774
000250 00 2a 49 3a a2 47 ca 3d 8a 30 0e be 04 43 e7 3d
       0.00076738 0.09876944 -0.13885704 0.11292079
000260 9a 11 1e be 32 27 62 bd 5c 53 ab 3b 28 e0 00 bd
       -0.15436402 -0.05521316 0.005228443 -0.031463772
000270 3e a3 88 bd a8 76 0b 3d 3f 75 25 be 3d 6d 0d bd
       -0.06671761 0.034048706 -0.16158007 -0.034528006
000280 3b e1 be bd 7f 97 61 3e ad a6 40 be 2b 70 3c be
       -0.09320303 0.22030447 -0.18813582 -0.18402164
000290 dd d7 b9 3d 72 f9 74 3c 6d 09 09 3c 51 b5 bd 3c
       0.09074376 0.0149520505 0.008364064 0.023157747
0002a0 c2 0f f5 be b8 b7 2f 3d 9c cb e8 bd 85 93 76 be
       -0.47863585 0.042899817 -0.113669604 -0.24079712
0002b0 8d a2 7a 3b ec 28 66 3d 4c 97 ae bd bd dc ba 3e
       0.003824386 0.05619137 -0.08524951 0.36496535
0002c0 4b 4f 16 be 79 44 c9 bd 2c 31 7e 3d c6 1a 1b 3a
       -0.14678685 -0.09827513 0.062058613 0.00059167703
0002d0 65 38 8f 3d c2 e5 98 bd b2 9d 93 3d 48 06 cb bd
       0.06993178 -0.07465698 0.07207812 -0.099133074
0002e0 a5 d4 16 3e 00 a1 d3 bc ef 89 5b 3e aa 33 e6 bd
       0.14729555 -0.025833607 0.21439336 -0.11240323
0002f0 12 6e 74 bd b6 1f 3d 3b 04 03 9e 3e d7 bd 68 bd
       -0.059675284 0.0028858013 0.30861676 -0.05682167
000300 45 8d 0d 3e c9 8d c7 3c 1a 40 ce bd a5 2e 2e be
       0.13823421 0.0243596 -0.1007082 -0.17009981
000310 40 25 28 3e b2 22 fd 3d 16 6a ac bc ec 3b 38 bc
       0.1642046 0.12360133 -0.02104668 -0.011244755
000320 51 37 c0 3e d7 d4 93 3c ed 05 b8 bd 6e 7c 8d bd
       0.37542203 0.018045826 -0.08985505 -0.06908499
000330 e4 79 d3 bd 86 e9 a4 bd 06 33 a7 3d 36 e8 26 be
       -0.10325983 -0.080523536 0.08164029 -0.16299519
000340 4a 7f 60 be 84 b4 76 bd eb 83 b8 bd 74 ba 2c be
       -0.21923557 -0.060230747 -0.09009536 -0.16868001
000350 aa eb a7 be db 7c 11 be 21 93 35 3c 4c 1a 56 bd
       -0.32796985 -0.14207785 0.011082442 -0.052271172
000360 b8 e5 a8 3e 71 4d 42 bf 86 bb 2e be ed cc a5 bd
       0.32987761 -0.75899416 -0.17063722 -0.08095727
000370 32 43 d8 bc 94 69 c7 bd e3 21 91 be ad 77 59 3c
       -0.026399229 -0.09736934 -0.28346166 0.013273162
000380 de 1b 18 3e 17 a5 45 3d 7e 5e 77 be fe fd 9f 3c
       0.1485438 0.048253145 -0.2415714 0.019530293
000390 86 33 25 bd 0c e1 00 3d 8c 4f 36 3e dc b3 9a bd
       -0.04033234 0.03146462 0.17803782 -0.07553837
0003a0 94 73 12 3e bb 43 fa 3d 44 36 0c bd 4c 81 01 3e
       0.14301902 0.1221995 -0.03423144 0.12646979
0003b0 f1 3c 4c be 49 f3 bc bd 83 87 e1 bd 16 83 a9 3c
       -0.19945122 -0.092260905 -0.11012175 0.02069239
0003c0 0c d8 c4 bd a3 1d b7 bd 86 76 ca 3d 7a 4d 95 bd
       -0.0961152 -0.089412 0.09885888 -0.07290168
0003d0 d1 9e b3 bd 61 5b 73 3d 73 09 91 be 54 2f ba 3d
       -0.08770526 0.059413318 -0.28327522 0.090910584
0003e0 6d 01 80 3e 85 94 43 bc db c6 1e be e3 a1 ec bd
       0.25001088 -0.011937265 -0.15505545 -0.11554315
0003f0 f7 a6 de bd 9f 26 d2 3d 69 72 8c bc de a1 1d be
       -0.1087169 0.10261273 -0.017144399 -0.15393779

all_embed.embed_2.bias f4 [128]
000000 03 57 14 be bc 19 2b bc 23 3d 43 be 86 d8 9b be
       -0.14486317 -0.010443147 -0.1906629 -0.30438632
000010 bd 05 eb bc 7e 42 eb bd 9b b5 4d 3e b5 21 5b bd
       -0.02868926 -0.11487292 0.20088808 -0.053498942
000020 10 77 03 be 4b 24 c4 bd b2 4f b0 bb 29 94 67 be
       -0.12838387 -0.09577235 -0.005380594 -0.22615112
000030 7a 35 c1 bb 7b 1a 06 be 16 d1 00 be 22 5a 51 bd
       -0.0058962675 -0.13096039 -0.1257976 -0.051111348
000040 d9 8a 05 bc a0 6b 29 be a3 2e 97 3c 6c a3 71 3e
       -0.00815078 -0.16544962 0.018454855 0.23597497
000050 5a 43 ad bc c6 56 31 bd 2d 42 0c be 28 04 8a 3d
       -0.02115028 -0.043295644 -0.13697119 0.06739074
000060 13 f3 2a be e8 0c 89 3d 25 b1 00 be 04 5b 17 be
       -0.16694288 0.06691915 -0.12567575 -0.14780813
000070 00 d4 b2 3d d6 36 a9 bc f8 8e 2a 3d b5 9c 90 3d
       0.08731842 -0.02065603 0.041640252 0.070611395
000080 e7 ca 85 bb 54 a0 3f 3d 8a f6 af bd bf a4 cf bd
       -0.0040830257 0.04678376 -0.085919455 -0.10138845
000090 c2 28 fb 3c 7c b1 87 3d d3 4c 20 be f6 8f 58 be
       0.030659083 0.06625649 -0.15654306 -0.21148667
0000a0 bd fb 46 be 09 90 8a be b9 45 43 3e db 8a e0 bc
       -0.19431968 -0.27063015 0.19069566 -0.027409961
0000b0 20 ac 90 3d c8 9f 0b 3d 6e ca 0b be f4 e6 e0 bd
       0.0706408 0.034087926 -0.1365144 -0.10981551
0000c0 8a de 12 3e 93 15 b2 bd 2f e7 a0 bd ac ea e7 bc
       0.14342704 -0.08695521 -0.07856595 -0.028310142
0000d0 cb 2f 9f bd 22 ab ef 3c 68 1f 27 b9 37 ce ed 3c
       -0.07772788 0.029256407 -0.00015938061 0.029028995
0000e0 14 fc e1 bc 8d 76 35 3d 3a c2 2b be 9b 27 f8 bc
       -0.02758602 0.044302512 -0.1677331 -0.030292323
0000f0 67 1d 73 bd ea f8 9f 3d 0c 13 dd bd a0 3b d6 bd
       -0.059354212 0.078111485 -0.107946485 -0.10460591
000100 84 7b ea 3b bc c9 c6 bd 4a da aa 3d e3 d6 02 be
       0.0071558375 -0.097064465 0.083424166 -0.12777285
000110 91 72 a2 3d 45 83 50 bb ba 1f 59 be f1 b5 b1 be
       0.07932008 -0.0031816524 -0.21203509 -0.34709123
000120 23 85 52 bd 3b 3a 33 be bb 61 88 3d b4 56 cd bd
       -0.0513965 -0.17502682 0.066592656 -0.10026303
000130 9a 8b df 3d 91 ef b6 bd 93 6e b7 3d b7 2a de 3d
       0.10915299 -0.089324124 0.08956637 0.10847991
000140 18 1b 68 3d 8a 2e 7f bd fb 0d e6 bc 45 c6 43 be
       0.056666464 -0.062300242 -0.028082838 -0.19118603
000150 bb 29 86 3c c0 48 04 be b8 25 8a be b2 86 ee 3c
       0.01637732 -0.12918377 -0.26981902 0.029116962
000160 99 be 41 be 74 74 ff bc 1b bf 2a 3c 8f 6e 73 3d
       -0.18920363 -0.031183459 0.01042154 0.05943161
000170 7d dd 5c be 2e f2 3c 3d 90 74 36 3d 05 27 ed 3d
       -0.21568866 0.046129398 0.044544756 0.11579708
000180 82 bd 3d 3d 42 8b 27 be 60 f6 eb bd 1b e4 a9 bb
       0.046323307 -0.16361716 -0.11521602 -0.005184663
000190 cb 4f 82 bd b9 98 48 bd 75 fe 15 be 82 61 1d 3e
       -0.063628756 -0.048973773 -0.14647849 0.15369228
0001a0 53 5c 6c be 72 f1 d2 bd ae d7 af bd 97 ce 01 bd
       -0.23082094 -0.10299958 -0.085860595 -0.03169116
0001b0 de 6e 16 be 4c 2b 81 bd 4c 6e 91 bd 2a 7c 37 bd
       -0.1469073 -0.06307086 -0.071011156 -0.044796146
0001c0 23 5c 1e 3d eb 01 02 3d 51 a7 d1 3c 42 38 af bd
       0.038662087 0.03174011 0.025592478 -0.08555652
0001d0 12 07 26 bd c0 a9 f4 3d 2b 14 ab bd d2 f9 db bd
       -0.040534087 0.1194644 -0.08353456 -0.10741009
0001e0 e9 97 31 bd 93 00 d7 bd 7e 04 c3 bc d2 ff 8f 3d
       -0.043357763 -0.104981564 -0.023805853 0.07031216
0001f0 f0 3b 37 3e e5 a5 f5 bd 9d 91 cd bd 4a 40 a2 3c
       0.17893958 -0.119945325 -0.10037539 0.019806046

pointer.v f4 [1, 1, 128]
000000 34 8b 23 bf b5 f1 0e bf f5 0e f9 3f 92 c9 15 3f
       -0.6388428 -0.55837566 1.945769 0.58510697
000010 36 f7 ae bf d1 6b 0e bf 6b a0 0a 3f 32 ed d7 3f
       -1.3669193 -0.55633265 0.5415103 1.6869261
000020 dd 9a e1 3f 81 f5 8d 3f 57 d4 7f 3f 1b 4a 0a 3f
       1.7625386 1.1090547 0.9993338 0.54019326
000030 a2 b6 2f 40 8c 14 0e 40 0b 8f 03 bf b3 c2 c5 3f
       2.745522 2.220004 -0.5139014 1.5450042
000040 01 dd 8d 3f 1b 6c 11 40 2c ca 3f c0 dc 96 ef be
       1.108307 2.2722232 -2.9967146 -0.46794784
000050 4b 95 9c 3f 15 41 0a 40 5c 21 57 3f d9 21 ab be
       1.2233061 2.1602223 0.8403528 -0.3342426
000060 51 26 bb 3f de 0b dd 3e f2 e0 e7 bf b1 f0 ba 3f
       1.4621068 0.43173116 -1.8115523 1.4604703
000070 44 24 7b bf e8 a2 e2 be 41 9b 4d bf 29 d9 14 c0
       -0.9810221 -0.44264913 -0.80315024 -2.3257544
000080 b0 d1 06 bf a8 b8 00 c0 c6 02 d0 3f ce d2 21 bf
       -0.5266371 -2.0112705 1.6250846 -0.6321229
000090 64 74 1b 3f 71 4e 2c bf 7c 1b 91 3f 78 a5 4e 3f
       0.60724473 -0.6730719 1.1336513 0.80721235
0000a0 ca 5e cb bf f9 09 ec 3f 07 33 c3 bf 1f 49 03 40
       -1.5888302 1.8440543 -1.5249947 2.051338
0000b0 ce 53 e9 3e ab 43 0e 3f 67 25 54 bf 01 ea 48 bf
       0.4557175 0.55572003 -0.8286957 -0.7848206
0000c0 79 e4 a5 3f 72 f6 06 c0 24 47 b1 3e 53 c4 02 bf
       1.2960349 -2.1087918 0.34624588 -0.51080817
0000d0 14 50 16 3f 5a e7 9b 3f f7 c6 e3 3e 5e cf c2 bf
       0.5871594 1.2179978 0.44487736 -1.5219533
0000e0 19 42 e4 3e ad b1 0e c0 fb bb 65 bf f8 24 a2 3f
       0.44581679 -2.2295945 -0.8973996 1.2667532
0000f0 71 b9 0b c0 ac 6a 53 bf 95 ac 1d 40 7e ea 3d bf
       -2.1831934 -0.82584643 2.4636586 -0.7418593
000100 5b f2 52 3f 62 ba 8c 3f 2e 3c 23 c0 a4 91 12 bf
       0.82401055 1.099438 -2.550548 -0.5725348
000110 24 59 c1 3f 70 33 ad 3f df 65 00 40 34 13 f2 3f
       1.5105329 1.3531322 2.0062177 1.891211
000120 79 93 59 bf 55 d7 ce 3f 65 63 2f bf 82 3b b1 3f
       -0.8499065 1.6159464 -0.6851104 1.3846285
000130 f4 72 b0 bf b7 7d 38 bf 65 bb 75 bf 6b 77 61 bf
       -1.3785081 -0.72066826 -0.95989066 -0.8807284
000140 e8 21 0d bf 3b 12 02 40 ec bc 16 bf bd 13 d6 3f
       -0.5512986 2.0323627 -0.5888202 1.6724774
000150 c4 ea a0 bf 8b 84 18 bf 4d 8e 30 40 bb 91 13 40
       -1.2571645 -0.59577245 2.7586854 2.3057697
000160 7a 87 03 40 9a af 7f bf ff 16 65 3f 8c 25 77 3f
       2.0551438 -0.9987732 0.89488214 0.96541667
000170 55 2e f5 3f 00 c5 b8 bf 08 88 09 bf b6 ac 1a c0
       1.9154764 -1.443512 -0.5372319 -2.4167914
000180 68 5f e7 be d2 f2 ae be a3 44 fe 3f 31 e8 29 3f
       -0.45189977 -0.34169632 1.9864696 0.6636992
000190 41 61 be bf 5d 81 13 3f 2a 7b f3 be 99 e3 bd bf
       -1.487343 0.5761927 -0.47554904 -1.4835082
0001a0 00 ae 82 bf e2 f8 0d 3f e1 00 13 c0 8c c3 85 bf
       -1.020935 0.5545789 -2.2969286 -1.0450301
0001b0 c6 4b 24 40 f4 ae 38 bf 49 e3 fc 3e 70 fd 1e 3f
       2.5671248 -0.7214196 0.49392155 0.62105465
0001c0 1d 79 84 3f 5a 20 13 3f d5 f9 03 c0 1d fd a5 bf
       1.0349461 0.5747124 -2.0621235 -1.2967869
0001d0 6d 3f b5 bf 82 7e ab bf 5a d8 14 bf 22 09 0a 40
       -1.4159981 -1.3397982 -0.58142626 2.1568074
0001e0 b2 fb ee 3f da 52 e2 3e 58 e2 14 3f fa 95 bd bf
       1.8670561 0.44203836 0.58157873 -1.4811394
0001f0 37 cb 13 3f 4f 88 03 40 08 d8 fb be 62 e1 75 bf
       0.57731956 2.0551946 -0.49188256 -0.9604703

pointer.encoder_attn.v f4 [1, 1, 128]
000000 59 ae a5 be 4a 87 0d 3e f2 a2 dc 3d 4f a7 bd bd
       -0.3235958 0.1382114 0.10773267 -0.09260427
000010 41 9f fb 3d 68 78 c3 3d 08 b0 b5 3d d2 91 19 3e
       0.12286235 0.0954445 0.08871466 0.14997032
000020 f6 87 3b 3e 92 18 ca bd 39 8b e7 bd 57 dc b7 bd
       0.18313584 -0.09867968 -0.113058515 -0.08977573
000030 71 83 52 3d 07 45 82 bc 04 a1 f1 bc 32 56 5d be
       0.051394884 -0.015902055 -0.029495724 -0.21614912
000040 6b 3f 49 be 06 f0 06 3e 5b 59 e8 3c ab a8 b1 3c
       -0.19653098 0.13177499 0.02836292 0.021686872
000050 ca 1e 5e 3d 35 e1 f1 bd 4b 47 3a 3d 0f de f9 bb
       0.05422858 -0.11810533 0.045478147 -0.0076253484
000060 b0 5a ba bd a6 b1 6d bd e9 51 97 3f dd ee 4b be
       -0.090993285 -0.058030747 1.1821872 -0.19915338
000070 54 5e 7c 3e 38 eb e3 bc 4f 4c 09 3e 44 3f bd bc
       0.24645358 -0.027822122 0.13408016 -0.023101456
000080 c0 ae 32 3d 72 a3 04 be ac 29 ce 3c bd e9 f1 3c
       0.043623686 -0.12952974 0.025166355 0.0295304
000090 a9 1f 58 be 62 ea 9e bd e9 89 61 bd 2f cd 6d 3d
       -0.21105827 -0.07759549 -0.055063162 0.058057006
0000a0 f4 bc d3 bd 9c 5c af bd f9 2f 56 bc 66 f3 02 3d
       -0.10338774 -0.08562586 -0.013072961 0.031970404
0000b0 cd c8 bf bd d5 61 70 3c cc 8c 63 be 21 4e 21 3e
       -0.093644716 0.0146717625 -0.22221678 0.1575246
0000c0 98 5e 48 3e 71 26 27 be 98 5a 87 bd bc a1 e9 bd
       0.19567335 -0.16323258 -0.06609076 -0.114078015
0000d0 1c 75 a8 3d 7d f6 37 3e 59 72 c8 bb 54 78 84 be
       0.08225462 0.17965122 -0.006117147 -0.25873053
0000e0 af 14 91 3d 19 66 0d 3e 54 9c 3b bf 18 9d 20 3d
       0.07084023 0.13808478 -0.7328541 0.039212316
0000f0 3d 12 99 3d 53 4e a2 3d fe c3 1c be 23 dd 9b 3d
       0.07474182 0.079250954 -0.1530914 0.07610538
000100 2d 47 7d 3d ac bd e3 3c 0f c3 06 bd fa 0d ea bd
       0.061835457 0.027800404 -0.032900866 -0.11428447
000110 bf 91 84 3e 7a ef 5d 3d 1c ed 94 3e ab 04 93 3d
       0.25892445 0.05418346 0.2908715 0.07178625
000120 8c 46 04 bd 79 01 c0 3d 6d 21 29 be a4 80 88 be
       -0.03229384 0.09375281 -0.16516657 -0.26660645
000130 ca f4 26 be 4e 39 ec 3b 74 70 e4 bd ac 14 92 3e
       -0.16304317 0.0072089797 -0.11154261 0.28531396
000140 7c 1f 08 3e bf 21 a8 bd 08 81 b3 3d 45 a4 5d be
       0.1329326 -0.082095616 0.08764845 -0.21644695
000150 86 75 08 be 6c 4b a6 3c 84 85 05 3e 09 b8 61 bd
       -0.13326082 0.020299636 0.13039213 -0.05510715
000160 75 4e ee 3d b8 53 a2 3d 0d 90 76 3d 81 f2 30 3e
       0.11636058 0.07926124 0.06019597 0.17280008
000170 80 b8 a0 3d af 89 40 bd b8 dc f7 bd 9f 98 78 bd
       0.078476906 -0.047006305 -0.12102646 -0.060692426
000180 77 68 46 3e 71 57 fa 3e 5e 6f 3d be ca 38 f0 3d
       0.19375788 0.48894837 -0.18499514 0.11729582
000190 2b 2f 07 3e 12 c1 55 3d 0f cc e1 bd 19 8c 36 3e
       0.13201587 0.05218608 -0.11025249 0.1782688
0001a0 1b a3 0b 3d dd 57 c1 bd b0 7a 17 3e 44 c8 5d 3e
       0.034091096 -0.09440587 0.14792895 0.21658427
0001b0 d9 fe c7 3d 33 17 2c 3b 7f 7d 08 be 8d 08 46 3e
       0.09765405 0.0026258945 -0.13329123 0.193392
0001c0 76 7b 72 bd 9b 34 ec bc 16 d2 9b bd c8 f1 68 3d
       -0.059199773 -0.028833678 -0.0760843 0.056871206
0001d0 e7 41 09 3e 0b fa 99 3c 3c cb 23 3e 8a 49 1a 3d
       0.13404046 0.018795988 0.15995497 0.03766779
0001e0 bb 2a d6 bd cc 87 ad bd 46 54 80 3c d5 1c 00 be
       -0.10457369 -0.08473167 0.015665185 -0.12510999
0001f0 58 6b 93 be b1 d0 ed bd 61 93 d1 bd 70 db bf 3d
       -0.28792834 -0.1161207 -0.102331884 0.09368026

pointer.encoder_attn.W f4 [1, 128, 256]
000000 a1 82 38 3d a4 eb 0d 3d 1e 9b 85 3d 06 3a 83 3e
       0.045046452 0.034648553 0.06523727 0.25630206
000010 64 b5 e5 bc 08 a3 2a bc 77 f1 95 bd 0d 63 13 3d
       -0.028040595 -0.010414846 -0.073214464 0.035983134
000020 43 f0 f8 3b d6 a8 eb 3d 09 66 13 3e 2d 13 72 3e
       0.007597001 0.11506812 0.14394392 0.23640127
000030 2d 76 12 3d 27 f0 ff 3c cc a1 a7 3d 91 8d 3a 3d
       0.035757232 0.031242443 0.08185157 0.045545164
000040 41 e4 92 3d 25 9e 30 3d 01 53 61 bc 6e 1d db bc
       0.07172442 0.04311957 -0.0137527 -0.026747432
000050 aa 13 f3 3d d0 80 55 3d b4 2c c1 3d e8 3e a1 3b
       0.11868985 0.0521248 0.094323546 0.004920829
000060 66 95 87 3b a0 0d 0b bd 07 62 a1 3d 3a ea 8b 3d
       0.0041376827 -0.03394854 0.07880025 0.068317845
000070 94 45 99 bd b0 ae eb bd 9d d3 83 bd 45 91 0a bd
       -0.07483974 -0.11507928 -0.064368464 -0.033829946
000080 48 87 1b bd 7d 12 cd bc d1 bf ef 3d 6f 62 43 3d
       -0.03797081 -0.02503323 0.11706508 0.047701295
000090 3b 9a d1 bc dc e8 14 be a3 d2 53 3c 83 40 0f 3e
       -0.025586238 -0.14541954 0.012928638 0.13989453
0000a0 11 c7 89 3e 21 38 d2 3d c3 81 fd bd fa 80 89 3d
       0.26909688 0.10264612 -0.12378266 0.067140535
0000b0 52 57 3c 3e 07 07 87 3d 6c 69 78 bb c6 9f 01 bc
       0.18392685 0.06593137 -0.0037904633 -0.007911628
0000c0 c2 30 78 bd d9 5b 41 bd de 35 1e 3f f7 e6 58 bc
       -0.060593374 -0.047206733 0.61800945 -0.01323866
0000d0 d0 1b 20 3d 51 6f f7 3b 31 c3 93 3e a3 12 c5 bd
       0.039089024 0.0075511117 0.28859857 -0.09622695
0000e0 ca b1 39 3e af 3a 73 bc 3b 60 01 3d bc 27 8d 3d
       0.18134227 -0.014845534 0.031585913 0.06892344
0000f0 31 fb f6 bc 65 e5 03 bd c0 d6 8a bc a2 b5 0b bd
       -0.030149074 -0.03220119 -0.016948104 -0.034108765
000100 78 b6 01 bb 79 b2 53 3d d9 26 5f bd 93 f7 6b bd
       -0.0019792598 0.051683877 -0.054480407 -0.057609152
000110 54 5c 99 b8 26 87 d2 3d df 10 38 3e f9 7d c1 3d
       -7.312806e-05 0.10279684 0.17975186 0.094478555
000120 57 43 c9 bd 43 8d 97 3d 2c 5c 22 3d a4 fe 93 3d
       -0.09827297 0.073999904 0.039638683 0.07226303
000130 29 e3 e4 bd 09 e9 a4 bc ed 81 1f b8 0d 88 65 be
       -0.1117614 -0.020130651 -3.8029557e-05 -0.2241518
000140 7b b5 36 bd d0 7f bb 3c 65 a1 ec bd d6 80 1a 3d
       -0.044606667 0.022888094 -0.11554221 0.037720524
000150 61 75 36 bc 29 ef ee ba 61 be 19 3d 28 3f 0c 3c
       -0.011136384 -0.0018229234 0.037535075 0.0085599795
000160 e9 0c 28 3d 1c d8 6c 3c d4 95 0f bd 07 4a a3 3d
       0.041027937 0.014455821 -0.035054997 0.07973104
000170 3e e5 5f 3b ff 63 a6 bd 10 4c b8 bd 18 88 05 bc
       0.0034163739 -0.081245415 -0.08998883 -0.008150123
000180 0b 2c a3 3c 76 28 b9 3d a5 8f 9d 3b 0d 27 e4 bd
       0.019918462 0.090409204 0.0048083835 -0.11140261
000190 c0 c6 d2 3c df 97 7a 3d dd 1e 9c 3d af ba 8f be
       0.025729537 0.06117999 0.07623074 -0.28072116
0001a0 a3 3f 47 3d 67 50 50 3e e3 86 c3 bb bb f1 b5 bc
       0.048644673 0.20343171 -0.0059670075 -0.022209993
0001b0 e2 b1 3a bd 06 00 01 bc 54 a5 bd 3e 59 89 d3 bd
       -0.0455798 -0.007873541 0.37040198 -0.10328931
0001c0 d0 ce 1a bd 9c 12 e6 bc 6b cd b6 3c 77 0f d8 bd
       -0.037794888 -0.028085046 0.022314748 -0.10549825
0001d0 e8 9b 80 3c 9e a1 c5 bc 2a 49 cc 3d ad 0f 35 3d
       0.015699342 -0.024124917 0.099748924 0.044204403
0001e0 9f d7 39 3d 25 72 e5 ba 8d 40 d5 bc 20 a2 13 be
       0.045371648 -0.0017505331 -0.026031757 -0.14417315
0001f0 87 d9 25 bd db 91 cb 3d 56 d8 ff bc 03 36 da bc
       -0.040490653 0.09939929 -0.031231087 -0.026637083
000200 90 b1 e6 3d 01 e3 97 3d eb de b1 bd 84 d5 26 bd
       0.11264336 0.074163444 -0.08685096 -0.040730968
000210 d1 2f 2b bc 59 18 b4 3d 51 12 ae 3c 97 12 b0 3d
       -0.010448412 0.087937064 0.021248968 0.08597296
000220 50 f1 4c be a3 0b 83 bd 22 5e ae 3c 36 e7 a7 3d
       -0.20013928 -0.06398704 0.02128512 0.08198397
000230 87 24 24 3c f6 71 b7 3d e7 86 58 3d e4 83 be 3c
       0.010018474 0.08957283 0.052863028 0.02325625
000240 6c 47 1e 3d 94 cf 82 3c 9b ca ab bc 13 0a fa bc
       0.038642332 0.015968122 -0.020970633 -0.030522382
000250 fd ca 68 bc 3d 7f 16 bc 1a 19 e0 bc 56 63 8b bd
       -0.014208552 -0.009185609 -0.02735572 -0.06806056
000260 d7 cc 82 3d 04 38 c4 3d f0 ae 61 bc 86 05 b0 bd
       0.06386726 0.09580997 -0.0137746185 -0.085948035
000270 e3 5c 1c 3d e4 d7 ae bd bb ab 2e 3d 93 e1 b8 3c
       0.03817452 -0.085372716 0.042644244 0.0225685
000280 9c 84 15 3d 9a 31 48 bd 4a ee 71 3d d4 3a 52 3d
       0.03650342 -0.04887543 0.05906514 0.051325634
000290 93 3f 15 bd c5 4d 59 3b 44 21 dc bb d0 6b fa 3c
       -0.036437582 0.0033157927 -0.0067178328 0.030568987
0002a0 58 41 e6 bc c1 64 16 3e 3a 5e 54 3d 65 db c8 bc
       -0.02810733 0.14686872 0.051847674 -0.024518678
0002b0 b1 48 91 3d 3e 26 10 3c 57 b4 66 bd a9 42 45 3d
       0.07093943 0.00879818 -0.05632433 0.048159275
0002c0 31 5f b2 bb 16 61 6f bd 66 b9 94 3c 50 8b dc bd
       -0.0054434766 -0.058442198 0.018154811 -0.10768759
0002d0 6c 6a 2a bc 64 46 32 bd 41 72 c4 bd 04 16 70 3d
       -0.0104013495 -0.04352416 -0.09592105 0.058614746
0002e0 32 2f 54 3d c2 0c a2 3b 15 57 43 bd 1b 9b 25 3d
       0.05180282 0.0049453685 -0.04769047 0.040431123
0002f0 3b bf 9f 3b e2 44 f0 3d 5d 2c 2e bc 1f e8 4f 3d
       0.0048750914 0.11731888 -0.010630694 0.050758477
000300 c2 65 61 3b b5 bf 38 bd 60 05 6c bc 2a b3 1f 3c
       0.0034392928 -0.0451047 -0.014405578 0.009747306
000310 bb f9 2b ba 21 9d ae bd e4 b8 21 bd 67 7e 38 3d
       -0.0006560345 -0.08526064 -0.039482966 0.04504242
000320 2f f5 de 3b 9b d8 85 3c 64 2d 1a 3d 61 74 10 bd
       0.0068041305 0.016338637 0.037640944 -0.035267238
000330 04 ac 8f bd d1 56 97 bd 41 1f c0 bd 35 64 70 3d
       -0.07015231 -0.07389606 -0.09380961 0.058689315
000340 ad 1e 5e bd 35 88 26 bd e6 fb aa 3c 83 9a 2e 3d
       -0.054228473 -0.04065724 0.020872068 0.042627823
000350 71 5e b6 3d 74 fe 6c bd 27 01 53 bc c9 c6 9c 3c
       0.08904732 -0.057859853 -0.012878693 0.019137757
000360 a0 53 10 bd b9 5f 27 3a 9a 92 21 bd a6 38 f4 bc
       -0.035236 0.0006384808 -0.03944645 -0.029812168
000370 2d 49 ab 3d 2b 8e 15 bb 1f 80 08 bd ed 15 59 3c
       0.083635665 -0.0022820334 -0.03332531 0.013249856
000380 ad 9b bf 3c 00 eb 3d 3b 16 e2 1e 3c 30 13 7c 3d
       0.023389662 0.0028979182 0.009697458 0.061541736
000390 7e 56 90 3c 3a e6 fa bd 20 61 10 3d 38 f2 89 bd
       0.017619368 -0.122509435 0.035248876 -0.06735653
0003a0 05 7b 63 bd 72 d3 0b be ed 10 e0 bc 84 49 5a 3c
       -0.055537242 -0.13654879 -0.02735182 0.013323192
0003b0 bf c9 4a bd 78 cd 0d 3d 42 14 5b 3d 19 9a ad 3c
       -0.049508806 0.03461978 0.053486116 0.021191644
0003c0 e5 fb 06 bd 33 9d e0 bd d5 2a 6f 3d 50 a7 13 be
       -0.03295507 -0.10967483 0.058390457 -0.14419293
0003d0 de ca 31 bd be e1 8f 3b 77 27 3a bd 63 50 6b 3d
       -0.04340636 0.0043909242 -0.045447793 0.05744971
0003e0 1b 8b 88 bd 70 5a e5 bc c6 6a 18 3d 50 8b a4 3c
       -0.06667157 -0.027997226 0.037211202 0.02008596
0003f0 c8 55 67 bd ff 96 e6 bb 3f 78 68 3b 30 3a 9a bd
       -0.05647829 -0.007037043 0.0035472063 -0.0753063

pointer.fc1.weight f4 [128, 256]
000000 92 5e b4 bd 5c 8a 77 bd 52 ae be 3d 6e 47 92 bc
       -0.088071 -0.060434684 0.09310593 -0.017856326
000010 55 5f f3 bd b6 d8 35 3c 69 64 61 3d 57 ff 6b 3d
       -0.118834175 0.011099031 0.0550274 0.057616558
000020 3c d0 bc bc f0 fe 32 bd 9f a5 b4 bd c9 5a cd bd
       -0.023048513 -0.04370016 -0.08820652 -0.100270815
000030 75 a4 2f 3d ec e6 93 3d 9b 9e 36 3d 70 e7 e7 3d
       0.042881448 0.07221779 0.04458485 0.1132344
000040 f3 24 12 3e 73 81 b7 3d 3c c8 08 3e aa cc 88 3d
       0.14271908 0.08960237 0.13357633 0.066796616
000050 60 2f f3 bc 3b f1 83 bd 15 f8 7c bd a4 cb 6f 3d
       -0.029685676 -0.064424954 -0.061760027 0.058543816
000060 11 3f cd bd 15 c8 91 3d 44 03 27 3d f3 7d a3 bd
       -0.100217946 0.07118241 0.0407746 -0.07983007
000070 31 26 0e 3e cf 56 2f 3c af 67 ec bc bd 22 b6 3d
       0.13881756 0.010701849 -0.028858034 0.088933446
000080 74 fe 34 bd 5e 94 aa 3d c8 db b2 3c 22 e5 dc bd
       -0.044187978 0.0832908 0.021833315 -0.10785891
000090 4e 4e ed 3d 1a 15 eb bc 19 a9 9e bd 27 03 a5 3c
       0.11587201 -0.028696585 -0.077470966 0.020143105
0000a0 12 97 ac bd 57 3e b1 bd 8c 11 29 3e f1 e8 d9 3c
       -0.08427252 -0.086544685 0.165106 0.026600333
0000b0 d3 84 40 3a 8d 92 a6 3d 37 f8 0b be 5a eb 0b 3d
       0.0007344011 0.08133421 -0.13668905 0.034159996
0000c0 f2 0d d3 3d f2 79 3b bc 1c 9c 0c 3e bb a0 26 3d
       0.10305394 -0.011442648 0.13731426 0.04068063
0000d0 2c 84 9e bd ee c2 97 bd 89 b9 12 bc 7e 28 8c bd
       -0.077400535 -0.07410227 -0.008955368 -0.06843661
0000e0 ee f3 10 bd f1 6c 75 3c 34 ff 5d bd dc 1d 00 3e
       -0.03538888 0.014979587 -0.05419846 0.1251139
0000f0 71 bd 16 3e a3 0a a5 bd dc 33 ca bd 07 c2 4b 3d
       0.14720704 -0.080586694 -0.09873173 0.049745586
000100 58 e6 03 3e 68 d2 9d bd f4 5d d3 3c 5a 43 c0 bd
       0.12880838 -0.077061474 0.025801636 -0.09387846
000110 d5 82 93 3d d3 b0 07 3c 70 69 c0 bd 50 77 5f 3b
       0.072026886 0.008281904 -0.093951106 0.0034098215
000120 1b 6f 67 bd 58 db f9 bd 35 9e b4 3d da a7 bf bd
       -0.056502443 -0.122000396 0.08819238 -0.09358187
000130 e1 46 a7 bd 6d 15 04 be dd ca 03 be 2f 50 6e bd
       -0.08167816 -0.12898798 -0.12870355 -0.058181938
000140 1e a4 cb bd 50 5b 53 bd 6c 5a 7f bd 29 d3 ec 3c
       -0.09943412 -0.051600754 -0.062342092 0.028909283
000150 d2 ec 08 bd c9 6d 72 3d c4 60 b3 3d c0 e8 f5 3d
       -0.033428974 0.05918673 0.08758691 0.12007284
000160 0e 36 08 3e eb 85 89 bd 30 41 03 bc 73 35 45 bd
       0.1330187 -0.06714996 -0.008011147 -0.048146676
000170 5d 32 ae bd 09 57 1e be 3e 24 e9 3b f9 20 29 bd
       -0.085057 -0.15462889 0.007114916 -0.04129121
000180 0f b5 e6 3d e6 ae 86 3d 81 6d 1b bd 60 6d c6 3c
       0.11265003 0.06576328 -0.037946228 0.024222076
000190 a3 41 9a bb 4e 47 88 bd e9 06 2f bc 90 71 28 3d
       -0.0047075315 -0.06654225 -0.0106828 0.041123927
0001a0 58 95 9a bd ca eb a3 bd 94 87 9b bc b0 e7 81 bd
       -0.07548016 -0.080039576 -0.018985547 -0.06343019
0001b0 1b 04 22 be b8 e4 06 bd 58 64 9b 3d 76 58 0e 3e
       -0.15821879 -0.032932967 0.075874984 0.13900933
0001c0 bc 23 f9 bd d9 09 bf bd 92 48 a1 bd 32 0c 1e 3d
       -0.12165019 -0.0932805 -0.0787517 0.03858585
0001d0 53 89 c8 bd 6c 47 c6 3d 2c 0a c3 bd 91 8e 95 3d
       -0.097918175 0.096815914 -0.095234245 0.07302583
0001e0 ad 51 c9 bd 94 01 9f 3d a8 79 f4 3d c5 04 60 bb
       -0.098300315 0.07763973 0.119372666 -0.003418253
0001f0 aa d4 41 bd 65 91 a8 bd 42 e1 03 3e d1 ab bd bb
       -0.047321953 -0.08230857 0.12878898 -0.0057883044
000200 37 6f 81 bd e2 89 3a bd 68 8b 87 3d 4f b5 ac 3d
       -0.06320041 -0.04554165 0.066183865 0.08433019
000210 7b 43 0e be 20 7a 43 ba 52 a6 00 3d 0f 95 a2 3d
       -0.1389293 -0.0007456858 0.031408615 0.07938587
000220 d0 c7 c7 bc b9 ad bc bd d0 98 73 3d 01 dd 09 be
       -0.02438727 -0.092128225 0.059471905 -0.13463213
000230 d5 ae cb bc 12 15 d2 3c 0d 97 5b 3b 9d 2b 9c bc
       -0.02486364 0.025644813 0.0033506781 -0.019063765
000240 a2 49 38 bd 85 cd a0 bd 1e 8b 8e 3d 67 6d 9c 3c
       -0.044992097 -0.078517 0.06960128 0.019095136
000250 68 b9 a4 bd 70 7f 56 bd e5 e1 77 3d 49 b5 1e 3d
       -0.08043176 -0.052367628 0.060518164 0.038747106
000260 e3 dc 81 bd 95 33 91 3d ca 33 60 bd 57 69 1d bc
       -0.06340959 0.070899166 -0.05473689 -0.0096076345
000270 84 69 47 3d 3b 32 6c bd 14 9e be 3d 2e 3f 65 3d
       0.048684612 -0.05766509 0.09307495 0.055968456
000280 78 01 e5 bd 4a 63 2e bd 99 c3 fe 3d ba ea 96 3d
       -0.11181921 -0.04257516 0.12439651 0.07368989
000290 6e d0 13 bd 83 35 b1 3b f2 28 82 bd 34 d3 1a bd
       -0.036087446 0.0054079904 -0.06355466 -0.037799075
0002a0 55 ca 89 3d 61 e0 48 3d b4 0f ce bc ae 86 9c 3d
       0.06728045 0.04904211 -0.025153972 0.076428756
0002b0 4f de 1a 3d df 5b 70 bd c8 8a b7 3d 5f be 65 3c
       0.037809666 -0.058681365 0.08962017 0.014022439
0002c0 77 df 45 bd ff 4c 5b 3d e8 33 d8 3d 41 0d d3 3c
       -0.048308816 0.053540226 0.10556775 0.025763156
0002d0 e9 ac 08 be 03 82 2a 3c 9c 5b 3d 3d 6d ef c8 bd
       -0.1334721 0.010406974 0.046229944 -0.09811292
0002e0 da 11 f1 bd 82 0a cc bd 5d df 05 bc 0d f1 8f bd
       -0.11770983 -0.09962942 -0.00817093 -0.07028399
0002f0 01 ec bd 3d 9b 34 0e 3e 33 82 07 be 59 ac ec 3d
       0.0927353 0.13887255 -0.13233261 0.1155631
000300 6c dc a3 bd 5e 76 60 bd 4f 2a 13 3d b3 b3 f6 3c
       -0.080010265 -0.054800384 0.03592902 0.030114984
000310 51 f6 c6 bd 83 36 9e bd 4b ed 8c bc b6 ce 19 3d
       -0.0971495 -0.07725241 -0.017202994 0.03755065
000320 f8 02 a5 bd c2 76 9d 3d f2 f9 81 3d 5d cf 2d bc
       -0.08057207 0.07688667 0.063465014 -0.010608521
000330 e4 a7 ac bd 67 9b d7 3c 05 b8 a6 bd d4 5b d2 3d
       -0.0843046 0.026319219 -0.08140568 0.10271421
000340 0a 3c 9d 3d 0e 6a 13 3e cb cf 13 3e 60 79 80 3d
       0.07677467 0.14395925 0.14434735 0.062731504
000350 33 8a f0 3c 0e a2 77 39 91 35 e8 bc 89 f7 99 3d
       0.029362774 0.00023616126 -0.028345855 0.07517917
000360 76 70 5d bd 87 d7 95 3d 6c 43 15 bd 67 a6 91 3d
       -0.05406233 0.07316499 -0.03644125 0.07111817
000370 04 a8 05 3e 37 1e b1 3d 40 1d 34 3d 4c 92 d2 3d
       0.13052374 0.08648341 0.043973207 0.1028181
000380 3e 1f 99 3d ff 17 8f bd 73 55 50 3e 8b 5d d5 3d
       0.07476662 -0.06986999 0.20345096 0.104182325
000390 44 1c 94 bd 02 03 de bc 91 40 e2 3c 62 43 52 bd
       -0.07231954 -0.027101044 0.027618678 -0.051333793
0003a0 40 de 9d 3d 97 c2 ec bc 94 15 e8 3d 99 8b 87 bc
       0.077084064 -0.028901381 0.11332241 -0.016546058
0003b0 e1 8a 51 bd 84 5a 83 bd 22 98 40 bc e1 ee 9b 3d
       -0.051157836 -0.06413749 -0.011755021 0.07613922
0003c0 1f 64 d3 3b 41 8d 16 be 0b fb 11 3d e4 f8 f7 3c
       0.0064511443 -0.14702322 0.035639804 0.030270047
0003d0 df 19 35 ba fe 20 0e be b1 3f a5 3d c5 22 09 bd
       -0.0006908457 -0.13879773 0.08068789 -0.033480424
0003e0 e4 2c d5 bc 5e 71 6f bd b1 a4 81 3c 27 a1 e0 3d
       -0.026022382 -0.058457725 0.015825601 0.10968237
0003f0 6f 7f d6 bd d2 f4 56 3d 79 8e 91 bd 94 ae bf 3d
       -0.10473525 0.052479573 -0.07107253 0.0935947

pointer.fc1.bias f4 [128]
000000 5f 92 ed bc 8d 86 09 3d 12 4b 08 3b 72 d1 15 3d
       -0.02900046 0.033575583 0.0020796699 0.036576696
000010 32 ea 71 3c ca f0 42 3d 28 aa cf bc 15 fc 4b bd
       0.014765309 0.047592916 -0.025349692 -0.04980095
000020 f6 94 70 bd 9f 16 99 3b 49 dc 41 3d ad 21 e6 bc
       -0.05873581 0.004671886 0.04732922 -0.02809223
000030 30 70 ed 3d 95 b1 0f 3d b1 d7 44 3c b7 ba 8a 3a
       0.11593664 0.035081465 0.012014315 0.001058421
000040 72 97 07 3d 1e af 55 3c 60 42 d3 bc d3 eb 7e bc
       0.033103414 0.0130422395 -0.025788486 -0.015559155
000050 c1 d3 13 3d 4e 91 48 3d 83 a0 b2 3c 11 c8 38 bd
       0.036090616 0.0489667 0.021805054 -0.045112673
000060 e5 66 a4 3d 0b d3 36 3d 80 40 d6 3d 29 2c c2 3d
       0.08027438 0.04463486 0.10461521 0.09481079
000070 76 e2 f9 3c 1f 5c 13 bd 5f 81 85 3c f6 bd c4 ba
       0.030503493 -0.035976525 0.01629704 -0.0015010226
000080 22 f5 98 3c cf 41 c8 bc 49 d5 97 bd 7a a9 d6 3d
       0.018671576 -0.024445442 -0.07413728 0.10481544
000090 00 90 bc 3d be 7f 61 3c 29 5b 94 3d 1a 17 3e bd
       0.09207153 0.013763366 0.0724395 -0.04640875
0000a0 bd ab 5b 3c ad 13 0d 3d b0 4e 60 bc ee 61 a0 3d
       0.013407645 0.034442592 -0.013690636 0.078311786
0000b0 86 e8 ac bb 5a 4d 9c 3d 3e 48 53 bc 44 2d e1 bc
       -0.0052767424 0.07631941 -0.012895642 -0.027487405
0000c0 2b 12 b8 bd 73 d2 e2 3c 1a b8 cc bc 54 21 84 3d
       -0.0898784 0.02768824 -0.02499013 0.06451669
0000d0 8d b8 19 3d 0f 75 99 bd 24 fa c9 3d 74 91 3f bd
       0.037529517 -0.0749303 0.09862164 -0.046769574
0000e0 0c db f8 bc 51 09 1a 3d 69 de 66 3d 72 bf 07 3d
       -0.030377887 0.03760654 0.05636445 0.03314156
0000f0 d1 2c 87 3c 43 45 04 3d aa 5a f6 bc c0 d1 a3 bd
       0.016500862 0.032292616 -0.030072529 -0.07998991
000100 99 1d bc bc 1c 49 ca 3b 7d 6d 8f bc 7d 9c 0a 3c
       -0.022963332 0.006173266 -0.017508263 0.008460161
000110 04 6e 71 3d 88 13 ba bd a6 1a 9a bd db 7d 67 bd
       0.05894281 -0.090857565 -0.07524614 -0.05651651
000120 cc 86 f8 3b b9 cc 9e bc a9 f9 08 3d 49 56 3c 3d
       0.0075844284 -0.019384729 0.03344122 0.045980725
000130 c1 c0 b4 3c 58 ba f2 3d b7 aa 43 3c 15 0d dc 3b
       0.022064568 0.118519485 0.011942557 0.0067154267
000140 56 57 50 3d e8 9f ef 3c 36 af 75 3c c5 e3 30 bb
       0.05086454 0.029251054 0.014995387 -0.002699123
000150 b9 dd 8a bd cf ad 44 3d 55 46 af bd 5f f0 1c 3b
       -0.067805715 0.04801732 -0.08558337 0.0023946983
000160 d9 c2 25 bc d7 22 33 bc f5 23 1f bd 71 d6 cc bc
       -0.010117256 -0.010933599 -0.03885265 -0.025004597
000170 3d fa 74 bd 33 ca 94 bd 59 67 26 bd 4c e7 db 3c
       -0.05980896 -0.07265129 -0.040625904 0.02684369
000180 83 0d b1 3d 86 b5 48 3d ed e5 76 bd 9b 28 a3 bd
       0.08645155 0.04900124 -0.060277868 -0.07966729
000190 99 69 24 bd 2f 09 18 bd da 9c 7a b9 18 19 6f 3d
       -0.04013977 -0.037118133 -0.0002390029 0.05837354
0001a0 4f 10 50 3d a9 2a 20 3d 00 2e 9f 3c 20 ae 07 be
       0.050796803 0.039103184 0.019431114 -0.13250017
0001b0 37 03 a9 bc 54 b4 98 3a 2a f2 28 3d c1 c9 92 3c
       -0.020631416 0.0011650422 0.04124657 0.01791847
0001c0 71 f0 6a 3d f6 5a 97 ba d4 ee 6b bd 64 7d 82 3c
       0.05735821 -0.0011547494 -0.05760081 0.015928932
0001d0 fb 64 9c 3d 09 fc 86 bc c7 c4 5d bd 22 d7 9f bc
       0.07636448 -0.016477602 -0.05414274 -0.019511763
0001e0 21 05 c5 bc e4 8c 21 3d 5a 64 56 bd d7 58 10 3d
       -0.024050297 0.039441004 -0.052341796 0.035240974
0001f0 c1 22 92 bd 1e c7 9e bc 54 94 b0 3d 70 25 29 bd
       -0.07135535 -0.019382056 0.08622041 -0.04129547
