trained_models/cvrp/XE_7/model_incumbent_vrpRl13_C_XE_7_P_0.15_58329.pt (torch_old, 469732 bytes, 15 tensors)

all_embed.embed.weight f4 [128, 4]
0.7116402 -0.14890982 0.2502904 0.28384727 -0.20523986 -0.12349069 0.13208294 -0.122633785
0.23872893 -0.55354583 0.011259511 0.14584497 0.9514896 0.4445461 0.31366968 -0.12909709
-0.10323824 -0.40599158 -0.5012257 0.430178 -0.6405112 -0.0190128 0.04007558 -0.003283216
0.0033797715 0.7579608 -0.009390607 -0.060223944 0.9516391 0.238758 0.033945806 -0.044823498
0.69555813 -0.11642148 -0.22298908 0.11538568 -0.091578856 -0.08662161 -0.01671794 -0.0276248
0.1604154 -0.05399185 -0.43259373 -0.2709822 0.28393778 1.0909886 -0.059728026 0.29951158
0.84827864 0.331389 0.14453998 0.092593126 0.7396454 -0.100000486 -0.1616882 0.17671718
0.35650688 -0.17410573 -0.41752204 -0.24589771 -0.08715603 -0.15907943 -0.12244532 0.014156491
0.787009 0.7125889 0.31117168 -0.16189738 -0.18386061 -0.4062169 -0.3154522 -0.3014441
0.57975984 -0.46441606 0.21724711 0.18254915 0.57831025 -0.48811597 -0.2776022 0.12743282
0.3329988 -0.00075373345 -0.42801467 -0.32912925 -0.3839197 0.48554587 0.4615285 0.26985952
-0.37499446 0.69449884 0.13224919 0.16728559 0.1904375 0.7438688 0.08124439 -0.122601144
0.20941046 1.0400666 -0.051328782 -0.03260699 0.32042897 0.9998731 0.16348818 -0.12467897
0.63692415 -0.1791263 0.20816353 -0.06968925 0.033256322 -0.14553437 0.06847069 0.015518054
-0.040587008 -0.19298998 0.124186575 0.00031083822 0.30663958 -0.045334987 -0.41176507 -0.43472853
-0.03801024 -0.20071149 0.13009536 0.08382091 0.29570514 -0.19728121 0.6814609 0.25885722
0.46238095 0.77736235 -0.11979436 0.046323255 0.16361855 0.3188639 -0.5799029 -0.44201913
-0.37695038 0.5873957 -0.36078352 0.090457626 0.7708248 -0.1232407 0.22805068 -0.06792166
0.12700082 0.5876812 -0.08084264 0.35846773 0.5717424 -0.17775074 -0.038577057 0.06737639
0.69427216 -0.24872807 0.04448948 -0.0789618 0.9914875 0.21106242 -0.20519948 0.106659435
-0.14750609 -0.09594257 -0.00015811622 -0.11197797 -0.49773732 0.03637564 -0.17992188 0.068885304
-0.5902981 0.5717393 0.2527639 0.25696278 -0.07396023 0.76980835 0.0011694013 0.11801857
0.009430468 -0.031612337 -0.052187994 -0.024719626 -0.3672429 0.34604532 0.40231982 0.2298215
-0.18098344 -0.12342184 0.003630802 -0.117630914 0.25972062 -0.46597472 0.011469563 0.36129117
-0.0016061749 0.7554219 0.055705965 0.20474008 0.059372555 0.52747434 -0.5298253 -0.16147745
-0.31166542 0.79347265 0.07544265 0.17467071 -0.17029354 0.14498124 -0.010521993 -0.13022137
0.017451927 0.21487916 0.6301761 0.09728479 -0.4070772 -0.28725335 0.37686083 0.025848087
0.19098245 0.67760295 -0.082351685 -0.054192357 0.37128046 -0.49844757 0.2924177 -0.09297804
0.06299487 0.009032771 0.20303676 -0.056542948 0.055747747 0.012899488 0.15454951 -0.103954785
-0.5717384 0.6072248 -0.30051237 0.28835025 0.12325007 -0.16052452 0.025542408 0.014428839
0.120433144 0.019386383 0.028015483 -0.015274478 0.12804213 -0.30787665 -0.36091116 -0.30504617
0.111724935 0.20620282 0.0038341673 0.007933866 -0.021023884 -0.1900594 -0.045357272 -0.08012693
00000000: 0d2e 363f d17b 18be 1026 803e 6e54 913e
00000010: 662a 52be b0e8 fcbd c040 073e 6c27 fbbd
00000020: 5b75 743e 2eb5 0dbf d079 383c 6258 153e
00000030: d394 733f 8c9b e33e 5099 a03e 0732 04be
00000040: 926e d3bd 21de cfbe 5450 00bf 4a40 dc3e
00000050: 8bf8 23bf bbc0 9bbc 4b26 243d 392b 57bb
00000060: 287f 5d3b b809 423f 0fdb 19bc 62ad 76bd
00000070: 9f9e 733f fa7c 743e c20a 0b3d d898 37bd
00000080: 1910 323f 636e eebd 4057 64be 544f ec3d
00000090: b28d bbbd ac66 b1bd 10f4 88bc 684d e2bc
000000a0: ef43 243e 8f26 5dbd ed7c ddbe 2ebe 8abe
000000b0: 4b60 913e 84a5 8b3f 60a5 74bd 9559 993e
000000c0: ca28 593f d2ab a93e 4a02 143e 77a1 bd3d
000000d0: 6759 3d3f 0ecd ccbd 9791 25be 59f5 343e
000000e0: 1288 b63e c648 32be 73c5 d5be 9ccc 7bbe
000000f0: dc7e b2bd b8e5 22be 9dc4 fabd a0f0 673c
00000100: 6c79 493f 3a6c 363f e551 9f3e 6dc8 25be
00000110: f545 3cbe a9fb cfbe f382 a1be e256 9abe
00000120: 246b 143f f1c7 edbe 0776 5e3e 2aee 3a3e
00000130: 240c 143f 56ea f9be e021 8ebe c07d 023e
00000140: d27e aa3e 3296 45ba bd24 dbbe a183 a8be
00000150: 1f91 c4be 7899 f83e 774d ec3e 072b 8a3e
00000160: 46ff bfbe adca 313f 556c 073e ea4c 2b3e
00000170: 0c02 433e 306e 3e3f 7563 a63d 4f16 fbbd
00000180: b26f 563e e720 853f 213e 52bd e88e 05bd
00000190: 440f a43e aff7 7f3f 7269 273e b057 ffbd
000001a0: 760d 233f e36c 37be d228 553e 3db9 8ebd
000001b0: c837 083d f606 15be 5c3a 8c3d 703f 7e3c
000001c0: 903e 26bd 2a9f 45be 8855 fe3d 00f8 a239
000001d0: ddff 9c3e 2eb1 39bd dfd2 d2be bd94 debe
000001e0: a0b0 1bbd 5087 4dbe b837 053e 4caa ab3d
000001f0: aa66 973e 1604 4abe 3974 2e3f ef88 843e
00000200: 32bd ec3e 3801 473f bf56 f5bd 74bd 3d3d
00000210: 9f8b 273e 2142 a33e 8474 14bf 5550 e2be
00000220: a4ff c0be 915f 163f 9eb8 b8be d941 b93d
00000230: c654 453f 9f65 fcbd 1e86 693e 831a 8bbd
00000240: 810c 023e 4672 163f d390 a5bd 1589 b73e
00000250: b65d 123f 4a04 36be fa02 1ebd a2fc 893d
00000260: d2bb 313f 92b2 7ebe 9a3a 363d b9b6 a1bd
00000270: 20d2 7d3f bf20 583e d01f 52be 4370 da3d
00000280: d60b 17be 8a7d c4bd 00cc 25b9 b554 e5bd
00000290: 6dd7 febe a0fe 143d 713d 38be bd13 8d3d
000002a0: c71d 17bf 825d 123f 456a 813e a090 833e
000002b0: 7678 97bd 2912 453f 9946 993a b8b3 f13d
000002c0: 4082 1a3c f07b 01bd 14c3 55bd d080 cabc
000002d0: 4307 bcbe da2c b13e ddfc cd3e 5456 6b3e
000002e0: b953 39be 97c4 fcbd c0f2 6d3b 7ae8 f0bd
000002f0: 1afa 843e 3d94 eebe d5ea 3b3c 28fb b83e
00000300: 4986 d2ba 5463 413f f02b 643d 62a7 513e
00000310: a330 733d 8f08 073f a2a2 07bf 585a 25be
00000320: 9c92 9fbe 0621 4b3f ad81 9a3d e1dc 323e
00000330: 6e61 2ebe f675 143e 7064 2cbc c058 05be
00000340: 58f7 8e3c 4809 5c3e 3953 213f 3f3d c73d
00000350: 6c6c d0be df12 93be e7f3 c03e 5ebf d33c
00000360: e790 433e 6377 2d3f 00a8 a8bd cef8 5dbd
00000370: 7918 be3e 8534 ffbe c6b7 953e 456b bebd
00000380: 7403 813d 30fe 133c dee8 4f3e 9499 67bd
00000390: c057 643d 6058 533c 3a42 1e3e 3fe6 d4bd
000003a0: 735d 12bf 1673 1b3f c2dc 99be a5a2 933e
000003b0: 886a fc3d 8a60 24be 503e d13c f066 6c3c
000003c0: a7a5 f63d 31d0 9e3c ba80 e53c ce41 7abc
000003d0: 7a1d 033e 02a2 9dbe 59c9 b8be 032f 9cbe
000003e0: 0bd0 e43d d526 533e a746 7b3b 0cfd 013c
000003f0: 483a acbc ee9e 42be 8cc8 39bd 9619 a4bd

all_embed.embed.bias f4 [128]
-0.18712634 -0.1676715 0.33713928 0.124538794 -0.24448064 0.65597373 0.15382186 0.31228468
-0.022445872 -0.19848233 0.20700148 0.1750851 -0.04551883 -0.098332375 0.049140774 -0.32582754
0.15596695 0.24770328 0.065534644 0.23876278 0.008591613 -0.026215002 0.22100149 0.2026984
0.17675005 0.16583526 0.2605153 -0.37074125 -0.12987667 0.15816383 -0.42049032 -0.19382074
0.014839572 0.13460052 0.35055616 0.20256755 -0.38342983 0.04652631 0.26836133 0.29995903
-0.41990095 0.425754 0.37337258 -0.08040461 -0.4621703 -0.06213136 -0.2631356 -0.052524745
0.02809716 0.015629428 0.24678841 -0.41460568 -0.33730257 0.50296557 0.099841475 0.55306196
-0.36768657 -0.44901103 0.21262251 -0.41856015 -0.1374983 0.09689527 -0.345711 -0.29480606
-0.22587505 0.39885756 -0.35994643 -0.13505761 0.38634402 0.20723116 -0.36427253 0.43146533
0.2838283 -0.3646328 0.39615715 0.29205018 -0.2867067 -0.0072508147 0.40466693 0.16721171
-0.46917278 0.37733665 0.0064354483 0.11197648 -0.42433935 -0.09107442 0.3436048 -0.00544546
0.24949156 0.12878639 0.23552224 0.04959264 -0.46143287 0.04533171 -0.33597267 -0.36428386
0.05243037 0.2709288 -0.4775334 0.1603534 -0.0392257 -0.042553484 0.5706879 -0.15985
0.17716363 0.11133881 0.30047706 -0.23081563 -0.2078401 0.18026136 0.27519366 0.046027675
0.43008125 0.20644484 0.26936287 -0.3917763 -0.26989996 0.1338286 0.2623562 0.048888445
0.37411577 0.097777724 0.17689584 0.12358686 -0.19407159 0.26549911 0.05842384 -0.11685674
00000000: 0c9e 3fbe 14b2 2bbe 859d ac3e 320e ff3d
00000010: 2259 7abe e5ed 273f 7a83 1d3e c7e3 9f3e
00000020: 68e0 b7bc f43e 4bbe 32f8 533e 8249 333e
00000030: f471 3abd 7c62 c9bd d647 493d ded2 a6be
00000040: cdb5 1f3e eea5 7d3e 0737 863d 3b7e 743e
00000050: d6c3 0c3c d8c0 d6bc 374e 623e 2b90 4f3e
00000060: f7fd 343e b8d0 293e 4362 853e ccd1 bdbe
00000070: 64fe 04be b3f5 213e 824a d7be f278 46be
00000080: ad21 733c b8d4 093e 197c b33e de6d 4f3e
00000090: ea50 c4be 5f92 3e3d a866 893e 3b94 993e
000000a0: 42fd d6be 6efc d93e b12a bf3e 2cab a4bd
000000b0: 96a1 ecbe 747d 7ebd b6b9 86be 3024 57bd
000000c0: 042c e63c 4909 803c 1ab6 7c3e 3247 d4be
000000d0: ecb2 acbe 5ac2 003f b079 cc3d 7895 0d3f
000000e0: 6a41 bcbe c6e4 e5be b7b9 593e 844d d6be
000000f0: 5bcc 0cbe 0771 c63d 0801 b1be d2f0 96be
00000100: ca4b 67be 0f37 cc3e e64a b8be 8b4c 0abe
00000110: e2ce c53e 6834 543e ee81 babe 06e9 dc3e
00000120: f151 913e 26b1 babe 1cd5 ca3e 9a87 953e
00000130: 38cb 92be 3e98 edbb 8130 cf3e 8c39 2b3e
00000140: 6a37 f0be 4532 c13e 74e0 d23b ed53 e53d
00000150: 0243 d9be 3a85 babd f8ec af3e d46f b2bb
00000160: b77a 7f3e 94e0 033e be2c 713e a721 4b3d
00000170: ee40 ecbe bead 393d 9c04 acbe 6a83 babe
00000180: 3ac1 563d 2eb7 8a3e 427f f4be af33 243e
00000190: 21ab 20bd 904c 2ebd 9a18 123f b8af 23be
000001a0: 626a 353e 9a05 e43d 21d8 993e ef5a 6cbe
000001b0: 09d4 54be 6f96 383e 2fe6 8c3e 8487 3c3d
000001c0: 9c33 dc3e 4766 533e eee9 893e e796 c8be
000001d0: 5430 8abe 5d0a 093e 8d53 863e 403f 483d
000001e0: 1a8c bf3e b03f c83d 2f24 353e 1c1b fd3d
000001f0: b4ba 46be 80ef 873e d64d 6f3d 9652 efbd

all_embed.embed_2.weight f4 [128, 128]
0.251737 -0.082722455 0.003114835 0.17656523 -0.0030194246 -0.27344915 -0.17661755 -0.024683481
0.15681987 0.13312216 -0.070314966 0.08191464 0.12836996 0.24520417 0.06632356 0.06801736
0.11093475 -0.004040483 0.050894003 0.0011468471 0.06708954 0.062305067 -0.10754798 -0.01034425
-0.012122127 0.086471364 0.23153523 -0.05849033 -0.08562946 0.13323362 0.102823034 0.2709768
0.011643896 0.059788875 -0.39470014 0.12844534 0.12089378 0.24023406 0.2723982 -0.14718826
0.12109758 -0.2492451 -0.2321986 -0.12123726 -0.0036060363 0.19558825 0.12953733 0.1497069
-0.15167633 0.038692877 -0.21909355 -0.03894446 0.41070983 -0.11215644 -0.017585862 0.052018866
0.115316376 0.09684555 -0.3177711 0.019130811 0.06176284 -0.063186556 0.13424158 -0.076213636
-0.06556319 -0.22409363 0.2874411 0.09420483 -0.14261073 0.28271496 -0.10726101 0.13147968
-0.16997267 0.06131673 -0.19901557 0.0550663 -0.1064433 0.14462402 0.116552025 0.14213084
0.13418373 -0.098705955 -0.11128753 -0.054885272 0.12542494 0.011310097 -0.30900806 -0.101044714
-0.2738106 0.06817858 -0.046409 -0.0018863098 -0.0680919 0.12982127 0.010151133 -0.018786415
0.10422015 0.021385387 0.117805734 0.05867313 -0.15838432 -0.08433106 -0.1334882 -0.051286034
-0.103355706 0.18165621 0.11226502 0.08406057 0.053595383 -0.083884396 0.21268038 0.23433647
-0.13572656 0.06795164 0.11146455 0.20836653 0.020082926 0.34382153 0.08149956 0.15295622
-0.15289517 0.11281778 -0.06327064 -0.08750485 -0.107845426 0.007539066 -0.08592128 -0.1403344
0.01169634 0.028374955 -0.11215745 -0.23606223 0.15703547 -0.19704503 0.19040366 -0.10859032
0.019710446 0.120341286 0.22466953 -0.079383895 -0.14091386 -0.13298115 0.26034805 -0.07538515
0.044859644 0.067893445 0.009371336 0.11381816 0.0640611 -0.012895926 0.09422324 0.08600406
0.15438794 0.096045256 -0.16850653 -0.08816882 -0.013302639 0.121385135 -0.13472909 -0.00041530508
0.21890825 0.11938781 0.06383992 -0.026773186 -0.008068829 -0.06927868 -0.12637675 0.05470316
-0.03410524 0.03670701 0.113688245 0.019267078 0.017750472 -0.27757695 -0.13819692 0.11757764
-0.09530183 0.114323914 0.1529795 0.12734751 -0.4186327 0.0052074916 -0.014537576 -0.12386496
0.056367457 0.122521535 0.053391997 -0.018116578 0.1445762 0.23533234 -0.07964208 0.12114616
-0.12296592 0.022939282 -0.28201395 0.18940255 0.11368962 0.0037643537 -0.08306974 -0.18118085
0.0633945 -0.089484945 -0.017445916 -0.07508118 -0.083995745 0.24463412 -0.037242845 0.03792828
0.082181744 -0.008847884 0.26160997 0.13251324 -0.14329012 0.036168754 0.12497931 0.27420902
0.037798565 -0.19293414 -0.1886551 0.25532877 -0.0872252 -0.08644176 -0.082415976 0.14275716
-0.16686082 0.06825903 0.14347543 0.16259082 0.24883601 0.012468061 -0.0502686 -0.0844491
-0.056736328 0.005595938 0.10964538 0.16780779 0.0152806565 0.06863674 -0.27871475 0.29455197
0.18883118 -0.01305965 0.040059287 -0.1263128 0.1825945 -0.14304829 0.099076234 0.060727
0.13807872 -0.017394066 -0.0956951 -0.058777098 -0.03219241 0.03994207 0.027795434 -0.08180097
00000000: ace3 803e 646a a9bd 4222 4c3b 84cd 343e
00000010: 8ae1 45bb 8701 8cbe 3bdb 34be 0335 cabc
00000020: 6395 203e 2d51 083e 4b01 90bd ddc2 a73d
00000030: 6a73 033e cd16 7b3e a6d4 873d b04c 8b3d
00000040: c231 e33d 0766 84bb 3b76 503d ce51 963a
00000050: 3e66 893d 9933 7f3d 1e42 dcbd ee7a 29bc
00000060: e39b 46bc e617 b13d 9217 6d3e 8e93 6fbd
00000070: 805e afbd 656e 083e e294 d23d 79bd 8a3e
00000080: 0ac6 3e3c 2ee5 743d 2316 cabe 2d87 033e
00000090: 2897 f73d ebff 753e c777 8b3e 85b8 16be
000000a0: 0202 f83d 1c3a 7fbe 78c5 6dbe 3e4b f8bd
000000b0: 4053 6cbb 4948 483e 6fa5 043e c44c 193e
000000c0: 0a51 1bbe 6c7c 1e3d 0f5a 60be 3a84 1fbd
000000d0: 8f48 d23e 47b2 e5bd 3a10 90bc bc11 553d
000000e0: fe2a ec3d f656 c63d e5b2 a2be 38b8 9c3c
000000f0: 08fb 7c3d f467 81bd a076 093e e515 9cbd
00000100: fe45 86bd cd78 65be 7b2b 933e 76ee c03d
00000110: 8c08 12be 04c0 903e a9ab dbbd 9ca2 063e
00000120: 510d 2ebe 4027 7b3d bdca 4bbe 338d 613d
00000130: f2fe d9bd 5218 143e d4b2 ee3d bf8a 113e
00000140: 7667 093e 5926 cabd b7ea e3bd 61cf 60bd
00000150: 656f 003e fc4d 393c 4e36 9ebe 88f0 cebd
00000160: e730 8cbe 36a1 8b3d 5d17 3ebd 0e3e f7ba
00000170: c473 8bbd deef 043e f050 263c f8e5 99bc
00000180: 6071 d53d 6830 af3c 2244 f13d 3c53 703d
00000190: 802f 22be c3b5 acbd 21b1 08be 4e11 52bd
000001a0: 28ac d3bd 1604 3a3e 34eb e53d f327 ac3d
000001b0: d586 5b3d 95cb abbd e3c8 593e e6f5 6f3e
000001c0: e7fb 0abe 3b2a 8b3d 8747 e43d 095e 553e
000001d0: f384 a43c 6009 b03e 3ee9 a63d 8ea0 1c3e
000001e0: 8d90 1cbe 020d e73d 0a94 81bd be35 b3bd
000001f0: 10de dcbd 450a f73b 7ff7 afbd d2b3 0fbe
00000200: 01a2 3f3c 9872 e83c ceb2 e5bd 4cba 71be
00000210: e8cd 203e 2cc6 49be 2df9 423e 9a64 debd
00000220: cd77 a13c 7e75 f63d c50f 663e 0694 a2bd
00000230: b94b 10be 362c 08be 574c 853e 8863 9abd
00000240: bfbe 373d b80b 8b3d 3b8a 193c 7f19 e93d
00000250: 7732 833d 6f49 53bc 1df8 c03d e622 b03d
00000260: df17 1e3e 60b3 c43d fa8c 2cbe db91 b4bd
00000270: 50f3 59bc c598 f83d 6cf6 09be 4ebd d9b9
00000280: 7c29 603e 9981 f43d 81be 823d 7153 dbbc
00000290: 1f33 04bc fbe1 8dbd e868 01be 6c10 603d
000002a0: f0b1 0bbd 175a 163d 62d5 e83d fed5 9d3c
000002b0: 7069 913c 911e 8ebe 7e83 0dbe 8ccc f03d
000002c0: 9b2d c3bd a822 ea3d a8a6 1c3e 6367 023e
000002d0: 0657 d6be 9ba3 aa3b 032f 6ebc eaac fdbd
000002e0: 90e1 663d 92ec fa3d 91b1 5a3d 3869 94bc
000002f0: c90b 143e f6fa 703e 631b a3bd 7a1b f83d
00000300: 8ed5 fbbd 29eb bb3c 2264 90be bef2 413e
00000310: 1ad6 e83d 60b3 763b 7820 aabd 7987 39be
00000320: fad4 813d e243 b7bd bdea 8ebc 29c4 99bd
00000330: f605 acbd 5e81 7a3e f48b 18bd af5a 1b3d
00000340: e74e a83d b7f6 10bc bef1 853e 8db1 073e
00000350: a5ba 12be b025 143d 27f5 ff3d 2065 8c3e
00000360: abd2 1a3d 8790 45be cd2e 41be 74ba 823e
00000370: 20a3 b2bd 6108 b1bd b5c9 a8bd ef2e 123e
00000380: 90dd 2abe 64cb 8b3d 39eb 123e 357e 263e
00000390: dece 7e3e d746 4c3c 73e6 4dbd a6f3 acbd
000003a0: 5a64 68bd 215e b73b c28d e03d ced5 2b3e
000003b0: b85b 7a3c 6b91 8c3d b3b3 8ebe 84cf 963e
000003c0: f65c 413e 24f8 55bc 3515 243d 2558 01be
000003d0: 0dfa 3a3e 407b 12be 7be8 ca3d e0bc 783d
000003e0: 8264 0d3e 007e 8ebc cbfb c3bd 41c0 70bd
000003f0: 30dc 03bd 4c9a 233d 40b3 e33c 4487 a7bd

all_embed.embed_2.bias f4 [128]
-0.14625591 0.013105487 -0.017652875 0.009303119 0.021110063 0.008660791 -0.11491846 0.015650805
0.06764342 -0.029777588 -0.3237883 -0.12534302 0.1744812 -0.026135657 -0.022227084 0.067415744
0.056027688 0.0056649325 0.014994295 -0.11963924 -0.055706233 0.16668354 -0.23097464 -0.21078669
0.13711274 0.006998659 0.123037696 -0.009461389 0.044480503 -0.08290736 0.014860981 0.03284478
-0.11858014 -0.038096674 -0.011469238 -0.1992866 0.07770263 0.14568786 0.10508607 -0.07475978
-0.11867251 -0.0017579168 -0.1634937 0.11911935 0.057311837 -0.06931441 -0.108719185 -0.022760866
0.05249567 -0.03558754 0.020568477 -0.14381538 0.018232228 -0.23478426 0.113733634 0.13284226
-0.029551152 0.18271601 0.015993746 -0.10689677 -0.08758241 0.12557788 -0.068360046 -0.22448
0.071187034 0.0014806605 -0.16126184 -0.08847037 0.003366527 -0.13950366 -0.16797706 -0.05987855
-0.069327004 0.05659504 0.08672393 0.17755081 -0.0941904 -0.05482367 -0.001030608 -0.12601112
-0.083487734 -0.14909127 0.21502206 0.0170248 -0.0118543515 -0.14322628 -0.062316988 -0.023162665
-0.07450573 -0.013012033 -0.1723426 -0.07147289 0.076765716 0.002811927 -0.1954215 -0.105566524
-0.05704233 0.34746584 0.13910028 -0.08685799 -0.0928662 -0.060414642 0.06464215 -0.04077276
0.052192096 0.08575969 -0.081236444 0.044155207 -0.21879934 0.24041703 -0.062770076 0.0061633317
0.025918016 -0.068121195 -0.15194729 -0.06793253 -0.18861325 0.0047996133 0.13150306 0.061023906
0.06982956 0.080433525 0.027102357 -0.07848877 0.14405265 -0.12321977 -0.060033925 -0.22476731
00000000: 1cc4 15be 66b8 563c c39c 90bc 1c6c 183c
00000010: 03ef ac3c fee5 0d3c 5f5a ebbd 1e36 803c
00000020: a288 8a3d 21f0 f3bc 94c7 a5be ec59 00be
00000030: 33ab 323e 721a d6bc 9315 b6bc 4411 8a3d
00000040: 4a7d 653d e6a0 b93b a2aa 753c 6b05 f5bd
00000050: 382c 64bd 17af 2a3e 9e84 6cbe 77d8 57be
00000060: 4867 0c3e 0255 e53b 30fb fb3d f103 1bbc
00000070: 3031 363d 55cb a9bd 797b 733c 3f88 063d
00000080: 25da f2bd 420b 1cbd 79e9 3bbc c911 4cbe
00000090: 8e22 9f3d 332f 153e 5e37 d73d a81b 99bd
000000a0: 930a f3bd e669 e6ba e46a 27be d9f4 f33d
000000b0: d1bf 6a3d b7f4 8dbd 2aa8 debd ff74 babc
000000c0: b305 573d 3ec4 11bd 397f a83c 5744 13be
000000d0: c15b 953c 496b 70be 2eed e83d cd07 083e
000000e0: 4215 f2bc e819 3b3e 5105 833c b2ec dabd
000000f0: 685e b3bd 7d97 003e 5a00 8cbd 16de 65be
00000100: 82ca 913d b912 c23a d321 25be f42f b5bd
00000110: f3a0 5c3b 0cda 0ebe 2e02 2cbe 3643 75bd
00000120: 51fb 8dbd 33d0 673d 519c b13d e1cf 353e
00000130: e5e6 c0bd c98e 60bd 7715 87ba 0f09 01be
00000140: 9efb aabd 62ab 18be be2e 5c3e 9877 8b3c
00000150: c138 42bc e9a9 12be 1940 7fbd a1bf bdbc
00000160: 7696 98bd 6c30 55bc 947a 30be 6160 92bd
00000170: 5837 9d3d 4f48 383b 931c 48be 4333 d8bd
00000180: 38a5 69bd 0be7 b13e 4e70 0e3e 9ae2 b1bd
00000190: a230 bebd 5875 77bd 1b63 843d 5601 27bd
000001a0: 61c7 553d c7a2 af3d 4b5f a6bd 17dc 343d
000001b0: ef0c 60be e22f 763e 998d 80bd c6f5 c93b
000001c0: 0552 d43c 2083 8bbd 1298 1bbe 3620 8bbd
000001d0: d523 41be 1346 9d3b bda8 063e 34f4 793d
000001e0: cd02 8f3d 55ba a43d c305 de3c b8be a0bd
000001f0: 8a82 133e a65a fcbd 22e6 75bd 6729 66be

pointer.v f4 [1, 1, 128]
1.5005237 -1.2011 0.3550863 -0.74496365 -1.0299119 2.074786 0.66078866 0.19655736
-0.14717801 0.65122676 -1.7488369 2.5355515 -0.95068973 0.7773249 -3.1784368 -0.9484896
0.019343177 -2.7907774 1.694334 0.9916043 -1.7684467 -1.3205085 -1.5669427 1.4520192
-1.104587 -0.74546134 -1.0632116 -2.9768577 -0.94359624 -0.07179417 -2.6786656 2.2516665
1.0673289 -0.98267925 1.5803224 -0.8548124 -0.15969586 0.044366043 -1.3240879 -1.5734833
-1.0688747 -0.5630858 2.3084428 -0.23726785 -0.20906799 1.0261486 -0.75182146 2.2744553
0.066508256 1.5533907 1.9965862 -1.0741717 2.2609444 -1.6311474 0.08025692 -0.65154725
0.64205736 -0.09074189 1.8617958 -0.6942476 -1.0981976 -0.021426788 1.3817477 1.3258839
0.959833 -1.0053173 1.4707665 -2.8736272 -1.1587685 2.4882977 1.2315005 2.7662458
1.8918715 0.40236714 -0.8601694 -2.2397559 0.96046054 1.1889856 1.3551359 -1.4925389
1.7236633 1.7476875 -0.97853506 0.15491301 -1.1561666 0.82900125 -0.11029295 -1.3770295
-2.7509043 1.0787108 2.546671 1.376856 -1.1482571 -0.19191338 1.5802507 1.8927215
0.16873413 -1.230223 -1.4922588 0.9211032 -0.9887769 0.24592125 0.22971004 -0.019467723
-1.3292723 0.6614439 0.19675112 -2.7100265 0.78089076 -1.071894 1.6823504 1.4510971
2.360256 -1.0979205 1.8270952 -0.71015114 2.0795796 -0.8933116 -1.569382 -0.2484576
1.3155724 2.6777208 -1.4323816 0.3278091 -0.9858274 -1.0533917 0.9238408 1.0349559
00000000: 2911 c03f a5bd 99bf dfcd b53e f0b5 3ebf
00000010: 27d4 83bf 4bc9 0440 7229 293f 5546 493e
00000020: d5b5 16be ccb6 263f e3d9 dfbf 7a46 2240
00000030: 6760 73bf c4fe 463f 826b 4bc0 37d0 72bf
00000040: 9575 9e3c 199c 32c0 f0df d83f c8d9 7d3f
00000050: 765c e2bf 6c06 a9bf 9491 c8bf c4db b93f
00000060: 1b63 8dbf 8ed6 3ebf 5117 88bf d684 3ec0
00000070: 868f 71bf d208 93bd 426f 2bc0 4e1b 1040
00000080: 3c9e 883f de90 7bbf 0148 ca3f fcd4 5abf
00000090: 5087 23be 2bb9 353d b67b a9bf e767 c9bf
000000a0: e3d0 88bf 6426 10bf 87bd 1340 58f6 72be
000000b0: eb15 56be d658 833f 5f77 40bf ad90 1140
000000c0: 7b35 883d 82d5 c63f 2390 ff3f 757e 89bf
000000d0: 50b3 1040 70c9 d0bf bd5d a43d cdcb 26bf
000000e0: df5d 243f e2d6 b9bd 534f ee3f 36ba 31bf
000000f0: bd91 8cbf 3b87 afbc 1cdd b03f 90b6 a93f
00000100: 9eb7 753f 3dae 80bf 1442 bc3f 82e9 37c0
00000110: 8752 94bf 4540 1f40 cfa1 9d3f 2c0a 3140
00000120: d828 f23f 1103 ce3e 1034 5cbf 2958 0fc0
00000130: bee0 753f ae30 983f 1875 ad3f 840b bfbf
00000140: 00a1 dc3f 39b4 df3f 4681 7abf 84a1 1e3e
00000150: 44fd 93bf 6d39 543f 45e1 e1bd 8142 b0bf
00000160: d10e 30c0 3213 8a3f a8fc 2240 d13c b03f
00000170: 17fa 92bf f184 44be a845 ca3f b344 f23f
00000180: a4c8 2c3e f277 9dbf 5602 bfbf 6bcd 6b3f
00000190: 7c20 7dbf c8d2 7b3e 1c39 6b3e c67a 9fbc
000001a0: 9825 aabf 6354 293f 2079 493e 1371 2dc0
000001b0: 75e8 473f d333 89bf 4257 d73f 8dbd b93f
000001c0: 6f0e 1740 a988 8cbf 41de e93f 77cc 35bf
000001d0: d517 0540 12b0 64bf 82e1 c8bf ab6b 7ebe
000001e0: ad64 a83f c75f 2b40 4858 b7bf 98d6 a73e
000001f0: 2f5f 7cbf 8ad5 86bf d580 6c3f 6f79 843f

pointer.encoder_attn.v f4 [1, 1, 128]
0.17149706 0.0872804 -0.05654654 -0.11986916 0.09227349 -0.21933833 0.06494099 0.0317939
0.0457803 0.1079482 0.0948188 -0.10328228 0.06696899 -0.08546725 0.095252804 0.081181906
-0.08660909 0.19384919 -0.13496104 -0.110073194 -0.11302074 -0.07999967 0.07584431 0.060330957
0.06414894 -0.08482332 0.12547094 -0.053562086 0.043633856 0.14744748 -0.17640924 0.062450904
0.20111677 -0.07178577 0.15078083 0.1667388 0.16033876 -0.16267133 -0.04873688 0.0057133106
-0.14339489 -0.055959716 -0.113489546 0.11365666 -0.1304892 -0.07856205 0.12344103 -0.09394384
0.04857195 -0.1431152 -0.0444543 0.13576272 -0.123026185 0.15300429 0.06844768 -0.029631766
0.1554688 0.17999364 -0.15849505 -0.15376905 -0.0640461 -0.09681838 -0.13684851 -0.0059276577
0.08750695 -0.20032093 -0.29397398 -0.1533411 0.085483596 0.16970798 -0.11966641 0.033970706
-0.15757109 -0.10433259 -0.123332866 0.15258883 -0.053706177 -0.11868654 0.08920498 0.038917817
-0.07068164 0.29410592 -0.108475156 0.056770857 0.10937651 -0.2636964 -0.0049874717 0.06885635
0.1710184 0.071703315 0.119257435 0.0713195 0.17173494 -0.046941325 -0.05319906 0.1715641
0.15215182 0.21394059 0.061354324 0.07950319 0.097424105 0.040571965 0.12626845 -0.06807585
-0.08534541 -0.08264402 0.091383085 0.100507535 -0.2936229 0.071907036 0.10639518 0.13598844
0.08509205 -0.06779528 0.094399594 -0.031962518 0.012379024 0.16771488 0.07179168 -0.12806994
-0.09553858 0.14294365 -0.13728443 -0.019215617 -0.028161006 0.07760291 -0.061048202 0.0992656
00000000: ed9c 2f3e 11c0 b23d 589d 67bd f67d f5bd
00000010: e2f9 bc3d 3a9a 60be c8ff 843d 523a 023d
00000020: 2084 3b3d f213 dd3d 5c30 c23d a985 d3bd
00000030: 0a27 893d 7409 afbd e713 c33d b342 a63d
00000040: 1b60 b1bd 6780 463e 3a33 0abe 0e6e e1bd
00000050: 6b77 e7bd ded6 a3bd 4354 9b3d 981d 773d
00000060: 8560 833d d9b7 adbd 747b 003e eb63 5bbd
00000070: 6ab9 323d 79fc 163e a0a4 34be 85cc 7f3d
00000080: 8ef1 4d3e 6b04 93bd 4a66 1a3e 93bd 2a3e
00000090: d82f 243e 5093 26be 53a0 47bd b936 bb3b
000000a0: 1cd6 12be 0436 65bd 356d e8bd d3c4 e83d
000000b0: f69e 05be 24e5 a0bd a7ce fc3d a165 c0bd
000000c0: 62f3 463d ca8c 12be b615 36bd 6205 0b3e
000000d0: 27f5 fbbd 28ad 1c3e 4c2e 8c3d 51be f2bc
000000e0: 3733 1f3e 4150 383e 874c 22be a275 1dbe
000000f0: 9a2a 83bd b748 c6bd 0422 0cbe cc3c c2bb
00000100: d836 b33d ee20 4dbe c283 96be 7305 1dbe
00000110: 0612 af3d eec7 2d3e aa13 f5bd de24 0b3d
00000120: 515a 21be 53ac d5bd f195 fcbd 3f40 1c3e
00000130: 02fb 5bbd ee11 f3bd 1ab1 b63d 4a68 1f3d
00000140: 89c1 90bd 0d95 963e 3928 debd 8f88 683d
00000150: cb00 e03d 3703 87be f26d a3bb 8f04 8d3d
00000160: 731f 2f3e 30d9 923d 3e3d f43d f50f 923d
00000170: 49db 2f3e 8c45 40bd 42e7 59bd 80ae 2f3e
00000180: b0cd 1b3e 3e13 5b3e ac4e 7b3d 92d2 a23d
00000190: 4a86 c73d ca2e 263d 844c 013e 5a6b 8bbd
000001a0: 93c9 aebd 4541 a9bd 0e27 bb3d e5d6 cd3d
000001b0: be55 96be ff43 933d b7e5 d93d 8e40 0b3e
000001c0: be44 ae3d 40d8 8abd 9354 c13d 21eb 02bd
000001d0: 64d1 4a3c 73bd 2b3e 8407 933d c424 03be
000001e0: bba9 c3bd d25f 123e 4a94 0cbe 126a 9dbc
000001f0: e9b1 e6bc 46ee 9e3d ae0d 7abd c34b cb3d

pointer.encoder_attn.W f4 [1, 128, 256]
0.018740686 0.03943996 -0.086297475 -0.06334914 0.028941007 -0.088970214 0.011446257 0.16237202
-0.14139746 -0.01913482 0.12651607 -0.024889909 -0.09990954 -0.11184681 -0.06857532 -0.061032638
-0.12383333 -0.047680687 -0.08640552 -0.08068205 0.036708944 -0.00866444 0.10819469 -0.015729425
0.005851137 0.13102104 -0.032181054 -0.08057875 0.100475855 0.09074304 -0.08215537 -0.09856368
-0.014130999 -0.06357949 -0.07600229 0.09280215 -0.08524643 -0.15739633 -0.0038004026 -0.0007185544
0.123599015 0.04639618 0.006879356 -0.10673175 -0.11759338 0.030671574 0.10614921 -0.083362535
-0.13688646 -0.12314277 -0.022754958 -0.03814894 -0.0043198913 -0.03539986 -0.113131285 0.092734225
-0.07709169 -0.117962174 -0.12775859 0.16042757 -0.06278037 -0.13065967 0.009076455 0.01910161
-0.0980821 -0.057402264 -0.012876022 -0.053547565 -0.038477447 -0.0021162666 -0.05811073 0.008328633
-0.05553391 -0.11226648 0.0071274657 -0.027318541 -0.03541563 0.012962422 -0.031960122 0.08540334
-0.022642223 -0.03627557 -0.033964008 0.14469205 -0.032102544 -0.1105467 -0.0132092815 0.04600761
-0.046050195 -0.025939686 0.013118461 -0.0021621087 0.015498483 -0.19275978 0.0030372767 -0.08402732
0.160161 -0.06788267 0.0015746205 -0.0023727491 -0.060003214 0.091870815 -0.1576107 0.17552659
0.0226483 -0.07963104 0.20650662 -0.07337066 -0.027144175 0.063167006 -0.05502253 -0.06634982
-0.008420773 0.070264615 -0.014710487 0.12436642 -0.053786114 0.0040193945 -0.054964297 0.14448912
-0.21378846 -0.019143248 0.047266766 0.12152538 -0.01612715 0.09178758 -0.042368483 0.013062146
-0.07179528 -0.06589556 0.023520578 -0.03322364 0.016863912 0.008109563 -0.10267488 0.026879484
-0.09825191 0.019337788 0.020197727 -0.048348833 0.019019451 -0.03554191 -0.048121188 -0.020858048
0.035978932 -0.019423714 -0.051749688 0.028712658 0.030937172 0.0036025615 0.03358108 0.023931898
-0.010698708 0.047188397 -0.023605615 0.14359064 -0.023487637 0.056604024 0.006347745 0.0058270954
0.013091438 -0.013551223 0.0263076 0.025552075 -0.016000018 -0.032511584 0.057861898 -0.02181233
-0.03435167 -0.030605972 0.11804968 -0.036074728 0.0022499594 -0.012583142 -0.011321031 -0.017428499
0.053884752 -0.019895082 -0.025860284 0.017772349 -0.043061946 0.038573127 -0.033725634 0.00021451584
0.0011971965 0.10460138 0.07714215 -0.06256742 0.061237603 0.05826799 -0.032136887 -0.020406934
0.05000821 0.03366891 -0.04883821 0.039227173 -0.0504121 9.150111e-05 0.018739223 0.016065087
0.020544674 0.05703732 0.043825958 0.019122895 0.05529464 -0.042641535 -0.05623773 0.1375743
-0.031974755 -0.018089615 0.06971342 0.028064543 -0.031789396 0.032103263 -0.025090247 -0.033293724
-0.04262647 -0.0014800262 -0.018770497 -0.045574915 0.042163227 -0.036188513 0.033875156 0.050028123
-0.12683351 0.055103775 0.113783866 0.0047480133 0.036681022 -0.052210715 -0.011191404 -0.130591
0.079288244 -0.006390119 0.044587675 0.01984752 -0.10306407 -0.009193995 -0.05925279 0.03263276
0.02231056 0.032300934 0.014590365 0.0623259 -0.04626038 -0.013239081 -0.08004519 0.040453017
0.029144753 -0.00655459 -0.012845096 -0.004732922 0.04946271 0.0068142083 0.0067986236 0.054080617
00000000: 1186 993c cc8b 213d bbbc b0bd 32bd 81bd
00000010: b115 ed3c 0436 b6bd 1589 3b3c da44 263e
00000020: 7fca 10be a0c0 9cbc 6e8d 013e ece5 cbbc
00000030: 5f9d ccbd f10f e5bd 3871 8cbd 5cfd 79bd
00000040: 549c fdbd d34c 43bd 61f5 b0bd a13c a5bd
00000050: 1e5c 163d 4cf5 0dbc 2d95 dd3d ffda 80bc
00000060: e5ba bf3b 612a 063e 48d0 03bd 7906 a5bd
00000070: 49c6 cd3d 7dd7 b93d 1341 a8bd c1db c9bd
00000080: b585 67bc f735 82bd 17a7 9bbd 0e0f be3d
00000090: ae95 aebd 812c 21be 2d10 79bb 5f5d 3cba
000000a0: 7b21 fd3d ec09 3e3d 396c e13b 2d96 dabd
000000b0: ccd4 f0bd f442 fb3c c264 d93d fab9 aabd
000000c0: f72b 0cbe 4732 fcbd 9b68 babc 1042 1cbd
000000d0: e08d 8dbb 72ff 10bd 60b1 e7bd 71eb bd3d
000000e0: 3fe2 9dbd 2796 f1bd 26d3 02be 2047 243e
000000f0: ff92 80bd a6cb 05be 69b5 143c fb7a 9c3c
00000100: 45df c8bd a31e 6bbd f3f5 52bc b154 5bbd
00000110: 879a 1dbd 10b1 0abb 8405 6ebd d274 083c
00000120: 8677 63bd f8eb e5bd 848d e93b 22cb dfbc
00000130: fb0f 11bd 5760 543c 9ee8 02bd f2e7 ae3d
00000140: 2f7c b9bc b195 14bd d81d 0bbd 272a 143e
00000150: f57d 03bd 4f66 e2bd be6b 58bc 7a72 3c3d
00000160: 219f 3cbd 777f d4bc d0ee 563c 2ab2 0dbb
00000170: 59ed 7d3c d262 45be 0c0d 473b 8416 acbd
00000180: 3f01 243e 1206 8bbd 7f63 ce3a 2080 1bbb
00000190: eec5 75bd c426 bc3d b364 21be 3ebd 333e
000001a0: ed88 b93c 9915 a3bd 7976 533e 5b43 96bd
000001b0: 765d debc b45d 813d 4e5f 61bd 6ae2 87bd
000001c0: 48f7 09bc e5e6 8f3d 4104 71bc d2b3 fe3d
000001d0: d44e 5cbd 20b5 833b 3e22 61bd f5f4 133e
000001e0: 5deb 5abe 4dd2 9cbc cc9a 413d 4ce2 f83d
000001f0: 161d 84bc 20fb bb3d 938a 2dbd 9c02 563c
00000200: 6709 93bd 40f4 86bd 3aae c03c 8315 08bd
00000210: 3026 8a3c f9dd 043c 3547 d2bd 5d32 dc3c
00000220: 4c38 c9bd 486a 9e3c b475 a53c 6d09 46bd
00000230: aece 9b3c 6594 11bd b91a 45bd 7fde aabc
00000240: a55e 133d 7b1e 9fbc 7bf7 53bd cf36 eb3c
00000250: f46f fd3c f418 6c3b 518c 093d d40c c43c
00000260: a249 2fbc 9f48 413d 9060 c1bc 6d09 133e
00000270: 2569 c0bc 9fd9 673d bf00 d03b 38f1 be3b
00000280: 797d 563c f305 5ebc 0983 d73c 9652 d13c
00000290: 7812 83bc de2a 05bd 9900 6d3d c5af b2bc
000002a0: 56b4 0cbd 60b9 fabc 08c4 f13d 18c3 13bd
000002b0: 0e74 133b 8629 4ebc d87b 39bc 36c6 8ebc
000002c0: 42b6 5c3d 03fb a2bc f2d8 d3bc 5197 913c
000002d0: b961 30bd dbfe 1d3d e423 0abd a8ef 6039
000002e0: 40eb 9c3a 4039 d63d b4fc 9d3d 5923 80bd
000002f0: 48d4 7a3d 6aaa 6e3d f8a1 03bd 712c a7bc
00000300: 69d5 4c3d 69e8 093d 930a 48bd acac 203d
00000310: eb7c 4ebd 49e4 bf38 0083 993c ee9a 833c
00000320: 4e4d a83c f79f 693d d982 333d 9ea7 9c3c
00000330: a27c 623d e4a8 2ebd 8959 66bd 47e0 0c3e
00000340: f6f7 02bd ac30 94bc e9c5 8e3d 9de7 e53c
00000350: 9935 02bd b67e 033d 108a cdbc 005f 08bd
00000360: 1899 2ebd 70fd c1ba 96c4 99bc c3ac 3abd
00000370: 59b3 2c3d 683a 14bd adc0 0a3d 4aea 4c3d
00000380: a5e0 01be 7fb4 613d 8407 e93d 3995 9b3b
00000390: d73e 163d e7da 55bd 275c 37bc a6b9 05be
000003a0: e061 a23d 3464 d1bb 91a1 363d 4497 a23c
000003b0: 4113 d3bd 69a2 16bc 0eb3 72bd eea9 053d
000003c0: a3c4 b63c fc4d 043d 6d0c 6f3c 7149 7f3d
000003d0: 867b 3dbd bbe8 58bc bcee a3bd 10b2 253d
000003e0: fac0 ee3c e3c7 d6bb 3d74 52bc a116 9bbb
000003f0: 6999 4a3d b949 df3b fdc6 de3b a383 5d3d

pointer.fc1.weight f4 [128, 256]
-0.018061677 -0.08286725 0.09607159 -0.03268668 -0.1549869 -0.18093957 -0.10818643 -0.0417616
0.079473905 0.11725888 0.029526122 -0.004195571 0.20813769 -0.23099767 0.18405925 0.004717562
-0.08982677 -0.0939824 -0.122468315 0.07484921 -0.003057404 0.10303715 0.0014197235 0.16299506
-0.061202236 -0.13276155 -0.04861265 -0.27618876 0.042096365 0.06830726 0.018509857 0.17085409
0.20851107 0.089818805 0.20616068 -0.028475968 -0.0908335 -0.025027044 0.17224634 -0.16137068
0.057743028 0.079128034 0.056484126 0.13231207 -0.10050103 0.06570021 -0.20281723 0.18840447
0.008064654 0.2933138 0.13611227 -2.3850822e-05 -0.13635466 -0.031374805 -0.042464633 0.0116093345
-0.051738273 -0.19422504 -0.076262385 0.045697894 0.0035227714 0.13196109 0.09304894 0.15872394
0.02031498 -0.13662733 -0.025148531 0.13309674 0.067962565 0.008508563 0.08146579 -0.026862629
-0.14141472 0.014824219 0.10757524 -0.060704585 -0.17831644 0.055999413 -0.15377985 -0.07721797
-0.041975066 0.008046492 0.08401387 -0.05411167 0.026691586 0.029415837 -0.153727 -0.18626007
0.074663624 0.12927596 -0.13272965 0.08776381 0.09511201 0.13651527 0.0048975036 0.00437044
0.055288203 -0.13587423 -0.027014675 -0.027936475 -0.1029955 -0.17061241 -0.10900025 -0.10094127
0.049646467 -0.17202507 0.058815353 -0.054711714 -0.17289124 -0.09142001 -0.16375181 -0.1235845
0.17853296 -0.04877492 -0.21557736 -0.020275308 0.19070238 -0.06571798 -0.01920183 0.07040156
-0.03637628 0.21378903 0.10559361 0.018991472 -0.09331448 0.031998854 -0.10089586 -0.068323195
-0.0007862618 -0.010940264 0.10948466 0.0053862343 0.04525045 0.11034761 -0.04490714 0.04772678
0.0011588772 0.05566307 0.052140094 -0.10269318 -0.096835114 -0.031838764 -0.102089256 0.06831124
-0.014625624 0.09636966 0.14512253 0.039699692 -0.099888146 0.1030213 0.07498387 -0.062379014
-0.12384317 0.087168016 0.025823718 -0.03301724 0.05722114 -0.08484428 -0.093156934 0.09541251
-0.03620354 -0.10090282 0.03701137 -0.03518228 -0.08089308 -0.026588013 -0.041356914 0.082444265
0.10195463 0.071128234 0.09849801 0.05288981 0.106030464 -0.087570384 -0.079004906 0.004166252
-0.072327726 6.83296e-05 -0.09378234 0.049309816 -0.0971572 -0.047397915 0.11517881 -0.00420138
0.050890304 0.06147138 -0.0525655 -0.027039913 0.05217729 0.12610438 0.0221211 0.06695224
-0.059466615 -0.07439628 0.041468743 0.1300092 -0.10997679 0.06459654 0.024417136 -0.04610912
0.116613165 -0.041567232 0.09464378 0.12422709 0.08710733 0.028753474 -0.05649184 -0.15073527
0.058073662 0.069545805 -0.12844877 -0.031214695 0.0038429117 0.04740683 -0.06540877 -0.04155346
0.0625379 0.015771508 0.11741015 0.02068408 0.15079711 -0.09862801 -0.066916615 -0.026359577
-0.06317675 0.1106724 0.025625998 -0.032122374 0.091657884 -0.12811843 -0.010434691 -0.087553665
0.07865611 0.008039864 0.018148795 0.13042945 -0.11544173 0.12378068 -0.07323724 0.121100165
0.076825 -0.09143616 -0.03337407 -0.083284445 0.09056057 0.093280725 0.11585978 -0.065997384
0.091870226 0.06419035 -0.16139027 0.08974043 0.13114177 0.06970856 -0.004097413 0.055410706
00000000: 15f6 93bc 4eb6 a9bd 2fc1 c43d 78e2 05bd
00000010: e3b4 1ebe 3948 39be d990 ddbd 360e 2bbd
00000020: 37c3 a23d 6c25 f03d c4e0 f13c 007b 89bb
00000030: 0c22 553e a78a 6cbe 077a 3c3e c795 9a3b
00000040: 19f7 b7bd d879 c0bd abd0 fabd 8b4a 993d
00000050: ba5e 48bb 2405 d33d 0416 ba3a 2de8 263e
00000060: 32af 7abd a5f2 07be 0f1e 47bd 9d68 8dbe
00000070: 3d6d 2c3d ade4 8b3d fca1 973c 60f4 2e3e
00000080: ed83 553e ecf2 b73d c91b 533e 6f46 e9bc
00000090: ea06 babd 8405 cdbc 5861 303e 5b3e 25be
000000a0: f483 6c3d e10d a23d e65b 673d d17c 073e
000000b0: 7cd3 cdbd d58d 863d 52af 4fbe 1aed 403e
000000c0: 9c21 043c 3a2d 963e 0461 0b3e 4013 c8b7
000000d0: 8ea0 0bbe de82 00bd 65ef 2dbd 1435 3e3c
000000e0: 83eb 53bd eee2 46be 742f 9cbd b72d 3b3d
000000f0: 4cde 663b cf20 073e 7190 be3d 8788 223e
00000100: 9a6b a63c 09e8 0bbe 4b04 cebc 834a 083e
00000110: f52f 8b3d 8067 0b3c 89d7 a63d 040f dcbc
00000120: 05cf 10be 48e1 723c 6850 dc3d 5fa5 78bd
00000130: 9698 36be a45f 653d 7778 1dbe 7424 9ebd
00000140: 0cee 2bbd 6fd5 033c 770f ac3d 33a4 5dbd
00000150: 50a8 da3c 7bf9 f03c 9c6a 1dbe f6ba 3ebe
00000160: 3ee9 983d eb60 043e 48ea 07be 83bd b33d
00000170: 16ca c23d a9ca 0b3e 3d7b a03b e835 8f3b
00000180: e275 623d 9d22 0bbe e14d ddbc 09db e4bc
00000190: 4eef d2bd 05b5 2ebe 863b dfbd 4cba cebd
000001a0: 185a 4b3d 5727 30be 5ee8 703d 6419 60bd
000001b0: 670a 31be 6a3a bbbd 8eae 27be df19 fdbd
000001c0: 58d1 363e 36c8 47bd 50c0 5cbe 6718 a6bc
000001d0: 7c47 433e 2697 86bd 284d 9dbc b12e 903d
000001e0: 4bff 14bd 83eb 5a3e 7641 d83d 0194 9b3c
000001f0: a91b bfbd 3b11 033d 7da2 cebd 08ed 8bbd
00000200: 231d 4eba cb3e 33bc 7e39 e03d 027f b03b
00000210: 8958 393d eefd e13d 8df0 37bd 287d 433d
00000220: 77e5 973a f6fe 633d da90 553d cd50 d2bd
00000230: 7d51 c6bd 5d69 02bd 2c14 d1bd c3e6 8b3d
00000240: 50a0 6fbc 755d c53d 009b 143e 259c 223d
00000250: 2892 ccbd d5fc d23d 2591 993d 2381 7fbd
00000260: 7da1 fdbd 2585 b23d 438c d33c 163d 07bd
00000270: b760 6a3d d6c2 adbd 10c9 bebd a267 c33d
00000280: 2a4a 14bd 23a6 cebd 3c99 173d 4b1b 10bd
00000290: 45ab a5bd 1bcf d9bc de65 29bd 8ad8 a83d
000002a0: 97cd d03d aeab 913d 53b9 c93d fca2 583d
000002b0: 8026 d93d 1a58 b3bd 53cd a1bd 0e85 883b
000002c0: 8f20 94bd 2d4c 8f38 f510 c0bd 17f9 493d
000002d0: 5bfa c6bd 5124 42bd dee2 eb3d bbab 89bb
000002e0: 5a72 503d 6ac9 7b3d ec4e 57bd cf82 ddbc
000002f0: dbb7 553d 8221 013e 4f37 b53c 421e 893d
00000300: 4493 73bd 145d 98bd 21db 293d 2221 053e
00000310: 833b e1bd 314b 843d 7206 c83c ebdc 3cbd
00000320: e2d2 ee3d 6742 2abd 99d4 c13d c66a fe3d
00000330: 5465 b23d 688c eb3c fd63 67bd 595a 1abe
00000340: a6de 6d3d 086e 8e3d 1388 03be f6b5 ffbc
00000350: 5cd9 7b3b aa2d 423d 09f5 85bd f633 2abd
00000360: df13 803d 4033 813c bc74 f03d a971 a93c
00000370: 8f6a 1a3e 7bfd c9bd 940b 89bd 0af0 d7bc
00000380: d062 81bd 36a8 e23d 9ded d13c c092 03bd
00000390: 21b7 bb3d 7a31 03be 44f6 2abc 564f b3bd
000003a0: 7416 a13d a2b9 033c c8ac 943c 4c8f 053e
000003b0: b76c ecbd ba80 fd3d 68fd 95bd 5d03 f83d
000003c0: 6d56 9d3d e242 bbbd 40b3 08bd 0991 aabd
000003d0: d277 b93d f709 bf3d e447 ed3d a329 87bd
000003e0: 7526 bc3d 3b76 833d 7e43 25be d5c9 b73d
000003f0: 074a 063e 5dc3 8e3d 9743 86bb 56f6 623d

pointer.fc1.bias f4 [128]
-0.01885677 0.01562943 0.062060364 0.036795568 0.08830401 0.042631764 0.03424108 0.05035457
-0.07310357 0.017300848 -0.05768243 0.05718832 -0.018721092 0.011567126 -0.025070954 -0.013208732
0.018000843 -0.032059748 -0.08081115 -0.066767275 0.047302395 0.00040905114 -0.027892884 0.07413013
0.02764218 0.017346619 -0.03703933 -0.022757055 -0.024866316 0.08731088 0.029413618 0.036535885
0.0067222184 -0.065887906 -0.0035794438 0.028250039 0.042966377 0.046731688 -0.032598086 0.0056101456
-0.03654242 -0.015517766 -0.01608774 -0.042705964 -0.043355815 -0.027031744 -0.026502676 -0.014942215
-0.03828036 -0.017117277 0.02654326 -0.012627811 0.018440837 0.005292376 -0.040849634 0.030364886
-0.04639281 -0.07923008 -0.026290296 0.03485803 0.07308743 -0.05756025 -0.020044876 -0.037483767
0.016839039 0.036730897 0.0815244 0.03334281 0.084811516 -0.034769602 -0.042988457 0.020503458
-0.08509033 -0.04308337 -0.017347733 0.10285241 0.013136275 0.0382132 -0.04137674 0.00048218764
0.005339093 0.05077314 0.010092958 -0.021988716 0.08898245 -0.08675023 -0.0012551175 -0.00038734736
0.011389127 0.004311544 -0.10325406 -0.011607072 0.07804328 -0.07943716 -0.03518146 0.015296472
0.04908608 -0.0015252093 -0.11542781 0.05320748 -0.017718839 -0.01520718 0.0405331 -0.040574037
-0.017686738 0.04079334 -0.001928274 -0.030820562 -0.010881461 -0.011424446 0.05503951 -0.0054325922
-0.016326958 -0.04919621 0.04330374 0.0021533035 0.016006965 -0.013122194 0.0046922956 0.06712659
0.09018724 0.051431198 0.07180211 -0.017333515 -0.06123133 0.06463878 0.004049296 0.04737984
00000000: 8379 9abc 4a09 803c 0233 7e3d f3b6 163d
00000010: bcd8 b43d a59e 2e3d 6040 0c3d 9840 4e3d
00000020: 53b7 95bd 82ba 8d3c 6944 6cbd 4d3e 6a3d
00000030: fa5c 99bc 0b84 3d3c 9a61 cdbc 7069 58bc
00000040: 8176 933c 1551 03bd 5180 a5bd 48bd 88bd
00000050: 28c0 413d ea75 d639 9e7f e4bc 8ad1 973d
00000060: da71 e23c 7f1a 8e3c 8db6 17bd 016d babc
00000070: 72b4 cbbc 0cd0 b23d d4f4 f03c a7a6 153d
00000080: 0e46 dc3b 3df0 86bd 1a95 6abb a06c e73c
00000090: 83fd 2f3d ba69 3f3d 9285 05bd 50d5 b73b
000000a0: 81ad 15bd 3a3e 7ebc 70ca 83bc 73ec 2ebd
000000b0: de95 31bd ad71 ddbc 241c d9bc 31d0 74bc
000000c0: decb 1cbd 8839 8cbc 4071 d93c e1e4 4ebc
000000d0: 3d11 973c ab6b ad3b f251 27bd c8bf f83c
000000e0: 6306 3ebd 6143 a2bd bf5e d7bc 4bc7 0e3d
000000f0: ddae 953d 4cc4 6bbd 2735 a4bc 9488 19bd
00000100: 06f2 893c 2373 163d 44f6 a63d 7892 083d
00000110: a9b1 ad3d 926a 0ebd aa14 30bd def6 a73c
00000120: d743 aebd 3078 30bd d51c 8ebc 49a4 d23d
00000130: 8839 573c 7285 1c3d a87a 29bd 21ce fc39
00000140: 8ff3 ae3b 7ff7 4f3d ef5c 253c ae21 b4bc
00000150: 6e3c b63d 1baa b1bd c182 a4ba e214 cbb9
00000160: 7699 3a3c da47 8d3b dd76 d3bd 972b 3ebc
00000170: 28d5 9f3d f3af a2bd 6f1a 10bd 0e9e 7a3c
00000180: 7c0e 493d 88e9 c7ba 6a65 ecbd 16f0 593d
00000190: 1927 91bc 8927 79bc 0906 263d f630 26bd
000001a0: c7e3 90bc eb16 273d 24be fcba 677b fcbc
000001b0: 2848 32bc 992d 3bbc 1c71 613d e303 b2bb
000001c0: 1dc0 85bc f781 49bd 435f 313d 701e 0d3b
000001d0: 0a21 833c 79fe 56bc d4c1 993b aa79 893d
000001e0: 16b4 b83d 85a9 523d fc0c 933d 04ff 8dbc
000001f0: b4cd 7abd 5661 843d f5af 843b 5d11 423d

pointer.fc2.weight f4 [128, 128]
-0.14026944 0.13446268 0.15887716 -0.080887675 -0.12184138 -0.048890315 0.07265153 -0.13007078
-0.046436112 -0.13224056 0.08242703 -0.11196458 0.11916757 0.07592082 -0.18806535 -0.14958462
-0.086911626 -0.17227992 0.045631386 0.05703288 -0.07312598 0.107101284 0.15884443 0.14164603
0.12520362 -0.16900648 -0.0068120263 0.14512448 0.0465506 0.25187942 -0.22188924 0.12807542
0.29917613 -0.004572468 0.14175524 -0.21278736 0.1352989 0.25476444 0.0293811 0.09219521
0.0630178 0.036899418 -0.04435477 -0.021387253 -0.00028279333 -0.0013943865 0.13235071 -0.2389077
0.08757101 0.025741627 0.07445262 0.08856647 -0.29032186 -0.04769162 0.12141262 -0.112185866
-0.13650256 0.02433275 -0.014449042 0.041559096 0.113766745 0.041254006 0.05222967 0.16265438
-0.14773941 -0.036483213 -0.09182422 -0.093618706 0.08985341 0.058861226 0.07093672 0.07842981
-0.14843929 0.12930025 0.06801288 -0.017061893 0.15287577 0.02946461 -0.030410726 -0.0010618693
0.18745567 -0.013085415 0.0184081 -0.07785528 -0.023757925 0.13197082 -0.0963851 0.035658214
-0.08246518 -0.13239929 0.08713652 0.16194627 -0.20765857 0.0967121 0.05981425 0.21958204
0.0044960594 0.24943195 -0.13052107 -0.15745099 0.0422366 -0.005043765 -0.02441872 -0.042453114
-0.22814058 0.10662493 0.048096932 0.059737947 0.11831159 -0.033262555 0.033385947 -0.037020188
0.10129115 -0.28921846 -0.062922284 0.028601479 0.048898205 -0.20201343 0.0210606 -0.040325437
-0.07594469 -0.12302678 -0.01624474 0.06808087 -0.049769193 0.07030921 -0.22225106 0.1848278
0.1306379 0.124837965 -0.0033961928 -0.0014022684 -0.17399135 0.1443584 -0.10048987 0.22959463
-0.041950595 -0.06068326 -0.08115872 0.20533122 0.19398439 0.097730555 -0.20082496 -0.057785653
-0.21538286 -0.17896527 0.01551269 0.015318424 0.29397535 0.059390724 0.012795824 0.0820834
-0.075427756 0.05541696 0.10667302 0.21950059 0.18303993 0.2077961 -0.06790507 0.06477882
0.113408014 0.13829479 -0.039846517 0.36245164 0.15496364 0.12232747 0.027237207 0.061545007
-0.020467388 -0.010200445 -0.062218294 -0.02201657 0.0016207022 0.091493584 0.3084295 -0.17510787
-0.14138833 -0.03435894 0.20875965 0.22988582 -0.10375632 -0.13275528 0.019896625 -0.045774408
0.049388606 -0.089794464 0.06635836 0.035552878 -0.118855245 -0.07250906 -0.16009212 -0.116181016
0.14758614 0.084114626 0.24874353 -0.10323492 0.09797033 -0.13017567 0.007878104 -0.07383438
-0.011220893 0.08009606 -0.04960777 0.28025195 -0.23373173 0.0841783 -0.0074349307 0.01726873
0.012324146 0.17074111 -0.09241908 -0.23866852 0.27037832 0.12755023 -0.17521004 0.112027004
-0.061856423 -0.10816644 -0.36620045 0.06307978 0.09809945 -0.016937984 -0.16643672 0.20234078
-0.14446574 0.013820591 -0.005188523 -0.097324304 0.056349523 0.34065178 0.14339127 -0.22616015
0.16142501 0.08336409 0.019563518 0.25794187 0.13226789 0.04862844 0.10564288 -0.19622698
0.25418514 -0.02199342 -0.07257653 -0.053400546 0.15442519 0.19984095 0.05654937 -0.08189732
0.022725374 0.1246108 -0.12556908 -0.08310838 -0.14474075 -0.07250888 0.038529806 0.10163806
00000000: cba2 0fbe 96b0 093e b2b0 223e 70a8 a5bd
00000010: f987 f9bd 3641 48bd 53ca 943d 4631 05be
00000020: cb33 3ebd 126a 07be 81cf a83d b04d e5bd
00000030: 200e f43d 607c 9b3d 3494 40be b62c 19be
00000040: b9fe b1bd 266a 30be fae7 3a3d 4f9b 693d
00000050: 13c3 95bd eb57 db3d 1da8 223e a80b 113e
00000060: 6135 003e 0910 2dbe 6b37 dfbb 839b 143e
00000070: d8ab 3e3d 57f6 803e ef36 63be 3426 033e
00000080: 9d2d 993e a4d4 95bb 4928 113e eee4 59be
00000090: cb8b 0a3e 7c70 823e a2b0 f03c d8d0 bc3d
000000a0: 7a0f 813d d823 173d 59ad 35bd 5234 afbc
000000b0: e143 94b9 d9c3 b6ba f286 073e 38a4 74be
000000c0: 6e58 b33d 1be0 d23c 9e7a 983d 5662 b53d
000000d0: 11a5 94be 4a58 43bd 2ea7 f83d b4c1 e5bd
000000e0: 54c7 0bbe 7a55 c73c adbb 6cbc df39 2a3d
000000f0: 8afe e83d f6f9 283d c7ee 553d df8e 263e
00000100: 0049 17be 6c6f 15bd 560e bcbd 2abb bfbd
00000110: 1105 b83d 7818 713d 4547 913d cf9f a03d
00000120: 7800 18be 4967 043e 564a 8b3d 62c5 8bbc
00000130: 778b 1c3e c45f f13c ea1f f9bc 6c2e 8bba
00000140: 61f4 3f3e 3564 56bc 95cc 963c 9772 9fbd
00000150: fb9f c2bc 5c23 073e 8d65 c5bd 590e 123d
00000160: 81e3 a8bd ae93 07be a274 b23d 3ed5 253e
00000170: 73a4 54be fe10 c63d c9ff 743d 1dda 603e
00000180: ae53 933b 176b 7f3e 51a7 05be d53a 21be
00000190: 4900 2d3d 2b46 a5bb c409 c8bc 51e3 2dbd
000001a0: af9d 69be 2c5e da3d 4a01 453d c7af 743d
000001b0: 594d f23d 513e 08bd b4bf 083d 7ba2 17bd
000001c0: bc71 cf3d 7114 94be 66dd 80bd a64d ea3c
000001d0: 7c49 483d 9cdc 4ebe 4887 ac3c 492c 25bd
000001e0: e488 9bbd 77f5 fbbd b013 85bc fc6d 8b3d
000001f0: c8da 4bbd 46fe 8f3d c895 63be 8043 3d3e
00000200: f1c5 053e 0cab ff3d a992 5ebb 52cc b7ba
00000210: ca2a 32be b0d2 133e a2cd cdbd db1a 6b3e
00000220: 63d4 2bbd 038f 78bd 8b36 a6bd 5942 523e
00000230: d8a3 463e f526 c83d 0fa5 4dbe a6b0 6cbd
00000240: 538d 5cbe ac42 37be f028 7e3c 21fa 7a3c
00000250: f083 963e b043 733d 93a5 513c 571b a83d
00000260: de79 9abd e5fc 623d 6277 da3d c3c4 603e
00000270: d26e 3b3e 80c8 543e d011 8bbd c2aa 843d
00000280: 7642 e83d 269d 0d3e 1a36 23bd 4393 b93e
00000290: caae 1e3e d386 fa3d 9020 df3c 9e16 7c3d
000002a0: 39ab a7bc c41f 27bc 9cd8 7ebd 185c b4bc
000002b0: be6d d43a fd60 bb3d 79ea 9d3e 7a4f 33be
000002c0: 1ac8 10be f6bb 0cbd 17c5 553e 3067 6b3e
000002d0: 327e d4bd 00f1 07be 3ffe a23c f27d 3bbd
000002e0: b54b 4a3d 29e6 b7bd e4e6 873d e59f 113d
000002f0: 616a f3bd a17f 94bd 30ef 23be 50f0 edbd
00000300: d220 173e 4a44 ac3d a0b6 7e3e d46c d3bd
00000310: aba4 c83d c54c 05be 2a13 013c 7b36 97bd
00000320: d6d7 37bc 6709 a43d 8431 4bbd 2f7d 8f3e
00000330: 5f57 6fbe ac65 ac3d b8a0 f3bb 2777 8d3c
00000340: 37eb 493c c2d6 2e3e 3746 bdbd 8565 74be
00000350: 076f 8a3e 879c 023e 436a 33be 6a6e e53d
00000360: 295d 7dbd 5e86 ddbd a07e bbbe f92f 813d
00000370: 5de8 c83d 87c1 8abc 636e 2abe 6c32 4f3e
00000380: d4ee 13be c36f 623c 7c04 aabb f751 c7bd
00000390: c2ce 663d e969 ae3e 29d5 123e 8796 67be
000003a0: 994c 253e cbba aa3d ac43 a03c f510 843e
000003b0: 3c71 073e 9d2e 473d 4b5b d83d baef 48be
000003c0: 8e24 823e 8b2b b4bc 01a3 94bd 88ba 5abd
000003d0: a321 1e3e 1ba3 4c3e 50a0 673d c8b9 a7bd
000003e0: 902a ba3c f233 ff3d 2e95 00be ba34 aabd
000003f0: eb36 14be 897f 94bd 6ed1 1d3d 9d27 d03d

pointer.fc2.bias f4 [128]
0.0751406 0.08951269 -0.051865306 0.026490299 0.0604471 -0.05381124 0.06091266 -0.124822706
-0.053016007 0.022218574 -0.03629197 0.100210264 -0.004125121 0.0889212 0.046259448 0.047898144
-9.663247e-05 0.08000398 -0.04109358 0.10991012 0.092731625 0.051121466 -0.05744846 -0.043589853
0.043115117 0.022131447 -0.06034865 0.02359901 0.042879514 -0.047679543 -0.029745052 0.08286308
0.12305413 -0.019244198 -0.07793388 -0.042458996 -0.05298211 0.041290462 0.063826695 0.0949954
0.047550336 0.07013285 0.016705263 -0.039669752 -0.0010969726 -0.025948735 -0.055415407 0.10954013
-0.08464366 -0.021069432 0.052501563 0.042250596 -0.019498752 0.056843337 -0.048257273 -0.05948384
0.020255059 0.07186157 0.10361639 -0.09011682 0.118828505 -0.0141250035 0.023010232 0.10271841
0.06290243 -0.016963849 0.091812715 0.06436357 -0.0207088 0.07005794 -0.030143127 0.12348436
0.08497167 -0.0082465075 0.075361855 0.10057511 -0.040324546 -0.018472498 0.08485568 -0.015261825
0.02967525 0.07325085 0.01585365 -0.10084522 0.043298367 -0.012855977 0.12087168 0.07997563
0.11572722 -0.00829483 0.046041384 0.0011455608 -0.0124238925 -0.030128917 0.13807489 0.07050172
-0.11560487 0.07863323 0.035723906 -0.050897382 -0.016686004 0.022935754 0.0037732986 -0.051831108
0.0420405 0.07053845 -0.021505577 0.0045339228 0.03386892 -0.05849079 0.06974091 0.1042436
-0.019046312 -0.06344813 -0.02846567 -0.06382942 0.011958031 -0.058939487 -0.007115191 -0.067228585
0.062243093 0.119020104 0.06422643 0.08061392 -0.018477751 -0.056820452 -0.0702093 -0.017110467
00000000: 51e3 993d 6e52 b73d b770 54bd 2f02 d93c
00000010: 6197 773d 2d69 5cbd 8e7f 793d 0ca3 ffbd
00000020: 5027 59bd ba03 b63c e4a6 14bd 0a3b cd3d
00000030: 062c 87bb 511c b63d 8c7a 3d3d d830 443d
00000040: 2aa7 cab8 20d9 a33d be51 28bd 8f18 e13d
00000050: 14ea bd3d be64 513d 144f 6bbd 468b 32bd
00000060: 7a99 303d 024d b53c 2530 77bd b652 c13c
00000070: 6ea2 2f3d a04b 43bd e5ab f3bc 1eb4 a93d
00000080: ce03 fc3d 02a6 9dbc cc9b 9fbd 7ce9 2dbd
00000090: c503 59bd 3020 293d 92b7 823d f38c c23d
000000a0: 24c4 423d d0a1 8f3d 7ad9 883c c07c 22bd
000000b0: 4bc8 8fba 7192 d4bc 44fb 62bd 9356 e03d
000000c0: a859 adbd cd99 acbc e10b 573d f60e 2d3d
000000d0: d9bb 9fbc 8fd4 683d 6ba9 45bd 54a5 73bd
000000e0: f0ed a53c 292c 933d d434 d43d 2b8f b8bd
000000f0: 5c5c f33d 8f6c 67bc f47f bc3c 085e d23d
00000100: fdd2 803d c5f7 8abc 4e08 bc3d 0cd1 833d
00000110: 80a5 a9bc 8a7a 8f3d b8ee f6bc 5ee5 fc3d
00000120: a005 ae3d 5c1c 07bc 5157 9a3d 53fa cd3d
00000130: 5a2b 25bd a353 97bc d1c8 ad3d bc0c 7abc
00000140: 8319 f33c 8b04 963d 84df 813c f087 cebd
00000150: a159 313d e0a1 52bc 928b f73d 43ca a33d
00000160: 6502 ed3d 0ae7 07bc e495 3c3d a426 963a
00000170: 958d 4bbc ebd0 f6bc 8163 0d3e 3563 903d
00000180: 3fc2 ecbd 750a a13d 3b53 123d c679 50bd
00000190: 16b1 88bc c3e3 bb3c 7249 773b db4c 54bd
000001a0: a932 2c3d 7676 903d 772c b0bc 4d91 943b
000001b0: 23ba 0a3d 0a94 6fbd 52d4 8e3d ab7d d53d
000001c0: 0307 9cbc 18f1 81bd d630 e9bc 00b9 82bd
000001d0: 9eeb 433c 886a 71bd 8c26 e9bb 24af 89bd
000001e0: 9df2 7e3d d0c0 f33d 2689 833d e918 a53d
000001f0: a75e 97bc 90bc 68bd e5c9 8fbd 402b 8cbc
