trained_models/cvrp/XE_7/model_incumbent_vrpRl13_C_XE_7_T_0.1_25103.pt (torch_old, 469732 bytes, 15 tensors)

all_embed.embed.weight f4 [128, 4]
00000000: 87f9 093f dc2e 6fbe 84fc cabe ab4c eebe
00000010: bb3d 4b3e a16e 0cbe baf3 f7be db61 febe
00000020: 1c64 a8be 9609 9f3e 0154 02be 0364 4f3e
00000030: f95d 1e3d 7319 423f 2768 d8bc ff72 8b3e
00000040: dc51 a7bd 9a96 33be 385e fdbc 367d 26be
00000050: f619 01be 72a7 33be 9c0c 82bd 586b 01bd
00000060: fe45 edbd a423 4fbe dc42 de3d 20a4 d53b
00000070: 6da9 793e 16a7 b5be 56fd 39be 968d 813e
00000080: a48c 953e f61a 423f 951c 1bbe 1b20 08be
00000090: a84f d1bd fe9b bdbd 5c9c e33d 604a b73c
000000a0: 438d b33e 6534 453f 6efb 22be 1eee 1f3e
000000b0: 251a ec3e 7eb9 90be 7927 433e 856a 823e
000000c0: 226f fcbe f624 233e ad36 debd d19b cebd
000000d0: 1292 3fbe 001d 3dbc f785 ecbd b326 4bbe
000000e0: 5737 fc3e 027e 85be a5a2 663d 5220 213e
000000f0: 7f2a 523f 3010 2c3f bb89 6f3d 5911 833e
00000100: 6dc4 373f f90c 963d 9682 57bd 51b6 213e
00000110: 6df6 e4be 61be 523f bc31 d4bc a00a e43e
00000120: abeb 8c3e 12fc 4b3e c78b 15bf 877e c1be
00000130: 1a46 2d3f 6a73 0bbe 3d87 993d a257 6d3c
00000140: e838 833e cf24 10bf 4f7b aa3d 2452 1dbd
00000150: 46f9 483e 7466 d1be 954d 1cbe b3ba 143e
00000160: ef88 35be 431d 0a3d a0ef 143e 95e9 b2bd
00000170: 7594 3cbe 9c8b 003d c80b cbbc 60b8 2f3d
00000180: 5b11 c43d f6c0 2d3e 0d5e 10bf 2279 d0be
00000190: a553 083f 7ab5 273e de9c 16bf ea44 25bf
000001a0: 6450 8f3d 1003 04bd ca34 11be 4c49 29be
000001b0: d806 27be 260e 063e 6a96 363e f040 e7bc
000001c0: abd3 d1bd e501 e43e 3414 c1bd 092c 1d3e
000001d0: 1be1 2ebd 6da3 ae3e c82d 1fbe 097d 20be
000001e0: 4fe3 233f 7214 b4be 1eef b83d 8a14 3c3e
000001f0: 31d8 da3d f74a c3bc d97e df3c 36c4 c23e
00000200: f4b9 9b3f 2474 ce3e d21e e93d 3c91 b5be
00000210: a29b 4f3f fb98 883d 106c f9bd 09f6 c43d
00000220: 9a16 6bbe 8dce 163f 2447 b7be 7ca9 13bd
00000230: b053 583d 261d 93bd bcfa 18be 6427 9b3d
00000240: aade 723e 86c3 19bf ae18 0fbd cf2e 003c
00000250: 3946 7d3f 627b 293d fe61 03be 2c77 9dbd
00000260: 65e9 313e 958c 9f3e ec68 63be 899c 9fbe
00000270: 336e 903e e447 403f 1d91 91bc 4017 fa3c
00000280: c296 523e a085 3a3f 0fbc 41bd 550a 4b3c
00000290: 22a2 53be 3c3c 3cbd c0cc 4bbd 000b 36bb
000002a0: 1bb3 c3be fd07 4c3e cde9 683e 5ad0 c43e
000002b0: 91ed e83e 32d5 e23e 5a86 f6be 6caa 20bf
000002c0: 32dd 5b3e 1bda 403f 8dd2 063e 81cf 5c3e
000002d0: 84de 623f f237 43be 45c2 d03d 12d6 33be
000002e0: ea61 113f 6953 cc3c 0491 f8be adbf 0cbf
000002f0: 88b4 7abd 1791 ecbd f6ed 443e 3e20 33be
00000300: a077 413f 477a 2abe a88f 1c3e 136e acbc
00000310: c803 593e 0896 a3bd 6073 9abb f6fc 98bd
00000320: cbf6 8f3e 0ccc af3e 9ff7 07bf 5c52 fcbe
00000330: f0d0 12bd 04fe 2fbe bc36 be3d 0ace 07be
00000340: 4a75 6a3f a775 563e dd2b e9bd 3007 933c
00000350: e483 30be 109e 8cbd 8173 fabd 5f7e f2bd
00000360: 4bed 3f3e 7ae3 8dbe aaf0 9dbe d5dd c03e
00000370: a6ab 0d3f 2c95 b23e 8ca3 223e f8f7 1a3e
00000380: 349c b03e 48b1 e2be 25b8 383e bbd9 9a3e
00000390: 2be3 2d3f 3b1c 6c3e c4ec eebe 9751 10bf
000003a0: 2054 023d 4457 fe3d 9014 41bd 14de 27be
000003b0: f51b 0a3f a2be 0b3e f726 1dbf 114a 2bbf
000003c0: a133 ac3e 7cf0 a43e ab61 16bf 7768 c9be
000003d0: 202e 263f 4f71 e9be 5848 4abe 4c4e 083e
000003e0: 74fb 443f b0d7 babd ff2d 33bd 7c48 a83d
000003f0: 720d 8f3c ba13 2b3f 4262 3abe fe9c 12bd
0.53896374 -0.23357719 -0.3964578 -0.46542868 0.19847767 -0.13714077 -0.48428136 -0.49684033
-0.32888877 0.31062 -0.12727357 0.20252995 0.038663838 0.7582008 -0.026416851 0.27236173
-0.0816991 -0.17537919 -0.030928716 -0.16258702 -0.1260756 -0.17544344 -0.06350061 -0.03159651
-0.115856156 -0.2022844 0.10852596 0.0065198094 0.24381037 -0.3547904 -0.18163046 0.25303334
0.29208863 0.7582239 -0.15147622 -0.13293497 -0.10220271 -0.09258269 0.111138076 0.022374332
0.35068712 0.7703307 -0.15916225 0.15618178 0.46113697 -0.2826652 0.19058026 0.25471893
-0.49303538 0.15932068 -0.10850272 -0.10088313 -0.18708065 -0.011542559 -0.11548989 -0.19838981
0.4926097 -0.260727 0.056307454 0.15734985 0.82096094 0.672122 0.05848096 0.25599173
0.71784097 0.07326693 -0.05261477 0.15792204 -0.44719258 0.82321745 -0.025902621 0.44539356
0.2752355 0.19920376 -0.5841641 -0.37791845 0.6768509 -0.13618246 0.07496498 0.014486225
0.25629354 -0.56306165 0.083243005 -0.038408414 0.1962634 -0.40898478 -0.1526397 0.14524345
-0.17728017 0.033719312 0.14544535 -0.087359585 -0.18416007 0.031383142 -0.024785891 0.042900443
0.09573623 0.1696814 -0.5639351 -0.40717417 0.5325263 0.16377822 -0.5883311 -0.6455828
0.06997755 -0.032229483 -0.14180294 -0.16531867 -0.16311204 0.13091335 0.17830816 -0.028229207
-0.102454506 0.44532695 -0.094276816 0.1534883 -0.042695146 0.3410906 -0.15544808 -0.15672697
0.6401872 -0.3517185 0.09029983 0.1836721 0.106857665 -0.023839457 0.027282165 0.38040322
1.2166123 0.40322983 0.11382832 -0.35462368 0.8109685 0.06669804 -0.121788144 0.0961724
-0.2295784 0.5890892 -0.35796463 -0.036050305 0.052814186 -0.07183294 -0.14939398 0.075758725
0.23717752 -0.6006397 -0.034935646 0.00782366 0.98935276 0.041377433 -0.1283035 -0.07688746
0.17374189 0.31161943 -0.22207993 -0.31174114 0.28209075 0.75109696 -0.01776939 0.030528665
0.20565322 0.72860146 -0.047298487 0.0123926 -0.20667318 -0.04595588 -0.04975581 -0.0027777553
-0.38222584 0.19924922 0.22745438 0.3844021 0.4549375 0.4430328 -0.48149377 -0.62760043
0.21471098 0.753328 0.13166256 0.21563531 0.8862078 -0.1906431 0.10193304 -0.1756213
0.5679003 0.024942117 -0.48548138 -0.54979974 -0.061207324 -0.11551111 0.192314 -0.17492768
0.7557316 -0.16648208 0.15289176 -0.021048581 0.21192849 -0.079876006 -0.004713461 -0.074701235
0.28117976 0.34335363 -0.53112215 -0.49281585 -0.03584379 -0.17186743 0.092877835 -0.13262191
0.9158522 0.20943318 -0.113853194 0.017947763 -0.17237812 -0.068660855 -0.12229062 -0.118405096
0.18742864 -0.27712613 -0.30847675 0.37669244 0.5534004 0.34879434 0.158827 0.15133655
0.34494174 -0.4427588 0.18038996 0.3024424 0.67924756 0.23057644 -0.46665013 -0.56374496
0.03181851 0.12418988 -0.04713875 -0.1639331 0.5394891 0.1364694 -0.6138758 -0.6690989
0.3363314 0.32214725 -0.5874278 -0.39337513 0.6491413 -0.4559426 -0.1975416 0.13311118
0.76946187 -0.091231704 -0.043745037 0.0821695 0.017462466 0.66826975 -0.18201545 -0.03579425

all_embed.embed.bias f4 [128]
00000000: c5b5 91bd a171 9d3e 295f 283f 9c14 833e
00000010: 1c2b bfbe eec0 f9be 1848 febe b853 b33e
00000020: 63e8 f33e 048d 8fbe 960e a63e 6acc 88bc
00000030: b2ea 3e3f 38a3 eebe a9a4 1c3d 2dbf 063e
00000040: c350 333e 2043 97bd 6154 fb3c 5c03 a13d
00000050: 4b89 0c3f 4c44 6f3e 777a 03bc 206b 8cbe
00000060: 08ef 493e f04d fe3c 1814 d2be 0441 f9be
00000070: b199 cb3d e17a 143f 3de2 b03d 039f babe
00000080: 9d62 0e3f 2212 1abe a085 183f dc95 e7be
00000090: c73b 0b3f bed6 493e 6b4e 213e af3c 58be
000000a0: 67a4 cfbd 081d acbd 1922 05bd f81a f2bd
000000b0: 565d 933e d356 b03e 8fd6 d3bc 2480 1fbe
000000c0: 7857 913e 9ebb ffbe f48c 273e c672 84be
000000d0: 8664 aa3d 285a 76be df01 30be ca72 1b3e
000000e0: 0aa6 963d 1520 71be b0f3 fcbe af34 943d
000000f0: c2fe 8ebb dd17 613e 348e 79bc 865b fb3d
00000100: ac0b 89be 1a77 9bbe 3cda 29be e738 e93e
00000110: edc3 ba3e 882b 31be 629b 123f be98 283e
00000120: d9af 033f 9a43 a53e 8095 e73d d651 1a3e
00000130: b22a 0a3e 6642 83bd 09cd 2b3e a1c8 4b3e
00000140: f6fe 033e 5446 4ebe 54b1 913e 7e03 a1be
00000150: ecba 983e b2c6 ff3c 341e 7bbe 308c f0be
00000160: 16bb b1be f3bd 233f eff1 b93e a9db 353f
00000170: 95e8 debe 822d 93be 4d4e b43d 32d2 9f3d
00000180: 23f9 dd3d 243c 713e ff3f 8bbd 24da 98be
00000190: fdf2 983e 9a5a 8abe e6b6 ee3e 5c56 3e3e
000001a0: 1a88 f7bd c014 86be 2e19 8bbe d0a4 d43e
000001b0: 4508 1e3f 3b8b 4ebe 4d45 eebc 5ee6 b4be
000001c0: ce6e 8e3d 8988 013c 75bf 8d3e 6b56 59be
000001d0: ce1f df3e 85ed e8bd 791e f03b 9a5c b03e
000001e0: 1b96 7a3e ea2e 0e3e c2f5 2b3e 2c97 cb3b
000001f0: 1489 973e 5a28 fc3c b841 c7be 8787 833e
-0.07114748 0.30750754 0.657702 0.2560166 -0.37337577 -0.48780006 -0.49664378 0.3502481
0.47638234 -0.28037274 0.32433003 -0.016699035 0.74576867 -0.466089 0.03824297 0.13158865
0.17511277 -0.0738585 0.030679883 0.07861969 0.5489699 0.23365897 -0.008024803 -0.2742548
0.1972009 0.031043023 -0.41030955 -0.48682415 0.09941424 0.58 0.086369015 -0.3644944
0.5561922 -0.1504598 0.59578896 -0.4523152 0.5438809 0.19710824 0.1575257 -0.21116899
-0.10138779 -0.08403975 -0.03250322 -0.1182155 0.28782147 0.34441242 -0.025859145 -0.15576226
0.28387046 -0.49947828 0.16362363 -0.25868815 0.083199546 -0.2405783 -0.17188214 0.15180507
0.07355888 -0.23547395 -0.4940467 0.07236611 -0.0043638656 0.2198176 -0.015231658 0.12273316
-0.26766717 -0.30364305 -0.16587156 0.45551226 0.36477605 -0.17301762 0.57268345 0.16464517
0.514402 0.32278138 0.11307812 0.1507028 0.1349285 -0.06409149 0.16777433 0.19900753
0.12890229 -0.20144016 0.28455603 -0.31447977 0.2983011 0.031222675 -0.2452324 -0.46981955
-0.34713048 0.63961715 0.36317393 0.710383 -0.4353682 -0.28745657 0.08803997 0.078037634
0.10838535 0.23558098 -0.06799316 -0.29853928 0.29872885 -0.27022249 0.46623915 0.18587631
-0.12086506 -0.26187706 -0.27167648 0.41531992 0.6173137 -0.201703 -0.02908578 -0.35332006
0.06954728 0.007906088 0.27685133 -0.21224372 0.43578953 -0.11373428 0.0073278514 0.3444565
0.24471323 0.13885084 0.16792968 0.0062130895 0.2959677 0.03078096 -0.38917327 0.25689337

all_embed.embed_2.weight f4 [128, 128]
00000000: a575 f23e 98c5 b63e e790 66be 8bd2 48bc
00000010: 6909 04be e09c 0e3d 3060 653d f4c5 ef3b
00000020: 5c21 6cbd b9fd 123e d8c4 08be ec9e a0bd
00000030: a557 e0bd 7f60 053e f2e8 96bd ed2d 17be
00000040: 0093 033d 2187 863e 1389 013e 392b b9bd
00000050: 59a3 903d c001 3fbd 9238 5dbd 0cef ddbd
00000060: 018d 683e 7c26 993e e593 88bd c252 f73d
00000070: 6015 0cbe 6b66 aebc b40e 833d f863 803d
00000080: 5ccc 8a3d cbb8 01bc 9db1 0bbd 0053 333d
00000090: 0d59 0d3e a6d3 1dbe dcff 533d 1694 a33d
000000a0: dfc5 14bd 6771 0b3e 211a 883e bf14 c63e
000000b0: 2d0c 9abe 46bc bf3d 9065 ae3e ead3 a43d
000000c0: 4d85 1e3d 9ee1 ba3d e5ff 263e 5cdd 16be
000000d0: 8e2d 323d 300b a1bc 7ccf 0f3d b785 2ebe
000000e0: c677 15be 539a 0e3e e467 593d 6b81 c63e
000000f0: f6d8 8e3e 33f5 b73d f721 0abe a20f 933d
00000100: 9ccc 553d ad50 53bd 682a 733e 7132 903c
00000110: 39c3 f03c e0b1 b7bb 2310 9ebd 5e4d 5cbd
00000120: 5d44 0bbe ad24 323d 988a 153e e1d4 0c3d
00000130: 36fb 6ebd 2338 1fbc 2cd7 103d c997 e73d
00000140: ecd1 6abd 5021 49bd c697 ddbc c36d 14be
00000150: 6856 643e 4ad0 a73d 53e4 743e aa59 ff3d
00000160: b045 7cbd 54b3 ecba 039d b1bd fa24 c33d
00000170: f242 d13c 71a6 1a3e acdd 1bbe 3684 a9be
00000180: 45ab a23c f461 2dbe 4b19 b8bd 901e 7dbc
00000190: 3fb4 2fbd 8709 a7bd 3129 353e 83df 9f3e
000001a0: e66e c7bc c0cf 1c3c a409 013d 105a 53be
000001b0: dc38 33be 9cc3 5cbe 60d8 a63d bd2c 8dbd
000001c0: f12d 46be 3653 7a3d e736 6c3e 8f9d a2bd
000001d0: ef87 35bc 0b60 c03d 55dd 8abc 81bc 86be
000001e0: 01f8 d1bd 3525 493c d1d7 113e fbd9 403e
000001f0: 97a3 01be 8417 7e3d d88e 443d 6ba4 44bd
00000200: 91c9 0abd f137 a73d 6674 ab3d 619e b2ba
00000210: ea68 ab3d bee7 b43d 4644 d73d 4c67 07be
00000220: d3e8 323e fe69 a43d aaa5 25bc 8683 06be
00000230: fa73 033e 552c 103e 2bd0 2dbe e5bc c93d
00000240: aacd 353d 0d71 1c3d 8212 853d 96af 23be
00000250: 1631 a5be cfb5 72be 227c 1dbe 30a2 b43d
00000260: 4976 0f3d 0743 4e3e e0ba ebbd c222 f0bd
00000270: 4906 483e 98df a33d cd5b 05bc 24e3 633e
00000280: d7fa 1a3e 502f b3bd d774 b6bc ac67 adbd
00000290: 67b8 c5be 71af 58bd 4db3 543d 2370 273e
000002a0: 4da1 a43e b429 edbc 913d 513e 000a d63d
000002b0: f118 483e c355 f4bd 09c9 95bd a06f ab3c
000002c0: 9a29 4abe 5a09 d63d fe43 313e b6eb 02be
000002d0: 2d15 e4bc 86c7 c93d 54eb a5bd 5cdf 57bd
000002e0: f67e 4dbe b9d0 483e 4008 cb3c e25e 853d
000002f0: 06a7 e1bc bbaf 97be 901d 9cbd a8ae 8a3e
00000300: bd70 1c3e 7074 1e3e 8200 133e 2137 51bd
00000310: 4275 833d b335 acbd d8e6 2d3e 947a 883e
00000320: 47e4 813e 07a4 21bc 4f4f 163d 05cd 52be
00000330: 98a1 44bc 14d9 0bbd 7020 88be 1583 4e3d
00000340: 2534 303c 70c3 0e3d 9fee 613e eb00 cf3d
00000350: 235e cdbd 755c 3e3e b57e 733e 40a6 8f3d
00000360: 5d21 4f3d 848b 443d 987e 26be c93e a3bc
00000370: 2131 f23d 7ed4 f63d 93d6 2fbe 8a11 193e
00000380: c2ab 513e a5e4 903e 8547 6cbd fe97 b93d
00000390: b929 28be 50d1 d73d 2e30 a0be 118a 953d
000003a0: 05f1 2d3e 9aad 1bbd 6b03 afbd 8ce6 f83d
000003b0: c4cc 883e ab40 a03e 4397 69bd 4199 03be
000003c0: 0fa5 ba3e 9fdc 46be 998b c43d 5cbf 8b3d
000003d0: 5b18 cebd c1a1 32bd cb4d 4f3e 232f 243e
000003e0: f04e 073d f638 c8bd b586 5c3d 756d 403e
000003f0: 653b 493e 423d 3dbd 0a82 ec3d 6149 8abe
0.4735538 0.35697627 -0.22516213 -0.012257229 -0.12894215 0.034817576 0.055999935 0.007317299
-0.057649 0.143546 -0.1335634 -0.07842812 -0.10954217 0.13025092 -0.073686495 -0.14763613
0.032122612 0.2627497 0.12649946 -0.09041447 0.07062406 -0.04663253 -0.054009028 -0.1083661
0.22710039 0.29912174 -0.06668834 0.12076332 -0.13680029 -0.021289071 0.06399289 0.062690675
0.0677726 -0.007917593 -0.034104932 0.043780327 0.13803501 -0.15412769 0.05175768 0.079872295
-0.036321517 0.13617478 0.26582435 0.38687703 -0.30087414 0.09362082 0.3406186 0.08048232
0.038701344 0.09125064 0.16308554 -0.1473288 0.043500476 -0.019658655 0.035109982 -0.17043196
-0.14596471 0.13926058 0.053077593 0.38770613 0.27899903 0.08982315 -0.13489519 0.07180716
0.052197084 -0.05159061 0.23746645 0.017602177 0.029389964 -0.005605921 -0.077179216 -0.05378472
-0.13600297 0.043492008 0.1460365 0.034382705 -0.058345042 -0.009717974 0.035361454 0.113082476
-0.057329103 -0.049104035 -0.02704991 -0.14494996 0.22298586 0.08194025 0.23915224 0.12468274
-0.061589897 -0.0018058815 -0.08672526 0.09528537 0.025544617 0.15102555 -0.1522128 -0.3310868
0.019857058 -0.16931897 -0.08989199 -0.015449181 -0.042896505 -0.08156114 0.17691495 0.31225213
-0.024344873 0.009571016 0.031503335 -0.20639825 -0.17502159 -0.21558994 0.08146739 -0.06893299
-0.19353463 0.061114512 0.23067819 -0.07940208 -0.011079772 0.09393319 -0.016951242 -0.26315692
-0.10252381 0.012276937 0.14242484 0.18833153 -0.12660061 0.062034145 0.04798779 -0.048008364
-0.033883635 0.08164967 0.083718106 -0.0013627523 0.0836962 0.08833264 0.10511069 -0.13222998
0.17471628 0.08028029 -0.010110298 -0.1313611 0.1283721 0.14079411 -0.16973941 0.09850482
0.04438559 0.03819375 0.06497671 -0.1598495 -0.32264012 -0.23702167 -0.15379384 0.08819997
0.035024915 0.20142756 -0.11510253 -0.117253795 0.19533648 0.080016315 -0.008139563 0.22254616
0.1513475 -0.087492585 -0.02227251 -0.084670395 -0.3861725 -0.05290169 0.051928807 0.1635137
0.32154313 -0.02895055 0.20433642 0.10451126 0.19540764 -0.1193042 -0.07313735 0.02092725
-0.19742432 0.104510024 0.17311093 -0.12785229 -0.027842129 0.09852509 -0.08101526 -0.052703246
-0.20067963 0.19610871 0.024784207 0.06512238 -0.027545463 -0.2962626 -0.07622826 0.27086377
0.15277381 0.15474105 0.14355662 -0.051077966 0.064188495 -0.0840868 0.16982591 0.2665602
0.25369474 -0.009865767 0.03669673 -0.20586021 -0.012001418 -0.03414257 -0.26587248 0.05041798
0.01075462 0.034854352 0.22063683 0.10107597 -0.10027721 0.18589957 0.23778804 0.070141315
0.050568927 0.047984615 -0.16259229 -0.0199274 0.11825777 0.120522484 -0.17171697 0.14948097
0.20475677 0.28299442 -0.057685394 0.09062193 -0.16422166 0.1053797 -0.31286758 0.07301725
0.16986473 -0.038007356 -0.08545574 0.12153348 0.26718724 0.31299338 -0.05702902 -0.1285143
0.36454055 -0.19420098 0.09596939 0.06823608 -0.10063239 -0.04361129 0.2024452 0.16033606
0.033034265 -0.097764894 0.053839404 0.18791755 0.19651563 -0.046200998 0.115482405 -0.2700911

all_embed.embed_2.bias f4 [128]
00000000: dd4f cbbd 0207 e33d 12d4 dfbd 8db5 96be
00000010: a24a 81be c60f b43d be54 c4bc 62cb 093e
00000020: b6d8 b83d 8729 53be fe7c 2abe 7df1 32be
00000030: be26 ab3d 8119 173e b974 91bc 19cb 1fbe
00000040: c33d 6c3d 6d11 0dbd 55c6 24be 8638 b1bd
00000050: b9e8 9bbd 8a1e 243e 1d1e 803d 9cf8 d2bb
00000060: f840 0bbd 0666 493d 01c8 573d f4e2 b23d
00000070: c84d 95bb 2905 1bbe f6f6 8bbb 22e9 a7bd
00000080: baf3 813e 0e34 d2bd 50d5 f7bc 3248 12bc
00000090: a16f 86be 6d01 32be 3327 a13b ff1b 743e
000000a0: 744a 55be ef1b 813e 5b9e 683c d506 103d
000000b0: 31e6 eb3c 7d9c 0bbd c60b 1bbe 70de 723d
000000c0: 7c17 babe d798 81be ecde a03d 2733 1e3c
000000d0: 0d90 8b3d 64cf 84bd 81c8 3cbe fcfb 28bd
000000e0: 70bb 52bd b749 0e3e 07bb 6d3d dc2e 46be
000000f0: 424e 9abd 8133 b7bd 7650 4e3e 4a61 4dbe
00000100: f9bf 13be d5ec 8dbd 4402 6cbd 5b67 99bd
00000110: 47b6 f13d 9c35 9dbd 4fbe dbbe 3b82 d7bc
00000120: bc02 16be 5ae6 903d 3a26 e73d 11e0 fcbd
00000130: c93c 06be 9012 9f3b 9020 1ebe 0475 db3d
00000140: 3bf6 13be 54fb 32be d851 56bb f984 debd
00000150: b807 e339 d7e9 b7bd 2432 17be 6347 b2bc
00000160: 24af 973d 3672 8fbd 5340 fcbd adab 12be
00000170: 17df 6cbe 2b71 5abe fd76 6abc 84ca 023d
00000180: 9a3d 183e bb4a 08be a2d7 04be af2c e5bc
00000190: 8f64 1dbe 0db3 26bc a4b5 bdbd 9631 3dbe
000001a0: 9792 e5bd b688 6cbd 191d d0bd e337 32be
000001b0: 0bcc 6abc e697 07be c030 17be 7131 7b3a
000001c0: 7400 05be 6500 adbd 599a 283e 46ff c0bc
000001d0: 0165 6c3e 4add ec3c 8bc9 84bd 3beb 91bc
000001e0: ad86 863d 1f90 92be c651 9d3d f5aa 44bb
000001f0: 36cb ddbb 82b6 22be 0271 08bd 79ed 263a
-0.09927342 0.11085321 -0.10929121 -0.29435387 -0.25252253 0.08792071 -0.02396619 0.1345649
0.09025709 -0.2062131 -0.16649243 -0.17474933 0.08356999 0.14755823 -0.017755853 -0.1560482
0.057676088 -0.034440447 -0.16091283 -0.08653359 -0.07612748 0.16027275 0.06255744 -0.006438328
-0.033997506 0.049169563 0.052680973 0.08734694 -0.0045563914 -0.15138687 -0.0042713834 -0.081987634
0.2538126 -0.10263835 -0.030253083 -0.0089283455 -0.2625704 -0.17383356 0.004918003 0.23838805
-0.20829183 0.25216624 0.014197911 0.035162766 0.028796287 -0.034084786 -0.1514121 0.059294164
-0.36346042 -0.2531192 0.07855019 0.00965575 0.06814585 -0.06484869 -0.18435861 -0.041255936
-0.051448286 0.13895307 0.05803969 -0.19353813 -0.07534458 -0.089453705 0.20147881 -0.20056644
-0.144287 -0.06929938 -0.05761935 -0.074904166 0.11802345 -0.07676241 -0.4291863 -0.026307216
-0.1464948 0.07075186 0.11286588 -0.12347425 -0.13109125 0.0048545077 -0.15442109 0.10715678
-0.14449398 -0.17478687 -0.0032702591 -0.10865206 0.00043302565 -0.08980148 -0.14765221 -0.021762555
0.07406452 -0.07004206 -0.12316956 -0.14323302 -0.23131977 -0.21332233 -0.014310596 0.031931415
0.14867249 -0.13309757 -0.12972882 -0.027975408 -0.15370391 -0.010174525 -0.09263161 -0.18475947
-0.112096004 -0.057747565 -0.101618 -0.17404132 -0.014330874 -0.13241538 -0.1476469 0.00095822575
-0.12988454 -0.08447341 0.16465129 -0.023559224 0.23085405 0.028914113 -0.06483754 -0.017812362
0.06568656 -0.2862558 0.07681613 -0.0030009125 -0.0067686094 -0.15889934 -0.033310898 0.00063677836

pointer.v f4 [1, 1, 128]
00000000: 689d 413f 34cf a53f a11f 873f acc3 3540
00000010: f615 dbbe 7329 1b3f 2996 1940 0962 67bf
00000020: 1c79 83bf 3e1f 2540 96fe 4b3e 306c 9b3e
00000030: 5fe3 da3e 6a5e 85bf 9130 71bf 4d50 7ebf
00000040: b60b ed3e ba65 143f 087a 0e40 f4fa 483f
00000050: 1508 3540 dfad fbbe 6220 83bf fb6b 39bf
00000060: 01ab 69bf 324e 25c0 8579 2ebf 3894 8bbf
00000070: f253 aabf e549 273f 7150 94bf 7790 70bf
00000080: c5f9 bdbd ca88 4fbf de9d 2d3f 267e fcbf
00000090: f0c4 1840 00eb 7d3f 814a 97bf 965d 96bf
000000a0: 9c93 09bf 285d 2dbf 979d dc3f 7a4b 80bf
000000b0: cfd1 323f c61c 52bf 37f0 7e3e 72ce 8abf
000000c0: f802 3840 6beb c1be 03f6 62c0 7fe7 77bf
000000d0: 6463 21bf 4393 0540 eb71 1b3f b8e1 7e3f
000000e0: 2d66 8fbf 6d2f 36bf c294 99bf 6860 33bf
000000f0: d95f 69bf abb2 4840 0228 6fbf 9e68 0e40
00000100: 3ad7 733f 4f9b 40bf 7aad 23c0 5207 f2be
00000110: 5477 84bf 2450 c9bf 7b36 4b40 f9bf 913f
00000120: 7342 1e40 1d52 6b3f a947 2cc0 a52a 2940
00000130: ef66 0840 5120 a7bf 0818 0840 ee62 a93e
00000140: 4454 2cbf 1247 a4bf 0d64 cf3f 7822 093f
00000150: e631 7ebf b4bc 7f3f 3e90 cb3f 6d7a 7fbf
00000160: ce9f 8dbf 173b d13e 1163 703f d91e 5a3f
00000170: d9b9 9b3f e897 4a3f 452e d33e 99c8 88bf
00000180: f8ae cd3f e44e 003e 8399 303f 0132 62bf
00000190: 4d64 35bf 7583 83bf 3e96 8fbf ee3e fc3e
000001a0: 0c8f 573f 0c58 5c3f be49 86bf 7f51 8e3f
000001b0: 94e3 05c0 8aee 053f f80d 95bf 9ef9 6cbf
000001c0: 033d 5ebf 8bc1 86bf e7c2 88bf 2541 96bf
000001d0: b323 49c0 e47e 4f3f 7e01 4f3f 99df a8bf
000001e0: 2884 bdbf c86e 14c0 028c 8bbf 6cd4 a6bf
000001f0: 0ad9 0a40 b140 143f bb23 3ebf 1caa 6140
0.7563081 1.2953858 1.0556527 2.8400679 -0.42790192 0.6061012 2.39979 -0.90383965
-1.0271335 2.5800319 0.19921336 0.30355978 0.42751595 -1.0419438 -0.9421473 -0.9934128
0.46297997 0.5796772 2.2261982 0.78507924 2.8286183 -0.4915609 -1.0244257 -0.7243039
-0.91276556 -2.5828977 -0.68154174 -1.0904608 -1.3306868 0.6534713 -1.1587049 -0.93970436
-0.092761554 -0.810681 0.6781901 -1.9725997 2.38702 0.99186707 -1.1819612 -1.174731
-0.5374086 -0.6772027 1.7235593 -1.0023034 0.6985139 -0.82075155 0.24896322 -1.0844252
2.8751812 -0.37874922 -3.5462654 -0.9683761 -0.63042283 2.0871131 0.607207 0.9956317
-1.1203057 -0.71166116 -1.1998522 -0.7006898 -0.91161877 3.135905 -0.9342042 2.2251353
0.95250285 -0.7523698 -2.5574632 -0.4727121 -1.0348916 -1.5727582 3.1752002 1.138671
2.4728057 0.9192217 -2.6918738 2.6432278 2.1312826 -1.3056737 2.1264668 0.3308329
-0.6731608 -1.2834189 1.6202408 0.5356822 -0.9929489 0.99897313 1.5903394 -0.9979618
-1.1064394 0.40865394 0.93901163 0.8520332 1.2166091 0.7913804 0.41246238 -1.0686218
1.6069021 0.12530094 0.6898424 -0.8835755 -0.7085617 -1.0274493 -1.1217725 0.49266762
0.8420265 0.8607185 -1.0491254 1.1118621 -2.0920153 0.52317107 -1.1644888 -0.92568386
-0.86811846 -1.0527815 -1.068448 -1.173863 -3.142804 0.81052995 0.8086165 -1.3193237
-1.4805956 -2.3192616 -1.0902102 -1.3033576 2.169497 0.5791121 -0.7427327 3.5260077

pointer.encoder_attn.v f4 [1, 1, 128]
00000000: 0746 c33d ddfe ad3c 2fd3 f8bd 8204 c43d
00000010: be2e 8f3d 2267 193d 0d95 8bbc b95e f4bc
00000020: 6361 b63d 305d e6bc b948 0e3e 1478 2c3d
00000030: eefb 49bd 01f4 dbbc 5838 673d 7ee2 0c3e
00000040: db09 f3bd efbb 313d 3e1e 79bd 2ad7 a13d
00000050: f4a1 123d e109 09be 8a29 ee3d f18c 41be
00000060: d293 2f3d cef0 973d 374a d93d 472a babe
00000070: b746 49bd dd02 47be c9bb 0f3e 41f0 0b3d
00000080: 7b90 2d3e b453 06be f613 f43d 8471 263d
00000090: ad34 723c 22a1 363b e4aa 59bd a68b 8c3e
000000a0: 0201 afbd 6251 0abd 8ae2 29bd 0bc9 8fbd
000000b0: c177 d8b9 3a72 833d f663 ab3e dd70 19be
000000c0: bc7f 333d ae47 9ebd 88a4 3ebe 523b a53c
000000d0: d6c4 113d 69f3 023e 7e57 bb3d 9bda 2bbd
000000e0: acf0 67bd d6e2 4fbe f56f 40bc c809 d03d
000000f0: fe09 f2bd 43f0 adbb 97db 19bd a12d 8fbd
00000100: 50e3 873d 0a25 9dbd ff8b 45bd e713 4bbe
00000110: 7b61 6cbc 75ab 703e 8cd3 7d3c 231d 39bd
00000120: 4bf7 44be 0484 8c3d f0e2 9abc 56bc 39be
00000130: 475a d9bd a144 213d 6657 f4bd 084a fbbc
00000140: 0ab3 4b3d cf27 15bd b199 293d 4e51 af3e
00000150: 7271 c23d 004c bb3d 09cd 4cbd 1cd4 043e
00000160: 4031 90bd 7609 e9bd 6d70 333d 2a98 e4bd
00000170: b03f 79bd 0c84 8c3c c7dc 503d de52 8ebd
00000180: cb19 66bd 68bc cfbd 66bb 433d a4fb df3d
00000190: 9f32 97bd afe3 a1bd dd44 1fbc ce0d ccbe
000001a0: 1048 90bd 1597 86bc 4863 82bd 9bb3 31be
000001b0: 94e6 cbbd adcf 963d 0c20 60be 16dd 0c3e
000001c0: 5f84 c23d 97b4 ae3c 4137 bebd 869b 803c
000001d0: 00d7 9a3d c7c7 a43e 487a a0bd d493 cd3e
000001e0: a5ff 983e ebf3 893c 9833 6f3e d8ef 1dbe
000001f0: 1919 0f3e 9e18 e8bd 635d db3b 2207 51bd
0.09534841 0.021239692 -0.12149655 0.09571172 0.06991337 0.03745187 -0.017038846 -0.029830324
0.08905294 -0.028120607 0.13894929 0.042106703 -0.049312524 -0.026849749 0.056450218 0.13758275
-0.11867114 0.043392118 -0.060819857 0.079023674 0.03579898 -0.13382675 0.11629017 -0.18901421
0.04286558 0.07418977 0.106098585 -0.3636038 -0.049139705 -0.19434686 0.14036478 0.03416467
0.16949646 -0.13117868 0.1191787 0.0406356 0.014783067 0.0027867039 -0.05314149 0.27450293
-0.08545114 -0.03376902 -0.04147581 -0.07020768 -0.00041287954 0.06418271 0.33474702 -0.1498446
0.04382299 -0.077285156 -0.18617451 0.020169888 0.035588108 0.12788166 0.09147547 -0.041956525
-0.056626007 -0.20301375 -0.011745443 0.101581156 -0.11818312 -0.0053081824 -0.037562933 -0.06991125
0.06635153 -0.0767308 -0.048229214 -0.19831811 -0.014427538 0.23502906 0.015492331 -0.045193803
-0.1923496 0.068611175 -0.01890704 -0.1813825 -0.10612922 0.03937209 -0.119307324 -0.03067495
0.04973129 -0.036414918 0.041406337 0.34241718 0.09494294 0.09145355 -0.050000224 0.12971538
-0.07040644 -0.11378758 0.04380839 -0.111618355 -0.060851753 0.017152809 0.0509918 -0.069493994
-0.05617694 -0.101433575 0.04778614 0.109366685 -0.07382702 -0.07904755 -0.009721008 -0.39854282
-0.07044995 -0.016429463 -0.06366593 -0.1735367 -0.09956089 0.0736383 -0.21887225 0.13756213
0.09497904 0.021326346 -0.092878826 0.01569916 0.07560539 0.32183668 -0.07835823 0.40151846
0.2988254 0.016839942 0.23359525 -0.15423524 0.13974418 -0.1133282 0.006694482 -0.051032193

pointer.encoder_attn.W f4 [1, 128, 256]
00000000: fd3c b4bc 9317 853d c9bd 24bd 3929 4cbd
00000010: 2acc 22bc 4923 9bbc 2bf4 b6bd 4ea0 263d
00000020: 6f47 0f3c 7322 a2bd 66b8 423c 79be c3bb
00000030: 4dff 88bc 0867 eb3d 6496 793b e651 b7bc
00000040: 5b2b bbbd f2cc 39bb ce39 dbbd d792 9ebc
00000050: 108b 003b 04ae 1c3d 7dab 483c e814 d83c
00000060: a553 003c fca5 a4bc 6675 b83b ffbe b93d
00000070: 25a4 013d 4ca0 19bd 63fb bd3d b1d8 b4bc
00000080: 49e3 91bd 939d 523b 3949 55bd 4ab5 eb3c
00000090: df73 c1bd b72b 96bc 6249 f33c 91e7 983d
000000a0: 5db3 9cba 5f11 e03c 83e3 11bd d282 563d
000000b0: ba11 48bd ce33 d03b c268 05bd f402 20bc
000000c0: a9b4 a1bd c9e1 623d f08e 9abb bbb7 6c3d
000000d0: b127 953d 6107 c8bd fa52 88bb 864f 11bd
000000e0: 567b 693d 00a1 4d3d c4ca 883d 2f7e 55bc
000000f0: a597 903b 1153 eabc 1b89 993d e2f6 e9bd
00000100: b02a 16bd 98e3 8e3a bcde 4ebb 23e3 ca3c
00000110: a7c5 063c c117 e23c aa2d 0abe a021 a63c
00000120: aae1 05be 48a7 59bc b9b4 923d be37 8c39
00000130: 03fd a2bc 5afe 873c c5cb 96bd 446a 5d3b
00000140: 10d4 363c a84b 09bd 9017 1bbd b359 fcbb
00000150: df53 c03d 2709 69bc 7ea6 2cbd f4db 203c
00000160: f4d5 1a3b c4cd 18bd 619a 28bd 22e3 20bd
00000170: d7f1 28bd c2d7 b0bc 9dc4 d6bb 05e3 e73c
00000180: 9f6f 10bb a290 6d3a a05a 24bd c1b1 a73c
00000190: a7e5 cfbb d7ae d53d 232b d13c 7b51 a23c
000001a0: ea53 c9bc c3ca 95bc e311 77bc 9d49 6fbc
000001b0: ebdd 143c 6add b1bc 215d 313d d370 ebbb
000001c0: 2e58 4bbc 569b c9bc 95a1 543d d765 9b3c
000001d0: 4cf5 823d 6638 08bd 45d0 23bd 154d ff3b
000001e0: 0c99 0abd 04f3 53bd 8dd9 fa3d 88dd ed3c
000001f0: deb8 49bd 98a6 bcbb f58c 373d b863 0cbc
00000200: dc80 b63c d202 943d 5d02 b8bd d0a4 063e
00000210: 8a0d 85bd 7b58 243e 9a85 e0bd 41e3 e43d
00000220: 425a bd3d 5b03 22bd 5851 cebd 7151 32be
00000230: 56c2 b4bd b541 da3d f2da 61be e2b9 10be
00000240: 6edb 98bd 6c28 7e3d 72a9 113e 7bcc a6bd
00000250: 25d3 90bd 68cf ac3d bc3e a8bd c325 b2bd
00000260: 51e2 a63d 26e9 0a3e 0634 463c 7f50 083e
00000270: ee40 f43d e3bd 943d f88f f13d ccf1 1cbe
00000280: 3ca8 b63d 7bbb c5bd 2f4e ccbd 4eda 82bd
00000290: 79e0 d9bd d4db d8bd 35a0 683d c3f8 723d
000002a0: a7b8 bf3d 9bad 403d 93a9 453e a989 353e
000002b0: c808 a9bd 9de3 a8be 11fb 903c 49b5 37be
000002c0: 14e1 013c 4167 c3bd 6966 84bd 9080 5c3d
000002d0: 8c1f ba3d 760f 433d a7b3 49be d297 843e
000002e0: 2b0a c03d 2a42 ef3d 05eb 1ebe 1ae3 583e
000002f0: f289 8bbd 1b13 89bd 7392 583e c4d5 26bd
00000300: aacc a3bd 963b c8bd 1544 4cbe e51e d4bd
00000310: c304 fbbc 8448 da3d 4f65 a13d 1055 cebd
00000320: e396 223e 51f4 18be 8330 013e e19d d4bd
00000330: 1e83 ad3b cf34 163e 13dc f3bd d5ee 963d
00000340: 9d70 1f3e 2c18 af3e 96af 1f3b 94dc 83bb
00000350: ef96 eebd 00e4 0b3e c977 3ebe 8557 45bd
00000360: c925 193e 0638 0cbd 3db3 1bbe 6d4c a13d
00000370: 5120 9cbe 978f 1abd 0fc1 1bbe a2cc 0f3e
00000380: a5d0 3f3e 774d 25bd 407c 123d 6d6c 76bd
00000390: fb49 1bbe daa4 a93d 8255 3d3e 7886 0a3e
000003a0: 1217 db3c 063c 173e 35da cf3d 8d3b 063d
000003b0: b725 f13c 476a b5bd 138c 8f3d e07d 11be
000003c0: 3854 98bd 2cc2 793c 64e6 f7bd e334 6c3d
000003d0: 5d13 213d 4e19 f63d 1502 bb3d 0746 15be
000003e0: 5b8b e4bd cf05 b8bb e9a8 163c 5c8a c53a
000003f0: d423 a13d e79f dbbd 0914 3cbe f69e 3f3e
-0.022001738 0.06498637 -0.040220056 -0.049844 -0.009936372 -0.018937724 -0.0893329 0.040680222
0.008745058 -0.07916727 0.011884784 -0.005973634 -0.0167233 0.11494261 0.0038084025 -0.02237792
-0.09139129 -0.0028350917 -0.10704385 -0.019357128 0.0019614138 0.03825189 0.012247917 0.026377156
0.007832442 -0.020098679 0.0056292294 0.09069633 0.03165068 -0.037506387 0.09276464 -0.022075983
-0.07123429 0.0032137379 -0.052071784 0.028772969 -0.09445929 -0.018331392 0.029698078 0.07466043
-0.001195531 0.027352033 -0.035617363 0.052370854 -0.04884503 0.006353832 -0.032570608 -0.009766329
-0.07895786 0.055391107 -0.0047167465 0.057792407 0.07282961 -0.097670324 -0.004160282 -0.03547623
0.057002388 0.05020237 0.066792995 -0.013030573 0.0044126087 -0.028604062 0.07496854 -0.11424042
-0.036661804 0.0010901568 -0.0031565866 0.02476651 0.008225835 0.027599217 -0.13493982 0.020279706
-0.13074365 -0.013284512 0.07163376 0.00026744412 -0.019896036 0.016600776 -0.07363085 0.0033785263
0.011158958 -0.033519417 -0.037864268 -0.0077011227 0.09390997 -0.0142233735 -0.042150967 0.009818066
0.002362606 -0.03730561 -0.041162852 -0.03927911 -0.04124626 -0.021587256 -0.0065542 0.028306494
-0.0022039188 0.00090623845 -0.04012549 0.020470502 -0.0063445154 0.10433739 0.025533265 0.019814244
-0.024576146 -0.01828516 -0.015079948 -0.014604953 0.0090861125 -0.021712024 0.043301705 -0.0071850806
-0.01241116 -0.024610203 0.05191191 0.01896946 0.06394443 -0.03325691 -0.039993543 0.0077911713
-0.033837363 -0.05174543 0.12248526 0.029036298 -0.04924857 -0.005757164 0.04481216 -0.008568697
0.022278242 0.072271004 -0.08984826 0.13148808 -0.06496723 0.16049378 -0.109629825 0.11176158
0.09245731 -0.03955398 -0.10074109 -0.1741388 -0.08826129 0.10657064 -0.22056177 -0.14133409
-0.07463728 0.062050268 0.14224795 -0.0814447 -0.070715226 0.08437997 -0.08215091 -0.08698609
0.08148635 0.13565502 0.012097364 0.13311957 0.11926447 0.072627805 0.11795038 -0.15326613
0.08918807 -0.096549 -0.0997585 -0.063892946 -0.10638518 -0.10588804 0.05679341 0.05931927
0.093613915 0.047040563 0.19302969 0.17728294 -0.08253628 -0.32986155 0.017697843 -0.17940249
0.007927198 -0.095411785 -0.06464846 0.053833544 0.09088048 0.047622167 -0.19697438 0.2589708
0.093769394 0.11682542 -0.1551934 0.21180382 -0.0681342 -0.06693097 0.21149616 -0.040731207
-0.07998021 -0.0977699 -0.19947846 -0.10357455 -0.030641919 0.106583625 0.07880651 -0.10074818
0.15877871 -0.1493695 0.12616162 -0.103816755 0.0052951714 0.14668582 -0.1190721 0.07369772
0.15570302 0.3419813 0.0024366132 -0.0040240977 -0.11649882 0.13661194 -0.18600382 -0.04817917
0.1495582 -0.034233116 -0.15205093 0.07875905 -0.30493405 -0.037734594 -0.15210365 0.14042905
0.18731935 -0.04035708 0.035763025 -0.060161997 -0.1516494 0.08283396 0.1848965 0.13527858
0.0267444 0.14768991 0.101490416 0.032771636 0.02943693 -0.088581614 0.07009139 -0.14208174
-0.074379385 0.015244048 -0.121044904 0.057667624 0.039325107 0.12016545 0.091312565 -0.14577495
-0.111593924 -0.005615927 0.009195545 0.0015071142 0.07868162 -0.10723858 -0.18367018 0.18712983

pointer.fc1.weight f4 [128, 256]
00000000: 6d31 1c3d 4702 c0bc ced1 20be 2e53 0ebe
00000010: c807 d03d bffe 523d 7b6c 883d 3259 22bd
00000020: b3f3 7fbd 33d3 b6bd 8044 e23d f94d 413d
00000030: 0525 b83d 4202 063e 6dc1 27bc d5e1 9c3a
00000040: f5b9 8fbc 5b94 98bd b769 0d3d 0ba7 c1bc
00000050: f520 513c 4b52 24bd 9c55 193e 8258 dfbc
00000060: 3506 d4b9 f730 06bd df51 133e 8a42 bcbd
00000070: ca00 93bd 2a9d 44bd f212 d93c 86d0 0c3e
00000080: f6c9 dabd ca79 e3bd 43d9 09be 39f1 2d3e
00000090: f2c1 e53d 0f15 d3bc 8f8d 80bc 72dc 893b
000000a0: a8a3 d93d 6e1e 683b 1a1e af3d aef5 b93d
000000b0: f27d f13d 808e eebd 5738 183e 8b8c 0fbd
000000c0: b490 62bc b6e4 a9bd cb20 dc3d 7c6f 93bd
000000d0: 4793 a2bd f37f 0e3e 8915 1a3e 1aed bdbd
000000e0: 4d50 8ebd fb58 093d 17bb 863d 0763 693c
000000f0: 41be d9bd f62d bd3b dbe2 3dbb b80a 19be
00000100: 4db1 7c3d f476 d63c 7242 94bd bcc8 84bd
00000110: 54c7 69bd b398 c43c b451 e93d 14be eb3c
00000120: d416 b33d b7cc ea3d 701d 87bd ad18 4c3a
00000130: 0aa8 94bc b38a 82bc 0175 2cbd f2f5 9ebc
00000140: ffca c13d 6327 f13a 04e5 753c dd01 22bd
00000150: d83b 973d 9a36 28bd 5f1e e0bc 8cc3 183d
00000160: 5fdf 25bd 9cc0 a7bc 1e80 64bd 8fb2 033e
00000170: 6b1e 85bd 2b00 a0bd 43a4 603d 1ce3 373d
00000180: 8f2e c83d 3a78 693c a617 7e3d 17a3 bdbb
00000190: cfb8 013e 44a2 823c 984f 0c3e a12f 48bd
000001a0: a268 663d c7af c13d 4734 d6bb 6328 c63d
000001b0: d827 c93c f07e c2bd 43eb 0dbe 1645 17be
000001c0: 7114 403d 6310 f23d bb58 01be dfab 623d
000001d0: ad60 b23d 60b2 2f3d 2770 cdbd ec3d 09bd
000001e0: b4e3 b7bd 00bc f33c 69b3 87bd 5fea 823a
000001f0: cb28 003e 8fd4 853d 42b9 15bd 0389 e6bd
00000200: 47c1 99bd 8e0f 1c3e a89a 99bd 3c76 bbbd
00000210: 7836 123c 04a4 28bd 69f5 5abd b91d b33d
00000220: 5fbd c1bd 5507 323d 1692 5bbd 1529 3c3c
00000230: 06ea 613c 046d 38be 970c 823b 052c fc3d
00000240: 8cd6 2abc 41dc 943d c52f c43d 0535 06be
00000250: 4998 94bb 3296 80bd 5902 9f3d 2cc4 cd3b
00000260: f263 af3d 8511 fdbd c175 aa3d 49f6 0bbe
00000270: 78f9 b4bd d7dd a63d 20a2 793d c88a 843d
00000280: 86bf 0f3c b0e5 673d dfc3 a53d fbc5 e5bd
00000290: 3a31 c4bd 67b8 923d 340b cabd de8a e83c
000002a0: 4fdd 113e 9d10 afbd f8e3 5c3d 9968 523b
000002b0: 8047 78bd 7545 a6bd 4545 bb3c e46a 5fbd
000002c0: 0ac4 33bd 0fea 0d3c 3b62 c8bd 8684 703d
000002d0: 5b65 1bbd 3f9e 673c bf3e eabd a74f aa3d
000002e0: cf66 2e3c 690e 913d 1fed d43d 3e47 23bd
000002f0: 39da adbd 92b9 0dbe 6cc4 b93b 8035 c1bd
00000300: 430c a63d d4a1 8f3d 1482 1ebd 54cb b1bd
00000310: 9b39 0fbd 56b7 a43d 560e ea3c def0 183d
00000320: 9cd6 f4bd 382f af3d 679d 943d bf16 c43d
00000330: 6db3 3ebd 8cd2 aabd f04a 843d dd73 b3bd
00000340: 131d fe3d deef d6bd 931c a03d 73dd 673d
00000350: 5630 12bd dd64 87bc e003 b1bd 5046 3b3d
00000360: 77c3 b83d 6317 d93d d968 bf3d 20c4 f63c
00000370: 644b bc3d 5475 b43d 09e6 e43c 161c 92bd
00000380: c2cf 65bd 9352 ebbd 74ad 40bc 0f8f 99bd
00000390: 7f33 4bbd 1a28 febd 69d5 00be a247 b7bd
000003a0: 0ea5 e0bd 374d d83d 3b20 91bd 1019 343d
000003b0: dc8f babb 8cdc f63c 4a26 9e3c 8b21 2c3d
000003c0: 2e05 5abd 1126 193d 1dfa 86bd 9a3b 6bbc
000003d0: 6f21 d6bd e2b6 b6bd 0e4d 04be 6f09 f43c
000003e0: ccad 83bd 995f 2f3d 65e1 12be 0213 4cbd
000003f0: ecb7 d83c 6a71 573c 5c85 8cbd 5b86 e03d
0.038133074 -0.023438586 -0.15705034 -0.13898918 0.10157734 0.051512476 0.06661316 -0.039635845
-0.06248827 -0.08927002 0.110482216 0.0471935 0.08991436 0.13086799 -0.010238987 0.0011969159
-0.017544726 -0.074501716 0.034524646 -0.023639223 0.012764205 -0.040117543 0.14974064 -0.027263884
-0.00040440416 -0.03276154 0.143867 -0.09192379 -0.07177885 -0.048001446 0.026498292 0.1375142
-0.10683052 -0.11107214 -0.13461785 0.1698655 0.11218633 -0.025766877 -0.0156925 0.0042071873
0.10626918 0.0035418528 0.08550663 0.09080063 0.117916 -0.116482735 0.14865242 -0.03504614
-0.013828445 -0.08295576 0.10748442 -0.07198998 -0.07938247 0.13915996 0.15047278 -0.09273739
-0.0694891 0.033532124 0.06578653 0.014244801 -0.10631991 0.0057733012 -0.0028974328 -0.14945495
0.061692525 0.026179768 -0.07239236 -0.064835995 -0.05707486 0.023998594 0.11392537 0.02877716
0.087445885 0.114648275 -0.06597412 0.00077856594 -0.018146534 -0.015935278 -0.04210377 -0.019404385
0.094625466 0.0018398579 0.015008215 -0.03955256 0.07384461 -0.041067697 -0.027358232 0.037295863
-0.040496226 -0.020477585 -0.055786245 0.12861083 -0.064999424 -0.07812532 0.054844152 0.044894323
0.09774505 0.014249856 0.06203427 -0.005787264 0.12668155 0.015946515 0.13702238 -0.048873547
0.05625213 0.09457355 -0.0065369937 0.09675672 0.024555132 -0.09496868 -0.13859276 -0.14772448
0.046894494 0.11819532 -0.12631504 0.05533969 0.08709846 0.04289472 -0.10031157 -0.03350632
-0.08978978 0.029752731 -0.06626017 0.0009988061 0.12515561 0.06534683 -0.03655363 -0.11256602
-0.07507568 0.15240309 -0.075002015 -0.09153411 0.008924119 -0.041172042 -0.053456698 0.087459035
-0.09459948 0.043464024 -0.053606115 0.011484404 0.013788706 -0.18010336 0.003968786 0.123130836
-0.0104271285 0.072685726 0.09579424 -0.13106163 -0.0045347554 -0.062786475 0.0776412 0.006279489
0.08563985 -0.12356857 0.08323241 -0.13668169 -0.08836645 0.08147781 0.06094563 0.06471783
0.00877369 0.05661553 0.08094 -0.112194024 -0.09579702 0.07164078 -0.09865418 0.02838653
0.14244579 -0.085480906 0.053928345 0.0032105802 -0.060615063 -0.081187166 0.022860179 -0.0545453
-0.04388813 0.008661761 -0.09784361 0.058720134 -0.037938457 0.01413685 -0.11437749 0.08315974
0.010644629 0.07082827 0.1039679 -0.039862864 -0.08488888 -0.1384032 0.0056691673 -0.094340324
0.081078075 0.07013288 -0.03869827 -0.0868136 -0.034967046 0.08042781 0.028571289 0.037339084
-0.11954996 0.08553928 0.072565846 0.09574651 -0.046557833 -0.0834094 0.06459606 -0.087623335
0.12407889 -0.1049497 0.0781795 0.056607675 -0.035690628 -0.016527588 -0.08643317 0.045721352
0.09021657 0.10600164 0.0934617 0.030122817 0.09194067 0.08811441 0.02794172 -0.07134263
-0.056106336 -0.11490359 -0.011760104 -0.074979894 -0.049609657 -0.124099925 -0.1258141 -0.0894921
-0.10968982 0.105616026 -0.070862256 0.043969214 -0.005693419 0.030134462 0.019305367 0.042024177
-0.053227596 0.03738982 -0.06590674 -0.014357472 -0.10455596 -0.08921601 -0.12920019 0.029789655
-0.064296335 0.04281578 -0.14343794 -0.049822815 0.026454888 0.013149599 -0.06861374 0.10963126

pointer.fc1.bias f4 [128]
00000000: 1316 993c 4dba 19bc f078 1a3d 1865 5dbc
00000010: 1b0f f13c 5a32 1ebd 2436 8b3c cafe 98bd
00000020: 1ce7 da3c b4b7 c4ba 1859 d4bd 8255 523d
00000030: 2ce0 ebbc 9005 853d 54e4 8b3c 1b13 2b3d
00000040: 32a4 37bc a1f4 1ebd bb1e 973a 1ef0 76bd
00000050: 47ac fdbb 876a 353d e8fd 02bc 6187 95bc
00000060: c0e2 f33c e5fc 86bb ce95 553c 4eff 823c
00000070: 0781 70bd 4a59 4abd adf2 c53c 6010 733d
00000080: b356 9fbd 8228 75bb e3ac 5abd b2e6 983d
00000090: 2965 a0bd 6f43 f9bc b0e5 a63d 14d5 c3bc
000000a0: 17c8 00bd 506a 6ebd 07a3 0f3d 8ef3 943c
000000b0: 8d02 18bd a808 edbd 01aa 413c c57a 023d
000000c0: 950d 8c3c 8082 513d 479d 5d3d fba5 8bbd
000000d0: baa0 063d ab35 9bbc c7b9 c1bd 0e58 063d
000000e0: 6dfc 6b3c f99e b5bc 3d81 99bd 4a8f de3d
000000f0: db66 5d3c 74a5 033d 56bf 0b3d 93f7 50bd
00000100: a097 0a3c 5d8b 6bbc e588 0abc f342 a4bd
00000110: 084f 7fbd c88d 97bc 37a9 383c 5d7e 623d
00000120: 9c59 a03c fb87 f33c 4943 e9bc 1015 463c
00000130: c8ae d43b b0f9 4d3d 39b6 afbc 0b46 55bd
00000140: bd92 39bd dbf4 37bd e3e5 7fbd 4db9 323d
00000150: 79d9 ad3d a944 233d 2b35 5d3c dc29 c2bc
00000160: ac6b ff3c 5f9d 0cbc a1a5 97bd 85c4 eabb
00000170: 7702 d4bb f177 fe3c 55dc f2bc 1d49 113d
00000180: b905 adbc 8497 5fbc f827 773d dcf3 4e3d
00000190: 3a4f 6c3c d2dc e53c 7b35 563c c008 263d
000001a0: 99c7 383d beac ccbc 988e 6abd 41e2 c33c
000001b0: 7c24 25bd ffe5 06bc a046 763d 9b88 40bd
000001c0: bab3 fd3c 9937 01bd 6fb3 8e3c 14f2 cbbc
000001d0: 7362 9d3d f600 413d bad0 87bd d413 9dbd
000001e0: aa29 a93d 4ef8 0d3c e504 84bd a280 833c
000001f0: 2354 683c f823 52bc 3261 2fbd a08d 33bd
0.018687284 -0.0093827965 0.03771299 -0.013512872 0.029426148 -0.038622238 0.01699359 -0.07470472
0.02672153 -0.0015008361 -0.10368556 0.051351078 -0.028793417 0.064952016 0.017076649 0.041766267
-0.011208581 -0.038807515 0.0011529544 -0.060287587 -0.0077414843 0.044291046 -0.007995106 -0.01825303
0.029771209 -0.004119503 0.0130362045 0.01599088 -0.0587168 -0.04940156 0.024163568 0.05934179
-0.077802084 -0.0037408178 -0.053387534 0.07465877 -0.07831795 -0.030427663 0.08149278 -0.023905315
-0.03144082 -0.058206856 0.035067584 0.018182542 -0.037111808 -0.11573917 0.011820317 0.031855363
0.01709632 0.051149845 0.05410507 -0.06818768 0.032868125 -0.01894649 -0.09459262 0.03279882
0.014403445 -0.02217053 -0.07495353 0.10867174 0.013513292 0.03214021 0.03411802 -0.051017355
0.008459002 -0.0143764885 -0.00845549 -0.08020582 -0.06233123 -0.018500224 0.011270813 0.05529629
0.01957398 0.029727926 -0.028474467 0.012089983 0.006490562 0.05028695 -0.021449195 -0.05206875
-0.045305956 -0.044911247 -0.062475096 0.043633748 0.08488745 0.0398604 0.013501446 -0.0237016
0.031179272 -0.008582442 -0.07404638 -0.0071645402 -0.0064700204 0.031063052 -0.029646078 0.035470117
-0.021120893 -0.013646964 0.06034085 0.05052553 0.014423186 0.028059397 0.013074274 0.04053569
0.045112226 -0.024984714 -0.057264894 0.023911597 -0.040317997 -0.008233546 0.060125947 -0.047005277
0.03096949 -0.031547163 0.017419545 -0.024895705 0.07684793 0.047120057 -0.06631608 -0.076697975
0.082599 0.0086651575 -0.06446246 0.016052548 0.014180216 -0.012825958 -0.042817302 -0.043836236

pointer.fc2.weight f4 [128, 128]
00000000: 344a e7bd e8f0 f03d 92e4 b13d b308 0e3e
00000010: 3bfa c93d 8198 323c a6f4 ed3d 4505 ae3d
00000020: 069d fe3d 9636 7ebc 5c15 393e 19ae 403e
00000030: 2518 02bd bc86 013c 923e 213d 05c3 4a3d
00000040: c0b6 383d 3e2b 1fbd 36dc d03d 8f1e 51be
00000050: 6ee0 d33c 2289 b23d 8395 6e3d 1a56 48bd
00000060: 4b93 b53d 11fd 44bd 80af 6c3e a2b6 5f3d
00000070: 0523 cbba 52ae 16be 7de0 2fbe b5fa 15bd
00000080: 9c9c f1bd 2082 a9bb d09f c4bd 1088 fbbc
00000090: 86a6 b53d 4ef3 d9bd 6791 0dbe 0e1a 023e
000000a0: 1547 0f3c f3d1 78bd d2ef f33d 4397 913b
000000b0: b275 003d 216b 41bd 2a52 d23d bf0f 81bd
000000c0: c3f6 36be 3076 013d 4b22 bb3c 5cea a13c
000000d0: 3174 763d 0620 323e 434c 03bd 56fa c63d
000000e0: 087d 5c3d 70fd dfbd 3018 0dbe 788c 94bc
000000f0: 982d 87bd ee97 4fbe 34b4 1f3b 60bd c8bd
00000100: 4e03 b93c a684 b3bd f655 dbbd e3ea 00be
00000110: d8f6 d53d 5dfa bfbd ab63 75bc 0044 42be
00000120: 771b 1ebe 5f54 a83d 0f1a 9fbd 59eb af3b
00000130: 6713 cfbd e1a4 fb3c 69fd 993d 51d1 403d
00000140: be1c b5bb 8708 cabd 92ab ca3d ab20 8a3d
00000150: 2f87 06be 527b 713d de78 dfba 5d1e df3c
00000160: 70b2 d63d 7877 89bc ee1c 503d 6c0b 16be
00000170: 9bfe 193e 4c9e de3d 5b75 1b3c 0831 fdbc
00000180: daa2 0b3e 2924 e2bd 2cf7 513d bfa4 86bd
00000190: aa40 70bd c035 27bd d5fa 34bd 8194 a4bd
000001a0: eff8 ebbd a89f 57be 835e 6bbd 80ec b7bd
000001b0: ca91 e2bb bc91 213d 7c7b 0fbd b206 2cbd
000001c0: 4a6b ee3d 9835 0c3e 2264 db3d 3059 bb3d
000001d0: 144a 0cbe 4bcd 28be a8b4 663d 7c69 7d3d
000001e0: 339e 8b3d ee4e 9abd af12 8cbd 5c99 873c
000001f0: eebe aabc 01ba 263d 86d7 053e 969f b63c
00000200: edf8 873c a734 173d 1214 503d df8f 0bbe
00000210: 8358 4f3b 15a5 a63d af11 d63d 3016 b83c
00000220: 0060 82bb bd5b 7a3d 3b8b a63d e05a 063e
00000230: ec14 0d3e cdd0 86bd d0bd 16be f13b 25be
00000240: 273a a1bd 99bd 83bc 9e07 fd3d 4f3d 09be
00000250: d493 01be 82b7 0fbd 770b 95bb d012 10bc
00000260: 5fb1 2ebd bd0b 1a3d 5dc4 84bd 2514 c73d
00000270: 1507 bdbd 0718 0cbe 4ae6 62bd 50b6 d33b
00000280: 2cc4 963d 0bc3 1c3e 56bf a63d ecb1 77bd
00000290: 1b4a 33bc 4839 dbbc 27f8 51bd 3a52 03be
000002a0: 4026 c53c e813 c93d 1ed9 0abe f75d 2dbd
000002b0: 549b a4bd f5bc 0fbd 953f 1a3e 0416 79bd
000002c0: 4213 793d ccc8 d7bd ca39 cfbd 7420 46bd
000002d0: 9252 863d 3d6c af3b f57e d83d 06e4 9d3d
000002e0: 98e9 a23c 2348 22be 97e8 103e ab75 b9bd
000002f0: 264a ed3d 08f7 253d 502e 7ebc 209e b83b
00000300: c684 8abd ded3 8f3d 5884 923d 71e6 8cbd
00000310: bac0 a43c 44cf 023e 66e6 0abe 827e b43d
00000320: 5eb5 f93c 11c2 afbd b65d c53d a95c 23be
00000330: 1410 0fbe c95a abbc c498 e6bd bb40 09be
00000340: c272 f93d c1ad 143e 3107 03be 7089 29be
00000350: 1fee b4bd d4ef c5bd aebd 63bc 1a48 8ebd
00000360: ae60 8e3d ebd9 e33d 0af9 c73d 0a34 e9bd
00000370: dcda fcbd 3eff 673d acae f7bd 20da acbb
00000380: 00ab 10be c8c7 ccbd 48a2 743d db14 0bbe
00000390: 6210 933d 8bec fa3d ba43 12bd 3180 c43d
000003a0: dbca 2fbd a4d9 8c3b 3eaa 02be 2a17 1abe
000003b0: 5b44 0d3e e820 9e3d 04a4 03bd 10d8 c3bd
000003c0: b0bc f03d 5c2c bd3d e019 b1bd 81d3 8fbd
000003d0: 6492 cbbc bc99 08be d819 edbd 8e4a 313d
000003e0: 2c56 0d3e 3d0b ecbd e023 983d c2e8 c73d
000003f0: 55d7 5b3d 38f6 e73d bd2e 013e 7f53 82bd
-0.1129345 0.11764699 0.086861745 0.13870506 0.09862181 0.010900618 0.116189286 0.08497099
0.124322936 -0.015515944 0.18074554 0.18816413 -0.031761307 0.007905658 0.039366312 0.04950239
0.04509616 -0.0388596 0.10198252 -0.20421813 0.025863852 0.08717562 0.058248054 -0.048910238
0.088659845 -0.048092905 0.23113823 0.05461753 -0.0015498108 -0.14714935 -0.17175479 -0.036616046
-0.11797449 -0.005172983 -0.09600794 -0.030704528 0.088696525 -0.1064211 -0.13824998 0.12705252
0.008744975 -0.0607471 0.119109765 0.0044430806 0.031362243 -0.047221307 0.10269578 -0.063018315
-0.1786757 0.031606853 0.0228435 0.019765072 0.060169403 0.17395028 -0.03205515 0.097157165
0.053830177 -0.10937011 -0.13778758 -0.018133387 -0.06600493 -0.202728 0.0024368884 -0.098017454
0.022584584 -0.08765535 -0.10709755 -0.12589602 0.10447472 -0.09373925 -0.014977376 -0.18971252
-0.15440165 0.082192175 -0.07768642 0.005368632 -0.101111226 0.030718269 0.07519037 0.04707462
-0.005527108 -0.09864908 0.09896006 0.06744512 -0.13137506 0.058955498 -0.0017049571 0.027236158
0.10483253 -0.0167806 0.05080884 -0.14652795 0.1503853 0.108700365 0.009488429 -0.030907169
0.13636342 -0.11042053 0.051261112 -0.065743916 -0.05865542 -0.040822744 -0.044184525 -0.08036137
-0.1152209 -0.21056998 -0.05746318 -0.08980656 -0.006914352 0.039445624 -0.035029873 -0.041998573
0.116415575 0.1369232 0.10712458 0.091478705 -0.13700134 -0.16484563 0.05632463 0.061868176
0.068172835 -0.07534586 -0.06839501 0.01655262 -0.020842995 0.04070473 0.13070497 0.022292893
0.01659819 0.036915448 0.05080039 -0.13629101 0.003163845 0.08136956 0.10452592 0.022471517
-0.0039787292 0.061122645 0.08132025 0.13120604 0.13777512 -0.06582794 -0.14720845 -0.16136147
-0.0787242 -0.016081618 0.123549685 -0.13402294 -0.12654048 -0.035087116 -0.004548486 -0.008793548
-0.042649623 0.03760885 -0.06482766 0.09720639 -0.092298664 -0.1368104 -0.055395402 0.0064609423
0.073616356 0.15308778 0.08141963 -0.060472414 -0.010942961 -0.026760712 -0.051262047 -0.12824336
0.02406609 0.0981825 -0.13559386 -0.04232594 -0.08037439 -0.035092313 0.15063317 -0.06081201
0.06080938 -0.10536346 -0.10118444 -0.048370793 0.06558718 0.005353479 0.1057109 0.07709508
0.019886777 -0.1584783 0.14151226 -0.090556465 0.11586408 0.04051879 -0.015513971 0.0056340843
-0.06763606 0.07022832 0.07154149 -0.06879891 0.02011143 0.12774378 -0.13564453 0.08813192
0.03048199 -0.08581937 0.096370146 -0.15953316 -0.13970977 -0.020917313 -0.112596065 -0.13403599
0.121800914 0.14519407 -0.12795712 -0.16556334 -0.088344805 -0.09664884 -0.013900204 -0.06947346
0.06952034 0.11125549 0.09764297 -0.11386879 -0.123464316 0.056639902 -0.12093863 -0.005275026
-0.14127731 -0.09999043 0.059725076 -0.13582174 0.07180859 0.12252148 -0.03570912 0.09594763
-0.042918067 0.0042984057 -0.12760255 -0.15047899 0.13795607 0.0772112 -0.03213884 -0.09562695
0.11754739 0.092369765 -0.086475134 -0.07022763 -0.024850078 -0.13339895 -0.11577195 0.04328399
0.13802403 -0.11525581 0.074287176 0.09761192 0.053672154 0.113262594 0.12615485 -0.06363582

pointer.fc2.bias f4 [128]
00000000: c992 4fbd 18f5 c0bd d935 d13c 925d bc3d
00000010: f149 17be be52 383d 5d43 973d a8af c239
00000020: ab31 78bd d7a1 bb3d d61d 943c 4f8d 083d
00000030: 0450 9b3d 04fb cd3d c375 33ba 0e0b 263d
00000040: dc2c 613c 981b 3abd 93c9 9f3c 897c 263c
00000050: 87cb 8e3c ab9e 913d e390 be3d fe62 743d
00000060: bfec d93a e5d4 bd3d db23 a93d 517f ac3d
00000070: 1314 c33d cc0a 7cbd 1374 06bd e838 bcbd
00000080: 0ba3 a3bd 20ce d43d 2e1d e13c d2ab 183d
00000090: 87fc d43d f8f6 d03c 132a a53d 9386 23bd
000000a0: 3da1 aa3d e124 9f3c c366 133d 283b 07bd
000000b0: 65b6 d1bc 481c 623d 696a e23d 907b fabd
000000c0: 58a1 c53d e32a 2dbd dedf 913d 2e47 b9bc
000000d0: 1951 41bd a73d 2e3e 8473 73bc 70ef 7f3c
000000e0: 557d 9e3d 9ea7 f2bd 0e6d 903d eecf f5bd
000000f0: dfdc 6fbd 31cc 75bb f391 18bc c829 fc3d
00000100: c227 cd3c 00fc 9c3c d37b 9fbc 36d3 71bc
00000110: 7de0 4d3d 4ae6 dd3d 6b77 283e 557a 2b3d
00000120: 138b 053e b83c 973c 7e19 0b3d 8b5c c33d
00000130: ba2b 84bc 74be 993c 0cbf 8e3d 614b 9c3b
00000140: 315b e0bd ecba e93c 4d08 973d 7787 d3bc
00000150: 2823 b43c 8d05 16bb 01d6 b73d 0822 12bd
00000160: 0a8f 0f3d 79d2 d63d f066 bcbc 4abb b23d
00000170: 32b6 3839 e08d a83c c582 4abb 34c3 fa3d
00000180: b105 b53d c159 c53d 74d3 5f3c ff5f 0abd
00000190: 93c6 b03c c1a7 4a3d 0fe2 f03d 0cb8 0bbd
000001a0: eda6 cbbc 8b24 003e 2623 b33d c8b9 043d
000001b0: 00cb 1f3d e4c1 49bd 921d 783d d7e1 b63c
000001c0: 23ef a83d 9c5e 7c3d db35 d53d a93c f93b
000001d0: 085b 22bc b71d a5bd 5969 d53d c042 af3d
000001e0: 1210 20bc 2eea e63d f24c 543c e1a1 d8bd
000001f0: 8ba2 843d ebf8 cdbc 1467 8cbd 5472 a23c
-0.050677095 -0.09421748 0.025538372 0.091975346 -0.147743 0.045000784 0.073858954 0.00037133438
-0.060594242 0.09161728 0.018080633 0.033337887 0.07583621 0.10057643 -0.0006845856 0.040537886
0.013743605 -0.04543647 0.019505298 0.010161527 0.017431034 0.07110342 0.09304979 0.05966472
0.0016626342 0.09269122 0.08258792 0.08422721 0.09525313 -0.061533734 -0.03282554 -0.091905415
-0.07990082 0.10390878 0.027479734 0.037273236 0.10399728 0.025508389 0.08064666 -0.03992326
0.08331535 0.019426765 0.035986673 -0.0330154 -0.025599668 0.055202752 0.110554524 -0.12230599
0.096499145 -0.042277228 0.071227774 -0.022616949 -0.04719648 0.17015706 -0.014859084 0.015621051
0.07738749 -0.11848377 0.070520505 -0.1200255 -0.05856025 -0.003750574 -0.009312141 0.12312657
0.025043372 0.019163132 -0.019468224 -0.014759829 0.050262917 0.1083494 0.16451804 0.04186471
0.13041334 0.01846157 0.033959858 0.095391355 -0.016134132 0.018767573 0.06970033 0.004769728
-0.109548934 0.028531514 0.0737463 -0.02582143 0.02198942 -0.0022891492 0.08976365 -0.035676986
0.035048522 0.10489363 -0.022998303 0.08727129 0.0001761548 0.020575464 -0.0030900699 0.12244263
0.08838976 0.0963626 0.013661254 -0.033782955 0.021579063 0.04947639 0.11761867 -0.034111068
-0.02485987 0.1251394 0.087469384 0.032403737 0.039011955 -0.049257174 0.060575075 0.022324486
0.08248737 0.061613664 0.10410663 0.007606108 -0.009909399 -0.08062308 0.10420484 0.085576534
-0.009769456 0.11275135 0.012957798 -0.10577751 0.06476315 -0.025143107 -0.06855598 0.019829907
