trained_models/cvrp/XE_16/model_incumbent_vrpRl13_C_XE_16_P_0.05_89264.pt (torch_old, 469732 bytes, 15 tensors)

all_embed.embed.weight f4 [128, 4]
00000000: 0965 0cbf 3558 2c3f ccbb 0ebd d455 993e
00000010: 6766 e43e f9e3 5c3f 00e3 9f3e 833b 433e
00000020: d54b 333f 8e83 b2be c0fc 1c3e c991 343e
00000030: 07b6 2fbe b3dd 203f d0a5 edbc 381a 143e
00000040: 475b c13d b21b 83be 0ce4 17bf 798a 8ebe
00000050: fb1e 133f 9985 c53d c3b8 713d b746 603e
00000060: 81d4 243e c2d3 1e3e db29 98be 4899 bcbe
00000070: 6fbe 763d f6e2 933c 8860 0abe 6e3b eabe
00000080: 8fcb 4e3f 97c1 5dbe c598 8b3e 48f2 893d
00000090: b7d5 adbe fa7c 353f 3822 6a3e 5ebd 3c3e
000000a0: e849 f0bc c071 943b 6087 183e 00be a8bd
000000b0: 673e 9f3d 665d 9cbe e132 a33f f471 583d
000000c0: a48e 53be 7816 de3d 3c02 0b3e 9070 23be
000000d0: b29f 063f 9cb2 29be 01db 9cbe 871b 983e
000000e0: af0e 233f 5226 e3bd f38e 9e3d ff40 513e
000000f0: 692f 133f 44fd d63e b9d8 2e3e b15d 2b3e
00000100: 783c ad3d f074 633c 80db 8f3d 84bc 9b3d
00000110: 1f53 e03e b561 2b3d c6f1 dcbe 759e c6bc
00000120: 0e05 073e 42fb 8bbd f8d2 1fbe de34 30be
00000130: 3d4f 673d b065 353f ab2d b93e ffa9 453e
00000140: c236 193f 467b 8ebd 5f51 6e3e 2485 4e3e
00000150: 1b77 f13d 9288 1f3e 84ba 193e c9e0 0fbe
00000160: fd28 0e3f e42c 493f 5730 80be 547d 103e
00000170: 1bb1 573f 8cf2 d7bd 1aca 16be 7dbf 55bd
00000180: e095 42be ac26 27be 404c 35be d8fe a4bd
00000190: 1634 1c3f 41dc 7f3f 3197 c03e 4779 b13c
000001a0: 3d14 79be 7280 333f 0df3 b73e 1b60 6bbc
000001b0: 5804 383f 993a fd3e 7a41 cfbe 4d18 0b3e
000001c0: bbf2 1d3f 7287 82be 85fa d0bd 5525 273e
000001d0: 068a efbd 4957 4b3f 3912 28be 76d7 d1bc
000001e0: c5ae d5be 97ab 3c3f 6fc3 27be 6c2b fb3d
000001f0: 28e3 923d 133f ffbd aa64 eebd 105d c3bc
00000200: 37dd 373f 9512 e03d e957 1abe 5c3d 263e
00000210: d478 88bd 0169 c2bd bcb2 eb3d 1c5b 043d
00000220: 0cb7 2b3d 0ec2 943e aff0 16bf eb99 15bf
00000230: 5ec6 22be caa6 333f de0f 5a3e 4c74 123c
00000240: a8a8 aa3c 5e03 8f3c dcb6 9cbe 9829 08bf
00000250: 245c 44be 265b 45be 145c ee3d b51c 09be
00000260: 6270 82bd dffe 9c3e d6d3 acbe 0e27 6bbe
00000270: f738 2d3e a69d 653f 95bf 5ebe 8ce3 bebd
00000280: 3abf 013f 9ae6 ec3c fb11 25be ee72 c0bd
00000290: 3c52 303f 6d98 80be 6a48 9e3e 9b3d 5f3d
000002a0: f4e3 e33d 2c46 0ebe 60ca 393d 406e 483d
000002b0: 8a05 0fbe 41e1 d63d 8bae 3dbf 0ec7 b73e
000002c0: 17ca 883e bfa1 303f fbf8 65be d54f 4abe
000002d0: ac33 2a3f e4a9 76be a6e3 1b3e aca7 133e
000002e0: bdd4 693f 090d 813d 8acd bc3e 7123 223d
000002f0: 20ca e9bc 85e6 f1bd 8087 1ebb ca06 02be
00000300: a0ee 503f 3abc f73d 734d 853e 1b2c 5abe
00000310: c136 6b3c 86b8 8a3c 08eb b93e e497 ae3e
00000320: 86e8 9e3e 8c2c cebe 3ec0 2c3f 34a1 473e
00000330: 2506 e03e 559e a13d ad0e 3bbe e16b 2f3e
00000340: 9053 10bc 68e6 c5bc 00ff c83d 1cb0 25be
00000350: 6f9b 653d 997c 33bf f372 a5bd 72f7 763e
00000360: d413 8bbc e99f cabe 3103 7bbd 62ce b23e
00000370: f428 91bd 101d 95bc de83 b2bd a8f9 47be
00000380: e846 56be a748 2cbe 4b1e 033f 8dc5 993e
00000390: 0146 2fbe 0860 8d3d 3872 69bd 3207 08be
000003a0: 4722 703e ffc5 5b3e 4a12 ecbe ea6c 0abf
000003b0: 7e89 a8be bd76 c4bd bca0 f6be 061b d1bd
000003c0: 38a7 383f ad1b b6bd a2d3 96be 9e48 533e
000003d0: 8cfd 3f3e 8e8b 90bd d022 373e 0c6b eebd
000003e0: 39a1 9bbd 993f 353f 82cd 883e a1c3 26bd
000003f0: 00d7 e53a 53cd cebd 4886 333e b051 0b3d
-0.5484167 0.67322093 -0.034847066 0.29948294 0.44609377 0.8628536 0.31227875 0.1906567
0.70037585 -0.34865993 0.15330791 0.17633738 -0.17159282 0.62838286 -0.02900973 0.14463127
0.09441238 -0.25607067 -0.59332347 -0.2784002 0.5746915 0.09644622 0.059014093 0.21901976
0.16096689 0.15510467 -0.29719433 -0.36835694 0.060240205 0.01805256 -0.13513386 -0.45748466
0.80779356 -0.2165588 0.2726499 0.067356646 -0.33952114 0.70893824 0.22864616 0.18431613
-0.029332116 0.0045301616 0.14895391 -0.082393646 0.07775574 -0.30540007 1.2749902 0.05284305
-0.20659882 0.10844129 0.13575071 -0.15960908 0.52587426 -0.1657204 -0.30635837 0.29708502
0.6369428 -0.110912934 0.07742109 0.2043495 0.5749422 0.419901 0.1707486 0.16734959
0.08458799 0.013882861 0.07024288 0.07604316 0.43813416 0.041841228 -0.43153208 -0.02424548
0.13185522 -0.06835033 -0.15607822 -0.17207667 0.056472052 0.7085829 0.36167654 0.1930313
0.5984918 -0.06957106 0.23273228 0.20167977 0.11790296 0.15579441 0.15012556 -0.14050592
0.55531293 0.7858412 -0.2503688 0.14110309 0.84254616 -0.10544309 -0.14725533 -0.05218457
-0.19002485 -0.16323346 -0.17704868 -0.0805642 0.61016977 0.99945456 0.3761535 0.021664275
-0.24324127 0.70117867 0.3592762 -0.014366175 0.7188163 0.4945877 -0.40479642 0.13583489
0.616985 -0.25493962 -0.10204033 0.16322835 -0.11696248 0.7943006 -0.16413201 -0.025615435
-0.417349 0.73699325 -0.16383146 0.122641414 0.07172233 -0.12463202 -0.11640294 -0.023848087
0.7182192 0.10941044 -0.15072598 0.16234344 -0.06663671 -0.09492684 0.115087 0.03231345
0.041922614 0.29054302 -0.58961004 -0.58437985 -0.15895984 0.70176375 0.21295115 0.00893886
0.020832375 0.01745766 -0.3060826 -0.5318847 -0.19175774 -0.19273052 0.11638656 -0.13389857
-0.063690916 0.306632 -0.33755368 -0.22964117 0.16916262 0.8969368 -0.2175277 -0.09320745
0.50682414 0.028918553 -0.1612014 -0.09396921 0.6887548 -0.25116292 0.30914623 0.05450211
0.11127463 -0.13893956 0.045359015 0.048933268 -0.13966957 0.104921825 -0.74094456 0.35894054
0.26716682 0.68996805 -0.2245826 -0.19757016 0.66485095 -0.24088246 0.1522356 0.1441943
0.9134024 0.063013144 0.36875564 0.03958458 -0.028538764 -0.11811546 -0.002418965 -0.12697902
0.8161411 0.12096448 0.26035652 -0.21305887 0.014356316 0.01693369 0.36312127 0.34100258
0.31036776 -0.40268362 0.6748084 0.19495088 0.43754688 0.078915276 -0.18267317 0.17130996
-0.008808985 -0.024157718 0.098142624 -0.16180462 0.056056436 -0.70111996 -0.080785654 0.2411783
-0.016977228 -0.39575127 -0.06128234 0.34923083 -0.07087889 -0.018202335 -0.08716558 -0.1952883
-0.20925486 -0.1682459 0.512181 0.30033532 -0.17116548 0.06903082 -0.056993693 -0.13283995
0.23450576 0.21462248 -0.46107703 -0.5407244 -0.32917398 -0.0959296 -0.48169506 -0.102102324
0.72130156 -0.088919975 -0.29458338 0.2063317 0.18749064 -0.07057868 0.17884374 -0.11641511
-0.0759911 0.7080017 0.2671929 -0.04071391 0.0017535388 -0.10097756 0.17531693 0.03401345

all_embed.embed.bias f4 [128]
00000000: 61c9 5e3e 479f e13e dcd1 b03d 204e 1e3c
00000010: 5056 c33e 9b0d d93e 8752 813d 7925 c73e
00000020: b2be 3f3e 3d06 653d 86f8 92be d807 303e
00000030: f4f2 89be abde bdbe 8d01 0cbe 60ff 0ebf
00000040: a412 e9be 4b0b d53e 5215 e8be 3079 8bbe
00000050: 1cd5 38be ff71 40be 8fd8 f13e c3bd 963e
00000060: be1c 8abe c26a e53e c2ca 373e b400 503e
00000070: 4c52 063f a46c 8b3e 6040 713e a618 d9be
00000080: 83fb c83e 124c f5be d883 8b3e df01 bc3e
00000090: 0393 fe3e 94f1 3bbe 25fe bcbd 0937 873e
000000a0: 12c8 c33e 9319 4d3d e207 c3be 7e98 b0be
000000b0: fb49 df3e c27a 103d e780 b4bd b844 abbd
000000c0: 270a eb3e 2a3b 04bf a8f7 d63e ee84 903e
000000d0: bc72 56be 51be df3e 66fd 93be 866e b6be
000000e0: f537 5abd 2e8e 88be 8c5e f73d 847a f73e
000000f0: ce4a b2bd 78d7 64be b217 6c3e 0ef5 b5be
00000100: 2275 94be be88 aabe 4c12 1d3e 7c20 55be
00000110: 1dcf 1c3f 5845 f5be 8ddd 853c 806c ebbe
00000120: 5f0e d5be bcde c03e 99e1 d6bd 16ee fcbe
00000130: a5d0 07be 253d 5a3d 9d10 073f 43e9 1e3e
00000140: eb59 1d3e b573 b8bd 0865 d23e c01f fd3e
00000150: 6831 243e 3245 6a3e 5e27 cf3e 289a 71be
00000160: 55b9 c93e e118 8fbe 9b6e b43e 74f5 58be
00000170: 45c0 623e d6e8 d83e 30fd 093f d0c2 13bd
00000180: 5e4e 903e 9a2e aa3c 2ade 32be d4a0 b13e
00000190: 4b00 dc3e 9d45 ae3e 11a6 ba3e 0abf 7f3d
000001a0: cda7 343d f24d a13e 7011 b73e 8d22 343e
000001b0: 3db6 7ebd 4048 bebe 11a6 933e 9b31 da3e
000001c0: 675e bd3e d5c4 c7bd 219d 9fbd 97e3 4ebe
000001d0: 309e 803e d47a 833e e5e2 edbd 2a46 80be
000001e0: c105 843e 883c e7be 17e3 5d3e b8e7 7c3e
000001f0: e986 3b3e 4cdd fabe ea58 173d e655 cabe
0.21756507 0.4406683 0.086337775 0.009662181 0.3815179 0.42393193 0.06314569 0.38895777
0.18725088 0.055914152 -0.28705233 0.17190492 -0.2694317 -0.37083945 -0.13672467 -0.5585842
-0.45522034 0.41610178 -0.45328766 -0.27240896 -0.18050045 -0.18793486 0.47235534 0.29441652
-0.26975054 0.44808012 0.1794844 0.20312768 0.52469325 0.27231324 0.23559713 -0.42401618
0.39254388 -0.479096 0.27249026 0.36720178 0.49721536 -0.18353873 -0.09228162 0.26409176
0.3823858 0.050073218 -0.38091952 -0.34491342 0.4361113 0.03527332 -0.08813649 -0.083627164
0.45906183 -0.5165278 0.41985822 0.28226417 -0.20942205 0.43699887 -0.28904265 -0.35631198
-0.05327602 -0.26670974 0.1207858 0.4833566 -0.08705674 -0.2234782 0.23055914 -0.35538524
-0.28995615 -0.3330745 0.15339011 -0.20813173 0.6125353 -0.47904468 0.016340995 -0.45981216
-0.41612527 0.37669933 -0.10492248 -0.49400395 -0.13263185 0.05328097 0.52759725 0.1551867
0.15366332 -0.09006444 0.41092706 0.49438286 0.16034472 0.22877958 0.40459722 -0.23593962
0.3939921 -0.2794867 0.35240635 -0.21187383 0.22143658 0.4236514 0.5390196 -0.03607446
0.2818479 0.020774174 -0.17467561 0.34693015 0.42968974 0.34037486 0.36454824 0.06243805
0.04410534 0.3150478 0.3575549 0.17591305 -0.062185515 -0.37164497 0.28837636 0.4261597
0.36986086 -0.097543396 -0.07793642 -0.20204006 0.25120687 0.25679648 -0.11615542 -0.2505353
0.2578564 -0.4516337 0.21668659 0.24697769 0.18313183 -0.4899696 0.03695003 -0.3951866

all_embed.embed_2.weight f4 [128, 128]
00000000: 2374 84be e53a 87bd 1a59 b53e b76e 94be
00000010: 5906 643e 426e d73d 6252 64bd 6f16 cebd
00000020: 1384 223e 11b6 ddbe faa9 05be 7649 d13d
00000030: ce85 14be f0f2 553e c425 8a3e cf95 3e3e
00000040: 7d03 173e 71d6 4a3d 1c5c bf3d 0a7e abbd
00000050: 4bb1 403e b95a e93c b5be 98be eeaa 373e
00000060: a4fc f0bd 2488 8ebe d7bf b0be 4d8a 1abc
00000070: 8acf 3e3e db19 d0be 5461 ecbe fabb babd
00000080: 8563 813d e1a7 b2bd 6a81 d13c 4877 45be
00000090: f39a f2ba cfd6 0d3e 248a 9c3d cb07 39be
000000a0: c553 b63d 191b 353e 9a16 1abe 8c4c a3bd
000000b0: f5d0 9eba 0247 bb3e 703e 84bd 1587 0a3e
000000c0: e7cf 053d f3f4 763c b81c b1bd e7e3 c0bd
000000d0: 697f 8cbd bfce c23e 2d32 2f3e eaad 0bbe
000000e0: ba17 003d 32c4 fe3d b242 053c f108 813e
000000f0: 5267 823e eacf 47bd 2e99 09bf 209a 8abd
00000100: 606e 3cbe 0cc4 c9bd a975 d9be f506 acbd
00000110: 3700 903e 0697 68bd 8b74 d4be 48fb e4bc
00000120: 3361 53be a96c c7bc 3916 5cbe d607 953d
00000130: 8661 58bd b81c 793e 588e b7be 1d14 ecbc
00000140: 879d 0b3e 757e c83d 5f72 93be 59bb 193d
00000150: 6cab a73c 6233 4c3e f3e6 3d3e 50a8 433c
00000160: ed14 59be ef8c 743e 1a1b 8dbe 0750 8bbd
00000170: a605 083e 7f17 c9be 86f9 86bd 08af ec3c
00000180: 2d89 29bd 0ac1 ba3e e9f4 e63d 5fbc 42be
00000190: 0800 afbe 82ab ffbe c48b 7dbd 1502 2f3e
000001a0: c11f c43d 3fbf aebe a5f2 b9be 13bd 8a3e
000001b0: 1ed7 a9be d0d5 bd3d cb12 3f3d 0e0b 06bd
000001c0: 88dd 35be 55a1 a4be 83a2 513e fd34 9cbe
000001d0: 48bf 263d 8163 c1bd ce10 ab3c bf82 debd
000001e0: 093a 0dbe 6236 53bd c0f0 f2be c397 183e
000001f0: 66e0 f2be 003c 863e bacf 143e dc5c 863d
00000200: d3c2 8ebe 4904 1ebd 3f3f cebd 2227 acbd
00000210: 8e75 d23e 91c4 9fbd 54fe 053f d536 023f
00000220: 3281 e4bd c284 a0be cca8 0fbe 66d0 aabd
00000230: 0ad0 e2bd d100 bd3d 5e7c 10be b502 bfbe
00000240: 1086 683d 7f04 993d fc00 a9bd 28b0 0abd
00000250: 7666 dbbd a52d 87bd 6c00 2dbd 57a6 823e
00000260: 7881 90bd b24f 0bbe 81f0 c2be af78 39be
00000270: 26b7 92bc c515 22be 2a23 99be 6607 a83d
00000280: bcf8 37be 6885 0bbe cde4 e43e 2f5a 8abe
00000290: c105 c93e 40d9 01be d1ee 003f d261 4cbe
000002a0: dac3 a73d 5649 1cbe 003d 15bb 5140 34be
000002b0: 4ab1 b83d c0ff ed3d 86fc 11be 20a5 21bc
000002c0: d3a7 fa3d 365c 23bd 13ad 58be 816e 8b3b
000002d0: 7c1a c23d 8bd3 38bd 383e da3c fa61 66bd
000002e0: 49e1 3abe 5e69 be3d 769b 0d3f 6b02 d33e
000002f0: 64b1 003e c0e4 f1bb 3bdb 0fbe 203a 05be
00000300: a8c7 29ba 3ab5 ed3d f927 9bbe 3b7a e7bd
00000310: 88aa 863c cc85 b03d 68e9 55be 1c55 8c3d
00000320: aa03 c1be 1fab dd3e 192f e0bd f911 10be
00000330: e5f1 aebe b6ad 03be 9989 3ebd 3915 cfbd
00000340: b83a e5bd fe92 03be e1e3 45be af62 be3e
00000350: ee51 f6bc be3b 19be 26cd e73d 65ec 193e
00000360: 6706 51be be2d 7dbe 0042 39be b6fc 813d
00000370: 3596 85bd 0e82 18be b884 ec3e f07c f0bc
00000380: b3ef dc3e 0c4f 233d 652c 61be 053a 01be
00000390: 4cd3 74bd d399 93be 70e7 1bbd c186 013c
000003a0: 959d 83bd 4fad 84be 045e 28be 5b43 2dbd
000003b0: 993d 84be f437 643d 696a 303d 8bb4 5a3d
000003c0: 77be 9cbe c60f 6fbe e656 51be 0983 1fbe
000003d0: 71fa 083e 0338 7dbe b751 d93e be87 c4be
000003e0: d4dd 163f b361 043e b136 5cbe d60b 1c3f
000003f0: c9a8 acbe 92d8 4ebd 1fac 01be e2de eabd
-0.25869855 -0.0660303 0.35419542 -0.2899072 0.22268046 0.10519077 -0.05574263 -0.100628726
0.15870695 -0.43302968 -0.13053122 0.1021909 -0.14504167 0.20893455 0.26981938 0.18611835
0.14747424 0.049520914 0.0934374 -0.083736494 0.18817632 0.028485643 -0.29832998 0.17936298
-0.117669374 -0.27838242 -0.34521362 -0.009432388 0.18633857 -0.40644726 -0.46168005 -0.09117885
0.0631781 -0.087234266 0.025574405 -0.19283783 -0.0018509313 0.13851474 0.07643536 -0.18069379
0.089026965 0.17686118 -0.15047684 -0.079735845 -0.0012116717 0.36577612 -0.064572215 0.13528092
0.032668974 0.015073049 -0.08648056 -0.09418469 -0.06860239 0.3804836 0.17108984 -0.13640562
0.031272627 0.12439765 0.008133577 0.25202134 0.25469452 -0.048782267 -0.5374936 -0.06767678
-0.1840148 -0.09851846 -0.4247258 -0.083997644 0.28125164 -0.056784652 -0.41495165 -0.027951851
-0.20642547 -0.024343805 -0.21492852 0.07276885 -0.05282738 0.24327362 -0.35850787 -0.028818185
0.1363431 0.09789745 -0.28798196 0.037532184 0.020467483 0.19941476 0.18545131 0.011941984
-0.21199389 0.23881887 -0.2755974 -0.068023734 0.13283405 -0.3927574 -0.065905616 0.028892055
-0.041390587 0.36475402 0.11277182 -0.1901717 -0.3417971 -0.49935538 -0.06190087 0.17090638
0.09576369 -0.34130284 -0.36317936 0.27097377 -0.33171934 0.09269297 0.04664878 -0.032725386
-0.17760289 -0.32154337 0.2047215 -0.30509177 0.040709764 -0.09442807 0.020882037 -0.108647816
-0.1379167 -0.051565535 -0.47449303 0.14901643 -0.47436827 0.2621765 0.14532366 0.0656068
-0.27883014 -0.038578305 -0.10070657 -0.084059015 0.41105312 -0.07801164 0.523412 0.5086492
-0.111574546 -0.31351286 -0.14029235 -0.0834053 -0.110748366 0.09228671 -0.14109942 -0.37306753
0.056768477 0.07471561 -0.08252141 -0.033859402 -0.10712902 -0.06600503 -0.04223673 0.25517532
-0.07055944 -0.1360462 -0.38074115 -0.18112443 -0.017909598 -0.15828617 -0.2990964 0.08204536
-0.17965978 -0.13625109 0.4470581 -0.2702193 0.39262202 -0.1268053 0.50364405 -0.1995919
0.081916526 -0.1526235 -0.0022771955 -0.1760266 0.0901819 0.11621046 -0.14256486 -0.009866029
0.12239041 -0.03988286 -0.21159773 0.0042551165 0.09477708 -0.045123618 0.026640996 -0.05624578
-0.18250002 0.09297441 0.5531534 0.41212782 0.12567669 -0.0073820055 -0.14048474 -0.13010454
-0.00064765895 0.11606832 -0.30303934 -0.113026105 0.016438738 0.0861927 -0.20889819 0.06852171
-0.37698108 0.43294618 -0.10946483 -0.14069356 -0.34168926 -0.12859234 -0.046517942 -0.1011147
-0.1119284 -0.12849042 -0.1932521 0.37184665 -0.030068364 -0.14964196 0.11318426 0.15031584
-0.20412599 -0.2472448 -0.18091583 0.06347029 -0.0652279 -0.14893362 0.46195006 -0.02935645
0.43151626 0.039870307 -0.21989591 -0.12619789 -0.05977182 -0.28828296 -0.038062513 0.007905663
-0.06426541 -0.25913474 -0.16442114 -0.042300563 -0.25828245 0.055717424 0.04307023 0.053394835
-0.30614063 -0.23345861 -0.20443305 -0.1557733 0.13376786 -0.24728398 0.42445156 -0.38384813
0.5893223 0.12927894 -0.21505238 0.6095556 -0.33722523 -0.050499506 -0.12663315 -0.11468293

all_embed.embed_2.bias f4 [128]
00000000: 092b 16be c895 c0bd 27e9 e1bb e030 32bd
00000010: ae0c cd3d b59a 6cbe c1b2 97bc e4c7 37bd
00000020: 462e 3fbe 52f6 9b3b 3558 84bd bc72 5b3d
00000030: 8002 48be 0c8e fbbd 70d6 2f3d bd0f 883d
00000040: e1f6 12bd 7d03 b9bd 25f3 713d fed4 2ebd
00000050: ea89 8e3d 5447 50bd 18f8 00be 0a9c 99bd
00000060: a9ab 8fbd a573 edbc 5764 d03d 8140 80bd
00000070: 628b e53c 7ea3 f9bc 474b 96bd b16d ae3d
00000080: c755 043d 3840 64bd d822 cebd 322f 873d
00000090: 6633 fbbc 0308 97bd 7709 c83d 80ac 0e3e
000000a0: 34df fa3d 8b3e de3b 9f2b b43d 41f2 acbd
000000b0: 87e9 ccbd bb7d bc3c 61b7 033d b49b 123d
000000c0: 12ed eabd 2d93 22be 2fb6 eb3d 4e3d 09be
000000d0: 8aef 1dbe fab3 693d a665 50bd 46e9 203e
000000e0: 4965 46bc af76 18be 4bb5 ccbd ae4f 5ebc
000000f0: 4701 d7bd c9f0 1cbd 0964 bc3b 0b06 d73d
00000100: 6b33 433d 40c1 d5bd e572 2bbe 7119 39be
00000110: 6439 4bbb 247b c63d f638 113d 6501 b03c
00000120: a4d7 dc3d 1ff3 ea3d e9f1 78be 06b1 29bd
00000130: e352 65bd ef88 eebc 1e49 bfbc 0ba1 fa3d
00000140: effd 843c 6c6f d93c d176 973b 92bc 123e
00000150: d994 19be 023c b5bd 7aa1 733d 0a1c 01be
00000160: 1b5a 0b3d 4c94 fc3c ccc7 29bc ce2b c7bc
00000170: e711 7bbd 57bc c3ba 657a 69bc a1de 5e3e
00000180: c7f8 cb3d 01bf 1abe 376f 493e 289b eb3d
00000190: f8bb a9bd 76b2 18bd 0381 babc 4bad 8f3c
000001a0: 3e8c a53d ebbc aebd a831 cb3d 8ef7 523e
000001b0: 35d8 cf3d f9a4 123e c77f fdbd a5de 813d
000001c0: bafe 5ebd 3da1 04bc c3ff e4bd 96c6 cdbb
000001d0: b0a1 9c3d 335d d9bb 659c 403c 5b35 ef3c
000001e0: f9c8 8d3d e492 a0bd 7b8e f73d 661a 5fba
000001f0: 1246 923d 3436 3e3c 9e6e 10bd c6f9 dd3d
-0.14664854 -0.094035685 -0.006894249 -0.043503642 0.10012184 -0.23105891 -0.018517854 -0.044868365
-0.18669996 0.0047595883 -0.06462137 0.053576216 -0.19532204 -0.12282953 0.042929113 0.06643627
-0.035879973 -0.090338685 0.05906977 -0.042683594 0.06959899 -0.050849274 -0.1259464 -0.07500465
-0.070151635 -0.028985808 0.10175388 -0.06262303 0.028020564 -0.030473467 -0.07338577 0.08517016
0.032308366 -0.055725306 -0.1006524 0.06600799 -0.030664157 -0.07374575 0.0976743 0.13932991
0.12249604 0.006782358 0.087973826 -0.08444644 -0.10005479 0.023009172 0.032157306 0.03579302
-0.11470999 -0.15876456 0.11509358 -0.13402292 -0.15423408 0.057056405 -0.05087819 0.15713987
-0.012109109 -0.14889024 -0.099955164 -0.013568802 -0.104982905 -0.038315568 0.00574923 0.104991995
0.047656458 -0.1043725 -0.16743048 -0.18076111 -0.003100955 0.09691456 0.035454713 0.02148504
0.10783318 0.11472153 -0.24311031 -0.04142859 -0.05598725 -0.02911803 -0.023350295 0.12237748
0.016234366 0.026542388 0.0046223183 0.14329746 -0.14998187 -0.08849336 0.059480168 -0.12608352
0.03402148 0.030832432 -0.010362577 -0.02431288 -0.06129637 -0.0014933449 -0.014250373 0.21764614
0.0995956 -0.15111925 0.19671331 0.11504203 -0.08287805 -0.03727957 -0.022766596 0.017538687
0.0808339 -0.08532127 0.099215806 0.20602247 0.1014866 0.14320745 -0.12377887 0.06341294
-0.054442145 -0.008095083 -0.11181595 -0.006279777 0.07648027 -0.0066334247 0.011756037 0.029200247
0.06923098 -0.07840517 0.12087723 -0.00085107086 0.07142271 0.011609603 -0.035261743 0.10838656

pointer.v f4 [1, 1, 128]
00000000: df29 d63f 40f6 88bf 5532 583f 29a8 d83f
00000010: de11 62be d19c bf3f 4c59 a93f 3a5c ac3f
00000020: 0b93 9c3f 9676 fa3e 8671 b73f b43b a2bf
00000030: ca0d 143f f1b5 fe3f b507 63bf 66ee c3bf
00000040: ed6f 8dbf d85c 3c3f f5d2 7cbf 3ef3 0140
00000050: c078 2340 7d95 f83f cd68 9f3f 324c 43bf
00000060: 9624 553f 2d57 d73f 583a c0bf 1039 c33e
00000070: e3d3 bdbd af20 b9bf bca5 e73e 6621 a0be
00000080: f35d 9cbf ef13 bb3f 3b27 71c0 7dca d03f
00000090: 4318 dc3f 4d67 f93f 18e4 c1be a8df b3be
000000a0: a446 1bbf a844 923f 2bc2 ad3f b4fb 783f
000000b0: dd97 81bf ac4e 3b3f 029b 89bf e89e 553f
000000c0: b2e4 1f3f 6b28 da3f 78e6 f3be 7d4f 70bf
000000d0: a990 bf3f af9e dcbe 2a75 6f3f 8821 e3bf
000000e0: bcfd bdbc de1b 143f c71c fd3e c1b9 703f
000000f0: 1dc2 453f ac46 3abf 9f49 64bf d071 64bf
00000100: a4f4 9dbf f4b0 e93f aa4a f3bf e0ad d43f
00000110: 9189 7a3e 8c3e 78bf f2f0 f3bf 59e9 d33f
00000120: 7010 8cbf 5ce9 d1bf 30b8 943f a5ac ad3f
00000130: b315 d33f 7871 d13f afcf a4be 2ed8 91be
00000140: 76b9 adbf 891f 4f3f 2aec 083f 35f3 72bf
00000150: fbf0 be3f dfcb d83f 48b4 15c0 b4cf bc3f
00000160: 5a53 59bf fd6c 5dbf bab6 ca3f 330a 99bf
00000170: faa8 93bf 0a91 71bf d64a d93e 9468 9cbf
00000180: 3540 a0bf f804 973f 6b2b 0cc0 f87a 3bbf
00000190: ea00 e53f 2eba 1940 0614 aebe a787 d63f
000001a0: aedd 82bf 998c 0540 0032 eabf 88b3 7cbf
000001b0: 7ba9 64bf 477d 14c0 a689 9c3f f090 51bf
000001c0: 04df 6a3f 2f2e 60bf 5c40 e03f e1ca dd3f
000001d0: a363 95bf 78e6 6bbf 00c6 28bf a740 aebf
000001e0: 8ae5 81bf 82a6 e83f acc2 dbbf fa2f bcbe
000001f0: 1f0b 3340 4010 8dbf e346 f73f 276a 0e40
1.6731528 -1.070015 0.844518 1.6926318 -0.22077128 1.4969732 1.3230376 1.3465645
1.2232374 0.489186 1.433152 -1.267447 0.5783354 1.9899274 -0.88683635 -1.5307128
-1.1049782 0.7357917 -0.98759395 2.0304713 2.554245 1.942062 1.2453858 -0.7628814
0.8325895 1.6823479 -1.5017805 0.38129473 -0.0926893 -1.4463099 0.45243633 -0.3127548
-1.2216171 1.4615458 -3.7680194 1.6311795 1.7194904 1.948465 -0.37869334 -0.35131574
-0.60654664 1.1427202 1.357488 0.9725907 -1.012447 0.7316692 -1.075043 0.83445597
0.62458336 1.7043585 -0.4763677 -0.9387129 1.4966022 -0.43089816 0.93538153 -1.7744608
-0.023192279 0.5785502 0.49436018 0.9403344 0.7724932 -0.72764087 -0.89174837 -0.89236164
-1.2340283 1.8257127 -1.9007161 1.6615562 0.2446654 -0.9697044 -1.9057906 1.6555587
-1.0942516 -1.6399341 1.161871 1.3568312 1.6490997 1.6362753 -0.321897 -0.28485245
-1.3572223 0.80907494 0.5348536 -0.94902354 1.4917291 1.6937217 -2.3391285 1.4750886
-0.8489281 -0.8649443 1.5837014 -1.1956238 -1.1535943 -0.9436194 0.42439908 -1.2219415
-1.2519594 1.1798391 -2.19015 -0.7323451 1.7890904 2.4019885 -0.33999652 1.6760148
-1.0223901 2.0867064 -1.8296509 -0.9871144 -0.89321107 -2.3201463 1.2229507 -0.8186178
0.91746545 -0.8757047 1.7519641 1.7327539 -1.1671032 -0.9214854 -0.65927124 -1.361348
-1.0148175 1.8175814 -1.7168784 -0.36755353 2.7975538 -1.1020584 1.9318508 2.225229

pointer.encoder_attn.v f4 [1, 1, 128]
00000000: 81bd 803d 5bb3 bb3d 8796 a03c e7dd 843c
00000010: 3d00 24bd 891b 0d3d 9175 263c daa1 133e
00000020: 8b92 8a3d 4a78 52bd 8407 ae3d 0ad6 99bd
00000030: e341 babd fc2d 373c 842d 053c 1ea7 32bd
00000040: 8d10 473d f47b d53c 39cd ebbc 2063 873d
00000050: 4938 2f3d 547f c5bd ff92 8dbd b4c6 97bd
00000060: 6462 793d 69a9 103d c67f 1dbd 1b1c 6bbd
00000070: fc95 fe3d c529 c03d 3602 01bd a094 c83c
00000080: f78f dc3d 8398 103e d7f2 3dbd c046 92bd
00000090: 4a46 e9bd dcb0 313d b519 79bd 62aa 363d
000000a0: a39c ee3b 4e78 b43d 0bcf 1abe 4663 c23d
000000b0: 3c5f 6d3d eecc e83c 59d5 a43d cc0f 93bd
000000c0: 4ba0 e5bd 387a f93c a721 fb3d da91 043e
000000d0: f944 eabd 4fc4 3f3d ee11 b1bd 3e68 d93d
000000e0: e9de bf3d 4c3e 9d3d 03dd 993d e861 073c
000000f0: 1aef 423e 8b14 9d3d 880b 0b3e ea0a 3bbc
00000100: 5d96 ad3d b690 7d3c 2710 cbbd 3000 c73d
00000110: 9a56 4e3d c50a 0fbd 0494 bf3d 1072 f6bc
00000120: 0a31 f43d 37ae d5bd 0dd1 9a3d 94d1 b4bd
00000130: 6f49 783d f08d 0d3e 69f7 343d deac 433d
00000140: 1397 893c fb8d b33e 1ae3 9a3d d26d 563b
00000150: 65be 9d3d d217 c83c 3ac7 363e 4322 61bd
00000160: 03c1 10bc c62d 6cbd fc3f 62bd c478 ef3d
00000170: 56e9 533d 869c 1c3d dd03 01bd 2646 9dbd
00000180: 5a2c 94bd 034c 303c f937 83bc 0049 c6bd
00000190: a4c0 ca3d 4415 8ebd bf14 b43b d302 86bc
000001a0: 5b93 a0bd f35e 9a3d bb4c 1ebe 2fc9 1a3d
000001b0: 6294 d83d f9a7 513c 3549 9fbd 5232 d4bd
000001c0: 8022 bebe 2e5e 1e3d 97d3 e53a 4f58 0dbe
000001d0: d789 92bc 2da3 e0bc e8f0 103e ceda 00bd
000001e0: 7c1f 813d b160 2d3e 2867 babc 9765 303c
000001f0: d0d8 d83c 55c7 e13d bb78 f43d 4daa 073e
0.06286145 0.09165069 0.019603027 0.016219093 -0.04003929 0.034450088 0.010159866 0.1441721
0.06766232 -0.051384248 0.08497527 -0.07511528 -0.09094598 0.011180397 0.008128528 -0.043616407
0.04859977 0.026060082 -0.028784381 0.066107035 0.042778287 -0.096434265 -0.06912803 -0.074109465
0.06088485 0.035317812 -0.038451932 -0.05739985 0.12430951 0.09382967 -0.03149625 0.024484932
0.107696466 0.14120679 -0.04637417 -0.07142401 -0.1139036 0.043381557 -0.06081553 0.044596083
0.007281856 0.08812009 -0.15118043 0.09491591 0.05795215 0.02841803 0.08048505 -0.071807474
-0.11212214 0.030453786 0.12262278 0.12946263 -0.11438937 0.046818074 -0.08645998 0.10615586
0.093686886 0.07677898 0.07512858 0.008263089 0.19036523 0.07669934 0.13578618 -0.011416176
0.08475945 0.015476396 -0.0991519 0.09716833 0.05037556 -0.03492238 0.093544036 -0.030083686
0.11923416 -0.104336195 0.075594045 -0.08829036 0.060616907 0.13823676 0.04418126 0.04777228
0.01679567 0.3506926 0.075628474 0.0032719267 0.077023305 0.02442542 0.17849436 -0.054964315
-0.00883508 -0.05766084 -0.0552368 0.11692956 0.0517362 0.03823521 -0.031497825 -0.076793954
-0.07235022 0.01076031 -0.0160179 -0.096818924 0.099000245 -0.0693765 0.005495637 -0.016358769
-0.07840606 0.075376414 -0.15458958 0.03778952 0.10575177 0.012796395 -0.07777635 -0.1036116
-0.37135696 0.038664035 0.0017534372 -0.13803218 -0.017887993 -0.027421558 0.14154398 -0.03145867
0.06304833 0.16931416 -0.022754267 0.010766408 0.026470572 0.11024348 0.1193709 0.13248558

pointer.encoder_attn.W f4 [1, 128, 256]
00000000: 6ab1 e4bc ea34 99bb fd7d a3bd 1e2a 38bd
00000010: 640c 843d b432 3ebc f059 86bc d07a ccbc
00000020: 5925 43bd a775 903d 03df e2bc 6076 3f3d
00000030: 6b68 023d c64a 08bd dc60 21bd 043a d93c
00000040: 4aad 33ba 1710 7c3d 064b 96bd ce93 f8bc
00000050: aa19 a3bd dc8c dfbc f65d 6bbc 9443 ac3d
00000060: 051f 48bd 1056 5dbc 7828 533d a8d0 8cbc
00000070: ebcf 53bd 9580 d93c d4b0 3bbd 1fd8 6cbc
00000080: 8fde 123d 6e0c b1bc d800 42bd d5c6 afbc
00000090: 9f7b 11bd 9053 11bd 8dd6 9fbd 855c 05bb
000000a0: 1ea5 7abc 1c3b 04bd e697 d1bc 17a4 50bc
000000b0: 5b90 71ba 4515 0dbd 4eff 2fbb cde7 a0bc
000000c0: 2d6b 393d 1921 07bd 10b6 cdbc 9bd1 693b
000000d0: a366 1fbd fe66 febc 3e2c 1fbc 9a90 d43b
000000e0: 702b 8f3c 8ba8 e13c 99bd 8cbc 00c3 e3bc
000000f0: 86e9 483d 598c efbb cf92 03be 2002 723c
00000100: b9d8 343c ff88 e8bc 5ade acbc fa43 09bd
00000110: 8b34 d8bc 27aa 92bc abd9 e4bc dc83 36bc
00000120: 9e8b 493b a08d 8abc 4e18 46bc c4ad d8bc
00000130: 81dd 6abc 537c 34bd e4d4 3dba 5411 023d
00000140: 4878 1e3d 427e 12bd fe15 ed3b e2b6 253d
00000150: 7bde f7bc dd39 0ebd 0514 54bd d552 c7bc
00000160: 7fc8 22bc 6c64 ffbc 83fa d4bc ced0 e13c
00000170: 1759 df3b 1217 f5bc e45b 443d 1ef5 a33b
00000180: 9289 8e3c 2b5a 32bc 44f5 aebc a2d6 0abd
00000190: 032e 1fbd 40cf fabc 0f26 80bc 2e05 34bc
000001a0: 4088 2f3d 2b5e 99bd 85af 9dbd e0a9 86bc
000001b0: 3b26 933c f1ec 20bd 9a6d 27bd b2fd 51bc
000001c0: 4aee 10bd c530 053d 31d4 6ebd 319f 95bd
000001d0: bb56 403a d53a 11bd 0334 d8bc 3028 1abc
000001e0: d117 42bc 657c bb3c c17c 863d 2632 b13c
000001f0: 3897 c1bd 4659 053d be20 43bd aa43 5bbc
00000200: 1fb1 a5bd e23e 71bd 0656 d5bc f7b0 3d3d
00000210: bd97 1dbd 055c b5bd 9559 8fbd f618 67bd
00000220: 85ac b5bd 3f03 4a3d 7afd 573d fa21 b2bb
00000230: 8ef4 593d d03c 24bd 1234 683d 8a3c aebd
00000240: b0ae 633d 9def 993d 1e57 76bd bdaf 84bc
00000250: ade8 403d 11c5 3ebd b537 03bd 030e 39bd
00000260: 46d6 42bb f2e2 be3c 11bf 163d 5707 293d
00000270: b738 91bd 0d60 b9bd 9e56 e0bc dcd0 c73d
00000280: b459 a3bd 695d 8a3d b928 c33d fe40 b83d
00000290: 7826 05bc 2b4c 91bd de4d 02be abc8 de3c
000002a0: 6baa fa3c 5ae5 d83c df03 de3d 185a 77bd
000002b0: 996f e7bd 2947 6abd 917c fa3c 88c3 a4bd
000002c0: f399 cfbd 4f5c c33d 6e13 8abd 31ed 18bd
000002d0: 3c9d 97bc 92df 013d eb60 acbd 0f73 aebc
000002e0: 6e14 1fbd 7bea bebd 801c 403c afb7 473c
000002f0: 52bc 28bd 3caf 8bbd f77f 293d 72ae 5cbd
00000300: c89b d83d da2d 7f3d 5369 33bd af6a ffbc
00000310: 831c 1a3d 29d9 2f3d 6bde 1fbd 2edb 8c3d
00000320: abd5 26bd 6dc8 ce3d 60ac 503c 00fb 543d
00000330: ee72 9dbd 5d83 7dbd f968 a3bd c339 1cbe
00000340: eeb9 3dbc 9a39 fb3c ec20 383d c23f 45bd
00000350: 7fda bf3d 3b7a 97bd cabc b7bd bfc3 a33d
00000360: 55d3 a4bd ae74 b3bd 0ebe ab3c 8bb5 97bd
00000370: 49f2 6d3d 3274 dcbd 7e77 5abb d2eb 853d
00000380: f974 5f3c 10b5 7f3c 1a2e 903d f3be a53d
00000390: c141 4b3d 8625 d23c 37e0 bb3d e8ae 53bd
000003a0: 2d86 653d 4966 a13d faf0 713d 2a92 37bd
000003b0: 7f14 bb3b 6798 7abc 964e 23bd b363 a03d
000003c0: e4fa d43c a80d f33c a6c3 01bd dfd4 c73c
000003d0: a6bb 5f3d c060 763d 4176 593c 5f27 e93d
000003e0: cfc7 46bd a2ba 33bc c3b7 c8bc 7a3f 38bc
000003f0: 064a 9f3c a0c5 06bc 356d bc3d 7f0d 01be
-0.027916629 -0.0046754973 -0.07983015 -0.04496204 0.06447676 -0.011608768 -0.016400307 -0.024960905
-0.04764304 0.070536904 -0.02769423 0.04674375 0.031837862 -0.033274435 -0.039399013 0.026516922
-0.000685413 0.061538782 -0.07338528 -0.030343916 -0.079638794 -0.027288847 -0.014365664 0.08411327
-0.048857708 -0.013509288 0.051552266 -0.017189339 -0.051711958 0.02655057 -0.045822933 -0.014455824
0.03585678 -0.021612372 -0.047364086 -0.021457115 -0.035518285 -0.035480082 -0.07804594 -0.0020349335
-0.015298156 -0.032282934 -0.025585126 -0.012734435 -0.0009214931 -0.034444112 -0.0026855054 -0.019641781
0.045268226 -0.03299055 -0.025111228 0.0035677913 -0.03891624 -0.03105497 -0.009715138 0.0064869644
0.017476767 0.027546188 -0.017180251 -0.027802944 0.04905083 -0.007310432 -0.12848972 0.014771014
0.011037999 -0.028385637 -0.02110212 -0.033512093 -0.026392242 -0.0179034 -0.027935823 -0.011139836
0.0030753384 -0.016913235 -0.012090756 -0.026450045 -0.014335037 -0.044063877 -0.0007241501 0.031754807
0.038688928 -0.03576494 0.0072352877 0.040457614 -0.030257454 -0.03472315 -0.051776905 -0.02433149
-0.009935497 -0.031175815 -0.02599836 0.027565386 0.0068160403 -0.029918227 0.047939196 0.0050035855
0.017399583 -0.0108857555 -0.021357186 -0.033896096 -0.03886224 -0.030616403 -0.015643148 -0.010987563
0.042854548 -0.07488664 -0.07699493 -0.016438425 0.017962566 -0.039288465 -0.04087601 -0.012816833
-0.0353835 0.032517213 -0.05830783 -0.07305754 0.00073371426 -0.035456497 -0.026391989 -0.0094089955
-0.011846499 0.022886464 0.06566764 0.021630358 -0.09452671 0.03255584 -0.047638647 -0.013382832
-0.08090424 -0.05889786 -0.026041996 0.046311345 -0.038474787 -0.08855442 -0.06999508 -0.05642029
-0.08870796 0.049319502 0.05273197 -0.005436179 0.05321174 -0.040097058 0.056690283 -0.08507641
0.055586517 0.07516406 -0.060141675 -0.01619708 0.047096897 -0.046574656 -0.03203555 -0.04517938
-0.0029729768 0.023301575 0.03680331 0.041266765 -0.070908956 -0.09051523 -0.027385052 0.09756634
-0.07976094 0.06756098 0.095292516 0.08996771 -0.008126847 -0.07094606 -0.12725016 0.027195295
0.03059884 0.02647655 0.10840582 -0.060388654 -0.113005824 -0.05719677 0.030576976 -0.08045107
-0.10136785 0.09539091 -0.06741987 -0.03733558 -0.018507592 0.031707354 -0.08416923 -0.021295099
-0.038837843 -0.09322067 0.011725545 0.01218979 -0.04119522 -0.06820533 0.041381802 -0.0538773
0.10576588 0.062299587 -0.043801617 -0.0311788 0.037624847 0.04293171 -0.039030474 0.06877743
-0.040731113 0.10096822 0.01273641 0.051997185 -0.07687937 -0.061892856 -0.07979006 -0.1525641
-0.011579974 0.030667115 0.04495327 -0.048156507 0.09367847 -0.073963605 -0.089715555 0.0799632
-0.08048121 -0.08762489 0.020964649 -0.074076734 0.05809239 -0.1076435 -0.0033335383 0.0653912
0.013638728 0.0156071335 0.07040043 0.08093061 0.049623255 0.025652658 0.09173625 -0.051680475
0.056036163 0.078808375 0.059067704 -0.044817127 0.0057092304 -0.015295125 -0.039869867 0.07831516
0.02599854 0.029669598 -0.031680726 0.024393497 0.054622315 0.06015086 0.013272823 0.113844626
-0.048530396 -0.01096979 -0.024501687 -0.011245603 0.019444477 -0.008225828 0.09200517 -0.12602805

pointer.fc1.weight f4 [128, 256]
00000000: f310 373c 634d dbbd bcf0 ce3d b17d 8e3c
00000010: b3f7 e1bd ab4c 8f3d 5084 f8bb c0fa e93c
00000020: 16fe c2bc b519 b13c cc66 1abd ab0e 883d
00000030: 680e 383d 25c4 e7bb d3c5 033d 1eca cfbd
00000040: c726 63bd 5044 f8bd 44eb b73c 13e8 c6bd
00000050: f9a0 7cbd 5f5d 5c3d 89e3 8c3d f0f4 c1bd
00000060: 8e9f dc3d edaa 823d 437b dbbd 4cc6 c2bd
00000070: a08b 84bb 25f1 713d 4747 7fbd 73d3 8dbd
00000080: a90d a8bd dd06 003d ccfa da3c d784 b73d
00000090: d66c 3b3d 55f9 a7bd 99ec ac3c 2f90 c73c
000000a0: ca09 07bd 3dde b1bd a9ac 353c 7f04 d83c
000000b0: 32fc 9bbd b505 983b 4655 dd3d 2edb 3a3c
000000c0: 2a16 913c 484d d7bd 7706 70bd d089 07bd
000000d0: e6ed ea3d 8b5c adba 4484 0bbd e640 ad3d
000000e0: f04a 953d ac20 fdbc 54ab c03d 4ce5 a8bd
000000f0: 3253 a83d 9760 973d 68a0 0a3c 5ab5 c13d
00000100: 463d a1bd 17c0 fabd 8095 a3bd 3728 4dbc
00000110: 0e8b 90bd da50 72bc e7a3 90bd 9f6e ddbb
00000120: 8799 c13d 6e19 073c a6f9 c13d f625 b03c
00000130: b318 10bd 45f7 fe3d 24fa f13d 7031 a0bd
00000140: 82b0 d8bc 1539 88bd 6f82 98bc 837f 503c
00000150: 67fc 93bc 40d1 ab3d f34c a1bd cfe8 083b
00000160: 9b87 fbbd aaf4 d5bc 319f f43d 7bee 83bd
00000170: 89b0 ca3d 5f18 4e3d ee95 79bd 970d febd
00000180: 696c 80bd 6c6a c9bd 9df2 c53d fdb9 d3bd
00000190: 31ee bb3b 3e2d 853d 36e2 073d 5e2b ab3d
000001a0: 3c7b b43b 1123 debd 3ec4 72bc 03c8 44bd
000001b0: b085 c0bd 6200 293d f950 fd3d 35bf f6bc
000001c0: 3ee4 4a3d 6cc7 53bd bd6e cbbd 54fd 86bc
000001d0: 71f9 733d a358 28bd 408c a3bd c54e e73d
000001e0: 9582 55bc e08e 2d3d bc36 3f3d 4c24 e33d
000001f0: 9a3b 333c ca88 dfbd d954 c63c a69c 683d
00000200: 806a 38b9 1347 893d 6ac7 463a 684b 50bd
00000210: e0b1 4abd ccc1 59bd 4d2d 623d 9e46 a23d
00000220: 48c9 2bbd ee3b a83b 4775 9e3c d5af 843d
00000230: fc6b 953d a299 b53d b0ba 1c3d 3fdd 5abc
00000240: e06b 10bd 9165 84bd 7e25 d8bd 3aeb 0c3b
00000250: 6027 c73c ae86 293d 66e2 6abd 5976 ac3c
00000260: 104d 2b3d 1710 c0bd 00a9 6cbd 8319 19bd
00000270: b703 84bd 6a9e bebd 9157 e63d 897d 2ebd
00000280: b468 e3bb 9b62 5d3d d5ca edbd 2488 633c
00000290: 5b18 2b3d 3b5a b43d 9048 883d c849 e23d
000002a0: 478f bb3c ce3d 0e3d 36d6 74bd 7c2e 5fbd
000002b0: cda5 9b3d e383 ad3c fd72 f03d 2e4c 8a3d
000002c0: 97cf cb3d 43e2 b83d 6387 d2bc fc6e 29bd
000002d0: 0fb3 c23d 8b36 e13c 350c 3e3d b7c0 b73d
000002e0: 1427 c83d d39c c03c d56b adbd dfbb fa3d
000002f0: 54d0 ea3d 2d0b d53d 6965 c73d 61be fc3d
00000300: 7943 c5bd 1912 e8bd 4990 9bbb bab1 f6bc
00000310: 269b b8bd 4580 633d 5535 a2bc c0b5 f6bb
00000320: fa99 a6bb 8a1d a73c f4b9 293d 6f12 6c3d
00000330: 8eaf e73d 287e 823d 5ee4 c03d c4aa 1cbd
00000340: ca8b 3abd 6a29 b13d 8d03 22bd 7ca7 ccbc
00000350: 88dc fa3d ff91 8e3d 8659 b33d 0fb2 093d
00000360: 7c8d c4bc 94bc 1a3d 51cc 9bbd bc5a 86bc
00000370: 1914 db3d 752a c0bd 3965 f5bd 4f5a f9bc
00000380: cfa1 213c 3c52 9c3d 8e81 a83d fe92 ea3d
00000390: e984 a73d 7db3 b2bd 0e8a a4bd c2e4 e7bd
000003a0: aee6 853c 8ef9 4c3c 5b14 f8bd 3d29 f43d
000003b0: 439c aabd 0649 84bc da9d a0bd 3a62 343d
000003c0: 6793 c8bd 994c cabd f75c 613d ee2b cdbc
000003d0: 8f47 32bd 80ac d23d fd00 d3bd 7f0c dd3d
000003e0: 3356 8cbd 3927 36bc 843d fb3d bb35 fdbc
000003f0: 810a e8bd b882 12bd 078e 003e d87d 6a3d
0.011173475 -0.1070812 0.1010451 0.017393919 -0.11033573 0.06997045 -0.0075841323 0.02856195
-0.023802798 0.021618703 -0.03769569 0.06643423 0.044935614 -0.007072943 0.03217108 -0.10145973
-0.055456903 -0.121224046 0.02245105 -0.097122334 -0.061676953 0.053799983 0.068793364 -0.09470546
0.1077262 0.06380258 -0.1071687 -0.095104784 -0.004044965 0.059067864 -0.062323835 -0.06925096
-0.082057305 0.031256545 0.026730917 0.08960884 0.04575809 -0.08201853 0.021108912 0.024360744
-0.03296832 -0.08684967 0.011088529 0.026369331 -0.07616462 0.004639352 0.1080728 0.011404796
0.017710764 -0.10512787 -0.058599915 -0.033090413 0.11471157 -0.0013226432 -0.034061685 0.08459644
0.07289684 -0.030899368 0.09407678 -0.0824686 0.08218993 0.0739147 0.008461095 0.09458418
-0.07873015 -0.122436695 -0.07987499 -0.012521795 -0.070577726 -0.014789784 -0.07062512 -0.006757572
0.09453111 0.008245809 0.09471445 0.021502476 -0.035179805 0.12449507 0.11815289 -0.078219295
-0.026451353 -0.066515125 -0.018616883 0.012725714 -0.01806469 0.08389521 -0.07876005 0.0020890718
-0.12281724 -0.026117641 0.11944426 -0.06441971 0.09896953 0.05031621 -0.060934 -0.12404936
-0.062706776 -0.098347515 0.096654154 -0.10338209 0.0057351817 0.0650277 0.033174716 0.08357881
0.0055078547 -0.10846532 -0.014817296 -0.04804231 -0.09400499 0.04126013 0.1236896 -0.030120471
0.049534075 -0.051703855 -0.09933231 -0.016478218 0.059564058 -0.041100156 -0.07985735 0.11294321
-0.013031621 0.042372584 0.04668306 0.110909075 0.010939503 -0.10914762 0.02421038 0.056790017
-0.00017587282 0.067030095 0.00075828156 -0.050853163 -0.04948604 -0.053163335 0.055218983 0.079236254
-0.041940004 0.0051340973 0.019343032 0.0647885 0.07295987 0.08867194 0.038263977 -0.013358413
-0.035259128 -0.06464685 -0.10554026 0.002150251 0.024310768 0.041388206 -0.057344817 0.021052526
0.04182154 -0.09378069 -0.05777836 -0.037377845 -0.06446021 -0.09307559 0.11247171 -0.04260019
-0.006939972 0.054049116 -0.11610953 0.013887439 0.041771274 0.088062726 0.06654465 0.11049229
0.022895468 0.03472691 -0.0597746 -0.05448769 0.07599983 0.021181053 0.11740682 0.06752811
0.09951704 0.09027531 -0.025699323 -0.04136561 0.09506809 0.027491828 0.04639836 0.08972304
0.097730786 0.02351228 -0.08467833 0.12242865 0.11465517 0.10402522 0.09736139 0.123409994
-0.0963201 -0.11331577 -0.0047474247 -0.030114044 -0.09013967 0.05554225 -0.019800821 -0.0075289905
-0.0050842734 0.020399828 0.041437104 0.057634767 0.11312781 0.06371719 0.094185576 -0.038248792
-0.04554347 0.08650477 -0.039554168 -0.024982207 0.12249094 0.0696144 0.087573096 0.033617076
-0.023993246 0.0377775 -0.0760733 -0.016400687 0.10697193 -0.09383098 -0.11982197 -0.03043857
0.009865238 0.076328725 0.082278356 0.11453818 0.081796475 -0.08725641 -0.08034144 -0.11322929
0.016345348 0.01251067 -0.121132575 0.11921928 -0.08330586 -0.016148102 -0.07842608 0.04403899
-0.0979374 -0.09877891 0.0550203 -0.025045361 -0.043525275 0.10286808 -0.10302923 0.10793399
-0.06852379 -0.01111775 0.122675925 -0.03090941 -0.113301285 -0.035769194 0.12554179 0.05724892

pointer.fc1.bias f4 [128]
00000000: 402b 623d 7507 09bd c68b 4ebd 00f0 e43c
00000010: 2255 0abd b1d1 62bd 5164 7c3d d2ff 3139
00000020: 549d 9a3c ca33 81bc 2301 3c3c 558e 89bd
00000030: bbcd 76bd 95cd 9abc 4283 363d 6ae1 55bb
00000040: e071 6e3d 3133 a83c 51b7 d4bc f071 49bd
00000050: b158 83bc 323c fa3c 1313 87bc 726d a93c
00000060: 1843 313d c19d acbd d68a aa3d 67b2 653d
00000070: 0b99 09bd 76b9 903b 8141 a1bc 1903 9c3d
00000080: 4936 1b3d 00e9 a33a 03c5 2f3c 3cd9 c23c
00000090: 306c 423d 2cbd 1bbd 1ebc 663d d279 88bc
000000a0: e577 7cbd ff18 8b3d a751 013c 7c7d 88bc
000000b0: ff93 993c 11ee 6dbd 30d6 a5bd 7780 29bc
000000c0: 76d9 173d 1005 683c 0e3a e9bc f8ac 733d
000000d0: 0d97 763d 8c1e 52bd 92a0 d7bc dafb 8e3c
000000e0: b42c 14bd ee1f 763c 0b38 eb3c 7c8e 91bd
000000f0: 3cc8 413d 92da 863c ebae ad3d 0a5d 2ebc
00000100: d904 46bd af22 2fbd 2f2b f43c 571f 1cbd
00000110: 43fa 3b3c 2521 98bd 737c 1abc a2f9 c9bc
00000120: 704f 063d 0afa f33b 71d4 913d fcb5 44bd
00000130: 152f 5fbc cffa 143d d15d a93d 1d32 62bd
00000140: f9eb 803c 54c9 2abd c7b0 163d 06d0 763d
00000150: a407 ab3d 9045 a93c 9089 833d 6500 603d
00000160: 6517 0b3d 297f 74bc 1834 4ebd fab6 43bd
00000170: cfe6 0fbd efa4 d6bb 1e19 a53b c61c ba3c
00000180: 8389 0cbd ea5f 993b 2b70 643d 4e6e 4a3d
00000190: af1f a23d 878e 883d a801 45bd 1be4 123b
000001a0: 6c44 c7bc 9167 953d b439 15bd bd52 853b
000001b0: a650 41bd 1a36 c73b f433 81bc e05c a6bb
000001c0: 5a92 5e3d ea2d a23c 132f 2b3d 8f7f 923c
000001d0: 0c86 b53d d8de ce3b aff2 223d 7181 e0ba
000001e0: fbd0 87bd 1a26 863d 1c3d 333d 97fe 633d
000001f0: 3a7d 293d 11ab 82bd 6289 08bd 50d4 e83b
0.055217028 -0.033454377 -0.050426267 0.027946472 -0.033772595 -0.05537576 0.061619107 0.00016975336
0.018873848 -0.015771765 0.01147488 -0.06716601 -0.060254794 -0.018896857 0.04455877 -0.0032635578
0.05821407 0.020532222 -0.025966318 -0.049180925 -0.016033502 0.030546281 -0.016488587 0.02068207
0.043276876 -0.08428527 0.08327262 0.05607834 -0.03359322 0.00441664 -0.019684555 0.07617778
0.037893567 0.0012505352 0.010728124 0.023785226 0.047466457 -0.038022205 0.056331746 -0.016659651
-0.061637778 0.06791877 0.007893003 -0.016661398 0.018747328 -0.058088366 -0.08097494 -0.01034557
0.03707262 0.014161363 -0.028470065 0.059491128 0.060202647 -0.051298663 -0.026321683 0.017454077
-0.036175445 0.015022261 0.028713247 -0.07107255 0.0473101 0.016461644 0.084806286 -0.010642299
-0.048344467 -0.042757686 0.029805748 -0.038115826 0.011473241 -0.07428197 -0.009429085 -0.024655167
0.0327906 0.0074455785 0.07120598 -0.048025116 -0.013622065 0.036372002 0.08269847 -0.055223573
0.01573752 -0.041695908 0.03678968 0.06025698 0.08351067 0.020663053 0.06422722 0.054687876
0.033957858 -0.0149228955 -0.05034265 -0.047781922 -0.035132226 -0.0065504233 0.0050383946 0.022718798
-0.03431083 0.0046806233 0.055771034 0.0494216 0.079161994 0.0666781 -0.048097283 0.0022413793
-0.024324618 0.07295144 -0.036431983 0.004068701 -0.047196053 0.0060794475 -0.015771843 -0.0050769895
0.05433879 0.019797284 0.04179294 0.01788309 0.08863458 0.006313186 0.039782222 -0.001712842
-0.06631657 0.06550236 0.04375945 0.055662718 0.04137919 -0.063802846 -0.033334143 0.0071053877

pointer.fc2.weight f4 [128, 128]
00000000: 785e 5d3d ef98 e63c 5563 873d b89a 883c
00000010: 7e13 95bd be87 acbd 35d7 02bd 5689 e6bc
00000020: 3ee4 25be e097 0fbc d1ed e6bb c75b b43d
00000030: b438 86bd be70 4f3c 20c3 f3bc 5407 3abc
00000040: f0b2 923d 35c0 163e b03a 553d 743c c43d
00000050: 275e 00be a146 93bd 4aa8 0ebe c44e 0fbd
00000060: ca32 d53c c212 ecbd fa1e ae3e d1d1 02bc
00000070: 9715 3d3e 6955 c73d ca57 0a3e dc1b d33d
00000080: e120 5b3d a288 9c3d 8a1b 1fbe aeb8 b13d
00000090: 7cac 233e 248e 533e 89fa cd3d dd48 c03d
000000a0: cca8 07be fff1 f43d c720 653d a8ca cd3c
000000b0: 3343 eebd 2bd7 0abd fe69 093e 0b39 1a3e
000000c0: 102a 10be f39e b6bd da63 08be cafc 193d
000000d0: b5e8 10be da93 fabd 3c89 70bd 8ec3 00bc
000000e0: f22e 2c3d 0b89 cf3c 4f22 743d 2f76 8cbd
000000f0: f244 c13d b894 45bc 0aed 153e 73e6 87bc
00000100: c86c a7bc 304a 213d 9db5 16bd a470 883e
00000110: 26cf f2bd 4946 8d3c 7a1e f83c 8aa8 a93e
00000120: 85a7 223e 9ffe 063d ebc5 333c 9479 c83d
00000130: 0452 213e e340 073c d395 493d fe9d 283e
00000140: 7442 f2bd 8b8a 193e 0582 1dbe f2fd 053d
00000150: ea93 29bd 2fd8 1e3e bd0f dfbd 6de7 cbbc
00000160: f109 443d c1fc c3bd 78f5 49bd 92f0 ff3d
00000170: ac7a 4abd 2435 8abc b3bd b93d ee43 6d3c
00000180: ae7e 12be a40a f3bd 5d34 8ebd 7255 5b3d
00000190: d271 c13d 5caa 113c 9cab 433d 0ab8 dabc
000001a0: 3647 d73d 71fe 46bd 1f08 9a3d ea24 5abc
000001b0: 07a0 063e aca4 043e a056 9c3d f04c 193c
000001c0: d976 afbc e73e 92bd cf89 4dbd fa23 9f3d
000001d0: b427 84bc 5726 3fbc 0718 c4bd 3209 56bd
000001e0: e452 813c 1068 9bbd e1fb 8dbd a675 023e
000001f0: 72da 72be 7c02 683d 8735 81bd eeb5 313b
00000200: 3476 763d a0a9 ccbd f8f0 a1bd 3c3f a43d
00000210: 4d47 b5bc 02a9 d83b 9870 86bd 46e4 9cbd
00000220: 114d 6b3d bd46 c0bd 314d b03d 97b2 fbbd
00000230: 9d28 85bd ea81 10be 4711 15be 9f2b 4b3d
00000240: 9d8a 133e 2b94 193e ad7d 0dbe 44c2 923d
00000250: 4dfb 8ebd d771 a03e 888b 0bbd 2422 de3c
00000260: 8783 fa3c fb16 a1bd 520c 01be e3cb 373d
00000270: e5f2 173e 65b5 1abd 69c0 e3bd 73a5 fb3d
00000280: f7d1 ef3d 2cb7 0abe 65f4 973d 8001 d03d
00000290: 2053 593d 2b1a 3abd 0577 563d d882 553d
000002a0: ecea 51bd 1917 17bc b8cf 2f3d 6e25 b43d
000002b0: d85f 5b3d cea2 7fbd d77d 033d 2eee 83bc
000002c0: d0b2 1a3d 7407 153e e56c f3bb 73b3 c23d
000002d0: 3131 64bd c431 363e 016a 5e3d 830d fc3d
000002e0: dfba 4c3e 61bf 66bc 8298 fa3d 12c0 ff3d
000002f0: 622c 1e3d 3810 2e3d a022 a2bd 6a82 75bd
00000300: b665 f63d 2b1b 083e 0726 25bd 01c2 3cbe
00000310: 48a5 98bd 6422 0cbe 0af4 c7bc c3d3 52bc
00000320: 7c7f 2b3e 9ca8 693d b21f 683d 239b 63bd
00000330: 4eaa c33d 0ada 6b3d 8eb8 f5bd 1e24 b63d
00000340: 29bf f1bd 10fb 0dbc a8bc 5bbe 26db f33d
00000350: 3d09 c53c 86d0 6f3d 91b2 bd3d 43d7 a83d
00000360: 936b 573d 050d 90bd 7355 6a3d 8757 eabd
00000370: 9f87 9e3d 6d36 21bd 03d4 ec3d bb6f 0a3e
00000380: 2bce 003e 8de8 543d 16db 17bd 1fc1 02bd
00000390: 91e9 5bbe c2a0 bcbd b44a a0bd dbc7 923d
000003a0: e216 de3d f94c 523d 3901 17be 2fc9 443d
000003b0: 80fd 133e d18f a63c cb79 0f3e 4087 423c
000003c0: 991c 78bc f8a5 c6bd fa61 533d 5f71 773d
000003d0: 8de1 1cbe 1b55 2e3e 1094 94bd 1582 f9bc
000003e0: 0e9a fc3d 9f71 823d 450c 00b9 be11 a4bd
000003f0: 703f e7bd 884d 583d a208 a33c 002d 9bbc
0.05404517 0.028149096 0.06610743 0.016675338 -0.072791085 -0.08424328 -0.03194352 -0.028141659
-0.16200349 -0.008764237 -0.007047393 0.08806568 -0.06553784 0.012661157 -0.029756129 -0.011354286
0.07163036 0.14721759 0.052057922 0.09581843 -0.12535916 -0.07191206 -0.13931385 -0.034987226
0.026025195 -0.11527015 0.34008008 -0.007984594 0.18465267 0.097330876 0.13510051 0.10308048
0.053498153 0.07643248 -0.15537849 0.08677803 0.15983766 0.20659691 0.100575514 0.093888976
-0.13247985 0.119602196 0.055939462 0.025121048 -0.11633911 -0.033896606 0.13419339 0.15060823
-0.14078546 -0.08917036 -0.1331934 0.037594594 -0.1415127 -0.12235232 -0.058724627 -0.007859124
0.042036958 0.025333902 0.05960303 -0.06858479 0.094369784 -0.012059383 0.14641204 -0.016589379
-0.020437613 0.03937739 -0.036794294 0.26648438 -0.11855917 0.017245429 0.03028797 0.33136398
0.15884216 0.03295767 0.01097248 0.09788814 0.15753943 0.008255216 0.04921515 0.16466519
-0.11829081 0.14994256 -0.1538163 0.032712884 -0.041400827 0.15512155 -0.10891674 -0.024890626
0.047861043 -0.09569693 -0.049306363 0.12497057 -0.049433395 -0.016871043 0.090693854 0.014481528
-0.14306137 -0.11867264 -0.06943581 0.053548284 0.094455376 0.0088907145 0.04777108 -0.026699085
0.10511629 -0.048582498 0.0752108 -0.013314465 0.13146983 0.12953442 0.0763371 0.009356722
-0.021418976 -0.07140904 -0.050180253 0.07770534 -0.016132213 -0.011666856 -0.09574895 -0.052254863
0.015786596 -0.07588208 -0.06932808 0.12740192 -0.23716143 0.056642994 -0.06309038 0.0027116495
0.06017132 -0.09993291 -0.07907289 0.080198735 -0.022128725 0.006611944 -0.06564444 -0.07660727
0.057446543 -0.09388492 0.08608473 -0.12289923 -0.06501887 -0.14112058 -0.14557372 0.049602147
0.14408346 0.14997928 -0.13817473 0.071659595 -0.069815256 0.31336853 -0.034068614 0.027115889
0.030580295 -0.07865711 -0.12602356 0.044872176 0.1483875 -0.037770648 -0.11120684 0.12287416
0.117099695 -0.13546437 0.074196614 0.10156536 0.05305779 -0.045435112 0.0523596 0.052126735
-0.05124943 -0.0092218155 0.042922705 0.08796202 0.0535582 -0.062411122 0.032102432 -0.016104784
0.037768185 0.14553624 -0.0074287527 0.095068835 -0.055710975 0.17792422 0.054300312 0.12307265
0.1999316 -0.014083714 0.1223612 0.124878064 0.038616545 0.042495936 -0.079167604 -0.059938826
0.120311186 0.13291614 -0.04031947 -0.18433382 -0.074534 -0.13684994 -0.02440836 -0.012867871
0.1674785 0.057045564 0.056670852 -0.05556787 0.095539674 0.057580985 -0.11998092 0.088936076
-0.11804039 -0.008665815 -0.21458685 0.119070336 0.024052257 0.058548473 0.092625745 0.08244183
0.052592825 -0.07033733 0.057210397 -0.11442476 0.077407114 -0.039358545 0.115638755 0.13519184
0.12578647 0.05197959 -0.03707417 -0.031922456 -0.21475817 -0.092103496 -0.078267485 0.07167026
0.10844208 0.051342938 -0.1474656 0.048043426 0.14452171 0.020332249 0.14011304 0.011873066
-0.015143537 -0.09699625 0.05160711 0.060410853 -0.15320416 0.17024653 -0.07254803 -0.030457536
0.12334071 0.06369328 -0.00012211602 -0.080111966 -0.112913966 0.052808315 0.019901577 -0.018942356

pointer.fc2.bias f4 [128]
00000000: 8c12 a23d e336 85bd eb01 853d 92d9 873d
00000010: 34df b23d 277b cd3d b573 fcbc fdae 9e3d
00000020: 713b 81ba b3ff a03c 8ef9 16bd 9fe8 153e
00000030: c893 acbd 8fa0 85bd 7b43 72bd 7c01 e93d
00000040: 3bbd bb3b 07b3 9bbd 0609 723d ed19 18bd
00000050: 68e1 e03d e743 663b 1b9a 1abd bfcf d4bd
00000060: 7ebd 4e3a 7ba2 0cbc aae9 86bc 71a6 8cbd
00000070: a74b 24bd 2881 d53d 4e80 653d eb5d 413d
00000080: fb32 8c3b c64b b83d ffe6 59bd 38ed f13d
00000090: 1967 163d 3536 de3d a32d aabd d45f 7f3d
000000a0: 0a1f c9bd 1fc1 abbd 0e54 ce3b c665 acbc
000000b0: 6231 413d bc67 d6bd 75b7 303d 2183 f73d
000000c0: acd2 91bd ea1a 423d ab73 91bc 13c2 0ebb
000000d0: 39f1 9e3d 748b 7fbd 0fbc 313e 8da4 a23d
000000e0: e5a2 aabd 37e3 f43c f001 1dbd 3b88 8bbc
000000f0: 68b8 823d 5789 9d3b 45f7 073e 6a5e 68bd
00000100: 31a3 82bd 6f86 383d 13bc 803d 61fb 563d
00000110: 0748 cbbd a947 f73d 2dff 80bd 5423 02bd
00000120: 6b19 cb3c 77a6 283d f3ee cf3c a1ea 823d
00000130: 280d 733d 4a67 273c 3c71 a3bb 7a05 f4bc
00000140: a442 9b3d a65d c13d 5a53 56bd 590d c1bc
00000150: ae44 3dbd b228 f43c 241c b53d 6588 d93d
00000160: 38fe 84bd fc29 843c aecb 6b3d 38cf d3bd
00000170: cc86 83bc 5524 fcbc 56a9 7a3d 1ecb 96bc
00000180: 1bf0 323d db42 853d 6e5a f73c 16c4 463d
00000190: 9ef2 f43c 971f 7b3c c00e bbbc 450c d43d
000001a0: 936e 18bc 0e99 083e 6337 c0bc 59b3 963d
000001b0: 188e 033e 8465 9b3d 03a6 8cbd 9842 c3bc
000001c0: f676 da3d 6994 58bd 0d01 083c 1c07 573c
000001d0: 709c 8bbb af78 633c 84b7 2c3c 1a9f af3d
000001e0: 957d a83d ddf0 303d 0a1a 3e3d 2760 85bc
000001f0: b9ce 113e 2eda d53b 9c5d d43d a13c 2b3e
0.07913694 -0.065046094 0.064945064 0.06633295 0.08733979 0.10033255 -0.030816892 0.0774822
-0.0009859634 0.019653177 -0.036859088 0.14639519 -0.084266245 -0.06524765 -0.059146386 0.11377236
0.005729345 -0.07602506 0.059090637 -0.0371341 0.10980493 0.0035135688 -0.037744623 -0.10391187
0.0007886513 -0.00858366 -0.016468842 -0.06867684 -0.04011121 0.10425025 0.056030564 0.047208708
0.0042785383 0.08998828 -0.05319881 0.11812824 0.036719415 0.10850183 -0.08309486 0.06234725
-0.09820373 -0.08386444 0.006296641 -0.021044623 0.047166236 -0.104690045 0.04314371 0.12085558
-0.071202606 0.04738895 -0.01775535 -0.0021783158 0.07760853 -0.062388852 0.17356895 0.07941542
-0.08331851 0.0298935 -0.038331926 -0.017032733 0.06382829 0.004807632 0.1327792 -0.056730665
-0.063787825 0.04505008 0.06285872 0.052485827 -0.099258475 0.12074215 -0.06298671 -0.031771973
0.024792394 0.04117438 0.025382495 0.06392408 0.05933872 0.010217497 -0.004987864 -0.029787768
0.0758107 0.0944169 -0.052325584 -0.023565935 -0.046208076 0.029804561 0.08843258 0.10621718
-0.06493801 0.016133301 0.05756729 -0.10342258 -0.016055487 -0.030779043 0.061196648 -0.0184074
0.043686014 0.06506892 0.030194487 0.048526846 0.029900845 0.015327356 -0.022834182 0.10353903
-0.009303707 0.13339636 -0.02346391 0.073584266 0.12847173 0.07587722 -0.06867602 -0.023835465
0.10667221 -0.05287591 0.008301032 0.013124254 -0.004260592 0.013883754 0.0105418 0.08575268
0.08227078 0.043198455 0.04641155 -0.0162812 0.14239015 0.006526253 0.10369417 0.16722347
