trained_models/sdvrp/S101A1/model_incumbent_vrpRl13_SD_S_101A1_P_0.2_94539.pt (torch_old, 469732 bytes, 15 tensors)

all_embed.embed.weight f4 [128, 4]
-0.10859607 -0.06841903 0.91786516 0.3390301 0.7338176 0.9521262 -0.079383135 0.030536275
-0.14470315 0.06438252 0.10621083 -0.11733823 -0.5292403 0.5532331 -0.33478722 0.24331322
0.090853155 0.07795712 -0.034506097 -0.038775936 -0.0263327 0.87216634 0.18365909 -0.04003746
0.6685073 0.0689757 -0.2642355 0.28389487 -0.5948134 -0.16587226 -0.28385034 0.33645535
0.26492965 0.8080034 -0.08106117 0.29979226 1.0036273 0.04297692 0.43837774 -0.05063043
0.19174391 0.12778676 -0.46827504 -0.6669377 0.87247133 -0.27125603 0.37573987 -0.014836211
0.74278694 -0.28112006 -0.09045082 0.21099743 -0.2176553 0.14255993 -0.075441115 0.070386596
0.6318401 0.81579876 -0.04385341 0.16356274 -0.11298242 -0.028180808 -0.079276934 -0.20953679
0.28609806 0.82346034 0.17153871 -0.09358405 0.10306317 0.9712154 -0.31987315 0.045754217
0.5626539 1.0179863 -0.3611135 0.3077816 -0.2391765 0.629167 0.18116973 0.038586214
0.027437951 -0.62763375 0.27031466 0.079374924 -0.12593311 -0.028459653 0.07588896 0.01250428
0.15357234 0.1916785 -0.49491987 -0.62380874 -0.1794639 -0.11977442 0.25462383 0.29265368
-0.15023705 -0.09183377 -0.0052684844 0.010264173 0.0027472998 -0.85271496 0.0011556578 0.24629095
0.8387138 0.6433116 0.017898554 -0.10822817 -0.45129427 0.6332005 0.25239354 0.2563119
0.18145378 0.034909457 -0.49137318 -0.64265966 0.89189136 -0.21299958 -0.19605684 0.18521701
-0.3437185 -0.23016599 0.45601213 0.44021967 0.16899343 0.9628266 0.18986453 0.062400952
0.012546793 -0.089485064 -0.9414066 0.37447292 0.18619244 0.78594685 -0.48389578 0.13012812
0.56989336 -0.39310965 -0.21985076 -0.13101123 -0.10908131 0.76568097 -0.24487177 -0.08660043
0.9689742 0.009974942 0.16853823 -0.094607085 -0.0110486 0.18307814 -0.13512965 -0.21212986
0.15349633 -0.19189616 -0.03608736 0.10785445 -0.55326307 0.59648365 0.39582494 -0.1362523
-0.16514413 0.16098322 0.1754132 -0.079543054 1.0270662 -0.022507885 0.081199616 -0.013172494
-0.62137276 0.24722727 0.2970208 -0.0840384 -0.12693992 -0.049330696 0.89932054 0.247952
-0.036702275 0.027902544 0.037389934 -0.20439675 0.5034779 -0.56819606 0.18767902 0.09398901
0.82386905 -0.1758203 0.23316918 0.068294525 -0.6458348 0.26164523 0.37621725 0.23596154
-0.40125573 -0.75475055 0.34803766 0.20789811 0.09337779 0.8724975 0.36575764 -0.1615972
0.05124709 -0.09036569 0.14702561 -0.20459248 -0.2035136 0.87844366 0.36537114 -0.10524834
-0.28428957 0.7661347 -0.112780154 0.114358254 0.7475623 -0.21104361 0.08842283 0.2206828
0.05645418 -0.48547146 -0.6636239 0.3136922 0.58534586 0.48033088 -0.22016488 0.30485854
-0.3672894 -0.39441812 0.39662188 0.0115372045 0.84189713 -0.10334381 0.24627754 0.14295428
0.87904495 -0.020476656 -0.29453644 0.12299204 1.0729113 0.63128406 0.005512381 0.1765022
0.04988852 0.8998405 -0.19573747 0.2116986 0.7734233 -0.14133649 -0.27248812 0.23850389
0.31363934 0.11491107 -0.41829646 -0.5176351 1.0902677 0.34515303 -0.00674598 0.22137295
00000000: 9e67 debd 471f 8cbd 36f9 6a3f 5a95 ad3e
00000010: 78db 3b3f 8bbe 733f a093 a2bd 3627 fa3c
00000020: 102d 14be fcda 833d 1085 d93d 074f f0bd
00000030: 4b7c 07bf afa0 0d3f 3b69 abbe 1a27 793e
00000040: 3811 ba3d fca7 9f3d 4456 0dbd 84d3 1ebd
00000050: adb7 d7bc 4b46 5f3f 2111 3c3e 52fe 23bd
00000060: 4b23 2b3f 2243 8d3d e049 87be ab5a 913e
00000070: b145 18bf 6bda 29be d554 91be e043 ac3e
00000080: dca4 873e 50d9 4e3f 6603 a6bd 5f7e 993e
00000090: dc76 803f 9108 303d 0c73 e03e db61 4fbd
000000a0: 8458 443e 88da 023e bfc1 efbe 6ebc 2abf
000000b0: 485a 5f3f 12e2 8abe fa60 c03e 9413 73bc
000000c0: 4927 3e3f f8ee 8fbe 483e b9bd b60f 583e
000000d0: 08e1 5ebe 3bfb 113e df80 9abd d926 903d
000000e0: 46c0 213f 30d8 503f a29f 33bd fe7c 273e
000000f0: 5463 e7bd 70db e6bc f25b a2bd d090 56be
00000100: 727b 923e 4cce 523f d8a7 2f3e ffa8 bfbd
00000110: c912 d33d 93a1 783f 6ac6 a3be c668 3b3d
00000120: 160a 103f 604d 823f dee3 b8be 8d95 9d3e
00000130: afea 74be 1711 213f 8f84 393e 940c 1e3d
00000140: 8ec5 e03c 9bac 20bf af66 8a3e 528f a23d
00000150: 9cf4 00be 3824 e9bc ac6b 9b3d c0de 4c3c
00000160: 1142 1d3e 5e47 443e 2366 fdbe eeb1 1fbf
00000170: 62c5 37be 4b4c f5bd 0e5e 823e b4d6 953e
00000180: bed7 19be 5813 bcbd 40a3 acbb 102b 283c
00000190: 0b0c 343b 874b 5abf 7179 973a b233 7c3e
000001a0: f3b5 563f 12b0 243f fd9f 923c bba6 ddbd
000001b0: 0b10 e7be 6e19 223f ba39 813e 503b 833e
000001c0: 05cf 393e 38fd 0e3d 4495 fbbe 5885 24bf
000001d0: fe52 643f 901c 5abe 20c3 48be 87a9 3d3e
000001e0: dffb afbe a2b0 6bbe 6c7a e93e 7964 e13e
000001f0: 9d0c 2d3e ce7b 763f d96b 423e 2498 7f3d
00000200: 1091 4d3c f243 b7bd 0600 71bf eaba bf3e
00000210: 3ba9 3e3e d033 493f 30c1 f7be 4e40 053e
00000220: 88e4 113f ab45 c9be 8f20 61be cf27 06be
00000230: 0666 dfbd ab03 443f aabf 7abe 915b b1bd
00000240: b10e 783f f06d 233c 4995 2c3e 5cc1 c1bd
00000250: 3005 35bc d678 3b3e 6d5f 0abe 9238 59be
00000260: 242e 1d3e 6d80 44be 57d0 13bd cbe2 dc3d
00000270: a6a2 0dbf 27b3 183f 91a9 ca3e b985 0bbe
00000280: 8b1b 29be c9d8 243e 859f 333e 78e7 a2bd
00000290: e876 833f 7562 b8bc fc4b a63d 72d1 57bc
000002a0: 4912 1fbf 2529 7d3e 1c13 983e 531c acbd
000002b0: 8afc 01be fc0e 4abd df39 663f 21e7 7d3e
000002c0: 2055 16bd e093 e43c 3026 193d 624d 51be
000002d0: ede3 003f 4c75 11bf ee2e 403e 4f7d c03d
000002e0: 15e9 523f 3d0a 34be e7c3 6e3e 00de 8b3d
000002f0: 6e55 25bf 5df6 853e 8c9f c03e e79f 713e
00000300: 6471 cdbe 5537 41bf fe31 b23e 3ee3 543e
00000310: db3c bf3d ff5b 5f3f 9644 bb3e bd79 25be
00000320: 78e8 513d a611 b9bd e28d 163e b180 51be
00000330: df65 50be afe1 603f ed11 bb3e 718c d7bd
00000340: 678e 91be 6721 443f 48f9 e6bd a934 ea3d
00000350: 3e60 3f3f d11b 58be 0717 b53d acfa 613e
00000360: 803c 673d b78f f8be 42e3 29bf 449c a03e
00000370: 3ad9 153f eeed f53e e772 61be 6b16 9c3e
00000380: 5b0d bcbe 2cf1 c9be 0612 cb3e 8b06 3d3c
00000390: 9286 573f eba5 d3bd 2e30 7c3e 9b62 123e
000003a0: 1709 613f a9be a7bc 7bcd 96be 40e3 fb3d
000003b0: 2855 893f d59b 213f 34a1 b43b febc 343e
000003c0: e857 4c3d f25b 663f 676f 48be 85c7 583e
000003d0: 12ff 453f 83ba 10be 9083 8bbe 5d3a 743e
000003e0: 5695 a03e 7f56 eb3d f42a d6be bc83 04bf
000003f0: e48d 8b3f e6b7 b03e 620d ddbb 97af 623e

all_embed.embed.bias f4 [128]
-0.5709405 0.38926172 -0.13795179 0.26512757 -0.3156278 0.08503323 -0.38916683 0.43248674
-0.38968316 0.10768759 0.39551538 0.19145323 0.52724963 -0.35518485 -0.2902085 -0.29607606
0.491168 0.49432015 0.24591964 0.10260895 0.46306738 -0.33198285 0.30713186 -0.49593037
-0.072439134 0.6654015 0.30787805 0.059346348 0.4557064 0.27110586 -0.026547503 0.1368887
-0.2649616 0.4391464 0.4162705 0.16801618 0.28898662 -0.4550671 -0.48196164 0.592799
-0.18624556 0.43662035 0.6067166 -0.5018271 -0.21318525 0.49001294 0.5738324 0.24683486
0.7846799 0.25356188 -0.29444075 0.24916631 0.2246921 -0.02799171 0.3110105 -0.35774177
0.43224367 -0.047519576 -0.006479168 0.15669648 0.30182818 0.30168825 0.116096325 0.35640898
0.40605748 0.24965744 0.4536429 0.35855448 0.13951634 0.30258587 -0.36133647 0.28020552
-0.39786738 -0.12493122 0.39499885 0.76093256 0.013804677 -0.09374953 0.4807696 -0.43016613
0.7220939 -0.0013337717 0.19713795 -0.48008406 -0.3892538 -0.33014965 0.2961407 0.49296775
0.34442982 0.37484282 0.17976367 -0.02334261 -0.22600669 0.18246587 0.29709736 -0.35178995
-0.11785096 0.2983719 -0.36176497 -0.43325818 -0.12657464 0.27187017 0.67985916 0.5243079
0.3887977 -0.1139124 0.17924298 0.6269997 0.2184559 0.018526863 -0.49099118 0.23285149
0.50279415 0.22601826 -0.2291596 0.39210966 -0.11765981 0.18500751 -0.2735051 0.511264
-0.39612955 0.3665855 0.19012766 -0.47043344 0.75131506 0.08842903 0.30545092 0.4246941
00000000: 2829 12bf 504d c73e 3c43 0dbe cdbe 873e
00000010: f899 a1be e725 ae3d e040 c7be e76e dd3e
00000020: 8d84 c7be 508b dc3d fe80 ca3e 510c 443e
00000030: d5f9 063f cada b5be 3596 94be 4897 97be
00000040: 5f7a fb3e 8817 fd3e 5cd2 7b3e a424 d23d
00000050: 2b17 ed3e a8f9 a9be 6340 9d3e 96ea fdbe
00000060: f85a 94bd c157 2a3f 31a2 9d3e 2815 733d
00000070: 5952 e93e 63ce 8a3e 267a d9bc 8d2c 0c3e
00000080: 0ca9 87be ccd7 e03e 6821 d53e 6f0c 2c3e
00000090: 0ef6 933e 8efe e8be adc3 f6be adc1 173f
000000a0: 28b7 3ebe b48c df3e c751 1b3f be77 00bf
000000b0: 3c4d 5abe fae2 fa3e aee6 123f 47c2 7c3e
000000c0: c8e0 483f ddd2 813e f0c0 96be 7425 7f3e
000000d0: b015 663e df4e e5bc c53c 9f3e ee29 b7be
000000e0: 0b4f dd3e e3a3 42bd 334f d4bb 0b75 203e
000000f0: 3989 9a3e e276 9a3e e9c3 ed3d 3d7b b63e
00000100: c4e6 cf3e 33a6 7f3e e243 e83e 7494 b73e
00000110: 5fdd 0e3e 89ec 9a3e 1801 b9be 1977 8f3e
00000120: 46b5 cbbe f1db ffbd 4a3d ca3e 7acc 423f
00000130: 032d 623c c1ff bfbd 6f27 f63e bc3e dcbe
00000140: 25db 383f f4d1 aeba 88de 493e 94cd f5be
00000150: 464c c7be 6009 a9be c19f 973e 4566 fc3e
00000160: 1b59 b03e 66eb bf3e f813 383e 0039 bfbc
00000170: 4c6e 67be 55d8 3a3e 251d 983e d01d b4be
00000180: d85b f1bd 34c4 983e 4239 b9be 04d4 ddbe
00000190: c89c 01be 9132 8b3e 400b 2e3f 0b39 063f
000001a0: 7e10 c73e e84a e9bd 798b 373e 0d83 203f
000001b0: e7b2 5f3e a6c5 973c 3263 fbbe 9f70 6e3e
000001c0: 1eb7 003f 5571 673e d0a8 6abe 99c2 c83e
000001d0: a0f7 f0bd 9c72 3d3e dc08 8cbe 33e2 023f
000001e0: 7ed1 cabe 18b1 bb3e d3b0 423e a7dc f0be
000001f0: 2f56 403f 471a b53d 1064 9c3e 8171 d93e

all_embed.embed_2.weight f4 [128, 128]
-0.26799393 -0.048838586 -0.10302205 -0.048277553 0.03432496 -0.28964534 -0.349502 0.08113776
-0.105441 0.014573089 -0.15809679 -0.029926276 0.17935993 -0.15068968 -0.36720717 0.11029513
-0.13245532 -0.12220402 -0.18528979 -0.33217955 0.3953161 -0.08551479 -0.14072534 -0.10109262
0.0077635795 0.048048757 -0.1644844 -0.11939032 0.12238683 0.12351036 -0.035949815 -0.31850532
0.037657067 -0.0551832 0.09921684 -0.29737717 -0.005372428 -0.11642196 0.14523596 -0.19856447
0.04060241 -0.10534141 -0.033472855 -0.3090011 0.07622057 0.062891155 0.1342086 -0.015793724
0.16858624 -0.32042643 0.11891784 -0.10256261 -0.13957815 0.08551933 0.25248414 -0.15338081
0.0842266 0.03904227 -0.017874999 -0.15331846 -0.023238078 0.049031895 -0.02466583 -0.07461183
-0.114445955 0.0981076 0.026141385 -0.15414096 -0.17432988 0.26133308 0.028225705 -0.09002119
0.090324774 0.08962399 -0.003921118 0.3583734 -0.11723238 -0.063277215 0.315261 0.14672528
0.13559568 -0.07766173 -0.011342812 0.076146215 -0.034023575 -0.030811734 0.2580702 0.04542618
0.013137417 0.10823499 0.08938262 -0.0047162175 -0.13111766 -0.31124792 -0.11458403 -0.098745696
-0.11711833 0.045573104 -0.18625855 -0.15032713 0.08365217 -0.022916881 0.19754218 -0.17990749
-0.21794038 -0.31440938 -0.17716482 0.40584093 -0.14624076 -0.02380279 -0.3937397 0.090376854
0.14728181 -0.023857808 -0.06488425 0.17156021 0.08907102 -0.09904875 0.15192007 0.23302957
-0.02071014 0.16465372 0.21391699 -0.4865034 0.42590797 0.075897925 0.15547858 0.27967277
-0.2359066 -0.47457364 -0.026135549 0.03735847 0.055136517 -0.59878534 -0.43995032 0.31448278
-0.6565252 -0.42237347 -0.111478716 -0.25101745 -0.044450097 -0.08011745 -0.88566566 -0.0046921372
-0.37672505 -0.5029275 -0.23956764 -0.18108389 0.5902945 -0.11739099 -0.21285695 -0.007532729
0.10813071 0.34158564 -0.64050233 -0.09950458 -0.17284788 -0.1832122 0.20950532 -0.50308466
0.14512649 -0.34924203 -0.26447842 -0.5142435 -0.5716237 -0.0451106 -0.07620364 -0.06356897
-0.069104634 -0.51052374 0.2828299 -0.07453912 0.040964648 0.0953824 -0.27267566 0.2044033
0.6977243 -0.5084154 -0.12496369 -0.30219597 -0.2545138 -0.22465621 -0.028799776 -0.3417007
0.6846799 -0.40179217 -0.6038127 -0.59621793 -0.17971417 -0.2652263 0.042308927 -0.38987818
-0.16119838 0.1420894 -0.24080817 -0.18147255 0.043709427 0.34729394 -0.03290674 -0.65792644
0.05721754 -0.3792342 0.018413082 0.4197218 -0.36304963 -0.45077303 0.46433932 0.051421765
0.032237098 -0.14492896 -0.016500562 0.003211394 0.014665142 -0.087963104 0.20584051 0.19642077
0.00080999505 -0.32254347 0.06695533 0.07170969 -0.03368009 -0.4694819 0.36636236 0.026418403
-0.04967338 -0.13764025 -0.39126194 0.1159748 -0.06512366 -0.22349471 0.15250811 -0.26444077
-0.47192535 -0.35282564 -0.37394047 0.5242669 0.21849099 0.21062788 -1.0402184 -0.36586705
0.10705899 -0.19662243 -0.08238446 -0.30811504 -0.0648091 -0.16793847 0.057399973 0.1153843
-0.15177041 0.36779734 0.24136257 -0.74434674 0.62193877 -0.33515805 -0.16365567 0.030174859
00000000: 8036 89be f80a 48bd 39fd d2bd afbe 45bd
00000010: 5498 0c3d 654c 94be edf1 b2be 8e2b a63d
00000020: 73f1 d7bd f7c3 6e3c 20e4 21be f327 f5bc
00000030: 21aa 373e 654e 1abe 9402 bcbe 6ae2 e13d
00000040: 5ea2 07be 1a46 fabd 9bbc 3dbe 7013 aabe
00000050: df66 ca3e 6122 afbd 4e1a 10be a609 cfbd
00000060: a065 fe3b c6ce 443d 996e 28be e982 f4bd
00000070: f2a5 fa3d 00f3 fc3d 1d40 13bd 2113 a3be
00000080: 4c3e 1a3d c707 62bd 3332 cb3d d241 98be
00000090: 310b b0bb a36e eebd bcb8 143e 7c54 4bbe
000000a0: b64e 263d 3dbd d7bd d51a 09bd 6435 9ebe
000000b0: 8819 9c3d 14cd 803d fb6d 093e d761 81bc
000000c0: dfa1 2c3e ef0e a4be 328b f33d 580c d2bd
000000d0: 93ed 0ebe c224 af3d 9a45 813e dc0f 1dbe
000000e0: ff7e ac3d caea 1f3d 976e 92bc 84ff 1cbe
000000f0: c85d bebc abd5 483d ff0f cabc 16ce 98bd
00000100: a462 eabd a3ec c83d 7526 d63c 21d7 1dbe
00000110: 8883 32be 73cd 853e 9839 e73c 085d b8bd
00000120: 32fc b83d c88c b73d b97c 80bb b87c b73e
00000130: 8817 f0bd 7c97 81bd e469 a13e 273f 163e
00000140: 98d9 0a3e 1d0d 9fbd 34d7 39bc 8cf2 9b3d
00000150: 4e5c 0bbd e468 fcbc c721 843e cd10 3a3d
00000160: 523e 573c 4eaa dd3d 3c0e b73d 808a 9abb
00000170: b543 06be e35b 9fbe 08ab eabd 2f3b cabd
00000180: bcdb efbd ddaa 3a3d 90ba 3ebe 5bef 19be
00000190: d451 ab3d 2fbc bbbc 7f48 4a3e ab39 38be
000001a0: c32b 5fbe 44fa a0be b26a 35be 62ca cf3e
000001b0: 23c0 15be 12fe c2bc 4098 c9be 8017 b93d
000001c0: 0bd1 163e 7371 c3bc 09e2 84bd 7bad 2f3e
000001d0: de6a b63d 12da cabd ef90 1b3e 4e9f 6e3e
000001e0: 50a8 a9bc fc9a 283e 0e0d 5b3e f916 f9be
000001f0: 9c10 da3e 5f70 9b3d c735 1f3e 4531 8f3e
00000200: 8091 71be 51fb f2be 381a d6bc 3205 193d
00000210: d4d6 613d ff49 19bf 2b41 e1be e303 a13e
00000220: 0912 28bf 5641 d8be f44e e4bd 5c85 80be
00000230: 4e11 36bd 9e14 a4bd fcba 62bf 80c0 99bb
00000240: 1be2 c0be dbbf 00bf 3851 75be 0e6e 39be
00000250: 8a1d 173f b06a f0bd 2cf7 59be 1cd5 f6bb
00000260: a273 dd3d 50e4 ae3e f6f7 23bf 0fc9 cbbd
00000270: 09ff 30be fb9b 3bbe 9088 563e 28ca 00bf
00000280: 0a9c 143e dacf b2be b769 87be 76a5 03bf
00000290: ee55 12bf e4c5 38bd a710 9cbd 7330 82bd
000002a0: bb86 8dbd afb1 02bf 15cf 903e f7a7 98bd
000002b0: 8cca 273d d957 c33d 259c 8bbe 194f 513e
000002c0: 0f9e 323f 8327 02bf f7ec ffbd 6eb9 9abe
000002d0: a24f 82be 470c 66be 82ed ebbc 65f3 aebe
000002e0: 2f47 2f3f b4b7 cdbe 7893 1abf bda1 18bf
000002f0: fe06 38be becb 87be 204c 2d3d 1d9e c7be
00000300: 3011 25be e27f 113e 6b96 76be f1d3 39be
00000310: a808 333d 83d0 b13e 38c9 06bd de6d 28bf
00000320: f05c 6a3d fc2a c2be 08d7 963c c7e5 d63e
00000330: a4e1 b9be b9cb e6be e2bd ed3e a19f 523d
00000340: 0c0b 043d 4268 14be 302c 87bc 4076 523b
00000350: 1046 703c 0026 b4bd dbc7 523e 8722 493e
00000360: d955 543a 6b24 a5be e01f 893d 88dc 923d
00000370: 22f4 09bd ee5f f0be d993 bb3e 686b d83c
00000380: 5076 4bbd 91f1 0cbe 7c53 c8be 3284 ed3d
00000390: 8e5f 85bd ccdb 64be 162b 1c3e c864 87be
000003a0: 33a0 f1be 90a5 b4be 2075 bfbe 5b36 063f
000003b0: 1abc 5f3e d6ae 573e e025 85bf ed52 bbbe
000003c0: be41 db3d 6457 49be 2fb9 a8bd 41c1 9dbe
000003d0: a2ba 84bd 10f8 2bbe 3c1c 6b3d 9b4e ec3d
000003e0: b469 1bbe ef4f bc3e c027 773e 828d 3ebf
000003f0: 6137 1f3f d699 abbe 5a95 27be 4431 f73c

all_embed.embed_2.bias f4 [128]
0.059210904 -0.06874744 0.121970914 0.04326218 0.1745605 -0.14958948 0.1171137 -0.045128334
0.12840262 -0.17707121 0.067237414 -0.027911378 -0.06437199 -0.115131676 -0.03914514 -0.1042038
-0.014631302 0.1684667 0.030933866 -0.018491514 -0.14795446 -0.019857312 0.060103822 -0.16619827
0.08070076 -0.018178921 -0.037889592 -0.1609869 -0.16137242 -0.14718258 -0.03340854 -0.2304229
0.0324518 0.014886091 -0.17779508 0.09190259 -0.01679323 0.0252392 -0.004026691 -0.104762994
0.09896852 -0.036901295 -0.17349823 -0.08451233 -0.09708965 -0.01971687 -0.0011824203 -0.1050759
-0.007326784 0.018354226 -0.48499772 0.05563704 -0.28035653 0.10035234 -0.080829665 -0.06344442
0.11554656 0.04154052 0.048752517 0.0053154416 -0.022916073 -0.095075145 -0.18664506 0.031605836
-0.12723786 0.010091747 -0.1340364 -0.020943267 -0.003245342 -0.048270073 0.06873699 -0.01814125
-0.0733184 -0.12807108 0.17510834 -0.03954169 -0.022758761 0.11599207 0.014218874 0.005213236
-0.08415319 0.07515637 0.120339036 -0.021348976 0.0002734701 0.056044262 0.12751865 0.026696667
-0.12769467 0.20145454 -0.18077914 -0.16726892 0.07185168 0.16809711 -0.16548218 0.14849271
0.13683487 -0.073167205 0.045171265 -0.13282964 -0.07520223 -0.18308799 0.09830895 -0.05438578
-0.09915586 -0.037788104 0.06497568 -0.20521893 -0.0019162139 0.11926256 -0.014100094 0.07150608
0.030451484 -0.27047515 -0.037836354 -0.036034185 -0.13665982 -0.058137517 -0.058610745 -0.09772631
-0.25476918 -0.06662004 0.048049137 0.15687072 -0.08328403 -0.07118397 0.07514606 0.001507122
00000000: 2287 723d 75cb 8cbd e3cb f93d af33 313d
00000010: fdbf 323e fc2d 19be 4fd9 ef3d 7dd8 38bd
00000020: fa7b 033e 2852 35be c5b3 893d 67a6 e4bc
00000030: 76d5 83bd 28ca ebbd a856 20bd cd68 d5bd
00000040: 21b8 6fbc 8982 2c3e 0569 fd3c 847b 97bc
00000050: 6081 17be cdab a2bc 6d2f 763d e12f 2abe
00000060: 7146 a53d f6eb 94bc 1e32 1bbd c0d9 24be
00000070: d03e 25be 08b7 16be 65d7 08bd fbf3 6bbe
00000080: 2eec 043d cbe4 733c ea0f 36be 6d37 bc3d
00000090: f591 89bc 70c2 ce3c 55f2 83bb fb8d d6bd
000000a0: 02b0 ca3d d025 17bd 85a9 31be cd14 adbd
000000b0: f0d6 c6bd 4685 a1bc 71fb 9aba 0932 d7bd
000000c0: 8515 f0bb 9a5b 963c 9f51 f8be aae3 633d
000000d0: e48a 8fbe 8785 cd3d 068a a5bd 26ef 81bd
000000e0: ada3 ec3d 6426 2a3d b8b0 473d 282d ae3b
000000f0: 7dba bbbc c2b6 c2bd e21f 3fbe 1f75 013d
00000100: a44a 02be db57 253c d740 09be 3791 abbc
00000110: ceaf 54bb d7b6 45bd fbc5 8c3d f59c 94bc
00000120: f527 96bd 1125 03be 9a4f 333e 78f6 21bd
00000130: 9570 babc 408d ed3d 48f6 683c cbd3 aa3b
00000140: 8258 acbd 95eb 993d 5074 f63d 0ce4 aebc
00000150: 8960 8f39 ab8e 653d 4094 023e f8b2 da3c
00000160: 64c2 02be 194a 4e3e 2b1e 39be 8b48 2bbe
00000170: f926 933d a621 2c3e 2974 29be 790e 183e
00000180: 711e 0c3e b0d8 95bd 8105 393d 7e04 08be
00000190: a003 9abd 6b7b 3bbe 3456 c93d a0c3 5ebd
000001a0: 3a12 cbbd b3c7 1abd f811 853d e924 52be
000001b0: 7829 fbba ee3f f43d 1504 67bc c871 923d
000001c0: 6475 f93c b87b 8abe 4bfa 1abd 9598 13bd
000001d0: 8df0 0bbe 9b21 6ebd d211 70bd bb24 c8bd
000001e0: 1b71 82be 1670 88bd 2ccf 443d b8a2 203e
000001f0: d190 aabd e7c8 91bd 2de6 993d 9f8a c53a

pointer.v f4 [1, 1, 128]
-1.8312001 -3.0665293 0.013706758 -0.31088275 -2.6051707 -1.9107375 -1.4582602 1.7574602
-1.6227458 -1.2313907 -1.3994148 1.2336375 0.1965209 -1.878916 0.170916 1.6998904
-0.049591176 -2.2806473 0.7602259 -1.1360068 1.2089077 0.02992079 -1.8135332 1.3675374
2.0578396 0.2616223 1.4379706 -1.4761734 2.3476613 2.5895536 0.6204552 2.0285778
0.23265982 -1.2398747 1.7126893 -1.823351 1.1721305 -1.3239892 -0.51881236 -1.9072657
0.79034066 0.9752911 1.7324492 -0.65988106 -1.4181411 2.0214205 0.849326 1.8766983
0.7853025 -0.7364887 2.2155285 -0.29300377 1.7339633 0.21685624 2.1412542 -1.380947
-1.1241299 -1.593431 1.533999 -1.3953867 1.8703649 2.0310817 1.670561 0.5879396
1.3359518 -1.6713486 1.0373995 -2.1686447 -0.007733096 -1.3133409 -1.6263448 1.9332126
0.09343359 2.0393322 -1.6796978 1.4215695 0.28894326 -0.57735515 -0.66511637 -0.12257656
-2.2480032 -0.15493357 1.4250607 0.81425464 1.3855815 -0.0066848067 -0.014214553 0.008843602
1.9168276 -1.6406981 1.3506739 -0.9101868 0.40163842 -2.4563801 1.4885025 -1.8086429
2.5521004 0.38723007 -1.8489962 1.8990086 0.23167562 1.6264846 -1.4264224 -1.2330111
1.2532032 1.9298885 0.5881603 1.6711531 -1.0964576 -1.0243734 -1.5172019 0.17432357
-0.14107269 1.6583174 -1.0142937 0.9495991 -0.6876896 1.873744 -1.9651716 1.7362436
2.167855 -1.1661125 -1.5438015 -0.96757984 -1.4743972 -1.0913923 0.07155493 2.2675846
00000000: c464 eabf 0442 44c0 4f92 603c 062c 9fbe
00000010: 1ebb 26c0 0c93 f4bf 45a8 babf 75f4 e03f
00000020: 22b6 cfbf 369e 9dbf 0620 b3bf d5e7 9d3f
00000030: c63c 493e 5280 f0bf 9b04 2f3e 0296 d93f
00000040: 1e20 4bbd 20f6 11c0 2a9e 423f ac68 91bf
00000050: 7dbd 9a3f 721c f53c db21 e8bf 770b af3f
00000060: a5b3 0340 5cf3 853e 6c0f b83f 40f3 bcbf
00000070: 1540 1640 3fbb 2540 27d6 1e3f 38d4 0140
00000080: 603e 6e3e 37b4 9ebf 6739 db3f 9163 e9bf
00000090: 5f08 963f 7a78 a9bf e3d0 04bf 4821 f4bf
000000a0: c453 4a3f adac 793f e5c0 dd3f f7ed 28bf
000000b0: a685 b5bf f45e 0140 6e6d 593f a637 f03f
000000c0: 9609 493f 868a 3cbf 38cb 0d40 9704 96be
000000d0: 82f2 dd3f 900f 5e3e 4f0a 0940 dfc2 b0bf
000000e0: 7de3 8fbf 8cf5 cbbf 145a c43f 089c b2bf
000000f0: 1e68 ef3f 3efd 0140 f1d4 d53f 3683 163f
00000100: 7800 ab3f c0ee d5bf 82c9 843f 13cb 0ac0
00000110: e965 fdbb 8e1b a8bf 112c d0bf 8373 f73f
00000120: 1c5a bf3d 6b84 0240 5600 d7bf fdf5 b53f
00000130: 5ff0 933e 8ccd 13bf 1145 2abf 6b09 fbbd
00000140: 49df 0fc0 e8a6 1ebe 6468 b63f fe72 503f
00000150: bc5a b13f 390c dbbb 28e4 68bc c1e4 103c
00000160: 9b5a f53f 6502 d2bf e2e2 ac3f 0102 69bf
00000170: 8da3 cd3e 5535 1dc0 4087 be3f 9c81 e7bf
00000180: 9d55 2340 0543 c63e e8ab ecbf b712 f33f
00000190: 603c 6d3e a630 d03f 0295 b6bf 4fd3 9dbf
000001a0: f668 a03f 9606 f73f ac91 163f 58e8 d53f
000001b0: b958 8cbf ab1e 83bf ac33 c2bf e181 323e
000001c0: 5c75 10be bf43 d43f 60d4 81bf ed18 733f
000001d0: 6d0c 30bf d8d6 ef3f be8a fbbf 3b3d de3f
000001e0: 23be 0a40 2d43 95bf 4a9b c5bf 50b3 77bf
000001f0: 0cb9 bcbf beb2 8bbf 648b 923d 1b20 1140

pointer.encoder_attn.v f4 [1, 1, 128]
0.09688334 0.12694587 -0.088653795 0.21351789 0.040805195 0.044178694 -0.07129062 -0.09107317
-0.052729394 0.055804685 0.0069101686 -0.0145185115 0.14111614 0.001344846 0.0765553 -0.018625803
-0.082484856 -0.061259527 -0.094434865 -0.19115075 0.09427029 -0.04487489 -0.005118978 0.0142696295
0.12474853 -0.08012431 -0.13220268 0.054222457 0.17546739 0.11253057 0.120536886 -0.017863043
-0.029835789 -0.06506002 -0.05015425 0.08373994 -0.119222775 -0.15344205 -0.020590944 -0.23062629
-0.13204229 -0.2836655 0.036061257 -0.041404285 -0.08478223 0.09794497 0.07880089 0.060586285
0.063646875 0.11121551 0.029826308 0.08121213 0.1176158 -0.072118446 -0.10379495 0.0047697667
0.2808847 0.43385512 0.14088815 -0.2722059 -0.087224804 -0.15577774 -0.0142842205 -0.029520249
-0.44285297 0.08342545 0.12482374 -0.056798413 -0.006613282 0.24394648 0.09162053 -0.21717133
0.15007581 0.1942111 -0.049741067 -0.29382968 -0.045308884 0.021944394 0.08978353 0.08723368
-0.026237546 -0.028861692 0.051996168 0.077065155 -0.13250695 0.13348337 0.04135995 -0.12993923
-0.13627078 -0.18069084 0.006329241 -0.12140957 0.07381285 -0.046739068 -0.11970918 -0.10895065
-0.15935889 -0.31774414 -0.0034148812 0.044435292 0.16949737 -0.14324233 -0.13017577 0.019650176
0.052107945 0.18137257 0.044385854 -0.19405891 -0.36506742 -0.016489783 0.2985503 0.19384354
0.010913344 0.114292845 -0.06872912 -0.1318122 -0.05950499 0.20597969 0.009532312 0.10768887
-0.3274679 0.18884282 0.024549156 -0.08060574 -0.04527672 -0.23729406 0.09958463 0.27569354
00000000: c66a c63d 19fe 013e 1f90 b5bd 6fa4 5a3e
00000010: 5923 273d b8f4 343d d100 92bd 9284 babd
00000020: c7fa 57bd 7493 643d b26e e23b 0ddf 6dbc
00000030: c080 103e 8b45 b03a 06c9 9c3d 2495 98bc
00000040: d2ed a8bd 45eb 7abd 1167 c1bd 06bd 43be
00000050: c810 c13d bcce 37bd 1abd a7bb 2acb 693c
00000060: 287c ff3d 3718 a4bd 2460 07be 5e18 5e3d
00000070: b9ad 333e 6d76 e63d 0bdc f63d 8455 92bc
00000080: 2f6a f4bc 303e 85bd 8b6e 4dbd d87f ab3d
00000090: 122b f4bd ea1f 1dbe 57ae a8bc 4c29 6cbe
000000a0: 1836 07be 9b3c 91be f8b4 133d 8a97 29bd
000000b0: 4ea2 adbd 5f97 c83d 5c62 a13d 5329 783d
000000c0: 4b59 823d f5c4 e33d 4d56 f43c 8c52 a63d
000000d0: 8de0 f03d d6b2 93bd 7292 d4bd b44b 9c3b
000000e0: 1fd0 8f3e 4222 de3e fc44 103e 925e 8bbe
000000f0: eba2 b2bd 3384 1fbe 5d08 6abc 73d4 f1bc
00000100: a0bd e2be f6da aa3d 97a3 ff3d 74a5 68bd
00000110: 3bb4 d8bb 1bcd 793e 8ba3 bb3d 2962 5ebe
00000120: 79ad 193e 46df 463e 4abd 4bbd d870 96be
00000130: cf95 39bd bbc4 b33c 6de0 b73d 92a7 b23d
00000140: 1ff0 d6bc 5b6f ecbc eff9 543d 56d4 9d3d
00000150: e7af 07be ddaf 083e 0d69 293d ca0e 05be
00000160: 918a 0bbe 0507 39be 8665 cf3b 95a5 f8bd
00000170: 312b 973d 7771 3fbd 162a f5bd 8521 dfbd
00000180: fa2e 23be 5caf a2be 33cc 5fbb c801 363d
00000190: b890 2d3e 1eae 12be cc4c 05be 68f9 a03c
000001a0: 246f 553d bbb9 393e f1cd 353d 61b7 46be
000001b0: 1eea babe 9515 87bc 96db 983e ec7e 463e
000001c0: e2cd 323c 5e12 ea3d dac1 8cbd c7f9 06be
000001d0: 81bb 73bd 57ec 523e 6a2d 1c3c fb8b dc3d
000001e0: dfa9 a7be 0360 413e 501b c93c 9f14 a5bd
000001f0: 1574 39bd 37fd 72be 07f3 cb3d b427 8d3e

pointer.encoder_attn.W f4 [1, 128, 256]
0.06780626 -0.12627085 -0.038763758 0.005766944 0.0840285 -0.11733827 0.08462668 0.0065747937
0.055027805 -0.067693695 0.077100724 -0.06484877 -0.028966837 0.10841225 -0.10451922 -0.059504062
0.06386921 0.05722528 0.031745356 -0.12043147 -0.0726696 0.09514805 -0.0027164433 -0.12574355
-0.06495062 0.00018695505 -0.11076322 -0.005499796 -0.08539367 -0.08909565 0.0025126373 -0.0563728
-0.035273086 0.066797614 -0.079934105 0.10892622 -0.009147251 -0.026324548 -0.01186176 0.13721311
-0.09547959 -0.10991266 -0.06829823 -0.090311736 -0.012553236 -0.05763414 -0.034709953 -0.061079342
-0.027013555 0.04945721 -0.09417508 -0.027314177 -0.038319644 -0.064570256 -0.08727272 -0.009003241
-0.09264005 0.038635977 0.0095114345 0.11161683 0.051483955 0.03065022 -0.123885185 0.068380736
-0.099338084 0.123898305 -0.09410017 0.13373506 0.030569866 0.03288882 0.07345878 -0.046260316
0.100952946 0.007164857 0.004667661 -0.024528122 0.005242367 0.021779424 0.07310706 -0.10778851
0.072240345 -0.012034691 -0.05918788 0.014556049 -0.087527946 -0.07075137 -0.013159218 0.0641791
-0.06378942 0.09938225 -0.06351058 -0.0862365 0.0027827164 0.08677324 -0.117802046 0.10659945
-0.024930792 -0.0019303182 0.106582165 -0.048802987 -0.004506045 -0.080663584 0.052886404 -0.067313634
-0.11792096 -0.016706128 -0.098440856 -0.11596756 -0.07456458 0.054064896 0.012569138 0.11529047
0.09226302 -0.09800491 0.028107524 -0.081967466 -0.04090705 -0.09306841 -0.1222712 -0.08001407
-0.060079675 -0.0626372 -0.026002843 0.067607895 0.0246377 -0.02725937 0.090154566 -0.0203098
-0.06693121 -0.07416934 -0.060704388 -0.12452988 -0.059297286 0.069787435 -0.137264 0.12273964
-0.022256963 -0.08117692 -0.024837047 0.072833635 0.032187134 -0.02277632 -0.10856192 -0.030469665
0.10375244 -0.017073987 0.062310643 0.09562277 -0.07146732 -0.08367316 0.030786559 -0.006251514
0.08373335 0.10739127 -0.013451865 0.09959818 -0.02278053 -0.07389956 0.10360245 -0.12809515
-0.04877947 0.11572178 -0.058094792 0.098150775 -0.06313394 -0.11492013 -0.058365256 -0.09851524
0.017446592 -0.08810607 0.021007689 -0.038042292 -0.1666204 0.048125394 -0.10249003 -0.1068931
0.15077852 0.03603401 0.043059453 -0.005258361 -0.043265406 0.023759505 -0.08110639 0.07074962
0.07197365 0.018985778 0.054079082 -0.046562564 0.08473519 -0.018884012 -0.023423348 -0.014319825
-0.009977065 -0.07800081 -0.045299776 -0.02987467 -0.020989524 0.093007274 0.0010834585 -0.08222057
0.06747992 -0.06754772 0.021570725 0.05101535 -0.091516346 -0.07564944 0.008563746 -0.07515689
-0.01644219 -0.051813025 0.1057038 0.110221796 -0.0026354275 0.008892084 0.09373236 0.08433031
-0.138296 -0.06975125 -0.033346366 0.060647927 0.06420216 0.06838061 -0.14257894 0.11901227
0.036656983 -0.026246969 0.12103813 -0.030662458 -0.09857581 -0.084589146 0.015999002 -0.11163849
-0.13351282 0.062070973 -0.019340359 -0.008765048 -0.07046363 0.12384456 -0.043068852 0.055814307
0.115691 -0.16154435 -0.06215787 0.06165478 0.12983607 0.030563775 0.109508544 0.058534667
0.09372499 -0.089640535 0.10215652 -0.06302508 -0.08658107 -0.116765544 0.12042293 -0.08928052
00000000: 02de 8a3d 254d 01be bfc6 1ebd a2f8 bc3b
00000010: 2217 ac3d 0c4f f0bd c150 ad3d 5e71 d73b
00000020: d664 613d fea2 8abd fce6 9d3d 6fcf 84bd
00000030: dc4b edbc 3e07 de3d 2c0e d6bd 88ba 73bd
00000040: dccd 823d 0e65 6a3d 6b07 023d c6a4 f6bd
00000050: cdd3 94bd fbdc c23d 5b06 32bb ebc2 00be
00000060: d504 85bd 5d09 4439 d4d7 e2bd a237 b4bb
00000070: e0e2 aebd c877 b6bd 0fab 243b 2ae7 66bd
00000080: 837a 10bd 30cd 883d 7eb4 a3bd b614 df3d
00000090: 5ade 15bc 94a6 d7bc d457 42bc 9881 0c3e
000000a0: ce8a c3bd e419 e1bd f1df 8bbd 5cf5 b8bd
000000b0: 17ac 4dbc c711 6cbd 062c 0ebd 552e 7abd
000000c0: 884b ddbc a593 4a3d ddde c0bd fbc1 dfbc
000000d0: 0ff5 1cbd 693d 84bd 0abc b2bd 5482 13bc
000000e0: 11ba bdbd c240 1e3d d9d5 1b3c 5d97 e43d
000000f0: d7e0 523d 2c16 fb3c 84b7 fdbd 330b 8c3d
00000100: c471 cbbd 65be fd3d 97b7 c0bd d8f1 083e
00000110: a86d fa3c 6db6 063d 8f71 963d 757b 3dbd
00000120: 6bc0 ce3d 2dc7 ea3b 2ef3 983b 33ef c8bc
00000130: 29c8 ab3b c36a b23c 27b9 953d 39c0 dcbd
00000140: bff2 933d 272d 45bc fe6e 72bd 7f7c 6e3c
00000150: da41 b3bd 18e6 90bd c399 57bc 5570 833d
00000160: 07a4 82bd ec88 cb3d d611 82bd c39c b0bd
00000170: 3c5e 363b 2bb6 b13d 3342 f1bd d050 da3d
00000180: a93b ccbc bb02 fdba c047 da3d a4e5 47bd
00000190: 72a7 93bb f332 a5bd 6a9f 583d bbdb 89bd
000001a0: 8b80 f1bd 4adb 88bc 5c9b c9bd 6680 edbd
000001b0: 51b5 98bd 2773 5d3d c9ee 4d3c 691d ec3d
000001c0: 65f4 bc3d ccb6 c8bd c041 e63c 8fde a7bd
000001d0: 278e 27bd a79a bebd 5369 fabd 6bde a3bd
000001e0: 1b16 76bd ef47 80bd ea03 d5bc 0276 8a3d
000001f0: 00d5 c93c 0b4f dfbc f5a2 b83d bd60 a6bc
00000200: 3b13 89bd 18e6 97bd 2aa5 78bd 8609 ffbd
00000210: b6e1 72bd b7ec 8e3d ef8e 0cbe ec5e fb3d
00000220: 3c54 b6bc 1640 a6bd 1077 cbbc cd29 953d
00000230: a8d6 033d 6895 babc b655 debd 859b f9bc
00000240: 297c d43d bfde 8bbc 7239 7f3d dfd5 c33d
00000250: 755d 92bd d55c abbd 1834 fc3c 80d9 ccbb
00000260: 647c ab3d f4ef db3d 3665 5cbc 21fa cb3d
00000270: 3c9e babc a758 97bd 852d d43d 602b 03be
00000280: fbcc 47bd 8aff ec3d cef4 6dbd 4603 c93d
00000290: 5e4c 81bd 3f5b ebbd 6810 6fbd 5cc2 c9bd
000002a0: 28ec 8e3c f570 b4bd 5118 ac3c 3cd2 1bbd
000002b0: 8a9e 2abe 221f 453d 4be6 d1bd c5ea dabd
000002c0: af65 1a3e 6698 133d 1c5f 303d 544e acbb
000002d0: 1137 31bd 4ba3 c23c 1b1b a6bd 2de5 903d
000002e0: ec66 933d 1088 9b3c 0782 5d3d 63b8 3ebd
000002f0: a589 ad3d a5b2 9abc 52e2 bfbc b39d 6abc
00000300: d876 23bc e4be 9fbd 428c 39bd b9bb f4bc
00000310: 39f2 abbc 997a be3d d602 8e3a 4263 a8bd
00000320: ea32 8a3d 7656 8abd 17b5 b03c 79f5 503d
00000330: ec6c bbbd 18ee 9abd f44e 0c3c dbeb 99bd
00000340: c6b1 86bc e539 54bd 3c7b d83d f7bb e13d
00000350: 23b7 2cbb 1ab0 113c c0f6 bf3d 5fb5 ac3d
00000360: 779d 0dbe bed9 8ebd 3396 08bd f669 783d
00000370: 6c7c 833d 220b 8c3d 3700 12be b4bc f33d
00000380: a225 163d e203 d7bc d7e2 f73d d62f fbbc
00000390: 1de2 c9bd 133d adbd 5710 833c b8a2 e4bd
000003a0: 96b7 08be 223e 7e3d ac6f 9ebc 479b 0fbc
000003b0: 3c4f 90bd 37a2 fd3d f768 30bd 8b9d 643d
000003c0: 67ef ec3d e26b 25be 4099 7ebd b989 7c3d
000003d0: bff3 043e e260 fa3c 0446 e03d 0cc2 6f3d
000003e0: e3f2 bf3d 7595 b7bd 7037 d13d 4b13 81bd
000003f0: 6b51 b1bd c622 efbd 4ca0 f63d b5d8 b6bd

pointer.fc1.weight f4 [128, 256]
0.077538595 0.022455856 0.09259765 -0.12346016 -0.012859608 0.07712347 0.118122876 -0.08283511
0.019027706 -0.032453403 -0.03843265 0.06567273 0.047541127 0.034218803 -0.12417935 -0.122136526
0.10199596 0.048510656 0.112978816 0.010739236 0.12247141 0.017075878 -0.06669468 -0.07346804
0.07820022 0.09602432 -0.062274396 0.086723 0.11493161 0.056120753 -0.08657506 0.03870071
0.09194012 0.1184091 0.11343615 -0.07592726 0.016772257 0.070300795 0.049738184 0.09249212
0.086761534 0.09784727 0.09251113 0.09143298 -0.007225431 -0.0812449 -0.118304715 0.056096543
0.09750813 -0.055843465 0.016652094 -0.009126248 0.05939375 0.08672362 0.09773086 0.015540404
0.05380588 0.089651346 0.049529143 -0.11153315 -0.03651159 0.08686729 0.013026922 -0.021008974
0.12200774 -0.032758895 0.09392718 0.004771361 0.10012199 -0.06890161 -0.056678995 0.084494695
-0.103844404 -0.10393661 0.05288497 -0.03409599 -0.08962034 0.12023641 -0.06511545 0.0150054395
-0.03436701 -0.05955435 -0.07761985 0.042661127 -0.012315401 0.02466869 -0.004820727 -0.01479656
-0.0959427 -0.006108614 -0.070526525 0.017429557 0.026242465 -0.007948823 -0.030070528 0.06779606
-0.052117925 0.05315322 0.10491787 -0.043418474 0.01413534 0.08064626 0.059415437 -0.015613753
-0.030157326 0.11272229 0.08512245 0.009162708 0.106651984 -0.08990642 -0.07865526 -0.021456603
-0.07396485 -0.12140195 -0.01695171 -0.06065796 -0.057921264 -0.103671074 0.008348225 -0.0013948147
0.09155564 -0.0471984 0.071656406 -0.0012258616 0.07417798 0.011029094 0.1084821 0.120093144
-0.06662822 0.021789743 -0.021004753 0.111831695 0.030025696 0.09313949 0.106342785 0.042876065
0.099663824 0.11976753 0.040729716 0.091137946 -0.06434573 0.11334971 0.024670409 -0.043115854
0.0040621418 -0.09381455 0.09483246 -0.033847664 0.014000881 0.03879662 0.055062983 0.11979994
-0.08248954 -0.05879016 -0.10459291 0.096632585 -0.090794556 -0.06528795 -0.023159528 -0.06774386
-0.12255344 0.0018499525 0.078780174 0.10606841 -0.087752685 -0.09284946 0.042925235 -0.05744642
0.078765675 -0.0926219 -0.08819907 -0.017993284 0.12408629 -0.05695142 -0.034679025 0.0788422
0.06098342 -0.060428523 0.074960425 0.004588772 0.02840395 -0.099465534 0.121426426 0.054800395
0.024912521 0.026601858 -0.087004304 -0.055269323 0.045974176 -0.055073783 -0.04157514 0.006862594
0.09696552 0.093355216 -0.0049511828 0.11456611 -0.09282995 -0.0037684983 -0.10676679 0.06029906
-0.07430476 0.005879962 0.040224183 -0.09235673 -0.033124182 -0.12128633 0.07299205 -0.021067865
-0.047749266 0.11512686 0.10669477 0.034502614 0.010674004 0.04804425 -0.10554838 -0.031646322
-0.016253762 0.071448654 -0.043981075 -0.030110994 0.07236805 0.014569814 0.10847207 -0.098509885
0.08205195 0.073354825 -0.09606448 -0.11502625 -0.056441106 -0.093886875 -0.061807822 0.09915155
0.10090503 -0.09856427 0.07908687 0.0064587574 0.09846972 -0.027062265 0.11844229 0.040969145
0.11762423 -0.03343902 -0.09172715 0.026749875 0.009807761 0.036290415 0.11721304 0.077181384
0.02795177 0.052211907 -0.11259473 -0.02130993 0.053725198 -0.026568385 -0.054103397 0.06480751
00000000: 8ecc 9e3d 58f5 b73c d6a3 bd3d aed8 fcbd
00000010: 1bb1 52bc e9f2 9d3d 68ea f13d 74a5 a9bd
00000020: fedf 9b3c dced 04bd 8e6b 1dbd 6d7f 863d
00000030: 7cba 423d 0429 0c3d be51 febd b722 fabd
00000040: 42e3 d03d 1cb3 463d 7061 e73d 9ff3 2f3c
00000050: 4ad2 fa3d b6e2 8b3c 3897 88bd 6976 96bd
00000060: 7027 a03d 66a8 c43d 7013 7fbd d49b b13d
00000070: 4461 eb3d e0de 653d 444e b1bd a384 1e3d
00000080: 1a4b bc3d 7880 f23d 3651 e83d c07f 9bbd
00000090: f965 893c ddf9 8f3d 44ba 4b3d 826c bd3d
000000a0: 08b0 b13d 2664 c83d 7a76 bd3d 3741 bb3d
000000b0: 4fc3 ecbb ba63 a6bd be49 f2bd 7dc5 653d
000000c0: 58b2 c73d 1ebc 64bd f969 883c 4286 15bc
000000d0: dc46 733d 279c b13d 1e27 c83d 2e9d 7e3c
000000e0: 8e63 5c3d 209b b73d 12df 4a3d 7e6b e4bd
000000f0: 2d8d 15bd 7ae7 b13d df6e 553c 031b acbc
00000100: 32df f93d 312e 06bd e55c c03d 1459 9c3b
00000110: c20c cd3d 4a1c 8dbd 3c28 68bd 8e0b ad3d
00000120: 60ac d4bd b8dc d4bd e99d 583d 3da8 0bbd
00000130: de8a b7bd 823e f63d 405b 85bd 60d9 753c
00000140: 6cc4 0cbd 43ef 73bd 28f7 9ebd 6fbd 2e3d
00000150: 89c6 49bc fe15 ca3c 30f7 9dbb 456d 72bc
00000160: 9b7d c4bd c52a c8bb 3670 90bd 6ec8 8e3c
00000170: 70fa d63c c83b 02bc 7856 f6bc a9d8 8a3d
00000180: 9b79 55bd 31b7 593d 2edf d63d 92d7 31bd
00000190: ea97 673c de29 a53d 9a5d 733d d4d0 7fbc
000001a0: 7f0c f7bc f2da e63d ae54 ae3d 2f1f 163c
000001b0: 5b6c da3d db20 b8bd 0216 a1bd c2c5 afbc
000001c0: e27a 97bd 96a1 f8bd 50de 8abc 7b74 78bd
000001d0: d93e 6dbd 8051 d4bd fec6 083c 37d2 b6ba
000001e0: 8681 bb3d 1c53 41bd 98c0 923d 17ad a0ba
000001f0: a0ea 973d 60b3 343c dd2b de3d 65f3 f53d
00000200: 6074 88bd 6780 b23c 2912 acbc 0408 e53d
00000210: 73f8 f53c ebbf be3d 3fca d93d d09e 2f3d
00000220: 8c1c cc3d ae48 f53d 34d4 263d 88a6 ba3d
00000230: b2c7 83bd e523 e83d 9919 ca3c 409a 30bd
00000240: b71b 853b d821 c0bd 8537 c23d d9a3 0abd
00000250: f463 653c 34e9 1e3d b989 613d ac59 f53d
00000260: 47f0 a8bd f3cd 70bd cf34 d6bd 4ee7 c53d
00000270: 7ff2 b9bd b0b5 85bd 0db9 bdbc 4bbd 8abd
00000280: 4cfd fabd 1b7a f23a 8057 a13d 653a d93d
00000290: aeb7 b3bd dc27 bebd 5fd2 2f3d f04c 6bbd
000002a0: e64f a13d 8db0 bdbd b7a1 b4bd a766 93bc
000002b0: f420 fe3d e445 69bd 980b 0ebd 0578 a13d
000002c0: c0c9 793d e683 77bd da84 993d 695d 963b
000002d0: 67af e83c 96b4 cbbd 6bae f83d 6176 603d
000002e0: 5815 cc3c 24ec d93c 502f b2bd 1662 62bd
000002f0: 6b4f 3c3d 0c95 61bd b24a 2abd 9cdf e03b
00000300: dc95 c63d 0531 bf3d 883d a2bb a3a1 ea3d
00000310: a11d bebd e9f8 76bb 8ca8 dabd 26fc 763d
00000320: 182d 98bd b2ac c03b 1dc2 243d 8625 bdbd
00000330: 39ad 07bd f864 f8bd db7c 953d 8496 acbc
00000340: bc94 43bd a2c7 eb3d ca82 da3d 9d52 0d3d
00000350: 05e2 2e3c 0cca 443d c029 d8bd 939f 01bd
00000360: 9c26 85bc ac53 923d 8025 34bd 55ab f6bc
00000370: b335 943d 3bb6 6e3c 9b26 de3d 8dbf c9bd
00000380: da0a a83d 0e3b 963d 74bd c4bd e292 ebbd
00000390: ca2e 67bd c347 c0bd 332a 7dbd f80f cb3d
000003a0: 4ca7 ce3d 10dc c9bd 4cf8 a13d fca3 d33b
000003b0: 7eaa c93d afb1 ddbc df91 f23d 43cf 273d
000003c0: f9e4 f03d 5bf7 08bd 72db bbbd 8e22 db3c
000003d0: bbb0 203c 42a5 143d 640d f03d 4611 9e3d
000003e0: 1cfb e43c 27dc 553d 1198 e6bd 2a92 aebc
000003f0: f40e 5c3d f1a5 d9bc 869b 5dbd cdb9 843d

pointer.fc1.bias f4 [128]
-0.024666168 -0.007893629 -0.03153182 -0.042625453 -0.03179196 0.036445152 -0.060281146 0.007716812
0.045707133 -0.005772464 -0.046949897 0.010659289 0.0011372527 -0.019258179 0.04952093 0.039795518
0.00071922026 -0.038620487 -0.040419735 -0.013977176 -0.07431255 0.0124803595 -0.02794205 0.031626187
0.014910058 0.025056858 0.06341731 -0.02397916 -0.049158864 0.004680025 0.015411243 0.049837537
-0.020499388 -0.049145173 -0.03608548 -0.07655071 0.032211185 0.046775777 -0.020512933 0.0076995455
-0.02601164 -0.034223977 0.00558914 -0.023403004 -0.048946965 0.011602093 0.03959128 0.03073464
-0.010032488 0.027275413 0.008844622 -0.027235854 0.02492199 0.06332514 -0.023356985 0.012268189
0.01862042 0.053745706 -0.0008819907 0.07538633 -0.051792335 -0.03258382 0.010861071 0.018404815
0.013909127 0.06271372 -0.017047837 -0.0016177855 -0.031552844 0.0110432925 0.008056869 0.032738883
-0.031210847 -0.008259427 0.07017873 -0.008780508 -0.0653585 0.028975638 0.020790376 0.0017967744
0.035946526 -0.016022084 0.039921366 -0.05749627 0.07089025 0.05789265 0.041166212 0.061793454
-0.05303577 -0.002498405 0.03830722 -0.06536826 -0.08018529 0.035498317 0.05217812 0.0023369095
-0.018065132 -0.040541966 -0.008132369 -0.04531198 -0.015831271 -0.020931195 0.09040301 0.05838509
0.035927873 0.05203866 -0.051404215 0.017761946 -0.04864027 0.03612681 -0.001082085 0.029912764
0.052537855 0.01777089 -0.017510233 0.028531294 -0.03248305 -0.014881993 -0.05518964 -0.022402603
0.027768647 -0.01403348 0.01605134 0.034041844 0.095066346 -0.06339546 0.048067108 0.059386518
00000000: b410 cabc 4854 01bc 8227 01bd 0798 2ebd
00000010: 4938 02bd 8347 153d 5de9 76bd 50dd fc3b
00000020: 6737 3b3d f026 bdbb 894e 40bd 4ca4 2e3c
00000030: de0f 953a 54c3 9dbc 75d6 4a3d a000 233d
00000040: 0e8a 3c3a 8430 1ebd 2a8f 25bd 8600 65bc
00000050: 2e31 98bd 6c7a 4c3c bae6 e4bc 768a 013d
00000060: 5149 743c 0a44 cd3c efe0 813d f16f c4bc
00000070: ce5a 49bd e55a 993b 707f 7c3c 7222 4c3d
00000080: 55ee a7bc 734c 49bd 5ece 13bd 9ec6 9cbd
00000090: e0ef 033d f597 3f3d bd0a a8bc 784c fc3b
000000a0: 5d16 d5bc 712e 0cbd 1b25 b73b a8b7 bfbc
000000b0: 9d7c 48bd b516 3e3c 772a 223d 36c7 fb3c
000000c0: 4e5f 24bc b070 df3c 09e9 103c ba1d dfbc
000000d0: 3429 cc3c 9cb0 813d 2657 bfbc 8400 493c
000000e0: da89 983c 7524 5c3d 6535 67ba 2664 9a3d
000000f0: 3324 54bd 9d76 05bd a2f2 313c b2c5 963c
00000100: 1be3 633c 0d70 803d e8a7 8bbc e00b d4ba
00000110: 8e3d 01bd edee 343c f500 043c 3519 063d
00000120: e4ad ffbc 8c52 07bc deb9 8f3d 1fdc 0fbc
00000130: adda 85bd 515e ed3c 9450 aa3c bf81 eb3a
00000140: aa3c 133d bf40 83bc 9684 233d 3581 6bbd
00000150: e82e 913d d820 6d3d e79d 283d 221b 7d3d
00000160: 093c 59bd 48bc 23bb 08e8 1c3d cbdf 85bd
00000170: 2f38 a4bd af66 113d b9b8 553d d626 193b
00000180: 54fd 93bc 550f 26bd a13d 05bc 0e99 39bd
00000190: 95b0 81bc e677 abbc 3725 b93d 3425 6f3d
000001a0: 1b29 133d 7d26 553d 3a8d 52bd 8081 913c
000001b0: 053b 47bd b5f9 133d bfd4 8dba 9d0b f53c
000001c0: ef31 573d 4294 913c 9f71 8fbc 76ba e93c
000001d0: f20c 05bd 9ad3 73bc 880e 62bd aa85 b7bc
000001e0: 137b e33c aeec 65bc 1a7e 833c 766f 0b3d
000001f0: 25b2 c23d 7bd5 81bd 04e2 443d 473f 733d

pointer.fc2.weight f4 [128, 128]
0.15075572 0.008018395 0.1089816 0.011984265 0.063754156 0.026295794 0.048430096 -0.119115345
-0.057875477 -0.06911335 -0.08499867 -0.05633305 0.025803255 -0.11906997 -0.05805702 0.014386872
-0.07725493 -0.008539769 -0.0819079 0.12730987 -0.017306408 -0.079433545 0.111393675 0.0694894
-0.0021706 0.1377613 -0.08194007 0.04832059 -0.048066314 -0.13442938 -0.10343949 -0.036834273
0.0009733947 0.18376735 0.07434391 0.055556852 0.0027929135 0.011631411 0.13089053 -0.031350207
-0.04996073 -0.042472344 0.12009725 -0.02623076 0.13463153 -0.04743828 0.0009211325 0.10369001
0.112492934 -0.07875801 -0.06360087 -0.013438332 0.09324278 -0.12557735 0.1255775 -0.040727306
-0.076046 -0.0636683 0.2375855 -0.01678824 -0.057291616 0.05736796 0.32654968 0.14246115
-0.09779441 -0.034352265 0.033525385 0.022992112 -0.2587032 0.1484248 0.0010200524 0.11003483
-0.0873216 0.09101192 -0.016753465 -0.19219184 -0.0923733 -0.04456705 -0.20290998 0.059067182
0.15149063 0.15973553 0.058502056 -0.04681591 0.1449997 -0.008872231 -0.063508816 0.16141333
0.113585874 0.15321518 -0.40773958 -0.4151426 -0.16275932 -0.11947636 0.00036597907 -0.0069720782
0.12911674 0.14549038 0.050258547 0.033504568 -0.13134992 0.09148433 -0.15077257 0.34308243
0.13579847 0.08200859 -0.10789651 -0.05107527 -0.12410847 0.1767596 0.17845556 0.07158132
0.07978536 -0.040095195 0.11094375 -0.21401276 0.10032351 0.00795452 0.0003298871 0.3083776
-0.09768383 -0.17677464 0.18262348 -0.10557058 -0.04268118 -0.09124402 0.01512332 -0.04805577
0.14101733 0.19728473 -0.12236499 0.056466926 0.008748487 0.116263695 -0.012713034 -0.0644334
-0.13275868 0.047017407 0.051541477 0.12287406 0.0058311676 0.020743193 0.007256246 -0.060091566
-0.044188466 0.05692233 -0.0029360265 -0.21341199 -0.010519997 -0.023637794 -0.1397247 0.06863882
0.09210796 -0.036787946 0.023745717 0.13977492 0.1295175 -0.05336586 0.11317129 0.06123553
0.0038914168 0.003511874 0.084972575 -0.09093817 -0.047991924 0.012911734 -0.096794076 0.038402896
0.06873522 -0.03261191 -0.14649834 0.0849847 0.14640811 0.01636826 0.17546926 -0.01854875
0.02575122 -0.013155678 0.054212276 0.02449077 0.058739282 0.081639014 0.05379319 -0.026900142
-0.037564807 0.112938106 -0.06641969 -0.0777261 -0.021141104 0.02953862 -0.15885559 0.11225873
0.22228658 0.17127268 -0.064776555 0.11743684 0.0028162468 -0.02439822 0.10587772 -0.0388568
-0.035823416 0.031460103 0.119586736 0.21468799 0.09741663 0.0075466856 0.003881945 -0.031138003
0.10164335 0.05774645 -0.027150951 -0.009474198 -0.030280948 0.07019361 -0.12459403 0.033059865
-0.0047649136 -0.09717324 0.0300935 0.052843116 -0.0859069 0.10074868 0.1214881 -0.049062494
0.1222346 -0.050426897 -0.06325119 0.09015676 -0.004727331 0.008588123 -0.003980152 -0.030298773
0.06595429 -0.02515127 -0.09555758 0.23658855 0.14331423 -0.029728252 -0.03962005 0.04213477
-0.0103055835 -0.025909455 0.0996524 -0.06871526 -0.20706263 -0.041696142 0.13690023 -0.00051827624
0.0039470936 -0.08655413 0.17331228 0.061511286 0.17748074 -0.08644104 0.02334279 -0.13385272
00000000: b55f 1a3e 965f 033c bf31 df3d a759 443c
00000010: 8a91 823d 476a d73c a35e 463d bff2 f3bd
00000020: d60e 6dbd 4d8b 8dbd c813 aebd 7cbd 66bd
00000030: 5961 d33c f5da f3bd 33cd 6dbd eab6 6b3c
00000040: d537 9ebd 63ea 0bbc 54bf a7bd 855d 023e
00000050: 2bc6 8dbc 0eae a2bd 5e22 e43d 7550 8e3d
00000060: a040 0ebb 4c11 0d3e 32d0 a7bd d0eb 453d
00000070: 2fe1 44bd dba7 09be 15d8 d3bd 89df 16bd
00000080: 6a2b 7f3a 822d 3c3e 9f41 983d 958f 633d
00000090: 5009 373b ac91 3e3c 2b08 063e 1369 00bd
000000a0: 9fa3 4cbd 7bf7 2dbd 8cf5 f53d e4e1 d6bc
000000b0: d9dc 093e a44e 42bd 2878 713a 6e5b d43d
000000c0: b262 e63d e14b a1bd 2c41 82bd 732c 5cbc
000000d0: 12f6 be3d 5997 00be 6397 003e add1 26bd
000000e0: 01be 9bbd 8764 82bd 9d49 733e 7e87 89bc
000000f0: 9daa 6abd abfa 6a3d 8531 a73e 56e1 113e
00000100: 7048 c8bd f6b4 0cbd ea51 093d f459 bc3c
00000110: bf74 84be acfc 173e 47b3 853a f159 e13d
00000120: abd5 b2bd 7564 ba3d 903e 89bc f0cd 44be
00000130: 362e bdbd f08b 36bd a2c7 4fbe 6ef0 713d
00000140: 5c20 1b3e b691 233e da9f 6f3d 0ac2 3fbd
00000150: cd7a 143e d55c 11bc e910 82bd 8949 253e
00000160: b69f e83d 71e4 1c3e 3ec3 d0be 928d d4be
00000170: 61aa 26be 06b0 f4bd e1e0 bf39 0876 e4bb
00000180: 2e37 043e 6efb 143e e8db 4d3d 163c 093d
00000190: 9880 06be 235c bb3d 2064 1abe 80a8 af3e
000001a0: c10e 0b3e 1ff4 a73d d8f8 dcbd 4d34 51bd
000001b0: 952c febd 7800 353e 0ebd 363e 3a99 923d
000001c0: 8266 a33d dc3a 24bd 7a36 e33d 2926 5bbe
000001d0: 6a76 cd3d ad53 023c b2f4 ac39 abe3 9d3e
000001e0: 760e c8bd 6904 35be a601 3b3e 6335 d8bd
000001f0: 76d2 2ebd 25de babd cdc7 773c 21d6 44bd
00000200: d966 103e 0205 4a3e 7f9a fabd dd49 673d
00000210: d055 0f3c a91b ee3d 544a 50bc a9f5 83bd
00000220: e4f1 07be 5395 403d 281d 533d 65a5 fb3d
00000230: 6113 bf3b a1ed a93c cec5 ed3b 9322 76bd
00000240: f7fe 34bd 6427 693d 5a6a 40bb ac88 5abe
00000250: 115c 2cbc 0ca4 c1bc fe13 0fbe 8292 8c3d
00000260: 19a3 bc3d f5ae 16bd 6186 c23c 2821 0f3e
00000270: 3ca0 043e 2996 5abd 59c6 e73d 1bd2 7a3d
00000280: 2407 7f3b 7827 663b 1a06 ae3d cb3d babd
00000290: 2e93 44bd bd8b 533c f93b c6bd 5b4c 1d3d
000002a0: 0dc5 8c3d 1194 05bd a903 16be 750c ae3d
000002b0: 02ec 153e bb16 863c 37ae 333e 8cf3 97bc
000002c0: 39f4 d23c ea8a 57bc b10d 5e3d dea0 c83c
000002d0: 9a98 703d 5b32 a73d 3f56 5c3d b05d dcbc
000002e0: 8edd 19bd 184c e73d 0c07 88bd dd2e 9fbd
000002f0: 1c30 adbc fafa f13c 0aab 22be e8e7 e53d
00000300: 189f 633e 1b62 2f3e 92a9 84bd ba82 f03d
00000310: c890 383b c7de c7bc 6bd6 d83d 4f28 1fbd
00000320: 93bb 12bd 4fdc 003d e4e9 f43d 2bd7 5b3e
00000330: 5f82 c73d 304a f73b 3b68 7e3b 2015 ffbc
00000340: 642a d03d 8b87 6c3d ac6b debc ab39 1bbc
00000350: c00f f8bc abc1 8f3d 282b ffbd c869 073d
00000360: fe22 9cbb c302 c7bd a586 f63c 0672 583d
00000370: f5ef afbd 5355 ce3d c1ce f83d c1f5 48bd
00000380: 2256 fa3d 6f8c 4ebd d789 81bd 1ba4 b83d
00000390: bae7 9abb 33b5 0c3c ef6b 82bb 2235 f8bc
000003a0: 0b13 873d 090a cebc b1b3 c3bd 4544 723e
000003b0: f7c0 123e aa88 f3bc a248 22bd 8295 2c3d
000003c0: c0d8 28bc 1140 d4bc 8f16 cc3d 96ba 8cbd
000003d0: 3a08 54be 93c9 2abd 932f 0c3e eedc 07ba
000003e0: 9f56 813b 4b43 b1bd c678 313e 42f3 7b3d
000003f0: 83bd 353e 0008 b1bd 6139 bf3c b010 09be

pointer.fc2.bias f4 [128]
-0.05107647 -0.022232296 -0.0075397827 -0.089351766 0.083744735 0.034333974 0.026869314 0.036471993
0.031832747 -0.08264316 0.05110088 0.07309772 0.044095967 -0.06336958 0.060565505 -0.03554472
-0.07024288 0.0598218 0.00013601879 -0.09051916 0.003113314 -0.031828824 -0.03225649 0.1308407
0.11103822 -0.018949643 0.106132746 -0.091035254 0.010954417 0.07045397 0.058870487 0.11384632
0.027929079 -0.10144715 -0.004505767 -0.015530772 -0.0748912 0.07032978 -0.021962259 0.045141947
0.12318534 0.06759398 0.11351272 -0.07514428 -0.017812854 -0.019825757 0.05471327 0.02003644
-0.034062948 -0.0008879402 -0.0542137 -0.07227523 0.00546128 -0.06627327 0.12565836 -0.06507622
0.042700116 0.0149538955 0.080481425 -0.052544795 0.045985505 0.027078567 0.066123605 -0.011955527
0.12442827 0.00822869 0.087450676 -0.0055204085 -0.015989598 -0.07860514 0.0036269508 0.018445367
-0.087715186 0.009917082 -0.05015653 -0.083101414 -0.0011808698 -0.042445045 0.066350594 0.04938269
0.100423835 0.0070873275 0.10508334 0.12520468 0.009875272 0.06645347 0.053800695 0.08394684
0.12588464 0.037106875 0.025902266 -0.06937589 0.051890828 0.05816465 0.020090329 -0.03227374
0.10088701 -0.05534373 0.10966256 0.11506451 -0.097845055 0.12504923 0.002165939 0.0107130045
0.036261033 0.04582618 -0.09984845 -0.025656397 -0.09625507 0.025241012 0.06646981 0.07160366
-0.019872753 -0.014772773 -0.070155144 -0.037184782 -0.105389595 0.054467104 0.030752428 0.01144056
0.10351363 -0.02594276 -0.04313226 0.050764095 -0.08077931 0.006118704 -0.09821614 0.07995548
00000000: 9035 51bd 8120 b6bc 4810 f7bb 0ffe b6bd
00000010: 5c82 ab3d c8a1 0c3d 091d dc3c a863 153d
00000020: 0e63 023d d140 a9bd 284f 513d 42b4 953d
00000030: f99d 343d e9c7 81bd 8913 783d 5797 11bd
00000040: 80db 8fbd b407 753d 44a0 0e39 1c62 b9bd
00000050: be08 4c3b f15e 02bd 621f 04bd 1bfb 053e
00000060: 0268 e33d 483c 9bbc 205c d93d b170 babd
00000070: 287a 333c 2c4a 903d 2e22 713d 4228 e93d
00000080: 86cb e43c 86c3 cfbd 1da5 93bb c774 7ebc
00000090: 8f60 99bd 0f09 903d 32ea b3bc c3e6 383d
000000a0: 9848 fc3d b66e 8a3d 5b79 e83d 3fe5 99bd
000000b0: 43ec 91bc a069 a2bc 061b 603d 7623 a43c
000000c0: 9785 0bbd a8c4 68ba 2f0f 5ebd 0905 94bd
000000d0: 89f4 b23b 48ba 87bd 96ac 003e ae46 85bd
000000e0: 51e6 2e3d 2f01 753c 72d3 a43d 3639 57bd
000000f0: 4c5b 3c3d dfd3 dd3c d06b 873d 1de1 43bc
00000100: 40d4 fe3d a1d1 063c 5719 b33d 8be4 b4bb
00000110: 9efc 82bc bbfb a0bd 23b2 6d3b bd1a 973c
00000120: 05a4 b3bd 427b 223c ef70 4dbd 1331 aabd
00000130: 6ac7 9aba dbda 2dbd d2e2 873d 8145 4a3d
00000140: 03ab cd3d d03c e83b ef35 d73d a835 003e
00000150: e5cb 213c c218 883d 1e5e 5c3d 52ec ab3d
00000160: e7e7 003e 61fd 173d fd30 d43c f214 8ebd
00000170: 7a8b 543d 0e3e 6e3d 7994 a43c 7831 04bd
00000180: d99d ce3d 1bb0 62bd c496 e03d f1a6 eb3d
00000190: fd62 c8bd e80c 003e 6df2 0d3b 9985 2f3c
000001a0: 7386 143d 3cb4 3b3d 587d ccbd 5d2d d2bc
000001b0: 6121 c5bd 3dc6 ce3c 5321 883d f1a4 923d
000001c0: 2fcc a2bc 8009 72bc 80ad 8fbd 124f 18bd
000001d0: 80d6 d7bd e618 5f3d 84ec fb3c 3071 3b3c
000001e0: f4fe d33d e985 d4bc 74ab 30bd 03ee 4f3d
000001f0: 9f6f a5bd 697f c83b 8b25 c9bd b3bf a33d
