trained_models/sdvrp/S101A1/model_incumbent_vrpRl13_SD_S_101A1_T_0.2_29540.pt (torch_old, 469732 bytes, 15 tensors)

all_embed.embed.weight f4 [128, 4]
000000 a3 10 9f bc 04 74 10 bf c2 2c 86 3e d3 83 9c 3e
       -0.019417113 -0.56427026 0.26206023 0.30569324
000010 58 5f 86 3d e0 eb 44 be 70 5a 4a bd 30 f0 68 3d
       0.06561154 -0.19230604 -0.049402654 0.056869686
000020 ec f8 98 3e d3 79 04 bf e1 20 5e 3e fb 1e d5 bd
       0.29877412 -0.5174839 0.2169223 -0.104063
000030 49 21 03 be 04 10 35 3e 48 f9 1f be c2 a5 12 be
       -0.12805666 0.1768189 -0.15622437 -0.14321044
000040 d6 28 68 3f 45 e0 96 bc fc 2e e5 3d 39 55 d5 3d
       0.9068731 -0.018417487 0.11190602 0.104166456
000050 8a b8 34 3c 7c 36 55 3f f5 d1 70 3e 14 c1 2b 3e
       0.011030326 0.8328626 0.23517592 0.16772872
000060 6b a3 21 3d 78 5a 40 3e 48 46 06 bf c6 e0 a2 be
       0.03946249 0.18784511 -0.5245099 -0.31812114
000070 5f 9e 35 3e 1c 24 64 3f 96 71 a6 bd d8 7a dc 3d
       0.17736195 0.891176 -0.081271335 0.10765618
000080 4b 17 1b be 61 49 9f bd 6a 86 46 be 9f de fa 3d
       -0.15145604 -0.07777668 -0.19387212 0.12249493
000090 90 10 16 be 01 dc 09 3f 9f 9a 4b 3e 82 99 c2 3d
       -0.14654756 0.53851324 0.19883202 0.095019355
0000a0 63 f4 9a bd 02 0c 35 be 0f 10 05 3e 99 e2 b5 3e
       -0.07566144 -0.17680362 0.12994407 0.35524443
0000b0 b7 dd 47 3f a2 60 31 be b2 8c b0 bc fb d0 18 3d
       0.78072685 -0.17322019 -0.021551464 0.037308674
0000c0 c6 10 1e 3e 78 a1 cd 3d 20 1e a6 3b e0 2a ff 3c
       0.15436086 0.10040563 0.005069509 0.031148374
0000d0 4f b7 2b 3f c0 93 eb be 22 bd 27 3e ec bc 10 be
       0.6707658 -0.46011162 0.16380742 -0.14134568
0000e0 79 4d e1 3d c7 28 16 bf 07 49 63 be c8 8f e6 3d
       0.11001105 -0.5865597 -0.22195826 0.11257893
0000f0 a6 42 08 3f 6d 55 ac be 2a 48 16 bd 46 b7 91 3d
       0.532267 -0.33658925 -0.036689915 0.07115035
000100 08 84 8e 3e f2 8b 21 3f 6f 8a 55 bd e3 b4 9d 3e
       0.27835107 0.63104165 -0.052133974 0.30802068
000110 68 ac a5 3c cb 79 35 bd 50 38 fd 3d 3c 54 bc 3e
       0.020223811 -0.044305604 0.123642564 0.36783016
000120 e7 e9 6f 3f 3b 13 0c 3f 3a 9d cb 3b 0c 50 33 3e
       0.9371628 0.54716843 0.006213811 0.17511004
000130 06 61 03 3d e3 24 1c bf 21 be 4b 3e 5d 9f 14 3c
       0.03207495 -0.60993785 0.19896747 0.009071198
000140 37 02 db be 06 65 20 3f 99 1a 07 bd 11 2b 27 3d
       -0.42775127 0.6265415 -0.03298435 0.040812556
000150 78 2c ce 3d 0d fb 22 bf 0c 6b 7c bd 78 7e 81 3e
       0.100670755 -0.63664323 -0.061625525 0.252918
000160 8a 34 e6 be 52 4f 0a be 49 90 f3 be 63 fc 0c 3d
       -0.4496196 -0.13506821 -0.47571018 0.034420382
000170 32 67 6b 3f 58 85 b2 bc 15 5d 6a be 75 bf fb bd
       0.9195434 -0.021792099 -0.2288707 -0.12292377
000180 db ea 6d 3f bc 1d 0a 3f 4a 4d 9f 3d 80 57 f6 3d
       0.92936486 0.5395162 0.077784136 0.12028408
000190 be f4 3a 3e 8b 6a 13 3e 28 98 f8 be 0e 9e 10 bf
       0.18257424 0.14396112 -0.48553586 -0.5649117
0001a0 60 4e 9a be df 04 32 3f 81 e8 2c 3e a0 b9 73 3e
       -0.3013792 0.6953868 0.16885568 0.23801279
0001b0 ef da 1c 3e 18 a8 61 bc 11 a1 b7 3e 39 ac 7c 3e
       0.15317892 -0.013772987 0.3586507 0.24675073
0001c0 c0 51 1c 3f ed 41 8a be 42 77 07 3e 15 e0 7b 3d
       0.6106224 -0.27003422 0.13229087 0.061493
0001d0 9c f8 89 bb bb f4 1f bc 0b 15 0a 3f 19 9b 74 3e
       -0.0042105448 -0.009762938 0.5393836 0.2388729
0001e0 47 7f 32 be 38 8e bc bd 54 8d 39 3e ef 5d b4 3c
       -0.17431365 -0.092068136 0.18120319 0.022017447
0001f0 ae 66 8a 3e ef f9 45 3f e9 7e d0 bb 83 49 14 be
       0.27031463 0.77334493 -0.006362785 -0.14481167
000200 21 e3 ea 3e 66 d8 6e be a0 6b f7 bc 0b 6d 62 be
       0.4587641 -0.23324737 -0.030202687 -0.22111909
000210 40 6b be 3b 58 71 a3 bc d2 34 03 3e 09 bf 41 be
       0.005811125 -0.019951507 0.12813118 -0.1892053
000220 7a 42 db bc e7 c7 5f 3f b0 18 91 bc 2e ab 97 bd
       -0.026765097 0.874144 -0.017711967 -0.07405697
000230 f9 6a 31 3f bc a4 ad be fb c8 08 bd 1a 11 69 3e
       0.6930385 -0.33914745 -0.033394795 0.2276043
000240 54 da 17 be 08 26 be bc 4a 47 30 3e e3 5a cb bd
       -0.1482938 -0.023211494 0.17214695 -0.09929445
000250 ca a2 10 bf 3a c4 45 3e e3 3b 84 3e 15 d3 10 3e
       -0.56498396 0.19313136 0.2582694 0.14143021
000260 d6 b4 60 3f 5f 01 ae bd 76 a8 7e 3e 85 c1 2e 3e
       0.87775934 -0.08496355 0.2486895 0.1706601
000270 69 01 42 3c 2a 3c 3d 3f 62 4c d6 bd 13 d8 8e bd
       0.0118411565 0.7391993 -0.104637876 -0.06974807
000280 13 6f 23 be b1 b7 fe bd e8 5c d0 3d 10 15 31 3d
       -0.1596034 -0.1243738 0.101739705 0.043232977
000290 0d 18 9e be 27 1f 10 3f 87 6d 12 3e 06 26 bf bd
       -0.30877724 0.56297535 0.14299594 -0.09333424
0002a0 a7 c8 d3 3d 35 0b 53 3f 53 e6 0b 3e eb 12 6b 3e
       0.10341006 0.82438976 0.1366208 0.22956435
0002b0 ee dc e8 3c 76 ed be 3d d7 db fa 3e 7b ea 39 3e
       0.02842566 0.09322636 0.4899585 0.18155853
0002c0 da 27 2a 3f c9 be f6 bd eb 96 88 bd ed c5 37 be
       0.6646706 -0.12048108 -0.0666941 -0.17946596
0002d0 e0 67 10 bf a7 b5 e4 be ba 2f 20 3e 2f 97 99 3e
       -0.564085 -0.4466984 0.15643206 0.29998156
0002e0 e8 52 2f 3d 00 41 54 be 00 2a b4 39 20 86 a2 3c
       0.042803675 -0.2072792 0.00034363568 0.019839346
0002f0 81 5b 58 be 38 a7 15 3f 04 55 b7 3e 38 c2 5b 3e
       -0.21128656 0.5845828 0.3580705 0.21460807
000300 95 b5 80 bc 85 08 2e 3e da fd a3 be b4 45 97 3e
       -0.015711585 0.16995437 -0.3202961 0.29545367
000310 48 35 7b 3f ae cb 47 3e 52 2c e3 3d 34 76 d3 bd
       0.98128176 0.19511291 0.11092438 -0.1032528
000320 5c fd 27 3e 45 08 e7 3d 7c 1e 80 be 21 d2 75 be
       0.16405243 0.11280874 -0.25023258 -0.24005939
000330 43 5b 60 3e 20 b1 9a bd 67 c9 02 bf 4f 28 0f be
       0.21909814 -0.07553315 -0.51088566 -0.1398022
000340 f4 18 11 3f 70 3b a0 be 5b d6 08 3d cc a5 bb 3d
       0.566787 -0.31295347 0.03340755 0.091624826
000350 d4 d3 51 3f ff 70 64 be c8 49 13 3d 6e 8d 49 3d
       0.8196385 -0.2230873 0.035959035 0.049207143
000360 9b 47 db bd bc ad 37 3f 1a 6f 8c be 77 d4 64 bd
       -0.10707017 0.7174947 -0.27428514 -0.055866685
000370 27 e6 cf 3e 37 e7 08 bf 58 b5 71 3e 5b b1 bc 3c
       0.4060528 -0.53477806 0.23604333 0.023033788
000380 42 52 a9 3d 00 fa 5b 3d ce 9c ed 3e 81 09 36 3e
       0.082676426 0.053705215 0.46408695 0.17777063
000390 3f b8 85 3f 4a 1c 1c 3f 6c 23 20 bd 72 e8 44 3d
       1.0446852 0.60980666 -0.03909628 0.04807324
0003a0 3b 0a 3c be 3e 9d ec bd 9c 7f 84 3d 9b 2e 51 be
       -0.18363278 -0.11553429 0.06469652 -0.20427935
0003b0 e4 72 4c be b6 00 57 be e8 7e 7a bd 50 a6 9f 3d
       -0.19965702 -0.20996365 -0.061156183 0.077953935
0003c0 23 d2 2e be d8 6b 7a 3d 73 99 36 be 20 a4 67 bd
       -0.17072348 0.061138004 -0.17831974 -0.056553006
0003d0 65 f7 3e 3c f3 00 d3 3b 4d fd 82 bf 41 74 16 be
       0.011655663 0.006439322 -1.0233551 -0.14692785
0003e0 be 00 0e bf ab 52 d7 3e e6 d8 18 3d 22 42 3e bd
       -0.5546988 0.42055258 0.037316225 -0.046449788
0003f0 d1 8d 65 3e d5 c1 80 bd 7c c5 f8 be ea e5 89 be
       0.2241738 -0.062869705 -0.4858817 -0.26933223

all_embed.embed.bias f4 [128]
000000 93 42 5d 3e 72 1f ab be 35 41 07 3f e4 e6 d9 be
       0.21607427 -0.33422428 0.52833873 -0.42558968
000010 10 f9 97 bb 35 c4 7d be 8d 79 61 3e 0e 39 2c be
       -0.004637845 -0.24781878 0.22019024 -0.1681864
000020 97 b3 bc be 98 f4 18 3e 76 83 16 be b1 e5 c0 3d
       -0.36855766 0.14937055 -0.14698586 0.0941881
000030 5a bc e3 be 22 96 05 3f e0 51 f3 3e d9 67 48 3e
       -0.44479638 0.5218221 0.47523403 0.19570865
000040 5b 3b 13 3f 94 ce c7 be 9b 0e ae be 82 cd 07 3f
       0.57512444 -0.39024794 -0.33995518 0.53047955
000050 c6 6b 9d 3e 07 ed ab 3e 9b a8 10 3f 9e bd 7a 3e
       0.30746287 0.33579275 0.5650727 0.24486396
000060 ea 21 d3 bc 04 03 94 3e d6 1a cb 3e b9 d4 d6 be
       -0.025773007 0.2890855 0.39668912 -0.4195917
000070 b3 ca f3 3d 8d 77 b8 be 05 9a 7f be 95 31 e8 3d
       0.11903896 -0.3602871 -0.24961098 0.11337582
000080 a0 0f df 3e c2 1e c7 be 1d 46 1c 3e b2 a0 11 3d
       0.43566608 -0.38890654 0.15261121 0.03555364
000090 3c 71 1b be 55 56 d7 3e 54 1a 54 3e 89 05 35 3e
       -0.15179914 0.42058054 0.20713168 0.17677893
0000a0 ee 52 ce be 21 a4 c0 3e aa 86 97 be 48 be d0 be
       -0.40297645 0.3762522 -0.29594928 -0.40770173
0000b0 c7 69 99 3e dd f1 b4 3e 6c f7 aa be a1 c2 0a 3f
       0.29963514 0.35340777 -0.33391893 0.5420323
0000c0 67 0f 58 be 81 02 8f 3d 74 b3 e2 bc 4c f7 eb 3d
       -0.21099626 0.069828995 -0.02767346 0.115217775
0000d0 63 02 8b 3e 45 09 1e bd a8 26 26 3e d3 15 d1 3e
       0.27150258 -0.03858306 0.16225684 0.40836963
0000e0 52 ee ce be 60 46 0a 3e a0 4c 9e bc 84 fb 84 be
       -0.404162 0.13503408 -0.019323647 -0.2597314
0000f0 3e 44 ea be d9 c0 d3 3e 35 b8 02 3f 35 87 1d 3e
       -0.4575519 0.4135807 0.5106233 0.15383609
000100 3b 81 b9 3e e3 0e ae 3e da 8f 44 3e 30 e3 75 be
       0.36231408 0.33995733 0.191955 -0.24012446
000110 b2 f5 d6 be 6f fa 7b 3e 49 06 9f bd c6 56 4a 3c
       -0.41984326 0.24607252 -0.07764871 0.01234979
000120 52 09 10 be 3d a0 d9 3e a5 60 2a bd de 94 31 3c
       -0.14066055 0.42505065 -0.041596074 0.010838715
000130 be 16 98 3e e0 1a c6 3e be 28 17 bb 1a 04 87 be
       0.2970485 0.3869238 -0.0023065056 -0.26370317
000140 af 78 2e be e5 f5 4c be f6 3a de be 92 1d 2f 3e
       -0.17038225 -0.20015676 -0.4340436 0.17101124
000150 e6 5c 46 be 62 d6 3c be 6b 89 ea 3e 4d 04 fb be
       -0.19371375 -0.18441156 0.45807967 -0.4902672
000160 9a 78 8f bd ea b8 9e be 3a 73 2a 3e 05 95 be 3d
       -0.07005425 -0.31000453 0.16645518 0.09305767
000170 24 78 b8 be 54 e8 9b 3e c7 2e d5 bb 8c f6 d2 be
       -0.3602916 0.3045069 -0.0065058204 -0.41203725
000180 83 c1 fb bd 5a 57 06 3f b6 93 b4 be 2a ee fd be
       -0.12292769 0.5247704 -0.35268945 -0.49595767
000190 4a db e4 3e 20 52 70 be dd 1e 06 3d 32 0a 55 3e
       0.44698554 -0.23468828 0.032744277 0.2080467
0001a0 f8 6b bf 3e 88 09 8f 3e 95 36 07 3f b7 56 97 be
       0.3738706 0.2793696 0.5281766 -0.29558346
0001b0 c2 f6 d6 be 40 a5 0c be fd c8 85 be b4 c0 19 be
       -0.41985136 -0.13734913 -0.26129904 -0.15014917
0001c0 1c 6b 82 be 76 b7 e3 be ee 0e 9f be 50 21 04 3e
       -0.25472343 -0.44475907 -0.31066078 0.12903333
0001d0 c6 65 3f 3e 7a 61 ca 3e bc b8 ff be 12 2b 19 3e
       0.18691167 0.39527494 -0.4994563 0.14957836
0001e0 bf 20 28 3e 28 fc 73 be df 12 87 3e 4c d9 c1 be
       0.16418742 -0.23826659 0.26381585 -0.37861097
0001f0 1b 0b 75 3e eb d5 ec bd 4a 75 3a 3f 35 76 1a 3d
       0.23930018 -0.11564239 0.7283522 0.037710387

all_embed.embed_2.weight f4 [128, 128]
000000 83 bc f5 3c f5 b9 03 3e 88 f3 96 be d8 5a e6 bd
       0.029997116 0.12863906 -0.29482675 -0.11247796
000010 a8 1b e3 be 79 ac eb 3d 4c 10 01 bc ff ab d5 bd
       -0.44357038 0.11507506 -0.007877421 -0.10433196
000020 3f 46 e4 3d 15 7a a2 3d 26 04 53 3c 4b 7c 3c bf
       0.11146211 0.079334415 0.012879407 -0.73627156
000030 a1 fa 09 3e 49 ff c7 be 2e 50 68 be 6c c1 b9 be
       0.13474514 -0.39061955 -0.22686836 -0.36280382
000040 8f 1f 31 3d 68 1a e9 3d 62 44 27 bf e7 89 25 be
       0.043242987 0.1138199 -0.6533872 -0.16165887
000050 be fe e6 3e 4b 8a d5 bd ca 4c 06 3f a4 5c 20 bf
       0.45116228 -0.10426768 0.5246092 -0.6264136
000060 df d2 69 be fd f6 c1 3d 88 49 26 3e 58 d7 56 bd
       -0.22834347 0.094709374 0.16238987 -0.05245146
000070 d4 71 1c bf ab 43 9a 3c f5 48 fe 3d e6 4e 49 be
       -0.6111119 0.018831095 0.12416259 -0.19659004
000080 b0 b0 9d be dd 8d 19 3e ec 30 2e 3d dc 93 e4 be
       -0.30798864 0.14995523 0.042527124 -0.44644058
000090 6a 96 de bd 41 ec be 3e be 64 dd be 38 bb ae bd
       -0.10868533 0.37289622 -0.43240923 -0.08531803
0000a0 f8 b0 57 3d 94 90 c6 3d 97 e3 b7 bd 88 cb 1d 3e
       0.052659005 0.09695545 -0.08978956 0.15409672
0000b0 e9 db d1 be 2e 3e 6f 3f f3 5d 0b 3e b6 0d 17 3e
       -0.4098809 0.93454254 0.13610058 0.14751324
0000c0 81 13 48 3c b1 76 42 bf 00 80 0e 3d cf 53 04 3e
       0.012211681 -0.7596236 0.03479004 0.12922595
0000d0 89 99 90 be 8a c6 0f bf 7f dd fb 3d 47 4e ac be
       -0.28242138 -0.5616232 0.122981064 -0.3365347
0000e0 db 17 85 3e 1d 14 ec be d0 ec 38 bd 31 9f 11 3e
       0.25994763 -0.46109095 -0.045147717 0.14220883
0000f0 64 46 ea bd 09 12 00 3e d4 e1 d7 3e 7e a4 12 be
       -0.11439207 0.1250688 0.4216448 -0.14320561
000100 06 d9 06 bf 3f cf f2 bd d4 ac 35 3d 4f 21 11 be
       -0.526749 -0.11855935 0.044354275 -0.14172862
000110 0b 4c 0b 3e 2e c4 00 3e 5c 9d a9 3e d6 8f 14 be
       0.13603227 0.12574837 0.33127868 -0.14507994
000120 7e ba c5 3d db 06 cc bd fb 2b 1b bc ab 53 07 bf
       0.09654711 -0.09962245 -0.009470935 -0.5286204
000130 0c 6a e5 be a5 ce 85 be 20 76 36 bf d4 7c 23 bf
       -0.4480747 -0.2613422 -0.71273994 -0.6386235
000140 87 82 d0 3d d9 7c 07 bf e3 50 29 3e f5 84 a6 bd
       0.10181146 -0.5292488 0.16534762 -0.08130828
000150 24 35 90 3d 8d f9 d0 3c b3 3e e2 3c 4c 6c 39 3c
       0.07041386 0.02550962 0.027617788 0.011317324
000160 ef 2f f3 3e 9e fd 05 be ea 01 c2 be 74 07 38 bf
       0.47497508 -0.13085029 -0.37892085 -0.7188637
000170 b0 52 64 3d e6 34 3a 3e 61 d9 f3 be 6a e9 ef 3d
       0.05574292 0.18184242 -0.47626784 0.11714442
000180 1b e3 a4 be 6a 55 0e be ef 6a 1f 3e cb 39 aa bd
       -0.32204518 -0.1389977 0.15568136 -0.083118044
000190 59 2e ee 3e b0 01 fe bd 1b b2 42 3d 1b 98 48 be
       0.46519735 -0.124026656 0.047533136 -0.19589274
0001a0 35 59 2a be ce 3f b6 be b4 e6 f2 3d 13 8f 6b be
       -0.16635592 -0.35595554 0.118604094 -0.23003797
0001b0 3e 2c 78 bd 98 0a c2 3c 0a b0 8c bd c0 4a e0 3c
       -0.060589068 0.023686692 -0.06869514 0.027379394
0001c0 80 fc 74 3c 10 55 4d bc 96 84 f2 3d fe ba dd be
       0.014952779 -0.0125324875 0.11841695 -0.43306726
0001d0 b4 86 04 bf cb 4c f8 3d 40 9c 5d 3b b6 e7 a4 be
       -0.5176804 0.12124022 0.0033815056 -0.3220803
0001e0 56 e8 f2 be a2 be 95 3d 40 f0 37 3d 18 6c f6 bd
       -0.47442883 0.07311751 0.044906855 -0.12032336
0001f0 0d a1 09 3d 16 44 9f 3e 16 85 36 3f da 9a 19 3d
       0.033600856 0.31106633 0.71296823 0.037501194
000200 33 94 84 3e 20 42 16 bc ff 6e 4a 3e b0 55 30 3d
       0.25894317 -0.009171039 0.19768904 0.043050468
000210 5a cc a1 be c3 23 ce be 74 e3 15 3e db 83 cc be
       -0.3160122 -0.4026166 0.14637548 -0.39944348
000220 74 6d 51 bd f0 57 40 be ad 9e e9 3d 58 1a 12 bd
       -0.051129773 -0.18783545 0.11407218 -0.035669655
000230 0c 5c 40 bd ca f9 02 be b9 bd b1 3e 2c 63 a4 3d
       -0.046962783 -0.127906 0.3471506 0.08026728
000240 44 4f c4 bd 65 08 89 3e 23 2f aa be a8 c6 18 3e
       -0.09585431 0.26764217 -0.33239087 0.14919531
000250 b6 51 73 be 76 83 3d 3e be 75 3d 3e c9 5a fe bd
       -0.23761639 0.1850718 0.18501946 -0.1241966
000260 12 20 5f be 4e 68 8d 3e d6 b8 71 be 8f aa 21 bd
       -0.21789578 0.2761864 -0.23605666 -0.039469298
000270 fb c7 3a be d1 ad a1 bd a3 ee 5d bd 2c ed 6c be
       -0.18240349 -0.07894481 -0.05418266 -0.23137349
000280 e0 68 f8 bd f6 14 eb bd 0a 0c 61 be 16 c3 e6 3c
       -0.12129378 -0.11478607 -0.21977249 0.028169196
000290 f0 f7 0d bc 26 4b 8d 3d 5c a7 38 be 8b 9e 25 bd
       -0.00866507 0.06899099 -0.18032593 -0.0404344
0002a0 7c 1b 37 3d 31 86 28 be 85 cf 3f be 39 6d 70 bd
       0.044703946 -0.1645744 -0.18731506 -0.058697913
0002b0 d4 e8 3d be be 48 48 3f 77 c6 a5 bd 61 1e 03 bc
       -0.18545848 0.78235996 -0.08094495 -0.008002848
0002c0 2c 8d 10 3e a9 4e 92 be 7d 20 18 3e 00 64 3e bc
       0.14116353 -0.28575638 0.14856143 -0.011620522
0002d0 81 71 85 bd 25 cc ee bd 73 b3 51 be 39 1e 32 3e
       -0.0651579 -0.11660031 -0.2047861 0.17394342
0002e0 9d 28 9e 3d 55 d0 b6 bd 08 e5 67 bd a0 2b 97 bb
       0.0772259 -0.08926455 -0.056614906 -0.004613355
0002f0 12 5f df bd b8 c0 75 3e ce 3b 0b be b8 09 ba 3d
       -0.10906805 0.23999298 -0.13597032 0.09083885
000300 68 58 52 bd 0f 9b 48 3e 59 fb c3 bd 40 2e 6d bc
       -0.051353842 0.195904 -0.09569425 -0.014476359
000310 b4 ee 69 3d 5a e6 48 3d 28 b5 25 be 63 a0 84 3e
       0.05711241 0.049047805 -0.16182387 0.25903615
000320 54 53 24 be a9 22 20 be 87 df 90 3e ab 4f 2a be
       -0.16047412 -0.15638222 0.28295538 -0.16631953
000330 60 04 b0 bd 2f 22 08 3e d9 d3 39 be e5 31 95 be
       -0.085945845 0.1329429 -0.1814722 -0.2913963
000340 05 14 84 3e 08 4f d4 bd 79 6c 04 bc ca e3 53 be
       0.25796524 -0.103666365 -0.0080825025 -0.20692363
000350 13 57 48 be f9 cb a3 be 9f c3 53 be 55 1d 6a be
       -0.19564466 -0.31991556 -0.20680092 -0.22862752
000360 8f 6a bf 3c f0 85 bf bc c2 9a ac 3b 7a fb 74 3b
       0.02336624 -0.023379296 0.005267472 0.0037381337
000370 f0 4c 6e bc 03 c8 a8 bd 3d 32 0f be c1 58 0b 3e
       -0.0145447105 -0.08241274 -0.13984008 0.13608076
000380 7e 78 b8 bc c6 3f 99 3e bc 79 97 bd 1b 59 18 3e
       -0.022518393 0.29931468 -0.07396266 0.14877741
000390 13 5c 92 3d 2e cd cc bd 6d 5b 00 3e 4b 05 2e bd
       0.07146468 -0.100000724 0.12534876 -0.042485517
0003a0 d1 08 43 3c 2b b1 bb bd 45 d8 1b be 7d 9f 43 be
       0.011903957 -0.091646515 -0.15219219 -0.19103809
0003b0 40 81 ae bd 66 c9 b5 3d 12 4d 97 be a0 59 0f 3d
       -0.08520746 0.08876304 -0.29550987 0.034997582
0003c0 66 ed ad 3d eb e6 06 3e 5f 2b a9 bd f2 4f 40 be
       0.08492546 0.13174026 -0.082602255 -0.18780497
0003d0 ad 7a 35 be 06 e8 94 3e 83 63 18 be 47 02 a9 bb
       -0.17722578 0.2908327 -0.1488171 -0.005157742
0003e0 72 da 34 be d6 a2 46 bd ef 16 c0 bd de ea f4 3d
       -0.17661455 -0.048495136 -0.09379374 0.1195886
0003f0 08 3f a0 bd 91 ef 36 3e c8 9d 9b 3d 42 e6 40 3e
       -0.07824522 0.17864825 0.07598454 0.18837836

all_embed.embed_2.bias f4 [128]
000000 b9 31 0d be dd 32 e1 bc 60 9f fd 3c 62 24 3b 3e
       -0.13788499 -0.027490074 0.030959785 0.18275598
000010 7c 49 e0 3d 76 3b 9a 3d 37 26 0d 3e 19 f8 23 be
       0.10951516 0.075308725 0.13784109 -0.1601261
000020 80 4c 1e be 51 7a 42 be 76 e0 17 be 35 d2 ab 3d
       -0.1545887 -0.18991973 -0.14831719 0.08389703
000030 6e 68 95 bc ce b6 a6 bd 33 c9 78 bd 3c c9 82 bd
       -0.018238273 -0.08140336 -0.060738754 -0.06386039
000040 80 69 59 3c 8d 52 98 bd 1d 60 91 3d ef cc af bd
       0.013269782 -0.0743762 0.0709841 -0.0858401
000050 c7 f0 31 bd 93 4c 26 bd 6d b9 07 bb 9f 24 26 3e
       -0.043442514 -0.04060037 -0.0020709888 0.16224907
000060 eb 2d c0 3d b7 e0 29 bd a3 e4 12 be 3a 1f dd bd
       0.09383758 -0.04147407 -0.1434503 -0.107969716
000070 ce b4 82 be d3 a0 5e 3d a0 46 4e 3d 86 14 a8 3d
       -0.25528568 0.054352593 0.050360322 0.082070395
000080 89 f5 b3 bd 78 ef 80 3d 2e d3 c6 bd 29 6b 08 3e
       -0.087870665 0.06295675 -0.09708248 0.13322128
000090 7a d4 7f 3c 44 c0 36 3d 85 9c bb 3d 8d 52 1b be
       0.015614623 0.044616953 0.09160713 -0.1516821
0000a0 72 2f 39 bd f0 56 4e bd 3c 30 01 3e b1 2b a5 3d
       -0.045211263 -0.05037588 0.12616056 0.08064974
0000b0 7c a4 d2 3c a0 ab 91 3d 92 e2 1a 3e 3f a9 82 3d
       0.025713198 0.07112813 0.15125492 0.063799374
0000c0 d2 43 0b 3d 32 4e 2f be 53 68 02 bd c4 b4 3c bc
       0.034000225 -0.17119673 -0.031837773 -0.011517707
0000d0 3c b1 33 bd 6e b1 93 bd 0f 10 40 bd f0 60 68 b8
       -0.043870196 -0.072115764 -0.046890315 -5.540339e-05
0000e0 cf 3d f4 bd e4 8b 83 bd 90 f3 ef 3d 7e ee 41 3e
       -0.119258516 -0.064231664 0.11716378 0.18938634
0000f0 fe 58 6f 3d 21 cc 0c 3e 78 5a dd bc e3 a2 ae bd
       0.05843448 0.13749744 -0.027020678 -0.08527162
000100 87 e2 19 bd 8e 6f 3e bd c0 1c 4d bc 25 15 08 be
       -0.03756955 -0.046493106 -0.012519062 -0.13289316
000110 34 37 d4 3d 6f 20 88 bd cf f1 ad bd fe c3 65 be
       0.10362092 -0.06646811 -0.08493387 -0.22438046
000120 d1 3d fd 3b 86 ef 9e be 61 c8 9c bd 0f 0d d7 bc
       0.0077283164 -0.31042117 -0.07655407 -0.026251344
000130 79 58 aa bd 7c 9c 23 3e 98 da 31 be cd 21 b9 bd
       -0.08317656 0.15977663 -0.17368543 -0.0903965
000140 75 b7 67 3b 0f cf 83 bd 20 ea 89 bc 24 ab 1f be
       0.0035357152 -0.06435978 -0.016835272 -0.15592629
000150 64 30 22 bd 3d 2e 6c 3d ca a4 7e 3d f1 ce 60 be
       -0.03959693 0.057661284 0.062168874 -0.21953942
000160 6c b9 2e be 0a 5e fc bd 42 27 23 3d 5a ea cd bd
       -0.1706292 -0.12322624 0.03983236 -0.10054465
000170 e0 11 16 bd ba a7 b8 bd 55 cb 5e be 25 0f 4a 3d
       -0.03663814 -0.09016366 -0.21757253 0.04933085
000180 1d 80 a3 bd 7f 61 d7 3c 19 79 d5 3c 57 46 06 3c
       -0.0798342 0.026291607 0.02605872 0.008195481
000190 4b c4 96 bd 10 4b 0c 3e b7 18 5f 3d 8d 71 b9 bc
       -0.07361659 0.13700509 0.05446693 -0.022637153
0001a0 27 34 75 3d a3 a6 89 3d cf d5 9b bc ba eb b7 3d
       0.05986419 0.067212366 -0.01902285 0.08980508
0001b0 70 85 da bc a6 80 44 3b 1e de fc 3d d8 f2 14 bd
       -0.026674956 0.0029983907 0.12347053 -0.036364406
0001c0 93 b5 01 be 06 61 34 bd 93 e0 26 3d f0 d6 d8 3d
       -0.12666921 -0.04403784 0.040741514 0.10587871
0001d0 e4 24 0a be 59 3e 2a 3d d6 98 9a bd 45 f4 1b be
       -0.13490635 0.041563366 -0.075486824 -0.152299
0001e0 ba cc 72 be e6 b8 40 be b0 f3 7f bd ed ca 67 bd
       -0.2371091 -0.18820533 -0.062488258 -0.05659001
0001f0 43 f1 90 bc e4 04 84 be 01 bb 17 bb fd 3e 21 be
       -0.017693168 -0.2578498 -0.0023152234 -0.15746684

pointer.v f4 [1, 1, 128]
000000 ef 97 00 40 56 bd 71 3f 86 c8 6c 3d b8 ad e5 3f
       2.0092733 0.9442953 0.05780842 1.794364
000010 63 e6 9c bc 03 8f 8c bf 0f a0 94 bf 11 10 b4 3f
       -0.019152826 -1.0981144 -1.1611346 1.4067403
000020 8f f5 89 bf 41 a0 ad 3f e5 eb be 3f 2e 2b 67 bf
       -1.0778064 1.3564531 1.4915739 -0.9030026
000030 70 f2 3a bd dd 11 c1 bf 14 7e 09 c0 e5 da 1c 3e
       -0.045641363 -1.5083576 -2.1483202 0.15317877
000040 de b6 aa bf 96 d2 d0 3f 4f 01 9c bf a0 24 09 40
       -1.3337057 1.6314266 -1.2187899 2.1428604
000050 4d 6c cd 3f f3 91 52 bf 41 bb dc bf e1 7c fa bf
       1.6048676 -0.8225395 -1.7244645 -1.956936
000060 52 0c b4 bf 47 4a dc bf 57 10 ca 3f 9b 98 bb 3f
       -1.406626 -1.7210168 1.5786237 1.4655946
000070 6e 8b 97 3f 3f 70 da 3d 31 08 49 bf b1 8a e3 be
       1.1839426 0.106659405 -0.78528124 -0.4444175
000080 78 91 1d c0 9d c2 c4 bf e0 ce 16 3f f8 48 b6 bf
       -2.4620037 -1.5371891 0.58909416 -1.4241018
000090 e7 73 c4 3f 89 d2 0b c0 41 89 39 bd 27 2c 7c 3f
       1.534787 -2.184725 -0.04529691 0.9850487
0000a0 b9 f8 02 40 28 9b e8 bf 79 f7 89 bf 1c 0d 5e be
       2.0464308 -1.817235 -1.0778648 -0.21684688
0000b0 13 61 5a 3f 73 58 be bd 4a f0 15 bd a2 ac f4 3f
       0.85304374 -0.09294214 -0.03660611 1.9115183
0000c0 b0 2a 07 40 9a 14 9e bf c9 f4 97 be 43 20 34 3d
       2.1119804 -1.2350037 -0.29678944 0.04397608
0000d0 ef fa de bf 1e 5c bb bf 6d 5c c2 3f 1b c8 af bf
       -1.7420329 -1.4637487 1.5184456 -1.3732942
0000e0 e6 0a b8 3f e7 e5 cb 3f 62 df 91 be 84 de 09 c0
       1.4378326 1.5929536 -0.2849074 -2.1542063
0000f0 01 56 dd 3f 78 a5 04 bc dc 7a e1 bf af 47 e8 3f
       1.7291871 -0.008096091 -1.7615619 1.8146876
000100 60 a9 cf 3f 80 17 4b bf 8d 4c db bd 67 3f bc bf
       1.6223564 -0.79332733 -0.1070796 -1.4706849
000110 db f1 d7 3d c2 09 7b 3d 9d ac de 3d 5f 2a b7 3f
       0.10544177 0.061288603 0.10872767 1.4309806
000120 cf 71 e7 bf e4 d8 bd 3f 68 24 85 3d 4f 0b d5 bf
       -1.8081607 1.4831815 0.065010846 -1.6644076
000130 15 cc a3 bf c3 4a 9d bf 6a b0 f7 3d 73 55 53 3e
       -1.2796656 -1.228844 0.12094195 0.20638065
000140 b6 69 5b 3f 4c b9 a5 be ef 0e 14 3e f5 a8 79 bf
       0.8570818 -0.32367933 0.14458822 -0.9752343
000150 df 90 c1 3f e4 2e da 3f d7 c6 f7 3d d3 24 c6 3f
       1.5122336 1.704556 0.120984726 1.5479988
000160 ce ba 0a be 50 c4 cf 3f eb 46 1e bf ea c6 98 3f
       -0.13547823 1.6231785 -0.6182696 1.1935704
000170 c8 99 0e c0 3a 44 d5 3f 4c 0e d8 3f 5a f9 a5 bf
       -2.228136 1.6661446 1.6879363 -1.2966721
000180 19 41 86 3f 2d 29 82 bf 81 91 e9 3f d6 4c d6 3f
       1.0488616 -1.0168816 1.8247529 1.6742198
000190 98 13 e3 3f 61 d4 57 bf 60 80 ca 3f f8 e4 30 3e
       1.7740355 -0.8430844 1.5820427 0.17274845
0001a0 ab fc 3e be ec 46 d6 bf a4 00 0a 40 55 7a f3 3f
       -0.18651073 -1.6740394 2.156289 1.9021708
0001b0 89 96 df 3f f4 6b ee 3f 48 a4 83 bd 66 c1 b1 bf
       1.7467815 1.8626695 -0.064278185 -1.3887146
0001c0 69 a1 b9 3f 9e c6 e6 bf 7b 29 cf bf 1c df f1 bf
       1.4502383 -1.8029363 -1.6184534 -1.8896213
0001d0 41 6b 08 3f ca 71 e9 3f 8f 23 ce 3f 27 2a 18 3d
       0.53288656 1.8237851 1.6104602 0.037149575
0001e0 c1 72 cc 3f 29 66 84 3c c7 2b 92 bf 34 5d c7 bf
       1.597252 0.016161995 -1.141961 -1.5575318
0001f0 77 99 09 c0 fb 8c ca 3f 2e 83 aa bf 66 96 c3 3f
       -2.1499918 1.5824274 -1.3321283 1.5280273

pointer.encoder_attn.v f4 [1, 1, 128]
000000 27 40 a5 bd 72 e7 43 be 60 0e d8 3d f4 f8 4a bd
       -0.08068877 -0.19131258 0.10549617 -0.049553826
000010 79 10 1b 3e c0 b8 d8 bd d4 08 6e be 9d ce 24 be
       0.15143003 -0.10582113 -0.23245555 -0.16094442
000020 16 b3 88 3d 31 9e 94 3e 26 e8 e5 3d da 65 40 be
       0.06674783 0.2902694 0.112259194 -0.18788853
000030 a5 b9 05 be 94 b4 5e be 90 c4 84 3d 2a b4 7b bd
       -0.13059099 -0.21748573 0.06482804 -0.061451115
000040 87 5f e4 3d 0b 07 24 be b8 90 0c 3b 80 10 f0 3d
       0.11151033 -0.16018312 0.0021448564 0.11721897
000050 61 75 cc 3e ac e9 c0 bd c9 ce 87 3e 14 57 5a 3d
       0.39933303 -0.094195694 0.26524952 0.0533057
000060 4e c5 41 be b3 74 42 3d 12 2a 24 3d e6 ac f5 3d
       -0.18922922 0.047474574 0.040079184 0.119958684
000070 07 1c ca bd 79 c6 6a be 1c f9 d4 bd 7a 30 26 be
       -0.09868627 -0.22927274 -0.10399076 -0.1622943
000080 f3 f4 18 bd 3f 9a f0 3d f2 70 46 be b9 df 78 3e
       -0.037342977 0.1174817 -0.19379023 0.24304093
000090 37 a7 de 3d 96 02 db 3c 7c 43 8e 3e bf 5a d1 bd
       0.108717375 0.026734632 0.27785861 -0.102223866
0000a0 f7 92 73 be f1 b5 10 be a5 02 67 be ec 67 ae bd
       -0.23786531 -0.14131905 -0.22559603 -0.08515915
0000b0 df d0 18 be 6b c8 eb 3d 29 45 ef 3d bd 44 4a 3e
       -0.14923428 0.11512836 0.11683113 0.19752784
0000c0 85 c4 77 3e d2 82 56 be 03 11 aa 3d b9 61 18 3e
       0.2419606 -0.20948341 0.08304026 0.14881028
0000d0 af ae 37 be 65 14 d5 3c 35 40 2f 3e 8b f7 34 3e
       -0.1793773 0.026010701 0.17114337 0.17672555
0000e0 44 8f 4b bd 9f 5b da 3d e7 17 be 3d 02 6b ab 3d
       -0.049697176 0.106620066 0.09281903 0.083700195
0000f0 cb 7e 0d 3e 6d c8 28 bd 4c b8 c7 bc f5 7a 0a 3e
       0.13817899 -0.041206766 -0.024379872 0.13523467
000100 95 32 b4 bd 1a 84 a2 3d 14 46 53 be 8e e7 29 be
       -0.0879871 0.079353526 -0.20632201 -0.16592237
000110 56 fb 12 3e 14 1c 53 be 02 e3 e3 bd 94 27 52 3e
       0.1435369 -0.2061618 -0.11127283 0.2052291
000120 03 63 8f 3d 1a 93 64 be 91 50 38 3e 02 5c 40 3e
       0.07001307 -0.2232174 0.17999484 0.18785098
000130 ae 48 2c bd ba d6 f1 bb 50 7c 2e 3d 5a 4e a8 bd
       -0.0420615 -0.0073803337 0.042599022 -0.082180694
000140 47 98 a1 bd c0 2f 67 3e 5c 20 1c be ef 39 d7 bd
       -0.07890373 0.22576809 -0.15246719 -0.10509097
000150 e5 54 a8 3d c3 b9 b1 3d d6 1a 01 bc 8a df 34 3e
       0.08219317 0.08678009 -0.007879933 0.17663398
000160 1f 4d 25 3c b1 5d 8f bd 58 88 1f be d8 d0 82 3d
       0.010089188 -0.07000292 -0.15579355 0.0638749
000170 0a be 5e 3e e5 34 cf 3d 5d af ed 3c 57 3a 9a bd
       0.21752182 0.10117511 0.029014284 -0.07530659
000180 c0 51 8a be ea e1 35 3e 76 e7 b7 bd a6 7f af bd
       -0.27015495 0.1776196 -0.089796945 -0.08569269
000190 7c 27 73 bd 11 fb 31 3e b2 ac 49 3e 40 47 c3 3d
       -0.059363827 0.1738093 0.19694784 0.09535074
0001a0 93 35 21 be e8 37 d8 bd 2f 74 0e be 1f 86 e6 3d
       -0.15743093 -0.10557538 -0.13911508 0.1125605
0001b0 a8 eb e3 bd 01 5e 12 be 78 15 08 be e2 cf 16 be
       -0.11128932 -0.14293672 -0.1328944 -0.14727738
0001c0 b2 6c df bd 0d fe 00 3e 01 40 2a be d5 d5 b3 3d
       -0.10909404 0.12596913 -0.16625978 0.087810196
0001d0 02 5b d7 3d a5 82 1a 3e 4c fd d4 3c b0 a9 84 bd
       0.10515405 0.150889 0.025999688 -0.06477678
0001e0 f3 f6 d6 3d 19 7c 94 be cc 69 2a 3e 27 2c 87 bd
       0.104963206 -0.2900093 0.16641921 -0.06600218
0001f0 e5 1f e6 bc ed e6 3b 3b 0b 5e 5f 3c e1 a3 27 be
       -0.02809138 0.0028671578 0.013633261 -0.16371109

pointer.encoder_attn.W f4 [1, 128, 256]
000000 6d 15 59 bb ac 73 93 bc bd 51 c9 3d 39 97 be bc
       -0.0033124343 -0.017999493 0.098300435 -0.023265468
000010 51 28 ee 3c d3 56 65 3d 03 0f 56 3d 21 d3 c6 bb
       0.029071959 0.055991005 0.05226041 -0.006067649
000020 4a d3 4c 3d 52 ed a5 39 00 d5 b4 3c ce 49 50 bc
       0.05000619 0.0003164807 0.022074223 -0.012712909
000030 84 e2 2c bd 07 a4 cb 3c 9b 10 30 3d 49 04 05 3c
       -0.04220821 0.024858488 0.042984586 0.008118697
000040 c9 9f 01 3d 21 1a 9e bc 86 77 04 3d 95 7a 59 bc
       0.031646524 -0.019299569 0.03234055 -0.013273855
000050 cc fe 72 3c a3 73 06 bd 30 7a 6b 3d 13 cc 28 3c
       0.014831256 -0.032825124 0.057489574 0.010302561
000060 aa 3c a0 3c 48 64 14 bc 4e e5 aa bc d7 52 ff bb
       0.019560177 -0.009057112 -0.020861294 -0.0077918577
000070 fb 93 a3 bc b8 1e 90 bd d8 37 a3 3d 46 cb ac 3c
       -0.019968024 -0.07037109 0.07969636 0.021093022
000080 c8 35 e9 3c 4c 08 8b bc 27 d5 12 bd a0 f0 16 bc
       0.028468028 -0.01697173 -0.03584781 -0.009212643
000090 5e d3 b3 3c 2a 9e 86 bc 07 48 0c bc b2 c5 42 bd
       0.021951374 -0.01643284 -0.0085620945 -0.04755182
0000a0 80 d9 3b 3c 51 41 ee 3d c4 20 46 3d f4 cd 91 3c
       0.01146543 0.11633552 0.04837109 0.017798401
0000b0 0d f5 6f 3b 6e 0b c8 bd 07 63 73 3d 36 77 1b bd
       0.0036614568 -0.09767805 0.05942061 -0.037955485
0000c0 1d b6 da 39 4d 72 32 3d 21 31 73 3c ac ac 7d 3d
       0.00041715885 0.043566037 0.014843256 0.06193225
0000d0 69 30 0d bc 6a b0 c3 3c 74 6e 01 bd bc b2 8d 3c
       -0.008617499 0.023887832 -0.031599477 0.017297141
0000e0 e4 86 b1 bc 4f d2 6a b9 76 c1 de 3c 21 0f e6 3c
       -0.021670766 -0.00022394325 0.027191859 0.028083386
0000f0 1c d5 c3 bb cd aa b9 bc 97 58 ae 3c 14 59 e9 bb
       -0.0059763324 -0.022664452 0.021282477 -0.0071212146
000100 e6 83 17 3d c3 d8 a4 3d fb 57 c9 bc 42 2b 15 3d
       0.036991023 0.080491565 -0.024578085 0.036418207
000110 15 29 a5 3d 38 1f f8 bc aa b9 23 bd f2 8b f1 bc
       0.080644764 -0.030288324 -0.039971985 -0.029485676
000120 1a c1 c1 3c 3b 6d dc bc dc ec 5a bd 96 53 89 3d
       0.023651648 -0.026907554 -0.053448543 0.06705396
000130 93 78 21 bb 16 67 d4 3c dd 48 ca 3b ca 6a 80 bd
       -0.0024638518 0.025928061 0.0061732368 -0.062703684
000140 30 c2 f9 bd e3 be 78 3c cb 22 68 bd d3 7f 8d 3d
       -0.121952415 0.01518223 -0.056673806 0.06909146
000150 a4 cf 22 3d d9 b2 6a bc 50 f4 5f bd 6a de c8 3c
       0.039748803 -0.014324867 -0.054676354 0.024520118
000160 2b df 22 bd 8b 2f c8 ba 7d 06 3c 3b a0 3b cf 3c
       -0.03976361 -0.0015272958 0.002869039 0.025296986
000170 88 93 4e 3c 2d ca 66 bc b4 15 8b bb e3 c1 34 3d
       0.012608416 -0.014086288 -0.0042445306 0.044130217
000180 2e 9c 37 3b d0 11 09 bd 80 0c 85 3c 93 57 a5 bc
       0.0028016674 -0.033464253 0.016241312 -0.02018336
000190 ae 85 15 bd 00 ec 50 3b a1 a2 28 bd bc fe 01 3b
       -0.03650444 0.0031878948 -0.04117072 0.0019835671
0001a0 63 0f c2 3c 23 74 39 3d f3 63 87 bc c7 38 89 bd
       0.023688978 0.045276772 -0.016527152 -0.067002825
0001b0 a5 2b 39 3c b0 d6 f0 3c f2 51 64 3d 4d e4 ba bc
       0.01130191 0.029399246 0.05574221 -0.02281394
0001c0 86 d0 e8 bc 89 f1 82 3c 81 f9 6b bb 49 ac df 3c
       -0.028419744 0.015984314 -0.003600687 0.027303832
0001d0 97 c6 0b 3c 3e 00 1b 3d 39 39 17 bd 20 72 60 bd
       0.008531234 0.037842028 -0.036919806 -0.054796338
0001e0 33 89 41 3d 50 da b1 bd c0 c7 0a 3b 19 a6 38 bd
       0.047249984 -0.08684218 0.002117619 -0.045080278
0001f0 f7 2c 27 bc 3a 70 a9 bd 60 a3 82 3b f7 e8 fd bc
       -0.010203592 -0.08273359 0.003986761 -0.030994875
000200 92 04 06 bc 45 f4 3e be e2 fe 43 3d ce 6a 7e bd
       -0.008179801 -0.18647869 0.047850497 -0.062113576
000210 de 59 7d 3d 56 1f 1c bd 69 82 14 3e 93 68 49 3e
       0.061853282 -0.03811582 0.14502873 0.19668798
000220 87 75 55 3d 48 4e be bd 5d 8f a3 3d 2b 70 02 bd
       0.052114036 -0.09292275 0.07986329 -0.031845253
000230 12 e8 79 3c 61 8a 1c 3d 02 46 6f 3c a0 c6 21 bc
       0.015253084 0.038217906 0.0146040935 -0.009874016
000240 b9 57 ac bd 4d eb 95 bd 59 98 11 3e 2d a5 77 bc
       -0.08415169 -0.07320271 0.14218272 -0.015115065
000250 8f d2 6d bd 22 f6 09 bd 2a 07 8b bd 6b d5 01 3e
       -0.058062132 -0.033681996 -0.06788476 0.12679069
000260 37 c2 99 bc 28 b1 07 be 0e 6e 8a 3d 8c 48 cd bc
       -0.018769367 -0.13251173 0.067592725 -0.025059007
000270 50 27 44 be 04 dc 18 3e e7 e0 c3 3d 5d 35 af bd
       -0.19155622 0.1492768 0.09564381 -0.085551
000280 55 04 96 3b 81 82 8e 3d de 0c 1d 3e 74 eb 48 3d
       0.004578153 0.069584854 0.1533694 0.04905267
000290 2a fb 19 bd 86 d7 9e bd 8f 9d 74 3e a3 d7 0a 3e
       -0.037593044 -0.077559516 0.23888229 0.13558821
0002a0 95 69 90 3d ff 28 94 bc b1 cb db bc d9 b7 d0 3d
       0.07051388 -0.018085955 -0.026830526 0.10191316
0002b0 a2 1c c0 bc ce da ee bd 1d 05 cc 3d ad 2f 7a 3e
       -0.023451153 -0.116628274 0.09961913 0.2443225
0002c0 6d bd b5 3c b7 8d 99 be e0 58 70 bd 00 4b 16 be
       0.022185052 -0.29990932 -0.058678508 -0.14677048
0002d0 15 0c 14 3e 14 6d 2d 3e ac 2b d1 bc 1a 83 c6 3d
       0.14457734 0.16936141 -0.02553352 0.096929744
0002e0 fb e0 26 3e e8 90 1c 3e 07 20 30 3d ff ac 9e bd
       0.1629676 0.15289652 0.042999294 -0.0774784
0002f0 5f 1f ad bd ce 2d 7d be 01 a3 05 bb 15 95 2a 3d
       -0.08453249 -0.24724504 -0.0020391347 0.041646082
000300 2b 41 86 3d 3c 41 14 bc 5d df b2 bc 69 06 63 3e
       0.065553986 -0.009048756 -0.021835024 0.22170414
000310 98 0e 22 3e f7 2c bc 3d 80 dc c2 bc 09 01 eb bd
       0.1582588 0.09188264 -0.023786783 -0.11474807
000320 fc 53 34 be eb e0 fc 3d 53 60 2c 3e fd 60 2d 3e
       -0.17610162 0.12347587 0.1683362 0.1693153
000330 4b 95 86 be 36 b2 23 3e 36 8e 77 bb 25 b4 09 3e
       -0.26285776 0.15985951 -0.0037773973 0.13447626
000340 db a9 7b 3c 9e 8d d1 bd 64 45 8e bd 88 81 cc 3d
       0.015360321 -0.102320895 -0.06946829 0.099856436
000350 77 53 05 be 2f 7a 34 bc af 27 fb 3d 08 5c 0c 3e
       -0.1302012 -0.011015459 0.122634284 0.13706982
000360 09 83 2d be 18 71 2a 3c d8 33 2c be 1a 83 09 3e
       -0.16944517 0.01040294 -0.16816652 0.13428918
000370 57 70 28 bd 35 3c 9d 3d 47 03 68 be 9e 83 5d bd
       -0.04112276 0.07677499 -0.226575 -0.054080598
000380 1a 42 22 be e4 53 7d bd 3b eb 63 3e 56 cd d4 bd
       -0.15845528 -0.061847582 0.22257702 -0.10390727
000390 ae 47 66 bd 29 95 c9 bd 7a 36 94 bd aa 42 75 3a
       -0.056220703 -0.09842903 -0.07236953 0.0009355942
0003a0 8f d9 b5 bd 14 d8 17 bd 75 6a 42 be 3f 0b d0 bc
       -0.08879387 -0.037071303 -0.18985923 -0.025395988
0003b0 5e 2e d9 bd c4 73 c9 bd 79 72 75 bc 4a c1 1a 3d
       -0.10604547 -0.09836534 -0.014980906 0.03778199
0003c0 4b 22 3b 3d f8 12 a6 3d 67 c8 09 be a1 1a 25 bc
       0.045687 0.08109087 -0.13455354 -0.01007715
0003d0 f1 44 af bc 85 2c 27 be 40 54 9f bc dc 0a ed 3d
       -0.021395179 -0.16325577 -0.019449353 0.11574337
0003e0 03 f0 7a 3d 76 bb 21 bd 82 62 d6 3d 63 25 2a bd
       0.06126405 -0.039485417 0.104680076 -0.04153956
0003f0 4d 2a 34 be 34 35 65 be 7b d7 81 be 85 9f 54 3e
       -0.17594261 -0.22383577 -0.2535971 0.20763977

pointer.fc1.weight f4 [128, 256]
000000 d2 ae b8 3d 85 42 ef 3d da cc 06 be fb 70 d0 3d
       0.09017719 0.116826095 -0.13164082 0.10177799
000010 35 b2 c8 3d 55 33 04 3e cc ca 7d 3d 12 4d 76 3d
       0.09799615 0.12910207 0.06196098 0.060132094
000020 ee 1e 68 3d 5f db db 3d 39 49 b4 bc 4b a8 38 3d
       0.05667012 0.10735201 -0.022007572 0.04508237
000030 32 13 1d bd 22 76 ec 3d a3 65 c8 3d 33 84 bc bd
       -0.038348384 0.115459695 0.09785011 -0.092049025
000040 ef cf 89 3d 0c 7b 37 bd eb 67 d6 3d 3e 22 90 3d
       0.06729113 -0.04479508 0.104690395 0.07037781
000050 c2 dd 6a bd 51 f1 c9 bc 07 42 44 bd f4 29 e3 bd
       -0.05734039 -0.024651201 -0.04791453 -0.11091986
000060 cf 6b ba bd 56 d1 9b bd 93 0c 81 bd d6 f9 38 3c
       -0.09102594 -0.07608287 -0.063012265 0.011290034
000070 6f 6a 25 3d 79 4f 6c bd 6b 3e c5 bc 95 96 b9 bd
       0.040384706 -0.05769298 -0.024077615 -0.09061924
000080 18 cc 01 3e 22 6e 1e bd ef db d6 3d c9 d9 80 bd
       0.12675512 -0.03867925 0.10491168 -0.06291539
000090 12 82 c2 3d de c0 ba bd e4 db b6 bc cf 89 df 3d
       0.09497465 -0.09118818 -0.022321649 0.10914957
0000a0 05 fd e2 bc ca 75 7d bd f6 15 80 bd 44 8f 7f 3d
       -0.02770854 -0.06187991 -0.06254189 0.062392488
0000b0 1a ac cd 3d 3b ad b2 bd 9e b4 fa bd 3b 31 e6 bd
       0.100425914 -0.08724447 -0.12241481 -0.11239859
0000c0 65 41 ee bd 65 19 4b 3d eb c7 c0 3d 88 e0 85 3d
       -0.11633567 0.049584765 0.09413131 0.065369666
0000d0 6b 64 a7 bd 81 b9 be 3c c5 26 84 3c dd 74 cf bd
       -0.0817345 0.023281815 0.016131768 -0.10129712
0000e0 69 16 e3 3d 76 2e e4 bd 93 db 6f bd ff a1 d2 3d
       0.11088259 -0.11141674 -0.05855901 0.102848046
0000f0 8a e6 08 bd 30 2e 13 3d 39 92 1f 3d d9 43 7a 3c
       -0.033422984 0.03593272 0.03895781 0.015274965
000100 19 2e 8c bc 74 f6 50 3d 6e 08 15 bc 54 cd f6 bc
       -0.017111825 0.051016286 -0.009096248 -0.030127205
000110 54 79 3b bd fd 57 9a bd 89 0c 8e bd 1b c8 cb bd
       -0.045770004 -0.07536314 -0.06935985 -0.099502765
000120 c2 a2 ae bd e0 ee 86 bd dc 70 25 bd d5 9e e8 ba
       -0.08527137 -0.065885305 -0.040390834 -0.0017747531
000130 4f cc df 3c 42 96 7d 3b 81 f8 d4 3d 5a 67 90 bd
       0.027319102 0.0038694297 0.10398961 -0.07050963
000140 3c 6b f0 3d 7c ff 4c bd 49 cf 5a 3d ed 85 a9 3d
       0.11739203 -0.050048336 0.05342034 0.082774974
000150 d3 6a b2 3d 27 19 f7 3c 68 ad 91 bc 52 52 ad bd
       0.08711781 0.03016336 -0.017782882 -0.08462967
000160 6b 2d cc bd 51 c6 90 3d cc 62 49 bd ec 80 ed 3d
       -0.099696 0.07069076 -0.049166486 0.115968555
000170 21 d4 f4 3d f7 9b af 3c a4 25 f0 bc d9 a2 31 bd
       0.11954523 0.021436675 -0.029314823 -0.043368194
000180 db a1 d2 3c d6 8f 6c 3d 93 29 b2 3d 6e 4d 11 3d
       0.025711944 0.05775436 0.08699336 0.035474233
000190 35 da e8 bd 91 c2 25 bd 67 83 a5 3d 19 c0 ce 3a
       -0.11369745 -0.040468756 0.08081704 0.0015773802
0001a0 83 58 d6 3d 15 2c 49 3d e0 bc f8 3d 69 d3 9d bc
       0.10466101 0.049114306 0.121454 -0.019265847
0001b0 8e b3 04 bd dd 52 71 bd 40 06 b5 3d c1 e3 3c bd
       -0.0323978 -0.058916915 0.08839083 -0.04611564
0001c0 99 a7 28 3c 5e ce 90 3d 30 92 93 3d ce 24 8a bd
       0.010293865 0.070706114 0.072056174 -0.06745301
0001d0 64 9a 6a bc 4f 57 41 3d 9a 14 cb bc 91 b4 e5 bd
       -0.014319036 0.047202405 -0.024790097 -0.11216081
0001e0 47 22 54 3d 20 e7 f5 3d bf 67 b0 3d 59 a7 e4 3b
       0.051790502 0.12006974 0.08613538 0.006977957
0001f0 b7 e0 dc 3d 9b 71 0f 3d 9c bb b1 3d 44 08 b0 bd
       0.107850485 0.035020452 0.08678362 -0.085953265
000200 19 af 17 bd d3 09 1f 3b 68 31 5d 3c 80 99 60 3d
       -0.03703222 0.002426733 0.013500549 0.05483389
000210 57 95 e6 bd 3e 7b 6f bd ee 3e 16 bd a1 36 db 3d
       -0.11258953 -0.058467142 -0.03668111 0.10703779
000220 58 5a b6 3d 05 7b 20 3d da 50 b8 bd 31 38 cb 3d
       0.089039505 0.03917982 -0.08999796 0.09922827
000230 1f 21 00 be 8b 2f 41 bd a1 94 91 3c c4 30 db bd
       -0.12512635 -0.04716448 0.017771067 -0.10702661
000240 1c d3 ff bd ef dc 7f bd c1 98 a7 b9 1c 59 50 bd
       -0.12491438 -0.062466558 -0.00031966533 -0.05086623
000250 99 74 e7 3d 76 08 0b 3d cf 4c ba bc 41 7c fa bd
       0.11301536 0.033943616 -0.022741703 -0.12230731
000260 e0 e4 93 3d f5 d6 44 bd 9c 7a 00 3d 1e 36 8c bd
       0.07221389 -0.04805656 0.03136693 -0.068462595
000270 09 27 06 be 7a d6 e8 3c 90 91 06 3e 77 0b 51 3c
       -0.13100828 0.028422583 0.13141465 0.012759081
000280 97 c4 61 bd d1 c3 e8 3d 3b 45 4b bd eb 22 05 be
       -0.055119123 0.11365474 -0.04962657 -0.13001601
000290 79 35 00 3e 7d 75 99 bd 33 49 5e bd 1b c8 a9 bd
       0.12520398 -0.07493112 -0.054269027 -0.0829012
0002a0 f9 f5 d4 bd 81 d3 ed bd 7f 40 77 3c 36 94 9c bd
       -0.10398478 -0.11612607 0.015091061 -0.076454565
0002b0 57 57 ed 3d 32 60 b1 bd bb 34 21 3d 8c 5d db bc
       0.115889244 -0.08660926 0.03935693 -0.026778005
0002c0 77 f9 97 3d 89 40 ab 3d 4d 4f ec bc 2d c0 5c 3d
       0.074206285 0.083619185 -0.028846407 0.05389421
0002d0 94 33 ad 3d bd 54 2f 3d c7 6a ea 3d 22 a9 a4 bd
       0.08457103 0.042805422 0.114461474 -0.08040072
0002e0 be 94 aa 3d 02 21 a4 3c e6 29 cd bd ee 69 c9 bd
       0.083291516 0.02003527 -0.10017757 -0.098346576
0002f0 f4 70 a6 bd 71 f8 c6 3c 19 13 26 bd 1d 63 e5 3d
       -0.08127013 0.024288388 -0.040545557 0.11200545
000300 4f 5a d3 3d fb b9 89 bc be 9e 81 3b 10 59 79 39
       0.10319959 -0.016812315 0.003955691 0.00023779669
000310 53 68 6e 3d 59 0c a3 bd 76 58 e9 3d 41 5e f8 bd
       0.05820496 -0.079613395 0.11393826 -0.121273525
000320 3c 43 a9 bd 48 3d 81 bd b1 35 2e bd ed 54 22 bd
       -0.08264777 -0.063105166 -0.042531673 -0.039631773
000330 0a fe 8c bd 49 4f 0a 3d c1 36 12 bd 88 28 27 3d
       -0.068843916 0.03376702 -0.03569675 0.040810138
000340 2a 87 82 bc 09 1e f0 3a e0 ac a1 3b ad d4 6c 3d
       -0.015933592 0.0018319498 0.0049339384 0.05782001
000350 19 f3 92 bd be 28 e7 3d da 2a 12 bc ca 66 d9 bd
       -0.071752734 0.11287068 -0.008921349 -0.106153086
000360 2d a6 e5 3c 09 5f 53 bc 73 d9 e6 3d b2 da 96 bd
       0.02803334 -0.012901076 0.11271944 -0.073659316
000370 36 18 64 3d 53 5c 0a bd 96 8d 5e 3c 41 e8 a2 3d
       0.05568715 -0.033779453 0.013583561 0.07954455
000380 dc 41 ab 3d 48 f7 d2 3d 64 81 d9 bd 53 c5 fb 3c
       0.08362171 0.103010714 -0.106203824 0.03073374
000390 0d 16 23 bd 07 be 87 bd 01 ed f9 ba 04 75 bc bc
       -0.03981595 -0.06628042 -0.0019067825 -0.023005016
0003a0 61 95 cd bd e8 45 df 3d 96 8f 59 bd ea 88 1e bc
       -0.100382574 0.109020054 -0.05311545 -0.009676198
0003b0 b1 b6 bd 3d 5f 72 bc 3d 0b f5 04 be be d5 90 bd
       0.09263361 0.09201502 -0.12984101 -0.07072018
0003c0 39 68 49 bb ac af c3 3d 7d bb 9b 3d e0 e6 b3 bd
       -0.0030732288 0.09554991 0.0760412 -0.0878427
0003d0 66 3c 7b 3d df dd 89 3c 43 98 dc bd e3 d3 5c 3d
       0.061336897 0.01682943 -0.10771229 0.05391301
0003e0 2a 18 dc bd e5 60 dd 3d 3c 7b be bc 51 85 dd 3d
       -0.107467964 0.10809497 -0.023252122 0.10816444
0003f0 ee d6 82 bc be cc 6e 3d 22 45 b7 3c 4a 69 b7 3d
       -0.015971627 0.058300726 0.022371832 0.08955629

pointer.fc1.bias f4 [128]
000000 3c 23 36 3c 89 1b 6c 3c 16 f3 7d 3d 42 d8 90 bb
       0.011116799 0.014410862 0.061999403 -0.004420311
000010 35 48 ca 3c 86 b4 b0 ba 20 ef 6e bd b5 db 0d bd
       0.024692634 -0.0013481535 -0.058333516 -0.034633357
000020 df 38 93 bb 10 78 84 3c eb 14 86 bd 59 4f dd 3d
       -0.0044928635 0.016170532 -0.065469585 0.1080615
000030 1b 9a eb 3b 6a 5a 1d ba 05 ed f1 3c ba 27 a1 3c
       0.0071900017 -0.00060025475 0.029531965 0.019672263
000040 c8 e3 8b bc c7 86 56 bd 26 80 5c bd 49 0f 98 bd
       -0.017076388 -0.052374627 -0.05383315 -0.074247904
000050 72 d4 85 bd 7b 58 43 bd 8f 5e 8d bd e1 36 3e bc
       -0.06534661 -0.047691803 -0.06902801 -0.011609764
000060 16 4b 90 bd 9c e0 57 bd 06 92 92 bd 04 c0 2e 3b
       -0.070455715 -0.05270444 -0.07156758 0.0026664743
000070 90 f2 76 3b cf 4d d0 3c df a3 96 bd 0c 11 46 3d
       0.00376812 0.025427727 -0.07355475 0.0483561
000080 5e fb a9 bd 57 d6 fe 3c c7 fb 29 bd c7 af eb 3c
       -0.082998976 0.031108065 -0.04149988 0.02877034
000090 c4 f4 19 3d fe d3 69 3c e4 aa 9a 3c 40 c9 57 3d
       0.037586942 0.014271734 0.018880315 0.05268216
0000a0 4f ca 4c bd 66 f0 18 bd 1f c5 a6 3c ce 15 36 bc
       -0.049997624 -0.037338637 0.020357667 -0.011113597
0000b0 d2 6c 01 bb d3 5a 5b bc c7 bf 2c 3d 20 55 82 3d
       -0.00197487 -0.013388353 0.04217508 0.063638926
0000c0 a2 eb 86 bc 94 45 4a 3d f6 ba 8d 3d f4 7f a1 bd
       -0.01646978 0.04938276 0.069204256 -0.07885733
0000d0 59 66 ea bc 54 ee 8b 3c 33 54 5e 3d 10 c4 8e bc
       -0.028613256 0.017081417 0.054279517 -0.017427474
0000e0 c8 aa d2 bc 4a aa 78 3d d4 89 e1 3c 2a 27 7f 3c
       -0.0257162 0.060709275 0.027531542 0.015573302
0000f0 64 a3 9a 3b f4 da 66 bd bf 89 13 3d cf 3a e5 bc
       0.0047191847 -0.056361154 0.036020037 -0.027982144
000100 67 72 d6 bc 82 cd 44 3d 77 0d b7 bc a3 bb 11 bc
       -0.026177598 0.04804755 -0.022345288 -0.008894834
000110 f1 62 44 3d a6 b9 06 bd 8c 3f 39 bc a3 12 04 bd
       0.04794592 -0.032891892 -0.011306655 -0.032244336
000120 6c c0 91 bd b9 a3 20 3d 3b 09 14 3d c5 1a 81 bd
       -0.0711678 0.039218638 0.036141615 -0.06303934
000130 67 e9 1c 3d 08 c3 90 ba d5 d3 26 3d 45 3a ba 3a
       0.038308527 -0.0011044452 0.040729363 0.001420804
000140 d7 c5 48 3d 71 71 4e bd 38 4e 3a 3d 5a 11 32 bc
       0.0490168 -0.050401155 0.04548475 -0.010868395
000150 a3 55 90 bd de 80 2a bd be c0 32 3d e8 10 c9 3c
       -0.07047584 -0.041626804 0.043640845 0.024544194
000160 5a b0 a5 3d a9 9b 60 bd a1 78 d3 3c 8a 7d 8f 3d
       0.08090277 -0.05483595 0.025814356 0.070063666
000170 dc 18 47 3d 4b 93 33 bd ee 54 12 bd 68 30 8c 3c
       0.048607692 -0.04384164 -0.035725527 0.017112926
000180 08 91 1c bd f7 b8 e5 bc ef 6d 5b 3d bd 54 10 3d
       -0.03822425 -0.0280423 0.053571638 0.035237063
000190 6a 9f 99 3d 5a 7a 3d bd 24 5b 07 bd 4f a4 54 bd
       0.07501109 -0.04625926 -0.033045903 -0.05191451
0001a0 16 4d 6e bd 08 28 9c bc 44 0f 14 bd c1 bf c6 3c
       -0.058178984 -0.019062057 -0.03614737 0.024261357
0001b0 82 8f 83 3d bc 2e 5b 3c 42 56 34 3d 2f b3 3e 3c
       0.06423856 0.013377842 0.044027574 0.0116394
0001c0 d0 be 6d 3d 8a ae ae 3b 43 11 49 3d 8c b2 6f 3d
       0.0580433 0.0053308653 0.049088728 0.058519885
0001d0 b0 f6 c3 bb 34 ab 54 3c b5 a1 15 bd 20 51 99 bd
       -0.005980335 0.012980271 -0.03653117 -0.074861765
0001e0 df 25 e7 bc e4 4d 1c 3c b6 4b 10 3d e5 b5 17 bd
       -0.0282163 0.009540055 0.035228454 -0.037038703
0001f0 6d c5 9c bb 91 37 b9 ba ee 22 2d 3c ea 76 a8 3d
       -0.004784277 -0.001413094 0.01056741 0.08225806
