trained_models/sdvrp/altr_SD_50/model_incumbent_vrpRl13_SD_ALTR_50_T_0.15_17189.pt (torch_old, 469732 bytes, 15 tensors)

all_embed.embed.weight f4 [128, 4]
0.4536942 -0.10075805 0.12055964 0.16404402 0.049565118 0.34669533 -0.114658624 0.08495255
0.16684052 0.6710371 -0.061504487 -0.27498707 -0.19127238 -0.23980992 0.017976027 -0.084711835
0.17718847 0.49050695 -0.11139991 -0.10710736 0.3416132 0.45578232 0.2516905 0.2830642
0.49227065 -0.06703434 -0.23767704 -0.2489085 0.07093554 -0.28486568 -0.005709959 -0.28119653
-0.45288426 0.52471846 -0.10307142 -0.07700441 -0.057782877 -0.4174879 0.15858135 0.19391473
0.07313788 -0.42656386 -0.32510132 0.17656909 0.33780903 -0.3200307 -0.30137393 -0.2679274
0.22493581 -0.43119708 -0.054374885 0.005166559 -0.39678898 0.024190607 -0.1471883 0.10463381
-0.2601565 0.6568492 -0.081185184 0.07256611 0.39122388 0.0090720905 -0.5117663 -0.43184587
0.49389815 0.0063960864 -0.07909471 0.09327364 0.4047605 0.13868527 -0.11997293 -0.2335849
-0.43432245 -0.028251123 0.2534158 0.27257344 0.19904964 0.59683776 -0.19094744 -0.06613309
0.19279158 0.6065276 -0.090541765 0.053960096 0.30715716 0.008410422 -0.46197754 -0.38183016
0.75981224 0.030960806 -0.23960167 0.005054236 0.6867388 -0.25835136 0.0045029167 0.07512601
0.09558703 0.25398293 -0.45136285 0.5119907 0.67811173 -0.09431563 0.2230403 0.016713303
0.85418206 -0.26003274 0.19459511 -0.058366857 0.6513093 0.10084013 -0.29981053 0.17842177
-0.19050698 -0.109535165 -0.12263401 -0.1849535 0.10401878 0.10369533 -0.030301332 0.038401097
-0.0438162 0.5399708 0.08185542 0.24247178 -0.007990133 0.4134045 0.056338113 -0.045787558
0.70154345 0.28315595 0.1256422 -0.07660803 -0.29024526 -0.3694441 0.14943092 -0.072338395
0.08596619 0.17766605 0.22440109 0.27767342 0.5574137 0.37533143 -0.0027259144 0.17540649
0.31205615 -0.5775921 0.0790472 -0.044313 0.15738347 -0.47196323 -0.10088517 0.119617246
0.027629219 -0.44074622 0.15409492 0.21150887 0.24850307 -0.16431755 -0.28991175 -0.35467777
-0.20504999 0.08321968 -0.02465321 -0.18966466 0.5138598 -0.15496492 -0.032326892 0.100531965
0.47614014 -0.08453192 -0.21312304 -0.27909547 0.49040627 -0.19593512 -0.35478538 -0.016571373
0.15745479 -0.3883341 -0.09566337 0.042180475 0.16201693 0.070824385 0.16836315 -0.07773054
0.16114837 0.35389328 -0.015380648 -0.0962314 0.43288103 0.65074164 0.25748286 0.29431283
-0.09574635 0.13255292 -0.033945348 -0.024184857 -0.13068049 -0.07500589 0.18799472 -0.1459123
0.28819725 -0.37224475 0.4976886 0.30734074 0.38389394 -0.49836802 -0.14122269 -0.023952166
0.8314471 0.5011939 -0.03686755 0.048637886 -0.46654037 0.16726565 0.066245854 0.054652553
-0.11602778 0.5446624 -0.12537663 0.060206633 0.19797915 -0.08408488 0.123205185 -0.21052901
0.39283606 0.19511682 -0.42313868 -0.47571942 0.2866506 0.2901848 -0.26556554 -0.1298065
0.30185673 0.15003914 -0.12283007 -0.17856067 -0.6568423 0.023116969 0.31435704 0.25140327
-0.1789899 -0.09284385 0.20619124 -0.1031397 -0.07754066 -0.2204876 0.35676998 0.4821224
-0.024351634 -0.649659 -0.058221344 -0.052034117 -0.092327036 0.067807645 -0.12526263 -0.0019313693
00000000: 9b4a e83e 3d5a cebd f9e7 f63d 28fb 273e
00000010: cb04 4b3d 0d82 b13e 24d2 eabd 9afb ad3d
00000020: 3ed8 2a3e 16c9 2b3f 21ec 7bbd 1bcb 8cbe
00000030: e8dc 43be bb90 75be 7642 933c 667d adbd
00000040: e570 353e ba23 fb3e a325 e4bd 1b5b dbbd
00000050: ede7 ae3e 4d5c e93e 94dd 803e caed 903e
00000060: e60a fc3e 4d49 89bd 9c61 73be dfe1 7ebe
00000070: a746 913d ead9 91be 9c1a bbbb fef8 8fbe
00000080: 72e0 e7be f353 063f 1c17 d3bd 7db4 9dbd
00000090: bdad 6cbd f9c0 d5be 2663 223e 9591 463e
000000a0: 50c9 953d 9466 dabe ae73 a6be 87ce 343e
000000b0: 4ef5 ac3e 10db a3be af4d 9abe c82d 89be
000000c0: 9355 663e ddc5 dcbe 33b8 5ebd 3d4c a93b
000000d0: ed27 cbbe 612b c63c 88b8 16be 404a d63d
000000e0: 3c33 85be 4527 283f 6b44 a6bd 8a9d 943d
000000f0: 7f4e c83e 1ba3 143c 1e03 03bf e71a ddbe
00000100: 38e0 fc3e 4396 d13b 68fc a1bd 4006 bf3d
00000110: c53c cf3e 8303 0e3e 5eb4 f5bd e130 6fbe
00000120: 835f debe e66e e7bc b7bf 813e bf8e 8b3e
00000130: abd3 4b3e 5cca 183f ba87 43be c970 87bd
00000140: 286b 453e 6545 1b3f f66d b9bd 4305 5d3d
00000150: b443 9d3e decb 093c 5288 ecbe 3e7f c3be
00000160: 0e83 423f 84a1 fd3c 245a 75be 019e a53b
00000170: 1dce 2f3f a146 84be 348d 933b aadb 993d
00000180: 22c3 c33d 0d0a 823e 0819 e7be d311 033f
00000190: bb98 2d3f 8e28 c1bd ad64 643e 56ea 883c
000001a0: adab 5a3f 0323 85be f143 473e 1612 6fbd
000001b0: 35bc 263f 4585 ce3d c480 99be 32b4 363e
000001c0: 4314 43be f953 e0bd 8a27 fbbd 7364 3dbe
000001d0: cc07 d53d 385e d43d 803a f8bc 784a 1d3d
000001e0: 9e78 33bd 873b 0a3f d0a3 a73d 864a 783e
000001f0: 0ce9 02bc c1a9 d33e cbc2 663d bc8b 3bbd
00000200: 5a98 333f d1f9 903e 59a8 003e ace4 9cbd
00000210: 079b 94be c727 bdbe 6b04 193e 2726 94bd
00000220: 0b0f b03d 17ee 353e 66c9 653e 362b 8e3e
00000230: aab2 0e3f 712b c03e 41a5 32bb c29d 333e
00000240: d3c5 9f3e 13dd 13bf 80e3 a13d 8c81 35bd
00000250: 2229 213e 2aa5 f1be e29c cebd e3f9 f43d
00000260: ac56 e23c 7da9 e1be 0fcb 1d3e c895 583e
00000270: 9777 7e3e dc42 28be 506f 94be 5398 b5be
00000280: a0f8 51be 146f aa3d 87f5 c9bc 7437 42be
00000290: 518c 033f 20af 1ebe 3469 04bd b4e3 cd3d
000002a0: a4c8 f33e 121f adbd ed3c 5abe 9ae5 8ebe
000002b0: 8816 fb3e 37a3 48be 6ea6 b5be b0c0 87bc
000002c0: d43b 213e bad3 c6be 28eb c3bd 6fc5 2c3d
000002d0: c4e7 253e 600c 913d 6467 2c3e 3031 9fbd
000002e0: 1404 253e 8031 b53e 1dff 7bbc f814 c5bd
000002f0: 95a2 dd3e 0197 263f cbd4 833e 2cb0 963e
00000300: aa16 c4bd f4bb 073e 470a 0bbd 521f c6bc
00000310: 1bd1 05be b09c 99bd b081 403e 096a 15be
00000320: 978e 933e dd96 bebe 0ad1 fe3e c45b 9d3e
00000330: bf8d c43e 182a ffbe ae9c 10be 5537 c4bc
00000340: b8d9 543f 3e4e 003f 6e02 17bd 8538 473d
00000350: 61de eebe b047 2b3e e8ab 873d 5bdb 5f3d
00000360: f99f edbd ff6e 0b3f bb62 00be 3b9b 763d
00000370: 0cbb 4a3e b234 acbd 0053 fc3d eb94 57be
00000380: cf21 c93e b4cc 473e a2a5 d8be 7f91 f3be
00000390: dec3 923e 1a93 943e 35f8 87be ffeb 04be
000003a0: f78c 9a3e dca3 193e 558e fbbd 9cd8 36be
000003b0: d126 28bf cc5f bd3c 68f3 a03e eeb7 803e
000003c0: 2149 37be eb24 bebd cc23 533e e83a d3bd
000003d0: a3cd 9ebd 80c7 61be 8eaa b63e bfd8 f63e
000003e0: 147d c7bc 0d50 26bf 8179 6ebd ba21 55bd
000003f0: f515 bdbd bcde 8a3d d944 00be 0026 fdba

all_embed.embed.bias f4 [128]
0.03901025 0.46287236 0.31448275 0.4696368 0.5227099 -0.28986284 -0.06421027 0.21927087
0.4300696 0.2091537 0.24996278 -0.14104241 0.3140802 0.27879894 0.11017783 0.14086343
-0.014475646 -0.29058522 0.10525739 0.033328876 0.5261024 0.059656363 -0.082209446 0.3985104
-0.46066868 0.21328132 0.396878 -0.20055924 -0.35651922 -0.3950277 -0.22799245 0.5319763
-0.07075611 0.64606327 -0.38746417 -0.0005813201 0.5100073 0.3892309 0.1630731 0.12179971
-0.3070005 0.12435896 -0.00784759 0.33084247 0.26375017 -0.35277736 -0.17064519 0.3503215
0.41336057 -0.0146873 0.1292905 0.465966 0.4670509 0.3152278 0.14122643 -0.36979544
-0.0014017 -0.2644132 -0.25538045 0.29313186 -0.007349502 -0.3593813 0.6746308 -0.290123
-0.0012260628 0.102300346 0.53250533 -0.4640391 0.148564 0.08319077 0.24132289 0.41470703
-0.48745173 0.59734994 0.072385795 0.57398707 -0.17385405 -0.441952 -0.056900382 0.6090605
0.5264855 0.5224524 0.27919376 0.19284825 0.25405368 -0.3684377 0.019506807 -0.30438
0.25176457 0.33428723 -0.26230142 0.33802348 0.46691784 0.47882596 -0.25442806 0.1977107
0.35845056 -0.4030372 -0.37075937 0.48635688 -0.00013544018 0.43102348 0.5131285 0.5215909
-0.0048462516 -0.08442063 0.30605367 0.5347171 0.10906126 -0.24043877 -0.3097065 -0.12791789
0.41382074 0.2324645 0.0047278022 -0.097897574 0.3258793 0.48474354 -0.3373881 0.2124923
0.556705 -0.23088115 0.596693 -0.005676871 0.24728382 0.38394287 -0.13930386 -0.23742628
00000000: 36c9 1f3d 9bfd ec3e e203 a13e 3c74 f03e
00000010: 51d0 053f e768 94be ad80 83bd 8b88 603e
00000020: 1532 dc3e 632c 563e 3ef6 7f3e 6c6d 10be
00000030: 1fcf a03e bcbe 8e3e eaa4 e13d 813e 103e
00000040: 432b 6dbc 96c7 94be 3091 d73d dc83 083d
00000050: a6ae 063f 3b5a 743d 6d5d a8bd 8e09 cc3e
00000060: c4dc ebbe 6b66 5a3e 9833 cb3e 675f 4dbe
00000070: b089 b6be 1241 cabe da76 69be 992f 083f
00000080: 94e8 90bd 6764 253f b461 c6be bb63 18ba
00000090: d78f 023f 4649 c73e a2fc 263e 2072 f93d
000000a0: 2b2f 9dbe e9af fe3d 2e93 00bc 2f64 a93e
000000b0: 430a 873e 3c9f b4be 9dbd 2ebe 575d b33e
000000c0: ffa3 d33e 00a3 70bc bb64 043e 1893 ee3e
000000d0: 4c21 ef3e 8a65 a13e a99d 103e d455 bdbe
000000e0: 3fb9 b7ba 2b61 87be 3ac1 82be 6115 963e
000000f0: 17d4 f0bb d300 b8be 9bb4 2c3f 008b 94be
00000100: d7b3 a0ba d882 d13d 4552 083f 8896 edbe
00000110: 2921 183e ec5f aa3d 591d 773e 7b54 d43e
00000120: 4693 f9be edeb 183f 013f 943d d1f0 123f
00000130: cc06 32be 8847 e2be 6010 69bd 64eb 1b3f
00000140: c1c7 063f 71bf 053f 7cf2 8e3e 037a 453e
00000150: 5313 823e dea3 bcbe bdcc 9f3c b2d7 9bbe
00000160: 49e7 803e b227 ab3e 5f4c 86be 6a11 ad3e
00000170: db0f ef3e ad28 f53e 6544 82be ac74 4a3e
00000180: d586 b73e e45a cebe 2cd4 bdbe c503 f93e
00000190: f204 0eb9 1caf dc3e 645c 033f fb86 053f
000001a0: 4ecd 9ebb b9e4 acbd 11b3 9c3e 38e3 083f
000001b0: 835b df3d 9535 76be da91 9ebe e8fc 02be
000001c0: 50e0 d33e 2d0b 6e3e aeeb 9a3b 867e c8bd
000001d0: a7d9 a63e 4e30 f83e 22be acbe 9597 593e
000001e0: 3884 0e3f 1c6c 6cbe dfc0 183f 0c05 babb
000001f0: f837 7d3e 2994 c43e aca5 0ebe e01f 73be

all_embed.embed_2.weight f4 [128, 128]
-0.20039435 -0.040310007 0.028166221 0.026064122 0.14209299 -0.25048694 -0.03486056 0.09703291
0.09730668 -0.098111674 -0.22136933 -0.062316734 -0.081097625 0.012165417 0.11442885 -0.026462052
-0.2597857 0.20077774 -0.0151985735 0.106497 0.11535698 0.009432492 -0.18098907 0.12283279
-0.35785338 0.05992792 0.08964481 -0.0017969661 -0.022683665 0.021172822 -0.05569792 0.08580977
-0.17933747 0.32468417 -0.17152885 -0.06347579 -0.02439272 -0.02745959 0.013522907 -0.028820092
-0.0055522462 -0.167387 0.060949553 0.0972974 0.050684184 0.12738647 0.17631598 -0.17053293
0.13174906 -0.11601736 0.046041336 0.28338245 0.11876957 0.08258978 -0.07406018 -0.01392059
0.033289984 -0.065021135 0.03898867 0.10314163 -0.08475831 -0.48664954 0.24258734 -0.0669538
0.012183762 -0.12770906 0.17384523 0.038337544 -0.07313516 0.054127984 -0.116914354 -0.060717527
-0.15133435 0.14437276 -0.21825498 0.07843269 -0.207014 -0.023201227 -0.03263162 0.06375781
-5.349514e-05 0.024540655 -0.06805148 -0.06959375 -0.17176968 0.14075263 0.016876787 -0.059478
-0.062130604 -0.050461948 -0.3721739 0.28221145 -0.055459257 0.13942294 -0.43793383 -0.19443817
-0.105890155 0.15268914 -0.0578876 0.170135 0.14566323 0.09871527 0.18274759 -0.0026883278
-0.10273806 -0.11912659 -0.13971284 0.2013308 0.12915543 -0.11400437 -0.14392853 -0.31549016
0.07973481 0.043445807 -0.12501922 0.13831589 -0.05770509 -0.14049716 -0.020914987 0.083667874
-0.075322434 -0.012561664 0.018204525 -0.04931866 -0.10081289 -0.16707057 -0.029521361 0.11818476
-0.04978326 -0.2878526 -0.5043796 0.33993015 -0.4033648 -0.531048 -0.06963869 0.1838377
-0.29624602 0.33079264 0.66753185 0.19339095 0.52034384 0.07609516 -0.5893564 0.097852506
-0.27851734 -0.14146756 0.17107981 -0.6560254 -0.2882804 0.1070229 -0.11172492 -0.10649221
-0.20001274 -0.028023185 -0.15292005 -0.20612949 0.09711169 0.035630256 -0.62647957 -0.39072046
-0.36228362 0.42111883 -0.19250788 -0.37813196 0.54737985 0.33196518 0.52484816 -0.082953
0.103203356 -0.09358807 -0.04634523 -0.074650705 0.43807554 0.1247413 -0.48088503 -0.32360688
-0.3481661 0.113463774 0.23621152 0.45780805 -0.45435813 -0.13834494 -0.48833275 -0.15182136
-0.023819383 -0.095151305 -0.2139082 -0.010155958 -0.00796289 0.063567236 0.7404881 -0.032602854
-0.24828398 0.045818023 0.38325232 0.12530337 -0.059230417 -0.36235788 -0.3141912 0.01894563
-0.0016334951 0.21183427 0.11324342 0.6319022 -0.137599 -0.010730937 -0.11834456 0.27267647
0.009715705 0.19477277 -0.21925192 0.29500198 -0.0053593176 0.005939096 0.18300807 0.14271526
0.011780944 -0.25914726 -0.019090174 -0.2192865 -0.17295544 0.5210095 0.049759913 0.2728354
-0.21576475 -0.03346207 -0.10254155 -0.3685832 -0.37675148 0.19114943 0.5461288 0.59088576
-0.67001194 -0.034245644 -0.3873237 0.027389593 -0.26848584 -0.2094284 0.101793334 0.114781395
0.718784 -0.15982915 0.2553881 0.042090148 -0.10984749 0.2611373 0.021081373 -0.43159837
-0.12775877 -0.021089882 0.065936424 -0.19079876 -0.2512304 0.47520167 -0.07986757 0.14966096
00000000: 2d34 4dbe 1b1c 25bd d9bc e63c 6d84 d53c
00000010: d380 113e d33f 80be f2c9 0ebd 31b9 c63d
00000020: ba48 c73d c6ee c8bd a4ae 62be d53f 7fbd
00000030: 8316 a6bd 7551 473c ac59 ea3d f2c6 d8bc
00000040: a202 85be ae98 4d3e 7003 79bc 191b da3d
00000050: 4840 ec3d bd8a 1a3c 3355 39be c28f fb3d
00000060: 8f38 b7be fb76 753d b397 b73d 2d88 ebba
00000070: 18d3 b9bc a072 ad3c 8123 64bd 08bd af3d
00000080: 3ea4 37be 013d a63e 42a5 2fbe 98ff 81bd
00000090: 3ed3 c7bc eff2 e0bc 2f8f 5d3c 1d18 ecbc
000000a0: 9eef b5bb 7f67 2bbe 3da6 793d dc43 c73d
000000b0: 389a 4f3d 9971 023e 2d8c 343e 2fa0 2ebe
000000c0: 3ae9 063e 829a edbd d795 3c3d 8117 913e
000000d0: 763d f33d d524 a93d ddac 97bd 3013 64bc
000000e0: 145b 083d cd29 85bd 95b2 1f3d eb3b d33d
000000f0: c495 adbd 212a f9be d168 783e 131f 89bd
00000100: 679e 473c 2ac6 02be 7c04 323e d407 1d3d
00000110: e3c7 95bd 4eb5 5d3d cb70 efbd f1b2 78bd
00000120: 64f7 1abe 74d6 133e 3c7e 5fbe 51a1 a03d
00000130: 7afb 53be 8010 bebc bca8 05bd 7493 823d
00000140: f85f 60b8 7c09 c93c 935e 8bbd 2b87 8ebd
00000150: 64e4 2fbe 7521 103e 3041 8a3c 349f 73bd
00000160: a97c 7ebd 30b1 4ebd 948d bebe 057e 903e
00000170: 3f29 63bd e3c4 0e3e dd38 e0be cd1a 47be
00000180: f0dc d8bd 8b5a 1c3e 8c1b 6dbd df37 2e3e
00000190: be28 153e 3b2b ca3d 2f22 3b3e a82e 30bb
000001a0: 5568 d2bd a4f8 f3bd e210 0fbe a929 4e3e
000001b0: 5241 043e 207b e9bd 0062 13be ed87 a1be
000001c0: 014c a33d 3bf4 313d 0a05 00be aea2 0d3e
000001d0: 2c5c 6cbd 7dde 0fbe e855 abbc 105a ab3d
000001e0: a642 9abd 70cf 4dbc a821 953c 5d02 4abd
000001f0: fd76 cebd 8c14 2bbe c8d6 f1bc da0a f23d
00000200: 88e9 4bbd 6a61 93be 051f 01bf 530b ae3e
00000210: d585 cebe c3f2 07bf bb9e 8ebd f33f 3c3e
00000220: 8fad 97be a75d a93e 5ee3 2a3f 4708 463e
00000230: 4135 053f c7d7 9b3d 10e0 16bf e566 c83d
00000240: d399 8ebe dfdc 10be 8c2f 2f3e 48f1 27bf
00000250: 7d99 93be d22e db3d 09d0 e4bd 9618 dabd
00000260: 24d0 4cbe e190 e5bc 1397 1cbe 9c13 53be
00000270: 7ee2 c63d 08f1 113d f760 20bf 830c c8be
00000280: 3d7d b9be e39c d73e c920 45be 839a c1be
00000290: 1621 0c3f 57f7 a93e 735c 063f 43e3 a9bd
000002a0: 485c d33d 1aab bfbd 7fd4 3dbd 78e2 98bd
000002b0: 704b e03e 5e78 ff3d 9036 f6be cdaf a5be
000002c0: d442 b2be b25f e83d 6fe1 713e d165 ea3e
000002d0: a1a1 e8be 4caa 0dbe c006 fabe 0f77 1bbe
000002e0: de20 c3bc b0de c2bd c00a 5bbe 2d65 26bc
000002f0: c876 02bc 8a2f 823d a190 3d3f 928a 05bd
00000300: 283e 7ebe aeab 3b3d a639 c43e 874f 003e
00000310: 989b 72bd f986 b9be abdd a0be de33 9b3c
00000320: 001b d6ba 15eb 583e 2bec e73d 58c4 213f
00000330: c1e6 0cbe d0d0 2fbc a25e f2bd 409c 8b3e
00000340: 9f2e 1f3c 8372 473e 9383 60be 800a 973e
00000350: 379d afbb c09c c23b 7866 3b3e f323 123e
00000360: dc04 413c f3ae 84be ff62 9cbc a48c 60be
00000370: 3b1b 31be e160 053f 0dd1 4b3d 15b1 8b3e
00000380: 6ff1 5cbe 860f 09bd 4e01 d2bd f0b6 bcbe
00000390: 92e5 c0be adbc 433e 19cf 0b3f 4a44 173f
000003a0: e785 2bbf 2945 0cbd 4b4f c6be 2460 e03c
000003b0: fa76 89be 6674 56be 0679 d03d 8212 eb3d
000003c0: 3a02 383f 41aa 23be 3bc2 823e b866 2c3d
000003d0: b9f7 e0bd cab3 853e d8b2 ac3c 76fa dcbe
000003e0: 32d3 02be b0c4 acbc ad09 873d c060 43be
000003f0: 45a1 80be a24d f33e 9c91 a3bd b940 193e

all_embed.embed_2.bias f4 [128]
0.037070945 -0.10140702 -0.14240164 -0.055880103 -0.24708742 0.09689988 -0.03371575 -0.1065507
0.054638878 0.008056677 -0.10186022 -0.07229156 -0.10331255 -0.17456864 -0.14867222 -0.11778951
-0.23829865 -0.15076281 0.037549123 -0.08731034 -0.17071934 0.023052135 -0.08073044 -0.010937386
-0.05368957 -0.058737457 -0.110318415 -0.088396385 -0.06385896 -0.036359467 -0.058593314 -0.1342178
0.05084407 -0.147038 -0.09320269 -0.042699784 0.04045719 -0.12265015 -0.110867314 -0.30186298
-0.07593349 -0.2520567 -0.31245214 -0.19686921 0.120629095 -0.0951634 -0.11242251 0.068911426
-0.28920102 -0.10799819 -0.05172836 0.10643717 -0.09154496 -0.0074632596 -0.27439138 -0.09052082
-0.12061406 -0.087640814 0.010772757 -0.11811154 -0.031390503 0.0537455 -0.28858957 -0.047565915
0.16984725 0.09599643 0.06359148 -0.14648236 -0.0797769 -0.048697937 -0.307271 -0.26915503
0.061974872 0.051852636 -0.11713734 -0.065119684 -0.22346513 0.010783877 -0.039675668 -0.20630503
0.0599907 -0.034556564 -0.061081562 0.0584886 -0.25008172 -0.044854574 -0.22026452 -0.037000515
-0.21420707 -0.13151176 -0.2890592 -0.13979657 -0.17946555 -0.21898636 0.03303438 -0.07004532
-0.09407258 0.041166898 -0.10016226 0.09522393 -0.00384101 -0.19751446 -0.22367413 -0.16801226
-0.03922764 -0.016558323 -0.16450523 -0.19185446 -0.24160403 -0.07159629 0.052719437 -0.07963427
-0.07850824 -0.0065083914 -0.0034518873 -0.0016411315 -0.12468085 -0.06116134 -0.05857299 0.07183934
-0.1635751 -0.030128222 0.037317336 -0.17901851 -0.07272799 -0.045100722 0.051948473 0.16853097
00000000: b4d7 173d 7cae cfbd bcd1 11be 89e2 64bd
00000010: 7c04 7dbe 7273 c63d 8719 0abd 4137 dabd
00000020: 04cd 5f3d 2700 043c 179c d0bd 990d 94bd
00000030: 8895 d3bd 1fc2 32be 883d 18be a03b f1bd
00000040: 9004 74be 9161 1abe 1ccd 193d c3cf b2bd
00000050: 0dd1 2ebe d5d7 bc3c 0056 a5bd b932 33bc
00000060: 98e9 5bbd b096 70bd 9fee e1bd 2a09 b5bd
00000070: 7dc8 82bd aaed 14bd 8bff 6fbd 6470 09be
00000080: df41 503d 2191 16be 0de1 bebd f8e5 2ebd
00000090: 70b6 253d 0030 fbbd 670e e3bd c98d 9abe
000000a0: 0583 9bbd 930d 81be baf9 9fbe 1598 49be
000000b0: 630c f73d 07e5 c2bd c63d e6bd 6f21 8d3d
000000c0: 2812 94be 282e ddbd 1ee1 53bd bbfb d93d
000000d0: ed7b bbbd 5c8e f4bb 077d 8cbe fb62 b9bd
000000e0: 8104 f7bd 077d b3bd 3880 303c 77e4 f1bd
000000f0: 5493 00bd 3e24 5c3d 03c2 93be 7ad4 42bd
00000100: 70ec 2d3e c799 c43d 403c 823d 79ff 15be
00000110: 1262 a3bd 7d77 47bd a052 9dbe b0ce 89be
00000120: 5dd9 7d3d 6e63 543d b4e5 efbd 785d 85bd
00000130: 0bd4 64be dcae 303c f482 22bd a041 53be
00000140: cfb8 753d 2f8b 0dbd a930 7abd be91 6f3d
00000150: b60a 80be 6eb9 37bd 068d 61be da8d 17bd
00000160: 1959 5bbe 05ab 06be 91ff 93be d526 0fbe
00000170: d1c5 37be f63d 60be 0f4f 073d ec73 8fbd
00000180: 20a9 c0bd 9f9e 283d df21 cdbd c404 c33d
00000190: 74b9 7bbb 3b41 4abe d50a 65be 680b 2cbe
000001a0: 29ad 20bd 52a5 87bc 0f74 28be 7f75 44be
000001b0: 0c67 77be 13a1 92bd 56f0 573d 4b17 a3bd
000001c0: eec8 a0bd 5844 d5bb 0f39 62bb 3c1b d7ba
000001d0: ac58 ffbd 5084 7abd 3bea 6fbd 8120 933d
000001e0: 3b80 27be 76cf f6bc 10da 183d a150 37be
000001f0: 6af2 94bd 89bb 38bd ecc7 543d 6293 2c3e

pointer.v f4 [1, 1, 128]
-0.19509725 1.566597 1.155501 -1.9542584 1.8540473 -1.5827562 -1.1945106 1.9400421
-0.31477597 -1.5409634 1.5574572 -0.21407261 1.4817787 -1.7960757 1.497154 -1.7687222
1.8136166 1.757993 -1.2586131 0.89754224 0.4526156 -0.7457756 -0.32014233 1.329645
-0.102869496 0.14839268 1.148219 1.3056968 0.65374684 1.2823435 -1.147088 1.3575785
1.4069419 1.343495 1.9055773 0.46089762 -1.2426876 1.179137 1.3717737 -1.2565747
1.6228497 1.3047683 1.7967918 1.1889235 -1.391492 -0.68153095 -0.822943 -0.47229755
-1.4024516 -1.3190715 1.5787734 -0.12555856 -1.0305511 0.96339464 1.3959067 -1.7438917
1.8134685 0.58470094 0.27186698 -1.005112 -0.5754428 -0.6777056 1.3823215 -0.40769267
-1.9084028 -0.9685152 0.39948022 1.2216666 -0.027505394 -0.8794781 1.279309 1.1634887
-0.3751518 -2.2173388 1.6000147 -1.0442587 -1.8868346 -1.1889423 0.7646918 -0.7136775
-0.4950733 -1.3679705 -0.46278793 1.3459707 -1.9404557 -1.3136178 1.3733792 -0.16254598
-1.3449537 -1.4305282 -1.3617824 1.4493172 -1.3151425 -1.4346921 -0.2769099 -1.219858
1.3651835 1.7734438 -1.2758366 0.12996659 -1.9284265 -1.0613896 -1.430463 -1.4385985
1.543934 1.431854 -1.3993473 1.2805563 -0.828725 0.7552986 0.22633325 1.0850537
1.3663117 1.2513479 0.16019905 1.2091731 -1.2559891 -0.41459003 2.0033927 -1.0121101
1.7274642 1.873221 -1.9366604 1.8489114 1.4136146 0.9659244 0.278221 -0.25035512
00000000: 93c7 47be 4086 c83f 75e7 933f 2425 fabf
00000010: 6c51 ed3f c197 cabf b9e5 98bf 4d53 f83f
00000020: 512a a1be 4a3e c5bf c25a c73f da35 5bbe
00000030: edaa bd3f cfe5 e5bf bea2 bf3f 7d65 e2bf
00000040: 9724 e83f ea05 e13f 3c1a a1bf 54c5 653f
00000050: 3bbd e73e 26eb 3ebf b2e9 a3be cf31 aa3f
00000060: 3ead d2bd 40f4 173e d7f8 923f 1321 a73f
00000070: f45b 273f d523 a43f c8d3 92bf 22c5 ad3f
00000080: ac16 b43f a5f7 ab3f f5e9 f33f c6fa eb3e
00000090: 6310 9fbf f6ed 963f 4896 af3f 71d7 a0bf
000000a0: 8ab9 cf3f a602 a73f 46fd e53f a52e 983f
000000b0: 691c b2bf d078 2ebf 64ac 52bf fcd0 f1be
000000c0: 8983 b3bf 56d7 a8bf 3f15 ca3f 6c92 00be
000000d0: 19e9 83bf 08a1 763f 12ad b23f d837 dfbf
000000e0: bc1f e83f f6ae 153f 2632 8b3e 83a7 80bf
000000f0: 3850 13bf 1d7e 2dbf e9ef b03f 18bd d0be
00000100: 8b46 f4bf 9df0 77bf ac88 cc3e 925f 9c3f
00000110: fe52 e1bc 7a25 61bf 66c0 a33f 33ed 943f
00000120: e613 c0be e1e8 0dc0 48cd cc3f 45aa 85bf
00000130: cc83 f1bf 432f 98bf d8c2 433f 92b3 36bf
00000140: 3f7a fdbe a819 afbf 8af2 ecbe c548 ac3f
00000150: da60 f8bf a124 a8bf e4ca af3f 7472 26be
00000160: 7127 acbf 8c1b b7bf e34e aebf 3a83 b93f
00000170: 9756 a8bf fea3 b7bf 22c7 8dbe 4f24 9cbf
00000180: 55be ae3f 3500 e33f 9d4e a3bf f615 053e
00000190: aed6 f6bf 9ddb 87bf 6919 b7bf ff23 b8bf
000001a0: a19f c53f fe46 b73f d01d b3bf 45e9 a33f
000001b0: 5227 54bf 405b 413f e7c3 673e 0ae3 8a3f
000001c0: 4de3 ae3f 2b2c a03f 380b 243e 2fc6 9a3f
000001d0: 40c4 a0bf 2545 d4be 9637 0040 d38c 81bf
000001e0: 8c1d dd3f b5c5 ef3f 7de4 f7bf 21a9 ec3f
000001f0: 53f1 b43f d246 773f fc72 8e3e 8c2e 80be

pointer.encoder_attn.v f4 [1, 1, 128]
0.07278586 -0.13115028 -0.104178615 0.03790005 0.10866672 0.0919707 -0.24088676 0.06795363
0.12549643 0.17819282 0.19945511 0.17230913 0.41093898 0.08522263 -0.058542453 0.15921088
-0.36543742 0.11553556 0.058266982 0.052173283 -0.34567332 0.16013929 0.018927017 -0.077182524
0.075832956 -0.1371612 0.22392033 0.22519517 0.10435021 0.20085528 -0.103876755 -0.17612864
-0.11911347 0.07521383 0.20779346 -0.08772764 0.19310647 0.027175149 0.07774786 0.04044636
0.23160277 -0.006150898 0.43895608 0.22428595 -0.21949634 -0.14806151 -0.11773431 0.19714376
-0.06457032 -0.11197883 -0.06789546 0.10925454 0.057059538 -0.06233332 0.21985409 -0.098688856
0.13775234 0.14716673 0.19588636 0.1207367 -0.20138183 0.086575836 -0.13463211 0.1595302
0.17991768 0.19396937 -0.16423313 -0.1698579 0.12358007 0.12839755 -0.14080574 -0.14362279
0.12646475 0.022336049 -0.27397025 0.07372617 -0.1772158 -0.24168032 0.14078894 -0.09919606
0.09047089 -0.12606205 0.13451591 -0.24330458 0.12829004 0.02622238 0.08463179 0.13524638
-0.14846085 -0.2443808 0.17577675 -0.15579301 -0.20881699 0.077794485 -0.14006567 0.10596138
-0.08961384 -0.07075976 -0.19202103 -0.0893485 -0.060094733 -0.120370895 0.27781793 -0.060022235
-0.15155967 -0.10504109 -0.11960795 -0.37898105 -0.08360291 -0.15657645 0.07020888 0.050325006
0.17166673 0.11344843 -0.10461917 0.1834044 -0.06926262 -0.10978588 -0.17582563 0.14498095
0.15893374 0.13027783 -0.15669002 -0.13720685 -0.028797647 0.02428209 0.1363758 -0.2570579
00000000: c110 953d 424c 06be 995b d5bd 153d 1b3d
00000010: a88c de3d 225b bc3d 05ab 76be 462b 8b3d
00000020: 2382 003e 2e78 363e f63d 4c3e ce71 303e
00000030: 9866 d23e 3489 ae3d 36ca 6fbd 2d08 233e
00000040: 9d1a bbbe e89d ec3d 5ca9 6e3d a7b3 553d
00000050: 18fc b0be 8efb 233e d50c 9b3c df11 9ebd
00000060: 4f4e 9b3d fc73 0cbe 5f4b 653e 9099 663e
00000070: 90b5 d53d 02ad 4d3e 56bd d4bd 115b 34be
00000080: c3f1 f3bd b509 9a3d cfc7 543e 8daa b3bd
00000090: b4bd 453e 6b9e de3c 453a 9f3d 15ab 253d
000000a0: 4729 6d3e 798d c9bb dabe e03e 37ab 653e
000000b0: a6c3 60be 709d 17be b01e f1bd 0ee0 493e
000000c0: 723d 84bd 2855 e5bd c60c 8bbd d8c0 df3d
000000d0: 43b7 693d 3951 7fbd 6e21 613e 621d cabd
000000e0: f30e 0d3e e0b2 163e 6f96 483e ce44 f73d
000000f0: 0a37 4ebe ac4e b13d 00dd 09be e25b 233e
00000100: 573c 383e e89f 463e bb2c 28be 3bef 2dbe
00000110: 8c17 fd3d a67a 033e 612f 10be da11 13be
00000120: fa7f 013e 17fa b63c d445 8cbe bffd 963d
00000130: 0f78 35be 0c7b 77be fa2a 103e 4e27 cbbd
00000140: cd48 b93d 6916 01be 8abe 093e d624 79be
00000150: 775e 033e 51d0 d63c 6f53 ad3d 077e 0a3e
00000160: 1f06 18be f63e 7abe d2fe 333e 3488 1fbe
00000170: 1fd4 55be b752 9f3d 606d 0fbe 4802 d93d
00000180: 7687 b7bd 7eea 90bd 29a1 44be 59fc b6bd
00000190: e525 76bd 0485 f6bd 273e 8e3e e0d9 75bd
000001a0: 7532 1bbe c81f d7bd 03f5 f4bd ce09 c2be
000001b0: 0138 abbd 9455 20be acc9 8f3d 9821 4e3d
000001c0: 67c9 2f3e a757 e83d 9342 d6bd 5dce 3b3e
000001d0: 8fd9 8dbd 6bd7 e0bd a20b 34be e375 143e
000001e0: 87bf 223e 8d67 053e 5973 20be f47f 0cbe
000001f0: 0be9 ebbc 3ceb c63c 19a6 0b3e 189d 83be

pointer.encoder_attn.W f4 [1, 128, 256]
-0.06366786 -0.029595494 -0.05328574 -0.009301974 0.0051870677 -0.21878198 -0.04576891 0.041162465
-0.03873592 0.020541023 0.0110098105 0.04313862 0.015208997 0.08149893 0.00229607 0.013316338
-0.0027474323 0.011191996 0.015528855 -0.092959404 0.1434201 0.0030017034 0.10343632 -0.1006977
0.0075784684 0.012414398 -0.12207655 -0.101813994 -0.033499047 -0.015001506 -0.05829199 -0.02026487
-0.065553166 -0.010470169 -0.23231609 0.001799607 -0.016196683 -0.12186418 -0.006609226 -0.050825458
0.009410651 -0.028107464 -0.02319508 -0.0060927006 -0.04425428 0.0033632934 0.023966651 -0.03337152
-0.13083543 -0.3416173 0.027497828 0.019428385 -0.1031153 -0.2915322 -0.0034165257 -0.08629529
0.011477114 0.018791597 0.038702708 -0.047555216 -0.04429839 -0.008400297 -0.005531736 0.021852093
-0.03876727 -0.34896192 -0.057651807 0.0039567007 -0.0031832338 -0.024463732 0.00077876437 -0.029212821
-0.056094006 -0.020650737 0.00241334 -0.076193094 -0.3047374 -0.048941366 -0.059586387 -0.113058396
-0.04567088 0.019513076 0.0027284387 -0.026379654 -0.05328676 -0.17083551 -0.018668499 0.09825446
-0.33396125 -0.32446775 -0.051843457 0.021707686 -0.28587455 -0.080869466 -0.028768012 0.007160403
-0.04891206 0.0038719769 -0.18246831 -0.040915366 -0.07769086 -0.008408672 -0.07488111 -0.20850089
0.00035298255 -0.05921335 -0.26282805 0.1282946 -0.07110129 -0.059979133 -0.028383652 0.10629665
-0.04061586 -0.0052181585 -0.0013092271 -0.113322824 -0.19073762 0.013170639 -0.10848116 -0.22447781
-0.0008887414 -0.025320122 -0.020398704 0.01569864 -0.006850107 -0.01745972 -0.029022232 -0.21869256
0.035370294 -0.078573614 0.010311245 -0.010901875 0.013793015 0.06946683 0.024197286 -0.104523316
0.034507584 -0.020976843 0.0442141 -0.013332522 -0.07702322 0.03651283 0.044885863 0.042140666
0.015639508 -0.067590564 0.01130064 0.030744875 -0.03605226 -0.05564078 0.10088786 -0.049603082
-0.14108036 0.10439551 0.007853001 -0.018731304 -0.011142366 -0.021687021 -0.06651938 -0.08608661
-0.030202871 0.0025716568 0.05902509 0.018942805 -0.1210768 -0.017110549 0.052631307 0.05350749
0.009927852 0.092981845 0.0024821137 0.038889654 -0.05737832 0.034092344 0.07243126 -0.048739746
0.10717032 -0.01703182 0.017827157 0.049250223 0.041496348 -0.0012727802 0.005102832 0.03468478
0.052417863 0.07959387 0.023305124 -0.06795423 -0.023401879 0.057705227 -0.035784945 -0.056787305
-0.0015667254 -0.04281372 0.016768014 0.079771474 0.09962785 -0.023565728 -0.0076300227 -0.021607969
-0.06629966 0.069681674 0.010519227 -0.041511875 -0.062369037 -0.037018143 -0.048479907 0.01315194
-0.04832301 0.0056686504 -0.029128375 -0.04377984 -0.023697283 -0.009197995 0.021424416 0.041485745
0.014914536 0.010789241 0.051693596 -0.0095071085 0.028177792 -0.11505497 -0.037776988 -0.008468575
-0.06190442 0.016976556 0.08654735 -0.021426992 -0.03185521 0.006975157 -0.06810875 -0.019189741
-0.014702204 -0.09633741 0.012831468 0.014369476 -0.035247937 0.05803369 -0.09760304 0.04079527
-0.033396676 -0.024235642 -0.026693454 0.09516883 -0.04314721 0.0027178652 -0.023221493 0.045407634
0.038206592 0.07080655 -0.040587664 0.060616426 0.02065771 -0.025150476 0.053176798 0.015439658
00000000: 4c64 82bd 4072 f2bc 2642 5abd 4f67 18bc
00000010: 47f8 a93b 6208 60be 2e78 3bbd f999 283d
00000020: 8ea9 1ebd a645 a83c 7e62 343c 1fb2 303d
00000030: 282f 793c e9e8 a63d aa79 163b c52c 5a3c
00000040: 440e 34bb a25e 373c bd6c 7e3c 8061 bebd
00000050: b8dc 123e 3ab8 443b 6cd6 d33d 993a cebd
00000060: cd54 f83b c265 4b3c 4503 fabd db83 d0bd
00000070: 4c36 09bd e0c8 75bc 95c3 6ebd 8302 a6bc
00000080: bd40 86bd 128b 2bbc 45e4 6dbe cae0 eb3a
00000090: e8ae 84bc ed93 f9bd 3592 d8bb 5b2e 50bd
000000a0: 222f 1a3c a041 e6bc 9c03 bebc 47a5 c7bb
000000b0: fa43 35bd b36a 5c3b b655 c43c 93b0 08bd
000000c0: b9f9 05be 76e8 aebe 2043 e13c 4728 9f3c
000000d0: 1d2e d3bd b543 95be cae7 5fbb 96bb b0bd
000000e0: 810a 3c3c d6f0 993c bb86 1e3d 42c9 42bd
000000f0: 3b72 35bd 66a1 09bc 9143 b5bb 2903 b33c
00000100: 6eca 1ebd 23ab b2be 4d24 6cbd 36a7 813b
00000110: cd9d 50bb 2a68 c8bc fe25 4c3a ba4f efbc
00000120: d4c2 65bd bc2b a9bc 2029 1e3b 200b 9cbd
00000130: 8a06 9cbe be76 48bd db10 74bd 298b e7bd
00000140: 6311 3bbd e3d9 9f3c 9bcf 323b 251a d8bc
00000150: 3843 5abd 81ef 2ebe aeee 98bc a239 c93d
00000160: f8fc aabe a320 a6be ce59 54bd 51d4 b13c
00000170: 265e 92be e49e a5bd e5aa ebbc d0a1 ea3b
00000180: 0358 48bd fec0 7d3b f9d8 3abe df96 27bd
00000190: 631c 9fbd 87c4 09bc 445b 99bd 4281 55be
000001a0: 8410 b939 b389 72bd 6691 86be a95f 033e
000001b0: 8e9d 91bd aeac 75bd d584 e8bc 0fb2 d93d
000001c0: d15c 26bd 16fd aabb 5f9a abba cc15 e8bd
000001d0: b950 43be aac9 573c 5f2b debd 83dd 65be
000001e0: 6dfa 68ba 256c cfbc 2f1b a7bc 6f9a 803c
000001f0: dd76 e0bb b007 8fbc 08c0 edbc f1f0 5fbe
00000200: 71e0 103d 34eb a0bd 7ff0 283c c79d 32bc
00000210: 19fc 613c a044 8e3d 6339 c63c 5210 d6bd
00000220: d357 0d3d a1d7 abbc d819 353d a670 5abc
00000230: 5abe 9dbd 7a8e 153d 3dda 373d b19b 2c3d
00000240: 6d1e 803c ec6c 8abd 5226 393c addc fb3c
00000250: 89ab 13bd 96e7 63bd 4b9e ce3d 9a2c 4bbd
00000260: 5f77 10be 50cd d53d e0a9 003c 6472 99bc
00000270: 788e 36bc fba8 b1bc 503b 88bd 2d4e b0bd
00000280: 036c f7bc 3e89 283b 4bc4 713d f12d 9b3c
00000290: 1df7 f7bd 6c2b 8cbc ed93 573d ab2a 5b3d
000002a0: 6ea8 223c 446d be3d f5aa 223b c24a 1f3d
000002b0: 8705 6bbd 6aa4 0b3d d756 943d 54a3 47bd
000002c0: 1d7c db3d 5186 8bbc 420a 923c 9aba 493d
000002d0: 13f8 293d 6bd3 a6ba a835 a73b a111 0e3d
000002e0: 1db4 563d 1c02 a33d 63ea be3c 962b 8bbd
000002f0: 4cb5 bfbc 515c 6c3d 3c93 12bd ce99 68bd
00000300: 955a cdba 705d 2fbd 135d 893c 3a5f a33d
00000310: b009 cc3d ea0c c1bc 4505 fabb 3203 b1bc
00000320: 1ec8 87bd 44b5 8e3d d658 2c3c 5b08 2abd
00000330: ad76 7fbd 56a0 17bd de92 46bd 3c7b 573c
00000340: 59ee 45bd 16c0 b93b a19e eebc 7d52 33bd
00000350: ce20 c2bc 30b3 16bc 4282 af3c f5ec 293d
00000360: 195c 743c 5bc5 303c aabc 533d b4c3 1bbc
00000370: 1dd5 e63c f1a1 ebbd 0bbc 1abd c7bf 0abc
00000380: 7d8f 7dbd 6b12 8b3c bd3f b13d a987 afbc
00000390: 9c7a 02bd dc8f e43b 9a7c 8bbd ce33 9dbc
000003a0: 83e1 70bc 8c4c c5bd 143b 523c f36d 6b3c
000003b0: 2460 10bd bcb4 6d3d 1ae4 c7bd f118 273d
000003c0: f4ca 08bd d389 c6bc 3bac dabc e0e7 c23d
000003d0: 21bb 30bd 361e 323b 003b bebc 5bfd 393d
000003e0: 847e 1c3d 0603 913d 403f 26bd ee48 783d
000003f0: 5c3a a93c 5f08 cebc eacf 593d 9ff6 7c3c

pointer.fc1.weight f4 [128, 256]
0.070490345 0.109274484 0.073864125 0.09005512 -0.20048703 -0.14346062 0.1733189 0.19191405
0.02842278 0.052757233 0.012752586 0.060114805 0.12999423 0.038215436 -0.11000377 -0.069111414
-0.12953953 0.082827866 -0.045285404 -0.062213354 -0.0012524307 -0.16813557 0.087190226 0.13425581
0.21004878 -0.15036766 -0.022193426 0.051406253 0.111741506 0.09829632 -0.037229747 0.04370278
0.05979764 0.03681179 -0.012469329 -0.11251723 -0.06813096 -0.0006913206 0.14544012 -0.07287192
0.02160956 -0.08646615 0.04997653 0.07871951 -0.0705312 0.062901296 0.028952874 -0.083267584
-0.046583038 -0.048154328 0.073524356 0.14481346 -0.21395919 -0.0180018 -0.0671509 0.027451923
0.012280733 -0.074783355 -0.14677398 -0.016452076 -0.0012389005 -0.11391766 -0.19133651 -0.042536218
-0.012478173 -0.0061122584 -0.16768076 -0.13482244 -0.06229906 -0.070955105 0.06504643 0.008234509
-0.08957853 -0.09400233 -0.03140045 0.15063643 0.050657462 -0.08952902 0.08200862 -0.114462405
0.18615331 0.011142636 -0.008845648 -0.14469884 -0.046884038 -0.09956003 0.16589761 -0.14200713
0.052830122 0.10094059 0.019004487 0.07478916 0.019485125 0.21648873 -0.01890361 0.07830316
0.13068084 -0.10579054 -0.19903785 -0.038617797 0.02606603 0.021882 0.15394114 -0.028720416
-0.08097361 -0.01798764 0.13497247 0.010544528 -0.07097671 -0.21949558 0.031882323 0.13795668
0.010207927 -0.09726766 -0.050231904 -0.18643929 0.07568581 0.08702616 0.0019235534 0.068282165
0.045623627 0.10844694 0.010564968 -0.041018996 0.08334895 0.09718915 0.10620645 -0.068281256
0.08191327 0.003380429 0.08134346 -0.048632458 0.054910712 -0.09585557 0.11944787 -0.10236473
0.059329003 0.102497905 -0.1419417 0.04702434 -0.08235645 0.04006461 0.054690637 -0.027094003
0.058239654 0.09990377 0.07114083 0.005209486 0.13414136 0.08865542 0.052781757 -0.04588204
-0.11529489 0.06378956 -0.013107047 -0.09916394 -0.04269414 -0.13892038 -0.0023073072 -0.05899091
0.07596286 -0.052297764 -0.024262862 0.03789324 -0.01363841 0.094647825 0.006352283 0.0133684045
0.03619374 0.04226105 0.009377475 0.025977919 -0.14260699 -0.038289513 -0.0344761 -0.11053739
0.053341802 -0.038920194 0.096589565 -0.03326295 -0.08615903 -0.018237598 -0.009159435 0.029798973
0.039412804 -0.01990627 -0.011766462 -0.058433656 -0.11055623 -0.118693 -0.03829052 -0.020407118
-0.12701912 -0.07904283 0.025675002 0.007285323 -0.04870534 0.06098295 0.09793067 0.046131678
-0.02969843 0.048787203 0.032178853 -0.01569843 -0.05335611 -0.10995846 0.05358981 -0.011977614
-0.11435698 -0.009532387 0.051626015 0.0065509123 -0.15957184 -0.06346281 -0.11348979 -0.034660246
-0.009621389 -0.10061377 0.018266818 -0.004941515 -0.04582022 0.106322914 -0.08892821 -0.048097834
-0.081746325 0.034690786 0.044098567 -0.11917333 0.04221695 0.027124625 -0.0983208 -0.119119525
-0.054991663 0.025723912 -0.026700113 -0.091343105 -0.09850349 -0.022948844 0.007419608 -0.1035796
0.09633106 0.07239218 0.0036457006 0.07524487 -0.102120586 0.07585065 0.122601636 -0.114046335
0.009588006 0.035653006 0.11384382 -0.039809693 -0.10975007 -0.10508218 0.0866306 0.05574342
00000000: 3e5d 903d 4dcb df3d 1346 973d d26e b83d
00000010: 794c 4dbe 57e7 12be 827a 313e 1e85 443e
00000020: e4d6 e83c f817 583d 39f0 503c f13a 763d
00000030: 351d 053e ca87 1c3d a849 e1bd 498a 8dbd
00000040: 03a6 04be a8a1 a93d 307d 39bd 6ed3 7ebd
00000050: 9a28 a4ba bb2b 2cbe ca90 b23d 5b7a 093e
00000060: 0717 573e fbf9 19be fdce b5bc 5d8f 523d
00000070: bbd8 e43d 954f c93d 387e 18bd b001 333d
00000080: 5fee 743d f6c7 163d 284c 4cbc 6f6f e6bd
00000090: 3f88 8bbd bd39 35ba 41ee 143e e03d 95bd
000000a0: 8806 b13c 2a15 b1bd 31b4 4c3d b237 a13d
000000b0: a972 90bd 65d2 803d 942e ed3c 3288 aabd
000000c0: dbcd 3ebd 793d 45bd f093 963d fb49 143e
000000d0: 1e18 5bbe 8378 93bc 6986 89bd dbe2 e03c
000000e0: 2135 493c 0428 99bd eb4b 16be 81c6 86bc
000000f0: 9a62 a2ba aa4d e9bd b8ed 43be 753a 2ebd
00000100: 4071 4cbc 5749 c8bb 81b4 2bbe e50e 0abe
00000110: 4d2d 7fbd e950 91bd 1037 853d 09ea 063c
00000120: f374 b7bd 4b84 c0bd c29d 00bd 7040 1a3e
00000130: 337e 4f3d fe5a b7bd 23f4 a73d 446b eabd
00000140: f99e 3e3e 9a8f 363c 56ed 10bc ef2b 14be
00000150: 7a09 40bd 21e6 cbbd 10e1 293e 516a 11be
00000160: 6664 583d f1b9 ce3d 4caf 9b3c 0f2b 993d
00000170: 459f 9f3c 39af 5d3e bedb 9abc 685d a03d
00000180: 33d1 053e b6a8 d8bd 94d0 4bbe b22d 1ebd
00000190: 6d88 d53c e141 b33c bfa2 1d3e 1447 ebbc
000001a0: 7ed5 a5bd d15a 93bc 3936 0a3e f5c2 2c3c
000001b0: 3d5c 91bd 73c3 60be 0a97 023d 8444 0d3e
000001c0: 263f 273c 4434 c7bd f8bf 4dbd f1e9 3ebe
000001d0: 2901 9b3d c53a b23d be1f fc3a 85d7 8b3d
000001e0: d7df 3a3d 6e19 de3d b018 2d3c 8903 28bd
000001f0: dbb2 aa3d 1b0b c73d c482 d93d 0bd7 8bbd
00000200: 25c2 a73d 308a 5d3b 6697 a63d d432 47bd
00000210: 0eea 603d ed4f c4bd 16a1 f43d 99a4 d1bd
00000220: f802 733d 6cea d13d 2a59 11be 989c 403d
00000230: 80aa a8bd ca1a 243d 4a03 603d 3ef4 ddbc
00000240: b48c 6e3d 599a cc3d 49b2 913d 56b4 aa3b
00000250: 5a5c 093e f990 b53d af31 583d ceee 3bbd
00000260: ba1f ecbd 1aa4 823d f1be 56bc 7716 cbbd
00000270: 0de0 2ebd 2541 0ebe 3136 17bb 74a0 71bd
00000280: 6a92 9b3d 2e36 56bd e9c2 c6bc f135 1b3d
00000290: a373 5fbc b8d6 c13d d026 d03b 2707 5b3c
000002a0: e33f 143d ec19 2d3d fba3 193c a5cf d43c
000002b0: 9107 12be 77d5 1cbd d036 0dbd 6d61 e2bd
000002c0: ef7c 5a3d c86a 1fbd c0d0 c53d bb3e 08bd
000002d0: 2574 b0bd 0467 95bc 7411 16bc fa1c f43c
000002e0: 526f 213d 7912 a3bc 1ec8 40bc 2158 6fbd
000002f0: 4e6b e2bd 5115 f3bd 85d6 1cbd d42c a7bc
00000300: 4d11 02be 35e1 a1bd 6254 d23c b8b9 ee3b
00000310: 407f 47bd 42c9 793d e08f c83d 92f4 3c3d
00000320: 1f4a f3bc 17d5 473d f9cd 033d fe99 80bc
00000330: f08b 5abd e731 e1bd fd80 5b3d c13d 44bc
00000340: fe33 eabd bb2d 1cbc cd75 533d 09a9 d63b
00000350: cd66 23be caf8 81bd 566d e8bd e7f7 0dbd
00000360: 08a3 1dbc 980e cebd 4ba4 953c 6fec a1bb
00000370: fcad 3bbd d4bf d93d fe1f b6bd 3c02 45bd
00000380: 9e6a a7bd ed17 0e3d b3a0 343d 2611 f4bd
00000390: aeeb 2c3d 7634 de3c 6a5c c9bd f0f4 f3bd
000003a0: f03e 61bd f4ba d23c 32ba dabc 1812 bbbd
000003b0: 33bc c9bd 37ff bbbc 2f20 f33b 8b21 d4bd
000003c0: 3849 c53d 5a42 943d b5ec 6e3b fb19 9a3d
000003d0: 9924 d1bd 9657 9b3d 9116 fb3d 2091 e9bd
000003e0: 0317 1d3c e308 123d f326 e93d 7d0f 23bd
000003f0: a5c4 e0bd 5335 d7bd 626b b13d 3653 643d

pointer.fc1.bias f4 [128]
-0.035660017 -0.061150346 -0.055388767 -0.043561906 -0.055051286 -0.023452943 0.000373003 -0.006176494
0.0039640334 -0.032344446 -0.046913 -0.006987268 0.06639704 -0.041380633 -0.06837981 0.03680622
0.011673218 0.0332602 0.04905221 -0.038579747 -0.058274146 0.013719544 -0.0050621945 0.028302582
-0.06010784 -0.049078044 0.045522757 -0.1045963 -0.041389395 0.07019532 -0.076740555 -0.015477729
-0.027757654 -0.016383689 0.03526136 0.012384507 -0.040736567 0.015475163 0.011565036 -0.10614063
-0.04970249 -0.036416054 -0.031897828 -0.022616312 -0.005731323 -0.03758411 0.056485787 0.0640646
-0.019475987 -0.07973112 0.005733657 -0.00031863534 -0.007158826 -0.010868281 -0.010400405 0.04203881
0.04081076 -0.03188526 -0.030754069 0.020326851 -0.027015325 -0.010090697 -0.101345986 -0.019626569
-0.008865955 0.0027888701 0.0334544 0.041079316 0.040741052 0.020034673 0.015526588 -0.058877964
-0.007454809 -0.040149186 0.02845346 -0.046505954 0.043230664 -0.037937045 -0.0077808048 0.07133458
0.041001692 0.049199224 -0.008166424 0.053986624 -0.053862132 0.064383045 0.013289958 0.005744044
-0.04857962 0.057119764 0.032389306 -0.025341999 0.051984705 0.00018945379 0.076884575 -0.014134099
0.0493556 0.0016416291 -0.0032169723 -0.060230106 -0.0285943 0.0013553587 -0.044809114 -0.051568948
-0.030437235 0.025592452 -0.049566064 -0.06670185 -0.027822064 -0.066047736 -0.046012577 0.05288577
6.954783e-05 0.06321993 -0.024608225 0.054441325 0.0066801384 0.027165657 -0.055470273 0.03578208
0.027365718 0.024898235 -0.020936241 0.0026295925 -0.0186005 0.077022694 -0.00071953685 0.04795202
00000000: 3d10 12bd c978 7abd 55df 62bd f86d 32bd
00000010: 757d 61bd 6320 c0bc 9d8f c339 3064 cabb
00000020: b9e4 813b 9c7b 04bd d927 40bd 74f5 e4bb
00000030: 2cfb 873d bd7e 29bd b70a 8cbd 1ec2 163d
00000040: 0641 3f3c d93b 083d f8ea 483d cc05 1ebd
00000050: dfb0 6ebd f0c7 603c c4e0 a5bb d1da e73c
00000060: a333 76bd 0f06 49bd 1276 3a3d 9636 d6bd
00000070: ed87 29bd 90c2 8f3d 272a 9dbd 4d96 7dbc
00000080: 0564 e3bc 1637 86bc 376e 103d 63e8 4a3c
00000090: 63db 26bd 8a8b 7d3c 477b 3d3c 4260 d9bd
000000a0: d794 4bbd 0029 15bd 4ca7 02bd d845 b9bc
000000b0: d2cd bbbb ccf1 19bd a45d 673d 4d34 833d
000000c0: 1b8c 9fbc 124a a3bd 67e1 bb3b 830e a7b9
000000d0: 9694 eabb e010 32bc 7666 2abc e330 2c3d
000000e0: 2f29 273d 1e9a 02bd f5ef fbbc 7f84 a63c
000000f0: 3e4f ddbc 7353 25bc 7c8e cfbd e6c7 a0bc
00000100: 8342 11bc 7ac5 363b 7b07 093d c942 283d
00000110: 17e0 263d c11f a43c 3b63 7e3c 052a 71bd
00000120: 7847 f4bb 7973 24bd 3b17 e93c 077d 3ebd
00000130: a312 313d e063 1bbd 1ff6 febb dd17 923d
00000140: 64f1 273d 2085 493d 77cc 05bc 1421 5d3d
00000150: 8a9e 5cbd 42db 833d 20be 593c 8938 bc3b
00000160: 6cfb 46bd 6af6 693d a6aa 043d 069a cfbc
00000170: eaed 543d 1da8 4639 a975 9d3d b592 67bc
00000180: 1929 4a3d ef2b d73a d7d3 52bb d8b3 76bd
00000190: 983e eabc 4ba6 b13a c389 37bd f639 53bd
000001a0: 8257 f9bc 43a7 d13c c905 4bbd fb9a 88bd
000001b0: 19eb e3bc 0944 87bd af77 3cbd c09e 583d
000001c0: 35da 9138 7379 813d 3097 c9bc defd 5e3d
000001d0: 10e5 da3b 838a de3c cc34 63bd 3b90 123d
000001e0: 122e e03c 62f7 cb3c 7b82 abbc 3e55 2c3b
000001f0: 1360 98bc 13be 9d3d 4d9f 3cba 5669 443d

pointer.fc2.weight f4 [128, 128]
0.011029322 0.054919545 0.02857464 -0.119641304 -0.060667515 -0.067512326 -0.10070488 0.19171959
0.075486265 -0.13555045 -0.046614766 -0.05166268 -0.111642696 0.010306088 0.13676263 -0.119921744
0.056579057 0.10187261 -0.09446572 0.09744183 0.14162146 -0.08387646 0.095694564 0.12379405
0.003344755 -0.31551516 0.051315922 -0.042468984 -0.15504926 0.035190437 0.035863418 -0.1269503
0.21049994 0.087878585 -0.06588791 -0.049922384 -0.069632575 0.06796829 -0.06480174 -0.069718674
0.11335716 -0.0038323647 -0.019461373 0.023886068 0.031520046 0.088992484 0.019061226 -0.03887728
0.01894171 0.01743097 -0.06842564 -0.0164557 -0.02800226 -0.08714634 -0.18830706 -0.13863939
-0.14605041 0.14011212 -0.026512897 -0.06584662 -0.06593312 0.081117816 -0.05014409 -0.03977629
0.15592036 0.05121495 0.13186799 -0.115354165 -0.1480214 0.07904826 0.058215823 0.08184695
0.03867863 0.053106178 0.090856664 -0.115561105 -0.079997696 0.0772645 0.1363959 0.1607888
-0.09137234 0.024118623 -0.10330844 0.10742552 -0.1272292 -0.09884888 0.13870722 0.06580206
-0.03905967 -0.1052134 -0.146491 0.077050366 -0.066256076 -0.0580842 0.09971003 0.14699674
-0.07296013 -0.08323225 0.16697523 0.15017276 -0.05635467 0.05492897 -0.08944213 0.06503356
-0.06503764 0.11722496 -0.0059297816 0.048581008 0.012233973 0.004473037 0.117478535 -0.017598545
0.15845972 -0.011495667 -0.0660818 -0.18872672 -0.056442745 -0.05386357 -0.06867904 0.025859848
-0.036691815 0.06510175 0.08586445 0.025400707 0.12953599 0.0322578 0.1487466 -0.24234591
0.100308724 -0.012847441 0.05970217 0.098801605 0.0008647387 0.12939659 -0.08625517 0.06765039
0.00045239506 0.2748426 0.063758 0.137888 0.026014509 0.020162111 -0.13552512 -0.08200919
-0.015172666 -0.01916141 0.04586953 0.07633079 -0.071811885 -0.12351082 0.050383884 -0.040223103
-0.048024602 0.098747976 0.15882647 -0.13846886 -0.13061863 0.07137292 0.120806314 0.15096848
0.34150943 0.26926613 -0.052856542 -0.0021104757 0.0043534287 -0.12126801 0.022593785 -0.015687058
-0.14035115 0.05478053 0.09832702 0.12678476 -0.03643069 0.018015528 0.020729214 0.07906268
0.002586042 0.011688524 -0.08077475 0.021219146 0.0131726 -0.01658444 0.18477988 0.0468728
0.021502279 0.14129603 0.03769894 -0.12857941 0.016852735 0.038941965 -0.09185932 -0.10929624
-0.051135313 -0.13973606 0.23839703 -0.06408532 -0.011584717 0.32347998 -0.06691765 -0.034582645
-0.07793794 0.004517372 -0.0767007 0.013328697 0.008653412 0.0005553918 0.099512234 -0.11175303
-0.13590506 -0.022033533 -0.053411122 -0.10829318 0.054488312 0.088361956 0.1275598 0.12940831
-0.0017686372 -0.06921662 -0.06311596 0.005410048 0.15138325 -0.057030626 0.0346132 0.021208515
-0.039340474 0.036815505 -0.02388307 -0.10143247 -0.037275434 -0.003410722 -0.096383855 0.02716982
0.038653217 0.12781444 0.0038652702 -0.034264475 -0.05579231 -0.1448348 0.058736134 -0.008225597
-0.06733945 -0.023117295 -0.07584084 -0.05119268 0.11164433 0.1435393 0.067385875 0.041224524
-0.13699514 -0.019708013 0.1287074 -0.11673705 0.082612164 0.119036525 0.13573983 -0.021705644
00000000: 54b4 343c 51f3 603d 5d15 ea3c 8006 f5bd
00000010: 807e 78bd e743 8abd 5c3e cebd 2452 443e
00000020: 8b98 9a3d bdcd 0abe 20ef 3ebd 3f9c 53bd
00000030: eda4 e4bd deda 283c 810b 0c3e 8899 f5bd
00000040: 71bf 673d 96a2 d03d 3e77 c1bd 958f c73d
00000050: 3705 113e 6cc7 abbd 83fb c33d bc87 fd3d
00000060: ad33 5b3b 348b a1be a530 523d f5f3 2dbd
00000070: 3cc5 1ebe d923 103d 85e5 123d 42ff 01be
00000080: 4c8d 573e b0f9 b33d 3ef0 86bd 6a7b 4cbd
00000090: 869b 8ebd f532 8b3d c6b6 84bd aac8 8ebd
000000a0: cc27 e83d 6928 7bbb 756d 9fbc b7ac c33c
000000b0: 2a1b 013d b141 b63d 4a26 9c3c c83d 1fbd
000000c0: a52b 9b3c 65cb 8e3c be22 8cbd 1bce 86bc
000000d0: ff64 e5bc c879 b2bd 91d3 40be 7cf7 0dbe
000000e0: 3d8e 15be 8d79 0f3e 9331 d9bc 98da 86bd
000000f0: f207 87bd 1921 a63d e463 4dbd 77ec 22bd
00000100: 96a9 1f3e c4c6 513d 6708 073e ce3e ecbd
00000110: ec92 17be 0ee4 a13d b773 6e3d 609f a73d
00000120: 7c6d 1e3d dd85 593d 0f13 ba3d 4dab ecbd
00000130: d5d5 a3bd da3c 9e3d 5eab 0b3e d2a5 243e
00000140: 6c21 bbbd 6b94 c53c 6093 d3bd e901 dc3d
00000150: 5f48 02be 4871 cabd 4409 0e3e 3bc3 863d
00000160: 08fd 1fbd 207a d7bd bd01 16be 95cc 9d3d
00000170: 44b1 87bd b3e9 6dbd c634 cc3d 5086 163e
00000180: 1f6c 95bd ab75 aabd 8efb 2a3e e3c6 193e
00000190: 28d4 66bd 33fd 603d 6f2d b7bd 5130 853d
000001a0: 7432 85bd a413 f03d 9d4e c2bb e1fc 463d
000001b0: 0071 483c 8e92 923b 9698 f03d d32a 90bc
000001c0: 4443 223e 5258 3cbc e555 87bd 9441 41be
000001d0: 8230 67bd 0ca0 5cbd 99a7 8cbd 08d8 d33c
000001e0: 284a 16bd 1154 853d b3d9 af3d 2515 d03c
000001f0: 15a5 043e c120 043d 0751 183e 8729 78be
00000200: a96e cd3d 137e 52bc 438a 743d 7f58 ca3d
00000210: a2af 623a 8a80 043e 8da6 b0bd 4a8c 8a3d
00000220: 702f ed39 2bb8 8c3e 8e93 823d 8332 0d3e
00000230: 611c d53c 032b a53c 19c7 0abe 6ff4 a7bd
00000240: c696 78bc 64f8 9cbc b0e1 3b3d 5153 9c3d
00000250: 1c12 93bd 3ef3 fcbd 555f 4e3d fbc0 24bd
00000260: 72b5 44bd 613c ca3d 68a3 223e c8ca 0dbe
00000270: e4c0 05be f72b 923d 4d69 f73d 7b97 1a3e
00000280: 53da ae3e 40dd 893e 1a80 58bd e84f 0abb
00000290: 35a7 8e3b 5d5b f8bd 9a16 b93c 2582 80bc
000002a0: 36b8 0fbe 8d61 603d ad5f c93d ddd3 013e
000002b0: 5938 15bd 4d95 933c 50d0 a93c 9deb a13d
000002c0: 967a 293b 3981 3f3c 3b6d a5bd c6d3 ad3c
000002d0: e4d1 573c 17dc 87bc f036 3d3e b1fd 3f3d
000002e0: 8c25 b03c e8af 103e 346a 1a3d 52aa 03be
000002f0: bf0e 8a3c 9c81 1f3d bd20 bcbd b5d6 dfbd
00000300: 4373 51bd f816 0fbe 5a1e 743e 2a3f 83bd
00000310: d3cd 3dbc 2b9f a53e 1f0c 89bd 88a6 0dbd
00000320: ed9d 9fbd 7706 943b 4215 9dbd 9b60 5a3c
00000330: 0ac7 0d3c b697 113a 12cd cb3d c6de e4bd
00000340: b22a 0bbe ab7f b4bc 9fc5 5abd d1c8 ddbd
00000350: 232f 5f3d 1df7 b43d 099f 023e 9d83 043e
00000360: 9ed1 e7ba 71c1 8dbd f142 81bd c646 b13b
00000370: 3604 1b3e f298 69bd 92c6 0d3d 7bbd ad3c
00000380: 7a23 21bd dbcb 163d 6ea6 c3bc d4bb cfbd
00000390: 20ae 18bd 6b86 5fbb e664 c5bd 3e93 de3c
000003a0: d652 1e3d cae1 023e 7950 7d3b e858 0cbd
000003b0: 7a86 64bd 934f 14be 4d95 703d a8c4 06bc
000003c0: 44e9 89bd 7b60 bdbc 7152 9bbd 6aaf 51bd
000003d0: c8a5 e43d f7fb 123e 9b01 8a3d 0cdb 283d
000003e0: 7448 0cbe b372 a1bc dfcb 033e d613 efbd
000003f0: 9130 a93d 6cc9 f33d 62ff 0a3e 09d0 b1bc

pointer.fc2.bias f4 [128]
0.035347786 -0.015562295 0.09558767 -0.04136984 -0.023483574 0.032774318 0.08561322 0.093502596
0.021554165 0.016238488 -0.01194368 -0.030282538 -0.0406163 -0.033988666 0.060709324 0.00916531
-0.01748926 -0.03964648 0.043838006 -0.049593918 0.057135794 -0.029984206 0.06394956 0.08423759
0.03631326 -0.0040505957 0.09377248 -0.01856321 -0.08480746 0.034620594 -0.028732168 0.14196649
-0.037033595 -0.010277386 -0.025217908 -0.012407287 0.004029262 0.0061963773 0.100879416 0.07962091
-0.015025912 -0.017620198 0.17219001 0.1078719 -0.012355703 0.09106476 0.028425127 -0.07680954
0.02885451 -0.02820929 -0.04529186 -0.00784002 -0.008946167 0.006189391 0.043372788 -0.0045730714
0.04733909 0.004352083 0.040895745 0.1550139 0.0064429706 0.07810024 0.0053821877 0.06464756
0.08592971 -0.049803726 0.061095696 -0.0074223257 -0.06255389 -0.038762536 0.052896656 -0.016433777
-0.0905401 0.066996455 0.020838412 0.070076145 0.11524435 0.048565187 -0.0141161615 0.02360696
-0.088390924 -0.024834868 0.02502268 0.041811038 0.11242677 -0.010681161 0.032332446 -0.03478188
0.04967479 0.00765439 0.09790117 0.03145238 -0.023613581 0.0078573255 -0.031309254 0.12431448
-0.06878672 0.042603873 0.054001193 -0.075666346 0.056485176 0.12488446 0.0029307962 -0.0119103845
0.02563661 0.016761316 0.04483144 0.07859364 -0.04465351 0.03760923 -0.0018341823 -0.019422213
-0.09607233 0.09065696 -0.05118493 0.057255447 0.094920956 0.06421989 0.03496042 0.0317748
0.14200063 -0.04724411 0.05366817 0.10911447 0.08942021 0.047293708 -0.10464759 0.08049576
00000000: d7c8 103d fff8 7ebc 78c3 c33d 6c73 29bd
00000010: a060 c0bc 5d3e 063d fc55 af3d 4a7e bf3d
00000020: 5c92 b03c 9406 853c 6daf 43bc 1613 f8bc
00000030: 475d 26bd b337 0bbd 57aa 783d 192a 163c
00000040: a345 8fbc 5964 22bd 7b8f 333d fe22 4bbd
00000050: 3907 6a3d 70a1 f5bc fdf7 823d c284 ac3d
00000060: 37bd 143d dcba 84bb c90b c03d df11 98bc
00000070: 89af adbd 53ce 0d3d b95f ebbc aa5f 113e
00000080: 8ab0 17bd 7b62 28bc c995 cebc ef47 4bbc
00000090: e607 843b fb0a cb3b de99 ce3d 4a10 a33d
000000a0: 3e2f 76bc 3c58 90bc 9452 303e f1eb dc3d
000000b0: 936f 4abc 2980 ba3d d0db e83c 524e 9dbd
000000c0: 4b60 ec3c 2b17 e7bc f583 39bd 6d73 00bc
000000d0: f292 12bc 60d0 ca3b aaa7 313d b4d9 95bb
000000e0: a2e6 413d eb9b 8e3b 4c82 273d f7bb 1e3e
000000f0: 8e1f d33b 05f3 9f3d 105d b03b f165 843d
00000100: eafb af3d fefe 4bbd 7b3f 7a3d fb36 f3bb
00000110: 411c 80bd 77c5 1ebd 2aaa 583d 21a0 86bc
00000120: 176d b9bd 7035 893d 51b5 aa3c 1584 8f3d
00000130: 3b05 ec3d 4aec 463d 7947 67bc 6263 c13c
00000140: 4d06 b5bd 7e72 cbbc 5dfc cc3c 0d42 2b3d
00000150: 0240 e63d 0900 2fbc 076f 043d 7277 0ebd
00000160: cb77 4b3d add1 fa3b 6980 c83d 36d4 003d
00000170: 4571 c1bc 03bc 003c 223e 00bd 9798 fe3d
00000180: 0de0 8cbd 6681 2e3d 5b30 5d3d f5f6 9abd
00000190: 005d 673d 6cc3 ff3d 9a12 403b c623 43bc
000001a0: de03 d23c 074f 893c 2ca1 373d b4f5 a03d
000001b0: 99e6 36bd 230c 1a3d f268 f0ba 551b 9fbc
000001c0: 92c1 c4bd 5baa b93d 4aa7 51bd b084 6a3d
000001d0: eb65 c23d b885 833d a832 0f3d 4b26 023d
000001e0: 9d68 113e 0a83 41bd 28d3 5b3d 6877 df3d
000001f0: f121 b73d 0cb7 413d 7a51 d6bd f6da a43d
