trained_models/cvrp/XE_14/model_incumbent_vrpRl13_C_XE_14_T_0.1_60959.pt (torch_old, 469732 bytes, 15 tensors)

all_embed.embed.weight f4 [128, 4]
0	0xbf0e46b3	-0.5557663
1	0xbe0145cc	-0.12624282
2	0x3e796eed	0.24358721
3	0x3e3e5d99	0.18590392
4	0x3f051e29	0.51999146
5	0x3f6fb4ed	0.93635446
6	0xbdd5d354	-0.10440698
7	0x3d4f66fb	0.05063532
8	0xbe5c4c2c	-0.21513432
9	0x3f163666	0.58676755
10	0x3cddb3c8	0.027063265
11	0x3e4c0690	0.19924378
12	0xbdb7b4b2	-0.08970012
13	0xbe4eacb1	-0.20183064
14	0xbd9bb150	-0.07602179
15	0x3d6a1340	0.057147264
16	0x3cb38e4f	0.021918444
17	0x3f04a0c4	0.5180781
18	0x3dcfb35d	0.10141633
19	0xbdea094a	-0.11427553
20	0xbec00159	-0.37501028
21	0x3e41aeef	0.18914388
22	0xbed5cd74	-0.4175831
23	0xbe8f7539	-0.2801912
24	0x3ee872b7	0.4540002
25	0x3eb90492	0.361363
26	0xbe7c34d5	-0.24629529
27	0xbc36ff43	-0.011169258
28	0x3f7a4fb7	0.97777885
29	0xbd8dbee9	-0.06921179
30	0x3e038be6	0.12846336
31	0x3e7a658b	0.24452798
32	0xbef3fe66	-0.47655028
33	0x3ebc9bb4	0.36837542
34	0x3e8f99ea	0.28047115
35	0x3e884946	0.26618403
36	0x3eab0279	0.33400324
37	0x3efc64e7	0.49295732
38	0x3e0b07c8	0.13577187
39	0xbda0724f	-0.07834303
40	0xbd44dc32	-0.048061557
41	0x3f135699	0.5755401
42	0x3e03a8d1	0.12857367
43	0x3e3ab135	0.18231662
44	0x3e694b28	0.22782576
45	0x3f2e7568	0.681479
46	0xbda42ea2	-0.08016707
47	0x3e8091a2	0.2511111
48	0xbe0041dc	-0.12525123
49	0xbe971884	-0.2951089
50	0x3e5e566b	0.21712653
51	0x3e9e4b3a	0.30916768
52	0x3d95bdb4	0.073115736
53	0x3dc5595c	0.096361846
54	0x3d43e788	0.047828227
55	0xbe39728b	-0.18110101
56	0xbf12f3be	-0.5740317
57	0x3e06733e	0.13129899
58	0xbeb48512	-0.35257775
59	0xbe086b8a	-0.13322273
60	0x3ea9e412	0.33181816
61	0xbf1f740f	-0.62286466
62	0xbe4c5eb9	-0.19958009
63	0x3df67d1d	0.12035582
64	0x3e3cf7c7	0.18453895
65	0x3eee5417	0.4654853
66	0x3ecb9d65	0.3976852
67	0x3e94e752	0.29082733
68	0x3e4c0fb9	0.19927873
69	0xbf2689d6	-0.6505407
70	0xbda17949	-0.078844614
71	0x3c00e090	0.00786604
72	0xbefb956f	-0.49137446
73	0xbe23afdc	-0.15985054
74	0x3e7ec444	0.24879557
75	0x3e90b5ac	0.28263605
76	0xbefbeaf1	-0.49202684
77	0x3e90aebc	0.28258312
78	0xbeba7ec1	-0.3642483
79	0xbeb35346	-0.3502447
80	0xbe10bc0f	-0.14134239
81	0xbc9819c0	-0.018566966
82	0xbddb8002	-0.10717775
83	0xbd257850	-0.040397942
84	0xbe02fa40	-0.12790775
85	0xbd4b1b04	-0.04958631
86	0xbd9f76f0	-0.077863574
87	0xbd1ac0cc	-0.03778152
88	0x3ee31fc2	0.44360167
89	0xbece0a6f	-0.40242335
90	0x3cacb15b	0.021080663
91	0x3ea2638b	0.3171657
92	0x3eba211b	0.36353382
93	0x3f4f5582	0.8098985
94	0x3e8d5e6d	0.27611104
95	0x3e8bdf52	0.27318817
96	0xbf026551	-0.50935847
97	0xbd0c8231	-0.034303848
98	0x3e7bc4e8	0.24586833
99	0x3e8b93ac	0.27261102
100	0x3e0db6b6	0.1383923
101	0xbe4a0a9a	-0.19730607
102	0xbdfee5d0	-0.12446177
103	0x3bf552c0	0.007486671
104	0x3f0c7886	0.54871404
105	0x3e04b6ad	0.1296031
106	0xbda6aff7	-0.081390314
107	0xbd9aeefa	-0.075651124
108	0x3f10c5c3	0.5655176
109	0x3f4bcaf9	0.79606587
110	0x3dbf9d08	0.09356123
111	0x3e43e678	0.19130886
112	0xbea3d881	-0.32001117
113	0x3cefcbab	0.029271921
114	0x3ec05890	0.37567568
115	0x3e7f1c68	0.2491318
116	0xbe082169	-0.13293995
117	0x3e20e84e	0.15713617
118	0xbd9248c0	-0.07142782
119	0xbd9af03c	-0.07565352
120	0x3f183991	0.5946284
121	0xbe02e238	-0.12781608
122	0x3b9453f6	0.0045266105
123	0xbdd9bcdb	-0.106317244
124	0x3f90e323	1.1319317
125	0x3e24a144	0.16077143
126	0xbdc0feb8	-0.09423584
127	0x3e2889b4	0.1645878
128	0x3f06d2ed	0.526656
129	0x3d98cfac	0.07461485
130	0xbdaec86b	-0.085343204
131	0xbd9c8523	-0.07642581
132	0xbd82c0e1	-0.06384445
133	0xbf33790c	-0.7010658
134	0xbea46b9f	-0.32113358
135	0x3d71d0ec	0.059037134
136	0x3ddeccd5	0.10878912
137	0xbebc3c3c	-0.36764705
138	0x3bf2b3c9	0.007406686
139	0x3ea47c2d	0.3212599
140	0xbf0bda1e	-0.54629695
141	0xbeb39950	-0.35077906
142	0x3ec6c986	0.38825625
143	0x3e6d7edb	0.23192923
144	0x3de621ea	0.11236937
145	0xbf1dbeb5	-0.6161912
146	0xbcf13d93	-0.029448306
147	0xbd966f4a	-0.073454455
148	0x3f296cf6	0.66181886
149	0xbdd382ef	-0.10327708
150	0x3eb33490	0.3500104
151	0x3ea91d3a	0.3303011
152	0x3db93f30	0.09045255
153	0xbcb1d120	-0.021706164
154	0xbdc4aa5a	-0.096028045
155	0xbdc15ead	-0.09441886
156	0xbdb37bd8	-0.08763856
157	0xbcb71ac8	-0.022351637
158	0x3c9d45a0	0.019198239
159	0x3d8814bc	0.0664458
160	0x3f03ff78	0.5156169
161	0xbdf3be24	-0.11901501
162	0xbd5ffbd1	-0.05468351
163	0xbe24ed45	-0.16106136
164	0x3ee64d6e	0.4498095
165	0x3f05b134	0.52223516
166	0xbe2c2b17	-0.16813312
167	0x3e498f41	0.19683553
168	0xbf006894	-0.50159574
169	0x3e45310b	0.1925699
170	0x3eb2f80b	0.34954867
171	0x3ead05d1	0.337935
172	0xbed6c3f5	-0.41946378
173	0x3f06e3db	0.5269143
174	0x3e3da3c7	0.18519507
175	0x3ea85c6f	0.3288302
176	0xbb721e40	-0.00369443
177	0x3d66f470	0.056385458
178	0xbe3570d0	-0.17718816
179	0xbd7398ec	-0.05947201
180	0x3f2e6bab	0.6813304
181	0x3d2ea214	0.04263504
182	0x3de44787	0.11146455
183	0x3ce1c51b	0.027559808
184	0xbeee9075	-0.46594587
185	0x3ebcc5e6	0.36869735
186	0x3ec0d098	0.37659144
187	0x3e657f0c	0.22411746
188	0x3d11926c	0.03554003
189	0x3f150036	0.58203447
190	0x3e4006a5	0.18752535
191	0x3e979908	0.2960894
192	0xbe0c692a	-0.13711992
193	0x3e9f0c4d	0.31064072
194	0xbea99993	-0.3312498
195	0xbec41169	-0.38294533
196	0x3f321f79	0.69579273
197	0x3f50a037	0.8149447
198	0x3ef4bdf2	0.47801167
199	0x3ecfc5fb	0.40580735
200	0x3f45d519	0.77278286
201	0xbebf7911	-0.37397054
202	0xbd82a6e9	-0.06379492
203	0x3df1b0fe	0.11801337
204	0x3ec9a358	0.39382434
205	0xbf39ab90	-0.7252741
206	0x3e24e67f	0.16103552
207	0x3e4d01fc	0.20020288
208	0xbe125874	-0.14291555
209	0x3f15b781	0.5848313
210	0x3e85a50c	0.26102483
211	0x3d3ded16	0.04636868
212	0x3ebe11b5	0.37122884
213	0xbec972e5	-0.3934547
214	0x3e56f13b	0.2099046
215	0x3e949cc2	0.29025847
216	0x3f173de0	0.5907879
217	0x3ebbc094	0.36670363
218	0xbda3e163	-0.080019735
219	0xbda7bd1d	-0.08190367
220	0xbd76d718	-0.060263723
221	0xbe40b5f6	-0.18819413
222	0x3c9ca558	0.01912181
223	0xbc31f9a0	-0.010862738
224	0x3f1ac894	0.6046231
225	0x3db17965	0.08665732
226	0xbe1d8b3f	-0.1538515
227	0xbd8e8599	-0.069590755
228	0x3f0b20cb	0.54346913
229	0xbf0538fd	-0.5204008
230	0xbdb1f5c8	-0.08689457
231	0x3c3356ab	0.010945956
232	0x3ed99326	0.42495078
233	0xbe31af60	-0.17352057
234	0xbdebcdfb	-0.11513897
235	0xbdde8aaa	-0.10866292
236	0x3da1aac1	0.07893897
237	0x3d8f7efa	0.07006641
238	0xbd3ee37d	-0.04660367
239	0x3e883da2	0.26609522
240	0xbef661cb	-0.48121485
241	0x3cd13607	0.025538458
242	0xbed56e0d	-0.41685525
243	0xbedbb70d	-0.42913094
244	0xbeb38faa	-0.35070544
245	0x3e0a33e9	0.13496365
246	0xbe308bf4	-0.17240888
247	0xbec5cf70	-0.38634825
248	0x3eae825b	0.34083828
249	0xbef621bf	-0.4807262
250	0xbe68f0a7	-0.22748052
251	0xbd576175	-0.052583177
252	0xbdaaae3c	-0.08334014
253	0x3e5cb095	0.21551736
254	0xbe826459	-0.25467184
255	0xbeb312f6	-0.34975404

all_embed.embed.bias f4 [128]
0	0x3edfc606	0.43705767
1	0x3f15fa8c	0.5858543
2	0x3ea23cd7	0.31687042
3	0xbe498d88	-0.19682896
4	0x3e3823bf	0.17982386
5	0x3e09e49a	0.13466111
6	0x3e130c14	0.14360076
7	0xbe69c540	-0.22829151
8	0x3dc480bf	0.09594869
9	0x3d7653e1	0.060138587
10	0x3ebaef0b	0.365105
11	0xbe57ccd5	-0.21074231
12	0xbd01a0c0	-0.031647444
13	0xbea8626a	-0.32887584
14	0x3cab9363	0.020944303
15	0x3ee1983c	0.44061458
16	0x3e24730a	0.16059509
17	0x3f142fda	0.57885516
18	0x3e8f2b84	0.27962887
19	0x3dc24d8a	0.09487446
20	0xbe627734	-0.22115785
21	0xbef8ad8e	-0.48569912
22	0xbd39c8ce	-0.045357518
23	0x3e58c2b4	0.21168023
24	0x3e5fa9ac	0.21842068
25	0xbe991db2	-0.29905468
26	0x3e42e94e	0.19034311
27	0xbe7f1eac	-0.24914044
28	0x3edafe1b	0.42771992
29	0xbeaf4754	-0.34234107
30	0x3e9d23f4	0.30691493
31	0xbe9169ed	-0.28401127
32	0x3ec2a0e9	0.3801339
33	0x3f319bc5	0.6937831
34	0x3f1d15ff	0.6136169
35	0x3f07d228	0.5305505
36	0x3f256bea	0.6461779
37	0xbea65c89	-0.32492474
38	0xbeb34c42	-0.35019118
39	0xbe75c974	-0.2400263
40	0x3e7b0eac	0.24517316
41	0xbe9f78a0	-0.31146717
42	0x3ede356a	0.43400127
43	0xbd665629	-0.056234512
44	0xbe9f9968	-0.31171727
45	0x3cf4fc35	0.029905418
46	0x3e7a829e	0.24463889
47	0x3e83b6fe	0.2572555
48	0xbd8c1abe	-0.06841038
49	0x3f1511d3	0.5823032
50	0x3e1b9097	0.15191875
51	0x3f027acb	0.5096862
52	0x3e2decc4	0.1698485
53	0xbdc8ee78	-0.09811109
54	0x3e38893a	0.18021098
55	0xbeb88716	-0.36040562
56	0x3ec6ea98	0.38850856
57	0x3ed9b1b4	0.4251839
58	0xbe078e6a	-0.1323792
59	0xbe981e0f	-0.29710433
60	0x3ede71ea	0.43446285
61	0x3e851bac	0.25997674
62	0x3eeb8d8e	0.46006435
63	0xbd241ae0	-0.040064692
64	0x3ed50357	0.4160411
65	0x3f1969a6	0.5992683
66	0x3e237969	0.15964283
67	0xbe7371d8	-0.23773897
68	0xbe8a8884	-0.27057278
69	0x3e3be0c5	0.18347462
70	0xbed0165a	-0.40642053
71	0x3e2234f7	0.15840517
72	0xbcb16741	-0.02165568
73	0x3f012884	0.50452447
74	0x3c924b0c	0.01785805
75	0x3e92ddb8	0.28684783
76	0x3e95f91c	0.29291618
77	0x3eb52a75	0.35383955
78	0xbecf9b14	-0.40548003
79	0x3ec448ca	0.38336784
80	0xbec9f57e	-0.39445108
81	0x3ed2716e	0.41102165
82	0x3efded8b	0.49595293
83	0xbdd3ce9e	-0.103421435
84	0x3ec76582	0.38944632
85	0x3e9e7777	0.3095052
86	0xba800ff9	-0.0009770385
87	0x3e1bff99	0.15234222
88	0xbe602b2c	-0.21891469
89	0xbe8dffcc	-0.2773422
90	0x3dc57a90	0.096425176
91	0x3e9f8c52	0.31161743
92	0x3ebcfa1d	0.3690957
93	0x3eee2536	0.46512765
94	0xbe3f44b4	-0.18678552
95	0xbe5ec96d	-0.21756525
96	0x3ea02220	0.31276035
97	0x3e362719	0.17788352
98	0x3cba50a2	0.022743527
99	0xbe9aa711	-0.30205587
100	0x3e923788	0.28557992
101	0x3e1f1541	0.15535451
102	0xbec40c24	-0.38290513
103	0xbe90f89e	-0.2831468
104	0x3f04e7a0	0.5191593
105	0x3ecd7d4b	0.40134653
106	0xbe01fead	-0.12694807
107	0xbe48d992	-0.19614246
108	0xbeb56e7a	-0.3543585
109	0x3e3e0281	0.18555643
110	0xbec970ae	-0.3934378
111	0x3eca1e12	0.39476067
112	0xbd79e491	-0.061008994
113	0x3de6e603	0.1127434
114	0xbd5a991f	-0.053368684
115	0x3edff741	0.43743327
116	0xbedafe66	-0.42772216
117	0xbe9befb6	-0.30456322
118	0x3e912c88	0.28354287
119	0xbeb9143a	-0.36148244
120	0x3bbc1d31	0.0057407846
121	0x3ee03d3c	0.43796718
122	0xbee86712	-0.45391136
123	0x3ec1ce49	0.37852696
124	0x3f04903d	0.5178259
125	0x3ec4ef0e	0.38463634
126	0x3e5b29d8	0.21402681
127	0x3d9b2b60	0.075766325

all_embed.embed_2.weight f4 [128, 128]
0	0xbdb56c06	-0.088584945
1	0xbe72f6a5	-0.237269
2	0x3dde8f65	0.10867194
3	0x3d0e7768	0.034781843
4	0xbe2adfd7	-0.1668695
5	0x3daaeac1	0.08345557
6	0xbdc97525	-0.09836797
7	0xbc231934	-0.009954739
8	0xb9ec00b6	-0.00045013957
9	0x3d9bb71b	0.07603284
10	0x3e070526	0.13185558
11	0xbe085a48	-0.1331569
12	0xbd2869f4	-0.04111667
13	0xbc0d58a0	-0.008627087
14	0x3e892f43	0.2679387
15	0x3e3d0d4b	0.18462102
16	0x3e4635dc	0.19356483
17	0xbb9e1dd7	-0.0048253345
18	0x3de28d47	0.11062103
19	0x3d9fd6c9	0.07804639
20	0x3dc3f0a2	0.095673814
21	0x3d751898	0.059837908
22	0x3e4ac9c9	0.19803537
23	0x3d0d8778	0.03455302
24	0x3db2d6d9	0.08732385
25	0xbcaedaf8	-0.021344647
26	0xbdd74e50	-0.10512984
27	0xbaa738fd	-0.0012758073
28	0x3d222e9c	0.03959523
29	0xbda41302	-0.08011438
30	0xbd955dcc	-0.07293281
31	0xbd4910ff	-0.049088474
32	0xbe60913c	-0.21930403
33	0x3dba0a68	0.09084016
34	0xbbe54764	-0.006997036
35	0x3e37ed05	0.1796151
36	0x3e41171b	0.1885647
37	0x3bb72653	0.0055892854
38	0xbe0491a8	-0.12946188
39	0x3e035317	0.12824665
40	0x3d8dacbf	0.06917714
41	0xbd16cb6d	-0.036815096
42	0x3e4fb803	0.20285039
43	0xbe039dd9	-0.12853183
44	0x3d51fb58	0.05126509
45	0x3da8f196	0.08249204
46	0xbd91a9b5	-0.07112447
47	0xbc32fd3d	-0.0109246345
48	0x3e2f9107	0.17145167
49	0xbc516bdf	-0.012782066
50	0x3d955eb7	0.07293456
51	0x3e261f2e	0.16222832
52	0xbdb6573c	-0.089033574
53	0x3e05447c	0.13014406
54	0xbdfce993	-0.12349238
55	0x3d97f4ac	0.07419714
56	0x3ca190d6	0.019722383
57	0x3e341e1d	0.17589612
58	0x3dccc7c0	0.09999037
59	0x3c764d5d	0.015033093
60	0x3e00d55d	0.12581392
61	0x3e2468b7	0.1605557
62	0x3cf24d18	0.029577777
63	0x3dd28c2c	0.10280642
64	0x3e6c5009	0.23077406
65	0x3e5b8307	0.21436702
66	0x3da48b07	0.0803433
67	0xbe030d98	-0.12798154
68	0xbd1a5eb6	-0.03768798
69	0x3e8426bc	0.25810802
70	0x3c513330	0.012768552
71	0x3e4d1872	0.20028856
72	0xbe070cee	-0.13188526
73	0xbe075dc4	-0.13219362
74	0xbe017964	-0.12643963
75	0xbccad839	-0.024761306
76	0xbd849bbf	-0.06475019
77	0xbcc7f072	-0.024406645
78	0xbd306a60	-0.043070197
79	0xbcce921b	-0.025216153
80	0xbdc33a6f	-0.0953263
81	0xbc922c88	-0.0178435
82	0x3c0bf428	0.008542098
83	0x3e50868e	0.20363829
84	0x3e56d711	0.20980479
85	0xbe27ba50	-0.16379666
86	0xbe14440f	-0.14479087
87	0xbe25c7f5	-0.16189559
88	0x3d55edec	0.052228853
89	0xba375500	-0.0006993562
90	0x3cccd44b	0.025003573
91	0xbd90c2d5	-0.07068411
92	0x3e7f0f31	0.24908139
93	0x3e3a142b	0.18171756
94	0x3d92b056	0.0716254
95	0xbdf2e87a	-0.11860748
96	0x3e59dfba	0.21276751
97	0xbb857959	-0.0040733037
98	0xbe1dd2de	-0.1541247
99	0xbe647e2e	-0.22313759
100	0xbd507d3d	-0.050900687
101	0x3e14e36a	0.14539877
102	0x3db9bfd0	0.090697885
103	0xbd2741a8	-0.0408341
104	0x3d13d2e2	0.036089785
105	0x3a0d0d21	0.00053806795
106	0xbc8a1d44	-0.016859658
107	0x3c3aefa8	0.011409678
108	0x3cd65a50	0.026166111
109	0xbe8cd22b	-0.27504095
110	0x3bfb2900	0.0076647997
111	0x3d96c7d9	0.07362337
112	0xbe2f2ec8	-0.1710769
113	0xbc03bab7	-0.008040122
114	0xbe91669f	-0.28398606
115	0xbdd9118f	-0.10599052
116	0x3de3faae	0.11131798
117	0xbd2c8cf4	-0.04212661
118	0xbbd86f4d	-0.006605065
119	0xbd43210e	-0.047638945
120	0x3dafcc10	0.08583844
121	0xbdfb33a0	-0.12265706
122	0x3da53718	0.08067149
123	0x3da29d7e	0.079401955
124	0x3e47d9ba	0.1951665
125	0x3e272222	0.16321614
126	0xbd58c5c2	-0.05292297
127	0x3d019459	0.031635616
128	0x3e80e36f	0.25173518
129	0xbed40771	-0.41411927
130	0x3e0e6125	0.13904245
131	0xbdc7cb60	-0.097555876
132	0xbdb13462	-0.08652569
133	0x3e77ff46	0.24218473
134	0xbf096c12	-0.5368053
135	0xbddaffae	-0.10693298
136	0x3ee208c8	0.44147325
137	0xbe168fd3	-0.14703302
138	0x3e3df50b	0.18550508
139	0xbd3dbb73	-0.046321344
140	0x3e770156	0.24121603
141	0xbde5b20d	-0.11215601
142	0x3eac11e1	0.3360739
143	0xbe8bd7fd	-0.27313223
144	0x3d9d6abf	0.07686376
145	0xbe74ba9c	-0.23899311
146	0x3f2475b9	0.6424213
147	0x3e95394d	0.2914528
148	0x3b152140	0.0022755414
149	0xbd78a814	-0.060707167
150	0xbe915854	-0.28387702
151	0xbc9861bd	-0.018601293
152	0x3e9499bb	0.29023537
153	0xbd6ca2a4	-0.057772294
154	0xbebfd0ac	-0.37463892
155	0xbd87c396	-0.06629102
156	0x3e82abf2	0.2552181
157	0x3e15b783	0.14620785
158	0xbea1aa99	-0.31575468
159	0xbe796be7	-0.24357568
160	0xbe8d878d	-0.2764248
161	0x3d8f6cb9	0.07003159
162	0xbda66253	-0.081242226
163	0x3e8d457a	0.2759207
164	0xbe85e70c	-0.26152837
165	0xbe26854e	-0.16261789
166	0xbc80d1f0	-0.015725106
167	0xbdcc0d64	-0.099634916
168	0xbe8e2535	-0.27762762
169	0x3e382c3a	0.17985621
170	0x3ea7047f	0.32620618
171	0x3e98677f	0.2976646
172	0x3d9cc220	0.07654214
173	0xbf22a573	-0.63533705
174	0x3ec1819a	0.3779419
175	0xbcb78739	-0.022403346
176	0x3de2bc86	0.11071114
177	0x3d9c8f0b	0.07644471
178	0xbe9e5383	-0.3092309
179	0xbc38a083	-0.011268738
180	0x3e175ed3	0.14782266
181	0xbe0ef115	-0.13959153
182	0xbf154ea7	-0.5832314
183	0x3daaa728	0.08332664
184	0xbed57154	-0.41688025
185	0xbe9f1cae	-0.31076568
186	0xbe62db19	-0.22153892
187	0xbe37372b	-0.17892139
188	0x3ebc22ac	0.36745203
189	0x3e76f36e	0.24116299
190	0xbe6c3c0e	-0.23069784
191	0xbcdd4c30	-0.027013868
192	0xbe348e1a	-0.17632332
193	0xbe92de73	-0.2868534
194	0x3d373747	0.04473045
195	0x3df64326	0.12024526
196	0xbae02f00	-0.0017103851
197	0x3e88ebf4	0.26742518
198	0xbcfd0c20	-0.03088957
199	0x3f285ab2	0.6576339
200	0xbe724867	-0.23660432
201	0xbed06786	-0.40703982
202	0xbeb29957	-0.34882614
203	0xbea3c40b	-0.31985506
204	0xbc298e0b	-0.010348807
205	0xbe141115	-0.14459641
206	0x3dc086be	0.094007
207	0xbedf1be4	-0.43575966
208	0xbde99b23	-0.11406543
209	0xbf079a92	-0.5297023
210	0xbe5d4754	-0.21609241
211	0x3e4dac73	0.20085315
212	0xbe8dd94b	-0.27704844
213	0x3e2595ab	0.16170375
214	0x3ee88703	0.45415506
215	0xbe86d327	-0.2633297
216	0x3df19402	0.117958084
217	0xbe098e7a	-0.13433257
218	0xbe828beb	-0.25497374
219	0xbf1b5ab8	-0.606853
220	0x3edad5aa	0.42741138
221	0x3d9649a2	0.07338263
222	0x3e19ea5f	0.15030812
223	0xbdfa8dd0	-0.1223408
224	0x3cd3eee3	0.025870746
225	0xbee91bd0	-0.45529032
226	0x3e5fb624	0.21846825
227	0xbd2448cb	-0.040108483
228	0x3d92be2b	0.07165178
229	0x3e47479d	0.19460912
230	0xbdb5f0f7	-0.08883851
231	0xbe08477e	-0.13308522
232	0x3e6974ed	0.2279851
233	0xbe66dc42	-0.22544959
234	0xbcb70a90	-0.022343904
235	0x3b34cad8	0.0027586725
236	0xbe00131f	-0.12507294
237	0xbf07e4a8	-0.53083277
238	0x3da3023a	0.07959409
239	0x3e5491b6	0.2075871
240	0x3e470315	0.1943477
241	0xbe4b3e1f	-0.19847916
242	0xbeff07ae	-0.49810547
243	0xbefa1929	-0.4884732
244	0xbcda3d58	-0.02664058
245	0x3d2714ac	0.0407912
246	0xbf0fe33f	-0.56206125
247	0xbc8c3cac	-0.017118774
248	0xbee7cd94	-0.4527403
249	0xbe93f528	-0.28897977
250	0xbd3954ea	-0.045246996
251	0x3f1b3171	0.60622317
252	0x3eb51750	0.3536935
253	0x3cd2b9fb	0.025723448
254	0x3ea20c4d	0.3165001
255	0x3eb66897	0.3562667

all_embed.embed_2.bias f4 [128]
0	0x3d830cbd	0.06398914
1	0xbd5e2d4d	-0.05424242
2	0x3e0256d4	0.12728435
3	0xbe424986	-0.1897336
4	0x3d12fc63	0.035885226
5	0x3d374d56	0.044751488
6	0xbe4b44ea	-0.19850507
7	0xbe255380	-0.16145134
8	0x3d789b41	0.060694937
9	0x3d15cb13	0.03657062
10	0xbde233d1	-0.110450394
11	0x3bc7baac	0.006095251
12	0xbd9d9d11	-0.07695974
13	0xbd2d4f72	-0.042312093
14	0xbd80f3aa	-0.06296475
15	0xbe172cd9	-0.14763202
16	0xbe634ba0	-0.22196817
17	0x3dac36fe	0.084089264
18	0xbbf378b3	-0.00743016
19	0xbd8a39b3	-0.067492865
20	0xbe5b2a3c	-0.2140283
21	0x3d6d644d	0.057956982
22	0xbd64b113	-0.055832934
23	0xbd6200d6	-0.05517658
24	0xbe96db80	-0.2946434
25	0xbce36865	-0.02775974
26	0xbe0343d4	-0.12818843
27	0x3e1d9c80	0.15391731
28	0xbe7e5682	-0.24837688
29	0xbd053f11	-0.032530848
30	0xbdbfaea3	-0.09359481
31	0xbe96ccb4	-0.2945305
32	0xbe2ad774	-0.16683751
33	0xbde9d48d	-0.11417494
34	0xbe9ebf1e	-0.31005186
35	0xbd02cb3c	-0.0319321
36	0xbe453c27	-0.19261228
37	0x3b368daf	0.0027855446
38	0x3db7ff2c	0.08984217
39	0x3d47126b	0.04860155
40	0xbe66029e	-0.22461936
41	0xbd219aec	-0.039454386
42	0x3cbe3f58	0.023223564
43	0xbbd945a7	-0.0066306177
44	0x3c72b3a0	0.014813334
45	0xbe486a70	-0.19571853
46	0x3d5971b7	0.053086963
47	0x3d4f9a46	0.050684236
48	0x3cdc3ff6	0.026885968
49	0xbe0c56c4	-0.13704973
50	0x3da69ae4	0.08135012
51	0xbd3ea08c	-0.04653983
52	0xbdca7677	-0.098858766
53	0xbdb9972d	-0.090620376
54	0xbd5fa1ce	-0.05459767
55	0xbe0bffce	-0.136718
56	0xbe1db307	-0.15400325
57	0xbe92e261	-0.28688338
58	0xbdbd1d02	-0.092340484
59	0xbdd0d973	-0.10197725
60	0x3c134fd5	0.008991201
61	0xbe3a275c	-0.18179077
62	0xbe0e5284	-0.13898665
63	0xbc375c52	-0.0111914445
64	0xbd32c32d	-0.043643165
65	0xbd64eba0	-0.055888772
66	0xbe3f73e3	-0.18696551
67	0xbe28dc58	-0.16490304
68	0xbe8310da	-0.25598794
69	0xbe3b4539	-0.18288125
70	0xbe8d5baf	-0.27609012
71	0xbe13012f	-0.1435592
72	0xbe6d186d	-0.23153849
73	0xbe1d6c62	-0.15373376
74	0xbceb51ac	-0.028725468
75	0xbd29a5da	-0.041417934
76	0xbe142f4c	-0.14471167
77	0xbe779af3	-0.24180202
78	0xbd8c7d36	-0.068598196
79	0x3b2c2c16	0.0026271394
80	0xbdede3b6	-0.11615698
81	0x3c9d2266	0.019181442
82	0xbe08af63	-0.13348155
83	0xbdc5ed93	-0.09664454
84	0xbd8c544f	-0.06852018
85	0xbe2795e1	-0.16365768
86	0xbdd4cd59	-0.103907295
87	0xbd0d0677	-0.034429993
88	0xbdaf4d02	-0.0855961
89	0xbd6bdb83	-0.05758239
90	0xbe5ab104	-0.21356589
91	0xbe2a86f9	-0.1665305
92	0x3de02bff	0.109458916
93	0xbd928c44	-0.0715566
94	0xbe20eccc	-0.15715331
95	0xbd7ce164	-0.061738387
96	0x3e21e9f1	0.15811898
97	0xbe6880af	-0.22705339
98	0xbe12b13a	-0.14325419
99	0xbd854763	-0.065077566
100	0xbdaca8ee	-0.08430658
101	0xbe4955eb	-0.19661681
102	0xbe5dc576	-0.21657357
103	0xbeb69c89	-0.35666302
104	0xbce835ed	-0.028346026
105	0xbe62aa00	-0.22135162
106	0xbdf9192a	-0.12163003
107	0xbbe78d1f	-0.0070663835
108	0xbdd6f6ef	-0.104963176
109	0x3c9e5c64	0.019331165
110	0xbe5361ba	-0.20642748
111	0x3d2d0d22	0.042248853
112	0xbe0fc4bf	-0.14039896
113	0xbde544e8	-0.111947834
114	0xbd51ce67	-0.05122223
115	0x3da02eb4	0.07821408
116	0xbdc63885	-0.09678749
117	0xbdc08171	-0.09399689
118	0xbdda7858	-0.10667485
119	0xbe16029a	-0.1464943
120	0xbe17fdd9	-0.14842929
121	0xbe62adfb	-0.22136681
122	0xbe3d39a8	-0.18479025
123	0xbd19a929	-0.03751484
124	0x3d5a4dc7	0.05329683
125	0x3e458473	0.19288807
126	0xbc672462	-0.014107795
127	0x3d5b2488	0.053501636

pointer.v f4 [1, 1, 128]
0	0x3e059f63	0.13049082
1	0x4014dbe2	2.3259206
2	0xbf9b921e	-1.2153966
3	0x403b1f4f	2.923786
4	0xbf548362	-0.83012974
5	0x40075396	2.1144767
6	0x4042e0ab	3.0449626
7	0x4030c63f	2.7621
8	0xc03d6d1c	-2.9597845
9	0xbffab521	-1.9586526
10	0x3fdb0d19	1.7113372
11	0xbfa3cbfa	-1.2796624
12	0x4023882a	2.5551858
13	0xbf2da10f	-0.6782388
14	0x4026a596	2.6038566
15	0xbfcc2a0b	-1.595033
16	0x40300b67	2.750696
17	0xbfb9c004	-1.4511724
18	0xbf9355e3	-1.1510586
19	0x401fa303	2.4943244
20	0xbfd361b9	-1.6514198
21	0xbf8ed94b	-1.1160063
22	0x3f740106	0.9531406
23	0xbf3be16b	-0.73390836
24	0x400e582c	2.2241316
25	0xbeaa9294	-0.33314955
26	0x3f9d6085	1.229508
27	0xbf9f4c45	-1.2445151
28	0xbfbb2b87	-1.4622658
29	0xbfb30e03	-1.3988651
30	0x3fe4a6dd	1.7863423
31	0x4010bdd6	2.2615867
32	0x3ff5766c	1.9176764
33	0x40502b0d	3.2526276
34	0x4033118a	2.7979455
35	0x3fdb8082	1.7148592
36	0x3fe2c073	1.7714981
37	0x3f57935d	0.84209234
38	0x3e1d167b	0.15340607
39	0xbfad7738	-1.3552008
40	0x3ffab585	1.9586645
41	0xbf922470	-1.141737
42	0x3f6ec439	0.9326816
43	0x40222b44	2.5338907
44	0xbfde9551	-1.7389318
45	0xbfdb0fe5	-1.7114226
46	0xbdee8a34	-0.11647454
47	0x3ffce6bf	1.9757918
48	0x3ff1fff4	1.8906236
49	0xbff852a6	-1.9400222
50	0xbfdb0548	-1.7110987
51	0xc07bc5e7	-3.933954
52	0xbfbeb011	-1.4897481
53	0x3ff2421f	1.8926429
54	0xbfd27b95	-1.6443964
55	0x3faefac2	1.3670275
56	0xbff0ec0b	-1.8822035
57	0x3ff0d5ef	1.8815287
58	0x3ff7e955	1.9368082
59	0xbff9db89	-1.9520122
60	0x3f6913d0	0.91045856
61	0x4013a8fc	2.307189
62	0xbfdacf4d	-1.7094513
63	0xbf939f64	-1.1533017
64	0x3f120d66	0.57051694
65	0x3efc4ed8	0.49278903
66	0x40097d40	2.1482697
67	0x3fd3767a	1.6520531
68	0x4013038e	2.297092
69	0xbff125c2	-1.8839648
70	0x406a6669	3.6625006
71	0xbff0aecf	-1.8803347
72	0xbff0a834	-1.8801332
73	0x4045965c	3.0873022
74	0xbffae2be	-1.9600446
75	0x3e905787	0.28191778
76	0xbf035323	-0.5129873
77	0x3ff8da49	1.9441615
78	0xbffb7b82	-1.9647067
79	0xbef659fa	-0.48115522
80	0xbf99302f	-1.196783
81	0xbea0ff84	-0.31444943
82	0x3ffa81bb	1.9570841
83	0xbfea6609	-1.8312389
84	0x3ee04f5a	0.4381054
85	0x3ffa6a24	1.9563642
86	0x40352acb	2.8307369
87	0x40394f0e	2.89545
88	0x3fbb60ef	1.4638957
89	0xc0013c32	-2.019299
90	0x404c9560	3.1966171
91	0xc00c0bf7	-2.1882303
92	0xbf5d9e77	-0.86569923
93	0xbe37417c	-0.17896074
94	0xbff02604	-1.8761601
95	0xc0097485	-2.1477368
96	0xbfa8c723	-1.3185772
97	0x3fe38801	1.777588
98	0x3f96282a	1.1731007
99	0xbfd9a4ac	-1.7003379
100	0xc0141398	-2.313696
101	0x40196998	2.39707
102	0x40306224	2.75599
103	0x3ff2497a	1.8928673
104	0xbfbe2e0f	-1.4857806
105	0xc03e3699	-2.9720824
106	0xbfc83308	-1.5640574
107	0xbff13896	-1.8845394
108	0xc00fa3bf	-2.2443693
109	0xc0200dff	-2.5008543
110	0x406bec7d	3.686309
111	0xbfb06da3	-1.3783458
112	0xc0537c19	-3.3044493
113	0xc02901de	-2.640739
114	0x3f9c7c78	1.2225485
115	0x3f3c7dcc	0.7362945
116	0x404ff5e2	3.2493825
117	0x3fa2f52e	1.2731073
118	0xc00049c8	-2.0045033
119	0x3f82b82f	1.0212458
120	0x3fd97089	1.6987468
121	0x403c364f	2.9408147
122	0x4036ff97	2.85935
123	0x3fedb44b	1.8570646
124	0xc012595a	-2.2867036
125	0xbfae1f3a	-1.360328
126	0xbe90d262	-0.2828551
127	0x3d57f000	0.052719116

pointer.encoder_attn.v f4 [1, 1, 128]
0	0xbd883956	-0.06651561
1	0x3de2d6cb	0.11076125
2	0x3df79134	0.12088242
3	0xbd852d7b	-0.06502815
4	0x3decd780	0.11564541
5	0x3dd25c07	0.10271459
6	0xbe01c241	-0.12671758
7	0x3dca787f	0.09886264
8	0x3dd7b8cc	0.10533294
9	0x3d6c3fcd	0.057678033
10	0xbdd06770	-0.10175979
11	0x3d96fdcf	0.07372629
12	0xbdbd6308	-0.09247404
13	0x3ca22a60	0.019795597
14	0xbde80692	-0.11329378
15	0x3dcc7914	0.09984031
16	0xbe0e134c	-0.13874549
17	0x3da12220	0.07867837
18	0xbe46e9a1	-0.1942506
19	0x3e139717	0.14413105
20	0xbdff27e8	-0.124587834
21	0x3dd18907	0.10231214
22	0xbd98ba36	-0.07457392
23	0xbe11242e	-0.14173958
24	0x3e10057a	0.14064589
25	0xbe122a6b	-0.14273994
26	0xbe08aaf9	-0.13346471
27	0xbd57c703	-0.052680027
28	0xbe089585	-0.13338287
29	0xbccea6bd	-0.025225991
30	0xbc928359	-0.017884897
31	0xbd99177a	-0.07475181
32	0x3dd708ec	0.104997486
33	0xbda7004c	-0.081543535
34	0xbe352dea	-0.17693296
35	0x3d9d8517	0.076914005
36	0xbdb1eef8	-0.08688158
37	0xbcba2710	-0.022723705
38	0xbdda2df0	-0.10653293
39	0xbe62dcae	-0.22154495
40	0xbda4720c	-0.08029565
41	0x3dbac1ba	0.09118982
42	0x3d7de7b9	0.061988566
43	0x3d70f46c	0.05882685
44	0xbda6f150	-0.081514955
45	0x3dec2f44	0.11532453
46	0x3e5d5a61	0.21616508
47	0x3c490e2a	0.012271443
48	0x3e39d50f	0.18147682
49	0x3e155ff1	0.1458738
50	0xbe1a05ae	-0.15041229
51	0xbe64d40f	-0.22346519
52	0xbdf96af5	-0.121786036
53	0x3d8a5b93	0.06755748
54	0xbdcdba00	-0.10045242
55	0xbdbf2184	-0.093325645
56	0xbe24fd4f	-0.16112255
57	0xbdc92e05	-0.09823231
58	0xbdade3ee	-0.0849074
59	0x3d52520d	0.05134778
60	0x3dea9570	0.11454284
61	0x3e1ebede	0.15502498
62	0xbde9f72d	-0.11424098
63	0x3d254edc	0.04035841
64	0x3cde464c	0.02713313
65	0xbde1e4f9	-0.11030001
66	0xbe31ebbd	-0.17375083
67	0xbe459b40	-0.19297504
68	0x3de398ac	0.11113104
69	0x3dd36b75	0.1032323
70	0x3d0523a9	0.03250471
71	0x3e0a85de	0.13527629
72	0xbdba5629	-0.09098465
73	0xbe114c1a	-0.14189187
74	0xbd63112c	-0.0554363
75	0x3cfb252f	0.030657379
76	0xbdef758a	-0.11692341
77	0xbe519cff	-0.20470046
78	0x3dda8a97	0.10670965
79	0x3d80fa3c	0.062977284
80	0x3d7d15af	0.061788257
81	0x3e31d325	0.17365701
82	0xbe280bac	-0.16410702
83	0x3d07f988	0.033196956
84	0x3d0f2d20	0.034955144
85	0x3e483277	0.19550501
86	0x3d17cf27	0.03706279
87	0x3e343f90	0.17602372
88	0x3ddd87a6	0.108168885
89	0x3d946d5b	0.072474204
90	0xbe229374	-0.15876561
91	0xbdae1809	-0.08500678
92	0x3a477661	0.00076088874
93	0x3d382a53	0.04496224
94	0x3e1b01a0	0.15137339
95	0xbe3eed48	-0.18645203
96	0x3ca30d15	0.019903699
97	0xbe46ab24	-0.19401222
98	0x3e268f0e	0.16265509
99	0xbe0c99af	-0.137305
100	0x3dc9c597	0.098521404
101	0x39d9b801	0.0004152656
102	0xbd7a9e3e	-0.061186068
103	0x3e5166a0	0.20449305
104	0x3da652c4	0.08121255
105	0xbd88f7f4	-0.06687918
106	0x3deb2cdf	0.11483168
107	0x3d9a4267	0.075321965
108	0x3c7e71cc	0.015530061
109	0xbde9509a	-0.11392327
110	0xbdaa01b8	-0.08301109
111	0x3d56bacc	0.052424237
112	0xbdf6ef21	-0.12057329
113	0x3e3c1258	0.18366373
114	0xbd6f4ff0	-0.058425844
115	0x3e2c74e7	0.1684147
116	0x3e580d89	0.21098913
117	0xbd6ed9db	-0.058313232
118	0x3e0c6370	0.13709807
119	0x3d98c235	0.07458917
120	0xbdd752b9	-0.10513825
121	0xbdaeab8f	-0.08528816
122	0x3d89753f	0.06711816
123	0x3d456179	0.04818866
124	0x3d10b765	0.03533115
125	0x3dfe1b7f	0.12407588
126	0x3dd0e640	0.10200167
127	0x3d6782ec	0.05652134

pointer.encoder_attn.W f4 [1, 128, 256]
0	0xbc140c19	-0.009036087
1	0x3ca5b53d	0.020228023
2	0xbc0062a2	-0.007836016
3	0x3ca92476	0.020647269
4	0xbce2e90a	-0.027699012
5	0x3d12fdcd	0.035886575
6	0x3d0cccbc	0.034374937
7	0x3c2f6946	0.0107062515
8	0x3db21cf5	0.08696929
9	0xbb8131db	-0.003942711
10	0x3df6cbaf	0.12050568
11	0x3c296927	0.010340012
12	0x3dba1d8e	0.09087668
13	0xbca34b68	-0.019933417
14	0x3d291f40	0.041289568
15	0xbc27abf8	-0.010233872
16	0x3cd5668d	0.026049877
17	0xbdd14d7d	-0.10219858
18	0x3c71268f	0.014718666
19	0x3d752ff3	0.05986018
20	0x3c862c4e	0.016378548
21	0x3d54e1b1	0.05197305
22	0xbc15ed7c	-0.009150859
23	0x3ac9ad9e	0.0015386825
24	0x3d82a22a	0.063785866
25	0xbb137fa5	-0.0022506502
26	0xbbf51147	-0.0074788663
27	0x3d688ae9	0.0567731
28	0x3c746708	0.014917143
29	0x3c44befe	0.012008427
30	0x3dbd9dea	0.09258635
31	0x3d3e5fda	0.04647813
32	0x3d572c0e	0.05253225
33	0x3c951728	0.018199518
34	0x3d3ded3c	0.046368822
35	0x3cc2ab65	0.023763368
36	0x3cd6c1a4	0.026215382
37	0xbcd3ea68	-0.02586861
38	0x3acd0534	0.001564181
39	0xbd15b04d	-0.036545087
40	0x3d8d1e2e	0.06890522
41	0xbc964d27	-0.018347336
42	0xbaa443a5	-0.0012532367
43	0x3c7acbe3	0.015307399
44	0xbdaca4e0	-0.08429885
45	0x3cde5f8e	0.027145173
46	0xbcfd70a9	-0.03093751
47	0x3d1b9206	0.037981056
48	0xbbbf2ee1	-0.005834446
49	0xbb3af0e4	-0.002852493
50	0x3d11063d	0.03540634
51	0x3da70f60	0.081572294
52	0xbcbad8f8	-0.022808537
53	0x3d04a8fc	0.03238772
54	0x3d4fb3bd	0.05070852
55	0xbd342061	-0.04397619
56	0x3d1c1cc3	0.038113367
57	0x3d9f1af2	0.07768811
58	0x3d30fa82	0.043207653
59	0xbc819cd5	-0.015821854
60	0x3c801e72	0.015639517
61	0x3d97da27	0.07414656
62	0x3d930840	0.07179308
63	0x3caef032	0.021354768
64	0xbc9d3c17	-0.019193692
65	0xbd4bfa91	-0.049799506
66	0x3d7fbcbb	0.062435847
67	0x3d0f7fcb	0.035033982
68	0x3d60c433	0.05487461
69	0x3d80f584	0.062968284
70	0x3d7b2ba3	0.061320912
71	0x3d514135	0.051087577
72	0x3d5c93e6	0.053851984
73	0x3d049ae4	0.032374278
74	0xbccae971	-0.024769517
75	0xbd901414	-0.070350796
76	0x3b0b0f0a	0.002121868
77	0x3d8a6a67	0.06758576
78	0x3d37757e	0.044789784
79	0x3c603dc0	0.013686597
80	0x3b8ae99e	0.004239275
81	0xbc173212	-0.009228246
82	0x3d162d27	0.036664154
83	0x3ccb0de0	0.02478689
84	0xbbd28cdc	-0.006425483
85	0x3d8baaf0	0.06819713
86	0x3db3f227	0.08786421
87	0x3dcacdb0	0.09902513
88	0xbbc7db44	-0.0060991365
89	0xbc845d3d	-0.01615774
90	0x3d1c01fb	0.038087826
91	0x3d9dd551	0.077067025
92	0x3c9c2cc0	0.019064307
93	0x3d0774f6	0.033070527
94	0xbcd30911	-0.02576116
95	0x3d70cbef	0.058788236
96	0xbcbd3f1b	-0.02310138
97	0x3d2c3c57	0.042049732
98	0xbcc68753	-0.02423445
99	0xbd16ff9c	-0.03686486
100	0x3dac9452	0.08426727
101	0x3d57e288	0.05270627
102	0x3dcc3fea	0.09973128
103	0x3d42fce2	0.04760445
104	0x3b38cadc	0.0028197085
105	0x3e03cf12	0.1287196
106	0x3c96714b	0.01836457
107	0xbd4f621e	-0.05063068
108	0x3d923d97	0.071406536
109	0x3dff271d	0.12458632
110	0xbc33ab7e	-0.01096618
111	0x3cc5a90a	0.024128456
112	0x3e16ed5d	0.14738984
113	0x3da5c0e9	0.08093435
114	0x3c6533c1	0.01398939
115	0x3c28a8bb	0.010294135
116	0x3cdbb78f	0.026820926
117	0x3c1f4f8a	0.009723553
118	0x3da86cba	0.08223863
119	0xbd135fa0	-0.035979867
120	0x3cdda1e7	0.02705474
121	0x3d6ffe34	0.058592036
122	0x3d695901	0.056969646
123	0x3d2b578f	0.04183155
124	0xbb0526de	-0.0020317356
125	0x3d4ffca5	0.05077805
126	0x3d299fad	0.041412044
127	0xbaa4085f	-0.0012514702
128	0xbcb8693c	-0.022511117
129	0x3d5efcdc	0.054440364
130	0x3c4d6ba3	0.01253787
131	0xbd99a0a9	-0.075013466
132	0xbd3e5435	-0.046467025
133	0x3cef95f3	0.029246306
134	0x3bfbacbf	0.007680505
135	0xbc9d9d42	-0.019240025
136	0x3d06fdd3	0.03295691
137	0xbd8303bd	-0.063971974
138	0xbcb9cc7d	-0.022680515
139	0x3d63dc76	0.05563017
140	0xbd45d833	-0.048301887
141	0xbd114514	-0.03546627
142	0x3d363313	0.044482302
143	0x3be63ae0	0.0070260614
144	0xbd40f07e	-0.04710435
145	0x3c13e020	0.0090256035
146	0x3d76a8e8	0.060219675
147	0xbc86142b	-0.016367039
148	0x3d48af3e	0.04899525
149	0x3d890487	0.06690317
150	0x3c0b8102	0.008514645
151	0x3c0f6c7f	0.008753895
152	0xbcb95f0e	-0.022628333
153	0xbd34b254	-0.04411538
154	0xbd3384e5	-0.04382791
155	0x3c8d76da	0.017268587
156	0xbcf276c1	-0.029597642
157	0xbc103c40	-0.008803427
158	0x3c71ab09	0.014750251
159	0x3d697aae	0.057001762
160	0xbc77b143	-0.015117946
161	0xbcaa24d9	-0.020769523
162	0x3cb39553	0.02192179
163	0xbd7653f6	-0.060138665
164	0x3d61eb0d	0.055155803
165	0x3d04e09d	0.03244077
166	0x3bb680d8	0.0055695586
167	0xbd1ff2e0	-0.039049983
168	0x3ca42f9f	0.020042239
169	0x3d385472	0.04500241
170	0x3d171c43	0.036892187
171	0x3d1a7454	0.037708595
172	0xbd9155ec	-0.070964664
173	0x3d4ef470	0.050526083
174	0x3d27a6ad	0.04093044
175	0x3d08ea46	0.033426546
176	0xbc395949	-0.011312791
177	0xbc1df956	-0.009641966
178	0x3c21eb12	0.009882705
179	0x3d251d97	0.040311422
180	0x3d320972	0.04346604
181	0x3c2852ba	0.01027363
182	0x3b4add1f	0.0030954552
183	0xbd6a3425	-0.057178635
184	0x3cdabd0f	0.026701478
185	0xbd2b6b23	-0.04185022
186	0x3cd6118b	0.026131412
187	0x3bebdaa6	0.007197696
188	0x3c843230	0.016137213
189	0xbd1c3865	-0.03813972
190	0xbb902244	-0.004398616
191	0x3c7140c5	0.014724915
192	0xbd366c6c	-0.044536993
193	0x3cf864aa	0.030321438
194	0xbd5039fd	-0.050836552
195	0x3cceedf6	0.025259953
196	0xbceefab4	-0.029172279
197	0x3c0ab28d	0.008465421
198	0x3b874bf3	0.004128927
199	0xb6561591	-3.1901038e-06
200	0x3cf16779	0.029468285
201	0xbc0a5659	-0.008443438
202	0xbc9b4389	-0.018953102
203	0x3d3da20b	0.046297114
204	0xbd02bd35	-0.031918723
205	0x3d6a98c0	0.05727458
206	0x3d242112	0.0400706
207	0x3cc1e9e6	0.023671102
208	0x3d88462c	0.06654009
209	0xbba2f8d5	-0.0049735107
210	0xbd2e55bd	-0.042562235
211	0x3ca329e0	0.019917428
212	0xbd8ba718	-0.0681898
213	0x3c2d5f5f	0.01058182
214	0xb94171ad	-0.00018448262
215	0x3d38fef5	0.04516502
216	0x3db5ff8d	0.08886633
217	0x3ce0fc6d	0.027464116
218	0xbd364694	-0.044500902
219	0x3cc25e7c	0.023726694
220	0x3bf8cdec	0.007592907
221	0xbc2a92fa	-0.0104110185
222	0x3d6fee66	0.058576964
223	0x3d75a96d	0.05997603
224	0x3c82c7e5	0.015964458
225	0xbc97ae4e	-0.018515732
226	0xbd9eb16f	-0.077486865
227	0x3c950904	0.018192776
228	0x3b823b18	0.0039743297
229	0xbd417d22	-0.047238477
230	0xbc79d747	-0.01524908
231	0x3cee1c9e	0.02906638
232	0xbcd1eb06	-0.025624763
233	0xbd490e1a	-0.049085714
234	0xbcc545ad	-0.024081076
235	0x3d13a185	0.03604271
236	0xbcfe9971	-0.031079026
237	0xbd9e7e22	-0.07738902
238	0x3d651ec0	0.05593753
239	0x3ca0fd3f	0.019652007
240	0xbd9eaae6	-0.0774744
241	0x3b034cac	0.0020034714
242	0xbc060624	-0.008180175
243	0xbb119743	-0.0022215403
244	0x3da11de1	0.07867027
245	0x3d8c7135	0.0685753
246	0x3d4bb0f5	0.049729306
247	0x3ca98296	0.020692151
248	0xbd851f73	-0.06500139
249	0x3a4f2734	0.0007902265
250	0x3b43120f	0.0029765402
251	0x3c00cfa3	0.007862004
252	0xbd297578	-0.041371793
253	0x3d4f9cc9	0.05068663
254	0x3d47ea49	0.048807416
255	0x3cd0f81a	0.025508929

pointer.fc1.weight f4 [128, 256]
0	0xbcf63e7d	-0.030059094
1	0x3cca2930	0.024677843
2	0xbce7966e	-0.028269973
3	0xbdbb5b0d	-0.09148226
4	0xbcb65f48	-0.02226223
5	0x3cde462c	0.02713307
6	0x3df85559	0.12125654
7	0x3de3e08d	0.11126814
8	0xbdf20a5e	-0.11818384
9	0xbe0224f5	-0.1270941
10	0xbe0553d1	-0.13020255
11	0x3d26d1a9	0.04072729
12	0x3e263829	0.16232361
13	0xbb9186e6	-0.00444113
14	0xbd1a1385	-0.03761627
15	0x3af8bad2	0.0018976575
16	0x3d8a6223	0.06756999
17	0x3db25ef9	0.08709521
18	0x3c89d990	0.016827375
19	0x3e037eb2	0.12841299
20	0x3cefa3dc	0.029252939
21	0x3da4b0c6	0.08041529
22	0xbdaeff39	-0.085447736
23	0x3d1fe6f9	0.039038632
24	0xbdbc584b	-0.09196528
25	0xbd56876d	-0.052375246
26	0x3d4ceb7d	0.050029267
27	0x3d3093ae	0.04310959
28	0x3acabd22	0.0015467743
29	0x3d37ee36	0.04490491
30	0x3d189d21	0.037259225
31	0x3e16485e	0.14676043
32	0x3d12aea5	0.035811085
33	0x3d80e8e8	0.06294423
34	0xbd2daa05	-0.04239847
35	0x3c428572	0.011872636
36	0xbd1c7aab	-0.038202923
37	0x3dd00460	0.101570845
38	0x3d99cfec	0.07510361
39	0xbd064631	-0.032781783
40	0xbd944b63	-0.072409414
41	0xbd3a9be6	-0.045558833
42	0xbc89cf4d	-0.016822482
43	0xbd761268	-0.060076147
44	0xbcdd5435	-0.027017692
45	0xbceff447	-0.029291285
46	0xbc42fdca	-0.011901328
47	0xbd4b9f2f	-0.049712356
48	0x3d071f55	0.032988865
49	0xbd950c02	-0.07277681
50	0x3d29d547	0.041463163
51	0x3d0781d4	0.033082798
52	0xbd83316c	-0.06405911
53	0xbd1a620d	-0.037691165
54	0xbd0d24d3	-0.034458946
55	0xbd0d84c1	-0.034550432
56	0x3db18ce3	0.0866945
57	0xbd48171a	-0.048850156
58	0xbd9e01a3	-0.07715156
59	0xbd930e56	-0.07180469
60	0x3c9fbfa0	0.019500554
61	0x3daafe76	0.08349316
62	0xbe00e3ff	-0.12586974
63	0xbd4a984a	-0.04946164
64	0x3de07e2d	0.10961566
65	0xbd87b321	-0.06625963
66	0xbdb3c4d3	-0.087777756
67	0x3df28f30	0.11843717
68	0xbdcbe9f3	-0.09956732
69	0xbd5b1acc	-0.053492352
70	0x3d5e3b05	0.054255504
71	0xbd87c1f0	-0.066287875
72	0xbcf47023	-0.029838627
73	0xbd8304cd	-0.063974
74	0x3e001f9a	0.12512055
75	0xbd57b157	-0.05265936
76	0x3d1cf8f3	0.038323354
77	0xbd77443b	-0.060367804
78	0xbc3342d4	-0.010941226
79	0xbe0569a6	-0.13028583
80	0x3e014326	0.12623271
81	0xbe02bba9	-0.12766899
82	0x3cc47fe7	0.02398677
83	0x3e026d7b	0.12737076
84	0xbc515b04	-0.0127780475
85	0x3cf56b46	0.029958379
86	0x3e1b6b6f	0.15177701
87	0xbca60391	-0.020265372
88	0x3d0211d9	0.031755302
89	0x3c35e49a	0.011101866
90	0xbd624ac1	-0.055247072
91	0xbced71a9	-0.028984861
92	0x3daf8ab2	0.08571376
93	0x3ddddd78	0.108332574
94	0x3e01e971	0.12686707
95	0x3c3a9700	0.01138854
96	0x3e16fe1e	0.14745376
97	0x3ddf80d4	0.10913244
98	0x3e1adc38	0.1512307
99	0xbc9907a0	-0.018680394
100	0xbe07bb93	-0.13255148
101	0x3d21c521	0.039494637
102	0x3dbd7f1b	0.09252759
103	0xbd04abd9	-0.03239045
104	0x3da6be91	0.081418164
105	0x3d93c37b	0.07215019
106	0x3d2232c5	0.0395992
107	0xbdad2538	-0.084543645
108	0xbd55a95f	-0.052163478
109	0x3d4b3e2d	0.049619842
110	0xbdae5ebb	-0.08514162
111	0x3cb679cc	0.022274874
112	0xbdf13279	-0.11777205
113	0xbe009ac6	-0.12559041
114	0x3e319597	0.1734222
115	0xbd48a5b4	-0.04898615
116	0x38e5ec89	0.00010963629
117	0x3d6f35ee	0.05840104
118	0x3dd5c862	0.104386106
119	0x3db540c5	0.088502444
120	0x3cab12c2	0.020882968
121	0xbd90f540	-0.07078028
122	0xbd81cb78	-0.06337637
123	0xbc3b5575	-0.011433949
124	0xbcc76aa5	-0.024342844
125	0x3dfbb769	0.12290842
126	0x3d8b4370	0.06799972
127	0xbe132ad7	-0.14371811
128	0xbdeda1ac	-0.11603102
129	0x3d69bdec	0.05706589
130	0x3dc62e94	0.09676853
131	0x3ccba14d	0.024857188
132	0xbdd38086	-0.10327248
133	0x3d8d1b96	0.06890027
134	0xbdf22a78	-0.118245065
135	0xbda0746f	-0.07834708
136	0x3da589cf	0.080829255
137	0x3de88d8e	0.113551244
138	0x3c41dfde	0.011833159
139	0x3d4722f9	0.048617337
140	0xbc23d683	-0.009999874
141	0xbdd8d5ad	-0.105876304
142	0x3dcc8ed4	0.0998818
143	0x3c4bbb3f	0.01243478
144	0x3df4424a	0.11926706
145	0x3d90063e	0.070324406
146	0x3d723129	0.059128914
147	0x3dab9c03	0.08379366
148	0xbc8ccd40	-0.017187715
149	0xbdcd38f0	-0.100206256
150	0xbcb8c447	-0.02255453
151	0x3e15727f	0.14594458
152	0x3d5d853e	0.054082148
153	0x3d399ed8	0.0453175
154	0xbd69ee45	-0.057111997
155	0x3dd1fe34	0.102535635
156	0xbc3be0df	-0.011467188
157	0xbce90acc	-0.028447531
158	0xbd4c1534	-0.04982491
159	0xbd63a1dc	-0.055574283
160	0x3e1edf6f	0.1551492
161	0x3d9e10b8	0.077180326
162	0x3cfa84e2	0.030580942
163	0x3d58c2a9	0.052920017
164	0xba3c1f5a	-0.00071763026
165	0xbc2b2863	-0.010446641
166	0x3cff6b9f	0.031179247
167	0xbdbc95b1	-0.09208239
168	0x3d273ba4	0.040828362
169	0xbd57621f	-0.05258381
170	0xbc71cd0b	-0.014758359
171	0xbe02c851	-0.12771727
172	0xbb291034	-0.0025797011
173	0xbd30888f	-0.043098982
174	0x3d93ec51	0.07222808
175	0x3d8f8c0c	0.07009134
176	0x3dd2b451	0.10288299
177	0x3d6b130d	0.057391215
178	0xbdb4c222	-0.088260904
179	0xbdc94bcf	-0.098289125
180	0x3dba4045	0.0909429
181	0x3d625477	0.055256333
182	0xbd67a3ce	-0.0565527
183	0xbdbf3dd7	-0.09337967
184	0x3c0e49dd	0.008684603
185	0x3de56201	0.112003334
186	0xbd1d176d	-0.03835242
187	0x3c86ae12	0.016440425
188	0xbd81ab31	-0.0633148
189	0x3dbfbf21	0.09362627
190	0x3e0d4f21	0.13799717
191	0xbd2e0b6f	-0.042491373
192	0xbdf42b97	-0.119223766
193	0xbd28429a	-0.04107914
194	0xbd4fefc2	-0.05076576
195	0xbc1f0753	-0.009706336
196	0x3da5f4e2	0.08103348
197	0xbd689b0e	-0.056788497
198	0xbda1527b	-0.0787706
199	0x3d373f59	0.044738147
200	0x3e137777	0.14401041
201	0xbdb6ce60	-0.08926082
202	0x3d8f515b	0.06997939
203	0x3dbbe942	0.0917535
204	0x3da1d073	0.07901087
205	0xbcf54c01	-0.029943468
206	0x3d3b365b	0.045706134
207	0x3dc73d6c	0.09728512
208	0xbe02981e	-0.1275334
209	0x3d66eb75	0.056376893
210	0x3c2346c0	0.009965599
211	0x3df77091	0.12082017
212	0xbd48f9e8	-0.049066454
213	0x3da9943c	0.082802266
214	0x3e1bbf7f	0.15209769
215	0xbd98ebea	-0.07466872
216	0xbdefb053	-0.11703553
217	0xbd9f4eb5	-0.07778684
218	0x3e012475	0.12611564
219	0x3e158514	0.14601547
220	0x3d9d5e84	0.07684043
221	0xbda69bc0	-0.08135176
222	0xbdd47a8e	-0.10374938
223	0x3d8c06bb	0.06837221
224	0xbe043ced	-0.12913866
225	0x3cceb90e	0.025234725
226	0x3e044d7b	0.12920181
227	0xbdc49ba6	-0.096
228	0x3d2ceaee	0.042216234
229	0xbd6015c2	-0.05470825
230	0x3d6635d3	0.056203675
231	0x3df931f2	0.121677294
232	0x3dd59610	0.10429013
233	0x3da1adee	0.078945026
234	0xbcbcd107	-0.02304889
235	0x3ddb1713	0.106977604
236	0x3d77b6c4	0.060477033
237	0x3dbaaf3f	0.09115457
238	0xbe082688	-0.13295949
239	0xbc6f4a31	-0.014605091
240	0x3dd9b346	0.10629897
241	0xbaca1f82	-0.0015420767
242	0xbba02b59	-0.00488798
243	0xbda6e5b3	-0.081492804
244	0xbdab6b44	-0.08370069
245	0xbce62d14	-0.028097667
246	0xbd0c28b6	-0.034218512
247	0xbc6355d0	-0.01387544
248	0x3df2302b	0.118255936
249	0x3e01e8ed	0.1268651
250	0xbd471a89	-0.04860929
251	0x3db939d3	0.09044232
252	0xbd3bb5f7	-0.045827832
253	0x3b7d325c	0.0038634753
254	0x3d9a8e78	0.07546705
255	0xbdd94c7e	-0.10610293

pointer.fc1.bias f4 [128]
0	0x3c77a596	0.015115162
1	0x3d86b8ef	0.06578242
2	0xbd25c735	-0.04047318
3	0x3cde0651	0.027102621
4	0x3d475b02	0.048670776
5	0xbd15a0fb	-0.036530476
6	0x3d09e416	0.033664785
7	0xbc6814f2	-0.01416515
8	0xbcacb37a	-0.021081675
9	0x3cad6f09	0.02117111
10	0x3d5b683b	0.0535662
11	0xbcadaa6c	-0.021199428
12	0x3ce6603f	0.028122066
13	0x3d962eaa	0.07333119
14	0xbced6c78	-0.028982386
15	0x3cdd463f	0.027011035
16	0xbd15d4e2	-0.036579974
17	0x3c97fa34	0.018551923
18	0x3d33dfd7	0.043914642
19	0x3dab06ec	0.083509296
20	0x3cea597f	0.028607128
21	0xbb2d4f60	-0.0026445016
22	0xbd599e7d	-0.05312966
23	0xbd1748f6	-0.036934815
24	0xbd74c71e	-0.059760205
25	0x3d69b801	0.057060245
26	0xbd01bddc	-0.031675205
27	0xbdc7716a	-0.09738429
28	0xbd27f522	-0.04100526
29	0x3c4c66a9	0.012475648
30	0xbb66af8d	-0.0035199851
31	0x3db42e54	0.08797899
32	0x3a9dff0d	0.001205416
33	0x3cfef214	0.031121291
34	0xbbd5f473	-0.0065293848
35	0x3d2db9c9	0.042413507
36	0xbdb10f06	-0.086454436
37	0xbc1e5540	-0.00966388
38	0x3cd50b45	0.02600635
39	0x3cc4d9b0	0.024029583
40	0x3d84fe57	0.06493824
41	0xbd6da80a	-0.058021583
42	0xbd820c8c	-0.063500494
43	0xbd378260	-0.04480207
44	0x3c9af7f2	0.018917058
45	0x3bee762f	0.007277272
46	0x3c8ecfce	0.017433073
47	0x3cc2ea11	0.023793252
48	0xbd3d3ec3	-0.046202432
49	0xbdaf3ea2	-0.08556868
50	0x3cdc0533	0.026857948
51	0x3cf6dcab	0.03013452
52	0xbbf2913c	-0.007402567
53	0xbcaba5ed	-0.020953143
54	0xbc27be10	-0.0102381855
55	0xbcc8a065	-0.024490545
56	0xbd08456e	-0.03326934
57	0x3d81c0ad	0.06335578
58	0x3d8c4103	0.068483375
59	0xbc4636e5	-0.012098049
60	0xbbd73d22	-0.006568567
61	0x3d28b746	0.04119041
62	0x3dacc8eb	0.084367596
63	0x3c3c467f	0.011491417
64	0xbccf0320	-0.025270045
65	0xbd60d7c4	-0.05489327
66	0xbd4da893	-0.050209593
67	0xbd0d1a52	-0.03444893
68	0xbc4e174d	-0.0125787975
69	0x3d00a3d6	0.031406246
70	0xbdb586e4	-0.08863619
71	0x3d2b2e37	0.04179212
72	0xbbdc631a	-0.006725681
73	0x3af0ea05	0.001838029
74	0xbc5186e7	-0.012788511
75	0xbc7d6d84	-0.015468005
76	0x3d6e95a9	0.058248196
77	0x3d2d5fba	0.04232762
78	0x3d7c49a9	0.061593685
79	0x3c99888a	0.018741865
80	0x3d5cef59	0.053939197
81	0xbd4bea8a	-0.04978422
82	0x3da1d405	0.07901768
83	0xbdab76c5	-0.08372263
84	0x3cd40d92	0.025885377
85	0x3d68a4a6	0.056797646
86	0x3d388c76	0.04505583
87	0xbbefad0a	-0.007314329
88	0x3a01fcc5	0.0004958625
89	0x3aaccfc7	0.0013184481
90	0xbd85a27e	-0.065251336
91	0x3d6fea66	0.05857315
92	0x3d982e72	0.07430734
93	0x3d9b8955	0.075945534
94	0x3ab18c2e	0.0013545805
95	0x3d48cc0a	0.04902271
96	0xbd7cda03	-0.06173135
97	0x3cfb1b01	0.030652525
98	0xbd191d81	-0.037381653
99	0xbbb39ead	-0.005481562
100	0xbd3e6bd8	-0.046489567
101	0xbd4a472e	-0.04938429
102	0x3b64439f	0.0034830344
103	0x3c192053	0.009346086
104	0xbc43dd57	-0.011954627
105	0x3d456a23	0.048196923
106	0x3ce74c0a	0.0282345
107	0xbbead5fc	-0.007166622
108	0x3cb67207	0.02227117
109	0xbd82926b	-0.06375583
110	0x3d0ae4e6	0.0339097
111	0x3c768d27	0.015048302
112	0xbcf4df93	-0.029891765
113	0x3cba8c06	0.022771847
114	0xbd2decfb	-0.04246233
115	0xbc7d0343	-0.015442672
116	0x3d0aed6c	0.03391783
117	0xbcd0d349	-0.025491374
118	0xbd19c9e6	-0.03754606
119	0x3d9e4055	0.07727114
120	0xbcaf9a35	-0.021435836
121	0x3b9ae825	0.004727381
122	0xbd518816	-0.051155172
123	0x3d32d922	0.043664105
124	0xbb99acc7	-0.004689786
125	0xbcdd9f8d	-0.027053619
126	0xbda265e6	-0.07929592
127	0xbd11a107	-0.03555396
